wiki-RfA/models/wiki-RfA-train-1.pt (torch, 64395 bytes, 14 tensors)

conv1.lin_pos_l.weight f4 [32, 64]
000000 58 55 26 37 d7 02 56 b5 7c d0 dd 33 d7 ca 95 33
       9.914242e-06 -7.9725345e-07 1.03290375e-07 6.9752495e-08
000010 de 16 d5 b5 e6 38 90 34 6a 75 03 b6 2a 0e 9d b6
       -1.5876392e-06 2.686349e-07 -1.9588865e-06 -4.6806135e-06
000020 72 b9 98 35 46 bc d3 b5 38 ec 16 35 ba 12 b9 b3
       1.1378854e-06 -1.577552e-06 5.62231e-07 -8.61814e-08
000030 dc f9 9a 33 fb 98 eb b5 bb cf 73 35 98 60 c0 35
       7.216633e-08 -1.7553388e-06 9.082684e-07 1.4333227e-06
000040 d1 a4 e0 35 94 c0 90 b5 31 69 23 36 3f 31 a9 34
       1.6737268e-06 -1.0784884e-06 2.4350122e-06 3.1514534e-07
000050 87 d7 d4 34 37 dd d4 34 fc 19 99 34 7b 4e ec 34
       3.9644894e-07 3.9649032e-07 2.8517377e-07 4.4015528e-07
000060 26 64 48 b4 01 e4 b7 b4 d7 13 18 b5 50 af 50 34
       -1.8662885e-07 -3.42523e-07 -5.6653283e-07 1.9435288e-07
000070 10 9e e5 b5 24 47 c7 33 e3 69 55 35 9c e6 e8 b4
       -1.7107832e-06 9.2796e-08 7.950277e-07 -4.3381158e-07
000080 ec ee 88 34 51 69 b6 b3 d5 7c b5 b3 07 a4 0b 35
       2.5505813e-07 -8.4941924e-08 -8.451176e-08 5.2020226e-07
000090 6b 98 e0 33 9e 50 5b b4 88 5d cc 34 cb a1 cf b4
       1.04585375e-07 -2.0425293e-07 3.8066014e-07 -3.8674474e-07
0000a0 35 95 36 32 03 48 22 b5 8f d5 46 34 d9 92 8e b5
       1.062772e-08 -6.0454494e-07 1.8517879e-07 -1.0622563e-06
0000b0 64 e3 ac b5 23 59 dc 34 12 7d 44 b4 0a 51 77 35
       -1.2881178e-06 4.104305e-07 -1.8299423e-07 9.21326e-07
0000c0 aa 08 55 b4 08 68 17 b3 b7 36 05 36 a4 82 1a 32
       -1.9840323e-07 -3.5252043e-08 1.9850393e-06 8.993684e-09
0000d0 b3 fc a6 35 a7 da 17 32 d6 c4 88 34 a8 03 32 b4
       1.2441509e-06 8.839073e-09 2.547519e-07 -1.6578872e-07
0000e0 77 d4 0e 36 8b ea 51 b5 55 06 e9 b5 fd e4 22 33
       2.128332e-06 -7.819987e-07 -1.7361696e-06 3.7926828e-08
0000f0 36 6a 1c 36 ad ca a1 33 61 63 05 36 eb bc 48 b5
       2.3307634e-06 7.534013e-08 1.987639e-06 -7.478072e-07
000100 70 da 17 bf bc 15 63 bd af 43 a2 3d d7 56 db bd
       -0.59317684 -0.05544065 0.07923066 -0.10709923
000110 e1 1c ea bd e8 9e 5a bd a9 2c 86 3d 87 d8 96 3e
       -0.114312895 -0.0533742 0.06551487 0.29462072
000120 07 6c dd 3d 3e 31 f2 bb 93 e8 0a 3e 0e 41 cf 3d
       0.1081162 -0.007391124 0.13565283 0.1011983
000130 a8 f4 ff bc 97 72 07 bd 1c 08 92 bd d5 50 f2 bd
       -0.03124459 -0.033068266 -0.07130453 -0.11831824
000140 4f 08 32 3e 61 23 c0 bd 24 05 03 3e fb a7 2e be
       0.17385982 -0.09381748 0.1279493 -0.17056267
000150 58 c0 74 3c b3 87 db 3d 02 d7 58 bc d4 73 51 3d
       0.014938436 0.10719242 -0.013234856 0.051135853
000160 a0 ce 09 3e 1a 84 92 bd 32 f6 38 3d 8c c9 ff bd
       0.13457727 -0.071541026 0.045156665 -0.12489614
000170 f0 7e d2 3d 66 19 62 3e 5a 70 4e 3e ee ec 4d be
       0.10278118 0.22080001 0.20160046 -0.20109913
000180 a2 d8 ea 3c 69 a5 3c bd 8d 75 1a be 0a 8a 0d 3e
       0.028667752 -0.046056185 -0.15083905 0.13822189
000190 3d f4 32 3d 0b 44 d5 bd ef d1 84 3d 55 d5 39 3e
       0.043689955 -0.10413369 0.06485354 0.18147786
0001a0 29 b4 77 3d cf c9 b2 3c 33 9f e6 3d e5 77 11 3e
       0.06047455 0.021824745 0.112608336 0.14205892
0001b0 de 7d 74 bc 76 7e 3c 3e 28 e4 48 3d 7e ee 0a be
       -0.014922587 0.18407616 0.04904571 -0.1356754
0001c0 c9 a1 fa 3c df 01 ee 3d dc 37 d4 3d d1 b9 fe bd
       0.030594723 0.11621451 0.10362217 -0.124377854
0001d0 98 47 e2 bd fa cd 22 bc 46 b7 96 bd f6 9c bb 3d
       -0.11048812 -0.009936804 -0.073591754 0.09160797
0001e0 94 b7 cd bb 31 62 82 bc cf 93 9d bd 72 38 07 3e
       -0.0062779877 -0.015915962 -0.07694208 0.13205126
0001f0 ee ff 8f 3d 0d c9 5c 3c 98 17 de bd 4e 68 3e 3e
       0.070312366 0.013475669 -0.10844344 0.18594477
000200 7c d7 b3 32 27 be 82 31 be 74 05 b1 0a 91 1d 32
       2.0936334e-08 3.805116e-09 -1.9420408e-09 9.171581e-09
000210 f9 8f df b1 57 ee b6 af 31 2f ba 31 71 97 b0 b2
       -6.506522e-09 -3.3274958e-10 5.4186775e-09 -2.0557964e-08
000220 4d f8 43 32 b2 b6 b8 b1 42 19 b2 31 18 61 54 31
       1.1406951e-08 -5.375875e-09 5.1833533e-09 3.0905252e-09
000230 fe 5a 4d 32 42 b7 25 32 7a 2a 46 b0 69 6b d1 b0
       1.195326e-08 9.645932e-09 -7.2092343e-10 -1.5237279e-09
000240 17 5a b1 31 90 7c 90 32 d0 41 90 b1 eb 72 3e b1
       5.16162e-09 1.682045e-08 -4.1984336e-09 -2.7713962e-09
000250 b5 17 92 b1 dd e1 37 30 aa 16 dc b1 ff 05 8f b2
       -4.2518544e-09 6.6895983e-10 -6.4054193e-09 -1.6650118e-08
000260 5a 88 3d b1 d6 a8 34 31 14 d5 77 b1 81 b5 07 b1
       -2.7580627e-09 2.628942e-09 -3.6064352e-09 -1.9748259e-09
000270 49 47 a7 b1 22 8b 85 b1 3a 64 6c 31 65 f2 68 b0
       -4.868444e-09 -3.886627e-09 3.4399492e-09 -8.474557e-10
000280 d7 a3 84 30 d7 86 d9 31 c5 16 76 b2 e4 42 f4 af
       9.65083e-10 6.3308607e-09 -1.4324262e-08 -4.443087e-10
000290 f5 50 41 b2 59 af 3d 31 af 5f aa 30 33 05 60 b1
       -1.1252486e-08 2.7602793e-09 1.2396323e-09 -3.2599246e-09
0002a0 d6 c9 54 32 4a 1b 24 b1 88 cc 0d 32 5e b3 d4 b1
       1.2385916e-08 -2.3880653e-09 8.253785e-09 -6.1904037e-09
0002b0 ca b1 77 31 71 71 ed b1 43 9a 9c 31 e4 54 47 31
       3.6044292e-09 -6.9105046e-09 4.557735e-09 2.9006566e-09
0002c0 f0 6a d7 31 84 12 93 31 0d 8e 93 b1 42 51 8e 32
       6.269481e-09 4.280368e-09 -4.2944124e-09 1.6567927e-08
0002d0 0d fd 48 32 c4 62 00 32 75 e3 77 b1 1c db 18 b1
       1.1699069e-08 7.473037e-09 -3.6072525e-09 -2.224346e-09
0002e0 04 ba 55 32 84 b8 67 31 08 53 0c b2 e0 dd b2 30
       1.2440527e-08 3.371981e-09 -8.167952e-09 1.3014265e-09
0002f0 bd 9d 83 32 eb 76 12 b0 a5 91 8a b0 22 07 e1 31
       1.5322138e-08 -5.3283483e-10 -1.0082216e-09 6.5491728e-09
000300 91 9d 84 3c 53 b5 1c bd 17 b7 99 3c 07 02 94 3d
       0.016188415 -0.03825886 0.018764062 0.07226949
000310 52 72 0b 3d cb e8 af bc 83 bb 36 3d 0c 53 e9 3b
       0.03404457 -0.021473309 0.04461242 0.0071204957
000320 a5 69 f5 bc 85 4b ad bb 31 f2 91 bd 7d 91 00 be
       -0.029957602 -0.0052885436 -0.071262725 -0.125555
000330 6f 43 10 be 3f 53 34 bd 58 05 0c 3e 6e 58 34 3d
       -0.14088224 -0.044024702 0.13673913 0.044029646
000340 ac 22 bc 3c ad 6b 8a 3d 96 3d c4 bc c9 01 88 bd
       0.022965752 0.06758819 -0.023955148 -0.066409655
000350 44 81 44 3d f2 fc 88 3c 00 10 e1 bc 45 da 23 3d
       0.04797484 0.016722176 -0.02747345 0.04000308
000360 55 ee 6f 3d 81 e2 db bd 82 d5 29 3d 19 78 bd 3b
       0.0585769 -0.107365616 0.041463383 0.005782139
000370 05 31 be bd a6 a7 66 bc 18 2a 20 3d d2 44 19 3d
       -0.092866935 -0.014078056 0.039102644 0.037419148
000380 3b 76 fc 3c 20 2a ac bc 86 fb 18 3d 33 d8 ef 39
       0.030818095 -0.02101618 0.037349246 0.00045746713
000390 17 ef a9 3c 98 e5 ba 3c 59 ec 1d bd e3 d8 92 ba
       0.02074389 0.022814557 -0.038555477 -0.0011203553
0003a0 80 3f 1b 3d 64 76 9f 3c fa 86 a8 3c 45 0a ad bc
       0.037902355 0.019465633 0.020572174 -0.021123061
0003b0 d9 ed 0c 3d b4 37 6c 3d a4 42 43 3d af cf 73 bd
       0.034406517 0.05767031 0.047670975 -0.059524234
0003c0 43 54 f6 bc bf 1b 1f 3d df 41 1e bd 6f 92 f1 3d
       -0.030069476 0.03884482 -0.03863704 0.11795508
0003d0 64 34 ab bc d7 0f 46 3c d2 d3 73 bc 05 a2 2b bd
       -0.020899005 0.012088737 -0.014882045 -0.04190256
0003e0 01 52 94 3d 6f 71 2c 3d 7c d6 85 3d 6b 59 40 bd
       0.072422035 0.042100366 0.0653505 -0.046960276
0003f0 be 3b 0e bd 16 f3 42 bd fd d9 2b bc 43 12 01 bb
       -0.034724943 -0.047595106 -0.010488984 -0.0019694723

conv1.lin_pos_r.weight f4 [32, 64]
000000 b3 20 6e b7 bd 26 14 35 bb 97 93 b5 4e 43 5b 35
       -1.4193519e-05 5.519067e-07 -1.0996513e-06 8.16818e-07
000010 e4 67 a6 34 33 99 0f b6 39 37 c6 35 af 20 e9 33
       3.09955e-07 -2.1397834e-06 1.4768221e-06 1.0855853e-07
000020 44 e7 51 35 e7 78 b0 33 14 72 a2 35 a1 5c 7b b5
       7.8195103e-07 8.217631e-08 1.2103142e-06 -9.363958e-07
000030 fb 20 3f 35 2b ca d6 34 c1 8f e7 34 40 40 59 36
       7.120104e-07 4.0007703e-07 4.3131698e-07 3.2372918e-06
000040 01 4b 1c b7 c9 05 82 34 68 86 11 b5 4a 8e b9 34
       -9.315788e-06 2.4218596e-07 -5.4212296e-07 3.4562464e-07
000050 e8 a7 ff 35 15 80 7a b4 d7 32 7c 36 2a 04 1e b7
       1.9047848e-06 -2.332966e-07 3.758052e-06 -9.418503e-06
000060 83 75 38 35 fa c3 83 b6 13 b9 2b 36 64 88 b7 b4
       6.8716344e-07 -3.926919e-06 2.5588713e-06 -3.4185643e-07
000070 44 18 19 36 05 ea c8 b4 21 36 3b 36 a3 7c 0c b6
       2.28129e-06 -3.7423175e-07 2.7896679e-06 -2.0934174e-06
000080 bd 89 14 b6 05 26 5e 36 17 7a 9f b6 bb d0 f0 33
       -2.2133893e-06 3.3102708e-06 -4.7527824e-06 1.1213839e-07
000090 7b 08 ad b5 6f 8e 0b b5 72 ac 1a b6 c9 59 4b 36
       -1.2891973e-06 -5.1988803e-07 -2.3048165e-06 3.030162e-06
0000a0 f5 e7 20 35 36 96 80 b5 66 57 20 34 75 e1 31 b5
       5.9942187e-07 -9.58046e-07 1.4932957e-07 -6.626572e-07
0000b0 88 32 80 b4 4f 81 6c 32 2c ab 59 b4 15 09 48 b6
       -2.3878624e-07 1.3766409e-08 -2.0271972e-07 -2.9807609e-06
0000c0 d9 79 f5 b6 8b f9 96 36 3b 18 25 36 f6 e5 90 35
       -7.315754e-06 4.499399e-06 2.460102e-06 1.0795764e-06
0000d0 db 8b 5a 35 47 36 54 b4 ae 89 ba b5 64 a5 e7 b5
       8.1414845e-07 -1.9763785e-07 -1.389815e-06 -1.7258976e-06
0000e0 57 19 a3 36 93 dd c4 34 93 56 00 35 8c 48 f9 35
       4.8607285e-06 3.666906e-07 4.78097e-07 1.857306e-06
0000f0 fc 91 0e b4 ad b3 f8 34 d0 6d 8f 35 fa 28 57 b3
       -1.327789e-07 4.632433e-07 1.068629e-06 -5.0095856e-08
000100 a2 91 c0 bf d8 c6 24 3d 59 f5 8f 3e 98 ca a4 bd
       -1.5044444 0.040228695 0.28116873 -0.08046454
000110 9c 08 fc bd ca e6 da 3d 0d 3e 9b be 3b bd 12 3f
       -0.123063296 0.10688551 -0.30320778 0.5731999
000120 c4 5b b9 3d c1 3a f0 3d 83 f9 ba 3e ee 82 66 3e
       0.09050706 0.117299564 0.36518487 0.22510883
000130 a3 e2 1f 3e 3a 58 b7 be 2c 18 cb bd 28 90 4b be
       0.15613799 -0.358095 -0.0991672 -0.1987921
000140 a6 2d 5e be 7b ef 92 bd 83 d7 a1 3e 46 85 d5 3d
       -0.21697101 -0.071745835 0.31609735 0.104258105
000150 56 43 ca bd 24 96 9f bd 13 a9 94 be 5d b5 27 bd
       -0.098761246 -0.07792309 -0.29035243 -0.040944446
000160 88 66 39 be 55 0a 1b 3e a9 20 23 3e 20 29 99 3d
       -0.18105519 0.1514066 0.15930428 0.07478547
000170 e7 8c e5 3d b0 0d 0b 3e c9 86 bd 3d d6 6f a5 3d
       0.112085156 0.1357944 0.09254224 0.08077972
000180 7b dd b0 bd 7d 05 0a be c4 f3 0a 3d 21 a9 eb 3d
       -0.08635994 -0.13478656 0.03392388 0.11506868
000190 ea ac 92 3c 11 1e db bd a0 26 05 3e 40 2a a4 bc
       0.017904717 -0.10699094 0.13003016 -0.020039678
0001a0 c1 9e c5 3c 50 84 39 3d ac 55 3a bd ae c7 fb 3a
       0.024123551 0.0452922 -0.04549186 0.001920929
0001b0 ac a3 38 3c 6f 1d 14 3e d6 1d 07 3d 4f e3 98 3c
       0.011269491 0.14464353 0.03298744 0.018663077
0001c0 5f 6e ed bd d3 06 36 3d 8f bf 04 3d f2 c4 95 bc
       -0.11593317 0.0444401 0.032409247 -0.018282387
0001d0 25 a1 84 3d 05 da de bd 3b c8 45 bd fd 39 a8 bd
       0.064760484 -0.10881428 -0.048286658 -0.082141854
0001e0 81 0f ae 3b c1 0a 25 be ee b4 9d bd 13 08 6d 3d
       0.005311907 -0.16117384 -0.07700525 0.05786903
0001f0 b1 c9 9a 3d 37 9c ae bb b5 65 3f 3d 3d 4a e0 3d
       0.07558001 -0.005328681 0.046727855 0.1095166
000200 e9 65 65 b2 77 8c a9 30 08 39 1e 32 80 13 7c b0
       -1.3352726e-08 1.2336291e-09 9.209778e-09 -9.1704777e-10
000210 7f 16 c5 31 7b 67 1d b2 5e f8 4b 32 96 e4 61 32
       5.736012e-09 -9.1621315e-09 1.1872627e-08 1.3148698e-08
000220 a7 8f e8 31 9a f9 fb 31 07 34 6e 32 d3 40 30 31
       6.76842e-09 7.333438e-09 1.3865253e-08 2.564822e-09
000230 c8 25 15 32 58 e0 80 32 32 28 7c 30 35 ae 03 b2
       8.681532e-09 1.5003181e-08 9.1734187e-10 -7.664814e-09
000240 04 a2 0d 32 37 78 dd 31 76 14 31 b1 03 b3 09 b2
       8.244118e-09 6.4456134e-09 -2.576852e-09 -8.015152e-09
000250 61 93 85 af d9 2f f6 b0 03 ae 37 32 a1 d7 48 b0
       -2.4297278e-10 -1.7912455e-09 1.0691568e-08 -7.3066003e-10
000260 1d 4d fa b1 1d 82 12 32 c1 55 97 30 7f fc 67 b2
       -7.2847244e-09 8.527903e-09 1.1011069e-09 -1.3503381e-08
000270 c3 09 bf 31 3b 78 45 b2 05 c2 ca b1 26 2e 62 32
       5.5599414e-09 -1.1494246e-08 -5.901031e-09 1.3165424e-08
000280 ff de fc b1 1c c1 36 b2 35 9a 01 32 7d e4 83 31
       -7.359517e-09 -1.0637702e-08 7.543851e-09 3.838578e-09
000290 e9 ff 0e 32 f1 08 ea 31 50 a4 c1 31 bf 3e d8 b0
       8.323675e-09 6.811313e-09 5.6357194e-09 -1.5733902e-09
0002a0 2b 52 6e b2 6e 8e 70 b2 08 07 3b b1 f2 ce 97 32
       -1.3872106e-08 -1.4002223e-08 -2.7216078e-09 1.7672821e-08
0002b0 cf 14 08 32 64 24 fe b1 2e 42 d7 2e cf a2 19 b2
       7.920973e-09 -7.39651e-09 9.788824e-11 -8.9427905e-09
0002c0 b1 2f 57 b2 53 71 da b1 52 0b cb 31 ad 8d e7 b1
       -1.2525491e-08 -6.3575185e-09 5.9093646e-09 -6.7390915e-09
0002d0 a3 1a dd 31 25 ea 0a 2f 9d fe a6 31 48 7c 7a 31
       6.4349748e-09 1.2634212e-10 4.860182e-09 3.6450434e-09
0002e0 30 c0 ef b1 cb 77 87 32 40 bf d6 b1 9e d4 7b 31
       -6.9776647e-09 1.5770544e-08 -6.2499623e-09 3.6646166e-09
0002f0 fe 5e e4 31 64 66 41 b0 64 95 0d 32 38 9c 7a b1
       6.6464727e-09 -7.0358497e-10 8.241248e-09 -3.6468588e-09
000300 0d 9a f6 be 71 84 6f bd 11 85 81 3c db 99 01 3d
       -0.48164406 -0.058475915 0.015810521 0.03164087
000310 3a a8 af 3d 0b 86 27 bd f6 8b cc ba b9 f8 e0 3e
       0.085770085 -0.040899318 -0.0015605676 0.4393976
000320 ac 4f 94 3d 25 35 53 bb 49 59 07 3e b3 b4 83 bc
       0.07241759 -0.0032227722 0.13217653 -0.016077375
000330 30 f7 59 3d e6 ed 68 be 04 90 61 3e db fa 26 be
       0.053214252 -0.22747001 0.22027594 -0.16306631
000340 a3 de 3d be 0f e6 06 3e 72 20 9c 3d c4 29 17 3e
       -0.1854196 0.13173698 0.07623376 0.14762026
000350 d8 a6 f4 bd 62 35 c2 bc 91 b3 58 be cb ab 5b 3d
       -0.119458854 -0.023707096 -0.21162249 0.05363063
000360 d4 0e 34 3c 48 8c 95 3e e3 23 58 3b d5 88 95 3d
       0.010989863 0.2920859 0.0032980375 0.07301489
000370 f9 ed 6d bc bc f2 9e 3b b9 3d 41 3e 50 83 76 3b
       -0.014522069 0.0048507135 0.18871202 0.003761489
000380 dc fc 8e bd 08 0b e2 bd 04 dd f0 bd 11 88 a3 bc
       -0.06981823 -0.1103726 -0.117609054 -0.019962342
000390 95 79 1d bd bf 27 2c bd af b6 1c be 73 df 68 bd
       -0.038446028 -0.042030092 -0.15304063 -0.056853723
0003a0 4b e2 d0 bc 3c 9b 14 3c f1 79 0f 3e 75 c2 da bd
       -0.02549853 0.009070214 0.1401136 -0.10681621
0003b0 59 45 6d bc e4 1c fc bc c8 b5 2e bd 6f 32 e0 3d
       -0.014481866 -0.030775495 -0.04265383 0.109471194
0003c0 74 26 de bd 7a f6 3f 3d 03 9e 03 3d 72 a9 29 be
       -0.10847178 0.046865918 0.032133114 -0.16568545
0003d0 91 8e a7 3d 7f fb fa bd cb 42 fb 3c df 6a 68 bd
       0.08181489 -0.12255 0.030671498 -0.056742545
0003e0 5f 93 fd 3d 3b f8 85 bd cc 83 28 3e 41 87 6a 3d
       0.123816244 -0.06541487 0.16456527 0.057257894
0003f0 5d d0 65 3d 51 92 fc bc 6e 5e ae be ea 14 ff bc
       0.056106914 -0.030831488 -0.3405642 -0.031137902

conv1.lin_pos_r.bias f4 [32]
000000 36 e7 39 b9 88 7c 99 3c b7 5d 4c bc 55 0f 97 3d
       -0.00017729108 0.018736139 -0.012473515 0.07375971
000010 5c 36 f0 3d f8 54 39 bc 94 4c 83 3c d2 87 d7 bd
       0.11729118 -0.011311762 0.016027726 -0.105239525
000020 ba 96 08 3d 6c 7b 83 3c b1 42 b5 3c cf 4c 6d bc
       0.03334687 0.016050063 0.022126528 -0.014483645
000030 1f d9 00 bd 66 b4 50 bc fd c8 88 bc 04 ac 81 3c
       -0.031457063 -0.012738323 -0.016697401 0.015829094
000040 ec 5b 6c bd 2b 74 cd bc 8e f9 a7 ba c3 cd 0d b9
       -0.05770485 -0.025079807 -0.0012815462 -0.0001352346
000050 f6 f3 32 bd 98 21 8f 3c 97 ba c0 bc aa 36 da 3c
       -0.04368969 0.017472073 -0.023526473 0.026637394
000060 5a 10 49 b7 51 f8 08 bd f8 08 18 ba 21 c4 2f bd
       -1.1984341e-05 -0.033439938 -0.00057996763 -0.042911652
000070 3a 3e 03 bd b5 83 48 bd 36 e8 87 3c d4 d5 e3 b7
       -0.032041766 -0.04895373 0.016590219 -2.716008e-05

conv1.lin_neg_l.weight f4 [32, 64]
000000 a2 de dc 31 a4 7d 91 b1 77 e6 ac b1 d9 77 e8 31
       6.428153e-09 -4.234339e-09 -5.0320597e-09 6.7657138e-09
000010 dc 79 47 32 09 e8 05 32 35 f6 68 b1 b5 d2 49 32
       1.1611032e-08 7.794378e-09 -3.3900396e-09 1.1747649e-08
000020 73 bb 82 31 2a 8c 23 31 33 2c 91 b1 83 7a 1f b1
       3.8048085e-09 2.3799296e-09 -4.2250803e-09 -2.3207185e-09
000030 56 fb 5e 32 a0 51 3f b2 06 bd 4e b1 e8 7b 3c 32
       1.2979248e-08 -1.1136223e-08 -3.0084393e-09 1.0971213e-08
000040 16 96 a0 32 9b 1f 90 b1 47 bc d1 b0 6c 99 c0 31
       1.8694703e-08 -4.1945447e-09 -1.5260263e-09 5.6053775e-09
000050 ec 37 fa 31 37 c0 67 b2 80 a7 e8 b1 70 36 bf 31
       7.282315e-09 -1.3489674e-08 -6.771131e-09 5.5650204e-09
000060 e7 9b 3b b1 6c 3b 0c 32 d8 8b af 32 a4 69 18 b0
       -2.7300702e-09 8.1625835e-09 2.0436275e-08 -5.54474e-10
000070 6b 42 c2 31 e4 2d 03 b2 7f 65 18 32 5b d0 55 30
       5.653694e-09 -7.635638e-09 8.870642e-09 7.778504e-10
000080 93 5c 9b b1 17 2e 88 b1 cc 35 01 b2 a2 64 ce 31
       -4.521618e-09 -3.9633608e-09 -7.52102e-09 6.0068297e-09
000090 fc 26 1f 30 38 d9 16 b1 76 69 74 b2 98 e0 36 b2
       5.7899263e-10 -2.1951347e-09 -1.4226648e-08 -1.0644861e-08
0000a0 91 ad 85 2f 34 15 8b 31 6a f2 f7 31 4e 20 37 31
       2.4315885e-10 4.047843e-09 7.2162054e-09 2.6648368e-09
0000b0 73 ed 36 b1 e4 fa 0b 32 4d 4e aa b1 b8 40 9b 32
       -2.661946e-09 8.147911e-09 -4.956553e-09 1.8073806e-08
0000c0 1f 5b ab b1 2d b7 e3 b0 51 20 44 b1 08 05 31 b2
       -4.9871143e-09 -1.6568485e-09 -2.8540124e-09 -1.03039e-08
0000d0 40 87 90 b2 4e 58 0b b2 ee 72 9b 30 c9 18 e1 b0
       -1.6825311e-08 -8.110943e-09 1.1310399e-09 -1.6377949e-09
0000e0 01 6c bd 31 5c 77 c1 b1 8d d0 7b 32 9c a7 35 32
       5.5129026e-09 -5.630609e-09 1.4657542e-08 1.0573697e-08
0000f0 ba e0 75 b1 28 b1 71 31 27 a1 0f 32 31 17 1c 32
       -3.5779935e-09 3.5170817e-09 8.360337e-09 9.085668e-09
000100 4e d8 b1 3d a8 0e d8 ba 99 ba 2c 3c f7 84 82 bd
       0.08683835 -0.001648386 0.010542535 -0.06373017
000110 c3 b1 65 3c 74 b2 ae bc f7 0d de 3c 1e 4c f1 bd
       0.0140194325 -0.021325327 0.027106268 -0.11782096
000120 91 f3 64 bd 5d d3 e8 3c e8 43 fd 3b d2 34 40 bd
       -0.055896346 0.028421098 0.0077290423 -0.046925373
000130 e3 fa c6 bd bd cf 64 3d ee 58 8e bd 21 38 08 3e
       -0.097158216 0.055862177 -0.06950556 0.13302661
000140 14 b2 3d 3e d4 71 ea ba 8a e3 88 bd 49 90 96 bd
       0.18524963 -0.0017886707 -0.06684025 -0.07351739
000150 62 5c b0 bc 34 7a a7 bc a9 b4 18 3e bb 39 6d bd
       -0.021528427 -0.020444013 0.14912666 -0.057916384
000160 dc 3a 6e 3c fb b6 86 bc 59 82 9b 3b ca a4 ec bc
       0.0145404 -0.016444674 0.0047457633 -0.028887171
000170 e9 86 94 bd 8e 33 98 3d a0 47 07 bd e4 9a bd bc
       -0.072522946 0.07431708 -0.03302729 -0.023145147
000180 76 82 c7 3c 48 24 be 3c 48 ca 82 3d 9d af 34 bd
       0.0243542 0.02321066 0.06386238 -0.04411279
000190 c9 17 e7 bc 66 79 1a 3d 75 42 a0 3d 80 05 01 3d
       -0.028209584 0.03771343 0.07825176 0.031499386
0001a0 5a 6a 96 3d 3e 00 71 3a 69 0b ce 3b 83 c3 bd bc
       0.07344504 0.00091934565 0.0062879813 -0.023164516
0001b0 49 b3 7c bd a6 6e 76 3d c6 41 1d 3d b5 95 dc bd
       -0.061694417 0.060164116 0.038392805 -0.10770742
0001c0 99 b7 73 3c 6c 5e 77 3d a6 5f f8 bc 7d bc 9e 3d
       0.014875316 0.060392782 -0.030319046 0.07750795
0001d0 d9 93 8a bd fc a8 b4 bb e8 91 cd 3c 14 b2 89 bc
       -0.06766481 -0.0055133086 0.025093988 -0.016808547
0001e0 cb 3a 16 3d 98 a6 32 ba a7 16 2e bc 68 be a2 3c
       0.036677163 -0.00068149855 -0.010625518 0.019866183
0001f0 1b 89 81 bc a4 5c d3 bc d6 74 dd 3c 9c 6d 24 bc
       -0.015812447 -0.02580101 0.02703325 -0.010035899
000200 00 9b 98 3d ac de d1 bd 46 f5 ba 3d fc 51 bf bd
       0.07451439 -0.102475494 0.091288134 -0.09341809
000210 f0 a5 1f 3c d4 f4 7a 3c 56 41 19 3d b6 68 24 bd
       0.009744152 0.015317161 0.037415825 -0.040138923
000220 02 10 66 bd 3c 1e 00 bb a5 1c 6f ba bc 14 30 3d
       -0.05616761 -0.001954927 -0.0009121395 0.042988524
000230 b8 f1 16 3d ad 9b d7 bc 35 55 00 bd eb d2 69 3c
       0.036851615 -0.02631935 -0.03133126 0.014271478
000240 f6 65 36 3d 32 4c 1a bd 4b 85 ad bc 4e a7 87 bd
       0.04453083 -0.03767032 -0.021181723 -0.06623708
000250 59 ef a1 3b 45 75 0b bd 11 cc da 3d 84 e1 a1 3b
       0.0049418625 -0.034047384 0.10683454 0.0049402136
000260 fd f0 0a bd 77 ef 77 bd 1d 17 c3 bd 93 7f e0 bc
       -0.03392123 -0.060531106 -0.09525893 -0.027404582
000270 5f e9 41 bc 79 a1 5a 3b 60 35 bb 3b f8 4c 00 3d
       -0.011835425 0.0033360405 0.00571315 0.031323403
000280 1c fe b9 3c 2e b4 08 3d b1 a6 9c bc c7 7c 21 3c
       0.022704177 0.033374958 -0.019122453 0.009856409
000290 56 60 be bc 03 d3 d5 3c f2 ed 20 3d d2 97 84 ba
       -0.023239296 0.026101595 0.039289422 -0.0010116047
0002a0 54 42 c1 3d 9b d5 c1 ba 57 c0 58 bd cd 3b 6c bd
       0.09436479 -0.0014788391 -0.052917805 -0.057674218
0002b0 47 4b 94 bd 23 4d 6d 3d 06 07 09 38 84 2f a1 3b
       -0.072409205 0.05793489 3.2669886e-05 0.0049189944
0002c0 f1 ce 21 bd f0 78 8f 3c 90 d2 6b bd 4d 2f f0 3c
       -0.039503995 0.017513722 -0.057573855 0.02931943
0002d0 d2 27 e7 bd fb 1f 99 bb c3 cc 25 3d ce 20 2e bc
       -0.11286892 -0.004673002 0.04047848 -0.010627938
0002e0 5a fd 90 3d af 4e 07 3d 99 6a 92 3c cd 53 b2 3c
       0.07079573 0.033034023 0.017873095 0.021768475
0002f0 df f7 b0 bc 32 e7 de bb 55 1c c0 3d 8f 83 ff bc
       -0.02160257 -0.006802463 0.09380404 -0.031190662
000300 8b 2e 2d 3e 0f 27 41 3d 15 2e f4 bd 88 63 80 3c
       0.16912286 0.04715639 -0.11922852 0.01567246
000310 58 10 20 3d 23 5c 4a bd 81 51 c2 3d 25 19 c2 bb
       0.039078087 -0.049404275 0.09488202 -0.0059234076
000320 10 95 28 3d 4d e8 e2 bc 06 98 15 3d 57 17 97 3c
       0.041157782 -0.02769866 0.036521934 0.018443746
000330 ad 08 ec 3d 8c ad 0d 3d ea b2 32 3d f6 4a fe bc
       0.11525092 0.034589335 0.043627657 -0.031041604
000340 db be 40 bd 0e 1b 8f 3d 50 82 6c 3c 87 19 64 bb
       -0.047057014 0.06987582 0.014435366 -0.0034805255
000350 97 3b 2a 3d dd f1 ad 3c 01 ad 44 bd 6c ae 2f 3d
       0.041560736 0.021233493 -0.048016552 0.04289095
000360 d3 ef 11 3d 2d f7 95 3d dc 0a 9e bd 38 88 00 bd
       0.035629105 0.07322536 -0.07716915 -0.03137991
000370 30 63 b0 bb dc 86 36 bc 8c c0 98 bc 63 da 55 3b
       -0.005382918 -0.011140551 -0.018646501 0.003263139
000380 e9 74 4f 3c 9b c6 85 bd af 29 85 3c c5 68 e1 bc
       0.012662151 -0.065320216 0.016255228 -0.027515778
000390 4c 20 4e 3a 29 df fc 3c da b6 c9 bc ea 92 70 bd
       0.0007863089 0.03086813 -0.024623323 -0.05873386
0003a0 8b ff a1 3b 0c b8 0b 3c b8 3b 2a bd f9 b4 4b 3d
       0.004943793 0.008527767 -0.04156086 0.049733136
0003b0 26 f6 0c bd 69 c0 34 bd 02 e7 63 3d 5b 46 72 3d
       -0.034414433 -0.04412881 0.055640228 0.059149127
0003c0 42 85 3e bd fa 1e d8 bc 77 76 ff 3c 41 97 6d bd
       -0.046513803 -0.026381958 0.031184418 -0.058005575
0003d0 6e 02 43 3d ba ca 80 bd 4e 7e 17 bd 71 c0 24 bd
       0.04760974 -0.06288667 -0.036985688 -0.04022259
0003e0 6e fe 61 bd 8b c3 cb bc 6f 42 c1 bc 8d d2 b6 3c
       -0.055174284 -0.024873516 -0.023591248 0.022317195
0003f0 35 78 a0 bb f7 bb ab bc e5 bb 82 3c 39 81 4d 3d
       -0.0048971423 -0.020963652 0.015958736 0.050172064

conv1.lin_neg_r.weight f4 [32, 64]
000000 2c e9 f4 32 65 d4 92 30 fa 3a 32 b2 fd 0f aa 31
       2.8511373e-08 1.0683264e-09 -1.0374373e-08 4.949469e-09
000010 31 0a af b0 8d 94 f7 31 ee be 9c 32 78 2b 6f b2
       -1.2735822e-09 7.2055344e-09 1.8247615e-08 -1.3921515e-08
000020 35 ca 49 b1 e7 0c fc 31 7a 70 15 b2 98 e8 9b b0
       -2.936429e-09 7.335632e-09 -8.698516e-09 -1.1343841e-09
000030 27 f4 d5 31 55 d9 cd b1 0f 5c 9a b1 6e 9c f4 31
       6.226873e-09 -5.990993e-09 -4.4924557e-09 7.1191186e-09
000040 68 b7 94 31 13 6a 29 b2 6b 7f dd b0 01 3e 59 32
       4.328218e-09 -9.861213e-09 -1.6116081e-09 1.26451605e-08
000050 6b 85 de b1 ee 90 33 32 24 28 23 32 25 d9 88 32
       -6.4762182e-09 1.04521245e-08 9.496976e-09 1.593123e-08
000060 e3 9f 10 32 b0 90 4c b1 b0 4d 9f 31 a0 9f 01 32
       8.418257e-09 -2.9768152e-09 4.636341e-09 7.545083e-09
000070 7c 4c b6 b1 7c 2f 60 31 d1 0c ed b1 2b 23 9d 32
       -5.3055924e-09 3.2623282e-09 -6.899065e-09 1.8293198e-08
000080 c6 12 52 b2 9a 58 93 32 9e 7d c9 b0 91 c9 e7 31
       -1.2227877e-08 1.7153344e-08 -1.4660377e-09 6.7459003e-09
000090 8a ae 3a 32 7e e8 21 b2 21 3d b6 31 8b 7d 16 31
       1.08663105e-08 -9.424296e-09 5.3038467e-09 2.1899236e-09
0000a0 ca 54 05 b1 3c 02 03 32 18 fd 9c af fe ef 2b b2
       -1.9402244e-09 7.625712e-09 -2.855607e-10 -1.0008078e-08
0000b0 82 00 87 b0 93 7f 2a b2 59 01 36 32 24 c0 b5 31
       -9.822687e-10 -9.924309e-09 1.0594101e-08 5.289637e-09
0000c0 bd 35 1c b1 b5 25 8a 31 9e b2 77 b2 33 16 5a b2
       -2.2731534e-09 4.0206154e-09 -1.4417905e-08 -1.2694318e-08
0000d0 82 db ad b1 a0 e5 5c 32 30 a5 64 32 3a ef 0d 32
       -5.059918e-09 1.2857896e-08 1.3308906e-08 8.261674e-09
0000e0 1a b4 58 b2 d0 fd a1 b1 9c eb f9 b1 7a 60 fa b1
       -1.2613805e-08 -4.714572e-09 -7.2736395e-09 -7.2869257e-09
0000f0 62 24 41 b2 d6 c3 ee 31 9c 08 13 b1 7a 21 06 32
       -1.1242351e-08 6.9489756e-09 -2.139621e-09 7.807438e-09
000100 23 0a 3a 3e 1e b9 c3 bd b5 95 c5 bd e8 1d 20 3b
       0.1816793 -0.09556793 -0.09647695 0.0024431888
000110 d2 5a 1a 3e 0c 65 99 3c 4c 5c 20 3d 5f aa c1 3d
       0.15073708 0.01872494 0.03915052 0.09456324
000120 2a b8 c0 3c 3a 64 69 3c bd 23 02 3e c6 d5 58 bd
       0.023525316 0.014245087 0.12708946 -0.052938245
000130 8e d1 5d 3d dd 7d 8c 3d 8d b0 64 3d 6b 34 15 3c
       0.054154925 0.06859944 0.055832434 0.009106736
000140 ec 2c 9c bc 9f 5d 21 3e 52 c6 e6 bc ef 95 71 3e
       -0.01906439 0.1575837 -0.028170738 0.23592351
000150 17 bd 27 3d fe 6d f7 3a 96 14 52 bd c9 9d 04 bb
       0.040951815 0.0018877385 -0.051289164 -0.002023565
000160 33 82 91 bc 0e 2b bf bd 12 26 f1 bc b7 13 40 b9
       -0.01776228 -0.09334384 -0.029437099 -0.00018317891
000170 69 3c 35 bd a2 ca 0c 3e 00 14 73 3d 76 d4 4c be
       -0.044247065 0.13749173 0.059345245 -0.20002922
000180 b8 58 23 bc ae 06 c9 ba 12 bc 80 3d dc af a0 3d
       -0.009969883 -0.0015337074 0.062858716 0.078460425
000190 8d 67 14 be 34 c2 1f 3c a2 b2 10 be 46 76 2c bc
       -0.14492626 0.0097508915 -0.14130643 -0.010526245
0001a0 2a ce 83 3d 54 97 90 bc 58 19 9f 3d b4 41 40 bd
       0.06435807 -0.017650284 0.07768506 -0.04693766
0001b0 68 51 11 bc a1 e6 5b 3d 5d f9 6d 3d 83 cf 27 bb
       -0.008869506 0.05368674 0.05809914 -0.0025605864
0001c0 09 ca de bc a2 31 23 bd 76 8f 48 3a 21 3c 27 bd
       -0.027195947 -0.039842255 0.0007650772 -0.040828828
0001d0 98 54 90 3d 25 e9 ba 3c f7 72 a2 3d ac b8 78 3d
       0.07047385 0.02281625 0.07932084 0.06072299
0001e0 14 a2 71 bd cb 81 ef 3d 85 7f 8b bc 31 c1 80 bd
       -0.05899246 0.11694678 -0.01702858 -0.06286848
0001f0 cc 8c 26 3d 59 84 68 3c b6 3a 19 bd c0 6d 2f bd
       0.040661618 0.01419171 -0.037409507 -0.042829275
000200 c0 90 8d 3d 7f e5 a7 bd 47 d5 a9 ba eb 5c 3e 3c
       0.069123745 -0.0819807 -0.0012957238 0.011618833
000210 f7 80 32 bd 08 03 ab bd 95 c1 a2 bb 3a b3 3c be
       -0.04358002 -0.083501875 -0.0049669244 -0.18427745
000220 7a 3a aa 3d 92 80 86 3c c0 e9 1a be 3a 10 ac bd
       0.08311935 0.016418729 -0.15128231 -0.084015325
000230 82 a3 a9 bd e5 4e a6 bb 7c ae 8b 3d bd 0d 02 bd
       -0.0828314 -0.005075323 0.0682039 -0.031751383
000240 82 be fd bc 08 b9 ae 3d c8 7f 9a bb 2d 03 08 bc
       -0.03097463 0.08531386 -0.0047149397 -0.008301538
000250 3d 6c 1d 3d 26 dd 33 3e b3 15 92 3d 06 67 97 3d
       0.038433302 0.1756483 0.07133045 0.07392697
000260 3a e0 de bb d9 93 ab 3a d6 a0 f0 bd 1c 80 37 3d
       -0.0068016322 0.0013090327 -0.11749427 0.04479991
000270 94 d5 27 3d cc 92 c0 bc 34 06 17 bd c5 06 20 3d
       0.04097517 -0.023507498 -0.03687115 0.039068956
000280 41 a7 77 3d 75 02 00 3e 30 8b 19 3d 74 1c db bb
       0.06046224 0.12500937 0.037486255 -0.0066867415
000290 e3 af 8a 3d 05 23 93 3d 56 19 31 3d 46 29 c0 3d
       0.06771829 0.07184414 0.043237053 0.09382872
0002a0 3c c3 87 bd db d5 e9 bc ea 3a 03 3e 0b 25 93 bd
       -0.06629035 -0.028544357 0.12815443 -0.071848
0002b0 0e cb c2 3d a0 c6 79 bd 08 a5 7b 3d 94 fc 3e bc
       0.09511386 -0.06098044 0.061436683 -0.011656899
0002c0 1f f1 02 be b3 44 03 3a 6c f3 a0 bc 4c 41 97 bb
       -0.12787293 0.00050074904 -0.019647323 -0.0046159383
0002d0 5f 1d 0a bd a6 3f 64 bd 27 4c c5 bc 87 5f e0 3c
       -0.033719417 -0.055724762 -0.024084164 0.027389301
0002e0 a4 46 f1 bc 55 df b4 3d 1f d7 27 be 74 00 33 bd
       -0.02945263 0.0883166 -0.16390656 -0.043701604
0002f0 06 cd 5f bc f8 ef 00 be 2d 62 ee bd d8 30 c2 bd
       -0.013659721 -0.12591541 -0.11639819 -0.094819725
000300 5b ee c2 be d4 f1 89 3d 12 28 db 3e fe d3 e7 bd
       -0.38072476 0.06735578 0.4280401 -0.11319731
000310 70 83 4e 3c 75 74 b4 bd b6 28 7f bd 3d f2 45 bd
       0.012604579 -0.08811275 -0.062294684 -0.04832672
000320 e3 f7 52 bd b2 61 9b 3d 57 89 3d 3d 0c 0c 82 3e
       -0.051505934 0.07586993 0.046273556 0.25399816
000330 0d 15 98 3c df 61 6c 3e 7c 3a c6 ba 06 62 11 3c
       0.018564725 0.2308421 -0.0015123631 0.008873468
000340 59 82 7b 3e 2f 62 00 3d 64 ea 34 be 1e 21 69 be
       0.24561442 0.031343635 -0.17667538 -0.2276654
000350 d3 41 df bd 2e be 98 bd 77 a8 e0 3e 33 6d 48 bd
       -0.10901227 -0.07458149 0.43878528 -0.048932265
000360 75 a1 63 3e 9f ca c9 bd e8 58 d8 3d 52 76 55 be
       0.2222956 -0.098531 0.105638325 -0.20845917
000370 34 b7 14 3b 00 9f 25 bc 65 e3 4d 3d b1 6d 42 3e
       0.0022692205 -0.010108709 0.05026569 0.18987156
000380 b0 b3 88 ba 4f 2d ed bc 1a fb 27 3e ae 6b 11 3e
       -0.0010429528 -0.028952269 0.16404381 0.14201233
000390 1b 00 8e bd eb eb ac 3d 06 95 5b 3d cf 63 97 3e
       -0.06933614 0.08443435 0.053608917 0.29568335
0003a0 25 fa c3 bd 0b 0f c8 3d 9b 0d 3a 3e 07 b2 31 3d
       -0.09569196 0.09768494 0.18169253 0.04338267
0003b0 c3 7b a5 bb be 12 0f 3e 70 1a f9 3d 52 b8 d2 3d
       -0.005050154 0.13971993 0.12163246 0.102890626
0003c0 44 fb d3 3d 3d ab 91 be 66 e3 86 be 83 43 a2 bd
       0.103506595 -0.28450957 -0.26345366 -0.07923033
0003d0 0f 68 6e 3d ac 8c 96 3d 6d 5b 2e 3e a9 ca 77 be
       0.058204707 0.0735105 0.17027064 -0.24198402
0003e0 c4 58 7a bd d9 db 4a bd 7e 7c af bb e9 80 76 3e
       -0.06111981 -0.04952607 -0.005355417 0.24072613
0003f0 4e ef 25 3e 2f 0a 36 3e 2c 7a 87 3e 49 36 33 be
       0.16204569 0.17777322 0.26460397 -0.17501177

conv1.lin_neg_r.bias f4 [32]
000000 2f c3 f5 bb 52 e6 a7 3d 06 f0 a1 3d cb 2c 1a ba
       -0.0075000743 0.08198227 0.07907109 -0.00058813085
000010 76 b9 87 bd cc 62 58 bd af 1b 44 bd 29 a2 52 bd
       -0.06627171 -0.052828595 -0.047877964 -0.05142418
000020 16 ee e5 b9 ad a6 7e 3c b6 74 d0 3c f3 f5 91 3c
       -0.00043855672 0.015542668 0.025446277 0.017817473
000030 d5 00 32 ba d7 52 fd bc ec f4 93 3c ab 60 08 b5
       -0.0006790285 -0.03092329 0.018061124 -5.080462e-07
000040 ea c6 54 b9 6b 8d 91 bb 21 85 2d bd 45 ca a4 3c
       -0.00020291997 -0.004441907 -0.04236329 0.02011598
000050 38 f1 9f b5 35 29 41 bb 1e ad 4c 3d df 69 bc 3c
       -1.1916627e-06 -0.0029474024 0.049969785 0.022999702
000060 74 7f 2d 3d 65 aa ad b9 17 0d 8a 3c 38 60 1d 39
       0.042357877 -0.00033124085 0.016851945 0.00015008531
000070 93 e7 d6 37 d1 bc c0 b6 00 9b 89 3c a5 ad a1 3c
       2.5618623e-05 -5.744027e-06 0.016797543 0.01973612

convs.0.lin_pos_l.weight f4 [32, 64]
000000 4e dc b6 36 a4 ce 94 3c b5 9e 45 b2 0d 1d d0 bc
       5.4496695e-06 0.01816494 -1.1502995e-08 -0.025404477
000010 c7 24 68 3c d3 c3 00 ba 19 53 93 3d 09 04 1a bc
       0.014168925 -0.00049119926 0.07193584 -0.009400376
000020 a0 f1 0c bc a7 d4 a4 3c 1a 9d 5e 3d a9 89 ba b2
       -0.00860253 0.020120932 0.054349042 -2.171585e-08
000030 18 c3 8d 3a 6c 5b 4d bb 79 75 0f bd d7 04 26 3d
       0.0010815589 -0.003133501 -0.03502414 0.04053196
000040 30 9f 03 bb 94 fd 73 32 1a e8 d4 bd f8 96 6d bd
       -0.0020083897 1.4202119e-08 -0.10395832 -0.058005303
000050 b9 90 9a bb 19 e9 7f bd 65 f5 08 b2 16 c5 91 3d
       -0.0047169593 -0.06247816 -7.972038e-09 0.07117669
000060 54 2d 44 35 4c 61 3d b5 bc 47 43 b6 0f 7c 87 bc
       7.308165e-07 -7.054957e-07 -2.909902e-06 -0.016538648
000070 f6 7a 14 b2 7e ba 72 31 b9 01 6b 3c d4 7f ca 31
       -8.642692e-09 3.5321643e-09 0.014343672 5.893506e-09
000080 d2 d4 2e 31 27 32 57 bd 88 f6 11 3d 57 b2 a0 bc
       2.5441307e-09 -0.052538063 0.0356355 -0.019616289
000090 2c 7b 3d bc ea 02 30 3a fe 5a d0 39 5a c0 16 b3
       -0.011565011 0.00067143014 0.00039740646 -3.509954e-08
0000a0 ef 05 35 32 98 7f 94 3b cc 7e a3 bc 82 22 6d ba
       1.0536936e-08 0.004531812 -0.019957922 -0.00090459746
0000b0 e2 5b a1 38 85 1a 05 ba aa 91 89 bc 01 a5 f1 b4
       7.694193e-05 -0.0005077499 -0.01679309 -4.5009804e-07
0000c0 97 36 5a 35 29 21 e0 b2 05 b1 25 b3 27 be bf bc
       8.129077e-07 -2.6092112e-08 -3.8578055e-08 -0.023406101
0000d0 4a e7 2b b3 19 20 96 37 55 25 e8 3b 86 90 56 bd
       -4.0024396e-08 1.789634e-05 0.0070845284 -0.052383922
0000e0 68 d4 6f 3d 96 03 7f b2 be 8e 77 bd d9 6f 2a 3c
       0.058552176 -1.4843769e-08 -0.060438864 0.010402643
0000f0 24 b8 56 3c 94 ca f3 30 ac ed b7 bb 16 74 06 3a
       0.013105426 1.7738153e-09 -0.0056130495 0.00051289925
000100 c2 0b 39 b7 ab e5 1e bb 9f 89 96 32 4c ec 9f bd
       -1.1029597e-05 -0.002424578 1.7524881e-08 -0.07808742
000110 01 30 14 be 8a 05 94 38 0e f9 b1 3a 7e 07 8a 3b
       -0.14471437 7.058222e-05 0.0013578252 0.004212319
000120 19 7a f5 3b be 70 e2 3b d6 ce 2a bd 57 6c 87 32
       0.007491362 0.0069104126 -0.04170116 1.5765336e-08
000130 00 e6 c8 32 70 7a 8d ba 03 ad ef 3a 82 10 0c 3c
       2.3387656e-08 -0.0010793936 0.0018285814 0.008548858
000140 5a f1 fc 39 2f d1 53 31 11 95 31 3d ce bb 3a bd
       0.00048245006 3.0823448e-09 0.04335505 -0.04558926
000150 c2 9a 34 bc c7 5d 97 3d 3b 3b 66 b2 23 1f d9 bc
       -0.011023225 0.073909335 -1.34012295e-08 -0.026504105
000160 94 4f 9a 34 83 47 4e b3 f9 f3 0e 35 00 46 56 b8
       2.8742636e-07 -4.8028152e-08 5.325415e-07 -5.108677e-05
000170 f5 cb 1a 32 24 d6 70 b2 4b ca c9 bc 00 c8 f0 30
       9.010354e-09 -1.4018529e-08 -0.024632594 1.7519142e-09
000180 11 aa 97 32 a2 f9 66 3d a0 63 01 bd 4c ad 28 3d
       1.765605e-08 0.056390412 -0.03158915 0.041180894
000190 d0 63 bf ba ce 1a 1e 3a 47 83 dc b9 4a 6e 64 33
       -0.001460189 0.0006031216 -0.0004205948 5.3185694e-08
0001a0 73 05 59 32 51 6d ce bc cd 37 89 bd de 86 41 bd
       1.2632301e-08 -0.02519861 -0.06700096 -0.04724776
0001b0 5f 90 85 38 15 c5 56 39 30 34 0a be 89 10 70 34
       6.3688254e-05 0.00020482049 -0.1349647 2.2357757e-07
0001c0 06 cd d8 34 80 14 79 31 2a d0 bd 32 0b 2a be bc
       4.038231e-07 3.6245922e-09 2.2097158e-08 -0.023213407
0001d0 9a fd d8 b2 64 ca af 38 5a 18 9c 3c ea 61 53 bd
       -2.5261034e-08 8.3823485e-05 0.01905458 -0.05160705
0001e0 15 ad 89 bc 48 93 2f 31 7e 97 09 bd 51 b2 b8 3d
       -0.016806165 2.5549571e-09 -0.03359174 0.09018386
0001f0 a3 55 c4 3c f2 cf d8 30 3d 70 85 bd 22 d5 5c bd
       0.023966616 1.577517e-09 -0.065155484 -0.053914197
000200 11 24 28 b1 9f e7 02 33 ac 32 4a 32 1f 26 31 b4
       -2.446772e-09 3.0478642e-08 1.1769469e-08 -1.6498278e-07
000210 67 2a b5 34 91 09 0c b2 c1 b0 ed b3 86 77 0a 30
       3.374473e-07 -8.151248e-09 -1.1068324e-07 5.037396e-10
000220 a6 6a af b3 9e 20 7b 33 63 fd d5 32 cd 0c e4 31
       -8.168472e-08 5.8470157e-08 2.491169e-08 6.6371286e-09
000230 61 15 a1 31 a0 67 4c b2 36 b1 91 b1 41 91 e8 b1
       4.688147e-09 -1.1897924e-08 -4.240202e-09 -6.768602e-09
000240 d8 36 23 2f 5a 97 cd b1 20 6c 43 34 05 98 62 33
       1.4844248e-10 -5.983492e-09 1.8200126e-07 5.2757986e-08
000250 65 30 58 b2 21 25 ff 33 35 03 df 31 f7 e4 0e b4
       -1.2583858e-08 1.18811165e-07 6.490519e-09 -1.3308077e-07
000260 4b ef 6d b2 2f 78 56 31 26 e8 13 30 56 91 3a 31
       -1.3849625e-08 3.1209415e-09 5.380819e-10 2.7149176e-09
000270 e5 80 57 32 9f 03 0b 31 9c 10 17 b3 4c 57 44 32
       1.2543954e-08 2.022922e-09 -3.5172533e-08 1.14285506e-08
000280 f5 84 3b b1 09 47 73 b4 8d 30 12 34 f9 94 fa b3
       -2.7287659e-09 -2.2656981e-07 1.3614972e-07 -1.166863e-07
000290 dd 5a f2 31 59 ee 37 b0 2a b0 d4 2f a8 4e 57 b1
       7.053457e-09 -6.6913725e-10 3.8687747e-10 -3.1331329e-09
0002a0 03 aa 52 b2 38 fa b5 b2 ce 53 00 34 14 18 0b 34
       -1.2262265e-08 -2.118496e-08 1.1951417e-07 1.2954143e-07
0002b0 e5 81 18 32 57 9e c6 30 b4 76 c1 b2 a1 c6 18 30
       8.877099e-09 1.4451399e-09 -2.2522137e-08 5.5579547e-10
0002c0 9d 30 a3 31 8b 76 aa 2f 7d 5c db 31 3d 3f 4d 33
       4.749451e-09 3.100705e-10 6.3842536e-09 4.7787797e-08
0002d0 48 94 f2 31 a4 05 d0 b1 ed f1 3e 34 2e 01 82 33
       7.0599846e-09 -6.054238e-09 1.7783141e-07 6.053811e-08
0002e0 e8 7f 27 b4 94 3b 0a b1 a2 f2 06 b3 fa 0b 4b b3
       -1.5599619e-07 -2.011551e-09 -3.141998e-08 -4.7275513e-08
0002f0 58 03 e5 b2 a5 56 02 30 39 25 f7 af 90 bc c6 b3
       -2.666063e-08 4.7416854e-10 -4.4955487e-10 -9.254393e-08
000300 21 9c fc 30 14 60 57 36 be 24 93 b0 5b e6 a7 38
       1.8379788e-09 3.2093421e-06 -1.07061e-09 8.0060876e-05
000310 03 d3 19 38 43 1c 91 30 7f 5b 78 37 7d 36 0e 32
       3.6674563e-05 1.0558171e-09 1.4803255e-05 8.277877e-09
000320 00 af 41 38 a5 e2 c7 36 d8 7f 2f b7 a7 0b 09 b2
       4.6177767e-05 5.957047e-06 -1.0460579e-05 -7.977099e-09
000330 94 16 15 32 b5 35 5f b2 09 db 97 b1 cb af 38 b7
       8.678075e-09 -1.299252e-08 -4.41958e-09 -1.1008185e-05
000340 ed 13 96 32 b3 64 35 b1 9d c7 a4 37 18 ca 30 37
       1.747136e-08 -2.6396207e-09 1.9643276e-05 1.0537471e-05
000350 13 8c 94 32 13 96 40 38 69 0a 16 b2 0d 12 c0 37
       1.7293166e-08 4.5916135e-05 -8.733516e-09 2.289659e-05
000360 c5 62 92 b0 80 e3 64 b0 54 27 c6 30 81 33 20 32
       -1.065097e-09 -8.3269214e-10 1.4417574e-09 9.324936e-09
000370 0b 35 a0 b1 ed 30 41 31 a0 6c 48 36 d3 6e ba b0
       -4.662643e-09 2.8113007e-09 2.986555e-06 -1.3564779e-09
000380 50 a9 95 b2 ce 5c f9 38 bd 4b df 38 de b5 e6 b7
       -1.7422877e-08 0.000118905315 0.00010647576 -2.7502825e-05
000390 6c ef 67 af 86 9d 2e 32 f1 34 f5 b1 3d 25 14 b1
       -2.1094387e-10 1.016395e-08 -7.136457e-09 -2.1558002e-09
0003a0 3c 22 82 30 a8 df 92 b7 f4 47 f2 36 6e 2b 05 b8
       9.468475e-10 -1.7508704e-05 7.2205385e-06 -3.1750118e-05
0003b0 37 58 79 b0 00 66 5e b2 10 9b 4c 37 d9 8d c3 31
       -9.0711033e-10 -1.2945293e-08 1.2195451e-05 5.691373e-09
0003c0 66 ce 8c 31 1e 3f c7 b1 f9 53 31 b2 f8 ef 15 b8
       4.098001e-09 -5.798838e-09 -1.0321849e-08 -3.5747857e-05
0003d0 55 de 6d 30 93 a6 23 30 3a 30 51 37 d1 82 80 b7
       8.653605e-10 5.953577e-10 1.2468599e-05 -1.5319705e-05
0003e0 89 5d 5e 38 fc 3d 6f 31 f9 23 6b 37 e0 e9 58 b7
       5.3016036e-05 3.4814311e-09 1.4015467e-05 -1.29290565e-05
0003f0 70 dd 97 b7 71 7f 60 32 6e d4 9f 34 a9 e1 63 37
       -1.8103718e-05 1.3067493e-08 2.977062e-07 1.3582795e-05

convs.0.lin_pos_r.weight f4 [32, 32]
000000 b8 e4 96 38 ef 4f 3f bf 8a 82 a5 b2 7e 8c fa 3c
       7.1951596e-05 -0.74731344 -1.926789e-08 0.03058457
000010 1b 8f 73 3e 94 96 ed ba 8f a8 1a be 22 55 a2 3b
       0.23785059 -0.0018126541 -0.15103363 0.0049539963
000020 b2 02 55 3e 1e a9 2f bf 5b 28 6d bf 02 6e 70 31
       0.2080181 -0.6861743 -0.926397 3.4987129e-09
000030 91 c9 a6 32 57 25 cc b1 15 95 c3 31 33 2a 07 bc
       1.9416605e-08 -5.9414265e-09 5.6921956e-09 -0.008249807
000040 91 ad ab 31 b8 e6 96 b2 ec b9 e7 3d b3 08 6e 3d
       4.9964872e-09 -1.7567217e-08 0.11314759 0.058113765
000050 e5 e1 b9 af 37 01 07 3e 23 76 7b b2 e4 8e 72 3e
       -3.3811812e-10 0.13184057 -1.4636984e-08 0.23687321
000060 a8 16 6f b4 2a 4a d0 b2 d7 7a 49 36 1f 70 81 b2
       -2.2266852e-07 -2.4248113e-08 3.0022836e-06 -1.5068563e-08
000070 8d 0c be b2 31 ef f1 31 0f b8 3d bf 6b 4b 02 32
       -2.2124619e-08 7.041216e-09 -0.74108976 7.584144e-09
000080 c1 f1 37 35 d9 65 05 3f b5 6c 71 b2 4c 24 6c be
       6.852461e-07 0.5210853 -1.4052763e-08 -0.23060721
000090 91 d0 47 be 58 1b 73 3b 8d fb c4 bc 30 f8 f7 3b
       -0.19513156 0.0037095156 -0.02404573 0.007567428
0000a0 02 d8 fe be 07 d9 0e 3f ad f0 59 3f 66 ef 02 b3
       -0.49774176 0.5579991 0.8513287 -3.0485715e-08
0000b0 82 57 89 b2 c6 9c 5a b2 eb dd 68 2f 3b 25 6b 3c
       -1.5988693e-08 -1.2724916e-08 2.1179118e-10 0.014352138
0000c0 d6 b9 c3 32 82 74 b2 b2 26 ca 07 bf bd ca 8d 3e
       2.2785496e-08 -2.0774909e-08 -0.5304283 0.2769374
0000d0 c5 5b 5f b2 37 33 a1 be 06 f3 f9 b0 be cc e1 be
       -1.3001174e-08 -0.31484386 -1.8186206e-09 -0.44101518
0000e0 da 34 26 35 bf 88 d1 b0 8f 0b 8f b6 8b a8 22 b0
       6.191673e-07 -1.5245617e-09 -4.2630777e-06 -5.917477e-10
0000f0 e2 90 04 b3 50 a3 dc b1 dc 86 13 3f 7d 76 57 31
       -3.0865415e-08 -6.421409e-09 0.57627654 3.135397e-09
000100 7d 0d b8 31 cc 39 9a 33 8f ff ec 32 4f 2e e8 b3
       5.3566382e-09 7.181697e-08 2.759023e-08 -1.0811765e-07
000110 45 e0 0e 35 8a 89 ce 31 ad 92 14 b4 2b 65 b6 b1
       5.322548e-07 6.0110255e-09 -1.3836934e-07 -5.3083986e-09
000120 6a 85 98 34 01 ff 03 b4 0e ef 7f b3 6a dc ec 32
       2.8409278e-07 -1.2293096e-07 -5.9589233e-08 2.7574249e-08
000130 d2 bc 00 30 77 a0 3e 32 c2 ae 06 32 fd c6 c3 b3
       4.683446e-10 1.1095941e-08 7.839562e-09 -9.116591e-08
000140 e7 5e 41 b2 2b 0d 27 30 44 77 7d b4 16 44 8e 33
       -1.1255657e-08 6.077296e-10 -2.360585e-07 6.624775e-08
000150 2d 77 9a 32 50 78 25 b4 1b 2e 68 32 b0 45 bb b4
       1.7982154e-08 -1.5410592e-07 1.35146605e-08 -3.488217e-07
000160 f6 f9 86 b1 ca 87 93 b2 69 58 26 31 15 63 96 32
       -3.9283305e-09 -1.7174802e-08 2.4206435e-09 1.7507356e-08
000170 47 7f 17 b1 ce 5a c8 32 b6 53 87 33 7a 92 89 b1
       -2.204574e-09 2.3324358e-08 6.301654e-08 -4.0038772e-09
000180 7f 12 b7 b1 6a c3 dc 38 fd fc b6 af d4 02 e6 b8
       -5.3281037e-09 0.00010526816 -3.3285366e-10 -0.000109677814
000190 7e 4e 99 b9 a4 64 49 31 d4 9e 82 38 94 b9 09 b1
       -0.00029240915 2.9306557e-09 6.228467e-05 -2.0041613e-09
0001a0 7f 49 34 39 d9 5e 16 38 38 f3 2d 38 e4 ed 7b 32
       0.00017193517 3.585112e-05 4.147293e-05 1.4664213e-08
0001b0 5b 1d 8d b2 15 e6 41 b0 21 26 5c b2 d4 0e 80 38
       -1.642791e-08 -7.0539957e-10 -1.2814355e-08 6.1062776e-05
0001c0 4a c6 a9 b2 a7 78 8b b2 b9 fd 8d b5 6d 06 9a 37
       -1.976436e-08 -1.6236596e-08 -1.0579162e-06 1.8361223e-05
0001d0 e5 56 2e 32 ee d0 c6 b6 40 49 74 30 e7 57 86 38
       1.01478905e-08 -5.9251824e-06 8.887078e-10 6.405991e-05
0001e0 68 e7 b3 30 30 30 53 31 ac 84 f1 2f 9d 22 b4 b0
       1.3089734e-09 3.0731933e-09 4.3931914e-10 -1.3106561e-09
0001f0 d5 cd cd b2 cb 43 e1 b1 4c 66 12 38 f9 0e f5 31
       -2.3958743e-08 -6.556069e-09 3.4904384e-05 7.1321407e-09
000200 80 a8 80 32 3a 5e 5a 35 2c f6 18 32 fa 5a 6c b6
       1.4977786e-08 8.1348446e-07 8.9035375e-09 -3.5219696e-06
000210 8b cf 66 b6 82 e9 1f 31 d8 52 37 b5 cc f0 4f 30
       -3.4393477e-06 2.327028e-09 -6.8293366e-07 7.5648354e-10
000220 7e e0 33 b5 87 ee 94 34 37 e9 4d b4 e4 5d 64 b2
       -6.7009375e-07 2.77407e-07 -1.9176956e-07 -1.3292695e-08
000230 5a b5 37 30 e4 4d b6 31 c3 c9 3f 32 b3 3f ed b3
       6.683273e-10 5.3057523e-09 1.11635385e-08 -1.1047759e-07
000240 7a 4a 3e 30 49 8d 87 30 1a e8 37 b2 d9 d1 a0 b4
       6.9227435e-10 9.862698e-10 -1.0704776e-08 -2.9955007e-07
000250 c4 62 47 b2 57 a8 bc b5 ce 04 68 31 8b 2d 85 34
       -1.1605781e-08 -1.4056085e-06 3.3763174e-09 2.4806317e-07
000260 f1 af 81 b2 78 0e 83 32 64 41 f1 31 9d ed c0 31
       -1.5097585e-08 1.5256987e-08 7.021457e-09 5.614949e-09
000270 8a 57 e4 32 2f 1b 03 b2 e0 9a c2 34 f1 4d be b0
       2.6582502e-08 -7.631384e-09 3.6248002e-07 -1.3846472e-09
000280 24 ff 84 b5 a0 28 67 be d2 33 41 b2 25 92 5a bd
       -9.909022e-07 -0.22574091 -1.1245861e-08 -0.05336203
000290 d4 78 ab 3d 30 3f c8 b8 04 3d 06 bf c1 0f a7 ba
       0.083726555 -9.548513e-05 -0.5243685 -0.0012745784
0002a0 85 19 09 bf d4 c3 37 3e 0b 89 3c 3f dc 08 52 b1
       -0.53554565 0.17945796 0.7364661 -3.0564058e-09
0002b0 2b c8 ec 31 3e 26 5d 33 1a 69 af 32 f7 ad 3b bf
       6.8912605e-09 5.1490353e-08 2.0420476e-08 -0.73312324
0002c0 3b 45 08 b2 de 22 4e b3 04 05 a4 3e 0f 23 d8 3e
       -7.931983e-09 -4.7994824e-08 0.32035077 0.42214248
0002d0 99 3a 21 33 26 d1 47 bf 60 83 ad b0 c2 c0 72 bf
       3.7539028e-08 -0.7805351 -1.2624746e-09 -0.94825375
0002e0 0b 0b 1f 33 3f cc 39 b2 a5 a0 ac b5 e6 12 da b2
       3.7030116e-08 -1.08148575e-08 -1.2861752e-06 -2.5387134e-08
0002f0 fc 23 e7 b2 a8 2b 83 33 92 26 60 3b 96 d3 c7 b1
       -2.6908303e-08 6.108104e-08 0.0034202677 -5.815717e-09
000300 ae ed 18 37 00 2c 16 3f ed dc 92 2f 01 de d3 3e
       9.115245e-06 0.5866089 2.6714223e-10 0.41380313
000310 83 6f 92 be 61 a7 1f bb c6 7c d5 3e f4 84 5b 3a
       -0.28600702 -0.002436124 0.41696757 0.00083739986
000320 7f 94 88 bd 58 7d d3 3e 44 38 1b 3e a9 17 34 b0
       -0.066689484 0.41306567 0.15158182 -6.551724e-10
000330 e0 b0 27 b1 13 83 22 b2 1a c6 91 b2 b5 3c 19 3f
       -2.440224e-09 -9.459444e-09 -1.6970308e-08 0.59858257
000340 ed 8b 36 32 10 2f c8 b1 9e 03 2d bf dc 63 56 bf
       1.062561e-08 -5.8261165e-09 -0.67583644 -0.83746123
000350 cb 0a 4a 32 5b 36 bb be 30 eb 20 b2 c7 2f b1 3e
       1.17604015e-08 -0.36564907 -9.366701e-09 0.34606764
000360 09 01 b0 34 dc 0d 37 b2 da 31 99 36 81 c9 26 32
       3.2783308e-07 -1.0655153e-08 4.565559e-06 9.708288e-09
000370 d2 6b 8a 32 f9 d6 a8 b2 16 df ef 3e d6 e8 3b 32
       1.6114345e-08 -1.9655532e-08 0.4684989 1.0937773e-08
000380 3f 7e 75 b8 65 ee 2d bf a2 2a 9a b1 99 c5 ce 3d
       -5.8530128e-05 -0.67941886 -4.4868367e-09 0.100962825
000390 0d 6d a1 3d df 7f b8 bb d4 de bb bd 9b 46 39 3c
       0.07882128 -0.005630478 -0.091733605 0.011308338
0003a0 76 c9 1b 3e fc d9 15 bf 0e b8 5c bf 79 2f bf b2
       0.1521357 -0.5853574 -0.86218345 -2.2256915e-08
0003b0 10 3a 0e 32 5d 58 b7 30 4c bb 81 b2 6e 5e 97 3d
       8.27869e-09 1.3340117e-09 -1.510275e-08 0.07391058
0003c0 2b 74 86 b1 17 73 15 32 5c 8f 8e 3d cb 1d 33 3d
       -3.91312e-09 8.69911e-09 0.069609374 0.043729585
0003d0 03 aa 84 31 27 f3 71 3d 94 6a 2c 32 cc 71 70 3e
       3.8610337e-09 0.05906978 1.0035951e-08 0.2348091
0003e0 4b 91 92 b6 56 fd 29 b2 13 e0 dc b6 36 4a 3e b2
       -4.3680534e-06 -9.894697e-09 -6.5825966e-06 -1.1076329e-08
0003f0 21 53 95 31 af 84 ef 31 26 32 2c bf 5a 26 70 31
       4.3459214e-09 6.9709e-09 -0.6726402 3.4946397e-09

convs.0.lin_pos_r.bias f4 [32]
000000 56 02 6e 3c 3e 6d d3 3d 08 30 c2 bb 3d 4d ac ba
       0.014526924 0.10323571 -0.005926136 -0.0013145577
000010 83 c8 17 b7 3b 91 f1 3d f5 55 7d 3c 84 03 c2 3c
       -9.046987e-06 0.11795279 0.015462388 0.023683317
000020 94 42 92 bc 5e 1f f2 3b 71 9b 13 bc 37 6f 24 bc
       -0.017854013 0.007388993 -0.009009228 -0.010036281
000030 4b 38 f1 3c e2 4d 32 bd 79 3d 61 bd 73 8c 37 bd
       0.029445788 -0.043531306 -0.054990266 -0.044811677
000040 1e 34 66 bb ef 55 ce b6 e2 32 1e bd dc 72 1a bd
       -0.003512628 -6.1492824e-06 -0.038622744 -0.037707195
000050 07 08 78 bd 97 c3 26 3d bc b4 5c bc bf 4e 00 3e
       -0.06055453 0.040713873 -0.013470825 0.12530039
000060 46 29 89 bc 19 b4 3c b7 58 e8 35 b8 2a 04 f8 ba
       -0.016743314 -1.12476055e-05 -4.337015e-05 -0.001892214
000070 d8 0a 35 bc 75 dc ad 3c a3 40 7f 3d 2c a0 70 3c
       -0.011049949 0.021223286 0.0623175 0.014686625
