wiki-RfA/models/wiki-RfA-train-8.pt (torch, 64395 bytes, 14 tensors)

conv1.lin_pos_l.weight f4 [32, 64]
0.023379156 -0.04518753 0.07885217 0.04436316 0.044704374 0.09443623 0.07066388 -0.05439107
0.023541592 -0.005762648 -0.0015594555 0.028803475 -0.02482064 0.09639226 -0.075241104 0.047382817
-0.025771307 -0.012326181 -0.008767112 -0.003839215 0.01040813 -0.030434642 -0.0037170544 -0.019458158
0.06517345 -0.020262385 0.038748145 0.009771613 -0.07259392 0.068596944 0.004752644 -0.068071045
0.1043468 0.038171906 0.04094616 0.12179922 -0.014872104 -0.03928209 -0.050054986 -0.01712617
-0.049155954 -0.06414626 0.019122453 0.019619223 0.016562862 -0.038538035 -0.0068209427 -0.049755346
0.047946505 -0.009946841 -0.024072357 0.05329059 0.02350267 -0.0041230717 0.011144866 -0.019281726
-0.042721108 -0.019414214 0.026474874 0.025002185 -0.00076522795 0.0033610116 -0.04741848 -0.0085030515
-0.56762105 0.03608309 -0.12381109 -0.17446001 0.07001214 0.11166234 -0.045000907 0.28307787
0.001327297 0.14101031 0.11663908 -0.04969504 -0.29879695 -0.013607018 0.1377427 -0.04266085
0.06174244 0.1859632 0.01904104 0.0551653 -0.014864736 0.054071706 0.123046055 -0.06708178
-0.050771296 0.27473927 -0.04968706 0.09436302 0.009754297 0.035311233 -0.15449855 0.13299671
-0.07531202 -0.0746422 -0.1566153 -0.113106854 -0.014450471 0.088590674 -0.03116765 -0.037816983
0.083157375 0.122320585 0.077091485 0.08908598 -0.23354782 -0.014726432 0.08483854 -0.10777432
0.037655864 0.09428603 0.053910512 0.0020063538 -0.09105347 0.00029215647 0.01696858 0.05871824
0.16426525 -0.05789328 0.01332521 -0.054655466 -0.09702426 -0.04067322 -0.035894882 -0.005180195
-5.8522813e-09 1.6590072e-08 -6.105266e-09 -3.7697947e-09 2.5231566e-09 1.5344124e-08 -9.8715e-09 3.5210521e-09
1.544848e-08 4.2222745e-09 4.654552e-09 3.8197236e-09 8.957493e-09 -8.012665e-09 1.427217e-09 -4.359551e-09
7.0309616e-09 1.6123197e-08 -3.5422423e-09 -1.0477478e-09 -4.4455097e-09 -1.3180931e-10 1.4797319e-08 1.6543984e-08
9.736329e-09 -9.055844e-09 -4.967034e-10 -6.6799952e-09 2.5854514e-09 -6.2485044e-09 1.1308641e-09 4.304683e-09
4.2339554e-09 6.59705e-09 1.621236e-08 4.0764867e-09 9.685308e-09 1.5972307e-09 2.8585434e-09 5.5048326e-09
1.0248443e-08 -5.7317178e-09 1.6708865e-08 -1.7450228e-09 2.2991709e-09 -6.905133e-09 1.961874e-09 -1.0144853e-08
2.3702198e-09 5.0430056e-09 8.951494e-09 -8.542233e-09 2.40292e-09 2.548666e-09 -6.751473e-09 -3.908196e-09
9.951961e-09 -3.6928902e-09 -1.6571397e-08 -1.6248936e-09 8.408344e-10 2.7743503e-09 2.3164486e-09 1.3240062e-08
0.0030368872 0.00046031867 1.4637883e-05 -0.00019069962 -0.00035150803 0.00011226935 -0.00029020224 0.00093754206
7.861677e-05 0.00016592101 0.00021461918 -0.00021967455 5.8958635e-06 0.0011087523 -1.6375483e-05 -0.00046431847
0.00014108424 0.00021177586 5.1143674e-05 -0.00036353042 1.7742757e-05 -0.0003559106 -5.9006103e-05 0.00023532489
-0.00015758951 -2.4720136e-06 1.4495849e-06 4.3678924e-06 -0.00013675058 3.954439e-05 6.973805e-05 0.00012183083
3.934749e-05 8.082342e-05 -0.00014357998 8.4433275e-05 1.728938e-05 -0.00015628243 0.00023699061 2.1333033e-05
3.3227094e-05 3.9465426e-06 2.2561564e-05 0.00016288436 -4.124487e-06 -1.9285573e-05 -4.8088707e-05 -9.305088e-05
9.57249e-06 0.00027717598 -8.921964e-06 2.4303437e-05 0.000102319005 0.0008278289 0.00022518805 8.154854e-06
-0.00011209445 -9.220476e-05 -2.076715e-05 -7.7975536e-05 -8.532792e-05 -1.5423273e-05 -7.782393e-05 4.1589232e-05
00000000: a585 bf3c 8f16 39bd 3f7d a13d 25b6 353d
00000010: ef1b 373d c867 c13d 39b8 903d 2cc9 5ebd
00000020: 4cda c03c 98d4 bcbb a566 ccba 44f5 eb3c
00000030: a854 cbbc 4e69 c53d 0218 9abd 7c14 423d
00000040: 591e d3bc c0f3 49bc efa3 0fbc 579b 7bbb
00000050: dc86 2a3c 1252 f9bc d399 73bb b766 9fbc
00000060: a879 853d 4dfd a5bc 60b6 1e3d 1e19 203c
00000070: 1fac 94bd 8e7c 8c3d 11bc 9b3b d568 8bbd
00000080: c6b3 d53d 255a 1c3d 29b7 273d df71 f93d
00000090: 20aa 73bc 42e6 20bd 7506 4dbd 2f4c 8cbc
000000a0: c157 49bd 1d5f 83bd b1a6 9c3c 7eb8 a03c
000000b0: d7ae 873c 0fda 1dbd 3782 dfbb 43cc 4bbd
000000c0: 8e63 443d 13f8 22bc 6433 c5bc 3c47 5a3d
000000d0: ac88 c03c d51a 87bb f598 363c b6f4 9dbc
000000e0: 54fc 2ebd 8f0a 9fbc d6e1 d83c 62d1 cc3c
000000f0: 9499 48ba 6b44 5c3b e139 42bd 6250 0bbc
00000100: 9d4f 11bf ddcb 133d ab90 fdbd a5a5 32be
00000110: 8662 8f3d 3aaf e43d df52 38bd 95ef 903e
00000120: b2f8 ad3a 0265 103e 78e0 ee3d 078d 4bbd
00000130: eafb 98be f8ef 5ebc 6c0c 0d3e 25bd 2ebd
00000140: a4e5 7c3d 236d 3e3e f5fb 9b3c 02f5 613d
00000150: 398b 73bc 4b7a 5d3d 92ff fb3d 2c62 89bd
00000160: 90f5 4fbd a0aa 8c3e a984 4bbd 6641 c13d
00000170: 7dd0 1f3c 83a2 103d de34 1ebe 4a30 083e
00000180: 303d 9abd 02de 98bd c35f 20be 91a4 e7bd
00000190: abc1 6cbc 076f b53d 4d53 ffbc fbe5 1abd
000001a0: 6a4e aa3d 3783 fa3d 24e2 9d3d b672 b63d
000001b0: 2927 6fbe 2247 71bc d4bf ad3d c8b8 dcbd
000001c0: 093d 1a3d 0919 c13d 45d1 5c3d 087d 033b
000001d0: 3e7a babd 942c 9939 b101 8b3c 8a82 703d
000001e0: 2635 283e 8121 6dbd fb51 5a3c 69de 5fbd
000001f0: a8b4 c6bd f698 26bd 8306 13bd a0be a9bb
00000200: 3615 c9b1 f481 8e32 7dc6 d1b1 7787 81b1
00000210: d763 2d31 16ce 8332 5197 29b2 01f7 7131
00000220: 91b3 8432 8513 9131 dfed 9f31 a53e 8331
00000230: 79e3 1932 13a8 09b2 bc27 c430 04cb 95b1
00000240: fe94 f131 497f 8a32 c96b 73b1 5900 90b0
00000250: 1ebf 98b1 06ed 10af 4c37 7e32 9b1c 8e32
00000260: d444 2732 0694 1bb2 6588 08b0 dc85 e5b1
00000270: beab 3131 6db2 d6b1 be6c 9b30 64e8 9331
00000280: 447a 9131 44ac e231 5b43 8b32 2811 8c31
00000290: 6f64 2632 8f85 db30 0770 4431 0525 bd31
000002a0: 2111 3032 b9f0 c4b1 2f87 8f32 88d5 efb0
000002b0: 71ff 1d31 3142 edb1 a7d1 0631 8949 2eb2
000002c0: 59e1 2231 bf46 ad31 16c9 1932 23c1 12b2
000002d0: 9e20 2531 9b24 2f31 96fa e7b1 db48 86b1
000002e0: 30f9 2a32 03c6 7db1 e358 8eb2 dc52 dfb0
000002f0: 7620 6730 e3a6 3e31 652f 1f31 6976 6332
00000300: 8306 473b ed56 f139 3b95 7537 8af6 47b9
00000310: 9c4a b8b9 2672 eb38 4926 98b9 62c5 753a
00000320: 0fdf a438 15fb 2d39 660b 6139 7058 66b9
00000330: 15d5 c536 8e53 913a 155e 89b7 c56f f3b9
00000340: 03f0 1339 2610 5e39 1a83 5638 3a98 beb9
00000350: 48d6 9437 8399 bab9 527d 77b8 8bc1 7639
00000360: 9d3e 25b9 dfe4 25b6 5c8f c235 e98f 9236
00000370: b464 0fb9 77dc 2538 5540 9238 6e7f ff38
00000380: 0c09 2538 be7f a938 f58d 16b9 c511 b138
00000390: a908 9137 bfdf 23b9 af80 7839 57f4 b237
000003a0: 525d 0b38 8b6c 8436 9742 bd37 f0cb 2a39
000003b0: 1365 8ab6 74c7 a1b7 dbb2 49b8 5024 c3b8
000003c0: 8899 2037 ee51 9139 8baf 15b7 3cdf cb37
000003d0: 1994 d638 a802 593a 7520 6c39 d5d0 0837
000003e0: 4014 ebb8 0e5e c1b8 1d35 aeb7 cc86 a3b8
000003f0: 14f2 b2b8 3a61 81b7 6735 a3b8 1970 2e38

conv1.lin_pos_r.weight f4 [32, 64]
-1.0804242 -0.020963002 0.0073161675 -0.2088814 -0.036320403 -0.0069677345 0.026640756 0.08753266
-0.11006943 -0.010259088 0.11737749 -0.26763287 -0.1004217 0.17047319 0.2862247 -0.050284013
0.094464354 0.03902701 -0.15023941 0.16842969 0.063957155 0.016135054 -0.08896437 0.0651298
0.017341692 0.06666361 0.20484692 -0.12901312 0.17789192 -0.121061526 0.005580129 -0.00891879
0.0796392 -0.14521994 0.08389363 -0.01931358 -0.16781723 0.0953662 -0.0016583133 -0.013108024
0.031811763 -0.07159523 -0.11218967 -0.061934482 0.16169958 0.0379886 -0.056074325 -0.00687456
0.16328195 -0.14215651 0.11130753 0.157137 -0.14049758 -0.03769467 0.017529001 -0.067174256
0.031556003 0.035400335 -0.04043402 0.016091209 0.009571289 -0.0514484 0.0721249 -0.08563594
-1.6345077 0.09101756 -0.31418583 -0.08800376 -0.16861024 0.06536085 -0.16997878 0.8067357
-0.0057040555 0.13985643 0.14661369 -0.18297121 -0.05649872 -0.33674565 -0.04560932 -0.107069574
0.017276363 0.3585196 0.05800828 0.14045879 -0.10439296 0.058219146 0.14938927 -0.092439994
0.055278108 0.09752112 -0.075898476 -0.03532915 -0.0071182363 -0.031515144 -0.0944753 0.07190214
-0.039982986 0.057603415 0.023866896 -0.0051219235 -0.025882326 -0.07139547 -0.110214435 -0.07632721
0.11772337 0.08029144 -0.028479835 0.14259778 0.1823796 0.060591556 -0.0034711696 0.09208522
-0.0014827288 -0.1230369 -0.02339806 -0.027084062 0.015351685 -0.011129584 0.008154544 0.07359663
-0.039707445 0.048037246 0.02787107 0.047147952 -0.014342732 0.05340685 0.017728105 -0.058993954
1.6760278e-08 -8.611856e-09 5.232128e-09 -6.2966783e-09 7.120051e-09 6.272436e-09 -1.104205e-08 -2.7539997e-08
-7.3639392e-09 7.530265e-09 -2.0038472e-08 -7.3581052e-09 -2.5864815e-09 -9.68679e-09 2.1750646e-09 8.8638147e-10
6.259286e-09 -2.5400195e-09 6.9962987e-09 -9.46242e-09 -6.255431e-09 -5.769622e-09 7.447722e-09 9.90563e-09
-2.2582305e-09 8.598595e-09 -3.737764e-09 1.4813478e-08 -1.1030531e-08 6.650284e-09 -3.8383976e-09 1.6110624e-08
1.596566e-08 -1.1803322e-08 -5.521309e-09 -1.5014912e-08 1.1999677e-08 -2.4179722e-10 -7.762219e-09 8.263341e-09
4.2416928e-09 4.601884e-09 3.5393475e-09 1.4136133e-08 4.876892e-09 1.3590094e-08 -2.2252051e-09 -1.5525687e-08
-1.25233734e-08 1.22832375e-08 -2.483301e-09 5.5549227e-09 9.774543e-09 -2.0150177e-09 2.7278997e-09 -5.0163402e-09
3.061122e-09 7.1307005e-09 1.7342375e-08 5.214879e-09 4.6245408e-09 -1.6302073e-08 -9.654794e-09 2.571345e-09
-0.002542051 7.7388286e-05 2.8515233e-06 -0.00023640982 -0.0005243563 1.307043e-05 -0.0008350518 -0.00023084143
6.721926e-05 0.00038067 2.2474684e-05 -3.8486003e-05 7.9903715e-05 0.00019922112 -0.00014728124 0.00013732043
-8.17092e-05 0.00021144928 3.3818094e-06 -0.00042261393 -5.0120707e-05 -0.00019615206 0.00029495065 0.00012592215
7.7974255e-05 -0.0008468925 -9.03263e-05 0.00037066327 -0.0009960575 -0.00021198095 6.106787e-06 -0.0001235774
-5.651986e-05 6.2524254e-05 -0.000530641 -0.00031742168 -6.6516346e-05 -0.00020141483 0.00038882144 -6.034007e-05
0.0003503629 -0.0002236733 0.0007074597 -0.00015174164 0.00014166576 -5.566075e-05 -0.00068900065 0.00010138914
-0.00016407795 -0.00080096483 0.00021780936 -0.00013198021 0.00024953508 -3.1603504e-05 0.00020863864 0.00020854744
0.0001590949 0.0003894657 9.320205e-05 -0.000108745255 -0.00014251434 0.00012192876 0.00027105788 -3.232543e-05
00000000: 574b 8abf 9aba abbc 76bc ef3b 01e5 55be
00000010: b4c4 14bd 9851 e4bb b73d da3c 5344 b33d
00000020: 156c e1bd bc15 28bc 9c63 f03d 2d07 89be
00000030: e4a9 cdbd 8690 2e3e 0b8c 923e 9cf6 4dbd
00000040: 8776 c13d c9da 1f3d 5cd8 19be d578 2c3e
00000050: f8fb 823d a92d 843c f432 b6bd c662 853d
00000060: 2a10 8e3c ee86 883d 64c3 513e 041c 04be
00000070: 4d29 363e 1bef f7bd 84d9 b63b 1e20 12bc
00000080: e019 a33d 89b4 14be 6cd0 ab3d 8337 9ebc
00000090: 48d8 2bbe 5b4f c33d c35b d9ba 0ac3 56bc
000000a0: 0d4d 023d 85a0 92bd b3c3 e5bd 03af 7dbd
000000b0: 9394 253e ef99 1b3d 31ae 65bd fd43 e1bb
000000c0: 6233 273e 7a91 11be 34f5 e33d 86e8 203e
000000d0: 99de 0fbe ba65 1abd fb98 8f3c a892 89bd
000000e0: de40 013d f1ff 103d 259e 25bd b6d1 833c
000000f0: e5d0 1c3c 8fbb 52bd 38b6 933d e561 afbd
00000100: 8c37 d1bf 6a67 ba3d f7dc a0be 513b b4bd
00000110: 2aa8 2cbe e9db 853d eb0e 2ebe 3b86 4e3f
00000120: 16e9 babb 8636 0f3e e621 163e ce5c 3bbe
00000130: 346b 67bd ed69 acbe d7d0 3abd 4b47 dbbd
00000140: 2987 8d3c e28f b73e 179a 6d3d 6ed4 0f3e
00000150: facb d5bd 3377 6e3d 80f9 183e 2e51 bdbd
00000160: 4c6b 623d 27b9 c73d a970 9bbd 4cb5 10bd
00000170: 1840 e9bb 0616 01bd 447c c1bd 6e41 933d
00000180: 33c5 23bd 8ff1 6b3d 8284 c33c cfd5 a7bb
00000190: 2c07 d4bc ca37 92bd 1bb8 e1bd 7151 9cbd
000001a0: f318 f13d d76f a43d 8b4e e9bc 2705 123e
000001b0: b8c1 3a3e da2e 783d 907c 63bb 2d97 bc3d
000001c0: 1f58 c2ba c5fa fbbd 4aad bfbc 65df ddbc
000001d0: a285 7b3c dc58 36bc a39a 053c d4b9 963d
000001e0: 46a4 22bd b4c2 443d df51 e43c 361e 413d
000001f0: c7fd 6abc 24c1 5a3d 883a 913c a5a3 71bd
00000200: 3ef8 8f32 58f3 13b2 49c6 b331 2b5a d8b1
00000210: a2a4 f431 ee84 d731 73b3 3db2 1891 ecb2
00000220: e505 fdb1 755e 0132 1121 acb2 94d2 fcb1
00000230: ddbd 31b1 f46a 26b2 2478 1531 8da5 7330
00000240: 4311 d731 7f8c 2eb1 1864 f031 2a90 22b2
00000250: 5aef d6b1 223e c6b1 dbe6 ff31 6c2d 2a32
00000260: 362f 1bb1 05b9 1332 b86d 80b1 5e7e 7e32
00000270: ca80 3db2 8480 e431 e7e2 83b1 a363 8a32
00000280: dc24 8932 8fc7 4ab2 f3b5 bdb1 24fa 80b2
00000290: 2327 4e32 efed 84af 9a5a 05b2 8ff6 0d32
000002a0: 53be 9131 9a1e 9e31 dc38 7331 5fdb 7232
000002b0: 9891 a731 de79 6932 39ea 18b1 595d 85b2
000002c0: 6126 57b2 4006 5332 b1a6 2ab1 9edd be31
000002d0: e5ec 2732 9178 0ab1 b875 3b31 325c acb1
000002e0: d45b 5231 4e02 f531 49f8 9432 902e b331
000002f0: e4e5 9e31 a308 8cb2 3cde 25b2 94b3 3031
00000300: 8a98 26bb 854b a238 cc5c 3f36 c7e4 77b9
00000310: f574 09ba 1249 5b37 61e7 5aba 060e 72b9
00000320: 11f8 8c38 aa94 c739 0488 bc37 086c 21b8
00000330: fb91 a738 03e6 5039 826f 1ab9 acfd 0f39
00000340: 4b5b abb8 7cb8 5d39 0bf3 6236 4892 ddb9
00000350: b338 52b8 2bae 4db9 9ba3 9a39 f809 0439
00000360: 1c86 a338 fe01 5eba 906d bdb8 9555 c239
00000370: 258e 82ba 3447 5eb9 e7e8 cc36 8e94 01b9
00000380: bd0f 6db8 741f 8338 b71a 0bba 9e6b a6b9
00000390: b17e 8bb8 e232 53b9 bbda cb39 a815 7db8
000003a0: eab0 b739 d889 6ab9 d174 393a d61c 1fb9
000003b0: 1d8c 1439 4675 69b8 0d9e 34ba e1a0 d438
000003c0: 570c 2cb9 d7f7 51ba c163 6439 2b64 0ab9
000003d0: 08d4 8239 018e 04b8 02c6 5a39 87ad 5a39
000003e0: b6d2 2639 3431 cc39 7875 c338 2a0e e4b8
000003f0: e76f 15b9 01b4 ff38 c61c 8e39 2b95 07b8

conv1.lin_pos_r.bias f4 [32]
0.017261945 0.019234847 -0.0058627757 -0.06955551 -1.4481508e-05 -0.0067205303 0.024675364 -3.0321211e-05
0.07063952 -0.02645042 0.015558786 -0.034050405 -0.03234186 0.020913173 -0.026122054 0.017036168
-0.05523815 -0.030192446 -0.000162694 -0.013019754 -0.042883087 0.000195526 -0.03503893 0.04179916
-0.00042379322 0.16128911 0.073053844 -0.033262923 -0.025238277 -0.03832076 0.015491929 -8.18684e-06
00000000: ec68 8d3c 6692 9d3c 871c c0bb 1f73 8ebd
00000010: 9af5 72b7 e537 dcbb fd23 ca3c 4e5a feb7
00000020: 74ab 903d 8dae d8bc 47ea 7e3c 7078 0bbd
00000030: e678 04bd 1a52 ab3c ebfd d5bc 6f8f 8b3c
00000040: 6641 62bd 2656 f7bc d798 2ab9 ce50 55bc
00000050: 2da6 2fbd 1c06 4d39 fb84 0fbd 9935 2b3d
00000060: 9030 deb9 f928 253e 419d 953d b43e 08bd
00000070: 81c0 cebc 3bf6 1cbd dcd1 7d3c 365a 09b7

conv1.lin_neg_l.weight f4 [32, 64]
5.5368905e-09 -1.9233588e-09 -1.2773509e-09 -6.8711867e-09 9.975245e-10 6.5103953e-09 -5.135037e-09 1.4499432e-08
1.749641e-09 3.3794387e-09 2.0203232e-09 1.5556723e-09 1.3861147e-09 -1.8498328e-08 -5.8969585e-09 -3.0087082e-09
5.758484e-09 -1.6144636e-08 1.5786904e-08 4.6500592e-10 -2.8870468e-09 -6.926208e-09 1.2360171e-09 1.7233615e-08
6.89164e-09 -1.3376677e-08 -1.3328523e-08 1.568473e-08 8.311221e-09 1.0332087e-08 -1.9659245e-09 1.2315231e-09
1.3342911e-08 2.408137e-09 -3.5213896e-09 1.446473e-09 3.3563854e-09 -2.4619862e-09 1.2616982e-08 -8.751048e-09
-8.1579077e-10 2.1939746e-09 2.4070892e-09 3.4623877e-09 3.9841375e-09 6.824519e-09 -1.1337828e-08 -1.8416003e-08
-8.197656e-09 -1.2118627e-08 1.2723041e-08 7.587605e-09 -1.531544e-08 1.7202225e-08 -2.2030813e-09 -1.6981863e-09
5.8927268e-09 1.8009025e-11 1.0871789e-08 -5.247097e-09 -3.6314392e-11 -1.7603194e-09 6.5099255e-09 -4.7072195e-09
0.05777937 0.011344306 -0.04953373 -0.065907 0.028887926 0.035976496 -0.016160343 -0.085078284
0.0807355 0.056594368 -0.033366635 0.08951922 0.076861754 -0.0007294797 0.047388982 0.01069072
-0.017972482 -0.1581836 -0.009463726 -0.03144823 -0.039377246 -0.0062638978 -0.10977392 0.018911686
-0.013944143 -0.028635222 0.02306612 0.05676642 -0.016565438 -0.0026625881 0.08875519 0.014437375
-0.066009395 0.016877087 -0.058021404 -0.08387485 0.008747295 0.017041413 0.0012733506 -0.0029899308
-0.027056523 -0.019731198 0.047237676 -0.03817533 0.04902332 -0.03173151 -0.01926593 0.041310295
-0.022628926 -0.030419083 -0.030344388 0.004719885 0.03552158 -0.088063106 0.029900992 -0.015770892
0.053900853 -0.0335908 -0.04330403 -0.055992123 0.07092956 -0.0123075005 -0.017681276 0.056934185
0.03914596 0.09784234 -0.017408857 -0.06470072 0.013761526 0.09380355 -0.071661256 -0.14765039
0.08104921 0.02253584 -0.0067778267 0.032673266 0.09330895 0.055024013 0.099367306 -0.042744074
-0.034112636 -0.13930403 -0.024255155 -0.13998894 0.02867721 0.01303377 -0.107929684 0.04232911
-0.01330854 -0.051738285 -0.002147726 0.04801664 0.00036052451 0.0019983451 0.032318283 0.021548232
-0.12219072 -0.025526563 -0.009303283 -0.029328048 0.00044430574 0.066355094 0.047293477 0.040090192
-0.035631303 -0.035363488 0.10352856 -0.10592667 -0.045228485 -0.046749663 0.032543957 0.03641322
0.043830268 0.029275134 -0.03678227 0.009732178 0.043191638 -0.034704793 0.06275794 -0.009225966
0.061990134 -0.02410423 -0.027988942 -0.095023185 0.047340356 0.0022750266 -0.07876672 0.1024265
0.11860105 0.050920196 0.15456645 -0.0514303 -0.11788685 -0.1168472 0.0048334184 -0.10353241
-0.011741663 -0.0015710399 -0.004012911 0.107854255 -0.006673142 0.19914094 -0.1006678 -0.032633845
-0.028724827 0.060850743 0.109341115 -0.061386768 0.19748747 0.07834916 0.12441113 -0.05483944
0.04817236 -0.008457739 -0.0064268755 0.00670954 -0.03865679 -0.06486731 0.07063378 0.016914217
0.010782791 0.045306213 -0.005984745 0.008360193 0.092725575 -0.03891192 0.008568735 0.05316135
-0.07534335 0.090296686 -0.03920327 0.018355416 -0.0040519373 0.013056765 -0.05594962 0.058036163
0.002893707 0.013492166 0.046104435 -0.04102745 0.07216989 0.057995874 -0.016995756 0.03154539
-0.177156 0.04803491 0.02333073 0.07148243 0.06394875 0.09046142 0.034354802 0.02869427
00000000: 013f be31 162c 04b1 ca8e afb0 9917 ecb1
00000010: 4619 8930 0bb2 df31 4370 b0b1 2d19 7932
00000020: 0578 f030 b73b 6831 e7d5 0a31 5acf d530
00000030: 9381 be30 41e6 9eb2 329e cab1 c1c1 4eb1
00000040: 29dc c531 6eae 8ab2 c59b 8732 c4a3 ff2f
00000050: 7765 46b1 92fb edb1 7ce0 a930 1f09 9432
00000060: 82cb ec31 3fcf 65b2 77fb 64b2 16bb 8632
00000070: 23c9 0e32 0081 3132 e918 07b1 5e42 a930
00000080: be3a 6532 657c 2531 f1fc 71b1 3fcd c630
00000090: 28a6 6631 b82f 29b1 13c2 5832 8457 16b2
000000a0: 2c3e 60b0 cfc4 1631 f669 2531 f8ee 6d31
000000b0: d8e4 8831 1b7d ea31 4bc8 42b2 3831 9eb2
000000c0: acd5 0cb2 4932 50b2 8794 5a32 a45a 0232
000000d0: 028f 83b2 18c4 9332 0465 17b1 9e65 e9b0
000000e0: f978 ca31 b868 9e2d a2c6 3a32 f449 b4b1
000000f0: 5fb6 1fae bcef f1b0 e9ad df31 24bd a1b1
00000100: 10aa 6c3d 78dd 393c e1e3 4abd 40fa 86bd
00000110: 5fa6 ec3c 175c 133d b262 84bc 863d aebd
00000120: a758 a53d 7fcf 673d 74ab 08bd da55 b73d
00000130: b269 9d3d 8e3a 3fba f31a 423d 2128 2f3c
00000140: 073b 93bc e2fa 21be be0d 1bbc dccf 00bd
00000150: 094a 21bd 6241 cdbb 26d1 e0bd aeec 9a3c
00000160: fa75 64bc 6a94 eabc 29f5 bc3c e883 683d
00000170: 3eb4 87bc d17e 2ebb 48c5 b53d bd8a 6c3c
00000180: ef2f 87bd d141 8a3c daa7 6dbd 94c6 abbd
00000190: d050 0f3c 6f9a 8b3c 8ee6 a63a b7f2 43bb
000001a0: a4a5 ddbc 52a3 a1bc 4b7c 413d bc5d 1cbd
000001b0: adcc 483d e6f8 01bd 95d3 9dbc fc34 293d
000001c0: 4c60 b9bc 7131 f9bc cb94 f8bc 44a9 9a3b
000001d0: 147f 113d 6e5a b4bd edf2 f43c f531 81bc
000001e0: 24c7 5c3d 8296 09bd 915f 31bd ff57 65bd
000001f0: 8443 913d 66a5 49bc 53d8 90bc d233 693d
00000200: 8457 203d 9161 c83d 059d 8ebc d081 84bd
00000210: 0678 613c 131c c03d 23c3 92bd aa31 17be
00000220: 21fd a53d 159d b83c 8818 debb 67d4 053d
00000230: c318 bf3d dc60 613d 1681 cb3d 6914 2fbd
00000240: b1b9 0bbd b7a5 0ebe bfb2 c6bc 4359 0fbe
00000250: 78ec ea3c 988b 553c 3d0a ddbd 4a61 2d3d
00000260: 100c 5abc 86eb 53bd ddc0 0cbb 19ad 443d
00000270: c804 bd39 abf6 023b 2d60 043d eb85 b03c
00000280: 213f fabd 151d d1bc cc6c 18bc 6041 f0bc
00000290: b5f1 e839 2ee5 873d ceb6 413d 9d35 243d
000002a0: 21f2 11bd 4ed9 10bd c806 d43d 15f0 d8bd
000002b0: 8141 39bd 937c 3fbd d04c 053d 0726 153d
000002c0: 5e87 333d 68d2 ef3c 01a9 16bd b773 1f3c
000002d0: b7e9 303d 9d26 0ebd 3c87 803d 8228 17bc
000002e0: 5ee9 7d3d 3c76 c5bc 1149 e5bc 849b c2bd
000002f0: f6e7 413d 9d18 153b 7250 a1bd fcc4 d13d
00000300: 1be5 f23d b291 503d ab46 1e3e 94a8 52bd
00000310: a96e f1bd 964d efbd a761 9e3b cd08 d4bd
00000320: 1b60 40bc 5aeb cdba bd7e 83bb b1e2 dc3d
00000330: 5faa dabb 9aeb 4b3e eb2a cebd 11ab 05bd
00000340: 5450 ebbc a13e 793d 3cee df3d b170 7bbd
00000350: 283a 4a3e 8675 a03d 43cb fe3d 529f 60bd
00000360: 6150 453d 5492 0abc 8a98 d2bb b3db db3b
00000370: 9556 1ebd 27d9 84bd 71a8 903d af8f 8a3c
00000380: 4eaa 303c 0293 393d ae1b c4bb 31f9 083c
00000390: e8e6 bd3d 1b62 1fbd e163 0c3c b7bf 593d
000003a0: 9d4d 9abd 78ed b83d 9c93 20bd 195e 963c
000003b0: 1dc6 84bb 0bec 553c 6e2b 65bd 54b7 6d3d
000003c0: 59a4 3d3b 3f0e 5d3c 01d8 3c3d 660c 28bd
000003d0: cfcd 933d 158d 6d3d af3a 8bbc bd35 013d
000003e0: 6268 35be 41c0 443d 1620 bf3c 6165 923d
000003f0: 90f7 823d d643 b93d 9fb7 0c3d 3f10 eb3c

conv1.lin_neg_r.weight f4 [32, 64]
-1.0406227e-08 9.031194e-09 -1.1766427e-08 1.4176425e-08 -2.451597e-09 -3.3244212e-09 2.7140428e-09 5.668986e-09
-5.1875126e-09 -2.5724137e-08 6.152748e-09 7.0753287e-10 1.290125e-08 4.36744e-09 1.03641735e-08 -8.109611e-10
8.058377e-09 -2.1698044e-08 -8.496512e-09 -8.77819e-09 9.45238e-09 8.060003e-09 5.1073616e-09 3.081991e-08
-1.3114148e-08 -5.2534865e-09 9.721273e-09 1.2307277e-08 -1.0532666e-08 -8.235995e-09 -1.5901202e-08 -9.414562e-09
1.0796116e-08 1.0496448e-08 -9.5366035e-09 -2.1832758e-09 6.9966295e-09 1.5445128e-08 -1.330106e-08 -1.27810855e-08
4.032135e-09 -7.2184414e-09 7.447694e-11 1.3985157e-08 -5.3733573e-09 7.6028535e-09 -5.622259e-09 2.3116031e-09
-9.272831e-09 -8.328595e-09 3.891325e-09 -3.7905754e-10 1.8223728e-09 -9.232394e-09 -1.6507848e-08 1.06421885e-08
-1.5809693e-08 -4.857906e-10 -2.1032263e-09 -1.25292425e-08 1.6677875e-08 -4.3053596e-09 1.1320789e-08 -6.482035e-09
0.09589082 -0.16585705 -0.09688865 0.024351357 0.089619346 -0.18703847 -0.006941701 -0.09141352
-0.043938678 -0.070598826 0.10150209 -0.12632687 -0.18531892 0.016500976 -0.044994537 0.016732028
0.046488415 0.0902061 -0.06842764 -0.0034905793 0.025330521 0.09314459 0.015974749 -0.07797603
-0.018620364 -0.08908347 -0.025949832 0.08890302 0.027500464 -0.077591866 0.020660702 -0.08109386
0.013380168 -0.021413783 -0.03414717 0.043620553 0.05487162 -0.008856463 0.03255299 0.050896984
-0.050197095 -0.056241132 -0.06703999 -0.05994762 0.09641481 0.019186558 0.016958153 -0.10264791
0.004555799 -0.10262026 -0.048702408 0.0836788 -0.20544676 -0.104376815 0.038603786 0.039726924
0.054389607 0.006315701 -0.004254831 0.07252929 0.00060768396 0.017650655 -0.05678953 -0.10838087
-0.054917738 0.053499322 0.012821068 -0.09628193 -0.026426401 0.06010564 0.016443845 0.27525586
-0.07819517 -0.0067165266 0.04609912 -0.096871376 -0.1041913 0.0004890888 -0.05304861 0.07593574
0.035954274 0.18812408 -0.06063053 0.1180984 -0.00812159 -0.072303414 0.056646463 -0.012478121
-0.01625026 -0.061026838 0.0013006696 -0.019665372 0.038831227 0.009075081 0.13372728 0.0503479
0.046457008 -0.060243085 -0.0148303425 0.17068708 -0.08945347 0.004199024 -0.14766087 0.14447065
-0.06920907 0.030110897 -0.040481832 0.12960835 0.0922672 0.07720563 -0.0462906 -0.028756654
0.067580365 -0.012750871 -0.05748153 -0.01645924 -0.08842292 0.037648108 -0.07555017 0.094267786
-0.073183976 0.10227887 0.094293624 0.12143857 0.039889287 0.04855709 -0.012348115 -0.08624434
-0.44671282 0.08903426 -0.011845906 -0.072598495 0.019440902 -0.22015636 -0.08570008 0.07292762
-0.0151601955 0.17067054 -0.08726139 0.12777102 0.3057541 -0.052790888 0.35309294 -0.2284314
-0.018746132 -0.15496464 -0.000884219 -0.31131002 -0.20288604 -0.09859764 -0.0245762 0.03474897
-0.1596872 0.023620978 -0.1278781 0.07144338 -0.1164745 0.059173927 -0.06353924 0.045629106
0.03887521 0.21077861 -0.07357249 0.10713953 -0.05964917 0.12407528 0.02399568 0.12916088
0.012544214 0.07834431 0.17431632 -0.19878872 -0.04706456 -0.13495761 0.006076746 -0.10500987
-0.023002159 -0.026576092 -0.007324804 -0.21010697 0.101707816 -0.10463086 -0.12824759 -0.05444736
0.07154476 -0.084289804 0.13701297 0.14410706 0.09200793 -0.2969236 -0.14222695 0.02457526
00000000: 12c7 32b2 9c27 1b32 4b25 4ab2 948c 7332
00000010: f378 28b1 d673 64b1 f281 3a31 eec8 c231
00000020: d83d b2b1 faf7 dcb2 2568 d331 337c 4230
00000030: 4ca4 5d32 6910 9631 1e0e 3232 50ea 5eb0
00000040: 1e71 0a32 8162 bab2 0ef8 11b2 e3ce 16b2
00000050: 0264 2232 4578 0a32 d47c af31 d95e 0433
00000060: a24c 61b2 2882 b4b1 9c02 2732 fa6f 5332
00000070: 28f3 34b2 4a7e 0db2 1d97 88b2 aebd 21b2
00000080: d279 3932 de53 3432 6dd6 23b2 9808 16b1
00000090: 0167 f031 32ac 8432 ae82 64b2 cf93 5bb2
000000a0: 098b 8a31 1506 f8b1 cac6 a32e 5f43 7032
000000b0: 8da0 b8b1 b49d 0232 ea2d c1b1 27da 1e31
000000c0: 584e 1fb2 8c15 0fb2 75b4 8531 9b63 d0af
000000d0: 0b77 fa30 809c 1eb2 24cd 8db2 d7d4 3632
000000e0: e2cd 87b2 7988 05b0 5988 10b1 3140 57b2
000000f0: 0943 8f32 58ee 93b1 5b7d 4232 95b8 deb1
00000100: 6862 c43d 6ed6 29be 8e6d c6bd 7f7c c73c
00000110: 598a b73d 0387 3fbe 3577 e3bb 0337 bbbd
00000120: 0bf9 33bd 1e96 90bd 54e0 cf3d d55b 01be
00000130: 3ec4 3dbe 0e2d 873c 314c 38bd 9b11 893c
00000140: a36a 3e3d fabd b83d ca23 8cbd 34c2 64bb
00000150: f481 cf3c 97c2 be3d 7add 823c e6b1 9fbd
00000160: bc89 98bc 6571 b6bd be94 d4bc c912 b63d
00000170: a748 e13c 7ce8 9ebd a240 a93c 8a14 a6bd
00000180: 7e38 5b3c f56b afbc e7dd 0bbd 77ab 323d
00000190: 10c1 603d b31a 11bc 4956 053d 5b79 503d
000001a0: 789b 4dbd 1a5d 66bd 434c 89bd a38b 75bd
000001b0: 2175 c53d 212d 9d3c d3eb 8a3c 1139 d2bd
000001c0: d048 953b 922a d2bd 2d7c 47bd ca5f ab3d
000001d0: a360 52be 83c3 d5bd 011f 1e3d b3b8 223d
000001e0: a3c7 5e3d f1f3 ce3b 1c6c 8bbb 3d8a 943d
000001f0: fb4c 1f3a 1b98 903c 239c 68bd caf6 ddbd
00000200: 6cf1 60bd 1b22 5b3d 750f 523c 762f c5bd
00000210: 2e7c d8bc 5531 763d 3eb5 863c 56ee 8c3e
00000220: ca24 a0bd 4f16 dcbb 6ed2 3c3d 8064 c6bd
00000230: 4062 d5bd 3236 003a 8049 59bd 3284 9b3d
00000240: ca44 133d 99a3 403e b857 78bd 93dd f13d
00000250: 6b10 05bc d013 94bd 1f06 683d 0871 4cbc
00000260: 441f 85bc 47f7 79bd 3b7b aa3a 4619 a1bc
00000270: 7e0d 1f3d a6af 143c ceef 083e 9939 4e3d
00000280: b449 3e3d 74c1 76bd f7fa 72bc 98c8 2e3e
00000290: 6233 b7bd f797 893b 6934 17be 1df0 133e
000002a0: 7cbd 8dbd 21ab f63c 47d0 25bd 0db8 043e
000002b0: 96f6 bc3d fc1d 9e3d 369b 3dbd 1393 ebbc
000002c0: 9367 8a3d 07e9 50bc c171 6bbd 87d5 86bc
000002d0: 1317 b5bd e734 1a3d 0cba 9abd 780f c13d
000002e0: 7be1 95bd 9677 d13d 041d c13d c9b4 f83d
000002f0: f362 233d cde3 463d c04f 4abc dfa0 b0bd
00000300: 8bb7 e4be 9857 b63d 5515 42bc 85ae 94bd
00000310: 8742 9f3c ab70 61be 8683 afbd 135b 953d
00000320: 7862 78bc 42c4 2e3e 1ab6 b2bd 68d6 023e
00000330: cd8b 9c3e 423b 58bd 99c8 b43e ece9 69be
00000340: 7d91 99bc 0daf 1ebe efca 67ba 0764 9fbe
00000350: 5cc1 4fbe 8fed c9bd 0754 c9bc f054 0e3d
00000360: 0b85 23be c880 c13c 7af2 02be e850 923d
00000370: 2f8a eebd 5c60 723d dc20 82bd 96e5 3a3d
00000380: 9d3b 1f3d 59d6 573e 2cad 96bd f86b db3d
00000390: b052 74bd 2e1b fe3d 9792 c43c c042 043e
000003a0: 3f86 4d3c fb72 a03d fa7f 323e 458f 4bbe
000003b0: c5c6 40bd 5432 0abe 711f c73b 6a0f d7bd
000003c0: 066f bcbc 1bb6 d9bc e904 f0bb 4826 57be
000003d0: 304c d03d b448 d6bd 5653 03be 3204 5fbd
000003e0: 0f86 923d 22a0 acbd 214d 0c3e cd90 133e
000003f0: a76e bc3d 5f06 98be f1a3 11be 0e52 c93c

conv1.lin_neg_r.bias f4 [32]
-0.016516883 0.041564245 0.06715714 0.00821968 -0.066629246 -0.0009849783 -0.048567895 -0.04442184
-0.0016428839 0.021089148 -0.090739295 0.023119738 -8.1186645e-06 0.09624553 0.02282619 -0.028792629
-0.0004009318 -0.013789301 -0.0432651 0.017669404 -0.002972584 -0.00017347609 0.032886487 0.023861555
-0.00024884625 -0.00015043073 0.022017047 -0.0017894702 -0.0012792676 -0.00032011038 0.013062735 0.025773712
00000000: 6a4e 87bc 453f 2a3d af89 893d d6ab 063c
00000010: ea74 88bd 631a 81ba 21ef 46bd adf3 35bd
00000020: 0956 d7ba 26c3 ac3c 86d5 b9bd 9b65 bd3c
00000030: 6635 08b7 601c c53d fdfd ba3c 85de ebbc
00000040: 2834 d2b9 85ec 61bc bf36 31bd 6dbf 903c
00000050: afcf 42bb 22e7 35b9 fbb3 063d 4f79 c33c
00000060: 9477 82b9 f1bc 1db9 185d b43c a88c eaba
00000070: 19ad a7ba 7dd4 a7b9 1505 563c 6423 d33c

convs.0.lin_pos_l.weight f4 [32, 64]
0.09880757 0.054679327 1.0743708e-08 0.0021117781 2.9513574e-08 -1.5942103e-06 0.06414162 -4.720514e-08
0.071416676 -0.0029217403 0.07899042 -1.775232e-09 0.0008135764 0.09209439 -0.03335511 0.063893
-0.0019418076 -2.1909305e-08 6.014971e-06 -5.8005116e-05 -0.0039599026 -0.12548807 -2.0162088e-09 0.05600368
1.8584708e-05 -0.075583726 -0.0046728295 -0.01535781 -6.782345e-10 -2.2510507e-08 0.06228349 -6.286269e-08
-1.1523092e-08 0.028069682 0.10144582 -0.0326654 -0.011421455 -0.09893429 0.00075539335 8.047343e-08
-1.1747936e-08 -0.03242689 6.9147216e-05 -0.016824028 -8.0070833e-10 0.10318238 0.0016998426 -0.001231097
-3.8144444e-07 -3.7070183e-08 -6.635244e-08 0.010975988 -5.5146168e-09 -1.678035e-06 0.058732364 -0.031294167
-0.0011134853 2.9501936e-09 0.051434368 0.020958168 0.03341297 -9.484413e-10 0.018876486 -0.050959244
-0.095094636 -0.079426795 8.0451334e-09 -0.0026939712 1.4250397e-08 -1.3536992e-06 -0.014071928 1.08597e-08
-0.046235777 0.005493606 -0.08140574 -8.5256646e-10 2.6731528e-10 -0.100122534 0.0002951344 -0.08968928
-1.310954e-06 -2.8628303e-10 -4.6369416e-05 -6.753384e-05 -0.0007020074 0.09826699 1.6324132e-09 -0.06713601
2.7930187e-06 -0.028615812 -0.027943207 0.00016306603 9.55771e-09 -1.6836772e-08 -0.074825935 -6.8077526e-08
8.436354e-09 -0.031709757 -0.070851654 0.025848677 -1.6842865e-05 0.08313027 1.9038634e-06 -7.5151005e-09
4.0344005e-08 0.022341873 -3.319183e-05 0.020857362 1.4875546e-07 -0.09382236 -0.07647441 0.0007660135
-8.383192e-06 2.6560598e-09 -7.2523804e-10 -0.015525934 -9.469439e-09 -1.4097157e-06 -0.030808792 0.00032174189
0.03181753 4.774136e-09 -0.09308653 0.028608905 -0.012054284 8.0943224e-10 -0.032673668 0.018484695
-0.074058555 -0.07917525 1.1675082e-08 0.019616894 -1.4978194e-07 6.901002e-08 -0.085525185 1.2010023e-09
-0.09811337 1.497008e-08 -0.048507467 -5.4983036e-09 1.7917886e-09 -0.078546815 1.633616e-08 -0.009343601
2.5848992e-10 -4.856415e-09 0.00015151815 -2.5214365e-05 -1.22697585e-08 -0.053779013 -3.5707917e-09 0.0066345045
2.1860255e-06 0.14068198 0.04032307 -1.883001e-09 1.260137e-08 -1.0101578e-09 -0.07863801 -2.5982726e-07
-1.9225357e-09 -0.03190411 -0.16393259 0.022029612 1.2597851e-08 0.23743379 -8.92779e-09 -5.162976e-09
-1.2262265e-08 0.03817833 8.073774e-05 0.09546452 1.0050096e-07 -0.31905362 0.012548951 0.0011249752
2.5165411e-06 -6.6149433e-09 4.4152357e-10 -0.05221482 4.8564748e-09 -1.1753132e-06 -0.2512089 0.13601811
0.056536697 -6.308454e-10 -0.04826842 -0.14660469 -0.106357776 9.336382e-10 0.013948578 0.1056508
-3.863063e-08 -4.380103e-08 -6.882264e-10 8.717149e-09 8.47988e-09 1.0558171e-09 3.3191426e-08 8.2875875e-09
-7.2807225e-08 1.4262612e-08 5.2687597e-09 -7.614194e-09 9.771369e-09 1.9858533e-08 1.2596514e-09 1.9324728e-08
1.7651969e-08 -2.4768352e-09 7.3891147e-09 9.9184865e-09 1.7596603e-08 -5.901519e-08 -8.713623e-09 -6.72176e-08
-1.0744298e-09 -8.327552e-10 -6.068009e-08 1.1539191e-08 -4.691606e-09 2.562017e-09 -1.7559094e-08 -1.1118182e-09
-1.7422877e-08 -6.534925e-08 8.274646e-09 7.106677e-08 -6.083588e-10 -6.562771e-09 -6.642324e-09 -1.959715e-09
-8.531327e-10 -6.0627254e-09 5.035749e-09 1.6534715e-08 -9.0711033e-10 -1.5544313e-08 -3.660139e-08 5.704241e-09
4.098001e-09 -5.771762e-09 -1.0642048e-08 2.5907552e-08 8.653605e-10 5.9937305e-10 -3.4870297e-08 -9.304727e-09
6.483775e-09 3.4814311e-09 -5.5954374e-08 7.7255535e-09 8.247962e-09 1.3067493e-08 5.1537818e-08 -2.5620198e-08
00000000: a05b ca3d 6ef7 5f3d 5493 3832 c265 0a3b
00000010: 0985 fd32 a6f8 d5b5 af5c 833d 9abe 4ab3
00000020: e842 923d ab7a 3fbb bbc5 a13d 6cfc f3b0
00000030: 3046 553a fc9b bc3d 5e9f 08bd 55da 823d
00000040: 4084 feba 1233 bcb2 35d4 c936 854a 73b8
00000050: 12c2 81bb f27f 00be 858d 0ab1 1d64 653d
00000060: 5be6 9b37 a4cb 9abd 891e 99bb 539f 7bbc
00000070: 836e 3ab0 215d c1b2 f91c 7f3d 21ff 86b3
00000080: 18f7 45b2 64f2 e53c d3c2 cf3d 28cc 05bd
00000090: 0e21 3bbc 109e cabd 9705 463a bcd0 ac33
000000a0: f8d3 49b2 0fd2 04bd 2103 9138 8bd2 89bc
000000b0: d718 5cb0 4951 d33d 41cd de3a c35c a1ba
000000c0: 53c9 ccb4 1937 1fb3 a47d 8eb3 a1d4 333c
000000d0: 157b bdb1 d838 e1b5 5991 703d 502e 00bd
000000e0: 5ef2 91ba 5bbc 4a31 d8ac 523d 77b0 ab3c
000000f0: 0adc 083d 505a 82b0 dca2 9a3c a4ba 50bd
00000100: fac0 c2bd 84aa a2bd df36 0a32 568d 30bb
00000110: e9d1 7432 c0b0 b5b5 f28d 66bc 7791 3a32
00000120: ba61 3dbd b503 b43b 0db8 a6bd 085a 6ab0
00000130: 48f5 922f 0b0d cdbd 45bc 9a39 03af b7bd
00000140: 09f4 afb5 c162 9daf c87c 42b8 f4a0 8db8
00000150: eb06 38ba 3440 c93d 6f5b e030 9b7e 89bd
00000160: b26f 3b36 b56b eabc 27e9 e4bc b4fc 2a39
00000170: 4133 2432 74a0 90b2 573e 99bd 0432 92b3
00000180: 7aef 1032 17e2 01bd ac1a 91bd 9bc0 d33c
00000190: c749 8db7 3440 aa3d 4088 ff35 c31b 01b2
000001a0: b446 2d33 4e06 b73c 7537 0bb8 0fdd aa3c
000001b0: 97b9 1f34 f025 c0bd 9e9e 9cbd 4cce 483a
000001c0: 89a5 0cb7 e685 3631 175a 47b0 7d60 7ebc
000001d0: 08af 22b2 7635 bdb5 b862 fcbc 77af a839
000001e0: 1953 023d bf09 a431 27a4 bebd 395d ea3c
000001f0: 557f 45bc bb7e 5e30 d3d4 05bd 376d 973c
00000200: 03ac 97bd a226 a2bd 8e93 4832 9cb3 a03c
00000210: bfd3 20b4 a932 9433 d427 afbd 8310 a530
00000220: aaef c8bd 8e97 8032 c4af 46bd 97eb bcb1
00000230: f542 f630 27dd a0bd 9953 8c32 e715 19bc
00000240: 391b 8e2f 7add a6b1 d8e0 1e39 7083 d3b7
00000250: f8ca 52b2 6247 5cbd 0862 75b1 4266 d93b
00000260: a2b3 1236 f00e 103e ce29 253d 1b66 01b1
00000270: 697d 5832 c5d5 8ab0 f70c a1bd 637e 8bb4
00000280: 9b1d 04b1 e2ad 02bd f2dd 27be 7277 b43c
00000290: ef6d 5832 d821 733e d660 19b2 0466 b1b1
000002a0: 03aa 52b2 e160 1c3d be51 a938 e782 c33d
000002b0: fdd2 d733 ff5a a3be 1e9a 4d3c e773 933a
000002c0: d9e1 2836 a849 e3b1 ebba f22f 35df 55bd
000002d0: 01de a631 74bf 9db5 749e 80be 5548 0b3e
000002e0: 0693 673d cc67 2db0 1bb5 45bd 8a1f 16be
000002f0: 1bd2 d9bd 7951 8030 9488 643c 725f d83d
00000300: d4ea 25b3 be1f 3cb3 a12d 3db0 6dc2 1532
00000310: e8ae 1132 431c 9130 5c8e 0e33 3261 0e32
00000320: 325a 9cb3 a207 7532 8008 b531 94cf 02b2
00000330: efde 2732 6095 aa32 0b20 ad30 87ff a532
00000340: 17a1 9732 f234 2ab1 57e3 fd31 f765 2a32
00000350: 5727 9732 e377 7db3 ebb2 15b2 4459 90b3
00000360: 23ab 93b0 f0e7 64b0 3b4f 82b3 e63d 4632
00000370: ce33 a1b1 7b0f 3031 dbd4 96b2 a0ce 98b0
00000380: 50a9 95b2 2156 8cb3 4728 0e32 5f9d 9833
00000390: 7239 27b0 bf7e e1b1 803a e4b1 acab 06b1
000003a0: e081 6ab0 4c50 d0b1 eb06 ad31 3908 8e32
000003b0: 3758 79b0 4e86 85b2 a733 1db3 09ff c331
000003c0: 66ce 8c31 f550 c6b1 39d4 36b2 4f8b de32
000003d0: 55de 6d30 21c1 2430 4cc4 15b3 9fda 1fb2
000003e0: e3c7 de31 fc3d 6f31 7c52 70b3 58b9 0432
000003f0: ecb2 0d32 717f 6032 6e5a 5d33 6913 dcb2

convs.0.lin_pos_r.weight f4 [32, 32]
-0.4296747 -0.8370377 4.3281343e-09 -0.016821215 2.6019643e-07 5.0778516e-07 0.19142942 1.8723571e-10
0.176834 -3.9207915e-08 0.12208843 1.3685192e-08 -2.4367601e-08 -0.94281125 -2.1417963e-08 -0.680948
-2.1608836e-08 -1.1332478e-09 0.00013201842 -2.1347068e-05 1.6945365e-09 -0.026228452 -5.3800377e-09 0.22508733
1.8908529e-06 -0.070893735 0.3313208 4.3852328e-08 1.1238847e-08 -6.9906037e-10 -0.3246529 7.8201644e-08
0.21777841 0.62101954 7.462681e-09 0.0175588 7.0614995e-08 1.8591426e-06 -0.08143285 -9.303818e-09
-0.05483076 -4.491071e-09 -0.21602596 7.1399415e-09 2.184784e-08 0.6746257 -2.3960128e-08 0.43120873
-1.0803334e-08 9.726961e-09 -0.00015604544 1.5697065e-05 6.443584e-09 0.18378225 1.6649825e-08 -0.272636
-1.0044034e-05 0.022690995 -0.14266664 3.1389146e-08 8.837684e-09 1.1192552e-08 0.20331581 8.713274e-09
-0.42887077 0.2136616 2.7651412e-08 0.0074153114 7.0387834e-08 -2.8287236e-08 -0.7255745 -5.30822e-09
-0.4534965 -3.7371657e-09 -0.43643773 2.5732312e-08 -2.7165212e-09 0.23066826 -3.819056e-09 0.54311264
-3.0779204e-09 3.975341e-09 1.5287684e-05 -2.5885212e-05 1.9754607e-08 -0.4606685 -1.3231201e-08 0.090685144
-1.9856649e-05 0.5132397 0.23870245 -7.030312e-09 5.743099e-10 1.8133559e-08 -0.3391433 -3.7255128e-07
-5.037009e-08 9.93677e-09 -3.3285366e-10 -2.3304478e-08 1.3981682e-08 2.9306557e-09 -4.6163617e-08 -2.0038922e-09
3.8393427e-08 3.6980372e-10 4.308104e-08 1.2933304e-08 -1.8816225e-08 -2.0389146e-08 -1.4957449e-08 1.3637323e-08
-1.9074424e-08 -1.6439571e-08 -2.5329173e-08 -5.67953e-09 8.622664e-09 8.202566e-09 8.887078e-10 -4.8167443e-08
1.3089734e-09 3.0731933e-09 -1.7981808e-08 -2.433137e-09 -2.4109251e-08 -6.726574e-09 -3.7724032e-08 6.9909576e-09
-2.956763e-08 6.0220393e-09 8.9035375e-09 -5.086355e-10 4.793011e-09 2.2046764e-09 4.716425e-09 3.3980352e-09
-4.107078e-09 6.2005676e-09 -1.5971292e-08 -1.3292695e-08 6.683273e-10 5.593421e-09 1.1060484e-08 -4.9253672e-09
6.9227435e-10 9.862698e-10 1.7658104e-08 1.106228e-09 -1.1596639e-08 -2.1535074e-08 3.3763174e-09 2.258014e-08
-1.5097585e-08 1.5173956e-08 7.1851947e-09 5.6306875e-09 2.6582502e-08 -7.631384e-09 -8.8945615e-09 -1.3846472e-09
0.4286389 0.5555904 -1.3915353e-08 -0.0059904126 -3.0555353e-07 2.2533336e-06 0.5578973 1.21994335e-08
0.16065168 -2.1027805e-08 0.19222838 -3.2349905e-09 9.531593e-09 0.6025658 -5.9008357e-08 0.16435124
-2.9879335e-08 3.378812e-08 -0.00015748807 -4.3435928e-05 1.7369016e-08 0.10251009 -3.5900158e-08 -0.24216342
-3.7602479e-06 -0.1102097 -0.27515087 -3.1434022e-09 -3.1127353e-08 -3.3824445e-09 0.5888696 -2.0731145e-08
-2.7864742e-08 1.6189638e-08 2.6714223e-10 -1.1334312e-08 -4.9754973e-09 2.7455226e-08 2.6661892e-08 9.501705e-10
6.04595e-08 -9.057286e-09 -2.8087472e-09 -2.1644109e-09 -7.71611e-10 -1.6575353e-08 -1.7842645e-08 -1.3123153e-08
6.1538605e-09 -5.8261165e-09 -7.930924e-09 1.1660491e-09 8.3550695e-09 2.7194025e-08 -9.585836e-09 9.239365e-09
1.4346919e-08 -1.0518868e-08 1.2952797e-08 4.3239123e-09 1.6228116e-08 -1.7936575e-08 2.158594e-09 1.0844464e-08
-0.4172625 -0.6881437 -4.4868367e-09 -0.009148816 2.0077992e-07 -5.606429e-07 -0.6265133 1.8130272e-08
-0.13350272 -5.8146177e-09 -0.2580678 -2.2256915e-08 8.278795e-09 -0.7236032 -1.5103629e-08 -0.2670233
-3.91312e-09 8.69911e-09 -0.0001656221 -3.1058906e-05 3.860743e-09 0.033726145 1.0035951e-08 0.21517067
1.6547987e-05 0.16989507 0.25295246 -1.0881278e-08 4.3459214e-09 6.9709e-09 -0.7119823 -7.753021e-09
00000000: 53fe dbbe 1a48 56bf acb6 9431 a5cc 89bc
00000010: 20b1 8b34 bb4e 0835 1306 443e 2bde 4d2f
00000020: f913 353e 8f65 28b3 8009 fa3d 1c1c 6b32
00000030: ec50 d1b2 145c 71bf 99fa b7b2 9c52 2ebf
00000040: 559e b9b2 9dc0 9bb0 6d6e 0a39 7b12 b3b7
00000050: 34e5 e830 0ddd d6bc 50db b8b1 4b7d 663e
00000060: 36c9 fd35 bc30 91bd e1a2 a93e 2558 3c33
00000070: f914 4132 0028 40b0 e838 a6be cfef a733
00000080: 4e01 5f3e 23fb 1e3f 3835 0032 79d7 8f3c
00000090: 01a5 9733 a787 f935 44c6 a6bd a0d6 1fb2
000000a0: 3896 60bd e14f 9ab1 e935 5dbe 9753 f531
000000b0: e9ab bb32 45b4 2c3f e1d0 cdb2 64c7 dc3e
000000c0: 9199 39b2 a01b 2732 21a0 23b9 31ad 8337
000000d0: 5d66 dd31 6a31 3c3e 5a05 8f32 f296 8bbe
000000e0: cc82 28b7 77e2 b93c 3417 12be bbd0 0633
000000f0: 8cd4 1732 5d49 4032 0532 503e 62b1 1532
00000100: f394 dbbe 1bca 5a3e 1986 ed32 24fc f23b
00000110: 1f28 9733 4afc f2b2 40bf 39bf 9963 b6b1
00000120: b130 e8be 7568 80b1 c474 dfbe f409 dd32
00000130: 8cad 3ab1 4d34 6c3e c638 83b1 6e09 0b3f
00000140: 5983 53b1 7897 8831 0d3e 8037 1224 d9b7
00000150: d7b0 a932 bedc ebbe 704f 63b2 22b9 b93d
00000160: d491 a6b7 ad63 033f 6a6e 743e 478f f1b1
00000170: 77dd 1d30 1ec4 9b32 31a4 adbe 0f03 c8b4
00000180: 8056 58b3 60b6 2a32 fdfc b6af 172f c8b2
00000190: 1634 7032 a464 4931 6f45 46b3 d8b4 09b1
000001a0: 05e6 2433 3f4d cb2f 1b08 3933 4631 5e32
000001b0: 51a1 a1b2 3524 afb2 c77b 80b2 9549 6a32
000001c0: 1ad9 a3b2 0037 8db2 7193 d9b2 ad25 c3b1
000001d0: e122 1432 44eb 0c32 4049 7430 aae0 4eb3
000001e0: 68e7 b330 3030 5331 6a76 9ab2 3334 27b1
000001f0: ce18 cfb2 921f e7b1 0306 22b3 1d35 f031
00000200: e8fb fdb2 6bea ce31 2cf6 1832 0bd0 0bb0
00000210: c5af a431 1481 1731 1d0e a231 de82 6931
00000220: 3d1e 8db1 c50c d531 3e31 89b2 e45d 64b2
00000230: 5ab5 3730 4030 c031 8604 3e32 fd3b a9b1
00000240: 7a4a 3e30 498d 8730 95ae 9732 f009 9830
00000250: 8f3a 47b2 21fc b8b2 ce04 6831 41f6 c132
00000260: f1af 81b2 e257 8232 a4e1 f631 0d78 c131
00000270: 8a57 e432 2f1b 03b2 b2ce 18b2 f14d beb0
00000280: 8f76 db3e 2c3b 0e3f 5f10 6fb2 394b c4bb
00000290: f50a a4b4 fa37 1736 5cd2 0e3f ad95 5132
000002a0: e081 243e a2a0 b4b2 84d7 443e 8e4e 5eb1
000002b0: 64c0 2332 c141 1a3f 6070 7db3 b14b 283e
000002c0: ad54 00b3 6e1e 1133 6223 25b9 f92e 36b8
000002d0: df32 9532 cff0 d13d a430 1ab3 b0f9 77be
000002e0: 9158 7cb6 a0b5 e1bd 93e0 8cbe 5103 58b1
000002f0: e3b0 05b3 9870 68b1 28c0 163f 4514 b2b2
00000300: 375b efb2 6411 8b32 eddc 922f d5b8 42b2
00000310: f0f4 aab1 aed6 eb32 1f06 e532 2797 8230
00000320: f6d5 8133 5d9a 1bb2 0104 41b1 b8bc 14b1
00000330: 4c19 54b0 9661 8eb2 6444 99b2 3d74 61b2
00000340: ee71 d331 102f c8b1 9340 08b2 b542 a030
00000350: fc89 0f32 4b98 e932 f4ae 24b2 28bb 1e32
00000360: 6b7a 7632 79b6 34b2 0187 5e32 8991 9431
00000370: 0166 8b32 f212 9ab2 6356 1431 754e 3a32
00000380: 6ea3 d5be 2f2a 30bf a22a 9ab1 eae4 15bc
00000390: f795 5734 167f 16b5 2d63 20bf e4bc 9b32
000003a0: f0b4 08be ebc9 c7b1 7621 84be 792f bfb2
000003b0: 873a 0e32 0f3e 39bf 3bbd 81b2 47b7 88be
000003c0: 2b74 86b1 1773 1532 d8aa 2db9 3f45 02b8
000003d0: 74a7 8431 6d24 0a3d 946a 2c32 b355 5c3e
000003e0: 88d0 8a37 f9f8 2d3e fc82 813e 5ef0 3ab2
000003f0: 2153 9531 af84 ef31 7944 36bf 2632 05b2

convs.0.lin_pos_r.bias f4 [32]
0.016762694 0.12570906 0.029743671 -0.015944934 -0.00865374 0.14066626 -0.0005327352 0.05722781
-0.017899157 -0.00046387815 -0.01610372 -0.0010719767 0.030745612 -0.027258215 -0.055902924 -0.023261296
-0.006349712 -0.0067333104 -0.03667319 -0.036440257 -0.061083786 0.031085638 -0.009695586 -0.0028906525
-0.0107960235 0.026609251 -0.045646746 -0.00017434529 -0.003466921 0.024738833 0.06313239 0.12271047
00000000: eb51 893c e0b9 003e 00a9 f33c f39e 82bc
00000010: 6bc8 0dbc d10a 103e 41a7 0bba b567 6a3d
00000020: 41a1 92bc ac34 f3b9 f3eb 83bc 9281 8cba
00000030: 39de fb3c 9f4c dfbc 77fa 64bd 798e bebc
00000040: 3f11 d0bb 1aa3 dcbb a036 16bd 6142 15bd
00000050: fe32 7abd 4fa7 fe3c 3cda 1ebc 1a71 3dbb
00000060: cee1 30bc a5fb d93c 15f8 3abd 75d0 36b9
00000070: 4835 63bb 18a9 ca3c 8e4b 813d a04f fb3d

convs.0.lin_neg_l.weight f4 [32, 64]
1.6786531e-09 -6.2772904e-07 -2.7847103e-05 1.9254667e-06 4.236717e-09 3.2339105e-07 -8.883205e-09 -1.06887335e-08
3.146822e-10 -1.6728051e-06 -1.4999562e-09 -4.7670116e-07 -3.0205314e-09 -1.751583e-05 -5.364679e-06 2.7441107e-09
-2.032679e-09 7.3128708e-09 -3.1436922e-09 8.871475e-06 1.411232e-08 -5.162705e-09 5.273076e-06 1.0329023e-06
-2.3667204e-07 5.6303873e-09 -7.09878e-06 1.0098961e-06 -7.492279e-07 -4.5467865e-09 -3.099644e-06 7.0772353e-06
-5.521166e-06 -1.9738077e-07 -5.1271576e-10 6.576267e-09 -3.5043574e-10 -5.1324917e-10 7.1875984e-06 -2.5531195e-09
-7.709507e-06 -6.438589e-09 -7.077289e-08 5.002368e-09 -3.5253507e-09 -8.199488e-07 4.620844e-09 3.1414038e-06
-1.2144545e-08 1.6913095e-09 -3.2155139e-09 3.895728e-09 1.8780737e-09 -9.642557e-07 1.1108895e-08 -5.7433e-06
1.510264e-08 -8.648679e-06 3.362122e-06 -7.097557e-09 9.613553e-09 -6.560145e-09 4.2867587e-06 -8.027503e-09
-7.899059e-09 -0.049932018 -0.06438106 0.017969491 -2.5707938e-09 0.022832684 4.709502e-09 5.725582e-09
1.7462937e-09 0.021711104 3.0497875e-09 0.022275425 -8.923326e-09 -0.08838591 0.016462123 -2.0943458e-09
5.824991e-07 3.1273341e-12 -1.3628837e-09 0.0178544 -6.68108e-09 1.0414408e-08 -0.042007864 0.020507213
-0.0041962415 4.1942982e-09 0.011346502 0.00052395015 0.020150062 8.802322e-09 0.02070119 0.017487947
0.020094197 0.01308256 -1.3874896e-08 1.4357684e-08 1.2034256e-09 8.05102e-09 0.002097427 1.606287e-08
-0.06763 -4.4646056e-09 0.015671397 -8.0064275e-09 -2.9998457e-09 0.012108633 -4.6628684e-10 0.012799847
1.4247957e-09 -1.054016e-08 -2.2968003e-09 1.7732585e-10 -1.34875044e-08 0.0077894605 1.1909744e-09 -0.032722455
-2.2353257e-09 -0.09647752 -0.07586414 -2.8770109e-10 -5.4400364e-09 7.517007e-11 0.016835537 6.118555e-09
-2.6576615e-08 -0.04230084 0.004318311 -0.05027774 0.0034130353 -5.0418274e-09 -0.009478958 -2.2391955e-08
1.0908349e-08 0.01166294 -1.0852867e-08 -0.028450383 -7.026697e-09 -6.9438433e-09 0.020323347 1.0642044e-08
-1.9369391e-08 -8.173724e-09 5.6296717e-06 -0.01563574 -4.614039e-09 9.142779e-09 0.05788851 0.009588606
1.9844162e-09 -8.625219e-09 -0.028258163 0.053754978 0.009296852 -7.027852e-09 0.010132749 -7.508836e-09
-9.356736e-09 0.031816397 3.6450307e-09 5.168378e-09 1.1473636e-08 7.512566e-09 -0.004834647 1.3005084e-09
-0.034128703 0.045708414 -0.024160726 -5.5392804e-05 -0.0052606957 0.023843464 0.03480143 -0.029944247
-0.015594829 -1.4281896e-08 1.2340641e-09 -4.455229e-09 -0.007862999 -0.020103034 -2.1680695e-08 0.048727073
1.5598259e-08 -2.2738431e-09 -7.825202e-09 -0.014570718 2.8343257e-09 1.6124318e-08 -0.027494732 -1.1376315e-08
-1.40045096e-08 0.03717968 -0.008510378 0.08879388 0.0015341466 0.04152646 0.00026367424 -1.5311931e-08
3.2458436e-09 0.005730083 -0.0001245425 0.04387975 8.0941405e-08 0.06464207 0.1473324 -0.00036077146
2.7291813e-08 8.77103e-09 5.5991695e-08 -0.030749794 -4.32524e-09 -1.5878787e-06 0.033917166 0.08163007
-0.12811151 -1.5247782e-08 0.06271881 0.009008786 -0.0025872616 1.1779072e-08 0.07906235 0.21350619
0.01976981 -0.055527434 -4.37635e-09 -0.016013995 6.157313e-08 -1.4230867e-06 -0.093686745 3.1133364e-08
0.026262375 -0.056456488 -0.032582432 2.2305505e-08 -0.00033213917 -0.010892675 0.011410684 0.036572613
-0.0007039701 1.8719069e-09 2.5627025e-06 2.9650222e-05 0.013528029 -0.20753795 1.8163785e-08 0.08864484
-1.945042e-07 0.10206084 0.06890539 -0.032114647 2.9574666e-08 -1.5598788e-08 -0.029890742 2.472079e-07
00000000: 5bb6 e630 3681 28b5 3399 e9b7 4437 0136
00000010: 8f92 9131 879e ad34 c09c 18b2 8ca1 37b2
00000020: 95ff ac2f 2585 e0b5 0427 ceb0 4fed ffb4
00000030: c091 4fb1 f5ee 92b7 3e02 b4b6 e892 3c31
00000040: 44af 0bb1 b144 fb31 6b08 58b1 b2d6 1437
00000050: a472 7232 a263 b1b1 61ef b036 41a2 8a35
00000060: ea1f 7eb4 6975 c131 0e32 eeb6 c48b 8735
00000070: 8d1e 49b5 f539 9cb1 7a03 50b6 fd78 ed36
00000080: 7442 b9b6 9def 53b4 2aef 0cb0 75f5 e131
00000090: 72a7 c0af b314 0db0 002d f136 f472 2fb1
000000a0: 1558 01b7 6e3a ddb1 cffb 97b3 4be1 ab31
000000b0: a042 72b1 741a 5cb5 60c5 9e31 e8d0 5236
000000c0: 46a4 50b2 aa73 e830 ebf7 5cb1 30db 8531
000000d0: 6c0f 0131 936b 81b5 70d9 3e32 92b6 c0b6
000000e0: 0ebb 8132 cb19 11b7 d1a0 6136 c6de f3b1
000000f0: da28 2532 a567 e1b1 fad6 8f36 55e9 09b2
00000100: 6eb4 07b2 8485 4cbd 38da 83bd c134 933c
00000110: e2a9 30b1 9c0b bb3c 38d1 a131 c0ba c431
00000120: 3f02 f030 7cdb b13c 6e94 5131 f47a b63c
00000130: 344d 19b2 ac03 b5bd 93db 863c 1fec 0fb1
00000140: 095d 1c35 0b11 5c2c 3550 bbb0 6443 923c
00000150: 678f e5b1 0deb 3232 7010 2cbd befe a73c
00000160: a080 89bb 701d 9031 aee6 393c b359 093a
00000170: be11 a53c 0639 1732 8b95 a93c e242 8f3c
00000180: 969c a43c 3c58 563c 705e 6eb2 c3a9 7632
00000190: c665 a530 c350 0a32 fc74 093b a0fa 8932
000001a0: 9981 8abd 1667 99b1 4d61 803c a48c 09b2
000001b0: d825 4eb1 4a63 463c 052c 00b0 73b6 513c
000001c0: 8bd2 c330 1d14 35b2 bdd5 1db1 caf8 422f
000001d0: acb6 67b2 bb3e ff3b b0af a330 fb07 06bd
000001e0: 449c 19b1 0296 c5bd a95e 9bbd 542a 9eaf
000001f0: 11eb bab1 fd4c a52e aeea 893c 613b d231
00000200: 984a e4b2 a543 2dbd 9e80 8d3b 08f0 4dbd
00000210: 3bad 5f3b 623c adb1 a24d 1bbc 6e58 c0b2
00000220: 6d67 3b32 ea15 3f3c 6a73 3ab2 c710 e9bc
00000230: 7b6f f1b1 b196 eeb1 267d a63c 34d4 3632
00000240: be61 a6b2 6b6c 0cb2 83e6 bc36 8616 80bc
00000250: 8489 9eb1 5e12 1d32 811c 6d3d 8719 1d3c
00000260: 385e 0831 1d2e 14b2 aa7d e7bc 2e2e 5c3d
00000270: d351 183c a479 f1b1 d403 263c 3600 01b2
00000280: 5cbf 20b2 e951 023d 0f7c 7a31 8995 b131
00000290: 961d 4532 9d10 0132 f56b 9ebb 92bd b230
000002a0: 8aca 0bbd bf38 3b3d b7ec c5bc 9255 68b8
000002b0: ea61 acbb 5e53 c33c f28b 0e3d a34d f5bc
000002c0: 7481 7fbc 715c 75b2 c59b a930 9c14 99b1
000002d0: cfd3 00bc 1eaf a4bc 5a3c bab2 0a96 473d
000002e0: effc 8532 df41 1cb1 9a6f 06b2 05ba 6ebc
000002f0: fcc5 4231 c081 8a32 a23c e1bc 9071 43b2
00000300: 7c98 70b2 b849 183d 1d6f 0bbc 91d9 b53d
00000310: 6b15 c93a a617 2a3d c23d 8a39 4b87 83b2
00000320: 7c0d 5f31 6cc3 bb3b 9f97 02b9 41bb 333d
00000330: 02d2 ad33 1063 843d 4ede 163e ed25 bdb9
00000340: 556f ea32 66af 1632 857b 7033 fee6 fbbc
00000350: 379d 94b1 191f d5b5 baec 0a3d ab2d a73d
00000360: aa2f 03be 3afa 82b2 b872 803d 9699 133c
00000370: 0c8f 29bb e85c 4a32 71eb a13d 5ea1 5a3e
00000380: 4cf4 a13c bc70 63bd c85e 96b1 c82f 83bc
00000390: 303a 8433 e300 bfb5 d6de bfbd 7fb7 0533
000003a0: 3124 d73c eb3e 67bd 2875 05bd 539a bf32
000003b0: f722 aeb9 3177 32bc e1f3 3a3c 2acd 153d
000003c0: a28a 38ba efa2 0031 e5fa 2b36 5eb9 f837
000003d0: aba4 5d3c d484 54be 9606 9c32 6d8b b53d
000003e0: e8d8 50b4 4605 d13d 451e 8d3d a68a 03bd
000003f0: 610b fe32 19fe 85b2 6edd f4bc ffb7 8434
