wiki-RfA/models/wiki-RfA-train-3.pt (torch, 63739 bytes, 14 tensors)

conv1.lin_pos_l.weight f4 [32, 64]
00000000: da5e af3a 72f6 383a aae6 1137 0713 c738
00000010: 24ec 8b3a b6c7 ab38 2bc5 bd39 7874 f6bb
00000020: 9577 90ba 04ae 3c3a b5c8 2a3a df05 ebb9
00000030: d74c 3db7 0c00 24ba 44b4 2037 6c39 5e3a
00000040: 4cc0 a336 ce3b 4c3a 1361 21b9 0428 c4b7
00000050: c4fd a5b8 dd49 4aba bb68 2cba 036b 2738
00000060: e8c5 0cb9 a88c 9ab8 dbbe 10b9 0232 21b9
00000070: 7c65 0538 3f1d 5cba 48cc 4eb9 4ece 9839
00000080: dac5 3b3a e18f 4fb8 ec30 cb37 6d2d 1337
00000090: 4aa1 d339 823f 65b8 2252 5db9 c68c 38ba
000000a0: 9312 29ba 56e2 9035 808e 58b8 34e5 28b9
000000b0: 9f50 38b9 cc29 58b8 5ce6 c2b8 c75c 063a
000000c0: 7f36 6b36 ebc1 81b6 f931 4b3a 570b 8eb9
000000d0: 1c91 9637 c743 85b7 e9e7 7d39 77ed ae39
000000e0: 3b8c 99b9 2580 79ba fd1d 7738 d725 c9b7
000000f0: ae08 9f39 29ba 8e37 5e0d 6fb9 efc6 2a3a
00000100: fda0 85be 464e 173e 376f 803d 3a1a 8d3c
00000110: 4690 ab3d 5fd1 c93d 984c 94bd de0a a53d
00000120: c327 5dbc 0351 b2bd 4dd6 cfbd cbe0 593e
00000130: 2679 95bd 4daa aebc 7dbc 84bd 053f 9d3c
00000140: 4d43 ab3d cc5e 4d3d c60c 9a3d 3690 34bd
00000150: 2313 fcbd 6836 30be 8f11 cc3d 7f4d 1e3d
00000160: ab50 893d 136c 87bb 74ad 553d 0f16 abbd
00000170: 0ca1 52be 2ecd 24be d8c0 72bd 6ef0 1fbd
00000180: bb4c 3bbd 7c9d cd3d d34e aebb ebff 9fbd
00000190: 17ee 203e 314c 903d 1d4e 2cbd 989e 0dbc
000001a0: c378 30bd 1ab6 a4bd 3c2d 2c3d 2d5f 583d
000001b0: 9e1b 13bc aedd a4bb aaf7 413d d3bc 9d3d
000001c0: 8df0 0a3c f10d 603d 6ee5 143e 1844 803d
000001d0: 8255 99bb 2d2e a3bd 4dce 953d 596c 09bd
000001e0: c692 17be 57e9 c63d 5c7c 07be 7579 f2bd
000001f0: 42a8 babd b9fd 3e3e ba9c c0bd 3b8a cebc
00000200: c654 1533 7dca 8632 3c18 aab1 010b 25b2
00000210: 0acd 6c31 d070 9eb1 d65c 41b2 b3a3 2fb1
00000220: bfcd 2932 63c9 adb1 0ee3 9531 6793 47b1
00000230: 4f50 e330 aa2c 4230 ddbf d4ae 7311 1cb2
00000240: 169f 8032 a2db f4b0 dc56 8fb1 b169 9bb1
00000250: 55b0 b9b1 a564 d730 3830 4fb2 930c 2bb2
00000260: a87c 12b2 6dfb edb1 8b24 e330 5614 41b1
00000270: a968 3eaf 7bd3 e731 d7b2 ba30 e8f9 ab31
00000280: c95b 5031 55b6 1bb2 3eb6 8b31 86a6 4c31
00000290: 052f 0fb1 3380 9230 383e e6b0 7653 e1af
000002a0: 65f0 2c30 b372 95af 7a74 9931 6046 3ab1
000002b0: 5542 8531 56bd 8631 6e02 8131 144a 3c32
000002c0: 7253 a631 e818 2232 a5c7 14b1 8a2b 50b2
000002d0: 9593 3bb2 fa00 b931 0494 3632 3085 55b1
000002e0: 9afe ef31 8e68 c131 7ee3 5131 c552 7fb1
000002f0: 6485 4b32 0c0e 5d31 c48a 35b1 66af a3b0
00000300: f63b 68bd eba2 f73a 7ce8 b8bb 109e 51bd
00000310: 2642 e03c c443 e23b f3ba 88bd ec24 763a
00000320: 031b 5a3d 3d25 bcbd ad6f d7bb 26e3 8c3d
00000330: 8402 023c a416 003c 263a 6d3b ab25 84bc
00000340: 6a28 853d 2c79 7f3c 29b9 abbc ae2a b63d
00000350: 21bb 43bc 339d 3cbc 2baa cb3c 20ea 353d
00000360: 5d79 e0bb ebdd c43c ae21 b6bc c8b3 28bd
00000370: 8290 05bd 6474 09bc 09f9 dcbc c685 3abc
00000380: 14c6 093b 4550 f73a 6539 3abc 38ab 97bb
00000390: f327 1f3c b820 1fbc 5e01 213c 0210 403c
000003a0: 3455 24bd 675f 3d3c b726 c5bb 16a6 55ba
000003b0: e14b e5bb 05b0 37bc 16e9 7fbd 630f 063d
000003c0: e4e5 493c 0a2d 68bc 1c1d 43bd ac55 993d
000003d0: ad20 0e3c a2f2 36bd 5162 5fbb b9e7 05bd
000003e0: decf e6bc b398 173b 2433 e1ba 0c09 003c
000003f0: b7ee ad3c 1a6f 713d 6813 113c 27dd bcbb
0.0013379708 0.0007055766 8.696379e-06 9.4926036e-05 0.0010675234 8.1911145e-05 0.0003619579 -0.0075212084
-0.0011021966 0.0007197561 0.0006514893 -0.00044827067 -1.12831685e-05 -0.00062561105 9.5787145e-06 0.00084771845
4.880165e-06 0.0007790894 -0.0001539032 -2.3383654e-05 -7.915081e-05 -0.0007716695 -0.00065768854 3.9915565e-05
-0.00013425166 -7.3694915e-05 -0.0001380401 -0.00015372786 3.1804186e-05 -0.0008396692 -0.00019721792 0.00029145408
0.0007162966 -4.9486644e-05 2.4222267e-05 8.772459e-06 0.00040365226 -5.4657e-05 -0.00021106799 -0.000704002
-0.0006449606 1.0794708e-06 -5.1631127e-05 -0.00016107113 -0.00017577641 -5.153734e-05 -9.293549e-05 0.0005125519
3.504945e-06 -3.8670746e-06 0.0007751282 -0.000270928 1.7948965e-05 -1.5886397e-05 0.00024214353 0.0003336479
-0.00029286914 -0.0009517691 5.8917318e-05 -2.3978688e-05 0.0003033331 1.7014407e-05 -0.00022797796 0.0006514629
-0.26099387 0.14775953 0.062712125 0.01722442 0.08377127 0.098543875 -0.072411716 0.080587134
-0.013498249 -0.08706858 -0.101482965 0.21277158 -0.07298498 -0.02132144 -0.06481264 0.01919509
0.08362446 0.050139233 0.075219676 -0.044082843 -0.123083375 -0.17208254 0.099642865 0.038648125
0.06704839 -0.0041327565 0.05216737 -0.08353817 -0.20569247 -0.16093895 -0.05926594 -0.03904765
-0.045727473 0.100398034 -0.005319455 -0.07812484 0.15715824 0.07045782 -0.042066682 -0.008643769
-0.043083917 -0.080425456 0.042035326 0.05282514 -0.008978752 -0.005031309 0.04735533 0.07702031
0.008480203 0.054700796 0.14540645 0.06262988 -0.004679383 -0.07967792 0.073147394 -0.033550594
-0.14802083 0.09712475 -0.13231033 -0.11839572 -0.09114124 0.18651475 -0.09404893 -0.025212398
3.4768867e-08 1.5691734e-08 -4.9504063e-09 -9.606766e-09 3.4459071e-09 -4.6112305e-09 -1.1255187e-08 -2.5558904e-09
9.883876e-09 -5.0578577e-09 4.362284e-09 -2.90421e-09 1.6539249e-09 7.064026e-10 -9.6747256e-11 -9.084363e-09
1.4973505e-08 -1.781576e-09 -4.1717225e-09 -4.5231094e-09 -5.4042553e-09 1.5671914e-09 -1.20599495e-08 -9.956369e-09
-8.526662e-09 -6.9261916e-09 1.652681e-09 -2.8096756e-09 -1.7317582e-10 6.7470274e-09 1.358411e-09 5.005166e-09
3.0320157e-09 -9.063645e-09 4.066151e-09 2.9780565e-09 -2.0835966e-09 1.0659335e-09 -1.6752386e-09 -4.0986564e-10
6.2914857e-10 -2.718444e-10 4.466128e-09 -2.7106566e-09 3.8783505e-09 3.9214383e-09 3.7546704e-09 1.0959884e-08
4.8407225e-09 9.435304e-09 -2.165032e-09 -1.2117093e-08 -1.0918389e-08 5.3843197e-09 1.0627449e-08 -3.1071288e-09
6.9847603e-09 5.6289258e-09 3.0542817e-09 -3.7154433e-09 1.1846485e-08 3.2167717e-09 -2.6417846e-09 -1.1909662e-09
-0.05669781 0.0018893158 -0.0056429487 -0.05117613 0.027375292 0.006905051 -0.06676283 0.0009389657
0.053248417 -0.0918679 -0.006574592 0.068792626 0.00793517 0.007817898 0.003619799 -0.016131243
0.06501849 0.0155928545 -0.020962315 0.08894859 -0.0119464705 -0.011512089 0.024861416 0.044412732
-0.006850405 0.0240316 -0.022232857 -0.041187078 -0.032608517 -0.008389566 -0.026974218 -0.011384433
0.0021022605 0.0018868527 -0.011366223 -0.004628565 0.0097141145 -0.009712391 0.009826986 0.011722567
-0.04012032 0.01155839 -0.006016578 -0.0008150054 -0.006997571 -0.0112114 -0.062478147 0.032729518
0.012322877 -0.014170894 -0.047635183 0.07487044 0.008674783 -0.044664986 -0.00340857 -0.03269169
-0.02817529 0.0023131787 -0.0017181379 0.007814657 0.021231992 0.058943845 0.0088547245 -0.005763668

conv1.lin_pos_r.weight f4 [32, 64]
00000000: 1c1d 9dbb 84ad 9c37 7a09 2a39 3e7b 1f3b
00000010: 9b31 2fb7 163b 8639 b3b3 7139 eb78 90bb
00000020: 4e60 8839 6d12 f5ba b82e 77b9 cb75 ea39
00000030: ace5 653a 8e12 11b9 bea0 16ba fcbd e9b9
00000040: 77c3 b13a 92f7 0a38 acba d4b9 4596 1639
00000050: 0485 35b9 8604 14ba 92fe 9aba f430 45b9
00000060: 8c60 a3ba 9992 ce36 e9cf 21b9 d4b4 b7b8
00000070: b036 bcb9 6de6 ff39 be8e c439 b485 4d38
00000080: b5e8 0c3a cf30 653a 2ef3 1cba 4df4 20ba
00000090: 48c6 c23a 313e 2e38 60e3 b839 9f53 41ba
000000a0: 8960 293a 67e3 a439 f381 8eb8 d578 49b7
000000b0: ad2f 25ba 7b12 abb7 c01f a038 e06b 9ab9
000000c0: 1d9e d139 1d93 8338 4de8 83b9 81df 1bba
000000d0: c127 dfb9 47cf 28b7 7049 c339 78eb 643a
000000e0: f96d edb8 87f7 5638 270e 1339 16f4 43ba
000000f0: d71a 70b9 692d ddba bbaf a4b9 c4ac 5fba
00000100: 7455 abbf b208 c3bd bf55 b33e 58db a3bd
00000110: 5ec7 bdbd ff15 a3bd 59a2 6ebe eaa3 b53e
00000120: 433b 7a3d 1f8f c7bd f404 803c d3bc f03d
00000130: 2d31 1abe 5eb8 dbbd bfbe 39bd e94b 1cbe
00000140: 73da f9bd f140 01bd 6209 8d3e b599 683e
00000150: 1a28 b3bd ad77 6fbe 3e38 9abd aa4a 2c3e
00000160: 9684 333d 0a5b 183c e75b fbbc 4de6 b6bd
00000170: ce99 c7bd 6778 593d 3a02 233d 11f4 b93b
00000180: 4c40 113e 2983 f23c c1a3 103e 963a 30bc
00000190: 6cba 04be 4f52 66bd 76df 16bd 6cbd e83d
000001a0: ec40 26be ee00 e3bc 487b 1fbd e348 4f3d
000001b0: 4a1e aebc 4b88 7dbd c8ea ccbd a64c 723d
000001c0: 960c da3b 1e39 9238 1d46 c33d 0be8 f43c
000001d0: 4adb 2bbc de20 21bd d8d9 9c38 ed16 34bd
000001e0: 845b 19bd 7b22 86bd ab73 58be 6718 18be
000001f0: 9e71 1a3e e408 823d e296 593d bf58 16bd
00000200: 3a7c 5e32 e866 7130 39be 08b1 670f c931
00000210: 2b24 2f31 8630 b6b0 1515 88b1 7490 0e31
00000220: a433 b430 72f8 8831 8878 f230 8a99 a1b1
00000230: 2630 0032 e670 0732 eefc c6b1 7e89 e731
00000240: f17c bdb1 3061 a8b0 b96d 97b1 136d a2b1
00000250: 19f7 8331 a053 962e 0ca8 12b1 9a0a a1b1
00000260: 90d6 7431 8a9a 8630 519a 3732 db50 2ab2
00000270: 070d 11b2 8d51 7b31 dc8e 74b1 40d4 2932
00000280: 4ade 9232 3dde 40af 008f 09b2 63f7 9032
00000290: 56bf ff31 0eb0 6831 c912 4932 40db 0831
000002a0: 4b25 4731 7b38 5732 2ad1 8231 2c31 9932
000002b0: c316 3d32 807b 0932 4bde 5e31 c5c2 7fb2
000002c0: b589 38b2 40a8 04b2 fb6e fbb0 d967 8a30
000002d0: 1efc 67b2 fa2d c8b1 b5ca 53b1 ea12 8eb1
000002e0: ed2d df31 1913 9731 1376 1632 7524 7731
000002f0: 1756 25b2 f1d4 7132 9f14 2a32 6672 8231
00000300: 9774 b03e cf0b ea3d 25b1 e3bd 1b21 a93d
00000310: 518f d13d b355 e1bc 37a1 b53d a5ce 8139
00000320: 8709 e7bc 7a36 40bd 2bab acbc dd94 c2bd
00000330: b487 ff3d 90a4 26bd 808c 6d3e db71 69bc
00000340: d942 6e3d ac8b ebbd 15ba 3f3e 4118 7c3b
00000350: 548c 4e3e ddc0 1cbb 3d7f 02bd 469e 9cbd
00000360: bf8d 2f3d ea1d d3bd 3ae0 14bd 4e79 813d
00000370: a6ae dc3d d75d 5dbd da6a 723d ac12 d1bb
00000380: e116 69bd d09b 933d 044e 0bbc 153a 3dbd
00000390: 7a55 2fbe 8d80 073d f0b9 0ebe 483d 8ebd
000003a0: 45ef 9dbc 277f d03b 466f a0bd cf49 d2bd
000003b0: a96d 5ebd bcb0 eb3d 7e26 363d fbd7 cb3d
000003c0: 21da 48bd 9805 8a3d 3135 dc3c 56ec 333d
000003d0: 1554 593d 3171 0bbd 8047 5c3d 558a b23c
000003e0: 8355 71bc 5a17 92bc b6c6 30bc a172 51bd
000003f0: d818 4abd d9d5 fa3a 6e37 45bd 299a 1f3d
-0.00479473 1.8677449e-05 0.00016215994 0.0024334933 -1.04423625e-05 0.00025602494 0.00023050494 -0.004408946
0.00026011694 -0.0018697508 -0.0002357316 0.0004471972 0.00087698805 -0.0001383519 -0.00057459984 -0.00044582773
0.0013562281 3.313233e-05 -0.00040574872 0.00014361095 -0.00017311057 -0.0005646426 -0.0011825135 -0.0001880562
-0.0012464686 6.1563446e-06 -0.00015431609 -8.759802e-05 -0.000358989 0.0004880907 0.00037490384 4.900033e-05
0.0005375252 0.000874293 -0.00059871643 -0.0006139919 0.0014860118 4.1542753e-05 0.00035264622 -0.0007374826
0.0006461223 0.00031449946 -6.7952926e-05 -1.2008667e-05 -0.0006301355 -2.0393394e-05 7.6353084e-05 -0.00029453542
0.0003998139 6.273969e-05 -0.00025159345 -0.00059460854 -0.00042563493 -1.0061841e-05 0.00037248014 0.00087325973
-0.00011321525 5.1252104e-05 0.00014024285 -0.00074750313 -0.00022898182 -0.0016874495 -0.00031411447 -0.0008532519
-1.3385453 -0.09523143 0.35026357 -0.08000821 -0.09266542 -0.0796318 -0.23304118 0.3547662
0.061091673 -0.09744095 0.015627362 0.11754765 -0.15057822 -0.107285246 -0.045347925 -0.15263332
-0.12199869 -0.031556074 0.2754622 0.22714885 -0.08747883 -0.23385496 -0.075302586 0.16825357
0.043827616 0.009299049 -0.03068347 -0.08930645 -0.09746133 0.05309334 0.039797045 0.005674847
0.14184684 0.029603558 0.14124967 -0.0107561555 -0.1296174 -0.05623084 -0.036834203 0.11364254
-0.16235703 -0.027710404 -0.03893593 0.05060662 -0.021254677 -0.061897557 -0.100057185 0.05915513
0.0066543324 6.9724614e-05 0.095348574 0.029895803 -0.010489294 -0.039337985 7.479236e-05 -0.043967176
-0.03744079 -0.065495454 -0.21137874 -0.14853059 0.15082404 0.06349352 0.05312241 -0.03670573
1.2950347e-08 8.782153e-10 -1.9898734e-09 5.851621e-09 2.548641e-09 -1.3256034e-09 -3.9605177e-09 2.0745832e-09
1.3111401e-09 3.986366e-09 1.7642074e-09 -4.703172e-09 7.461528e-09 7.883704e-09 -5.791313e-09 6.738616e-09
-5.514828e-09 -1.2251231e-09 -4.4071524e-09 -4.727221e-09 3.8406935e-09 6.836065e-11 -2.134132e-09 -4.686922e-09
3.5628638e-09 9.793706e-10 1.0687089e-08 -9.913687e-09 -8.443073e-09 3.6571663e-09 -3.558788e-09 9.885355e-09
1.7097722e-08 -1.7541253e-10 -8.006964e-09 1.6876305e-08 7.443229e-09 3.3860519e-09 1.1704011e-08 1.9915234e-09
2.897951e-09 1.2527489e-08 3.807277e-09 1.7833905e-08 1.1006423e-08 8.00253e-09 3.243161e-09 -1.4887239e-08
-1.0741521e-08 -7.721667e-09 -1.8294196e-09 1.0070337e-09 -1.35032945e-08 -5.825993e-09 -3.0819767e-09 -4.134894e-09
6.4953753e-09 4.3968496e-09 8.757996e-09 3.5963954e-09 -9.623839e-09 1.40764636e-08 9.899991e-09 3.7965036e-09
0.3446395 0.114280336 -0.11117772 0.082582675 0.102324136 -0.027506685 0.0886864 0.0002475876
-0.028202785 -0.046926953 -0.021077713 -0.0950105 0.12477055 -0.040684283 0.23198128 -0.014248337
0.05816922 -0.1150125 0.18723328 0.0038466605 0.20170718 -0.0023918666 -0.031859625 -0.07647376
0.04285979 -0.1030844 -0.03634665 0.06321965 0.10775499 -0.05404457 0.059183933 -0.0063803997
-0.056906585 0.07207453 -0.008502487 -0.04619797 -0.1712245 0.03308158 -0.13938117 -0.06945282
-0.019279132 0.006362814 -0.07833724 -0.10267984 -0.0543038 0.11508319 0.044470303 0.099533044
-0.04903615 0.06739348 0.026880832 0.04392656 0.053058702 -0.034043495 0.053779125 0.021794477
-0.01472986 -0.0178334 -0.010789564 -0.05113471 -0.0493401 0.0019137218 -0.048148565 0.038965378

conv1.lin_pos_r.bias f4 [32]
00000000: 39ff 83bd da09 813c 53a7 8bbc d757 cd3d
00000010: 2d6c 5738 b107 883a 7e65 913c 2adb 34ba
00000020: db0b c83d 2a49 d4bc bcef 8e3c 000c b0bc
00000030: d4ea fbbc fe68 943c a7ea 86bc 843c 993c
00000040: 9a2c 34bd b832 03bd 6283 bdb8 71ed a0b7
00000050: ee80 16bd 9b4b 7b3d cfd6 48bd 2413 023d
00000060: 4a26 85ba 90a3 59ba be68 30ba 7a6a 47bd
00000070: eb06 2dbd f959 55bd 88d0 ba3c ec41 a6b8
-0.06445164 0.015751768 -0.01704756 0.1002652 5.136074e-05 0.0010378269 0.01774859 -0.0006899113
0.09767886 -0.025913794 0.017448299 -0.021490097 -0.030751623 0.01811647 -0.016469313 0.018705614
-0.043987848 -0.03203079 -9.036694e-05 -1.9184054e-05 -0.03674405 0.0613514 -0.049032982 0.031756535
-0.0010158506 -0.0008302266 -0.0006729475 -0.04868553 -0.042242926 -0.052087758 0.022804514 -7.927776e-05

conv1.lin_neg_l.weight f4 [32, 64]
00000000: 8c64 bbb1 4645 6ab1 246f 8431 5d05 0eb2
00000010: a21b ca30 f835 1fb2 3fc9 d230 ee28 cc31
00000020: 0c73 a831 0d66 fa31 6b8b adb1 e295 e131
00000030: 4a9b a831 4949 9d32 babc 3932 4726 5ab2
00000040: 9a40 39b1 2fb3 f2b1 8209 44b2 ec1f c2b1
00000050: a27b 17b2 b537 6232 c655 80b0 f7eb 0d32
00000060: dcef 04b2 312c d3b1 d71e b8b2 2ac8 95b2
00000070: 0b4d b8b1 ffb7 48b2 031b a4af 2ef2 9eb1
00000080: 6330 87b2 8553 1fb1 a726 7b31 582e d630
00000090: 0ac2 76b1 734a 0ab2 8d76 6a32 7ade 4fb2
000000a0: 75d6 b231 f44a 9231 0b6e 2732 df87 4b30
000000b0: 018d cc31 6027 5732 7d9f 73b2 0dc2 9e32
000000c0: 40db 6bb1 4ec0 c7b2 50a9 00b1 b6de 36b2
000000d0: 9448 7d32 0243 2eb2 783b f031 306b 2db1
000000e0: bb6d 8a31 0479 2232 100c 3030 3cdc 8932
000000f0: a382 b3b1 feb9 6fb2 8b10 1332 6a5f 40b2
00000100: 9b70 11bb 917b 73bd 6cc4 423d 1ccb 7fbd
00000110: 3600 37bc 0d18 6dbc 6cde 7abb 87d2 aebd
00000120: 2ddb 18bc f554 6dbd 9d55 e438 93b1 e63c
00000130: 95c6 b23c 6ff7 a23c 9014 4f3d 4bf7 033c
00000140: 977b 89bc 1062 ccbb b621 6cbc 1d40 61bd
00000150: ab1a 80bc 500d edbb 8245 453d 1240 bbba
00000160: c77c f9bc d643 acbc 8cc2 313c fb98 29bd
00000170: 0245 0f3c 183d dc3b 70f0 a3bc 9707 423c
00000180: 2b97 923d a7a8 eebb 7678 20bd 9629 1d3d
00000190: e9cd 693d 528f bc3c a3d0 c83b b676 cf3c
000001a0: e15f f53c a52c 0d3c 483f 7dbb 040f dfbc
000001b0: 9670 55bb 8c6c f2bc b0d3 093d f84f 07bc
000001c0: de9d 6f3d 8979 ca3c 7b37 ddbc a031 a63c
000001d0: 0869 083c c8cd 95bd c03a 283d b3fb 4c3c
000001e0: 929b 01bd 9bcb de3c ee7a eebb b887 683b
000001f0: aaa9 c0bc f917 973c 1e18 533c 3663 853b
00000200: 5a2b 0abe 434d fcbc 0305 8c3d 2b43 90bc
00000210: af91 22bd bf9f 1a3c 2cf6 0d3c 65b6 1bbd
00000220: e893 093d 5ec0 9f3b 64e3 423d dc9b 003d
00000230: fc08 183c 2c20 cabc 91d9 393d 7021 973a
00000240: 0239 12bd 87cb 98bd da48 363d 07b3 9cbc
00000250: 32ee 683d c3f9 443a d616 78bc c085 0d3d
00000260: 4149 873d c529 b53c 51a9 39bd c999 57bd
00000270: 003a 80bd 5399 b03c 4eed a23c b633 2e3c
00000280: 07e6 293d 24e0 5cbd 4d64 c3bc d587 2abd
00000290: f945 523d 5c42 e5bc db0f febc 9012 f63c
000002a0: 6cd7 dfbb 0e94 113d 7c30 9f3d c17f 46bd
000002b0: 813e 8bbd b143 f6bb b309 893c bc70 4cbc
000002c0: 959f 4b3d 5c16 71bd 8379 3abd 5112 493b
000002d0: 1285 3fbc 74d8 b5bb 1700 78bc 4363 a73c
000002e0: fa83 c6bc 50c6 5d3d e508 ac3c ef0b 35bb
000002f0: 9c23 b23c e940 12bb 6190 f93c d482 883d
00000300: 5232 7cbd 336d 58bd 6ba4 d0ba dbbb 1dbd
00000310: d1db 49bd 8758 fdbc 4eb0 cf3a 0523 1cbd
00000320: 4f6f b03c 96ef 003d 748e c33d f105 9d3c
00000330: ace3 80bd c33c 243d 9422 4f3c b02a a63d
00000340: 6326 09bc 61e1 0bbc e65e 0e3e 871a 9cbb
00000350: 1b3f debb 50a6 19bd 9edd d5bd e90f 143d
00000360: efc2 c13d 1c98 963c 71d9 7dbd 2de0 4b3c
00000370: 2adb afbc c6bd 7abc 9ccf 88bd 855a 203d
00000380: 9497 d2bc d4f1 bcbd 8a4d a13c 1626 723d
00000390: d0aa 5d3d 9f14 9a3c d7e9 ebbd 519a 953c
000003a0: fac2 6abd c7ef 1b3b 82b5 203d 86e5 db3c
000003b0: 15b8 dbbb aa94 393d 87e1 e4bc 7f9b 863d
000003c0: ce03 3d3d 4ec5 efbc f297 a5bb 349b 20ba
000003d0: 609b 123d 4b2b 05bd fec4 6bbd dd0f 6d3d
000003e0: 434e 8d3b a44d 41bd 1409 d23c 4367 b8bd
000003f0: c9e6 94bc 820d 1abc be42 10bd 3042 a13b
-5.453847e-09 -3.409086e-09 3.854341e-09 -8.266707e-09 1.4705288e-09 -9.267289e-09 1.5336709e-09 5.9418346e-09
4.902523e-09 7.2875594e-09 -5.0508127e-09 6.5654016e-09 4.907098e-09 1.8310532e-08 1.0811329e-08 -1.2697973e-08
-2.6957765e-09 -7.063498e-09 -1.1410863e-08 -5.649772e-09 -8.817468e-09 1.3167598e-08 -9.337604e-10 8.260932e-09
-7.737949e-09 -6.145932e-09 -2.1434444e-08 -1.7436907e-08 -5.3638636e-09 -1.1683368e-08 -2.985062e-10 -4.625938e-09
-1.5738072e-08 -2.318502e-09 3.6547279e-09 1.5583721e-09 -3.590801e-09 -8.049585e-09 1.3647548e-08 -1.2099571e-08
5.2048628e-09 4.2576804e-09 9.7457e-09 7.4044054e-10 5.9532117e-09 1.25236e-08 -1.4180725e-08 1.8481865e-08
-3.432163e-09 -2.3254099e-08 -1.8722695e-09 -1.0644433e-08 1.4743041e-08 -1.0143369e-08 6.99168e-09 -2.5235742e-09
4.0288035e-09 9.457157e-09 6.404557e-10 1.604905e-08 -5.2244373e-09 -1.3953921e-08 8.560288e-09 -1.11975655e-08
-0.0022192362 -0.059444014 0.047550604 -0.06244956 -0.011169484 -0.014471066 -0.0038279546 -0.08536249
-0.009329599 -0.05794235 0.00010887834 0.028160846 0.021823207 0.019893376 0.05055672 0.008054565
-0.016782565 -0.006237276 -0.014412334 -0.054992784 -0.015637716 -0.007234253 0.04816199 -0.0014286062
-0.030455006 -0.02102844 0.010849606 -0.04140566 0.00874448 0.00672115 -0.02001211 0.01184263
0.07157739 -0.0072832885 -0.03917738 0.038369738 0.057081137 0.02301756 0.006128387 0.02532516
0.029952945 0.008616601 -0.0038642455 -0.02722884 -0.0032568327 -0.029592775 0.033649147 -0.008258812
0.058500163 0.024716156 -0.027003994 0.020287335 0.008325823 -0.0731464 0.041071653 0.012511182
-0.031642504 0.027196696 -0.007277838 0.0035481285 -0.023518402 0.018444048 0.012884168 0.0040706648
-0.134931 -0.03079856 0.068368934 -0.017610153 -0.039689716 0.0094375005 0.008664649 -0.03801574
0.03358832 0.004875227 0.047580138 0.03139864 0.009279486 -0.024673544 0.045373503 0.0011530351
-0.035698898 -0.07460695 0.04450307 -0.019128336 0.056867786 0.0007514024 -0.015142163 0.034551382
0.06605769 0.022114644 -0.04532749 -0.052636895 -0.062610626 0.021557486 0.019888546 0.010632446
0.041479137 -0.053924695 -0.023851538 -0.041633446 0.051336262 -0.027985744 -0.03101342 0.030038148
-0.0068311 0.035541587 0.077729195 -0.04846168 -0.06799031 -0.0075153937 0.016728258 -0.01247805
0.049712736 -0.058859214 -0.04552604 0.0030681083 -0.011689441 -0.005549485 -0.01513674 0.020433074
-0.024232853 0.054144204 0.021000335 -0.0027625521 0.021745495 -0.0022316521 0.030464353 0.066655785
-0.061571427 -0.052838515 -0.0015918141 -0.03850923 -0.0492819 -0.030926002 0.001584539 -0.038119335
0.021537451 0.031478487 0.09548655 0.019167872 -0.06293425 0.04009701 0.012642521 0.08113611
-0.0083709685 -0.008537621 0.13903388 -0.0047639045 -0.006782425 -0.037512124 -0.10442661 0.036147986
0.09461009 0.018383078 -0.061974946 0.012443584 -0.02146681 -0.015304035 -0.06680223 0.039148826
-0.025707044 -0.092258126 0.019690294 0.059118353 0.054117978 0.018808661 -0.11519211 0.01826206
-0.05731485 0.0023794041 0.0392356 0.026842844 -0.006705294 0.045307793 -0.027939571 0.06572627
0.046146207 -0.029268887 -0.0050535137 -0.00061266427 0.03579271 -0.03251199 -0.057560913 0.057876457
0.004312308 -0.047193184 0.025639094 -0.090040706 -0.018176453 -0.009402635 -0.0352199 0.0049212202

conv1.lin_neg_r.weight f4 [32, 64]
00000000: 734e 4333 751c 0332 a7aa 2232 9809 0132
00000010: fcbe fbb1 e503 d631 ba6f 9332 1804 1e32
00000020: a42b 00b2 24d1 adb1 f0ef e531 2564 03b2
00000030: 6a54 2332 b3b9 bdaf 0ea3 a031 370c 6131
00000040: 587b b731 98a1 1631 dbfa b431 bc90 e7b0
00000050: 1032 0832 ebef 1db1 64ba abb0 d709 0832
00000060: c3e5 7c32 1bf7 f5b0 72dc 0ab2 43a1 1b32
00000070: a6ed 15b2 d0f7 9cb1 91ec 55b2 6e6a efb1
00000080: b5de 87b2 f457 27b2 6c56 feb1 fec1 9bb1
00000090: deb8 a3b0 b9f3 ed31 4e84 3fb1 9816 7d32
000000a0: 54c5 52b2 5f21 88b1 5e13 0732 9c33 9cb2
000000b0: e922 81b2 1e6c 59b2 aaa3 f3b1 0ac3 bcb1
000000c0: ef06 21af 5830 12b2 5220 7cb2 e214 3c32
000000d0: 9402 5ab2 5592 2231 3e9b ffb1 51dd 2832
000000e0: 7dae 6332 0f19 98b1 9c70 6fb0 a666 22b2
000000f0: 9f8b 4630 f69d a9b1 3fc1 e131 5013 a3b1
00000100: 6b56 bbbd 014e 183c 0e8d b1bc 4d03 9dbd
00000110: 5153 19bd 96b3 6cbd 1c00 10bd 0ff7 103e
00000120: cf46 5d3d 3c90 9fbd ddaf bcbc c71c a33d
00000130: b775 e33d 9e28 06be f840 983d 97de e2bd
00000140: 5c37 793d edc3 07bd c1e2 d13c fe5f 1f3d
00000150: ea89 083e 6627 c6bc fef5 b23d 00cb 863d
00000160: c211 03bd 02aa dcbc 2eb2 97bb 6958 fbbd
00000170: 4448 df3c 1f88 63b9 a0e9 bdbc d0eb 27be
00000180: d9aa 1a3e 8bd3 fbbd 468d cd3c 065c 84bd
00000190: 8723 acbd abdd 84bd 295b 3c3a 598f 59bd
000001a0: fca0 b2bc f968 10bc 9ec3 0a3d c3ae b53d
000001b0: 02d2 eb3c 5727 613d 657f 5ebd 0baf c23d
000001c0: 3c2a 1dbd 8d7d c338 3069 76bd 7132 993c
000001d0: 99ba 863c 2621 bc3d 9a95 7dbd 666b c73c
000001e0: 454f d9bd 3f56 b1bd f6a9 6dbd 0c43 de3c
000001f0: 96d8 073e 566e a33d dfc3 213d 4959 c1bc
00000200: d50d 2ebe 78d2 793d 9dfc c9bd 5187 92bc
00000210: 3229 fbba bdda efbd bb8a a23c 6bbd c43e
00000220: 205e 4dbd f20b 7cbd 348a 2dbd 1f29 cf3b
00000230: 1a43 cb3d b4e0 3bbd ecf8 6cbc 0af4 25be
00000240: 045d 0fbd d1a3 8e3c 8a41 413c a189 16be
00000250: e1b6 fc3c de8e debd 54f5 013e 52d2 cfbd
00000260: a07a 15bd abf0 73bc 2366 c03d d36d bebc
00000270: e82c b23c c2b6 c5bc a828 22bb 7e37 76bd
00000280: d674 ff3c 9c7b eb3c 4dcb 91bd a048 213d
00000290: 4b50 67be 8929 523d 8ebb 213d da3b b9bc
000002a0: 30d3 4a3c 1636 82bd f982 27be 90c6 543d
000002b0: 5fca 513c 4952 f23c 34bb e2bd 28f4 c33d
000002c0: 92ea 8ebd 3386 f13b b746 c8bd 68df 993d
000002d0: ade3 093c c365 063d 28b6 5a3d d36a a9bd
000002e0: 62df c2bd 713f 0fbd dceb adbd bd31 643c
000002f0: 3eba 9ebd da9f 2b3c 1e0c 083e dd59 7bbd
00000300: e53b 8abf 0ddc 7d3d a703 663e 3ad4 e3bd
00000310: 6db4 22bc 4d8e 80be 058b d53d 7645 533e
00000320: 56e2 c4bc f530 d6be 8f6c 973e 9f16 90bc
00000330: 370c 9b3c 8624 cdbd 7f21 4c3e d224 c2be
00000340: 53ff 923b 3ee5 efbd 2f56 02be 2504 b4be
00000350: d560 b33d 121f 17be 2f02 1f3e 90df 9dbd
00000360: 930f f8bd 8248 18be 1754 2ebe a678 013e
00000370: 5385 943e 039c 03bd 3078 163d 5faa 81be
00000380: 3129 ad3c 6e57 51bd 179f 2cbe ffaa 323e
00000390: 9740 34be cd75 0b3d fa09 7cbd f23c bc3a
000003a0: 5a81 8d3d 2aea d5bd ac35 65be 1d12 9fbe
000003b0: cc7d e6bd 77c8 193e d75f 413e 2a90 463e
000003c0: 0edb 1e3e 78c6 af3c f65b fcbc 256a 4e3d
000003d0: 29cb f0bc b226 4bbe b89f 1c3e 921b a3bd
000003e0: 0779 a93d f6f1 9fbb 713c 843d 577f bb3d
000003f0: c0c1 3bbe 2e8a 863d 08eb a23d 4a8d 09be
4.5473325e-08 7.631674e-09 9.468443e-09 7.51097e-09 -7.326774e-09 6.2286625e-09 1.716386e-08 9.197741e-09
-7.460503e-09 -5.058739e-09 6.692055e-09 -7.647974e-09 9.507042e-09 -3.4510847e-10 4.67515e-09 3.2748753e-09
5.3400235e-09 2.1919728e-09 5.2672084e-09 -1.6848598e-09 7.927625e-09 -2.2982884e-09 -1.2494863e-09 7.918479e-09
1.4720572e-08 -1.7896328e-09 -8.082781e-09 9.058854e-09 -8.7269765e-09 -4.5683706e-09 -1.2452021e-08 -6.967915e-09
-1.5817344e-08 -9.740678e-09 -7.402198e-09 -4.533148e-09 -1.1912353e-09 6.925316e-09 -2.7869365e-09 1.4731675e-08
-1.2268476e-08 -3.961915e-09 7.862438e-09 -1.818426e-08 -1.5033452e-08 -1.2655645e-08 -7.0908373e-09 -5.4936935e-09
-1.4645328e-10 -8.509311e-09 -1.4675679e-08 1.09477885e-08 -1.2689856e-08 2.3657283e-09 -7.4391258e-09 9.829209e-09
1.3252813e-08 -4.426631e-09 -8.710772e-10 -9.452981e-09 7.2230394e-10 -4.9365054e-09 6.5703314e-09 -4.74612e-09
-0.09147342 0.009295941 -0.021673705 -0.07666645 -0.037432972 -0.057788454 -0.035156354 0.14156745
0.054022606 -0.077911824 -0.023033077 0.07964473 0.11106437 -0.13101432 0.07434267 -0.11077612
0.06084381 -0.033145834 0.02562082 0.038909905 0.1333386 -0.024188709 0.087383255 0.06581688
-0.031999357 -0.026936535 -0.004629395 -0.12272722 0.027256139 -0.00021699116 -0.02318269 -0.16398549
0.15104236 -0.12296208 0.025091778 -0.064628646 -0.08405214 -0.06487592 0.0007185215 -0.053115223
-0.021805279 -0.00881409 0.03387796 0.08871224 0.028786663 0.054969158 -0.05432071 0.09506043
-0.038370356 9.32171e-05 -0.06015891 0.01870081 0.016446399 0.0918601 -0.06191025 0.024343204
-0.106108226 -0.08659028 -0.058023416 0.02713158 0.13266215 0.07980029 0.039493438 -0.023602145
-0.16997464 0.060991734 -0.09862635 -0.01788679 -0.0019162057 -0.11711643 0.019841542 0.38425764
-0.050138593 -0.06153483 -0.04236813 0.0063220407 0.09924908 -0.04586859 -0.0144636445 -0.16206375
-0.035000816 0.017412098 0.011795411 -0.14700939 0.030848922 -0.108670935 0.12691242 -0.10147537
-0.036493897 -0.014888923 0.09394481 -0.023245728 0.021749929 -0.024134997 -0.0024743471 -0.060111515
0.031183641 0.028745465 -0.07118855 0.0393759 -0.22589223 0.051309142 0.039485507 -0.022611547
0.012379453 -0.06357972 -0.16358556 0.051947176 0.012804597 0.029580252 -0.110708624 0.095680535
-0.069783345 0.007370734 -0.09779113 0.075133145 0.008416099 0.03281189 0.053396374 -0.08272328
-0.09515263 -0.03497261 -0.08492252 0.013927874 -0.07750367 0.010475123 0.13285872 -0.061364997
-1.0799528 0.061977435 0.22462331 -0.111244634 -0.009930712 -0.25108567 0.104269065 0.20631966
-0.024033707 -0.41834226 0.2957501 -0.017588912 0.018926723 -0.10016732 0.19934653 -0.37918717
0.0044860034 -0.11713646 -0.12728189 -0.35159412 0.087587036 -0.14757946 0.15528177 -0.07708657
-0.121123455 -0.1487141 -0.17024265 0.1264368 0.29007968 -0.032131206 0.036735713 -0.25325295
0.021137806 -0.05110877 -0.16857563 0.17448042 -0.17602764 0.03404789 -0.061532952 0.0014361425
0.069094375 -0.10445054 -0.22383755 -0.31068507 -0.112544626 0.15017878 0.18884216 0.19390932
0.1551325 0.021456942 -0.03080557 0.050394196 -0.02939375 -0.1983898 0.15295303 -0.07964243
0.08275037 -0.004881139 0.06456841 0.091551475 -0.18335629 0.065693244 0.07954985 -0.13432804

conv1.lin_neg_r.bias f4 [32]
00000000: 7fae b4bc 22f4 7f3d 8e86 363d 5ea3 a23c
00000010: 47c3 75bd 9cf8 7cba 8e77 48bd cef4 20bd
00000020: 3814 543c 24cf ba3c 7281 19bb 1f0b f33c
00000030: 220c 18bc e491 c5bc 1386 8c3c f032 f63c
00000040: f881 efb9 12d8 03bd 7670 37bd 3921 ac3c
00000050: f43d 86ba b5e0 69bc 7a68 703c 5214 953c
00000060: 8ffc d73d ce19 acba ef4d 863c 4507 36bc
00000070: 7c69 11bc 9235 7abb a0f8 9d3c a897 863d
-0.022055862 0.062488683 0.044561915 0.01985329 -0.060000684 -0.0009650083 -0.04894214 -0.039295964
0.012944274 0.02280385 -0.0023423103 0.029668389 -0.009280236 -0.024117418 0.017153775 0.030053586
-0.00045682467 -0.032188483 -0.044784985 0.021011936 -0.0010241852 -0.014274766 0.014673347 0.018198166
0.105462186 -0.0013130249 0.016394584 -0.011110132 -0.008875247 -0.0038178903 0.019283593 0.06571895

convs.0.lin_pos_l.weight f4 [32, 64]
00000000: 97be 2aba 331d a03c 3896 39b2 fa5c 103d
00000010: 25e1 f6bd aedd d5bd 484e 573d a35b 1fb7
00000020: 6d08 6c3d ea48 60bb 477a 833d d387 c72f
00000030: 88c6 833a 5295 8f3d 8d4e 0cbd 5351 0a3d
00000040: f4ba 17bb d254 c3b2 c0b6 c737 6e6a bfb1
00000050: a646 9dbb 64e3 6dbd 637b 1e32 7873 203d
00000060: 4a31 3134 a795 dab5 39b0 afbd 0e37 7cbc
00000070: c9f7 df31 3607 aa2f 5e90 1f3d 8b79 a931
00000080: 009e f0b1 4b0c 33bc ec11 6b3d ed88 8cbc
00000090: b578 3bbc 1fda d533 5b03 dc39 bb6e 2e33
000000a0: 663a 213d 0d39 e5bc a015 8c33 e7a0 b93c
000000b0: 6e2a 3a36 ee93 2bb8 82c7 dabc 3d9c 283d
000000c0: 4aca 2a37 2ae2 7f32 0006 7cb3 ba7c eebc
000000d0: 8446 16b7 9cf7 b637 2c54 9b3b f833 27bd
000000e0: b066 39bd 9992 4ab7 185b 8ebd 3a3a c5ba
000000f0: cc14 aa3c e4ed 8b31 fe24 ec3c c160 293d
00000100: 1b8e 8739 ea3d 1cbc 2284 2131 874a fb3a
00000110: 7f2d c93d 57a6 36bd 2fdc 5b3d 371d c5b6
00000120: 6dff 083d ec45 c43b eb5b 9dbc 6d63 57b2
00000130: 04ed c6b1 564f ac3c 7e24 9139 df01 cfbc
00000140: 38da c134 4c6a bbb0 2543 cbb6 15cb e331
00000150: fee8 18ba 8162 4f3d 971d 48b2 c5ff 783c
00000160: 0f62 bdb3 5f40 ceb3 b978 183e 32c0 df38
00000170: 8d98 2b32 6cd7 7632 d9a1 0fbd e4c1 15b2
00000180: 2b1f 8a32 4dac bebd 41bd f0bd bd48 10bd
00000190: 4e9e 7f35 6aed ed32 2b66 db36 9d50 c831
000001a0: e34a 68bd 910e d0bd 113d 3331 d430 dfbd
000001b0: 264c eb32 5384 66b7 23e3 b9bd cdc5 713d
000001c0: 7fda 59b6 895e 9630 815d 85b1 589b 0abe
000001d0: 41b9 d136 af85 823a 7fc8 60bd 6bc6 3fbd
000001e0: 68ac fdbd 5461 70b8 9cf5 34bc 2026 8f3a
000001f0: 9adf c2b8 e590 05b1 bbd7 c8bd 6881 3dbd
00000200: 60a1 1eb1 26e6 0736 458c 6432 a163 0138
00000210: 6f56 0638 c3e1 9337 bb1c d736 02b7 82b0
00000220: 7a6b 8338 b48e 3c32 e36c 9836 39f2 7532
00000230: 9bca 9131 3dfd b136 f84d 9432 6d01 d635
00000240: fa0d a231 1cbb 15b2 4e97 1532 4bc3 d5b1
00000250: 8d52 4e32 07f5 d437 54f7 f431 9416 0b37
00000260: 0afd 3ab2 2ae5 67b3 3cc7 0538 3900 ccb1
00000270: 4182 5b32 0920 acb0 5eaf f536 fae1 3532
00000280: a1af 7db1 872f fe37 0b5a 8237 2445 ca37
00000290: 7f69 24b2 555f 3fb0 2655 5cb2 9785 5131
000002a0: f96a 9037 b7ab e036 8027 61b0 dbf7 1338
000002b0: 6fea 1632 60b0 78b0 6a75 0c37 dbfb 9637
000002c0: 2d4d ae31 9ab1 21b0 b808 b131 4836 9337
000002d0: 0467 b8b1 0742 d0b1 e5c0 de36 861e 8f37
000002e0: 2c0c 4738 9e3b 0ab1 a0c5 0837 f501 80b1
000002f0: 8caa cdb1 7ab8 70af 6e9d 2237 4cd6 3d38
00000300: 9d62 0e31 ef1c 07b4 c782 04b0 56c4 83b3
00000310: c51f e5b3 4b92 2cb4 df87 23b3 0b66 1b32
00000320: c43a 91b4 b589 67b2 db7c ccb1 b6eb a730
00000330: 121c 29b2 836e 0eb4 eb6b 06b1 9321 4533
00000340: de34 31b2 101a 8c30 77e3 fd31 5229 2a32
00000350: a55e 34b2 ad43 3134 fb0c 1bb2 f5c7 a834
00000360: cdaa 93b0 ac85 9ab0 3cdf 25b4 fc2d 65b2
00000370: 587c 8fb1 5a16 8a31 ee04 a3b2 6af4 3fb1
00000380: 9a90 95b2 c3f2 24b4 c63b 1935 0143 7fb3
00000390: c178 5930 909d 2e32 2145 0632 ee45 f330
000003a0: 745f e2b3 64c6 6f33 ee22 a631 2996 c3b3
000003b0: 3e73 09b0 3393 5eb2 9c0f 70b4 502a cb34
000003c0: 666c 9b31 831c d7b1 e719 38b1 2af3 9d33
000003d0: 6cde 6d30 9287 2030 e639 4634 f186 dc33
000003e0: 40cb 9333 807e 6d31 5254 b133 a69c 0ab2
000003f0: 5ae2 5331 cf59 6032 95d2 5134 9706 5c34
-0.00065133855 0.019545173 -1.0802573e-08 0.03524492 -0.12054662 -0.10442673 0.05256489 -9.498474e-06
0.057625223 -0.0034223148 0.06419807 3.6294398e-10 0.0010053674 0.070109025 -0.0342546 0.033768963
-0.0023152204 -2.273956e-08 2.3807748e-05 -5.5709313e-09 -0.0047996817 -0.058078185 9.224865e-09 0.03917262
1.6502341e-07 -1.628582e-06 -0.08578534 -0.015393985 6.518324e-09 3.0927944e-10 0.03895604 4.932365e-09
-7.002882e-09 -0.010928224 0.05739014 -0.017155135 -0.011442353 9.9582614e-08 0.0004196417 4.061324e-08
0.039362334 -0.027981305 6.5231916e-08 0.022659732 2.7740857e-06 -4.0907347e-05 -0.02670646 0.041164625
1.0179889e-05 1.4894377e-08 -5.867878e-08 -0.029112209 -8.957115e-06 2.1811393e-05 0.0047402587 -0.040821046
-0.045263946 -1.2074271e-05 -0.069509685 -0.001504726 0.02076187 4.0724775e-09 0.028826233 0.041352037
0.00025855083 -0.009536246 2.3503692e-09 0.0019171991 0.09823131 -0.044592228 0.05367678 -5.8744586e-06
0.033446718 0.0059897806 -0.019208869 -1.2537254e-08 -5.789504e-09 0.021033924 0.00027683744 -0.025269447
3.6107826e-07 -1.3636252e-09 -6.057688e-06 6.6296573e-09 -0.00058330584 0.05063105 -1.164826e-08 0.015197699
-8.818835e-08 -9.6043316e-08 0.14889802 0.00010669268 9.988196e-09 1.4368066e-08 -0.03506646 -8.717027e-09
1.6079488e-08 -0.093102075 -0.11754847 -0.03522562 9.5225266e-07 2.7698395e-08 6.5386025e-06 5.8299308e-09
-0.056712043 -0.10159028 2.608264e-09 -0.10897985 2.7392229e-08 -1.3739877e-05 -0.09076526 0.05902653
-3.2462701e-06 1.0940805e-09 -3.8814396e-09 -0.13535821 6.2502518e-06 0.0009958054 -0.054878708 -0.046820085
-0.123863995 -5.7311103e-05 -0.011044886 0.0010921396 -9.29229e-05 -1.943641e-09 -0.09806772 -0.04626599
-2.3083757e-09 2.0250532e-06 1.330324e-08 3.0848783e-05 3.2028587e-05 1.7628894e-05 6.410844e-06 -9.510759e-10
6.266586e-05 1.0975487e-08 4.542629e-06 1.4315952e-08 4.243089e-09 5.304492e-06 1.7264924e-08 1.5944657e-06
4.7164095e-09 -8.715485e-09 8.707344e-09 -6.221318e-09 1.2009548e-08 2.538647e-05 7.1294526e-09 8.2903025e-06
-1.0884159e-08 -5.3992302e-08 3.1895222e-05 -5.9372067e-09 1.2777094e-08 -1.2523752e-09 7.3219844e-06 1.0586968e-08
-3.691618e-09 3.0301291e-05 1.5539137e-05 2.4112473e-05 -9.570043e-09 -6.962087e-10 -1.2825046e-08 3.048944e-09
1.721595e-05 6.6957105e-06 -8.1910656e-10 3.5278365e-05 8.784453e-09 -9.047252e-10 8.371988e-06 1.7998673e-05
5.0728404e-09 -5.8823846e-10 5.152369e-09 1.7549042e-05 -5.3668163e-09 -6.061103e-09 6.6385714e-06 1.7061142e-05
4.7456633e-05 -2.0115531e-09 8.152245e-06 -3.725513e-09 -5.985674e-09 -2.1893412e-10 9.692607e-06 4.526069e-05
2.0719775e-09 -1.2583381e-07 -4.8207166e-10 -6.135876e-08 -1.0669422e-07 -1.607197e-07 -3.807497e-08 9.045389e-09
-2.7051112e-07 -1.3477281e-08 -5.951376e-09 1.2217842e-09 -9.843477e-09 -1.3264984e-07 -1.956091e-09 4.5898172e-08
-1.0314777e-08 1.0193748e-09 7.389129e-09 9.9046975e-09 -1.0498899e-08 1.650903e-07 -9.025139e-09 3.1437926e-07
-1.0744202e-09 -1.1242967e-09 -1.5448035e-07 -1.334001e-08 -4.175984e-09 4.0188697e-09 -1.897794e-08 -2.7933091e-09
-1.741164e-08 -1.5362006e-07 5.7083923e-07 -5.9432754e-08 7.911574e-10 1.0163959e-08 7.815545e-09 1.7700452e-09
-1.0541308e-07 5.582696e-08 4.835207e-09 -9.107709e-08 -5.000408e-10 -1.295557e-08 -2.235742e-07 3.7842483e-07
4.523417e-09 -6.260565e-09 -2.6790248e-09 7.3551135e-08 8.653618e-10 5.840032e-10 1.846125e-07 1.0269094e-07
6.882192e-08 3.4559946e-09 8.2575426e-08 -8.068275e-09 3.0833207e-09 1.3058936e-08 1.9541251e-07 2.0491494e-07

convs.0.lin_pos_r.weight f4 [32, 32]
00000000: 06ca ecba af42 f8be 41cf 2730 1499 323e
00000010: 0534 9b3d 09c7 173d f20c c33d 1881 c738
00000020: ca14 1f3e e7b9 9db3 93d7 1abe 98a9 0db1
00000030: 801e 2c33 2402 8cbe 6f89 5433 ae93 3fbf
00000040: 2684 5f32 b3ed 88b2 6854 2f38 7a05 1832
00000050: d6f2 b4b2 f5f5 db3c c5d2 d7b1 0170 3f3e
00000060: 4f0c 5334 6589 41b6 a75f 643e e2c4 b0b2
00000070: 0275 2c32 ed93 a7b2 6ead 64bf 9037 30b2
00000080: a225 d93a b6ee d23e 7fe8 6632 4b88 e3bd
00000090: 0605 4cbf e40a ccbb e5a9 0d3d 8f25 d4b7
000000a0: 780a 32be 183f aeb2 545a 4d3e 6619 d8b2
000000b0: 4511 4bb2 3c45 943e 0249 d9ae 7dba 1b3f
000000c0: 2dd2 7732 81a8 9032 6afa fe34 4299 9231
000000d0: f953 f932 3ca5 7abb 9724 b631 5681 8dbe
000000e0: db5a 1134 7ffc db35 7f9c 24bf 66b2 3c30
000000f0: cb1f a832 9ae0 0eb2 3a22 443f d77f 3eb2
00000100: f547 ca31 7951 56b7 95ff ec32 1ee1 bcb8
00000110: 7ae6 87b5 82d9 24b6 ae4c adb7 b063 b6b1
00000120: 4baa 8ab8 82a9 7532 bfc8 73b7 3e80 ed32
00000130: 62cd 8330 262d 9ab7 040b 07b2 875a 93b7
00000140: 94d8 0832 9356 af31 040b 2932 723e 99b2
00000150: 4b93 b932 40ff 5db8 d2db 83b2 31a6 87b7
00000160: d64a 66b1 e0d8 8933 2203 7d37 f441 20b1
00000170: e23a 79b0 4d2d d731 550b a8b7 7538 cdb0
00000180: d25d 9231 c379 9f33 de05 da30 2ed9 5cb5
00000190: 6a57 ff31 1027 f131 accc c9b3 5727 f1b0
000001a0: 61a2 0435 40a2 58b1 cce0 d9b3 231b 4ab1
000001b0: 900c b132 cebb ee33 dc6d 4832 f011 fab3
000001c0: a393 43b2 096a 8db2 6f93 d9b2 fa46 2532
000001d0: e9cb ee31 50a3 55b5 2549 7430 d005 38b5
000001e0: 71e7 b330 ba1e 6431 f9d8 00b4 9c3d 8b31
000001f0: db18 cfb2 ac6b e1b1 a760 8833 3cf7 7a32
00000200: e06b 8132 01bb 1fb2 2df6 1832 6829 26b1
00000210: 015f 84b2 8f21 1b31 57c2 6932 91f0 4f30
00000220: 16c5 4b33 683f d631 cd5d f4b2 c75d 64b2
00000230: 60e7 8bb0 35f5 a332 b70c 3e32 6847 8eb2
00000240: 674a 3e30 328d 8730 92ae 9732 060a 9830
00000250: 7c2d 44b2 6c90 5732 f404 6831 db02 a632
00000260: ba73 81b2 12cf 8232 fd8a 87b1 3335 c431
00000270: a057 e432 3e1b 03b2 3915 69b2 c74d beb0
00000280: c4c6 b7ba dc6a 0a3f 87f0 4932 3bf3 963d
00000290: 8f54 8c3d 9d65 4b3e bc9e 9d3e 72d4 54b8
000002a0: b9cb 7ebd ca41 de32 94ce 7a3e 3526 2cb2
000002b0: e335 c8b1 2806 e73e d90b 33b3 1f58 0f3f
000002c0: 0e8e c8b0 82fb 1833 93fd bfb5 8e12 0eb3
000002d0: a4d8 cdb3 55d8 28be 9d66 7ab3 560d cbbd
000002e0: 8648 aab1 a2c6 1eb5 ffa3 4fbd 2618 d530
000002f0: d9dc 71b2 0e38 2133 6eef 1a3f b696 2232
00000300: d407 9e32 2031 7438 06e2 922f 8d02 daba
00000310: 8dde 90b9 834b d4b8 8e02 f9b8 8ca2 9bb0
00000320: 0630 2f3a 739e 65b2 ca28 d939 26f1 01b1
00000330: ef5b 04af 0c0a b939 3ba5 94b2 6b39 e237
00000340: 1c36 3732 132f c8b1 86a5 f6b1 786a 99b1
00000350: 5084 1732 96da 7dba 6680 6ab1 10d7 103a
00000360: b753 7132 81b6 34b2 916b d938 be21 3632
00000370: 1586 8032 59ea abb2 b1a7 3139 d7e8 3b32
00000380: 6c53 1fba 1501 1c3f 952a 9ab1 7bfe a3be
00000390: 7560 65bf 1f7b 7fbf 2eda f83e f052 9537
000003a0: ceeb f53d 0338 cbb1 90cf 083f c52e bfb2
000003b0: 7d11 0f32 db94 173f 3cbd 81b2 6e80 f93e
000003c0: 2574 86b1 1b73 1532 22d8 c534 3d17 e731
000003d0: dd91 7831 0e42 7fbe 966a 2c32 5caa a33e
000003e0: 6ecf cf32 373b 3736 e49b 39bf ee80 3db2
000003f0: 2353 9531 9c84 ef31 4bcd f53e 4a26 7031
-0.0018065579 -0.48488376 6.104877e-10 0.17441207 0.07578281 0.03705505 0.095239535 9.513105e-05
0.15535274 -7.344698e-08 -0.15121298 -2.0614603e-09 4.007461e-08 -0.27345383 4.948509e-08 -0.74834716
1.30103555e-08 -1.5940577e-08 4.180186e-05 8.84881e-09 -2.1065187e-08 0.02685068 -6.2812853e-09 0.1869507
1.9655384e-07 -2.8839215e-06 0.22302113 -2.0578629e-08 1.0038322e-08 -1.9508628e-08 -0.8932713 -1.0257182e-08
0.0016567002 0.41197747 1.34406255e-08 -0.1110998 -0.79695165 -0.006226884 0.034585852 -2.5289859e-05
-0.17386806 -2.0284958e-08 0.20053989 -2.515726e-08 -1.1820082e-08 0.28959072 -9.880986e-11 0.60831434
1.4425081e-08 1.6840433e-08 4.7493387e-07 4.2665826e-09 2.9025601e-08 -0.003824546 5.301057e-09 -0.27637738
1.353723e-07 1.6390258e-06 -0.64301294 6.864752e-10 1.9572232e-08 -8.316556e-09 0.76614726 -1.1088523e-08
5.8871543e-09 -1.2774363e-05 2.7590241e-08 -9.00647e-05 -1.0125361e-06 -2.456451e-06 -2.0658914e-05 -5.3082303e-09
-6.612072e-05 1.42994185e-08 -1.45306685e-05 2.7648749e-08 9.589878e-10 -1.8379254e-05 -7.860539e-09 -1.756592e-05
7.965486e-09 5.1030127e-09 9.839599e-09 -1.7839941e-08 2.1603816e-08 -5.2928226e-05 -1.535037e-08 -1.6170643e-05
-3.3511944e-09 6.419009e-08 1.50807045e-05 -2.3320554e-09 -9.066935e-10 6.2624737e-09 -2.0032438e-05 -1.4931759e-09
4.2598254e-09 7.426163e-08 1.5863255e-09 -8.2272425e-07 7.4314146e-09 7.018464e-09 -9.3970215e-08 -1.7546239e-09
4.9410124e-07 -3.1524365e-09 -1.014574e-07 -2.9410294e-09 2.0611225e-08 1.11169e-07 1.1666511e-08 -1.1644795e-07
-1.1384063e-08 -1.646278e-08 -2.532917e-08 9.620402e-09 6.9498935e-09 -7.9586334e-07 8.887063e-10 -6.85538e-07
1.3089744e-09 3.3195833e-09 -1.1999863e-07 4.0524366e-09 -2.4109275e-08 -6.5606027e-09 6.3505745e-08 1.460813e-08
1.5066632e-08 -9.297538e-09 8.903538e-09 -2.4179716e-09 -1.5410025e-08 2.2574544e-09 1.3606573e-08 7.5648027e-10
4.744387e-08 6.235428e-09 -2.8447994e-08 -1.3292669e-08 -1.0179342e-09 1.9087205e-08 1.1062347e-08 -1.6563448e-08
6.922733e-10 9.862673e-10 1.7658099e-08 1.1062304e-09 -1.14190435e-08 1.2547485e-08 3.3763259e-09 1.9326242e-08
-1.5070203e-08 1.5228157e-08 -3.9448182e-09 5.710399e-09 2.658254e-08 -7.631398e-09 -1.35672105e-08 -1.3846425e-09
-0.0014021029 0.54069304 1.1754429e-08 0.07370611 0.06852066 0.19862981 0.30785167 -5.0742594e-05
-0.062206004 2.5874119e-08 0.24492866 -1.0020405e-08 -5.8268923e-09 0.45121884 -4.168746e-08 0.5599384
-1.459229e-09 3.5619003e-08 -1.4304409e-06 -3.3078827e-08 -9.585463e-08 -0.16488774 -5.8300987e-08 -0.09914653
-4.955896e-09 -5.9148636e-07 -0.05069351 1.5504653e-09 -1.4078261e-08 3.7536715e-08 0.6052159 9.463909e-09
1.839718e-08 5.8219885e-05 2.6717845e-10 -0.001663284 -0.00027631634 -0.00010123013 -0.00011873721 -1.1323933e-09
0.0006682876 -1.33655815e-08 0.00041419856 -1.8909048e-09 -1.2037991e-10 0.00035293435 -1.7304606e-08 2.6968037e-05
1.0664305e-08 -5.826118e-09 -7.17836e-09 -4.46499e-09 8.819441e-09 -0.0009683756 -3.4124468e-09 0.0005525211
1.4047081e-08 -1.05188755e-08 0.00010367402 1.0601466e-08 1.4962135e-08 -2.0013589e-08 0.00016942505 1.0937774e-08
-0.00060777995 0.6093915 -4.486831e-09 -0.3203009 -0.89600307 -0.9979724 0.48603958 1.7800805e-05
0.12007867 -5.9144454e-09 0.53441715 -2.2256595e-08 8.327672e-09 0.5921151 -1.510363e-08 0.48730797
-3.9131174e-09 8.699113e-09 3.6851367e-07 6.7256267e-09 3.6171663e-09 -0.24927542 1.00359525e-08 0.3196591
2.41923e-08 2.7303593e-06 -0.72503495 -1.1030563e-08 4.3459223e-09 6.9708914e-09 0.4800819 3.4946361e-09

convs.0.lin_pos_r.bias f4 [32]
00000000: 7cd8 023c 792f 803d ad37 b7b8 d4c2 b9b4
00000010: 4ba8 06bc 4151 053e 3ec2 99bb 9488 1a3d
00000020: 752c 93bc 1094 8eb9 c634 80bc 0e13 a4bc
00000030: 797e 6938 dd1a e2bc 9d86 5ebd dcab 0dbd
00000040: db98 89ba fe78 0d3c c6a5 12bd ae8b 00bd
00000050: 702c 6ebd d6fd 323d e579 57b9 3421 15bb
00000060: 8d2f b0ba 3975 873d 37c2 8e3c e7c7 05be
00000070: c06b a43c 4b03 d43c baf4 03bb 4aec 1c3e
0.007986184 0.06259055 -8.7364904e-05 -3.460069e-07 -0.008218835 0.13019277 -0.004692345 0.037727907
-0.017965535 -0.00027194666 -0.015650164 -0.020028617 5.5669316e-05 -0.0276007 -0.054327596 -0.034587726
-0.0010497825 0.008634804 -0.035802625 -0.03138321 -0.058147848 0.043699108 -0.00020549407 -0.0022755386
-0.0013441906 0.06614155 0.017426593 -0.13064538 0.02007091 0.025880476 -0.0020134882 0.15324512

convs.0.lin_neg_l.weight f4 [32, 64]
00000000: 90b6 e630 6bff f7bd 613e 4abe 6010 afbc
00000010: 839e 9131 e288 ea31 8f11 19b2 86a1 37b2
00000020: 1798 5abd cc7c 87bc 849e f9b1 4452 9fbd
00000030: 183f d5b6 7f1c 4338 ce05 63bd 66c6 bbbc
00000040: 8fe4 79b7 b644 fb31 6c08 58b1 8db0 c3bd
00000050: 3776 7ab7 915d 073b 3fcf 9dbd bbd6 3d3d
00000060: 3106 60be 870e 9139 55ec f3ba c23f 87b2
00000070: 712a 5cb3 e739 9cb1 1c6e 19bd 1fda 16bd
00000080: f6e9 133b 2470 3bbd fcee 0cb0 46fc 2b3e
00000090: 7101 053d 30c5 27be 6614 343d b811 9836
000000a0: c245 723e f65b f3b1 8d82 b0bc 36e1 aa31
000000b0: bb3b 88b1 16d2 aabc 00c3 9e31 e1c0 92bd
000000c0: 55a4 50b2 0774 e830 42e9 c6b6 2ddb 8531
000000d0: eab2 b730 75c4 073e 65d9 3e32 01b6 3a3e
000000e0: a6d8 47b3 fa76 2c35 bd34 1c3e 82fd efb1
000000f0: e328 2532 7667 e1b1 3aff d6bd 4ee9 09b2
00000100: 6cb4 07b2 8282 6436 9528 f9b5 44c5 5235
00000110: e74a 34b1 d5c2 75b0 46ec 5f31 47e2 be31
00000120: 46ad 5735 5d93 9835 785d 092f ee70 f335
00000130: cd9a 19b2 789b 84b2 b3a2 3cb6 5f26 0bb6
00000140: 9ce9 96b2 042f f0ae 1e15 bdb0 8361 49b5
00000150: 698f e5b1 6bb7 3232 144b 2e35 269d 8935
00000160: f0dc 75b6 781d 9031 ee1c 31b5 2aef b8b1
00000170: 1585 cb31 0f39 1732 95fd 0036 fc36 14b5
00000180: cd33 7a30 1760 bab4 6c5e 6eb2 5f86 9436
00000190: bdbd 3735 1367 26b6 2151 9335 16f9 8932
000001a0: deb0 7036 5ef5 4db1 99a8 a0b4 dc87 09b2
000001b0: d1f1 8db1 b8a8 7a35 b483 8a2f b24c 42b5
000001c0: 759e c730 1b14 35b2 b942 1eb1 a80d 432f
000001d0: 2a2d 59b2 a8e9 b2b5 49e7 3631 8c16 2536
000001e0: 4e9c 19b1 2f1e 22b2 271d a235 40c7 c530
000001f0: 538c b9b1 ec45 a52e ee94 6535 5d3b d231
00000200: 460c 41b2 fcd7 36bd 2734 193b c71c 5abd
00000210: 01d3 1d3b 88f0 06b1 9305 7bbc 28f8 9432
00000220: c0cc 4932 cccd eb3b cfc9 4ab1 617a 00bd
00000230: 7d06 5fb2 00b1 c7b1 1389 933c 3926 b8b1
00000240: de2b 2232 6d6b 6eb2 646f 0f37 ddec 93bc
00000250: aca2 55b2 6d0c 36b1 d06e 643d 393a cd3b
00000260: a473 1931 cd80 ed31 d0c7 0cbd a796 4e3d
00000270: 5da9 e13b d789 9731 cc8b 643c a908 f9b1
00000280: 30df 17b1 49c3 e03c 6a5a 64b1 763d 61b1
00000290: 9cf1 4432 3107 1832 e839 09bc 8028 8b31
000002a0: 5e70 1cbd fe71 233d 6a80 e6bc 64c9 72b9
000002b0: 6452 e6bb 5fc4 bb3c 31a7 f73c 5d96 0fbd
000002c0: 9745 98bc af46 ecb0 50f1 31b0 2985 9532
000002d0: 581f 5cbc 3759 b7bc 4c0a a22f 1150 383d
000002e0: 4baf 3c32 59fe 77b1 52a1 2eb2 d43e a6bc
000002f0: d067 3b33 0972 5133 6128 f7bc b95b ca32
00000300: 6542 6bb1 e1df c63d 3367 3dbc 141e 1a3e
00000310: 1d05 043b b8f6 ca32 2c60 4f3a 6ba8 5fb2
00000320: 3a6b 083e 826a 913a dd92 91b2 3759 813d
00000330: 0e47 93b6 91c3 9bb7 d4e6 b73d 224c 9a3d
00000340: b74e 4137 ac8b 8832 c526 abb1 40d3 253d
00000350: 9559 8cb7 6d5d fabb 7b98 a43d 8349 2f3d
00000360: 432c 063d 14df 48b9 4e50 4b3d 9a3c f63c
00000370: 5e29 5d3c a9b1 97b2 726a dc3d cf69 4c3e
00000380: 21ae fe39 4a0c 34bd d9b0 db31 629c a93d
00000390: a920 66bd f52f 34be d154 583d ab81 52b8
000003a0: 8533 043e 32e4 77bd 9d3b f93c c980 1e34
000003b0: 859b 40ba 283b 533d 07ea 4c3c d62d 433c
000003c0: 1c1d 03ba 45a8 3f30 591d 2037 7cbf 7931
000003d0: 2012 803c 52de 073c f619 77b2 4571 903d
000003e0: f4f7 bbb3 2cfd 10b6 4cdd 0ebc ce7f 1bbd
000003f0: 23d1 98b2 a41a 9f32 811b 0f3d 9f56 b3af
1.678659e-09 -0.12109264 -0.19750358 -0.021370113 4.238076e-09 6.825858e-09 -8.9097645e-09 -1.0688728e-08
-0.0533677 -0.016539 -7.264875e-09 -0.07779363 -6.3552397e-06 4.6518162e-05 -0.055425458 -0.022921752
-1.4894772e-05 7.312873e-09 -3.1436924e-09 -0.09555159 -1.4928685e-05 0.0020655135 -0.07705545 0.04634736
-0.21877362 0.0002766738 -0.0018609861 -1.5745062e-08 -5.1261342e-08 -4.5467803e-09 -0.037458524 -0.03682911
0.0022569872 -0.045761243 -5.127132e-10 0.16795453 0.032472078 -0.16383815 0.043964766 4.5320157e-06
0.23659423 -7.0826855e-09 -0.021546626 4.9732547e-09 -3.9649115e-09 -0.02085213 4.620574e-09 -0.07165695
-1.2144558e-08 1.6913199e-09 -5.9280146e-06 3.895727e-09 1.3365853e-09 0.13258536 1.1108885e-08 0.18233491
-4.653034e-08 6.4248127e-07 0.15254493 -6.984636e-09 9.613561e-09 -6.560124e-09 -0.10497899 -8.027497e-09
-7.899057e-09 3.4050613e-06 -1.8563757e-06 7.8518156e-07 -2.6236024e-09 -8.9407354e-10 3.2585077e-09 5.5554525e-09
8.034589e-07 1.1367771e-06 1.2493284e-10 1.8137778e-06 -8.94097e-09 -1.5437521e-08 -2.8108886e-06 -2.073495e-06
-1.7568532e-08 -1.0922288e-10 -1.3757562e-09 -7.5020233e-07 -6.681081e-09 1.0402668e-08 6.4929304e-07 1.0253032e-06
-3.6636447e-06 4.194302e-09 -6.5979737e-07 -5.3822946e-09 5.9232073e-09 8.80233e-09 1.922109e-06 -5.521431e-07
9.1023084e-10 -3.4715114e-07 -1.3874892e-08 4.4263866e-06 6.844892e-07 -2.4795925e-06 1.0975965e-06 1.606217e-08
3.5865737e-06 -2.9970901e-09 -2.9924993e-07 -8.00534e-09 -4.1311314e-09 9.3377776e-07 2.5195634e-10 -7.238224e-07
1.4524192e-09 -1.0540158e-08 -2.3029953e-09 1.7739998e-10 -1.26413315e-08 -1.3330036e-06 2.6615956e-09 2.460004e-06
-2.235328e-09 -9.436504e-09 1.2078425e-06 1.4390267e-09 -5.4001617e-09 7.515752e-11 8.552587e-07 6.118553e-09
-1.1236869e-08 -0.044639573 0.0023377032 -0.0532501 0.0024082067 -1.9636293e-09 -0.015321153 1.7342316e-08
1.1746295e-08 0.0071961638 -2.9509584e-09 -0.03136671 -1.2981784e-08 -5.811785e-09 0.018009698 -5.35945e-09
9.439615e-09 -1.3877849e-08 8.549399e-06 -0.018057281 -1.2435219e-08 -2.649155e-09 0.05576974 0.006263044
2.2330164e-09 6.9122508e-09 -0.034370244 0.050436642 0.0068866448 4.410349e-09 0.013949346 -7.2478383e-09
-2.210026e-09 0.02743687 -3.3229761e-09 -3.2776746e-09 1.1463637e-08 8.8492e-09 -0.008375622 4.0500368e-09
-0.0381931 0.039903633 -0.028137404 -0.00023153942 -0.0070288647 0.022920785 0.03023109 -0.035055507
-0.01858787 -1.719135e-09 -6.473515e-10 1.7406437e-08 -0.013435207 -0.022381408 2.9474945e-10 0.044998232
1.0982897e-08 -3.608781e-09 -1.0164813e-08 -0.02029363 4.3633747e-08 4.876532e-08 -0.030170621 2.3557606e-08
-3.4234742e-09 0.0971067 -0.011560249 0.15050536 0.002014465 2.362809e-08 0.0007910754 -1.3018602e-08
0.13322154 0.0011094364 -1.6947007e-08 0.063158445 -4.3892132e-06 -1.8568508e-05 0.08979574 0.075340524
1.1522024e-05 1.5896e-08 -4.9811626e-09 0.040484667 -1.6731015e-05 -0.0076405318 0.08036896 0.042794716
0.032757055 -0.0001915659 0.04963713 0.030058194 0.013498632 -1.7659504e-08 0.1076249 0.19962238
0.0004857639 -0.043957032 6.393844e-09 0.08281781 -0.05618349 -0.17596419 0.052815262 -5.0188664e-05
0.12910278 -0.06052036 0.030423934 1.4761748e-07 -0.0007347393 0.051570088 0.012506968 0.011912784
-0.0005001591 6.972452e-10 9.543576e-06 3.6343115e-09 0.015633643 0.008292751 -1.4383195e-08 0.070528544
-8.7529685e-08 -2.1605038e-06 -0.0087197535 -0.03796368 -1.7790233e-08 1.8522151e-08 0.03493834 -3.2621458e-10
