wiki-RfA/models/wiki-RfA-train-11.pt (torch, 64411 bytes, 14 tensors)

conv1.lin_pos_l.weight f4 [32, 64]
000000 5a bc 73 bb 46 a9 36 38 da 43 0a 36 b1 e2 2e 3a
       -0.0037191124 4.354983e-05 2.0603097e-06 0.0006671353
000010 e8 b7 3b 39 cd 57 2c b9 45 ca 26 ba b8 69 4c 3a
       0.0001790222 -0.00016435907 -0.0006362538 0.0007797736
000020 53 9b bc 38 6d 48 8c ba 61 1f da b9 a3 25 4e b9
       8.99347e-05 -0.0010702737 -0.0004160358 -0.00019659712
000030 26 aa 33 b9 91 6d bc 39 de 13 0f 39 f3 f3 b7 39
       -0.00017134155 0.00035939788 0.00013644944 0.00035086236
000040 7c 42 61 38 e5 24 9d b7 12 99 8c 37 24 a0 73 37
       5.37061e-05 -1.8733039e-05 1.676058e-05 1.4521214e-05
000050 8e c0 36 37 57 84 ae b7 f5 de 7f 38 ea d1 18 38
       1.0892878e-05 -2.0804042e-05 6.1004383e-05 3.643512e-05
000060 ff 82 a6 b6 d5 5a af b8 9b 53 07 b9 ba 48 c6 b8
       -4.9624355e-06 -8.361569e-05 -0.00012905749 -9.454922e-05
000070 15 2d 1b 37 ac 50 ac 39 13 9c b2 b7 e3 68 5d b8
       9.249216e-06 0.00032866502 -2.1291931e-05 -5.278819e-05
000080 41 0f 12 b9 fc 1a 57 b9 ad c0 82 b9 28 08 37 b8
       -0.00013929328 -0.0002051405 -0.00024939087 -4.3638196e-05
000090 39 3b bd 38 28 0b 0a 39 4d 21 09 38 f0 8e 9c 38
       9.0232534e-05 0.00013164862 3.269436e-05 7.465284e-05
0000a0 94 74 5e 39 eb 69 0a 39 b3 dc b5 36 80 60 77 39
       0.00021214999 0.00013200163 5.419913e-06 0.00023591705
0000b0 1b 97 e0 39 e9 9e 91 b9 17 89 50 b9 84 41 05 38
       0.00042837192 -0.00027774952 -0.00019887496 3.1770687e-05
0000c0 ad 30 42 37 d0 55 45 b9 6d f6 13 39 89 39 ef b6
       1.1574634e-05 -0.00018819352 0.00014110813 -7.129453e-06
0000d0 79 9a aa 35 c4 02 dd b8 92 e2 fd b7 e3 d8 a0 36
       1.2710944e-06 -0.00010538616 -3.0265455e-05 4.7936205e-06
0000e0 90 eb f7 b8 1f f3 37 b8 73 6e 56 38 c1 2c c7 b8
       -0.00011821755 -4.3857024e-05 5.112444e-05 -9.4973955e-05
0000f0 ce b3 a9 38 9e dd 99 37 ac 37 73 b8 b9 e3 96 b9
       8.092039e-05 1.834222e-05 -5.7987563e-05 -0.00028779896
000100 7e 1e 39 bf 58 5a 1f bc 29 3f 5a be d5 30 f3 bd
       -0.7231215 -0.0097261295 -0.21313156 -0.11874548
000110 51 4b 96 bd 1b b0 a5 3d 85 a9 59 bc d6 3c ef 3e
       -0.07338584 0.0809023 -0.0132850455 0.46726102
000120 af 4f 1e 3b 55 90 a7 3c 9d 8c 90 bd 5e 31 cc 3d
       0.0024156382 0.020454565 -0.0705807 0.099703535
000130 7a 4f c1 bd 53 2b 6f be 2b 22 56 bc fd 5f 2c 3d
       -0.09438987 -0.2335637 -0.01306967 0.04208373
000140 cd 16 93 3d 4f bd 86 3c db 68 c7 3c 73 af dc 3d
       0.07182083 0.016447691 0.024341991 0.10775652
000150 9b b6 c5 bd 29 07 f2 3b 1d e2 44 3e bc bd 21 bd
       -0.0965397 0.0073861075 0.1922688 -0.039487585
000160 7e ce 4b bd cd 03 94 3c 3f 80 00 3e 29 75 22 bd
       -0.049757473 0.018068219 0.12548922 -0.039662514
000170 cf 19 ce 3d 83 b4 90 bd 64 8a e7 bc a2 3c 98 bd
       0.10063516 -0.0706568 -0.028264232 -0.0743344
000180 e1 1e 05 3e c4 93 34 be 7e ed 94 3d b0 82 85 bc
       0.1300006 -0.17634493 0.072718605 -0.016297668
000190 e5 e6 48 bd 91 10 2c 3e b9 5c de 3d 5a 05 ee 3d
       -0.049048323 0.16803195 0.10857529 0.116221145
0001a0 b3 75 67 bc f7 d1 f4 3d 3e 00 df 3d c5 8f 28 bd
       -0.014127183 0.1195411 0.10888718 -0.041152734
0001b0 bd 8d c2 bb 5f 3f 3d be 5b 07 a9 3d 7d c3 76 bd
       -0.0059373067 -0.18481205 0.08253356 -0.060245026
0001c0 25 3f 19 3b 1f 10 a5 3c 63 cd b2 bc d0 0c 8a 3c
       0.0023383584 0.020149289 -0.021826452 0.016851813
0001d0 c5 24 f2 bc 43 f3 b6 ba 11 11 2e bd 2f b1 19 bd
       -0.029558549 -0.0013957996 -0.042496745 -0.03752249
0001e0 bc 5a ac bd 73 73 fc bd ca 2c 4d 3d 50 b2 86 3d
       -0.08415744 -0.12326708 0.050091542 0.06576979
0001f0 76 ea 9c 3d 7d 40 a9 bb bf a2 44 3d a9 da 00 3d
       0.076619074 -0.0051651583 0.04800677 0.03145853
000200 7c cc d2 32 2e 96 0e 32 59 b9 e9 b1 51 b4 43 31
       2.4540206e-08 8.299635e-09 -6.802264e-09 2.8478733e-09
000210 63 0b 43 b2 28 da 8e b2 c7 0c fb b1 4d 0c ed 30
       -1.1353083e-08 -1.6630182e-08 -7.306514e-09 1.7247516e-09
000220 38 cc 61 31 80 3e ad 31 a8 72 53 b1 56 82 94 31
       3.2857894e-09 5.042068e-09 -3.0769716e-09 4.3221844e-09
000230 e2 55 70 b1 4b a0 71 30 0a 89 57 b1 7d ab 16 b2
       -3.4973415e-09 8.790308e-10 -3.1364515e-09 -8.770141e-09
000240 3e 86 75 b2 b8 a3 93 32 c2 e6 b1 b1 f6 12 a0 b1
       -1.42914e-08 1.7187503e-08 -5.177612e-09 -4.6587685e-09
000250 a7 3b 9b 31 be 51 a1 b0 3f 99 7e 32 65 87 65 32
       4.5178754e-09 -1.1737524e-09 1.481959e-08 1.33603395e-08
000260 15 76 37 b2 8a 8b 00 b1 2c 43 3c 30 7a 68 91 b1
       -1.0678851e-08 -1.870577e-09 6.848946e-10 -4.231933e-09
000270 6e eb ae b1 81 e4 5a ae 6e 6f c0 b1 28 1c 33 b1
       -5.0908318e-09 -4.9770413e-11 -5.6006035e-09 -2.6063933e-09
000280 e9 ba d8 b0 06 9b 44 b2 0c 30 57 b2 1a 0f d5 30
       -1.5769192e-09 -1.144395e-08 -1.2525572e-08 1.5502082e-09
000290 d1 d5 37 b2 87 b3 db b1 77 61 80 31 56 f5 dc 31
       -1.0700618e-08 -6.3941488e-09 3.7363708e-09 6.430734e-09
0002a0 a5 41 64 b2 9d b3 76 31 84 c2 8e 32 46 2e ad b1
       -1.32862725e-08 3.589981e-09 1.6619431e-08 -5.0402233e-09
0002b0 6d 7e 84 b1 4a 26 26 b2 13 4d 95 b0 61 41 24 32
       -3.8560786e-09 -9.671178e-09 -1.0863083e-09 9.560922e-09
0002c0 1c 7b 27 31 f7 35 c7 af 78 75 aa 30 aa ac 60 b2
       2.4371678e-09 -3.6236233e-10 1.2402515e-09 -1.3077775e-08
0002d0 ae 5c 0a b2 5f 98 f2 30 38 2f e7 31 32 23 3b ae
       -8.05373e-09 1.7651124e-09 6.728353e-09 -4.2550137e-11
0002e0 76 9a 2e 30 1b 84 d7 b1 ed 26 49 32 e3 e4 04 b0
       6.3520333e-10 -6.272342e-09 1.17085905e-08 -4.834659e-10
0002f0 14 28 70 32 4c 85 7e b0 a1 e7 2f 31 c2 e7 b6 b1
       1.3978951e-08 -9.259409e-10 2.5597517e-09 -5.323245e-09
000300 6f 59 c7 bc f3 97 7e 3c bc 22 7c bc 73 0b cb bc
       -0.024334637 0.015539157 -0.015389141 -0.024785733
000310 cf d2 da b8 4b f7 09 3d 07 64 ce bd 3c 1e 97 bd
       -0.00010434316 0.033683103 -0.100776725 -0.073788136
000320 d9 f8 bb 3c 5e b4 1c bd 78 ec ef 3d 19 f3 5f bc
       0.022945808 -0.03825795 0.11715025 -0.013668799
000330 3e 3b 31 bc c8 8e 3f bc ca cc 6d 3d c7 e5 34 3d
       -0.010817347 -0.011691757 0.05805663 0.044164445
000340 7d 47 2d bd 80 3a 1e 3b 87 76 59 3c 75 b8 04 bd
       -0.042304505 0.0024143755 0.013272888 -0.032402474
000350 fc ad 1a 3c cf 21 fc 3d aa 99 c8 bd c5 37 d3 3c
       0.009440895 0.12311136 -0.09794934 0.025783429
000360 40 82 64 bd a0 e4 01 3d 34 b5 a0 bc 44 ac 9b bc
       -0.05578828 0.031712174 -0.019617654 -0.019003041
000370 1b a9 d8 bb 25 6a f5 3b 93 ad ff 3c fb 89 a7 bc
       -0.006611956 0.00748946 0.031210696 -0.020451536
000380 bd 95 21 bd b5 35 4f 3d ed 94 e4 ba 52 24 51 bd
       -0.039449442 0.05058833 -0.0017439403 -0.05106003
000390 a6 00 26 3d f6 7c 0c 3d cc 7d c6 3b ea ef 68 3d
       0.040527962 0.03429886 0.0060574766 0.056869425
0003a0 71 c0 e0 bc 8d a0 f8 3c 44 d0 dd bc 8f 4e 4a bc
       -0.027435513 0.030349994 -0.027076848 -0.012347831
0003b0 b8 d6 3d bd 61 a4 8c b9 80 3d b5 bc 25 47 27 3d
       -0.04634735 -0.00026825353 -0.022124052 0.040839333
0003c0 d4 1a e2 39 79 42 d6 bc a7 6e 08 bc d6 9b 2c 3d
       0.00043126068 -0.026154744 -0.008327163 0.042140804
0003d0 3b 97 08 bc df be b5 3a b8 8b 0a bd fb d9 79 3d
       -0.008336837 0.0013866088 -0.033824652 0.060998898
0003e0 b5 7e 23 bd c8 9f 6b bd b3 42 64 bb f6 04 80 3a
       -0.03991576 -0.057525426 -0.0034829795 0.0009767103
0003f0 23 f9 3d 3c a5 c9 43 3c e6 ef 4a 3c d7 cf e3 bc
       0.011595043 0.011949931 0.012386298 -0.027809067

conv1.lin_pos_r.weight f4 [32, 64]
000000 d4 1b 1d 3b 99 09 59 39 6e 29 3f 39 72 78 8b ba
       0.0023972886 0.00020698308 0.00018230613 -0.0010640754
000010 5f 0e 91 39 d5 ee f4 b5 af e1 33 39 9f 7e 3e b9
       0.00027667262 -1.8248926e-06 0.00017154844 -0.00018166982
000020 57 9b 55 37 83 32 5d ba 62 1b d3 b9 ca e3 40 b9
       1.2731957e-05 -0.0008438008 -0.00040265458 -0.00018395405
000030 5e 0e ea b6 5c 16 72 39 d0 f1 b2 b9 86 d0 52 3a
       -6.975416e-06 0.00023087248 -0.0003413097 0.00080419367
000040 f7 38 71 3a 5b fa c4 37 5c 41 2b b9 cb 87 80 b7
       0.0009201909 2.3481602e-05 -0.00016332179 -1.5322023e-05
000050 f6 1c 3a b9 f0 8e 79 3a 17 4f 35 3a d3 38 15 38
       -0.00017749131 0.00095198955 0.00069163874 3.557729e-05
000060 bb bc b5 3a 68 bd bf b9 f6 7b 22 b6 b9 f7 8c b9
       0.001386545 -0.00036571478 -2.4212036e-06 -0.0002688745
000070 6b 56 2d 3a 49 7c 0c 3a 36 59 22 ba 43 ee f9 b9
       0.00066123036 0.0005359096 -0.0006193103 -0.000476705
000080 00 d8 11 39 ad 49 ad b8 89 39 a9 38 6c fa b5 3a
       0.00013908744 -8.263006e-05 8.069265e-05 0.0013883836
000090 ff 88 64 39 f9 ba 62 39 e2 36 1b ba 71 e4 93 b8
       0.0002179481 0.00021622692 -0.0005920959 -7.052057e-05
0000a0 a6 7a 19 b9 fa b7 0e 38 e6 15 75 39 9a 52 9b 39
       -0.00014636907 3.402678e-05 0.00023373179 0.00029625447
0000b0 b3 98 7e 39 a3 04 24 b9 62 4d f1 35 6c eb c9 39
       0.00024280213 -0.00015641986 1.7978421e-06 0.0003851311
0000c0 8f ee d3 38 7d 17 b5 38 37 d7 1c b7 1a ff 36 b7
       0.00010105699 8.6351276e-05 -9.348433e-06 -1.0907441e-05
0000d0 1f 1c a7 b8 6a 94 66 b7 8c a8 1a b6 23 d6 00 b9
       -7.9684185e-05 -1.3743624e-05 -2.3045895e-06 -0.00012286803
0000e0 61 a4 f8 38 64 af 27 ba 5e 51 4b b9 03 ea 32 ba
       0.000118561795 -0.00063966797 -0.000193899 -0.00068250316
0000f0 ff 61 9b 39 69 0d 23 35 55 8b bc 39 a5 da 44 ba
       0.00029636917 6.0741746e-07 0.00035961965 -0.0007509387
000100 ba 0d dd bf b4 b0 f7 bd 70 9f 8f be dc 1b e4 bd
       -1.7269814 -0.1209425 -0.2805133 -0.11138126
000110 36 ed 06 be b1 ee 1b bd c9 f6 5d be c1 f7 7d 3f
       -0.13176426 -0.03806943 -0.21676172 0.9920617
000120 90 60 d5 bd b2 33 5f be 03 5f f4 3d be 56 2e 3e
       -0.104188085 -0.21797064 0.119321845 0.17025277
000130 b0 a4 29 3e 67 a9 d9 be 74 d0 8b 3d b5 0d 22 be
       0.1656673 -0.42512056 0.06826869 -0.15825541
000140 46 c4 fc bc 9d 6d 0a be 87 a4 f6 3d 1d 0f 6b bd
       -0.03085531 -0.13518377 0.120431 -0.05738746
000150 a6 17 ee bd e8 1a 28 3d 89 88 3b 3e a6 a5 db 3d
       -0.11625604 0.041041285 0.18313803 0.10724954
000160 d9 91 73 bd c6 3e 35 3d c3 aa 92 bc 15 1a 9a bd
       -0.059465263 0.04424932 -0.017903691 -0.07524506
000170 f6 a1 35 3c b7 18 63 bc 54 7e 33 3d 72 b6 47 bc
       0.011085978 -0.013860873 0.043821648 -0.012189494
000180 6f d5 ed 3c e0 c1 4f bd ff 2d 3a 3e ee a7 8d bc
       0.029032437 -0.050722003 0.18181609 -0.01729199
000190 93 b7 cd 3d 17 9f de bd 31 4b c4 3c 6d f4 20 be
       0.1004478 -0.10870188 0.023961635 -0.15718241
0001a0 30 e0 20 bc 0e c4 a3 bd 14 d7 68 bd 9b b1 c0 3d
       -0.009819075 -0.07996379 -0.05684574 0.094088756
0001b0 78 60 e6 bd e1 6b 61 bd 6c a2 13 3d e8 98 6b bc
       -0.11248869 -0.055034522 0.03604357 -0.014379717
0001c0 4d bc 3e bb 0d fe 60 3d 56 86 62 3d 31 29 19 3d
       -0.0029103935 0.05492978 0.055303894 0.0373928
0001d0 66 d9 42 3d dc 4f f8 bc c7 d3 a9 3b d7 b9 75 3d
       0.04757061 -0.030311517 0.0051827165 0.059991684
0001e0 01 51 37 bd 66 d1 51 bb 10 f9 c8 bd a1 0f bb 3c
       -0.044754986 -0.003201568 -0.0981313 0.0228346
0001f0 9c f9 ca 3d 27 54 bc 3d 4c 7c 20 bd 05 37 e5 3d
       0.099108905 0.09195738 -0.03918104 0.11192135
000200 c2 aa 26 b3 93 69 11 b1 4c b4 2c 32 bc db cd 31
       -3.880519e-08 -2.116029e-09 1.0052712e-08 5.991266e-09
000210 13 45 60 30 84 b1 51 b1 eb 7d 46 32 f6 40 e5 b2
       8.1588886e-10 -3.0514409e-09 1.1553747e-08 -2.668865e-08
000220 90 fc 1b 32 23 43 01 b2 7d 8b 4a b0 ef 0f 5a b1
       9.0796135e-09 -7.524053e-09 -7.3685397e-10 -3.1732232e-09
000230 7c 01 5a b1 25 3f 25 2f b1 ab 9f b1 d4 2f 29 b2
       -3.172402e-09 1.5029096e-10 -4.647028e-09 -9.8479696e-09
000240 18 2c 23 b2 8b 59 26 2f 2a 31 94 b1 d9 fb 30 32
       -9.4978745e-09 1.5129424e-10 -4.312956e-09 1.0301812e-08
000250 c2 6c 83 b1 3d d9 3f 31 a0 1f 33 b1 51 04 17 b1
       -3.824966e-09 2.7917644e-09 -2.6065905e-09 -2.1975846e-09
000260 14 9c 7b b2 69 39 2b 32 c0 1b 96 b0 ee 55 77 b2
       -1.4645611e-08 9.966564e-09 -1.0921823e-09 -1.439683e-08
000270 28 83 f4 b1 31 12 ab b1 c1 35 11 32 09 df 15 b2
       -7.1162454e-09 -4.978823e-09 8.452333e-09 -8.723654e-09
000280 87 cb a2 b2 42 b8 e9 31 a2 87 44 b2 89 5f 9a b2
       -1.8951836e-08 6.80214e-09 -1.1439541e-08 -1.7971404e-08
000290 0c 35 89 31 a6 d5 b8 31 11 dd 16 31 ed 1b 8c b1
       3.9932555e-09 5.379394e-09 2.1953535e-09 -4.077711e-09
0002a0 a7 aa 17 b0 f2 13 68 b2 9f eb 60 31 1f 9b 4c 31
       -5.517599e-10 -1.3508712e-08 3.2730225e-09 2.9774083e-09
0002b0 c9 d5 85 31 4f d9 69 b1 c0 2e 10 b1 9f f7 0d 32
       3.895114e-09 -3.4029488e-09 -2.0981332e-09 8.263583e-09
0002c0 69 84 3d 2f c5 59 36 b1 9f 9b a7 b1 7e b2 ce 31
       1.7236491e-10 -2.6535514e-09 -4.8780318e-09 6.0156813e-09
0002d0 fb 5e 1b b2 e1 54 55 30 b5 78 0c 32 1c 9a 26 32
       -9.0437835e-09 7.760957e-10 8.176518e-09 9.697512e-09
0002e0 e4 3a ec 30 d0 8a 94 b1 67 b9 8a 31 3d 47 b3 b1
       1.7187998e-09 -4.323148e-09 4.0374064e-09 -5.2176845e-09
0002f0 a4 4f e4 b1 5a 4c 0d 32 2b 49 85 31 0c ac 86 31
       -6.6447274e-09 8.2246405e-09 3.8791277e-09 3.9194727e-09
000300 7f 47 e2 3e 0e 83 1a 3d 73 58 45 3d b9 e3 29 3d
       0.44195172 0.03772264 0.048180055 0.04147694
000310 0b 7f 1c bd 25 43 0d 3c 4f 50 ef ba 2e f1 81 bd
       -0.038207095 0.008621966 -0.0018258187 -0.063448295
000320 2a e0 b2 3d 58 cc 9d 3d a8 74 4e bc 0a 0a 3f 3d
       0.08734162 0.07704991 -0.012601055 0.046640433
000330 2a 1f c7 3c b0 bc 36 bc 99 21 eb bc 46 15 e3 3d
       0.024306852 -0.011153385 -0.028702544 0.11088042
000340 79 23 18 bd 3b 8a ef 3d 2c 76 17 3e 67 d1 53 bd
       -0.037143204 0.11696287 0.14791173 -0.051713374
000350 ab 19 1f 3d 28 c4 f5 3d 92 e2 bd 3d 28 1f 04 be
       0.03884284 0.120003045 0.092717305 -0.1290251
000360 69 e9 da 3d 95 7f 98 3d b0 7b 93 3b 55 c3 0b 3e
       0.10689051 0.07446209 0.0045008287 0.13648732
000370 f0 a6 4c 3c b8 6d 3a 3d 94 1e 00 be 66 56 78 3d
       0.012490973 0.045514792 -0.12511665 0.06062927
000380 1d 8e d1 3c fa c4 80 3d a4 62 dd 3d b7 c2 ef bc
       0.02558046 0.0628757 0.1080983 -0.029267652
000390 94 80 c0 bb f9 40 c4 3d bc b5 c4 bd 17 f3 e4 3b
       -0.0058747027 0.09582705 -0.096049756 0.0069869864
0003a0 f0 a5 a6 3d f6 0f 3c 3d 2a e3 f6 3b ef d9 f3 bd
       0.08137119 0.04591366 0.0075344043 -0.11906802
0003b0 38 38 d4 bd 3a d5 44 bc c0 f5 ab 3d e9 47 48 bc
       -0.103622854 -0.012013728 0.083964825 -0.012224176
0003c0 45 47 08 bd b5 fc 2b 3c 59 48 88 bd 37 b2 39 3c
       -0.033271093 0.010497262 -0.06654424 0.011333994
0003d0 d7 ec 4f bd 56 c8 bf 3d c2 99 78 3c a6 53 f3 bc
       -0.050762977 0.09364383 0.0151733775 -0.029702973
0003e0 08 0d 2c 3d f4 29 07 3b 63 1d 81 bc 64 95 0a be
       0.042004615 0.0020624371 -0.015761083 -0.1353355
0003f0 0f e8 2a 3d 10 29 18 be bf 85 8a 3d 76 6e 7f bc
       0.041725215 -0.14859414 0.06763791 -0.015590301

conv1.lin_pos_r.bias f4 [32]
000000 c5 93 c9 bd 24 05 bc 3c b6 b9 35 bb 0b 28 b7 3d
       -0.09842638 0.02295167 -0.00277291 0.089431845
000010 3e 87 94 b8 5f 0e a7 ba 1a 0d a8 3c e4 14 3d 3d
       -7.082381e-05 -0.0012745372 0.02051406 0.0461625
000020 79 af e0 3c 5b 64 90 3c 90 7d 1b 3d e5 c0 0c bd
       0.027427422 0.017625978 0.037961543 -0.034363646
000030 1e 6f 9b bc e6 4f 6b bc 12 63 83 3c 20 7a 65 3c
       -0.018973883 -0.014362311 0.016038451 0.014006168
000040 98 fa 6a bd 74 f4 bb bc 2d eb 02 bc 02 7f ca b7
       -0.05736789 -0.022943713 -0.007990641 -2.413942e-05
000050 c7 50 f5 bc 12 1a af 39 76 52 2c bd 9f 58 f7 3c
       -0.029945744 0.00033398025 -0.04207083 0.030193625
000060 8e 73 ed 3d d1 c8 0a bc 1f 8d f5 3c 85 54 45 bd
       0.11594306 -0.00847073 0.029974518 -0.048176307
000070 67 a9 f5 bc 89 14 43 bd 37 51 b1 3c 66 ab ab b7
       -0.029988004 -0.047627006 0.021645172 -2.0464602e-05

conv1.lin_neg_l.weight f4 [32, 64]
000000 d0 cb 03 b1 65 01 2c 32 55 73 94 b1 64 f9 a8 b1
       -1.9178863e-09 1.0012035e-08 -4.3204786e-09 -4.917796e-09
000010 a4 13 3a b1 6a 3c b2 31 b5 6f b9 31 bc 0e b8 31
       -2.7077727e-09 5.18735e-09 5.3969083e-09 5.35678e-09
000020 c5 60 bd 30 f4 c4 ac 31 5d 4e a6 31 82 b3 6a 31
       1.3779063e-09 5.02825e-09 4.8401447e-09 3.415352e-09
000030 00 ee 4f 32 46 51 32 af ea ae 7e 32 82 42 b5 31
       1.2103101e-08 -1.621788e-10 1.4824517e-08 5.2753544e-09
000040 f1 b2 52 b2 56 5d c7 b1 82 96 27 32 fc 7e e5 30
       -1.2264295e-08 -5.8022733e-09 9.754901e-09 1.6698034e-09
000050 39 11 ba 30 0d f3 b6 31 f3 05 0e b2 43 42 07 32
       1.3538176e-09 5.324529e-09 -8.2668405e-09 7.8731e-09
000060 d3 be d6 b1 d3 95 05 32 e4 16 75 32 2b 1e 8b b2
       -6.249914e-09 7.775685e-09 1.4266082e-08 -1.6195449e-08
000070 82 8a 30 30 6b b8 75 b1 a8 c6 c6 31 ae 39 38 af
       6.422526e-10 -3.5757022e-09 5.785143e-09 -1.6755194e-10
000080 4e 86 44 32 3d c4 29 b0 a2 cd 85 31 86 1a dc b0
       1.1439239e-08 -6.1760713e-10 3.894187e-09 -1.6014645e-09
000090 dc a5 58 b1 c3 7d f7 b1 c9 b0 33 32 df 19 14 b1
       -3.1526417e-09 -7.2029436e-09 1.0459368e-08 -2.155154e-09
0000a0 2c 9a 4f 30 62 54 35 b2 ff 15 65 b2 d7 57 a3 b1
       7.552525e-10 -1.0554773e-08 -1.3334556e-08 -4.7539106e-09
0000b0 e7 dd fe b1 fd 05 47 b2 62 fd 4f 32 fb 2a 98 b2
       -7.4176003e-09 -1.1584686e-08 1.2106598e-08 -1.7714674e-08
0000c0 f2 d3 88 b1 f9 a5 30 32 77 e8 9e 32 be 6f 11 32
       -3.9822163e-09 1.0282286e-08 1.8499334e-08 8.465518e-09
0000d0 20 99 9d b2 59 45 fc b1 bc 6c 90 31 96 d5 1c 32
       -1.8346839e-08 -7.342049e-09 4.2033133e-09 9.128959e-09
0000e0 eb 51 8e 31 e5 fc ff 2f c8 fc eb b1 16 f9 6c 31
       4.142057e-09 4.6563922e-10 -6.868138e-09 3.448411e-09
0000f0 fc c4 10 b0 f9 b0 d0 b1 37 48 2f 31 41 ed 07 32
       -5.2666826e-10 -6.073716e-09 2.55069e-09 7.9119795e-09
000100 50 5b 2c 39 aa 0e 62 3c 91 77 f0 bc c4 eb 9b bd
       0.00016437215 0.0137974415 -0.029353889 -0.07613328
000110 f2 af de 3c 35 cf d0 bc e7 d5 eb bb 93 fb 27 bd
       0.027183507 -0.025489429 -0.00719713 -0.041011404
000120 68 5c f7 bc 52 4d 31 bd 3c a5 c5 bb 24 96 1d bd
       -0.03019543 -0.04328663 -0.0060316604 -0.038473263
000130 17 4c 1f 3a aa d6 2e 3b c4 c1 62 3c 54 19 10 bd
       0.0006076707 0.0026678243 0.013840143 -0.035180405
000140 08 44 f2 bc 7f 6f 3c bc b8 9e 4c 3d 49 26 3b 3d
       -0.029573455 -0.011501192 0.049956053 0.04569081
000150 27 95 34 3d 33 e8 bf bc 8d b2 53 bd e2 e7 c4 3c
       0.044087555 -0.02342615 -0.05168395 0.024036352
000160 44 91 19 3d 68 43 93 bc 28 f7 8c bc f2 ee e0 3b
       0.03749205 -0.017976478 -0.017207697 0.006864422
000170 33 e1 b9 bb a4 73 0e 3b 5c 80 c6 3c 95 77 4e bc
       -0.005672598 0.0021736408 0.024231128 -0.012601753
000180 11 55 8f 3c 50 e1 97 bc e0 b8 aa bc 56 74 10 3d
       0.017496618 -0.018540055 -0.020840108 0.035267197
000190 58 07 7f bc 06 50 1a bd f1 ff 2e bd 5b 1b ec 3c
       -0.015565716 -0.037673973 -0.042724553 0.028821638
0001a0 6f 83 fa 3b 8c 01 8c 3d d3 dc a6 bb fc 70 3a 3d
       0.0076450626 0.068362325 -0.0050922423 0.045517907
0001b0 c9 8e ab 3c 9d e8 5a 3d f4 44 82 bb 11 e4 ae 3b
       0.020942109 0.053444494 -0.003975505 0.005337246
0001c0 84 22 ec 39 70 fc 83 bc aa 73 5d 3d ee 26 06 bd
       0.00045039144 -0.016111583 0.054065384 -0.03275197
0001d0 97 9f b9 bb cd 4b 3e bd 23 fd 00 bd 37 7b f0 bc
       -0.0056647765 -0.046459008 -0.03149141 -0.029355628
0001e0 44 fc b5 3c fe 1c 52 bd 28 69 dd 3c b4 7e 32 bd
       0.022215016 -0.05129718 0.027027681 -0.043577865
0001f0 9f 6c 6b 3d 07 36 e2 bc d8 9b 60 bd ec 70 cf bc
       0.057476636 -0.027613653 -0.054836124 -0.0253224
000200 9e c1 aa bd cd 64 5c 3e 52 fa 9f bd 8b 80 3a be
       -0.08337711 0.21522827 -0.07811417 -0.18213098
000210 22 6a 54 bd 4d ee a3 bb b1 09 a1 3d 0a 1a 4b bd
       -0.05185903 -0.005002773 0.078631766 -0.04958538
000220 1a e5 dc bd 10 67 27 be 9d 66 ce 3c 6a b7 23 3e
       -0.10785885 -0.16347909 0.025195414 0.15987936
000230 7c 1b 52 3d 5f cd 88 3d a0 b6 85 be ce 60 18 bd
       0.051295742 0.066797964 -0.26115894 -0.037201695
000240 df 37 be 3d 6a 9a 58 3d 0e 64 40 3e b1 3f 8f 3e
       0.09288 0.052881636 0.18788168 0.2797828
000250 58 67 1e bc f6 78 b1 bd 02 30 94 3d c1 1f 28 3d
       -0.009668194 -0.086656496 0.07235719 0.041045908
000260 e8 b2 50 bd d2 f6 7f 3d 03 35 0a 3d f0 e5 d3 bd
       -0.05095187 0.062491246 0.033741962 -0.103465915
000270 6d e7 24 3e c8 2b 38 bb f1 50 65 3c 1c 25 ae bb
       0.16103907 -0.0028102268 0.013996349 -0.0053144824
000280 d6 92 0f 3e 1e 21 4f bd e1 ca 25 3d bf be 4a bd
       0.14020857 -0.050568692 0.040476684 -0.049498316
000290 c9 59 9e bd 01 cd 81 bd 94 39 17 be 8e 22 6c be
       -0.07731969 -0.063379295 -0.14768058 -0.23060057
0002a0 0f ef 9f bd d8 61 0b 3e c7 d9 bb bd 1c 6b ce 3d
       -0.07809269 0.13611543 -0.09172397 0.10079023
0002b0 17 2a 9d 3c f5 b1 b9 3d 0b d5 38 3e 5f cc eb bd
       0.019185109 0.09067146 0.1805002 -0.1151359
0002c0 f3 15 1d bd b1 63 cf bc 29 90 3c 3d e8 bc e5 bd
       -0.03835101 -0.025316091 0.04603592 -0.11217672
0002d0 6e 41 87 3b bf 87 e9 3d 63 c5 7f 3d 19 c4 5a bd
       0.004127673 0.11402845 0.062444102 -0.05340967
0002e0 4b b4 10 bc d8 df 13 3d df 69 16 3b b7 39 af bd
       -0.008832048 0.036102146 0.0022951288 -0.0855593
0002f0 20 e3 f0 3c 6c 4a 48 bc 5c 71 d6 bc 49 a7 df bd
       0.029405177 -0.012224775 -0.0261771 -0.10920579
000300 06 73 cc 3d cc 30 45 bd 7c 29 04 3d 34 b3 fd 3b
       0.099828765 -0.04814224 0.032266125 0.00774231
000310 af 07 c3 3c dc 0e bf 3d 69 1b 5a 3d c7 bb 70 b9
       0.023807375 0.09329006 0.053248797 -0.00022958136
000320 f3 19 2b 3d 5b 6d 3f 3d c6 e0 aa 3d 39 fb 57 bd
       0.041772794 0.04673515 0.083436534 -0.05272982
000330 fa d0 9f bd 57 c0 bd 3d 2e 57 ae 3c 6c ec d1 3d
       -0.07803531 0.092652015 0.021281805 0.10250172
000340 fd 9c fa bc fa 45 aa 3d 85 44 49 3c 6b d1 6d bd
       -0.030592436 0.08314128 0.012284403 -0.058061045
000350 3b 70 84 bd b3 d2 87 bd 3c 6d 18 3e 9e 00 35 bc
       -0.06466719 -0.066319846 0.1488542 -0.01104751
000360 fa 92 12 3d 00 13 d5 3b 41 85 cb ba e4 24 2d 3d
       0.0357847 0.006502509 -0.0015527384 0.04227151
000370 4a 55 28 bd 93 c5 f7 3d dc 86 38 3b 18 c7 16 bd
       -0.041096963 0.12098231 0.0028156554 -0.036810964
000380 f5 84 e5 3c a9 16 92 bc fb f3 17 bd 32 a2 8a 3c
       0.0280175 -0.01783307 -0.037097912 0.016923044
000390 ea 5f 42 3c 85 1d 32 3d 48 b5 1d bd ed 6c 93 ba
       0.011863688 0.043485183 -0.03850296 -0.0011247672
0003a0 af 92 c5 ba 07 f4 d2 bd 58 39 22 3c 2c aa e7 bc
       -0.0015073622 -0.10300451 0.009901367 -0.028279386
0003b0 f3 08 d4 bc ef fd 97 bd 07 71 6d 3d 99 d0 03 3e
       -0.025883174 -0.07421481 0.05796912 0.12872542
0003c0 da cc 9e 3b e8 81 a9 bd 21 a5 11 be 49 04 36 bd
       0.0048461976 -0.08276731 -0.14223148 -0.04443768
0003d0 22 c3 89 bd 92 d8 4b 3e be 5c 33 3c 62 d2 8c 3d
       -0.06726672 0.19906834 0.010947404 0.06876065
0003e0 35 c3 15 bc 3c f7 53 3d c5 db 4b 3c a1 9e 05 3e
       -0.009140779 0.051749453 0.012442534 0.13048793
0003f0 ee 8f 02 be b6 67 06 3e 4a b3 cc 3c da 3f e7 bb
       -0.12750217 0.131255 0.024987835 -0.0070571722

conv1.lin_neg_r.weight f4 [32, 64]
000000 d9 e9 21 33 2a 57 39 31 08 3e 23 b2 f0 e5 7a b1
       3.7698417e-08 2.697059e-09 -9.501953e-09 -3.6510492e-09
000010 f8 83 6e b1 24 1a 3c b1 13 e7 03 b2 f4 a5 a7 31
       -3.4708574e-09 -2.737246e-09 -7.677744e-09 4.8792064e-09
000020 60 f4 86 31 c2 45 c3 31 fd 85 ea 31 7e e6 1b 32
       3.9276955e-09 5.6831775e-09 6.825529e-09 9.074595e-09
000030 cb 39 04 32 6c 5b ef b1 55 5c 2f 32 c4 6a 81 31
       7.696552e-09 -6.966209e-09 1.02073345e-08 3.766532e-09
000040 90 01 54 2f 04 2b 51 31 dd 5c f7 b1 c7 37 33 b0
       1.9281843e-10 3.0437954e-09 -7.1992035e-09 -6.5199085e-10
000050 12 98 99 31 a2 3c 29 31 fa 5d ed 31 bd b9 bc ae
       4.4701745e-09 2.4627202e-09 6.9082917e-09 -8.582244e-11
000060 77 8e 0b b2 d5 ee 55 b1 62 ac 8a b1 72 74 0a b0
       -8.123258e-09 -3.113134e-09 -4.0359263e-09 -5.0369586e-10
000070 89 2c 27 32 65 2a 38 b1 97 87 a4 b1 2b 72 cb 31
       9.7308055e-09 -2.6799623e-09 -4.788443e-09 5.921057e-09
000080 65 5e 1f 32 6e 08 8f b2 be 7a 1f 32 c1 fb 2f b2
       9.276481e-09 -1.6651224e-08 9.282926e-09 -1.0243583e-08
000090 30 b3 a1 b1 ec 2f 17 32 c1 41 6d b0 82 90 70 32
       -4.706088e-09 8.800253e-09 -8.631354e-10 1.4002696e-08
0000a0 bf 88 22 32 25 9b 72 32 32 34 76 b1 61 12 23 b2
       9.4607335e-09 1.412153e-08 -3.582738e-09 -9.492028e-09
0000b0 4f dd 76 b2 79 b2 4d b1 dd d3 1e 30 08 99 73 b1
       -1.4369404e-08 -2.9932876e-09 5.778114e-10 -3.5448142e-09
0000c0 00 99 bc b1 98 12 2e b2 4e 2a 7c b2 fe c2 8f 32
       -5.488914e-09 -1.0132361e-08 -1.46779495e-08 1.6736063e-08
0000d0 9e 7d f2 30 a8 9f b6 b1 82 c2 2b b2 76 0b 4e b2
       1.764352e-09 -5.315048e-09 -9.997736e-09 -1.1993384e-08
0000e0 8a f5 24 b2 aa 13 aa 31 dc 62 88 31 89 ae 44 b2
       -9.6018855e-09 4.9498867e-09 3.96936e-09 -1.1448386e-08
0000f0 e1 ae e9 b1 fe 8a 26 b2 d5 78 c5 31 9a 2e dc b1
       -6.801074e-09 -9.694075e-09 5.7471916e-09 -6.4081407e-09
000100 4f a9 de bd 6b 3b 9b bb 55 c5 27 3c 4a 41 11 bd
       -0.10872137 -0.004737308 0.010239919 -0.035462655
000110 55 2a 1d 3d ce 38 63 bd e8 e8 65 3c 27 f1 b7 3d
       0.03837045 -0.055474095 0.01403258 0.08981543
000120 65 cf fa bb 0e dc fc 3d 6c f0 bd 3d 54 e4 28 3d
       -0.007654118 0.123466596 0.092743725 0.041233376
000130 e0 bb 00 bb 6b 2f 40 3b 4c bb 3f bb 9c 05 a0 bd
       -0.0019643232 0.0029325138 -0.0029255925 -0.0781357
000140 19 61 dd bd e1 70 ca 3d ec 32 6a 3d f5 fa 10 3d
       -0.108095355 0.09884811 0.05717747 0.03539558
000150 d7 4a 9b bb 82 66 10 3d b4 21 cf 3d ea e1 36 bd
       -0.004739146 0.03525401 0.1011385 -0.044649042
000160 ad 96 39 bd c5 6b 14 3b b9 cf 69 3d cd 8d de 3d
       -0.04530971 0.0022647243 0.057082865 0.1086689
000170 7c f8 c5 bd d8 b4 87 3d 4c 55 db bd b4 73 eb 3b
       -0.09666535 0.0662629 -0.107096285 0.0071854237
000180 7a 28 65 3d 09 5a b3 bc 0c 2f e3 3c 80 59 56 bd
       0.055946805 -0.021893518 0.027732395 -0.052331448
000190 dc 2b 08 be 4b a3 5e ba c3 18 0e bd 1b 9a 54 3d
       -0.13297981 -0.00084929605 -0.034691583 0.05190478
0001a0 38 cd 17 bd e8 eb 9a bd 4a 50 9c 3d 26 42 57 3d
       -0.037060946 -0.07564527 0.076325014 0.05255332
0001b0 54 50 c5 3c c7 a3 c7 bd 31 00 8f bb 47 e8 97 bd
       0.024086155 -0.09748035 -0.0043640365 -0.0741735
0001c0 e8 01 bf 3d 67 f6 4d bd 6e 8d 80 bd c0 d3 00 be
       0.093265355 -0.050283816 -0.062769756 -0.12580776
0001d0 b5 7d 99 bc 00 a7 e7 3d c6 9e 42 bd f0 ca 3f 3d
       -0.0187367 0.113111496 -0.0475147 0.046824396
0001e0 16 5e 19 3d 21 49 38 3d a7 50 0f 3d 4e 16 cb bc
       0.037443243 0.044991616 0.034989025 -0.02479091
0001f0 2f 3d 04 3e 72 5a be bd 22 9c 16 3e 2e 6b 8d bc
       0.12913965 -0.09294595 0.14707997 -0.017263021
000200 cb 88 02 be ad 49 6e 3d eb 1f e5 3d 43 f4 0f be
       -0.12747495 0.05817573 0.111877285 -0.14058022
000210 6e 84 d3 bd 40 f3 5e 3c f7 96 c8 bd 74 0e 87 3d
       -0.10327993 0.0136078 -0.09794419 0.065945536
000220 50 15 f8 bd 58 5c 3d 3d 0a d0 c2 3d a8 d9 95 bd
       -0.1211344 0.046230644 0.095123366 -0.07316905
000230 5d bd 02 bc 91 ed 85 3d 1c b1 63 be 3e 12 58 3c
       -0.007979718 0.06539453 -0.2223553 0.013187943
000240 a4 5f 96 bd 73 d9 58 be c4 e5 22 3e 52 5c 83 be
       -0.07342461 -0.211767 0.15907961 -0.25656372
000250 eb 10 8e bd ee f3 91 bd 9f e3 9c bd d5 98 3d 3b
       -0.069368206 -0.07126604 -0.07660603 0.0028930206
000260 81 bf 49 3b 2e c8 a5 3c 5b 2f ae 3d 7e a7 28 3c
       0.0030784311 0.020237055 0.08505126 0.0102938395
000270 fe 4c 8d bd f4 c7 34 3d 68 e1 44 be 03 aa a9 3c
       -0.06899451 0.044136003 -0.1922661 0.02071095
000280 b9 45 2e bc bf e5 0a bc 50 85 6e 3c e7 c7 8e 3c
       -0.01063674 -0.008477627 0.014558151 0.017429305
000290 ee ea 74 3d 2e cb 29 bc c8 02 bd bd c1 c7 00 3d
       0.05979436 -0.010363383 -0.09229046 0.0314405
0002a0 70 8f fa bc 63 f9 58 3c b7 6c 97 3d be bc 11 be
       -0.030585974 0.013243052 0.073937826 -0.14232156
0002b0 ff 36 01 bd b7 09 02 3c 12 d8 26 bb 0d 32 01 3c
       -0.03154659 0.0079368865 -0.0025458378 0.007885468
0002c0 e8 ee 50 bd 2b 4d a7 bd 4b d1 46 bd fe 8d f2 3d
       -0.05100909 -0.081690155 -0.04853944 0.11843489
0002d0 ec ec 93 3d 09 08 00 be 3e e5 80 bd 99 8f 5d bd
       0.07222924 -0.12503065 -0.062937245 -0.054092024
0002e0 be 05 ec 3d c0 21 8f bd 10 bb ad 3d 69 9c 1a 3d
       0.11524533 -0.06988859 0.08482945 0.03774682
0002f0 b6 67 1c 3e 2f 9f 6a bd 02 e7 9c 3c be 31 28 3d
       0.15273938 -0.057280716 0.019153122 0.041063063
000300 b7 2d 83 bf cd 3f 2a be 72 93 30 bd f7 00 15 be
       -1.0248326 -0.166259 -0.043109365 -0.1455115
000310 56 d7 29 3e f8 78 0f 3e 0c cd ed 3c 10 6d f6 3b
       0.1658605 0.1401099 0.029028438 0.0075203255
000320 77 dd 1b be b2 82 88 be cc 62 c6 bd 9a 48 90 3c
       -0.15221201 -0.26662213 -0.09686813 0.017612744
000330 31 9c 85 3e 2a 1d 65 3d 35 61 7b be e5 d3 d5 be
       0.26095727 0.055936016 -0.245488 -0.41763225
000340 fa 67 85 3e 1b 7b c8 bc cb b3 39 be 2f 6b c9 3d
       0.2605589 -0.024472764 -0.18134992 0.09834897
000350 8a 5a 0b bb 17 da b4 bd 03 d5 05 bf 61 51 53 be
       -0.0021263682 -0.0883066 -0.52278155 -0.20636512
000360 2d 18 81 bd bd 71 e2 3b f9 49 e7 bc 43 62 f5 bd
       -0.06303439 0.0069105313 -0.028233515 -0.119816326
000370 e4 2b d9 3e c0 d2 a9 3d 7a ef 30 be 72 0c 83 bd
       0.42416298 0.082921505 -0.17278853 -0.06398858
000380 f3 7b f6 bd 91 83 86 be 3c 72 99 3b 5e 9f 47 3e
       -0.1203536 -0.26272252 0.0046828073 0.19494388
000390 3a 46 e3 3c 51 92 cb bd 5e a6 8f 3e ac b4 2e 3b
       0.027743448 -0.09940017 0.28056616 0.0026657982
0003a0 b2 64 87 be 0c 40 a0 3e 80 d9 14 bd 8b e6 8f bd
       -0.26444012 0.31298864 -0.036340237 -0.070263945
0003b0 90 21 39 3e f6 31 19 3d 4a 31 10 3c 83 9e d3 bc
       0.1807921 0.037401162 0.008800814 -0.02583242
0003c0 c7 e7 17 3e 74 8a 70 3e c4 8c b8 3e 16 c3 20 3e
       0.1483451 0.23490316 0.36044896 0.1569942
0003d0 fb 5d bc 3d 58 9a e2 bd a2 3d 44 be 80 e3 82 be
       0.09197613 -0.11064595 -0.19164136 -0.25564194
0003e0 60 b8 40 bc 0e b6 9a bd 4e a1 de 3c 08 f6 a6 3d
       -0.011762708 -0.075542554 0.027176525 0.081523955
0003f0 8f 5e df 3d 7a 7f be 3d 36 bd c9 bd 95 80 4b be
       0.109067075 0.09301658 -0.09850542 -0.19873269

conv1.lin_neg_r.bias f4 [32]
000000 49 a0 50 bc 63 cf c8 3d 4f e2 1f 3c df 05 91 3c
       -0.012733527 0.09805181 0.009758546 0.017702995
000010 fd 25 8a bd 06 28 90 39 9d e2 b5 bc 69 a2 45 bd
       -0.06745527 0.0002749564 -0.022202784 -0.04825059
000020 38 00 fc b9 1c 98 bc bb 16 ee 12 bb cb 6b e2 3c
       -0.00048065349 -0.0057554375 -0.0022419742 0.02763929
000030 e3 3a d0 b9 28 c0 76 b8 3b 6f bb 3c c6 26 8e 3d
       -0.00039716726 -5.882993e-05 0.022880187 0.06940989
000040 80 eb 82 bd e2 ee 93 bc e5 8d 2c bd a7 a4 85 3c
       -0.06392574 -0.018058244 -0.04212751 0.016313864
000050 85 9a d4 3c 22 c4 81 ba 50 1d 41 39 b3 46 c7 3c
       0.025952587 -0.0009900371 0.00018416834 0.024325704
000060 8c 35 0d 3d b0 9c 43 b9 1e a1 02 3e 41 dc ef 3c
       0.034474894 -0.0001865502 0.12756774 0.02927983
000070 a6 a0 99 bc 97 31 ec ba c0 99 e9 3c 49 0c 43 3d
       -0.018753361 -0.001802015 0.028515697 0.047619138

convs.0.lin_pos_l.weight f4 [32, 64]
000000 31 fa 8c 39 aa c7 a4 3c 08 7b 35 b2 6a 71 3a 3d
       0.00026889288 0.020114738 -1.0563561e-08 0.045518316
000010 0e 26 6f b7 a7 ac 52 b6 f3 4d 2f 3d f1 54 49 bd
       -1.425437e-05 -3.1392935e-06 0.042798948 -0.049153272
000020 01 37 31 3d 9b 86 e4 3c 5c 49 58 bc 6f b5 3d 31
       0.043265346 0.027896216 -0.013201084 2.7606253e-09
000030 0f a6 91 3a 06 9d 5b bb 8c e8 a4 bc 7b 86 bf 3c
       0.0011112111 -0.0033510341 -0.020130418 0.023379555
000040 e3 56 09 bb 11 4e e2 31 28 e3 58 35 af 44 42 33
       -0.002095633 6.586341e-09 8.0796826e-07 4.5231612e-08
000050 36 c4 80 bb 07 4b b1 bd 6b ca f5 b1 62 44 b5 3d
       -0.00392964 -0.086568885 -7.1534507e-09 0.088509336
000060 62 2d 57 bd 87 54 90 31 2c 8e e0 bb 5b 50 78 bc
       -0.052533515 4.2005612e-09 -0.0068528857 -0.015155877
000070 1d fc 2a 32 f8 b6 0c b2 a1 21 2d 3d ad 38 38 b0
       9.952626e-09 -8.190675e-09 0.0422684 -6.701935e-10
000080 5a bc 41 b2 44 10 cf bc 3c 4d b6 3d 43 f5 94 bc
       -1.1276905e-08 -0.02527631 0.0890145 -0.018183356
000090 cc 4a 3e bc 40 89 5d bd 1b ab 42 39 ac 62 b0 32
       -0.011614513 -0.05408597 0.00018565023 2.0533967e-08
0000a0 28 b5 b8 34 be 79 c9 bc c3 26 19 33 89 54 aa 3c
       3.440448e-07 -0.024594184 3.5658342e-08 0.020792263
0000b0 fa ab 01 b2 aa 6a 03 b3 61 08 1b bd c4 35 13 3d
       -7.547891e-09 -3.0597825e-08 -0.037849788 0.035939947
0000c0 9c d5 0c 3b cb 34 09 33 90 31 6f b2 f6 9b 8e 3c
       0.0021489626 3.1945813e-08 -1.39229e-08 0.017408352
0000d0 b2 8c fb 3c 75 1d 81 36 44 4d 87 bc 12 bd 81 bd
       0.030706737 3.847929e-06 -0.016516335 -0.063348904
0000e0 fd 6e 1a 3d 1e c3 a7 35 b5 7c bd bc 05 17 59 bc
       0.037703503 1.2499256e-06 -0.023130754 -0.013250117
0000f0 de 84 61 bb f0 f8 61 b1 88 29 13 3d 09 e5 16 3d
       -0.003441147 -3.2883314e-09 0.03592828 0.03683952
000100 67 c0 e1 b8 68 55 72 3b 78 d7 d6 b1 77 d7 16 be
       -0.00010764674 0.0036977176 -6.2527157e-09 -0.14730631
000110 0d 63 77 b6 68 c9 c4 b8 c3 dc 4b 3b 7a b9 54 bd
       -3.6863523e-06 -9.383523e-05 0.0031106926 -0.051934697
000120 fc c4 3d 3d 00 8e 98 3b 99 b3 01 be 66 d3 b9 b1
       0.046330437 0.0046555996 -0.12666167 -5.408242e-09
000130 47 74 d2 b4 8a c4 58 b9 3d 1d 09 bd e0 78 9a bc
       -3.920015e-07 -0.00020672582 -0.03347515 -0.018856466
000140 b2 94 c1 39 3e cb 54 b1 3d 74 5b b4 da 5f 61 34
       0.00036922615 -3.096559e-09 -2.0438252e-07 2.0989629e-07
000150 e8 41 be bb ca 9e 10 bd 7e 90 a2 b2 2a 1e 9a 3c
       -0.0058061965 -0.035307683 -1.892499e-08 0.018813211
000160 57 1d 5b be 4f 7e 9f 32 66 02 ad bc e0 6a 07 3b
       -0.21397911 1.8567475e-08 -0.021119308 0.0020663068
000170 6d 9e d4 b2 7f fb 78 b2 f1 24 81 bc b6 ea b9 b1
       -2.4752092e-08 -1.44926835e-08 -0.015764685 -5.410892e-09
000180 23 db fd 31 e7 66 cd 3c 22 7c b4 bd a6 24 ec 3b
       7.388182e-09 0.025073482 -0.08812739 0.0072065173
000190 48 04 81 ba 3b ae 12 3e 8d d8 0d 3a 9d 33 bf b2
       -0.0009843195 0.14324276 0.0005410992 -2.2258797e-08
0001a0 d2 9c 3f 36 e0 39 2f 3c fb 7c 6f b2 68 27 a1 3c
       2.85525e-06 0.010694951 -1.3940048e-08 0.01967211
0001b0 2c c8 2a b5 f5 aa 0d b3 ee 09 20 3b 80 1f 61 be
       -6.3621223e-07 -3.2984605e-08 0.002441998 -0.21984673
0001c0 1e ed 27 ba e9 ca 44 32 0e 42 3e 31 83 47 c3 3c
       -0.00064058776 1.1454838e-08 2.7686187e-09 0.02383781
0001d0 0b 05 8f 3b 0d b0 13 36 6c 52 aa 3d dc 6a fe 3d
       0.004364615 2.2007182e-06 0.08316502 0.124227256
0001e0 9f 88 1e 3d 07 7c a5 33 1e 35 8c bc ff 1b b5 3c
       0.03870451 7.705972e-08 -0.017115172 0.022108076
0001f0 e0 0c 3a bd d1 46 ba b0 1d 6a ab bd 05 83 01 be
       -0.045422435 -1.3553408e-09 -0.08369849 -0.12647636
000200 49 68 1c b1 e6 cf 26 33 0e 0c ab 31 d0 6c d8 34
       -2.2760267e-09 3.883897e-08 4.9781255e-09 4.0312307e-07
000210 13 db fb b1 8a da 0d b2 1a 05 77 b3 da 54 3b 33
       -7.3299673e-09 -8.25697e-09 -5.751381e-08 4.3616502e-08
000220 c9 3f 2d 34 06 e4 97 32 06 20 cb 33 55 a0 5a 32
       1.6135085e-07 1.7682407e-08 9.458749e-08 1.2725725e-08
000230 3c 50 b4 b1 50 12 2a b2 7e 40 ef b1 41 b2 f5 31
       -5.247811e-09 -9.899466e-09 -6.9631474e-09 7.1507036e-09
000240 65 6e 84 b1 9b 41 ad 2f d6 30 22 32 c9 33 db b1
       -3.854256e-09 3.1515132e-10 9.440745e-09 -6.379626e-09
000250 0c 7f 97 31 60 b8 b4 b3 9f 09 e7 31 52 56 fe b3
       4.409122e-09 -8.415441e-08 6.7240786e-09 -1.1843498e-07
000260 1a 7a 4b 33 5c ff ee 30 9c ff 0c 34 0b c9 79 31
       4.737567e-08 1.7389357e-09 1.3131506e-07 3.6348549e-09
000270 ca bc 57 32 93 c8 7b b1 85 92 59 33 83 4b 44 32
       1.2557573e-08 -3.663932e-09 5.065751e-08 1.1425871e-08
000280 4f d0 df b0 95 25 79 b4 f7 9f 0b b3 4e 79 a2 b3
       -1.628459e-09 -2.3203604e-07 -3.2508947e-08 -7.565778e-08
000290 71 e4 67 b1 d7 72 c9 32 88 99 6b b2 93 0b 84 31
       -3.3744778e-09 2.3451703e-08 -1.3713709e-08 3.8430215e-09
0002a0 03 aa 52 b2 64 82 82 32 7c 27 61 b0 75 91 b7 33
       -1.2262265e-08 1.5193287e-08 -8.1910634e-10 8.54806e-08
0002b0 ad 3f db 30 ec 41 a4 b0 49 b3 d3 30 71 07 be 33
       1.5952445e-09 -1.1951307e-09 1.5403226e-09 8.848918e-08
0002c0 e8 0e a1 31 a9 0a a4 b1 48 f7 02 32 25 62 a5 33
       4.6874113e-09 -4.77424e-09 7.623221e-09 7.7012636e-08
0002d0 4a 45 be 33 ba 56 b2 b1 bf e1 91 b2 a1 87 52 b2
       8.860168e-08 -5.1903415e-09 -1.6982879e-08 -1.2254447e-08
0002e0 1e 5f 3c 33 4a 03 0a b1 72 d1 ba b3 4b 22 1d b2
       4.385867e-08 -2.0083513e-09 -8.699398e-08 -9.1464e-09
0002f0 3e df 62 b2 5d 52 d3 30 77 e6 fd b2 d2 76 ca 33
       -1.3205691e-08 1.537568e-09 -2.955788e-08 9.427971e-08
000300 2e bd d1 b9 3e 0d c3 3d a1 2d 3d b0 19 57 ef 3a
       -0.00040004536 0.0952401 -6.882264e-10 0.001826021
000310 00 4a 53 b5 16 9c 2b b7 1f 2f ca 3d fc 31 12 bd
       -7.871131e-07 -1.0228736e-05 0.09872269 -0.0356922
000320 06 74 8e 3d d5 3d a7 3d f6 6d 45 3c 94 cf 02 b2
       0.069557235 0.081660904 0.0120501425 -7.614194e-09
000330 ef de 27 32 81 61 47 b2 7c 1b 38 3d 7f b4 80 3d
       9.771369e-09 -1.1605494e-08 0.044948086 0.06284427
000340 17 a1 97 32 f2 34 2a b1 20 4e cc 35 89 33 07 32
       1.7651969e-08 -2.4768352e-09 1.5221922e-06 7.869752e-09
000350 05 77 98 32 63 2e a9 bd eb b2 15 b2 22 75 10 3e
       1.7749253e-08 -0.08260801 -8.713623e-09 0.14107183
000360 04 f7 36 3c f0 e7 64 b0 97 f2 25 bd 9c 39 45 32
       0.011167292 -8.327552e-10 -0.040514555 1.1480008e-08
000370 ce 33 a1 b1 7b 0f 30 31 86 76 02 3e a0 ce 98 b0
       -4.691606e-09 2.562017e-09 0.12740526 -1.1118182e-09
000380 50 a9 95 b2 bf 50 14 3d 54 ec 9e 3d 2d d7 6d bd
       -1.7422877e-08 0.036209818 0.0775992 -0.058066536
000390 72 39 27 b0 a4 b9 2c bd b8 a7 e4 b1 ac ab 06 b1
       -6.083588e-10 -0.04216923 -6.6547408e-09 -1.959715e-09
0003a0 e4 67 f9 36 37 18 9e 31 ee f2 3a 31 99 56 2e bd
       7.4328727e-06 4.601158e-09 2.7204652e-09 -0.042563055
0003b0 c5 4a 2d 36 2f 93 5e b2 07 40 11 bc 39 cc 25 bc
       2.582253e-06 -1.2955566e-08 -0.008865363 -0.010119491
0003c0 9d e8 47 ba f5 50 c6 b1 39 d4 36 b2 2f 07 0b 3d
       -0.00076259096 -5.771762e-09 -1.0642048e-08 0.033942398
0003d0 03 d4 87 3b 39 68 b8 b6 74 68 a0 bc 36 75 20 bd
       0.004145147 -5.4957604e-06 -0.019581057 -0.03917428
0003e0 ae 58 8e 3d 75 77 43 b6 66 1a 3b 3d 21 48 35 bc
       0.06950508 -2.9126797e-06 0.045679472 -0.01106456
0003f0 e1 30 a1 bc 71 7f 60 32 4e 08 ee 3c ab 47 1f 3d
       -0.019676628 1.3067493e-08 0.029056694 0.038886707

convs.0.lin_pos_r.weight f4 [32, 32]
000000 c1 24 46 ba 8f 4b 83 bf 3a 23 d0 b2 5e a7 2a 3e
       -0.00075585773 -1.0257434 -2.4230406e-08 0.16665408
000010 c1 2c 6a 37 07 85 c2 37 6e 42 c8 be 02 5b e3 3d
       1.3957907e-05 2.3188548e-05 -0.39113182 0.11101343
000020 37 51 89 3e 7a 3a 34 bf 20 6a fc 3d 67 78 da b2
       0.26819775 -0.7040173 0.12324929 -2.5433293e-08
000030 2a a1 04 b3 af fe 41 b1 7f ab 1d bf 52 63 1d bf
       -3.0880223e-08 -2.8229967e-09 -0.6158981 -0.61479676
000040 76 bd 98 32 73 3f 0c 32 0d 16 f1 35 18 1e 5d 35
       1.7781286e-08 8.163499e-09 1.7962317e-06 8.237271e-07
000050 61 1e 3b 33 a9 c4 f0 3c c7 40 e9 b1 36 36 b4 3e
       4.356696e-08 0.02939065 -6.788557e-09 0.3519761
000060 41 9b 2b 3d 46 d6 e0 b2 02 6c 6b 3e 51 28 b2 b2
       0.04189611 -2.6174472e-08 0.2299042 -2.0740261e-08
000070 d1 36 28 b2 a2 14 3e b2 33 de 8a be e7 de 19 32
       -9.791351e-09 -1.1064147e-08 -0.2712265 8.956454e-09
000080 fd 41 d9 b9 45 d8 61 3d f0 d6 f5 b1 3c 42 cc 3e
       -0.0004143863 0.05513789 -7.154874e-09 0.39894283
000090 83 61 fb 34 a4 59 65 b7 4c b9 29 bc 28 d2 8b bd
       4.6823342e-07 -1.3670335e-05 -0.01035912 -0.068271935
0000a0 b9 6a 64 3c 1f 11 79 be ad c6 11 bf b6 ba fd b2
       0.01394146 -0.24322937 -0.5694378 -2.9537983e-08
0000b0 8a 95 1c b2 7e bc 3b 32 41 3a dd bd 0a 38 24 be
       -9.114396e-09 1.0927691e-08 -0.10802127 -0.16037002
0000c0 39 97 bc 32 26 61 89 b2 3c de 0a 35 83 21 ba b2
       2.1954849e-08 -1.5993077e-08 5.17324e-07 -2.166849e-08
0000d0 37 d4 3b b2 7a 19 e3 3e 72 96 43 b2 d4 8c c7 be
       -1.0933085e-08 0.44355375 -1.1384701e-08 -0.3897463
0000e0 8c 7f 18 be 07 99 87 30 66 18 80 3e 91 c0 ab 32
       -0.14892405 9.866036e-10 0.25018615 1.9994589e-08
0000f0 3c a5 9e 32 20 ab 81 b1 d8 f6 1e bf ad 06 52 32
       1.846876e-08 -3.773849e-09 -0.62095404 1.2225127e-08
000100 32 ed ca 31 c5 c7 01 33 9f d7 ed 32 f4 89 ac 32
       5.9059397e-09 3.0216842e-08 2.7688484e-08 2.008617e-08
000110 73 56 de 31 f4 17 c2 31 2b 14 db 32 c5 83 d6 33
       6.4708785e-09 5.6488663e-09 2.5504127e-08 9.98912e-08
000120 8c 50 a8 b3 33 43 da 32 c0 c1 56 b3 b8 a1 d9 32
       -7.837761e-08 2.5409099e-08 -5.0001972e-08 2.5335666e-08
000130 45 a9 00 30 a0 55 92 32 b2 cf 74 b3 f1 55 72 31
       4.6806675e-10 1.7035575e-08 -5.6999575e-08 3.5264487e-09
000140 8a b3 f5 31 71 5e 98 31 73 2c 22 32 5f 3f 99 b2
       7.1508497e-09 4.434519e-09 9.439748e-09 -1.7840362e-08
000150 b0 fa ca 32 e9 22 b0 b3 b4 5e 25 32 75 56 82 b2
       2.3629894e-08 -8.201989e-08 9.625797e-09 -1.5173308e-08
000160 5b 78 c9 34 64 67 b5 b2 3b 32 dc 33 06 8f a2 31
       3.7526738e-07 -2.111819e-08 1.0253685e-07 4.7310804e-09
000170 5d b0 91 b1 86 c6 be b1 8e 4e 0a b2 b5 38 cd b0
       -4.2401056e-09 -5.5522973e-09 -8.0505185e-09 -1.493183e-09
000180 f5 b8 1c bb e3 de 6f bf 40 1d 0c 30 53 87 91 3d
       -0.0023913954 -0.93699473 5.097327e-10 0.07105889
000190 06 23 a7 37 c8 48 98 38 de dc 1f bd 54 84 06 3d
       1.992426e-05 7.2614814e-05 -0.039028995 0.03284104
0001a0 c8 12 08 3e 7c 75 10 bf b9 0e 03 bc f8 f3 81 32
       0.13288414 -0.56429267 -0.007999116 1.512852e-08
0001b0 90 90 93 b2 e1 f4 5a b1 e0 93 22 bf c0 4f 15 bf
       -1.7178792e-08 -3.1862373e-09 -0.6350689 -0.58324814
0001c0 49 6d ac b2 a6 48 8d b2 68 3d 8b 35 e1 ac 3e 35
       -2.0073132e-08 -1.6447597e-08 1.0374179e-06 7.103209e-07
0001d0 ea 17 2a 32 0c 36 ef 3d 40 49 74 30 6e 66 1c 3e
       9.90074e-09 0.116802305 8.887078e-10 0.15273449
0001e0 d1 d5 a2 3b 30 30 53 31 69 7b b0 3d 7f ef ad b1
       0.0049693366 3.0731933e-09 0.086172886 -5.0621902e-09
0001f0 1d f4 ce b2 fd 63 e5 b1 6d 18 8b be a2 41 f0 31
       -2.4092566e-08 -6.6761445e-09 -0.27167073 6.992381e-09
000200 79 5e 81 32 25 25 6f 32 2c f6 18 32 f5 75 bf 32
       1.5060538e-08 1.3920077e-08 8.9035375e-09 2.2288967e-08
000210 70 c2 64 32 0b 9f 15 31 90 8e 3b 33 4e 08 44 32
       1.3315557e-08 2.177276e-09 4.366899e-08 1.141059e-08
000220 54 c9 1a b2 b5 b7 cf 31 ec 47 4b b3 e4 5d 64 b2
       -9.0097565e-09 6.045378e-09 -4.7330033e-08 -1.3292695e-08
000230 54 fc a2 b0 ce ad ad 31 4e 8f b0 32 5c 61 07 32
       -1.1858767e-09 5.054722e-09 2.0554264e-08 7.880171e-09
000240 7a 4a 3e 30 49 8d 87 30 41 c7 97 32 f0 09 98 30
       6.9227435e-10 9.862698e-10 1.7669324e-08 1.106228e-09
000250 cb cc 3e b2 76 d8 e4 b1 ce 04 68 31 33 ab 61 b3
       -1.110602e-08 -6.660282e-09 3.3763174e-09 -5.25426e-08
000260 f1 af 81 b2 e2 57 82 32 c1 fd ae 30 a7 1a c1 31
       -1.5097585e-08 1.5173956e-08 1.2732287e-09 5.6200693e-09
000270 8a 57 e4 32 2f 1b 03 b2 f9 15 de b1 f1 4d be b0
       2.6582502e-08 -7.631384e-09 -6.4635484e-09 -1.3846472e-09
000280 15 81 7b 3a 51 06 49 3f 92 09 49 b2 10 27 ad 3b
       0.0009594125 0.78525263 -1.1701916e-08 0.0052841976
000290 45 43 20 b6 ab 31 39 b8 e5 5f 85 3f 2f c5 10 bd
       -2.3881014e-06 -4.4153694e-05 1.041989 -0.0353443
0002a0 0b ec 32 3d bc d2 1e 3f 11 3e 09 bf b0 dc b1 32
       0.04368214 0.62040305 -0.5361033 2.0705869e-08
0002b0 1e c4 89 31 c2 b7 9d b1 17 ab 63 3e 26 f5 04 3f
       4.0095207e-09 -4.5901922e-09 0.22233234 0.51936567
0002c0 a3 f3 31 32 14 01 08 33 85 db ce 35 68 9f 31 b5
       1.0358153e-08 3.1665948e-08 1.5412085e-06 -6.6169605e-07
0002d0 af ee b1 b2 86 ac 9f 3e 27 87 f4 b2 8d e9 98 bd
       -2.0714053e-08 0.31186312 -2.8466799e-08 -0.07466421
0002e0 0a a3 8b be 2e 1f 9b 32 4b 7b 5c be c3 97 93 32
       -0.27272826 1.8058554e-08 -0.21531408 1.7182066e-08
0002f0 1c 36 c8 b2 ae 95 06 31 c8 09 c4 3e c7 a1 af 31
       -2.330767e-08 1.958465e-09 0.38288713 5.1115623e-09
000300 4a ee 0a ba 1f 8a b1 be ed dc 92 2f fd 41 ab 3e
       -0.000529979 -0.3467569 2.6714223e-10 0.33448783
000310 fe b7 ec b6 46 1e 20 38 73 7e 29 bf a6 f4 c0 3b
       -7.0547676e-06 3.8175167e-05 -0.6620857 0.0058885394
000320 0a d6 12 be fe 90 fc be bb e2 3a 3c c2 85 39 b1
       -0.14339462 -0.4932937 0.011406596 -2.6997076e-09
000330 9a 84 86 30 f0 cb 9f b1 88 d8 41 be 3f 72 c2 be
       9.787471e-10 -4.650694e-09 -0.18930256 -0.37977788
000340 bd 03 37 32 10 2f c8 b1 21 a3 89 b5 7b e0 24 b4
       1.0652852e-08 -5.8261165e-09 -1.0254772e-06 -1.5355356e-07
000350 54 dc a9 31 b4 75 29 3e d2 fe 10 b1 eb ba c8 be
       4.9435958e-09 0.16548806 -2.1099607e-09 -0.39205107
000360 18 2c ef 3d 89 aa 34 b2 a9 2c 93 3e 45 81 0f 32
       0.11678332 -1.0516154e-08 0.2874501 8.353088e-09
000370 01 66 8b 32 d3 e7 af b2 e1 34 23 bf d6 e8 3b 32
       1.6228116e-08 -2.0478103e-08 -0.6375256 1.0937773e-08
000380 05 2d bd ba 57 7b 64 3f a2 2a 9a b1 50 30 8b be
       -0.0014432973 0.892507 -4.4868367e-09 -0.27185297
000390 22 76 8e b6 81 4d 16 b8 06 d1 6d 3e d0 da cf be
       -4.2456822e-06 -3.5834968e-05 0.23224267 -0.40596628
0003a0 d8 ba dd bd 78 c0 29 3f 2d d3 6e 3e 79 2f bf b2
       -0.10826653 0.6630931 0.23322745 -2.2256915e-08
0003b0 15 4d 0e 32 6f 71 3e 30 9f 6f 27 3f 06 17 24 3f
       8.283014e-09 6.9282796e-10 0.65404695 0.6409763
0003c0 2b 74 86 b1 17 73 15 32 0b b7 dd 35 2f 5f 1c b5
       -3.91312e-09 8.69911e-09 1.6519056e-06 -5.825304e-07
0003d0 70 7b a7 b1 1a 62 a8 bf 94 6a 2c 32 81 79 9b 3e
       -4.874373e-09 -1.3154938 1.0035951e-08 0.30366138
0003e0 c6 6f e2 3d ed 5f 2a b2 1c 2a b2 be 8c f8 3d b2
       0.11056475 -9.917113e-09 -0.34797752 -1.1057761e-08
0003f0 21 53 95 31 af 84 ef 31 d5 ac 1b 3f 5a 26 70 31
       4.3459214e-09 6.9709e-09 0.60810596 3.4946397e-09

convs.0.lin_pos_r.bias f4 [32]
000000 0e b3 73 3c 0d 73 c6 3d b7 ef f1 b3 b8 7d 1d 3d
       0.014874233 0.09689913 -1.1266041e-07 0.038449973
000010 8b e1 46 bc 24 25 19 3e c1 91 b8 3d e7 13 30 3d
       -0.012138735 0.14955574 0.09012175 0.04298773
000020 3d 86 93 bc ce b4 38 bd be de 28 bc fe ff a5 bb
       -0.018008346 -0.045094304 -0.010307012 -0.005065917
000030 79 1b 18 3d fd d3 bf bc cf 37 61 bd 29 42 4b bd
       0.037135575 -0.023416514 -0.054984864 -0.049623642
000040 bc 66 1b bb 8d 11 89 b8 eb 51 0e bd ca a2 00 bd
       -0.0023712358 -6.535938e-05 -0.03474609 -0.031405248
000050 35 0e 76 bd 45 3c 99 3d a7 47 a3 bc e8 ef 18 3e
       -0.060072143 0.074821986 -0.019931627 0.14935267
000060 8b 75 10 bb aa 67 c4 b7 02 95 62 3d 87 c5 0f bc
       -0.0022042717 -2.3413293e-05 0.055317886 -0.0087751215
000070 2a ff 58 ba 54 2d 66 bd d9 d8 52 bb 2e d8 21 3d
       -0.00082777685 -0.056195572 -0.0032172708 0.039512806
