wiki-RfA/models/wiki-RfA-train-15.pt (torch, 63739 bytes, 14 tensors)

conv1.lin_pos_l.weight f4 [32, 64]
00000000: c0d9 02bb bb95 a3bd 9b00 753d e66e a0bd
00000010: dbcb 7d3c e6c7 b23d 26bf 0f3d 0eef 90bd
00000020: ed11 dcbd f5d4 2bbd 687b be3c 51b9 c0bc
00000030: 6ff8 adbd 686b 0bbd 4574 6f3b 55a8 27bc
00000040: 4630 aebd bfa4 7f3d 0239 633d a935 353d
00000050: c204 adbd 6fac c43b 323c bc3c 2d71 c73d
00000060: ef16 cc3c dfab 1abd 05d7 1abd 151b 0a3d
00000070: 0568 05bd 2f5e 823d fb7f 0fbd 5cd9 29bd
00000080: 2072 79bd 160a 593d c6a8 5abd e472 b53d
00000090: d0c6 cabb 4add 66bd ff35 c03c 4611 273d
000000a0: 9468 f23a ff4e 1cbd a80b 7a3b a929 abbd
000000b0: 5ced e13c 068a a3bc fbc7 963c 2c0b a4bd
000000c0: fe47 713d bb42 27bd 97a0 e23d 4010 f33c
000000d0: 704f 773d 89cc 1f3d b55d c3bd 091f 623c
000000e0: a671 2d3b f838 5e3b bb92 3ebc 3925 a43d
000000f0: 13bc afbd 3cc7 973d 0e07 99bd 534a 1a3c
00000100: 7aaa d8be 4de2 2cbe eccc 34bb 9c51 5abe
00000110: 4095 96bd ccb2 e0bd ab49 ddbc 046b 533e
00000120: c7fa ad3d 207a 82be dfe0 2e3e 45ca 953c
00000130: 3f40 66bd 744a 813c c2e5 2a3c d78b abbd
00000140: 9990 4bbd 20b7 4a3c d2a5 eb3d 61b1 aebd
00000150: d4c0 2abd 4885 033e 504e f43c 5879 ae3c
00000160: 6613 62bd 7ddc 69bd f8bf 7dbd ab43 fc3d
00000170: 5e97 18bd 8305 68bd b93e 573e d29c 8cbb
00000180: a3c6 fcbd 79f2 ea3d a32e 10be 505c 703b
00000190: b440 a23d d874 0e3d 0590 cb3b 2ce8 3bba
000001a0: ca7e 813d 42c7 173e e3bc be3d 08ac 5bbd
000001b0: 8f74 bfbd 7236 273c b795 443d 7c4d 8bbd
000001c0: 4d40 0e3e 4793 f43c 92b1 b1bc 1c4d 653d
000001d0: 151e 55bd 607b b13d 8f05 94bd e992 73bc
000001e0: 66da cb3d c95c d6bd 9a8e b63d 131b afbd
000001f0: 30e6 eb3d 6ebb 2bbe 0c63 ea3c d6c4 883d
00000200: ac65 bd32 7974 79b2 4aff 1132 4e70 0db2
00000210: 9bfd 9530 2ae4 b031 ac26 1632 24fe 4d31
00000220: 9d79 b231 c360 38b1 7784 7cb1 c61e a9b1
00000230: 26d0 4732 7564 af31 961a 1bb0 2c0d 15b2
00000240: 2ab8 8f32 b3e9 9432 2505 73b1 9a72 59b1
00000250: cf77 a8b1 08f6 5bb0 6cdd 1032 568d 2232
00000260: 275d 08b2 ebca b031 4b5b 6e30 bd4e 5b31
00000270: e658 b531 4fb0 0eb1 f633 b6af 9583 b831
00000280: dc95 5b31 bb18 46b1 9852 1ab1 976a 9130
00000290: ceb9 89b1 50f9 e4b0 d940 e1af d943 ccb0
000002a0: c4ae c4b1 d723 a6b1 76d9 f931 600a 9931
000002b0: 9f77 9eb1 54ce 5cb2 b34b 7f31 252b 1632
000002c0: 3e76 0432 8931 10b2 5e20 0732 bc0e 2230
000002d0: 36a8 ee31 7691 31b2 cdb0 59b2 458e 0331
000002e0: 684f 51b2 01d2 81af bb9a 0632 9db7 39b1
000002f0: 43b8 1fb2 4561 562f d159 53b1 0682 7932
00000300: ea68 b5bd 2b39 6b3d d3ed 933d 856a 9d3c
00000310: a716 a13c 8216 4bbc 2cc4 c2bd 0bc0 d63b
00000320: ddaf 083d 056f c7bc e550 c5bd 4ec2 febd
00000330: 9681 b7bc c232 8d3c 38ad 83bc c329 333c
00000340: 3cc2 fdbb a8e6 743c 774d 41bd a568 bf3c
00000350: 5ab1 89bd b142 503c f0bb 54bd f455 e93c
00000360: 25d0 bc3d 180c ffbc 8f6e 853d c6de e23c
00000370: 4ff7 f3bb ead9 00bc a6e0 b3bd 8e47 abbd
00000380: b381 8d3c a46c 61bc af97 31bb 44f3 823d
00000390: 3fcd 6f3c 73ae b6bb 7a1c 2abd c8f4 413c
000003a0: 9b22 cfbc 6578 32bc 926e 923d 04b4 edbb
000003b0: 1a70 143a 9ad1 383d 7b34 ffba 59ff f33c
000003c0: 5338 953c 0b1b 3e3c 60f1 cebc 27fc 033d
000003d0: 0aed abbc c622 90bd 556d 5b3d 2a6e 36bb
000003e0: a978 11bd 4dc9 febc cb6c 8f3d 290e 11bc
000003f0: 84c9 ebbc 50a3 943c eeba 00bd 527f 013d
-0.0019966215 -0.07987543 0.05981503 -0.07833652 0.015490497 0.08729534 0.035094403 -0.07076846
-0.107456066 -0.04195114 0.023252204 -0.023525866 -0.084946506 -0.034037977 0.0036537808 -0.010233005
-0.08505301 0.062412973 0.05547429 0.044240627 -0.08448173 0.006002001 0.022977922 0.097383834
0.02491328 -0.037761565 -0.037802715 0.033717234 -0.032569904 0.0636562 -0.03503416 -0.041467056
-0.060899854 0.052988134 -0.05338361 0.08859804 -0.006188251 -0.05636338 0.023463247 0.040787958
0.0018494301 -0.038161274 0.003815392 -0.083575554 0.027579002 -0.019963276 0.018405905 -0.08009943
0.058906548 -0.040835124 0.11065786 0.029670835 0.060378492 0.03901342 -0.095393576 0.013801345
0.0026465445 0.0033908468 -0.011631663 0.08014912 -0.08580794 0.07411048 -0.07472049 0.009417134
-0.42317563 -0.16883202 -0.0027587963 -0.21320194 -0.07352686 -0.10971603 -0.027012667 0.20646292
0.084950976 -0.254838 0.17077969 0.018284926 -0.056213614 0.015782572 0.010430755 -0.08376282
-0.049698446 0.012372762 0.11506237 -0.08529926 -0.0416878 0.12843812 0.029822499 0.021298096
-0.05519428 -0.05709504 -0.061950654 0.12317594 -0.03725373 -0.05664588 0.2102002 -0.0042911554
-0.123425744 0.11472029 -0.1408029 0.0036676116 0.079224974 0.0347794 0.006212237 -0.000716808
0.06323011 0.14822105 0.09313371 -0.05363086 -0.09348404 0.010205852 0.04799434 -0.06801888
0.13891716 0.029855384 -0.021691117 0.05598174 -0.05203064 0.0866611 -0.07227623 -0.014866569
0.099537656 -0.10466916 0.08913918 -0.08550086 0.11518514 -0.16770718 0.028611682 0.066781685
2.204873e-08 -1.452019e-08 8.498157e-09 -8.232815e-09 1.0913256e-09 5.1482134e-09 8.739942e-09 2.9975888e-09
5.1943077e-09 -2.6830527e-09 -3.6746124e-09 -4.922046e-09 1.1630652e-08 5.104591e-09 -5.642645e-10 -8.675936e-09
1.673114e-08 1.7335742e-08 -3.5364078e-09 -3.16428e-09 -4.903064e-09 -8.002137e-10 8.432249e-09 9.461777e-09
-7.937422e-09 5.1453433e-09 8.671363e-10 3.1913452e-09 5.2779e-09 -2.076394e-09 -3.3142528e-10 5.370064e-09
3.195388e-09 -2.882685e-09 -2.2456899e-09 1.0580433e-09 -4.0083483e-09 -1.6660042e-09 -4.0973339e-10 -1.4862237e-09
-5.7242193e-09 -4.8353104e-09 7.2715762e-09 4.4540656e-09 -4.6120046e-09 -1.2852599e-08 3.7150414e-09 8.740959e-09
7.710296e-09 -8.393166e-09 7.865394e-09 5.8956195e-10 6.945835e-09 -1.033583e-08 -1.2671262e-08 1.914388e-09
-1.2183456e-08 -2.361418e-10 7.835008e-09 -2.7025415e-09 -9.296914e-09 1.9497744e-10 -3.0755596e-09 1.45232715e-08
-0.088579014 0.057427566 0.07223096 0.019215832 0.019664122 -0.012395503 -0.09510073 0.006553655
0.03337084 -0.02434493 -0.0963457 -0.124394044 -0.022400659 0.017236117 -0.016073808 0.01093525
-0.007744102 0.014947571 -0.047193017 0.023365328 -0.0672328 0.012711213 -0.051937044 0.028483368
0.09219388 -0.031133696 0.06515228 0.027694117 -0.007445253 -0.007864455 -0.08783083 -0.08363257
0.01727376 -0.013758812 -0.0027098467 0.063940555 0.014636337 -0.005574995 -0.041531064 0.011838146
-0.025285056 -0.010892962 0.07149996 -0.0072541256 0.00056624564 0.045121767 -0.0019470596 0.029784845
0.018215334 0.011603127 -0.025261581 0.032222893 -0.020987052 -0.070378825 0.053571064 -0.002783666
-0.03551546 -0.031101847 0.070031725 -0.008853474 -0.028782614 0.01814428 -0.03142827 0.031615563

conv1.lin_pos_r.weight f4 [32, 64]
00000000: 7b9f a5bf b8b5 17be 9215 d73d f82e 61bd
00000010: 6099 2dbe a5f8 32bd dbe9 7cbe d17b f13d
00000020: d656 0f3e 30a4 e7bd c0da d7bd 96ad 85be
00000030: ab47 23be e322 22be 4a35 b4bd eedd ecbd
00000040: be59 3b3d 25bf 2abe 6b32 2b3e 5cc5 3a3e
00000050: 2341 8fbe 53b4 843d a290 afbd f989 673c
00000060: cd56 933e 2d96 783d b210 463e 0d7d e9bd
00000070: af42 283e e514 3e3d edd4 943c 4acb 093e
00000080: 3fb0 7a3d 6f40 b33b e046 773b cb39 d23d
00000090: 4d9e d3bb 523f c6bd 1c4d fa3d 257e d8bc
000000a0: 9511 04be 399d baba 450c 41bc 2cb9 a0bd
000000b0: 5dcf 07be 9fe6 d93b f0fc c23d 5937 e6bd
000000c0: f472 a03b bbe9 963c 6b7c 08be fc0d aabd
000000d0: 5afa 693e 6c68 debd bb02 213d e526 3bbd
000000e0: 25b9 7f3c dc1d be3d 3feb 3f3e d669 f23c
000000f0: d426 81bd 1e93 8c3e 2d62 9ebd 13dc e2bc
00000100: 7bc5 c8bf e5c3 1f3e 86fb 9c3e cc68 323d
00000110: d15f 52be f9e8 5e3d 4458 73be 942d 063f
00000120: 7f7a 0dbc c158 9cbc 25ff 933e d6ba 11be
00000130: ea58 92bd 74fd afbe 2472 1bbe d0b8 1fbe
00000140: 74f1 853c 6a45 bfbd c676 cc3e a2db 023e
00000150: af5e b1bd ece0 7b3d d9bc 27bd f005 00be
00000160: 375e 413e 5035 c3bd c9cf fe3d fdcb f6bc
00000170: 0ecb 83bd d3ee 5dbc f29b 013d cec2 89bd
00000180: afdc edbd 95fc 0b3c 4690 033e c4ba 2bbe
00000190: 8fc1 b2bc b228 a33d f07a 17be 9565 4e3c
000001a0: 7a49 1abe 17d3 7e3b c175 723d 1d19 a3bd
000001b0: 0bed 3abd 3458 e83d c4a4 61bc c765 aebd
000001c0: e849 51bd bdbc e7bb 0b06 8f3d 70a5 a83b
000001d0: 5368 2cbd 781e 203d c586 61bd 8023 9fbd
000001e0: 7f63 c3bc 7f19 a73d e052 c5bc 1394 17be
000001f0: 6e88 b93a a7a1 d63d 86ed 10bb d944 7dbc
00000200: 8ef3 70b2 3573 9e31 be5e 3bb2 692a 0a31
00000210: 31c2 1932 8c09 05b2 8fc1 3b32 9d68 c5b2
00000220: b731 14b1 81db 4fb1 41e1 cd31 4a32 de31
00000230: 33f4 ebb1 28ea 86b1 5773 e82f b777 0831
00000240: 26e9 82b1 e94f d0b1 647e 3c31 c4b7 17b1
00000250: cf59 fab0 1718 98b1 3998 9cb0 cadc a531
00000260: 5959 0a31 c81e bf2f e99e c131 27bf 8032
00000270: 9073 b631 2ea4 4132 72c1 5832 c814 89b2
00000280: 0bd7 e7b1 5e1b 6232 4a37 3432 4687 36b1
00000290: 5614 b7b1 b7c5 67af a78d 19b1 27fc 0731
000002a0: 420a cc30 8f0b ef2f 4745 b8b1 aab1 99b2
000002b0: 4389 3ab2 a36e 2eb2 9544 dab1 cfab 8832
000002c0: cb04 3e32 d0ce dab1 a5ae 2131 208d 3eb1
000002d0: 3cab 98b2 ad5a 1db2 90ec 0eb2 aefa db31
000002e0: 02a0 1a32 cbd6 aa2f 3031 3332 ab23 7d31
000002f0: e641 b6b1 c984 60b1 ba68 ee31 03e9 91b0
00000300: d1a0 033f 6db1 873d 67d7 4abd 164f 7b3d
00000310: 4cfd cf3d 0cf3 24bd 1556 c23c 412b b9bd
00000320: 1761 433c bbf6 04be df45 01bd 34bd 01bd
00000330: 44b0 2c3e 8ff4 0c3e 7e3e 293e 2670 88bd
00000340: 06cc 8dbd 87d3 ffbd 8d63 1bbd 77f0 31be
00000350: ad3f 1dbd cd81 19be f254 173d 4628 a13d
00000360: a254 07bd 3f09 a13d c964 2cbe 2342 93bc
00000370: 6be6 133e 4aa2 bdbd c4cb 0cbc bd8f 3c3d
00000380: e112 ec3c ce41 203d 61fd 963c b0d5 5c3e
00000390: 221c 21bc 42d1 cabd 65e4 c63d 4405 cfbb
000003a0: cca7 8abc 2c88 90bd e041 403d c82a a93d
000003b0: e4b4 b73b 3080 1fbd 621f 063d 4872 a5bc
000003c0: 6d7a 383d c4bf 673c 685c 66bc 90ba 6cbd
000003d0: d803 10bd bdc3 09bd 06b9 493c 8163 023c
000003e0: c831 d7bc d21a 313c 187d 873d eb00 a9bd
000003f0: 2726 fb3c 92f3 263b d09a 6f3d 3ba8 ab3d
-1.2939295 -0.14815414 0.10502161 -0.054976434 -0.16953039 -0.043694157 -0.24698584 0.11791194
0.13997969 -0.11310613 -0.1053977 -0.26108998 -0.15945308 -0.1583362 -0.087992266 -0.11565767
0.04573988 -0.16674478 0.16718452 0.18239349 -0.27979383 0.064797066 -0.085725084 0.014132016
0.2877716 0.060690094 0.19342306 -0.11400805 0.16431688 0.046406645 0.018167937 0.13456455
0.061203238 0.0054703276 0.0037731454 0.102649294 -0.00645808 -0.09680046 0.12221739 -0.026427338
-0.12897332 -0.001423753 -0.01178271 -0.07847819 -0.13262697 0.0066498066 0.095209 -0.112410255
0.004896516 0.018421998 -0.13328712 -0.083034486 0.22849408 -0.10859761 0.039309245 -0.04569139
0.015608107 0.09283039 0.18742083 0.029591482 -0.06306234 0.27455992 -0.07733569 -0.02769283
-1.5685266 0.15602072 0.30660647 0.043556973 -0.20544364 0.0544214 -0.2376414 0.52413297
-0.008635162 -0.01908529 0.28905597 -0.14231429 -0.07145865 -0.34373057 -0.1518026 -0.15597844
0.016350485 -0.093394116 0.39934367 0.12779096 -0.086606376 0.0614938 -0.040951584 -0.12502265
0.18883596 -0.09531653 0.124419756 -0.030126566 -0.06435214 -0.01354571 0.03164286 -0.06726609
-0.11614358 0.008544107 0.12848005 -0.16770464 -0.021820812 0.079667464 -0.1479299 0.012597461
-0.15067092 0.0038883144 0.05919433 -0.07963774 -0.045636218 0.113449484 -0.013772193 -0.08515506
-0.051095873 -0.00707206 0.069835745 0.005146675 -0.04209168 0.039091557 -0.055060167 -0.07770443
-0.023851154 0.0815916 -0.02408737 -0.1480258 0.0014155039 0.104800515 -0.0022114231 -0.015458309
-1.40252165e-08 4.6115027e-09 -1.09063745e-08 2.010575e-09 8.949926e-09 -7.74379e-09 1.0928843e-08 -2.2981391e-08
-2.1565094e-09 -3.0247238e-09 5.9918936e-09 6.4667676e-09 -6.8671624e-09 -3.9265338e-09 4.2282508e-10 1.9858655e-09
-3.810004e-09 -6.0626815e-09 2.7429445e-09 -2.207785e-09 -1.8215419e-09 -4.426521e-09 -1.1393758e-09 4.827233e-09
2.0132431e-09 3.476457e-10 5.6351053e-09 1.4988087e-08 5.310035e-09 1.1271409e-08 1.2616839e-08 -1.595835e-08
-6.7474324e-09 1.3161154e-08 1.048995e-08 -2.656138e-09 -5.328313e-09 -2.107957e-10 -2.234495e-09 1.9788418e-09
1.4845869e-09 4.348206e-10 -5.3629807e-09 -1.7892337e-08 -1.0857835e-08 -1.0153289e-08 -6.352432e-09 1.5910613e-08
1.1060545e-08 -6.368147e-09 2.3527857e-09 -2.772886e-09 -1.7772997e-08 -9.15922e-09 -8.319276e-09 6.402238e-09
9.000361e-09 3.107544e-10 1.0430355e-08 3.683662e-09 -5.304389e-09 -3.267177e-09 6.9386177e-09 -1.0616364e-09
0.5141726 0.06625638 -0.04952183 0.06135472 0.101557344 -0.04027085 0.023722688 -0.09041453
0.0119250035 -0.12984745 -0.031560775 -0.03167458 0.16864115 0.13765167 0.16527745 -0.066620156
-0.0692368 -0.124915175 -0.037936736 -0.17376886 -0.038390804 -0.14990921 0.036946245 0.0786901
-0.033039697 0.07863092 -0.16835321 -0.017975872 0.14443366 -0.0925947 -0.008593503 0.046035517
0.028817596 0.039125256 0.018431367 0.2156589 -0.009833368 -0.09903194 0.097115315 -0.0063177664
-0.016925715 -0.07057223 0.046937823 0.08260113 0.0056062806 -0.03894061 0.032744773 -0.020196095
0.04503863 0.014144842 -0.014060117 -0.057795107 -0.035159916 -0.033633936 0.012312179 0.007958294
-0.026268855 0.010809617 0.066156566 -0.08252128 0.03065784 0.002547477 0.05849725 0.08381697

conv1.lin_pos_r.bias f4 [32]
00000000: a5a8 853c 2271 8b3c d73f 0dbc f2aa 723d
00000010: 0765 0b3e 86e2 dd3b 6111 5a3c 9adf 27bb
00000020: 78c1 993c e17e 833c 7aa1 273d 142e 1ebd
00000030: a81d 8cbc cd43 34bd d4ce 213d 5924 9d3c
00000040: 2995 5ebd a940 00bd 259f cf3c 54af cbb8
00000050: ee17 e6bc bdbf 91bb 04f4 12bd 661c c13d
00000060: 844d 68b9 4aa6 583d fd02 3d3d a472 7cbd
00000070: 0052 d1bc 558e 2dbd d805 983c 9154 31b7
0.016315768 0.01702172 -0.008621178 0.059245057 0.13612758 0.0067713885 0.0133098075 -0.0025615455
0.01876901 0.016051712 0.04092548 -0.038618162 -0.017103985 -0.044009972 0.039503887 0.019182371
-0.05434147 -0.031311665 0.02534444 -9.712452e-05 -0.028087582 -0.004447906 -0.035877243 0.09429245
-0.00022154121 0.05289296 0.046145428 -0.061632767 -0.025551796 -0.042372067 0.018557474 -1.0569712e-05

conv1.lin_neg_l.weight f4 [32, 64]
00000000: ce14 64b2 111d ff31 1ef8 efb1 6d1e 0e31
00000010: 61df 38b2 60e4 4632 3de5 02b1 3ca7 99b2
00000020: 559f f131 db44 bdb1 49d1 33b1 9fb8 9931
00000030: d04a 93b2 120a a330 c288 8332 c5e2 ad32
00000040: b371 4fb2 6516 98b1 9c9a 86b1 97ac 51b1
00000050: 7721 a5b1 49fb 23b2 9248 22b1 e2f1 81b2
00000060: ae0c b231 7180 5fb2 c537 4231 84a6 06b2
00000070: 2963 4832 3969 71b1 8611 bab1 d1bd 44b0
00000080: d02b 8e31 a378 1db1 52c4 0a31 225a 72b0
00000090: bca2 0bb1 5a57 aab1 c9b7 c830 4a4a 7a31
000000a0: 91fa 4031 3eea 6132 b471 2832 cd2a 7ab0
000000b0: a695 7a31 6253 1832 2e7b ccb1 d2dc 8bb2
000000c0: 8d04 eab1 a7f1 6932 bc41 9b32 9ba9 25b1
000000d0: eb9c a7b2 84c8 97ae ff96 15b1 3610 6eaf
000000e0: 29ba a731 c2a2 66af d498 2b32 f6d1 8232
000000f0: c4f9 fb31 9885 43b1 45a2 6832 8c77 87b2
00000100: 647b 9d3d 683c 38bd b6d9 46bd a693 a7bd
00000110: ee84 07bc 9f51 90bc 1676 2cbc 67e5 e3bd
00000120: beef 2d3c 565e c9bd f517 dabd d655 debc
00000130: 7ac1 563d 4f4e 0c3d 8465 973d 597f dbbc
00000140: a9d7 45bd 2722 0ebe 8d6a 2fbd 748f 79bd
00000150: 69c2 78bd 1a48 45bd d7cc afbc 6170 093d
00000160: aad1 dcbb 0da3 c33d fe51 71bd 89da 083d
00000170: 75d3 853d 0f80 f53c 75c9 fa3c 803d c8bc
00000180: ce09 07bb 0188 91bd 6e23 30bd 78d9 5d3d
00000190: fcbb 5f3d 58a7 543c 928b 173d 35a5 723d
000001a0: 3d24 a1bd df0f eebd b7a6 b43b 2c13 883d
000001b0: d867 d6bb c46d 24bd 2bd8 5b3d 336e 88bd
000001c0: 475a 883d 3653 e8bc 0876 3e3d 0b67 c63c
000001d0: 9a7c 32bb 5cf5 a5bd bb5f ccbd c3ad bcbb
000001e0: 9db6 aebc 335d 86bc a7ce 67bd 990a 42bc
000001f0: 508f 05bd 1539 ddbb 03b4 883d 7022 bbbc
00000200: 576f 29bd 425c 393d fcc3 033e d3aa 4ebe
00000210: 7394 1e3d 9f66 c63d 5cf1 9bbc e354 26be
00000220: 0a5b 5fbb 741e 20be 627e b53d e174 4abe
00000230: ae1d 4c3d 0212 813c 2a3a 3d3e 2702 043d
00000240: c153 893b f98e 8f3d 8342 04bb 9071 b0bb
00000250: 0495 15bd 8593 d9bd cf5e ebbd f2d9 bfbb
00000260: dda5 793b bfb5 5b3d 30de dabd a1df 3fbd
00000270: 51ac 3e3d 58d9 283e 78ac b43c 0969 0c3e
00000280: e191 b53d 9a14 643d da7d c6bd c13d f73d
00000290: 1f57 43bd a52b 9a3d 1429 ac3d 3b6f 8cbd
000002a0: e8b6 66bd 413b f1bc dc65 76be ab35 d5bd
000002b0: 9dbf 3a3d 853e c93d a9a5 8b3d 5558 893e
000002c0: e55d b53b 7633 12be 2d21 94bc 7106 84bd
000002d0: cce1 8f3d e7c9 cb3d b57b 0b3e 34c2 93bc
000002e0: 54ec 84bd b6ed 2b3d 6826 ccbd 83ae a7bd
000002f0: 40aa efbd a63d b53d 9c61 263e 2a01 a03b
00000300: c875 85bd 2a05 0a3d d9f9 9bbd 087d b0bd
00000310: 167e 83bd 806b 163e 03eb be3a d2e6 d83b
00000320: 3eff 143d 9547 0b3e 453b f83b 50e2 5bbc
00000330: 419b f1bd 3597 8d3c a40c 38bd 7ff5 203d
00000340: 4089 023e 3517 c33d bca8 e03c 9729 13bc
00000350: d9e2 013e ddf4 273d 4f47 f43d 1a58 bfbd
00000360: 0938 ea3c 82f2 673c 1473 2fbc 345b cdbc
00000370: 7577 41bd 86a8 9a3d 6711 8fbd 785f 823d
00000380: 4d42 97bb d6a9 e63c d78e 0dbc 37f1 913d
00000390: a8e3 16bd 040a 8ebd 360e bf3d cacf f63c
000003a0: 09d5 333d 9ac1 9f3c fc0e d03d 9fd6 8bbd
000003b0: 5ba9 003e a3d5 783e 64ae 033c 824e 473c
000003c0: 4c0a 043d c4f0 a7bd 0740 debd 3a6a b83c
000003d0: c989 393d 5f65 e93d cd58 1f3c 7365 68bd
000003e0: c8f9 b53d 5f92 453d 7c35 85bd 68e0 d33d
000003f0: affa 1fbd 21a7 153d 858a 85bd e658 ec39
-1.3276077e-08 7.4247812e-09 -6.984023e-09 2.0681015e-09 -1.0761e-08 1.1577043e-08 -1.9047797e-09 -1.7887594e-08
7.032137e-09 -5.508452e-09 -2.6166893e-09 4.473875e-09 -1.7147073e-08 1.1862673e-09 1.5312597e-08 2.0242974e-08
-1.2074838e-08 -4.426328e-09 -3.9174903e-09 -3.0511609e-09 -4.8059365e-09 -9.544984e-09 -2.3615354e-09 -1.5127572e-08
5.1819233e-09 -1.3009513e-08 2.8262417e-09 -7.837688e-09 1.1664079e-08 -3.5129928e-09 -5.4153046e-09 -7.157413e-10
4.137725e-09 -2.291508e-09 2.0193238e-09 -8.8167174e-10 -2.0319666e-09 -4.957582e-09 1.460415e-09 3.6422017e-09
2.8082108e-09 1.3149984e-08 9.80474e-09 -9.1010294e-10 3.6464853e-09 8.8665235e-09 -5.9511853e-09 -1.6282147e-08
-6.8108137e-09 1.361733e-08 1.8074267e-08 -2.410707e-09 -1.9512717e-08 -6.902304e-11 -2.1768185e-09 -2.1651733e-10
4.8815036e-09 -2.0976201e-10 9.988259e-09 1.5229471e-08 7.3334565e-09 -2.8452174e-09 1.3541073e-08 -1.5770432e-08
0.076895505 -0.044979483 -0.04854747 -0.081824586 -0.008271439 -0.017617045 -0.010526201 -0.111277394
0.010616241 -0.09832446 -0.10649101 -0.02714054 0.052430607 0.03425437 0.073924094 -0.026794123
-0.048301373 -0.13880216 -0.042826224 -0.060927823 -0.06073228 -0.048164465 -0.02145998 0.03355444
-0.006738861 0.09552584 -0.058916084 0.033411536 0.06534473 0.02996829 0.03061364 -0.024443388
-0.002060521 -0.07106019 -0.04300254 0.054162472 0.054622635 0.012979351 0.03699834 0.059239585
-0.0786824 -0.11624121 0.005513038 0.06644282 -0.006543141 -0.040143743 0.05367295 -0.06661644
0.06657844 -0.02835999 0.046499282 0.024219057 -0.0027234913 -0.08103439 -0.09979197 -0.0057580187
-0.021327311 -0.016401863 -0.056593563 -0.011843347 -0.032607377 -0.0067511895 0.066749595 -0.02284357
-0.041365948 0.045254 0.12867731 -0.20182352 0.03871579 0.09687542 -0.019035988 -0.16243319
-0.0034081363 -0.15636617 0.08861996 -0.19771148 0.049832992 0.015755657 0.18479219 0.032228615
0.0041908924 0.07009692 -0.0020181246 -0.0053846315 -0.036519065 -0.1062384 -0.11492693 -0.0058548385
0.0038093247 0.053640123 -0.1068691 -0.04684413 0.046551052 0.1648916 0.022054896 0.13711943
0.08865715 0.05568371 -0.09691973 0.120723255 -0.047690507 0.07527856 0.084062725 -0.06857153
-0.056326777 -0.0294472 -0.24062294 -0.10410627 0.045592893 0.09826378 0.068187065 0.26825204
0.0055348747 -0.14277443 -0.018082226 -0.06446541 0.07025489 0.09950619 0.13621409 -0.01803694
-0.064903885 0.041974746 -0.09968263 -0.08187582 -0.117023945 0.08849649 0.16248173 0.0048829513
-0.065166056 0.03369633 -0.07616014 -0.08617598 -0.06420533 0.14689445 0.0014565889 0.006619313
0.03637623 0.13601525 0.007575425 -0.013420656 -0.117971905 0.017284015 -0.04493393 0.039296623
0.12747669 0.09525911 0.027424209 -0.008982084 0.12684192 0.041005004 0.119276635 -0.09342976
0.028591173 0.014156939 -0.010708589 -0.025067903 -0.047233064 0.075516745 -0.06985741 0.063658655
-0.004616058 0.028157156 -0.008640013 0.07126086 -0.036838204 -0.06935504 0.093288824 0.030128378
0.043904338 0.019501496 0.10159108 -0.06828045 0.12564604 0.24300246 0.008037183 0.012164714
0.032236382 -0.08200219 -0.10852056 0.02251159 0.045297418 0.11396288 0.009725762 -0.056737375
0.088855326 0.048235293 -0.06504342 0.103455365 -0.03905743 0.03653634 -0.06520561 0.00045079662

conv1.lin_neg_r.weight f4 [32, 64]
00000000: 2d20 3ab3 f10e 7db2 77ba 4eb2 e926 3532
00000010: 12f1 52b0 bd27 ed31 b2cf 4f2f 7cf0 a6b1
00000020: f3b5 8faf 0dab 89b2 81ea 2b32 8429 8fb1
00000030: ee20 1b32 f43a ddb0 15d3 18b2 2749 b9b1
00000040: 3b8f d631 d348 25b2 4d8d 5132 9eb0 97b2
00000050: e885 b1b1 79e9 0b31 5ca1 de30 8354 9331
00000060: dd3b 9e31 5e04 22b2 f33d 8ead af01 3e32
00000070: 27c4 4bb2 2535 8cb2 a722 4232 1f50 e531
00000080: e47e 5131 466e 8d32 6ab6 a730 d264 4532
00000090: ee88 12b2 8230 5b32 af0c ca31 e38a 6f32
000000a0: d011 0b32 7f94 8132 0b3e 2732 f476 9532
000000b0: 1ed1 85b2 ece0 eab1 486b ff30 b097 9a32
000000c0: 0902 d231 b2a7 92b2 262e de31 8cb4 2032
000000d0: 013e f230 e4c4 3532 010a 3eb2 892a d1b1
000000e0: 9ca4 66b2 3fc3 d5b0 b615 88b1 ab31 0831
000000f0: 8cc4 2bb2 d17f e931 8ce6 cb30 8c10 82b1
00000100: d12e 24bd b71b 81bd 70b8 1abe 53bf e03c
00000110: f4db c03d 8836 e73b 54f8 00bd ae78 1f3d
00000120: da7a 913d a5e6 3d3d 84b3 e53d 459c a8bb
00000130: 97cf 0ebe 1594 23be 18cb 83be b1c1 da3d
00000140: 26bc 8f3e 3fb2 263e f3b1 563e f239 1b3e
00000150: 3d25 b2bd 62ec bdbc fa4f 91bd 6591 f2bd
00000160: 0be7 283d e658 08be 9589 1dbd e289 14be
00000170: f842 7c3d e743 e2bd 688f 653e 0b27 1ebe
00000180: 5302 283c 5cfc 573d 5242 9ebd 2582 34be
00000190: f534 4ebe 0c9d f33b 64cb 7bbd ade6 9cbd
000001a0: 1072 163d 672c 17be 3723 1e3e f8fb 39ba
000001b0: da84 d8bd 463f 68be 9300 04be 7145 ae3d
000001c0: 0b2b b3bd fcfd 3c3e 71e1 2f3d 6cba 55bd
000001d0: 09eb a83c 9bd4 40bc 6eea 59be 1d47 df3d
000001e0: a8c2 ea3c d4cd 593d 87c8 11bd b211 90bc
000001f0: c435 3f3d 3fba 42be be73 623d ec0f 043e
00000200: 3904 153e 6dd9 08be 2d26 3ebe d2a0 d3bd
00000210: 2c87 b4be 4fd7 f73d 87ba 71bd 6474 623e
00000220: b87d a8be 71bb 0bbe d5fa 7c3d a42b f3bc
00000230: 749b 9c3e 30da 183e 33ca 053f 3c07 4dbd
00000240: ce34 fcbd 2e7a dcbd ba15 adbc d006 2d3e
00000250: 635e 61be 9706 933c ce3c e43d 4724 0abe
00000260: c4aa 983d 65fd 9c3b 250d 84be 676e 35be
00000270: 5a54 483d 47ee 44be 1606 e63c c998 b23d
00000280: 4284 e9bd 9371 1ebd ef75 5ebd f02c bebd
00000290: 4bb8 0f3e df0b 6a3d 89cc f43c eefc 2a3d
000002a0: 79b6 04be 062a 21bd b669 a9bd 4ee6 f7bd
000002b0: 0652 bb3d d559 c0bd f2ac 31be 2e8a a63d
000002c0: e100 de3d 3cfa 2fbe a4c5 03be 0e0e 7cbc
000002d0: a635 c6bb d269 51be da7e a13d 346e abbd
000002e0: 1430 1cbd 6c6b 95bc 9d48 39ba b08c 0c3e
000002f0: f3f5 7fbd b54e 813d 126e 123e d371 66be
00000300: 6f4d 8dbf 6399 0f3f 85dd 1d3e ea45 adbe
00000310: 8728 7cbd 4e90 97bd 35e8 38be faf6 b03d
00000320: 42d1 77be f2f9 91be 0535 15bc 87fc 5a3e
00000330: 61f3 8f3e d00c 523e a716 dc3e 82bb 48be
00000340: e625 8ebe 43b0 24bd 2bf1 84be c3cf e23b
00000350: 5217 07be b3a1 553e 093d c2bd 849e b43e
00000360: 190b 91be daa0 ab3d 24f1 da3d 0be3 e63c
00000370: 9536 863d 5e61 25be 9b9e febd 6fdb 6c3e
00000380: 00e8 debd 28f4 1d3e f26d 203c e5f1 e9bd
00000390: c2fa d0bd 0046 72be ed24 513e 7aba 473d
000003a0: 7c93 6dbe 8253 f8bd 3113 023e 29c7 6c3e
000003b0: 8dac 353d 19d6 b9bc 589d 93be aa52 943d
000003c0: c43a dabd 684f 963d 191e 98bc 08c1 a3be
000003d0: 9bac 473e af99 eabc 1750 76be 21df 9b3e
000003e0: 2fda a23d 1c01 273e 29ea 33be 4c8a 393d
000003f0: 54ce b53d 16c8 183e 8d65 413c db12 953d
-4.3335763e-08 -1.47299355e-08 -1.2033175e-08 1.0544434e-08 -7.6740136e-10 6.9021255e-09 1.8900329e-10 -4.8585758e-09
-2.614083e-10 -1.6026684e-08 1.000683e-08 -4.1665675e-09 9.029675e-09 -1.6096622e-09 -8.895559e-09 -5.392525e-09
6.244503e-09 -9.620822e-09 1.2197529e-08 -1.765903e-08 -5.1666014e-09 2.0359876e-09 1.6198487e-09 4.287871e-09
4.605211e-09 -9.430634e-09 -1.6171042e-11 1.1059838e-08 -1.1860755e-08 -1.6322312e-08 1.1300165e-08 6.673886e-09
3.0485632e-09 1.6464707e-08 1.2202694e-09 1.1489833e-08 -8.529453e-09 1.2758507e-08 5.8804157e-09 1.394321e-08
8.094915e-09 1.5085105e-08 9.734786e-09 1.7399977e-08 -1.5578333e-08 -6.835867e-09 1.8584183e-09 1.7996939e-08
6.1120358e-09 -1.7072896e-08 6.466297e-09 9.354277e-09 1.762544e-09 1.0580354e-08 -1.106173e-08 -6.0875363e-09
-1.342519e-08 -1.5553282e-09 -3.960589e-09 1.9818838e-09 -9.9982e-09 6.7957235e-09 1.4835719e-09 -3.785379e-09
-0.04008371 -0.06304114 -0.1510942 0.02743498 0.09416953 0.007056061 -0.031486824 0.03893345
0.0710351 0.046362538 0.112158805 -0.005145582 -0.13946377 -0.15974458 -0.25740886 0.10681475
0.28073233 0.16278933 0.2096632 0.15158823 -0.08698509 -0.023184005 -0.070953324 -0.11844138
0.041235965 -0.13315162 -0.038461287 -0.14505723 0.061587304 -0.110481076 0.22417986 -0.15444581
0.01025446 0.052730903 -0.07727493 -0.17627771 -0.20137389 0.007434493 -0.061473265 -0.076611854
0.036729872 -0.14763032 0.15443121 -0.0007094736 -0.105722144 -0.22680387 -0.12890844 0.08509339
-0.08748444 0.18456262 0.042939607 -0.05217974 0.020619886 -0.011769439 -0.21280834 0.10902236
0.028657272 0.05317481 -0.03559163 -0.017586563 0.046682134 -0.1901636 0.05528616 0.12896699
0.14552392 -0.13364191 -0.1856925 -0.103334084 -0.35259378 0.12101614 -0.059015777 0.22114712
-0.32908416 -0.13645722 0.06176265 -0.029683895 0.3058735 0.14926982 0.52261657 -0.050055727
-0.12314759 -0.107654914 -0.021128524 0.1689713 -0.22008662 0.017947478 0.1114441 -0.13490401
0.07454446 0.004790949 -0.25791278 -0.17717896 0.04890857 -0.1923152 0.028079074 0.08720548
-0.11402179 -0.03868253 -0.05431169 -0.09285915 0.14035146 0.057140227 0.029882686 0.04174512
-0.12960233 -0.039346717 -0.08272116 -0.12104474 0.09146504 -0.09392134 -0.1735113 0.081318244
0.108400114 -0.171853 -0.12868363 -0.01538421 -0.006048876 -0.20450523 0.07885523 -0.08370629
-0.03813179 -0.0182397 -0.000706801 0.13725543 -0.062490415 0.0631384 0.14299801 -0.22504358
-1.1039256 0.56093425 0.15416534 -0.33842403 -0.061562087 -0.07400571 -0.1805733 0.08640857
-0.2420092 -0.28511006 -0.009106879 0.21385394 0.2811537 0.205127 0.42986032 -0.19602779
-0.2776329 -0.04020716 -0.25965247 0.00692174 -0.1319249 0.20862465 -0.09484298 0.35277188
-0.2832878 0.083802894 0.10690525 0.028184434 0.065533794 -0.16150424 -0.12432595 0.23130582
-0.10884094 0.1542517 0.009791838 -0.11423091 -0.10204078 -0.23659515 0.20424242 0.048761822
-0.23200792 -0.12125303 0.12702633 0.23122849 0.04435401 -0.022685098 -0.2883098 0.072423294
-0.1065574 0.07339364 -0.01856904 -0.3198321 0.19499438 -0.028637735 -0.2405399 0.3044367
0.079517715 0.16309017 -0.17569794 0.045297906 0.088772446 0.14920077 0.011803997 0.07278987

conv1.lin_neg_r.bias f4 [32]
00000000: 46b3 92bc 62b7 393d ea05 803c bcbc a43c
00000010: a64f 81bd 1d60 8dbd bfcb 0bbd e395 56bd
00000020: aa8b a9bc fd6b d43a e4d6 2bbc 33aa b93c
00000030: 7279 dcba 5a75 25b7 3311 c13c 28ec 5fb6
00000040: a247 58b8 38e5 7bbc 0a2b 30bd 83e9 e33c
00000050: 2617 1eba eb86 bdba 033d 873a 43cf de3c
00000060: 27de 5bb7 67b8 14bb 5a1e 9d3c 2fa9 2f3c
00000070: e161 7ebc c581 3bbb 9866 9d3c 2a06 f53d
-0.01790775 0.045340903 0.01562782 0.020109527 -0.0631402 -0.06903098 -0.034129854 -0.052389037
-0.02069648 0.00162065 -0.010488246 0.022664165 -0.0016820861 -9.862089e-06 0.023567772 -3.336705e-06
-5.1565126e-05 -0.015374474 -0.043009795 0.027821308 -0.0006030671 -0.0014459764 0.0010317866 0.02719844
-1.3105141e-05 -0.002269292 0.019179512 0.010721489 -0.015526266 -0.0028611284 0.01921396 0.11964066

convs.0.lin_pos_l.weight f4 [32, 64]
00000000: be1e 153d 1852 253c 4c6e 5932 a0e7 d3bb
00000010: f258 7abd f635 83bd 00fc 143d 824f ba37
00000020: 2a01 803d d38c ca3c fe97 073d d07f 4b30
00000030: 0f8a 503a ee00 40bb 8e89 9bbd 8e65 cf3c
00000040: 055a 0cbb ee34 2932 6fad a63d e5f7 08be
00000050: 673e 60bb 38b0 23bc 2bfd dcb1 b58b a83d
00000060: 95c0 9531 e122 35bd 2bbe ccbb 76ed 60bc
00000070: 2189 22b2 ae15 c5b2 86b2 313c 349c 5035
00000080: ff02 52b0 2065 0abc b762 283d 7c39 17bc
00000090: 14d8 45bc 4768 60b7 be40 6239 c400 b4b2
000000a0: ba76 6538 bda8 cfbc 3b04 bc38 44d5 7b3d
000000b0: 8058 d13a 8bb9 7b33 6a14 3abd afe5 bfb1
000000c0: 8357 a4b5 0528 c232 5a15 41b3 c1c1 523d
000000d0: b4ba 5731 0d43 4d35 116e db3d 4a36 b0bb
000000e0: 7ac8 a437 0396 bcb5 cb5d 83bc 51cc cbbc
000000f0: 0a42 ab3c 837d 2a31 1980 1abd e5a6 4cbd
00000100: 1973 5cbd 9d88 ddbc d035 c031 62d4 98bd
00000110: 566e 26be 0c0f 65bc 50ec 5bbb cdfd 17b5
00000120: 7e70 3cbc 0dcf 0cbc 6f88 edbd 8ba6 0c32
00000130: 68e0 cbb3 4029 e7b8 08d0 06bd a262 0abd
00000140: 4dec eb39 10a7 5531 a9a8 aabd 4dad 633d
00000150: 98a6 cabb 1287 213b fe1b f431 cb26 18be
00000160: d633 2e32 4f8a eebd a9a9 cebd 9c6a 293b
00000170: 1cf6 b0b1 9bf1 57b2 e941 63bd 4c4b 94b3
00000180: 8b48 9a32 15fb ca3b bbd6 a0bd 5a0f db3d
00000190: ece6 acba 4fbc b9b6 5431 7c3a 77e8 1d33
000001a0: 8424 9b37 2637 413d fd58 b836 9de8 b13d
000001b0: 6208 2fba d464 81b5 ce54 b4bc 208a db32
000001c0: 5f7e 8b35 63d3 deb1 aed1 35b2 0b4e 9a3d
000001d0: 5819 b030 392f 0337 4f31 2c3d 1381 ac3d
000001e0: cfab 2637 a7fe 0bb6 071f 9d3d 4909 63bb
000001f0: a877 87bb c733 21b0 7b27 9bbd 8408 8abe
00000200: deb3 aeb0 f3cd 6332 a199 4a32 4eda 00b2
00000210: 04db fbb1 2a90 0db2 82ef fcb1 346e 0e31
00000220: e64f ad31 9fc5 7fb2 5aaf 4ab2 3e5e cb31
00000230: a276 8eb1 b4fa 9532 9fbf 8c32 e4fe 5eb2
00000240: 3e95 0db1 e67e bcb1 4e97 1532 3a25 d7b1
00000250: 105c 1732 0fab 84af 4f9c 0832 d0d8 6ab2
00000260: 3ab0 6cb2 7ae4 5731 f135 d031 8404 4231
00000270: 09db 6b32 685a 6f31 f054 1fb2 9ee7 4032
00000280: 6f27 1cb1 aae1 1432 6563 94b2 c93f 0e32
00000290: 5d2d 4e32 555f 3fb0 cc47 4032 b924 72b1
000002a0: faa9 52b2 f714 0e30 8027 61b0 806b a5b0
000002b0: 7ae7 1632 7c45 b2b0 4492 28b1 a79b ad2f
000002c0: 956d a131 1c2c f5b0 29b7 1732 789e 0e32
000002d0: fdbf f331 178a d1b1 69fa 6632 7aae 76b2
000002e0: acf0 55b1 9e3b 0ab1 00bf 6aae 836a afb1
000002f0: 9aa8 8b31 7f57 0230 3d58 52b1 fe13 cf31
00000300: f766 ae35 4cad b835 a32d 3db0 021c f036
00000310: 7339 5237 7d61 0db7 f57b 08b5 af65 0e32
00000320: 54b7 5eb5 0a48 0d35 ab13 1bb7 84cf 02b2
00000330: f1de 2732 f954 47b2 6e43 48b6 f989 d535
00000340: 21a1 9732 e034 2ab1 1b78 0735 4811 16b7
00000350: 0275 9532 6c78 c231 ecb2 15b2 aa97 89b7
00000360: cdaa 93b0 32a1 4c37 e2bb 72b5 9416 4632
00000370: c833 a1b1 870f 3031 0ca1 6cb5 25cf 98b0
00000380: 22a8 95b2 fb30 b236 a31b d136 4cb6 67b6
00000390: 1abf eb30 829d 2e32 ca7d f5b1 d6ac 1131
000003a0: 3d22 8230 06b5 ba35 ee22 a631 9f48 ff36
000003b0: c958 79b0 3393 5eb2 b587 e835 05ff c331
000003c0: 6dce 8c31 3941 dbb1 ca11 28b2 ad66 ceb5
000003d0: 6cde 6d30 f75d 8f2f 8f30 7936 b7b2 75b6
000003e0: 0d3d 81b3 d133 6f31 007f 9536 ebd3 7736
000003f0: 5d9e 8f31 2579 6032 e2fb 8936 0eb1 7937
0.03640627 0.010090373 1.2656141e-08 -0.006466821 -0.06111998 -0.064067766 0.03637314 2.2209952e-05
0.06250222 0.024725353 0.033103935 7.40326e-10 0.00079551426 -0.002929743 -0.07594596 0.02531698
-0.002141596 9.8491295e-09 0.081385486 -0.13375814 -0.0034216882 -0.009990744 -6.4316246e-09 0.08229772
4.358365e-09 -0.044222716 -0.0062482557 -0.01372849 -9.460821e-09 -2.2943677e-08 0.010845786 7.7713344e-07
-7.640181e-10 -0.008446962 0.041109767 -0.009230014 -0.012075443 -1.3375719e-05 0.00021577158 -2.0955106e-08
5.4708427e-05 -0.025349015 8.9653266e-05 0.061482683 0.001597181 5.8609242e-08 -0.045429625 -5.5849436e-09
-1.2244421e-06 2.2602771e-08 -4.4955733e-08 0.05145431 3.1392746e-09 7.6466023e-07 0.10714353 -0.0053775655
1.9643678e-05 -1.4050751e-06 -0.016035935 -0.0248777 0.020905513 2.48096e-09 -0.03771982 -0.04996385
-0.053820703 -0.027042681 5.594053e-09 -0.07462384 -0.16253027 -0.013980638 -0.0033557601 -5.662121e-07
-0.01150143 -0.008594287 -0.11598288 8.18694e-09 -9.4937434e-08 -0.00011022622 -0.032913238 -0.03378547
0.0004499875 3.1090543e-09 -0.083329506 0.055585194 -0.0061844103 0.0024647159 7.104517e-09 -0.14858548
1.0139919e-08 -0.11647474 -0.10090954 0.0025850898 -5.1502536e-09 -1.2569582e-08 -0.05548278 -6.9054835e-08
1.7960948e-08 0.006194482 -0.078534566 0.106962875 -0.0013191379 -5.5353516e-06 0.00096203876 3.6765837e-08
1.8494444e-05 0.047171734 5.493987e-06 0.086869456 -0.00066769694 -9.640594e-07 -0.022013094 2.5557767e-08
1.0393086e-06 -6.4850822e-09 -1.0583262e-08 0.07534417 1.2812889e-09 7.819203e-06 0.04203921 0.084230565
9.934373e-06 -2.0860841e-06 0.076719336 -0.0034642986 -0.004134137 -5.864504e-10 -0.0757589 -0.26959622
-1.2711288e-09 1.32599665e-08 1.1792879e-08 -7.500217e-09 -7.3299606e-09 -8.240059e-09 -7.361394e-09 2.0726363e-09
5.044046e-09 -1.4887887e-08 -1.1797818e-08 5.9187917e-09 -4.146231e-09 1.745989e-08 1.6385284e-08 -1.2980056e-08
-2.0603035e-09 -5.485947e-09 8.707344e-09 -6.2615557e-09 8.810289e-09 -2.4132205e-10 7.951782e-09 -1.366989e-08
-1.3777077e-08 3.1416492e-09 6.059729e-09 2.8233282e-09 1.3728603e-08 3.4830467e-09 -9.274331e-09 1.12285345e-08
-2.2723403e-09 8.666044e-09 -1.7274667e-08 8.279991e-09 1.2001093e-08 -6.962087e-10 1.1192196e-08 -3.523651e-09
-1.2262257e-08 5.168909e-10 -8.1910656e-10 -1.2035883e-09 8.783781e-09 -1.2970953e-09 -2.453036e-09 3.1579114e-10
4.6981747e-09 -1.7838633e-09 8.831003e-09 8.3015195e-09 7.0940573e-09 -6.0983996e-09 1.3444699e-08 -1.4358756e-08
-3.1132386e-09 -2.0115531e-09 -5.3375082e-11 -5.1052793e-09 4.0646e-09 4.7418064e-10 -3.060918e-09 6.0267658e-09
1.2993977e-06 1.3759504e-06 -6.8822653e-10 7.155818e-06 1.2530351e-05 -8.426953e-06 -5.084433e-07 8.288608e-09
-8.296822e-07 5.2631424e-07 -9.243299e-06 -7.6141795e-09 9.77137e-09 -1.1602645e-08 -2.9841572e-06 1.5909892e-06
1.7651987e-08 -2.4768312e-09 5.0466195e-07 -8.94472e-06 1.7399092e-08 5.6598335e-09 -8.713624e-09 -1.6402297e-05
-1.0744202e-09 1.2196879e-05 -9.042543e-07 1.15302505e-08 -4.6916036e-09 2.5620197e-09 -8.8151205e-07 -1.111833e-09
-1.7422341e-08 5.3105155e-06 6.2319027e-06 -3.4527793e-06 1.7152815e-09 1.0163946e-08 -7.144739e-09 2.1198523e-09
9.468476e-10 1.3910765e-06 4.835207e-09 7.6080464e-06 -9.0711844e-10 -1.295557e-08 1.7324843e-06 5.7042393e-09
4.098004e-09 -6.381154e-09 -9.782932e-09 -1.5378079e-06 8.653618e-10 2.6078315e-10 3.7132156e-06 -3.661187e-06
-6.018136e-08 3.4808532e-09 4.455331e-06 3.692922e-06 4.1798516e-09 1.3066061e-08 4.112241e-06 1.488278e-05

convs.0.lin_pos_r.weight f4 [32, 32]
00000000: ec39 34bf badc 61bf 860f 5fb1 8d31 113e
00000010: f177 4c3c 58e9 cf3d b94b 19bf 72d3 f437
00000020: a512 6cbd a47f 54bf 75dc 3e3e df0c 0d32
00000030: 888d 42b2 2c2b 4eb3 8b30 04be f877 81bf
00000040: 07d8 2032 f15f 34b2 941c 52bd 68eb 313e
00000050: fa1b 0731 c226 3ab1 2781 5832 b598 913e
00000060: c4c7 7ab2 9361 323e 4348 993e 6977 2ab2
00000070: 7e03 7132 6a4b 70b2 c1a4 77bf 4896 b834
00000080: 34f6 ffbe 625f e2be a99e 65b2 d575 e73e
00000090: dae4 843e 9402 e03e 7135 cbbe 5888 3137
000000a0: 8028 f6be 7b72 fdbe f266 91be accf bc30
000000b0: 60e9 76b2 c9a6 e7b1 75bf 8abd 4ef2 8dbe
000000c0: 7209 82b0 e2af 92b2 cd25 27bf faff e43e
000000d0: 2a16 72b2 c2e8 29b3 5261 b3b2 367e 99be
000000e0: b286 8532 42f6 8cbc 2cb1 183d 5c13 0eb3
000000f0: 10e5 9d32 dcb1 2bb2 b69a ecbe 4ba7 de34
00000100: 8e69 efb2 d6bf 8db2 db02 ed32 3117 0bb3
00000110: 6956 de31 0394 ce31 9ed7 3830 63c9 b0b1
00000120: 42d2 c031 0ce8 c8b2 2698 feb2 e8b3 ec32
00000130: bd22 9fb0 44e3 f3b1 2d94 5332 afb8 83b2
00000140: 0a89 4732 f341 5a31 040b 2932 3b33 99b2
00000150: aff5 4232 4400 8cb2 4696 8132 96b4 d931
00000160: f8f9 86b1 2088 93b2 e061 dcb2 5e9b deb2
00000170: c509 dab0 d8ad 61b2 7a58 9832 de9b 0a31
00000180: 81e5 c937 1410 2938 fe33 ae30 b66a 88b8
00000190: 6dfc c7ba b602 3bb8 96cd f6b7 e1b4 09b1
000001a0: caa2 ab37 bad4 1838 10af 8338 2d8f 8f32
000001b0: 51f2 37b2 0d8d 4732 fd2e 08b8 d4f1 2038
000001c0: 638b b8b2 d8fa 8ab2 7c2a 22b8 94c2 8732
000001d0: be75 9532 2113 8bb1 2549 7430 aa91 2f38
000001e0: 71e7 b330 87ed b3b8 b5e9 c136 6ab8 0bb1
000001f0: db18 cfb2 7937 e5b1 ca31 ef37 5c35 f031
00000200: 679e 4db7 8897 33b8 2df6 1832 f9fa 8d3a
00000210: 04eb 37b8 199f 9138 89f2 cdb7 9315 0531
00000220: 1efc 09b9 7570 3eb9 f7ab 55b8 c75d 64b2
00000230: 69fc 6a30 3b94 bb31 f04e 6239 d42d 6bb8
00000240: 674a 3e30 328d 8730 f24a 2ab8 35dd 3c3a
00000250: f958 48b2 af55 5f31 f404 6831 95ba 02ba
00000260: eeaf 81b2 a81d 263a 7b70 52ba b7ca c431
00000270: a057 e432 3e1b 03b2 c615 42b9 c74d beb0
00000280: f74f 5c3f 3028 303f a75f 66b2 2103 eb3d
00000290: 5628 133b c662 0bbe ea3b 243f 4703 fab7
000002a0: faa9 823e a47d 0a3f 0a48 9abe 8a5a bb32
000002b0: 034d 2332 626d 5eb1 d49f b2be e9e0 0a3f
000002c0: b25b 9331 093d 3bb3 b1f3 4fbc f0f3 90bd
000002d0: 5f60 3f34 f0c2 0c33 3083 e932 5bc2 38be
000002e0: ba0d 5c30 3036 8bbe 5617 55be 30d3 f4b0
000002f0: 4686 6f32 5c17 c031 1943 303f 4933 3b35
00000300: beb8 5c3a 39a4 b138 06e2 922f df24 653b
00000310: 95fa 4e3c f23e 8e3a 2cf4 6d3a 10dc e033
00000320: 6acc 603a 1f6d 3c3a 28ef 76bb 0886 39b1
00000330: 0b74 8a2f 4715 8731 c923 203b 2f82 75ba
00000340: 59e1 2532 132f c8b1 1014 ceba 2b37 e9ba
00000350: d266 362f 20be 4b32 a6c1 dc30 a607 043c
00000360: 7a7a 7632 3fe0 8f3b 0245 8bba 5e5e 3132
00000370: 0666 8b32 f4e7 afb2 29fc b2ba d7e8 3b32
00000380: faea 4fb6 8dac d8b5 952a 9ab1 e0b7 0537
00000390: 5755 fab7 03d8 6036 0b83 ffb5 6892 9f32
000003a0: ccc5 f335 e62a 89b6 b2fc a8b6 682f bfb2
000003b0: 2a3a 0e32 55f9 3530 af01 8736 c022 1436
000003c0: 2574 86b1 1b73 1532 be6d 4f36 facc 8db5
000003d0: 73e8 8a31 11ee 8a32 966a 2c32 f5cf afb6
000003e0: f3a4 8830 39c7 4337 921c 8db6 297c 3db2
000003f0: 2353 9531 9c84 ef31 8382 bd36 73d2 6531
-0.7040088 -0.88227427 -3.2459595e-09 0.14179058 0.012479768 0.10151929 -0.5988117 2.9185529e-05
-0.05763497 -0.83007264 0.18638785 8.210207e-09 -1.1324467e-08 -4.8002377e-08 -0.12909143 -1.0114737
9.362345e-09 -1.04991935e-08 -0.051296785 0.17374957 1.9660988e-09 -2.7088594e-09 1.2602221e-08 0.2843682
-1.4597337e-08 0.17420034 0.29937944 -9.922453e-09 1.402884e-08 -1.3986986e-08 -0.9673577 3.4382015e-07
-0.49992526 -0.44213396 -1.33656295e-08 0.45207086 0.2595585 0.43751967 -0.3968921 1.0581767e-05
-0.48077774 -0.49501404 -0.28398854 1.3737824e-09 -1.4372148e-08 -6.741946e-09 -0.06774799 -0.27723926
-9.461429e-10 -1.707662e-08 -0.65292054 0.44726545 -1.40912935e-08 -3.956007e-08 -2.0882599e-08 -0.29979104
1.554449e-08 -0.017207269 0.03727834 -3.307956e-08 1.8381371e-08 -9.993951e-09 -0.46211785 4.1472444e-07
-2.7871263e-08 -1.6501797e-08 2.759173e-08 -3.2384552e-08 6.470874e-09 6.012216e-09 6.724522e-10 -5.145169e-09
5.611839e-09 -2.3388587e-08 -2.963868e-08 2.7555828e-08 -1.1578646e-09 -7.098068e-09 1.2315508e-08 -1.5334392e-08
1.1614484e-08 3.1760663e-09 9.839599e-09 -1.7834841e-08 1.1348148e-08 -1.6298266e-08 1.5085913e-08 6.3360615e-09
-3.9283314e-09 -1.7174955e-08 -2.565588e-08 -2.5914854e-08 -1.5864364e-09 -1.3136251e-08 1.7735363e-08 2.0170243e-09
2.4067938e-05 4.0307714e-05 1.2674943e-09 -6.504862e-05 -0.0015257724 -4.45868e-05 -2.9421219e-05 -2.0038942e-09
2.0460593e-05 3.643774e-05 6.279175e-05 1.67125e-08 -1.0707098e-08 1.1615396e-08 -3.2468688e-05 3.8372193e-05
-2.1483805e-08 -1.6179385e-08 -3.8663376e-05 1.5804552e-08 1.7399426e-08 -4.047607e-09 8.887063e-10 4.185891e-05
1.3089744e-09 -8.579628e-05 5.7790553e-06 -2.033199e-09 -2.4109275e-08 -6.6710837e-09 2.8514205e-05 6.9909856e-09
-1.2255833e-05 -4.281805e-05 8.903538e-09 0.0010832242 -4.3849475e-05 6.943773e-05 -2.4550844e-05 1.936631e-09
-0.00013159259 -0.00018161706 -5.0943312e-05 -1.3292669e-08 8.54874e-10 5.459268e-09 0.00021582446 -5.6071047e-05
6.922733e-10 9.862673e-10 -4.0600957e-05 0.0007204593 -1.1661762e-08 3.2499476e-09 3.3763259e-09 -0.00049869093
-1.509758e-08 0.00063368166 -0.0008027625 5.727397e-09 2.658254e-08 -7.631398e-09 -0.00018509393 -1.3846425e-09
0.86059517 0.6881132 -1.3409511e-08 0.11475206 0.0022454462 -0.13611898 0.6415392 -2.9803849e-05
0.25520307 0.5409796 -0.30133086 2.1810838e-08 9.505359e-09 -3.2367429e-09 -0.34887564 0.54249436
4.2886876e-09 -4.359484e-08 -0.012692378 -0.070777774 1.7823321e-07 3.2773585e-08 2.7184427e-08 -0.1804289
8.005504e-10 -0.2718978 -0.20809683 -1.781336e-09 1.3942161e-08 5.590591e-09 0.6885238 6.973756e-07
0.0008419863 8.4706066e-05 2.6717845e-10 0.0034964604 0.012632986 0.0010852499 0.0009077217 1.0470842e-07
0.0008575382 0.0007187891 -0.003767917 -2.6997231e-09 2.5184507e-10 3.931436e-09 0.0024435392 -0.0009365407
9.655502e-09 -5.826118e-09 -0.0015722532 -0.0017792931 1.6589333e-10 1.1859385e-08 1.6062145e-09 0.008058464
1.43469325e-08 0.004390746 -0.0010625424 1.0324213e-08 1.6228125e-08 -2.0478161e-08 -0.0013655472 1.0937774e-08
-3.0982178e-06 -1.6143473e-06 -4.486831e-09 7.9702295e-06 -2.9842062e-05 3.3504336e-06 -1.9037119e-06 1.8576614e-08
1.8162477e-06 -4.087912e-06 -5.0362078e-06 -2.2256884e-08 8.278713e-09 6.620174e-10 4.0235095e-06 2.2073946e-06
-3.9131174e-09 8.699113e-09 3.0909282e-06 -1.0564975e-06 4.042755e-09 1.6173574e-08 1.00359525e-08 -5.239616e-06
9.942184e-10 1.1669291e-05 -4.2054535e-06 -1.1029479e-08 4.3459223e-09 6.9708914e-09 5.6478325e-06 3.3443512e-09

convs.0.lin_pos_r.bias f4 [32]
00000000: 31d3 f83c 7a9b fa3d 3ca3 feb8 c56c a1bd
00000010: 2428 babb 890f 093e c947 28bd 01cb ccb7
00000020: 1870 95bc 46c2 0db4 0924 82bc 5091 05bc
00000030: 8647 783d e8b7 0abd 2035 5abd ecc1 42bd
00000040: 7f68 8e34 dc3d dab8 5487 08bd d36d b8bc
00000050: da0a 77bd b40e a13d 3a5f a9bc 83c3 75bb
00000060: 7fe0 3cbb 8547 4a3d 22b9 77b9 523c 9bb3
00000070: 3be2 05bc f6d6 3ebd f0fa 8ebc 61e6 843b
0.030374141 0.12236686 -0.000121420686 -0.07882074 -0.0056810547 0.13384832 -0.041084085 -2.4413226e-05
-0.018241927 -1.3202325e-07 -0.015886324 -0.008152321 0.060615085 -0.033866793 -0.05327332 -0.04754822
2.6525592e-07 -0.00010406572 -0.033332184 -0.022513306 -0.060313083 0.078641325 -0.02067529 -0.0037500567
-0.0028820334 0.049384613 -0.00023624723 -7.228722e-08 -0.008171613 -0.04659172 -0.01745364 0.0040557836

convs.0.lin_neg_l.weight f4 [32, 64]
00000000: 90b6 e630 79ad 2032 2e88 63b2 d521 27b1
00000010: 839e 9131 8673 4d30 7827 19b2 86a1 37b2
00000020: 67a6 032f 6fed 5b31 18d3 cdb0 181f 0eb2
00000030: d191 4fb1 c068 afae 340e f1b1 681a 3131
00000040: f0ae 0bb1 2d42 fb31 6c08 58b1 6e1d 3eb2
00000050: b272 7232 3ced adb1 e36d 1eb1 9708 5632
00000060: 8393 86b2 8775 c131 494b 3032 9392 39b2
00000070: 84bf c3b0 e739 9cb1 e7c6 00b2 f648 82b0
00000080: 6b61 8b31 0b79 1fb2 fcee 0cb0 f920 8832
00000090: 0b8c 94af 79e9 32b0 fb50 6431 0e66 42b1
000000a0: 8b10 a430 c580 1332 8aa2 66b2 47e1 ab31
000000b0: 10e6 73b1 96e1 00b1 2cb2 cc31 2dd0 c4b1
000000c0: 55a4 50b2 0774 e830 35a2 5cb1 efdc 8531
000000d0: e434 0331 9f91 eeb1 65d9 3e32 8e89 6db2
000000e0: 13bb 8132 50d7 90af 60e9 31b2 d9de f3b1
000000f0: e328 2532 7667 e1b1 bca5 90b1 4ee9 09b2
00000100: 6cb4 07b2 f4b3 0d37 912f 3634 6685 b035
00000110: 745a 34b1 eabf e8b1 4fdb 6231 ac38 c531
00000120: cbe7 0532 8a4a 3636 64a0 5131 24ae abb5
00000130: cd9a 19b2 1360 84b2 ff9f 5035 7894 d7b0
00000140: 9ce9 96b2 b7fa 4cae 5750 bbb0 107a b6b5
00000150: 698f e5b1 6bb7 3232 e611 7535 aa81 1636
00000160: 5e3b 4e30 781d 9031 897a b9b5 4e37 8ab5
00000170: 0749 1032 0f39 1732 2507 c435 ae0a 2db7
00000180: 4f47 96b5 033a 8935 6c5e 6eb2 9977 ad34
00000190: 6d87 c736 0bbd be35 46aa 8ab5 00fe 8932
000001a0: a3cd 89b5 e9d7 70b5 1288 d3b4 a98c 09b2
000001b0: 3c66 95b1 fec9 92b1 1e6d 05b6 8024 1334
000001c0: a0bf c330 1b14 35b2 0fb0 5236 31b6 9135
000001d0: 0b0e 71b2 4400 1231 3068 5631 8234 1b32
000001e0: ff8e 18b1 e79a 18b6 06c8 0cb4 e2ee 20b0
000001f0: 0e24 bab1 ec45 a52e d90e 8534 5d3b d231
00000200: 0060 ac32 ffe8 3abd 4d6d 2cbc 7c83 6ebd
00000210: 8333 6c3a 2c2e 90b7 ab7d b8bc f8ff d5b3
00000220: 1638 9338 6250 b5bb eca9 1138 8eb8 1abd
00000230: 0130 4039 9e03 4a34 a90d 053d d088 63b2
00000240: 21a3 4134 718f 3332 bb3e 8037 f16c 7ebd
00000250: 9957 45b2 3396 f336 39e1 513d d800 673d
00000260: de8c 8fb6 3d8b 2137 8405 f1bc d572 293d
00000270: 8172 003c f0ea bcb1 db70 5d3c 612b 07be
00000280: 6e99 f3bd 6e79 9b3c 386c ce31 e95a 963c
00000290: 9afd 863e 4a95 dbbc e8eb 52bd e178 83b5
000002a0: 3fdd 1f39 6d33 3d3d fb1f 993d 6fca 3cb9
000002b0: 6cef 11bc f618 bc3c e0df 383e 0b4e 81bd
000002c0: 1e76 a0bc c405 33b2 0afa 963d 19fe 3ebe
000002d0: 6d7e 58bc a471 b6bc 9a35 bc32 05e9 4b3e
000002e0: c439 b8b2 ed10 663e 5c32 f53d ee15 a6bc
000002f0: de0c 4a34 a73f edb1 77ed 61bd c871 e332
00000300: 5805 31b1 3ba3 b23d 5e02 b63c 4c20 113e
00000310: d2b0 cc3a 82a3 7337 2c0f 183b 46d9 afaf
00000320: 89e5 b0b8 a4e9 8bbd bfe7 a338 82c4 993d
00000330: 8544 153b 973f f0b2 13b3 043e b1cb 1eb2
00000340: 0b4b 2f36 dfd9 65b0 55c2 1233 cd54 453d
00000350: 04b1 3631 a841 bbb7 cf3d 2d3d 97fb b93d
00000360: 7bd7 6bb7 9dd2 07b6 c776 3c3c 0c87 223d
00000370: ab0d 4f3c f160 8d30 ddea b73d 6565 d13d
00000380: 396a eebc a616 26bd ef62 942e cb98 96bd
00000390: 94b4 293d ca66 35bd e564 debc 2e69 5c37
000003a0: 0738 7f3d fd2a 63bd 3e48 143d e286 5033
000003b0: 6b3c 5aba 2b89 9bbb 6d27 0d3e 6dc8 a83b
000003c0: 82bc 4bba c781 9bb2 8b47 353d 8113 9bbd
000003d0: 6078 813c 978a 2abc aa56 7432 a80b c43d
000003e0: b9df 2fb2 d942 a13d 601c bd3c 976e 15bd
000003f0: 480c b332 6b47 9d31 b7b1 903b 7fea 1633
1.678659e-09 9.352669e-09 -1.3244103e-08 -2.432093e-09 4.238076e-09 7.4742734e-10 -8.914746e-09 -1.0688728e-08
1.1973499e-10 3.200366e-09 -1.497571e-09 -8.272558e-09 -3.0205352e-09 -7.976686e-11 -7.015638e-09 2.57719e-09
-2.0326603e-09 7.3125848e-09 -3.1436924e-09 -1.1066147e-08 1.4112333e-08 -5.061933e-09 -2.305449e-09 1.24583925e-08
-1.5666734e-08 5.6304006e-09 1.0261666e-08 -1.0801744e-08 -1.4242549e-09 -4.5467803e-09 -7.495806e-09 -9.479482e-10
4.0565076e-09 -9.28254e-09 -5.127132e-10 1.5847478e-08 -2.702055e-10 -6.508781e-10 3.3224399e-09 -2.8288727e-09
1.1937272e-09 8.585805e-09 -1.3424719e-08 5.002366e-09 -3.549193e-09 -1.8754682e-09 5.957437e-09 -5.7280176e-09
-1.2144558e-08 1.6913199e-09 -3.2106418e-09 3.8959267e-09 1.9093074e-09 -6.943267e-09 1.1108885e-08 -1.3826492e-08
1.5102648e-08 -2.6346436e-10 -1.0355819e-08 -7.0975656e-09 9.613561e-09 -6.560124e-09 -4.2097934e-09 -8.027497e-09
-7.899057e-09 8.4461535e-06 1.6967375e-07 1.3151846e-06 -2.6244864e-09 -6.7739068e-09 3.301199e-09 5.7398974e-09
7.7943225e-09 2.71635e-06 3.0504674e-09 -1.2791174e-06 -8.94097e-09 -1.5410512e-08 7.7718863e-07 -1.5685506e-09
-1.7568532e-08 -4.660691e-11 -1.3628875e-09 -1.3595582e-06 -6.681081e-09 1.0402668e-08 9.129566e-07 2.2427216e-06
7.502673e-10 4.194302e-09 -1.3819237e-06 -1.0297897e-06 8.398508e-09 8.80233e-09 1.4605217e-06 -1.031409e-05
-1.1196624e-06 1.0224179e-06 -1.3874892e-08 3.231078e-07 5.946428e-06 1.4211122e-06 -1.0331357e-06 1.6064405e-08
-1.0267144e-06 -8.972116e-07 -3.9400817e-07 -8.006432e-09 -4.3480934e-09 -4.272123e-09 -1.988206e-06 1.370372e-07
1.424258e-09 -1.0540158e-08 3.1394918e-06 1.0856367e-06 -1.4031239e-08 2.1245947e-09 3.1200322e-09 9.034126e-09
-2.2200195e-09 -2.273993e-06 -1.3111284e-07 -5.8547134e-10 -5.4174114e-09 7.515752e-11 2.4783984e-07 6.118553e-09
2.0067091e-08 -0.04563236 -0.010524106 -0.058230862 0.00090103614 -1.7187638e-05 -0.02252086 -9.965146e-08
7.019953e-05 -0.005533264 3.4728946e-05 -0.03777366 0.0001832843 1.8814032e-07 0.03248373 -1.3244247e-08
1.8033872e-07 1.0451786e-08 1.5288e-05 -0.062115613 -1.1486827e-08 7.25945e-06 0.05124018 0.05639729
-4.278131e-06 9.628767e-06 -0.029421575 0.041369278 0.0078398 -5.4982294e-09 0.013515676 -0.13200141
-0.11894499 0.0189788 6.007692e-09 0.018353896 0.26365358 -0.026804585 -0.05149451 -9.795441e-07
0.00015245842 0.04619162 0.07476803 -0.0001800449 -0.00890718 0.022961121 0.18054152 -0.06313714
-0.019587573 -1.0420482e-08 0.0737191 -0.18651618 -0.013213736 -0.022270985 2.1910456e-08 0.19913109
-2.1446688e-08 0.22467394 0.11972496 -0.020274129 1.8817397e-07 -6.9048443e-09 -0.055158105 2.647802e-08
-2.5759928e-09 0.0872254 0.022217926 0.14172477 0.0015616661 1.4521998e-05 0.0023202403 -3.1986697e-10
-8.435088e-05 -0.06831673 7.815612e-05 0.07508184 0.0022776437 -2.7968595e-08 0.12958936 -9.2431245e-09
2.6120713e-06 -8.361933e-10 3.4170018e-08 0.048176575 2.6585107e-09 -2.232271e-05 0.042295273 0.0908119
-1.4057262e-05 -2.023916e-06 0.011502928 0.039679572 0.012637536 1.0286653e-09 0.089803435 0.102244176
-0.029103385 -0.040548943 6.747835e-11 -0.07353362 0.04143198 -0.04428748 -0.02714772 1.3137511e-05
0.06230929 -0.05546092 0.036201708 4.855145e-08 -0.0008325043 -0.0047465763 0.13784571 0.0051508457
-0.00077719253 -1.810339e-08 0.04425768 -0.075720794 0.01580447 -0.010409019 1.4222374e-08 0.09572536
-1.0237209e-08 0.07874078 0.02308482 -0.03648242 2.0843927e-08 4.5774207e-09 0.0044157165 3.513787e-08
