wiki-RfA/models/wiki-RfA-train-10.pt (torch, 64411 bytes, 14 tensors)

conv1.lin_pos_l.weight f4 [32, 64]
0	0xb7c1da85	-2.3109149e-05
1	0x36306e37	2.6290197e-06
2	0xb574d398	-9.120499e-07
3	0x3702b9d4	7.79187e-06
4	0xb4a49683	-3.0656892e-07
5	0xb5a9b0a9	-1.2642896e-06
6	0x36777051	3.6871245e-06
7	0x37ef17fc	2.8502189e-05
8	0xb65ae532	-3.261794e-06
9	0x34fba7ca	4.6874476e-07
10	0x35a9a04d	1.2638135e-06
11	0xb4a36f0b	-3.044191e-07
12	0x3610c27d	2.157088e-06
13	0xb6239d0b	-2.4380304e-06
14	0xb3a19ee0	-7.526046e-08
15	0x3626f091	2.4875956e-06
16	0xb5bcb271	-1.4059025e-06
17	0xb5d2f539	-1.5717588e-06
18	0xb5b61ca9	-1.3568398e-06
19	0xb5a19e81	-1.2041565e-06
20	0x366c70c9	3.523239e-06
21	0x35f35b0d	1.813141e-06
22	0xb3a9868b	-7.894149e-08
23	0x34240a2a	1.5277388e-07
24	0x3481247e	2.4054674e-07
25	0xb365095f	-5.332674e-08
26	0x342a6d63	1.5872278e-07
27	0xb49a04ae	-2.868814e-07
28	0xb3dd46f6	-1.0304022e-07
29	0x36c6612b	5.9121717e-06
30	0xb625f6cb	-2.4730568e-06
31	0x34cf5719	3.8620126e-07
32	0xb38a116d	-6.4292955e-08
33	0x35279fbf	6.244481e-07
34	0xb5425da2	-7.2406885e-07
35	0x363c8a15	2.8094557e-06
36	0x349cef8f	2.9231566e-07
37	0x35d5c14b	1.5925992e-06
38	0xb4baceac	-3.4795573e-07
39	0x35be2acf	1.4168562e-06
40	0x3521b270	6.0236835e-07
41	0xb4bc402e	-3.5064426e-07
42	0xb48959e3	-2.558364e-07
43	0xb3c518d1	-9.1780414e-08
44	0xb34ecafb	-4.8147722e-08
45	0x36959c15	4.4587164e-06
46	0x35b0eb48	1.3181498e-06
47	0x34829161	2.4320164e-07
48	0xb5366002	-6.7939993e-07
49	0x31d4d23f	6.1939143e-09
50	0x35b84c6b	1.3731309e-06
51	0xb5bcabdd	-1.405711e-06
52	0xb50caf5e	-5.2409257e-07
53	0xb56834ef	-8.6503763e-07
54	0x346a676e	2.1830576e-07
55	0x34be20b3	3.541405e-07
56	0xb5dd9e09	-1.6511777e-06
57	0xb6093cc6	-2.0449966e-06
58	0xb48fbb77	-2.6772224e-07
59	0xb421b844	-1.5061329e-07
60	0xb54e1a96	-7.677967e-07
61	0xb5787b88	-9.256696e-07
62	0x33265bd7	3.8733415e-08
63	0x34e2f7e4	4.2276145e-07
64	0xbe475909	-0.19467558
65	0xbe08575f	-0.1331458
66	0xbd8a2841	-0.06745959
67	0x3d796a02	0.060892113
68	0x3d3e1d49	0.046414647
69	0xbdc899ac	-0.097949356
70	0x3d7f4e62	0.06233061
71	0x3e091d23	0.13390021
72	0xbb6c93ec	-0.003609891
73	0xbc476acc	-0.012171458
74	0x3ded4dde	0.115871176
75	0x3e0c1ce1	0.13682891
76	0x3d455488	0.04817632
77	0x3e22e3ea	0.15907255
78	0xbc818a50	-0.015813023
79	0x3d01379d	0.031547178
80	0x3d63785f	0.055534717
81	0x3da59715	0.08085457
82	0xbdbda082	-0.0925913
83	0xbd4aef3e	-0.049544565
84	0x3c257e39	0.010100895
85	0xbe318958	-0.17337549
86	0x3e187af2	0.1489065
87	0x3d27d155	0.04097112
88	0xbd9909be	-0.07472561
89	0xbe201504	-0.15633017
90	0x3c57f612	0.013181226
91	0xbc8ad916	-0.016949218
92	0xbe588381	-0.21143915
93	0xbe06a764	-0.13149792
94	0xbd1cbe81	-0.038267616
95	0x3e4f9600	0.20272064
96	0x3dcca86c	0.099930614
97	0x3d214075	0.03936811
98	0xbcc76f1f	-0.024344979
99	0xbe119595	-0.14217217
100	0x3dddce27	0.10830336
101	0xbc96cef9	-0.01840924
102	0xbcb85c85	-0.022505054
103	0x3d317ac1	0.043329958
104	0x3df6449c	0.12024805
105	0x3df0b894	0.117539555
106	0xbe38936f	-0.18024991
107	0xbc12b2b3	-0.008953738
108	0x3db2be44	0.087276965
109	0xbcde4eb5	-0.02713714
110	0x3c23d729	0.010000029
111	0x3d869e2e	0.06573139
112	0x3caf9f1b	0.021438172
113	0x3da7eeb4	0.08199826
114	0xbd70ff07	-0.058836963
115	0x3da18c4f	0.0788809
116	0xbd5d19bd	-0.053979624
117	0xbd2c4a57	-0.042063083
118	0xbd775159	-0.060380314
119	0xbd5e8736	-0.054328166
120	0x3da61fb4	0.08111516
121	0xbd3b598b	-0.04573969
122	0x3cde4a01	0.027134897
123	0x3d3d0d14	0.04615505
124	0xbd876011	-0.0661012
125	0xbd1c2175	-0.038117845
126	0x3e27e181	0.16394617
127	0xbd15108b	-0.03639273
128	0xb303c0c8	-3.0676148e-08
129	0x328c2820	1.6316392e-08
130	0x31e89548	6.76906e-09
131	0x320d2ad8	8.217022e-09
132	0xb2052195	-7.749255e-09
133	0xb2844d50	-1.540198e-08
134	0x3230de61	1.0295111e-08
135	0xb2b2ea01	-2.082834e-08
136	0xb161b5a3	-3.2845058e-09
137	0xb190cc05	-4.214146e-09
138	0xafcd9c01	-3.740013e-10
139	0x31c69c0f	5.7803002e-09
140	0x3158046f	3.1434657e-09
141	0xb21e07b4	-9.198562e-09
142	0x3015bea1	5.4476784e-10
143	0x321791d3	8.822513e-09
144	0x327f9e33	1.4878924e-08
145	0x3271457b	1.4043844e-08
146	0xb188c2d7	-3.9802717e-09
147	0xb141f90a	-2.8226759e-09
148	0x2d21e5d8	9.202826e-12
149	0x312abc18	2.4845175e-09
150	0x32888b4c	1.5895829e-08
151	0x322f6762	1.0209847e-08
152	0x31f4d164	7.1251396e-09
153	0xb20b3e1f	-8.10499e-09
154	0xb0ec97b2	-1.7214374e-09
155	0xb1b571dc	-5.2807376e-09
156	0xb0eabbc7	-1.707911e-09
157	0x320ee749	8.318076e-09
158	0xb01ae951	-5.6356436e-10
159	0xb146aa56	-2.8909617e-09
160	0xafa3e383	-2.9811184e-10
161	0xb24544cc	-1.1482552e-08
162	0x3261eaec	1.3150139e-08
163	0xb099c09a	-1.1186956e-09
164	0x323d46da	1.1017358e-08
165	0x31b6f7e0	5.3250773e-09
166	0x315bdfd5	3.1995928e-09
167	0xb0f3beac	-1.7734769e-09
168	0xb223d197	-9.535504e-09
169	0xb1b3952e	-5.2265454e-09
170	0xb0c713f4	-1.4484827e-09
171	0x31823600	3.789637e-09
172	0x316f6637	3.483718e-09
173	0xb231e538	-1.0354874e-08
174	0x310dcadd	2.0633515e-09
175	0xb2390184	-1.0768762e-08
176	0x3201d8f4	7.558118e-09
177	0x320598b8	7.776343e-09
178	0x2f870790	2.456173e-10
179	0x328086df	1.4962493e-08
180	0xb224cc85	-9.592559e-09
181	0x322cba7f	1.0054122e-08
182	0xb2369c20	-1.0629293e-08
183	0xb0e710d4	-1.6812245e-09
184	0x325708f7	1.25166855e-08
185	0x31da220d	6.348506e-09
186	0x3246ef32	1.1579504e-08
187	0xafcf4fe0	-3.7709835e-10
188	0xb24cf3c1	-1.1929786e-08
189	0xadd3dbe9	-2.4085582e-11
190	0x31700162	3.4925383e-09
191	0x326d5b02	1.3815908e-08
192	0x3d981fc1	0.074279316
193	0x3d1add12	0.037808485
194	0x3b61b042	0.0034437333
195	0xbd1b4611	-0.037908617
196	0x3c72c12e	0.014816565
197	0x3b96dc48	0.0046038963
198	0xbd148675	-0.03626104
199	0xbd352582	-0.044225223
200	0x3e0d7cb1	0.13817097
201	0x3bfc5bfb	0.0077013946
202	0xbd869195	-0.06570736
203	0xbb5e069d	-0.0033878454
204	0x3c7190f5	0.014744033
205	0x3d82448d	0.06360731
206	0xbc031069	-0.007999518
207	0xbcfc9f82	-0.030837778
208	0xbaec3283	-0.0018020425
209	0x3ceed6be	0.029155131
210	0x3c0c0d69	0.008548119
211	0x3d8898bb	0.06669756
212	0xbc3a3c6a	-0.011366943
213	0x3d149acd	0.036280442
214	0xbd80c033	-0.06286659
215	0x3d47f355	0.048816044
216	0xbd56f071	-0.052475397
217	0xbd5181d5	-0.051149208
218	0x3d3bed66	0.045880698
219	0x3cb43333	0.02199707
220	0xbcbc92b1	-0.023019167
221	0x3b7f8435	0.0038988714
222	0xbcd34191	-0.0257881
223	0x3d429fa9	0.047515545
224	0xbd0eb624	-0.03484167
225	0x3d53b279	0.051683877
226	0xbce9ea48	-0.028554097
227	0x3db76db9	0.08956475
228	0x3d93bf96	0.072142765
229	0x3bc330c1	0.0059567397
230	0xbd06ff73	-0.03295846
231	0xbd0761ce	-0.03305226
232	0xbdafadbf	-0.08578061
233	0x3d031ae4	0.032008067
234	0xbca7a8e0	-0.020466268
235	0x3d441c60	0.047878623
236	0x3cfec8c5	0.031101594
237	0xbcc4dd0b	-0.024031183
238	0x3d0d7ed8	0.034544796
239	0x3add855b	0.0016900705
240	0x3d17b1e1	0.037034873
241	0xbbe840ce	-0.0070878034
242	0xbcfda33a	-0.030961622
243	0xbd0ac4ba	-0.03387902
244	0x3d4dd0e7	0.050248053
245	0x3d0fb639	0.03508589
246	0xbccde293	-0.025132453
247	0xbd8b6f61	-0.06808353
248	0xbd2885cc	-0.041143224
249	0x3c8deb01	0.017323973
250	0xbdf7cf31	-0.121000655
251	0xbd152c8e	-0.036419444
252	0xbd2a3c27	-0.041561272
253	0x3d8bfe40	0.06835604
254	0xbd349ae8	-0.044093043
255	0xbccbd7bb	-0.024883142

conv1.lin_pos_r.weight f4 [32, 64]
0	0x37e8d652	2.7756356e-05
1	0xb3768971	-5.740134e-08
2	0xb682c5d0	-3.8973303e-06
3	0x36fd19b4	7.54298e-06
4	0x34789b21	2.3153235e-07
5	0x3416578e	1.4001691e-07
6	0x364365ed	2.9116593e-06
7	0x368e3e31	4.23917e-06
8	0x35de6fc5	1.6572818e-06
9	0xb69f69ae	-4.750872e-06
10	0x363f0011	2.8461257e-06
11	0x33c90915	9.361444e-08
12	0x35137198	5.492707e-07
13	0x3493efc7	2.7555345e-07
14	0x35a2fa37	1.2142763e-06
15	0x34ab2026	3.1874623e-07
16	0xb5538ec5	-7.881138e-07
17	0x32f7385d	2.8780216e-08
18	0xb5b79aee	-1.3679653e-06
19	0x3405cfb6	1.2462155e-07
20	0x346c18cd	2.1988235e-07
21	0xb4a3f9d4	-3.054289e-07
22	0xb5faa917	-1.8675663e-06
23	0x35a974e6	1.2625503e-06
24	0x350d81d7	5.2715535e-07
25	0x334b1b0f	4.728923e-08
26	0xb47b8d39	-2.3427573e-07
27	0x347605b9	2.2912617e-07
28	0xb51f0961	-5.9245764e-07
29	0x3541f851	7.225945e-07
30	0x359008e8	1.0731428e-06
31	0xb6338b2f	-2.6754094e-06
32	0xb550b128	-7.7743834e-07
33	0x34b3d482	3.3495968e-07
34	0x353de314	7.073843e-07
35	0xb53f16ef	-7.118642e-07
36	0x34b0ef91	3.2956862e-07
37	0xb3787c29	-5.7854923e-08
38	0xb592e658	-1.0944887e-06
39	0x361d3a2a	2.342868e-06
40	0xb50841ad	-5.075952e-07
41	0xb4ad3979	-3.2265578e-07
42	0xb528e488	-6.2917434e-07
43	0x35c7c7b9	1.4884782e-06
44	0x3337d8bd	4.280513e-08
45	0x35a6e57b	1.2434751e-06
46	0xb37cb502	-5.8837948e-08
47	0xb598d59d	-1.1387052e-06
48	0x3594391a	1.1043478e-06
49	0xb2d6313d	-2.493527e-08
50	0xb4d21492	-3.9130515e-07
51	0x33162cec	3.4965453e-08
52	0x353c3131	7.010704e-07
53	0xb3f6a31b	-1.14849364e-07
54	0xb4360729	-1.6952676e-07
55	0x35d14b7c	1.5593682e-06
56	0xb5652be1	-8.5373e-07
57	0xb522093b	-6.0363135e-07
58	0x339194e8	6.7791746e-08
59	0x364412ff	2.9217333e-06
60	0xb48a04c4	-2.570797e-07
61	0x36ab33a3	5.1022084e-06
62	0xb5549304	-7.919009e-07
63	0x34a5810c	3.082754e-07
64	0xbfa41e50	-1.2821751
65	0xbd1550c8	-0.036453992
66	0xbc778017	-0.015106223
67	0x3d81f3c9	0.063453265
68	0xbe5ab804	-0.21359259
69	0x3e76198e	0.24033186
70	0xbdf6d06d	-0.12051473
71	0x3a7b8cd7	0.0009595877
72	0x3d491621	0.04909337
73	0x3de27618	0.11057681
74	0x3e81740b	0.25283846
75	0xbe2bd71f	-0.16781281
76	0xbe696acb	-0.22794645
77	0xbd23e7d2	-0.040016003
78	0xbecd0129	-0.40039948
79	0x3da308a4	0.079606324
80	0x3e9e49f9	0.30915812
81	0xbc47de68	-0.012199022
82	0x3e13c30f	0.14429878
83	0x3e4fb7ce	0.2028496
84	0x39b2177d	0.00033968306
85	0x3da4f0a0	0.08053708
86	0x3e676c52	0.22599915
87	0x3d88b0be	0.06674336
88	0xbe1ebd01	-0.15501787
89	0x3d328036	0.043579303
90	0xbe16725a	-0.14692059
91	0x3e2a483c	0.16629118
92	0x3d6633cf	0.056201752
93	0xbe376cb1	-0.17912556
94	0x3d0c5db7	0.03426906
95	0x3e634938	0.221959
96	0xbe34b445	-0.17646892
97	0xbdec3fff	-0.11535644
98	0xbd25d673	-0.040487718
99	0xbd29668b	-0.04135756
100	0xbcd09384	-0.025460966
101	0xbd9b09b5	-0.07570211
102	0xbbc31b23	-0.0059541627
103	0xbcbd011b	-0.023071816
104	0x3d653536	0.05595895
105	0xbd94e15d	-0.07269547
106	0x3e091097	0.13385235
107	0xbdab4538	-0.08362812
108	0x3b41d4ea	0.002957637
109	0x3d42ddd6	0.04757484
110	0x3e095d4d	0.13414498
111	0x3d535eb6	0.051603995
112	0xbb4ac3f8	-0.003093956
113	0x3d3e155a	0.04640708
114	0xbe2d6f56	-0.16937003
115	0xbd887d27	-0.06664496
116	0xbca5a53b	-0.02022039
117	0x3d704783	0.05866195
118	0x3c08a181	0.008339287
119	0x3dc99112	0.09842123
120	0xbdd6768a	-0.10471828
121	0xbd6200d8	-0.055176586
122	0xbd5f7077	-0.054550614
123	0x3d507d60	0.050900817
124	0xbdd1d012	-0.102447644
125	0xbc1cb022	-0.009563478
126	0x3de1d882	0.11027624
127	0x3d3b31d2	0.04570181
128	0x333b1768	4.3560618e-08
129	0x31861bca	3.9030725e-09
130	0x31b8bbe8	5.3764673e-09
131	0x31e87461	6.7653194e-09
132	0xb1b2a124	-5.1988014e-09
133	0xb1eec28e	-6.94883e-09
134	0x32371518	1.0656798e-08
135	0xb2a52ba4	-1.9228374e-08
136	0x31356a1b	2.639928e-09
137	0x31220378	2.3576074e-09
138	0x326fa582	1.3949263e-08
139	0xb1bf1c42	-5.562044e-09
140	0xb127489a	-2.4342968e-09
141	0xb18a7736	-4.0298813e-09
142	0xb1b123a5	-5.1554303e-09
143	0x31f082b4	6.9997785e-09
144	0x311d53fc	2.2894246e-09
145	0xb050651e	-7.5813655e-10
146	0x30867479	9.782887e-10
147	0x320108bd	7.510775e-09
148	0xb0e36bac	-1.6547026e-09
149	0xb1b0ef22	-5.1494604e-09
150	0xb1a75dc6	-4.8710005e-09
151	0xad89f2fa	-1.5683e-11
152	0xb1ebf1f6	-6.866908e-09
153	0xb1ca706d	-5.891755e-09
154	0x3208b118	7.956508e-09
155	0x327ca22d	1.4705205e-08
156	0xb165dfba	-3.345106e-09
157	0xb22fa0cf	-1.0222904e-08
158	0x30937a06	1.0730339e-09
159	0xb20381ce	-7.654718e-09
160	0xb2a04bee	-1.866098e-08
161	0xb28068eb	-1.4948872e-08
162	0xb20780f5	-7.887356e-09
163	0x31e0e4c6	6.5452666e-09
164	0x323d2e70	1.1011807e-08
165	0x31cbfeb9	5.937036e-09
166	0xb13b8f62	-2.7293585e-09
167	0x321c27b6	9.089424e-09
168	0xb26b58d9	-1.3699002e-08
169	0x31be5b33	5.540096e-09
170	0x310df81a	2.065923e-09
171	0x3295807a	1.7404307e-08
172	0xb224f80b	-9.602455e-09
173	0xb0aecb06	-1.2717869e-09
174	0x3211b076	8.480233e-09
175	0x323a347c	1.08385585e-08
176	0x32431726	1.1355757e-08
177	0x30e5e993	1.6728329e-09
178	0xb0a56476	-1.2033883e-09
179	0x311369ea	2.145152e-09
180	0x3277d621	1.44259795e-08
181	0x32151963	8.678714e-09
182	0x30a34d0b	1.1881708e-09
183	0xb2191b8e	-8.912037e-09
184	0xb1e7c02c	-6.7448322e-09
185	0x324413b5	1.1413182e-08
186	0x3253ab39	1.2320748e-08
187	0xb11a495e	-2.2451654e-09
188	0xb222fdbd	-9.4873345e-09
189	0x32857d60	1.5540252e-08
190	0x3190f839	4.2191712e-09
191	0x31cf7e9f	6.038888e-09
192	0x3e836fd9	0.2567127
193	0x3eaf1894	0.3419844
194	0xbe8938c5	-0.26801124
195	0x3da8e547	0.08246856
196	0x3e93db3b	0.28878197
197	0xbd26fb93	-0.040767264
198	0x3e926787	0.2859461
199	0xbce01492	-0.027353559
200	0xbddd9923	-0.10820224
201	0x3d446d7c	0.047955975
202	0xbe0da03e	-0.13830659
203	0x3eafbd25	0.34323993
204	0x3ebc61c8	0.3679335
205	0xbcb7c0c7	-0.02243079
206	0x3eee4d67	0.46543428
207	0x3ee47cbb	0.44626412
208	0xbeb18791	-0.3467374
209	0xbdb9e16e	-0.090762004
210	0xbd253b45	-0.040339727
211	0xbebf2092	-0.37329537
212	0xbea0426e	-0.31300682
213	0x3e6083b9	0.21925248
214	0xbde7f79a	-0.11326523
215	0xbf3d5842	-0.73962796
216	0xbec1c806	-0.37847918
217	0xbdfb820e	-0.12280665
218	0x3cd7095c	0.02624958
219	0xbe7433dc	-0.23847908
220	0xbd3523d7	-0.044223633
221	0x3d83d448	0.06436974
222	0x3e6e3e3d	0.2326593
223	0xbda2870e	-0.07935916
224	0x3ed40b16	0.41414708
225	0x3dadc0fd	0.08484075
226	0xbe8efcc2	-0.27927214
227	0xbd489bcc	-0.048976704
228	0x3e5f4a65	0.21805723
229	0x3c7411a8	0.014896788
230	0x3e55ad59	0.20866908
231	0x3d73417b	0.05938862
232	0x3df2fcbd	0.11864612
233	0xbdd8b94f	-0.1058222
234	0xbdf4c416	-0.11951463
235	0xbf0ec7bf	-0.5577354
236	0x3e0c8b16	0.13724932
237	0xbdb16e9b	-0.086636744
238	0x3e83c01b	0.25732502
239	0xbf11c5d4	-0.56942487
240	0x3df3bebf	0.11901616
241	0xbd97729b	-0.07394906
242	0xbe4d9660	-0.20076895
243	0x3dc6fb33	0.09715881
244	0x3e8824c1	0.2659054
245	0xbe26221c	-0.16223949
246	0x3dc0230a	0.09381683
247	0xbe1f2828	-0.15542662
248	0x3e88dfcf	0.26733252
249	0x3e5e9fea	0.2174069
250	0x3eda9e01	0.42698672
251	0xbd12fa7e	-0.03588342
252	0x3dbfeeb9	0.093717046
253	0xbe82a8de	-0.2551946
254	0x3c401b2b	0.011725227
255	0xbde0cabf	-0.10976171

conv1.lin_pos_r.bias f4 [32]
0	0xba43faf5	-0.0007476055
1	0x3cb6f700	0.022334576
2	0xbc621d84	-0.013800982
3	0x3a56c3ac	0.00081926095
4	0xba3dab0c	-0.0007235266
5	0xb81dfca9	-3.7667025e-05
6	0x3c839ef1	0.016067
7	0x3a0b619f	0.0005316976
8	0x3cbd9d74	0.023146369
9	0x3cd884d3	0.026430523
10	0x3d89c904	0.06727794
11	0xbd154c1c	-0.036449537
12	0xbcaa62ea	-0.020799119
13	0xbd27e315	-0.040988047
14	0x3c93c9ee	0.018040624
15	0x3ca1344d	0.01967826
16	0xbd75f800	-0.060050964
17	0xbcd97314	-0.026544131
18	0xba8eaf04	-0.0010885899
19	0xb9664271	-0.0002195926
20	0xbce22f0a	-0.02761032
21	0xb9445b59	-0.00018726046
22	0xbd13dcc5	-0.036099214
23	0x3d2143be	0.039371245
24	0xbbf4a9b8	-0.007466521
25	0x3e1f8c88	0.15580952
26	0x3d2f38c6	0.042778753
27	0xbd764fb0	-0.06013459
28	0xbcb8c56b	-0.022555074
29	0xbcf3fc18	-0.029783294
30	0x3ccd1b81	0.025037529
31	0xb8088096	-3.254468e-05

conv1.lin_neg_l.weight f4 [32, 64]
0	0xb1ed0a35	-6.8987682e-09
1	0xb285d10d	-1.5578303e-08
2	0xb1aa89b6	-4.963307e-09
3	0xb1dfe4ca	-6.5161645e-09
4	0x323b7a4d	1.0912641e-08
5	0x31f1bfb8	7.035819e-09
6	0xb1eef591	-6.9546293e-09
7	0xb2ab7907	-1.9962057e-08
8	0xb1aec315	-5.0862448e-09
9	0xaf012b62	-1.1747894e-10
10	0x3192d9f1	4.2739363e-09
11	0x32170a2c	8.79167e-09
12	0xb21cddb1	-9.130802e-09
13	0xb2299f03	-9.87325e-09
14	0xb190ae00	-4.210733e-09
15	0x3213c93d	8.602282e-09
16	0x3123fc73	2.3863123e-09
17	0xb1a34f37	-4.75293e-09
18	0x327ceba1	1.4721906e-08
19	0xb29db3b0	-1.8358918e-08
20	0x3064d24e	8.324478e-10
21	0xb1e1d338	-6.5723746e-09
22	0x327e889d	1.4815808e-08
23	0xb2a036c6	-1.865136e-08
24	0x321a042a	8.964927e-09
25	0x32cb95a5	2.370036e-08
26	0x3286fdf7	1.5715143e-08
27	0xb2813800	-1.5043042e-08
28	0xb1b86a73	-5.3672067e-09
29	0xb20a98d0	-8.067403e-09
30	0xb1f473e0	-7.114508e-09
31	0x31f80ae5	7.2189885e-09
32	0xb28bb659	-1.6264652e-08
33	0xb12174a3	-2.3494884e-09
34	0x31dbac65	6.393338e-09
35	0x31261ae2	2.417146e-09
36	0x30b9283a	1.3471955e-09
37	0xb23b8eb5	-1.091728e-08
38	0x318a7d38	4.0305643e-09
39	0xb169c042	-3.4015248e-09
40	0x30c2c947	1.4172564e-09
41	0x32609b08	1.3073766e-08
42	0xb2c57024	-2.2984814e-08
43	0x31a36aea	4.756079e-09
44	0xb23812df	-1.07145e-08
45	0x326c87ae	1.3767858e-08
46	0xb25d1f79	-1.2871049e-08
47	0xb247b4ab	-1.1624404e-08
48	0x2fa5458c	3.006274e-10
49	0x32224779	9.445892e-09
50	0xb2af8f84	-2.0437945e-08
51	0xb1a3ee6b	-4.7710293e-09
52	0x329f2763	1.8527947e-08
53	0xb28a73c4	-1.6117959e-08
54	0xb1f04536	-6.9927877e-09
55	0xb0907c14	-1.0512644e-09
56	0xb1eb107c	-6.841274e-09
57	0xb1b704ca	-5.3265454e-09
58	0xb247a512	-1.1620857e-08
59	0x328c6d3a	1.6347816e-08
60	0xb18f0a6c	-4.1630326e-09
61	0x320fdc53	8.373791e-09
62	0x3238f554	1.0765991e-08
63	0xb232033b	-1.0361698e-08
64	0xbc0580e0	-0.008148402
65	0x3aa29467	0.0012403846
66	0x3b4a074c	0.0030827103
67	0xbcf5e864	-0.030018039
68	0xba15ea58	-0.0005718819
69	0x3c9948f9	0.018711554
70	0xbc3d46e7	-0.011552549
71	0x3abb3451	0.0014282559
72	0x3c213346	0.009838885
73	0xbd347764	-0.044059172
74	0x3c58cbb3	0.013232159
75	0xbc6efb6d	-0.014586312
76	0x3c0d9d54	0.008643467
77	0x3c6aff2b	0.014343063
78	0x3cd31d09	0.025770681
79	0x3cfd1b36	0.030896764
80	0x3d0f6803	0.035011303
81	0xbcffc29f	-0.031220732
82	0x3b997d21	0.004684106
83	0xbd8a3658	-0.067486465
84	0x3a6bde6c	0.0008997682
85	0x3ccd2823	0.025043553
86	0x3c9a112e	0.01880702
87	0x3c4e8225	0.012604271
88	0x3c85c22b	0.016327938
89	0xbc13f78e	-0.00903119
90	0x3c839330	0.016061395
91	0x3bbac5af	0.0056998353
92	0xbcb90f2e	-0.022590246
93	0x3b9aa5f4	0.00471949
94	0xbc2a2ada	-0.010386193
95	0x3cb863a8	0.022508457
96	0x3bf0aa61	0.0073445295
97	0xbc958370	-0.01825115
98	0xbc80cde0	-0.015723169
99	0x3cf6ccd2	0.030126963
100	0x3c850b81	0.016240837
101	0x3b914b6b	0.0044340394
102	0xbc85216b	-0.016251286
103	0xbc4cb184	-0.012493495
104	0xbadb436a	-0.0016728465
105	0xbcd49dc2	-0.025954131
106	0x3c708201	0.014679433
107	0xbc752a9e	-0.014963774
108	0xbce98945	-0.028507838
109	0xbb927998	-0.0044700615
110	0xbcfb5a48	-0.030682698
111	0xbc0209e2	-0.007936927
112	0x3c995532	0.018717382
113	0xbc2cc187	-0.010544187
114	0x3d27f77b	0.0410075
115	0xbac8a2ac	-0.0015307269
116	0xbbd62a50	-0.0065358058
117	0xbb38cd1a	-0.0028198422
118	0xbc63f8b5	-0.013914277
119	0xbd199058	-0.037491173
120	0xbcbc49a5	-0.022984335
121	0xbc662934	-0.0140479095
122	0xbc952b2a	-0.018209059
123	0x3b964a2d	0.004586479
124	0x3a065153	0.00051238126
125	0x3c8f8cc9	0.017523186
126	0x3b15fca2	0.0022886177
127	0xbca50c4f	-0.02014747
128	0x3d50eeb2	0.051008888
129	0x3c5789e6	0.013155436
130	0x3cae897f	0.021305798
131	0xbd9433c6	-0.072364375
132	0x3cd9a5d7	0.026568336
133	0xbc08cb53	-0.0083492575
134	0x3ba30e7a	0.004976091
135	0xbd1f3d89	-0.038877044
136	0xbcb408e0	-0.021976888
137	0x3c054904	0.008135084
138	0xbc7d70e1	-0.015468807
139	0x3c89d95e	0.016827282
140	0xb998eb90	-0.00029167207
141	0x3c1b110b	0.009464513
142	0x3c4a2350	0.012337521
143	0xbd6694b4	-0.056294158
144	0x3b663ab6	0.003513021
145	0xbb44913e	-0.0029993798
146	0xbc00f849	-0.007871696
147	0x3bb70c66	0.005586195
148	0xbab30b9b	-0.0013660075
149	0xbc8c426b	-0.017121514
150	0xbcc04f8b	-0.023475429
151	0xbd3efab3	-0.046625804
152	0x3b4c7fbc	0.0031204065
153	0x3d99eb02	0.07515527
154	0x3caa0691	0.020755084
155	0xbd5578c0	-0.05211711
156	0x3d5e7098	0.054306597
157	0x3d847819	0.06468219
158	0xbc91807a	-0.017761458
159	0xbcbc3d9a	-0.022978593
160	0x3cd7d153	0.02634493
161	0xbafc04c0	-0.001922749
162	0x3b0d02a4	0.0021516467
163	0x3c325a62	0.010885807
164	0xbc6e560e	-0.014546884
165	0x3bc830aa	0.006109317
166	0x3d4c5d96	0.049893938
167	0x3cfe2bca	0.03102674
168	0xbb8af74a	-0.004240905
169	0x3cb4d941	0.022076251
170	0x3ba9de82	0.0051839957
171	0x3c828bf6	0.01593588
172	0x3d3fe529	0.046849404
173	0x3d7a9f5f	0.061187144
174	0x3c8bd788	0.017070547
175	0x3d51dab8	0.051233977
176	0xbc4bb92c	-0.012434285
177	0xbd4502c5	-0.048098344
178	0xbc73b905	-0.014875655
179	0x3b9e24d6	0.0048261685
180	0x3cde8dd2	0.027167235
181	0x3c8321f1	0.016007395
182	0x3bcff17b	0.0063459254
183	0xbc06b52b	-0.008221905
184	0xbb8bf191	-0.0042707403
185	0xbcb07983	-0.021542316
186	0x3c9b1966	0.01893301
187	0xbd095ca2	-0.033535607
188	0x3c90166b	0.017588815
189	0xbd33b1dd	-0.043870796
190	0x3af88dcc	0.0018963157
191	0xbb1e84fb	-0.002418815
192	0x3e0a98fe	0.13534924
193	0x3ca9bf3f	0.020721076
194	0xbdecb093	-0.11557116
195	0x3d30f490	0.043201983
196	0x3d375f26	0.044768475
197	0x3d9740b4	0.07385388
198	0x3d6bde6b	0.05758516
199	0x3c66988d	0.014074457
200	0x3d9ef850	0.077622056
201	0x3cf7a05d	0.030227834
202	0xbce2e75d	-0.027698213
203	0xbd2afa50	-0.041742623
204	0xbcd3eb77	-0.025869114
205	0x3d16be43	0.03680254
206	0xbcebc436	-0.028780084
207	0xbd525ec0	-0.051359892
208	0xbdae026e	-0.08496557
209	0x3c3b5a54	0.01143511
210	0x3cea3342	0.028588895
211	0x3d5c7c62	0.05382956
212	0xbbd41846	-0.00647262
213	0x3caa778a	0.020808954
214	0xbca08813	-0.019596135
215	0xbbeb8120	-0.0071870238
216	0x3d2e66d6	0.04257854
217	0xbb37277c	-0.0027947119
218	0xbd196499	-0.037449453
219	0x3d6fe535	0.0585682
220	0xbc0545cf	-0.008134319
221	0xbbe71045	-0.0070515
222	0xbcf62e71	-0.030051442
223	0xbd2e0553	-0.042485546
224	0xbd1fefa6	-0.039046906
225	0xbb97e68b	-0.004635637
226	0x3c86e698	0.016467378
227	0xbcb3d4f4	-0.02195213
228	0xbd07d586	-0.033162616
229	0x3d90af19	0.07064647
230	0xbcc802ef	-0.024415461
231	0x3d19aa61	0.037516
232	0xbce8599d	-0.028363043
233	0x3d6442d9	0.055727813
234	0x3c47eac4	0.012201969
235	0x3cbbd5f2	0.022929166
236	0xbc967a04	-0.018368728
237	0xbd73ded7	-0.05953869
238	0x3d7a4768	0.061103255
239	0x3d628061	0.055298213
240	0x3d08354c	0.033253953
241	0x3c8b4b2d	0.01700362
242	0xbd8b65ba	-0.06806512
243	0xbce75f27	-0.028243614
244	0x3d95aadf	0.07307982
245	0x3d40490a	0.046944655
246	0x3c21193f	0.009832679
247	0x3d662402	0.056186683
248	0xbd0b7888	-0.034050494
249	0xbb018004	-0.001976014
250	0xbb503c7f	-0.003177434
251	0x3d636900	0.055520058
252	0x3d98aeea	0.07455237
253	0xbd8c7c7e	-0.068596825
254	0x3cbe30d0	0.023216635
255	0xbbf2a67c	-0.0074051004

conv1.lin_neg_r.weight f4 [32, 64]
0	0x3199867b	4.4681747e-09
1	0x3223c626	9.5329025e-09
2	0xb1ceff76	-6.0244316e-09
3	0x30ed26a0	1.7254997e-09
4	0x2ff5b308	4.469245e-10
5	0x32031ee6	7.632229e-09
6	0xb29e4cbc	-1.8428516e-08
7	0x3257202f	1.2521965e-08
8	0xaf40a5de	-1.7521226e-10
9	0xb1fece39	-7.4158177e-09
10	0xb0f9740d	-1.8150118e-09
11	0xb1f56651	-7.1420705e-09
12	0xb19d0731	-4.570119e-09
13	0xb21836c1	-8.860014e-09
14	0xb1856d4d	-3.8832355e-09
15	0xb13ead99	-2.7747318e-09
16	0xb166fac8	-3.3611958e-09
17	0xb1e5bfc9	-6.6865806e-09
18	0x31d7959e	6.274333e-09
19	0xb218ee1f	-8.901707e-09
20	0xb16abe78	-3.415975e-09
21	0x3106c053	1.960889e-09
22	0x321a1057	8.967695e-09
23	0xb28166b7	-1.5064286e-08
24	0xb261d069	-1.3144111e-08
25	0xb2061cb5	-7.806354e-09
26	0x312e6cee	2.5382252e-09
27	0xb1d410b0	-6.171909e-09
28	0x3191a8ee	4.2392605e-09
29	0x324f036d	1.2049765e-08
30	0xb254680f	-1.2363684e-08
31	0x3239103a	1.0772107e-08
32	0x3175700d	3.5715886e-09
33	0x328f3e82	1.6675816e-08
34	0x32317d25	1.03312106e-08
35	0x3113cf6f	2.1509228e-09
36	0xb234dfc1	-1.0528255e-08
37	0xb23ee78e	-1.1112105e-08
38	0xb094faad	-1.0839664e-09
39	0xb280dc59	-1.5001364e-08
40	0xb0935dc3	-1.0722306e-09
41	0x328be745	1.6286899e-08
42	0x319208f9	4.2501793e-09
43	0xb297a385	-1.7653074e-08
44	0x3288743f	1.5885346e-08
45	0xb2615026	-1.3114947e-08
46	0x32223318	9.441258e-09
47	0xb21b7a22	-9.049957e-09
48	0x31f78541	7.2037953e-09
49	0x324786d5	1.1613982e-08
50	0xb19da512	-4.5880677e-09
51	0xafa88170	-3.0650993e-10
52	0xafa01e41	-2.9125327e-10
53	0xb241e8e8	-1.1287035e-08
54	0x32664a33	1.3404633e-08
55	0x2ffd5443	4.6080303e-10
56	0x323cc4ca	1.0987785e-08
57	0x2fac35d1	3.1324857e-10
58	0xb1e6473f	-6.7019807e-09
59	0x3006d876	4.9056526e-10
60	0xb1c0680a	-5.5997633e-09
61	0x316451bf	3.3224834e-09
62	0xb122412d	-2.361115e-09
63	0x31656f55	3.338717e-09
64	0xbdc3746f	-0.09543692
65	0xbbc80fdd	-0.0061054067
66	0xbd1901b8	-0.037355155
67	0xbc16ecd3	-0.009211737
68	0x3d30c433	0.04315586
69	0x3d2068f1	0.03916258
70	0x3cb886bf	0.02252519
71	0x3d67523b	0.056474905
72	0x3d4cbfc0	0.049987555
73	0x3d918708	0.07105833
74	0x3d38dfab	0.04513518
75	0xbc40bd60	-0.0117639005
76	0xbd44fce2	-0.04809273
77	0x3c84acf9	0.016195761
78	0xbdc51eec	-0.096250385
79	0xbcab5b6e	-0.02091762
80	0x3db164c1	0.086617954
81	0x3df7f88b	0.12107953
82	0xbb7d14be	-0.00386171
83	0x3debd130	0.11514509
84	0x3d8752e3	0.06607606
85	0x3c73a93f	0.014871894
86	0x3d32dc9d	0.043667424
87	0xbc90184b	-0.017589709
88	0xbcdb15ac	-0.026743732
89	0xbb909c46	-0.0044131605
90	0x3d222bd3	0.039592575
91	0xbd120f33	-0.035659026
92	0x3ba40096	0.0050049527
93	0xbd28a2b7	-0.041170802
94	0x3db9d738	0.09074253
95	0x3cc62f26	0.024192404
96	0x3af0d0df	0.0018372795
97	0xbc6b2d2c	-0.0143540315
98	0x3cde3a28	0.02712734
99	0xbdad404d	-0.0845953
100	0xbbff5e1a	-0.0077932
101	0x3ce9fc22	0.02856261
102	0xbd19d3d7	-0.03755554
103	0x3c8a07be	0.016849395
104	0xbadf1ea2	-0.0017022679
105	0x3caeb8e6	0.0213284
106	0xbc8abd28	-0.0169359
107	0x3c6af3cf	0.014340355
108	0xbd0496ed	-0.032370497
109	0x3c856ca5	0.016287157
110	0x3cba88d9	0.022770332
111	0x3cadd179	0.021218048
112	0xbd7dd92f	-0.0619747
113	0x3c1b7d64	0.009490345
114	0x3c537472	0.012906181
115	0x3c4791b5	0.012180735
116	0x3d07d1fb	0.033159237
117	0xbd1e9777	-0.038718667
118	0x3d584c8f	0.052807387
119	0xbb17f8b2	-0.0023189005
120	0x3d2fe3a2	0.042941697
121	0x3c7e1406	0.015507704
122	0x3bf88841	0.007584602
123	0x3cbc1467	0.022958947
124	0xbc7adba9	-0.01531116
125	0xbd8184b0	-0.06324136
126	0x3c708f89	0.014682659
127	0x3d3232b9	0.043505404
128	0x3e7ac287	0.24488269
129	0x3ce10ec5	0.027472863
130	0xbd8a0e1b	-0.06740972
131	0x3d839146	0.06424193
132	0xbc657efa	-0.014007324
133	0xbc152a6e	-0.009104354
134	0x3d150d69	0.036389742
135	0x3e1b7007	0.15179454
136	0xbdab8a7c	-0.08376023
137	0xbe0940e4	-0.1340366
138	0xbc551253	-0.013004857
139	0xbdf064cf	-0.11737978
140	0x3ba87fb2	0.0051421756
141	0xbe215f88	-0.15759099
142	0xbd6d0b0d	-0.057871867
143	0x3dd0ddfe	0.10198592
144	0x3de69d7f	0.11260509
145	0xbde1dbb9	-0.11028237
146	0x3cf156c2	0.029460315
147	0xbe15393f	-0.14572619
148	0x3b5ea71f	0.0033974124
149	0x3d222435	0.03958531
150	0x3ce696af	0.028148023
151	0x3d9cf274	0.07663432
152	0xbd041794	-0.03224905
153	0xbbc28420	-0.0059361607
154	0xbd2c83c7	-0.04211786
155	0x3e31f143	0.1737719
156	0xbe29679d	-0.16543432
157	0x3d1d8615	0.03845795
158	0xbcbbe221	-0.022934975
159	0x3d6169e7	0.055032637
160	0xbcabcb89	-0.020971077
161	0x3ce51a2a	0.027966578
162	0x3d180d2f	0.037121948
163	0x3e66f4b5	0.22554286
164	0xbd542a64	-0.05179824
165	0x3b0012bc	0.0019542417
166	0xbe050cac	-0.12993115
167	0xbe2ec115	-0.17065842
168	0x3cdc9f4e	0.026931431
169	0xbc9b919f	-0.018990336
170	0x3d90cdf5	0.07070533
171	0xbe01fcf9	-0.12694158
172	0x3dca1945	0.09868101
173	0x3d63781d	0.05553447
174	0xbd5ee995	-0.05442198
175	0xbe02ae3a	-0.12761775
176	0x3d4e025a	0.05029521
177	0x3d87d279	0.06631941
178	0x3e0ddf06	0.13854608
179	0xbd1441a5	-0.036195416
180	0xbd4fbfc9	-0.05072001
181	0xbd7a64e4	-0.061131373
182	0x3d911190	0.07083428
183	0x3c325cf2	0.010886418
184	0xbcc0facd	-0.023557091
185	0x3d0817ef	0.03322595
186	0xbdff8043	-0.12475636
187	0x3dc475f4	0.0959281
188	0xbc090bbb	-0.008364613
189	0x3e38836b	0.18018882
190	0xbd0133d0	-0.031543553
191	0xbc3eb977	-0.011640898
192	0xbf4f54af	-0.8098859
193	0x3d6fe254	0.058565453
194	0x3e8b4fee	0.2720942
195	0xbe0d6e24	-0.13811547
196	0x3c8b5613	0.017008817
197	0xbe2624e7	-0.16225015
198	0x3dff12d1	0.12454761
199	0x3dfece25	0.12441663
200	0xbac08a16	-0.001468959
201	0xbe7d49f7	-0.24735247
202	0x3d2c7d9e	0.042111985
203	0xbe124579	-0.14284314
204	0x3cade7d4	0.021228708
205	0x3e24f811	0.16110255
206	0x3e4dc48d	0.2009451
207	0xbd452e03	-0.048139583
208	0xbec9747d	-0.39346686
209	0x3e1c9b7d	0.15293689
210	0xbdde120a	-0.108432844
211	0xbe94b5f3	-0.29045066
212	0xbe660b69	-0.2246529
213	0x3ca2806d	0.019836629
214	0xbea6771b	-0.32512745
215	0xbd249ad2	-0.04018671
216	0xb9c4a62d	-0.00037507844
217	0xbde2e796	-0.11079328
218	0x3e4fc85a	0.20291272
219	0xbd390050	-0.045166314
220	0xbd93a9fe	-0.07210158
221	0x3d7ac058	0.06121859
222	0x3dc21273	0.09476175
223	0xbd7c9c37	-0.061672416
224	0x3e55e544	0.20888239
225	0x3de3bcaa	0.11119969
226	0xbe2528bf	-0.16128825
227	0x3d999289	0.074986525
228	0x3d245332	0.040118404
229	0x3e639674	0.22225362
230	0xbe073925	-0.13205393
231	0xbe60a564	-0.21938092
232	0x3db8ae59	0.09017629
233	0x3d25715c	0.04039131
234	0x3dbb4d8e	0.09145652
235	0xbe90ff2c	-0.2831968
236	0xbd133849	-0.03594235
237	0x3dfc3ba8	0.12316066
238	0x3c8118c2	0.015758876
239	0xbe852d59	-0.2601116
240	0x3e117c1b	0.14207499
241	0x3d71a27e	0.058992855
242	0x3d109f46	0.035308145
243	0x3e35c664	0.17751461
244	0xbd556cab	-0.052105587
245	0xbe3eca52	-0.18631867
246	0xbd87b936	-0.06627123
247	0xbdc7e4db	-0.097604476
248	0x3d737ffb	0.059448224
249	0x3d303bc1	0.043025736
250	0x3d53e964	0.05173625
251	0xbc71cb77	-0.014757982
252	0x3d06a356	0.032870613
253	0x3e0f07f8	0.13967884
254	0x3ce4947e	0.027902838
255	0xbcd7b2b5	-0.026330331

conv1.lin_neg_r.bias f4 [32]
0	0xbc73f122	-0.0148890335
1	0x3d905b71	0.07048691
2	0x3d3ecb60	0.046580672
3	0x3c60569e	0.013692526
4	0xbd880106	-0.0664082
5	0x3c5a9131	0.01334028
6	0xbcb13c3f	-0.021635173
7	0xbd487361	-0.04893816
8	0xba8e0918	-0.001083645
9	0xbc948013	-0.018127477
10	0xb79e326b	-1.8858545e-05
11	0x3cb50a54	0.022099651
12	0xbcf52f74	-0.029929854
13	0x3d88709c	0.066621035
14	0x3cb7c6a1	0.02243358
15	0x3ce70b99	0.028203772
16	0xb87f8de8	-6.0928898e-05
17	0xbc425ddf	-0.011863201
18	0xbd278347	-0.04089668
19	0x3c7e5bb9	0.015524798
20	0xb64b4d3d	-3.0294316e-06
21	0xb94640dd	-0.00018906915
22	0xbae9322f	-0.0017791445
23	0x3ca6f74c	0.020381592
24	0x3c781166	0.015140867
25	0xb6f8da38	-7.41638e-06
26	0x3d750810	0.059822142
27	0x3c6039fa	0.013685698
28	0xbc40a44a	-0.01175792
29	0xb8992736	-7.302912e-05
30	0x3d8299aa	0.06376965
31	0xbb0adfc9	-0.0021190515

convs.0.lin_pos_l.weight f4 [32, 64]
0	0x362d769a	2.5848044e-06
1	0x3d224afa	0.039622284
2	0x30c07c2b	1.4005129e-09
3	0xbd361be3	-0.04446019
4	0x3288dde6	1.5933391e-08
5	0x37c0495e	2.2922348e-05
6	0x3d0373ba	0.032092787
7	0xbd9da151	-0.07696784
8	0x3c3b6307	0.011437184
9	0x3d1eefb3	0.038802814
10	0x3cd3d65b	0.025859049
11	0x32051395	7.746071e-09
12	0x3a8621ab	0.0010233423
13	0xbb5499ba	-0.003244026
14	0x3bbb7148	0.0057202913
15	0x3d3fc930	0.046822727
16	0xbb004cfd	-0.0019577139
17	0xb2354b44	-1.05527e-08
18	0x37aa720d	2.0318688e-05
19	0x38810e48	6.1538594e-05
20	0xbb69f98f	-0.0035701727
21	0xbdab9721	-0.08378435
22	0xb0b963a7	-1.3488844e-09
23	0x3d45af6b	0.048262995
24	0xb712d748	-8.752402e-06
25	0x3d2d5bf2	0.042324014
26	0xbd00d658	-0.031454414
27	0xbc619be2	-0.0137700755
28	0x31f363bc	7.0835693e-09
29	0x31c17e53	5.6314007e-09
30	0x3cfb24d2	0.030657206
31	0xb19416ad	-4.309945e-09
32	0x32261fed	9.669731e-09
33	0xbd0fc9ca	-0.03510455
34	0x3d801322	0.06253649
35	0x3b049985	0.0020233106
36	0xbc456a99	-0.012049341
37	0xbd5fc4d9	-0.054631088
38	0x3a1831f7	0.0005805785
39	0xb2334bbd	-1.0436392e-08
40	0x36f067af	7.1646277e-06
41	0x3b58c3ee	0.0033075768
42	0xb6755d4f	-3.6562158e-06
43	0x3d37db33	0.04488678
44	0x3894bec6	7.092724e-05
45	0x3b3cf2ad	0.002883117
46	0xbcaf9fe7	-0.021438552
47	0xbc244168	-0.01002536
48	0x3465b4f1	2.1393113e-07
49	0x3204503e	7.701656e-09
50	0xb36bb07a	-5.4875706e-08
51	0x3d1cfc7c	0.038326725
52	0xb05040c5	-7.5762e-10
53	0xb2940a15	-1.7234052e-08
54	0x3c5b3890	0.013380185
55	0xbca0ee5a	-0.019644905
56	0xbd6bc818	-0.05756387
57	0x35f6d19e	1.8389435e-06
58	0xbd98ea88	-0.07466608
59	0xbd104450	-0.035221398
60	0x3cc0d51e	0.023539122
61	0xb10ff141	-2.0946376e-09
62	0xba93aebb	-0.0011267284
63	0x38a22a54	7.732646e-05
64	0x357dfaae	9.461463e-07
65	0xbb71a8b1	-0.003687423
66	0x30749dd3	8.8990965e-10
67	0xbd9db64c	-0.07700786
68	0xb2712bc2	-1.4037996e-08
69	0xb6b7825f	-5.469002e-06
70	0xbc84b505	-0.016199598
71	0xbdbebc5c	-0.093132704
72	0x3d8b6641	0.06806613
73	0x37b6710b	2.174873e-05
74	0xbe16dd18	-0.14732778
75	0x30c5aa4c	1.4382038e-09
76	0xb4e0dd01	-4.1884053e-07
77	0xb8a18bad	-7.703095e-05
78	0x3b2fab99	0.002680516
79	0xbd1aa24b	-0.03775243
80	0x39ca7b3c	0.0003862026
81	0xb0ad4798	-1.2607755e-09
82	0x3840100c	4.5791312e-05
83	0xb81cf5eb	-3.7422327e-05
84	0xbbb8992e	-0.005633495
85	0x3d156a53	0.03647835
86	0x325e9bdd	1.295754e-08
87	0xbd099cf9	-0.033596966
88	0x35a0195c	1.192831e-06
89	0xbe670c8d	-0.22563381
90	0xbd1ef097	-0.038803663
91	0x3b0c8b62	0.0021445383
92	0x32875877	1.5756298e-08
93	0xb29b6693	-1.809102e-08
94	0xbd5e4be0	-0.05427158
95	0xb0ec5902	-1.7196558e-09
96	0xb24a1731	-1.1763221e-08
97	0x3d960e00	0.07326889
98	0xbdf646d7	-0.120252304
99	0x3d82247a	0.063546136
100	0xba9baebe	-0.0011877639
101	0xbe6b4782	-0.22976497
102	0x3a7443c7	0.0009317961
103	0x31ef8552	6.9709722e-09
104	0xb6a2f00a	-4.8559205e-06
105	0xbdde0730	-0.10841215
106	0xb489243c	-2.5544603e-07
107	0x3cad9742	0.02119029
108	0x37b0bc96	2.1068652e-05
109	0xbe967717	-0.29387733
110	0xbd30220a	-0.043001212
111	0x3e0c4d4a	0.13701358
112	0x35b37830	1.3371518e-06
113	0xb2770bfc	-1.4380017e-08
114	0xb07e0f5c	-9.242649e-10
115	0xbc69c09e	-0.014267115
116	0x3291c794	1.697098e-08
117	0x3130c203	2.5721654e-09
118	0x3cb172b4	0.02166114
119	0x3e22860e	0.1587145
120	0xbd23f05e	-0.040024154
121	0xb571857e	-8.9973753e-07
122	0xbd35af9c	-0.044356927
123	0x3d60470a	0.054755248
124	0xbb9788fd	-0.0046244846
125	0x2ed9b99c	9.9009884e-11
126	0xbda0841e	-0.07837699
127	0xb8fb1989	-0.00011973369
128	0xb11c6849	-2.2760267e-09
129	0xb28d0316	-1.6415964e-08
130	0x323f3b31	1.1131122e-08
131	0xb3853808	-6.203487e-08
132	0xb1fbdb13	-7.3299673e-09
133	0xb20c0991	-8.151248e-09
134	0xb3aff29d	-8.1932036e-08
135	0x33df8845	1.0409034e-07
136	0x340d866d	1.3180552e-07
137	0xb38946fd	-6.392472e-08
138	0xb32df72c	-4.0504503e-08
139	0x3264b1b0	1.3311748e-08
140	0x31ba25e1	5.417619e-09
141	0xb293a506	-1.7188096e-08
142	0xb391c2a5	-6.787494e-08
143	0xb3b12898	-8.249589e-08
144	0x318e86dc	4.1480757e-09
145	0xb1d8552e	-6.296111e-09
146	0x32159762	8.707362e-09
147	0xb1dcd68d	-6.4272343e-09
148	0xb1e3ccb8	-6.6298433e-09
149	0x33451256	4.5884313e-08
150	0x32008168	7.480004e-09
151	0xb45eb3c2	-2.0740757e-07
152	0xb26becc4	-1.3732635e-08
153	0x3443d323	1.8237601e-07
154	0x340b26d3	1.2959508e-07
155	0x3112073c	2.1249908e-09
156	0x32607996	1.30661615e-08
157	0x315d32d3	3.2188623e-09
158	0xb2a417c2	-1.9102917e-08
159	0x3242ecf4	1.1346163e-08
160	0xb10cab1a	-2.0469941e-09
161	0xb49ee3d2	-2.9595554e-07
162	0xb48e6e74	-2.6529926e-07
163	0xb45f184c	-2.0777333e-07
164	0x32103c88	8.395666e-09
165	0x33945357	6.9069465e-08
166	0xb25c6aa5	-1.2829934e-08
167	0x3172d3d2	3.533604e-09
168	0xb252aa03	-1.2262265e-08
169	0x328736ca	1.5740984e-08
170	0xb061277c	-8.1910634e-10
171	0x335bc486	5.1168648e-08
172	0x32164220	8.746184e-09
173	0x3155d35e	3.1115728e-09
174	0x3491f90a	2.7189554e-07
175	0xb42dd5c5	-1.618965e-07
176	0x31b0b006	5.1422857e-09
177	0x31b56afb	5.2799556e-09
178	0x321b3335	9.033831e-09
179	0xb3fa2d66	-1.164979e-07
180	0x31f3c000	7.0940587e-09
181	0x31d98c75	6.3314993e-09
182	0xb1e618c5	-6.696697e-09
183	0xb2fce43e	-2.9440454e-08
184	0xb306c50c	-3.137852e-08
185	0xb0ee53ee	-1.7340633e-09
186	0xb445d8e9	-1.8425966e-07
187	0xb38b2b59	-6.480577e-08
188	0x31cc56af	5.947036e-09
189	0x301b3bc3	5.64736e-10
190	0x34974fa4	2.8183888e-07
191	0x31d3d839	6.16549e-09
192	0x3773c41b	1.4529588e-05
193	0x3ddbbe1f	0.10729622
194	0x30757426	8.929554e-10
195	0xbdc2c8a4	-0.095109254
196	0x3243ff9f	1.1408615e-08
197	0x375d1428	1.31773195e-05
198	0x3db9048e	0.09034072
199	0xbd09ac55	-0.033611614
200	0x3b2579f6	0.0025249696
201	0x3e00bd5a	0.12572232
202	0x3d28ff6b	0.04125921
203	0xb111735a	-2.1165847e-09
204	0x3283010f	1.5250889e-08
205	0xaf7c77e7	-2.2961864e-10
206	0x3de24bf5	0.11049644
207	0x3dfa2ec3	0.1221595
208	0x3267f429	1.3501485e-08
209	0xb0b6b002	-1.3292267e-09
210	0x389ead30	7.566286e-05
211	0xb78004a2	-1.5260946e-05
212	0x32a75a1f	1.9482341e-08
213	0xbdd9ede0	-0.10641074
214	0xb214f485	-8.670331e-09
215	0x3d64d6e7	0.05586901
216	0xb492421f	-2.724273e-07
217	0x3cad3ffe	0.021148678
218	0xbda13eaf	-0.07873284
219	0x3299b7de	1.7895157e-08
220	0xb1a87c87	-4.9036006e-09
221	0x310616a6	1.951244e-09
222	0x3dcc2c00	0.0996933
223	0xafe9b718	-4.251255e-10
224	0xb29591b4	-1.7412141e-08
225	0x3d50b8b5	0.0509574
226	0x3d413b3e	0.04717564
227	0xbdd49efc	-0.10381886
228	0xb126bd2a	-2.4263707e-09
229	0x3d94bdde	0.07262777
230	0x31e42abc	6.6405317e-09
231	0x31168ce4	2.190796e-09
232	0x38d5f8d9	0.00010202983
233	0xbd0c3e96	-0.034239374
234	0x358f3406	1.0669471e-06
235	0xbd38aefe	-0.04508876
236	0xbaab5b94	-0.0013073557
237	0x3d67c3a6	0.05658307
238	0xbcaf1787	-0.021373523
239	0x3d2aed17	0.041730013
240	0xb442428a	-1.8091865e-07
241	0xb1ef8fe4	-6.972174e-09
242	0xb25515f7	-1.2403226e-08
243	0x3d3030f4	0.043015435
244	0x30b082c3	1.284285e-09
245	0x2ff3c3e5	4.4340634e-10
246	0x39563af9	0.000204306
247	0x39dd77b6	0.00042241596
248	0x3dffb1e6	0.12485103
249	0xb5d67212	-1.5977441e-06
250	0x3d17323f	0.036913153
251	0xbd15a51f	-0.036534425
252	0x3175ec3a	3.5786472e-09
253	0x32608016	1.3067639e-08
254	0x3cf64f58	0.03006713
255	0x38fa2df9	0.00011929492

convs.0.lin_pos_r.weight f4 [32, 32]
0	0x36e496ad	6.8124705e-06
1	0xbe9c089e	-0.30475324
2	0xb2c86887	-2.3330598e-08
3	0x3db8dc80	0.09026432
4	0x31a01dec	4.6600146e-09
5	0x3714ea9a	8.87611e-06
6	0xbe8fdf72	-0.28100163
7	0xbb7a48cc	-0.0038190363
8	0x3c9de1bc	0.019272678
9	0xbf2b4468	-0.66901255
10	0x3db46e55	0.08810107
11	0xb29b7958	-1.8099556e-08
12	0x32852582	1.5500294e-08
13	0x32c98487	2.3459746e-08
14	0xbd562606	-0.052282356
15	0xbf0283e1	-0.5098248
16	0xb24a26ea	-1.17667955e-08
17	0x31b13911	5.1578657e-09
18	0x37cc06b3	2.4321815e-05
19	0x38da6f77	0.00010415812
20	0xb2961fe2	-1.7476797e-08
21	0x3e2f484b	0.17117421
22	0x32477707	1.1610388e-08
23	0x3e80c39c	0.25149238
24	0xb7d68e57	-2.557707e-05
25	0x3d87998b	0.06621083
26	0x3e4aeea6	0.198176
27	0x32e31a46	2.6438226e-08
28	0x31d4a402	6.1886576e-09
29	0x324449ee	1.1425511e-08
30	0xbf79fe69	-0.97653824
31	0x30503809	7.574959e-10
32	0x3596b8d9	1.1229669e-06
33	0xbf404661	-0.7510739
34	0x3108e462	1.9920425e-09
35	0x3ee05dbb	0.4382151
36	0xb3443944	-4.568689e-08
37	0x378a5cf8	1.6494174e-05
38	0xbd97229f	-0.0737965
39	0x3f06360f	0.52426237
40	0xbec28a72	-0.3799625
41	0x3dddcb81	0.10829831
42	0xbe63c0a6	-0.22241458
43	0xb2f03dbc	-2.796775e-08
44	0x320fbc6e	8.3665395e-09
45	0x32af11bf	2.0380751e-08
46	0xbf443269	-0.7663942
47	0x3e351503	0.17683797
48	0xb33dfd84	-4.4235563e-08
49	0x30a891db	1.2265063e-09
50	0xb880214c	-6.109718e-05
51	0xb843878f	-4.661787e-05
52	0x32a8d1c7	1.965317e-08
53	0x3e86abdf	0.26303002
54	0xb2d613a8	-2.4921817e-08
55	0xbf03cbbd	-0.51482755
56	0x36b8f34e	5.5119517e-06
57	0x3e305e5d	0.17223497
58	0x3ee7cfa3	0.45275602
59	0x32caf99f	2.362941e-08
60	0xb29a066c	-1.793088e-08
61	0xb024b0b0	-5.991394e-10
62	0xbf057ddb	-0.52145165
63	0x31630d1a	3.3040295e-09
64	0x31ccae07	5.956966e-09
65	0x333e0fc6	4.4252168e-08
66	0x32ed035e	2.7591962e-08
67	0xb464e372	-2.1316899e-07
68	0x31de5673	6.4708785e-09
69	0x31ce898a	6.0110255e-09
70	0xb421b96c	-1.506175e-07
71	0x33eda44a	1.10660565e-07
72	0xb4b2e6b0	-3.332293e-07
73	0xb43d9076	-1.7654551e-07
74	0x34060838	1.2482712e-07
75	0x32deb1cc	2.5925054e-08
76	0x30260994	6.040406e-10
77	0x32a418a6	1.9103322e-08
78	0xb3d95993	-1.01211434e-07
79	0x343e6a79	1.7733863e-07
80	0xb2559452	-1.2431956e-08
81	0xb17068ad	-3.4984098e-09
82	0x32290b13	9.839613e-09
83	0xb2b908cb	-2.1540833e-08
84	0x326755a4	1.3465442e-08
85	0x331b245b	3.6121815e-08
86	0x3244b8a1	1.1450681e-08
87	0xb50ff518	-5.362831e-07
88	0x3149bd50	2.9356961e-09
89	0x34dcb754	4.1111582e-07
90	0x35125828	5.451752e-07
91	0x32e405bf	2.6545306e-08
92	0x31410b8d	2.8091762e-09
93	0x325ebf38	1.2965579e-08
94	0x3471a0ce	2.2503374e-07
95	0x3105bb13	1.9460387e-09
96	0xb792f77f	-1.7519806e-05
97	0xbebce859	-0.36896017
98	0xafb530bf	-3.2958344e-10
99	0x3e1d75bf	0.15376948
100	0x3237c372	1.0696441e-08
101	0x37a9649f	2.0193225e-05
102	0x3db95a76	0.09050457
103	0x3e9a1c9a	0.30099946
104	0xbb9ed215	-0.004846821
105	0xbe5d2279	-0.21595182
106	0x3d42ba4a	0.04754094
107	0x32828342	1.5193681e-08
108	0xb2eaf63c	-2.735316e-08
109	0x312f0927	2.5471054e-09
110	0xbd6e9f7c	-0.058257565
111	0xbe5b2b68	-0.21403277
112	0xb2b0fc42	-2.060381e-08
113	0xb28d1864	-1.6425652e-08
114	0x38cefeb5	9.870288e-05
115	0xb7de9087	-2.6531763e-05
116	0x301b31bf	5.6459365e-10
117	0x3ee8c3b6	0.45461816
118	0xb12667c2	-2.4215159e-09
119	0x3d984680	0.07435322
120	0x37ea500d	2.793225e-05
121	0x3d3e77ed	0.04650109
122	0x3d386cc6	0.04502561
123	0x3135e363	2.646822e-09
124	0xb2cf18ce	-2.4109251e-08
125	0xb1e6cce4	-6.7171744e-09
126	0xbf647400	-0.892395
127	0x31f55d69	7.141058e-09
128	0x32816bdb	1.5066624e-08
129	0xb80368ee	-3.1330557e-05
130	0x3218f62c	8.9035375e-09
131	0x3a847f4a	0.0010108736
132	0x325b3c6d	1.2761217e-08
133	0x31159f0b	2.177276e-09
134	0xb9b8030a	-0.0003509748
135	0x393c17bd	0.0001793792
136	0xb9d79b39	-0.00041123645
137	0xb8fa7aad	-0.00011943779
138	0xba935072	-0.0011239185
139	0xb2645de4	-1.3292695e-08
140	0xb0877642	-9.856154e-10
141	0x31bb9449	5.4592744e-09
142	0x3908a058	0.00013029703
143	0x37850dbf	1.5861237e-05
144	0x303e4a7a	6.9227435e-10
145	0x30878d49	9.862698e-10
146	0x3297ae95	1.7658104e-08
147	0x30699a0d	8.4983826e-10
148	0xb23cdbdb	-1.099303e-08
149	0x3a3bfd10	0.0007171193
150	0x316804ce	3.3763174e-09
151	0xba56bbb8	-0.00081914244
152	0xb281dd6c	-1.5118268e-08
153	0xba9b3704	-0.0011841957
154	0xba876d1f	-0.0010332203
155	0x31c4caba	5.727398e-09
156	0x32e4578a	2.6582502e-08
157	0xb2031b2f	-7.631384e-09
158	0xb93a858c	-0.00017788092
159	0xb0be4df1	-1.3846472e-09
160	0xb631d26c	-2.6497537e-06
161	0x3e25f830	0.16207957
162	0x3268cfc5	1.3551419e-08
163	0x3def6a87	0.1169024
164	0xb1dd6104	-6.442976e-09
165	0xb7ff13e6	-3.0407635e-05
166	0x3f547b05	0.8300021
167	0x3ec0de39	0.37669542
168	0x3e76567a	0.24056426
169	0x3f674321	0.90336806
170	0xbe1ecaa9	-0.15506996
171	0x32dc95f2	2.5679558e-08
172	0xb1e56a38	-6.676853e-09
173	0xb2c29692	-2.2653044e-08
174	0x3debf094	0.11520496
175	0x3f25d968	0.6478486
176	0x31a3dc2d	4.7689555e-09
177	0x330b03d2	3.2366934e-08
178	0xb956af24	-0.00020473875
179	0x358a7656	1.0316242e-06
180	0xb3b84227	-8.580201e-08
181	0x3eb75497	0.35806724
182	0xb2800240	-1.4902184e-08
183	0xbe933287	-0.28749487
184	0x37a11463	1.9202189e-05
185	0x3c085622	0.008321317
186	0xbe43d6dd	-0.19124933
187	0xb20fff21	-8.381705e-09
188	0xb31fa7b3	-3.7172594e-08
189	0x305f9507	8.133871e-10
190	0x3f4ee56c	0.8081882
191	0xb190bee4	-4.2126533e-09
192	0xb6ad4817	-5.164194e-06
193	0x3f1a2fb6	0.6022905
194	0x2f92dced	2.6714223e-10
195	0xbf97465f	-1.181835
196	0xb1ff8474	-7.436535e-09
197	0x3667a30a	3.4516584e-06
198	0x3e49989e	0.19687125
199	0xbfa38311	-1.2774373
200	0xbdfb0983	-0.122576736
201	0x3f3303f0	0.69927883
202	0x3d296c27	0.041362908
203	0xb0c72ef6	-1.4492503e-09
204	0xb0e64697	-1.6754765e-09
205	0xb0a53e49	-1.2023033e-09
206	0x3f0965d6	0.53671014
207	0x3f131016	0.5744642
208	0x3230ec8f	1.02983355e-08
209	0xb1c82f10	-5.8261165e-09
210	0xb7b33348	-2.1362343e-05
211	0xb80042a2	-3.0579635e-05
212	0x321893ff	8.881215e-09
213	0xbf805e44	-1.0028768
214	0xb21eedf2	-9.250913e-09
215	0x3df8ad53	0.12142434
216	0x37a74e5e	1.9944444e-05
217	0xbd7d701a	-0.061874487
218	0xbeb06c4b	-0.3445762
219	0x322fb037	1.0226407e-08
220	0x328b28ff	1.6200373e-08
221	0xb2afe7d3	-2.0478103e-08
222	0x3f8860e7	1.0654572
223	0x323be8d6	1.0937773e-08
224	0x370c1b85	8.351058e-06
225	0xbf1ca31d	-0.6118639
226	0xb19a2aa2	-4.4868367e-09
227	0x3e25f592	0.16206959
228	0xb2a2c2bf	-1.8947842e-08
229	0x37fdfd47	3.0277892e-05
230	0xbee72b47	-0.45150205
231	0x3d3a14a8	0.045429856
232	0xbeebffa6	-0.46093482
233	0xbea33b5e	-0.3188123
234	0x3e930454	0.2871424
235	0xb2bf2f79	-2.2256915e-08
236	0x320e11a4	8.269499e-09
237	0x3035f955	6.620174e-10
238	0xbedec7ca	-0.43511802
239	0xbe3a0c66	-0.18168792
240	0xb186742b	-3.91312e-09
241	0x32157317	8.69911e-09
242	0x390bf549	0.00013347449
243	0xb87c060b	-6.008711e-05
244	0xb27f4f33	-1.4860961e-08
245	0xbcb59a71	-0.02216837
246	0x322c6a94	1.0035951e-08
247	0x3aff2514	0.0019466006
248	0xb7e3f622	-2.7175123e-05
249	0x3d97bde0	0.07409263
250	0x3e55d0f0	0.20880485
251	0xb23d7c2d	-1.1029482e-08
252	0x31955321	4.3459214e-09
253	0x31ef84af	6.9709e-09
254	0xbf8169ba	-1.011039
255	0x3170265a	3.4946397e-09

convs.0.lin_pos_r.bias f4 [32]
0	0x3cfe4e9e	0.031043347
1	0x3dd9d9fe	0.10637282
2	0xbcc86fef	-0.024467437
3	0x3cdc4cf0	0.026892155
4	0xbcc5aa8f	-0.02412918
5	0x3e51a4b6	0.20472988
6	0x3cffce70	0.031226367
7	0x3d81851c	0.06324217
8	0xbc953de8	-0.018217996
9	0xb787a5da	-1.6170485e-05
10	0xbc7f5410	-0.015584007
11	0xbc8e97f9	-0.01740645
12	0x3d443118	0.047898382
13	0xbcdbefec	-0.026847802
14	0xbd59be65	-0.05316009
15	0xbc82ab59	-0.015950846
16	0xbbd23037	-0.006414439
17	0x3d4e5bb5	0.050380427
18	0xbd14aeca	-0.036299504
19	0xbd05b7ba	-0.03264592
20	0xbd81c3b9	-0.06336159
21	0x3d261add	0.040552963
22	0xbca31a1e	-0.019909915
23	0x3e01ac15	0.126633
24	0xbb45d88f	-0.0030188893
25	0xbb4a997a	-0.0030914233
26	0xbd257de2	-0.040403254
27	0xbc971ceb	-0.018446406
28	0x3dd1041d	0.10205863
29	0xbd3fdbb9	-0.046840403
30	0xb9ccc50a	-0.00039056718
31	0x3d31d4ce	0.043415837
