wiki-RfA/models/wiki-RfA-train-5.pt (torch, 63739 bytes, 14 tensors)

conv1.lin_pos_l.weight f4 [32, 64]
000000 ce ff 00 3e 11 09 55 bd 12 e5 59 3c 3a c2 12 3d
       0.12597582 -0.0520106 0.0132992435 0.03582976
000010 5b 29 dc 3c 11 30 95 3d 07 8c cc 3b 11 4c f0 bd
       0.026875189 0.072845586 0.0062422785 -0.117332585
000020 4e 24 7c bc 64 ba d6 bb 49 4d c2 3c aa d8 01 bd
       -0.015389515 -0.006552981 0.023718493 -0.031700768
000030 42 86 2d 3d 15 f8 1f 3d e2 92 8e bd 35 11 6d 3d
       0.042364366 0.03905495 -0.069616094 0.057877738
000040 2b 3d 6f bc 7b 10 74 bd ff e9 26 bd ca 5d 1e bd
       -0.014601986 -0.05958603 -0.0407505 -0.038663663
000050 4c 6c ff 3c 52 0a f0 3c 5e c1 36 bd 0e 55 29 bb
       0.03117957 0.029301796 -0.044618003 -0.002583805
000060 18 15 b3 bc d7 42 34 bc 43 a7 95 3d 51 fa f4 ba
       -0.021860644 -0.011002264 0.07307293 -0.0018690323
000070 92 da 95 3c a7 e3 c5 3b fb 16 57 3d a3 61 be bb
       0.018292699 0.006039101 0.05251215 -0.005809979
000080 8f 7d 95 bd 82 b2 be 3a 5a 03 a0 3b ca de 70 3c
       -0.07299339 0.0014549049 0.004883212 0.014701555
000090 9e 8c 86 3c 3f 07 90 bd 79 19 4f bd 14 1e 50 3d
       0.016424473 -0.07032632 -0.050561402 0.050809935
0000a0 08 45 b7 bc bc 7a 4f bd 75 b0 41 bb 1f ce 07 bd
       -0.022371784 -0.050654158 -0.002955464 -0.033155557
0000b0 4f 96 02 bc 0c 55 c3 bc 13 34 90 bc 0b 99 41 3c
       -0.007970407 -0.023844264 -0.017602956 0.011816273
0000c0 83 98 00 3c 74 bf 5a 3d e0 4b 01 bd b5 2e 98 bc
       0.007848862 0.05340524 -0.0315665 -0.01857696
0000d0 60 43 86 3c d2 ed f1 bc 38 f1 4b b9 fa d7 bf 3c
       0.016389549 -0.029532347 -0.0001944945 0.023418415
0000e0 85 07 64 bc 7f f9 95 3c d4 5e 9a bc e8 b8 a8 bc
       -0.013917808 0.018307446 -0.018844046 -0.020595983
0000f0 17 7f 2b bc af 72 f3 3b f1 38 df 3b da 11 e6 39
       -0.010467312 0.007429443 0.006812208 0.0004388232
000100 81 fa 0d bf a3 ad 94 3d 88 44 c4 3d 9d ac 8d bd
       -0.55460364 0.07259681 0.09583384 -0.06917689
000110 b8 cb 53 3c 2c 96 80 bd 77 56 4f bc 8e e5 c6 3e
       0.012926988 -0.06278643 -0.012654892 0.3884701
000120 36 b5 8a bd 40 46 b1 3d ea 65 28 3e d0 29 aa 3c
       -0.067728445 0.08655977 0.16445127 0.02077189
000130 f6 f5 d3 3c 9a 8a 29 be 11 06 55 bb 2b a1 f8 3d
       0.02587412 -0.16556779 -0.0032504837 0.12140115
000140 bc 7a 0c 3e 49 2f aa bd 1a 74 9d bc 56 81 86 bd
       0.13718694 -0.083098 -0.0192204 -0.065676376
000150 c6 c3 ba 3d b9 88 db 3d 1f 1e 82 bd fa 1f 9e bd
       0.09119372 0.10719437 -0.063534014 -0.07720943
000160 86 ae e3 3c 5f e9 b4 bc a4 9f 04 be f3 8e bc 3d
       0.02779318 -0.022083936 -0.12951523 0.09206953
000170 86 34 56 3d c4 15 94 bd 1d 27 6a 3d 59 37 7a 3d
       0.052296184 -0.07230714 0.057166208 0.06108794
000180 be fb 80 bd bb f2 24 3c 9f 95 3c bd 69 27 1f bd
       -0.06298016 0.010067637 -0.046041127 -0.038855944
000190 01 b7 80 bd f7 7b a4 bd a3 27 fa 3d c9 5e d1 3d
       -0.06284905 -0.08031457 0.12214591 0.10223157
0001a0 ad 9e 76 3d 26 8e 1d bd 14 61 25 3d 93 e9 5e bc
       0.06020992 -0.03846564 0.040375784 -0.013605493
0001b0 e2 7a 30 bc 78 a2 91 3d 4a e7 56 bd 3a 64 be bc
       -0.010771485 0.071110666 -0.05246667 -0.023241151
0001c0 48 db 45 bd 0f d1 41 bc 33 60 58 3d c9 81 18 3d
       -0.048304826 -0.011829629 0.052826118 0.037233148
0001d0 00 64 0f 3b 94 d1 6d bc 15 70 94 bd 44 11 69 bc
       0.0021879673 -0.014515299 -0.072479405 -0.014225308
0001e0 85 07 e9 3d 4b 82 4d bd 7a fe de bd 60 3d 0c bd
       0.11378387 -0.050173085 -0.10888381 -0.03423822
0001f0 f4 0c 90 bd e9 2a 61 3d 66 7b c3 bb e4 08 3e 3b
       -0.070337206 0.054972563 -0.005965638 0.0028996998
000200 da 69 66 32 4b 06 55 32 22 54 92 31 8d 08 01 b2
       1.341183e-08 1.2399663e-08 4.258724e-09 -7.5107325e-09
000210 18 22 fc b1 0f 59 94 32 1c d3 1f b2 6d ed bf b2
       -7.3380413e-09 1.7269967e-08 -9.303019e-09 -2.2343295e-08
000220 cf 18 d3 31 3c 5a 41 31 ae 98 a4 31 3d 1e 84 b1
       6.1437286e-09 2.8136489e-09 4.790386e-09 -3.8451433e-09
000230 10 3d c0 b1 82 1f 78 31 73 94 01 b1 f8 d4 ba 31
       -5.5948775e-09 3.610666e-09 -1.8856354e-09 5.437524e-09
000240 7b 52 8e b2 e1 60 93 b2 fc 95 a7 b1 99 86 68 31
       -1.6568483e-08 -1.7157108e-08 -4.877391e-09 3.3836953e-09
000250 a5 56 7a b1 5b fb 2d 30 9a a3 4d 31 7a 6f 7c 32
       -3.642904e-09 6.329423e-10 2.9924423e-09 1.4693677e-08
000260 b2 6c 38 32 3a 4d 0f b2 80 af a4 2f 54 38 87 31
       1.0734924e-08 -8.341255e-09 2.9956126e-10 3.935421e-09
000270 86 78 23 b1 a5 d0 89 b1 af 4a b6 30 ff e4 09 b0
       -2.3788131e-09 -4.010945e-09 1.3263469e-09 -5.016573e-10
000280 b0 9a b8 af 45 38 84 31 dc 76 eb 30 7b 13 6b 31
       -3.3579317e-10 3.8481027e-09 1.7132282e-09 3.4208074e-09
000290 9e e9 28 b1 88 61 c8 31 42 76 7a b1 10 e5 a4 b1
       -2.4580014e-09 5.831854e-09 -3.644701e-09 -4.7990696e-09
0002a0 0d f6 67 32 1b 86 cc 31 44 35 87 32 80 a2 b9 b1
       1.3501915e-08 5.9524274e-09 1.574029e-08 -5.4026827e-09
0002b0 1d 19 13 b1 26 5e 89 31 a9 65 63 30 73 3d 2c 32
       -2.140559e-09 3.997928e-09 8.2726587e-10 1.002569e-08
0002c0 9f 56 3a 31 41 48 48 b2 f2 88 21 31 10 2f 07 b2
       2.71158e-09 -1.1657961e-08 2.3506428e-09 -7.868735e-09
0002d0 f7 88 99 31 c6 8f fc 31 83 e5 5f 32 fe 67 89 b1
       4.468457e-09 7.3505104e-09 1.3032493e-08 -3.9990473e-09
0002e0 d8 c8 57 b2 0d 6c 0e b1 2d b2 4b b2 33 09 c7 b0
       -1.2560314e-08 -2.072514e-09 -1.1856668e-08 -1.448177e-09
0002f0 8a 9b 54 b2 53 6a d9 b1 13 78 16 31 fe 64 37 31
       -1.237539e-08 -6.327619e-09 2.1896127e-09 2.6687412e-09
000300 ba 05 2f 3c 6c ed ea 3c d0 f9 e6 bb cb 75 4e 3c
       0.010682518 0.028677665 -0.007048823 0.012601326
000310 65 0c b4 3a db 7c cc bc 82 73 f5 39 27 2f 7b bd
       0.0013736604 -0.02496188 0.00046816102 -0.061324265
000320 c1 8f e0 bc 5a 43 c0 3d bd 4d 42 3d 01 cb 80 bc
       -0.027412297 0.09387846 0.04743742 -0.0157218
000330 25 ba 8b bd fa 26 90 bc 29 d6 db bc 85 eb 74 3d
       -0.068226136 -0.01759671 -0.026835518 0.05979492
000340 36 da 5f bc d9 3b 6c 3b 93 b9 1e bd c1 ae 9e bc
       -0.013662865 0.0036046414 -0.038751196 -0.019370439
000350 23 96 8c 3c 57 39 19 3a af 6a 5d 3c 33 34 13 bd
       0.017161435 0.0005845031 0.013514205 -0.035938453
000360 3d 05 96 3c c5 b5 3e 3c 6c f0 a3 3d aa 81 a5 bc
       0.018313045 0.011640017 0.08004841 -0.02020343
000370 d7 57 ef bc b3 e3 de 3c ac c4 2f 3d dc f9 8d bc
       -0.02921669 0.027208185 0.04291217 -0.017331056
000380 b2 e6 fc bc 65 0e e1 3c f9 9f 65 3c 61 02 3c bd
       -0.030871723 0.027472684 0.014015191 -0.045900706
000390 bb c1 e6 3c 16 3b 3c 3b a5 b5 0f 3b d6 af 66 3c
       0.02816855 0.0028721741 0.0021928337 0.0140800085
0003a0 18 ab d6 bc 8f 5e 53 bb 73 e2 e9 39 7b 3e 75 bd
       -0.02620463 -0.0032252406 0.0004460994 -0.05987404
0003b0 b9 94 fc 3c d8 c4 54 bb 92 54 de bc 6d a0 e6 bc
       0.030832635 -0.003246596 -0.027139936 -0.028152669
0003c0 4c a2 39 bd d1 0d b8 bc 38 44 48 b9 df 59 0d 3c
       -0.045320794 -0.022467526 -0.000190989 0.008627384
0003d0 a4 d8 92 bc 7f 8b 0d bc 85 89 46 3c af 48 0f 3b
       -0.017925568 -0.0086392155 0.012117748 0.002186339
0003e0 0e 96 67 3c 7c 98 4e bd 66 3c 67 3c 74 fb 42 bd
       0.014134897 -0.05043839 0.014113521 -0.047603086
0003f0 82 9e bb bb a4 46 f3 bc 96 62 be bc 3f ea 9c 3c
       -0.0057256827 -0.02969677 -0.023240369 0.019154666

conv1.lin_pos_r.weight f4 [32, 64]
000000 b9 5e 08 bf 8c 47 41 bd 64 ed 19 3d 90 76 bd bc
       -0.53269535 -0.047187373 0.03757991 -0.023127824
000010 d4 27 9f bd 24 41 2a 3e 8e 7b da 3b 0d 87 48 3e
       -0.077712685 0.16626412 0.006667561 0.19582768
000020 86 a1 d4 3c 65 d9 cb bd 8c d9 89 bd db 70 c4 3d
       0.025955927 -0.09953574 -0.06730947 0.09591838
000030 79 5d 5c 3c b3 0f 2c b9 0f fb 8b ba 47 cf 7f 3c
       0.01345002 -0.00016409047 -0.001067968 0.015613384
000040 0f b4 91 3b a3 c3 52 bc 0f f1 c9 bc 00 4f e4 3d
       0.0044465135 -0.012864026 -0.024651079 0.111478806
000050 48 92 bf bd 6c a7 8c bd e1 30 92 bd 9a 35 33 bc
       -0.09354073 -0.06867871 -0.07138229 -0.010938073
000060 9e 47 30 bd 30 79 59 bd 00 13 ea 3d 8b 6d 06 bc
       -0.04303705 -0.05309409 0.11429405 -0.008204828
000070 bb 47 02 3e 9b aa 20 bd 19 7d 1a 3d ca d2 9f 3d
       0.12722676 -0.039225202 0.03771696 0.07803877
000080 24 e5 ef bd f1 a5 bc 3b 1f 06 b8 3d 1f 41 c7 bb
       -0.11713627 0.0057570864 0.089855425 -0.006080761
000090 ae 15 c8 bd c4 8f 86 3d 7e 54 6b bd c9 5a 4f 3d
       -0.0976976 0.0657039 -0.057453625 0.05062369
0000a0 4d bd bc bd 69 b5 47 bd c2 5f 9b 3d 5e e6 7f 3d
       -0.09215794 -0.04875699 0.07586624 0.062475555
0000b0 70 79 83 bc 55 81 76 3c d6 2c 63 3c 54 33 ec bc
       -0.016049117 0.015045484 0.01386567 -0.028833069
0000c0 80 8e e0 3c 14 b9 fc 3c 5b ca ad 3d 18 31 2f 3e
       0.0274117 0.03084997 0.08485862 0.17108572
0000d0 da 02 d5 bb 99 3d 83 3d a4 bb e4 b9 36 ed 6a 3d
       -0.006500584 0.06408233 -0.00043627352 0.05735513
0000e0 a8 85 5a bd 0e 72 4a 3c d3 b6 53 bc 3e a0 c8 3c
       -0.05335012 0.012356294 -0.012922007 0.024490472
0000f0 b3 a3 c3 3c 24 5a 5b bd a1 8b 96 3d 94 9e ab bc
       0.023881769 -0.05355276 0.07350851 -0.02094964
000100 62 96 99 bf a1 b9 a7 3d b5 41 48 3d f1 92 9f bd
       -1.1999018 0.08189703 0.048890788 -0.07791699
000110 0d 2b e7 bd 52 e7 53 3c bd 46 0b be fc 77 38 3f
       -0.11287508 0.012933569 -0.13601203 0.7205808
000120 31 ef e6 bd ef 94 9a 3c 27 28 9c bc 7e 97 3e 3e
       -0.11276091 0.018869845 -0.019062115 0.18612477
000130 24 47 08 3d 4b 8c 69 be 00 c1 07 be 67 cf a6 bd
       0.03327097 -0.22807424 -0.13257217 -0.081450276
000140 23 c9 b7 3c bd 38 df 3d c3 ff 95 3e d5 8c b9 3d
       0.022434777 0.10899494 0.29296693 0.09060065
000150 75 4c 36 bd 52 0e b1 3d f1 8b d9 bd 29 39 07 3e
       -0.04450651 0.086453095 -0.10622395 0.13205399
000160 ba ad 0d 3d 5a 1b dd bd 79 de e0 bc 95 fd 3c 3d
       0.034589507 -0.107962325 -0.027449833 0.046140272
000170 5c 40 a2 bd 0b 74 71 be 55 aa bf 3c 4f c5 38 3c
       -0.07922432 -0.23579423 0.02339665 0.011277511
000180 56 6e b4 3d d0 33 c2 bd 82 c3 aa bc 17 e2 df bd
       0.088101074 -0.09482539 -0.020845179 -0.10931795
000190 5a 76 1b 3c b6 5d 0a be 96 03 8a 3c da 33 c4 bd
       0.009488666 -0.1351231 0.016847413 -0.095802024
0001a0 68 19 9d bd 5d e8 c2 bd 93 4a 21 3e 88 a4 77 3c
       -0.076708615 -0.09516976 0.15751104 0.015114911
0001b0 f7 31 91 3d 5e 88 99 3c 8a 53 8b bc 8f 33 40 ba
       0.07089608 0.018741783 -0.017007608 -0.00073319016
0001c0 4b a2 20 be 5c cf c8 ba 56 6b cb 3d bc 62 b4 3d
       -0.1568691 -0.0015320587 0.09932582 0.088078946
0001d0 85 7e 73 bc ac d5 f2 3c 47 68 68 3b da 42 9f bc
       -0.014861708 0.029642902 0.0035462545 -0.019441057
0001e0 3b b0 8d 3c c0 f0 1d 3b aa 20 98 bd 99 e8 e5 bd
       0.017295947 0.0024099797 -0.07428105 -0.11226005
0001f0 b7 fb 35 bd f9 22 81 bd 3a 0d 37 3d 61 b3 c9 bc
       -0.044429507 -0.06305499 0.04469035 -0.024621667
000200 83 98 19 b3 3d c7 11 32 fc c1 1a b2 ea b2 d9 31
       -3.5761797e-08 8.485412e-09 -9.008087e-09 6.3358714e-09
000210 c9 86 24 b2 70 d3 1a 32 cd c6 2a 31 8d bb 5a b1
       -9.576703e-09 9.012055e-09 2.485126e-09 -3.1829785e-09
000220 c1 85 fe b1 d1 9b 44 b1 f7 95 4b b1 5f df 06 32
       -7.407579e-09 -2.8610325e-09 -2.9625633e-09 7.850615e-09
000230 8f 35 a6 b1 25 c4 9d 31 f8 c1 cd 31 77 d8 84 31
       -4.8373248e-09 4.5916004e-09 5.988337e-09 3.866315e-09
000240 8a d4 bb 31 03 ac 30 b2 f2 4d 24 32 df b0 2a b2
       5.466579e-09 -1.0283659e-08 9.563779e-09 -9.935518e-09
000250 b9 a5 78 31 d5 bf 61 31 db 0b d9 b1 e9 12 f2 b0
       3.6182952e-09 3.2850853e-09 -6.316879e-09 -1.7613192e-09
000260 93 e7 0a 32 b7 3a 56 b2 de b3 87 31 fa f5 41 32
       8.085311e-09 -1.246979e-08 3.9494656e-09 1.1290007e-08
000270 c5 75 89 b2 90 57 04 32 41 26 b7 b1 11 d5 8d 32
       -1.6002454e-08 7.703321e-09 -5.33035e-09 1.6511452e-08
000280 28 eb 92 b2 55 bd 0c b2 a8 0c 51 32 b3 33 94 b2
       -1.7103574e-08 -8.192122e-09 1.2168279e-08 -1.7252978e-08
000290 f9 7e dd ad 3e 27 0f 32 eb b1 e7 b1 62 66 9b 31
       -2.5181178e-11 8.332618e-09 -6.7432118e-09 4.5227333e-09
0002a0 dd 6f 3a 30 80 29 eb 30 0a f5 76 b0 80 67 83 32
       6.7825373e-10 1.7110295e-09 -8.98425e-10 1.5297474e-08
0002b0 bc 9a 30 b2 20 0d ae af ea b9 03 30 49 40 10 b1
       -1.0279731e-08 -3.1659741e-10 4.792172e-10 -2.09913e-09
0002c0 51 60 4b b2 03 5d d6 31 97 d8 59 b1 43 5f 4d 31
       -1.1838055e-08 6.238794e-09 -3.1700773e-09 2.9885576e-09
0002d0 1e 16 29 b2 14 17 db b1 5c 17 e9 b1 e5 77 da b1
       -9.842124e-09 -6.3763625e-09 -6.783848e-09 -6.3582655e-09
0002e0 9d 34 68 b1 7f 8f 29 b2 f1 3a 86 31 c5 5d 61 31
       -3.379035e-09 -9.869722e-09 3.906614e-09 3.279511e-09
0002f0 9a 77 a5 31 a2 52 8e 32 3a 2a f6 31 26 7b 54 31
       4.815729e-09 1.6568553e-08 7.164343e-09 3.0920062e-09
000300 38 c6 a2 3e dc 72 8a 3d a0 2c c3 bd af 5b 8e bd
       0.31791854 0.06760189 -0.09529996 -0.06951081
000310 58 a5 1a 3c 27 67 10 be 27 cc bf bc 0f 0f ae 3d
       0.009438835 -0.1410185 -0.023412777 0.08498966
000320 e0 41 a9 3d 1f b0 41 3d e9 58 52 3e ea 64 5b 3d
       0.08264518 0.047287103 0.20541729 0.053563036
000330 93 32 07 be 64 d4 b5 bc ac 8d 04 3e c7 78 e7 3d
       -0.13202886 -0.022196002 0.12944669 0.11302333
000340 5d 21 80 bd 20 c9 96 bc c9 ec d8 3d 0a c0 d3 bd
       -0.062563635 -0.01840645 0.10592038 -0.10339363
000350 b3 91 38 bd ae 5b 9c bc d0 f5 00 bd ce 27 ee bd
       -0.045060825 -0.019086685 -0.031484425 -0.11628686
000360 96 79 94 bc 78 7a 7d 3b 8e 25 72 bd 2d 1b 64 bc
       -0.018124383 0.0038677733 -0.059117846 -0.013922495
000370 f2 8d 2b 3b 4f 4b d8 bc c9 24 8f bd d2 75 24 bd
       0.0026177135 -0.026403097 -0.06989438 -0.040151425
000380 ee 1b 4d 3c ff c0 ec bc e5 88 06 bc 86 4f 82 bd
       0.012518866 -0.028900621 -0.008211349 -0.06362824
000390 3c 97 5d bc 87 a7 2d 3c c5 af b3 bc c0 4f 6b 3d
       -0.013524827 0.010599024 -0.0219344 0.057449102
0003a0 1f 2c 5c bd 1e d0 e3 3d cd 23 01 3d 78 9a a7 bd
       -0.053753015 0.111236796 0.031528283 -0.081837595
0003b0 92 c6 91 3d 89 9d ad bd dc 28 c1 bc 28 74 20 bc
       0.071179524 -0.08477313 -0.023579054 -0.009793319
0003c0 72 82 83 3b aa c5 93 bd 05 cd 2a bd e7 01 52 3d
       0.004013353 -0.07215436 -0.041699428 0.051271345
0003d0 2f c7 4a 3b 03 1b d9 bd 66 5b ed bb 6d e7 42 bd
       0.0030941477 -0.10600855 -0.0072435616 -0.047583986
0003e0 c2 69 08 3e 32 1a 95 bc a8 c4 d1 bc d3 08 81 bd
       0.13321593 -0.018200967 -0.025606468 -0.06300511
0003f0 de be e7 bd a4 16 28 3d db 3b 97 bd b0 72 70 3d
       -0.11315702 0.041037217 -0.073844634 0.058703125

conv1.lin_pos_r.bias f4 [32]
000000 8d a5 f3 3d a4 46 92 3c 3f 80 40 bc 0c d8 b4 3d
       0.11896811 0.01785595 -0.011749326 0.0883027
000010 ae 10 3c 3c 7a c5 40 b8 ee 22 82 3c e0 0d 60 3a
       0.011478586 -4.596028e-05 0.015885796 0.00085469894
000020 b6 c7 a0 3d 00 b5 a2 3c 38 44 15 3d 5a 6f 04 bd
       0.07850592 0.019861698 0.03644201 -0.032332756
000030 53 d6 c3 bc 82 bb 48 bd 2e 5d 94 3c fb 29 4f 3c
       -0.023905909 -0.049006946 0.018110838 0.012644286
000040 9e 13 5e bd 47 0f d5 bc a7 fa 26 3a 1b bd 2d bb
       -0.054217927 -0.026008261 0.00063697476 -0.002651042
000050 47 9d 0f bd da 9b d6 39 cf dd d0 bc 1b 4c 63 3d
       -0.0350621 0.0004093338 -0.025496392 0.0554925
000060 7c e4 95 b7 a7 e5 54 bb 2b d3 8c b5 64 f2 70 bd
       -1.786858e-05 -0.0032485516 -1.0492271e-06 -0.05882491
000070 a2 9e 62 bc 72 78 4a bd 9b 35 a5 3c 9f ec cb b7
       -0.013831766 -0.04943127 0.020167163 -2.4309671e-05

conv1.lin_neg_l.weight f4 [32, 64]
000000 78 3c 3c 32 5b 73 34 31 cd 48 8a b1 c6 45 0d b1
       1.0956789e-08 2.625902e-09 -4.024605e-09 -2.0557862e-09
000010 a3 c9 15 32 1e 99 3d 32 88 8d ae b1 07 86 db b1
       8.718788e-09 1.1036063e-08 -5.0801567e-09 -6.388976e-09
000020 44 ad c5 b1 32 fd 09 b2 53 07 c4 b1 34 cb fe 30
       -5.7531526e-09 -8.0320195e-09 -5.7051834e-09 1.8538686e-09
000030 5b 71 0c 32 b9 ae 9f b2 de ad 78 32 f9 16 8a b2
       8.174847e-09 -1.858949e-08 1.4475033e-08 -1.6075761e-08
000040 7e fc e6 31 33 83 75 30 2b e2 62 32 b6 a1 48 31
       6.722586e-09 8.9316926e-10 1.3206356e-08 2.9195752e-09
000050 ea 8e 69 32 c0 51 be 31 0a f4 e8 31 f3 90 59 b2
       1.359488e-08 5.5390217e-09 6.7798327e-09 -1.266402e-08
000060 c9 58 67 32 50 b2 e4 b1 71 ec 47 b2 9f b9 20 32
       1.3466157e-08 -6.655945e-09 -1.1637085e-08 9.355431e-09
000070 91 e3 23 32 52 eb 2b 32 78 98 15 32 61 d3 ab 31
       9.539591e-09 1.0007016e-08 8.707609e-09 5.000786e-09
000080 af 81 8f b2 22 7f da 30 55 a4 6b b1 18 39 ba b1
       -1.6706364e-08 1.5897721e-09 -3.4290413e-09 -5.4198033e-09
000090 f1 dc ca 31 66 3f 36 31 17 b2 78 b2 20 aa f7 31
       5.904092e-09 2.6520524e-09 -1.4475993e-08 7.207987e-09
0000a0 0a 92 e4 31 19 fc e2 b1 44 93 6e 32 7b cc 0b 30
       6.652276e-09 -6.606126e-09 1.3886908e-08 5.085849e-10
0000b0 4f 2e 8c b1 d7 a9 26 32 69 07 67 b2 40 d2 96 b2
       -4.079801e-09 9.701089e-09 -1.34476545e-08 -1.7557909e-08
0000c0 51 74 64 31 7b b0 0e 32 92 cb 92 b2 03 f5 ed 31
       3.3244485e-09 8.305615e-09 -1.708921e-08 6.9254624e-09
0000d0 70 11 a7 32 12 2f 72 b1 0c 7c ad 31 81 e3 b9 31
       1.9449288e-08 -3.5242391e-09 5.049065e-09 5.410073e-09
0000e0 57 a1 f2 b0 8f c1 a8 31 33 e5 39 b2 e9 40 ce b1
       -1.7653673e-09 4.9114486e-09 -1.0820531e-08 -6.0027685e-09
0000f0 71 94 ae 31 ea 6d b5 31 3e 68 24 b2 f7 ed 02 b1
       5.0809423e-09 5.280289e-09 -9.569758e-09 -1.9052757e-09
000100 ef b8 a9 3d ee 12 ca bc 4f e0 59 3d 49 88 ab bd
       0.082872264 -0.02466723 0.053192433 -0.08375604
000110 2a f6 e9 3c 29 a8 8f 3c 77 c6 0a 3d 2a 34 70 bd
       0.028559763 0.01753624 0.033880677 -0.058643498
000120 7c 7d 40 bd f9 72 63 bd b6 3e 21 3c d4 5e 23 bd
       -0.04699467 -0.05552957 0.009841612 -0.039885357
000130 17 3f da 3c 6a dd 0a bd 22 a3 b1 bc a6 6f 58 3d
       0.026641412 -0.033902563 -0.021684233 0.05284085
000140 4a 9d d9 3c 76 dd 20 be 8c d2 e7 bc c2 4e 92 3d
       0.02656426 -0.1570948 -0.028298639 0.07143928
000150 1e 2d 9b 3d a5 81 b4 bc 64 6a 44 3d 71 96 a4 3d
       0.07576965 -0.022034476 0.047953025 0.08036507
000160 cd 56 08 3c ce 06 f8 3d a8 ec 9e 3c c8 30 c6 bc
       0.008321476 0.12110673 0.019399956 -0.024193183
000170 14 2b 87 3d 39 25 ad 3c 1c 90 91 3c 6d cc 06 3d
       0.066000134 0.021135913 0.017768912 0.0329098
000180 4f b1 c9 bb d2 d7 dc bc dd b3 af bc 00 90 8a bb
       -0.00615517 -0.02695838 -0.02144807 -0.004228592
000190 56 9c 41 3c 3e b6 04 3d 27 bb ea 3b b3 b4 84 bd
       0.011817059 0.032400362 0.0071634236 -0.06479778
0001a0 a4 cb 86 3d 76 53 6f 3c f8 c9 92 bd 46 a3 d7 3b
       0.0658181 0.014607301 -0.07167429 0.006580743
0001b0 81 bc be bd 32 0f a0 3d 63 8d de 3c 06 a3 5f bd
       -0.09313298 0.07815398 0.027167028 -0.05459883
0001c0 26 ec 70 bd 43 b9 01 3d e9 b8 77 3c f2 b9 9c bd
       -0.05881896 0.03167082 0.01511977 -0.07652654
0001d0 c6 2e 07 3d b0 7a 89 3d 26 24 11 be b8 94 45 3d
       0.03300359 0.06712854 -0.14173946 0.048237532
0001e0 d0 b5 6c 3d 53 a7 45 3d e4 4c 43 3d e6 4d ac 3c
       0.057790577 0.048255276 0.04768075 0.021033239
0001f0 fb 28 98 3d 4e 74 94 3d 0f 44 a1 3d 65 19 5d bc
       0.074296914 0.07248746 0.07874309 -0.013494824
000200 4a 9f 9f bc 64 d4 1b bc ff fd ad 3d 88 e9 d4 bc
       -0.019485135 -0.009511087 0.084957115 -0.025990263
000210 7a 62 2f 3c a4 e8 d4 3b 92 f7 11 3d a3 30 16 be
       0.010704631 0.0064974595 0.035636492 -0.14666991
000220 97 b8 30 bd 77 a0 90 bd 52 5d 37 bd e5 df 53 bd
       -0.04314479 -0.07061856 -0.04476673 -0.051727194
000230 70 21 4b bc 1a e3 e1 bc 65 28 4d 3d df f0 d8 bc
       -0.012398109 -0.02757411 0.05008735 -0.026482044
000240 95 71 20 bc d1 88 b5 bb 62 b1 14 3d ab 98 aa 3c
       -0.009792705 -0.0055399914 0.036301978 0.02082475
000250 b0 6e 37 3c ac 64 9a bd 95 0b 0a 3c b9 cb 7c 3c
       0.011195824 -0.07538733 0.008425613 0.015429431
000260 7e c7 f2 bb bc f5 cf bc 6d 4f 7b 3c 7c 00 e4 3c
       -0.007409035 -0.02538573 0.015338761 0.027832262
000270 54 47 24 3d 49 42 f4 bc d5 80 20 bd 78 b1 48 3d
       0.040107086 -0.029816763 -0.039185364 0.048997372
000280 a8 5c 50 bd 6a bd b4 3b 6f db 8d bc b4 82 03 3d
       -0.050869614 0.005515744 -0.017316548 0.03210707
000290 ad b1 0a 3d 88 ae ce bc 9d 8a 23 3d 9e f2 73 bd
       0.03386085 -0.025229707 0.039927114 -0.05955755
0002a0 7c 29 d0 3c 92 5d 2a 3b a1 f6 10 3c 99 58 ec bb
       0.025410406 0.0025995714 0.008847863 -0.00721271
0002b0 87 ae 37 bd ec 9c 38 bc 1a 59 1b 3d 58 75 51 bc
       -0.044844177 -0.011267882 0.03792677 -0.012784325
0002c0 c9 1e 66 bc 82 ab 96 3c a4 05 95 bc 9e cb bf bc
       -0.014045426 0.018392328 -0.018191166 -0.023412522
0002d0 75 af 2b bc cf 7b 4e bb 20 ee 64 bd 00 ef 03 bd
       -0.010478844 -0.00315069 -0.055891156 -0.03221035
0002e0 5d b8 5d bb ff cc 6e bd 09 92 17 bd 94 c7 36 bc
       -0.0033831813 -0.05830097 -0.037004504 -0.011155982
0002f0 3a 4c e1 3c dc 74 66 3d 2a a8 97 3c 62 4a ae bc
       0.027502168 0.05626379 0.018512804 -0.021275703
000300 28 94 0c bc 07 be 23 bd ee fe 42 bd a5 64 83 bd
       -0.008580245 -0.039976146 -0.0476064 -0.06415681
000310 c3 21 ae 3b 89 63 79 3c 22 8d 82 bb 1e 54 84 bc
       0.0053140833 0.015221485 -0.0039841095 -0.016153391
000320 65 03 1e 3d 5a 29 76 3d ab ae e3 bc cb 41 00 bd
       0.038577456 0.06009803 -0.02779325 -0.031312745
000330 87 3d c9 3b b0 e0 84 bb d1 c9 ea bc 2d 0d cb 3d
       0.006141368 -0.004055105 -0.028660687 0.099146225
000340 c3 61 6c bd 01 a2 61 bd f9 6f e2 3d cd 33 1d bd
       -0.05771042 -0.05508614 0.11056513 -0.03837948
000350 82 df 50 bd 83 fb 1e 3c 64 d7 cd bd 80 f0 f4 bd
       -0.050994404 0.00970352 -0.10050848 -0.11959934
000360 a8 d4 0b bd 73 cb b6 bc 45 1c 0f 3d 75 03 ec 3c
       -0.03413835 -0.022313809 0.03493907 0.028810242
000370 e1 7c 09 bd 51 b5 b0 bd 2e 00 87 3c b5 2f 86 3c
       -0.03356636 -0.08628333 0.016479578 0.01638017
000380 87 59 56 bd 2e 6c 14 bc cf bc d8 bc 7b 27 96 3c
       -0.052331474 -0.009058995 -0.026457218 0.018329373
000390 fc 07 79 3d be 86 4d 3d 8c 17 40 3d 4e 5b 26 3d
       0.06079863 0.05017733 0.046897456 0.04061442
0003a0 97 ad 4e bd cd 8a 61 bc 09 5d a5 3c cb 1a c0 ba
       -0.050458517 -0.013766003 0.020185964 -0.0014656422
0003b0 cf 01 33 bc ec d5 19 be c9 b1 32 3d 37 8b 90 3d
       -0.010925724 -0.15023011 0.04362658 0.07057803
0003c0 3f 85 57 3d 5b de 90 bd 14 1c c1 bc 15 57 f4 3c
       0.052617308 -0.07073661 -0.023572959 0.02982668
0003d0 9e 82 8e 3b 44 ac 3b bd 9b 6c 07 3d d8 16 05 3d
       0.004349067 -0.045818582 0.03306256 0.03249249
0003e0 42 ea 02 3d 74 5e b8 bd 2f 0d 19 bd 7f 12 15 bd
       0.031961687 -0.090023905 -0.03736609 -0.036394592
0003f0 81 df 6e bd c1 2a 44 3d e8 62 89 bd 9a 9e e6 3c
       -0.05831862 0.047892336 -0.06708318 0.028151799

conv1.lin_neg_r.weight f4 [32, 64]
000000 d3 78 2e 33 be 0d c6 31 46 62 27 30 04 05 39 32
       4.062242e-08 5.7641207e-09 6.08939e-10 1.0769558e-08
000010 85 57 89 32 5e 61 3d b2 49 44 3b b2 6b 8e 65 b2
       1.5988698e-08 -1.1023387e-08 -1.0900359e-08 -1.33619364e-08
000020 61 ca c5 30 d9 b7 69 31 f2 3f 2d 32 54 3d 0f 31
       1.4391156e-09 3.4010468e-09 1.0084465e-08 2.08441e-09
000030 0a ba e8 b1 ae 91 4e b2 81 fb e3 b1 6d 4a 6b b1
       -6.773239e-09 -1.2023902e-08 -6.635162e-09 -3.4239307e-09
000040 6a 5e 21 b2 e0 55 19 32 97 f1 46 b2 2d ec 76 b2
       -9.392901e-09 8.925298e-09 -1.1580048e-08 -1.4372785e-08
000050 b7 75 5b 32 9c ba 2a 32 d0 17 89 b1 57 41 22 b1
       1.2774243e-08 9.937732e-09 -3.989932e-09 -2.3611244e-09
000060 11 77 82 b2 56 da 0c b2 85 9e c1 b1 6b 05 d9 31
       -1.5188137e-08 -8.198716e-09 -5.635061e-09 6.316147e-09
000070 92 5a 67 b1 79 9e 99 31 60 d6 56 32 de 5b fb 30
       -3.3666407e-09 4.4709023e-09 1.2505183e-08 1.8288764e-09
000080 d5 23 09 31 90 cf 3e 32 10 7e 8c b1 2f 39 2d b2
       1.9956492e-09 1.110665e-08 -4.088868e-09 -1.0082927e-08
000090 21 23 14 b3 c3 cf 43 32 df ca 26 32 67 31 dc 31
       -3.4490885e-08 1.1397733e-08 9.708599e-09 6.408459e-09
0000a0 b8 fe 3b b2 c5 0f e2 b1 73 23 70 b2 f4 5e e9 b1
       -1.0942749e-08 -6.5792585e-09 -1.3977899e-08 -6.7919874e-09
0000b0 f9 dc 76 b2 73 48 35 32 bb 51 5a 32 18 41 35 32
       -1.4369328e-08 1.055206e-08 1.2707853e-08 1.0550387e-08
0000c0 fc c1 12 30 c6 58 95 30 1a d2 65 31 31 ae 08 b2
       5.339016e-10 1.0866408e-09 3.3443315e-09 -7.955848e-09
0000d0 f3 f5 cf b0 f4 f2 19 30 46 02 55 32 c9 6b 0b 30
       -1.5131135e-09 5.6006333e-10 1.2398749e-08 5.072108e-10
0000e0 e8 6c e9 b0 16 b1 cf 31 0a 23 08 32 78 73 8b 32
       -1.6983934e-09 6.0446252e-09 7.924209e-09 1.6234239e-08
0000f0 3c f2 83 b1 5b 77 07 b2 6a b8 d1 b1 61 1e 63 b1
       -3.8401406e-09 -7.8851725e-09 -6.103666e-09 -3.3050116e-09
000100 0e 11 47 3e 7c b0 df bd 1d b1 9c 3c 13 0d 77 bc
       0.194401 -0.109223336 0.019127423 -0.015078801
000110 53 6c 35 3d 5b 58 07 3d 0f 89 3d 3d 10 cc 8b be
       0.04429276 0.033043247 0.046273287 -0.27304125
000120 d4 c1 14 3e a5 c7 08 3d 0b 0e 3b bc df d6 9b bd
       0.14527065 0.03339352 -0.011416922 -0.07609343
000130 9c eb ed 3c 94 7a aa 3d 3a 5a 1e be 9a 76 b3 3c
       0.029043011 0.08324161 -0.15464106 0.02190714
000140 4a 19 05 3c 3e c0 04 3e 27 c1 29 3e ba 97 92 3c
       0.008123705 0.1296396 0.16577588 0.017894614
000150 47 4d dc bd ec f9 05 be 24 1e bd bd 3d 8b 21 3d
       -0.10756927 -0.13083619 -0.092342645 0.03943943
000160 4f 05 1e 3d 42 7b 06 3e 07 84 1a 3d 17 8c 3c 3e
       0.03857928 0.13132957 0.037723567 0.18412815
000170 b7 81 a6 bc f9 82 ea bc 56 52 98 bd 86 72 27 bd
       -0.020325525 -0.028626906 -0.07437579 -0.040880702
000180 5d 5c f2 3b 30 c2 60 bb d0 b9 72 bd f8 a2 e4 bd
       0.0073962645 -0.0034295432 -0.059259236 -0.11163896
000190 70 d8 49 be 76 6f a9 3b 48 b6 f3 bd ae 78 cf bc
       -0.1971147 0.005170758 -0.11900002 -0.0253261
0001a0 ad f0 f6 3d 1e 91 4f 3d a8 e4 2f 3e 85 42 bf bd
       0.12057624 0.050675504 0.17177069 -0.093388595
0001b0 ae 73 0f 3d 33 93 e4 bd 0a 39 cb bb 7c 3d 03 3c
       0.03502243 -0.111608885 -0.006201868 0.0080102645
0001c0 a6 e3 26 3e ee ef f4 bc 77 40 88 3d 2b 37 57 3d
       0.16297778 -0.029899564 0.06652921 0.052542847
0001d0 7d d0 57 3d 98 3d ce bd 2e 09 80 bc 33 d0 20 bd
       0.052689064 -0.10070342 -0.015629377 -0.039261054
0001e0 40 76 b9 3d e0 e2 97 3d 7c 99 06 bd 01 a8 00 3d
       0.090557575 0.0741632 -0.032861218 0.03141022
0001f0 c4 36 65 bd 17 e5 ee 3d f0 4f e0 bd c9 9c 65 3d
       -0.05596043 0.11664789 -0.10952747 0.056057725
000200 9f 95 97 bd ad a8 83 3d 28 8f e4 bc 24 84 cb bd
       -0.07401585 0.06428657 -0.027900293 -0.09937313
000210 52 10 99 3c 2f 8d 32 bd fb 84 b8 bb 7e 79 8b 3e
       0.01868454 -0.043591674 -0.005631087 0.2724113
000220 7c 48 95 3d 1f 57 1d be 97 2f 41 bd 94 69 18 3e
       0.07289216 -0.15365265 -0.047164526 0.14884025
000230 1f f9 94 bd 67 79 7c bd c7 64 4a 3e b7 bf 0f be
       -0.072740786 -0.061639216 0.19765006 -0.14037977
000240 d1 0b be 3d 7b a5 6b 3d 0c d6 b5 3d 47 d1 6c bd
       0.092795976 0.05753086 0.08878717 -0.05781677
000250 e1 ce 9f 3d 93 a2 b4 3d e6 fd 1e 3d 07 73 c8 3b
       0.07803131 0.08820071 0.038816355 0.006117228
000260 ab b2 8a 3d 26 1c ea bc fe 8d 0a 3e 43 f6 4d 3e
       0.067723595 -0.028577875 0.13530728 0.20113473
000270 e6 88 8d bd 46 40 3a bd ce f8 b8 ba 84 de 75 bc
       -0.06910877 -0.045471452 -0.0014112236 -0.015006665
000280 32 aa d4 3d 70 c1 0b bd bb b1 f8 3b 89 a5 34 be
       0.10384025 -0.034120023 0.0075895465 -0.17641272
000290 95 b8 46 bd c7 46 b0 3d 85 73 15 bc cc 12 3e 3b
       -0.048515875 0.0860725 -0.00912178 0.0029002903
0002a0 40 fa fa bc 46 5c da bd b1 21 d7 3d 83 f8 c3 bd
       -0.030636907 -0.10662131 0.10504473 -0.09568884
0002b0 e5 c6 39 bd ba 25 c1 3c d0 da 26 3b 4f 7c c8 3c
       -0.045355696 0.02357756 0.0025460012 0.024473337
0002c0 50 7f 09 bd 1e b4 e5 bc 46 65 54 3d b1 c2 fc 3d
       -0.03356868 -0.028039988 0.051854394 0.12341822
0002d0 d6 28 93 bd 44 51 3a 3d 1f b4 3f 3d da a7 ad ba
       -0.07185523 0.045487657 0.046802636 -0.0013248876
0002e0 66 31 20 3d af bb 0f 3e 2c f4 ac bd 56 90 8b bd
       0.03910961 0.1403644 -0.084450096 -0.06814639
0002f0 2d 5b c8 bb 83 1a 01 be a8 e9 f4 3d fa 95 22 bc
       -0.0061143846 -0.1260777 0.11958629 -0.0099234525
000300 16 5c 28 bf 49 b5 88 3e f6 33 39 bd c7 29 70 be
       -0.6576551 0.2670081 -0.04521557 -0.23453437
000310 90 1f d3 bd 06 fd 55 3e d2 d4 8a 3d 60 79 2b 3e
       -0.103087544 0.20897302 0.067788735 0.1674552
000320 1c df 29 bc 08 28 d6 bd 7d 0f 9a 3e eb 63 99 bc
       -0.010368135 -0.10456854 0.30089942 -0.018724402
000330 a1 d5 b7 bd 42 f7 86 3d eb 79 1f 3e 5f dd fb 3c
       -0.08976293 0.065901294 0.15573852 0.030745206
000340 a8 c1 c9 3d b7 2f ec 3d 5e 27 96 be 77 ae 08 bb
       0.0985139 0.115325384 -0.2932691 -0.0020855942
000350 58 83 f3 3d 53 37 72 3e 25 86 d7 3d f8 af fb bd
       0.11890286 0.23653917 0.10523633 -0.12289423
000360 6a bc 04 be 2f d7 19 3e 56 9b 56 be 27 5c 9a 3b
       -0.129625 0.15023492 -0.20957693 0.0047106924
000370 8e de e3 3e 86 5e 8b 3d 79 06 7a be f6 ac b4 3d
       0.44505733 0.06805138 -0.24416532 0.08822052
000380 33 54 0b 3d c2 e1 12 3e 07 21 8d 3d 7a 21 a3 3d
       0.034015846 0.14343932 0.06891065 0.079653695
000390 fd 9f b9 3c 7c 31 a9 3d bd f8 ee 3d 9b 17 a4 3d
       0.022659296 0.082613915 0.11668537 0.08012315
0003a0 88 ea ab 3c c3 c7 cd 3c ad cc 06 be 0f cf 3b bd
       0.020985857 0.025119668 -0.13164015 -0.045851763
0003b0 9a fa 1b 3d fe 15 22 3e 57 c4 b9 3d 78 1d 82 bd
       0.03808079 0.15828702 0.09070652 -0.06353277
0003c0 48 82 86 3e fb d9 7f bc 30 30 f9 bd f2 90 ca 3c
       0.26271272 -0.015615935 -0.12167394 0.024727318
0003d0 c8 39 06 3e df ee 5b be 44 60 ea bd 80 6c 0b 3c
       0.1310798 -0.21477841 -0.114441425 0.008509755
0003e0 7d 22 1a 3e a3 50 89 3d 5c 9a 30 3d 6c 43 bf 3d
       0.15052219 0.06704833 0.04311596 0.093390316
0003f0 4b e8 c3 bd 00 b8 85 3d 7d f7 f7 3d ba 54 e1 3d
       -0.09565791 0.06529236 0.121077515 0.110024884

conv1.lin_neg_r.bias f4 [32]
000000 78 38 40 bc b0 e1 9b 3c 31 64 83 3d 91 d3 95 3c
       -0.011732213 0.019028515 0.06415594 0.01828936
000010 74 b1 8a bd 5e 4e 8c b9 f6 58 24 bd 8e a8 40 bd
       -0.06772128 -0.0002676127 -0.040123902 -0.047035746
000020 3a 89 03 bd c5 8a 84 3c 00 8d 01 3d a5 85 ab 3c
       -0.03211329 0.016179452 0.03162861 0.02093775
000030 69 eb cb b9 16 fc 75 bd 5e df ae 3c f1 c7 54 ba
       -0.00038894571 -0.06005486 0.021346744 -0.0008116952
000040 a0 38 99 b5 13 4a 21 bd fd 73 33 bd 63 0c a4 3c
       -1.1415868e-06 -0.039377283 -0.043811787 0.020025438
000050 aa a4 18 b5 18 29 b0 bb f6 c5 13 3a 9a 33 a6 3c
       -5.686403e-07 -0.0053759925 0.00056371035 0.020288277
000060 a2 62 d5 3d 09 fa 80 b7 3a 55 90 3c 6b 3b ab 3c
       0.10419203 -1.537522e-05 0.017618764 0.020902356
000070 c4 9d ff bb 19 85 6b b8 0e d5 b4 3c c1 55 2a b9
       -0.0078007895 -5.6152323e-05 0.022074249 -0.00016244409

convs.0.lin_pos_l.weight f4 [32, 64]
000000 22 21 4d 3d b3 00 a7 3c 71 76 ec 31 2c ad 8b bd
       0.050080426 0.020386076 6.881969e-09 -0.06820139
000010 54 cf 20 bd 92 e9 08 b7 a0 05 eb 3c 9a 0f 94 bd
       -0.039260224 -8.160614e-06 0.028689206 -0.07229538
000020 5c 3f 5c 3d 00 5d 34 3d c6 48 79 3c 38 3f 06 32
       0.05377136 0.044034004 0.015215104 7.814201e-09
000030 c1 47 a7 3a e8 00 0f bb 61 58 e6 3c 1b c6 08 3d
       0.0012762473 -0.0021820609 0.028118314 0.033392053
000040 d0 85 1a bb ce b8 c5 32 eb fc b3 bd 62 2a 09 b8
       -0.0023578294 2.3017858e-08 -0.08788475 -3.2702817e-05
000050 bd f8 62 bb 56 a4 07 be 0d 81 06 b2 e2 fc 9d 3d
       -0.0034633123 -0.13246283 -7.829169e-09 0.07714249
000060 f5 11 c5 36 de 2c d4 32 d6 5d d3 34 91 1f 6c bc
       5.873148e-06 2.4700451e-08 3.9370087e-07 -0.014411823
000070 5c ef 29 32 8f 6e c3 b1 a1 13 d4 3c 1a be 14 37
       9.891519e-09 -5.687816e-09 0.025888266 8.865749e-06
000080 db b9 18 b2 48 f8 34 3d b4 c9 a5 3d 50 8e 4d bd
       -8.889823e-09 0.044182092 0.080951124 -0.050184548
000090 a0 c7 53 bc 08 62 1d b9 da 2b 6c 3a c5 28 64 33
       -0.012926012 -0.00015009206 0.000900922 5.3122466e-08
0000a0 a7 d7 35 36 43 cf 4f bd 76 11 8b bc 25 45 61 3c
       2.7096628e-06 -0.05073477 -0.0169761 0.0137493955
0000b0 45 d5 f6 36 68 b4 cd bb 90 a3 a1 ba be e6 81 38
       7.356199e-06 -0.0062776096 -0.0012332071 6.1941784e-05
0000c0 a6 2b 93 b5 ac 7f c4 33 78 b1 d3 b2 d3 f1 1d 3c
       -1.0965057e-06 9.1501846e-08 -2.4644336e-08 0.009640175
0000d0 f9 72 9c 36 a9 89 03 39 64 ec cf 3c 13 08 f4 bb
       4.662547e-06 0.00012544416 0.025381275 -0.0074472516
0000e0 99 98 2f 3d 34 e4 9d 35 64 5e 0a 3c 4e 07 8b bc
       0.042870138 1.1763827e-06 0.008445356 -0.016971257
0000f0 19 5a b9 3c b3 ac 0c b0 7f c5 8b 3d b5 bd 3b 3d
       0.02262597 -5.1177124e-10 0.06824779 0.045835216
000100 8d 82 ab bd 2a d7 dc bc 36 3f d1 30 59 b1 45 3d
       -0.0837451 -0.026958067 1.5224717e-09 0.048264835
000110 88 7a 4b 3c 9f 39 23 b7 17 39 e3 bb b6 4a 6b 3c
       0.01241935 -9.728973e-06 -0.006934296 0.014361074
000120 37 f8 86 bb b7 ee 46 bd 39 33 a2 bc 6e d2 28 b2
       -0.004118945 -0.0485675 -0.019799815 -9.826733e-09
000130 3c 61 4b 31 28 aa 9a b0 d3 24 32 bd ed cf 2c bc
       2.959566e-09 -1.1253336e-09 -0.04349215 -0.01054762
000140 a5 12 e5 b3 d8 ff fc 30 20 c7 ef 3c 0a 32 00 39
       -1.0667035e-07 1.8408128e-09 0.029269755 0.00012225672
000150 85 3f 53 b8 0a 7d e9 3c 40 72 96 32 8a 9c 6b bd
       -5.0365477e-05 0.028502006 1.7514253e-08 -0.057522334
000160 f4 c7 5f 35 bb 69 15 b2 b5 4e 83 34 74 39 4b 36
       8.3364944e-07 -8.696982e-09 2.4457918e-07 3.02828e-06
000170 a6 bc ab b1 c9 ac 0d b1 97 63 87 bc 07 29 0d 37
       -4.998202e-09 -2.0616417e-09 -0.01652698 8.413807e-06
000180 53 db 99 32 41 10 92 bd 21 cf 0d be a9 f9 63 3b
       1.7911281e-08 -0.071320064 -0.13848545 0.003478626
000190 ff b7 50 b4 5b 41 80 37 4e e2 87 b4 94 33 91 32
       -1.9438447e-07 1.5289223e-05 -2.5310368e-07 1.6903677e-08
0001a0 de cd cd b6 ea c3 08 bd b1 cb 15 bd 7b 5c cf bd
       -6.133442e-06 -0.033389963 -0.03657121 -0.10125061
0001b0 71 5a 0f 37 ea c6 ab bb 7b 79 21 be 6b e4 ad b6
       8.544522e-06 -0.0052422183 -0.15768997 -5.182393e-06
0001c0 91 ce 34 b6 a3 6a b0 30 60 d6 02 b0 0b 0e b1 bd
       -2.6942328e-06 1.2835993e-09 -4.759837e-10 -0.086452566
0001d0 70 c7 6b 35 9f 6c fb 38 28 ad 77 3d 7b 52 06 be
       8.783454e-07 0.00011988845 0.06046787 -0.13117401
0001e0 83 70 1d be 7d b7 72 34 0c ed e6 bd d7 4a 1c 3d
       -0.15374951 2.2604759e-07 -0.11275682 0.03815731
0001f0 cd 95 26 36 e7 bf 0c b1 43 a1 b8 bd ca 7e 73 3d
       2.4823123e-06 -2.0481765e-09 -0.09015133 0.059447087
000200 10 5c 58 32 da 37 61 b2 b6 32 4a 32 f6 bb 60 2e
       1.2593787e-08 -1.3109423e-08 1.1769478e-08 5.1098646e-11
000210 1d cf f3 b1 8e 09 0c b2 2e 65 9e 30 ee 4d aa b0
       -7.095777e-09 -8.151245e-09 1.152477e-09 -1.2391277e-09
000220 a8 2e dc 31 0f a0 14 30 1d 6b 4e 32 de 84 ec 31
       6.408147e-09 5.4069543e-10 1.2015133e-08 6.8836092e-09
000230 09 e6 4d b1 b3 49 be 31 f1 56 25 b1 8e 19 40 b2
       -2.9962186e-09 5.5381064e-09 -2.406008e-09 -1.1181681e-08
000240 ac 02 37 31 f1 56 dc b1 bc e3 10 32 00 29 d7 b1
       2.6631524e-09 -6.412727e-09 8.433684e-09 -6.2619847e-09
000250 c7 73 57 32 44 b7 37 b2 44 14 00 32 93 57 53 b2
       1.2540972e-08 -1.0693672e-08 7.4551885e-09 -1.23017285e-08
000260 17 ba 6a b2 76 b0 4f 31 90 e8 13 30 32 9b 12 31
       -1.3662905e-08 3.022277e-09 5.380878e-10 2.1334015e-09
000270 5b 30 65 32 ed fb 48 b1 13 bb 85 b1 f3 c7 41 32
       1.3340549e-08 -2.9247034e-09 -3.8920773e-09 1.1279542e-08
000280 ce 23 3f b1 05 ef 14 33 9c d7 52 31 43 ea a6 b1
       -2.781451e-09 3.4676322e-08 3.0681582e-09 -4.8578683e-09
000290 84 7e 26 32 e3 1b 10 b0 25 3f 1f b0 b9 e3 9d 31
       9.691238e-09 -5.2426524e-10 -5.7933597e-10 4.5951905e-09
0002a0 fa a9 52 b2 c6 ab 7c b2 e1 92 c3 b2 09 69 82 b2
       -1.2262257e-08 -1.4707387e-08 -2.276778e-08 -1.5181756e-08
0002b0 35 db 14 32 1c bf b1 b0 95 05 ff 30 7f 8d c1 2f
       8.664576e-09 -1.2932762e-09 1.8555278e-09 3.5207035e-10
0002c0 4e 4a 9b 31 80 35 90 30 0b 56 22 32 23 65 6c 32
       4.519541e-09 1.0492585e-09 9.449205e-09 1.3760004e-08
0002d0 fd bf f3 31 86 7d cf b1 5b a0 2c b2 bc d8 fc 30
       7.0940573e-09 -6.0387633e-09 -1.0048178e-08 1.8397013e-09
0002e0 30 16 9b 32 37 9d fe b0 68 ad fa 32 ed 1a 89 30
       1.8054465e-08 -1.8525615e-09 2.9182686e-08 9.975715e-10
0002f0 04 ed 45 31 8e 87 94 30 79 59 9d b2 46 30 86 b2
       2.8802e-09 1.0806944e-09 -1.8317893e-08 -1.5621605e-08
000300 41 6b 06 31 79 b2 58 32 f7 bb dd af 33 53 1a 32
       1.9560533e-09 1.2613435e-08 -4.0333223e-10 8.982897e-09
000310 5e 53 11 32 d4 6c 91 30 40 a7 94 32 bb 5d c2 2f
       8.459066e-09 1.0581069e-09 1.7305524e-08 3.5354994e-10
000320 90 9e ea b2 0c c5 7f b2 e7 9b 2e b2 08 0e fe b1
       -2.7313291e-08 -1.4887757e-08 -1.0163581e-08 -7.393968e-09
000330 3a 6b 30 32 59 3f 3c b2 44 31 f5 31 2a 38 46 b2
       1.0268929e-08 -1.0957444e-08 7.1360393e-09 -1.1537887e-08
000340 15 ce 97 32 de 86 25 b1 97 0c fe 31 ec 65 2a 32
       1.7672429e-08 -2.4087323e-09 7.3938042e-09 9.918477e-09
000350 7d e1 97 32 be 57 89 b2 fd 8a 15 b2 0e 19 22 b3
       1.7681254e-08 -1.59888e-08 -8.704544e-09 -3.774135e-08
000360 cd aa 93 b0 ae 4f 65 b0 24 9b b9 30 94 7f 57 32
       -1.0744202e-09 -8.3422946e-10 1.3504615e-09 1.2543655e-08
000370 f4 c0 a1 b1 eb 0c 2f 31 16 7b 85 32 70 e3 87 b0
       -4.707653e-09 2.5473195e-09 1.553921e-08 -9.887184e-10
000380 4e a9 95 b2 ef f1 de 32 d0 28 d9 b2 3d 2c d4 b2
       -1.7422874e-08 2.595422e-08 -2.5280684e-08 -2.4700165e-08
000390 c3 4b 09 b1 90 9d 2e 32 bc 95 d8 b1 af 71 10 b1
       -1.997919e-09 1.0163959e-08 -6.30345e-09 -2.101938e-09
0003a0 83 26 ab 30 a2 c2 b5 b0 68 da 86 b2 06 ea b6 32
       1.2452833e-09 -1.3224801e-09 -1.5698973e-08 2.129401e-08
0003b0 30 b8 45 b0 9f 95 5e b2 e4 db 83 b2 05 ff c3 31
       -7.192993e-10 -1.2956121e-08 -1.5350402e-08 5.7042393e-09
0003c0 38 bf 8c 31 f1 ef d4 b1 f0 e1 36 b2 e1 48 6e b2
       4.0962753e-09 -6.1972902e-09 -1.06451665e-08 -1.3869994e-08
0003d0 77 d0 19 b1 87 13 11 30 f9 fb b6 30 b5 7b cf 31
       -2.2382929e-09 5.277844e-10 1.3313858e-09 6.0385568e-09
0003e0 44 69 6a b2 10 f5 17 31 7a 82 e9 b2 e6 81 c9 b2
       -1.3644527e-08 2.2112694e-09 -2.7184104e-08 -2.345855e-08
0003f0 3b b0 19 31 82 7f 60 32 36 10 fd b2 7b 81 c4 32
       2.2364606e-09 1.3067508e-08 -2.9460448e-08 2.2876284e-08

convs.0.lin_pos_r.weight f4 [32, 32]
000000 0e 91 af be 31 e9 55 bf 39 01 f3 30 d9 c6 c7 3b
       -0.34290355 -0.83558947 1.7680925e-09 0.0060967025
000010 a2 41 fe be be 38 54 b5 a2 73 d7 be 59 e1 13 bc
       -0.4965945 -7.9058725e-07 -0.42080408 -0.009025895
000020 ba bb 85 3e be a5 77 bf c3 53 5c bd 51 7b b2 b2
       0.26119787 -0.9673728 -0.05379082 -2.0778005e-08
000030 38 ac 05 33 9f 56 3d b3 79 bd 5c 3e e6 d5 13 be
       3.1123108e-08 -4.4083773e-08 0.21556653 -0.14437065
000040 76 60 ad 32 43 de 75 b2 d7 35 87 3e 38 10 7b b9
       2.0183716e-08 -1.4311413e-08 0.26408264 -0.00023943267
000050 9d f5 7e 32 b1 19 42 3d d3 24 26 b2 79 dd 85 3e
       1.4840592e-08 0.047387782 -9.670845e-09 0.26145533
000060 06 bf a6 b5 2b 0a 69 b2 b0 70 36 35 da 5f cb 31
       -1.2423559e-06 -1.3564697e-08 6.7964265e-07 5.9189746e-09
000070 b5 8e 1c b2 8f a4 af 30 6a e6 16 bf 30 ab b2 b6
       -9.112843e-09 1.2779696e-09 -0.58945334 -5.3247422e-06
000080 43 65 3a 3e 2c 1f 2b 3f 7f db 5d b2 2c a0 f6 bc
       0.18202691 0.6684444 -1.2913801e-08 -0.030105673
000090 0c 7c d2 3e 82 24 b6 37 ab 02 84 3e 4d cd 50 3d
       0.41110265 2.1713091e-05 0.25783285 0.05097704
0000a0 37 90 78 be 72 58 43 3f 2d b7 9b bc c5 14 75 b2
       -0.24273764 0.7630683 -0.019008243 -1.4265599e-08
0000b0 a4 7f d7 b1 ba 9b d2 b1 de b7 10 be 50 a0 8a 3d
       -6.2718346e-09 -6.1295085e-09 -0.1413264 0.067688584
0000c0 9d 91 ab b2 75 69 60 b0 3e dd 0c bf 2b 31 73 b4
       -1.9973237e-08 -8.164059e-10 -0.5502509 -2.2649026e-07
0000d0 ff 24 80 b0 07 e1 f0 be 67 72 59 32 2d b3 8c be
       -9.323741e-10 -0.47046682 1.26570745e-08 -0.2748045
0000e0 a0 58 0f 36 a8 70 91 32 b8 d2 24 b5 44 81 81 b2
       2.1360247e-06 1.6931452e-08 -6.1401397e-07 -1.507636e-08
0000f0 ee a8 86 31 8a 4a c1 b2 d7 f2 a8 3e 6d 9f 2b b6
       3.9191184e-09 -2.2502054e-08 0.32997772 -2.5573784e-06
000100 0a cf 0b b4 84 e4 94 33 ef f4 ec 32 a4 fe 0a b3
       -1.3020704e-07 6.933354e-08 2.7585399e-08 -3.2362223e-08
000110 9f ea c9 32 68 89 ce 31 7e fc 3d b3 ac 20 bd b3
       2.3506173e-08 6.0110104e-09 -4.4234632e-08 -8.806941e-08
000120 42 d3 df 32 bb 84 b5 32 b9 c3 49 b2 20 f0 e3 32
       2.6056686e-08 2.1131532e-08 -1.1744242e-08 2.6535474e-08
000130 11 fe 8f b0 61 1e a2 b2 47 ae 54 b3 18 95 e2 b1
       -1.0476829e-09 -1.8873097e-08 -4.95186e-08 -6.5944157e-09
000140 3e 07 2e 32 91 f4 37 31 3d 26 37 33 72 3e 99 b2
       1.012978e-08 2.6769025e-09 4.2642785e-08 -1.7839941e-08
000150 45 1c c9 32 21 4c 5e b2 d0 eb 13 32 85 02 87 32
       2.3412335e-08 -1.293941e-08 8.610144e-09 1.5717214e-08
000160 f8 f9 86 b1 9e 5a 90 b2 68 58 26 31 10 3f 45 32
       -3.9283314e-09 -1.6805014e-08 2.4206432e-09 1.1481248e-08
000170 ac 28 70 b0 a9 84 a6 32 e0 07 fa b2 62 ce 45 31
       -8.736929e-10 1.938527e-08 -2.9107412e-08 2.8784588e-09
000180 e2 f5 42 31 d9 ba 4a 32 20 fd b6 af 25 b0 c2 b2
       2.8370484e-09 1.1800432e-08 -3.3285463e-10 -2.2664674e-08
000190 ff dc 6f 32 f1 f5 2f 31 3a 2c 29 32 3c c0 2e b1
       1.396188e-08 2.5605653e-09 9.847151e-09 -2.5429605e-09
0001a0 f0 1b 97 b1 b6 c0 b3 32 b7 d8 db b2 49 7f 60 32
       -4.3978545e-09 2.0925977e-08 -2.5593506e-08 1.3067457e-08
0001b0 99 01 9c b2 2f 88 3a b2 6d 76 af b2 fe 72 1a 32
       -1.8161517e-08 -1.08575895e-08 -2.0426535e-08 8.990126e-09
0001c0 cd 36 9b b2 1d 06 8d b2 90 9f d9 b2 a8 25 c3 b1
       -1.8069295e-08 -1.641734e-08 -2.5334685e-08 -5.679528e-09
0001d0 1e 61 dd 31 5b 40 a0 32 02 05 37 ae 6b a4 ed b1
       6.4429875e-09 1.8655717e-08 -4.161383e-11 -6.9163e-09
0001e0 71 e7 b3 30 3a 30 53 31 47 8a e1 ae 11 97 a2 b0
       1.3089744e-09 3.0731955e-09 -1.02563784e-10 -1.1829987e-09
0001f0 db 18 cf b2 4b 65 dc b1 6d 5d 7d b2 5c 35 f0 31
       -2.4109275e-08 -6.4143584e-09 -1.4747781e-08 6.9909856e-09
000200 44 f3 2c b2 2f f1 d5 32 2d f6 18 32 32 d1 0b b0
       -1.006703e-08 2.4906141e-08 8.903538e-09 -5.086519e-10
000210 fc 09 64 32 8c 70 20 31 38 a7 2d b3 f5 0f 72 30
       1.3273617e-08 2.334704e-09 -4.0431786e-08 8.8061763e-10
000220 84 78 55 b3 19 3c e8 b2 e2 aa 6e b3 c7 5d 64 b2
       -4.9702535e-08 -2.7035684e-08 -5.556911e-08 -1.3292669e-08
000230 d9 da 0c 30 3b 94 bb 31 7e e5 56 32 ca 96 f7 32
       5.1242705e-10 5.459268e-09 1.250862e-08 2.8823155e-08
000240 67 4a 3e 30 32 8d 87 30 92 ae 97 32 06 0a 98 30
       6.922733e-10 9.862673e-10 1.7658099e-08 1.1062304e-09
000250 c8 f0 44 b2 bb 5d 16 b2 f4 04 68 31 74 82 4a b3
       -1.1463449e-08 -8.752461e-09 3.3763259e-09 -4.7150436e-08
000260 ee af 81 b2 de 57 82 32 44 09 f4 31 b7 ca c4 31
       -1.509758e-08 1.517395e-08 7.102388e-09 5.727397e-09
000270 a0 57 e4 32 6f 82 08 b2 a3 c9 f6 32 c7 4d be b0
       2.658254e-08 -7.945899e-09 2.8729863e-08 -1.3846425e-09
000280 cd 71 b5 3e ac 3c 3c 3e fe 73 5a b1 4c bf 75 be
       0.35438386 0.1838252 -3.178911e-09 -0.23998755
000290 df 04 86 3e 6c ae da b6 d9 74 9e 3f 5a 6a 1f 3e
       0.2617559 -6.5172117e-06 1.2379409 0.15567914
0002a0 4c 71 28 3d 7f f5 22 3f f3 d5 9c be 18 52 2a 33
       0.041123673 0.6365585 -0.3063198 3.9655873e-08
0002b0 26 7c 51 32 35 7c f2 b1 14 47 42 be 57 14 e4 3e
       1.2193629e-08 -7.0572477e-09 -0.18972427 0.44546768
0002c0 ec aa 2a b2 3f 97 89 33 7d 8f 1f 3e f0 84 c4 38
       -9.9341655e-09 6.407071e-08 0.1558208 9.37077e-05
0002d0 91 9c db 33 50 30 1a 3e 13 b9 64 32 90 f9 24 be
       1.02264615e-07 0.15057492 1.3313428e-08 -0.16110826
0002e0 6a 19 87 35 36 db 9e b2 5c 28 8d 34 8b 34 b2 b0
       1.006568e-06 -1.8493306e-08 2.6292662e-07 -1.2966138e-09
0002f0 58 04 f2 31 1b 35 a2 32 06 7b 82 3f b5 3b 79 b6
       7.043621e-09 1.8883432e-08 1.0193794 -3.7138645e-06
000300 55 3e 87 b9 3c e9 b4 b6 06 e2 92 2f 39 75 9f b7
       -0.00025795648 -5.39157e-06 2.6717845e-10 -1.9008863e-05
000310 fc 20 06 38 9b d6 eb 32 cf 10 02 b8 51 f7 08 b5
       3.197881e-05 2.7455192e-08 -3.101007e-05 -5.102384e-07
000320 ce f6 db 37 14 ba b3 b6 d7 55 21 38 d3 6d 74 31
       2.6221762e-05 -5.356278e-06 3.8465336e-05 3.55691e-09
000330 a9 bc 53 31 1d 31 e2 b1 ee e1 16 b8 48 8a 14 b8
       3.0811782e-09 -6.583049e-09 -3.59732e-05 -3.5414734e-05
000340 31 ac 22 32 13 2f c8 b1 0f ea 3d 37 e6 e8 ab 2f
       9.468793e-09 -5.826118e-09 1.1319774e-05 3.1270203e-10
000350 43 78 47 32 10 2e 10 b6 fd e0 21 b2 7b db c2 b8
       1.1610669e-08 -2.1484484e-06 -9.42259e-09 -9.291522e-05
000360 a1 24 72 32 81 b6 34 b2 b2 ce fd 30 14 7b 31 32
       1.4094582e-08 -1.05188755e-08 1.8466919e-09 1.0330741e-08
000370 16 a2 8a 32 f4 e7 af b2 90 34 ee b5 d7 e8 3b 32
       1.6139023e-08 -2.0478161e-08 -1.774768e-06 1.0937774e-08
000380 4c 73 a1 35 c7 dd 16 34 95 2a 9a b1 cd a9 8e 34
       1.202899e-06 1.4050521e-07 -4.486831e-09 2.6573107e-07
000390 dd 2d 88 b4 71 43 91 b0 4d 02 e1 b3 5f 40 78 b2
       -2.5365344e-07 -1.0569307e-09 -1.04777975e-07 -1.4450136e-08
0003a0 94 83 43 b3 df 8c 9d b4 0a 8b 57 b4 68 2f bf b2
       -4.5521645e-08 -2.9346026e-07 -2.0074017e-07 -2.2256884e-08
0003b0 2a 3a 0e 32 55 f9 35 30 14 e1 fa b4 d4 a9 81 b4
       8.278713e-09 6.620174e-10 -4.6729895e-07 -2.415169e-07
0003c0 25 74 86 b1 1b 73 15 32 6a cc 71 34 3c 66 e7 31
       -3.9131174e-09 8.699113e-09 2.251924e-07 6.7346075e-09
0003d0 a4 5b 86 31 18 75 34 b3 96 6a 2c 32 92 c9 8a 33
       3.9103316e-09 -4.2016012e-08 1.00359525e-08 6.462791e-08
0003e0 f3 a4 88 30 ee 5f 2a b2 0c b8 90 32 29 7c 3d b2
       9.942184e-10 -9.917114e-09 1.6847501e-08 -1.1029479e-08
0003f0 23 53 95 31 9c 84 ef 31 ec c7 92 b4 4a 26 70 31
       4.3459223e-09 6.9708914e-09 -2.7340081e-07 3.4946361e-09

convs.0.lin_pos_r.bias f4 [32]
000000 70 2a 87 3d 6b b3 42 3d 86 3e eb ba d2 7f 50 ba
       0.06599891 0.047534388 -0.0017947711 -0.0007953617
000010 7a ea 93 bc c8 89 08 3e 75 db 5f ba 20 cb d9 bc
       -0.018056143 0.1333381 -0.00085394765 -0.026586115
000020 c7 ac 92 bc 19 0a 80 b5 45 6a 9f bc e9 21 a6 34
       -0.017904652 -9.539682e-07 -0.019459853 3.0944582e-07
000030 b9 f1 d0 b9 96 aa 21 bd df 83 60 bd 8d 4e b4 bc
       -0.0003985295 -0.039469324 -0.054813262 -0.022010112
000040 9f 88 e1 bb 3e eb cb bc 3d 88 12 bd 33 56 b6 bc
       -0.0068827416 -0.024892446 -0.03577446 -0.0222579
000050 da 8d 74 bd 56 c8 20 bb 98 0e 31 bc 4c 30 db 3d
       -0.059705593 -0.0024533472 -0.010806702 0.10702571
000060 d5 22 85 ba e3 6f 0b bc fd 8f c3 3b 51 a6 e9 bc
       -0.0010157475 -0.008510563 0.0059680925 -0.028521689
000070 50 38 27 ba 68 ac 55 bd 87 f4 85 bd 50 ba 09 3d
       -0.00063789356 -0.052166373 -0.065407805 0.033624947
