wiki-RfA/models/wiki-RfA-train-12.pt (torch, 63739 bytes, 14 tensors)

conv1.lin_pos_l.weight f4 [32, 64]
00000000: e65f 21b7 3840 26b5 1b9c 4435 274a 02b6
00000010: e264 c3b5 2823 0035 d7b3 2631 38ba f536
00000020: c6ab b935 9a0e 30b6 946b 7fb5 1044 b435
00000030: e6da 5534 109d b8b5 9100 7035 53a2 49b5
00000040: ce7b 2e34 a962 2db4 286f 33b4 1d50 5cb5
00000050: 300b 8c35 04cf cf34 6124 9bb4 726e 8d34
00000060: 4551 3db4 6496 9c34 bc2f 8435 cec8 f234
00000070: efce 32b5 aebd d232 b9f7 9db5 dc0c 0635
00000080: bcc3 9432 d6ec 2d34 99e1 81b5 ae82 3d34
00000090: 71be ed32 0c56 79b3 f022 a435 a880 8f31
000000a0: bf7c 2535 0bdb 5c35 9b01 3cb4 7455 0a35
000000b0: 11ec 1634 778f 6fb4 b240 f0b1 2eab 52b5
000000c0: e618 98b4 038d 9434 12b0 36b4 3de2 edb4
000000d0: 22e1 edb4 f042 4835 4986 2935 42d9 6b33
000000e0: c1e7 f2b4 e60f 4b35 1264 d734 21c4 85b4
000000f0: b12e 94b3 ec22 21b4 0931 4c35 608c 5a34
00000100: e0b7 1cbf f447 a8bd 4d52 143e 63e0 6abe
00000110: f6cf c4bb 3d1d 4a3d a984 c1bd 64c6 ca3e
00000120: 3d1d 403d fa64 26be a9de fbbd 3d73 443e
00000130: 216c efbd 2c82 d9bc 6b6a 883d 89a5 86bd
00000140: 9e20 323e 2b08 81bd 7977 bdbd d4d2 2c3d
00000150: 661e f63d 46be 143e b6d4 acbd 2a52 52bc
00000160: 0b04 3bbd a90b 0c3e 03ff d93d 15b2 5bbc
00000170: 4e98 d6bd 4cde 033e 9ab4 50be 0871 963c
00000180: f4e8 59bd ae2f 853d 339f 1bbe 7259 14be
00000190: 4b30 d2bb 68cf f3bc 63a4 7b3d dc07 e33c
000001a0: aeae c33d 7ca7 09bd f318 d2bb c82a c63b
000001b0: 4846 02be e4b9 df3d 8e81 4dbe b259 a3bd
000001c0: 05a4 823a 863c f73d afe6 7e3c 5200 afbb
000001d0: 1fa3 45be e089 00bd d5f2 b73d 94d7 ec3d
000001e0: a423 21be 1400 8bbc 1d94 783d 6671 d2bd
000001f0: c9f8 143d aa21 9bbd 5d33 e93c 1572 0b3e
00000200: 0c76 b9b2 ec87 2cb2 f183 56b1 86f4 2ab2
00000210: 6ed8 e631 5c38 8932 8284 1832 9ccc 2732
00000220: a4d2 0f32 b309 7cb1 5dc9 cc31 f3d5 79b1
00000230: 29f2 8530 dbe9 beb1 94c3 7431 1f1a 12b2
00000240: d1e2 52b1 33e6 4932 9868 91b1 eac9 1931
00000250: 3fdc 81b1 e248 0db0 ebf1 4cb2 f67e 0b32
00000260: 64cd 3bb2 b8f9 8c31 6095 32b1 f9bf 9f30
00000270: cc53 1931 d225 ce31 50a2 1930 af69 f730
00000280: c44f 0c2f 7c53 4fb2 33f7 a4b1 6969 9731
00000290: ba49 35b2 8fff d631 6506 4131 e7a3 0fb1
000002a0: 8039 5d32 82c5 e231 9e91 0f32 528f 34b1
000002b0: bafc e330 d23c 5f32 41df b5b1 9ed3 8231
000002c0: aacf 2132 7f7c 5eb2 b556 58b2 d701 70b2
000002d0: a3ad 3631 00b9 38b2 5098 4ab2 bb2f 33b1
000002e0: b6fa 1c31 e75b 3a31 1476 8332 e455 0031
000002f0: bfbb 2332 32f7 5731 beb5 04b0 1fa9 8132
00000300: b89a 37b5 6186 6032 cab1 edb0 b8f5 2d34
00000310: e831 2eb3 ef07 beb3 0ab6 9b32 03ba 9c32
00000320: 16b3 e530 df20 b1b3 430d dfb3 5307 82b3
00000330: 0de9 5131 9342 43b2 9cd9 1eb4 9121 9433
00000340: dbc6 29b1 f20a 5e33 e429 8c32 efbe 3db3
00000350: 44d7 5db2 b551 0eb3 d04e 0cb3 02d9 e532
00000360: 7d62 b732 49d0 eeb3 6cd9 63b2 743d b332
00000370: 304e b732 0592 79b2 39c3 ceb0 e630 16b2
00000380: d9c7 8caf 3d7c 10b3 a7bd d0b2 b3a2 3b32
00000390: 8c04 f732 203f 9b32 a6b0 58b2 c0d2 07b3
000003a0: e9d9 2632 5a98 99b2 f791 8131 14dc 9831
000003b0: e9da 5db2 8b34 bd32 9525 4930 a037 0433
000003c0: 90c3 9432 97b5 c133 9d44 38b2 8917 77b1
000003d0: 9175 ba33 a9ce d133 a100 82b2 a706 5fb2
000003e0: 146c 6031 d6ae c030 6d9a efb2 e9b6 dd32
000003f0: 3b6d 0c33 1da3 5832 bb89 822f be28 c532
-9.618676e-06 -6.193327e-07 7.3242853e-07 -1.9414672e-06 -1.4557993e-06 4.7734875e-07 2.4258406e-09 7.3232477e-06
1.3833567e-06 -2.6234543e-06 -9.515145e-07 1.3430854e-06 1.9916806e-07 -1.375478e-06 8.940779e-07 -7.511455e-07
1.6250053e-07 -1.6147773e-07 -1.6711112e-07 -8.2072967e-07 1.0434069e-06 3.8707378e-07 -2.889747e-07 2.6343656e-07
-1.7631562e-07 2.9166688e-07 9.848659e-07 4.5222117e-07 -6.6611295e-07 2.4533474e-08 -1.1769508e-06 4.9937603e-07
1.7318477e-08 1.6198041e-07 -9.676907e-07 1.7649538e-07 2.7677034e-08 -5.805309e-08 1.222912e-06 4.1764743e-09
6.164882e-07 8.2275136e-07 -1.7509448e-07 5.1533357e-07 1.4055719e-07 -2.2310802e-07 -6.9922743e-09 -7.8480195e-07
-2.8330322e-07 2.7669748e-07 -1.7014125e-07 -4.43093e-07 -4.4308496e-07 7.4603213e-07 6.3152817e-07 5.4912796e-08
-4.5244636e-07 7.564653e-07 4.0119681e-07 -2.4915883e-07 -6.90028e-08 -1.5006998e-07 7.606728e-07 2.03539e-07
-0.6121807 -0.08216849 0.1448452 -0.22937159 -0.006006236 0.04934429 -0.09449131 0.39604485
0.046902884 -0.16249457 -0.122983284 0.19184585 -0.11690546 -0.026551329 0.066609226 -0.06574542
0.17395255 -0.06300386 -0.09251303 0.04219325 0.12017517 0.14525709 -0.08439009 -0.012836972
-0.045658153 0.13676323 0.10644343 -0.013409157 -0.104782686 0.12877768 -0.20381394 0.018364444
-0.053200677 0.06503235 -0.15197448 -0.14487246 -0.0064144484 -0.029761985 0.06143607 0.027713709
0.09554802 -0.03360699 -0.0064116656 0.0060475804 -0.12722123 0.10924128 -0.20068952 -0.079760924
0.0009967095 0.12072091 0.015557929 -0.0053406144 -0.19300507 -0.031381488 0.089818634 0.11564556
-0.15736252 -0.01696781 0.060688127 -0.10275535 0.036370073 -0.0757478 0.028466875 0.13617738
-2.1590516e-08 -1.0042623e-08 -3.1216099e-09 -9.9509005e-09 6.718486e-09 1.5974528e-08 8.877693e-09 9.767202e-09
8.37159e-09 -3.667634e-09 5.9600738e-09 -3.6355885e-09 9.74585e-10 -5.556314e-09 3.5617846e-09 -8.504258e-09
-3.0687952e-09 1.1752081e-08 -4.2319463e-09 2.2379205e-09 -3.779433e-09 -5.1399074e-10 -1.1929369e-08 8.119732e-09
-1.0931533e-08 4.102926e-09 -2.598732e-09 1.1623335e-09 2.2312063e-09 5.9996887e-09 5.5891736e-10 1.8001652e-09
1.2761264e-10 -1.2067968e-08 -4.8011315e-09 4.406662e-09 -1.055235e-08 6.2572734e-09 2.8088831e-09 -2.0902406e-09
1.2876967e-08 6.5999197e-09 8.356805e-09 -2.6274916e-09 1.6588253e-09 1.2994137e-08 -5.2931743e-09 3.807556e-09
9.418651e-09 -1.2950408e-08 -1.259257e-08 -1.3970257e-08 2.6583187e-09 -1.0752274e-08 -1.1792579e-08 -2.607506e-09
2.28435e-09 2.7118803e-09 1.5304103e-08 1.8675275e-09 9.530537e-09 3.1427132e-09 -4.827959e-10 1.5094484e-08
-6.839796e-07 1.306907e-08 -1.729455e-09 1.6201273e-07 -4.055792e-08 -8.8490076e-08 1.8127157e-08 1.8245379e-08
1.6712842e-09 -8.248184e-08 -1.0386659e-07 -6.054929e-08 3.0545977e-09 -1.1365631e-08 -1.4794063e-07 6.897893e-08
-2.4705773e-09 5.1698358e-08 1.6317195e-08 -4.4178645e-08 -1.2912839e-08 -3.3136264e-08 -3.266797e-08 2.6757792e-08
2.1348791e-08 -1.11206255e-07 -1.3262575e-08 2.0866288e-08 2.133956e-08 -1.4526909e-08 -1.5043958e-09 -8.742267e-09
-2.5607852e-10 -3.3640607e-08 -2.430063e-08 1.0921826e-08 2.8756652e-08 1.807308e-08 -1.261302e-08 -3.1623813e-08
9.712019e-09 -1.7880826e-08 3.7709884e-09 4.448802e-09 -1.29136675e-08 2.202639e-08 7.317678e-10 3.0784236e-08
1.73184e-08 9.020294e-08 -1.07258105e-08 -3.5956609e-09 8.682685e-08 9.769912e-08 -1.5134278e-08 -1.2981821e-08
3.2657725e-09 1.401953e-09 -2.7893487e-08 2.5810964e-08 3.2695635e-08 1.2609942e-08 2.3744726e-10 2.2952346e-08

conv1.lin_pos_r.weight f4 [32, 64]
00000000: ff51 9fb6 9bd0 b034 a286 b135 a71e c2b5
00000010: 4af1 e0b4 cd95 cf34 764e 62b4 f700 31b4
00000020: a54d cfb3 cf71 fc32 fd85 dcb4 375c 8034
00000030: 3f20 af35 1261 65b4 c4f4 ab35 3750 07b5
00000040: 372b 99b4 aebb a7b5 64e3 54b5 6cfd d735
00000050: bb83 29b4 4b85 3434 4203 9eb5 5c80 4935
00000060: 90d7 1cb4 66c5 7935 df4a 8fb5 075c b535
00000070: 9c8d 83b4 a9f8 94b5 7060 c4b5 4bb5 35b5
00000080: 4d5e 17b5 935b 0536 4375 88b5 f31b 3b35
00000090: 2e38 8034 248f b134 6876 71b5 09a7 0f35
000000a0: a09c 05b5 ce3d c1b3 e00a c4b5 4b8b a5b4
000000b0: 1be0 5e34 ab68 c1b4 94e2 b7b4 d12d 0634
000000c0: f6ea d734 e281 8435 4658 62b4 894d db32
000000d0: c382 9733 e3e3 7435 4813 0d33 39d9 8935
000000e0: 5da5 97b4 8b03 43b4 f580 8535 7556 8c32
000000f0: ad30 8cb4 7f8c 7834 3e47 5f35 6fcb a135
00000100: 35bf e2bf 3766 e13d f304 7f3e f17c 84bd
00000110: 1480 4abe 4fe0 913b 5fc5 79be 83a3 663f
00000120: ef92 9dbd ba7e 6dbe 3fd6 02be e6f9 8a3e
00000130: cdb7 bf3b ff2e 9cbe 04bf 1a3e 1936 9ebd
00000140: 6189 3fbe 050b 5dbe 2f80 1d3e 521c 223d
00000150: 67e9 e03d 2591 a0bb e7ea 5abe 6248 66bd
00000160: ceb8 773c 10e1 e73d 2b05 5b3d 509e 143d
00000170: f67a 573c 1927 12bd aa60 e0bc c2b4 5cbd
00000180: 1f0f 56ba 122c 1f3e 94f5 a43c 0677 723d
00000190: 6443 91bb 9254 81bd 4bda a63d b3f1 d2bc
000001a0: 8e9f 853d e11c 9b3d 0105 60bd ae3d 95bd
000001b0: 4a5c efbb 9dc2 003d b8b4 01be fadf bbbb
000001c0: 9b6d 203d 4d88 52bc 8524 d7bc 926f 90bd
000001d0: a2cd 4ebd e1aa b33d 9824 91bc 0f1c 3c3d
000001e0: e3a8 383d d7bc f0bc 7cc3 e13a 4d29 cc3c
000001f0: 9f3b 8e3b bffb 053c a9d9 813d 8d6d be3d
00000200: f534 c632 187f f6b1 acdb 4ab2 3925 c331
00000210: 5599 2bb2 702a 21b1 fedf 80b0 9e03 3f32
00000220: 98da 4531 f1c0 3f32 dbee 7a32 b982 5c31
00000230: e76e 2bb0 ce77 8fb1 2ddb 90b1 afe7 07b1
00000240: a948 0bb1 6923 6e32 32db f72f 3865 2431
00000250: b4fc 38b2 6fa5 0c32 b493 e331 3daa c230
00000260: e165 0432 4d0b 1532 8c9f f030 02b6 8cb1
00000270: e7c8 1bb2 62d0 6a32 34c1 8f31 27d9 6832
00000280: a8c8 75b2 5b8d 5bb0 f17d c9b1 f290 4cb2
00000290: 3196 9431 3ccc acb0 a035 2ab2 55c2 8031
000002a0: d692 4ab2 d209 0432 62f4 c2b1 4f1b 32b2
000002b0: bee3 0ab2 1072 86b2 8d21 a3b1 35d9 8ab2
000002c0: 529f 8b31 a0ed e6b1 7a65 be30 cf5c 1eb1
000002d0: 8007 c9b1 e4d0 abb1 5c1e a8b1 33c9 1732
000002e0: c4cd dbb0 0ba9 af31 ade3 eb31 41d8 d0b1
000002f0: 0448 2bb2 86b1 c930 d8f4 cfb1 9937 c631
00000300: 726a 3f35 4be2 1c33 fab2 74b3 0f0c b1b2
00000310: bfe7 48b3 f53b fc31 9d38 f0b3 236d 84b3
00000320: 9626 0534 7608 07b4 98f6 ecb3 4d8e a431
00000330: ea6d 78b2 1567 ffb1 95c8 3033 7efd 89b2
00000340: 2b80 2ab2 4459 8733 7baa 46b1 949a 5733
00000350: e236 3fb3 0619 be31 a53e 0cb3 1eab a830
00000360: 73e0 afb2 31d7 91b2 6e75 1833 ead6 d8b2
00000370: ade9 92b3 3e55 12b3 48eb afb2 9d12 1733
00000380: b62a 0eb2 4f5a 1533 6a1e 62b1 ee9f ee32
00000390: 3945 acb2 a072 f532 5105 f5b2 c24b 58b3
000003a0: a0c9 9633 77d8 cbb2 fd32 be31 cb7e 05b2
000003b0: b857 b731 cb6c acb3 882e d532 f0f6 b531
000003c0: 3175 c2b2 9e5e b3b3 a13b deb1 3547 95b2
000003d0: 2626 1033 07f3 19b2 7198 fc31 bd71 13b1
000003e0: b076 77b2 0997 b632 8547 fa32 c5c9 ab32
000003f0: 1f00 15b3 1cdb a4b3 2f95 2eb3 f83d e8b2
-4.748115e-06 3.2934335e-07 1.3226711e-06 -1.4463047e-06 -4.1898812e-07 3.866575e-07 -2.1076434e-07 -1.648476e-07
-9.653312e-08 2.9388415e-08 -4.1075683e-07 2.3908953e-07 1.3047901e-06 -2.1362601e-07 1.2811729e-06 -5.0408147e-07
-2.8529914e-07 -1.2497092e-06 -7.930705e-07 1.6092504e-06 -1.5787275e-07 1.6812298e-07 -1.1772865e-06 7.506512e-07
-1.4607053e-07 9.304698e-07 -1.0676121e-06 1.3512334e-06 -2.4503686e-07 -1.1099229e-06 -1.4631205e-06 -6.769157e-07
-5.638911e-07 1.9871848e-06 -1.0166917e-06 6.97036e-07 2.3882734e-07 3.3072968e-07 -8.99518e-07 5.351472e-07
-4.977428e-07 -8.998505e-08 -1.4606303e-06 -3.0834994e-07 2.075689e-07 -3.6025207e-07 -3.4251264e-07 1.249639e-07
4.0217827e-07 9.872567e-07 -2.1080004e-07 2.5530214e-08 7.055271e-08 9.12287e-07 3.2846657e-08 1.0270516e-06
-2.824626e-07 -1.8162079e-07 9.946804e-07 1.6337461e-08 -2.6112448e-07 2.3147912e-07 8.3177645e-07 1.2054642e-06
-1.7714602 0.11005824 0.24904232 -0.06469143 -0.1977542 0.0044517885 -0.24391697 0.9009325
-0.07694041 -0.23192874 -0.12777041 0.27143782 0.005850768 -0.30504605 0.15111929 -0.07725162
-0.1870475 -0.21586235 0.1538093 0.03957779 0.10982018 -0.004900115 -0.2137867 -0.056221373
0.015119744 0.11322224 0.053471725 0.03628379 0.013151875 -0.035681818 -0.027389843 -0.05388332
-0.00081657054 0.15544155 0.020136632 0.05919554 -0.0044330824 -0.06314959 0.08147105 -0.025750017
0.06524573 0.075738676 -0.054692272 -0.07287155 -0.007304703 0.031435598 -0.12666595 -0.005733487
0.039167028 -0.012849879 -0.026262531 -0.0705253 -0.050489075 0.08772827 -0.017717645 0.045925196
0.045082938 -0.02938692 0.0017224397 0.024922037 0.0043406035 0.008177697 0.063403435 0.09298239
2.3074316e-08 -7.173991e-09 -1.1807895e-08 5.6794787e-09 -9.988374e-09 -2.3452706e-09 -9.376888e-10 1.1118486e-08
2.879153e-09 1.1161533e-08 1.4606225e-08 3.208852e-09 -6.236704e-10 -4.175468e-09 -4.215869e-09 -1.9776782e-09
-2.0268465e-09 1.3861475e-08 4.5084786e-10 2.3922677e-09 -1.0767668e-08 8.186688e-09 6.6233614e-09 1.4163742e-09
7.706576e-09 8.675511e-09 1.7507644e-09 -4.095228e-09 -9.067867e-09 1.3667973e-08 4.1838124e-09 1.3553552e-08
-1.4306501e-08 -7.9872614e-10 -5.864188e-09 -1.190732e-08 4.3244417e-09 -1.2572694e-09 -9.907495e-09 3.7473833e-09
-1.1791334e-08 7.685644e-09 -5.673926e-09 -1.0367173e-08 -8.08444e-09 -1.5651523e-08 -4.7477386e-09 -1.6164089e-08
4.063545e-09 -6.720896e-09 1.3853161e-09 -2.3044782e-09 -5.8507226e-09 -5.000503e-09 -4.892895e-09 8.835104e-09
-1.5992829e-09 5.1123883e-09 6.865284e-09 -6.078182e-09 -9.9698845e-09 1.467513e-09 -6.0523284e-09 5.768879e-09
7.1307943e-07 3.6527393e-08 -5.6973455e-08 -2.0610996e-08 -4.67769e-08 7.3409816e-09 -1.1186169e-07 -6.166581e-08
1.2400628e-07 -1.2575933e-07 -1.10344615e-07 4.789206e-09 -1.44604915e-08 -7.433196e-09 4.116062e-08 -1.6064174e-08
-9.924444e-09 6.302665e-08 -2.89097e-09 5.0199176e-08 -4.452057e-08 5.5325726e-09 -3.2653265e-08 1.2272243e-09
-2.0474749e-08 -1.697808e-08 3.549706e-08 -2.5243441e-08 -6.84116e-08 -3.40708e-08 -2.0479675e-08 3.5174356e-08
-8.275199e-09 3.47739e-08 -3.2904617e-09 2.7779574e-08 -2.0054914e-08 2.857388e-08 -2.8524171e-08 -5.036032e-08
7.021595e-08 -2.3730747e-08 5.5355245e-09 -7.770448e-09 5.3359734e-09 -8.0291635e-08 2.4817624e-08 5.295867e-09
-2.2637865e-08 -8.352548e-08 -6.4678294e-09 -1.7378264e-08 3.356231e-08 -8.96103e-09 7.351496e-09 -2.1455968e-09
-1.4404279e-08 2.1256271e-08 2.9136354e-08 1.9998774e-08 -3.4691876e-08 -7.676701e-08 -4.0648214e-08 -2.7036535e-08

conv1.lin_pos_r.bias f4 [32]
00000000: a903 f5b7 f2e8 bb3c 6860 03bc 6984 daba
00000010: 787d f63d 8a57 acbd e1c7 9c3c a216 8d37
00000020: a524 793c 917a 833c 3fac 153d e2ac ebbc
00000030: 6bac bebc fe77 3abd 239c 01bc 0bd5 8e3c
00000040: 3bab 3dbd 8dae fbbc aa2d a3bc fbfb ce39
00000050: 0375 26bd 235e 8339 bf3f cdbc 20b9 163d
00000060: 9781 81ba 0351 94bc 1caf d33a b506 6cbd
00000070: d285 cfbc 3b94 b5bc 2c3c b63c 1830 4bba
-2.920798e-05 0.022938225 -0.0080185905 -0.0016671541 0.1203565 -0.08415134 0.019138278 1.6819049e-05
0.015206491 0.016049655 0.03654122 -0.02876896 -0.023275575 -0.04552459 -0.007910761 0.017435571
-0.046305876 -0.03072288 -0.019919235 0.00039479122 -0.040638935 0.00025056404 -0.02505481 0.036797643
-0.000988054 -0.018105036 0.0016150209 -0.057623584 -0.025332365 -0.022165408 0.022245489 -0.0007751002

conv1.lin_neg_l.weight f4 [32, 64]
00000000: 6d32 d031 47f2 08b2 8ca7 be31 32a8 1f32
00000010: 4630 8032 ad61 1cb2 5e08 8bb1 08be 29b2
00000020: 7970 e3b0 0c30 ddb1 141c 8131 99cd a22f
00000030: 1a7f 70b2 7e7f d1b1 cbb5 2032 188b 5632
00000040: 3aac 1fb2 2333 9c31 51e9 f031 ecb7 2332
00000050: a817 4831 1cc2 24b2 4911 7331 4564 5832
00000060: 5c4b 8bb1 02ff 1f32 a1f7 0fb1 0c83 93b2
00000070: c89d 3e32 eb59 5c32 6f71 29b2 9f32 8bb1
00000080: c0ef ce32 e0fe b231 212e b5b0 2db7 4ab1
00000090: 147e d630 1bb0 30b1 e7ba 6a32 420a c231
000000a0: d7e0 a0b1 e72e 7a32 31d2 8332 4fc3 3631
000000b0: 8d94 9db2 ae62 0732 d4f3 5eb2 fb1a 0fb2
000000c0: 96f2 96b1 7b27 5b32 e486 9132 7a17 2931
000000d0: 250b 78b2 93c7 32b2 f427 ab31 669d ecb1
000000e0: 4a17 f131 a7b6 e52f 87fd 4132 1066 5131
000000f0: b322 f0b0 7490 b6b1 b375 1b32 ad30 a631
00000100: 0dfe f53c 8c7d 09bd aa53 1e3d c7e3 5abd
00000110: 1d13 9c3c 88b1 403c 49db 463c 9278 33bd
00000120: 8fd7 53bd 1ad9 2dbd 0cd1 823d d5c4 a2bc
00000130: 2225 1c3d 75b0 1c3d 4111 80bb c0c5 2d3c
00000140: 3d0a 52ba ce45 503d 086a e2bc 0096 69bd
00000150: 218d 613d b401 0dbd 252a 363d b5fa 9db9
00000160: 501b ac3c 6ce1 2c3b af08 423d 3076 bd3c
00000170: d85e 55bc 687c 44bc c416 c93a 491e 38bd
00000180: bc6a 6fbb 285c 273c 2b0f 223d 14f3 353d
00000190: 56ee 8e3c 74b3 9dbc 5232 af3c d879 8d3c
000001a0: bc07 6a3d 1217 c73c a4d9 bc3c 399c 093d
000001b0: 41a8 4b3d 7a57 d2bc d7a9 5f3d 0ccb d13b
000001c0: 7ed8 0e3d 6944 143c b6ce 14bd e263 3ebd
000001d0: 042d d43c f79c 8f3d 24db f1ba 4813 43bd
000001e0: 0957 8d3d db07 be3c eb90 35bb 33c9 e4bc
000001f0: d1ea fd3c 4797 4a3d affb 283d b705 0fbc
00000200: 3715 4c3d f331 f8bc b04b 8a3c ac31 c6bd
00000210: cf1b 033d 4a01 29bc 618a 25bc 2f0d 403d
00000220: 3d7e c2bb 1d6f bfbd d0a5 a6bc 1fee 2abd
00000230: 2f9b 743d 9bbb 353c c1b1 cd3c 6274 403d
00000240: ad90 e2bc 304d c83c d533 a5bd b27c e1ba
00000250: 7e6d 913c 9a51 c4bd 3cac e03a 2e7f 67bd
00000260: 4ced 8c3d 4158 70bb 5c13 db3c 75d6 743d
00000270: ee58 393b 330d a93d 55bb c2bc 3e7a 9dbd
00000280: bd03 c53c 446c 6f3c afbc aa3d 8690 2cbd
00000290: b7c3 713c 631f cdbc 5d7c cf3a 0977 29bd
000002a0: e159 303d 9b5c 1a3c 5292 343a cfc2 5c3c
000002b0: c3b0 f0bc a016 333c d1f4 333c 382b b43c
000002c0: 1f82 d13c 0b62 6fbc ed01 09bd 1154 93bd
000002d0: 8106 273d 6cc3 ad3c e135 deba 8e15 e6bd
000002e0: 8f94 6e3d 18d2 973c 855d 86bc eb53 87bd
000002f0: c7c7 12bc 9181 333c 7484 7d3c 4b4f 1339
00000300: e02a 8e3c 9406 15bd 7a62 893b 06ce 053d
00000310: c29a 393c ac32 69bd 0e6e 73bc 06b4 ebbb
00000320: eb7e 8c3c 4794 9c3c 0e04 4abd 916e 713b
00000330: a710 a0bb 4370 05bd 73e7 003d 00eb 363c
00000340: a426 763c 3c1c 95bc e5d5 df3b a427 81bb
00000350: 218a 1c3c 05f7 00ba aab9 30bd b83d 643c
00000360: 41b4 11bd b221 7c3c 8f6f f0bc a9f6 49bd
00000370: af0a 933a d1a4 46bd 73ed 143b 6d32 62bc
00000380: f6cc f4bc 5e96 e9bc 36ca 5bbc def8 06ba
00000390: 178b b43c 32a3 463c aa91 7abd 5c60 8d3a
000003a0: 2de1 f6bc 08cf 24bc b691 babb 99bc 11bd
000003b0: 528a 4f3c 4f5f f33c 9cd9 85bd 330e 0ebd
000003c0: 8d1c cf3c c5c8 413d 8ece 643b 1fd9 37bb
000003d0: da9c 963c 9440 d2bc 4e76 07bd a4fd 8c3d
000003e0: be2b 2abd 6c15 aebc 2b38 2c3c 55ee dbbc
000003f0: 59dc 1c3c 2247 10bd 0de9 02bd 85dd 8abc
6.0593295e-09 -7.971329e-09 5.5487757e-09 9.293261e-09 1.4923113e-08 -9.102604e-09 -4.0463837e-09 -9.880303e-09
-1.654839e-09 -6.437409e-09 3.7575862e-09 2.9613714e-10 -1.3998738e-08 -6.0971947e-09 9.354561e-09 1.2488066e-08
-9.294178e-09 4.546011e-09 7.0114443e-09 9.529668e-09 2.9117277e-09 -9.590192e-09 3.537098e-09 1.2595653e-08
-4.054e-09 9.313e-09 -2.095e-09 -1.7172646e-08 1.1095331e-08 1.282613e-08 -9.8628865e-09 -4.0511874e-09
2.4090582e-08 5.2094578e-09 -1.3182594e-09 -2.9498992e-09 1.5606383e-09 -2.5711475e-09 1.3663089e-08 5.6473093e-09
-4.682174e-09 1.456258e-08 1.5345991e-08 2.6595506e-09 -1.8344759e-08 7.880471e-09 -1.2977541e-08 -8.32983e-09
-4.3931534e-09 1.2756455e-08 1.6941563e-08 2.4606082e-09 -1.4438034e-08 -1.0406342e-08 4.981297e-09 -6.886398e-09
7.016671e-09 4.178464e-10 1.1291724e-08 3.0471519e-09 -1.747216e-09 -5.3133196e-09 9.048949e-09 4.8367697e-09
0.030028367 -0.033566996 0.038654007 -0.05343988 0.019052083 0.011761077 0.012137243 -0.043816157
-0.051719245 -0.042443372 0.06387529 -0.019869247 0.03812135 0.03825422 -0.003908307 0.010606229
-0.000801239 0.05084782 -0.02763845 -0.057027817 0.05506623 -0.034425452 0.044473786 -0.00030132165
0.021009117 0.002637948 0.047371563 0.023127645 -0.013023101 -0.011992551 0.0015341868 -0.044950757
-0.0036532125 0.010214843 0.039565247 0.04442127 0.017447632 -0.019250609 0.0213863 0.017270014
0.057136282 0.024302993 0.023052998 0.03359625 0.049721006 -0.025676478 0.05460533 0.006402379
0.03487443 0.009049513 -0.036329947 -0.046481974 0.025900371 0.070123605 -0.001845215 -0.04762581
0.06901366 0.023197105 -0.0027704786 -0.02792797 0.030995758 0.049460676 0.04125565 -0.00872939
0.04982492 -0.030297255 0.016881794 -0.09677443 0.032008942 -0.010315249 -0.010103793 0.046887573
-0.005935459 -0.09347365 -0.020342737 -0.041730996 0.059718307 0.011092092 0.025109174 0.04698599
-0.027656877 0.024450868 -0.08066527 -0.00172033 0.017752405 -0.09585877 0.0017141174 -0.056517772
0.06881198 -0.0036673697 0.02674263 0.059774835 0.0028281766 0.08254471 -0.023770967 -0.076893315
0.024049634 0.014613215 0.0833677 -0.042130016 0.014756135 -0.02503938 0.001582991 -0.041373286
0.043054465 0.009421493 0.00068882585 0.01347418 -0.029381162 0.010930687 0.010983662 0.021993265
0.025574742 -0.014610778 -0.033449102 -0.07193769 0.040777687 0.021211348 -0.0016953313 -0.1123458
0.058247145 0.018532798 -0.016402015 -0.06607803 -0.008958763 0.010956184 0.015473474 0.00014048551
0.017354429 -0.036383227 0.0041926475 0.032667182 0.011328401 -0.05693309 -0.014857782 -0.0071930913
0.017150363 0.019113673 -0.049320273 0.0036839584 -0.0048847976 -0.032577764 0.031470727 0.011164427
0.015023861 -0.01820194 0.006830918 -0.003941493 0.009554417 -0.0004919621 -0.043145813 0.0139307305
-0.035572294 0.015388893 -0.02935007 -0.0493075 0.0011218394 -0.048497025 0.0022724539 -0.013805968
-0.02988289 -0.028514083 -0.01341491 -0.00051487784 0.02203898 0.01212387 -0.061174072 0.0010786164
-0.030136669 -0.010059126 -0.0056936396 -0.03558025 0.0126672555 0.029708533 -0.06535646 -0.03468151
0.025282169 0.04731061 0.0034913155 -0.0028052998 0.01838534 -0.025665559 -0.03307181 0.068843156
-0.041545622 -0.02125045 0.010511438 -0.026847044 0.009574019 -0.035224088 -0.031960536 -0.016951332

conv1.lin_neg_r.weight f4 [32, 64]
00000000: 2800 2b33 bbd0 0db1 6216 0f32 ac28 4e32
00000010: 2e45 84b1 0a88 10b2 f831 9cb2 3edc 4632
00000020: 218e 9331 324e 5eb2 393c 1332 709f a030
00000030: eb0a b4b1 9d75 85b1 df82 15b1 a58e 1cb2
00000040: c1ea 7430 87ca 4bb3 6f73 2632 6be5 fe31
00000050: 6a55 afb1 efe2 0032 39d6 3fb2 b4c9 1f32
00000060: 3c7a 22b1 8bcd b331 832e 9330 ff84 5a32
00000070: f1d1 a232 02db 0432 9923 2132 50ca 3c32
00000080: bc1e 87b2 8c4b ecaf 5541 3ab2 d18d 61b0
00000090: 10f7 10af 6e13 c731 2c91 3f32 2e97 73b0
000000a0: 3c73 0cb2 c219 fb32 4462 26b2 bb37 deb1
000000b0: da64 5bb2 cd02 5d32 59d4 1cb2 ffec 2d31
000000c0: af09 31b1 6127 2d32 88f6 6ab2 d612 a0b2
000000d0: 96fe 22b1 3b94 3532 ac55 d731 8439 5f2f
000000e0: 845b 4231 2127 f6b1 33f3 bfb1 f49e 5632
000000f0: 3254 c830 0758 15b2 15fc 52b0 86b7 18b2
00000100: 0c6c c9bc 165d 8fbc a7ad 03ba a3c5 99bc
00000110: 36fd d4bc 527a 343d 9ff8 133d 0203 8b3c
00000120: 385b 813d 4829 ddbc 16e2 c0bd 6775 4d3d
00000130: 3f2e b03c 8d2c 9cbd 8975 4abc 9f21 f53c
00000140: 7226 823d 6346 2bbe 6e93 e4bc 0c1e c13d
00000150: fb59 95bd 498f a23b 07b2 96bd 7996 aabb
00000160: 7adc 8a3d 8894 843c b9a5 3b3d 192b f3bd
00000170: 0f9d 753d 16d4 d63c e64d ba3d 4fb0 993d
00000180: 54ee 8e3c d2d6 2cbc 0519 32be 513e a8bd
00000190: 2b06 a6bb 4348 14bc e36f a4bd f9bf 893c
000001a0: 055b 7f3c 0991 313d 2f75 f23c 60a0 09bc
000001b0: 9d27 8ebb ece1 fabc 345d 6bbc d928 fcbb
000001c0: 1148 903d d8b8 813d 4ef0 a93c cfc3 f73d
000001d0: ef10 8e3d 05dd 953a 95a0 203e ceab 503d
000001e0: c097 06bd acf1 8cbd 2f25 e3bd 2c5d e6bc
000001f0: fca4 bbbd 957c da3c fb7a babd 78ff 6c3c
00000200: 7aa1 d8be 3a7f 103d 7f5f 01bd cd4f 58bc
00000210: 3ea8 263d 3fab 8e3b 3ecb 16bc f700 79bd
00000220: d3b7 a83d 0309 313e d2fb cabd 9589 f53d
00000230: 946b 5cbe 7243 2fbc c48e 97be 8c03 d9bd
00000240: 32a2 333e cd13 a4be 7026 0b3e b604 4f3e
00000250: e28a 0bbe 98f2 a93d a580 9abd 8c9b d5bd
00000260: 6b96 f93c 48bc a13c 5884 f7bd 1915 f03c
00000270: bbcd 103d 81be 363d 88ee 433e d057 003e
00000280: 25d0 cabd 32f1 ca3d 7986 8dbd 9e03 12be
00000290: 94d8 f9bc 5b5d b4bc 560c 07be fde2 bcbd
000002a0: 01ba 29bc ddd6 843d e46b 51bd 076f cd3c
000002b0: 53e5 e5bd d628 92bd b178 ad3d 903f 66bc
000002c0: c807 aebc 61c8 c6bc 6c87 4fbc 7bad ceb7
000002d0: 5a43 e2bb a897 afbd 297b e63d 8fa4 6f3d
000002e0: d583 11be ae2e cbbc fc25 7abd 1d49 9cbc
000002f0: dc57 063c 28f4 933d da6e 30bc 22b2 0b3a
00000300: e452 d1bd 653c 3b3d 29ee 9a3c 6ecb adbd
00000310: 9182 203c 75bc 8a3d 0a57 c3bd 05b4 1b3d
00000320: 0c0e 4f3d a23b 41be 2739 323c b60f debd
00000330: 244c 963d 690b 84bc ae43 9e3c fbe4 173c
00000340: 9dce a0bc 3e11 e73d b16a 1ebc 6a0d 1dbe
00000350: 23ea 7c3d f817 cb3c ef1b 453d 7cfb 60bc
00000360: 9649 5cbb a246 cebd caac 543d 2ead 563d
00000370: e5b6 07bc e411 8ebd d1af 89bd a9bb 92bd
00000380: c5d4 1f3d 8f8d 9cbd 17be 12bc d2e9 dabc
00000390: f98a cf3c d98b 34bd 090c 353d bdb9 a03d
000003a0: 48eb bdbc 98cd 873c 8015 c73d 266c e23c
000003b0: 6fae f9bb ad78 29bc e7e0 933d b79a c5bd
000003c0: abc4 cebc bbcb 36bd 97e1 f03c 7505 4ebd
000003d0: 6c02 fe3c 5b04 e23c 7fca 00bd 2d08 a2bd
000003e0: 44c3 703a 1ba1 6e3d 7873 a73d b229 1ebd
000003f0: b056 cdbc 62b9 4b3c d34b 6b3d 2ad5 2f3b
3.9814182e-08 -2.063685e-09 8.328785e-09 1.2000026e-08 -3.8495704e-09 -8.412835e-09 -1.8183513e-08 1.1575194e-08
4.2944213e-09 -1.293988e-08 8.570219e-09 1.1686847e-09 -5.2399307e-09 -3.8841805e-09 -2.1756745e-09 -9.112829e-09
8.910029e-10 -4.7448818e-08 9.688718e-09 7.4184547e-09 -5.102881e-09 7.502179e-09 -1.1166372e-08 9.30088e-09
-2.3643585e-09 5.232953e-09 1.0708877e-09 1.271951e-08 1.8954752e-08 7.733208e-09 9.379527e-09 1.0989041e-08
-1.5730045e-08 -4.298183e-10 -1.084148e-08 -8.2056056e-10 -1.3184498e-10 5.793871e-09 1.11506715e-08 -8.8617724e-10
-8.175274e-09 2.9231959e-08 -9.684815e-09 -6.467386e-09 -1.2770409e-08 1.286453e-08 -9.128677e-09 2.530953e-09
-2.5762394e-09 1.0078879e-08 -1.3676647e-08 -1.8635017e-08 -2.3718818e-09 1.056929e-08 6.2670633e-09 2.0302166e-10
2.8282736e-09 -7.1639907e-09 -5.58648e-09 1.2492581e-08 1.4575845e-09 -8.692957e-09 -7.6755785e-10 -8.889293e-09
-0.024587654 -0.017500442 -0.00050231296 -0.018770998 -0.025999647 0.044061966 0.036125775 0.016969208
0.06316227 -0.026997223 -0.094181225 0.05016079 0.021506427 -0.07625685 -0.012357124 0.029923258
0.06354989 -0.16726069 -0.027902331 0.09429559 -0.07292553 0.0049609286 -0.07358175 -0.005205926
0.06780334 0.016184106 0.045812342 -0.118734546 0.059964236 0.026224177 0.09096889 0.07504331
0.017447628 -0.010549264 -0.17392357 -0.08215011 -0.0050666532 -0.009050432 -0.08029153 0.016815173
0.015585666 0.043351207 0.029596893 -0.008400053 -0.0043382184 -0.030625306 -0.014365483 -0.007695299
0.070449956 0.06334084 0.020744469 0.120978944 0.069368236 0.0011433667 0.15686257 0.050945096
-0.032859564 -0.06882033 -0.110910766 -0.0281206 -0.09162328 0.026670733 -0.09105488 0.014465205
-0.42310697 0.035277583 -0.031585213 -0.01320262 0.040687792 0.00435391 -0.00920373 -0.060791936
0.08238187 0.17288594 -0.09911312 0.11989132 -0.21525413 -0.010697233 -0.2960111 -0.1059638
0.17542341 -0.32046357 0.13588881 0.20216641 -0.13627198 0.08298224 -0.07544068 -0.10430059
0.030467233 0.0197431 -0.120857894 0.029306935 0.03535245 0.044615272 0.19133961 0.12533498
-0.09902982 0.099092856 -0.06910414 -0.14259192 -0.03049878 -0.022017172 -0.131883 -0.09222982
-0.010359288 0.064862944 -0.051128283 0.025077356 -0.11225381 -0.07136695 0.08470286 -0.01405324
-0.021243945 -0.02426547 -0.012666564 -2.4637897e-05 -0.0069050016 -0.08573848 0.1125396 0.058506545
-0.14210446 -0.024802532 -0.06107138 -0.019077832 0.008199658 0.072243035 -0.010768617 0.0005328973
-0.10220888 0.045711894 0.018912392 -0.08486067 0.009796754 0.067742266 -0.09538086 0.038013477
0.050550506 -0.18870404 0.010877884 -0.108428404 0.073387414 -0.016118722 0.019319382 0.009270902
-0.01962977 0.112825856 -0.009668992 -0.15337148 0.061746728 0.024791703 0.048122343 -0.013731834
-0.0033613197 -0.10072066 0.051922597 0.05241125 -0.008283352 -0.06937006 -0.067229874 -0.071646996
0.039021272 -0.07644188 -0.008956454 -0.026722822 0.025334822 -0.04407868 0.04420093 0.07847927
-0.02318348 0.016577527 0.09720898 0.02763946 -0.007619671 -0.010343713 0.07220631 -0.0964865
-0.025240263 -0.044627886 0.029404445 -0.050298173 0.031007014 0.027589967 -0.031443115 -0.07911716
0.000918437 0.05825911 0.08176321 -0.038613982 -0.02506575 0.012434335 0.05744536 0.0026829937

conv1.lin_neg_r.bias f4 [32]
00000000: f3d5 eabc 82cb ba3d def9 df3c d00d be3d
00000010: 0f4f 90bd 0543 0b3a 7403 f6bc 4eee 1cbd
00000020: 2227 44bc 41d6 823c 4e94 11bc 9018 b53c
00000030: fcea fbb6 baff b23d d3d1 b93c d336 42b9
00000040: e6c8 7cb9 4a94 a7bc b837 2bbd 6d61 a73c
00000050: cf58 3d3a 997b 92b4 e2e4 dc3c e35c aa3c
00000060: 148a 6fbc d00d 8ab9 5801 b83c e842 763a
00000070: 4cd8 1bbc f015 b2bb 3a1b c63c 8f1c 943d
-0.028666472 0.09120847 0.027340826 0.09279978 -0.07046329 0.0005312416 -0.030030943 -0.038313203
-0.011972221 0.015971305 -0.008885456 0.022106439 -7.5077387e-06 0.08740182 0.02268306 -0.00018521705
-0.00024107433 -0.020456452 -0.041801184 0.020432198 0.00072230113 -2.7284548e-07 0.026964609 0.020796245
-0.014620323 -0.00026331702 0.022461578 0.0009394125 -0.009512018 -0.005434744 0.024182905 0.072320096

convs.0.lin_pos_l.weight f4 [32, 64]
00000000: bfe1 02b5 3c04 373d 2198 f3b1 b86e 07b6
00000010: 320a d93c 70fe e9b9 2d16 063d 1692 00be
00000020: d15e d53c 4446 2a3d 850d cb3b bbc5 f5b1
00000030: fc00 783a 0791 18bb de8c 09bd 6784 933c
00000040: ddf9 61bb cad0 8131 2323 fc33 b303 edbd
00000050: 45f1 7dbb 5d75 19bd deca 06b2 14dc b33d
00000060: 7e7d e931 863c b932 8e65 b8bd 572a 74bc
00000070: dfa5 7732 a989 4eb2 845b 5e3d e6b0 92b5
00000080: b311 3632 2663 223d b1f4 ae3d 5c31 69bd
00000090: 3d79 3bbc 1138 083c dc11 8c39 3804 11b3
000000a0: bbd9 ec34 f8fc 86bc 492b 7137 7891 04bd
000000b0: 9cff 04b5 a119 003e b0f3 55bd f923 d7b9
000000c0: 735d 4f36 010c 3f33 afd6 0db2 01ae b8bc
000000d0: 4302 cb3a 451a 9834 d6f1 a73c 627a 80bd
000000e0: bea2 583b 9b5c 7f32 ad14 26bd 61fd d23b
000000f0: 2c63 b43c 3da5 dfb0 be40 603c c762 8d3d
00000100: 8635 5e35 36fc 70bc afba 8932 6db9 ab31
00000110: a4c5 83ba a79d a73a 3dde 54bb ff91 da3d
00000120: 9a86 3e3c 881a febb 349f fb3c 8b85 d1b2
00000130: b26a e9b4 5df6 b8b9 cf41 063b fca3 883a
00000140: f99f ee3a cad8 8e31 559d c035 a4e5 6d3c
00000150: dafb dabb d6b9 c63c 028c 77b2 9456 16bd
00000160: 4d58 a632 7735 5cb3 47f4 873d 5677 4837
00000170: 0f6a beb2 3b9a a5b2 792a 34bd 19a6 73b7
00000180: 56b5 9832 c5ef b8bd 47f8 afbd 352a 7bbc
00000190: 972e 8dba 8d16 de3d e662 0ab9 0026 7032
000001a0: 85c7 e035 64d3 e3bc 4e97 7bb6 663e bd3c
000001b0: 9a01 0f35 ccbb b6bd a849 c5bd 9613 9339
000001c0: c53a 0738 a260 a8b1 ff8e 20b2 5570 35bd
000001d0: af7f 2dba fb7a e934 009a ea3c dde4 9fbc
000001e0: 1ca8 71bb 6248 0b30 8eec 6bbc 8a05 973a
000001f0: e257 63bb b307 18b1 9e51 8ebd eb0b 04be
00000200: 959e d6b5 ee8d ec3d c338 4932 206d e535
00000210: 304c eb3d 40b5 ccb9 fe30 ac3d 813b 41bc
00000220: acc0 3a3b 1782 9c3d 1c74 313d 4e7b 1431
00000230: 2d00 0532 80f9 9232 cd92 4c32 9059 543d
00000240: 9f53 16b1 711a d5b1 f4ab 8bb5 25c7 f4bd
00000250: a06e 3eb2 09d1 003d 7a36 0132 a210 a13d
00000260: 7570 6bb2 0cfc 5431 2767 a5bd eeb9 bab1
00000270: e1e1 6732 6f59 1a30 c90f 003e cba3 8b36
00000280: 0103 29b1 9c6d ab3d a4a8 363e 7947 9fbd
00000290: 79dd 2fb2 24fa c7bd 4963 4932 9451 a031
000002a0: f0d7 1136 f903 5a3d bd11 27b7 8f29 4abd
000002b0: 6a69 3f34 84ad 283e 6509 84bc ead2 f9b9
000002c0: 498d b8b7 465a 84b1 af00 3f31 bea0 80bd
000002d0: ce7a a83a 9835 25b5 7698 c03d 143b 9bbc
000002e0: 4603 9d3b 9e3b 0ab1 83f4 733c 1cc1 8cbd
000002f0: 258f e2b1 4649 d22f 4101 8a3c 4a1a d53d
00000300: c040 a134 8c83 a2bc 76bd 4db0 f6ec e1b4
00000310: c5ac a03c 095c abb7 eab9 94bb bbed 10bc
00000320: bdc0 6f3b a3b0 1dbc b855 843d ce81 04b2
00000330: ede7 6032 7320 5bb2 873d da31 09e5 39bc
00000340: 1173 9332 ad5d 2cb1 e84f 0935 d02f 963d
00000350: 1af4 44b2 58f8 9fbc 4665 1db2 e6f5 b03c
00000360: 4ebd 8eb0 58eb 8bb2 9110 5cbd facc 2a32
00000370: 824f b3b1 1cad 3331 493a 37bc e78b 71b7
00000380: 8da9 95b2 fbd8 24be bd99 1dbe 4b16 b0bd
00000390: c8e8 682f a642 823e 40ee 2031 a159 2ab1
000003a0: 1016 8335 47ad 87bd 3078 ffb6 f996 c0bd
000003b0: c8f2 d234 8339 20be e245 c9bd 019d 3239
000003c0: 161b 3b36 facc e7b1 ab5d 27b2 f8bc 85bd
000003d0: 8824 05bb 946a f2b3 6c68 dbbd ec6c ffbd
000003e0: 984a 5bbb 551e 6f31 538e ccbd 345b bf3d
000003f0: 5d96 5232 1580 6032 281a 50bd 58d8 4fbe
-4.875728e-07 0.044681773 -7.089526e-09 -2.0181014e-06 0.02649412 -0.00044630794 0.032735992 -0.12555727
0.026046189 0.041570917 0.00619668 -7.152918e-09 0.0009460596 -0.0023279802 -0.033581607 0.01800747
-0.0034481206 3.7781307e-09 1.1741056e-07 -0.11572971 -0.0038748544 -0.037465442 -7.845953e-09 0.08782211
6.7954593e-09 2.1564357e-08 -0.09003745 -0.014902673 1.4415007e-08 -1.2022078e-08 0.054286495 -1.0929332e-06
1.0597819e-08 0.039645337 0.08542765 -0.05693184 -0.01144248 0.0083141485 0.00026716187 -3.376428e-08
4.4116845e-07 -0.016478047 1.43747975e-05 -0.032365292 -4.954579e-07 0.12509777 -0.05223435 -0.00041034797
3.0899798e-06 4.448157e-08 -8.256094e-09 -0.022543909 0.0015488345 2.833132e-07 0.020501059 -0.06273343
0.0033055986 1.486401e-08 -0.04054706 0.0064388965 0.022019945 -1.6272349e-09 0.013687311 0.06903606
8.277933e-07 -0.014708569 1.6033793e-08 4.9978355e-09 -0.0010053408 0.0012788073 -0.0032481097 0.10672378
0.011628771 -0.0077546276 0.030715562 -2.439153e-08 -4.3477263e-07 -0.0003527877 0.0020486002 0.0010424848
0.0018205635 4.15739e-09 1.4350904e-06 0.014520083 -0.006682855 0.024258535 -1.4409126e-08 -0.03670366
1.9365098e-08 -5.1271368e-08 0.06638389 1.1948714e-05 -2.2167141e-08 -1.9278664e-08 -0.043985818 -1.4522601e-05
1.7777591e-08 -0.090301074 -0.08592277 -0.015329887 -0.0010771331 0.10844145 -0.00013197548 1.3978479e-08
1.6747368e-06 -0.02781076 -3.7489986e-06 0.023101043 5.327398e-07 -0.08922538 -0.096331894 0.00028052618
3.224124e-05 -4.9004294e-09 -9.345739e-09 -0.04429658 -0.00066184526 4.3489112e-07 0.028637886 -0.01951831
-0.0036873883 5.067077e-10 -0.014399661 0.0011522037 -0.0034689833 -2.2123288e-09 -0.06949161 -0.12895171
-1.5990396e-06 0.115505084 1.1712646e-08 1.7093589e-06 0.11489141 -0.00039044954 0.08407782 -0.011793972
0.002849619 0.07642 0.04332362 2.1606925e-09 7.741659e-09 1.7110096e-08 1.19077415e-08 0.051843226
-2.1875406e-09 -6.202122e-09 -1.0406352e-06 -0.11952046 -1.1084609e-08 0.03144935 7.521175e-09 0.078645006
-1.370437e-08 3.0993332e-09 -0.080763154 -5.4344502e-09 1.3497329e-08 5.6151966e-10 0.12506022 4.161591e-06
-2.4594444e-09 0.08370516 0.17837769 -0.07777304 -1.0236698e-08 -0.097645074 1.1722315e-08 4.6658872e-09
2.1732376e-06 0.053226445 -9.958106e-06 -0.04935604 1.782661e-07 0.16472441 -0.01611776 -0.00047650124
-2.20003e-05 -3.8519685e-09 2.7794547e-09 -0.06280659 0.0012853981 -6.154528e-07 0.094040796 -0.01894907
0.00479165 -2.0115531e-09 0.014889839 -0.0687277 -6.5937393e-09 3.825084e-10 0.016846301 0.10405405
3.00357e-07 -0.019838117 -7.4847806e-10 -4.2081928e-07 0.019613633 -2.0427646e-05 -0.0045387642 -0.008845742
0.0036583387 -0.009624633 0.06461662 -7.712925e-09 1.309125e-08 -1.2754856e-08 6.35163e-09 -0.01134611
1.7165378e-08 -2.5082543e-09 5.1152756e-07 0.07333338 -1.1464204e-08 -0.0195276 -9.16163e-09 0.021601629
-1.0385663e-09 -1.6288752e-08 -0.053726736 9.941909e-09 -5.2186246e-09 2.614633e-09 -0.01118333 -1.4397293e-05
-1.7422986e-08 -0.16098396 -0.15390678 -0.08598002 2.1182978e-10 0.25441474 2.3418494e-09 -2.4789204e-09
9.766682e-07 -0.06624847 -7.613584e-06 -0.09403796 3.9292195e-07 -0.15646939 -0.09827782 0.00017033891
2.7880938e-06 -6.746288e-09 -9.741977e-09 -0.065301836 -0.0020315964 -1.12883896e-07 -0.10713276 -0.12471947
-0.003346121 3.479632e-09 -0.09988084 0.093435675 1.2257797e-08 1.30676385e-08 -0.050806195 -0.20297372

convs.0.lin_pos_r.weight f4 [32, 32]
00000000: 360c 60b6 03aa 51bf 3fb7 d632 6b44 df35
00000010: 598f 6b3e b233 d4b9 9252 1cbe 86f0 fb3d
00000020: ea3f 243e c25e 06bf d277 ac3b b129 a5b2
00000030: c16c 1eb3 10ae 2333 cc89 58b1 15ab 2cbf
00000040: 40be 4d33 5ed8 9932 fd2e 16b6 4aab b23c
00000050: a575 3433 a4be 29be e602 8b32 1404 ca3e
00000060: 11ab a532 8a94 0033 1173 033d e900 3132
00000070: 3535 85b0 cfb8 8a32 df91 37be bdd8 dab7
00000080: 92c7 0336 a4c6 603f ba7f 7cb2 31ac b234
00000090: d5e5 9cbe d743 d3ba 3f38 503e c19a 843d
000000a0: 5454 eebe 946e ed3e 1d48 aebe 107d f2b1
000000b0: 8085 e432 b144 cc32 403f a631 4224 343f
000000c0: ea7d b0b2 5c26 f9b0 ec04 10b6 07c8 7bbf
000000d0: ed96 0533 b24d c53e bdbe ce31 df96 23bf
000000e0: 4c0c 0032 0933 b9b2 d9a2 81bd 28ef 1cb3
000000f0: 5816 56b2 758f 6731 f77f 523d 8365 cd36
00000100: 5489 bfb6 8844 18bf 2927 ed32 37f9 07b5
00000110: 5b77 5fbc 6cf2 c7ba 69db a33e 5f31 a83e
00000120: 513b b13c fa92 b4be 7d90 08be 4579 eb32
00000130: 934e c5b0 1989 53b2 ae6e 0932 d548 03bf
00000140: c46c 402f 9e50 8ab1 b064 3f36 17e1 833d
00000150: baa0 b2b2 cc32 383e 06bf bc31 2c3d 3d3d
00000160: 6857 8a31 a143 96b2 36bb ddbd 238d d1b2
00000170: 31be ce30 b32f b3b2 ae73 3abd 243d 4db8
00000180: 16af ed36 fc8b 603f 20fd b6af 4761 e335
00000190: a909 8ebe d6e7 413a 5ebf 7d3d 6793 a8bf
000001a0: 36c7 80be 2558 2e3f d890 673e aa68 2d32
000001b0: dcf3 8db2 570e 9931 3c71 ac32 efa2 403f
000001c0: 13bf feb1 8c72 8db2 8cae 1db6 7c9b 89bf
000001d0: 78b6 fbb2 0925 d9be abbf 87b0 1e29 163e
000001e0: 6867 0cb1 2a29 2bb1 889a a0bf 75e7 0531
000001f0: 5fe2 dbb2 d743 e1b1 3593 e43e 9695 4635
00000200: 1604 7a32 30ad 6031 2df6 1832 32d1 0bb0
00000210: 8030 4db3 e4a3 1831 6c4d 12b3 aa4d 8e30
00000220: ddb3 1033 be1d 3b32 9c94 3433 c75d 64b2
00000230: 4998 8fb0 3b94 bb31 86ef 7132 b7d0 b4b1
00000240: 908c 3a30 328d 8730 f5b0 9732 f16b 79b0
00000250: c21e 43b2 288b acb0 f404 6831 c71f 3433
00000260: eeaf 81b2 de57 8232 c21f ab31 b7ca c431
00000270: a057 e432 3e1b 03b2 c7c4 a932 c74d beb0
00000280: 769c e235 906f 663f b9d9 00b2 291d ff35
00000290: ecc2 1fbf dd56 bcba 5213 873f da34 ca3e
000002a0: 8b3a 18bd f83e e73e 0d23 7ebf 71b1 9732
000002b0: 4a85 b531 e9a1 0332 961b 9133 5fbc e73e
000002c0: 5826 9931 e849 5833 4f3c 3835 d3b8 11bf
000002d0: ce39 d033 afe4 373f 0542 07b3 38af 20bf
000002e0: 95c7 c9b1 df74 5231 6518 23be 070b f3b2
000002f0: 7a88 bcb3 59d4 cc31 09e3 bf3e 326b 0b36
00000300: d407 9e32 ca70 10b6 06e2 922f a610 8730
00000310: 2350 c0b4 9bd6 eb32 2ecf 0635 87bb e1b5
00000320: 7ed7 0fb6 9a5a 1036 9039 9f36 0635 2b31
00000330: 9372 9730 1b23 edb0 0c1e 97b2 3621 50b6
00000340: f02e 2b32 132f c8b1 bf51 08b2 4024 11b6
00000350: ab65 3432 3095 aa35 accc 21b2 274d 7036
00000360: 5c2c 7832 b60b 59b2 33ca 16b5 1023 d931
00000370: 3456 8b32 f4e7 afb2 3037 9534 add6 3632
00000380: 018a 4eb6 54b7 6cbf 952a 9ab1 a8f4 a5b3
00000390: 899d 9e3e 10a4 c13a e33f 48bf 7b29 ca3c
000003a0: aa22 5cbe e1c6 2dbf 4eb7 773e 682f bfb2
000003b0: 1ef8 0d32 55f9 3530 1c11 80b2 2e8f 92be
000003c0: 33f9 86b1 1b73 1532 d2b8 2336 ee59 77bd
000003d0: ed9c 37b2 9fb6 69be 966a 2c32 156b 903c
000003e0: f3a4 8830 ee5f 2ab2 b632 ba3c 297c 3db2
000003f0: 2353 9531 9c84 ef31 1e6d 20bf dbd4 9337
-3.3385709e-06 -0.8190004 2.499621e-08 1.6634707e-06 0.23003902 -0.00040474307 -0.15265873 0.123017356
0.16040006 -0.5248834 0.005263307 -1.9227487e-08 -3.6886153e-08 3.8109704e-08 -3.1510465e-09 -0.6744855
4.7903313e-08 1.7909937e-08 -2.2379093e-06 0.021810193 4.2016513e-08 -0.1657663 1.6183048e-08 0.39456236
1.928632e-08 2.9937418e-08 0.032092158 1.0302963e-08 -9.692146e-10 1.6149356e-08 -0.17926739 -2.6088552e-05
1.9636686e-06 0.878031 -1.4697372e-08 3.328037e-07 -0.30644098 -0.001611824 0.20333956 0.064748295
-0.46548712 0.46373427 -0.34039393 -7.057345e-09 2.6603402e-08 2.3779963e-08 4.8384265e-09 0.70367825
-2.0546356e-08 -1.8128037e-09 -2.1460537e-06 -0.9835209 3.1103742e-08 0.3853584 6.0170735e-09 -0.63902086
7.453377e-09 -2.1560043e-08 -0.06329889 -3.653909e-08 -1.246152e-08 3.369647e-09 0.051391568 6.1212936e-06
-5.7082307e-06 -0.5947957 2.760824e-08 -5.0654074e-07 -0.013639296 -0.0015254742 0.32003334 0.32850167
0.02163473 -0.35268384 -0.13336368 2.7412748e-08 -1.4355969e-09 -1.2312989e-08 7.999615e-09 -0.5128301
1.750094e-10 -4.0254937e-09 2.8519826e-06 0.06439417 -2.0795017e-08 0.17988127 5.493237e-09 0.046200916
4.0262655e-09 -1.7493052e-08 -0.10826723 -2.4394984e-08 1.5042528e-09 -2.0860034e-08 -0.045520477 -4.893275e-05
7.083533e-06 0.877136 -3.3285463e-10 1.6941129e-06 -0.27741745 0.0007396912 0.06195008 -1.3169984
-0.25151986 0.6810325 0.22613847 1.0093723e-08 -1.6525455e-08 4.4545163e-09 2.0074928e-08 0.75248617
-7.4140956e-09 -1.646665e-08 -2.3496423e-06 -1.0750575 -2.9303223e-08 -0.42411068 -9.877018e-10 0.14664122
-2.043146e-09 -2.4907174e-09 -1.2547159 1.9485615e-09 -2.5597897e-08 -6.5560744e-09 0.4464356 7.3978424e-07
1.4552844e-08 3.2694736e-09 8.903538e-09 -5.086519e-10 -4.7774392e-08 2.2212072e-09 -3.406369e-08 1.0353933e-09
3.3691197e-08 1.0891595e-08 4.2044675e-08 -1.3292669e-08 -1.0447901e-09 5.459268e-09 1.4082508e-08 -5.2624176e-09
6.7866157e-10 9.862673e-10 1.7659184e-08 -9.0739066e-10 -1.1357487e-08 -1.2554198e-09 3.3763259e-09 4.1938417e-08
-1.509758e-08 1.517395e-08 4.9803655e-09 5.727397e-09 2.658254e-08 -7.631398e-09 1.9763673e-08 -1.3846425e-09
1.6883848e-06 0.9001398 -7.500085e-09 1.9007467e-06 -0.624068 -0.0014369149 1.0552771 0.39493448
-0.037165206 0.4516523 -0.99272233 1.7659405e-08 5.2829465e-09 7.662018e-09 6.7571065e-08 0.45260903
4.4572452e-09 5.0358636e-08 6.86331e-07 -0.56922644 9.6962694e-08 0.7183332 -3.149218e-08 -0.6276736
-5.8725598e-09 3.0625456e-09 -0.15927275 -2.8293938e-08 -8.779257e-08 5.9613225e-09 0.37477902 2.077501e-06
1.839718e-08 -2.1523324e-06 2.6717845e-10 9.827275e-10 -3.5821094e-07 2.7455192e-08 5.0220376e-07 -1.6818384e-06
-2.1434093e-06 2.151041e-06 4.7452704e-06 2.4913915e-09 1.101926e-09 -1.7253997e-09 -1.7592377e-08 -3.1013747e-06
9.964182e-09 -5.826118e-09 -7.934829e-09 -2.1627784e-06 1.0500496e-08 1.2709406e-06 -9.41797e-09 3.5807695e-06
1.4445586e-08 -1.2633725e-08 -5.6173593e-07 6.3195174e-09 1.622093e-08 -2.0478161e-08 2.7793567e-07 1.0642606e-08
-3.077672e-06 -0.92467237 -4.486831e-09 -7.727914e-08 0.30979565 0.0014773626 -0.78222483 0.024677983
-0.21497598 -0.6788159 0.24191019 -2.2256884e-08 8.2636955e-09 6.620174e-10 -1.4908942e-08 -0.28624862
-3.928244e-09 8.699113e-09 2.4396472e-06 -0.060388498 -1.0687683e-08 -0.2282357 1.00359525e-08 0.017629186
9.942184e-10 -9.917114e-09 0.022729259 -1.1029479e-08 4.3459223e-09 6.9708914e-09 -0.626665 1.7622884e-05

convs.0.lin_pos_r.bias f4 [32]
00000000: b5e9 ad3b a64e e43d 2798 f83c 9819 813d
00000010: 34f1 f3bb b190 073e f33d 84b8 1520 8d3d
00000020: 0c0e 91bc d0c1 cbb8 d0f9 94bc b3a7 deb9
00000030: c0fc f23b 35eb 00bd 5fe1 57bd 5d63 40bd
00000040: 6ed6 dbbb 5c6a 96bc ae81 1ebd 6213 07bd
00000050: f318 83bd 519c 843d df85 84bc 5a57 8c3d
00000060: 2b6f 19bb df7e 99b9 ca65 8cb5 4820 d3ba
00000070: 9142 81bd cbbc 57bd ad9a b53d 00f2 323d
0.005307401 0.111478135 0.03034599 0.0630371 -0.007444525 0.13238789 -6.3057894e-05 0.06890885
-0.017706893 -9.715895e-05 -0.018185526 -0.00042468085 0.007415384 -0.03147431 -0.052705165 -0.04696976
-0.0067089116 -0.018361263 -0.03869789 -0.03297747 -0.06401243 0.064751275 -0.016177116 0.068525985
-0.0023412209 -0.0002927696 -1.0460437e-06 -0.0016107643 -0.06311525 -0.05267028 0.08867393 0.04368782

convs.0.lin_neg_l.weight f4 [32, 64]
00000000: 90b6 e630 dac3 2033 0ae9 04b0 20dc 7632
00000010: 839e 9131 0f9a 3c32 40b1 18b2 86a1 37b2
00000020: e277 a72e 1699 f1b0 a77b dcb0 a4d5 0daf
00000030: d191 4fb1 1115 d0b1 2263 24b3 29a6 3c31
00000040: f0ae 0bb1 b644 fb31 6c08 58b1 2f81 b932
00000050: b272 7232 3ced adb1 88ee 9832 3511 b131
00000060: 8393 86b2 8775 c131 e3b6 1133 4a7f 80b1
00000070: bd04 89b1 e739 9cb1 4a7c 03b2 912e 5b32
00000080: 211d 65b2 b0f4 9f32 fcee 0cb0 dbe2 e131
00000090: 7560 58b2 6c14 0db0 cc65 67b1 a58c 32b1
000000a0: bad6 8432 60aa aeb2 bb6a ecb2 47e1 ab31
000000b0: d342 72b1 96e1 00b1 d350 9b31 5a23 8332
000000c0: 55a4 50b2 0774 e830 f1f7 5cb1 75a8 8431
000000d0: d2c1 0331 f440 4a32 65d9 3e32 0ce6 db32
000000e0: 13bb 8132 50d7 90af c288 6532 d9de f3b1
000000f0: e328 2532 7667 e1b1 a116 4cb1 4ee9 09b2
00000100: 6cb4 07b2 df21 2134 21a4 e232 43ae b6b3
00000110: 0481 34b1 0374 88b3 f616 a231 1018 c531
00000120: bc0b a931 df3d 1431 73f6 4a31 09c3 9db3
00000130: 056f 19b2 1b49 1034 43f6 1334 3cec 0fb1
00000140: 9ce9 96b2 ad05 2bac 5750 bbb0 27bb beb3
00000150: 698f e5b1 6bb7 3232 4537 f532 f55a f332
00000160: dd40 4e30 781d 9031 e890 0f34 d35c 3c32
00000170: 4874 0d32 0f39 1732 4538 06b3 c8a4 2eb2
00000180: cd33 7a30 659d 6bb3 6c5e 6eb2 41a8 7632
00000190: 4789 c933 b550 0a32 c13d b033 1433 d1b3
000001a0: 01e0 efb3 16c3 b0b3 45db 8db3 a98c 09b2
000001b0: 86ae f3b0 2941 93b1 ae76 4530 c11b e632
000001c0: c366 c530 1b14 35b2 d981 ea30 7bae a633
000001d0: b3ad 72b2 0024 52b3 b96d 5b31 f40c d1b2
000001e0: 496b 19b1 f0e0 21b2 7f25 06b3 486a 2bb0
000001f0: ffd3 b9b1 ec45 a52e 251a 0333 5d3b d231
00000200: c46c 8e32 c494 44bd 92c9 abba 8bef 69bd
00000210: 6055 5f3b a03c adb1 f7c3 87bc 71a5 6534
00000220: c834 a2b1 131e cf3b d237 27b0 2289 07bd
00000230: 408e 0731 aa30 7831 8f61 713c a64b 2cb2
00000240: 29ac 7fb2 a13f 7832 79db 3837 24ce 9bbc
00000250: f2f0 0e31 c1f0 35b1 0e25 593d 0860 a93b
00000260: b164 81af 7948 4432 6425 1abd acfd 4b3d
00000270: acb1 e33b bd99 b631 321f 0c3c 3500 01b2
00000280: 3741 22b2 79b4 da3c 5661 a7b1 3444 9c32
00000290: ad1d 4532 a710 0132 6002 09bc 82ac 3bb1
000002a0: 971b 1cbd 723a 203d b8f4 e6bc 3aba dcb8
000002b0: 9ca4 dabb 0e38 ba3c 1902 fd3c c18a 00bd
000002c0: 3b8d dfbc 7a59 1332 c69b a930 9e9e b831
000002d0: d192 1ebc ae50 b1bc 32c1 c732 31bc 293d
000002e0: 769b c0b2 2363 9831 7d70 03b2 5760 8bbc
000002f0: aa76 1734 b4d6 a6b1 074e fdbc 05dc 4432
00000300: c3d0 47b2 8f1c 383d c1dd 01bc 6354 eb3d
00000310: 2b01 183b 4fbb 09be fb88 473a 1125 8532
00000320: 07a2 bdb5 e044 68bc 0ff8 8d37 041a 6c3d
00000330: 3dd5 8935 f49b 263d 0379 083e 7bb2 d7b9
00000340: a54a 07b7 4278 63b2 d103 e4b3 382a fc3c
00000350: 44d1 ca3a 3194 09b5 af71 853c 38cd 2f3d
00000360: ee79 783b 0d2c 8732 8d0f c03d 34c4 3dbd
00000370: a333 5a3c 546f 3031 701b 0b3e 448a 503d
00000380: d581 92b5 27b0 3fbd 4556 c831 414e 6cb5
00000390: 5f0b 153e 486b 1a3a 4f93 30bd 70db ebbd
000003a0: 341e de3c 1dd0 71bd a126 4c3d 61f7 6b34
000003b0: b1ef 64ba f520 8dbb 89cc 513c f196 e03c
000003c0: cda7 81bb 2f97 d730 f8b0 3cb5 60cb 90bd
000003d0: acba 4f3c 816f 9ebd bd65 95b2 d084 033d
000003e0: 27e4 05b2 ea32 45b3 edf1 0ebe ad89 12bd
000003f0: 3ab4 5233 6849 25b1 957e 5d3c 9141 0bb7
1.678659e-09 3.743103e-08 -4.835249e-10 1.4369135e-08 4.238076e-09 1.0978069e-08 -8.887866e-09 -1.0688728e-08
7.615576e-11 -1.7578567e-09 -1.6042251e-09 -1.2899776e-10 -3.0205352e-09 -6.0559917e-09 -3.8274386e-08 2.7452052e-09
-2.0326603e-09 7.312873e-09 -3.1436924e-09 2.159558e-08 1.4112333e-08 -5.061933e-09 1.78036e-08 5.153334e-09
-1.5666734e-08 5.6304006e-09 3.3926778e-08 -3.7397614e-09 -3.9877635e-09 -4.5467803e-09 -7.653464e-09 1.2758066e-08
-1.33361775e-08 1.8621307e-08 -5.127132e-10 6.5741523e-09 -1.25947865e-08 -5.132452e-10 -3.367279e-09 -2.5982356e-09
1.5464469e-08 -2.0333744e-08 -2.7522551e-08 5.002366e-09 -3.525362e-09 -1.8754682e-09 4.5202824e-09 1.5266483e-08
-1.2144558e-08 1.6913199e-09 -3.2155152e-09 3.860857e-09 1.9173183e-09 1.1772716e-08 1.1108885e-08 2.5599569e-08
1.5102648e-08 -2.6346436e-10 1.33606495e-08 -7.0975656e-09 9.613561e-09 -6.560124e-09 -2.969877e-09 -8.027497e-09
-7.899057e-09 1.5006616e-07 2.63845e-08 -8.5067335e-08 -2.6266784e-09 -6.354096e-08 4.717431e-09 5.73619e-09
4.9198814e-09 2.1572004e-09 2.953496e-09 -7.346359e-08 -8.931015e-09 1.343764e-07 1.3780031e-07 -2.0943522e-09
-1.7568532e-08 -2.4303712e-12 -1.3628875e-09 -8.881607e-08 -6.681081e-09 1.0402668e-08 2.8546888e-08 2.8330286e-08
7.503454e-10 4.194302e-09 1.337063e-07 1.0964146e-08 8.2337195e-09 8.80233e-09 -3.1250483e-08 -1.01656e-08
9.1023084e-10 -5.485835e-08 -1.3874892e-08 1.4357341e-08 9.3847625e-08 8.051008e-09 8.2068716e-08 -9.741612e-08
-1.1170051e-07 -8.2311246e-08 -6.605709e-08 -8.006432e-09 -1.773018e-09 -4.285671e-09 7.1836836e-10 2.6788145e-08
1.4362843e-09 -1.0540158e-08 1.7062646e-09 7.761715e-08 -1.4125749e-08 -4.8927177e-08 3.1931064e-09 -2.4336693e-08
-2.2325415e-09 -9.422578e-09 -3.123341e-08 -6.236047e-10 -5.40831e-09 7.515752e-11 3.0524593e-08 6.118553e-09
1.6580437e-08 -0.047993436 -0.0013106337 -0.05711321 0.0034077987 -5.041855e-09 -0.016572936 2.1387474e-07
-4.720821e-09 0.006320724 -6.083357e-10 -0.033089764 1.9725945e-09 3.6116412e-09 0.014732732 -1.0028918e-08
-1.4882098e-08 1.44499674e-08 1.1018355e-05 -0.019019194 2.0800681e-09 -2.647582e-09 0.053013854 0.0051689185
-2.353651e-10 1.142518e-08 -0.037633315 0.049802467 0.0069486704 5.314375e-09 0.008552359 -7.508835e-09
-9.444469e-09 0.026697384 -4.8714055e-09 1.8191805e-08 1.1473657e-08 7.512575e-09 -0.008362383 -2.731014e-09
-0.03811225 0.039118238 -0.028192863 -0.00010525105 -0.006672455 0.022731807 0.03088479 -0.031382326
-0.027289024 8.576871e-09 1.2340642e-09 5.3731375e-09 -0.009678558 -0.021644916 2.3254504e-08 0.04143924
-2.2422437e-08 4.4350528e-09 -7.6507805e-09 -0.017013712 1.410614e-07 -4.8556448e-09 -0.030920995 1.1458728e-08
-1.1630791e-08 0.04494911 -0.007926405 0.11490705 0.0023194056 -0.13450359 0.0007611659 1.5500094e-08
-1.4128753e-06 -0.014176577 1.6924021e-05 0.057641998 1.0269356e-06 0.040676072 0.13327412 -0.00041140974
-8.064007e-06 -1.32404825e-08 -1.06177716e-07 0.03078185 0.0015473743 -5.1252124e-07 0.01628956 0.04292032
0.0037914473 1.57361e-08 0.09377966 -0.046329692 0.013317975 2.5674654e-09 0.13584685 0.05091311
-1.0915634e-06 -0.04679885 5.830574e-09 -8.8030725e-07 0.14555119 0.000589062 -0.043109234 -0.11516464
0.027114011 -0.059036363 0.049841527 2.1976076e-07 -0.00087332266 -0.0043069073 0.012805113 0.027415724
-0.003956771 1.5686278e-09 -7.029298e-07 -0.07070041 0.012678783 -0.077361114 -1.7392148e-08 0.03210908
-7.793495e-09 -4.5913943e-08 -0.13959475 -0.03577583 4.905835e-08 -2.4052387e-09 0.013518949 -8.3003115e-06
