wiki-elec/models/wiki-elec-train-1.pt (torch, 64411 bytes, 14 tensors)

conv1.lin_pos_l.weight f4 [32, 64]
00000000: 8b35 9db5 c349 b5b5 3a7b 22b4 0686 6cb4
00000010: 54af 20b5 17dd 92b4 38f3 0eb4 0d2e b5b4
00000020: 7701 aeb5 a090 7b35 4cbb 62b4 122c 8034
00000030: 3dc5 4333 bd75 2f35 1dd6 b1b4 05d1 a333
00000040: aafc 85b4 e030 56b5 5d49 feb4 0e61 b633
00000050: 3cd6 b931 9cd0 9db5 3fe6 dc33 00b8 df30
00000060: 377d 32b4 0031 c2b2 bb9d 92b5 bade 9e33
00000070: 41e2 23b4 9bee a8b4 0463 1133 d331 1635
00000080: b9ef 6634 3572 15b4 8183 5733 0b48 83b3
00000090: b7d3 1434 f51d d030 9396 6134 6831 0234
000000a0: 38db ecb1 ea8e b833 c472 9f33 3b39 4e34
000000b0: 61d2 74b4 f8c6 24b4 6898 9032 b737 5835
000000c0: c3ad 28b3 0ae4 a633 e038 aa34 dd41 0a34
000000d0: 5aec 02b5 747e f031 e001 56b4 7a54 28b4
000000e0: 99ac 8634 d637 ae35 20fc 1b34 4f7a 46b3
000000f0: bda3 29b5 3005 dc33 4eef 9a34 c4ae ecb4
00000100: 1ba1 3f3a 7328 73bd e472 abbd 34ff 27be
00000110: d559 76bc ca5b 993b aad1 373c 84cd d33c
00000120: 6460 9cbd f31f 2dbd d50d 72bd f44e 22be
00000130: 4f1a 9b3d e70f b0bc 81be a33d c0bc 313c
00000140: e5c8 c4bd 83d6 b93c 2881 21bd edb1 bbb9
00000150: 2e05 a4bc 3302 b5bd 25af 283d cc9d c5bb
00000160: 7b87 1abd dbe9 7c3d a15c 1bbb 766a 8cbd
00000170: 15b2 143d 6b0f 57ba b071 eb3b 9c92 03bd
00000180: 3448 403d b3ec 143d 7166 123d 6b8d d43c
00000190: 46d7 083d a60e 15bd 4979 9d3d ba61 853d
000001a0: 2aeb 0a3d fb62 793d f899 5e3d de4a 8fbd
000001b0: 9f9a e8bc cfd8 0b3d 5782 82bd 2208 603d
000001c0: 2ebe 8b3c b965 343d cf61 943d b7ff 23bb
000001d0: 223b 27bd fb97 8a3c 05ee 973a 6c73 b8bd
000001e0: 7a4a 893b 6207 b33c 1485 efbd 1502 363d
000001f0: 1e6f 163d 8cd8 9d3d bc81 e2bc e43b 58bc
00000200: b263 16b3 a70e f8b0 31da 1832 b2b6 3032
00000210: d736 bb32 7ad3 9132 016f e9af 9eca 9a32
00000220: c750 1032 7507 5eb1 1874 2f2f 2478 4231
00000230: 775c 9bb1 5c5f 1032 62a4 2cb1 5d89 be31
00000240: 5520 dbb1 e6dc 7bb2 3a5c 0bb2 3f83 cbb1
00000250: f89f ddb1 fe07 a231 9d87 18b2 8768 6532
00000260: 9982 00b1 a5ff 00b2 eccc 5d30 c88a 9d30
00000270: 0d54 d031 78e9 6f31 e2ca 8a31 e825 49b1
00000280: adab 6131 058b 37b0 26f9 4231 f27c 85b0
00000290: fbf0 f3b1 6ac2 c4b1 7f0b e0b1 1a61 b531
000002a0: 8cf5 2832 08a5 c9b1 4c5a 1d32 cc12 bd31
000002b0: 98dc 0c31 3c3e 5db2 1262 bd31 df84 c131
000002c0: 36f5 1832 f1af 2032 8872 61b2 d918 5732
000002d0: 5b89 feb1 e5bf 3432 1e7c fbb1 2c60 6db0
000002e0: bdb1 daad a9ce ac31 18a9 8db2 9afc 4bb1
000002f0: e4e9 01b2 19d1 7a2f 4fa2 b52f f113 5032
00000300: 7332 a03d b8ea 5cbd cd90 813d a4de 6c3d
00000310: f036 e63c 7b73 973c 5f51 35bc 2b96 453d
00000320: 6e22 1a3b f2fe b43b 804e 933c 74ab 733c
00000330: 22f5 6e3b 3785 d1bb cb45 0e3d a157 b7bc
00000340: bba4 523c ec5b 633c 88e5 83bc 718d 0a3c
00000350: 56f6 9b3d c3be dc3c 1da1 86bb 03f3 19bc
00000360: 6cad a83c 715b 75bb 66c8 4dbc 5c7a 1dbd
00000370: 8bff 73bb cc39 8f3c 4f09 7a3c 57d6 99bb
00000380: 2ab8 0a3d b474 563d af51 2c3c 9c7b 47bc
00000390: 0267 14bc 1319 123d 6c3b 04bc 9d88 bbbc
000003a0: 04b2 243d 9f45 a8ba aa0b 9cbc fe87 f5bc
000003b0: f6a7 83bb b888 43bc ad36 43bc fbe9 a0bd
000003c0: 57cb 04bd 6775 313d 1c68 873b 5e2e f63b
000003d0: 4a0a 073d 3d94 83bc 8885 b93b 1361 8a3c
000003e0: 79d7 903c 8cbe b1bc 212d aa3c 8488 553d
000003f0: 1abc 4dbc dff4 7cbc 9261 94bc c675 bb3c
-1.1712995e-06 -1.3507018e-06 -1.5132255e-07 -2.202797e-07 -5.985978e-07 -2.7355483e-07 -1.3313263e-07 -3.3747384e-07
-1.2964437e-06 9.3715244e-07 -2.1116028e-07 2.3873923e-07 4.5581363e-08 6.536391e-07 -3.3124607e-07 7.6282994e-08
-2.4957018e-07 -7.9792335e-07 -4.7364566e-07 8.4926896e-08 5.4085643e-09 -1.1758125e-06 1.028643e-07 1.6277681e-09
-1.6623095e-07 -2.2606855e-08 -1.0923753e-06 7.397962e-08 -1.5262869e-07 -3.1466047e-07 3.3850498e-08 5.595186e-07
2.150763e-07 -1.3918255e-07 5.017819e-08 -6.1132674e-08 1.3860596e-07 1.5142506e-09 2.1009537e-07 1.2125167e-07
-6.8934263e-09 8.5941636e-08 7.42489e-08 1.9206065e-07 -2.2800806e-07 -1.5346075e-07 1.6833113e-08 8.0547346e-07
-3.9273583e-08 7.7714574e-08 3.170635e-07 1.2876212e-07 -4.877271e-07 6.9992954e-09 -1.9930985e-07 -1.5676952e-07
2.5085026e-07 1.2980261e-06 1.4527222e-07 -4.6211706e-08 -6.3195677e-07 1.0245492e-07 2.8858852e-07 -4.4085584e-07
0.00073100784 -0.059364747 -0.08371523 -0.16405946 -0.015036066 0.0046801316 0.011219421 0.025854833
-0.076355726 -0.042266797 -0.059095223 -0.1585043 0.07573377 -0.021491958 0.0799532 0.010848224
-0.0960863 0.022685295 -0.039429814 -0.00035799984 -0.020022001 -0.0883831 0.041182656 -0.0060307737
-0.03772686 0.06174646 -0.0023706334 -0.06856243 0.036302645 -0.00082038966 0.0071851835 -0.03212224
0.04694386 0.036358546 0.035742227 0.02594634 0.033408426 -0.036390923 0.07689149 0.065127805
0.033915676 0.06088541 0.054346055 -0.06996702 -0.028394042 0.03414231 -0.063725166 0.054695256
0.017058458 0.044042323 0.07245218 -0.0025024244 -0.040827878 0.016918173 0.0011591321 -0.0900639
0.0041897865 0.021854106 -0.116953045 0.04443558 0.036727063 0.07707319 -0.027649753 -0.013197873
-3.501527e-08 -1.8048539e-09 8.897175e-09 1.0286088e-08 2.1794603e-08 1.697639e-08 -4.2461326e-10 1.80201e-08
8.40027e-09 -3.230949e-09 1.5957402e-10 2.8299008e-09 -4.5216058e-09 8.403585e-09 -2.5122735e-09 5.545344e-09
-6.3774146e-09 -1.4660349e-08 -8.111835e-09 -5.9229985e-09 -6.450133e-09 4.715729e-09 -8.878399e-09 1.3353321e-08
-1.8700688e-09 -7.508707e-09 8.0690543e-10 1.1462697e-09 6.063152e-09 3.491179e-09 4.0393937e-09 -2.9270897e-09
3.2839396e-09 -6.677257e-10 2.837234e-09 -9.712535e-10 -7.099627e-09 -5.726453e-09 -6.520565e-09 5.2788325e-09
9.834718e-09 -5.868632e-09 9.159134e-09 5.502761e-09 2.0498074e-09 -1.28780435e-08 5.5117733e-09 5.632145e-09
8.903319e-09 9.35323e-09 -1.3122765e-08 1.2520297e-08 -7.4079884e-09 1.0521011e-08 -7.319172e-09 -8.6356766e-10
-2.4862662e-11 5.0293534e-09 -1.6491455e-08 -2.9683975e-09 -7.561969e-09 2.2811654e-10 3.3039035e-10 1.2111728e-08
0.078221224 -0.053934783 0.06326447 0.057829514 0.028102368 0.018487683 -0.011066764 0.048238914
0.0023519057 0.005523556 0.017981768 0.014872421 0.0036462029 -0.0063940543 0.03473453 -0.022380652
0.012856658 0.013876896 -0.01610066 0.008456574 0.07615344 0.026946431 -0.0041085617 -0.009396317
0.020590506 -0.0037438537 -0.012559986 -0.03844677 -0.0037231173 0.017483614 0.015261008 -0.0046947408
0.03386704 0.05235739 0.010517522 -0.012175467 -0.009057762 0.035668444 -0.008070808 -0.02289229
0.04020883 -0.0012838132 -0.01904853 -0.029972073 -0.0040178252 -0.011934452 -0.011914891 -0.07857128
-0.032420482 0.043324854 0.004132284 0.0075128516 0.032968797 -0.016061896 0.00566167 0.016891992
0.01768087 -0.021697305 0.020773472 0.052132145 -0.012557054 -0.015439241 -0.018112931 0.022883307

conv1.lin_pos_r.weight f4 [32, 64]
00000000: 1fa6 cfb5 8063 ed34 6d3b a8b3 119d 34b5
00000010: 399b 4633 6b79 1f33 c1eb f932 731c 7934
00000020: 66bf 6eb5 3905 0c36 101e 64b3 a368 01b5
00000030: 0e53 ff33 3fba 17b5 5109 8234 4567 b8b3
00000040: 661a 29b2 724f 18b5 5879 cc34 cf2e 9734
00000050: 9f2b 0b34 2275 8ab3 2278 3f35 fbf1 7e34
00000060: c992 86b4 3b13 9db3 d303 8030 8ea6 b6b4
00000070: 2d0c ebb3 8758 afb3 6464 6fb4 f311 a234
00000080: 3fec b933 668b 0d33 ae79 2c35 a9d9 3ab5
00000090: 4469 8fb5 b870 c2b4 c345 9333 b7ac 1cb4
000000a0: a9c3 8ab4 d7db 40b4 e059 d7b4 1dcc 95b4
000000b0: cd39 ad34 fa84 8d34 732a 2f32 5ad2 7933
000000c0: 2911 01b4 58f7 8a34 3c71 6e34 f2c5 6a34
000000d0: bef3 8bb4 99ef 8834 ee27 8e35 d8d2 5233
000000e0: 5a4a efb5 38ca 17b5 28b9 17b4 434f ebb4
000000f0: 99d4 0f35 1aba fab4 4235 a1b4 615a 2535
00000100: 6d75 45bf 27aa 9f3c 9863 c53b 11e4 41be
00000110: 7f2e d23d 93d9 56bb f133 adbd b472 ccbe
00000120: 3aa2 3ebe cf76 5b3d 57b9 e83d 8050 57be
00000130: 3395 633d 10b5 d1bd 9b38 a6bd c6cf 93bd
00000140: fd16 e63d 80e0 8c3e 8ce2 75bd da5a 29bd
00000150: 129c babd a412 61bd bf1c b53d 880c b23d
00000160: a821 f3bd 8ca6 85bd dea1 bdbb 509a 4fbd
00000170: bcf2 4ebc fd27 1f3e 36ab 61bd 5466 19bd
00000180: 84f3 293e 08ba ccba 80b3 833d 9b4c bd3d
00000190: 155d a73d 12fb 08be a466 26bd 5ba9 efbd
000001a0: cb4b ca3b 2dbf 5d3d 31ce 1b3e d2d0 fbbd
000001b0: 4d1f acbd d340 2b3e 950c 3dbd cae3 3a3e
000001c0: d386 043d af4c a43d 070f d4bd e723 bbbc
000001d0: 2519 ca3c 13a5 56ba 17b0 8dbd 9917 063e
000001e0: 1bac af3d ad71 05be 6c5b 243c 6ced 44be
000001f0: 1f59 903d 6c06 493d 839d 78be 6f1a e3bd
00000200: 4655 83b3 ff9d 7d31 d069 2eb2 92de 8231
00000210: b7b6 35b2 ffcc c731 9908 1ab2 aec1 7131
00000220: 040b 8ab1 3d0a 3232 b10b b132 bceb 4b32
00000230: 2c9a 09b2 3073 4333 b719 8cb2 11b7 6d32
00000240: 8741 4a31 c649 2732 aee1 09b2 d982 1b32
00000250: c747 f8b1 b1af 16b2 13cc 0db1 4ade 5231
00000260: 4bb6 21b2 e41c 1432 6a82 0bb0 9732 d232
00000270: 1c0b e131 8178 9832 374b 1fb1 9ec9 a631
00000280: e745 a1b2 df48 8f32 072d 5c32 52e8 6b32
00000290: baed 12b2 0973 6cb2 b8ad f131 a638 e831
000002a0: dc26 3332 1053 8130 da2e 0a32 2e00 0cb2
000002b0: 110a 36b2 5fa0 a5b1 ac8a 4bb1 152b 8fb2
000002c0: 8abe dab1 6670 d031 b62e 8c31 3c42 0bb2
000002d0: 9d20 d931 0c88 8232 6913 1532 724c c031
000002e0: 8081 632e 9bf4 8532 706c 7d32 5c9a c731
000002f0: 0241 9332 e813 41b2 b92d d7b1 b48f 65b1
00000300: eb0e e0bc 8c16 bebd 0978 b63c 1846 463d
00000310: f731 533e f402 95bd aea7 693d f3cd 82bd
00000320: 5a88 6e3d 5836 a73b a222 943c 7a2b 243c
00000330: 41af 9abd 0b0d ca3c a732 c13c 3e6c 45bd
00000340: 3f8d 993c 030f 023e 1dd5 f0bc 33b2 b4bc
00000350: 86a4 54bc 08bb 593d aaf8 bcbc 3fce 07be
00000360: 76b8 57bd d619 b4bb b09b 673d 1987 7abd
00000370: a73d 333d 52da 463d bb2c 643d e30d 00bd
00000380: 9295 96bc 4d78 9f3c 06d4 68bc ccd6 d33c
00000390: 520c a13b 335a cb3d dc01 d13b 9f61 fbbc
000003a0: 6197 f93c 3ad6 8e3d bd61 82bb d36a e63d
000003b0: d379 b1bd d319 9ebd ad7d 8abd eb1f 823c
000003c0: 9dd5 84bd 1a7e 9e3d f6f3 57bd 857e c13c
000003d0: 59e2 6ebd ed76 c8bd f676 cebc 987d 353d
000003e0: 16be b53c 913a 9ebd 122f 05bd e886 bd3c
000003f0: 14c5 4d3b a026 abbd 6a7d 253d 8b02 91bb
-1.547105e-06 4.4217086e-07 -7.833919e-08 -6.7283787e-07 4.624164e-08 3.71305e-08 2.9094624e-08 2.3200282e-07
-8.894043e-07 2.0864666e-06 -5.311273e-08 -4.820851e-07 1.18894704e-07 -5.652291e-07 2.4221166e-07 -8.586952e-08
-9.843097e-09 -5.674002e-07 3.808625e-07 2.816e-07 1.2961253e-07 -6.447432e-08 7.132786e-07 2.3743625e-07
-2.5066245e-07 -7.31438e-08 9.314313e-10 -3.4021326e-07 -1.0945255e-07 -8.1651756e-08 -2.2295131e-07 3.018791e-07
8.657707e-08 3.2955903e-08 6.425206e-07 -6.9607137e-07 -1.0684967e-06 -3.621733e-07 6.8579105e-08 -1.4591465e-07
-2.5846865e-07 -1.796137e-07 -4.0112263e-07 -2.7901925e-07 3.2265817e-07 2.636005e-07 1.01959925e-08 5.8166144e-08
-1.2020304e-07 2.588447e-07 2.2206672e-07 2.186496e-07 -2.6068113e-07 2.5506304e-07 1.0591446e-06 4.9086196e-08
-1.7828527e-06 -5.654615e-07 -1.413033e-07 -4.3829831e-07 5.358102e-07 -4.6701535e-07 -3.0027337e-07 6.159881e-07
-0.771323 0.019490315 0.0060238354 -0.18934657 0.10262775 -0.0032783493 -0.08457173 -0.39931262
-0.18616572 0.0535801 0.11363476 -0.21026802 0.05556221 -0.10239613 -0.081162654 -0.07217364
0.112348534 0.2751503 -0.060030505 -0.04134641 -0.09111799 -0.054949418 0.088433735 0.086937964
-0.11871654 -0.06525907 -0.0057871183 -0.050684273 -0.012631115 0.15542598 -0.05509492 -0.037451103
0.165968 -0.0015619406 0.06430721 0.09243127 0.08172051 -0.13377026 -0.04062523 -0.11702224
0.006173586 0.054137398 0.15215375 -0.12295689 -0.08404408 0.16723947 -0.046154577 0.18250957
0.03235514 0.08022439 -0.10354429 -0.022844268 0.024670193 -0.000818805 -0.06918352 0.1309494
0.085777484 -0.13031645 0.010031562 -0.19231194 0.070482485 0.04907839 -0.24278836 -0.11089026
-6.115674e-08 3.6906156e-09 -1.0152192e-08 3.8088013e-09 -1.0577131e-08 5.8149676e-09 -8.965935e-09 3.518021e-09
-4.017581e-09 1.0363292e-08 2.0610829e-08 1.1869755e-08 -8.009504e-09 4.5506738e-08 -1.6309839e-08 1.383684e-08
2.9432117e-09 9.7374535e-09 -8.025763e-09 9.051939e-09 -7.22591e-09 -8.771097e-09 -2.0634203e-09 3.0685379e-09
-9.412882e-09 8.621303e-09 -5.0753235e-10 2.4470223e-08 6.549625e-09 1.7749928e-08 -2.31803e-09 4.854157e-09
-1.8774655e-08 1.6680529e-08 1.2815923e-08 1.3731624e-08 -8.552371e-09 -1.3763164e-08 7.0337727e-09 6.758529e-09
1.0428007e-08 9.409593e-10 8.04331e-09 -8.149113e-09 -1.0596083e-08 -4.820364e-09 -2.9619214e-09 -1.6666982e-08
-6.366297e-09 6.066375e-09 4.0798467e-09 -8.105925e-09 6.319239e-09 1.5195859e-08 8.677355e-09 5.5966263e-09
5.1728843e-11 1.5594471e-08 1.4751194e-08 5.809211e-09 1.7142614e-08 -1.1238605e-08 -6.2625216e-09 -3.3405572e-09
-0.027350863 -0.09281644 0.022274034 0.04840669 0.20624529 -0.07275954 0.057044677 -0.06386938
0.058235504 0.005102914 0.01808292 0.010020131 -0.07552958 0.024664422 0.023583723 -0.04819893
0.01874411 0.12701039 -0.029398495 -0.022057628 -0.012978679 0.053156883 -0.023067791 -0.1326227
-0.05266615 -0.005496244 0.05654496 -0.061163995 0.043759968 0.04854805 0.05570672 -0.031263243
-0.018381868 0.019466544 -0.014210707 0.02585926 0.004914799 0.099293135 0.0063783955 -0.030686198
0.03046769 0.06974454 -0.0039789365 0.11250844 -0.08665814 -0.07719769 -0.06762252 0.01588436
-0.06486056 0.07738896 -0.052722894 0.0236199 -0.05832133 -0.09788308 -0.02520321 0.04430923
0.022185367 -0.077260144 -0.032515593 0.023135617 0.0031397985 -0.083569765 0.040402807 -0.004425352

conv1.lin_pos_r.bias f4 [32]
00000000: 022f 52b7 9faf 763c 5997 7abc 7a68 153e
00000010: 7b52 a2b9 650b 18bd c8e5 8d3c 0bf7 0c3e
00000020: a26b 573c 965b 9c3c a635 893c c7f7 1dbd
00000030: 0aa1 153b f316 903c 3489 923c 4fb4 d93c
00000040: 406c 59bd bfff 16bd ed7a c3b7 f17e 22b9
00000050: 96de cdbc 406a d037 28ae 4fbd c698 163d
00000060: 83ed bcb7 e41b 97ba 8f4e 4f3d 55e4 59bd
00000070: 3153 c5bc ff0b 07bd f128 8b3c dd16 47bd
-1.252792e-05 0.01505652 -0.015294873 0.14590636 -0.000309605 -0.03712024 0.017321482 0.13766114
0.01314822 0.01908664 0.016749214 -0.038566377 0.0022831582 0.017589068 0.01788769 0.026575236
-0.05308175 -0.036864992 -2.3303053e-05 -0.00015496813 -0.025130551 2.4845009e-05 -0.050703198 0.03676679
-2.2521946e-05 -0.0011528698 0.05061203 -0.05319627 -0.02408752 -0.032970425 0.016987296 -0.04860579

conv1.lin_neg_l.weight f4 [32, 64]
00000000: 8ae7 b3b2 ec50 2932 cf67 05b2 9196 22b2
00000010: 077a 2132 b55f 9631 bb71 3fb2 6462 8432
00000020: cf85 7530 78ed 04b1 e1b5 7430 06b9 2f31
00000030: 4d2b 1031 c572 9332 97d4 17b2 b6c2 6cb2
00000040: 44c2 55b2 5502 7231 b8d9 fc31 6548 0331
00000050: a930 d931 e58e dc31 dd78 1031 51d2 09b2
00000060: f695 2832 ef93 6cb2 5497 83b2 26ea 8d32
00000070: 2e16 40b1 1def eeb1 a4c1 a531 ee60 c431
00000080: b6cd 28b2 8f30 1432 cd76 c231 8792 fa31
00000090: 00ab c4b1 40ce be31 4699 76b2 e940 0db2
000000a0: 6ff1 beb1 def4 9532 68c9 e7b1 ea81 9e31
000000b0: 7183 ad31 c782 70b2 93ca 8a32 e962 93b2
000000c0: 806e 5231 3eb4 1f31 824c 2bb1 afa1 0e32
000000d0: 8fc8 9732 b10f 9f32 0385 e3b1 452b 07b2
000000e0: a3b6 0bb2 0109 2531 ac3e 1cb1 b4dc 8fb2
000000f0: fbe1 2fb1 2e7a 6e31 7d69 1b32 f4b3 4432
00000100: b219 cc3c f205 25bd 79c7 7e3a 2604 00bd
00000110: 04b9 29bc 84ac 093b d523 b43b 77e5 9b3d
00000120: cd76 583a d332 df3c 3f7a 693c bb19 863d
00000130: 6db0 abbc 9956 bb3c a526 11bd 534c ccbd
00000140: 0325 20bd 3a0a 47bb 8fdd 903c 29d6 2ebc
00000150: b93a 093c a781 e23c 7c98 ae3c 6962 933c
00000160: fd49 70bc cdfd af3c 968f 3abc fda5 22bd
00000170: f2eb e43b 890e 3e3d 179b 2f3d 851b 5ebc
00000180: 7456 13bd 432e c8bc ad5a 9dbc 33f9 743c
00000190: df03 46bd d377 cbbb eaa8 773c 3e77 18bd
000001a0: 8a6f b8bb 9f67 49ba 5b54 373c b961 3ebc
000001b0: ff24 1b3c b08c d53b 9ab9 893b d93b 153b
000001c0: e2f9 63bb 9730 49bd 3685 80bc df05 08bd
000001d0: 2ddb 86bc e0d8 313c 9fa4 193d af4a 343c
000001e0: 15d0 abbc 13c1 653d 2202 5a3d f436 b83c
000001f0: f299 0e3d 2e7d 52bc a39c 85bc 28c2 013c
00000200: 3901 5abe d747 0ebd 980a 77be 388e 34bd
00000210: de17 2c3c c500 f3bd 975d 07be fa8a 7e3d
00000220: efcb d3bd 8fe3 aebd 32df 0abe 3b8f 213d
00000230: bcc7 643d 0506 dd3d e29f 973d 7f75 05bc
00000240: e6e6 c3bd 3883 1a3e 32f0 c1bd 2936 483d
00000250: 80d6 27bd 0d4a c63b 46a3 47bc 2796 cabd
00000260: a24d 67be 80ab ee3c 2627 803d 94ac 403c
00000270: 8951 38be 13f9 373d d334 413c 3884 a9bd
00000280: 1f3b 05bd 3ac3 0bbd 2856 00bd dbfe 6bbd
00000290: 2771 3b3c 77b4 3e3d b17c 853d fc79 fcbc
000002a0: 0eba 743d d2a7 b63d 0a34 39bd 68f6 023e
000002b0: 1f94 af3d 22ba 6d3b aa59 d23d 90d2 0abb
000002c0: cde6 4ebd 6e7b 8e3e 335b 15bd 14b4 363d
000002d0: 9b08 bb3d 1c0c 30be 3aa5 4bbd 85b5 5d3c
000002e0: 530e c93d badf 9c3d 5f81 503d 39ab 91bd
000002f0: 3051 aa3c 8f4a 8dbd 7ed2 563e a8c0 df3d
00000300: 2e58 3d3d ab73 c73d eb47 debd c2fe 0cbe
00000310: 1cda abbd 1152 0a3e 23f7 c7bc 7ce6 90bd
00000320: 5482 5d3c 02a0 7fbb 9fb2 82bc e0a7 6cbd
00000330: 2703 8ebc 1d5e 923c 5fdd 06bb bf01 b3bd
00000340: f0b9 0e3d 81da ab3c 7f19 ba3d 012f 523d
00000350: 0b31 50bd e21c 973d eb03 a13d 91ba a0bd
00000360: e84b 92bd 25bb a03d c63b 833d d006 4fbd
00000370: 1619 0d3c 808a 7f3d abcf b73c f257 0bbc
00000380: 2730 723d eedb 3a3d 113e b5bb de24 8dbd
00000390: f0c2 c3ba 94b1 833c 3a60 493d b0c1 8fbd
000003a0: 7f7b eb3d 34e7 fc3c ffa1 bcbc 467f 393d
000003b0: 59c4 66bd 7fd1 b4bd 10fd ce3d 0c18 813c
000003c0: 474c 03bd 23f9 423d 7023 c83c 4e5a 0fbd
000003d0: 9914 c43d 2594 adbd a743 90bc 0b6d ffbc
000003e0: 8d87 03bb 5f58 68bc da90 febc fae8 053e
000003f0: 6954 a73c a935 65bc e28d 1ebc a210 acbc
-2.0943634e-08 9.855494e-09 -7.765222e-09 -9.463876e-09 9.399179e-09 4.376455e-09 -1.11435225e-08 1.5411565e-08
8.9320634e-10 -1.9343513e-09 8.902515e-10 2.5571025e-09 2.0979372e-09 1.7165243e-08 -8.837694e-09 -1.378128e-08
-1.2442403e-08 3.521696e-09 7.358917e-09 1.910416e-09 6.3210632e-09 6.419088e-09 2.102346e-09 -8.02227e-09
9.812984e-09 -1.3770644e-08 -1.5319223e-08 1.6521039e-08 -2.7952285e-09 -6.9538957e-09 4.8241464e-09 5.7153704e-09
-9.82566e-09 8.625775e-09 5.659649e-09 7.292616e-09 -5.723791e-09 5.5531757e-09 -1.4353935e-08 -8.222039e-09
-5.5571756e-09 1.7457236e-08 -6.745882e-09 4.6131747e-09 5.049906e-09 -1.3999574e-08 1.6157435e-08 -1.7158031e-08
3.0621834e-09 2.324e-09 -2.4927265e-09 8.30225e-09 1.7669917e-08 1.8517172e-08 -6.621691e-09 -7.867873e-09
-8.132392e-09 2.4015778e-09 -2.2736613e-09 -1.6747755e-08 -2.5594307e-09 3.470301e-09 9.046173e-09 1.1449618e-08
0.024914596 -0.040288873 0.0009719055 -0.031253956 -0.010359053 0.0021007368 0.0054974356 0.07612126
0.0008257449 0.027245915 0.014250337 0.065478764 -0.02095815 0.022868441 -0.035437245 -0.09975495
-0.039097797 -0.0030371086 0.017683772 -0.010671177 0.008375817 0.027649714 0.021312945 0.017991262
-0.014666078 0.021483326 -0.011386773 -0.03970908 0.0069861347 0.04640058 0.042872515 -0.013556366
-0.03597112 -0.024436122 -0.019208277 0.014951992 -0.048343536 -0.0062093525 0.015115956 -0.037223093
-0.005628531 -0.0007682982 0.0111895455 -0.011619979 0.00946927 0.0065170154 0.0042030336 0.0022771268
-0.0034786393 -0.049118605 -0.01568852 -0.033208724 -0.016461933 0.01085493 0.03751051 0.011004134
-0.020973245 0.056092333 0.05322469 0.022487141 0.034814782 -0.012847228 -0.016310042 0.007919826
-0.21289529 -0.03473648 -0.24125135 -0.044080943 0.010503737 -0.11865381 -0.13219295 0.062144257
-0.103416316 -0.08539497 -0.13561705 0.039443236 0.055854544 0.10792164 0.07403542 -0.008145689
-0.09565525 0.15089118 -0.09469642 0.048879776 -0.040976048 0.006051308 -0.0121849235 -0.098919205
-0.22588208 0.029134512 0.06257467 0.011759896 -0.17999853 0.04491527 0.011792379 -0.08277172
-0.032527085 -0.03412173 -0.031332165 -0.057616096 0.011440552 0.046558823 0.065179236 -0.030819885
0.059747748 0.08918728 -0.045215644 0.12789309 0.08573174 0.0036274274 0.10271008 -0.0021182634
-0.050513078 0.27828544 -0.036463927 0.04460533 0.09132501 -0.1719212 -0.04971812 0.013532047
0.09817185 0.0765986 0.050904628 -0.07112736 0.020790666 -0.068989865 0.20978734 0.10925418
0.046226673 0.09738859 -0.10853561 -0.13769057 -0.083912104 0.13507868 -0.024409836 -0.070752114
0.013519842 -0.0039005284 -0.015954314 -0.057777286 -0.017335488 0.017867142 -0.0020578725 -0.087405674
0.034845293 0.020978214 0.09086894 0.051314358 -0.05082802 0.07378556 0.078620754 -0.07848085
-0.07143384 0.07848195 0.06407885 -0.050543606 0.008611938 0.062387943 0.022437891 -0.0085048545
0.059127953 0.045619898 -0.0055310805 -0.068917975 -0.0014935415 0.016075887 0.049164034 -0.07019365
0.114981644 0.030871965 -0.023026465 0.045287393 -0.056339595 -0.08829021 0.101068616 0.015758537
-0.032055166 0.047600877 0.02443096 -0.03499823 0.09574241 -0.08475522 -0.017610384 -0.031179925
-0.0020069808 -0.014181226 -0.03107493 0.13077155 0.020425992 -0.013989844 -0.009677382 -0.021004025

conv1.lin_neg_r.weight f4 [32, 64]
00000000: 5ccc 1633 f0fc 1c32 50ed 0732 065d c131
00000010: 2882 5a32 a503 1ab2 5bda 7bb2 6e9f d231
00000020: badf 1032 5ac5 a62f 2977 05b2 6df7 b631
00000030: 649c eeb1 0f26 b3b2 195a 4a31 72c3 cfb0
00000040: 53a0 1b31 3673 b4b0 ba7f 7d31 b22c 6032
00000050: 7a42 c9b2 8ea2 d8b1 69b5 ffb1 1b75 26b2
00000060: 7fa6 a231 daaa ef32 e4f0 d131 bbdf 9232
00000070: 6c69 6932 e589 bdb1 108c 4e32 6219 eb31
00000080: f1a7 1a32 d725 f931 773b 5132 2d85 19b2
00000090: ae44 d1b1 9716 58b2 35d3 e2b1 0f55 72b2
000000a0: d1d5 39b2 275c bdb1 d8e7 73b2 4d45 91b1
000000b0: ff9c 42b2 51dc 5eb2 65e1 57b2 2ee4 7831
000000c0: d82b ca2f 5139 27b2 d3ac 5432 3285 87b1
000000d0: fad2 d4ad 8c47 d7ae 49d0 71b2 b396 0ab1
000000e0: 365c 2032 d17e d72f baa5 d3b0 ecb6 6932
000000f0: 6a9c c732 95a0 19b1 b786 0432 69fb 0c32
00000100: 30d3 6c3e 34f2 793b 6ea6 2bbd ecc1 d5bc
00000110: 4858 223e 11e9 6d3c a069 3dbc 237b 2f3d
00000120: ffd7 6b3d d55d 0a3e e869 32be 14e6 ee3c
00000130: 6c46 12bd c6ca 883d 9559 7d3c 4828 e1bd
00000140: 1b03 e2bc e7dd 8dbd 79f3 0d3e d459 2e3c
00000150: ac3e 543d 4ad3 1dbd e048 fabc 9f3d 02bc
00000160: 4361 b73d df8b ff3c 9d70 8dbd c767 e2bd
00000170: 065a aebd c35d a13d dc53 bbbd 1a0a f63d
00000180: 2fda 72bc bbb9 d1bc ade4 683c d944 8dbc
00000190: ec78 723b cb0f dfbb 667f 213d f06b debd
000001a0: 7ab6 82bc 734e 2f3d 2f58 363d a4b1 5c3d
000001b0: f9a9 283d 1cc8 57bd 0d7c 8c3d e6de b6bc
000001c0: 0a69 4dbd 632e 953d a4b9 80bc efef 903d
000001d0: 69e6 01bc 352e 593d d732 693d 1ca3 28bd
000001e0: 4e2a aa3c 413a 60bd 61ce 583d d0e6 8dbb
000001f0: 3760 42bd 1717 55bd e6bb 773c 0c14 c1bd
00000200: 35b8 cfbd be4f c2bc b540 95bd 5aaa 17bc
00000210: b45c 903e cba0 8abd 0af9 7a3d 20cb ea3c
00000220: b85a 923d 41f0 5abd c68f 0b3d f86b 673d
00000230: 5b93 f8bc 186d c13c cf26 91bd c73c d83c
00000240: 1cd6 9d3d abda 65bc 3070 7dbe 9b9c 4d3d
00000250: 4245 263c 164b 18bd 3540 92bc d78f f2bc
00000260: 54be 953d 7953 29bd 3928 bf3d 898d 463e
00000270: 8b5f b83d 1863 66bd c525 c7bc 4d6f 9fbd
00000280: 5d1a adb9 538d cf3d 697c 0abc 4e8f 71bd
00000290: 7681 d8bc 6792 abbb 1d5b ffbd 2703 853a
000002a0: fe1f 58ba 3886 523d f05b e6bc c2ff 51bc
000002b0: fb2d 9bbd 8537 283c 8e14 033c 62a0 593c
000002c0: 8252 8dbc 0e95 38bc 142a 91bc 1252 05bc
000002d0: 8e14 b93c d282 ed3d fa8c c83b c82b 073c
000002e0: 3cc7 52be bd80 3d3c c8f2 493a 91a6 2b3c
000002f0: 1308 02be f171 d83b 8007 563c 656f 15bd
00000300: db7c 93bf ece9 79be 5bd6 b8bd aec5 333e
00000310: 2e43 223f 8474 37be e598 29be 79cd ed3e
00000320: a05d f7bd 8901 ed3d ac27 afbd 46a2 583e
00000330: 94f4 32bd 95b0 ac3e 941e 3fbc b70a adbd
00000340: 8376 8dbe 9155 9cbd 580a f83d 1ec8 db3e
00000350: 6a82 21bd f0dd 42be d920 debd 71b1 8e3d
00000360: 9a99 663d f4b0 49be 3490 7ebe b8f3 c5bc
00000370: d013 4ebd cda1 d5bc ff1a 4cbe 2f8c 9f3c
00000380: 12ce 253d 4ffd c83d fa32 e33d f469 ee3d
00000390: 840a be3d da60 4b3d ab8c 14bd 6e8f babd
000003a0: e562 a1bd d75b 283d b40e a8bc 3146 e03c
000003b0: 94a2 7b3d c017 3e3c c9a0 27be 0bbd 013e
000003c0: 455f 1abe 07d5 33be 41be 2dbd da19 e8bd
000003d0: a256 d63d 7236 463e eb5c 2c3d 892d 52be
000003e0: 9832 1ebe c68a fdbd fcec a53c b3ac 4abe
000003f0: d20c 3c3d 60d4 633e 709d 0dbe 7b17 16bd
3.511046e-08 9.137906e-09 7.911993e-09 5.627615e-09 1.2718864e-08 -8.9648085e-09 -1.4659771e-08 6.1299295e-09
8.432773e-09 3.033545e-10 -7.768713e-09 5.325026e-09 -6.944491e-09 -2.085565e-08 2.9446083e-09 -1.5116781e-09
2.2646602e-09 -1.3129469e-09 3.688895e-09 1.3048679e-08 -2.342971e-08 -6.3049077e-09 -7.4421007e-09 -9.689098e-09
4.733749e-09 2.7900956e-08 6.1100867e-09 1.7098378e-08 1.3586355e-08 -5.5163007e-09 1.2022625e-08 6.842286e-09
9.002165e-09 7.2511557e-09 1.2178922e-08 -8.936053e-09 -6.0905085e-09 -1.2577991e-08 -6.601477e-09 -1.4105594e-08
-1.08170335e-08 -5.5111005e-09 -1.4197177e-08 -4.227934e-09 -1.1327983e-08 -1.2972195e-08 -1.2565896e-08 3.6218455e-09
3.677474e-10 -9.733712e-09 1.237932e-08 -3.9441597e-09 -2.4195302e-11 -9.789777e-11 -1.4075405e-08 -2.0167306e-09
9.334192e-09 3.919838e-10 -1.5399373e-09 1.3603977e-08 2.3237778e-08 -2.235571e-09 7.714042e-09 8.206237e-09
0.23127437 0.003813875 -0.041906767 -0.026093446 0.15853989 0.014520899 -0.0115608275 0.04284204
0.057579037 0.13512357 -0.17423213 0.029162444 -0.03571169 0.06679301 0.015463253 -0.10994011
-0.027589371 -0.0692709 0.13862409 0.010641534 0.05181758 -0.03853158 -0.030552328 -0.007949262
0.08954098 0.031194625 -0.06906245 -0.1105495 -0.08513264 0.07879212 -0.09146854 0.120136455
-0.014822527 -0.025601259 0.014214677 -0.017244743 0.0036998345 -0.0068073026 0.039428137 -0.10860431
-0.015956152 0.042799424 0.044517692 0.05388035 0.041177724 -0.052681074 0.06859598 -0.022323083
-0.050149 0.07284238 -0.01571352 0.07077014 -0.007928469 0.053022582 0.05693325 -0.04117118
0.020772126 -0.054743055 0.052931193 -0.0043304935 -0.04745504 -0.052023973 0.015120482 -0.09427652
-0.101425566 -0.023719665 -0.072877325 -0.009256924 0.28195727 -0.0676895 0.06127266 0.02866131
0.071462095 -0.05345178 0.03407266 0.05649945 -0.030343702 0.02361159 -0.0708748 0.026396168
0.07706854 -0.014029185 -0.24749827 0.05019818 0.010148348 -0.037180983 -0.017852882 -0.029609604
0.07311693 -0.04133937 0.09333844 0.19389929 0.090025984 -0.056246847 -0.024310002 -0.07784901
-0.00033016774 0.10134377 -0.008452513 -0.058974557 -0.02642892 -0.0052359584 -0.1246855 0.0010148034
-0.00082445133 0.051397532 -0.028120011 -0.012817325 -0.075771295 0.010267143 0.008000506 0.013282867
-0.017251257 -0.011266006 -0.01772026 -0.008137243 0.022592809 0.115972176 0.0061203213 0.008250184
-0.20583814 0.011566338 0.0007703719 0.010476724 -0.12698393 0.0066053797 0.013063312 -0.036483187
-1.1522478 -0.2440564 -0.0902526 0.17555878 0.6338376 -0.17915541 -0.16562231 0.46445826
-0.120784044 0.115725584 -0.08552489 0.21155652 -0.04369028 0.3372847 -0.011665005 -0.08449309
-0.2762948 -0.07633508 0.12111348 0.42926115 -0.039431013 -0.19029975 -0.10846109 0.06967438
0.05629883 -0.19696409 -0.24859697 -0.024164066 -0.050311863 -0.02607813 -0.19932173 0.019476024
0.040479727 0.0981394 0.110937074 0.11641303 0.092793494 0.04965291 -0.036266964 -0.09109388
-0.07880191 0.04110321 -0.020514823 0.02737722 0.061434343 0.011602342 -0.16369928 0.1266977
-0.15075405 -0.17561732 -0.04241777 -0.11333056 0.10465743 0.19356707 0.0420808 -0.20525183
-0.15448987 -0.123799846 0.020254605 -0.19792442 0.045910664 0.22248983 -0.13829589 -0.036643486

conv1.lin_neg_r.bias f4 [32]
00000000: 639c d4bc 3cf2 b13d fa17 663c bfaa eb3c
00000010: 4ff0 81bd 20f0 c9b9 8bf2 05bd afbf 3dbd
00000020: ffd5 a03d 4c3e ca3c 6a68 bebc a2e1 fc3c
00000030: f185 5ebb 5080 2736 ae4c cc3c faa1 2abd
00000040: 1183 e4ba d904 57bc 7ad8 00bd b094 b63c
00000050: d4b4 d1bb aa6c abb7 5ff2 c838 583e b33c
00000060: f7ea 9d3c 9d91 00bc c1ed 303d 24cf dc3c
00000070: f413 51bc c1af f6b4 c59b 033d 2d51 673d
-0.025953477 0.08688781 0.014043802 0.028767942 -0.06344663 -0.00038516615 -0.03270201 -0.04632538
0.078533165 0.024687909 -0.023243148 0.030869309 -0.0033954347 2.4959627e-06 0.024938907 -0.04165838
-0.001743408 -0.013123714 -0.03145645 0.022287697 -0.00639973 -2.043539e-05 9.581888e-05 0.021880314
0.019277079 -0.007847217 0.04319549 0.026954241 -0.012761105 -4.5948948e-07 0.032130975 0.0564739

convs.0.lin_pos_l.weight f4 [32, 64]
00000000: 0840 0836 ca1b 843c 178c 4f31 c8e3 0238
00000010: 0a8c 2b3c ce0d faba 85a4 863d d6e1 3d3d
00000020: 3e51 103d a07e 9a3c 7b0c 253d 4f88 0d32
00000030: 7792 4abd 759f 8c3c f542 6cbc 4eb3 97bb
00000040: 0e7e 16bb b0eb cbb2 012a 1c33 c71f 36b1
00000050: 42ec 47bb e1b5 02bc cd5b 43b2 83eb 913d
00000060: d525 1436 e44f a4b2 abff 753d 2e3d 57bc
00000070: c774 4eb2 344c f332 e9bb f83b b386 7c30
00000080: bf10 5f31 cf43 6cbc 1b28 513d f8c5 89bd
00000090: 0b86 0dbc a563 1bb4 5bc7 9b3a 3a6d 87b4
000000a0: 8dd8 393d b7ef fa3c c8e7 15be 5ff0 2f3d
000000b0: b03f 10b9 cb15 0e35 ecb1 34bd db02 e1b9
000000c0: 4889 0bb2 5add ebb1 7687 8433 e152 da3b
000000d0: df2f 75ba c338 8534 6871 dd3c 8e75 833c
000000e0: 41f2 193d d9f3 9232 0b4e d53b aca8 203d
000000f0: fd54 a13c 4bf3 22b4 db18 aebc 161f 3e3d
00000100: fe98 a535 f9bf 3a3d 375c 8c32 e5d2 8dbd
00000110: 45ab c1bd 36b0 e33b 996f 4e3b 359c 5fbd
00000120: 71d6 46bd d1f8 f2bb 05e8 e43b 14ed 3432
00000130: a20f 173d 77b0 aa3c 8df2 47bc 0335 70bb
00000140: 903d b639 5ab9 30b1 aca7 fa32 f2d8 f82e
00000150: 6cdd 86bb 0e58 b3bc d2fd 6bb0 a6b3 23bd
00000160: 0f2d bab2 304d 1331 4ce0 c4bd ba61 de3a
00000170: 8338 9eb2 67fd 55b1 6f07 d6bc 8a85 9032
00000180: 25a7 2a32 6dde 6b3d 4f1f fdbd 7c27 833d
00000190: 80b5 b2b9 2a3c 6f33 e244 6139 1f68 6731
000001a0: 44b3 8cbe e427 5c3d f1ba c03d c540 993d
000001b0: 626d b638 2344 edb3 ee25 26bc 99f3 19b9
000001c0: 27d2 b3af 41a4 d6b2 40fb 0eb3 8f62 43bc
000001d0: c14f 27ba be52 58b6 730d 31be afd6 4d3e
000001e0: a2a9 48be ffc7 7131 dada 79be 9809 a33c
000001f0: fb0f ecba 4747 1834 9777 d4bc fca5 39be
00000200: 5ba5 bcb1 4160 5eb2 b17a d231 853e b734
00000210: 76c8 a3b3 9109 0cb2 e4d9 c632 66e5 2d34
00000220: cfae bf33 d7bc 9832 3155 05b3 065f ae2f
00000230: ba80 71b3 0517 ecb1 5a09 d032 5632 06b3
00000240: 7a72 48b1 512b 1432 6297 1532 6494 49b1
00000250: c865 4a32 1a7c 8933 a699 0c32 da52 c833
00000260: 1e60 72b2 89dd a231 e5dd 6034 57d2 5d31
00000270: 40c5 a431 ddf5 14b0 1301 bc32 4a7d dbb1
00000280: db20 2c31 58f4 2434 a8d3 50b3 b888 93b3
00000290: 90ed feb1 d343 93af 04d6 bc31 5eef 9231
000002a0: 9da1 2db2 ceed 18b3 7491 49b1 0d9e a633
000002b0: 9246 0f32 e519 61b0 17fd 0234 8983 b72f
000002c0: a133 b631 08d9 52b1 0a6c 01b2 a906 9033
000002d0: 778a fa31 33c8 e8b1 866a 7bb2 b35b b932
000002e0: 9ed0 0834 dd6f 1630 c35a 34b4 e210 bb32
000002f0: 057c 7fb1 1344 5e31 b734 f933 8df5 0e34
00000300: 3764 9b30 4a90 1e35 c226 85b0 9097 2fb6
00000310: 02f9 b534 431c 9130 1960 0335 3355 83b6
00000320: 0906 36b5 a84d d834 4897 aeb4 d4a5 f2b1
00000330: 6534 0735 a052 c7b4 c897 7e35 711f beb5
00000340: 6c98 9732 e1fa bd30 5a78 ff31 ccf2 2a32
00000350: 2fca 9532 9518 01b4 ebb2 15b2 f143 9435
00000360: 7b05 cab0 1ea2 63b0 14fb 39b5 c232 5232
00000370: ce33 a1b1 7b0f 3031 3df9 d5b4 dce8 0430
00000380: 9cab 95b2 6894 27b5 2922 8fb5 a30d 8335
00000390: 2a5f 8630 869d 2e32 701c e2b1 b0ec e9b0
000003a0: 104b ec35 21e1 c5b4 b258 ec34 1ca1 b135
000003b0: 3758 79b0 2f93 5eb2 2388 0234 09ff c331
000003c0: 66ce 8c31 8b4e c5b1 8587 38b2 20ec ef34
000003d0: 293c 6c30 21c1 2430 68fa 94b5 a014 c634
000003e0: 7c32 77b5 62ed 7031 7382 a135 5eb1 6435
000003f0: 0467 4831 717f 6032 3966 97b5 6338 9335
2.030285e-06 0.016126532 3.0202096e-09 3.1206553e-05 0.0104704 -0.00190776 0.06574348 0.046357952
0.03523373 0.018859208 0.040295105 8.238273e-09 -0.049456086 0.017165879 -0.014420261 -0.004629529
-0.0022963318 -2.3739489e-08 3.6359783e-08 -2.650255e-09 -0.003050581 -0.007977934 -1.1371367e-08 0.071249984
2.207574e-06 -1.9128443e-08 0.060058277 -0.013137145 -1.201733e-08 2.8323576e-08 0.00759076 9.1868485e-10
3.246029e-09 -0.014420464 0.05106364 -0.06727213 -0.008637915 -1.447175e-07 0.0011884974 -2.5225182e-07
0.045372535 0.030631883 -0.14639199 0.042953845 -0.00013756636 5.2930835e-07 -0.044114992 -0.00042917472
-8.122079e-09 -6.864565e-09 6.171369e-08 0.006662712 -0.00093531416 2.481448e-07 0.027031615 0.016047265
0.037584547 1.7107526e-08 0.0065095476 0.039223358 0.019693846 -1.5175935e-07 -0.021252086 0.046416365
1.2337985e-06 0.045593236 1.634008e-08 -0.069249906 -0.09456495 0.006948496 0.0031499623 -0.05459233
-0.04854435 -0.007414915 0.0069856667 1.0531284e-08 0.036880143 0.020836098 -0.012203825 -0.0036652691
0.00034759613 -2.571673e-09 2.9180079e-08 1.13162715e-10 -0.004115751 -0.021892574 -8.58532e-10 -0.039966248
-2.167374e-08 2.1435191e-09 -0.09613094 0.0016966381 -1.841932e-08 -3.1139622e-09 -0.026126591 1.6824533e-08
9.933307e-09 0.05758517 -0.12359487 0.064040154 -0.00034086034 5.5701243e-08 0.00021483333 3.367411e-09
-0.2748052 0.05374898 0.09410656 0.07483057 8.6988104e-05 -1.10485665e-07 -0.010140879 -0.00014681964
-3.2709233e-10 -2.4987573e-08 -3.3290462e-08 -0.011925354 -0.00063824287 -3.223467e-06 -0.17290287 0.20101427
-0.1959596 3.51838e-09 -0.24399891 0.019902036 -0.0018010134 1.4182034e-07 -0.025935931 -0.18129724
-5.490319e-09 -1.2943986e-08 6.125753e-09 3.4131895e-07 -7.6267426e-08 -8.151248e-09 2.3149319e-08 1.6195335e-07
8.925928e-08 1.7781003e-08 -3.1043957e-08 3.1717934e-10 -5.622926e-08 -6.871121e-09 2.421864e-08 -3.1245087e-08
-2.9168903e-09 8.624583e-09 8.707362e-09 -2.93337e-09 1.178109e-08 6.4021336e-08 8.184008e-09 9.3282964e-08
-1.41081085e-08 4.740006e-09 2.094235e-07 3.2279297e-09 4.795453e-09 -5.419148e-10 2.1886569e-08 -6.3879826e-09
2.504797e-09 1.5362582e-07 -4.8621274e-08 -6.87009e-08 -7.4193807e-09 -2.6787336e-10 5.495851e-09 4.276372e-09
-1.0106672e-08 -3.560654e-08 -2.933203e-09 7.7587266e-08 8.339741e-09 -8.189132e-10 1.2199267e-07 3.3380967e-10
5.3027667e-09 -3.068239e-09 -7.5333535e-09 6.706734e-08 7.2916992e-09 -6.7748487e-09 -1.46343435e-08 2.1578535e-08
1.2741882e-07 5.472865e-10 -1.6796825e-07 2.1777343e-08 -3.717788e-09 3.2343948e-09 1.1604555e-07 1.3314111e-07
1.1306217e-09 5.9069555e-07 -9.688039e-10 -2.6165253e-06 3.3895054e-07 1.0558171e-09 4.8941143e-07 -3.9140227e-06
-6.7809066e-07 4.0289638e-07 -3.2520097e-07 -7.0619794e-09 5.0367663e-07 -3.7126756e-07 9.4843244e-07 -1.4165254e-06
1.7648027e-08 1.3822864e-09 7.435159e-09 9.950508e-09 1.7437825e-08 -1.2023004e-07 -8.713623e-09 1.1046633e-06
-1.4698992e-09 -8.28125e-10 -6.928324e-07 1.223515e-08 -4.691606e-09 2.562017e-09 -3.9855686e-07 4.8352233e-10
-1.7423922e-08 -6.242831e-07 -1.0664272e-06 9.764229e-07 9.77683e-10 1.016395e-08 -6.5806987e-09 -1.7020252e-09
1.7605216e-06 -3.6857912e-07 4.402296e-07 1.3234417e-06 -9.0711033e-10 -1.2955566e-08 1.215672e-07 5.704241e-09
4.098001e-09 -5.742384e-09 -1.0741023e-08 4.4689023e-07 8.594179e-10 5.9937305e-10 -1.1099737e-06 3.689538e-07
-9.2088135e-07 3.5059533e-09 1.20334e-06 8.519472e-07 2.9162388e-09 1.3067493e-08 -1.1280127e-06 1.0968764e-06

convs.0.lin_pos_r.weight f4 [32, 32]
00000000: f1c1 3036 cf75 e73d b58e c832 1b9d 833d
00000010: c70a 593e aa68 86bb e44a 373e b306 fabd
00000020: 6a6f 7b3e 1f6f 08bf b721 babe 1202 e231
00000030: df98 c33d 5101 a5be 6a12 0abe 13d6 efbe
00000040: 2455 aa31 84c8 8ab2 9b39 dd32 165a 4b32
00000050: 2861 3734 f644 953e dc59 0232 d73c 703e
00000060: 4fe1 c8b5 52ae 1b33 b88f 8a3e 26c9 1c33
00000070: 520e 1e32 6c3a b3b2 7717 f0be eaaa 1ab3
00000080: 7f9d 6e35 42d3 32bf e806 3032 8141 123b
00000090: 364f 413e 0c04 143b 4e3f eebe 2170 813e
000000a0: e423 88bd 935e 24bf 9674 13be 5963 a132
000000b0: 79a3 613f 4f00 46bf e14d 4fbf 85e2 813e
000000c0: deba 59b2 61ff 8d32 6f43 a0b2 499b 3dad
000000d0: f955 9b33 1f43 253f 6ab3 1eb2 78fb 3bbf
000000e0: 1077 49b5 105c f832 5006 773e 755f a832
000000f0: 95df 9130 b211 0c32 37cd 0cbf 7fe4 9cb2
00000100: 21d2 dbb0 a498 1634 6143 ed32 ebd2 8b34
00000110: 9c94 d734 8a89 ce31 c526 8134 1aee 0330
00000120: 48a3 00b5 7d62 3c33 bc88 b234 5419 e532
00000130: 2554 db33 8076 0fb4 8885 9034 cce2 4134
00000140: 0861 69b2 6cbf 5331 130b 2932 d1b8 99b2
00000150: 1cd9 5fb2 074b 11b2 7d2f 93b1 9eb9 0a35
00000160: 8402 83b1 4241 9fb2 f812 2635 b0b7 df32
00000170: 5a2d 0eaf 2170 b4b2 94f5 1fb4 f2b4 21b1
00000180: 7550 b7b1 254d b634 ce50 0031 65b9 ecb6
00000190: 0be1 78b5 a464 4931 6ff5 c435 f5ea ce36
000001a0: 7c8f 9b35 198e 8135 decd f034 ace5 7632
000001b0: 3769 26b5 338b c3b5 13fc 4534 b60a b2b5
000001c0: 7296 86b2 a620 8cb2 e642 d1b2 ad25 c3b1
000001d0: a0da c332 53e5 f9b4 7c51 8730 c8a8 8936
000001e0: 68e7 b330 1a44 5331 498b da36 916d a731
000001f0: 6814 ceb2 8f45 12b1 fd80 ba35 ace1 0532
00000200: db6b 8132 508c 4332 2cf6 1832 0bd0 0bb0
00000210: f39a c4b2 0b9f 1531 8a40 03b3 ccf0 4f30
00000220: 7bac e431 d6fe 94b2 aac3 94b2 e45d 64b2
00000230: 5e5c 8fb1 01bf 32b0 85e5 9c32 d95b 33b2
00000240: 7a4a 3e30 498d 8730 95ae 9732 f009 9830
00000250: 3da3 2fb2 dd1d 8431 ce04 6831 f0fe 19b3
00000260: f1af 81b2 e257 8232 6374 b9b1 c5f4 c331
00000270: 8a57 e432 2f1b 03b2 7ba1 69b2 f14d beb0
00000280: f833 a8b5 69e7 873d 9a8d 88b1 67cd f8bd
00000290: 54bf 8dbe 8289 9eb9 0d1e 2e3e cc2c 8d3e
000002a0: b898 863c f484 213f 8b3f b93c d434 b9b2
000002b0: b414 da3e 8b3e c33e ab19 edbc 8eb4 943f
000002c0: 9031 1633 16d6 cfb3 a96a 1033 14b6 36b1
000002d0: fc7d acb2 14bd e3bd 4984 dbb2 9738 b2be
000002e0: 80f0 cbb5 301d 8133 2d07 81be 47f5 8132
000002f0: 187b d932 ea67 2132 ac56 303f 4a26 abb1
00000300: d207 9e32 0231 92b2 509a 0032 8610 8730
00000310: ce69 26b2 aed6 eb32 fe05 97b1 ff6f 8aaf
00000320: 1c6d e032 2db2 5e32 0a64 12b1 f50f 1b32
00000330: 61b2 0d31 af91 dab1 5212 db31 3124 acb2
00000340: 9c88 c82e 102f c8b1 9340 08b2 4886 b230
00000350: 750e 0432 29b6 c9b2 87a4 0a32 eba0 9bb2
00000360: 6b7a 7632 79b6 34b2 8605 05b3 b388 2432
00000370: 0166 8b32 d3e7 afb2 ed5d b532 d6e8 3b32
00000380: bd99 84b5 80f6 fdbd a22a 9ab1 7815 b73e
00000390: 69d2 38be 5d34 273a cec4 2dbf 64f9 0fbe
000003a0: 30f6 58bf 085a 28bd 44d8 313f 792f bfb2
000003b0: cbe7 85bf 7a85 4c3e 7b88 b43e ccc6 78bf
000003c0: 2b74 86b1 1773 1532 5100 9533 3d17 e731
000003d0: 73a1 c632 a478 76bf 946a 2c32 7211 0b3f
000003e0: f66a 74b4 9c24 8031 2951 03bd 0c7a 3db2
000003f0: 2153 9531 af84 ef31 7bd8 9dbe 5a26 7031
2.6338932e-06 0.11301767 2.334796e-08 0.0642645 0.21195517 -0.0041018324 0.17899662 -0.12208309
0.2455422 -0.5329456 -0.36353847 6.577701e-09 0.09550642 -0.32227567 -0.13483587 -0.46843013
4.9573305e-09 -1.6156498e-08 2.5753982e-08 1.1836638e-08 1.7078548e-07 0.29154176 7.587428e-09 0.23460709
-1.4966735e-06 3.6247293e-08 0.27062774 3.6504524e-08 9.2000665e-09 -2.086491e-08 -0.46892902 -3.6011365e-08
8.8891096e-07 -0.69853604 1.0246119e-08 0.0022316875 0.18877873 0.002258542 -0.46532673 0.2528086
-0.066474706 -0.6420681 -0.14399943 1.8788045e-08 0.88140064 -0.7734422 -0.8097821 0.25368133
-1.2673551e-08 1.6530693e-08 -1.8657117e-08 -1.0777886e-11 7.233388e-08 0.64555544 -9.2376045e-09 -0.73430586
-7.5051594e-07 2.8912865e-08 0.24123502 1.9601183e-08 1.0613684e-09 8.153096e-09 -0.55000633 -1.8264698e-08
-1.5994069e-09 1.4025369e-07 2.7621072e-08 2.604423e-07 4.0154998e-07 6.0110255e-09 2.405633e-07 4.7995885e-10
-4.792132e-07 4.3861736e-08 3.325457e-07 2.6670627e-08 1.0213288e-07 -1.3361023e-07 2.6919247e-07 1.8057034e-07
-1.3584447e-08 3.0813352e-09 9.839613e-09 -1.7895589e-08 -1.3029673e-08 -8.45717e-09 -4.283662e-09 5.1679115e-07
-3.812888e-09 -1.8539712e-08 6.186742e-07 2.6044148e-08 -1.2930937e-10 -2.1005748e-08 -1.489737e-07 -2.353144e-09
-5.335148e-09 3.3956272e-07 1.8672384e-09 -7.054931e-06 -9.271468e-07 2.9306557e-09 1.4674569e-06 6.166631e-06
1.1590159e-06 9.652605e-07 4.4853272e-07 1.4371306e-08 -6.1992927e-07 -1.4569144e-06 1.8438759e-07 -1.3265151e-06
-1.5668068e-08 -1.6312992e-08 -2.4361224e-08 -5.67953e-09 2.2800407e-08 -4.654672e-07 9.845702e-10 4.102567e-06
1.3089734e-09 3.0743252e-09 6.513121e-06 4.872796e-09 -2.3990836e-08 -2.1285336e-09 1.389562e-06 7.792931e-09
1.5066624e-08 1.1382397e-08 8.9035375e-09 -5.086355e-10 -2.2887866e-08 2.177276e-09 -3.0559512e-08 7.5648354e-10
6.655282e-09 -1.7345354e-08 -1.7318445e-08 -1.3292695e-08 -4.1723487e-09 -6.5027456e-10 1.8265164e-08 -1.0440055e-08
6.9227435e-10 9.862698e-10 1.7658104e-08 1.106228e-09 -1.0223457e-08 3.8451007e-09 3.3763174e-09 -3.5854953e-08
-1.5097585e-08 1.5173956e-08 -5.3974403e-09 5.703074e-09 2.6582502e-08 -7.631384e-09 -1.3599101e-08 -1.3846472e-09
-1.25321e-06 0.06635935 -3.974219e-09 -0.121485524 -0.27685034 -0.0003023856 0.17003651 0.2757324
0.016430244 0.63093495 0.022613307 -2.1560858e-08 0.4259392 0.38133654 -0.028942904 1.1617601
3.4969673e-08 -9.678131e-08 3.362462e-08 -2.6587985e-09 -2.0080726e-08 -0.11120048 -2.5555112e-08 -0.348088
-1.5194673e-06 6.01234e-08 -0.25200787 1.5129116e-08 2.5318101e-08 9.395061e-09 0.6888225 -4.981108e-09
1.8397177e-08 -1.7018923e-08 7.485667e-09 9.827239e-10 -9.686529e-09 2.7455226e-08 -4.3953596e-09 -2.5181632e-10
2.612665e-08 1.2962613e-08 -2.1302662e-09 9.025816e-09 2.0619597e-09 -6.3611973e-09 6.3758216e-09 -2.0039893e-08
9.119214e-11 -5.8261165e-09 -7.930924e-09 1.298937e-09 7.686698e-09 -2.3482317e-08 8.070066e-09 -1.8117552e-08
1.4346919e-08 -1.0518868e-08 -3.09715e-08 9.577138e-09 1.6228116e-08 -2.0478103e-08 2.1113886e-08 1.0937773e-08
-9.87951e-07 -0.12400532 -4.4868367e-09 0.35758567 -0.18049015 0.0006378347 -0.67878425 -0.14059979
-0.8475065 -0.041101485 0.6947062 -2.2256915e-08 -1.0461363 0.19972792 0.35260376 -0.9717834
-3.91312e-09 8.69911e-09 6.938411e-08 6.7256267e-09 2.3123652e-08 -0.96277833 1.0035951e-08 0.54323494
-2.2763183e-07 3.7294523e-09 -0.032059822 -1.1028998e-08 4.3459214e-09 6.9709e-09 -0.30829224 3.4946397e-09

convs.0.lin_pos_r.bias f4 [32]
00000000: 13bd c43c 6ca1 ef3d 7a8c 95bb afd1 c5b7
00000010: a6ae 77b7 1f97 633e 70c8 5cba a166 cb3d
00000020: a552 95bc 03b6 2fba cfdb b4bc 17da 5cbb
00000030: 456e 44ba 5d9c 4cbd 4c17 60bd f39a bebc
00000040: 53e6 b8bb 13dd 1c3d 3608 26bd 59e9 19bd
00000050: d125 82bd d5ef 053e ffc8 84bb d2ad f33d
00000060: 8ec1 42bb 9b2c 71b9 15f8 4dbb 43ce aabc
00000070: 9ca8 64bc e824 5abd b310 41bc 27ac 373e
0.024015939 0.11700711 -0.0045638653 -2.3581872e-05 -1.4763011e-05 0.22225617 -0.00084222015 0.09931684
-0.018227885 -0.0006702842 -0.02207747 -0.0033699328 -0.0007493238 -0.049953807 -0.054709718 -0.023267245
-0.005642691 0.03829677 -0.040535174 -0.037576053 -0.06354869 0.1307977 -0.004052281 0.11898388
-0.0029717418 -0.00023000168 -0.0031428386 -0.020850306 -0.013956215 -0.053257853 -0.011783767 0.17936765

convs.0.lin_neg_l.weight f4 [32, 64]
00000000: 5bb6 e630 92d0 62b4 9f3a dc33 26db 8a33
00000010: ab9e 9131 2c74 4d30 b185 18b2 39a3 37b2
00000020: dea2 d232 c190 d0b2 b856 d1b0 7371 8cb3
00000030: c091 4fb1 4f19 872e d39a 04b4 8de1 4031
00000040: 44af 0bb1 b144 fb31 190c 5ab1 a793 a933
00000050: a472 7232 46ed adb1 2c7e ea32 5734 8932
00000060: 2c6b 56b3 6975 c131 f9a2 46b1 20a6 51b3
00000070: 9085 8db1 f539 9cb1 e6ab ca33 0f46 63b4
00000080: 382e df30 09fd 3caf 2aef 0cb0 f99b d933
00000090: 4884 bab3 b24f 07b0 8868 99b2 e7ce d5b3
000000a0: ba8e 03b4 62c5 6eb2 f617 0bb2 2826 9c31
000000b0: f0f8 cbb3 1223 9bb2 bd44 b730 b8f1 34b3
000000c0: 23b0 50b2 aa73 e830 ebf7 5cb1 30db 8531
000000d0: 814c a12f 0920 0eb3 c974 3d32 7502 9833
000000e0: 0ebb 8132 45d7 90af 6cf8 af33 d52c efb1
000000f0: 0b3d 2532 a567 e1b1 8498 e132 487c 23b2
00000100: 6eb4 07b2 2197 0dbd e60f 773b 5ccc 2d3c
00000110: 4a3a 33b1 f7bf e8b1 e86b 9631 3e1e c531
00000120: 9ce7 28bd a06a b8bb 7eb8 81bb 8711 853c
00000130: 4c12 9fb6 799b 84b2 2655 ad3c 9121 5937
00000140: 9be9 96b2 3dc0 a2ae 0ec7 fab0 21e3 5a3c
00000150: d929 12b3 68b7 3232 441c 393c f995 0a3a
00000160: 1299 a33c 701d 9031 b8e5 a13c 27a1 7aba
00000170: 4c21 3932 6e3e 1732 bd06 473c 209f a7bc
00000180: 7746 e430 5d47 19bc 705e 6eb2 7ab8 73bd
00000190: 74ff a7bb 5678 d432 bab3 1bba ccc5 58bd
000001a0: 8952 613c 46c6 adbb e7a1 f8bb a189 09b2
000001b0: 4da8 3d3c 647e 32bc 6a73 42bc 1b8b 8b3c
000001c0: 46a4 c430 1d14 35b2 19ae 1db1 610d 432f
000001d0: 3fb7 66b2 a2e5 f83b 1b8f 4331 d3d0 ae3c
000001e0: 6898 d6b2 341e 22b2 1c31 b33b a15f 9c30
000001f0: 89f3 bab1 fd4c a52e 8da8 4bbb 7830 cd31
00000200: 3fd0 ba31 d972 31bd b8d5 523b a69e 50bd
00000210: 790e 543b a821 f8b1 3c34 14bc 4c61 5736
00000220: 6d67 3b32 679b 2a3c ee37 27b0 c564 f3bc
00000230: ebaf bf32 a330 13b2 5e5a 9c3c 97ed 42b2
00000240: c1c2 7a32 74ef 88b2 0ca5 cf38 8ced 8cbc
00000250: 437b 4cb0 e557 65b2 32b4 6e3d 97b4 143c
00000260: 4070 50b1 a746 6931 4a54 00bd d274 563d
00000270: 4d9b 073c 0d6e 5eb1 84c4 443c 3600 01b2
00000280: 217c 91b2 1b0d 053d bd4f ef31 7662 6232
00000290: 961d 4532 9d10 0132 04bf 58bb 53ca 27b1
000002a0: afb8 08bd fed7 353d 3d95 abbc 551f a3b8
000002b0: c761 0fbc 4e76 c53c 04bc 0a3d b3fd ffbc
000002c0: 0599 a1bc 7d42 bbb2 c59b a930 389f b830
000002d0: e4e1 01bc ea41 99bc 5208 00b1 a822 393d
000002e0: 3842 9ab2 0bff a7b1 8670 03b2 5b85 52bc
000002f0: 296b 3db3 7dda 7ab1 7b45 e9bc 22c0 0d32
00000300: 81e8 1db2 30de dc3d e613 e5bc 6a93 473e
00000310: 9c28 d53a 9c17 dfb4 3c9d c739 b14e 1a33
00000320: 2771 38bd c7c5 f5bb ae2b f3bd e2ec 323d
00000330: cb29 6cb9 419d d734 f1f8 be3d 91e5 943a
00000340: 0042 7e32 881f 61b0 a3e5 45b4 c82a 5c3d
00000350: c7d3 4ab9 1f9b 2a36 f9b2 8abd 437c 9bbb
00000360: 30e5 aa3d 42e0 8cb2 8ce5 ed3d 226e b43d
00000370: b393 333c 9b4a 8cb3 2e7c 00bc efa7 023e
00000380: 360f c835 eba8 0c3b 4d2d 65b1 77c2 893d
00000390: 8932 9dbc c53b 27bb 5a34 223d 4091 123d
000003a0: e423 813d f4fd cabc 8d58 7c3d ba1a 4732
000003b0: 9d93 4ebd 810a d43c 5adc da3d 766c 68bd
000003c0: ddc0 90ba 894e fcb2 df77 06b3 d58f 1fb1
000003d0: 95c0 843c fde3 fb3c 8cd5 9bb1 89d4 023e
000003e0: 0315 c6b2 e30c 5f32 fc82 423d ac1b fcbc
000003f0: 2be7 6932 9058 3430 8771 2d3d 1ad0 61b0
1.6786531e-09 -2.1123768e-07 1.02552114e-07 6.4659886e-08 4.238094e-09 7.4743656e-10 -8.877962e-09 -1.06891145e-08
2.4521281e-08 -2.4280213e-08 -1.5231398e-09 -6.539894e-08 -3.0205314e-09 6.143585e-11 -1.2349783e-07 2.8067888e-09
-2.032679e-09 7.3128708e-09 -3.1730052e-09 7.8965336e-08 1.411232e-08 -5.0619375e-09 2.7298562e-08 1.59727e-08
-4.992323e-08 5.6303873e-09 -2.8905431e-09 -4.8812694e-08 -4.1188244e-09 -4.5467865e-09 9.437626e-08 -2.116651e-07
1.6238522e-09 -1.7188397e-10 -5.1271576e-10 1.0133221e-07 -8.685362e-08 -4.922597e-10 -1.785908e-08 -9.956221e-08
-1.225225e-07 -1.3898303e-08 -8.096313e-09 4.5445354e-09 -9.4982056e-08 -1.8060323e-08 1.3334539e-09 -4.2129358e-08
-1.2147242e-08 1.6913095e-09 -3.2155139e-09 3.895728e-09 2.934009e-10 -3.3091087e-08 1.1027802e-08 7.0784985e-08
1.510264e-08 -2.6346406e-10 8.19426e-08 -6.9609123e-09 9.618144e-09 -6.560145e-09 2.6262803e-08 -9.516107e-09
-7.899059e-09 -0.034567956 0.0037698685 0.010607805 -2.6081062e-09 -6.7739125e-09 4.377842e-09 5.7368927e-09
-0.041236505 -0.005627945 -0.0039587608 0.01624371 -4.7406993e-06 -1.5437523e-08 0.021158766 1.2942023e-05
-1.756853e-08 -7.4010555e-11 -1.8246469e-09 0.013359816 -3.4031334e-08 1.0402665e-08 0.011298243 0.000528663
0.01997045 4.1942982e-09 0.019762859 -0.0009560757 1.0775988e-08 8.803552e-09 0.012147603 -0.020461619
1.6609211e-09 -0.009355393 -1.3874896e-08 -0.059502102 -0.005126888 2.473477e-08 -0.0005939562 -0.05292301
0.013752588 -0.005303177 -0.0075876596 -8.005743e-09 0.011575771 -0.010894392 -0.011868337 0.017034104
1.4307566e-09 -1.054016e-08 -2.294547e-09 1.77399e-10 -1.3429427e-08 0.0075957337 2.845758e-09 0.02133981
-2.4982185e-08 -9.4365085e-09 0.005468501 1.1377673e-09 -5.440999e-09 7.517007e-11 -0.0031075806 5.9717955e-09
5.4369873e-09 -0.043322418 0.0032170843 -0.05093255 0.003235726 -7.2215762e-09 -0.009045657 3.209413e-06
1.0908349e-08 0.010413027 -6.0833727e-10 -0.029711137 2.2315325e-08 -8.567585e-09 0.01908606 -1.1346308e-08
1.4596197e-08 -1.5941374e-08 9.9012716e-05 -0.017203115 -7.4389933e-10 -1.3349539e-08 0.058277316 0.009076259
-3.033179e-09 3.3946124e-09 -0.031330384 0.052357502 0.008276773 -3.2367808e-09 0.012009744 -7.508836e-09
-1.6936669e-08 0.0324832 6.9648807e-09 1.3177319e-08 1.1473636e-08 7.512566e-09 -0.0033072839 -2.4416706e-09
-0.033379253 0.04439544 -0.020945186 -7.778282e-05 -0.008751339 0.024104264 0.033870712 -0.031248903
-0.019726286 -2.17999e-08 1.2340641e-09 1.3433015e-09 -0.007927392 -0.018708188 -1.863118e-09 0.045199066
-1.7958072e-08 -4.8893347e-09 -7.6507884e-09 -0.012849177 -4.4102453e-08 -3.6503984e-09 -0.028475514 8.250966e-09
-9.191468e-09 0.107845664 -0.02796359 0.19489828 0.0016262713 -4.1554165e-07 0.00038073387 3.592749e-08
-0.045029785 -0.0075003835 -0.118735656 0.04368294 -0.00022522283 4.0161288e-07 0.093248256 0.001135992
1.47997525e-08 -8.189933e-10 -1.8430596e-07 0.053751737 -0.00019343114 2.5422266e-06 -0.067724176 -0.0047450378
0.08344495 -1.6400126e-08 0.11616048 0.08810069 0.010960507 -6.532829e-08 -0.007842107 0.12759374
1.4905588e-06 0.0021462988 -3.3349636e-09 0.06726544 -0.019189136 -0.0025517803 0.039600708 0.035783052
0.06305674 -0.024779297 0.061607886 1.1589401e-08 -0.050433744 0.025883915 0.1068656 -0.05674406
-0.0011043806 -2.9372375e-08 -3.130833e-08 -2.3219304e-09 0.016205112 0.030748362 -4.535371e-09 0.12776388
-2.3059789e-08 1.29832385e-08 0.047488198 -0.030774914 1.36149465e-08 6.5609473e-10 0.042344596 -8.2150253e-10
