wiki-elec/models/wiki-elec-train-8.pt (torch, 63739 bytes, 14 tensors)

conv1.lin_pos_l.weight f4 [32, 64]
000000 b6 df 92 37 86 b5 7b b5 ab 8f 6f b7 35 0a a9 b5
       1.750873e-05 -9.376894e-07 -1.427896e-05 -1.2594452e-06
000010 e1 99 b1 37 8a 40 55 b6 d7 f6 d2 b5 ac 4d 4f 36
       2.11717e-05 -3.177704e-06 -1.5718059e-06 3.0890615e-06
000020 63 3b 44 35 5f b2 fe b3 fd 68 95 35 ea 28 af 35
       7.310211e-07 -1.1860242e-07 1.1131921e-06 1.3050424e-06
000030 b8 b6 66 36 2a 84 14 36 53 aa ef b5 80 86 2f b5
       3.4379027e-06 2.2130648e-06 -1.7856458e-06 -6.5388303e-07
000040 45 2c 41 b5 d7 61 31 35 de 68 f7 b4 66 98 12 35
       -7.1962523e-07 6.6080014e-07 -4.6083636e-07 5.461101e-07
000050 04 f6 17 b5 88 85 e6 b6 27 c7 8c b5 58 92 27 b4
       -5.6609883e-07 -6.8700792e-06 -1.0488774e-06 -1.5606327e-07
000060 58 12 37 b2 f1 09 3c 35 c6 4b 56 b5 94 de 97 35
       -1.0656173e-08 7.0049924e-07 -7.983148e-07 1.1315155e-06
000070 dc df f2 35 06 f7 90 b5 8e 85 76 35 47 95 6f b6
       1.8095557e-06 -1.0800729e-06 9.183649e-07 -3.5700666e-06
000080 b0 1f 5d 36 2a 2c 35 36 54 54 02 b6 5e b9 73 b5
       3.295001e-06 2.6996809e-06 -1.9420595e-06 -9.07943e-07
000090 76 3d 68 b6 d0 9d 66 b4 0d dc 8e 36 76 03 0e b7
       -3.460647e-06 -2.1477831e-07 4.257547e-06 -8.464665e-06
0000a0 46 64 7e b5 ca c6 bd b4 36 ce cf 33 e6 6e 9f b5
       -9.476829e-07 -3.534863e-07 9.676698e-08 -1.1878699e-06
0000b0 e2 35 8f 34 50 98 46 b6 96 1f fd 35 60 c2 99 b6
       2.667503e-07 -2.9592957e-06 1.8859162e-06 -4.5823836e-06
0000c0 72 5c 1d b5 d7 b4 41 36 f6 15 38 b6 b8 07 af b5
       -5.8621583e-07 2.8864504e-06 -2.743092e-06 -1.3040762e-06
0000d0 ff c4 35 34 17 fd 21 36 97 3e a7 36 8e 55 fc b5
       1.6928605e-07 2.4138187e-06 4.9842743e-06 -1.8800363e-06
0000e0 37 3b 64 36 fe b7 15 b6 7a 41 94 b5 3f 70 8e 33
       3.4009115e-06 -2.2309828e-06 -1.1045915e-06 6.632808e-08
0000f0 65 01 6d 36 01 3c 5b 34 28 39 52 b6 36 d9 a9 36
       3.5316564e-06 2.0417794e-07 -3.1325708e-06 5.061879e-06
000100 e5 7f 29 be 43 a9 8c 3d 10 24 07 be ee be c5 bc
       -0.16552694 0.068682216 -0.1319735 -0.024138894
000110 a9 53 3e bc f6 07 2c 3d 64 c7 c8 3b bd 24 cb bd
       -0.011616626 0.04199978 0.006127285 -0.09919117
000120 a6 42 5a 3d ff 8f 3b 3e c3 81 41 bd 64 6a 86 3d
       0.053286217 0.18316649 -0.04724289 0.06563261
000130 ed dc 44 3e bb e1 0f 3d 8a 10 df 3c dc 55 36 3d
       0.19224901 0.035127383 0.027229566 0.044515476
000140 c9 06 00 3e 20 8f 33 3d 98 19 98 bc be bd 56 3e
       0.12502588 0.043837667 -0.018566892 0.20970818
000150 c0 3e 00 be 64 41 8a 3d 92 c0 9b bd 2b 5d 49 3d
       -0.12523937 0.067507535 -0.07605089 0.049161118
000160 48 53 51 be db ec ac bc 04 6a ec bb 90 ba 12 3d
       -0.20441926 -0.021109035 -0.0072147865 0.03582245
000170 7a 24 b4 bc 66 31 4c 3e cc e7 aa 3d df 86 90 3e
       -0.02199005 0.19940719 0.08344993 0.28227898
000180 b3 83 4c 3d 8e d9 03 be 7c a8 b6 3c de 73 6d bc
       0.049930286 -0.1287596 0.022297136 -0.014492957
000190 9d 1e c0 3d 42 2d 4b bd b8 e3 ac bd b3 d2 29 bd
       0.09380839 -0.049603708 -0.084418714 -0.041460704
0001a0 7f d6 6b 3c f6 82 90 3c 02 0b c0 3c 9f 17 b5 bd
       0.014394402 0.017640572 0.023442749 -0.08842396
0001b0 aa 7d ad 3d 08 84 16 3e 5b 46 43 3d b3 69 37 3e
       0.08471234 0.14698803 0.047674518 0.17911415
0001c0 96 0b 9f 3c 27 4e 8a bd 13 35 ca 3d f9 3e 40 3e
       0.019414704 -0.067531876 0.09873404 0.18774022
0001d0 ff de aa 3d 4b 80 d6 bb be 86 f1 3d a7 14 e5 bc
       0.083433144 -0.0065460554 0.11793278 -0.02796395
0001e0 b9 f0 2d be a3 c0 85 bd 57 bd 28 be 27 f4 7b bc
       -0.1698636 -0.06530883 -0.16478477 -0.015378035
0001f0 e9 11 76 3b fd 09 ab bd 76 a7 e5 bd 8d 98 55 bc
       0.0037547296 -0.083515145 -0.11213581 -0.013036859
000200 28 74 15 33 95 fe 88 32 d6 35 a9 30 31 9f 2f 32
       3.479741e-08 1.5948254e-08 1.231167e-09 1.0222537e-08
000210 c0 d5 c1 b2 bf 50 92 32 dd 2e 0a 32 e1 1b e8 b1
       -2.256536e-08 1.7033356e-08 8.043313e-09 -6.755258e-09
000220 bd 03 1c 32 e3 f0 82 31 78 01 92 31 98 ea 46 b0
       9.081245e-09 3.8108836e-09 4.2493262e-09 -7.236536e-10
000230 3f 9e 62 32 de 34 15 b2 7e 20 65 31 fb 0c b8 31
       1.3190912e-08 -8.684962e-09 3.3342356e-09 5.3565805e-09
000240 51 9c 45 32 c0 16 42 b2 d1 3d 96 30 39 bd 88 b1
       1.1502451e-08 -1.1297459e-08 1.0931506e-09 -3.979633e-09
000250 c9 b5 98 31 b3 1a b1 b0 31 34 da b1 c2 b5 87 32
       4.444449e-09 -1.2886033e-09 -6.3505685e-09 1.5798722e-08
000260 f4 c1 41 32 59 2e ff 30 57 78 a8 b1 a1 9b 7b 31
       1.1278178e-08 1.8566865e-09 -4.9031246e-09 3.6613772e-09
000270 4a 06 d3 31 f8 58 8c 31 a0 e1 46 31 3e 13 a7 31
       6.141623e-09 4.084651e-09 2.8941045e-09 4.8625273e-09
000280 52 3c 7e 30 a7 86 e7 b1 32 4c b1 b1 f0 6a 9b 30
       9.249038e-10 -6.738293e-09 -5.1600404e-09 1.1308128e-09
000290 ad 18 13 b2 f5 8f d8 31 be f1 5c b1 22 76 d5 b1
       -8.562137e-09 6.3027934e-09 -3.2151628e-09 -6.212546e-09
0002a0 37 59 48 b2 93 82 e2 b1 0b ce 97 b2 d5 83 07 32
       -1.1661817e-08 -6.5923103e-09 -1.7672411e-08 7.888009e-09
0002b0 3e 6e 84 b1 d3 82 61 32 38 c8 ed 31 f5 3a bd 31
       -3.8542387e-09 1.312647e-08 6.92037e-09 5.5073266e-09
0002c0 f1 bf aa 31 91 e5 ff 31 63 77 86 32 e7 8c 85 32
       4.9694724e-09 7.4475754e-09 1.5653944e-08 1.5547313e-08
0002d0 c6 51 ca b1 6c 6d 37 32 99 86 2e b2 ef 34 a4 af
       -5.8882703e-09 1.0676882e-08 -1.0158737e-08 -2.9869038e-10
0002e0 02 ce 5a 32 fb ad cb b1 3e 66 b0 31 ee 1b 41 31
       1.2736111e-08 -5.927857e-09 5.1338978e-09 2.8101073e-09
0002f0 c9 af 84 b2 9e b3 9d af 27 98 0f 31 1d d1 1c 31
       -1.544676e-08 -2.868576e-10 2.0895727e-09 2.2819855e-09
000300 7c 86 8d 3d f4 f7 12 bd 4e 30 dc bc 1e be d6 3c
       0.069104165 -0.035880998 -0.026878502 0.026213702
000310 47 c7 79 3d e5 9e 4f bd 60 c7 3b 3d 20 0e 17 3d
       0.06098106 -0.050688643 0.045844436 0.036878705
000320 3f d0 4d bc 61 f2 48 3d a5 4f a1 3c c8 b8 10 3d
       -0.012561857 0.049059276 0.019691298 0.03533247
000330 c7 49 22 bd 18 e7 d2 bb 53 e9 59 bd 07 d6 df bc
       -0.03962114 -0.00643624 -0.05320103 -0.027323736
000340 61 36 83 3c c3 40 27 bd 2b 3f f1 3a a6 83 45 3c
       0.01601714 -0.040833246 0.0018405666 0.012055313
000350 e9 28 61 bd ac 43 a8 bc 39 88 98 bc 3b 8a ab bc
       -0.054970656 -0.020540081 -0.018619644 -0.020939937
000360 25 f3 eb 3c 25 29 1a 3c ab f5 e3 bb 9d 51 9b bd
       0.028802464 0.009409224 -0.006956776 -0.07583926
000370 e2 8b 58 bd d5 0b 05 bd 05 ea c6 bc f8 fd ed 3c
       -0.052867778 -0.032481987 -0.024281511 0.029051766
000380 db 1c 07 3c 76 d4 65 3c c9 87 e5 3c f8 38 24 bb
       0.008246626 0.014027705 0.028018849 -0.002505837
000390 a5 89 8e 3d 56 48 fe bc f8 f9 99 bb b0 23 30 bb
       0.06959847 -0.031040352 -0.004698988 -0.002687674
0003a0 bf e1 87 bc 0f b7 a1 bc 46 dc 59 bd c8 ca 27 3c
       -0.016587136 -0.01974061 -0.053188585 0.010241218
0003b0 38 5a 37 bc 0f c9 33 3c 45 78 1e 3c f2 7b c3 bb
       -0.011190943 0.010973229 0.009672229 -0.005965703
0003c0 2b 40 da 3c 13 79 04 bc 0a 0f 6e 3d 2d cc 9f bc
       0.026641926 -0.008085507 0.05811981 -0.019506538
0003d0 1e ce ac 3c 55 f4 50 bc 34 bb bf 3c 15 43 70 3c
       0.021094378 -0.012753566 0.023404695 0.014664431
0003e0 d7 fb c9 3c 99 15 4e 3d 98 1a 5d bd c1 fb bd bc
       0.02465622 0.050313566 -0.05398044 -0.023191335
0003f0 c2 29 80 3d f6 46 4f bc 79 0b 4f bd 42 76 d8 3c
       0.06257965 -0.012651196 -0.05054805 0.026423577

conv1.lin_pos_r.weight f4 [32, 64]
000000 96 9f 62 b7 e7 19 f6 b6 d7 87 0d b8 2e 2f d9 36
       -1.3507806e-05 -7.3343867e-06 -3.374353e-05 6.4725964e-06
000010 2e 6f 08 37 73 34 7b 36 1e a1 31 37 6e 84 e3 36
       8.132118e-06 3.7432444e-06 1.0587535e-05 6.780544e-06
000020 03 81 06 b7 f9 e6 e9 b6 96 ef 14 b5 58 17 47 35
       -8.01706e-06 -6.97083e-06 -5.548294e-07 7.4167247e-07
000030 4f 85 e2 37 e5 df 85 b6 51 96 d4 36 2d d8 ac b6
       2.7003376e-05 -3.9897736e-06 6.3355915e-06 -5.1511656e-06
000040 05 1d 40 36 40 f3 b7 b6 1b 33 03 37 45 65 37 34
       2.862712e-06 -5.482143e-06 7.820107e-06 1.7080045e-07
000050 c6 64 be 36 d9 74 be b7 43 3b 7c 36 95 5e bf 36
       5.674173e-06 -2.2704176e-05 3.758542e-06 5.7032544e-06
000060 90 fe 7d b7 85 a5 f6 b6 93 bd 1f 37 82 74 c3 35
       -1.5139245e-05 -7.3506403e-06 9.521277e-06 1.456254e-06
000070 e5 aa 4f 33 9e a8 85 36 f2 e2 4b b7 29 74 5b 37
       4.835137e-08 3.9833385e-06 -1.2152583e-05 1.3080463e-05
000080 1d 0f 20 37 5e 04 08 37 91 75 26 36 ee e1 00 b6
       9.540262e-06 8.1072485e-06 2.480436e-06 -1.9204995e-06
000090 f2 66 82 b6 bf 3e f5 34 46 3c 36 37 c0 49 8a 36
       -3.8862863e-06 4.568046e-07 1.0862079e-05 4.121306e-06
0000a0 c7 b2 25 37 c9 00 5c b7 37 84 cc 36 53 68 3a 35
       9.876391e-06 -1.3113205e-05 6.0950656e-06 6.944221e-07
0000b0 2a 92 66 b6 8e 63 09 b6 1d 2f 8a 36 8e 2a 8f b6
       -3.435775e-06 -2.047254e-06 4.118205e-06 -4.266686e-06
0000c0 58 88 a2 b4 ba 57 47 b6 70 5f 15 b5 03 38 69 b5
       -3.0274055e-07 -2.9704374e-06 -5.5645705e-07 -8.688077e-07
0000d0 7d 9d 68 35 21 b6 11 36 90 e0 18 36 4d 18 32 b6
       8.665591e-07 2.1712697e-06 2.2780478e-06 -2.6538212e-06
0000e0 f9 fa c2 34 9c 3a a9 36 ba ec be b6 fa e2 1b 36
       3.6317923e-07 5.0434155e-06 -5.69e-06 2.3228918e-06
0000f0 b8 32 d1 36 89 c6 12 37 34 1c 00 b7 34 47 70 37
       6.23459e-06 8.748503e-06 -7.635961e-06 1.4321693e-05
000100 ea c7 9c bf 2f cd 40 be 19 5a a3 bd 1a 13 93 be
       -1.2248509 -0.18828271 -0.07976169 -0.2872551
000110 e5 3a 82 3e 88 63 fc bc 2d 32 44 3d 82 24 c4 bd
       0.25435558 -0.030809179 0.047899414 -0.09577276
000120 7b 8f ec bc d1 c9 14 be fb d5 73 be 65 6d 7e bd
       -0.02887701 -0.14530112 -0.23812096 -0.062116046
000130 18 be ba 3d 4f 61 21 3e 6f 8e 16 3e af d7 28 3e
       0.09118289 0.15759777 0.14702772 0.16488527
000140 3b 28 ad bd e2 ae a2 be de cf 62 be d0 80 21 3d
       -0.08454939 -0.3177405 -0.22149608 0.039429486
000150 59 19 1c be 86 e9 9e 3e 62 92 bb bc 9c 50 12 3e
       -0.15244044 0.3103754 -0.02289695 0.14288563
000160 04 65 36 be d6 9d fb 3d 03 70 74 bd ca ec 0c 3d
       -0.17811972 0.12285964 -0.059677135 0.034405507
000170 5f d3 50 bd 8f 77 89 3d 11 83 13 3d 3f 2c 82 3c
       -0.05098283 0.06712257 0.036013667 0.015890239
000180 0a 94 2d 3e c1 60 f5 3d 16 0a f5 3c 08 37 96 bd
       0.16951004 0.11981345 0.029912036 -0.07334715
000190 67 d9 9a 3d 04 8e b6 3d 63 ad 85 bd 20 c2 58 3d
       0.075609975 0.08913806 -0.065272115 0.052919507
0001a0 9d 46 ef 3c 9c cf 83 3d 1b 0e 14 3e 07 7a 5a 3d
       0.029208476 0.06436083 0.14458506 0.05333903
0001b0 7f b5 0a 3d 10 58 e2 bc fb 21 3c be aa 80 ba bd
       0.033864494 -0.027629882 -0.18372338 -0.09106572
0001c0 e5 d8 32 be 5f bf ed 3c c3 8d 21 3c 27 7d ba bc
       -0.17465551 0.029021917 0.009860459 -0.022764755
0001d0 65 b9 98 3c f5 16 89 3d d2 c3 d5 3c ff 41 a8 bd
       0.01864309 0.06693832 0.026094351 -0.08215713
0001e0 c3 a5 03 3e 13 4a 04 be 9e 7d 5b 3d e3 fd e9 3c
       0.12856202 -0.12918882 0.053586595 0.028563445
0001f0 87 2f a7 3d 52 8c bc bd 86 3e db 3c 08 31 36 bd
       0.08163362 -0.092064515 0.026763212 -0.044480354
000200 41 f8 b9 b0 90 9d ed b1 1b dc e6 31 57 87 1b 32
       -1.353108e-09 -6.9155206e-09 6.718904e-09 9.05296e-09
000210 d3 76 18 b1 72 85 94 31 82 79 45 b1 f9 40 33 b2
       -2.2186455e-09 4.322538e-09 -2.8736342e-09 -1.0433944e-08
000220 86 7d 77 b2 4a be eb 31 9d b9 82 32 93 27 c6 31
       -1.4405833e-08 6.8610335e-09 1.5218399e-08 5.7670575e-09
000230 12 95 b1 31 de a6 ab 31 35 9a 1d b2 a1 87 de b1
       5.1683253e-09 4.9957256e-09 -9.173665e-09 -6.4764696e-09
000240 b6 82 0a b2 08 b7 85 b1 f5 40 1a 32 85 7e 9a b1
       -8.062377e-09 -3.8916177e-09 8.978749e-09 -4.4963735e-09
000250 ce 59 ac b1 7f 96 e5 af 76 c7 45 32 f4 70 16 b1
       -5.0160684e-09 -4.176179e-10 1.1512261e-08 -2.189208e-09
000260 64 ea d1 31 3a 15 26 31 c2 d2 8c b1 a5 68 e0 31
       6.1093477e-09 2.4168245e-09 -4.0984967e-09 6.5311547e-09
000270 c8 8d 17 b2 f7 94 1e b2 71 2f 5c b2 ea 1a 5f b2
       -8.821594e-09 -9.230681e-09 -1.2816472e-08 -1.2986428e-08
000280 a3 5c 79 32 c3 59 1c b2 9a 11 ae 30 1d db ea 31
       1.4514771e-08 -9.1008046e-09 1.2665169e-09 6.8352066e-09
000290 f7 95 68 30 3f 29 82 31 b2 17 fb 31 82 f8 0c 32
       8.461422e-10 3.788187e-09 7.3077553e-09 8.205577e-09
0002a0 11 dc 39 32 98 9e c1 b1 01 7d 1b 31 16 f4 94 b2
       1.0818455e-08 -5.6350693e-09 2.2626525e-09 -1.7340465e-08
0002b0 26 2c a0 31 71 e5 fe 31 f5 7a 0b 32 d7 ee 11 32
       4.661632e-09 7.4184574e-09 8.118822e-09 8.494417e-09
0002c0 e2 8c 82 b2 e7 1c d3 b1 61 94 34 32 71 84 cf b1
       -1.5198058e-08 -6.144194e-09 1.0511116e-08 -6.0395497e-09
0002d0 f5 fa 93 b1 06 64 09 b1 31 18 4b b1 51 0b 2f b2
       -4.3067936e-09 -1.999298e-09 -2.955414e-09 -1.0188914e-08
0002e0 d0 a2 d5 31 da ee 4d 32 45 c1 5a b2 37 1d bb 31
       6.2176255e-09 1.1986879e-08 -1.27332145e-08 5.4457376e-09
0002f0 52 96 e0 b1 c7 21 3f 32 af 76 4e 31 9e 31 de 31
       -6.5363475e-09 1.1125343e-08 3.004441e-09 6.466691e-09
000300 f7 a9 b9 3e 73 77 ba bd 85 78 02 3e 37 1b 26 3d
       0.36262485 -0.091048144 0.12741287 0.040553298
000310 78 2b 89 3e 02 70 99 bc 42 19 ba 3d 06 4f 0d bc
       0.26790977 -0.018730167 0.09086849 -0.008624798
000320 4a 27 7c bd 4e 63 6c 3d 36 1b a3 bd ab 12 90 bd
       -0.061560906 0.05771189 -0.079641744 -0.07034811
000330 c1 ed fe 3d 16 b7 66 bd 5d a6 24 3e 67 73 47 3d
       0.12447692 -0.056326948 0.16079088 0.04869404
000340 94 b3 4c ba f8 eb dd 3d 1e 31 28 3d 51 b8 70 bb
       -0.00078087416 0.10836023 0.041062467 -0.0036730955
000350 97 5a 4d be 0c c9 e9 bd f0 ea 9a 3c 3a ca 28 bd
       -0.20054089 -0.114153 0.018910855 -0.041208483
000360 8f f4 22 bd a1 96 c0 3d 7b 5a b2 bd d3 91 bf bd
       -0.03978401 0.0940373 -0.08708664 -0.09353986
000370 ce ae 6a bd 20 29 f7 3d 5e c1 eb bd 32 7c 06 3d
       -0.057295613 0.12068391 -0.11511491 0.032833286
000380 1e 43 b4 bd 91 b4 35 3e 9f ac 2e be 4c 9a 27 bc
       -0.08801864 0.17744662 -0.17058037 -0.010229658
000390 fe 3e c8 3a 2d 41 55 bc 44 47 ea bd 3c b9 8a 3d
       0.0015277562 -0.013016027 -0.11439374 0.06773612
0003a0 ed d6 7d bd 78 24 07 3d b0 7f 41 3c a7 08 0d bc
       -0.061972547 0.032993764 0.011810228 -0.00860802
0003b0 27 5b ee bd a9 a9 3f bc 67 39 89 3c 26 25 52 bd
       -0.1163848 -0.011698165 0.016751004 -0.05130496
0003c0 49 8f f5 3d c6 73 98 bc e0 ae 70 bd 1e 0c 51 3d
       0.1199022 -0.018609893 -0.058760524 0.051036946
0003d0 47 8d a9 3d 3d 32 8b 38 3f b4 01 3e c1 30 f9 3c
       0.082789 6.637394e-05 0.12666415 0.030418755
0003e0 ac c9 fa 3d 0e f8 9c bb 81 9a 33 bd 35 ff bd 3d
       0.12245497 -0.0047903126 -0.04384852 0.092771925
0003f0 9f c8 29 3e 8d ff 76 bd 0e 33 19 be d9 d5 5e be
       0.16580437 -0.060302306 -0.14960882 -0.21761264

conv1.lin_pos_r.bias f4 [32]
000000 b3 7b 65 ba 58 f7 84 3c 69 fd 5b bc 6d 73 9a 3d
       -0.00087540894 0.016231224 -0.013427117 0.07541547
000010 c2 2b e9 b9 39 53 2d bb f4 99 a5 3c 21 9b e6 3a
       -0.00044473825 -0.002644731 0.020215012 0.001759384
000020 bd e1 32 3d e8 86 a2 3c 17 78 f5 3c 27 79 16 bd
       0.043672312 0.019839719 0.02996449 -0.036736634
000030 d1 21 08 bd c6 2c ba 3c 6d cd cb 3c 5e 77 81 3c
       -0.033235375 0.022726428 0.024878228 0.015803989
000040 41 b8 2d bd 45 32 ea bc 74 ab 03 3d aa 6a 2a bb
       -0.042412046 -0.028588424 0.032145932 -0.0026003518
000050 ad ff d3 bc 88 41 15 3a 86 98 51 bd 3b b9 68 3d
       -0.025878752 0.0005693664 -0.05117085 0.056817275
000060 88 1a 0f ba 67 9b af bc e3 75 d6 3d 91 bb 39 bd
       -0.00054589706 -0.021436406 0.10471704 -0.045344893
000070 22 ae f2 bc 16 10 1d bd 06 ce b7 3c 31 78 cb b9
       -0.029624049 -0.03834542 0.022437107 -0.00038808727

conv1.lin_neg_l.weight f4 [32, 64]
000000 a7 16 81 32 03 f6 d6 b1 b2 a4 80 31 05 61 08 32
       1.5027878e-08 -6.256188e-09 3.744014e-09 7.938302e-09
000010 4c 6b 4c 32 c6 98 4a 31 69 dc ec 31 f9 bb 2a b2
       1.1898759e-08 2.948171e-09 6.8935617e-09 -9.938042e-09
000020 c5 75 6e 31 7a 08 a1 31 83 63 e8 b1 8d 12 14 30
       3.4700502e-09 4.6866804e-09 -6.763402e-09 5.386845e-10
000030 13 4e 72 b1 34 07 5b 32 29 42 47 b2 4a a5 3f 32
       -3.5260015e-09 1.27491155e-08 -1.1598368e-08 1.1155246e-08
000040 6d 0b 99 b1 c4 53 e8 b1 38 10 5d b2 75 29 a1 af
       -4.454185e-09 -6.7616117e-09 -1.2867581e-08 -2.9315186e-10
000050 e0 24 0e b0 97 c4 eb b1 33 2e bd 31 f1 05 9a b1
       -5.17117e-10 -6.86175e-09 5.505876e-09 -4.4826654e-09
000060 1a 88 d6 b1 39 7e 6a 32 99 03 7e b2 d2 1a ac 31
       -6.2436927e-09 1.3649292e-08 -1.4785564e-08 5.008908e-09
000070 ce 1e 23 b2 a3 06 c0 31 2b 41 0a b2 e7 c0 9f b1
       -9.494853e-09 5.58869e-09 -8.047475e-09 -4.6494395e-09
000080 50 9c 1f b2 c2 24 bd 2f ab db 07 b2 64 d2 27 b1
       -9.290559e-09 3.4405018e-10 -7.907981e-09 -2.4421292e-09
000090 f0 ae d7 30 57 20 82 31 a7 62 77 32 cf 3a b1 b1
       1.5693029e-09 3.7871746e-09 1.4399723e-08 -5.1580638e-09
0000a0 12 2f cf b1 2a 0b 81 b2 50 c8 73 b2 29 54 55 b1
       -6.029844e-09 -1.5022653e-08 -1.4190007e-08 -3.104342e-09
0000b0 ba 83 02 32 f7 6e 26 b2 51 31 65 b2 46 4a 65 b2
       7.596947e-09 -9.687702e-09 -1.3340768e-08 -1.3346442e-08
0000c0 18 f1 49 31 df 5e 96 31 0a c1 9e 32 87 ca 2b b2
       2.9386396e-09 4.37636e-09 1.8481405e-08 -9.999559e-09
0000d0 5e 3b f9 b1 93 aa 18 32 61 49 28 31 ff fc d0 30
       -7.253603e-09 8.8863485e-09 2.4488929e-09 1.5205898e-09
0000e0 57 70 a3 b1 3e 5a 9f b1 ed 9d 11 b2 4e 25 5e b2
       -4.756696e-09 -4.6377684e-09 -8.476019e-09 -1.2930583e-08
0000f0 de 77 33 31 04 c5 66 b1 f8 44 88 31 e8 02 02 b1
       2.6116065e-09 -3.3581395e-09 3.965962e-09 -1.8919142e-09
000100 43 84 38 3d 26 05 ac bc f5 3c 7b 3d 5d d2 f4 bc
       0.04504801 -0.020998549 0.06133743 -0.029885465
000110 45 fd c3 bc 75 e9 15 ba 2a 40 e4 3c 10 44 5c 3d
       -0.02392448 -0.0005718687 0.027862627 0.053775847
000120 ec dd ab bc ef 6d b4 3c 34 2e 3a 3c c0 65 3d 3d
       -0.020979844 0.022025077 0.011363555 0.046239614
000130 6f 44 8a bd 2e 4f 7e bd 77 26 1b bd e9 46 32 bc
       -0.06751334 -0.06208723 -0.03787848 -0.010881164
000140 74 07 f8 bc 44 99 57 3d f6 e7 de 3c 12 64 88 3d
       -0.030276991 0.0526364 0.027210217 0.06659712
000150 d6 94 5c 3d 4f 82 d1 3a 29 b6 3f bd c1 8d bc bb
       0.05385288 0.001598427 -0.04680458 -0.005754203
000160 0b 44 6d bc 04 6b 6b 3d e0 e2 93 3c a6 3f b5 bb
       -0.014481555 0.057475105 0.018052518 -0.005531269
000170 30 76 84 bc 32 cd 83 3a 9e 58 26 bd 70 ab a6 3b
       -0.016169637 0.001005566 -0.040611856 0.005086355
000180 40 e0 5a bd d1 92 d1 3b a1 6b 12 3d 9d 05 94 3c
       -0.053436518 0.0063956757 0.035747174 0.018069083
000190 be 36 bd 3c 5e 7a 92 bc 5f c2 1b 3d 28 5b 2f 3d
       0.023097392 -0.017880615 0.038027164 0.042811543
0001a0 0a f5 d2 b9 fa 4c d8 3c 90 15 aa bc 54 fc 6f 3d
       -0.0004023689 0.026403893 -0.020762235 0.05859025
0001b0 f2 32 9a 3b 1a 69 09 bd 98 39 29 3d 1a 9c 60 3c
       0.00470578 -0.0335475 0.04131469 0.0137090925
0001c0 d5 ac b7 bc f0 9c bc 3c 19 ac ec 3c 8a 5f 18 bc
       -0.02242128 0.023024052 0.028890656 -0.009300122
0001d0 63 d4 81 3c 04 5a 19 3d 4f 59 65 3c d5 30 b0 3b
       0.015848344 0.03743936 0.013998344 0.005376915
0001e0 c3 34 75 3c 44 eb a2 3b 8c ba 43 3d 6a b5 90 bc
       0.014966193 0.0049718935 0.047785327 -0.01766463
0001f0 62 0d 2f bd e7 cc 35 3c 0e 0b 8a bc 6f 45 bd 3b
       -0.042737372 0.011096216 -0.016850974 0.0057760994
000200 51 8b ec be e7 93 1c be 3d 16 b5 be f4 03 eb bd
       -0.4620004 -0.15290795 -0.3536853 -0.114753634
000210 e9 ae 86 3e 74 08 f6 bd e7 4a 4b 3d 38 24 39 3e
       0.2630532 -0.12013331 0.04963198 0.18080223
000220 6a cd 2b bd 41 5b 77 be db 71 af 3d 87 75 21 3e
       -0.041943945 -0.24155904 0.08566638 0.1576749
000230 f7 48 57 3e 0c 51 5d bd a6 87 4a be 08 cc 12 3e
       0.21023928 -0.05403237 -0.19778308 0.14335644
000240 3f 79 ab 3c dc 00 25 3e 05 71 05 3e 8d 46 43 3e
       0.020931838 0.16113609 0.13031395 0.19069882
000250 04 7c 25 3d 5d 2d d4 bd 81 e2 53 bd a5 08 ab bd
       0.040401474 -0.10360215 -0.051729683 -0.08351258
000260 70 7c 06 be 08 f3 df 3e 98 8c 0e be b4 b2 2e be
       -0.13133407 0.43740106 -0.1392082 -0.17060357
000270 5a 35 0c 3d 2d fc 87 be f6 2b 81 3c d4 2f 6d 3e
       0.034230568 -0.26559582 0.015768033 0.23162776
000280 96 11 40 3e a4 8d d3 3b 39 1b 28 3b 77 5b 18 be
       0.18756709 0.006456094 0.0025650992 -0.14878641
000290 65 18 66 be ec 91 6e bd ff ba d6 3d a4 e5 23 be
       -0.22470243 -0.05824463 0.104848854 -0.1600557
0002a0 df ca 85 3e c1 f3 d3 bb f4 1b 50 be be b5 23 3d
       0.2613134 -0.0064682667 -0.20323163 0.039968245
0002b0 e2 30 8a 3e 0d 3d d4 bd ae 3d 4b 3e d7 c8 14 bd
       0.2699042 -0.10363207 0.19847748 -0.03632435
0002c0 cd e4 39 be 5e 55 82 bd f5 65 12 3e 63 6a 03 be
       -0.18153687 -0.06363939 0.14296706 -0.12833552
0002d0 58 25 d9 3c 37 21 12 be 02 9e 4c 3e 2c ff ba bd
       0.026507065 -0.14270483 0.1998215 -0.091307014
0002e0 3c cd 11 bd 1f fb d6 3c 87 31 98 bd 3e d6 79 3e
       -0.035596117 0.02624279 -0.074313216 0.24398133
0002f0 6b 42 60 3e f3 e4 53 3c 7a 2e e0 3d 56 98 7a bc
       0.21900336 0.012933004 0.10946365 -0.015295109
000300 e1 94 f3 bc 79 04 10 3e 71 c2 d6 bd 0f 73 58 3c
       -0.029734077 0.14064206 -0.104863055 0.013211026
000310 88 dd 29 bc 24 02 aa 3c 94 3d 14 bc 1e f0 5e bd
       -0.010367759 0.020752974 -0.0090478845 -0.054428212
000320 b0 1c d7 3c 1b 9f 57 3d b7 c3 9e 3b 1b 84 18 3d
       0.026258796 0.05264197 0.0048451084 0.03723536
000330 c8 02 1c 3d d7 64 b8 bc 0a cb 82 3d 8c 05 7b bd
       0.03808859 -0.022509022 0.06386383 -0.061284587
000340 f4 52 27 3d 17 7a 3a 3d 00 6f 83 3d 12 0c 34 bb
       0.040850595 0.04552659 0.06417656 -0.0027473015
000350 a2 3e 9e 3c 1b 02 87 3a 50 2d 21 3d 13 a5 16 bd
       0.019316975 0.001030031 0.039349854 -0.03677852
000360 06 0e b1 3b 9a 9c 64 3d c9 7c 92 3c c1 87 30 bd
       0.005403283 0.05581341 0.017881768 -0.043098215
000370 5a f1 16 3e 34 63 72 bc 98 f0 a3 3d ac a8 1b 3d
       0.14740506 -0.01479416 0.08004874 0.038002655
000380 0a 6e 8a 3d 99 a0 cc bc e4 14 e1 3d 3e c4 99 3d
       0.067592695 -0.024978923 0.10990313 0.07508133
000390 d7 09 5b bd f2 82 f0 3b 34 9f 82 3d a4 4a a3 3d
       -0.05347618 0.0073398286 0.06378022 0.07973221
0003a0 63 6d 0f bd 75 e0 bc bd 34 0d 4b 3d 74 a6 03 3d
       -0.03501643 -0.09222499 0.04957314 0.032141164
0003b0 61 68 89 bd 2c eb ac 3b 7b f0 03 3d 05 87 79 bd
       -0.06709362 0.005277058 0.032211762 -0.06091978
0003c0 84 b0 ce 3d 41 d9 e8 bc a0 b3 47 bd 78 d7 81 3d
       0.100922614 -0.028423907 -0.048755288 0.063399255
0003d0 a0 c9 d0 3c e6 59 cf 3c 13 f1 5c bb 52 0b 6e bd
       0.025486767 0.025311422 -0.0033713027 -0.058116265
0003e0 63 e3 45 bd fc e0 ff 3c 98 fc b2 bc 5b 2a bc bd
       -0.048312556 0.03123521 -0.021848962 -0.09187766
0003f0 23 ca 44 3d 84 2d 6f 3c 55 db e8 3c a9 13 11 bd
       0.048044335 0.014598254 0.028424898 -0.03541914

conv1.lin_neg_r.weight f4 [32, 64]
000000 58 3b 92 b2 8e cd 92 31 38 b7 56 b2 d9 be 31 b2
       -1.7023623e-08 4.272528e-09 -1.2498099e-08 -1.034615e-08
000010 d9 3c 32 31 29 51 5b 32 d7 f6 f5 b1 cb a9 91 31
       2.5936997e-09 1.2765931e-08 -7.158501e-09 4.2393586e-09
000020 c6 1f 23 32 e5 d1 1e 31 e8 6b 5a 32 90 2f 1c 32
       9.495073e-09 2.3111337e-09 1.2713805e-08 9.09121e-09
000030 00 87 32 b0 ff 61 75 32 83 0a 8f 32 e9 9c 02 32
       -6.494787e-10 1.4283159e-08 1.6652171e-08 7.602673e-09
000040 04 9d 66 32 27 b6 7d 31 ef f4 e6 31 bc a0 13 b1
       1.3423463e-08 3.6919887e-09 6.7217267e-09 -2.1482682e-09
000050 00 6e 21 b2 2f aa 23 32 36 ca 0b b2 a4 cd 92 32
       -9.3964445e-09 9.526544e-09 -8.136842e-09 1.7090152e-08
000060 43 6d 84 b2 19 6c 9f ae af 9a bf b2 cd ab 0c 32
       -1.5416509e-08 -7.249685e-11 -2.2305668e-08 8.1881355e-09
000070 f0 83 c0 31 ea ae b4 b2 93 a7 48 32 ac 8a fe 31
       5.602935e-09 -2.10343e-08 1.1679634e-08 7.408138e-09
000080 c3 79 7f 30 35 41 f9 b0 1f fe a6 b2 12 f7 29 b2
       9.2941493e-10 -1.8135667e-09 -1.9440504e-08 -9.893272e-09
000090 30 25 44 2f bd 1a 20 b2 b0 ae 03 b1 21 75 30 32
       1.7839308e-10 -9.319305e-09 -1.9162307e-09 1.027118e-08
0000a0 ee 93 51 b2 1d 84 a8 b2 3c 93 e3 b2 9e 08 e3 af
       -1.21990364e-08 -1.9617852e-08 -2.6493232e-08 -4.1297182e-10
0000b0 90 33 49 31 c8 27 93 30 90 b4 fe b1 80 b5 9e af
       2.927866e-09 1.0706964e-09 -7.4129005e-09 -2.8868996e-10
0000c0 63 dd 34 32 7c a2 a6 31 72 0a f6 30 ab be 02 b2
       1.05277165e-08 4.849708e-09 1.7901824e-09 -7.610349e-09
0000d0 45 3e 58 b2 58 f8 c7 32 cd ef 74 b2 bf 7a bf 31
       -1.2587013e-08 2.3279583e-08 -1.4257194e-08 5.5727862e-09
0000e0 04 33 33 32 77 70 88 31 dc 18 16 af f3 fa ca 31
       1.0430771e-08 3.9709067e-09 -1.3651252e-10 5.9075034e-09
0000f0 ab 07 41 32 ab 92 05 32 f0 f8 e9 b1 0f 4a c4 31
       1.1235822e-08 7.774967e-09 -6.8094934e-09 5.7127703e-09
000100 dc 1f cd 3d b4 e0 47 3e 00 fc 40 bd 88 c9 97 3c
       0.10015842 0.19519311 -0.047115326 0.018528715
000110 3a 38 a6 3d 18 8b 12 bd 50 33 06 be 3f 6e 3a bd
       0.08116193 -0.03577718 -0.13105512 -0.045515295
000120 e2 3d b6 3d 09 73 78 bc 71 0e 35 3d 87 84 ef bc
       0.08898522 -0.015164145 0.044203226 -0.029237999
000130 54 d1 71 3c 80 68 ed 3d ff 40 c2 3c f3 52 58 3b
       0.01475938 0.115921974 0.023712633 0.0033008426
000140 e4 18 0a 3d aa 65 5d 3c 03 76 7e 3d f4 1f 4e bd
       0.033715144 0.013513008 0.062124263 -0.05032344
000150 25 47 72 bb 49 94 54 bc c2 10 9b 3c bd ee 88 ba
       -0.0036968675 -0.012974807 0.01892889 -0.0010447126
000160 04 12 0d bc 73 ea 97 bd 21 3e 76 3d 17 3d 03 bd
       -0.008610252 -0.074177645 0.060117844 -0.03204068
000170 1c 97 88 bc 69 76 dd 3c 6e a2 8d 3c f3 3c 10 bd
       -0.016673617 0.027034001 0.017289367 -0.035214376
000180 0b 23 84 3d 15 0c a0 3d d4 2c 51 3b 8d a3 60 bd
       0.064519964 0.078148045 0.0031917589 -0.054843474
000190 cc 98 c8 3d 5d 0f 8c 3d b2 17 4d 3d fa fb 53 3d
       0.09794769 0.06838868 0.050071426 0.051753975
0001a0 60 af 48 3c b7 7b 2e 3d 05 67 ba 3a 27 a0 09 3c
       0.012248844 0.042598452 0.0014221376 0.0084
0001b0 b4 76 4e bd b0 6c 29 bd 8f 7f 96 bd b5 a6 b4 bb
       -0.050406173 -0.041363418 -0.073485486 -0.005513037
0001c0 f3 62 e3 bc a1 cf 49 3c f3 90 52 bd 24 f6 6c bd
       -0.027757144 0.012317569 -0.051407766 -0.057851925
0001d0 c2 63 ac bc d4 fb 07 3d 54 d0 49 bd a4 44 9f 3b
       -0.021043662 0.033199146 -0.049270943 0.0048604775
0001e0 2f ca 1e 3c 7f e3 dc bc 8e 1e 95 3d aa 35 7b bd
       0.009691759 -0.026963947 0.072812185 -0.061330475
0001f0 32 6b 22 3d a2 cb 87 3d 63 08 94 3c 84 33 89 3c
       0.03965301 0.06630637 0.018070405 0.016748197
000200 f4 61 3b 3e fb cb f9 bd a1 1f 83 3c b6 96 5c be
       0.18299085 -0.12197109 0.016006293 -0.21541867
000210 ca 24 8b 3d d9 f0 31 3e 5f ad 8e bd 28 25 5c bd
       0.06794126 0.17377032 -0.06966662 -0.053746372
000220 bf 24 9b bd 12 a8 81 bc 41 40 25 bd 26 8a 26 3d
       -0.07575368 -0.015827212 -0.04034448 0.040659092
000230 f8 a0 06 3e 0e 51 a3 3d 46 a4 86 3d d0 33 99 bd
       0.13147342 0.07974444 0.065743014 -0.074805856
000240 29 77 6f bc 59 1d 3e bd 0b b2 7c bd 47 df 38 bc
       -0.014615812 -0.046414707 -0.061693233 -0.011283702
000250 ff 92 0b 3e b1 4b 01 bd c8 4f 8d 3d 53 0e 36 be
       0.13630293 -0.031566326 0.06899983 -0.17778902
000260 76 43 87 3c 4c cb fd 3c a2 5c 35 bb 81 65 28 3e
       0.01651166 0.030980729 -0.0027673622 0.1644497
000270 b1 66 5f 3c 97 fc 27 3e be 07 57 3d d2 71 52 3d
       0.013635323 0.16404949 0.052497618 0.05137808
000280 67 64 26 bc 52 a0 27 bc 5d 0c 07 3d 7b e1 ad 3e
       -0.010155774 -0.010231094 0.032970775 0.3396109
000290 a8 4f 1c bd 8f d9 82 3d 3d 80 c2 bd 2b fd 8b 3d
       -0.038161904 0.06389152 -0.09497116 0.06835397
0002a0 e5 c7 90 3c 08 1a ea 3d 8f 90 40 be 0d 7f f0 bc
       0.017673442 0.11430746 -0.18805145 -0.029357458
0002b0 95 f9 03 be f9 cb b5 3d 7a 3b 32 bd 9a 35 16 be
       -0.12888177 0.08876795 -0.043513753 -0.14668885
0002c0 e1 7b 99 bd b9 1d 29 bc 17 c4 32 3d 97 6d ac bb
       -0.07494331 -0.010322028 0.043644037 -0.0052620876
0002d0 77 aa 0b bd f9 5e 06 3c fe d0 39 3e e7 a1 bc 3d
       -0.034098115 0.008201354 0.1814613 0.09210568
0002e0 05 f0 ce bd 90 21 90 3d 27 dc f9 3d 44 14 b3 bd
       -0.10104374 0.070376515 0.12200194 -0.087441
0002f0 7a 9a a3 bd ca 6f a9 3d 34 34 10 3e 47 19 86 3c
       -0.079884484 0.08273275 0.14082414 0.016369475
000300 7d 80 26 bf 3d 91 47 be 48 3b 55 bd 7b 3e 41 3a
       -0.6503981 -0.19488998 -0.052058488 0.0007371676
000310 59 5d 13 3f d1 5f f3 bd 5a 13 9d 3d 88 94 07 3f
       0.5756431 -0.1188351 0.07669707 0.52961016
000320 fd b0 f0 3d 1f 6d 7f bd e1 fd 66 3d 2f b7 84 3e
       0.11752508 -0.062359925 0.05639446 0.25921008
000330 82 4b 67 3d 12 0c 6d be d0 e7 81 be 2a b5 a8 bd
       0.056468494 -0.23149136 -0.2537217 -0.08237679
000340 e9 99 88 be c3 00 cd 3d a9 20 13 3e 0f 42 07 3e
       -0.26679924 0.10009911 0.14367928 0.13208793
000350 54 0a 5a 3e 41 89 0f 3d ec 1a 0d 3e 09 cc 16 bd
       0.21293002 0.035043005 0.13779801 -0.036815677
000360 50 fd 06 bd b8 05 33 3e d6 92 ce 3b f6 fa 9a ba
       -0.03295642 0.1748265 0.0063041253 -0.001182406
000370 93 bf b4 be 6e 6c 03 bd 99 9e d6 bd df 5d d7 3d
       -0.3530241 -0.03208583 -0.10479469 0.10515951
000380 14 fe 80 3d bc 35 32 3d e8 7c 83 be f4 da cf 3d
       0.062984616 0.043508276 -0.25681233 0.10149184
000390 a9 8a 51 bd 8d c7 bc bc 03 b7 26 3e b0 ac ae 3c
       -0.051157627 -0.023044372 0.16280751 0.021322578
0003a0 76 e3 87 3d 72 ed 0b bd 73 db 12 be 9d e3 aa 3c
       0.066351816 -0.034161992 -0.14341526 0.020860488
0003b0 d2 49 15 3e 94 68 29 3e 1e c6 d4 bb 9b 76 06 bd
       0.14578941 0.165438 -0.006493344 -0.032827955
0003c0 41 4f 08 be e6 cb 80 3d 80 2b 6e 3d 6e 8b d2 bc
       -0.13311483 0.062888905 0.058146954 -0.02570125
0003d0 8d 94 72 3b 53 70 f8 3d 64 73 d6 3e 62 7a d3 3a
       0.0037014813 0.12130799 0.4188491 0.0016134495
0003e0 ed ea 9a 3e a5 36 91 3d b0 26 9c 3d b3 61 92 3d
       0.3025736 0.07090501 0.076245666 0.07147541
0003f0 e1 a5 c3 3d 6c 37 c2 bc b8 61 fd 3d 5e 20 d7 bb
       0.09553123 -0.023708068 0.12372154 -0.0065651378

conv1.lin_neg_r.bias f4 [32]
000000 55 8f 90 bc 2d 4d a2 3d 6b 45 84 3c c7 04 00 3d
       -0.017646471 0.07924876 0.016146382 0.031254556
000010 cc 93 70 bd 95 23 f0 b8 5d 57 2c bc 7c b8 6a bd
       -0.0587347 -0.000114507195 -0.010518876 -0.057304844
000020 b5 d3 e2 3a ed c7 b7 3c 18 6b be 3a fe be cb 3c
       0.0017305525 0.0224342 0.0014527766 0.024871346
000030 20 ff 58 b5 c5 e7 31 3e 64 11 b4 3c fb b1 98 3d
       -8.0837526e-07 0.1737357 0.021980949 0.07455822
000040 a2 f5 33 b9 bd 6d a5 bc 82 af 0b bd 1c 1b b9 3c
       -0.00017162276 -0.020193929 -0.034102924 0.022595935
000050 29 88 93 bc 2d 67 a3 b8 03 dc 23 3d 0d cf a6 3c
       -0.018009262 -7.791664e-05 0.04000474 0.020362401
000060 c2 99 a0 3a 86 c4 4a bb 7f a3 c9 3c 5f 39 b9 3a
       0.0012252855 -0.003093989 0.024614094 0.0014131478
000070 a0 21 9b bc 11 85 cb b9 47 1d df 3b e9 c9 9b 3a
       -0.018936932 -0.0003881832 0.00680891 0.0011885735

convs.0.lin_pos_l.weight f4 [32, 64]
000000 a7 71 24 b8 74 1e 54 3c 5e 4e 5c b2 73 8f 7a 3c
       -3.9206494e-05 0.012946714 -1.2823504e-08 0.01529299
000010 b9 3e 2e bd ec 1e d1 38 95 93 90 3d c5 f9 2e be
       -0.042540286 9.971656e-05 0.07059399 -0.17087467
000020 fc 06 84 3d 25 e8 d0 3c 84 c2 2a 3d 93 cc 9c 31
       0.06446645 0.02550132 0.04168941 4.563455e-09
000030 79 ba dc 39 76 db d8 3c 6f bd 46 bb b9 ac 8a 3c
       0.00042100603 0.026471835 -0.0030325314 0.016928064
000040 b6 86 fd ba aa 20 aa 32 5e 83 8a bd 54 25 05 ba
       -0.0019342515 1.9805459e-08 -0.067633376 -0.00050791097
000050 72 2a 1f bb 87 11 af bd 2f 18 ab 32 c5 f8 4a 3d
       -0.0024286774 -0.08548265 1.9918017e-08 0.04955365
000060 37 73 2b b2 fb 8e f9 b3 88 eb b3 3d 08 25 41 bc
       -9.979707e-09 -1.1620974e-07 0.087851584 -0.011788614
000070 40 d7 c6 b0 d1 04 d4 b2 e7 16 01 3b 6c 34 1f b2
       -1.4467574e-09 -2.4682238e-08 0.0019697489 -9.266937e-09
000080 b4 32 b9 b1 e0 ce 1c 3d 35 aa f0 3c 69 5f 3b bc
       -5.389973e-09 0.03828323 0.029378036 -0.011436322
000090 33 b8 12 bc ca 44 2c 36 e9 fe e8 39 0b 3b b6 b4
       -0.008955049 2.5670038e-06 0.0004444041 -3.39431e-07
0000a0 1a 97 e2 bd 4d 3b 8a 3b 6a 5b 8e bd a1 10 5d 3d
       -0.110639766 0.004218495 -0.069510296 0.053970937
0000b0 cf b3 11 35 d5 75 65 3d dc 5e 67 bd 5e f7 7d 3d
       5.4278365e-07 0.056020577 -0.05648695 0.062003486
0000c0 75 5a 07 36 d7 5a 22 b3 c8 5b e2 b3 3a 17 e0 3c
       2.016922e-06 -3.7801183e-08 -1.054064e-07 0.027354825
0000d0 53 d3 16 b1 df d4 64 b2 58 0a 5d bb 5d a8 bf bc
       -2.1947997e-09 -1.3319748e-08 -0.003372809 -0.023395712
0000e0 7a 5e 48 bd 20 b9 98 30 b1 35 12 bd b6 5c be 3c
       -0.048918225 1.1112071e-09 -0.035695735 0.023237567
0000f0 a5 94 9f 3c a1 30 b0 34 ba 36 dd 3c f8 b6 94 3d
       0.019480059 3.2817937e-07 0.027003635 0.07261461
000100 29 fb 1a 37 d7 2a 07 3d 6a fe 93 32 b8 57 3b be
       9.237593e-06 0.03299984 1.7228746e-08 -0.18295181
000110 e1 9d bb 3c 8a 0e 20 39 53 1c e1 3c a9 6e 0a be
       0.022902431 0.00015264205 0.027479326 -0.13518776
000120 5a 75 f3 3b ec 5b 6a 3c 34 d0 7e 3d 95 a2 a7 32
       0.007429761 0.014304142 0.062210277 1.9515292e-08
000130 07 95 0d 34 cd db 90 b9 fd 0c cf b9 b3 37 dd 3d
       1.3185864e-07 -0.00027629585 -0.00039491794 0.108016394
000140 07 b0 85 39 2f 8d f4 b0 31 27 17 be de bd b0 b8
       0.00025498887 -1.7793463e-09 -0.14761044 -8.4276995e-05
000150 6d 3c 75 bb a0 9b be 3d a9 bd 99 b1 26 14 0a be
       -0.003742005 0.09307027 -4.474448e-09 -0.13484249
000160 85 40 68 b1 02 fa d7 b2 30 f5 64 be ef 04 aa 3a
       -3.3797118e-09 -2.5142985e-08 -0.22359157 0.0012971441
000170 34 51 2f 31 67 08 7d 2f bf bd 9e 3c 2a 57 5e 31
       2.551201e-09 2.3013201e-10 0.019377587 3.2354799e-09
000180 42 e2 0f b2 af 03 be 3d b5 c4 53 3d 34 a1 81 bd
       -8.375141e-09 0.09278046 0.051701266 -0.06329575
000190 2c 3b bc b9 cc f6 bb 34 02 24 10 39 3d 99 db 31
       -0.0003590224 3.5011033e-07 0.00013746324 6.39116e-09
0001a0 79 34 24 3d 83 e2 14 3d 4f 19 0b 3e 98 01 44 be
       0.040089104 0.03634883 0.13583873 -0.19141233
0001b0 97 63 1e 35 ad ff 26 bd 65 c8 bf bc 71 de 70 be
       5.900451e-07 -0.040771175 -0.023410985 -0.23522355
0001c0 e9 12 2f 37 7e b5 a4 31 37 e1 1b b0 5a 77 df bd
       1.0435216e-05 4.7936615e-09 -5.670872e-10 -0.109114364
0001d0 77 da 1e b2 fb fa 99 b1 c3 0d 4e 3e af 4f 6f 3d
       -9.246484e-09 -4.4814192e-09 0.20122437 0.0584256
0001e0 89 8f c4 3d 1c c9 93 30 08 fb 9d bd 7f 82 0d 3c
       0.0959769 1.0752816e-09 -0.07713896 0.00863707
0001f0 6a 4a ac ba 24 40 0a 39 c3 59 2f 3d 9f f5 24 3e
       -0.0013144736 0.000131846 0.042810213 0.16109322
000200 81 92 47 b7 1d 73 1c 3c 6a 9b f1 31 85 50 40 3d
       -1.1895435e-05 0.0095489295 7.0316917e-09 0.04695179
000210 7c 27 81 bd f5 df e1 b7 79 fe f7 3b d0 b6 9c 3d
       -0.06306359 -2.6926378e-05 0.0075681773 0.07652056
000220 01 ed 09 3c d3 f6 9f 3c aa 1c 0c 3d 86 7b 26 32
       0.008418323 0.019526875 0.034207024 9.690558e-09
000230 5e 9b f3 31 1b 03 25 3d 36 78 c2 3c c3 20 a6 3c
       7.089894e-09 0.040286165 0.023738962 0.020279294
000240 9c 7f 94 b0 de 7c fc b1 ae 59 ee 3a 3e 6e d1 b9
       -1.0804686e-09 -7.348361e-09 0.0018184686 -0.00039945723
000250 b7 5a 91 b2 56 c7 fc ba 63 8d ed b1 64 e4 66 3d
       -1.6921474e-08 -0.0019285481 -6.9136816e-09 0.056370154
000260 b3 48 6a b2 0a 85 04 b2 04 26 95 3c 85 af 44 31
       -1.36371225e-08 -7.713661e-09 0.018206604 2.8621525e-09
000270 1d 7c 66 32 3f f8 82 30 ab d8 8d 3c cc ad 41 32
       1.3415982e-08 9.529301e-10 0.01731523 1.1273595e-08
000280 de a5 f3 af 4a 83 f3 bd 36 f2 d3 bc 57 db ce bd
       -4.4319298e-10 -0.11890276 -0.025872331 -0.101004295
000290 c8 29 53 32 19 da 84 b5 2e b8 0a 32 52 a8 89 31
       1.2291316e-08 -9.898241e-07 8.074535e-09 4.0063606e-09
0002a0 0f e4 f1 3d 1a 5f 04 be 99 2a ad 3d 9e a4 84 bd
       0.11811077 -0.12926903 0.084553905 -0.06476711
0002b0 54 a2 d1 b2 de 88 cd be 78 b7 75 bd e7 0a 53 be
       -2.440462e-08 -0.40143484 -0.059989423 -0.20609628
0002c0 d9 8c 2d b6 2c 94 bf b1 4f 5e a2 b1 d4 4f 96 bd
       -2.5860993e-06 -5.575677e-09 -4.725542e-09 -0.07339445
0002d0 6b 67 92 31 fe 47 d8 b1 0e 83 e6 bd d6 4c 08 be
       4.2609165e-09 -6.294612e-09 -0.112554654 -0.1331056
0002e0 a4 d9 13 3e df 48 23 b0 39 8c 1f be bf f8 28 3d
       0.14438492 -5.940261e-10 -0.15580834 0.041252848
0002f0 b7 98 20 af 84 9b 9b 38 6f 6d c1 3d 06 d5 e2 3d
       -1.460617e-10 7.419943e-05 0.09444701 0.11075787
000300 9a 69 c8 34 b3 56 6f 39 c3 0d a4 b0 1c 94 d1 3a
       3.7329738e-07 0.00022825114 -1.1936482e-09 0.0015989575
000310 26 52 34 b9 f1 88 90 30 04 d3 8e 37 b5 c7 05 39
       -0.0001719674 1.05163e-09 1.7025981e-05 0.00012758265
000320 2e ef ba 38 15 07 a1 b7 20 eb 52 3a 60 eb 0b b2
       8.913722e-05 -1.9195993e-05 0.00080459006 -8.144383e-09
000330 03 8a 0e 32 f9 62 99 b8 4e b9 67 38 2f df 9a 3a
       8.296868e-09 -7.3140436e-05 5.524727e-05 0.0011815781
000340 c0 0d 96 32 69 ba 36 b1 55 ff 14 3b 75 3a 2a 32
       1.7468551e-08 -2.6590448e-09 0.0022735198 9.908594e-09
000350 5c f7 93 32 0a b8 0b 37 44 5d 16 b2 85 41 33 3b
       1.7225538e-08 8.327896e-06 -8.752355e-09 0.0027352285
000360 cd aa 93 b0 5b e8 64 b0 ae 5f c2 3b e7 bc 15 32
       -1.0744202e-09 -8.3276114e-10 0.005931816 8.715893e-09
000370 a0 70 9b b1 4f 44 77 31 0f 3d 78 b8 2b 80 05 b1
       -4.5238977e-09 3.598206e-09 -5.9184673e-05 -1.9426902e-09
000380 cb a7 95 b2 fa d2 5e 3b 89 45 7f 3a 8c f8 db ba
       -1.7422186e-08 0.0034000264 0.00097378396 -0.0016782447
000390 64 f9 fa b0 1b d2 2e 32 0d 30 c5 b1 af 41 04 b1
       -1.8260775e-09 1.01759055e-08 -5.7389173e-09 -1.9245865e-09
0003a0 ea 26 97 ba 1d f9 22 3a 30 e0 84 39 c0 c6 fc ba
       -0.0011531983 0.00062169303 0.00025344035 -0.0019285306
0003b0 40 73 78 b0 d9 a3 4c ba e6 05 1a b9 1b a2 5b 3b
       -9.0385655e-10 -0.00078063976 -0.00014688782 0.003351337
0003c0 32 c9 99 31 60 c9 cd b1 44 32 2a b2 1a bd f0 ba
       4.4757593e-09 -5.989179e-09 -9.906731e-09 -0.0018366904
0003d0 6c de 6d 30 29 b0 23 30 b3 23 8c ba bd 9a 5f 3a
       8.653618e-10 5.9549393e-10 -0.0010691792 0.00085298327
0003e0 6e 58 d4 ba 68 3e 82 31 1e ee 2a 3a 10 43 a7 39
       -0.001620067 3.7905927e-09 0.00065204676 0.00031902688
0003f0 af e5 28 30 a6 85 e1 32 19 ef 3d 3a 3d a0 e9 39
       6.1444444e-10 2.6254224e-08 0.0007245406 0.0004456061

convs.0.lin_pos_r.weight f4 [32, 32]
000000 7b 23 11 38 55 3d 07 be 6c 33 b2 32 97 e3 f3 3d
       3.4603738e-05 -0.1320699 2.0745311e-08 0.11908644
000010 c6 18 f8 3c 68 7e e2 38 b2 3f 80 3e bd 79 22 be
       0.03028525 0.00010800065 0.25048596 -0.15866752
000020 28 d8 92 3e 57 c9 26 bf 41 3b 3f bd d9 06 07 33
       0.2868054 -0.6515097 -0.04668737 3.1438365e-08
000030 f6 d5 13 b3 ad 95 29 be 17 33 28 bf 55 6a 9b 3e
       -3.44207e-08 -0.16561003 -0.65702957 0.30354562
000040 a4 3d f4 b1 93 7f 89 b2 9d f9 2d be 77 fe 6d 3a
       -7.1083424e-09 -1.6006913e-08 -0.16989751 0.0009078751
000050 4e 88 df b3 30 6c d3 3d 1a 74 88 b1 5a a4 09 3e
       -1.04090404e-07 0.103233695 -3.97132e-09 0.13441601
000060 b6 70 cd b2 c2 62 40 b3 4f 9e 5f 3e eb 0e 8c 32
       -2.3916396e-08 -4.4793303e-08 0.21837734 1.6304929e-08
000070 e7 43 52 33 6c 86 15 b3 32 34 2a bf d8 4d b9 b1
       4.8956192e-08 -3.4814022e-08 -0.66485894 -5.3930584e-09
000080 e5 a4 8a 37 25 41 2e be 92 fe e0 31 2d 32 bc be
       1.6527667e-05 -0.17017038 6.5481993e-09 -0.3675703
000090 e9 9d 0c 3f b6 c1 a4 b8 24 7d 9e be 87 ae 16 3f
       0.5492845 -7.856211e-05 -0.3095485 0.5886006
0000a0 2c e4 f0 bb 3a 82 11 3f 1b 68 8e bf c3 5a c0 b2
       -0.007351419 0.56839335 -1.112552 -2.2393015e-08
0000b0 c2 f3 49 b2 93 94 c9 be 15 ca 9e 3f fb 9d 82 3d
       -1.1755164e-08 -0.39371166 1.240542 0.06377789
0000c0 ad b3 3a b3 e5 6d f3 b0 f8 ce 3a be 69 6e 4f 3a
       -4.3469914e-08 -1.7711811e-09 -0.18243015 0.0007912876
0000d0 0f 8a 08 b4 9c 69 cf 3e 63 1d 93 32 95 f4 3c bf
       -1.2716212e-07 0.4051026 1.7126416e-08 -0.738107
0000e0 05 72 61 31 7a 92 3b b2 8e c3 87 3e 88 56 ce b1
       3.2806622e-09 -1.09181375e-08 0.26516384 -6.0052265e-09
0000f0 23 48 e3 31 a8 1b f7 b1 c8 d4 57 3f 00 4f 66 b2
       6.6147705e-09 -7.1917903e-09 0.84309053 -1.34057245e-08
000100 d2 25 50 37 2a b6 33 3f 7b b0 ed 32 cd 9f 97 bd
       1.2406572e-05 0.70199835 2.7670685e-08 -0.074035265
000110 cd 92 89 bf 19 1c 03 b9 d1 a3 25 3e 82 31 7f bf
       -1.0747925 -0.00012503601 0.16175772 -0.9968492
000120 6a 8b 75 be 96 42 56 3f 43 9a 51 3f 17 8f e7 32
       -0.23978963 0.8369535 0.8187601 2.6957009e-08
000130 24 6c a5 b0 6a a5 65 3f 98 b9 bf 3e 63 68 69 be
       -1.2036065e-09 0.89705527 0.37446284 -0.22793727
000140 4a a4 47 31 10 2f d2 31 fd 41 a2 be b5 ac 69 b9
       2.9051699e-09 6.117155e-09 -0.3169097 -0.0002228495
000150 57 8e 9b b0 76 8d 8a bf 39 68 81 32 88 06 bf 3c
       -1.131819e-09 -1.082442 1.5064971e-08 0.023318544
000160 5e a2 03 b1 35 d3 98 b2 9c 0a 8f be d2 20 ed b2
       -1.9155304e-09 -1.7791175e-08 -0.27937782 -2.7605356e-08
000170 df 0a ba 30 09 e2 32 32 98 54 15 3f c1 b5 c5 b0
       1.3536371e-09 1.0412358e-08 0.58332205 -1.4385294e-09
000180 03 1d 8e 34 90 82 86 b7 35 85 00 b1 4d b0 97 ba
       2.647067e-07 -1.6034843e-05 -1.870217e-09 -0.0011572927
000190 35 18 06 39 bd 76 49 31 42 3d 23 b9 39 4a 21 3a
       0.00012788254 2.9316845e-09 -0.00015567712 0.00061527226
0001a0 3e e9 cf 39 06 d4 38 39 7a 71 97 3a e7 de 2f 32
       0.00039655896 0.00017626592 0.0011554204 1.0237023e-08
0001b0 23 99 b3 31 d4 e8 78 38 53 3d f5 b8 93 1c 2d 3a
       5.2269953e-09 5.9344646e-05 -0.00011693933 0.0006603684
0001c0 a1 b0 97 b2 96 a5 87 b2 b1 4e 7b ba 7a d1 95 b1
       -1.7659035e-08 -1.5791368e-08 -0.0009586616 -4.3602855e-09
0001d0 ac 5a c2 32 ef 56 22 ba 88 aa bd 2e d9 3c 09 ba
       2.2625805e-08 -0.00061927637 8.6250174e-11 -0.0005235202
0001e0 10 c1 2e 31 3a 30 53 31 96 69 5d 3b 9f 38 bc b0
       2.5430076e-09 3.0731955e-09 0.0033784858 -1.3694893e-09
0001f0 99 db c4 b2 94 c4 e4 b1 b1 3b a6 b8 22 4c 3e 32
       -2.2917265e-08 -6.6580217e-09 -7.926615e-05 1.1076766e-08
000200 7b 1f 72 32 76 00 58 32 2d f6 18 32 bf a7 01 b1
       1.4093412e-08 1.257296e-08 8.903538e-09 -1.8867323e-09
000210 2d fb 26 32 6a 70 20 31 62 d4 60 b2 fd 1c 17 31
       9.7195825e-09 2.3346964e-09 -1.3086806e-08 2.198987e-09
000220 0c b1 08 b3 0f aa d1 b1 ae dc 10 33 c7 5d 64 b2
       -3.182599e-08 -6.102034e-09 3.372832e-08 -1.3292669e-08
000230 ca 20 d4 2f c2 c5 8d 32 a7 c8 5c 32 76 5a 8e 32
       3.8585873e-10 1.650449e-08 1.28513085e-08 1.6572113e-08
000240 67 4a 3e 30 32 8d 87 30 ab d9 97 32 06 0a 98 30
       6.922733e-10 9.862673e-10 1.7677698e-08 1.1062304e-09
000250 a3 92 db b1 04 a6 82 32 f4 04 68 31 08 8a 77 b3
       -6.3904095e-09 1.5209487e-08 3.3763259e-09 -5.7634708e-08
000260 ee af 81 b2 3c 7e 83 32 dd f3 29 33 93 e5 c5 31
       -1.509758e-08 1.5307812e-08 3.957017e-08 5.759554e-09
000270 a0 57 e4 32 3e 1b 03 b2 b4 d8 61 31 c7 4d be b0
       2.658254e-08 -7.631398e-09 3.286499e-09 -1.3846425e-09
000280 47 39 76 b8 2a 07 8e 3e 22 cb 4a 32 5b 66 db be
       -5.8704314e-05 0.2773984 1.1804135e-08 -0.4285153
000290 49 68 8d bf 9d f6 c0 b6 98 e6 af 3b 91 91 ae 3e
       -1.104745 -5.7507555e-06 0.005368065 0.34095433
0002a0 ef e8 80 3c 66 7a 29 3f 78 b7 40 be 0f ae cd b2
       0.015736071 0.6620239 -0.18819988 -2.3944294e-08
0002b0 33 06 13 32 a5 0c 7f 3e bb de 48 3f 3b 11 14 3e
       8.557936e-09 0.24907167 0.7846486 0.14459698
0002c0 39 bd 83 b1 d2 8b 8f 33 ef 5e 0d bf 5a 72 c0 b9
       -3.834114e-09 6.6843896e-08 -0.5522298 -0.00036706292
0002d0 4b 8c 13 34 a5 df e0 be 61 bc 55 b3 97 b6 12 bf
       1.374148e-07 -0.43920627 -4.9764257e-08 -0.5730986
0002e0 ea a1 ca 31 eb 7a 15 33 c6 d8 c9 be b5 41 05 31
       5.8973813e-09 3.480356e-08 -0.39423198 1.9391397e-09
0002f0 d9 84 53 b3 99 2a 23 31 67 22 72 3f 65 3b b5 32
       -4.924809e-08 2.3743836e-09 0.94583744 2.1098183e-08
000300 d4 07 9e 32 96 e1 b8 b2 06 e2 92 2f 4b 79 7b 32
       1.839718e-08 -2.1523004e-08 2.6717845e-10 1.4637702e-08
000310 08 db 8b 31 9b d6 eb 32 c6 d7 04 b3 bb f9 cf b1
       4.0703334e-09 2.7455192e-08 -3.092989e-08 -6.052884e-09
000320 64 6a 0c b3 25 c0 59 b1 e3 34 eb b2 08 86 39 b1
       -3.2693052e-08 -3.1686878e-09 -2.738165e-08 -2.6997231e-09
000330 bb 94 5b 31 a9 48 df b2 64 12 9b b2 54 dc 12 32
       3.1953238e-09 -2.5993659e-08 -1.8052738e-08 8.548415e-09
000340 82 e5 36 32 13 2f c8 b1 0d 12 27 32 08 85 b2 30
       1.0645978e-08 -5.826118e-09 9.724784e-09 1.2989014e-09
000350 08 f3 25 32 2f 24 72 b1 3f f7 1e b2 d5 ea 2a 30
       9.659523e-09 -3.5236203e-09 -9.253028e-09 6.2179356e-10
000360 7a 7a 76 32 61 6e 33 b2 4c 0f 4f b2 6f fd 1f 32
       1.43469325e-08 -1.0444269e-08 -1.2052464e-08 9.312642e-09
000370 cc 90 88 32 76 fd ae b2 4d db c4 b1 6d 52 3b 32
       1.589833e-08 -2.0371527e-08 -5.7292824e-09 1.0903574e-08
000380 db a3 45 34 32 8d 1d 3f 95 2a 9a b1 34 b6 36 be
       1.8406665e-07 0.6154357 -4.486831e-09 -0.17842942
000390 9f 44 83 be f7 7f e8 b7 5a a2 f5 3e 57 e8 9d be
       -0.2563829 -2.7716143e-05 0.47975427 -0.30841324
0003a0 01 79 16 3e 37 a5 0d 3f 94 a7 7b 3e 68 2f bf b2
       0.14694597 0.5533022 0.24575645 -2.2256884e-08
0003b0 2a 3a 0e 32 22 b8 03 3f 52 d2 1a bd cd 7a 0e 3f
       8.278713e-09 0.5145284 -0.037798233 0.5565613
0003c0 66 55 88 b1 1b 73 15 32 c3 50 01 3e 9b 90 23 3a
       -3.9678296e-09 8.699113e-09 0.12628464 0.00062395044
0003d0 09 23 8b b2 10 1b 2c 3d 96 6a 2c 32 a2 38 94 3d
       -1.6197662e-08 0.042017996 1.00359525e-08 0.07237364
0003e0 f3 a4 88 30 5e 9b 2b b2 c2 75 bc bd d4 c1 4c b1
       9.942184e-10 -9.988836e-09 -0.09202148 -2.9796086e-09
0003f0 23 53 95 31 9c 84 ef 31 73 e8 ab 3e 4a 26 70 31
       4.3459223e-09 6.9708914e-09 0.33575782 3.4946361e-09

convs.0.lin_pos_r.bias f4 [32]
000000 ae ed c6 3c ba 16 0e 3e 96 c8 80 3d be 69 21 bc
       0.024283256 0.13875857 0.06288259 -0.009851871
000010 d9 75 0d bc 35 7e 0e 3e 45 83 bd b5 82 83 db 3d
       -0.008634054 0.13915332 -1.4119802e-06 0.107184425
000020 88 ac 93 bc ec 7e 31 bd f0 48 48 bc 93 5e 13 3e
       -0.018026605 -0.043333933 -0.012224421 0.14391546
000030 4b e9 24 bc cf c1 4a bd 8e e1 4d bd bb a1 38 bd
       -0.010065387 -0.049501237 -0.050263934 -0.045076113
000040 3d c2 bf ba b5 79 15 3c 91 4e 14 bd fb 4c 29 bc
       -0.0014630031 0.0091232555 -0.03620774 -0.010333295
000050 78 69 83 bd 04 d2 90 3d 49 37 c5 bb 6f b6 e6 bb
       -0.06416601 0.07071307 -0.0060185534 -0.0070407907
000060 4d 90 09 bc ea 22 a3 bb 43 57 ad 3d b1 98 78 bd
       -0.00839622 -0.0049785273 0.084639095 -0.060692493
000070 05 07 48 bb 06 a9 3a bd 5d ab 06 3e 95 00 47 3e
       -0.0030521762 -0.04557135 0.13151307 0.19433816
