wiki-elec/models/wiki-elec-train-9.pt (torch, 63739 bytes, 14 tensors)

conv1.lin_pos_l.weight f4 [32, 64]
000000 0e 7c 7c 37 3a dc 61 36 9f 73 f3 36 5f 49 66 b6
       1.5049254e-05 3.3655801e-06 7.2554244e-06 -3.4315378e-06
000010 70 45 56 35 26 36 00 b6 f8 52 6d b5 87 ce 4f b6
       7.982226e-07 -1.9105005e-06 -8.8410115e-07 -3.0965618e-06
000020 48 a4 be 36 82 42 30 b5 d2 c7 9f 35 7c fc 92 33
       5.681566e-06 -6.566189e-07 1.1904579e-06 6.8445814e-08
000030 2a 1c fc 35 62 13 aa 35 ec ee 3a 34 d2 a3 43 b6
       1.878366e-06 1.2671628e-06 1.7409519e-07 -2.915262e-06
000040 07 9e 47 b5 e9 f8 0f b4 71 c3 3a b6 26 ec ae 33
       -7.4363237e-07 -1.3408466e-07 -2.7829922e-06 8.1454615e-08
000050 a9 97 ec b3 ed f9 04 b6 8e 0b bd b3 f9 53 67 34
       -1.1017193e-07 -1.9815009e-06 -8.8031e-08 2.15441e-07
000060 c5 0e 5a 35 e3 92 d0 b4 50 ba c4 34 8d 54 ea b0
       8.123282e-07 -3.8849893e-07 3.6643405e-07 -1.7049772e-09
000070 de 32 d6 b4 71 4e 81 b6 7f c9 88 35 65 1e 45 b6
       -3.9897617e-07 -3.8536314e-06 1.0191433e-06 -2.937298e-06
000080 75 f5 2a b5 60 bb f4 34 5e 89 2d 34 fc 25 d9 b4
       -6.368712e-07 4.5584875e-07 1.6161854e-07 -4.0447037e-07
000090 70 08 ce 34 32 f8 f4 b4 36 6f b5 b0 8b 82 b4 b5
       3.837663e-07 -4.5629127e-07 -1.3201091e-09 -1.3449038e-06
0000a0 f5 f3 5c 35 e7 b6 dd 35 87 d8 7d 33 4c 89 ae 35
       8.231139e-07 1.6519015e-06 5.9103083e-08 1.3003969e-06
0000b0 ba 54 72 b5 68 e8 32 35 28 02 b9 b4 69 b6 c5 b5
       -9.027532e-07 6.6648363e-07 -3.4460504e-07 -1.4730732e-06
0000c0 a1 71 2d 34 44 5c 44 35 30 e7 e5 35 7d 34 94 b4
       1.6153218e-07 7.3149954e-07 1.7129114e-06 -2.7605338e-07
0000d0 46 2f e7 34 fe 3a 21 35 48 25 69 34 5e 64 c6 b1
       4.30615e-07 6.006302e-07 2.1713379e-07 -5.773969e-09
0000e0 93 6d 0e b6 29 a0 16 b5 27 aa a8 b4 21 20 8d 35
       -2.122343e-06 -5.611242e-07 -3.141624e-07 1.0514669e-06
0000f0 25 b8 0e b5 68 2d 89 b3 82 5b 1f b4 5b a3 0d b5
       -5.316709e-07 -6.387819e-08 -1.4841319e-07 -5.2764307e-07
000100 af 9c b9 be 83 32 ac bd 4f 8d 83 bd 66 5f 64 be
       -0.36252353 -0.08408072 -0.06423437 -0.22302017
000110 a0 0f 58 3e f8 3f 08 3d b0 06 71 3c 7e 4a 2a be
       0.2109971 0.03326413 0.014711067 -0.16629979
000120 88 a1 82 3d 54 83 f9 bc 53 61 eb bb 7f 07 0d 3e
       0.06378466 -0.03045813 -0.007183233 0.13772391
000130 f6 b4 17 3d ab ba 90 bd d3 ef a7 3d 78 52 64 3d
       0.037037812 -0.07066854 0.0820004 0.05574271
000140 a4 53 dc 3c cf e3 8c bd 90 a6 f5 3d 8d 22 05 be
       0.026895352 -0.068793885 0.1199466 -0.13001461
000150 1c b9 1a be 3d 08 28 3d 2f 0e 32 bd 7f 0d 09 be
       -0.15109676 0.04102348 -0.043470558 -0.13384055
000160 6e 85 81 3a 60 ec c9 3d fe c6 47 3e 8f 1e d9 3d
       0.0009881684 0.09859538 0.19509503 0.10601532
000170 75 18 00 be f3 a3 4e bd ed 6b 82 3d af bb 4e 3d
       -0.1250933 -0.050449323 0.063682415 0.050471958
000180 13 b8 a1 bd 4e c6 c7 bd 9f 3d 6d 3d eb 15 4a bd
       -0.078964375 -0.097546205 0.057920095 -0.04933731
000190 5a ff 0c bb 74 8e 38 bc e7 bc d1 3c 25 f7 93 bd
       -0.0021514506 -0.011264432 0.025602771 -0.072248735
0001a0 a9 25 46 be bf 6f 2d 3e ca c2 52 bd de 58 17 3d
       -0.19350304 0.16937159 -0.051455297 0.036949985
0001b0 d4 4f bb bd 1c eb c3 bd eb 63 88 bd 53 26 a7 3a
       -0.091460854 -0.09566328 -0.06659683 0.001275251
0001c0 48 3e 60 3c db 5f 92 3c 3d d9 02 be 3c 6d 10 3d
       0.013686724 0.017867973 -0.12778182 0.035260424
0001d0 06 8f 32 be 7b e3 43 bb c8 f2 01 3e 7d d1 bc 3d
       -0.17437372 -0.0029890228 0.1269027 0.09219644
0001e0 bd 77 d8 bd 14 76 44 3d 27 27 3c 3c 80 ef 1b 3d
       -0.10569713 0.04796417 0.011483944 0.038070202
0001f0 33 82 b7 bc ad cc 0c bd 84 ee 10 3e d4 6a 39 3d
       -0.022400951 -0.03437488 0.14153486 0.045267895
000200 88 05 09 b3 f8 ff 8a b2 99 e3 da b0 62 f9 a5 31
       -3.190283e-08 -1.6181716e-08 -1.5926275e-09 4.8304836e-09
000210 e7 5a cb b2 f4 f7 fe b1 23 b0 24 32 14 f4 9d 32
       -2.3673648e-08 -7.420562e-09 9.586105e-09 1.83882e-08
000220 d5 da 59 b2 a7 dd ea b0 58 0f a8 af 5d 3b 80 31
       -1.2680819e-08 -1.7088738e-09 -3.0569924e-10 3.732039e-09
000230 39 96 28 b0 42 05 cb b0 a8 a6 87 30 0c c9 17 32
       -6.1331523e-10 -1.4771688e-09 9.869909e-10 8.83507e-09
000240 dc 42 8a 32 2f 5b 5b b2 d2 57 1b b1 cf ea f1 30
       1.6095719e-08 -1.27682105e-08 -2.2605389e-09 1.7601794e-09
000250 b7 66 a3 b1 9b 5d 74 b0 26 e7 2f b2 54 cb 7e 32
       -4.7556017e-09 -8.8899704e-10 -1.0238898e-08 1.4830977e-08
000260 a0 ba 27 b1 1e b4 d3 b0 3b e1 5c b0 f2 d7 2b 31
       -2.4407782e-09 -1.5403463e-09 -8.0355606e-10 2.5006526e-09
000270 35 dd 9c 31 19 75 cf 31 b5 76 1f 31 11 e2 b9 31
       4.565346e-09 6.0378054e-09 2.3205022e-09 5.4099094e-09
000280 58 6d fe 2f a6 f2 9d b0 f4 16 c9 31 ed 23 0b b1
       4.6280024e-10 -1.1492218e-09 5.8524794e-09 -2.0247584e-09
000290 4b 06 41 32 9e 95 0e 31 40 0b bd 31 8e 33 47 b1
       1.1235509e-08 2.0748767e-09 5.501903e-09 -2.8987617e-09
0002a0 95 29 18 32 42 79 c9 31 e0 5d 8a 32 82 e0 a0 31
       8.857019e-09 5.8636553e-09 1.6108004e-08 4.6821365e-09
0002b0 9f bb 19 b0 e1 85 51 b2 30 5d 56 31 0b d4 2f 32
       -5.59277e-10 -1.2195842e-08 3.119407e-09 1.0234554e-08
0002c0 c9 cf 9a b1 b3 67 5e 30 63 01 62 b2 69 1e 8e b2
       -4.5056123e-09 8.0910495e-10 -1.3155247e-08 -1.6544805e-08
0002d0 8f 08 7e b1 30 b4 e9 b1 98 c8 55 32 96 df 0a 31
       -3.696673e-09 -6.8016774e-09 1.24438415e-08 2.0208737e-09
0002e0 a1 d7 23 b2 9d 12 93 31 7c a5 a2 31 88 49 44 31
       -9.536877e-09 4.280379e-09 4.733634e-09 2.8563552e-09
0002f0 78 66 1b b1 5f 80 95 b1 6a 6b c6 af 3a 94 77 32
       -2.2613715e-09 -4.351065e-09 -3.6092312e-10 1.4410995e-08
000300 f5 9c 9a 3d 02 d9 9b bd f0 b0 8b bc ce 95 22 3d
       0.075494684 -0.0760975 -0.017052144 0.039693646
000310 8d 56 e9 3c 0c 06 46 3d b4 6d 9d bb d6 47 bd 3c
       0.028483653 0.04834561 -0.0048043374 0.023105543
000320 4d d4 a5 3c bc f6 12 bd ab 93 01 bd bf df 10 3d
       0.020242834 -0.035879835 -0.031634968 0.03536963
000330 47 e7 a0 bd d5 5a 0f 3d 6b 4e d9 3b 3c 3c 0f 3d
       -0.07856613 0.034998734 0.0066316626 0.034969553
000340 11 a1 f1 3d 88 7b 36 3b bf 87 4f bd e5 d7 63 3d
       0.11798299 0.0027844626 -0.050666567 0.055625815
000350 df 06 fa 3c e6 cd 5d 3b d8 49 ca 3c ec b5 48 3c
       0.030520855 0.003384465 0.024693415 0.012250405
000360 f8 b2 82 bd 6f 08 28 bd 1d db 34 bc e0 c9 8a 3b
       -0.06381792 -0.041023668 -0.011038569 0.004235491
000370 4c c5 87 3c 35 9b 28 3e 4e 3d b5 bc 2e 3c 1d 3d
       0.01657357 0.16465457 -0.022123959 0.03838747
000380 7a 2a 37 3c da a6 43 3d 47 71 b8 3d ce f5 fa 3c
       0.011179561 0.047766544 0.09005981 0.030634787
000390 2b b5 ae bc d8 ff d3 bb ac c8 90 bc e8 85 c3 bd
       -0.021326622 -0.006469708 -0.017673813 -0.09547025
0003a0 26 fc 13 3d 5a f0 1f 3c 01 98 29 bd a1 11 f1 3c
       0.03612914 0.009761894 -0.041404728 0.029427351
0003b0 4b 88 46 3d 80 b0 3e 3c b2 be 41 bd a4 cb 55 3d
       0.048469823 0.011638761 -0.047301 0.05219616
0003c0 40 f3 9e bd 0e 68 4e 3c c8 7c 97 bc 28 3c b2 3c
       -0.0776124 0.012598051 -0.018492118 0.0217572
0003d0 c4 2d 0b bd 90 87 45 3d 44 aa 54 3d ca 97 94 3c
       -0.033979192 0.048224986 0.05192019 0.018138785
0003e0 f3 a9 db bc 10 c8 85 3c 19 78 8f 3c 1c 7f 58 3d
       -0.026814437 0.016330749 0.017513322 0.052855596
0003f0 fe 96 3c 3d d2 1d 67 bd f3 1d dd 3b e5 68 22 3d
       0.046042435 -0.056424923 0.006747955 0.039650816

conv1.lin_pos_r.weight f4 [32, 64]
000000 dc d4 46 37 8b aa 5b 35 91 30 d5 b6 55 74 b2 b6
       1.185128e-05 8.183203e-07 -6.3535485e-06 -5.318356e-06
000010 e8 bb 8b b6 3c f6 23 36 cc 43 fc b5 73 d7 3a b6
       -4.164398e-06 2.443222e-06 -1.8795195e-06 -2.7841568e-06
000020 60 69 52 35 4e 21 94 b6 df 6b 11 34 42 73 b6 b5
       7.8384437e-07 -4.414621e-06 1.354342e-07 -1.3593601e-06
000030 02 88 08 36 d2 eb 9c b4 7d a9 d5 35 26 c4 b4 35
       2.0344746e-06 -2.9228846e-07 1.5919064e-06 1.3468132e-06
000040 06 84 44 b5 bc ed 3c 35 d2 50 78 b4 22 f6 17 36
       -7.320781e-07 7.0381407e-07 -2.3126202e-07 2.2644022e-06
000050 81 59 95 b3 eb e6 c6 b3 85 da 4c 36 a9 54 a9 b6
       -6.954634e-08 -9.262097e-08 3.0525564e-06 -5.046448e-06
000060 c7 b9 a8 b4 4f 52 a6 b3 76 f6 41 34 2f ae 95 b5
       -3.142761e-07 -7.744949e-08 1.8064188e-07 -1.1152059e-06
000070 fd 28 57 b5 ce 49 5d 36 ae 45 12 b6 bd 53 67 36
       -8.015339e-07 3.2974526e-06 -2.1796254e-06 3.4470424e-06
000080 42 00 2b b6 0d d1 11 35 43 8a 02 36 e3 24 1b 36
       -2.5481136e-06 5.432092e-07 1.9451988e-06 2.311827e-06
000090 ad 23 26 36 3a f5 a4 b5 43 f2 60 b6 42 1f 08 35
       2.4756694e-06 -1.2290323e-06 -3.3519616e-06 5.0709434e-07
0000a0 c9 cf e8 34 14 35 86 b6 c1 c1 9c b5 2d 81 61 36
       4.336455e-07 -3.9996903e-06 -1.1679296e-06 3.3602803e-06
0000b0 39 94 aa b6 d9 ce 16 b5 72 f3 83 b5 df f8 bd 34
       -5.08365e-06 -5.618036e-07 -9.831112e-07 3.538507e-07
0000c0 f1 7f 04 b5 39 0a 86 34 0a 9f e9 34 23 d9 8d b6
       -4.936001e-07 2.4966883e-07 4.3515348e-07 -4.2274055e-06
0000d0 ec c7 ac 32 cb 3b 4d 35 eb 97 7a 33 5a 31 ba 35
       2.011435e-08 7.645546e-07 5.834583e-08 1.3872443e-06
0000e0 2e 30 2f 36 aa cb 06 36 dc 32 1f 35 9c 20 8e 35
       2.6105076e-06 2.0086104e-06 5.9306126e-07 1.0589315e-06
0000f0 0f 41 73 33 d3 4a 93 b3 20 f8 11 35 be d6 d1 35
       5.6637017e-08 -6.8588314e-08 5.437778e-07 1.5634212e-06
000100 33 cd ba bf 85 98 68 bd 28 6b 82 be a1 08 80 bc
       -1.4593872 -0.05678608 -0.2547238 -0.015629115
000110 91 58 19 3f 6b a2 29 be ff d0 8e bc 58 34 28 be
       0.59900767 -0.16565864 -0.017433641 -0.16426218
000120 dc 0a 9c 3c 41 7e 2e be e2 bd f5 bd e9 dc 98 bd
       0.019048147 -0.1704035 -0.11999108 -0.0746401
000130 8c 63 b3 3e 5a 58 0e be 3a f9 20 3e e3 8e 49 be
       0.35036886 -0.13900891 0.15720072 -0.19683413
000140 46 d0 84 3d 9e bb e8 3d 78 66 e7 3d 07 f9 24 3e
       0.064850375 0.1136391 0.11298841 0.16110621
000150 85 e2 4a be 99 bc 15 bd 67 dc 1e be bb f3 33 be
       -0.19812973 -0.036556814 -0.15513764 -0.17573445
000160 a9 d5 42 3e 86 80 8a 3d f3 11 2f 3e b1 15 e6 bd
       0.19026817 0.06762795 0.17096691 -0.11234606
000170 91 a8 25 3b e7 04 3c bc 36 66 90 3c a4 63 8a bc
       0.0025277475 -0.011475778 0.017626863 -0.016893215
000180 de 27 7f bd fc d5 31 bb a7 4a 2d be 14 de 13 3c
       -0.06229388 -0.0027135601 -0.16923009 0.0090251155
000190 48 72 92 3d 02 47 c9 bd c7 b3 b1 bd 5f ea f6 3c
       0.07150704 -0.09827997 -0.08676868 0.030141054
0001a0 e2 ce 80 3d 76 58 91 bd 27 20 56 bd 39 db b3 3c
       0.0628946 -0.07096951 -0.052276757 0.02195512
0001b0 a0 ea 1d be 83 e4 af bb 2e 3d f1 3c 1f 86 b2 bd
       -0.15421534 -0.005367817 0.029448118 -0.08716988
0001c0 b9 84 40 3c d6 08 b4 bd 06 3d 3b bd 7a c6 91 3d
       0.011750394 -0.08790748 -0.045712493 0.071179345
0001d0 4d 1e 26 3d a0 32 60 bd 49 5b dc 3d dd f3 d3 3b
       0.04055624 -0.05473578 0.10759599 0.0064682798
0001e0 bb 8a ae bd 6e 14 ac bd c4 ba 2a be ab 8a 1b bd
       -0.085225545 -0.08402334 -0.16672808 -0.03797404
0001f0 90 f7 0a bd ea 30 15 3e 14 14 91 3d 88 e2 2b bc
       -0.0339275 0.1456944 0.07083908 -0.010491021
000200 17 9a df b2 a3 e8 8e 31 53 c7 2a 32 4e 82 3b b1
       -2.6030689e-08 4.1591917e-09 9.940623e-09 -2.7286151e-09
000210 6d 09 ee b1 84 88 24 b2 d5 a5 49 b2 0b 0f 81 32
       -6.9277832e-09 -9.5770964e-09 -1.1737446e-08 1.5024417e-08
000220 0e 5c 03 b1 6b b5 98 31 27 52 31 31 5e 48 ef 31
       -1.9115336e-09 4.444407e-09 2.5803588e-09 6.9640427e-09
000230 dd 38 06 b2 c7 6d 3b b2 16 00 06 32 33 d4 be b0
       -7.812756e-09 -1.0909793e-08 7.799846e-09 -1.388463e-09
000240 e3 f8 c4 b0 bc 62 e3 30 41 ae 1b 31 d6 9c 90 30
       -1.4331615e-09 1.6544486e-09 2.265452e-09 1.0521954e-09
000250 65 84 e8 b1 a3 7c 36 b1 6a 18 bb b1 83 eb 7e 31
       -6.76714e-09 -2.6555333e-09 -5.445192e-09 3.7095738e-09
000260 ea b6 9d b2 5c 4a ed b1 65 39 4d b0 23 57 7e 32
       -1.8360385e-08 -6.9060615e-09 -7.466013e-10 1.48045585e-08
000270 45 80 3c 31 3b 40 3e 32 92 8f 85 31 ae 76 14 b1
       2.7430513e-09 1.107406e-08 3.8871315e-09 -2.1604296e-09
000280 09 83 50 32 7d 5a f8 b0 ec 96 45 32 0f f1 97 b2
       1.2136987e-08 -1.8070093e-09 1.1501225e-08 -1.7688334e-08
000290 6c 38 db 31 4f 27 ca 31 80 fc 13 32 e1 96 3d b1
       6.3801533e-09 5.8834426e-09 8.613938e-09 -2.7588885e-09
0002a0 cf f3 3d 31 87 2f 5d b2 d2 10 45 b1 54 d4 82 32
       2.764171e-09 -1.28746995e-08 -2.8676834e-09 1.5230547e-08
0002b0 5f ae 28 32 5a 99 05 32 7c 95 49 31 fb b8 ce b1
       9.818534e-09 7.776487e-09 2.9334322e-09 -6.016419e-09
0002c0 e6 e2 28 b2 a7 fa 03 b2 66 c9 86 31 65 62 94 31
       -9.830478e-09 -7.682195e-09 3.9228096e-09 4.318553e-09
0002d0 10 f1 3b 32 86 43 22 31 c6 5a 00 b2 33 3b 78 b1
       1.0939644e-08 2.3612485e-09 -7.47122e-09 -3.61224e-09
0002e0 36 17 b1 af e8 91 03 b2 05 49 7b b2 bc b9 b6 af
       -3.2212605e-10 -7.658379e-09 -1.4626726e-08 -3.323758e-10
0002f0 7e aa 2b b2 ab 8a 1f 32 17 e4 04 32 bc 12 66 30
       -9.9922755e-09 9.2865475e-09 7.735273e-09 8.3700136e-10
000300 0f 48 9a 3e 7c 0e 6d bd e9 13 58 3e 75 3c 58 bd
       0.301331 -0.05787514 0.21101345 -0.05279203
000310 91 76 b6 3e a5 50 63 bd 47 72 b5 3d 83 7b a6 bd
       0.35637334 -0.05549683 0.08859687 -0.08129027
000320 66 a0 c7 bc 5e b7 42 3e e5 be 98 bc da ee 0b be
       -0.024368476 0.19015262 -0.018645713 -0.13665333
000330 f0 bb 15 3e 19 c3 d5 bc e4 cd 42 bd 10 a6 ec 3c
       0.14622474 -0.026094006 -0.047559634 0.028887779
000340 c0 bb 62 3e 9b 65 ea 3d 03 68 15 3e 9b bc 14 3e
       0.22141933 0.11445161 0.14590459 0.14525072
000350 3f d7 4f bd 6b 00 db bb 30 78 37 be d7 29 eb bd
       -0.050742384 -0.0066833994 -0.17916942 -0.1148259
000360 27 a7 88 3c 8d ad 7a bd 3c a7 57 3d 43 51 4a be
       0.016681267 -0.061200667 0.05264972 -0.19757561
000370 6c de 99 bc 5e 54 3e 3e f4 1e 9a bd 37 33 08 be
       -0.018782817 0.18586871 -0.07525435 -0.13300787
000380 c5 fc 44 bd 50 53 d1 ba f5 a0 54 bb 7b df 80 3c
       -0.048092622 -0.0015970264 -0.003244457 0.015731564
000390 47 cd a4 3c 9c 00 fe bd d2 78 e7 bd 2a ed 01 bd
       0.020117415 -0.1240246 -0.113023415 -0.031720318
0003a0 a0 73 48 be ea c9 97 bd b9 4e 87 bb a1 5d a4 bc
       -0.19575357 -0.07411559 -0.0041292575 -0.020064177
0003b0 ae 7c 0b bd d1 c4 f9 3c c0 c3 19 3b 37 a3 0d bc
       -0.03405445 0.030489357 0.0023462623 -0.0086448705
0003c0 12 be 19 3d 81 1c 59 bd fd 31 12 be 1b 63 e9 bc
       0.03753478 -0.0530057 -0.14276882 -0.02848964
0003d0 a4 e1 82 bd 0d 0a de bc 8e 43 93 bb 0f 85 08 3d
       -0.06390694 -0.027104402 -0.004494137 0.03333002
0003e0 bc 38 84 3d 9d 08 de bd 5a c4 5c bc fe 22 e0 bd
       0.06456134 -0.108414866 -0.013474548 -0.10944174
0003f0 f8 8e 49 3d 0d be 7f be c2 41 14 bd 8b 86 47 3d
       0.04920861 -0.24974842 -0.036195524 0.048712295

conv1.lin_pos_r.bias f4 [32]
000000 42 74 6a bd 9b 1b a7 3c b8 c2 87 bc 7d a4 4d 3d
       -0.05723978 0.020398906 -0.016572341 0.050205696
000010 a4 f8 95 3d 55 60 f5 b8 62 09 85 3c 8a cc af ba
       0.07322815 -0.000117004536 0.016239826 -0.0013412398
000020 07 dc c5 3d a1 9d 89 3c 8c 3f c0 3c 6d ca 1c bd
       0.096611075 0.016798796 0.023467802 -0.038278986
000030 fe 9d bc bc 3b 35 02 bd 67 1e 00 3d 78 f4 73 3a
       -0.023024555 -0.031789046 0.031278994 0.0009306143
000040 a8 a6 1d bd c1 fd 0a bd 5d 8f de b7 d7 ec 70 b7
       -0.038489014 -0.033933405 -2.6531221e-05 -1.4360258e-05
000050 ee ef d7 bc 65 aa 04 3a 47 f7 2d bd 81 ed 81 3c
       -0.026359525 0.0005060791 -0.04247215 0.015860321
000060 35 e0 0e bc 7d 0f 2f 3d 2d 63 97 3d a4 88 2d bd
       -0.008720447 0.04273938 0.07391963 -0.04236664
000070 69 13 1b bd d5 d5 50 bd d9 81 8c 3c 36 a6 ca ba
       -0.037860308 -0.050985176 0.01715176 -0.0015460912

conv1.lin_neg_l.weight f4 [32, 64]
000000 d3 5d 9e 32 a3 b2 0f 31 8f 73 ee b1 2f 9a f3 31
       1.8436287e-08 2.0910782e-09 -6.939849e-09 7.0897594e-09
000010 e2 ac 04 32 f3 03 46 32 e0 cf 4e 32 89 6a 94 b2
       7.72272e-09 1.1526015e-08 1.20380435e-08 -1.7277914e-08
000020 1e c3 93 b1 a3 7b 97 b1 1e fc dd 31 88 0e da b1
       -4.3004453e-09 -4.4087343e-09 6.460609e-09 -6.346287e-09
000030 3c 52 b9 b2 61 ad c4 b2 da 83 45 b2 d0 18 1e 32
       -2.157423e-08 -2.2896247e-08 -1.1496889e-08 9.202452e-09
000040 38 31 2e b2 97 73 43 32 28 54 84 32 cd 5a ea 31
       -1.0139324e-08 1.1376776e-08 1.5405092e-08 6.820619e-09
000050 aa 00 9d b1 f6 ad d0 31 cd dd a3 af ca c1 1a 32
       -4.569377e-09 6.073374e-09 -2.9807126e-10 9.008042e-09
000060 70 ee 1d 32 7c d3 aa 31 35 a1 47 b2 f2 83 c3 b2
       9.192817e-09 4.971694e-09 -1.1619979e-08 -2.276099e-08
000070 0a 69 9e b2 c9 8d 28 b2 87 40 1d b2 71 75 54 31
       -1.8441387e-08 -9.811125e-09 -9.153275e-09 3.0916818e-09
000080 59 cf ef 31 34 d0 f9 31 86 9a f5 b1 0e d0 5a 31
       6.979388e-09 7.2705237e-09 -7.1480057e-09 3.184144e-09
000090 f4 5c 8c af 25 27 39 b2 7e 04 50 31 9e 5a bf b1
       -2.55319e-10 -1.0777318e-08 3.0270537e-09 -5.5691336e-09
0000a0 cd 77 07 b2 33 bb be 31 36 15 80 32 1f 26 05 b1
       -7.885274e-09 5.55101e-09 1.4910807e-08 -1.9375717e-09
0000b0 01 01 2c 32 f6 4f b3 31 55 65 e3 b1 ea 45 bc b1
       1.0011946e-08 5.218676e-09 -6.6180896e-09 -5.4794684e-09
0000c0 74 4b ac 31 37 5a 5b b2 dc 74 3f 32 e9 b7 36 b2
       5.014437e-09 -1.276799e-08 1.1144234e-08 -1.0635611e-08
0000d0 f4 ad ef b1 04 9f a2 32 4c ec 54 b1 7f ea 45 b1
       -6.9755917e-09 1.8931594e-08 -3.098438e-09 -2.8800569e-09
0000e0 40 4e 0d 32 23 38 e6 b1 fb 67 2a 32 ad cc 8e 32
       8.225072e-09 -6.700263e-09 9.918945e-09 1.6624051e-08
0000f0 0f e8 0b 32 7a 7f f9 2d b8 a7 40 31 31 ce 2f b2
       8.143629e-09 2.8364634e-11 2.8035014e-09 -1.0233223e-08
000100 ff 1b ca 3c 42 4d 19 bc e9 6f 1c bd ee 19 26 bd
       0.024671553 -0.009356799 -0.038192663 -0.040552072
000110 b8 e2 81 3d 11 0a 8d b9 23 2b 89 3c 19 52 37 3c
       0.06342071 -0.00026901116 0.016744202 0.011189007
000120 7b e2 66 3c 51 18 41 3b 6a aa 8d bc e8 60 14 3c
       0.014092083 0.0029463957 -0.017293174 0.009056307
000130 db bd 3b 3d c9 5d e9 bb 4a de 51 3c ec 0a be 3c
       0.045835357 -0.0071217758 0.0128093455 0.023198567
000140 d7 79 08 bd 3a 58 4c 3d 05 c8 a6 bc 1d ec 1c 3c
       -0.03331932 0.049888827 -0.020359049 0.009577778
000150 7c c9 47 bd 53 25 a6 3c 8f 2e 50 3d ee d7 40 bd
       -0.048776135 0.02028147 0.05082565 -0.047080927
000160 e1 38 13 bd 1a a9 38 3d 6a 5f 91 bc 20 0a a6 3c
       -0.035942916 0.045083143 -0.017745692 0.0202685
000170 10 e8 a5 bc 03 81 e7 bc 1d 14 21 3d 68 45 76 bc
       -0.020252258 -0.02825976 0.039325822 -0.015031196
000180 2a 96 16 3d 07 75 13 3c 0f f3 0e bd 8f fc ed bc
       0.0367643 0.009000069 -0.034899767 -0.029051093
000190 14 67 ca bc 2e 69 94 bd d0 04 88 b9 7b c3 61 bd
       -0.024707355 -0.07246624 -0.00025943527 -0.055118065
0001a0 8f fb ad bb 0d e6 c4 3c 2e db 5a 3d a6 19 89 bc
       -0.005309529 0.024035478 0.053431682 -0.016735863
0001b0 8e 77 d3 3c 48 2f 87 3d 10 19 cd bc 59 30 39 bd
       0.025813844 0.06600815 -0.025036365 -0.045212124
0001c0 34 ce 21 bd a8 ba 65 bc 18 08 ce bc 36 de 53 bd
       -0.03950329 -0.014021553 -0.025150344 -0.05172559
0001d0 8b 71 e4 b9 c1 74 8c 3c a5 e1 db bc 58 d1 c8 bc
       -0.00043572145 0.017145516 -0.026840994 -0.024513885
0001e0 34 4a 7d 3d 4a 5d 7c 3d ad 7f 00 3d 3a fc 23 3d
       0.061838344 0.061612405 0.03137176 0.040035464
0001f0 51 c8 b0 3c b9 12 e0 bb 46 82 ef ba f7 b6 75 3c
       0.021579893 -0.0068381694 -0.0018273077 0.0149972355
000200 8e 03 16 bd 6e f6 56 3d 7d 3f 39 3d 25 9f fc 3b
       -0.036624484 0.052481107 0.045226563 0.007709401
000210 f6 a4 2c bd c3 af ac bc 61 12 98 3d c9 cd ba 3d
       -0.042149507 -0.021079903 0.074253805 0.09121282
000220 9e 97 99 3c 64 be 67 3c 82 71 04 bd 28 ab ad 3d
       0.018749055 0.014144514 -0.032334812 0.08479911
000230 da ff a6 bd ad c5 49 3d e1 ca 4a bd 9b 21 2d ba
       -0.081542686 0.049260784 -0.049509887 -0.0006604434
000240 f6 8c 3b 3d d7 49 94 3b 7f f5 d7 3c 88 a5 69 3c
       0.045788728 0.004525404 0.026362179 0.014260657
000250 4b 60 8a 3c ec d6 78 3d ec ad ac 3c 85 d4 03 3b
       0.01689162 0.06075184 0.021079026 0.0020115685
000260 5e 00 91 bc cb 8a 30 3d c0 7f d9 3b a8 20 92 3c
       -0.01770037 0.043101113 0.0066375434 0.017837837
000270 4d b4 d3 3c 61 ef 16 bd 6d d7 99 3d 55 94 f4 3a
       0.02584281 -0.036849383 0.07511792 0.0018659929
000280 de f7 ef 3c 8f 98 8d 3d 6c 52 8a 3d 8d 86 bc 3c
       0.029292997 0.06913864 0.06754002 0.023013378
000290 e2 ea 00 bd 2b 00 68 3d 8a 7b 31 b9 4c 81 ed 3c
       -0.031474 0.056640785 -0.00016926057 0.028992318
0002a0 99 ce 2b 3d e4 f9 8d 3d 6e 3f 36 bd 28 bf 93 ba
       0.041945074 0.069324285 -0.044494085 -0.0011272179
0002b0 9e 30 2e 3d e1 50 38 3c cd 86 0a 3b 84 15 fe 3c
       0.042526834 0.011249752 0.0021137476 0.031016119
0002c0 73 bb 68 3d 74 fd 1c bd 1f 04 33 bc d7 e0 ce bc
       0.05681939 -0.03832765 -0.0109262755 -0.025253696
0002d0 1c bc 1a bc f8 9e aa 3c 27 80 54 3d 5a 2f 52 bb
       -0.009444263 0.020827755 0.051880028 -0.003207168
0002e0 c1 36 9f 3c 92 46 81 3c 98 40 3d bd b2 26 02 3d
       0.019435288 0.01578072 -0.04620418 0.031775184
0002f0 b0 4c 60 bc 31 62 26 bb 20 47 0e 3c 8a f1 99 ba
       -0.013690159 -0.0025388116 0.00868395 -0.0011744958
000300 38 58 1f bd 39 86 28 3e 27 ac f8 bd 00 2f fd 3c
       -0.03890249 0.16457452 -0.121422105 0.0309062
000310 3e 71 00 be 00 66 95 3d 90 f4 93 bb 0c 70 6c 3d
       -0.12543198 0.072948456 -0.004515238 0.057724044
000320 25 9d f1 3c ef 12 c6 3d 4d 3b 12 bd b1 32 b5 3c
       0.029493878 0.0967158 -0.035701085 0.022118898
000330 29 58 cb bd 1b 9f 1b bd 91 31 42 3c a7 44 f0 bc
       -0.099289246 -0.03799353 0.011852638 -0.029329611
000340 cf 9b ac 3c 95 db d4 bc b0 3f 98 bd b1 e3 1e be
       0.02107039 -0.025983611 -0.074340224 -0.15516545
000350 4e 27 69 3b 9f c8 0d 3d ef d8 e5 3c b0 76 72 3d
       0.0035576406 0.034615155 0.028057544 0.05919522
000360 01 7f 86 3d e6 67 8b 3c bf 8e 8c bd c6 08 2e 3d
       0.06567193 0.017017316 -0.06863164 0.042488836
000370 ab 97 ec bb c6 11 18 3d da 7c 57 bd 07 61 25 3d
       -0.0072202287 0.037126325 -0.052609302 0.040375736
000380 f9 13 e2 bd 25 80 75 3d 18 ac f6 bc b9 4c ff 3d
       -0.11038966 0.05993666 -0.030111358 0.124658056
000390 9c cf 41 3c f2 e0 e9 3c 2f 82 de 3c 03 3b 7f bc
       0.011829283 0.028549645 0.027161686 -0.015578034
0003a0 98 a5 0a 3d 97 7d 9e 3d 97 68 89 bd af 97 bd 3d
       0.03384933 0.07738798 -0.06709402 0.09257447
0003b0 ef f9 d0 bc 33 c1 74 bd 23 15 95 bc 78 e3 61 3d
       -0.025509803 -0.05975456 -0.018198555 0.05514857
0003c0 9b 53 82 3d 7b 7e 4a bd 47 df 9e 3d d7 1c 4f 3c
       0.06363603 -0.049437027 0.077574305 0.012641153
0003d0 84 c3 4a bd 48 a2 2d 3d fe 73 8e bc 90 ad 2b bd
       -0.049502864 0.04239109 -0.017389294 -0.04191357
0003e0 be af 22 3d 53 32 4f 3d 2c c2 4d bd 27 60 a0 3c
       0.039718382 0.050585102 -0.050234005 0.019577099
0003f0 57 d3 5a 3d 16 b1 cf bb 5e 25 45 bd f3 e6 ba bd
       0.053424206 -0.006338249 -0.04813134 -0.09126081

conv1.lin_neg_r.weight f4 [32, 64]
000000 b4 19 2b b3 20 77 c7 b1 84 d9 57 32 ab 30 2a b1
       -3.9837417e-08 -5.805205e-09 1.2564104e-08 -2.476592e-09
000010 5e 2c b4 31 a9 c9 49 32 77 60 e4 31 3f fb 84 31
       5.2437334e-09 1.1745592e-08 6.64664e-09 3.870269e-09
000020 36 cf 2e b2 0c 15 57 b2 8e cb 42 32 9f de 46 b2
       -1.0175247e-08 -1.2519433e-08 1.1338569e-08 -1.1575735e-08
000030 34 c9 3a b1 92 76 61 b2 6b 8c a1 30 0e 83 c8 31
       -2.7180933e-09 -1.31236835e-08 1.1754201e-09 5.8356653e-09
000040 12 1f 2a b2 fd 51 dc b0 79 09 09 b2 be 56 66 32
       -9.902367e-09 -1.6030409e-09 -7.976603e-09 1.3407485e-08
000050 45 1d 1e 32 26 96 9b 31 68 ff ab 31 42 d0 1c b2
       9.2034655e-09 4.5281636e-09 5.0057913e-09 -9.1277474e-09
000060 a1 a3 9a b2 01 51 b1 b1 30 70 ba b1 09 f0 24 32
       -1.800237e-08 -5.160587e-09 -5.4260667e-09 9.600634e-09
000070 8e 8f b0 32 3b 09 8a 31 49 9b 47 32 ee db a6 b0
       2.0554378e-08 4.017378e-09 1.1618632e-08 -1.2140597e-09
000080 c0 ad fd 31 48 b0 71 32 ce ff 1d b2 82 2d 1e 32
       7.383022e-09 1.4068128e-08 -9.196766e-09 9.207158e-09
000090 00 92 21 31 36 dc 44 b2 aa 70 47 b2 2a 17 ce b1
       2.3511575e-09 -1.1458772e-08 -1.1608941e-08 -5.9980225e-09
0000a0 2c 6d df b1 ce 9a 51 b2 a0 ab ea 31 30 2a 87 b1
       -6.5025656e-09 -1.22006e-08 6.829808e-09 -3.9338133e-09
0000b0 17 bd 54 32 4c 69 56 32 22 91 b1 b0 f7 88 24 32
       1.2383018e-08 1.2480381e-08 -1.2919694e-09 9.577199e-09
0000c0 84 63 ac af 7c 2b 0b 31 bb 88 7d 32 63 0f 9f b2
       -3.1357328e-10 2.025188e-09 1.4757627e-08 -1.8517033e-08
0000d0 f2 b9 b7 b0 5d e4 29 32 96 36 49 b2 4e f0 b7 31
       -1.3367851e-09 9.8890185e-09 -1.1712151e-08 5.3533205e-09
0000e0 90 2c 5c b2 66 8d 16 32 5e ad ce b1 69 78 4a b2
       -1.2815818e-08 8.763299e-09 -6.0150986e-09 -1.1785326e-08
0000f0 f2 12 8e b2 1a fb 13 b2 ab 6f e9 31 4f 7f a3 31
       -1.6539591e-08 -8.61362e-09 6.7938877e-09 4.7583977e-09
000100 39 1f 2e 3e 61 65 a8 3d 21 c7 04 3e 93 87 16 3d
       0.17004098 0.082224615 0.12966587 0.036750387
000110 a9 82 00 be 5a 91 35 3d 67 b0 47 bd 6a bd 65 be
       -0.12549843 0.04432807 -0.048752215 -0.22435537
000120 8d ad 60 3d c2 01 e7 3d dd 8a 15 3d e7 15 50 bd
       0.05485301 0.11279632 0.036509383 -0.050802138
000130 1e 69 03 3e 25 1d 45 3d f9 96 03 bd de 3d 17 bd
       0.12833068 0.048123498 -0.0321264 -0.036924236
000140 45 fa df bd 95 2a 51 3c fb 60 cf 3b 91 6c ae bc
       -0.10936407 0.0127665 0.0063286996 -0.021292003
000150 d5 62 3c bc e5 ea 0e be b5 5b 63 bb 23 1c 2e 3d
       -0.011498173 -0.13956793 -0.0034692113 0.042507302
000160 18 90 bf bc c5 f0 2c 3d 19 dc 0b 3d 19 e8 d2 3c
       -0.023384139 0.042221803 0.03414545 0.025745438
000170 e3 bc 27 3c b5 27 3a 3e 7c 56 bf bd ec d4 52 be
       0.010237905 0.1817921 -0.093426675 -0.20589036
000180 86 9b 8d 3d 37 72 12 3d 46 e1 f7 3b 72 b2 f6 3c
       0.06914429 0.035753455 0.0075646965 0.030114386
000190 a9 92 08 3d 11 78 9a 3d 41 97 23 bc a8 e3 55 bc
       0.03334299 0.07542432 -0.009984792 -0.013054766
0001a0 3f c0 ff b9 24 55 38 ba 2d c6 b5 3c d3 6d 9f 3d
       -0.00048780625 -0.000703173 0.022189224 0.07784619
0001b0 ac b6 3e bc 72 f9 92 ba 0a 94 eb bd 0f 41 8f bc
       -0.011640232 -0.0011213257 -0.115028456 -0.017487077
0001c0 92 89 42 3d 39 b6 8d bc 48 11 bd bd 74 a3 03 3d
       0.04749448 -0.017298805 -0.09231812 0.032138303
0001d0 7d ca 02 3e 7d a5 29 3e ed 27 9c bd d8 90 cf 3c
       0.12772556 0.16567035 -0.07624803 0.025337622
0001e0 3d 3f d7 bd f3 9f ee bc 33 4e e8 3c 95 df 2b bd
       -0.105101086 -0.029129004 0.0283576 -0.04196127
0001f0 d8 70 87 bd 28 66 75 bd b7 07 61 3c f0 f2 14 3e
       -0.0661332 -0.059911877 0.0137347495 0.14545798
000200 d2 ab ff 3d 29 ee 1f be 1e 8d 56 bd 8e de ca bd
       0.12483944 -0.15618195 -0.052380674 -0.0990573
000210 64 64 e9 3d a3 7f 90 3d 52 71 0a bd df 03 85 bb
       0.11396101 0.07055595 -0.033799477 -0.0040592994
000220 9b 9b ec bd fb af ca bc 0c 26 f5 bb c9 78 fc bc
       -0.11553117 -0.024742117 -0.007481342 -0.030819314
000230 90 95 38 bd 5b df c5 bd ee c8 d3 bd 7c d4 0a 3e
       -0.04506451 -0.09661742 -0.10341059 0.13557619
000240 29 1f 18 3d 8b 72 12 bd 39 e9 8d 3d 54 bb 43 bd
       0.03713909 -0.035753768 0.06929249 -0.047786072
000250 77 60 71 3b 80 99 bf bd db 50 21 3d 65 58 82 3d
       0.003683118 -0.0935545 0.03938375 0.06364516
000260 f5 ca 3d bd 5b 74 21 3d d2 28 9d 3d 07 94 6a bd
       -0.046336133 0.039417606 0.076738015 -0.057270076
000270 a3 1b de bc bf c0 90 bc c0 b1 23 3e 17 88 cd 3d
       -0.027112788 -0.017670033 0.15985775 0.10035723
000280 95 1b c9 bd 6b 53 55 bc 1a 01 91 3c 3b bd 24 bb
       -0.09819714 -0.013020377 0.01770072 -0.0025137204
000290 3f e2 12 3d b1 06 ac 3c 4f fc c8 3d 28 b5 5e bc
       0.035860296 0.020999284 0.09813749 -0.013592996
0002a0 c0 85 a0 3b 4d d8 49 3d ad 05 bd 3b a0 f0 3b 3d
       0.0048987567 0.049278546 0.005768499 0.045883775
0002b0 1f 8f 34 3d fa db 12 ba a1 25 ce 3c fb 05 87 3a
       0.044081803 -0.0005602237 0.025164427 0.0010301465
0002c0 86 d2 1d 3d 17 f9 46 bd 27 23 25 3c 68 ce 52 3b
       0.03853085 -0.048577394 0.010079182 0.0032166485
0002d0 36 2d ab 3d 16 5e 2a be 62 0d 06 3d ba 27 7c bd
       0.08358233 -0.16637453 0.032727607 -0.061561324
0002e0 83 31 30 3d a3 8d d6 bc e8 c1 37 ba 3d 81 a2 bd
       0.043015968 -0.026190585 -0.000700979 -0.079348065
0002f0 d4 b1 d3 bc be 51 e9 3c 2e 78 43 bc 12 24 8f bc
       -0.025841631 0.02848136 -0.011930509 -0.017473254
000300 2b 7c 09 bf db 16 78 bd 78 fd 91 bd 24 62 b4 3d
       -0.5370509 -0.06056867 -0.071284235 0.08807781
000310 c8 84 7b 3e 3d 84 05 be 89 bb 01 be 87 f2 fb 3e
       0.24562371 -0.13038726 -0.12669195 0.4920847
000320 d1 a0 44 3e d1 44 66 bd 8b 65 f5 bd a8 67 88 be
       0.19201972 -0.056217972 -0.119822584 -0.26641583
000330 1c 38 d9 3d 57 ef 83 3d 05 4e 17 be 28 cc ff 3d
       0.10606405 0.06442135 -0.14775856 0.124901116
000340 79 82 09 3e 7d 36 29 be 73 60 f4 3d d5 be 6c 3d
       0.13428678 -0.16524692 0.11932459 0.05779918
000350 06 8c 2c 3c 66 2b 0c be 0f 64 df bd 2a 79 2a 3e
       0.010531431 -0.1368843 -0.109077565 0.16647783
000360 0f 86 0f bd 48 c7 fb 3c 6b fb b7 3d ff 0a 48 3d
       -0.035039958 0.030734673 0.08983501 0.04883861
000370 25 9d e6 bc 14 e9 8f 3e 57 fb 68 3d b5 10 e5 bc
       -0.028151104 0.28107512 0.05688032 -0.027962068
000380 46 35 0f 3e c5 b7 30 3e 21 cd 2f bd e0 3e 83 bd
       0.13985166 0.17257603 -0.042920236 -0.06408477
000390 f1 b7 fc 3d 87 04 74 bb cd 9f 61 3a de db 67 be
       0.123397715 -0.0037234144 0.0008606881 -0.22642466
0003a0 dd f3 f2 3c 4c 21 81 bd 60 9a 37 3d 9f 4d 89 bd
       0.029657299 -0.06305179 0.044824958 -0.06704258
0003b0 0b b6 42 3e 72 87 93 bc a5 48 71 bd e0 71 16 be
       0.19014756 -0.018008921 -0.05890717 -0.14691877
0003c0 4f 7a b6 3c 47 1d 83 bd d6 51 2d bc 89 6a 5d be
       0.022275118 -0.064020686 -0.010578593 -0.21622671
0003d0 6c 3f f7 bc 04 71 fd bd 2e 5d 84 bc c0 81 00 be
       -0.03018161 -0.12375072 -0.016157713 -0.12549496
0003e0 ce d2 a2 bd 46 0e 66 bd d3 6f 16 3d 7d bd eb bd
       -0.07950364 -0.056165956 0.036727738 -0.115107514
0003f0 72 8d ff bd fd d6 82 bd 56 41 ab 3e 3c 40 f0 3d
       -0.124781504 -0.06388662 0.33448285 0.11731002

conv1.lin_neg_r.bias f4 [32]
000000 fc a3 b8 bc 57 42 63 3d 94 42 54 3d 2d bd ae 3c
       -0.022539131 0.05548319 0.051821306 0.02133044
000010 f8 7b 8c bd f5 d6 e7 ba de c8 e7 bc c4 76 74 bd
       -0.06859583 -0.0017687964 -0.028294023 -0.059683576
000020 c4 8c e7 38 ba 1b c2 3c 2b 53 63 bb 39 4e a2 3c
       0.00011041158 0.023694862 -0.0034687023 0.01981269
000030 4f f5 8e b5 1c 88 2c bc 6e 7a f4 3c 33 ff 82 3c
       -1.0651219e-06 -0.010530498 0.029843535 0.01599083
000040 f8 ad 03 b9 06 1f f3 bb c3 42 0a bd a0 ba ac 3c
       -0.00012557942 -0.0074194698 -0.033755075 0.021085083
000050 3b 21 4a bb 0e c9 00 b8 ee 96 a1 39 6f f7 aa 3c
       -0.003084256 -3.0704825e-05 0.00030820764 0.020869939
000060 ea 8a b5 3d fb c7 74 bc 09 75 c1 3c b6 db 8a 3c
       0.088643864 -0.014940257 0.023615377 0.01695047
000070 f4 e3 c2 b9 46 55 11 bb d5 1f db 3c 0c fe 8b 3d
       -0.00037172402 -0.002217607 0.026748577 0.06835565

convs.0.lin_pos_l.weight f4 [32, 64]
000000 dc 86 4a 37 a9 0d 11 3d e7 42 4e b2 a6 43 c8 bc
       1.2071538e-05 0.035413418 -1.200599e-08 -0.02444632
000010 0e 76 3b 3d 75 87 20 35 1c 3b a4 3d df b3 97 38
       0.045766883 5.980176e-07 0.08019087 7.233745e-05
000020 89 3f ab 3d e1 fa 0f 3d f3 5a 5e 3d f5 bc 63 32
       0.08361728 0.035151366 0.054285955 1.3256103e-08
000030 15 80 3d 3a cd ce 02 bb 56 63 ca bc 60 dd 83 bb
       0.00072288635 -0.0019959689 -0.02470557 -0.0040241927
000040 8e 37 fd ba 6e f0 cd 32 35 27 2a b9 c0 d2 66 b5
       -0.0019318925 2.3974476e-08 -0.00016227069 -8.598836e-07
000050 cb af cb bb 19 e3 a1 bd 6d 89 bd b1 75 73 a7 3d
       -0.0062160245 -0.079046436 -5.5162475e-09 0.081763186
000060 c6 92 a6 b1 c1 3e 64 bd 50 7a 54 3d 99 af 59 bc
       -4.847922e-09 -0.05572391 0.05187446 -0.013286495
000070 1a 1b 17 b2 70 ba 6d b2 95 8a 2c 3d 83 2b b4 b0
       -8.795519e-09 -1.3837607e-08 0.04212435 -1.310909e-09
000080 1e ea 6d b0 99 4d 88 bc fc 83 c3 3d b2 c2 41 bd
       -8.65528e-10 -0.016638564 0.095466584 -0.047304817
000090 8c 8f 1a bc 53 d9 14 33 5e e9 ae 3a 8b 26 11 b3
       -0.009433638 3.465659e-08 0.0013344695 -3.3795498e-08
0000a0 40 28 8f 3c 69 c8 0c 3c 45 00 4c b5 40 df 0b 3d
       0.017475247 0.008592703 -7.5996314e-07 0.034148455
0000b0 7d dd 2e 32 a9 4d 18 b8 d2 ee 74 bd 49 06 ec 3d
       1.0178494e-08 -3.631195e-05 -0.05979807 0.11524636
0000c0 41 53 54 b7 9a 3e aa 31 5e e1 d6 b3 95 82 12 3d
       -1.2655569e-05 4.954768e-09 -1.00061456e-07 0.035769064
0000d0 ae 29 ce b1 07 dc 0f b2 da 25 4f 3c 06 8e b7 bc
       -6.0001275e-09 -8.373724e-09 0.012643302 -0.02240659
0000e0 0b 09 66 3d 2f 05 b2 32 6a 77 63 bd 40 f0 de bc
       0.056160968 2.0724285e-08 -0.055533804 -0.02721417
0000f0 b6 a0 df 3c 75 de 40 b7 a3 04 76 3d 5a bc 36 3d
       0.027298313 -1.1495887e-05 0.060063016 0.04461322
000100 2f da 20 36 52 29 6f bd 9c da 10 32 16 55 52 bd
       2.3968857e-06 -0.058389015 8.431609e-09 -0.051350676
000110 12 74 dc bd 5e c7 e1 b2 b5 45 04 bd 24 e8 9c b9
       -0.10764326 -2.6284109e-08 -0.03229304 -0.00029927597
000120 ff 35 b3 bd 22 a6 e0 bc 58 56 9c bd 56 c6 d8 b2
       -0.08750533 -0.027422968 -0.07633656 -2.5235902e-08
000130 a9 78 39 31 63 65 c6 b8 48 f6 1e bd 91 aa 11 3d
       2.698963e-09 -9.4602605e-05 -0.03880909 0.035563055
000140 c0 ab 45 39 5e ee 0d 31 b5 07 a1 38 b2 c9 2c 36
       0.00018851366 2.0653697e-09 7.678514e-05 2.57474e-06
000150 94 bf 8a 3b 60 5b a6 3c de 47 af b2 86 ae 29 bd
       0.0042342637 0.020307243 -2.0405363e-08 -0.041426204
000160 68 2a aa b2 fd 85 31 bd 50 84 f7 bd c0 5c ce 3a
       -1.9809889e-08 -0.04334067 -0.120857835 0.0015744194
000170 c3 8d 1e 32 71 14 29 b1 30 ee 06 bd fb 10 a0 31
       9.229043e-09 -2.4604356e-09 -0.032941997 4.6585433e-09
000180 4c dd de 31 07 cc 7d 3d 73 df 09 be 80 41 e2 bd
       6.486209e-09 0.061962154 -0.13464145 -0.110476494
000190 ea 96 00 ba f8 c2 36 33 7c 78 17 39 01 de bf 32
       -0.00049053004 4.25525e-08 0.00014445366 2.2336282e-08
0001a0 7f 1b 2d bd e6 55 c6 3d 0e c5 bb 30 2c 98 e9 bc
       -0.04226255 0.096843526 1.3662047e-09 -0.028514944
0001b0 b1 ef dc 31 21 47 dc b8 d4 48 81 bc ea 15 c5 bd
       6.4300925e-09 -0.00010503666 -0.015781797 -0.096233204
0001c0 d8 64 21 b7 21 c2 0a 32 aa b8 81 b1 49 18 02 bd
       -9.619827e-06 8.076797e-09 -3.775388e-09 -0.03176144
0001d0 51 55 0e b1 2f 9c 97 b0 15 78 e2 3d 93 55 23 3e
       -2.0712216e-09 -1.1031086e-09 0.1105806 0.15950613
0001e0 98 5c 93 be 34 5c 02 b2 d5 f6 3e 3d 9a ce ab 3d
       -0.2878158 -7.5879605e-09 0.046622116 0.083890155
0001f0 d2 db 9c bc 30 43 dc b8 c0 6e 59 be 38 49 9f bd
       -0.019147787 -0.00010502932 -0.21233654 -0.07777637
000200 b0 33 0f b2 09 a9 f4 b0 ba 77 04 32 e4 06 65 30
       -8.335448e-09 -1.7801379e-09 7.710634e-09 8.3319507e-10
000210 04 db fb b1 8e 09 0c b2 cc c0 ed 31 40 19 c3 2f
       -7.3299606e-09 -8.151245e-09 6.9195263e-09 3.5488235e-10
000220 b0 3b b6 b1 a9 a3 74 33 bc 0e 51 32 81 8f 14 32
       -5.303683e-09 5.6959525e-08 1.2168751e-08 8.647363e-09
000230 63 19 b5 32 c6 ac 47 32 8a fb 9a 32 72 82 92 33
       2.1082718e-08 1.1622609e-08 1.8042346e-08 6.822383e-08
000240 dc 4d 23 32 f0 17 99 30 4e 97 15 32 6b a4 1c b2
       9.505552e-09 1.1139019e-09 8.707344e-09 -9.117779e-09
000250 13 11 84 b3 19 4e 9f 33 20 55 21 b2 1b 02 47 33
       -6.149835e-08 7.41822e-08 -9.390789e-09 4.6335213e-08
000260 6a 74 3c b2 1e a4 48 31 90 e8 13 30 38 45 c2 b2
       -1.096951e-08 2.919712e-09 5.380878e-10 -2.261605e-08
000270 85 7e ea 31 52 e7 98 b1 cb 80 fa 32 c6 cf 2b b2
       6.82468e-09 -4.4500803e-09 2.9162399e-08 -1.0000752e-08
000280 e6 38 a2 b0 15 05 88 b1 7b ec 27 34 af 5b d3 32
       -1.1803223e-09 -3.9586987e-09 1.5639118e-07 2.4605326e-08
000290 68 82 43 b2 55 5f 3f b0 ce d4 5c 32 f3 0d 57 b2
       -1.1380145e-08 -6.962087e-10 1.2854072e-08 -1.2517819e-08
0002a0 fa a9 52 b2 17 9c 04 b5 a2 47 87 b0 a2 02 ac b2
       -1.2262257e-08 -4.940097e-07 -9.842902e-10 -2.0024633e-08
0002b0 77 f5 cf b1 02 ca 9b 30 aa cf 19 b4 ef aa c3 30
       -6.052399e-09 1.1335148e-09 -1.4324783e-07 1.42367e-09
0002c0 8b a2 9c 31 3d 4f 92 b1 96 b4 0e 32 a2 14 2c b3
       4.5586765e-09 -4.2581676e-09 8.306548e-09 -4.0065636e-08
0002d0 c8 31 00 32 35 c8 d4 b1 38 9e 49 b2 59 d9 77 33
       7.4618995e-09 -6.192773e-09 -1.1735715e-08 5.7706846e-08
0002e0 c2 f4 8a b1 f5 74 b3 b1 7f 56 ff b2 45 98 f5 33
       -4.0441543e-09 -5.222882e-09 -2.9725241e-08 1.1436399e-07
0002f0 a2 af 12 b3 07 92 c1 b1 ad 82 ad b2 a2 15 d6 31
       -3.415301e-08 -5.6336407e-09 -2.0199275e-08 6.230679e-09
000300 a6 ee 93 30 bd 2a ae b8 a3 2d 3d b0 fb 2b c6 39
       1.0763486e-09 -8.304927e-05 -6.8822653e-10 0.0003779827
000310 b5 f8 23 b9 01 1c 91 30 14 fb 1e 38 9b f9 09 32
       -0.00015637542 1.0558098e-09 3.790397e-05 8.031203e-09
000320 bb 75 20 b9 8c 28 7a b8 49 72 aa b8 84 cf 02 b2
       -0.00015302647 -5.9642407e-05 -8.127519e-05 -7.6141795e-09
000330 f1 de 27 32 f9 54 47 b2 ce d2 0e 39 57 fa c2 38
       9.77137e-09 -1.1602645e-08 0.00013620706 9.29727e-05
000340 21 a1 97 32 e0 34 2a b1 77 e3 fd 31 ec 65 2a 32
       1.7651987e-08 -2.4768312e-09 7.389129e-09 9.918477e-09
000350 fc d3 1f b9 e1 00 11 39 ec b2 15 b2 a3 af cb 38
       -0.00015242392 0.00013828605 -8.713624e-09 9.712509e-05
000360 cd aa 93 b0 c2 59 ef 38 ed 75 11 b9 13 97 47 32
       -1.0744202e-09 0.00011413127 -0.00013872208 1.1617675e-08
000370 c8 33 a1 b1 87 0f 30 31 b5 4f 7e 38 25 cf 98 b0
       -4.6916036e-09 2.5620197e-09 6.0632552e-05 -1.111833e-09
000380 4e a9 95 b2 4b 9c 9f 39 08 e0 64 b9 70 c3 78 39
       -1.7422874e-08 0.0003044329 -0.00021827233 0.00023723929
000390 d0 dc f5 30 90 9d 2e 32 ae f5 d8 b1 af 3d 12 b1
       1.7888855e-09 1.0163959e-08 -6.314358e-09 -2.128086e-09
0003a0 21 6c a0 37 46 78 b5 36 ee 22 a6 31 0b 43 0a 39
       1.9123838e-05 5.408222e-06 4.835207e-09 0.00013185681
0003b0 c9 58 79 b0 33 93 5e b2 03 06 20 b8 65 21 3f b8
       -9.0711844e-10 -1.295557e-08 -3.815257e-05 -4.556905e-05
0003c0 6d ce 8c 31 4b da ce b1 c4 68 3b b2 c0 32 74 39
       4.098004e-09 -6.020206e-09 -1.09086535e-08 0.00023288559
0003d0 6c de 6d 30 9a c0 24 30 d1 8a 01 b9 d4 a8 e3 b8
       8.653618e-10 5.9936556e-10 -0.00012354112 -0.0001085565
0003e0 fe 9e 95 b9 af 72 6b 31 eb a2 65 39 10 20 3c b9
       -0.00028537953 3.426219e-09 0.00021899834 -0.00017941021
0003f0 b7 f7 06 39 9d 6a 60 32 32 17 06 38 14 dc bc 38
       0.00012871517 1.3062757e-08 3.1969692e-05 9.005531e-05

convs.0.lin_pos_r.weight f4 [32, 32]
000000 4a 62 d1 37 11 4b 25 bf 59 71 8d 32 f6 ba 33 3e
       2.4960511e-05 -0.6456767 1.6466105e-08 0.17551789
000010 5f ef 52 3e ea 0f 96 b5 3f 57 41 3d 82 38 05 ba
       0.20599125 -1.1180502e-06 0.047202345 -0.00050819677
000020 d9 83 9c 3e 14 40 f8 be 30 f3 27 bf 3d fc 05 b3
       0.30569342 -0.48486388 -0.6560545 -3.1195885e-08
000030 76 76 f6 b1 a6 6c f5 32 1d 92 86 bd 68 0d 1c 3f
       -7.1730097e-09 2.8571161e-08 -0.06570838 0.60957956
000040 48 db fc 32 2d 02 99 b2 45 16 d5 38 e0 3d ff 35
       2.9436379e-08 -1.7812534e-08 0.000101607795 1.9016989e-06
000050 b5 f1 74 be af 2b 87 3e fd 53 ed 31 c8 66 a9 3d
       -0.23920329 0.26400515 6.907156e-09 0.08271557
000060 ab 60 e2 31 39 c9 ca 3c af cc 0b 3d db e0 6e b4
       6.5884556e-09 0.024754154 0.03413075 -2.2247279e-07
000070 97 94 f7 31 cf 80 79 b1 b1 0c 80 be b2 37 08 b2
       7.205539e-09 -3.6307488e-09 -0.25009683 -7.9289055e-09
000080 aa 90 4a b7 6e 8c fc be 10 23 6c b2 b5 68 ce bd
       -1.20738205e-05 -0.4932589 -1.374498e-08 -0.10078565
000090 71 87 29 3e d4 4c 80 b5 1d 42 02 bf 23 27 14 ba
       0.16555573 -9.559103e-07 -0.5088213 -0.0005651584
0000a0 0d 15 3a bd f0 23 18 bf f1 7b e3 be c2 09 ab 30
       -0.04543023 -0.59429836 -0.44430497 1.2444661e-09
0000b0 54 31 b5 b1 4a ae 8a b2 c2 5b d9 be 40 c6 87 be
       -5.2734013e-09 -1.6144572e-08 -0.42452818 -0.2651844
0000c0 51 14 c6 b2 be a1 91 32 99 b9 a9 37 ee 52 ea b5
       -2.3059473e-08 1.6953773e-08 2.0232796e-05 -1.7458494e-06
0000d0 9c da 11 3f e8 a3 50 3f f7 ef 85 32 74 0e 1e bf
       0.56974196 0.815001 1.5592361e-08 -0.61740804
0000e0 06 07 a8 b1 1d 72 38 be 1a 51 b9 3e 08 e7 99 32
       -4.890242e-09 -0.18012281 0.36194688 1.7916605e-08
0000f0 de ec e9 32 7d e6 a6 b0 1f 45 30 bf e5 46 a3 b0
       2.7232485e-08 -1.2143598e-09 -0.6885547 -1.187996e-09
000100 05 ae cc 31 ab bd 58 34 4a bf ed 32 7d bf 7c 32
       5.956965e-09 2.0185568e-07 2.767742e-08 1.471187e-08
000110 69 56 de 31 68 89 ce 31 1d 47 2d 32 b0 63 b6 b1
       6.470874e-09 6.0110104e-09 1.0086095e-08 -5.3082303e-09
000120 4f 62 0a b2 15 71 5e 34 70 d2 24 33 65 cf e0 b1
       -8.05501e-09 2.07165e-07 3.8375617e-08 -6.542836e-09
000130 db e2 4b b2 21 b0 56 32 ef cf 8a b2 5b 94 b3 b1
       -1.1867736e-08 1.24964865e-08 -1.6159872e-08 -5.2264517e-09
000140 31 80 19 32 ec b0 31 31 04 0b 29 32 90 ab e0 31
       8.9349195e-09 2.5857458e-09 9.839599e-09 6.5387624e-09
000150 c9 0f a2 33 68 b8 5b 32 45 c5 82 b2 d3 bb fb b4
       7.546584e-08 1.2789407e-08 -1.52237e-08 -4.6889053e-07
000160 c4 39 90 31 9d 06 b0 b2 68 58 26 31 f9 83 c0 b3
       4.1975188e-09 -2.0492104e-08 2.4206432e-09 -8.9647024e-08
000170 b1 e6 1f 30 8d 1a 4b b2 ad 8d 59 33 19 04 09 32
       5.8171695e-10 -1.1822192e-08 5.0653103e-08 7.975381e-09
000180 88 35 ad b1 4e 8b 84 b8 6d 7d b5 30 19 01 b1 b9
       -5.0410485e-09 -6.320198e-05 1.3205131e-09 -0.0003376089
000190 04 2b 9d b9 9d 64 49 31 b4 cf 0c b9 d2 cc 05 b1
       -0.00029977423 2.9306542e-09 -0.00013428816 -1.9470474e-09
0001a0 33 a6 fc b9 87 6e 56 39 8c 51 8c 39 9a f5 71 32
       -0.00048189014 0.00020449805 0.00026763638 1.408389e-08
0001b0 6b 0b 19 32 4a 05 11 b2 09 c8 2e 39 56 f4 00 b9
       8.908368e-09 -8.441313e-09 0.00016668452 -0.00012298053
0001c0 23 d5 8b b2 3f 41 8e b2 6f 93 d9 b2 b5 9a b7 b1
       -1.6278653e-08 -1.6560646e-08 -2.532917e-08 -5.343589e-09
0001d0 94 7b da b8 c8 b3 ac b7 09 57 84 b0 77 74 8b b9
       -0.00010418068 -2.0587715e-05 -9.629001e-10 -0.0002659892
0001e0 71 e7 b3 30 73 14 2b 3a e0 d7 34 ba c3 8f 8a 31
       1.3089744e-09 0.00065261795 -0.0006898623 4.0326724e-09
0001f0 84 86 d0 b2 45 db d0 b1 85 08 82 b8 d7 f5 04 32
       -2.4275558e-08 -6.078525e-09 -6.20047e-05 7.739309e-09
000200 e0 6b 81 32 6d bd 10 bc 2d f6 18 32 40 10 80 bd
       1.5066632e-08 -0.008834225 8.903538e-09 -0.062530994
000210 5c 2c 72 bd 76 94 15 31 39 4a 6f bc 2a e7 3b 30
       -0.059124336 2.1766744e-09 -0.014605098 6.835871e-10
000220 77 63 53 bd d2 4e 64 bc 78 12 58 bc c7 5d 64 b2
       -0.05160853 -0.013934808 -0.013187997 -1.3292669e-08
000230 8f dc 18 b0 83 49 b1 31 44 94 fe bc 8a fd a1 3b
       -5.561071e-10 5.1597353e-09 -0.031076558 0.0049435543
000240 67 4a 3e 30 32 8d 87 30 33 ad 97 32 06 0a 98 30
       6.922733e-10 9.862673e-10 1.7657475e-08 1.1062304e-09
000250 21 7d 84 bc 9d 50 03 bc f4 04 68 31 99 28 9e bc
       -0.016172947 -0.008014825 3.3763259e-09 -0.019306468
000260 ee af 81 b2 8e 65 3d bd 81 18 84 bd e8 db c3 31
       -1.509758e-08 -0.04623943 -0.06449986 5.7002474e-09
000270 a0 57 e4 32 3e 1b 03 b2 55 25 66 bc c7 4d be b0
       2.658254e-08 -7.631398e-09 -0.014046987 -1.3846425e-09
000280 c9 da 91 b6 be 81 55 3f d0 ec 07 32 ec 74 39 bf
       -4.3468067e-06 0.83401096 7.911879e-09 -0.72444034
000290 81 98 0e bf 66 aa 91 b5 2f 2a f5 3e 09 e8 8a 3a
       -0.5570145 -1.0852934e-06 0.47883746 0.0010597716
0002a0 f9 ec 0e 3e d0 7f 21 3f a8 70 41 3f 29 4c f1 b2
       0.13957585 0.6308565 0.75562525 -2.8090726e-08
0002b0 bc 1a dc b1 30 b7 9f b1 cd f1 16 3c 3d de 89 be
       -6.405882e-09 -4.648335e-09 0.009212923 -0.26927367
0002c0 f1 00 0e 32 43 28 92 33 cb 06 2d 38 29 74 26 36
       8.265702e-09 6.8059784e-08 4.125274e-05 2.4803542e-06
0002d0 e8 1e e6 3d c7 fe 30 bd 4b e7 99 32 30 2e a9 3d
       0.11236364 -0.043211725 1.7916724e-08 0.08260763
0002e0 82 59 d8 b2 c6 c6 10 bf ae 1b 9c be db 86 d3 33
       -2.5186413e-08 -0.56553304 -0.30489868 9.849983e-08
0002f0 12 3c 70 32 c9 de 03 b3 95 0f 28 3f 36 1d bb b0
       1.3983497e-08 -3.0703436e-08 0.65648776 -1.3614343e-09
000300 ce 56 15 37 c7 87 d5 be 06 e2 92 2f d1 21 50 be
       8.901303e-06 -0.41705152 2.6717845e-10 -0.203254
000310 a6 5f 49 3e 92 2f 87 b4 c4 2c c5 be a8 dc a8 38
       0.19665393 -2.5180321e-07 -0.38510716 8.051965e-05
000320 75 5a 24 3e a4 aa 00 bf 60 96 b1 be b4 c1 01 b1
       0.16050132 -0.50260377 -0.3468504 -1.8882078e-09
000330 f6 3a 23 b2 c0 07 e6 31 9b 83 09 bf a1 6c 38 bd
       -9.501255e-09 6.694762e-09 -0.5371644 -0.04502547
000340 ce 94 21 30 13 2f c8 b1 69 fb 03 b8 50 f1 a4 b5
       5.8782923e-10 -5.826118e-09 -3.1466978e-05 -1.2289183e-06
000350 10 73 2d 3f 0a b3 6b 3f 6a 43 20 b2 8f 8d 1a bf
       0.67753696 0.92070067 -9.328554e-09 -0.6037225
000360 7a 7a 76 32 e6 e8 84 be f6 e3 d8 3e ba 61 b1 b4
       1.43469325e-08 -0.25958937 0.4236142 -3.3039925e-07
000370 e1 86 8a 32 f4 e7 af b2 ff 7e 21 bf 15 97 39 32
       1.612665e-08 -2.0478161e-08 -0.63084406 1.0802769e-08
000380 c8 2d a0 32 36 0c ba 35 95 2a 9a b1 06 cf a0 b5
       1.864727e-08 1.3861634e-06 -4.486831e-09 -1.1981181e-06
000390 bf af 7b 37 e7 32 f6 af 78 d0 f2 b4 f0 53 9f 32
       1.5001685e-05 -4.4783308e-10 -4.5227694e-07 1.8548207e-08
0003a0 9e 65 7a b7 85 42 69 36 94 e2 0f b5 68 2f bf b2
       -1.4924821e-05 3.4758425e-06 -5.3601366e-07 -2.2256884e-08
0003b0 07 e5 12 32 1e 29 15 30 a8 c7 93 35 3f 92 85 b6
       8.550393e-09 5.4264315e-10 1.1010461e-06 -3.980734e-06
0003c0 d3 2d 66 b1 1b 73 15 32 9b 37 86 b2 3d 17 e7 31
       -3.3495453e-09 8.699113e-09 -1.562494e-08 6.7256267e-09
0003d0 55 17 c3 b3 12 0e a2 b6 96 6a 2c 32 4a e0 84 b4
       -9.084639e-08 -4.829614e-06 1.00359525e-08 -2.4750108e-07
0003e0 f3 a4 88 30 11 8f 6a 37 c7 bd 69 37 32 2d 43 b2
       9.942184e-10 1.3980797e-05 1.3932068e-05 -1.136077e-08
0003f0 23 53 95 31 9c 84 ef 31 0b 4c c6 b6 4a 26 70 31
       4.3459223e-09 6.9708914e-09 -5.9097124e-06 3.4946361e-09

convs.0.lin_pos_r.bias f4 [32]
000000 de 34 64 bc bf d5 03 3e cb d8 1e bd a4 56 b9 bc
       -0.01392862 0.12874506 -0.03878097 -0.022624321
000010 c9 7c 90 bd 25 71 05 3e 80 a6 e3 3d 82 4d 90 ba
       -0.07055051 0.13031442 0.11115742 -0.0011009427
000020 7e bc 93 bc d1 06 43 bc de 75 8f bc 6b d3 19 bc
       -0.018034216 -0.011903481 -0.017512258 -0.009388785
000030 c8 a1 a6 ba e4 7b 51 bd 9e 17 5e bd 9a 19 2f bd
       -0.001271301 -0.051143542 -0.05422174 -0.042749025
000040 66 0b 21 bc 8a 66 33 ba bb 27 26 bd fb 6f 32 bc
       -0.009829378 -0.00068435876 -0.040565234 -0.010890956
000050 ad d9 86 bd c4 59 89 3d 62 63 68 bc 6c 73 85 bb
       -0.06584487 0.067065746 -0.014183851 -0.0040725973
000060 88 6f da 3d 84 01 38 b9 3c 3a 84 bb e1 ce b0 ba
       0.10665804 -0.00017548172 -0.0040352624 -0.0013489389
000070 ea ae 88 bb bd 40 55 bd 13 b2 a4 3d 29 f9 5b 3e
       -0.004171242 -0.052063692 0.080417775 0.21481766
