wiki-elec/models/wiki-elec-train-2.pt (torch, 64411 bytes, 14 tensors)

conv1.lin_pos_l.weight f4 [32, 64]
000000 02 6f 62 3d 79 0c b5 3d 94 dc 8a bb a1 de df bd
       0.055281647 0.088402696 -0.0042377207 -0.10931135
000010 69 bc 6d 3d 81 fc b3 bc 25 f8 2e 3d c9 54 45 3d
       0.05804101 -0.02197099 0.042717118 0.04817656
000020 ec 56 c9 3c 9c 1b dc bd 71 fc f9 bd b2 21 2d 3d
       0.02457758 -0.107474536 -0.122063525 0.042268462
000030 ca 5c ec 3b 2b f7 cc bd 75 9e 2e bd 19 ee bd 3c
       0.0072132098 -0.10008081 -0.042631585 0.023184823
000040 c8 0d fa bc e6 f5 c7 3d d2 71 ce bc 0e e1 e0 bb
       -0.03052415 0.09763698 -0.025200758 -0.006862766
000050 9c 3a 7e bd fb 1b 58 bc 6f 89 fd 3c 8c 6b af bd
       -0.062067613 -0.013190265 0.030949323 -0.08565435
000060 8e 5c d9 bc 5b 6d 00 bd f2 15 f0 3c 8d f4 0e 3d
       -0.026533391 -0.03135429 0.02930734 0.03490119
000070 1b fc c2 bd f0 22 a5 3d d6 af 42 bc e3 30 27 3d
       -0.095207416 0.080633044 -0.011882743 0.040818106
000080 94 15 9d 3c fe f5 83 bc bd 39 0c bd 48 b6 a4 bc
       0.019175328 -0.01610851 -0.03423475 -0.02010645
000090 c7 1f d9 3c b4 0c d6 bb af 1e 8e bd 8a 13 91 bc
       0.02650441 -0.006532276 -0.06939446 -0.017709512
0000a0 c5 e1 e0 3c b7 cb 39 bd 2b 80 a7 bd a8 94 2a bc
       0.027451405 -0.045360293 -0.08178743 -0.010411419
0000b0 f7 a3 21 3d ce 81 c5 bd 71 65 41 3d e8 6e 8a 3d
       0.03946301 -0.09643899 0.047215883 0.06759435
0000c0 ff bd ee bb f4 65 7c 3d e7 99 ac bc bd 43 5a bd
       -0.007285833 0.061620668 -0.02106948 -0.053287257
0000d0 75 03 8e bd 5d bb 6f bc c2 63 87 3d 93 bc 4b 3c
       -0.06934253 -0.014632073 0.06610824 0.012435096
0000e0 4c 1e 93 bd 94 b9 82 3a 68 94 f7 3b 54 83 97 3c
       -0.07183513 0.000997352 0.007555533 0.01849524
0000f0 b0 e2 a9 3b 9c ac c0 bd 61 37 35 3c 83 45 62 bd
       0.005184494 -0.094079226 0.011060567 -0.055242073
000100 d0 3c df be 61 af 82 bc a5 11 3e bd 1a 5f a7 bd
       -0.43601084 -0.015952768 -0.046403546 -0.08172436
000110 31 ec 83 3e 18 d8 b5 bd 99 24 9b bd 15 95 8e be
       0.25766137 -0.08879107 -0.0757534 -0.27848116
000120 62 ce 85 3b 69 02 14 bd e6 b4 05 3d 3d 10 ca 3d
       0.0040834406 -0.03613511 0.03264322 0.098663785
000130 36 a5 37 3d ae 3f c2 3d b6 0c 3f 3e bb bc 87 3d
       0.04483529 0.09484802 0.18657193 0.06627794
000140 5d a4 03 3d 2b 8f c4 bc df 3f 2e be d2 f8 d0 bd
       0.03213917 -0.023994049 -0.17016552 -0.10203709
000150 6e f9 97 bc 34 e7 ac 3d 7e 5d 2b be c2 77 8b 3d
       -0.018551555 0.08442536 -0.16734883 0.06809951
000160 11 be d8 3c 22 f2 4f 3d b5 c0 16 3c 05 9b 81 bd
       0.026457818 0.050768025 0.009201218 -0.06328396
000170 12 1c bb bb d3 e2 4b 3d e4 63 d2 bc d5 21 3b bd
       -0.0057101334 0.049776863 -0.025682397 -0.04568656
000180 1a 46 e0 3d 57 d3 b5 bd 08 15 06 bd 11 76 fb 3c
       0.10950871 -0.088782005 -0.0327349 0.030695947
000190 ee b1 16 3e d3 bc c6 3d 05 8e d1 bb 51 3f a1 3c
       0.14716312 0.09703984 -0.006395104 0.019683512
0001a0 27 ef 8d bc c3 27 05 be 75 7d db bc 4d a6 8d bd
       -0.01732595 -0.13003449 -0.026793221 -0.06916485
0001b0 9b 9b b4 bd 43 cd 23 bd 3e 02 ef bc 6e 1b b3 bd
       -0.08818742 -0.039990675 -0.029175874 -0.08745466
0001c0 0d b5 f2 b8 0d ca 1a 3d a9 b4 f8 bd f7 53 cd 3d
       -0.000115731826 0.037790347 -0.12143833 0.10025781
0001d0 76 6b 98 bd 1c 52 6c 3d fa 37 0a be b1 77 f6 3d
       -0.074423715 0.057695493 -0.13497916 0.12034548
0001e0 c2 c4 f4 3c ad 0b a1 3d 80 7e c0 3a 99 7a f2 bc
       0.029878978 0.07863555 0.0014686137 -0.029599475
0001f0 85 f0 cb 3d c1 d3 0e bd 9e 5b 6e 3d 32 c2 b3 3d
       0.09957985 -0.034869913 0.05819284 0.08777274
000200 7b 9a 2f 33 da 3e 32 32 a3 03 03 b2 79 16 9a b1
       4.0885862e-08 1.0375254e-08 -7.6260305e-09 -4.4845447e-09
000210 b1 5f e8 b2 0d 1e be b2 82 3e 35 32 68 70 ed 31
       -2.705187e-08 -2.2132577e-08 1.0549799e-08 6.910387e-09
000220 52 9c 93 32 0c e5 7f 31 ac 24 6c 31 aa e2 0c b1
       1.7184139e-08 3.7237582e-09 3.4363365e-09 -2.0501525e-09
000230 4c 2f 4e 32 58 98 db 31 ec c3 72 b0 13 23 3d b1
       1.2001532e-08 6.3910583e-09 -8.831751e-10 -2.7523057e-09
000240 06 59 f3 31 54 7e a8 b0 aa c7 57 31 25 52 35 b1
       7.0823516e-09 -1.2259513e-09 3.1400114e-09 -2.638566e-09
000250 1a 8e 1b b2 dd 63 13 b1 64 eb 81 b1 91 70 1e b2
       -9.054498e-09 -2.144808e-09 -3.781155e-09 -9.222405e-09
000260 98 56 be 31 c9 ac f0 b1 ba 8c b8 30 54 ee e5 b0
       5.5395724e-09 -7.0045627e-09 1.3427759e-09 -1.672968e-09
000270 96 f1 4a 31 90 df da b1 b9 42 e1 b1 86 0f 11 b2
       2.9532194e-09 -6.370051e-09 -6.5559473e-09 -8.4436405e-09
000280 53 ce ba 30 2e ca 37 b2 46 e9 81 b2 73 58 60 b1
       1.3591922e-09 -1.0697972e-08 -1.5123657e-08 -3.2646568e-09
000290 56 20 21 32 a8 14 d7 b1 e0 7d 8d b1 75 99 81 31
       9.378786e-09 -6.259672e-09 -4.1179504e-09 3.77184e-09
0002a0 5d 5d 60 b2 83 3d eb b1 35 fd 2f 32 d9 fa b9 31
       -1.3059744e-08 -6.8463932e-09 1.0243913e-08 5.4127267e-09
0002b0 bc 0b a0 b1 41 73 5e 32 19 d0 d5 31 17 5f 2b 31
       -4.657947e-09 1.2948306e-08 6.222774e-09 2.4937827e-09
0002c0 ef 95 a2 ae 5a 61 4a b2 e4 07 86 32 f3 0f a6 30
       -7.3935406e-11 -1.1780083e-08 1.5603241e-08 1.2082623e-09
0002d0 e2 f1 5e b1 e2 f1 21 31 f8 af 42 32 58 84 42 b1
       -3.2442746e-09 2.3566078e-09 1.1332297e-08 -2.8305944e-09
0002e0 56 49 5b 32 39 ba 66 b1 74 0b 99 ae fc 54 8e 31
       1.2764152e-08 -3.357526e-09 -6.959669e-11 4.1424055e-09
0002f0 28 7c 71 32 09 6b 0e 31 44 8d 33 ad 56 5b 11 b2
       1.4056276e-08 2.0724562e-09 -1.0206339e-11 -8.460878e-09
000300 de 18 97 3d 3b 56 d1 3d f6 9b 87 3d 3d e5 d6 bc
       0.0737779 0.10221525 0.06621544 -0.026232356
000310 81 67 05 bd c9 79 53 bd dd 67 10 3b 00 f4 cb 3c
       -0.032569412 -0.051629815 0.0022034564 0.024896622
000320 fa 61 e0 3c 49 57 b8 bd b9 a4 a1 3c 65 5d 2c 3c
       0.027390469 -0.09001023 0.019731866 0.010520314
000330 d4 90 2b 3d 79 33 81 bd 05 34 69 3c 45 a9 95 3d
       0.041886166 -0.06308646 0.014233594 0.07307676
000340 ef d8 ea 3a dc 98 5b 3d 0f ad 31 bc c5 6c 83 bd
       0.0017917434 0.053612575 -0.010844483 -0.064172305
000350 31 ad a1 bb fe 14 85 bb 52 ca c6 bd 2a a5 57 bc
       -0.004933976 -0.0040613404 -0.09706558 -0.013161937
000360 d4 fe a7 bc 10 9f a5 bb 76 3a a9 bc c8 5a ad 3b
       -0.020507254 -0.005054362 -0.02065776 0.005290363
000370 14 a5 37 bd c8 68 84 3d 54 7c 01 bd ea be c2 bb
       -0.044835165 0.06465298 -0.03161271 -0.005943169
000380 11 da 3e bd d7 82 82 bc 82 de 4b bd 39 d0 9d bb
       -0.046594683 -0.01593153 -0.049772747 -0.004816082
000390 e7 1c 9b bb dc 38 ab 3c 79 ad ac 3c dc 94 33 3d
       -0.00473367 0.020901136 0.021078812 0.043843135
0003a0 95 63 99 3b 7b d8 5a bc c4 34 22 bd 4e 38 dd 3b
       0.0046810606 -0.013357277 -0.039601102 0.006751097
0003b0 95 b0 2e bd 24 c2 dd bd bc 06 4e 3d c8 86 1d 3d
       -0.04264887 -0.10828045 0.05029939 0.038458616
0003c0 74 6b 35 bc bc 58 95 bc 25 4a f7 bb a3 04 07 bc
       -0.011072982 -0.018230788 -0.0075466805 -0.008240852
0003d0 95 67 cf 3b 8c a3 ea 3c 96 cc ea 3c dc 6a 3b bc
       0.0063294866 0.028642438 0.028662007 -0.0114390515
0003e0 9a a9 21 bc bc 68 fb bc ab 8c 53 3d 36 47 ec bc
       -0.009867096 -0.03068959 0.051647823 -0.02884255
0003f0 77 02 24 bc 62 47 85 bd 65 fd 51 bc d1 21 42 bc
       -0.010010353 -0.06507756 -0.012816762 -0.011848883

conv1.lin_pos_r.weight f4 [32, 64]
000000 46 c8 08 3f fe 64 9e 3d ab 1f 7a 3e 15 c9 26 bc
       0.53430593 0.077341065 0.24426143 -0.010179778
000010 ea 0b 0e bb ee 5f b0 3c 00 33 15 be 84 b6 96 bd
       -0.0021674582 0.021530118 -0.14570236 -0.07359031
000020 4f c2 db bd 66 88 40 3d eb fd 03 be 72 42 55 3d
       -0.10730421 0.04700508 -0.12889831 0.05206532
000030 28 42 17 be 18 09 61 3e 9c d3 92 3c 1b a9 80 3c
       -0.1477133 0.21976125 0.017923169 0.015705636
000040 df 1b 22 bd 7c 61 88 3d d1 21 f9 bc 1c a2 a1 3c
       -0.03957736 0.06659219 -0.030411633 0.01973062
000050 0d 4d ee bd ea 08 d3 3c e6 c6 55 bd ba bc a1 bd
       -0.1163579 0.025761086 -0.052191637 -0.07897325
000060 11 e2 32 be e3 c1 18 bd 0a eb 62 bd 59 06 b6 bc
       -0.1746905 -0.03729428 -0.055399932 -0.022219824
000070 77 ca 64 bd 15 3d 98 3c e7 6b 8e bd f9 f7 48 3d
       -0.055857148 0.018583814 -0.069541745 0.04906461
000080 f1 3d bf 3c 04 0d 5c 3c 72 14 f2 3c ee 0f a0 bb
       0.023344966 0.013430838 0.029550765 -0.0048847115
000090 42 b6 82 3d d2 cc be 3a 23 d1 02 bd 5f 80 df 3d
       0.06382419 0.0014556891 -0.03193773 0.10913157
0000a0 b7 8f 1d 3d 97 8f 9e 3c 30 22 4f 3c d7 82 84 bd
       0.038467135 0.019355578 0.012642428 -0.06470268
0000b0 b1 02 53 be ca 53 68 bc 37 51 fb 3d 6b 63 9e 3c
       -0.20606495 -0.014180133 0.1227135 0.019334516
0000c0 aa 9b 27 3d 56 58 12 3d 1d a3 4b be 4e ce f4 bc
       0.040919937 0.035728775 -0.19886442 -0.02988353
0000d0 e5 34 18 bc 25 c2 ba bd 5f 15 6a 3c c7 b2 d2 bd
       -0.009289955 -0.091190614 0.014287322 -0.10288005
0000e0 bc 5f 73 3c ac 3f be 3d 16 08 be 3a f7 aa ac bd
       0.014854368 0.09289488 0.0014498259 -0.084310465
0000f0 28 df 63 bc 3b 54 0b bc 8c ee da 3c 6b 94 30 bd
       -0.013908185 -0.008503969 0.026725076 -0.043110292
000100 f4 0a b9 bf a0 5c 44 be f6 e7 fe be a3 13 4f be
       -1.4456468 -0.19175959 -0.49786347 -0.20222335
000110 b5 14 3a 3f 6c 93 a8 be 9d 6e 34 bd cb ef df 3d
       0.72687846 -0.32924974 -0.0440508 0.10934409
000120 fb 2d 11 be ff e7 18 be bc df d6 3c 8b 37 09 3c
       -0.14177696 -0.1493225 0.026229732 0.008375059
000130 aa ee 9c 3d f9 5b 58 3e d4 11 06 3d 5f 77 4b 3d
       0.07662709 0.21128835 0.032731846 0.049674388
000140 ec 13 ba bd b2 01 64 3e fb 39 eb bd 13 c5 fd 3d
       -0.09085831 0.22266272 -0.11485668 0.123911045
000150 50 29 10 3e 83 ab ac bd ea 23 80 bd 9f b0 85 bc
       0.1407826 -0.08431151 -0.0625685 -0.016319571
000160 cb 01 36 3d 6c b3 f3 3c 5d f6 a4 3d 71 23 88 3d
       0.044435304 0.029748641 0.080548026 0.06647385
000170 a6 64 47 3d 8f 36 9a 3c 72 65 be bd a9 ef a8 3d
       0.04867997 0.018824844 -0.09296693 0.082488365
000180 76 a2 cb bd b3 6a 38 bd ee a1 f5 3c c8 04 2e bd
       -0.09943096 -0.04502363 0.02998444 -0.04248503
000190 d3 37 af 3d 3d e4 8d bc 96 78 31 bd c2 a7 b9 3d
       0.085555695 -0.017320747 -0.04332789 0.090652004
0001a0 0e 37 aa bc 4f ac 1b bd ad 00 d0 3c 03 fa 21 3e
       -0.020778205 -0.038006123 0.025390947 0.15818028
0001b0 47 02 33 3d 43 4c e2 bd d1 ed 4a bd a6 e3 a5 bd
       0.043703344 -0.11049702 -0.049543206 -0.08100061
0001c0 fc ea 5a 3c ce 08 4b 3d 38 cb 85 39 1e 0d e0 3d
       0.013361689 0.049568944 0.00025519147 0.10940002
0001d0 2f 07 11 be 5a de f7 3d 39 b9 0a 3e 24 98 99 bd
       -0.14162897 0.12102957 0.1354722 -0.07499722
0001e0 b0 6a 36 3c 1c 51 1e be b0 9c ef bc 4c ce c1 bc
       0.011133835 -0.15460628 -0.02924952 -0.02365794
0001f0 a3 ab 36 3e 82 8b 40 ba 7c a2 82 bd 25 02 cb bd
       0.17838912 -0.0007345007 -0.06378648 -0.099125184
000200 d5 72 4d b2 4f 60 55 b1 a2 30 e7 31 f8 2a d3 31
       -1.195868e-08 -3.1050325e-09 6.7285137e-09 6.145793e-09
000210 c8 27 0b b2 0a f8 29 b1 78 47 37 32 87 47 52 32
       -8.09991e-09 -2.473373e-09 1.0668252e-08 1.2239872e-08
000220 e2 d1 3a 32 21 56 86 32 2d 18 36 b2 83 e5 83 32
       1.0874347e-08 1.563882e-08 -1.0599291e-08 1.5354777e-08
000230 ab 26 e4 b1 20 c7 a5 b1 e6 80 2f 32 af c6 b6 b1
       -6.6400694e-09 -4.82477e-09 1.0215649e-08 -5.319485e-09
000240 29 d2 33 af 69 65 ae 30 8d ea 8a 30 7a 9a 05 b2
       -1.6354619e-10 1.2688989e-09 1.0107485e-09 -7.776743e-09
000250 24 35 89 b1 f0 e9 17 b2 73 26 59 b2 47 e2 3b 31
       -3.993266e-09 -8.842548e-09 -1.2639805e-08 2.7340705e-09
000260 32 b8 75 31 b8 c4 ac 31 b9 01 f5 31 07 18 5b af
       3.5756895e-09 5.028223e-09 7.1306343e-09 -1.992647e-10
000270 df fb d8 31 71 92 d7 b1 e0 2b c8 31 26 36 7d b2
       6.315062e-09 -6.273972e-09 5.825754e-09 -1.473885e-08
000280 63 26 9c 32 1c af bc 32 f0 4c 34 32 fe a2 68 b2
       1.8178246e-08 2.1965711e-08 1.04948725e-08 -1.35412375e-08
000290 34 a6 45 32 db d3 c8 b1 6b 1a 11 32 c7 77 25 31
       1.1504699e-08 -5.8448513e-09 8.446118e-09 2.4078746e-09
0002a0 21 01 2e 32 e9 7f ee 31 b4 df 3f b2 ff ad a1 b2
       1.012839e-08 6.9412533e-09 -1.1168527e-08 -1.8821991e-08
0002b0 8c 40 3b b2 c3 b8 af b1 43 40 32 32 de e3 57 30
       -1.0899509e-08 -5.1141753e-09 1.0375575e-08 7.8540363e-10
0002c0 bc 04 5c b2 5f 57 54 32 3f 87 2a 32 19 40 ba b0
       -1.2806762e-08 1.235989e-08 9.926054e-09 -1.3551499e-09
0002d0 40 32 17 32 a8 b2 1e b2 81 1c b3 b1 46 d2 04 32
       8.800782e-09 -9.237432e-09 -5.212826e-09 7.731222e-09
0002e0 54 df f8 31 b7 9c 52 32 e2 31 e0 b1 a3 bc 18 b2
       7.2431394e-09 1.2259242e-08 -6.524929e-09 -8.8904555e-09
0002f0 d3 91 07 32 a7 f1 87 31 b6 aa 4e 32 f1 fb 86 31
       7.891191e-09 3.95649e-09 1.2029593e-08 3.9285557e-09
000300 10 3e 11 3f 1e 6c 92 bd 5c f9 d4 3e 44 95 1b 3e
       0.56735325 -0.07149528 0.41596496 0.15193659
000310 fb 2e b2 bc 6d 82 8f 3d f0 7f 3f bd 10 3a 03 be
       -0.021750918 0.070072986 -0.04675287 -0.12815118
000320 1b c3 3e bd 54 4a 95 3e 57 ea a3 bd b7 09 ef bd
       -0.046572786 0.2915827 -0.08003681 -0.11671775
000330 c3 21 f0 bd 2e d4 68 3e 05 eb d5 3d 81 0c c3 3d
       -0.117251895 0.2273719 0.10445217 0.09523869
000340 50 7a b7 3c 0c 4b 9a bb be 6b cb bd a5 47 9c bd
       0.02239719 -0.0047086533 -0.099326596 -0.076308526
000350 b0 ca 9b bc b4 ec 29 bc 25 1b 74 be f2 31 93 bd
       -0.019017547 -0.010371376 -0.2383848 -0.07187261
000360 ed 14 d7 bc 31 39 3a 3d de 9c 43 be c6 06 ff bc
       -0.026255095 0.0454647 -0.19102809 -0.03113116
000370 b3 b0 b4 3c 77 47 11 be 3c 29 55 3e 89 54 88 bd
       0.022056913 -0.14187418 0.20816511 -0.06656749
000380 ca 10 8e 3d 74 0e 5f 3d 09 cf 1a be 5e 51 8b 3d
       0.06936796 0.054457143 -0.1511804 0.06802629
000390 6d 83 93 bc 3d aa f2 bd 3e 2c d4 bb 6c 3a 2c 3d
       -0.018007005 -0.118488766 -0.0064750006 0.042047903
0003a0 3c d3 d5 bd b2 a2 64 3d 06 9a 0a bd 14 0a a5 3d
       -0.104406804 0.05581922 -0.033838294 0.08058563
0003b0 1d 7e 02 3d f2 19 ca bc c8 00 5b bd e1 6a 8d bc
       0.031858552 -0.024670575 -0.053467542 -0.017262878
0003c0 de 87 4f bd 84 60 c6 bc 66 fd e0 bd 3c 55 95 bd
       -0.050666682 -0.024215944 -0.10985832 -0.07291648
0003d0 45 15 01 3c c0 a8 31 bd 53 ca b0 bd 3e 85 ea ba
       0.007878606 -0.043373823 -0.0863234 -0.0017892492
0003e0 5f 32 1c 3e ff d7 f4 bb f2 56 6c bc e1 a4 d1 bd
       0.1525359 -0.007472038 -0.014425026 -0.10236526
0003f0 50 36 b3 3c 51 f1 93 bc f3 ab 56 3c dc 05 a3 3c
       0.021876484 -0.018059405 0.013102519 0.019900255

conv1.lin_pos_r.bias f4 [32]
000000 91 ff 96 3d be 5d b4 3c 27 84 b1 bc 5e 70 9d 3d
       0.07372964 0.022017356 -0.02166946 0.07687448
000010 21 39 97 b7 56 02 03 3a c5 3f e6 3c b4 ae 48 b5
       -1.8027205e-05 0.00049976015 0.02810658 -7.476003e-07
000020 92 91 86 3c d1 e8 ab 3c 23 e6 c3 3c 17 14 06 bd
       0.016426835 0.020985039 0.023913449 -0.032734003
000030 4a 9a d1 bc be 11 92 bc c4 85 6e bc dd 9c 9c 3a
       -0.025586266 -0.017830726 -0.014558259 0.0011948604
000040 68 81 5a bd 75 4e ed bc c3 b2 20 bd 9e 93 50 3a
       -0.053346068 -0.028968075 -0.03923298 0.0007956567
000050 03 b2 0d bd 69 e8 3e 3d 3f 74 6e bd ba 26 25 3d
       -0.034593593 0.046608362 -0.05821633 0.040320136
000060 b3 62 48 bb 15 c5 a8 ba a9 99 97 3d 71 71 6a bd
       -0.0030576407 -0.0012876118 0.07402355 -0.057237092
000070 5c c6 52 bc 4d 48 47 bd e2 82 b3 3c 51 75 9f ba
       -0.012864675 -0.048652936 0.021912996 -0.00121657

conv1.lin_neg_l.weight f4 [32, 64]
000000 97 5f e7 ae 3a f3 9c 31 e9 96 47 b2 59 7d 06 32
       -1.0521644e-10 4.567849e-09 -1.16176375e-08 7.828327e-09
000010 79 4e 0d 32 4d 57 1f 32 ae fc 4b b1 00 1d b7 b2
       8.225123e-09 9.274868e-09 -2.968402e-09 -2.1317192e-08
000020 e0 76 40 30 80 1f 6a 31 20 3b f7 b1 c6 39 22 31
       7.0018125e-10 3.4069387e-09 -7.195368e-09 2.3606943e-09
000030 57 10 3e 32 dd 16 0a b3 8d 9b fd b0 53 9a 18 32
       1.1063171e-08 -3.2151423e-08 -1.8452383e-09 8.882654e-09
000040 87 0d f1 b1 8b ca 2b 32 af ce 9e b0 35 a3 49 b1
       -7.015561e-09 9.999563e-09 -1.1554756e-09 -2.9342122e-09
000050 c6 f2 46 31 a6 58 12 32 5c 6e 17 2f 88 c9 5a b2
       2.8950793e-09 8.518475e-09 1.3772578e-10 -1.2735093e-08
000060 31 c4 b7 b0 be ad 65 b2 3b 81 92 32 b6 88 8d b2
       -1.3370763e-09 -1.3369059e-08 1.7055404e-08 -1.647673e-08
000070 ea ac 24 b2 5a 5e b0 b0 aa f0 35 b1 5d 40 45 b2
       -9.5853725e-09 -1.2832502e-09 -2.6475768e-09 -1.1481544e-08
000080 98 7c 5c b2 a5 9b a6 b1 d8 a6 45 b1 b1 37 26 31
       -1.2834015e-08 -4.8489306e-09 -2.8762113e-09 2.4187836e-09
000090 65 dc 5c 31 0f 0f ea b1 f0 33 e8 b0 22 06 ca 31
       3.2139493e-09 -6.8120083e-09 -1.6894983e-09 5.879671e-09
0000a0 1f 7f 05 b1 91 29 85 32 11 30 e8 b1 32 d8 54 b1
       -1.9426307e-09 1.550214e-08 -6.757553e-09 -3.0972953e-09
0000b0 65 91 cc 31 5d 71 60 b1 dc 90 68 b2 f0 f9 63 32
       5.953711e-09 -3.266073e-09 -1.35371145e-08 1.3269968e-08
0000c0 9a 7e 5b 30 2e ef 83 32 df 67 99 32 96 a4 1b 32
       7.985165e-10 1.5359173e-08 1.785878e-08 9.05961e-09
0000d0 35 f6 50 b1 a0 f1 3e 32 4f 3e 8f b0 24 b2 95 b1
       -3.0407936e-09 1.1114395e-08 -1.0422329e-09 -4.356723e-09
0000e0 4d ee 56 b1 5c 66 b3 31 e3 0f 2c 31 fb 3b 55 31
       -3.1276557e-09 5.2212226e-09 2.5038325e-09 3.1029674e-09
0000f0 d7 be 30 31 20 a4 09 b2 06 fe a9 31 17 b4 ab 32
       2.571985e-09 -8.011767e-09 4.9474265e-09 1.9988915e-08
000100 7c 28 e3 bb 91 df df bb 71 31 c6 3c 60 87 23 3d
       -0.0069323163 -0.006832071 0.024193497 0.039924026
000110 9c 14 0c bd 3c b9 c9 bc 87 e9 e9 bc aa 32 c9 3c
       -0.034199342 -0.02462446 -0.028553737 0.024560291
000120 65 ab f5 bc af 06 c2 3b 94 5a ee 3c 3b c4 0c 3c
       -0.029988954 0.005921207 0.029095925 0.008591707
000130 66 e7 4f 3d 8c ce 64 bc 8e 81 64 3b e8 b6 47 3d
       0.050757788 -0.01396526 0.003486726 0.048758417
000140 8b 02 28 3d a3 a7 55 3d a6 41 78 3d 12 91 11 3d
       0.04101805 0.052161824 0.060609482 0.03553874
000150 d1 2a d2 3c e3 9b b6 bc 31 4c 9f bd 69 22 30 bd
       0.025655182 -0.02229113 -0.07778204 -0.043001566
000160 f6 68 a1 bc 1b 63 95 bc c7 3c 4a 3b 98 e7 74 3d
       -0.01970337 -0.018235734 0.003085898 0.059791178
000170 19 cc 23 bd d4 9f 01 3d 6b de ef bc 42 37 7c 3d
       -0.039989565 0.031646565 -0.029280862 0.061576135
000180 1c f0 7b bb 07 99 73 3c 85 0e 53 3d 21 15 3c 39
       -0.0038442677 0.0148680275 0.05152752 0.00017936948
000190 8a 4c 8e 3c 58 76 b5 3c 5d ef 03 bd 7d 14 14 3d
       0.017370481 0.022151157 -0.032210696 0.03615235
0001a0 dc 72 36 bc af 9c 0e 3c b4 ef 8c 3b bf 59 1b 3c
       -0.011135783 0.0087043485 0.004301036 0.009481846
0001b0 ff 5e 94 3a 22 40 29 3d f3 9b bf 3c 8c 57 89 3d
       0.0011319815 0.041320927 0.023389792 0.06706151
0001c0 4d 81 ab 3c 4d d3 ab bc b0 88 6a bd 17 81 40 bd
       0.020935679 -0.02097478 -0.05725926 -0.04699811
0001d0 7c 3c 8a 3c b6 5b 08 3b dc ef fd bb 80 44 82 bd
       0.016874544 0.0020806617 -0.0077495407 -0.063607216
0001e0 b0 c3 18 bd 24 e2 83 bb 0b da 08 3d 7f 34 97 3c
       -0.037295997 -0.004024761 0.033411067 0.01845765
0001f0 dc bc 89 3c e3 f3 bd bc 9f aa 10 3d 39 96 7b 3c
       0.016813688 -0.023187583 0.035318967 0.01535564
000200 2b 71 d2 be 59 82 32 bd c5 6e 83 be d4 23 63 bc
       -0.41101965 -0.04358134 -0.25670448 -0.013863523
000210 fc 16 2a 3e ec 16 cc 3a a6 8e 0e 3d 65 a7 f3 3b
       0.1661033 0.0015570796 0.03480401 0.0074357265
000220 1a 5f 0e be b1 77 9d 3d 35 86 18 bc 4c 46 48 3e
       -0.13903466 0.07688845 -0.009309341 0.19558066
000230 78 22 a4 ba e4 a5 50 3c 07 f1 27 be b1 83 a2 3d
       -0.001252248 0.012734864 -0.16400538 0.079352744
000240 5d 5b aa bd c6 43 bf 3d f9 ee 58 be 81 a9 57 3e
       -0.083182074 0.09339099 -0.21184911 0.21060754
000250 28 7c 42 3e 04 f7 fd bc a3 f0 b6 bd ca cf 19 3e
       0.18992674 -0.031001575 -0.089326166 0.15020671
000260 e8 f5 28 3d ff ca df bd 94 1a 0a 3e e7 4b 53 be
       0.04125014 -0.1092739 0.13486701 -0.20634423
000270 bf f5 28 3c 6b 84 50 3d d4 b4 00 3d 6c a9 af bd
       0.010312497 0.050907534 0.03142245 -0.085772365
000280 ae 8b 87 3d 33 b5 92 3e f8 e2 00 3d fd 1a ac bd
       0.06618439 0.2865387 0.031466454 -0.08403585
000290 27 de 74 bd 08 f8 4c be 77 17 75 bc f7 e4 b9 bd
       -0.059782173 -0.20016491 -0.014959208 -0.09076875
0002a0 d5 e4 cb 3c 11 c0 67 be 27 e9 8d 3d b5 e8 9b 3c
       0.024889389 -0.22631861 0.06929236 0.019031862
0002b0 41 ce 90 be 20 c5 42 be 66 2a 24 be b5 25 75 bd
       -0.2828236 -0.1902051 -0.16031799 -0.059850413
0002c0 48 86 12 3d fc 28 7c bd d2 64 33 be 17 b9 e5 bc
       0.03577259 -0.061562523 -0.17518929 -0.02804236
0002d0 c9 29 3a 3e 6b 1f e5 3d ad eb a3 bd 69 e6 89 bc
       0.18180002 0.11187633 -0.08003936 -0.016833501
0002e0 85 57 9b 3c 2b e9 08 3d 0e 7a ff 3d 62 74 f4 bc
       0.018962631 0.03342549 0.12474452 -0.029840652
0002f0 84 bc c4 3c 67 67 06 be 7f c1 4b 3e aa 66 b8 3d
       0.024015673 -0.13125382 0.19898032 0.090039566
000300 d1 b8 7f bd 35 b4 8b 3d 94 19 55 bd b0 25 7b bd
       -0.062432114 0.06821481 -0.052026346 -0.06131524
000310 45 ea 96 bc a1 6e 42 3d a9 1d d3 bc 4d 0c 39 3d
       -0.018422255 0.047468785 -0.025770979 0.045177747
000320 cf 84 ce 3c 97 88 60 3d ef 17 3c bd db 83 85 3d
       0.025209812 0.054817762 -0.045921262 0.0651929
000330 f3 11 39 bc 44 e1 0d 3d fd 2b 65 3d 3e f1 74 3c
       -0.011295783 0.03463866 0.055950154 0.014950095
000340 ab 32 01 3d f1 d7 57 bd 58 6f b7 bb 57 cd bf 3d
       0.03154246 -0.052696172 -0.00559799 0.09365337
000350 d6 35 dd 3c a3 19 24 bd e3 59 92 3d 92 6b 0f bd
       0.02700321 -0.04006351 0.07146051 -0.035014696
000360 78 11 5a 3d 58 f8 ca ba 45 f1 b5 3c e8 a7 9b ba
       0.053239316 -0.0015485389 0.022209773 -0.0011875601
000370 12 00 7d 3d 6a 81 27 3d f6 b1 79 3d eb b8 28 bd
       0.061767645 0.040894903 0.060960732 -0.041191977
000380 56 e7 4c 3d 4b 23 0c bd 2c 8c 0b bc 8e 8d 3f bd
       0.050025307 -0.034213345 -0.008517306 -0.046765856
000390 35 d0 04 3b d7 be a8 3c a1 d5 26 3d c5 7f 5e 3d
       0.0020265703 0.020598812 0.040731076 0.05432107
0003a0 ea e8 16 3c 1d b1 73 bc 6f f6 91 3c 1a 7e 3a bd
       0.0092108045 -0.01487377 0.017817704 -0.045530416
0003b0 f8 39 0f bc 8a 9e 6e 3b 90 94 3c bc 1c 62 4c bd
       -0.008741848 0.0036410415 -0.011510029 -0.049898252
0003c0 c6 41 05 3d ca ac 20 3d 74 00 9d 3d 1f 4f 30 3b
       0.03253343 0.039227284 0.07666102 0.0026902629
0003d0 e6 aa 11 3d b0 bb 7d 3c 5d 38 d2 bc a9 f3 5a 3d
       0.035563372 0.015486643 -0.025661642 0.05345503
0003e0 d4 28 c5 bc d9 11 46 bc b2 5e a8 3c 11 ab 79 bd
       -0.02406732 -0.012089216 0.020552967 -0.060954157
0003f0 8d db 8c 3c 96 8d 1a bd a1 cf ae bc ec 78 5b bd
       0.017194534 -0.037732683 -0.02133924 -0.053582117

conv1.lin_neg_r.weight f4 [32, 64]
000000 a6 f8 15 b3 5c 7d d8 31 14 6a 86 b2 e2 3d a9 31
       -3.491791e-08 6.300679e-09 -1.5647892e-08 4.9255826e-09
000010 12 e2 7d b1 24 ff 0b 32 72 aa 92 32 32 1d 3e 32
       -3.6944852e-09 8.148877e-09 1.7074147e-08 1.1066094e-08
000020 6d 1d 29 32 d2 36 47 32 36 56 f7 31 c7 ac 34 b1
       9.843785e-09 1.1595789e-08 7.198447e-09 -2.629166e-09
000030 3e c2 7a b2 64 4c 84 32 0b e5 5d 31 3e 18 8a b0
       -1.4596081e-08 1.5401561e-08 3.2289929e-09 -1.0047712e-09
000040 05 44 6c b2 e1 2a 87 32 3f f4 df b1 13 ed 82 b2
       -1.3752474e-08 1.5735568e-08 -6.5179218e-09 -1.52418e-08
000050 50 6a 8f b2 15 11 31 32 4e 47 93 32 cc c1 5a 32
       -1.6695736e-08 1.030664e-08 1.7145478e-08 1.2733334e-08
000060 fb cc 50 b1 b4 47 41 b2 f3 43 ae b1 18 ce 80 b1
       -3.0384502e-09 -1.1250382e-08 -5.0717914e-09 -3.7487204e-09
000070 8c ad 75 b2 48 8f b8 b2 3d c2 44 b1 1d fe 1f 32
       -1.4300337e-08 -2.1485576e-08 -2.8632166e-09 9.312797e-09
000080 8a 16 da 30 65 cd 97 32 bc b8 dc 31 25 b3 3e 31
       1.5867994e-09 1.7672116e-08 6.4238446e-09 2.775047e-09
000090 1a c7 42 b2 00 b3 1e b1 23 0c 6e 32 40 43 76 32
       -1.1337557e-08 -2.3093776e-09 1.3856183e-08 1.43343755e-08
0000a0 39 0b 5b b2 24 ec 95 32 98 2c 1a 31 eb bb 9e b2
       -1.27500295e-08 1.7453267e-08 2.2435298e-09 -1.8479076e-08
0000b0 c9 b1 9b 31 73 76 94 b1 a7 03 0b b2 66 9e 11 b0
       4.5313056e-09 -4.320833e-09 -8.091695e-09 -5.297579e-10
0000c0 bd dd 2e b2 d8 64 56 b2 a1 e1 15 af f9 0c c2 b1
       -1.01785504e-08 -1.2479369e-08 -1.363163e-10 -5.647618e-09
0000d0 f9 5e 7b 31 14 f4 9d b2 e3 da 6f b2 76 7f 9b b2
       3.6579293e-09 -1.83882e-08 -1.39614e-08 -1.8102337e-08
0000e0 4a d2 11 30 59 fe 48 b2 40 74 6e b2 a8 03 d0 b1
       5.304953e-10 -1.1699364e-08 -1.38798555e-08 -6.0540124e-09
0000f0 cf c5 14 b2 d4 6b 64 32 4c 6d 82 30 57 8f 9d b1
       -8.65971e-09 1.3295864e-08 9.489809e-10 -4.5855972e-09
000100 13 11 b7 3d b6 7a 86 3c 05 93 4f bd b8 b3 c8 bc
       0.089388035 0.016415935 -0.050677318 -0.02449976
000110 7c ec 00 3e 34 9b 40 3c 81 74 ea bb bf 91 05 bd
       0.12590212 0.011755753 -0.0071550016 -0.032609697
000120 c9 56 18 3c bc 67 30 3d 1c ad f0 bd f9 f3 c1 3c
       0.009298035 0.04306768 -0.11751768 0.023675906
000130 4f c0 a6 3c 3f e5 05 3e 50 e2 b7 bc 0f 47 48 bd
       0.020355372 0.13075732 -0.022446781 -0.04889589
000140 35 80 0b bd d6 a1 c0 bd f5 21 c7 3b 41 09 70 bd
       -0.034057815 -0.09405868 0.006077046 -0.058602575
000150 07 68 a6 bd 3b 90 8c 3c 3f 9e 2b 3c a6 5f 7d bd
       -0.081253104 0.017158618 0.0104747405 -0.061858796
000160 4a cd 9c 3d 13 1e 05 3d 57 31 e5 bd 98 8a f7 bd
       0.07656343 0.032499384 -0.111910515 -0.120869815
000170 b0 01 23 3d 86 2c 23 3d 6e 91 9d bd d3 43 e1 3c
       0.03979653 0.039837383 -0.07693754 0.027498161
000180 9f 2f af 3d af 41 7f 3d f0 45 af bc 10 32 54 bb
       0.08554005 0.0623185 -0.021395653 -0.0032378472
000190 29 ac 40 bc 53 85 95 bd 4a 48 cc bc 6b 23 71 39
       -0.011759796 -0.0730082 -0.024936814 0.00022996745
0001a0 45 d8 24 3e ec 4a 0b 3b ab b6 83 3d 7f 90 3b 3d
       0.16098125 0.0021254374 0.064313255 0.0457921
0001b0 cd ad d0 bc 42 df c2 bd 3c 72 c3 bd b1 01 b2 bd
       -0.0254735 -0.09515239 -0.09543273 -0.08691729
0001c0 25 2b 0e bd 3d 0f 93 3c 12 a3 12 3e 9f 24 e1 bd
       -0.034709115 0.017951602 0.14320019 -0.10993313
0001d0 22 ea f6 bc 28 92 35 bd 66 0a 5e 3d cf e0 0e 3d
       -0.03014094 -0.04432884 0.054209135 0.034882363
0001e0 dc 72 e3 3d 0f 24 da bc 7f c2 11 3d 77 8c cd bd
       0.11105892 -0.026628522 0.035585877 -0.10036557
0001f0 76 68 94 bc 65 2e 3a bd b1 64 9b bd d6 d5 a8 bd
       -0.018116217 -0.0454544 -0.07587565 -0.08243911
000200 a5 be 17 3e 85 59 fb bd 4e 00 58 bd 0f c0 05 be
       0.14818819 -0.12272934 -0.052734666 -0.13061546
000210 30 1a d4 3d cc c7 8e 3d d5 cf 0a 3e 33 43 78 bd
       0.10356557 0.06971702 0.13555844 -0.06061096
000220 7e 9b 69 3c d8 74 97 bd 49 3a 89 3d 0a b2 32 3d
       0.014258264 -0.07395333 0.0670057 0.043626823
000230 68 ab 31 bd 66 0f 4d 3e d0 95 b8 3d a9 bb 9b bd
       -0.043376356 0.20025405 0.090129495 -0.07604153
000240 50 fd 3b bd 17 d2 45 3d 61 5f 6a 3d fe de bb bd
       -0.045895875 0.04829606 0.057219867 -0.09173392
000250 75 2d 5b 3d b8 25 53 bc a7 25 3e 3d 55 d2 28 bd
       0.053510148 -0.012887411 0.046422627 -0.041216213
000260 13 38 07 3d 6a 90 8e 3d 5e 65 cf bd a8 21 b3 bd
       0.03301246 0.069611385 -0.10126756 -0.08746654
000270 17 da 6a bd 49 0c f0 3d b1 fb bb bc 87 a0 d6 bd
       -0.057336893 0.11721093 -0.022947164 -0.10479837
000280 3b 9d dd 3d 74 6b 10 be 98 80 23 bd 77 db d4 39
       0.10821005 -0.1410349 -0.03991756 0.00040599305
000290 85 a7 9f bd 11 24 a6 bb 2a d1 27 3e 17 07 b4 bd
       -0.07795624 -0.0050702174 0.16388384 -0.08790415
0002a0 35 f6 9f bc 09 15 cf 3a a9 96 43 3b 93 7d fa bd
       -0.01952658 0.0015799116 0.002984444 -0.12230983
0002b0 cd 7b d3 bd b4 fe ac 3b 24 cf 80 3d 29 2e 12 be
       -0.103263475 0.0052793864 0.06289509 -0.14275421
0002c0 71 89 15 be c6 63 bc 3d 72 59 ae 3d c5 78 8d bd
       -0.14603211 0.09198718 0.08513154 -0.069078006
0002d0 17 24 c5 bd 85 08 29 be a3 80 36 bd 68 05 a8 3d
       -0.09626024 -0.16507156 -0.04455627 0.08204156
0002e0 95 8d 14 3e e9 9f 9e bc 1d 00 34 3c 64 c4 2d bd
       0.14507134 -0.01936336 0.010986355 -0.04242362
0002f0 07 84 0f 3d 77 1f 4c bb ed 5b ce bd 14 9d 32 bd
       0.03503802 -0.0031146684 -0.10076127 -0.043606833
000300 9e 56 48 be 96 f9 9a 3d 34 75 58 bd 85 03 e1 3c
       -0.19564292 0.07567136 -0.05284615 0.027467499
000310 3e e6 0d 3e 9a c7 08 be f4 eb 23 be f4 22 e6 3d
       0.13857362 -0.13357392 -0.16007978 0.112371355
000320 4d c9 de 3c 68 bc 4a bd 39 76 e4 bc a2 f1 42 bc
       0.027195597 -0.049496084 -0.027888404 -0.01189843
000330 d8 e6 6c bc 0e a8 a6 bd 4e a6 d2 bd 7d a6 f1 3d
       -0.014459334 -0.08137523 -0.10285626 0.11799333
000340 be 3b 11 be 6f ca 50 3e 19 68 25 bd 8e cb 1a 3c
       -0.14182946 0.20389722 -0.04038248 0.009447945
000350 99 bb d3 3c d4 22 31 bd 49 3f 33 bd 07 5d 44 bd
       0.02584629 -0.043246105 -0.043761525 -0.04794028
000360 3e 09 19 be 22 d0 2d 3c e7 42 5d bd 6d 7b 13 3d
       -0.14944932 0.010608705 -0.05401888 0.03600638
000370 9a 46 c2 bd a6 26 ae bd cd 84 70 3d d1 ce 82 3c
       -0.094861224 -0.08503465 0.0587204 0.015967758
000380 5d 3e 70 bd fe d0 09 3c 5c 8f 59 3c 2c 82 a8 bd
       -0.058653224 0.008411644 0.013278808 -0.08227953
000390 40 bc 4e bc b6 24 d4 bc c7 8a 93 3d f2 c2 e5 bb
       -0.0126181245 -0.025896411 0.07204204 -0.0070117647
0003a0 8f a1 39 3d d5 25 86 3c df 49 b7 bd dc 41 12 bd
       0.04532009 0.016375462 -0.08949637 -0.03570734
0003b0 ad 58 95 3d 8f 54 ce 3d 64 a9 17 3b a5 f2 70 3e
       0.07292304 0.10074722 0.0023141736 0.23530062
0003c0 94 c7 3f 3d 17 33 13 bd 2a f5 0e be e3 da ae 3c
       0.046821192 -0.035937395 -0.1396071 0.021344608
0003d0 90 3b e5 3c b0 15 b3 bc 2d 44 fb bb 74 ed 80 bc
       0.027982503 -0.021860927 -0.0076680393 -0.015738226
0003e0 a0 b0 bb 3b 0a ba c0 3c 96 74 65 bd 30 34 3b 3c
       0.0057278425 0.02352621 -0.05601939 0.011426017
0003f0 12 05 09 bd e7 02 02 bd 6e 24 d2 bd a9 c6 de bd
       -0.0334521 -0.03174105 -0.10260855 -0.10877735

conv1.lin_neg_r.bias f4 [32]
000000 d3 8d 89 bc 68 a5 9f 3d ef 43 95 3c 5e ef e6 3d
       -0.01679126 0.077952206 0.01822087 0.112761244
000010 88 55 81 bd 91 8c b5 ba 80 8e 10 bd f6 c0 58 bd
       -0.06315142 -0.0013851096 -0.03529215 -0.052918397
000020 77 71 ce 3a 1c 40 98 3c 0b 05 01 3d a0 51 6c 3c
       0.0015750368 0.018585257 0.03149895 0.014423758
000030 d0 d5 5e b8 9c 1d b1 bc 0a 5b ab 3c d1 6c ea 3c
       -5.3128053e-05 -0.021620564 0.020917434 0.02861634
000040 c6 1d 6d ba f8 b4 a4 bc f1 9d f1 bc 78 61 b8 3c
       -0.0009045269 -0.020105824 -0.029494258 0.022507414
000050 86 81 15 bc f5 57 25 b9 2c 3c cb 3a f1 79 c0 3c
       -0.009125119 -0.00015768393 0.0015505604 0.023495646
000060 01 a8 98 3d f8 9d c7 bb 73 af a3 3c e2 37 85 3a
       0.07453919 -0.0060918294 0.019981122 0.0010163749
000070 ea de ac 3a 52 0e 0a b8 a3 a4 79 39 81 f3 e0 3c
       0.0013188992 -3.29151e-05 0.00023807822 0.027459862

convs.0.lin_pos_l.weight f4 [32, 64]
000000 4c e9 63 bd 47 e3 e4 3c 71 bb 06 31 12 3f 24 3d
       -0.05564241 0.027940406 1.9606115e-09 0.04009921
000010 c4 a1 fd 38 16 85 8e 39 fd 4f 0f 3c bc dc b1 33
       0.00012094111 0.00027183507 0.008747098 8.282356e-08
000020 e2 e9 35 3c c9 26 19 3d e7 57 1c 3d 73 2e 2b b1
       0.011103125 0.037390504 0.038169768 -2.4910178e-09
000030 df 07 3a 3a 4b d7 10 bb b2 3f f2 bc 4a 6e 9a bd
       0.000709651 -0.002210098 -0.029571388 -0.07540567
000040 24 2d f3 ba 39 11 a2 32 50 68 05 b8 e6 38 e4 bd
       -0.0018552882 1.8867114e-08 -3.180682e-05 -0.11143665
000050 81 0b 47 bb b2 67 39 bd a2 e9 09 b1 c1 3e a8 3d
       -0.0030371847 -0.045264907 -2.0068929e-09 0.08215094
000060 ad b4 69 b1 a5 d1 75 34 11 6a ab bc c4 9f 4a bc
       -3.4008665e-09 2.2893671e-07 -0.0209246 -0.012367193
000070 ca f9 81 b2 3e 8a 90 b2 89 0b 94 3c 70 4f db b1
       -1.5131167e-08 -1.6826672e-08 0.018071907 -6.38277e-09
000080 e2 2c 26 31 fd 43 b0 3c 34 9e d1 3d 15 02 5f 3d
       2.4181692e-09 0.021516794 0.10235253 0.054445345
000090 11 5d 35 bc ba 0b 39 38 3d bc 31 3a 8c 2a 18 b5
       -0.011069552 4.411836e-05 0.0006780064 -5.6686326e-07
0000a0 17 48 7f bd a8 2b 07 bd 5b 28 65 bd cd 3b 67 3d
       -0.06232461 -0.03300062 -0.05594669 0.056453515
0000b0 c1 25 2b 34 b0 d4 a3 bd 8e cd be 3c 62 7b 5a bb
       1.5939351e-07 -0.07999551 0.023291375 -0.0033337702
0000c0 ed 2b 3b 37 65 60 49 b2 8b 7e 02 34 b5 ad 30 3c
       1.1156296e-05 -1.1721657e-08 1.215323e-07 0.0107836025
0000d0 0a d9 41 b2 36 23 2c b6 57 fb a6 bc 6e 6c 86 bd
       -1.12834275e-08 -2.5650493e-06 -0.02038352 -0.0656365
0000e0 37 23 f1 3d a6 0c 12 b2 03 20 74 bc 8a 29 8f 3c
       0.11774295 -8.501194e-09 -0.01490021 0.017475862
0000f0 5e b6 3b 3d c6 5e 0f 37 b4 e1 59 3c f6 3f 91 3d
       0.045828216 8.54553e-06 0.013298441 0.07092278
000100 d2 11 14 be 82 03 2f bd 71 a8 86 32 64 28 0f be
       -0.14459923 -0.042727955 1.5676251e-08 -0.13980252
000110 e1 7a 10 b7 ab 9d 8f b9 c8 57 80 bd fc de 7d b3
       -8.611679e-06 -0.00027392557 -0.06266743 -5.9108956e-08
000120 06 b8 a0 3c 79 86 39 bd f1 14 53 bd de e4 ab 32
       0.019619 -0.04529426 -0.051533643 2.0011097e-08
000130 cf 97 ab 33 dc fa 7b b8 85 5f fa 3a db bc ba 3c
       7.990422e-08 -6.0076694e-05 0.0019101953 0.022795131
000140 65 6e e2 38 de 7c 03 30 73 5f 7a 37 32 9f e4 bc
       0.00010797082 4.783497e-10 1.4923385e-05 -0.027907941
000150 8d ea 47 bb 8f 39 b5 bd f3 ba 6a b2 51 e9 57 be
       -0.0030504793 -0.08848869 -1.36631e-08 -0.21085097
000160 86 71 d5 30 0c 47 f0 33 d4 e5 d4 bd 6e 3f 47 3a
       1.5530055e-09 1.1188794e-07 -0.10395399 0.00076006993
000170 0c 1d 3c 31 bf 2b c5 b1 f0 2c bd bd ff 13 23 32
       2.7374112e-09 -5.738428e-09 -0.09237087 9.492395e-09
000180 b7 98 2a 32 82 89 0a 3d d4 4d 38 3b e8 43 96 bd
       9.930026e-09 0.033822544 0.002812256 -0.07337171
000190 7e 50 dd b9 ff 3c 36 b8 74 21 9c 37 2b 93 02 32
       -0.00042212376 -4.344899e-05 1.8612227e-05 7.600458e-09
0001a0 c4 8f a5 bd 08 be 7e bc 82 17 ac bd 2b e8 f5 3c
       -0.08084062 -0.015548237 -0.08402921 0.030017933
0001b0 53 c6 dd 34 7f 99 30 bd 1d 0a e7 bd 29 0c 7a 3c
       4.1308758e-07 -0.043115135 -0.11281226 0.015261688
0001c0 e8 e8 89 b7 ff 45 9a b1 45 33 0f b1 db e3 e1 3b
       -1.6440128e-05 -4.4899475e-09 -2.0838382e-09 0.0068936176
0001d0 66 4e 3c 32 db c2 29 b4 3e a1 08 3e 04 b3 09 3d
       1.0960866e-08 -1.581024e-07 0.13342759 0.03361799
0001e0 6d ce 8c bd c4 0c b0 30 3c 56 f9 bc 8c ca a0 3d
       -0.0687531 1.2809314e-09 -0.030436628 0.07851133
0001f0 ba 48 c4 3d ca 2c 00 b7 7f 35 da 3d 6a ca e2 3a
       0.09584184 -7.639823e-06 0.10654735 0.0017302756
000200 7a 3f 40 b4 13 c6 4a b2 0a 1e 0f 32 c9 12 00 b4
       -1.7904486e-07 -1.1802984e-08 8.330526e-09 -1.1927763e-07
000210 26 29 fe b1 91 09 0c b2 d4 d6 34 b3 17 80 89 30
       -7.397051e-09 -8.151248e-09 -4.21049e-08 1.0004467e-09
000220 ce 59 6c b4 95 4e 22 b3 1f 88 42 33 71 c0 61 31
       -2.2011884e-07 -3.7790034e-08 4.5292946e-08 3.28512e-09
000230 86 79 de af f8 bd ed b1 81 be 74 b2 20 f4 49 b3
       -4.0467912e-10 -6.9192048e-09 -1.4245985e-08 -4.702099e-08
000240 92 12 61 31 46 a9 ae 31 62 97 15 32 e5 79 f2 b3
       3.2752365e-09 5.0833107e-09 8.707362e-09 -1.12911756e-07
000250 9c 12 af 31 73 ad e9 b2 5d dc c8 31 01 ec 2e 34
       5.095286e-09 -2.7203646e-08 5.8458185e-09 1.629087e-07
000260 f6 9b 6b b2 36 99 3e 31 d3 78 8f 34 a4 3e 24 b1
       -1.3714262e-08 2.773573e-09 2.6723737e-07 -2.3900748e-09
000270 b4 6c 3a 32 8b 51 6f b1 5f 43 94 31 40 e0 3c 32
       1.0851341e-08 -3.482543e-09 4.315026e-09 1.0994029e-08
000280 29 e3 61 31 7b df 77 34 25 7f f9 b3 55 56 09 34
       3.2870935e-09 2.308497e-07 -1.16180935e-07 1.2790527e-07
000290 6c f5 9c 31 80 5f 3f b0 df 3f e4 31 59 e7 53 b1
       4.568099e-09 -6.962111e-10 6.6429346e-09 -3.0836047e-09
0002a0 3c e3 db 33 45 6d 9a b3 e2 d0 26 b4 67 3e 17 32
       1.0239316e-07 -7.19106e-08 -1.5535946e-07 8.8035454e-09
0002b0 0d 72 12 32 20 d5 3a b2 45 25 75 b3 db 1a 23 b4
       8.524251e-09 -1.0875084e-08 -5.7077404e-08 -1.5190328e-07
0002c0 e2 a6 a5 31 df b0 a7 31 52 69 bd 31 f2 1d c3 b2
       4.8211044e-09 4.8804476e-09 5.5125975e-09 -2.2714605e-08
0002d0 f6 f2 e5 31 7c 5d d0 b1 e5 b3 07 33 cd 58 22 b3
       6.6923986e-09 -6.0642247e-09 3.159575e-08 -3.7799328e-08
0002e0 6b 1b 3d 34 74 d6 04 b1 ed ca 95 33 06 11 78 32
       1.7611971e-07 -1.933043e-09 6.975265e-08 1.4439371e-08
0002f0 93 33 0c 32 46 c6 b5 af 17 3b 97 33 30 d5 3a 32
       8.160799e-09 -3.306459e-10 7.042234e-08 1.0875098e-08
000300 21 24 ee b3 ca 2f 16 b3 a1 2d 3d b0 b5 46 50 b4
       -1.10893104e-07 -3.496806e-08 -6.882264e-10 -1.9397233e-07
000310 ec 4e 11 32 09 f6 a6 30 9d 04 53 b3 93 61 0e 32
       8.458056e-09 1.2148017e-09 -4.913146e-08 8.287674e-09
000320 60 73 14 34 55 4c 3c b3 16 36 90 33 94 cf 02 b2
       1.3825547e-07 -4.3841585e-08 6.715361e-08 -7.614194e-09
000330 ef de 27 32 f3 54 47 b2 0b 20 ad 30 73 6a 91 b3
       9.771369e-09 -1.160264e-08 1.2596514e-09 -6.771452e-08
000340 17 a1 97 32 f2 34 2a b1 6c 40 f3 31 5b 98 63 33
       1.7651969e-08 -2.4768352e-09 7.0795547e-09 5.2991123e-08
000350 57 27 97 32 8e 43 d4 b3 eb b2 15 b2 41 47 d3 33
       1.7596603e-08 -9.8843074e-08 -8.713623e-09 9.838414e-08
000360 23 ab 93 b0 f0 e7 64 b0 b3 b2 ca 33 90 16 46 32
       -1.0744298e-09 -8.327552e-10 9.438863e-08 1.1530247e-08
000370 ce 33 a1 b1 7b 0f 30 31 9b 1b 03 b3 a0 ce 98 b0
       -4.691606e-09 2.562017e-09 -3.052592e-08 -1.1118182e-09
000380 50 a9 95 b2 53 fe 1d b4 5b 12 01 34 24 cc 8e 33
       -1.7422877e-08 -1.4714287e-07 1.2020739e-07 6.649523e-08
000390 a1 53 01 31 86 9d 2e 32 80 3a e4 b1 ac ab 06 b1
       1.8819508e-09 1.016395e-08 -6.642324e-09 -1.959715e-09
0003a0 01 52 d6 33 0e 09 c8 b2 54 23 04 34 41 66 b5 33
       9.980068e-08 -2.3287182e-08 1.230631e-07 8.447069e-08
0003b0 37 58 79 b0 21 db 75 b2 68 f0 ed b3 62 84 fd 33
       -9.0711033e-10 -1.4310701e-08 -1.1079902e-07 1.1805311e-07
0003c0 66 ce 8c 31 f5 50 c6 b1 1f da 2e b2 3a c0 e2 b2
       4.098001e-09 -5.771762e-09 -1.0177728e-08 -2.6397277e-08
0003d0 55 de 6d 30 21 c1 24 30 da 04 45 b3 56 a9 d3 b2
       8.653605e-10 5.9937305e-10 -4.587205e-08 -2.4640638e-08
0003e0 61 4f dd b3 fc 3d 6f 31 33 f7 84 33 46 69 a5 b2
       -1.03055534e-07 3.4814311e-09 6.191694e-08 -1.9256401e-08
0003f0 d6 75 35 b2 89 62 60 32 2f de a5 33 c3 a4 f7 b2
       -1.0562379e-08 1.306092e-08 7.723826e-08 -2.882951e-08

convs.0.lin_pos_r.weight f4 [32, 32]
000000 bb e9 2d 3c 32 57 3f bf 58 79 87 b2 88 7f b0 3e
       0.010614808 -0.74742424 -1.577125e-08 0.344723
000010 85 04 32 39 73 bd 0b 3a 32 eb 87 3e 81 49 78 34
       0.00016977086 0.00053306593 0.26546627 2.312354e-07
000020 65 49 d5 3e 0b 1b 41 bf 5e 10 85 bf 5f 97 0f 33
       0.41657558 -0.7543189 -1.039562 3.3432453e-08
000030 5c 75 ca 32 e9 76 9c 33 85 81 81 b1 df bc 1a 3e
       2.3569264e-08 7.285946e-08 -3.769119e-09 0.15111111
000040 8b ae 1f b2 ff 6a e6 b1 e7 07 a9 37 4f d9 92 be
       -9.294705e-09 -6.706045e-09 2.015005e-05 -0.28681418
000050 29 9c 20 af c7 7e 68 3e de 3f a9 b1 36 61 d8 3d
       -1.4607394e-10 0.22704612 -4.925808e-09 0.105654165
000060 b3 4e d0 b2 3f d4 80 b4 b6 5a 86 3e 2e 59 42 32
       -2.4250175e-08 -2.3996287e-07 0.26241082 1.1312563e-08
000070 4d f9 9c b1 05 ad 5b 32 95 cf 8d be b2 e6 54 32
       -4.5685398e-09 1.2786818e-08 -0.27697435 1.2392478e-08
000080 14 3c 09 bc 9f eb 91 3e a4 17 51 b2 d0 26 d3 bc
       -0.00837614 0.28500077 -1.2170776e-08 -0.025775343
000090 92 af 22 38 08 2f f8 b9 8f fc 9b bd 7c fc a5 33
       3.8787322e-05 -0.00047337287 -0.07616531 7.729338e-08
0000a0 56 2f 8f 3e fc d4 0a 3e 82 f0 02 3f 1c 52 5e 32
       0.27965802 0.1355781 0.51148236 1.294077e-08
0000b0 4b c2 59 b2 2d 60 3f 32 a8 50 2e 31 9d d8 c4 3e
       -1.26752395e-08 1.1139531e-08 2.536618e-09 0.38446513
0000c0 86 e4 6d b1 c1 84 61 b2 5e 36 96 37 ef 65 ab 3e
       -3.461794e-09 -1.31269084e-08 1.790671e-05 0.33476207
0000d0 46 37 04 33 5e b4 cd be 7f e3 3d 31 72 6d 52 bf
       3.0783916e-08 -0.40176672 2.7632436e-09 -0.8219825
0000e0 71 ed 00 b1 3a 69 0b 33 65 7c b5 3e 3f a8 63 b2
       -1.8761421e-09 3.2459162e-08 0.35446468 -1.3251394e-08
0000f0 c1 81 b3 b1 4a 97 f4 b1 e2 f1 03 3d f5 c5 18 32
       -5.224337e-09 -7.118534e-09 0.0322131 8.892575e-09
000100 cb e2 15 b4 7f 03 58 34 8f ff ec 32 27 c0 16 35
       -1.3959213e-07 2.011784e-07 2.759023e-08 5.6158973e-07
000110 7c 70 0f 32 8a 89 ce 31 8f 0e 1f b4 31 63 b6 b1
       8.3492715e-09 6.0110255e-09 -1.4813325e-07 -5.308174e-09
000120 06 44 98 b3 89 fb 19 b2 ca c8 8c 34 e2 21 ee 32
       -7.090425e-08 -8.962965e-09 2.6223125e-07 2.7722255e-08
000130 bd c1 3c 30 20 ac 9b 32 4c a1 ed b0 27 25 e5 b3
       6.866932e-10 1.8122648e-08 -1.7289863e-09 -1.06704015e-07
000140 e9 85 74 32 3f 92 dc 31 13 0b 29 32 6c 4f ba b4
       1.4233117e-08 6.419469e-09 9.839613e-09 -3.4702987e-07
000150 6e d4 c3 32 bc d1 d6 b4 f3 64 12 32 d5 02 1b 35
       2.279759e-08 -4.0013208e-07 8.521272e-09 5.774612e-07
000160 da 13 7f b0 0f e3 76 b2 8a 62 1f b5 a9 09 83 31
       -9.279667e-10 -1.4370712e-08 -5.937551e-07 3.8137e-09
000170 10 5f 2d 31 fb 96 aa 32 e8 ee 6a 34 2e 48 2b 31
       2.522885e-09 1.9859263e-08 2.1879862e-07 2.4924804e-09
000180 7e 8a 0d b4 bd 20 14 b4 7e 35 32 2f 85 2b 01 b4
       -1.3182031e-07 -1.3795484e-07 1.620801e-10 -1.2029894e-07
000190 e3 dc 6f 32 ce 48 5c 31 7e ae e0 33 d8 b4 09 b1
       1.3961855e-08 3.2055598e-09 1.0462553e-07 -2.0038922e-09
0001a0 ce a1 53 33 fb 69 da b2 f9 3d 12 b3 0e 41 94 32
       4.9274426e-08 -2.5426734e-08 -3.4049638e-08 1.7259051e-08
0001b0 1d da 93 b0 73 95 72 31 56 09 bd 32 cc 1d ce b3
       -1.0757649e-09 3.5300587e-09 2.2006741e-08 -9.5980425e-08
0001c0 ac 4e a6 b2 d8 df 8c b2 5b 99 d8 b2 89 76 66 b3
       -1.936072e-08 -1.6399937e-08 -2.5215448e-08 -5.3658855e-08
0001d0 12 ee bb 32 05 db 45 32 40 49 74 30 f5 a5 2b 34
       2.1877927e-08 1.15167085e-08 8.887078e-10 1.5985991e-07
0001e0 68 e7 b3 30 30 30 53 31 49 44 02 34 d6 ee 49 31
       1.3089734e-09 3.0731933e-09 1.2132035e-07 2.9385112e-09
0001f0 8b 05 cc b2 bf e9 e5 b1 3f 18 88 32 ef 92 c2 31
       -2.3751246e-08 -6.691351e-09 1.584351e-08 5.6628475e-09
000200 5d 5a 81 32 7e 81 d9 31 2c f6 18 32 c5 56 7d b3
       1.5058669e-08 6.3302528e-09 8.9035375e-09 -5.898507e-08
000210 00 0a 64 32 de 66 16 31 e8 5c 23 33 cc f0 4f 30
       1.327362e-08 2.1886346e-09 3.8035893e-08 7.5648354e-10
000220 92 48 75 b3 57 18 0b b1 52 97 63 33 e4 5d 64 b2
       -5.710951e-08 -2.0240998e-09 5.299018e-08 -1.3292695e-08
000230 09 ff 34 b0 4d a4 21 31 bc bf 44 32 41 57 a8 b2
       -6.5846045e-10 2.3521978e-09 1.1452297e-08 -1.9597453e-08
000240 7a 4a 3e 30 49 8d 87 30 95 ae 97 32 bc ea 65 30
       6.9227435e-10 9.862698e-10 1.7658104e-08 8.364329e-10
000250 f6 f5 37 b2 a2 8d 9c b2 ce 04 68 31 81 81 d0 b2
       -1.0707927e-08 -1.8225197e-08 3.3763174e-09 -2.4273278e-08
000260 f1 af 81 b2 e2 57 82 32 93 a5 3c b0 ba ca c4 31
       -1.5097585e-08 1.5173956e-08 -6.8629297e-10 5.727398e-09
000270 8a 57 e4 32 2f 1b 03 b2 33 1a ac b2 f1 4d be b0
       2.6582502e-08 -7.631384e-09 -2.003535e-08 -1.3846472e-09
000280 f0 a2 f5 be 6f fa 83 3f 71 35 90 b1 d5 27 27 bf
       -0.47975874 1.0310801 -4.197027e-09 -0.65295154
000290 47 aa 00 39 b0 13 b8 b8 54 2f 2c bd 43 79 d4 b3
       0.00012270465 -8.777471e-05 -0.042037323 -9.894077e-08
0002a0 0f 32 20 3e dd b5 27 3f 42 03 94 3f 7b 81 e0 31
       0.15644096 0.65511876 1.1563494 6.5339782e-09
0002b0 fc 91 1d 32 2a 1a 3e b3 44 f9 c5 32 2e d5 25 3f
       9.171796e-09 -4.426162e-08 2.3047171e-08 0.6477841
0002c0 4e b1 c6 b1 26 99 59 32 55 f3 8d b8 d1 75 38 3f
       -5.7827156e-09 1.2665884e-08 -6.768728e-05 0.72054774
0002d0 58 40 1d b4 6f f8 32 be 6b ce 0d 33 cc 20 07 bf
       -1.4645173e-07 -0.17477582 3.3016857e-08 -0.5278442
0002e0 5c 7c cc b2 55 f8 2c b4 f1 72 f4 be 99 17 9d b3
       -2.3805278e-08 -1.6109091e-07 -0.47743943 -7.3151746e-08
0002f0 35 9f 6f b4 7f df 3a b1 81 35 6d 3f aa db fa b0
       -2.2316529e-07 -2.7193605e-09 0.92659765 -1.8252326e-09
000300 a0 44 00 b8 1e 56 a2 b6 ed dc 92 2f 3c c9 07 b8
       -3.058149e-05 -4.8380016e-06 2.6714223e-10 -3.2373922e-05
000310 f0 f4 aa b1 ae d6 eb 32 d1 ea 26 b7 5b ca 98 30
       -4.9754973e-09 2.7455226e-08 -9.9490435e-06 1.1116968e-09
000320 20 ab aa b6 97 dd dd b6 81 d9 c6 b6 67 f3 2d 31
       -5.0863164e-06 -6.6121097e-06 -5.9261806e-06 2.5313172e-09
000330 06 c3 50 2f 0f 97 bd b1 3f d7 98 b2 d1 59 7c b3
       1.8986776e-10 -5.5177973e-09 -1.7793012e-08 -5.875501e-08
000340 4e 0b 96 30 10 2a a1 b1 93 40 08 b2 fd ed a4 b5
       1.0917149e-09 -4.6904987e-09 -7.930924e-09 -1.2288216e-06
000350 68 1b 84 31 40 d0 9c b7 0a 40 27 31 20 83 4a b7
       3.8448214e-09 -1.8693623e-05 2.43381e-09 -1.2070668e-05
000360 b5 a2 71 32 79 b6 34 b2 7b d1 eb b7 21 09 38 32
       1.4065042e-08 -1.0518868e-08 -2.811173e-05 1.0712285e-08
000370 88 6f 8b 32 d3 e7 af b2 99 fb 94 b5 d6 e8 3b 32
       1.6232448e-08 -2.0478103e-08 -1.1100084e-06 1.0937773e-08
000380 91 6f c8 3e c5 a2 21 3e a2 2a 9a b1 ed f6 05 be
       0.39147618 0.15784748 -4.4868367e-09 -0.13082476
000390 81 55 42 b8 ca 83 df ba 90 53 63 be 55 b9 1b 32
       -4.6332836e-05 -0.0017052826 -0.22199845 9.064327e-09
0003a0 50 f3 5a bf 59 b9 01 3f a6 12 84 3e 79 2f bf b2
       -0.85527515 0.50673443 0.25795478 -2.2256915e-08
0003b0 10 3a 0e 32 9b 35 34 30 ce cf 81 b2 51 23 90 bf
       8.27869e-09 6.5559796e-10 -1.5112075e-08 -1.1260778
0003c0 2b 74 86 b1 17 73 15 32 6f da 6e 37 ff d9 51 bf
       -3.91312e-09 8.69911e-09 1.42367635e-05 -0.8197326
0003d0 8c 4d 0e b2 9a b9 98 be 94 6a 2c 32 24 d4 04 3f
       -8.28312e-09 -0.29829103 1.0035951e-08 0.518862
0003e0 ec a4 88 30 4c 95 8b 34 1a d2 60 be 2d 7c 3d b2
       9.942176e-10 2.5999395e-07 -0.21955147 -1.1029482e-08
0003f0 21 53 95 31 af 84 ef 31 dd d9 19 bf 5a 26 70 31
       4.3459214e-09 6.9709e-09 -0.6009806 3.4946397e-09

convs.0.lin_pos_r.bias f4 [32]
000000 08 76 d4 3b 07 dd ae 3d f5 82 4e bc 80 6d 5d bc
       0.006483797 0.08538251 -0.012604465 -0.013514876
000010 5b 74 aa bc 4b 4d 15 3e bb 2a 26 b8 ec 62 05 3e
       -0.020807436 0.14580266 -3.961728e-05 0.13026017
000020 1a 9e 94 bc d1 7f 2d bb be 76 93 bc 0f 55 4f bd
       -0.018141795 -0.002647389 -0.018000957 -0.050618228
000030 df 94 de 3c ad 39 28 bd c7 9f 5a bd 68 77 24 bd
       0.027170597 -0.04107063 -0.05337503 -0.040152937
000040 b5 8d 64 bb 41 ff 63 bd 11 86 23 bd ef b6 bb bc
       -0.0034874503 -0.05566335 -0.039922778 -0.022914378
000050 33 09 75 bd 4c 6a 5d 3d f6 a0 08 bc e8 28 ac bb
       -0.059823226 0.05405645 -0.008339157 -0.0052539
000060 ca f8 16 bb 74 c9 12 3d ef 7e 83 3d 94 f1 d2 bd
       -0.0023036473 0.035836652 0.06420695 -0.102999836
000070 ef c9 1b bc ff 5d 54 bd dc 5e 03 bc 06 3b 70 3d
       -0.009508594 -0.051847454 -0.008018222 0.05865004
