wiki-elec/models/wiki-elec-train-10.pt (torch, 63739 bytes, 14 tensors)

conv1.lin_pos_l.weight f4 [32, 64]
00000000: 7b38 49be 397b 1bbd 8b32 2e3d 73d8 71bd
00000010: 7e69 bbbd 79cb c6bd 0f5d 32bd e484 d8bd
00000020: 6434 e9bd e00f b8bd 9fec 5bbc 5c16 403d
00000030: 0765 71bc cc97 1dbc f5d2 b1bc 51c8 583d
00000040: 3382 22be 1d13 04be 1e38 a63d 1fa9 58bd
00000050: 0bc8 813d 18a0 a6bd 2844 0fbe 1346 a43d
00000060: c454 a1bd d458 59bd 1dd0 d2bc 57f2 023d
00000070: 4d9c 9abd 3ec8 c43d 7da0 8fbd 92b0 36bd
00000080: 0124 93bd 8cb5 793d a6a0 433c 4e4b d33c
00000090: 1242 d73d 2448 ce3d 75f9 94bd 4b12 a9bc
000000a0: eb6d a13d 7a28 813d 1552 a13d 9754 ecbc
000000b0: c50a 863c afcf 2abb 5d1d cb3d 474f 703c
000000c0: e098 bdba 4c02 0a3e ad1c de3c 9476 99bd
000000d0: 2f7a 34bd bc68 8dbd 3edf 253d 2937 f33c
000000e0: 1089 17bd 9e3b 073e 3b18 803d cedf 05be
000000f0: bc3b 8dbd 023e 40bd 52dc 133e 232a 643d
00000100: c23c 4a3d 3ae6 e93c 2b98 d4bc 7311 7cbd
00000110: 4aa3 e0bd e274 fa3c 9496 39bd bbb7 71bd
00000120: e8c3 523d 8ed8 c4bc 7e8e c1bd c23c d6bc
00000130: e356 1abc 8e11 5cbd 1037 b6bc 2353 97bd
00000140: 076a 9ebd 7bf2 94bd a711 973d 7998 a53d
00000150: d897 26bd 57db 423d 8a99 f93d 5621 d8bc
00000160: 97b2 03bb 41c1 2f3c 393f 423b 1e43 cfbc
00000170: afee 5abd 2f96 c0bd ec91 783c 85a7 9abb
00000180: ef27 9dbd 196b a33c beac fdbd b5d1 abbd
00000190: c67c 813c c2c1 16bd 6d16 393e 2d13 d73c
000001a0: 70fc b93c 2cb8 183d 65d7 0a3e 9363 23bd
000001b0: 5409 4f3c 908c b3bd 9db3 50bd 84c0 07bc
000001c0: 0f22 48bd 5eab aabc 3318 323d 7bbe 01be
000001d0: d71a 343c 0115 57bd 4c72 99bd e2a9 44bc
000001e0: 3f76 c3bc ff71 763d 7f9d 28bd d2a6 96bd
000001f0: de4d 51bd b905 113e 8ded 77bd 5926 b9bb
00000200: c1d9 8e32 4987 8232 c1e6 ac31 4899 2131
00000210: f217 1eb1 104a 9ab2 c9ae 4032 02f4 3232
00000220: 6120 c430 e3c6 3c31 ae97 3fb1 7224 25b0
00000230: 7c7a 5831 4fcc 12b0 e1f4 40ae 688f 0b32
00000240: ca20 20b2 b34e 6db2 64e3 beb1 ce71 43b1
00000250: e330 14b1 bfaf 09b1 863f a1b1 9933 3832
00000260: b296 41b2 a809 e031 13dc 6130 12fb 7f31
00000270: c070 3130 fc5c c331 527a 61b0 da1e 06b2
00000280: f684 c830 879c 88b0 5555 3db2 ce8b 2831
00000290: 0786 b5b0 acab b6b1 0419 73b1 1863 8630
000002a0: 039f e231 7d5d f131 cab4 ceb1 6a6a 83b1
000002b0: eb81 03b1 cd28 cc30 5826 c931 3bb8 17b2
000002c0: a554 1db2 b532 6232 1868 1a32 a4e5 88b2
000002d0: 40f6 3232 b9cb 0bb0 0b90 3732 ddc6 5231
000002e0: 43fe 7ab1 e2e7 41b0 acc3 e1b1 63a4 402e
000002f0: e9e7 72b2 927a 86b1 d4e0 5b31 b1ae 81b2
00000300: 12d7 cd3d ee58 6cba cf7e 7f3d 4c57 70bc
00000310: aec2 dcbc 75a9 253d b8bb 583c 49dd 313d
00000320: 86e6 91bb 3411 fbbb a4eb 37bd c694 eb3c
00000330: ba39 febc 17ef d33c d8c1 803d 4bfe 9dbb
00000340: 8cea 593d 3f91 193c f3d4 a4bd a354 71bd
00000350: 524c 933d 90f4 bf3c 1801 3bbd e61e 333d
00000360: 07e5 babc 9d2d 143b c997 723c 731e 8f3c
00000370: c50a 1c3d ab4f 4ebd 7223 ba3c f9eb a23c
00000380: e05e a7bc e7bb 62bd 0ef5 43bb c4c1 603b
00000390: c91d 02bc c4c8 273c 655f cabc 12d5 cc3c
000003a0: 943b 4abc 5d53 a43b 2389 3d3c 0de9 10bd
000003b0: 3620 14bd 008e 363d b843 84bc d864 343d
000003c0: 0b66 aabc c951 f53c c37b 7d3d 16ef 6e3c
000003d0: c775 2bbd e3f3 f43c 18c8 cabc f23e 253d
000003e0: f4c9 a13c 3135 a03b 535c 1fbd 6a6d 303d
000003f0: 91b5 853d c288 f43b 0a2b 96bc f81a e33b
-0.19650452 -0.03795931 0.04252867 -0.059044313 -0.091509804 -0.09706778 -0.04354578 -0.10572222
-0.11386946 -0.08987403 -0.013423114 0.046896324 -0.014733559 -0.009618711 -0.021707037 0.05292541
-0.1586998 -0.12897916 0.08116172 -0.05289566 0.06336983 -0.08136004 -0.13990843 0.08021178
-0.07877496 -0.05306323 -0.025734002 0.031969395 -0.07549343 0.09608506 -0.070130326 -0.044601984
-0.071846016 0.060964152 0.011940157 0.025792744 0.10510649 0.100723535 -0.07274143 -0.020638606
0.07882293 0.063065484 0.07876984 -0.02884893 0.016362557 -0.002606373 0.0991771 0.014667339
-0.0014465116 0.13477439 0.027113283 -0.0749332 -0.044061836 -0.06904742 0.040496103 0.029689388
-0.036995947 0.13206336 0.062546216 -0.13073656 -0.06896159 -0.046934135 0.14439514 0.055704247
0.04937435 0.028552163 -0.025951466 -0.06154008 -0.10968645 0.030573312 -0.045309618 -0.05901311
0.051456362 -0.024029043 -0.09451006 -0.026152018 -0.0094201295 -0.05372768 -0.022243053 -0.07388904
-0.07735067 -0.07272812 0.07376414 0.080857225 -0.040672153 0.04757246 0.121874884 -0.026383083
-0.0020095462 0.010727228 0.0029639734 -0.025300559 -0.053450283 -0.09403645 0.015171509 -0.004719677
-0.07673632 0.01994853 -0.123864636 -0.08389608 0.015806567 -0.036805876 0.18074961 0.02625426
0.02270338 0.037285015 0.13558729 -0.039889883 0.012636501 -0.087670445 -0.050952543 -0.008285645
-0.048860606 -0.020833667 0.04348011 -0.12670319 0.010992727 -0.052510265 -0.074925035 -0.012003394
-0.023860095 0.06016731 -0.041165825 -0.07356037 -0.05109965 0.1416234 -0.06052928 -0.0056503233
1.6629999e-08 1.5195512e-08 5.0320925e-09 2.3515714e-09 -2.3005637e-09 -1.796164e-08 1.1215612e-08 1.0416445e-08
1.427008e-09 2.7470655e-09 -2.7880378e-09 -6.007844e-10 3.1501761e-09 -5.340483e-10 -4.3873242e-11 8.123472e-09
-9.320681e-09 -1.381311e-08 -5.555579e-09 -2.8440925e-09 -2.1564623e-09 -2.0036024e-09 -4.6929385e-09 1.0721942e-08
-1.1268343e-08 6.520356e-09 8.216727e-10 3.72501e-09 6.455245e-10 5.685818e-09 -8.202835e-10 -7.806841e-09
1.4589705e-09 -9.93979e-10 -1.102065e-08 2.4526687e-09 -1.3207576e-09 -5.316414e-09 -3.5375374e-09 9.777947e-10
6.5955432e-09 7.0246515e-09 -6.0159424e-09 -3.8246997e-09 -1.9136859e-09 1.485455e-09 5.854229e-09 -8.831246e-09
-9.157849e-09 1.3166461e-08 8.987648e-09 -1.5936912e-08 1.0416954e-08 -5.085741e-10 1.06847535e-08 3.0672063e-09
-3.652432e-09 -7.0542516e-10 -6.570607e-09 4.380175e-11 -1.4138984e-08 -3.913848e-09 3.1996494e-09 -1.5097017e-08
0.10050787 -0.0009015937 0.062376793 -0.014669251 -0.0269483 0.04044481 0.013228349 0.043423925
-0.0044525294 -0.007661963 -0.04490246 0.028757464 -0.031033386 0.025870843 0.06286973 -0.004821574
0.053202197 0.009373008 -0.08048429 -0.058918606 0.07192291 0.023432046 -0.04565534 0.04373064
-0.022814287 0.0022610195 0.014806696 0.017470574 0.038096208 -0.050368946 0.02272198 0.019887911
-0.020430982 -0.05535498 -0.0029900703 0.003429518 -0.007941672 0.010240737 -0.02470369 0.025003944
-0.012343306 0.0050148205 0.0115683405 -0.035378505 -0.03616353 0.044569016 -0.016145572 0.044041485
-0.020800611 0.029946225 0.061885606 0.01458337 -0.041860368 0.02990145 -0.024753615 0.040343232
0.019749619 0.0048891534 -0.038906407 0.043073095 0.06528772 0.007462592 -0.01833107 0.006930705

conv1.lin_pos_r.weight f4 [32, 64]
00000000: 5861 9bbe c04f 50be a17f 043f e197 273e
00000010: 9699 313e 186f 26bd d6f3 09bd c2a6 133f
00000020: 3521 013a 1f92 80be ca9d a33e 5575 623e
00000030: 305f 11be d896 bd3d 8e0a bb3d fe4a 8e3e
00000040: 2395 90bd f363 29bc dbe4 683d 3abe 9d3c
00000050: 0eb8 cdbd 88ad b3be 2816 883d d5cb 143e
00000060: f4f9 193d 7570 19be e482 4c3d 0337 a1bc
00000070: f941 1a3e eadd e63e e0c4 f1bd 1442 8dbd
00000080: fcab 80be 53ff df3d c5ba 1a3f d73f 2fbd
00000090: 0699 413e 9d8a a0bb 19cc 853e aef0 a3be
000000a0: c8a7 bcbe 3817 3d3e 2766 b2be 15ed 44be
000000b0: b6b6 c3bd 530e 333e cc22 273e e97d 97bd
000000c0: 6921 ea3c ab39 23bd e4db f93d bd1c b9bd
000000d0: 4698 803d 9fd5 4bbe fd5d 5dbe 6e14 013e
000000e0: 6077 b4be b7da 02be 2265 923e 778d 5f3d
000000f0: d2bb 8ebe 6455 433e 307a a3be ea09 48bd
00000100: 51c1 85bf 5e67 c13d c673 bfbe 2cda 93be
00000110: fe6a 293e f8e4 36bd c514 03bd 7c96 efbe
00000120: 7948 c7bd 6a35 12be 87b7 173e ab40 4bbe
00000130: 7047 5a3d bf48 753c 36df 3dbc d57e 81bc
00000140: 53a9 81bc f003 c93d 1e92 b33c 93bd 7fbe
00000150: c6f6 06bd b1be 403d 77ef d83c 7e0d febc
00000160: 75d1 f7bd 442d c8bc 262c c13c af73 05bc
00000170: b0f6 dabd be37 0b3e 640b e03c e893 573e
00000180: edd4 55bd 6f55 54be d0aa 94bd 5d08 743d
00000190: 1625 64bd 7f2a 873d 1161 5ebd cbb5 d9bd
000001a0: 5d3f 1dbd 45ab fe3d 8adc 903d 3ac1 833e
000001b0: d5ee 1e3e e392 13bd 83d3 95bc 5801 dcbd
000001c0: ea88 32bd eeb2 9bbd a53e c0bd e9c6 c5bc
000001d0: 1b7e 5c3d 9188 083e 1dfd 6f3e 5391 f73d
000001e0: d752 e0bd 80cf febc 8a11 d93d 8fff 80bd
000001f0: 94aa 2f3d 06b5 e3ba 3fc4 c7bd 3e9c 2e3e
00000200: 69b0 b732 3ea0 0431 722f f62f e9ff ea31
00000210: d46b 7e30 fbfb 6031 0f54 2231 ffaf 8732
00000220: fc88 37b1 61e8 bab1 3151 77b2 1dc2 8cb1
00000230: 9c63 f031 c6e5 21b2 6f0e b831 19c1 32b2
00000240: 7f2b 90b1 5a3e 9ab1 af70 5a31 fd65 2232
00000250: 87e8 f131 c65c d031 c3f5 ffb1 477b 8db1
00000260: c863 cab1 57ec 99b1 a52a e8b1 0f24 ab31
00000270: f93a 0ab1 61c3 63b2 2507 c330 af8f c031
00000280: 64d0 34b2 b33f 93b2 7c82 d7b0 7c60 9932
00000290: 21f4 0eb1 47f7 b631 c900 0732 e5da d931
000002a0: 57b3 1db2 9098 2fb1 abff 8630 46e1 1131
000002b0: f36f 2432 7599 5bb2 457f 4bb1 1da6 c430
000002c0: ba2f a5b1 0064 cbb0 ae9d eb31 71cf fb31
000002d0: 36e2 a732 b243 f2b1 f141 0631 3dfc c1b1
000002e0: 3c63 dbb1 de04 02b2 ea1c 8432 3d96 6db1
000002f0: fc38 80b1 372c de31 30b4 b6b1 05da 93ae
00000300: bcfa d03e 895f 69bd 3831 153c 762d 973d
00000310: 8290 8e3e b72f 6e3c 8eb0 a13d 73a5 ad3d
00000320: 5610 06bd 5872 fa3b 189f 6ebd 70ed 3f3d
00000330: 5b8b 363d 8a0f 3fbe 181d 43bd 83e1 53bb
00000340: e5b6 9bbd a8cc 483d 734a a5bd 04f8 a3bd
00000350: f97a 1dbe 3b22 443d 4bae 1b3d 9299 0abd
00000360: cc16 ba3d f807 36bc d0bf d6bd a51e abbd
00000370: c50a b6bc 8e2d c5bc 3ca3 b7ba 8611 43bc
00000380: be4f 0c3c 42a4 e5bb 8a4b 92bd 5c54 113c
00000390: a4ad 98bd 8812 923d 8f2b fc3c efe8 f83d
000003a0: 56ce aebd ccd8 bdbd bbb7 d13d 9c9c c7ba
000003b0: 1a56 6cbc f7cc 0bbc 4603 81bc cae8 393b
000003c0: 8ac5 ee3d c4df e2bd 41f9 8e3d 95b0 983d
000003d0: 0024 1cbe 95ae bdb9 5e65 c43d a124 1cbd
000003e0: 2522 0d3d b75b cbbd 7318 4a3d dfda 32bd
000003f0: 3c10 41bc f5d3 913d a3ed 183d 8282 b1bd
-0.30347705 -0.20342922 0.51757246 0.16366531 0.17343745 -0.04063329 -0.033679806 0.5767633
0.00049259077 -0.25111482 0.3195632 0.22115071 -0.14196467 0.09257287 0.091328725 0.2779159
-0.070596956 -0.010338771 0.05685888 0.019255746 -0.10044871 -0.3509333 0.06644851 0.14530881
0.03759189 -0.14984305 0.049929515 -0.019679552 0.15064229 0.45091182 -0.11805129 -0.06897369
-0.25131214 0.10937371 0.6044124 -0.04278549 0.1890603 -0.0048993365 0.26132277 -0.32019562
-0.36846757 0.18465889 -0.3484356 -0.19231065 -0.09556334 0.17485933 0.16321868 -0.07397062
0.028580384 -0.03984992 0.12200144 -0.090386845 0.06279044 -0.19905709 -0.21617885 0.1260545
-0.35247326 -0.12778746 0.28592783 0.05457827 -0.2787767 0.19075543 -0.3192916 -0.04883758
-1.044962 0.09443544 -0.37393016 -0.2887739 0.1654472 -0.044651955 -0.03200223 -0.46794498
-0.0973062 -0.14278188 0.14816104 -0.19848888 0.053290784 0.014970957 -0.011588862 -0.015807549
-0.01582781 0.09815204 0.02192026 -0.2497466 -0.032950185 0.047056857 0.026481373 -0.031012293
-0.12100498 -0.024435647 0.023580622 -0.008145257 -0.10691583 0.13595483 0.027349181 0.21052516
-0.052205015 -0.20735715 -0.072591424 0.05957829 -0.05569943 0.06599902 -0.05429179 -0.106303774
-0.038390506 0.12435011 0.070733145 0.25733358 0.15520795 -0.036028754 -0.018289333 -0.10742444
-0.043587603 -0.076024875 -0.093869485 -0.0241427 0.0538312 0.13333346 0.23436399 0.12088265
-0.109533004 -0.031104803 0.105990484 -0.06298744 0.042887285 -0.0017372675 -0.09754228 0.17051789
2.1384226e-08 1.9299615e-09 4.478085e-10 6.83939e-09 9.2557895e-10 3.2739524e-09 2.3621884e-09 1.5796102e-08
-2.6707871e-09 -5.439731e-09 -1.4395753e-08 -4.0966044e-09 6.9962436e-09 -9.423678e-09 5.3567457e-09 -1.0404869e-08
-4.1958965e-09 -4.4890784e-09 3.1787228e-09 9.4528305e-09 7.0404584e-09 6.064144e-09 -7.4494166e-09 -4.117655e-09
-5.8903176e-09 -4.479755e-09 -6.756937e-09 4.9808544e-09 -2.0115165e-09 -1.3257563e-08 1.4190148e-09 5.6042704e-09
-1.05247615e-08 -1.714202e-08 -1.5680395e-09 1.785542e-08 -2.080249e-09 5.3250093e-09 7.858213e-09 6.3404166e-09
-9.17938e-09 -2.5552573e-09 9.822448e-10 2.122833e-09 9.571511e-09 -1.278237e-08 -2.9612732e-09 1.4308089e-09
-4.807558e-09 -1.4798616e-09 6.8573263e-09 7.328645e-09 1.9544228e-08 -7.050823e-09 1.953705e-09 -5.6457155e-09
-6.3850205e-09 -7.568103e-09 1.5379971e-08 -3.457344e-09 -3.7317687e-09 6.466077e-09 -5.317382e-09 -6.723514e-11
0.40816295 -0.056975875 0.009105973 0.07381718 0.27844626 0.014537743 0.07895003 0.084788226
-0.032730423 0.0076430254 -0.058257192 0.046857297 0.044566493 -0.18658271 -0.047635168 -0.003233046
-0.07603244 0.0490233 -0.08070841 -0.080062896 -0.15378942 0.047884207 0.038008016 -0.033837862
0.090863794 -0.011110298 -0.10485804 -0.08355454 -0.022221932 -0.024069574 -0.001401044 -0.011906033
0.008563934 -0.0070081064 -0.07143314 0.0088702105 -0.07454994 0.07132441 0.03078249 0.121538036
-0.08535449 -0.09269866 0.10240122 -0.0015229168 -0.014424825 -0.008532754 -0.015748631 0.0028367513
0.11658771 -0.11077836 0.06981135 0.07455555 -0.15248108 -0.00036178963 0.09589647 -0.03812087
0.03445639 -0.099296026 0.049339723 -0.043665763 -0.011783656 0.07120506 0.037336003 -0.086674705

conv1.lin_pos_r.bias f4 [32]
00000000: fd1e 7a3b 97cd 883c e401 85bc 7cc3 d33d
00000010: 8464 e63d 3045 1db8 bbb3 903c d61b 1238
00000020: 541d f33c 2947 b43c e828 d73c d54d 25bd
00000030: 9498 cfbc 3a80 a4bc fb18 773c 2d3c e53c
00000040: 013a 66bd b8a8 e2bc a6d6 b43d 292f 1ab6
00000050: b862 ecbc c28c a43c 7212 3ebd 9c32 c13c
00000060: 1d5a 42b7 5b88 90b9 41c0 eeb8 c0b1 61bd
00000070: 86ef 12bc b334 5dbd 424c a73c b143 44bd
0.0038165443 0.016699595 -0.016236253 0.1034002 0.112496406 -3.7496153e-05 0.017663827 3.4835037e-05
0.02967707 0.022006588 0.026264623 -0.04035743 -0.02534131 -0.020080674 0.015081639 0.027982796
-0.05620766 -0.027668342 0.088300034 -2.297524e-06 -0.028855667 0.02008665 -0.04640431 0.023583703
-1.1584282e-05 -0.00027567413 -0.000113845344 -0.055101156 -0.00896824 -0.054005336 0.020422105 -0.047916118

conv1.lin_neg_l.weight f4 [32, 64]
00000000: 302f 3a32 0f5d 8331 4797 39b2 a29b 30b1
00000010: 7fec 4fb2 72b7 9432 b1ae 5930 b0b1 8732
00000020: 4140 4831 03cd f331 cf8a b3b1 4b67 bfb1
00000030: ab10 af32 e6c3 6232 9e9d 0fb2 cb43 9a31
00000040: 11fd 3f32 dc39 aa30 1222 c22f 60b2 a1b1
00000050: 5c9e 27b2 c753 14b2 8344 4131 8b5f a2b2
00000060: 8941 d630 c0e8 e3b1 9790 c532 f1ed 5d30
00000070: 67b6 1c32 7b5d 33b2 8430 71ad adfc 50b1
00000080: 2d6a 77b2 db4a 55b1 b6cb 9630 56a7 62b1
00000090: 2840 21b2 72f6 15b2 7f27 6732 ac38 a0b1
000000a0: 7d49 7530 fc53 6132 327e 52b2 ea0c 46b1
000000b0: 3a9b 88b2 24c1 4bb2 dc93 3731 87f4 442f
000000c0: e722 e6b1 4e2a 9331 809f 8132 07b5 bcb1
000000d0: ad0e a732 20cd 91b2 73bd 84b0 21a9 d231
000000e0: 0288 90ab 8d55 e1b1 48df 8eb1 e27f 5432
000000f0: 8f62 a1b1 6d08 2e32 e386 9c31 65ce 9731
00000100: 118c 623e 868d 4bbd 8da1 b7bb abf1 4b3d
00000110: 478d 9bbd 6633 1dbd 8bfe 1ebd 82ba 323d
00000120: a8bf 30bd de17 2c3c abd5 793d 54f1 473d
00000130: 9302 72bd c89a fdbb 244e 0c3d 71a6 9a3d
00000140: fd81 b73c efdd e0bc f258 0c3e 0774 923a
00000150: 0973 e0bc 451e 42bd 6e31 18bc 056f 14bd
00000160: 0969 303d 2b38 17be 7b8f 93bd b58c bebc
00000170: a7fc 4e3c f133 8f3d 48f3 0ebd 8cd5 70bc
00000180: d8d2 04bd 505d f93d ad0b 25bd a872 6cbd
00000190: 94b3 913c 538b 62bd 2817 813c 2abb d5bd
000001a0: 7e86 833d 7958 a13d 6188 1fbd 8a36 af3d
000001b0: 3029 ff3c f9f6 193d 3ea5 853d d15d 7cbc
000001c0: bb9f e3bc 6f62 d53d dd1b 46bd 0c8a 383d
000001d0: 79dc 59b9 debe 04bd 10fc 113d 200b ffbc
000001e0: e83b 1e3d 86c8 973c 7487 383d d25e 33bd
000001f0: 025b e43c 02cf 88bd 4611 e23c 2b94 39bc
00000200: 7f81 233e 2e9f c53d 63bb 94bb 5fb4 c43d
00000210: 465a 38be 2aa9 f13b 2e3b d83d 5076 263e
00000220: 27f3 db3c 4b07 37bc 9bab 0f3c 5ca7 b93d
00000230: b521 95bd 619d 833c c13c aebc 3e1d 123d
00000240: 58ad 9ab9 0fb8 2cbd 7578 a63d 27ff de3d
00000250: b8f7 f4bd 165b 8e3d b82c f4bc f558 bd3d
00000260: 52f3 35bd 23e2 10bd df0e c3bc 8909 f5bb
00000270: ce2d 57bd 0f81 573d 7d67 54bd bdfc 303b
00000280: e2c3 423d ef5c 603d adb2 a8bd 3cd6 fdbd
00000290: 9161 fcbd a131 95bc 5799 4f3d da8f 90bd
000002a0: 2853 4b3d a3fe 383d ede7 39bd 99e5 f03c
000002b0: b8eb 3fbc 6cfb 7a3b 0075 e53c ed0c b53c
000002c0: 36bf 0abc c55f d93d 0d8b 59bd da6f 28bd
000002d0: d633 dbbc 8aa4 013d a513 8ebd a8d1 02bd
000002e0: 04fb 7bbd b872 a1bd 0944 82bc 2476 0a3d
000002f0: 57bd ea3d 3c99 bf3b fbc1 ebbb 6b6a 993c
00000300: 34b8 2e3c b6da 653d 3b59 283d de67 d7bd
00000310: 5a1e ccbd 692e adbb 8360 5b3d 3dde 123d
00000320: 3b06 2f3d cf12 53bd fb7e bd3a e8c6 79bc
00000330: e26d 75bd 6cb4 173d 7094 2fbc 0ef1 8ebc
00000340: a014 a1bb 6074 fdba 76ec c1bd 7e8e 1a3d
00000350: 0e33 60bc 7e71 aa3c 4243 0e3d db67 303c
00000360: 0462 9fbd 1332 6b3d 4a80 ac3c 8eea d63a
00000370: f77a 363d 4ee6 e43c a8c6 403c 942d ffbb
00000380: c0c5 c53b b3d6 9abc 1c2a 633d 15b8 8e3d
00000390: 28f1 81ba 5f82 78bd 7aa6 e73c 8637 943d
000003a0: 911c 18bd 206a 64bd 92ee d53b 6eaf d1bc
000003b0: 0d87 c6bc cd23 7fbd 78c6 29bd 8f3f 2bbc
000003c0: a3b5 f0bc 91a7 dd3c f73a 3e3d bf02 babc
000003d0: f189 0fbd 0395 e83b a605 ffbc cdba 733c
000003e0: eccd 32bd 4cfd 86bb 9798 39bd b7f3 c73c
000003f0: 29e1 dcbc 3d90 e43b fe00 2ebd 72ff 3d3c
1.0837354e-08 3.8231813e-09 -1.0802814e-08 -2.5699838e-09 -1.2102759e-08 1.7312889e-08 7.919239e-10 1.5796871e-08
2.9140355e-09 7.095538e-09 -5.2253664e-09 -5.5705747e-09 2.0380261e-08 1.31994735e-08 -8.3595335e-09 4.489697e-09
1.1175204e-08 1.2385573e-09 3.5312603e-10 -4.7059956e-09 -9.756686e-09 -8.633783e-09 2.812414e-09 -1.890273e-08
1.5589176e-09 -6.63303e-09 2.299957e-08 8.0737467e-10 9.121869e-09 -1.0440426e-08 -1.3710037e-11 -3.0411613e-09
-1.4401434e-08 -3.103813e-09 1.0971835e-09 -3.2982448e-09 -9.386021e-09 -8.728977e-09 1.345495e-08 -4.6630557e-09
8.9234914e-10 1.31158195e-08 -1.2252302e-08 -2.8820133e-09 -1.5903073e-08 -1.186007e-08 2.6714053e-09 1.791297e-10
-6.697849e-09 4.2830726e-09 1.5090109e-08 -5.4921006e-09 1.9448033e-08 -1.6973502e-08 -9.658109e-10 6.131032e-09
-1.0269565e-12 -6.558088e-09 -4.158128e-09 1.2369101e-08 -4.6969215e-09 1.0130049e-08 4.5555324e-09 4.4181427e-09
0.22123744 -0.049695514 -0.005603975 0.04979102 -0.07595306 -0.038379095 -0.03881697 0.0436349
-0.043151528 0.010503737 0.060994785 0.048814133 -0.059084486 -0.0077393986 0.03425421 0.075512774
0.02240085 -0.027449576 0.13705805 0.0011173495 -0.027398603 -0.04739215 -0.009289129 -0.03623869
0.04306892 -0.1476752 -0.07205101 -0.023260454 0.012633479 0.06992329 -0.03489998 -0.014699351
-0.03242764 0.12176001 -0.040294338 -0.057726532 0.017785825 -0.05530865 0.015758112 -0.10436089
0.06422137 0.07878203 -0.03894842 0.085553244 0.03114757 0.037589047 0.06525658 -0.015403227
-0.027786126 0.10419165 -0.048366416 0.045053527 -0.00020776865 -0.032408588 0.035640776 -0.031133235
0.03863135 0.018528234 0.045051053 -0.0437916 0.027875427 -0.066801086 0.027596127 -0.01132683
0.15967368 0.09649502 -0.00453894 0.096047156 -0.18003187 0.0073749023 0.10558163 0.1625607
0.026849343 -0.011171172 0.008768941 0.090651244 -0.0728182 0.016066255 -0.021269204 0.03567242
-0.0002950232 -0.04216772 0.08128444 0.1088851 -0.11961311 0.06950967 -0.02980648 0.09245483
-0.0444215 -0.03537191 -0.023810802 -0.0074779433 -0.052533917 0.052613314 -0.051856507 0.0027006113
0.04755009 0.05477613 -0.08237205 -0.123943776 -0.12323297 -0.018212141 0.050683346 -0.070586875
0.04963985 0.045164715 -0.045387197 0.029406356 -0.011713915 0.0038296832 0.028009892 0.02210089
-0.00846844 0.1061397 -0.053111125 -0.041122295 -0.026758116 0.031651057 -0.06937341 -0.031938225
-0.061518684 -0.07883209 -0.015901582 0.033804074 0.11461895 0.0058471244 -0.007194755 0.018727502
0.010664035 0.056116782 0.04110072 -0.10517858 -0.099667266 -0.0052850735 0.053558838 0.035856474
0.04273055 -0.05153161 0.0014457399 -0.015245177 -0.059919246 0.037037298 -0.010716543 -0.017448928
-0.004915789 -0.0019337051 -0.094689295 0.037733547 -0.013684047 0.02080607 0.03473211 0.010766949
-0.07782367 0.0574208 0.021057267 0.0016396807 0.044550862 0.02794185 0.011766113 -0.0077874158
0.0060355365 -0.018901205 0.05546008 0.069687046 -0.0009913789 -0.060671207 0.028277624 0.07237153
-0.037136618 -0.05576527 0.006528684 -0.025596347 -0.02423432 -0.06229 -0.04144904 -0.010452165
-0.029383486 0.027057441 0.046442952 -0.022706388 -0.03504366 0.0070978417 -0.031130623 0.01487608
-0.043653414 -0.004119551 -0.045311537 0.024408204 -0.026962833 0.0069752024 -0.042481415 0.011596547

conv1.lin_neg_r.weight f4 [32, 64]
00000000: 5309 51b3 804a 2a31 799e 84b0 6f71 13b2
00000010: 2db4 01b1 2530 23b2 58ad a631 eba0 4432
00000020: 67af ffb1 1e35 1c31 2f8c 9e31 9786 e131
00000030: 03ac 5ab2 7763 d331 b67b b931 5887 b0af
00000040: fc65 4bb2 81df cf31 b8b8 4d31 fd22 82b1
00000050: e98b ed31 c7ec 81b1 e648 2e32 c76f 2d32
00000060: 0078 60b2 352f 34b2 3dbb 0931 215d 6e32
00000070: 029f 7fb2 344e 28b1 a7ad 9b32 d5a0 0d32
00000080: 2acb 85b2 aa7e 2032 ae29 62b2 48a5 1032
00000090: 5f99 d131 7657 8432 0548 49b1 ab08 59b2
000000a0: 376c 5cb1 dd06 6630 698a ebb1 9d8a 56b2
000000b0: aaf3 86b2 4a43 04b2 2537 dfb1 b3a1 c9b1
000000c0: 00eb 06b2 f44d 3f31 1d41 ff30 d510 59b0
000000d0: 18fd 8331 73fe b331 f28f 0cb2 4df6 4832
000000e0: 5121 6e32 3aca 7db0 b23c 35b1 1e1e 41b2
000000f0: 24d0 1832 539d 5e31 93f3 2731 098a 1132
00000100: fc6e c33e 5d93 403e 6286 393e d10b 813c
00000110: 6833 cdbe 7e51 f4bc d275 c13d b365 17be
00000120: 05a7 da3b cdab 06be b145 763c a1e6 30be
00000130: 9284 0d3d 8df4 363d df1e 61bd 2b38 2fbe
00000140: 3105 14bd 5c15 4d3d 534f f3bd 32c8 b83d
00000150: 0b20 933c f439 12be 04c2 f6bc e0dd b93d
00000160: 1f56 14be f5b3 8d3d c840 5b3d ccef 493d
00000170: 8a6c 8a3c e280 9d3d 3c41 2c3d 8064 3bbd
00000180: 1087 363e ca20 873c a536 d9bc f129 713d
00000190: 4b5d ed3c fe05 6c3d 6092 49bd 7d30 273d
000001a0: 4b0b b0bc 32ac cb3c 1e15 b43c 77a5 a33a
000001b0: c540 81bc c1e0 043c ff21 9fbd 9590 243d
000001c0: 9ec1 f2ba 6762 0ebc 32fc 40bd 34db 623c
000001d0: dd6b 343e 95f2 56bd 6da6 31be 92f1 d43d
000001e0: eda8 eebd ddae e7bc 3e6c 14be 9983 babb
000001f0: ddf5 18be 72b6 473b 194a c0bd 0840 003c
00000200: 8311 a43e 4443 babc 5c71 5e3d ba2c ac3d
00000210: 3ec2 5d3d ce22 b1bc 9abe 63bc 7bdd 8bbd
00000220: d017 f2bd ac04 07bd f79f c3bd a349 e7bc
00000230: dcbe 4ebc dcb6 f6bb 50c0 b5bd a618 b33d
00000240: 34b5 0ebe ae40 dfbd bd6c 58bc dc23 77bd
00000250: 7bf0 15bd a745 ebbd 056c 7bbd f65b fa3b
00000260: d5a9 993d af5f e6bd 09cb ac3d b7e1 2a3c
00000270: d529 ae3b 4375 e93d ba1a 3fbd 6a8f 083d
00000280: 4faf 1abe e685 5e3d 03ad 0a3d 7471 9a3d
00000290: 4a64 83bd 34cc f93d feb2 49bd 8a7b a93d
000002a0: bf4d e23d b87e 2e3d 010c 173e 6c11 c23d
000002b0: 2a53 1abd 4877 013e 85c0 cc3d 1162 b43d
000002c0: 9c18 12be 6d44 80bc 7ed1 f0bb 3101 1f3d
000002d0: 5a8a d63d dd2a c9bd d0f4 b13d c905 dc3c
000002e0: fbfd 113d 4858 473d c806 b33d 4919 ae3d
000002f0: 198b c3bc 0423 1bbd c11d 7fb9 9e18 113d
00000300: 8ab5 89be 23d5 56bd 984a 6fbe d615 683d
00000310: 5a96 2c3e 0612 87bd f6af f6bd 82c7 ed3d
00000320: e6c2 da3d dea0 e23d 55b2 8f3d d79f 1c3e
00000330: d92c b03c 9e6e 94bd 8921 1d3e f392 b3bd
00000340: 8dd9 0f3e 7a82 223d 235f 643d c8cf d9bc
00000350: ff76 f03d b068 c4bd 5dd7 8f3d de80 8b3d
00000360: 4fed b53d cc61 30be 9b32 87bc 7b6c 1b3c
00000370: 446b 6f3c dc21 f1bb e3fb ad3d b626 28bd
00000380: 7d4b c2bd 88ce 863d f89b 21bd 9f26 c1bb
00000390: 5322 ae3c 158d d93c 1d11 843d 314c d43c
000003a0: 29f5 833d 0a89 69bd a321 37be fa45 a43d
000003b0: 9d66 f23b 7b2e cc3d e1b1 ce3c 7a71 01be
000003c0: 4e0b b13d aeaf e23d d822 ad3d 0603 1fbd
000003d0: 53a9 88be 8c52 cebc fcc3 f93c cb5a a53d
000003e0: e977 2c3e dd8e e43c 6ce1 183e 921b b53d
000003f0: 11b6 f8bd 11bd 893d 2417 883d b740 493d
-4.8670085e-08 2.4780604e-09 -9.649305e-10 -8.582318e-09 -1.8874389e-09 -9.4987955e-09 4.8509428e-09 1.144529e-08
-7.4414177e-09 2.2731181e-09 4.6143422e-09 6.563663e-09 -1.2728381e-08 6.152216e-09 5.398273e-09 -3.211038e-10
-1.1839344e-08 6.0499024e-09 2.9936427e-09 -3.7874757e-09 6.9135138e-09 -3.7813126e-09 1.0144708e-08 1.0095341e-08
-1.3065801e-08 -1.0488113e-08 2.0042557e-09 1.3874598e-08 -1.4879108e-08 -2.449167e-09 1.8123343e-08 8.243849e-09
-1.5575626e-08 9.342026e-09 -1.3164408e-08 8.419484e-09 6.100137e-09 1.5406595e-08 -2.9290288e-09 -1.2633033e-08
-3.2075727e-09 8.3683266e-10 -6.8551356e-09 -1.24879564e-08 -1.5710459e-08 -7.698711e-09 -6.4964234e-09 -5.868253e-09
-7.853259e-09 2.783847e-09 1.8572198e-09 -7.896806e-10 3.841375e-09 5.238513e-09 -8.181802e-09 1.16975345e-08
1.3860999e-08 -9.2328245e-10 -2.6373468e-09 -1.1240926e-08 8.89489e-09 3.239468e-09 2.4440154e-09 8.471496e-09
0.38170612 0.18806215 0.18117669 0.015752705 -0.40078282 -0.029824015 0.094463006 -0.14784889
0.0066727423 -0.13151474 0.015031264 -0.17275478 0.034550257 0.044666816 -0.05496108 -0.1711127
-0.036137763 0.050069198 -0.11880364 0.09022559 0.017959615 -0.1427992 -0.03012181 0.090755224
-0.14485978 0.0691909 0.053528577 0.049300954 0.016897459 0.07690598 0.0420544 -0.04575014
0.1782496 0.016495127 -0.026515314 0.05887789 0.02897515 0.057622902 -0.04921186 0.040817726
-0.02148976 0.024862383 0.021982726 0.0012485225 -0.015777955 0.008110226 -0.07770156 0.040176947
-0.0018520837 -0.008690453 -0.047115512 0.013846207 0.17619272 -0.052477438 -0.17348643 0.103976384
-0.11653314 -0.028281623 -0.14494416 -0.005691957 -0.1493754 0.0030473736 -0.09389133 0.007827766
0.3204461 -0.022737153 0.054307327 0.084069684 0.054140322 -0.021623041 -0.013900423 -0.068293534
-0.11820948 -0.03296344 -0.09551995 -0.028233355 -0.012618747 -0.0075291228 -0.08874571 0.08744936
-0.13936311 -0.109010085 -0.013209519 -0.060336933 -0.036606293 -0.114878945 -0.061382312 0.007640357
0.07503096 -0.11248719 0.084371634 0.010429791 0.0053150454 0.11399319 -0.046656348 0.033339895
-0.15105937 0.054326914 0.033856403 0.07541171 -0.06415613 0.12197152 -0.049242966 0.08275516
0.11049985 0.042601317 0.14750673 0.09475979 -0.037676968 0.12643158 0.09997658 0.08807767
-0.142672 -0.015657628 -0.007349192 0.038819496 0.10475607 -0.09822629 0.086892724 0.026858227
0.035642605 0.048668176 0.08741528 0.085009165 -0.023870038 -0.03787519 -0.00024329779 0.035423867
-0.26896316 -0.052449357 -0.23368299 0.05666145 0.1685423 -0.065952346 -0.12045281 0.11610319
0.10681705 0.11065839 0.07016436 0.15295349 0.02150576 -0.07247661 0.15344824 -0.08768263
0.14047833 0.039675213 0.055754792 -0.026588336 0.11741447 -0.0959028 0.07023499 0.06811689
0.08883154 -0.17224807 -0.016503623 0.009486313 0.014612976 -0.0073587727 0.08495309 -0.041052543
-0.094870545 0.065823615 -0.039455384 -0.0058944966 0.021256601 0.026556531 0.064485766 0.025915237
0.06443245 -0.057015456 -0.17883925 0.080211595 0.0073974864 0.09969803 0.025231304 -0.12640944
0.08644734 0.110686645 0.084539115 -0.038821243 -0.26691684 -0.025185846 0.03048896 0.08073958
0.16842617 0.027900154 0.14929742 0.08843149 -0.121441014 0.06725515 0.06645039 0.049133983

conv1.lin_neg_r.bias f4 [32]
00000000: ee2f a2bc c8e4 213d a6cc e23c 36be d73c
00000010: b00a 89bd 43e1 13b6 5fb0 0dbd 0311 61bd
00000020: 1eff 9339 028b 9d3c f42c 7fbb 63d4 093d
00000030: 7227 92b8 4465 8d3c 3579 c73c d109 f737
00000040: 5b7d 28ba beb1 10bc 957d 06bd 86f4 be3c
00000050: 046c 74b7 f7bb deba 27d8 8d39 9560 c33c
00000060: 2e28 e53d 3f9f 23bc 99a0 ed3c 8d42 f739
00000070: bad8 6cbb 9806 d8ba 1949 9d3c 6c84 35b9
-0.019798245 0.039524823 0.027685475 0.026335817 -0.066914916 -2.2035827e-06 -0.03459203 -0.054947864
0.00028228102 0.019231323 -0.0038936706 0.033649813 -6.96917e-05 0.017260201 0.024349788 2.9449266e-05
-0.0006427371 -0.00883144 -0.032834608 0.023309957 -1.4568683e-05 -0.0016993274 0.00027054662 0.023849765
0.11189304 -0.009986698 0.029007243 0.00047161095 -0.0036139921 -0.0016481457 0.019199895 -0.00017310836

convs.0.lin_pos_l.weight f4 [32, 64]
00000000: 2794 b6bc d123 a13c b452 d3b1 d5e8 803d
00000010: 44c1 d03c 1753 a632 abb5 393d 4388 cd37
00000020: d161 9d3c b890 393c 878e f23c 6d6b 8fb1
00000030: 7713 c83a 8d9c 5abb b4d9 b9bc 9a40 f3bc
00000040: c545 2bbb 6b81 dc32 fc4c c73c 8172 14b4
00000050: 6663 0ebb 9571 cbbd 59e2 f1b1 e157 8a3d
00000060: da65 c0ae c3c8 1e36 40e4 993b ef21 69bc
00000070: 7456 4532 30d7 ba32 ed5e 4f3c ea80 d531
00000080: 24f1 6132 fadd 023c 04cc fe3d 600c 97bd
00000090: 4aa3 12bc 39a0 3234 c165 ed3a ca98 58b3
000000a0: 7383 afbb 51b0 69bc fd5b 9736 d049 ed37
000000b0: 429b aeb2 c8e7 2fbd 43cb 39bd a491 d8bc
000000c0: cf85 3e32 d05f f532 e25a b032 0d81 7fba
000000d0: 052f bcb1 6e87 35b7 17fb 8dbd 19fd 47bd
000000e0: cf2d 2d3c a226 abb2 c4f7 82bd b1df a23c
000000f0: 6d40 143d 6e52 4ab1 52f8 09bd f3a4 21b7
00000100: 830b bfbb b0d6 56bb d1a9 7ab1 d298 fcbd
00000110: 1f8a 61bd a594 36b3 60b3 76bd 0876 f3b7
00000120: 5c0a b13c 1eb0 30bc 4111 a0bd cf29 d3b1
00000130: 504e e633 9e1c ccb8 d0ac 29bc 90b7 11bd
00000140: 4a17 4b39 e908 1fb1 5f4f eebd d6e7 8fb1
00000150: 437b 61bb 1391 b53d 048f aab2 8993 74bc
00000160: c692 81b1 46fb 63b7 3044 aa3c c2f8 b33a
00000170: b988 9db2 4d98 16b1 ab76 17bd d56e 29af
00000180: 08fa 0330 cd40 ee3c ab95 18be 6e87 b33d
00000190: e262 5bb9 3ec0 38b2 5236 4339 1add 0a31
000001a0: 6a1b 8bbd 2e8d ff3c 2bd2 8db7 e08c c2bc
000001b0: b9ea ecb1 9803 80bd 51ad 37be 4cb1 b83c
000001c0: 86dd 99b1 b90a 2432 c24e 14af 2602 00bc
000001d0: 0563 a0b0 47db 69b7 63bb a13d 3bf4 303e
000001e0: 2a28 8bbe e68a 46b1 f456 aebd 6502 2e3e
000001f0: 07b3 913c a5e1 5630 6e36 153e 2908 41b8
00000200: 19f7 f53d 12c0 9b3d a9ce 5132 6017 9f3d
00000210: e139 7f3e e164 3233 cc39 023e 008d d935
00000220: b1aa 16bb 610b 813d 45f7 e33c 9f82 fdb1
00000230: bc21 f731 7434 9831 4aae 293d 264e ab3d
00000240: 3358 8bb1 4338 cab0 d005 923d 180c abb4
00000250: 452e db32 ceca abbd 8b02 1932 2acc ac3d
00000260: e3e1 6ab2 574f 3938 9d67 13be 73d7 1231
00000270: 0ca6 4d32 1de7 4eb1 29c0 533d b20a 2132
00000280: 9b41 35b1 62d3 983d 9005 063c 83ce 9f3d
00000290: 1b88 f0b1 f512 e733 2480 21b2 027e a031
000002a0: cbba 6dbc d480 ba3d 65a3 eb37 ddf9 30bd
000002b0: 52ae 1632 f62f ce39 4dc2 c8bc a662 edbd
000002c0: aeee b731 8b78 25b1 859f dc31 312a e33d
000002d0: 84b5 f831 e11d 1a38 bdc8 05be 51dc b83d
000002e0: 5796 c03d 5211 31b1 0944 0b3e 2ae2 893c
000002f0: a737 b53c a8eb 2531 7223 be3c ddb1 b438
00000300: cdb6 f8bd fdd7 443d a32d 3db0 e573 b6bd
00000310: ff8c 8b3c e004 9432 8205 253d 885e ad37
00000320: 4168 dabb 3f94 833c 92fb 5bbc 84cf 02b2
00000330: f1de 2732 f954 47b2 6b59 ff3c 58d9 3e3d
00000340: 21a1 9732 e034 2ab1 0c2c c2bd 22df 61b4
00000350: 1346 7832 f0f5 35bb ecb2 15b2 7f27 cf3c
00000360: cdaa 93b0 ca6a 0c34 cd84 6bbc e045 4132
00000370: c833 a1b1 870f 3031 a578 f53c 25cf 98b0
00000380: 2b88 95b2 87a3 a33d e2b4 84be 6747 b33d
00000390: a9d9 01b1 8af1 9332 2b98 e4b1 be43 14b1
000003a0: 4a3e 77bd a83c c8bd 13ef 85b6 7b86 50be
000003b0: c958 79b0 c351 5a3e e9a9 e5bd d648 443e
000003c0: 6dce 8c31 379b c7b1 ce47 2fb2 14e1 5dbd
000003d0: 6cde 6d30 4c1e a333 2edf 333d c4e9 64bd
000003e0: d7b4 f4bd 0f3e 6f31 9f94 2e3d 2dfe 5d3e
000003f0: 3611 f9bc 827f 6032 c1b9 853d c511 e0b6
-0.022287441 0.019670399 -6.1503105e-09 0.06294409 0.025482781 1.9362728e-08 0.045339268 2.4501356e-05
0.019211682 0.011326008 0.029608978 -4.1740607e-09 0.001526459 -0.0033357472 -0.022686817 -0.02969389
-0.0026134115 2.5670223e-08 0.024328701 -1.382523e-07 -0.0021726727 -0.099337734 -7.039756e-09 0.06755043
-8.7492416e-11 2.3660693e-06 0.004696399 -0.014229282 1.1486566e-08 2.1751106e-08 0.012656909 6.2137717e-09
1.3151553e-08 0.007987494 0.12441257 -0.07375407 -0.008950064 1.663583e-07 0.001811199 -5.043038e-08
-0.005356246 -0.0142632285 4.5108595e-06 2.8286973e-05 -2.0326869e-08 -0.042945653 -0.04535986 -0.026436634
1.108988e-08 2.8565324e-08 2.0530425e-08 -0.0009746708 -5.4768656e-09 -1.0819973e-05 -0.06932657 -0.048825357
0.010570004 -1.9924588e-08 -0.06394914 0.019882055 0.036194254 -2.9441725e-09 -0.033684082 -9.634753e-06
-0.0058302297 -0.0032781772 -3.6476318e-09 -0.12333836 -0.055063363 -4.251037e-08 -0.06022966 -2.902282e-05
0.021611385 -0.010784177 -0.07815791 -6.1456613e-09 1.07244546e-07 -9.7328084e-05 -0.010356143 -0.03557545
0.00019368264 -2.314261e-09 -0.116362326 -4.1882044e-09 -0.0034405745 0.08865561 -1.985564e-08 -0.014927753
-3.7710803e-09 -1.35887585e-05 0.020784467 0.0013730752 -1.833938e-08 -2.1914446e-09 -0.036978405 -1.5409836e-10
4.801284e-10 0.029083634 -0.14900844 0.087660655 -0.00020922304 -1.075392e-08 0.00018616885 2.0207325e-09
-0.06792338 0.03119525 -1.6906377e-05 -0.023748815 -6.895189e-09 -0.062506855 -0.17937209 0.02254548
-4.4780704e-09 9.548494e-09 -1.3488502e-10 -0.007813012 -1.1669675e-09 -1.3938937e-05 0.07897069 0.17280667
-0.2717908 -2.8891747e-09 -0.08512679 0.16993101 0.017785562 7.8173407e-10 0.14571545 -4.6022386e-05
0.12010021 0.07604994 1.221239e-08 0.0776813 0.24924423 4.1535603e-08 0.1271736 1.6208796e-06
-0.0022989924 0.063009985 0.027827868 -7.378119e-09 7.1924813e-09 4.4297455e-09 0.04142598 0.08364515
-4.0554595e-09 -1.4713425e-09 0.07130015 -3.186003e-07 2.5515996e-08 -0.08388291 8.90635e-09 0.08437379
-1.3671953e-08 4.4181328e-05 -0.14394994 2.1368265e-09 1.1970325e-08 -3.0108318e-09 0.05169693 9.373865e-09
-2.637626e-09 0.07462193 0.008180037 0.07803061 -7.0003927e-09 1.0760224e-07 -9.400569e-09 4.6709383e-09
-0.014509867 0.09106603 2.809027e-05 -0.04320704 8.770785e-09 0.00039327116 -0.024506712 -0.11591081
5.3531357e-09 -2.407918e-09 6.420978e-09 0.11092032 7.238386e-09 3.6744288e-05 -0.13064857 0.09026397
0.09403675 -2.5766735e-09 0.13600172 0.016831476 0.022121264 2.4144615e-09 0.023210261 8.6161985e-05
-0.121442415 0.048057545 -6.8822653e-10 -0.08908824 0.017035006 1.7231685e-08 0.040288456 2.0667227e-05
-0.00666526 0.0160619 -0.013426678 -7.6141795e-09 9.77137e-09 -1.1602645e-08 0.031170567 0.046593994
1.7651987e-08 -2.4768312e-09 -0.094810575 -2.1035933e-07 1.4451433e-08 -0.0027764998 -8.713624e-09 0.025287388
-1.0744202e-09 1.3077366e-07 -0.014374924 1.1249966e-08 -4.6916036e-09 2.5620197e-09 0.029964754 -1.111833e-09
-1.7407805e-08 0.07990175 -0.25919253 0.08753853 -1.8895696e-09 1.7222892e-08 -6.652973e-09 -2.1575342e-09
-0.060362138 -0.09777194 -3.991541e-06 -0.203638 -9.0711844e-10 0.21320252 -0.112140484 0.1916841
4.098004e-09 -5.809308e-09 -1.0202667e-08 -0.05416973 8.653618e-10 7.59579e-08 0.043914013 -0.055887
-0.11948555 3.4814354e-09 0.042622205 0.21678992 -0.030403715 1.3067508e-08 0.0652957 -6.677789e-06

convs.0.lin_pos_r.weight f4 [32, 32]
00000000: 005f b739 26f1 ccbd 9fc0 74b2 7a52 843e
00000010: c50d e1bc e776 d032 ad3c fbbe fdb4 1238
00000020: acf8 813e 1146 6fbf a874 afbe c6f3 f4b1
00000030: 08bc 5132 e928 bd30 5671 b23d f5a6 23bf
00000040: 3729 ac32 be7d 38b2 4b6b 0f3e dfa2 1034
00000050: e728 31b2 a719 993d 6059 8032 5ab6 543e
00000060: 17e0 2832 17e2 bbb5 5988 b23d 1b94 2cb1
00000070: 5786 5232 8364 5f33 a4b5 a7be e5df b3b0
00000080: 389f eb3e d30d 11bf 39de 2131 a746 6c3e
00000090: 74fa 463e 75a9 2a31 bf65 f7be 8c44 adb7
000000a0: aa91 0dbe 5242 82be 59f1 863d e625 2f32
000000b0: ff5b d6b2 c81d a932 21e6 e5be 97ce 833e
000000c0: dc58 34b3 4a24 8bb2 2ac6 bbbd 5ec6 bcb1
000000d0: c34d 6eb3 b77e b63e 8ed3 7fb2 4398 13bf
000000e0: 1690 8e32 a5ef 3235 de14 1a3f 9de6 7530
000000f0: 2ff8 afb2 aabd 7eb1 7fa4 16bf f54e 5a32
00000100: f800 103f e1dd 3fbe 3ca2 ed32 4c83 b63c
00000110: 5a81 d63d 35d9 bc31 753c e43d e02a 9237
00000120: b768 c7bc 714b 37be 6984 3abe 64b5 dc32
00000130: 28b0 e7b0 c036 a832 61e2 d5bd b983 aa3e
00000140: 6e26 e1b1 a17c 2a31 bf3d 13bd dc50 4d34
00000150: e406 4932 836c 0bbe f9d0 7e32 1026 febd
00000160: f8f9 86b1 83ee 1b38 2732 cd3d 6c32 9d32
00000170: c199 4130 7731 1432 f45b 97be 20e5 90b1
00000180: 4b9b 503f 2c17 debd f50b 10b0 787f 76be
00000190: 138e b03e 7781 4130 e2ea 043f 68bf c0b8
000001a0: 80fe 1ebf f792 823f 2d9a e53e d159 8832
000001b0: 2639 a8af 5b63 4932 ea21 b6be 5a02 9a3f
000001c0: 96d0 a7b2 28e3 8cb2 c70c b5be 5287 2c34
000001d0: 0d94 a532 5fa7 03bf 4be3 2db0 f5e5 2ebf
000001e0: 6759 e0af 7902 7bb7 b970 dbbe 6645 6eb1
000001f0: 7dbf d1b2 1ec7 f2b0 54e2 a4bd 0dc5 1032
00000200: f34d 4d37 4368 2fb7 2df6 1832 0552 08b9
00000210: 10e5 e2b8 f29e 1531 51f7 edb7 c55b 4831
00000220: 54a1 b4b8 eb72 f037 c0ae 2939 c75d 64b2
00000230: 5fb5 3730 7372 5831 22fa b0b5 ed25 b0b8
00000240: 674a 3e30 328d 8730 0587 d5b6 060a 9830
00000250: 034d 30b2 dc48 04b9 f404 6831 8701 a3b7
00000260: eeaf 81b2 de57 8232 c52c af39 6c05 c231
00000270: 5292 e332 3e1b 03b2 8087 fc36 c74d beb0
00000280: 06bb 123f c0a2 723e 052c 6732 83e2 02bf
00000290: 7427 873e ccfe 4c31 af9c 503f 5fdb cf36
000002a0: e2ed ebbd 35a6 993f f81b 66bd 007e d3b2
000002b0: 9fe3 89b2 01a4 4932 42aa b2bb 5b52 7c3f
000002c0: be4c c231 8c39 94b3 6272 09bf d0aa 25b4
000002d0: afd8 82b4 e5a6 86be 3c25 f932 3906 f5be
000002e0: dcc7 abb1 2f3e 80b6 d750 37bf 4b2a e732
000002f0: 33d1 e930 f844 36b4 1eea e53e 79c9 09b2
00000300: dc90 c5ba 83c1 0cbb 06e2 922f 11f4 bcbc
00000310: dc88 b5bc 9bd6 eb32 0ec7 25bb 4e1a 01b5
00000320: 54d3 5cbb a245 3fbb eba0 febb 93fe f631
00000330: 7b5b aeaf 27b8 eab1 9a20 41bb bf09 13bc
00000340: 49c5 74b1 d182 85b1 f612 92bc cd09 b230
00000350: fc48 a731 1d37 98bb 9070 81b0 478d b3bb
00000360: 7a7a 7632 23b9 8fb2 9630 5bbb 0d3e 3131
00000370: dd8e 3532 4501 9eb2 8f13 c9bb 49c0 0ab1
00000380: b4ab dd3e dea3 25bf 952a 9ab1 f7dc 843d
00000390: b795 b9bc 8b9d ff32 bd2b 8abe 7314 cc36
000003a0: 20cd 27bf 3c7e d63d 005e 043f 682f bfb2
000003b0: b123 0e32 003a 3731 84e9 86bf 4b52 223f
000003c0: 2574 86b1 1b73 1532 ffd4 0d3e d490 2cb4
000003d0: 09a6 3db3 92fe e6be 966a 2c32 e8bd 15bf
000003e0: f3a4 8830 0970 f1b4 85d7 c23e 9d73 11b2
000003f0: 1fad cc31 9c84 ef31 e069 3cbf 4a26 7031
0.0003497526 -0.10006933 -1.4246466e-08 0.25844175 -0.027472386 2.4268457e-08 -0.4906973 3.497767e-05
0.25385034 -0.9346629 -0.3426869 -7.1290485e-09 1.22081545e-08 1.3763187e-09 0.08713023 -0.6392663
2.0042178e-08 -1.07388e-08 0.14005773 1.3470297e-07 -1.0312056e-08 0.07475596 1.4941804e-08 0.20772687
9.829839e-09 -1.3998387e-06 0.087174125 -2.5113482e-09 1.2254154e-08 5.201265e-08 -0.32755768 -1.3087599e-09
0.46019912 -0.5666172 2.3554902e-09 0.23073827 0.19431478 2.483458e-09 -0.48319814 -2.0655127e-05
-0.13825098 -0.25441223 0.06589002 1.0194958e-08 -2.4954714e-08 1.9687732e-08 -0.44902137 0.25743553
-4.1990333e-08 -1.6198232e-08 -0.09168656 -5.494072e-09 -5.5484417e-08 0.3564355 -1.48910555e-08 -0.5765421
1.6596498e-08 6.6658896e-07 0.6018809 8.94582e-10 -2.0485542e-08 -3.7069676e-09 -0.5884475 1.2707223e-08
0.5625148 -0.18736984 2.7664207e-08 0.022279404 0.104738906 5.4962137e-09 0.11144344 1.7424522e-05
-0.024341924 -0.17899872 -0.18214573 2.5693858e-08 -1.6857529e-09 1.9582671e-08 -0.10443569 0.3330362
-6.552731e-09 2.48091e-09 -0.035947558 1.9121529e-07 1.1701307e-08 -0.13615613 1.4832261e-08 -0.124096036
-3.9283314e-09 3.717701e-05 0.100193314 1.8300135e-08 7.043149e-10 8.625981e-09 -0.29562342 -4.217e-09
0.8148696 -0.108442634 -5.2403887e-10 -0.24072063 0.34483394 7.039697e-10 0.519209 -9.1909256e-05
-0.62107086 1.02011 0.4484419 1.5873328e-08 -3.0599628e-10 1.1722331e-08 -0.3557275 1.2031968
-1.9536213e-08 -1.6401444e-08 -0.3536131 1.6067978e-07 1.9275854e-08 -0.51427263 -6.3260036e-10 -0.68319637
-4.0808887e-10 -1.4961342e-05 -0.42859438 -3.4673007e-09 -2.4417881e-08 -1.766441e-09 -0.08050981 8.426707e-09
1.2237101e-05 -1.0455088e-05 8.903538e-09 -0.00013000525 -0.00010819186 2.1772704e-09 -2.8367767e-05 2.9155995e-09
-8.6131186e-05 2.8663742e-05 0.00016182195 -1.3292669e-08 6.6832756e-10 3.1497194e-09 -1.318582e-06 -8.399398e-05
6.922733e-10 9.862673e-10 -6.363613e-06 1.1062304e-09 -1.0262059e-08 -0.00012615643 3.3763259e-09 -1.9431825e-05
-1.509758e-08 1.517395e-08 0.00033411957 5.6467595e-09 2.6492817e-08 -7.631398e-09 7.5259595e-06 -1.3846425e-09
0.57316625 0.23694897 1.34559786e-08 -0.5112688 0.26397288 2.9830742e-09 0.8148908 6.194619e-06
-0.11519982 1.2003847 -0.056179017 -2.4620931e-08 -1.605241e-08 1.173703e-08 -0.005452425 0.98563164
5.6548677e-09 -6.902255e-08 -0.5369016 -1.5428964e-07 -2.4372045e-07 -0.26299205 2.9004347e-08 -0.4785631
-4.9994764e-09 -3.8219364e-06 -0.71607727 2.6911172e-08 1.7012439e-09 -1.6975162e-07 0.4490518 -8.020259e-09
-0.0015073079 -0.0021477647 2.6717845e-10 -0.023065599 -0.022159986 2.7455192e-08 -0.0025295648 -4.8094523e-07
-0.0033695297 -0.0029185791 -0.0077706478 7.188484e-09 -3.1715416e-10 -6.831232e-09 -0.0029468895 -0.008974492
-3.5618817e-09 -3.8856816e-09 -0.017831307 1.295399e-09 4.868637e-09 -0.004645242 -9.417978e-10 -0.005479488
1.43469325e-08 -1.6731581e-08 -0.0033445708 2.5792162e-09 1.056807e-08 -1.8394198e-08 -0.006136365 -2.0190944e-09
0.43295062 -0.64703166 -4.486831e-09 0.06487458 -0.022654397 2.975755e-08 -0.26986495 6.0820544e-06
-0.6554737 0.10473296 0.5170593 -2.2256884e-08 8.273603e-09 2.6662974e-09 -1.0540013 0.6340682
-3.9131174e-09 8.699113e-09 0.13850783 -1.6071436e-07 -4.4156e-08 -0.45116097 1.00359525e-08 -0.584929
9.942184e-10 -4.4971264e-07 0.38055053 -8.466398e-09 5.956863e-09 6.9708914e-09 -0.7359905 3.4946361e-09

convs.0.lin_pos_r.bias f4 [32]
00000000: 4e7f 9d3c fd8c a43d 0a84 a53b 910f a63d
00000010: 5532 c4b9 9c22 ad3d 3f48 b9bc bed0 d83d
00000020: d2dd 94bc 08f4 11b7 170f 59bc c3f8 c2ba
00000030: 72e8 31ba 611b 5fbd 403a 5cbd b9d5 3bbd
00000040: 0b76 9fbb 9757 82bb 13a2 2bbd 0014 15bd
00000050: e1d7 85bd 3073 9c3d 8ffb 25bc 6e06 b83d
00000060: a522 28bc 1e1b 74bd 3b09 59bc 6d43 c8b9
00000070: 4c47 56bc ce65 55bd 246e a33d bf15 803e
0.019225743 0.08034704 0.0050511407 0.08108438 -0.00037421533 0.08453867 -0.022617457 0.105866894
-0.018172178 -8.699491e-06 -0.013248227 -0.0014875162 -0.0006786651 -0.05446947 -0.05376649 -0.04585812
-0.0048663667 -0.0039777267 -0.041902613 -0.036396027 -0.06535316 0.07639158 -0.010130777 0.08985601
-0.010262166 -0.059596173 -0.01324683 -0.0003819721 -0.013078522 -0.05209904 0.07979992 0.2501659

convs.0.lin_neg_l.weight f4 [32, 64]
00000000: 90b6 e630 7891 4c32 eb72 a730 4b46 d3b1
00000010: 839e 9131 11d7 8b30 07ee 18b2 86a1 37b2
00000020: 085b b72e 17e9 f6b0 944e 1f31 9bf4 afb1
00000030: d191 4fb1 83f7 862e 316b bbb1 8e0e 3a31
00000040: f0ae 0bb1 b644 fb31 e73f 31b0 a843 4531
00000050: b272 7232 3ced adb1 6675 74b1 f87b 8b31
00000060: 882b 90b2 8775 c131 5b59 4332 709b 68b2
00000070: fc44 36b0 e739 9cb1 4197 2331 f648 82b0
00000080: c646 17b1 d703 23b2 fcee 0cb0 0752 3532
00000090: 4b06 84af 6c14 0db0 64d2 3bb1 36b1 31b1
000000a0: 6c47 2e30 c10c a831 065a 6bb2 47e1 ab31
000000b0: 25a9 76b1 0e09 04b1 c732 9e31 1882 9731
000000c0: 55a4 50b2 0774 e830 f66f 5cb1 2ddb 8531
000000d0: 34f5 1531 aeef 44b2 65d9 3e32 be37 73b2
000000e0: 13bb 8132 50d7 90af 30aa 4232 b7ba e4b1
000000f0: 4cd5 2432 7ef8 deb1 2b70 99b1 4ee9 09b2
00000100: 6cb4 07b2 dfb5 2d39 31bf 08b9 4d5e 0d38
00000110: d931 31b1 711b bfb3 fb11 9531 ac38 c531
00000120: 4499 1eb9 ac47 b6b8 7631 0db3 974d f1b8
00000130: b243 19b2 7282 76b8 75dd 2639 85fc f2b8
00000140: 9ce9 96b2 207f 5b2c 45d5 01b1 27d1 54b6
00000150: 698f e5b1 6bb7 3232 47cd e537 2366 99b8
00000160: 1f72 9bb9 781d 9031 cf21 05b9 217b 1339
00000170: 7efa d036 0f39 1732 9752 a0b8 b27e cfac
00000180: 709a 8935 4e13 7ab8 6c5e 6eb2 c9cd 3bb9
00000190: 30f5 9e38 b550 0a32 a0d3 3db8 c029 8e32
000001a0: 603f 2339 def0 8cb8 1f22 6bb8 a98c 09b2
000001b0: fb5e 5eb1 829f 9bb1 ca83 fbb8 49bf ddb8
000001c0: fe44 c430 1b14 35b2 8420 4d39 a80d 432f
000001d0: 01ea 67b2 f830 0638 98de 4c31 75f4 8138
000001e0: 4e9c 19b1 79b1 23b2 a645 bcb7 1551 9630
000001f0: 20f8 85b1 f818 8730 2b18 d2b7 a88a d131
00000200: 026d c5b2 6557 40bd e5a5 003b 712d 5dbd
00000210: c300 6b3b fa9f 6cb2 afe4 45bc 6590 a5b4
00000220: 3d44 2232 c046 1d3c aeeb 26b0 2a49 06bd
00000230: c1ab 8732 e7f8 ad31 6c1f 963c 6b13 0d32
00000240: d42b 9132 5520 93b2 ed20 a739 b075 a1bc
00000250: 5e65 5032 38ab 3632 c311 703d b6b3 fe3b
00000260: c155 ec30 e7c3 5f32 e10d 0ebd 82c4 5b3d
00000270: f35b 043c 881d d82f 2763 3a3c 37e1 c9b1
00000280: 64bf 20b2 89e4 fd3c dcb3 fc30 2d0e f0b0
00000290: ad1d 4532 a710 0132 0e86 cebb 45f7 f131
000002a0: d4fe 10bd c357 303d 6e12 d3bc 5db2 a0b9
000002b0: fdf5 c7bb 6fb5 bf3c 12d7 103d 7353 08bd
000002c0: 7d9a 91bc 3baf c2b2 c69b a930 9c26 2b32
000002d0: dee1 15bc fc8a afbc 8a2c 43b2 c848 3c3d
000002e0: 2ebb c9b2 0007 7bb2 7d70 03b2 7926 7bbc
000002f0: 1dd9 8733 d94d 7f33 3b9e 02bd caf6 1e32
00000300: 6a81 97b1 8f71 1f3c bdeb 1cbc 5462 2b3e
00000310: db8d d73a 9603 74b4 e009 163a 250f e2b1
00000320: f539 09bd 0825 bebb 43ce 6238 1626 af3d
00000330: e7a8 06b2 35f1 bfbd 5330 963d 2a80 79bd
00000340: eb76 e931 35ad 0832 ea10 5134 6aee 77bb
00000350: a7d7 2231 f35c 81b7 517c c8bb ebc2 4e3c
00000360: 023f c23d e7e8 5530 14ec 08bd 4ba6 533c
00000370: b1ad b03c d78b 7cb1 366d 0b3e bfa2 a9b8
00000380: 55f4 19be da79 47bb 9e37 efb0 d120 853d
00000390: 2e6b 6e3c 6b94 34b3 64bb 5f3d f8e7 cd37
000003a0: e58b 683d 7644 c3bc a13f bb3c 1bf8 6633
000003b0: 56ac cab9 e09c 7bbb 808d ec3d 9ae4 4cbd
000003c0: b0a2 8eba 8051 d132 d250 c43d bf5f b6b3
000003d0: 8637 713c e176 a0bd 6692 07b2 ff3a d93d
000003e0: a57f af32 d4cb 1037 60eb 57bc 43a1 0dbd
000003f0: 90ad f1b1 d931 ad32 5fda b93d 04f2 0432
1.678659e-09 1.1907439e-08 1.2183511e-09 -6.1488996e-09 4.238076e-09 1.0174707e-09 -8.901686e-09 -1.0688728e-08
8.338047e-11 -1.7965104e-09 2.3182212e-09 -5.1209788e-09 -3.0205352e-09 6.1375814e-11 -5.4546025e-09 2.7074836e-09
-2.0326603e-09 7.312873e-09 -6.4483036e-10 2.8705731e-09 1.4112333e-08 -5.061933e-09 -3.5573406e-09 4.059526e-09
-1.6783602e-08 5.6304006e-09 1.1370811e-08 -1.353952e-08 -6.6309247e-10 -4.5467803e-09 2.38056e-09 -9.479482e-10
-2.2013622e-09 -9.488722e-09 -5.127132e-10 1.05542375e-08 -2.4015132e-10 -5.132452e-10 -2.7331675e-09 -2.5857623e-09
6.340233e-10 4.8908935e-09 -1.3699269e-08 5.002366e-09 -3.589386e-09 -1.9213675e-09 4.604178e-09 4.4094683e-09
-1.2144558e-08 1.6913199e-09 -3.2077856e-09 3.895727e-09 2.1821736e-09 -1.1463198e-08 1.1108885e-08 -1.4157136e-08
1.5102648e-08 -2.6346436e-10 1.1330982e-08 -6.6569004e-09 9.5945545e-09 -6.4893007e-09 -4.465638e-09 -8.027497e-09
-7.899057e-09 0.00016566318 -0.00013041195 3.3704844e-05 -2.5785225e-09 -8.899122e-08 4.338515e-09 5.7398974e-09
-0.0001512515 -8.691786e-05 -3.2874105e-08 -0.00011506228 -8.921164e-09 -5.8772457e-05 0.00015913493 -0.00011586495
-1.7568532e-08 3.119234e-12 -1.88932e-09 -3.1712204e-06 -6.681081e-09 1.0402668e-08 2.7394517e-05 -7.314633e-05
-0.0002964893 4.194302e-09 -0.00012696463 0.00014064882 6.228044e-06 8.80233e-09 -7.644778e-05 -5.89736e-12
1.0252243e-06 -5.9622624e-05 -1.3874892e-08 -0.0001791037 7.579697e-05 8.051008e-09 -4.5258203e-05 1.6549961e-08
0.000155685 -6.720585e-05 -5.6060144e-05 -8.006432e-09 -3.2359242e-09 -4.5292277e-09 -0.0001199316 -0.00010573731
1.4280486e-09 -1.0540158e-08 0.00019562437 1.7739998e-10 -1.3499176e-08 3.1993695e-05 2.9812437e-09 6.196733e-05
-2.235328e-09 -9.528201e-09 -2.2443779e-05 1.0936981e-09 -3.899018e-09 9.829639e-10 -2.5045205e-05 6.098464e-09
-2.298339e-08 -0.046958346 0.001963013 -0.053998414 0.0035858608 -1.3773382e-08 -0.012078448 -3.0838706e-07
9.445157e-09 0.009599388 -6.072537e-10 -0.03278462 1.5794173e-08 5.0632596e-09 0.01832553 8.211695e-09
1.6900152e-08 -1.7127755e-08 0.00031877254 -0.019709438 1.2130242e-08 1.0632725e-08 0.05861069 0.007772888
1.7195633e-09 1.3024851e-08 -0.034681205 0.0536542 0.008078563 3.9311154e-10 0.011376179 -5.875474e-09
-9.356743e-09 0.030992763 1.8386532e-09 -1.7466327e-09 1.1473657e-08 7.512575e-09 -0.0063026017 7.0421344e-09
-0.035399273 0.043052446 -0.025765624 -0.0003065047 -0.006102322 0.023401944 0.035361357 -0.03328271
-0.017773861 -2.2664258e-08 1.2340642e-09 9.962289e-09 -0.009148089 -0.021428578 -1.1360621e-08 0.045967847
-2.34846e-08 -1.46117145e-08 -7.6507805e-09 -0.015328997 6.32592e-08 5.9442616e-08 -0.03188918 9.252924e-09
-4.409391e-09 0.009731664 -0.009577689 0.16736728 0.0016445474 -2.2725575e-07 0.00057235174 -6.5791874e-09
-0.033502538 -0.0058027543 5.4074695e-05 0.08552186 -7.8382305e-09 -0.093721785 0.07333436 -0.060913242
6.794712e-09 7.955625e-09 1.9470795e-07 -0.0037831315 2.3696687e-09 -1.5421281e-05 -0.0061183353 0.012619714
0.09484674 7.781992e-10 -0.033428267 0.012918065 0.021567198 -3.6750316e-09 0.1361588 -8.088862e-05
-0.15034612 -0.003043762 -1.7405346e-09 0.065004 0.014551921 -4.20445e-08 0.05462207 2.4545923e-05
0.05677404 -0.023836356 0.022857489 5.37767e-08 -0.00038656843 -0.0038393065 0.115504265 -0.0500227
-0.0010882225 2.4367864e-08 0.09585728 -8.4924515e-08 0.0147227105 -0.07835174 -7.891321e-09 0.10606956
2.0430727e-08 8.630526e-06 -0.013178676 -0.03457762 -7.033755e-09 2.0162519e-08 0.09074854 7.738439e-09
