wiki-elec/models/wiki-elec-train-3.pt (torch, 64411 bytes, 14 tensors)

conv1.lin_pos_l.weight f4 [32, 64]
00000000: 4e3f 9bb2 87f7 8f30 bc62 60b2 2609 2d31
00000010: c708 4e31 5698 4032 d3b4 e631 dc72 a131
00000020: 0b9d bf31 3be9 7b31 df44 1e32 b4e4 f331
00000030: 5b38 ae31 711f a932 48b0 9eb1 ca3a 0f32
00000040: 41b3 4c31 5967 bf30 d225 9131 826b 2a32
00000050: 2242 8232 2508 b331 66ff 1fb2 0ab7 9932
00000060: 3616 c4b1 4c67 2232 60cb 83b0 e0d1 90ae
00000070: fd38 cd2f d8e6 9431 7d15 1632 67b2 fb31
00000080: d191 ad2e 1921 67b2 4e6b 62b2 3669 6d32
00000090: 85c5 1231 5c1e 67b2 bd24 30b2 9ef3 08b0
000000a0: b6f0 b831 2848 b7b1 1a97 9832 7c18 0132
000000b0: c23c 2d31 4f90 7531 804c 13b1 0309 f1b1
000000c0: f253 50b1 0c2f 53b2 debe 53b1 cffe 9431
000000d0: 698d 84b2 e134 4f32 8c22 0eb2 7f97 01b2
000000e0: 2d9c ccb0 77d8 d5b1 5ad4 05b2 5b20 a7b1
000000f0: d40e 9130 f4e1 e630 e63b 532f 4dc1 7031
00000100: 161e fbbe 5d40 b03d 6486 683b 268a 4e3c
00000110: 5847 d13e 003f 8dbd ca9b a9bd 5e09 d3bc
00000120: 0d9e 0b3e add5 ff3d 6649 213c 334e eb3d
00000130: 991a 2b3e b9d1 1bbe 5c02 15be 5222 fabd
00000140: eb77 fdbd f566 3e3e f04e 6a3c 2fd8 eb3c
00000150: 9e4c d73d b03d 433e 49e1 dabd 93ba 02be
00000160: ca85 17be 85ea ea38 eabf debd bec2 de3d
00000170: dcf9 263d 9e7e aabd 3146 2d3d 87ea 063e
00000180: 75f0 04bd 0eb0 a4bc 7961 6d3d 3125 c7bd
00000190: 2f0b c2bc 10b1 783d 4219 fd3d 3adb f6bd
000001a0: 75ab 34bd 155a 8bbd 3291 b73d 6adb 1a3e
000001b0: 207d 3f3e fb47 19bc 4c06 a2bd 46cc f2bd
000001c0: a6fa 963d 5c96 4d3e c028 7e3e 42b7 e0bc
000001d0: 7c42 803c f39d 69bc 88bb 713c 6f3f 213e
000001e0: 8a48 77bd 044b dd3c b4b6 6dbd a1c5 b13d
000001f0: eb39 7bbd 3b92 d8bc e203 133d ad87 9abb
00000200: a738 2ab3 5a50 8cb1 3bd9 3bb0 8d6e 1432
00000210: 228b cd32 5d4a 2032 53df 9c31 a376 1632
00000220: 0f37 3e2f 0d18 c5b0 39c4 7231 b9d0 b0b1
00000230: fe67 5232 3a76 ec30 1d24 b431 439e b331
00000240: adc3 4db2 95ee 6732 acbe 83b1 4c03 26b0
00000250: e255 a2b0 3a17 88b1 07cc c9b1 bfe5 55b2
00000260: dff4 31b2 3cc5 1932 a27e a630 5d86 0c31
00000270: c50c aab1 0851 96b1 a9f5 7131 10e8 9bb1
00000280: 5642 5cb1 4e78 2fb2 4b0e 53b2 0314 30b0
00000290: 7922 f1b0 525e 0732 2610 bfb0 3bdc a431
000002a0: 4cf3 1cb2 34c9 ec2f ec80 90b2 53c7 bab1
000002b0: 13bc 2b31 c328 9db1 c645 1eaf db4f d6b1
000002c0: 275f 26b1 fea2 54b2 87bf 4032 fb31 64b2
000002d0: 1903 40b2 e356 8631 3281 deaf 4f6c 55b1
000002e0: 7aa9 afb1 b3cf 3931 1ed3 5eb2 8f4b 7831
000002f0: 73bb 6a32 30ce 84b0 9bd1 8bb1 ae8d 3c32
00000300: 1185 d9bc b543 9ebc c96b 353d af03 703d
00000310: 9ec7 ae3d 180d 7dbd b12d ea3c c115 8d3b
00000320: 2455 5c3d 897b 6e3d aed6 db3d b09e 1e3d
00000330: e00e 563d 3a34 56bd 4339 d0bc c3c1 b2bd
00000340: 97f5 77bd fe51 3ebd 9fcc c23d 47d6 79bd
00000350: b1ae 333d 0b41 99bd 992a 873c 4b06 143b
00000360: 8cd7 9a3c 3253 17bd 8fdd 80bd f2ad 1bbd
00000370: 7c1d ce3c fa46 77bd 34e1 04bc 0660 87bd
00000380: 3753 6f3d d0fc b43d 14de 58bc 8c9a 4ebd
00000390: c1f2 9dbc 68ed 5f3d 562a 71bd 807b 35bd
000003a0: 7d7e 7bbd f880 5dbc 4182 15bd 8613 e23c
000003b0: 0dbf 8abc b832 913c 723b 043d e4af 9fbd
000003c0: cc65 89bc a84a 8d3d d0a0 863d 7749 48bd
000003d0: ce57 8bba cf45 7abb ccdf 5dba f4b9 da3c
000003e0: 0922 053d 61f7 dcbc 7f48 893d faea 0a3d
000003f0: 783a 8fbc 72b5 6fbd ab84 873b a8dc 093d
-1.8073163e-08 1.0474971e-09 -1.3060966e-08 2.5180014e-09 2.9981935e-09 1.1210508e-08 6.7144383e-09 4.6987747e-09
5.5766853e-09 3.6657883e-09 9.21247e-09 7.0982313e-09 5.0704734e-09 1.9688487e-08 -4.618446e-09 8.337063e-09
2.9787801e-09 1.3926452e-09 4.224355e-09 9.919747e-09 1.5164066e-08 5.2105116e-09 -9.313089e-09 1.789478e-08
-5.706876e-09 9.453128e-09 -9.589307e-10 -6.585643e-11 3.7329775e-10 4.333611e-09 8.736035e-09 7.3253434e-09
7.8930314e-11 -1.3453495e-08 -1.317933e-08 1.3819138e-08 2.1358073e-09 -1.3452873e-08 -1.0252902e-08 -4.982271e-10
5.3824705e-09 -5.334204e-09 1.7763842e-08 7.514355e-09 2.520935e-09 3.5734222e-09 -2.14348e-09 -7.0150477e-09
-3.03157e-09 -1.2292514e-08 -3.0813037e-09 4.3363353e-09 -1.5431128e-08 1.2061009e-08 -8.273343e-09 -7.5432345e-09
-1.4887341e-09 -6.223725e-09 -7.789902e-09 -4.864018e-09 1.0554353e-09 1.6798922e-09 1.9211618e-10 3.5034475e-09
-0.4904639 0.08606026 0.0035480494 0.012606179 0.40874743 -0.06896782 -0.082816675 -0.025761303
0.1363451 0.12491927 0.00984416 0.11489525 0.16709365 -0.15216722 -0.14551681 -0.12213577
-0.12376388 0.18593962 0.014301047 0.028789608 0.105126604 0.190665 -0.10687501 -0.12766485
-0.1479713 0.00011201672 -0.108764485 0.10876988 0.04076563 -0.083249316 0.042303268 0.13175403
-0.03245588 -0.02010348 0.057954285 -0.097238906 -0.023686973 0.060715735 0.12358333 -0.12053533
-0.044108827 -0.06804291 0.08963241 0.15122762 0.18700075 -0.00935554 -0.07911357 -0.11855368
0.07372026 0.20076889 0.24820232 -0.027431134 0.015656702 -0.014258849 0.014754184 0.15746854
-0.060371913 0.02701331 -0.058035567 0.08680273 -0.06133453 -0.026436916 0.035892375 -0.004715881
-3.9632734e-08 -4.083671e-09 -6.8338907e-10 8.63987e-09 2.3928411e-08 9.330134e-09 4.5655866e-09 8.758124e-09
1.729996e-10 -1.4340472e-09 3.5327175e-09 -5.146003e-09 1.2247254e-08 1.7204862e-09 5.242795e-09 5.227578e-09
-1.1977062e-08 1.3500217e-08 -3.8342787e-09 -6.0395133e-10 -1.1811461e-09 -3.9607615e-09 -5.873065e-09 -1.245047e-08
-1.0358433e-08 8.950618e-09 1.2114081e-09 2.0449058e-09 -4.949103e-09 -4.3747868e-09 3.5209757e-09 -4.537476e-09
-3.2051921e-09 -1.0213695e-08 -1.2285066e-08 -6.4056865e-10 -1.7544856e-09 7.87948e-09 -1.3901669e-09 4.7980655e-09
-9.135714e-09 4.3071113e-10 -1.6822433e-08 -5.435973e-09 2.4990683e-09 -4.5739355e-09 -1.4394805e-10 -6.2372982e-09
-2.4210267e-09 -1.2377084e-08 1.1219419e-08 -1.3282711e-08 -1.1176575e-08 3.909791e-09 -4.0473364e-10 -3.1057146e-09
-5.1124376e-09 2.7039107e-09 -1.2970103e-08 3.61317e-09 1.3663214e-08 -9.662866e-10 -4.069262e-09 1.09752545e-08
-0.026552709 -0.019319395 0.044292245 0.058597263 0.08534168 -0.061780065 0.02858624 0.004305572
0.053792134 0.05822328 0.10734306 0.038725555 0.05226028 -0.0522959 -0.02541793 -0.08728363
-0.060536947 -0.046464913 0.095116846 -0.060995366 0.04386777 -0.07483109 0.016499804 0.0022586759
0.018901609 -0.036944576 -0.06292259 -0.038007684 0.025160544 -0.060370423 -0.008110333 -0.06610112
0.05842897 0.08837283 -0.013236541 -0.050440356 -0.019280793 0.054669768 -0.058878265 -0.044307232
-0.061399926 -0.013519518 -0.036501173 0.0275972 -0.016936803 0.01772438 0.032283254 -0.0779722
-0.016772173 0.06899005 0.06573641 -0.048898187 -0.0010631026 -0.0038188582 -0.0008463829 0.026699997
0.03250316 -0.026973428 0.06703281 0.033915497 -0.017483935 -0.05852265 0.0041356883 0.0336577

conv1.lin_pos_r.weight f4 [32, 64]
00000000: a81a bcb2 1eca 8e32 cca7 7f32 4c57 fc31
00000010: 8501 7aaf 00c2 da31 6c20 2f30 c52f 3fb2
00000020: 71c9 81b1 e98b df31 4d36 d4b2 6c0b 2bb2
00000030: 8676 8a32 a3b1 30b2 f9f9 c6b2 817e 37b2
00000040: 387d ce32 33c1 e6b1 a45a 2d32 a754 5132
00000050: 90e6 05b3 bb8c 9d32 e532 0032 27ae 0fb2
00000060: 5041 25b2 bf8a c8b0 f406 0232 0b9a 8bb0
00000070: 5539 feb1 404d c6b0 6ca3 1732 b80e 0c32
00000080: 3733 98b1 1123 9bb2 20b6 d4b0 320e 4cb2
00000090: d457 a331 41ef ebb2 cab1 87b0 23a8 deb0
000000a0: c51b 65b1 041e 7831 15ed b432 fe23 6d32
000000b0: 239e 5b31 04b2 f530 c873 b8b1 c934 d0b1
000000c0: 372e a932 af4c 92b2 00c8 80b2 7cb7 c331
000000d0: b070 81b2 ddc1 06b2 b065 d232 b0a1 3031
000000e0: a710 23b2 8936 9b32 f7e9 f931 4945 3c32
000000f0: a957 11b2 5aa1 8e31 0ca3 a832 f2f1 99b1
00000100: cc3f cebf 55b8 f5bd 204d f9be a4de 16be
00000110: 9876 4a3f 7110 b0be aa2c a3bd 6eb2 2bbe
00000120: a15b c3bd 9a6b 333e ebc4 d63c 2abe 473d
00000130: 21b2 8d3e 54c5 ae3c 84db 78bd 2d8f 083e
00000140: 8f6e 593e 0096 8c3e 9f55 6a3e 52fd 443e
00000150: a749 22be 3508 0fbe e2b3 2ebe 125c 103e
00000160: e510 9abd 09ca 04be 3b45 eabc 6fe5 2d3e
00000170: f245 1b3d 6d77 76bd 290a 7a3d e077 143d
00000180: 5b72 3bbe 1010 5fbd 41f1 b6bd 38fb 8b3d
00000190: 0baf 15bd 151f 08bd 0ac2 b33c 97c6 77bd
000001a0: 283e 68bd 3005 113c e66c c23d 04ff 9abd
000001b0: 0f86 9bbc d57c 94bd 08e8 6c3d 3f74 40bd
000001c0: 8ee8 8dbc 8d9e 6abd 624a debd 41fe b9bd
000001d0: ef4d ebbd 03f9 8f3d a5c9 a73d cca6 44bd
000001e0: 57ee dcb9 0fc5 3ebd cae2 0c3e a956 05bd
000001f0: 644b 243d b93c 8a3d 6055 89bd 70db 793d
00000200: c3c7 6033 f657 66b1 f9e9 fc31 ade0 21b0
00000210: 0e6e 16b1 f447 dbb1 322c 4b32 3faf e231
00000220: 2afb 3e32 b0e5 4532 d9f4 62af 0da6 7232
00000230: 7041 0133 09ea 3932 aafe ddb1 934f d8b1
00000240: 0dab 1ab3 a47d b2b1 29c0 2232 b87d 8032
00000250: 3ddb 04b1 1df2 3cb2 8fae 4ab1 d863 7c31
00000260: a69f 93b1 8457 dab1 91dd 8a31 1458 cdb2
00000270: 69f6 78b1 12d9 5cb1 ccc0 4432 68f5 e3b1
00000280: 4589 7e31 2513 af31 ec40 36b2 6d2a 84b2
00000290: 9fc5 4732 c9f7 1c31 05bb 0f32 97ff 4eb1
000002a0: e883 11b2 cdc2 4c32 1525 0b32 b83a 3430
000002b0: 4874 fc31 58a0 b3b1 fe1d cd31 60b0 f3b1
000002c0: 8c79 b9b1 7654 6832 995c 2fb2 1b09 8731
000002d0: 90e2 bfb1 3b48 c2b1 7edc 8e2f 3932 3632
000002e0: 3151 d1b0 3a4a f831 ea34 0432 7b98 3332
000002f0: e78f f631 4df7 3db2 3766 2bb1 9ecf c0b1
00000300: 6655 0e3f 0600 eabd facf 153e c976 043e
00000310: cbd6 823e 2c7b 8e3c b288 273e 9298 483e
00000320: 1af4 8d3d 1b9a 56bd 3437 74bc 027f c1bd
00000330: 6e69 923d 0696 04ba e73d 73bc 76f1 23be
00000340: b227 ac3c 23cd c73d 3d72 e53d 7c4f 05bd
00000350: 0e6e f2bd 3770 cabd 79c5 9dbc f79b c83d
00000360: 4922 61bc 2d5e 46bd 0637 713c 77f4 d33d
00000370: 01e9 10be c098 ffbd 0c48 7a3c 000b 513b
00000380: 86d9 ffbb 3dce 1bbd 583d d23b 2349 963c
00000390: 974f c2bd 70d0 183d 5cd3 6a3d 34f8 45bd
000003a0: 7733 ae3c 959d 043d 12df e03b 9d0b 9abc
000003b0: c259 38bc 5f76 4d3d 8233 c9bb 1c0c fe3a
000003c0: e3ed 993b 3324 e5bc b42a 283c b547 0ebd
000003d0: 81dd e43c 57b5 513b d06f 1c3d 9594 de3d
000003e0: 7a5e f4ba 92bb 26bd 52fe c83c c307 5c3d
000003f0: 65c2 563d 7c22 cfbc b008 95bc d3e5 a93b
-2.1898202e-08 1.6622888e-08 1.4881106e-08 7.34409e-09 -2.2737907e-10 6.3666903e-09 6.3710703e-10 -1.1128525e-08
-3.7772954e-09 6.50606e-09 -2.4704741e-08 -9.956107e-09 1.6119213e-08 -1.0284938e-08 -2.3163908e-08 -1.0680766e-08
2.40385e-08 -6.715845e-09 1.0090535e-08 1.2184649e-08 -3.117617e-08 1.8341202e-08 7.462153e-09 -8.363293e-09
-9.619114e-09 -1.4591349e-09 7.568577e-09 -1.0157363e-09 -7.398891e-09 -1.4428352e-09 8.826515e-09 8.152419e-09
-4.4296047e-09 -1.8060321e-08 -1.5476793e-09 -1.18775905e-08 4.7539093e-09 -2.74664e-08 -9.873073e-10 -1.6200413e-09
-3.333967e-09 3.6105812e-09 2.106257e-08 1.3803399e-08 3.1958585e-09 1.7876691e-09 -5.3682676e-09 -6.0595977e-09
1.9695205e-08 -1.7031509e-08 -1.499211e-08 5.6961067e-09 -1.506882e-08 -7.843906e-09 2.449346e-08 2.570328e-09
-9.491635e-09 1.8069175e-08 7.2734525e-09 1.0958794e-08 -8.4600424e-09 4.1510875e-09 1.963192e-08 -4.480392e-09
-1.6113219 -0.11998049 -0.48691654 -0.14733368 0.7908721 -0.34387544 -0.07967503 -0.16767284
-0.09538961 0.17521515 0.026216945 0.04876534 0.27674964 0.021334328 -0.06075622 0.13335867
0.21233581 0.2745819 0.22884224 0.19237259 -0.15848409 -0.13967974 -0.17060807 0.14097622
-0.075227536 -0.12967695 -0.028597465 0.16982053 0.037908502 -0.060172487 0.061044846 0.036247134
-0.18305342 -0.054458678 -0.08932734 0.068350255 -0.036543887 -0.033232767 0.021943111 -0.060492124
-0.0566999 0.008851334 0.09493427 -0.075681716 -0.018984823 -0.07250372 0.05783847 -0.04698586
-0.017322805 -0.057280112 -0.10854031 -0.09081698 -0.11489474 0.07029917 0.081927575 -0.048010632
-0.00042139247 -0.04657465 0.13758388 -0.03255335 0.04011096 0.06749863 -0.06705737 0.061000288
5.2335746e-08 -3.3519405e-09 7.360765e-09 -5.889074e-10 -2.1890432e-09 -6.381919e-09 1.1826204e-08 6.597389e-09
1.1116564e-08 1.1519134e-08 -2.0641568e-10 1.41240095e-08 3.0094668e-08 1.0821631e-08 -6.4608985e-09 -6.295474e-09
-3.601149e-08 -5.1947655e-09 9.473333e-09 1.4958331e-08 -1.933315e-09 -1.099809e-08 -2.9494094e-09 3.672758e-09
-4.296413e-09 -6.3545844e-09 4.041518e-09 -2.3905194e-08 -3.6228818e-09 -3.2137604e-09 1.14525385e-08 -6.634469e-09
3.7039893e-09 5.095347e-09 -1.0608556e-08 -1.5386115e-08 1.1628258e-08 2.2841837e-09 8.366219e-09 -3.0122231e-09
-8.470103e-09 1.1918655e-08 8.099296e-09 6.5567063e-10 7.347385e-09 -5.2278146e-09 5.969695e-09 -7.0922823e-09
-5.398027e-09 1.35233815e-08 -1.0207395e-08 3.9300523e-09 -5.584589e-09 -5.6543548e-09 2.598632e-10 1.0605214e-08
-1.5229827e-09 7.2261885e-09 7.6954425e-09 1.0453841e-08 7.175902e-09 -1.1057478e-08 -2.4941877e-09 -5.611539e-09
0.5559906 -0.11425786 0.14630118 0.12935938 0.255545 0.017392717 0.16360739 0.19589451
0.06931324 -0.05239306 -0.01490574 -0.09448053 0.07149015 -0.00050577556 -0.014846302 -0.16010079
0.021015022 0.097559236 0.1120343 -0.032546505 -0.118373975 -0.098846845 -0.019259201 0.09795373
-0.013741084 -0.048429657 0.014722591 0.10349362 -0.14151384 -0.124803066 0.015275966 0.0031897426
-0.0078079132 -0.03803848 0.006416004 0.018345421 -0.09487837 0.037308156 0.057330474 -0.048332408
0.021264775 0.032376844 0.0068625296 -0.018804366 -0.011251869 0.050161716 -0.0061401734 0.0019382271
0.0046975478 -0.027971363 0.0102640875 -0.034736354 0.027937653 0.0031998956 0.03819257 0.108681835
-0.0018643879 -0.040706225 0.024535332 0.05371834 0.052431483 -0.025284998 -0.01819262 0.005184868

conv1.lin_pos_r.bias f4 [32]
00000000: 7459 d2b6 4546 c23c ae6c 96bc 2d0e 8b3d
00000010: ab56 c93d f7fc 94bc b8c1 733c 9c1a 6f3c
00000020: e711 6e3d cbf7 a93c 5701 db3c b1db 15bd
00000030: e1ec fabc 722a 8f3c 3964 a9bc e1b5 a83c
00000040: f206 61bd 4ba4 f1bc c6ba d23c 9a99 02bb
00000050: 04b6 16bd b830 ab3c 7154 5dbd e1f9 2b3d
00000060: b97e 2db7 58fb 10b9 f2df 95b9 549e d2bc
00000070: 8904 babc 4467 66bd 3568 9f3c 89b2 56bd
-6.2689014e-06 0.023715148 -0.01836237 0.06789813 0.09830984 -0.01818703 0.014877729 0.0145937465
0.05812254 0.02074804 0.026734037 -0.036586467 -0.03063053 0.017476294 -0.020677673 0.02059454
-0.054938264 -0.029497286 0.025723826 -0.001992798 -0.036794677 0.020897254 -0.054035608 0.04198635
-1.03411085e-05 -0.00013826543 -0.00028586347 -0.025710262 -0.02270724 -0.056250826 0.01945887 -0.05241636

conv1.lin_neg_l.weight f4 [32, 64]
00000000: 0a02 8db0 056a 27b2 79b4 3832 3448 dd31
00000010: a6d6 36b2 7d3d 1eb2 befa 37b1 17cf 1e31
00000020: e5a2 43b1 c6d4 01b2 2fcd 0931 d70c 97b0
00000030: dec6 b4b2 e52a 4b32 68ab 3032 0244 11b2
00000040: 598b b8b0 b1ed 48b2 4b7d 84b2 f656 d9b0
00000050: 90b1 bc31 21c6 09b1 a95a e231 655c ec31
00000060: 1781 a5b1 1ca7 1fb2 c6cb 8632 e964 88b1
00000070: 71ab 7b32 6cb4 d7b1 72e8 7331 545a 7a31
00000080: 93a8 bcb2 86d6 1732 5a03 49b1 e2e1 80b1
00000090: cf8a 2e31 6d6d 5a32 2bc3 58b0 3960 ae31
000000a0: 0d73 0a30 a131 94b1 0125 21b2 f1ae 72af
000000b0: 0f10 9f31 1205 0331 e40f eeb1 7696 e0b0
000000c0: 80d9 18b2 4c1d b431 30d2 f1b1 77f2 0932
000000d0: 3504 6d32 6b95 4332 d378 1631 dd6a 4330
000000e0: 9147 88b1 83f6 f031 156f ecb1 0fe0 8b32
000000f0: 78f4 4030 437e 0632 a535 fbb1 5ee3 03b2
00000100: 4abb 94bc b6c2 e63c 8b20 e53a 6c2d 02bc
00000110: 89ea 8ebd 7557 94bb ae0f ab3d 7475 643d
00000120: 5990 b1bb 19e5 3b3d 42fb 0abd 2093 1b3c
00000130: 277a 1f3c 6919 8abd bdbe 71bd 220a 6cbd
00000140: beee 97bd 191a b63b fc4b 9d3c 9e96 4bbd
00000150: 6648 0a3d a0cc 59bd 4be6 d4bb d766 b63b
00000160: d3fc 063d 9eea 113d 332a aabc 2b37 06bd
00000170: 54c9 09bd cbbc 6ebd f4b1 49bd 67b5 36bd
00000180: 8eba 843b b22f 063d 8ec0 16ba bb29 6b3c
00000190: d477 4ebd 0202 153d c563 70bc f02f 22bb
000001a0: 3195 593d 7893 863d 1fdd 3fbc 95b1 b6bc
000001b0: cdc0 95bc 254a a0ba 91e4 483c 421f fcbc
000001c0: 0874 e9bc 1981 18bb 433c 1c3d efbf 413c
000001d0: 4bdc 553d 3016 92bc 51c7 7d3c 3ca7 4f3d
000001e0: da45 27bd b52c d73c 3654 9ebb 0163 f0bc
000001f0: d235 a23d 18d5 2e3c d789 40b9 be8b 5c3c
00000200: f7fb c13a ee19 b83d 4c3b d33b 865b 963c
00000210: 85f0 12be 3710 b2bd 2359 383d 02a5 f13d
00000220: 0ace 10bc 2a82 0b3d dda2 2cbd 6f08 473d
00000230: 853c 33bc 7fe4 3fbd 35ce 74bd f9bb 81bd
00000240: 1161 2bbb ed78 903a 6606 d93c fec6 2abc
00000250: fb44 4fbb 4aa3 20bd 81dd 48bc e2b0 05bd
00000260: 41c1 a8bd 33f8 a03c 91ce 08bd cff2 f7bc
00000270: d575 883b ff18 133d fe2b 95bd 93e2 03bd
00000280: ae42 4fbd 623f 693d 98cb 15bd ec98 6a3d
00000290: e980 a1bd d950 f9bc 6667 313d 937c 1dbc
000002a0: cbb3 5f3d 0889 8e3d 8b3f fcbc c292 3dbb
000002b0: 181f 93bc f266 cc3c ac9b a73c c82b 06bd
000002c0: a12e 443c 7d87 eabb 9059 f03d 4cca e03b
000002d0: 49dc b13c a31f 61bd 00ba 57bc 74d1 583d
000002e0: a950 cb3c c0cd cbbb e513 99bd 86dc 5c3d
000002f0: b00a 3a3d 8832 0c3d d8c0 943c 29ba 40bd
00000300: 6a68 973d 500f 473d 387c c7bc 589d 61bd
00000310: 3c24 77bd 494c 0b3d 7bba afbb 2e8a 08be
00000320: 23f1 973d 71bd 50bd fba8 86bd 0604 d5bd
00000330: 9407 99bb 9c9c 8dbb b963 a33d 4811 10ba
00000340: 6dca 503c ee4d 213d fd3e 96bc 7782 23bd
00000350: 0269 8bbd 2505 d9bc 3860 5c3d 6822 8c3d
00000360: e991 c23c 2199 263d e4db 243d e197 01bd
00000370: 42ac 783c bb70 723d 76a7 f63c f526 2a3d
00000380: eaa0 893b 4ec2 29bd 9511 44bd fde4 48bd
00000390: 6103 a73c 5cb0 8d3c 01bb 5d3d 3bc5 fbbb
000003a0: 53b9 7239 5ebe e83b fa3d 91bc 0712 06bc
000003b0: 4f05 603d 390b 8fbc 0c43 0f3c a732 b0bc
000003c0: 7a80 93ba 11c4 b53d aae1 043d 2d56 60bc
000003d0: bc0a b43c bb85 b53c db5c 9b3c 0832 84bb
000003e0: 1977 fc3c 2545 833b 89af 923c d206 a3bb
000003f0: 444f c9bb 62f1 893c ce53 8cbd d497 a93d
-1.025968e-09 -9.744785e-09 1.0751244e-08 6.440155e-09 -1.06426e-08 -9.210791e-09 -2.6772535e-09 2.3109743e-09
-2.846883e-09 -7.557167e-09 2.0052757e-09 -1.0990345e-09 -2.1045192e-08 1.1825908e-08 1.0283522e-08 -8.455574e-09
-1.3427367e-09 -1.1695577e-08 -1.54238e-08 -1.5813544e-09 5.4917066e-09 -2.0048747e-09 6.5877725e-09 6.879008e-09
-4.816808e-09 -9.293014e-09 1.5692319e-08 -3.969593e-09 1.4649104e-08 -6.277835e-09 3.5493284e-09 3.6431134e-09
-2.196274e-08 8.838134e-09 -2.9251255e-09 -3.75097e-09 2.5399236e-09 1.2714151e-08 -7.885769e-10 5.0750057e-09
5.0367605e-10 -4.313009e-09 -9.379847e-09 -2.2071923e-10 4.6293347e-09 1.906589e-09 -6.928518e-09 -1.6340909e-09
-8.897018e-09 5.24202e-09 -7.0379187e-09 8.02958e-09 1.3796172e-08 1.1384468e-08 2.1896553e-09 7.109245e-10
-3.966257e-09 7.0129444e-09 -6.8811326e-09 1.628362e-08 7.0196604e-10 7.828535e-09 -7.31116e-09 -7.676901e-09
-0.018155713 0.028169017 0.0017481012 -0.0079454 -0.06978328 -0.0045270273 0.083526 0.055776075
-0.005418819 0.04587278 -0.033931024 0.009495527 0.009733713 -0.06743128 -0.059019793 -0.05762685
-0.07418583 0.0055573103 0.019201271 -0.049704187 0.03376045 -0.05317366 -0.0064971796 0.0055664587
0.032955956 0.03562414 -0.020772075 -0.032767456 -0.033639267 -0.058285516 -0.049241975 -0.044606593
0.0040505594 0.03276033 -0.0005750739 0.014353211 -0.050407246 0.036378868 -0.014672224 -0.0024747811
0.053120796 0.06571096 -0.011710434 -0.022301475 -0.018280411 -0.0012229128 0.012261526 -0.030776624
-0.02849771 -0.0023270308 0.038143408 0.011825546 0.05221204 -0.017832845 0.015489415 0.050696597
-0.0408381 0.026266435 -0.004831816 -0.029344084 0.07920422 0.010670923 -0.00018361896 0.0134610515
0.0014799823 0.08989321 0.0064462777 0.018354189 -0.14349563 -0.08694499 0.045006882 0.11799051
-0.008838186 0.03405968 -0.042147506 0.048592027 -0.010939722 -0.04684877 -0.059766967 -0.06334681
-0.0026150385 0.0011022367 0.026492309 -0.01042342 -0.003162681 -0.039218225 -0.012259842 -0.03263939
-0.08239985 0.0196496 -0.033400122 -0.030267147 0.0041644373 0.03591251 -0.072837815 -0.0321985
-0.0506007 0.056945212 -0.036571115 0.057274744 -0.07885916 -0.030434059 0.0433115 -0.00961222
0.054614823 0.069597304 -0.030792018 -0.0028926586 -0.017959163 0.024951432 0.020459972 -0.032756597
0.011974008 -0.0071572647 0.11735833 0.006860053 0.021711485 -0.05496181 -0.013166904 0.052934125
0.024818735 -0.0062195957 -0.07474498 0.053921245 0.04542035 0.034227878 0.018158361 -0.047052536
0.07392962 0.048598588 -0.024351224 -0.055081695 -0.06033729 0.034008298 -0.0053628064 -0.13333961
0.0741904 -0.050961915 -0.06575199 -0.10401158 -0.004670093 -0.004321648 0.07978005 -0.0005495739
0.012743575 0.03938096 -0.018340582 -0.039919343 -0.06807138 -0.02649171 0.0538027 0.068425
0.023751216 0.04067338 0.040248767 -0.031638984 0.015177788 0.05918954 0.030109148 0.04154106
0.0042000907 -0.04144507 -0.04786833 -0.049046505 0.020387353 0.017296009 0.05413342 -0.007683424
0.00023147957 0.0071027717 -0.017729748 -0.008183009 0.054692563 -0.017461406 0.008744013 -0.021508528
-0.0011253499 0.08875287 0.032441773 -0.013692421 0.021977775 0.022158494 0.018965175 -0.0040342845
0.030818509 0.0040060454 0.017905967 -0.0049751783 -0.0061434824 0.016838733 -0.06851922 0.08280912

conv1.lin_neg_r.weight f4 [32, 64]
00000000: 80e2 65b1 58dc 3b32 0ad7 8cb2 aaae 67b1
00000010: 20ff e6af 80f9 0730 0f7f f4b1 c9b5 2db2
00000020: 8920 1831 e78b 14b0 6c9c 3932 6442 0cb1
00000030: dd2b c8b1 f32c a231 d4cf 0231 9c0c a7ae
00000040: c48d 90b2 c579 2bb1 905a 2b32 ea3f 51b2
00000050: e79b 0932 58bd b3b1 2dc1 3132 046a 4d32
00000060: b6a3 8b32 573f b231 5128 4831 3191 4732
00000070: a50e 6c32 2c1b 85b1 156b 8332 8fbc 86b2
00000080: 9692 ccb2 daa1 bb32 a569 3531 0360 82b1
00000090: 94b4 4831 6309 b4b2 4360 26b2 1f06 1db0
000000a0: 1811 04b2 074a 47b2 545f 1b32 40dd 1532
000000b0: 9cae 7a32 6c24 01b2 7209 4831 4cc9 67b2
000000c0: b7c0 43b1 6a8d 3d32 64c5 3ab2 4dd9 8532
000000d0: 680b ff31 7c74 7cb2 a085 1d30 d2cf 8db2
000000e0: 708f 7432 de89 f531 352c 532f 5aec 75b1
000000f0: 884b e731 b495 f431 c359 2a32 a588 e331
00000100: ad60 c53d 0eb8 dd3c 1432 87bd 4b07 f1bc
00000110: dd2b 333e 44a1 92bd 5869 06be 38e7 c2bc
00000120: f4cb ed3d cd9c 2b3c eb04 843d 2ca4 e33c
00000130: 30c7 b1bd f30b 693c 956f 2e3d 9b19 123e
00000140: ad5b a53d 9b2f fbbb 818a b9bd bcea b13d
00000150: 750f 70bc 4b46 253d 77f1 7dbc 55a8 7a3c
00000160: 971e 24bc c090 54bd 1042 833c 24a3 93bc
00000170: 43d7 db3d d5ce d43d 8549 1abd 4050 e1bc
00000180: 9956 cc39 f16e 0ebd b07e f4ba 2806 16bd
00000190: 67ec 1d3d 68d1 10be 05ac 283d 39a6 7cbd
000001a0: 454a 37bd 9a5e b4bc f931 19bd 66e3 443d
000001b0: 701b e9bc d650 b13c 671f 25bd 04f0 23bd
000001c0: 809f 323d 390b 32bd cad8 17bd 2ab4 113d
000001d0: 7cbb 2b3d 3995 953b 61cd 28ba a364 63bd
000001e0: 8a44 423d de5d 66bd 425d 2d3d 082a 083c
000001f0: 7ad1 bcbd 6e6e b53c a3e0 90bc ef08 753d
00000200: b92b 0b3e a8d8 84bd b0ea ecbc 6884 fbbc
00000210: 2b4a 4c3e 4e3d 2e3d 6db7 8bbd b73d f03d
00000220: 0730 3b3d 6a03 ffbd 6d81 58bd 48ab 533c
00000230: 32a9 96bc 26ff 19bc 5a4d 263d e840 c5bc
00000240: 09d8 c53d 3c70 9f3c 3288 f83c be5f 843d
00000250: b5c5 b7bc 0642 be3c a60e 913d 8c7f 05bd
00000260: 8a87 8939 d4cc 27bd f7a4 5dbd 4ae1 ba3d
00000270: 9867 8f3d 6fb0 8d3c 07a4 513d 825b 603c
00000280: 1e42 343d 9857 1e3e d9c3 2ebd 32cc ddbc
00000290: 0915 65bd bebd c2bd 047c 313c 36f0 b0bd
000002a0: 3433 413d 7f8a 8bbd c73d 453c 95ee f33c
000002b0: 4fa6 1fbd 3bb9 ac3d 9910 2e3d f30c d4bc
000002c0: d3ae 4ebd 2b71 2abd de0b b53c 6189 533c
000002d0: c3b6 b5bd 4cc6 5dbd 87ca c83c f49a acba
000002e0: d1b3 233e c26f 0c3c 5dee be3d 2a46 8e3c
000002f0: 6bc7 62bd eedd 5d3d e7e5 683d fbd4 c53b
00000300: 8d83 69bf 70e7 49bd 0939 0cbd 9217 0b3e
00000310: 3dfe 543e cce2 74bd d2fd 013d 9fd6 7e3e
00000320: 37d6 363e a9f9 803e 7959 973d 7907 293e
00000330: 020a 81be 8794 613d 021a 193e eb50 97be
00000340: 5c5a 2e3e 6797 1dbe cec8 a03e 006a 853d
00000350: 121f 6bbb cd59 89be f785 2a3d 0942 253e
00000360: a001 c63d 8ba8 ab3d 2b67 443e 95a0 cc3c
00000370: 5c52 c73c 60cb 4bbc cca6 4f3d ac34 e9bd
00000380: d328 bc3d d3a9 72bd 5341 af3d 61a5 803d
00000390: c553 d1bb 129e 18ba e60a 0fbe 8119 febd
000003a0: 1c9c 0c3e a6b0 2f3c 082a fb3d b13c 75bd
000003b0: 4ef9 0abe ee20 4f3d b80e 14be a7c5 ffbd
000003c0: 6467 45bc 41cf 7cbe 158d 053d e4db 0b3e
000003d0: ddc6 b6bd 6306 053e 9a6c aa3d 8b50 2b3b
000003e0: 3e2d 7e3d 53eb 83bb 3c7d dfbd 3077 203e
000003f0: a154 2bbe c8c0 eebd 05b3 783b 7081 c6bd
-3.3452636e-09 1.0934933e-08 -1.6395933e-08 -3.371421e-09 -4.2018033e-10 4.9467275e-10 -7.1157795e-09 -1.01112585e-08
2.2137405e-09 -5.40409e-10 1.08039835e-08 -2.041042e-09 -5.8257528e-09 4.7199307e-09 1.9035626e-09 -7.5965206e-11
-1.6828274e-08 -2.4952993e-09 9.9741015e-09 -1.21799335e-08 8.009898e-09 -5.2311115e-09 1.0346679e-08 1.1956676e-08
1.6256177e-08 5.1876827e-09 2.9126748e-09 1.1616337e-08 1.3740338e-08 -3.8738985e-09 1.5299102e-08 -1.56854e-08
-2.3815385e-08 2.1843267e-08 2.6399019e-09 -3.7944132e-09 2.9206477e-09 -2.0959027e-08 -9.684359e-09 -5.7124966e-10
-7.687298e-09 -1.1600156e-08 9.0438625e-09 8.723248e-09 1.4591617e-08 -7.51707e-09 2.91092e-09 -1.3491739e-08
-2.848578e-09 1.1033402e-08 -1.0871506e-08 1.5582055e-08 7.4227735e-09 -1.4694816e-08 5.730616e-10 -1.6509066e-08
1.4235283e-08 7.146112e-09 1.9206044e-10 -3.5786543e-09 6.7315717e-09 7.118354e-09 9.915712e-09 6.622104e-09
0.0963758 0.027065303 -0.066013485 -0.029422423 0.17497201 -0.07159665 -0.13126123 -0.023791894
0.116111666 0.010474396 0.064462505 0.027788244 -0.0868057 0.01422404 0.04258688 0.1426758
0.080741264 -0.007665587 -0.09059621 0.0868735 -0.014652123 0.04035024 -0.015499464 0.015298923
-0.010017059 -0.051895857 0.016022712 -0.018022127 0.10734417 0.103910126 -0.03766777 -0.027504086
0.00038974432 -0.03477377 -0.0018653478 -0.036626965 0.03855553 -0.14142382 0.041179676 -0.06168196
-0.044748563 -0.022017766 -0.037401173 0.048068427 -0.028455466 0.02164499 -0.04031315 -0.04002382
0.043609142 -0.043467734 -0.03707198 0.03557221 0.041926846 0.004564908 -0.0006439295 -0.055515897
0.047428645 -0.056241862 0.042325266 0.008310802 -0.09219642 0.022147384 -0.01768524 0.059822973
0.13590898 -0.064866364 -0.028920501 -0.030702785 0.19950168 0.042538933 -0.06822095 0.11730521
0.0457001 -0.12451823 -0.052857805 0.012919255 -0.018391225 -0.009399211 0.040601112 -0.024078801
0.09660346 0.019462697 0.03033838 0.06463574 -0.022433141 0.023224842 0.07082872 -0.03259234
0.0002623166 -0.040966824 -0.0541124 0.09125002 0.07002181 0.017296044 0.05118182 0.013693692
0.044008367 0.15463102 -0.042667244 -0.027074907 -0.055928264 -0.09508847 0.01083279 -0.086395666
0.04716797 -0.068135254 0.012038655 0.02977685 -0.038976964 0.084337674 0.042496298 -0.02588508
-0.050459694 -0.04161183 0.022100385 0.012911172 -0.0887275 -0.05414419 0.024510635 -0.0013168738
0.15986563 0.008571567 0.09322808 0.017367441 -0.05536596 0.054166727 0.056859877 0.006037352
-0.91216356 -0.04929298 -0.03423408 0.1358321 0.20800109 -0.059786603 0.031736203 0.24886559
0.17855154 0.25190476 0.073901124 0.16506757 -0.25202948 0.055073287 0.14951327 -0.29553923
0.17026657 -0.15389787 0.31403202 0.065143585 -0.0035876674 -0.26826325 0.041631665 0.16138472
0.09668279 0.083817564 0.1917998 0.024978915 0.024331264 -0.012438625 0.05069618 -0.113869995
0.09187474 -0.05924399 0.085573815 0.062815435 -0.00638816 -0.0005821894 -0.13969001 -0.12407208
0.13731426 0.010723269 0.12263876 -0.059872333 -0.13571665 0.050568514 -0.1445874 -0.12488871
-0.012048576 -0.24688436 0.03260525 0.136581 -0.08924649 0.12990718 0.08321495 0.0026140537
0.062054865 -0.0040258556 -0.109125584 0.15670466 -0.16731502 -0.11657864 0.00379485 -0.09692657

conv1.lin_neg_r.bias f4 [32]
00000000: f068 25bb 276c a23d a867 193d e0e4 f13c
00000010: 8160 8abd b7f3 6fb9 0aa8 44bd 5b3b 40bd
00000020: 1d79 6f39 f88f d53c 2f97 fd3c 6b37 a63c
00000030: cee3 cd3c 8813 37b9 43f4 f23c 6e5c 553d
00000040: 3e14 7bba 1c04 b2bc fe4b 19bd f4b6 f53c
00000050: 16e7 81b9 5c34 cbb8 4834 023c 37cc b03c
00000060: 9c62 533d e0d3 65bc fe23 a93c 5b2c 723d
00000070: b4d2 aab9 8835 a4b7 6c50 ed3b 2b55 6dba
-0.002523955 0.07930785 0.03745237 0.029528081 -0.06756688 -0.00022883607 -0.048011817 -0.046931606
0.00022837934 0.026069626 0.030955879 0.020290097 0.02513304 -0.00017459516 0.029657489 0.0520901
-0.00095779065 -0.021730475 -0.037425987 0.029994465 -0.0002477697 -9.689547e-05 0.007947035 0.021581752
0.051607713 -0.014027566 0.020647045 0.059124332 -0.00032581913 -1.9575251e-05 0.007242253 -0.00090535235

convs.0.lin_pos_l.weight f4 [32, 64]
00000000: 2791 47b2 0916 8d3c de3b 2632 8b19 85bc
00000010: 0db6 36bc d0f3 acbd 48dc 5c3d caa7 333b
00000020: eef0 b03c 570a f23c 47a7 0b3d 7470 3a32
00000030: 1186 5a3a 243b 5e3b e89c fcbc 3d87 b0bc
00000040: 4577 05bb ce29 9432 3e92 d6bd 45a7 17ba
00000050: 5c95 1ebb ab4f c6bd 38d0 95b0 3bff 583d
00000060: c58b a736 2560 c536 088a c037 7ddf 62bc
00000070: fe36 2a32 8884 5032 53b9 c53c 51c1 1e32
00000080: 1f13 2a32 ac4c 183b f67f 033e dd91 28bd
00000090: 6a9a 33bc f01a 14b8 1dbb 7e3a 9e5e 8132
000000a0: 4fe0 28bd 8d3c 98bc a4ad e93b 4845 273b
000000b0: 1ce3 283d 4f32 78b6 114e 683c 4a95 4c3d
000000c0: b472 02b8 234a 1933 ba04 ebb2 570f 773d
000000d0: df2f c9b5 941d 3135 4cb7 2b3c 28de d4bc
000000e0: 99c8 da3d a4a5 4032 24d7 a63c f8c6 b33c
000000f0: 1a2e 37bd c611 e6b4 c6b4 a23a e3ed f138
00000100: fa70 3ab2 7f86 4bbc 2e3c 50b2 e795 35be
00000110: ba10 69be fbb0 0b3e 04ac 58bc d6df aabc
00000120: b8de 37bc 19a6 7dbc cadb 8fbc 85c7 8b32
00000130: 4fe5 cc33 b6b2 ab3b e954 4f3b f589 83bc
00000140: eb0a 9239 28c2 07b0 f160 d3bd cd6b 6cba
00000150: f529 64bb 4740 e3b9 9822 a732 e233 f6bc
00000160: 84a3 1f35 335b ecb6 ad6c 60b7 af0f e03a
00000170: 5670 ad31 bb9a fb32 ed7c b3bc 19c3 adb0
00000180: 9cef 8a32 79cf 363d e607 22be 2ebc 793c
00000190: 0a87 14ba da52 8a37 0c53 0d39 5b20 e432
000001a0: e1cc 053e 90d8 873d 6366 c83a bd9d c3bd
000001b0: 9ca5 0c3e 019e c5b6 ea54 93bd f3ae 0cbe
000001c0: 9f8b 8438 ac6c 2431 db3d 0330 a124 4d3d
000001d0: 5c7a 24b6 9c45 f334 229e b23d 755d 9a3d
000001e0: 6b73 ebbd a386 bcb1 2a06 67bc fedb a5bd
000001f0: c409 7b3d a305 7db5 961a 05be a55f 5536
00000200: 3cc4 49b1 9a3f 79b3 4338 4f32 7fef a6b5
00000210: 9611 5034 e01e 6cb2 602e cdb3 9ba3 bd33
00000220: 4a6c 5035 8944 2eb4 4338 8e34 2891 2232
00000230: 3f42 e7b1 c108 57b4 1d19 c431 b744 6a35
00000240: ddf9 8bb1 244e dcb1 8cc2 7ab5 9f94 d6b1
00000250: ef86 81b2 3f08 a8b5 6839 c5b1 d948 e9b5
00000260: bc64 6ab2 a3f7 8531 ecaa 9f30 3bba 45b1
00000270: 9ee9 3c32 879a 31b1 90eb 9e34 2b26 2432
00000280: 6054 b630 10e4 6235 fe2f c834 6e72 09b5
00000290: f8ee c3b0 f45e 3fb0 b06a 1832 3cc8 9931
000002a0: 6749 af34 e861 83b4 a709 2035 ebf7 f233
000002b0: fc21 a6b5 c620 5cb0 210b 8835 d244 10b5
000002c0: 5415 9731 e630 ebb1 4167 19b2 60cc c2b4
000002d0: b04f f231 ad75 d0b1 2d3a 81b3 e0ed c6b4
000002e0: 0af1 9635 9985 d8b0 941d 01b5 a7a9 14b5
000002f0: e904 d0b2 902c fa30 cf9c feb3 a215 d631
00000300: e481 0531 f0eb f4bb 059a a4b0 9445 13bd
00000310: a417 1ebd 5fc0 d5bc df4d 37bc bc78 48bc
00000320: 26e1 0bbd be6e 1abc 3aec e0bb b1da 08b2
00000330: 6149 1832 43d9 b5bc 9bae 98b1 a522 16bd
00000340: 17c7 9532 b077 36b1 df9b eebc 76c6 8bb3
00000350: cefb 9232 d8f5 d7bc c4f1 16b2 c3a4 dbbc
00000360: 6faa 93b0 f0e7 64b0 837a ba30 f4bc 7a31
00000370: a92a 9fb1 348c 4431 9a53 53bc bb07 b4b0
00000380: 84a6 95b2 d610 28bd 06a3 15bd 6307 f9bc
00000390: 4d52 9630 85c2 3d32 c47c ffb1 4ca9 11b1
000003a0: 49ff c0bc d5e2 d6bc b607 e2bc 5ed5 debc
000003b0: d14a ccbc 8b79 5eb2 f8d1 b6bc 2f1a 2abd
000003c0: 3396 8e31 21b7 cdb1 683d 26b2 a3b5 ecbc
000003d0: 40fc 6d30 5ce8 2130 4b23 aabc 19af adbc
000003e0: d9f2 1cbd 2ae8 6d31 305b c2bc a5a9 34bd
000003f0: a3f2 cabc f67f 6032 71fa b6bc 6d90 6631
-1.1616328e-08 0.017222421 9.676084e-09 -0.016247531 -0.011151803 -0.08444941 0.053921014 0.0027413242
0.02159926 0.029545946 0.034095075 1.0852194e-08 0.00083360175 0.0033909762 -0.030836537 -0.021548862
-0.002036528 1.7248478e-08 -0.10477112 -0.0005785118 -0.0024197912 -0.09683164 -1.0900356e-09 0.05297778
4.993259e-06 5.88225e-06 2.295246e-05 -0.013847229 9.907806e-09 1.2137328e-08 0.024136221 9.2407655e-09
9.89965e-09 0.002323906 0.12841782 -0.04115473 -0.010962108 -3.5311037e-05 0.0009717213 1.5060603e-08
-0.041229542 -0.01858356 0.0071312953 0.0025523473 0.041232213 -3.6984163e-06 0.014178769 0.04994706
-3.110124e-05 3.5690515e-08 -2.735975e-08 0.060317364 -1.4989599e-06 6.598068e-07 0.010480713 -0.025984839
0.10682792 1.1213533e-08 0.020366259 0.021945462 -0.0447217 -4.285377e-07 0.0012413494 0.000115360854
-1.0852313e-08 -0.012422203 -1.2120877e-08 -0.17732964 -0.22760287 0.13641731 -0.0132246055 -0.020858686
-0.011222534 -0.015481495 -0.017560858 1.627246e-08 9.541201e-08 0.00523981 0.0031636304 -0.016056994
0.00027855425 -4.9388627e-10 -0.103212245 -0.0009018749 -0.0034815047 -0.00043344704 1.945709e-08 -0.030054037
5.947006e-07 -7.043965e-06 -1.33767435e-05 0.0017094518 5.047734e-09 2.9290609e-08 -0.021910155 -1.2642857e-09
1.6174276e-08 0.044631455 -0.15823326 0.015242619 -0.00056658743 1.6489463e-05 0.00013477745 2.6557407e-08
0.13066436 0.06633103 0.0015289303 -0.095515706 0.1373505 -5.8894516e-06 -0.071939304 -0.13738613
6.320257e-05 2.3926914e-09 4.7745424e-10 0.05008376 -2.4509127e-06 4.5312925e-07 0.08721568 0.07537357
-0.114966236 -5.4868265e-09 -0.014100591 -0.08098601 0.06128861 -9.4258047e-07 -0.12998423 3.1795146e-06
-2.9360896e-09 -5.8032676e-08 1.2061778e-08 -1.2437666e-06 1.9377907e-07 -1.3744028e-08 -9.554492e-08 8.830758e-08
7.764362e-07 -1.6229946e-07 2.6490497e-07 9.462646e-09 -6.730516e-09 -2.002662e-07 5.707206e-09 8.7271786e-07
-4.0738386e-09 -6.4117263e-09 -9.341536e-07 -6.245116e-09 -1.5078937e-08 -1.2519375e-06 -5.739981e-09 -1.7381054e-06
-1.3643497e-08 3.8989625e-09 1.1617352e-09 -2.8773133e-09 1.0996159e-08 -2.5844729e-09 2.9601188e-07 9.554735e-09
1.3266224e-09 8.4523435e-07 3.7287822e-07 -5.1202994e-07 -1.4256036e-09 -6.962033e-10 8.871822e-09 4.47565e-09
3.2649697e-07 -2.4471888e-07 5.961869e-07 1.1314099e-07 -1.2377855e-06 -8.008211e-10 1.0136029e-06 -5.3744327e-07
4.397103e-09 -6.8449593e-09 -8.929249e-09 -3.6284018e-07 7.0521864e-09 -6.066975e-09 -6.017613e-08 -3.705345e-07
1.1246022e-06 -1.5754039e-09 -4.8099287e-07 -5.5381173e-07 -2.421662e-08 1.820256e-09 -1.185632e-07 6.230679e-09
1.9427882e-09 -0.007474415 -1.1976345e-09 -0.035955027 -0.038596764 -0.026092706 -0.0111879995 -0.012235817
-0.034150265 -0.009425817 -0.006864098 -7.9659666e-09 8.864249e-09 -0.022198325 -4.4436326e-09 -0.036654133
1.7436419e-08 -2.655252e-09 -0.02912706 -6.508792e-08 1.7111145e-08 -0.026362345 -8.78612e-09 -0.026811963
-1.0744098e-09 -8.327552e-10 1.3568101e-09 3.6487195e-09 -4.632359e-09 2.860145e-09 -0.01289835 -1.3098921e-09
-1.7421605e-08 -0.04103168 -0.036532424 -0.03039903 1.0937328e-09 1.10454765e-08 -7.435661e-09 -2.1196511e-09
-0.02355923 -0.026231209 -0.027591567 -0.02720135 -0.024938019 -1.2949736e-08 -0.022316918 -0.041528877
4.1498196e-09 -5.9871046e-09 -9.676434e-09 -0.028895205 8.6578567e-10 5.890166e-10 -0.020768782 -0.021201657
-0.038317535 3.462001e-09 -0.023725122 -0.044107098 -0.024773901 1.3067611e-08 -0.022336217 3.3551502e-09

convs.0.lin_pos_r.weight f4 [32, 32]
00000000: 1624 5fb2 2d5c 50bf 7ab7 cfb2 2491 513e
00000010: 6955 0d3e 8352 74be 6c0c 49bd ba33 bbbe
00000020: eb27 b13e a63a 14bf b0bb 8bbf 58fc 5232
00000030: 8619 f532 af40 463e 3676 6432 85cf b63e
00000040: 0ec2 9eb2 ba30 67b1 71ac cbbd b29e cb3a
00000050: b118 0633 da09 393e 3ea7 bbb1 92d3 023e
00000060: b315 c635 110e 76b7 84ce 20b8 4bbd 8233
00000070: 1c06 94b2 2e9a bd33 ad6e 3bbe 7b0f 1933
00000080: 60c6 ac31 8234 94bd d5bb 0532 46bd a93d
00000090: b314 3c3e 7890 5c3f 3b8a 1fbf 654c 8b3f
000000a0: d6d7 d53d bd01 d4be 7ce9 143f 0f75 6db2
000000b0: 50d3 6032 1d3f 53bf 4b2d cbb2 6b0d e13c
000000c0: 90f5 31b3 d376 a032 d062 02bf bd1d 37ba
000000d0: 570e c333 69ca f8bd 1a7c b632 bce2 39bf
000000e0: 820e a1b5 3f24 2bb6 cd03 eb32 38f1 3933
000000f0: 2e4e 7632 6b52 9d32 5a48 0fbf b4dc 9a32
00000100: 07ae cc31 4d28 0d36 f76b ed32 4415 27b7
00000110: d32b 5a37 1567 06b5 2e00 64b5 282c 2136
00000120: a4e2 d536 943e 0e34 4bfa 2135 5c2f d532
00000130: 5138 bd2f 6f7e 99b2 3ac3 87b1 ac58 9a34
00000140: e591 ac2f d501 9330 890f a536 743e 99b2
00000150: ca06 df32 6d49 3934 9d1f 7632 5b62 9b36
00000160: f6f9 86b1 0c6c 6cb2 6958 2631 7fc0 fbb2
00000170: 1e94 79b0 641c 3ab2 6463 37b5 2dde a2b1
00000180: 7550 b7b1 d7e5 16bc c29e e7b0 c7f0 93bd
00000190: 0ea9 9dbd 5e63 efbc aeba debc 45d2 e3bc
000001a0: 3f5c 8cbd e347 7fbc 5455 22bc a846 9432
000001b0: 4ee1 d330 eb2c 2fbd cdc6 7832 a16f 6cbd
000001c0: 9446 95b2 93a2 87b2 f97c 53bd 1bc5 e0b1
000001d0: 9f9e c432 07a5 20bd bc3c 42b0 0bc5 5ebd
000001e0: f00f b330 e266 6131 949f 33b6 d732 2c32
000001f0: 078f ceb2 73eb 0fb1 1071 a2bc 9a1d 4532
00000200: db6b 8132 70b9 0d32 2cf6 1832 50e5 aa32
00000210: 4ff7 0733 7943 1f31 7952 9132 ccf0 4f30
00000220: 100f 0833 fbe0 51af a1f3 04b2 e45d 64b2
00000230: 82a1 c1af d497 77af 5e0c 3e32 6164 2032
00000240: 5d47 3130 498d 8730 95ae 9732 f009 9830
00000250: dca3 1db2 f117 e530 ce04 6831 a52d 33b3
00000260: f1af 81b2 e257 8232 4809 f431 5ad6 db31
00000270: 8a57 e432 b415 05b2 e5c7 6fb2 f14d beb0
00000280: b57b 2033 6b92 3d3f 654b 0232 2c8c d2be
00000290: dae6 0cbe f883 043f c4f0 be3d e0d7 583f
000002a0: b7f8 a3bd ea3c e23e d265 863f a327 33b2
000002b0: f381 5eb2 d234 61be 6d1c 8d33 550f 993e
000002c0: 2b3b 87b1 3c75 d0b2 f620 d6be 40c1 d8ba
000002d0: a820 b533 92f0 03bf 2fa8 e2b2 4d4e b9be
000002e0: 8822 a6b4 a0aa a737 b474 9b37 f7ae 2032
000002f0: 453a 99b2 ef80 4334 1986 9b3e deaa c231
00000300: d207 9e32 9cda a7b3 eddc 922f 9c6d 1534
00000310: 107c 4eb3 96c3 d832 98a8 b1b3 8fb4 ceb2
00000320: 5331 d733 5f50 2434 f73c 9833 7098 1bb1
00000330: 0ce1 2731 dda3 24b4 f521 8eb2 7a5f 7f33
00000340: f615 afaf 102f c8b1 ce69 da33 4886 b230
00000350: 07aa a130 b5de 1834 e989 2632 d551 8b34
00000360: 6b7a 7632 79b6 34b2 f55c 0631 8066 7230
00000370: b4d8 8a32 31f5 a9b2 d23a adb3 a107 3432
00000380: 27bf a032 000b 563f a22a 9ab1 1d33 a6be
00000390: a099 3fbe 6b2d 413d 1e0d a53e de66 99be
000003a0: 93e8 53bd e8ad 113f 162c 2a3f 792f bfb2
000003b0: 5dea 0e32 a384 6b3e 2bbd 81b2 0f57 953e
000003c0: 6a5f 8c31 1773 1532 a37e 6dbd d5e3 61ba
000003d0: f9ee e0b2 3f12 26be 946a 2c32 b229 533e
000003e0: e373 c1b6 78fc c6b7 f6ef 1b38 5197 abb4
000003f0: 2153 9531 1470 f231 d13b 093f 5a26 7031
-1.2988513e-08 -0.8139065 -2.4181407e-08 0.20465523 0.13802113 -0.238596 -0.049084112 -0.36562902
0.34600767 -0.5790199 -1.0916653 1.2280985e-08 2.853336e-08 0.19360612 1.3298225e-08 0.357052
-1.8481867e-08 -3.3642622e-09 -0.09945 0.0015534966 3.1221763e-08 0.18070164 -5.4614295e-09 0.1277602
1.4758465e-06 -1.4666018e-05 -3.8339305e-05 6.088029e-08 -1.7232246e-08 8.8290435e-08 -0.18303938 3.5637168e-08
5.0284115e-09 -0.072365776 7.784327e-09 0.08288054 0.18367271 0.8615794 -0.623203 1.0882689
0.10441558 -0.41407576 0.5816877 -1.3821832e-08 1.3086563e-08 -0.8251818 -2.3652907e-08 0.027472218
-4.143436e-08 1.8680486e-08 -0.50932026 -0.00069853273 9.0830035e-08 -0.12147982 2.1244023e-08 -0.72611594
-1.1999657e-06 -2.5502084e-06 2.7359329e-08 4.3293056e-08 1.4336861e-08 1.8314685e-08 -0.55969775 1.8028324e-08
5.956966e-09 2.1034095e-06 2.7639528e-08 -9.958927e-06 1.3004016e-05 -5.0068894e-07 -8.493688e-07 2.4016572e-06
6.374279e-06 1.3247546e-07 6.03414e-07 2.4818e-08 3.4418915e-10 -1.786904e-08 -3.951212e-09 2.8749253e-07
3.1390282e-10 1.0696178e-09 4.9191917e-06 -1.7839945e-08 2.5963704e-08 1.725618e-07 1.4326273e-08 4.63081e-06
-3.9283305e-09 -1.3761575e-08 2.4206435e-09 -2.9307783e-08 -9.079616e-10 -1.083308e-08 -6.8317445e-07 -4.740079e-09
-5.335148e-09 -0.0092100715 -1.6852584e-09 -0.07223659 -0.0769826 -0.029222187 -0.027188625 -0.027810225
-0.06853532 -0.015581104 -0.009908039 1.7261598e-08 1.5416306e-09 -0.042767446 1.4480702e-08 -0.057723645
-1.7377978e-08 -1.5789999e-08 -0.051632855 -6.5416663e-09 2.2889536e-08 -0.039219882 -7.06631e-10 -0.054387134
1.3028494e-09 3.2800291e-09 -2.6765965e-06 1.0023277e-08 -2.4046598e-08 -2.0943076e-09 -0.019829303 1.147364e-08
1.5066624e-08 8.249444e-09 8.9035375e-09 1.9894884e-08 3.1657063e-08 2.31759e-09 1.6917726e-08 7.5648354e-10
3.1678667e-08 -1.9088368e-10 -7.738806e-09 -1.3292695e-08 -3.5221254e-10 -2.251846e-10 1.10622675e-08 9.336049e-09
6.449364e-10 9.862698e-10 1.7658104e-08 1.106228e-09 -9.17586e-09 1.6668747e-09 3.3763174e-09 -4.17182e-08
-1.5097585e-08 1.5173956e-08 7.10239e-09 6.398108e-09 2.6582502e-08 -7.746554e-09 -1.3957082e-08 -1.3846472e-09
3.7365414e-08 0.7405154 7.584139e-09 -0.41122568 -0.13759938 0.5176387 0.09323266 0.847044
-0.08006423 0.441871 1.0499823 -1.0428184e-08 -1.2951648e-08 -0.21992806 6.570995e-08 0.2989451
-3.9357437e-09 -2.4267699e-08 -0.41822022 -0.0016537085 8.4344094e-08 -0.51538956 -2.6386344e-08 -0.3619255
-3.0945034e-07 1.9987405e-05 1.8531784e-05 9.353008e-09 -1.7838042e-08 1.8207696e-07 0.30375746 5.6655685e-09
1.8397177e-08 -7.816308e-08 2.6714223e-10 1.3916582e-07 -4.8075947e-08 2.5234652e-08 -8.272872e-08 -2.4063665e-08
1.002069e-07 1.5302929e-07 7.089141e-08 -2.264212e-09 2.4429623e-09 -1.5333303e-07 -1.6546418e-08 5.945865e-08
-3.184792e-10 -5.8261165e-09 1.0170662e-07 1.298937e-09 1.1762616e-09 1.4237123e-07 9.693829e-09 2.5950308e-07
1.4346919e-08 -1.0518868e-08 1.9552406e-09 8.818475e-10 1.616386e-08 -1.978569e-08 -8.0666396e-08 1.0479114e-08
1.8713378e-08 0.83610535 -4.4868367e-09 -0.3246087 -0.18710947 0.047162455 0.3223657 -0.29961294
-0.051735472 0.56905985 0.6647352 -2.2256915e-08 8.318776e-09 0.22999816 -1.51036e-08 0.29167983
4.0853836e-09 8.69911e-09 -0.0579821 -0.00086170185 -2.6185704e-08 -0.16217898 1.0035951e-08 0.20621374
-5.765339e-06 -2.3721004e-05 3.717836e-05 -3.196133e-07 4.3459214e-09 7.055869e-09 0.536069 3.4946397e-09

convs.0.lin_pos_r.bias f4 [32]
00000000: be69 c43b 9571 003e c7c8 e033 830e a0bd
00000010: dca5 8cba b4d3 b33d 2123 04bc 4304 733d
00000020: 0169 96bc ae65 463d f1a6 a6bc c757 57bb
00000030: 86ba 9dbb 1e72 49bd 26ca 6abd 4a46 2bbd
00000040: 8803 80bb 03cc cf3b 976c 27bd 6bc3 15bd
00000050: 32b2 7ebd 2a95 5f3d 7e32 f6bb ce41 1a3e
00000060: 1e60 25bc 799f 72ba 466d cbbb c581 65bc
00000070: dff6 c3b7 a533 293c 9420 3cbc c91a f23d
0.0059940508 0.12543328 1.0467334e-07 -0.07815268 -0.0010730582 0.087806135 -0.008065016 0.059330236
-0.018360617 0.048436813 -0.020343276 -0.0032858716 -0.004813495 -0.049181096 -0.05732169 -0.04181508
-0.003906671 0.0063414588 -0.040875044 -0.03656332 -0.06218166 0.054585613 -0.0075133434 0.15064165
-0.010093717 -0.00092553307 -0.006208095 -0.01400799 -2.336077e-05 0.010327254 -0.011482377 0.11821515

convs.0.lin_neg_l.weight f4 [32, 64]
00000000: 5bb6 e630 b697 a4b2 d2f4 6d33 7ea9 7233
00000010: 5e42 d331 2c74 4d30 70af 15b2 8ca1 37b2
00000020: 7c4f 2d31 e1b2 1b33 e583 cfb1 393a 3e33
00000030: c091 4fb1 4f19 872e 7570 8633 18a6 3c31
00000040: 44af 0bb1 9fa7 fb31 edec 0f31 6edc efb2
00000050: a472 7232 46ed adb1 751e 7132 e930 47b2
00000060: 1f5a 87b2 6975 c131 a36f 1f33 1064 c72f
00000070: 8657 4cb2 f539 9cb1 7f05 8030 fb48 82b0
00000080: 771a 5fb1 f133 f4b2 2aef 0cb0 42be 13b2
00000090: 8035 93b1 8861 0eae 6731 beb2 c872 69b1
000000a0: b62d 90b3 bd08 5632 8c18 67b2 dc24 b831
000000b0: 6cfb fbb1 9d02 9db2 7792 0231 9bb2 68b2
000000c0: 9053 3cb2 aa73 e830 4a74 6bb1 30db 8531
000000d0: 320b 2b31 656d c7b2 0cdd 7e32 9220 c133
000000e0: 0ebb 8132 3727 2b30 1529 3931 ea83 25b2
000000f0: 9c7b 0932 5eb4 01b2 9c97 b432 008d 83b1
00000100: 6eb4 07b2 105f ce36 7f7e abb7 8b64 cbb6
00000110: 33ca 30b1 7499 e8b1 fb0c 8430 b538 c531
00000120: ba2f 8cb7 9935 4bb7 be9f 1738 3d0c 8636
00000130: 7702 a4b7 799b 84b2 b1fc 1337 e70c 2d38
00000140: 9be9 96b2 998c b5ac dd7d e4b0 9b29 6e36
00000150: 678f e5b1 68b7 3232 2cef 2835 f7b4 7cb6
00000160: bede fab8 701d 9031 92a2 52b6 6a83 30b8
00000170: 8e17 0cb7 0639 1732 849a 1337 6076 cfac
00000180: 95e8 db30 c3ec c436 705e 6eb2 b709 6338
00000190: 7ab1 8f38 24ca 8db6 9242 54b5 b0eb 1037
000001a0: f8f5 f437 e8ae 1637 0f4d 01b7 9748 09b2
000001b0: d378 84b1 f71b 8d36 d5f0 1aaf 29bb 5436
000001c0: c084 d630 1d14 35b2 f722 6738 610d 432f
000001d0: 648f 43b2 e2d7 8237 37c5 6330 fd82 d7b6
000001e0: 449c 19b1 8c39 22b2 a8a7 97b2 4493 1a31
000001f0: 61cb bdb1 8aa8 9530 119c 97b5 c62c c231
00000200: 01a2 f931 e87a 823c 1253 253d 4e08 7e39
00000210: ef25 173b 14b1 26b7 59dc 85bc 0c2d 6eb2
00000220: 523a 06bd 33d8 103d 6058 bdbb e261 1f3d
00000230: 91a6 263d 3e5a 1436 992b 133d 7dfb 32bd
00000240: 25f2 0eb7 219b 05b2 cfdb 6c39 6ab5 01bd
00000250: 4371 f737 9dcb 9935 43f2 b93d a5af 5b3d
00000260: f8de 22bd 113e 7c32 a1bc 073d e28e e33d
00000270: 8f9a 003d 314f d4b3 1b17 bb3d 01e0 06b6
00000280: af44 4d32 2546 113d 267f 1332 6d1e a43d
00000290: a399 053e 226d 87bd e1b2 9d3b f1d5 5fbd
000002a0: 8449 de3c 4fc8 1b3d 2266 41bd 7d5e 9eb9
000002b0: e297 fabb 4bcd 663d d0eb 0b3d 9bfd 03bd
000002c0: 3a93 9fbc 5018 cfb2 ee84 773d 376c 8a3a
000002d0: 41da 1bbc c43d 0e3c 4e3d 93b3 4d58 ff3d
000002e0: 2b7b fa35 78df 6037 1835 3b36 c60f 7dbc
000002f0: 4d68 34b2 4683 34b3 f4a5 183b b288 80b2
00000300: 8b1b 1332 17ac a63d 3a7e c8bc 2778 263e
00000310: 7990 bf3a c096 9d37 7093 463a d879 6630
00000320: 51a9 04bd e9a0 183d 23e7 283c 8059 8a3d
00000330: e636 8ebb 4226 53b6 3aae b43d b12d d73c
00000340: 9452 8eb7 d713 5c31 7534 70b4 3520 283c
00000350: 8ea3 7fb5 9750 2a36 6f17 f03c 9145 5e3d
00000360: 09b4 b43c b5fb 5ab0 412d f23d 708d 103e
00000370: ecf5 003d 55a5 e5b2 d291 ad3d 6d19 4bb7
00000380: 1704 9131 b1aa 28bb f82b 8231 6ebf f93b
00000390: 9e05 353d f17f ccbd 66d0 793d 090d eaba
000003a0: 3bc1 9e3d 08b3 82bc 17d4 173d 6027 ea33
000003b0: cf36 13ba 6264 2f3d 7f2d 333c 0e76 bfbc
000003c0: 2e96 41ba bc3e ceb2 ee2e 823d 6e8c be39
000003d0: f32e 753c 9d64 30bc 5c53 dd32 477c 093e
000003e0: c1e4 0234 afe4 7c35 07f5 efb7 d3c9 febc
000003f0: bf33 0433 2370 50b2 ce25 a03d a377 1132
1.6786531e-09 -1.9161103e-08 5.5403525e-08 5.6499168e-08 6.1484533e-09 7.4743656e-10 -8.712831e-09 -1.06887335e-08
2.5219995e-09 3.625144e-08 -6.0394876e-09 4.4290775e-08 -3.0205314e-09 6.143585e-11 6.260317e-08 2.7452014e-09
-2.032679e-09 7.3241178e-09 2.0943915e-09 -2.7923502e-08 1.411232e-08 -5.0619375e-09 1.4034971e-08 -1.1594445e-08
-1.575705e-08 5.6303873e-09 3.7121605e-08 3.6268988e-10 -1.1894263e-08 -4.5467865e-09 9.314788e-10 -9.479487e-10
-3.2465814e-09 -2.8428959e-08 -5.1271576e-10 -8.599786e-09 -4.2843453e-09 -3.2373687e-11 -2.2141377e-08 -3.3971208e-09
-6.713837e-08 1.2458426e-08 -1.3451551e-08 5.3592952e-09 -7.333645e-09 -1.8278394e-08 1.9000745e-09 -1.35447875e-08
-1.096204e-08 1.6913095e-09 -3.4263103e-09 3.895728e-09 2.4890139e-09 -2.3216396e-08 1.4835006e-08 8.993187e-08
1.510264e-08 6.2265165e-10 2.6944396e-09 -9.634258e-09 8.002555e-09 -7.549799e-09 2.1023702e-08 -3.8286316e-09
-7.899059e-09 6.150345e-06 -2.0443693e-05 -6.061576e-06 -2.5726308e-09 -6.7695343e-09 9.607953e-10 5.7399014e-09
-1.6711525e-05 -1.2112222e-05 3.6149977e-05 3.994936e-06 -1.9551471e-05 -1.5437523e-08 8.820717e-06 4.125843e-05
-1.756853e-08 -5.159939e-12 -1.6624956e-09 3.5488981e-06 -6.68108e-09 1.0402665e-08 6.293292e-07 -3.7656262e-06
-0.00011962418 4.1942982e-09 -3.1387067e-06 -4.208406e-05 -8.3501345e-06 8.802322e-09 8.797859e-06 -5.896436e-12
1.6000451e-09 5.868818e-06 -1.3874896e-08 5.4130065e-05 6.851829e-05 -4.2256597e-06 -7.9073027e-07 8.637944e-06
2.9201605e-05 8.98142e-06 -7.706941e-06 -7.990955e-09 -3.8554417e-09 4.205383e-06 -1.4091779e-10 3.1699403e-06
1.5608279e-09 -1.054016e-08 5.5107255e-05 1.77399e-10 -1.1383097e-08 1.5597736e-05 8.286238e-10 -6.4227484e-06
-2.2353257e-09 -9.442726e-09 -1.7654955e-08 2.249366e-09 -5.5237455e-09 1.0889079e-09 -1.1295798e-06 5.6512333e-09
7.2652715e-09 0.015927747 0.040362425 0.00024226421 0.0023063382 -9.9356e-06 -0.016340422 -1.3863666e-08
-0.032770462 0.035362434 -0.0057783574 0.038911708 0.040686194 2.2106246e-06 0.03593025 -0.04369687
-8.520238e-06 -7.776891e-09 0.00022588599 -0.03166715 2.9497436e-05 1.1458648e-06 0.09079411 0.053634305
-0.03976342 1.4682443e-08 0.033138875 0.11111237 0.0313974 -9.886424e-08 0.091352664 -2.0097943e-06
1.1948187e-08 0.035467286 8.585436e-09 0.08013616 0.13046889 -0.06612612 0.004812584 -0.05464739
0.027134664 0.038032826 -0.047216542 -0.00030206508 -0.0076475004 0.056348126 0.034160435 -0.03222428
-0.019479383 -2.4109028e-08 0.060429506 0.0010560815 -0.009512485 0.008681718 -6.856372e-08 0.12468014
1.8662298e-06 1.3403471e-05 2.7896076e-06 -0.015445655 -1.0501094e-08 -4.202891e-08 0.0023292275 -1.4963323e-08
8.562789e-09 0.08138292 -0.024474252 0.16256772 0.00146152 1.8786057e-05 0.00075750705 8.3846663e-10
-0.032388035 0.03726283 0.010309014 0.06755352 -0.0043400405 -3.146372e-06 0.088222936 0.026266905
-1.6966173e-05 3.2025491e-09 -2.2370826e-07 0.010261585 -9.5232906e-07 2.5378883e-06 0.029308049 0.054265562
0.022058504 -7.9665635e-10 0.11825038 0.14116454 0.03148453 -2.6734293e-08 0.08475079 -1.2105663e-05
4.2205204e-09 -0.0025736506 3.7884966e-09 0.007621697 0.04419481 -0.099853404 0.06098976 -0.0017856668
0.077516995 -0.01595451 0.0370675 1.09036364e-07 -0.0005615772 0.042820342 0.01093614 -0.023371723
-0.0007384744 -2.4010085e-08 0.063566074 0.00036344252 0.014964807 -0.010766176 2.5765694e-08 0.13426314
1.2190414e-07 9.4210094e-07 -2.860512e-05 -0.031102097 3.0780708e-08 -1.213269e-08 0.07819711 8.467313e-09
