wiki-elec/models/wiki-elec-train-6.pt (torch, 63739 bytes, 14 tensors)

conv1.lin_pos_l.weight f4 [32, 64]
00000000: cf71 d0b7 6e49 e3b5 b6b9 9db6 e861 9335
00000010: ba87 4db7 f3d8 f3b4 1529 97b6 b33b 16b6
00000020: 475c 9eb6 2caf b5b6 30da 8db5 0a5a 86b5
00000030: 8e95 94b5 4361 d935 7104 9cb3 e468 bfb5
00000040: 0403 2d35 4924 2736 b64a 24b7 b6c3 7a35
00000050: 0ecb 1e36 766e bf36 5245 f533 0d37 f8b5
00000060: a63d 3a34 049a 0934 c505 08b6 b17f 88b5
00000070: 5038 8cb5 04d4 f1b4 f7bc 62b5 5cb1 9834
00000080: 24a1 5ab5 53a0 6db5 ce01 3db5 d848 dbb5
00000090: afbf dbb3 520e 4f35 6964 02b6 cb0d e435
000000a0: df3c 4633 2ab3 6034 c98a be33 5099 0335
000000b0: e862 6fb5 f125 89b4 b03c a6b3 78c5 e733
000000c0: e97f 1b35 f090 95b2 06e6 82b6 2b38 8434
000000d0: fa07 1cb4 c395 3335 9980 9834 4519 8035
000000e0: da28 2db5 4a56 3bb5 f7ee fdb3 6d84 20b6
000000f0: f61c b6b5 0e6c 1034 ddc5 1b34 f151 1435
00000100: f3ca 83be 4836 073c 495d b53d 3533 b43d
00000110: 33d0 153e 9339 7fbc 30e9 5abd bdef a4bd
00000120: 3812 9e3d 27d0 133e eb49 d2bb 023d cc3d
00000130: 0513 e93d a71b 773b 5153 dabc dec6 f5bd
00000140: 1b39 4bbb 7a59 c03d 1dc4 c6bd ed80 9bbd
00000150: 7784 f33b ab13 8bbd 2827 d0bc a460 043d
00000160: c52d b63d 9c32 a5bd eaea a63d dbd5 9bba
00000170: 13ad cb3c 2633 c8bb 3fe5 b73c 2dce 393c
00000180: 2975 ca3d 8c99 4c3c c885 a53d 43db bdbd
00000190: fe60 02bd 6984 6b3d ec7c 5dbd 6d76 fa3c
000001a0: f80c 303d c1b6 c2bc fe51 8e3c 5c2f 2dbd
000001b0: 3bef 9c3b 92d0 97bd 94a0 4d3d ac5a 803d
000001c0: e9bb cebd 9fd2 e13d 556d 26bc facc 95bc
000001d0: 806f e6bc 38c4 3cbb cf8f f6ba 6db3 6bbd
000001e0: 01b3 893d 773d 4bbd 2aa4 d6bb 12d4 9dbd
000001f0: d477 da3d 76c6 413d 64ca 67be 505c 6dbc
00000200: fe66 3c33 e471 5cb2 bada 0cb1 376b 4832
00000210: aade 47b0 4a11 8e32 8067 2632 8a1b 06b2
00000220: f001 23b2 809b 4eb1 f87f c7b0 578b 3431
00000230: dfb0 5a32 f8e0 cdb1 bef5 e12e 38ff c831
00000240: 7600 6532 db4d df31 f06b 90b1 f002 cb30
00000250: d5d6 d8b0 0b7c 8bb1 8451 7b32 eb1b 2b32
00000260: 2dcf 39b2 1a4f 1ab1 d974 7db1 4218 45b1
00000270: 3483 40b1 e412 ac31 826a 0fb1 3f7c 2b31
00000280: dcae 0031 25af 3832 5351 58b2 e2a0 8231
00000290: b4ae a9b0 69ae e331 cdfa c631 e415 8131
000002a0: 9352 9db1 c263 d0b1 b6ed 43b0 f429 8331
000002b0: 0259 9331 23d6 4a32 e3ee ac31 e12f f830
000002c0: 5cf6 eeb1 04a4 19b2 6558 4fb2 6339 c6b1
000002d0: 6f91 2932 2ab6 7f2f 86ec efb1 3176 de31
000002e0: 847d 2fb2 a6a0 1f31 f2a2 8c32 754a b02f
000002f0: e9a1 c5b1 0b47 00b2 91d3 17b1 b316 8931
00000300: dac1 42b7 80cf f634 a885 d735 5194 1935
00000310: 15bc 7636 c9be 3a36 8047 18b2 4036 14b4
00000320: bf31 f235 23cd 9eb4 a790 c3b3 6b83 45b2
00000330: 42d2 6eb5 59a8 57b5 9c27 3cb4 3b00 de35
00000340: 3fdb beb5 e384 60b1 13e8 1e33 4274 33b4
00000350: 790c e2b2 e287 37b4 cee2 76b4 b1bc 7535
00000360: 9ee3 e1b4 3ed1 64b5 60bf e933 8bf2 8d34
00000370: 3b02 31b3 7600 ab32 97ad d3b4 ef5b e533
00000380: bb9f 3934 0eed 1033 c37f e832 8c5a cab1
00000390: ac1e 44b4 20c4 a833 ec14 deb3 1c2a b234
000003a0: f1e3 acb3 d835 b6b4 cbd9 5035 02d6 ebb4
000003b0: 328c 9334 13a4 8bb4 e145 5f34 6b36 fd34
000003c0: 6d50 f133 b3b5 29b5 4196 32b4 91ef a934
000003d0: 00c1 adb4 d892 a0b4 a9ac 83b4 9400 aa30
000003e0: bcd7 91b4 9792 0432 6fa9 95b4 5d3f 88b4
000003f0: 5afc a934 3519 b3b2 2f16 bb34 3e2f b234
-2.4848528e-05 -1.6934189e-06 -4.700584e-06 1.0980848e-06 -1.22505535e-05 -4.5420128e-07 -4.5049333e-06 -2.2386491e-06
-4.7195094e-06 -5.414613e-06 -1.056882e-06 -1.0009983e-06 -1.1070385e-06 1.6196067e-06 -7.265124e-08 -1.4261136e-06
6.445191e-07 2.490606e-06 -9.792557e-06 9.3417054e-07 2.3662028e-06 5.705103e-06 1.1421311e-07 -1.8493462e-06
1.7345027e-07 1.281515e-07 -2.0268938e-06 -1.0169953e-06 -1.0447202e-06 -4.504401e-07 -8.446654e-07 2.8441252e-07
-8.144582e-07 -8.852268e-07 -7.041061e-07 -1.6337972e-06 -1.0232849e-07 7.713435e-07 -1.9429956e-06 1.6991338e-06
4.615583e-08 2.0926805e-07 8.872809e-08 4.90244e-07 -8.9178366e-07 -2.5545845e-07 -7.7410164e-08 1.0792695e-07
5.7928133e-07 -1.7411793e-08 -3.90108e-06 2.4627784e-07 -1.4531534e-07 6.690063e-07 2.8405773e-07 9.544098e-07
-6.450697e-07 -6.9788496e-07 -1.1824698e-07 -2.391894e-06 -1.3568485e-06 1.3450355e-07 1.4507482e-07 5.5253537e-07
-0.25740775 0.008252688 0.08855683 0.087988295 0.14630203 -0.015577692 -0.05344504 -0.08053539
0.07718319 0.14434873 -0.006417503 0.09972574 0.11380581 0.003770569 -0.026651056 -0.120008215
-0.003100938 0.09392066 -0.097053744 -0.0759295 0.0074315625 -0.06790861 -0.025409296 0.032318726
0.088954486 -0.080662936 0.08150275 -0.0011889295 0.024862802 -0.006109613 0.02244818 0.01134066
0.09885628 0.01248778 0.080821574 -0.092703365 -0.03183078 0.057499323 -0.054074213 0.030574048
0.042981118 -0.023768784 0.017373081 -0.042281494 0.0047892607 -0.074128285 0.050201967 0.06267294
-0.10094435 0.11026501 -0.010157903 -0.018286217 -0.02812934 -0.002880348 -0.0018811169 -0.05754416
0.067235954 -0.049619164 -0.0065503316 -0.07706465 0.10667387 0.047308408 -0.226358 -0.014487341
4.3865832e-08 -1.2831581e-08 -2.0497013e-09 1.166591e-08 -7.2712203e-10 1.6538838e-08 9.686005e-09 -7.806088e-09
-9.488289e-09 -3.0065337e-09 -1.4515527e-09 2.6272653e-09 1.2729486e-08 -5.9918612e-09 1.0275468e-10 5.849781e-09
1.3329659e-08 6.4990053e-09 -4.2032227e-09 1.4771029e-09 -1.5777127e-09 -4.0595345e-09 1.4628657e-08 9.959858e-09
-1.0815524e-08 -2.2454913e-09 -3.6882766e-09 -2.8681062e-09 -2.8014258e-09 5.0080065e-09 -2.0869781e-09 2.49544e-09
1.8725848e-09 1.0750033e-08 -1.2591346e-08 3.801788e-09 -1.2346022e-09 6.6263977e-09 5.791071e-09 3.756883e-09
-4.578689e-09 -6.064938e-09 -7.1278394e-10 3.8173713e-09 4.288382e-09 1.1806637e-08 5.033017e-09 1.8057983e-09
-6.9547195e-09 -8.943065e-09 -1.2069084e-08 -5.7690825e-09 9.8701625e-09 2.3256833e-10 -6.982705e-09 6.474487e-09
-1.021488e-08 2.3228863e-09 1.6372244e-08 3.2067118e-10 -5.7518617e-09 -7.466734e-09 -2.2093654e-09 3.9898054e-09
-1.1608436e-05 4.5972047e-07 1.6057647e-06 5.721277e-07 3.6766335e-06 2.7827211e-06 -8.863822e-09 -1.380331e-07
1.8044883e-06 -2.957905e-07 -9.106707e-08 -1.149679e-08 -8.8967874e-07 -8.033872e-07 -1.7523274e-07 1.6540356e-06
-1.4219912e-06 -3.2671827e-09 3.6998312e-08 -1.6712968e-07 -2.6315535e-08 -1.7092637e-07 -2.2993046e-07 9.1544194e-07
-4.207513e-07 -8.5241106e-07 1.0884719e-07 2.643977e-07 -4.1213053e-08 1.990723e-08 -3.9428116e-07 1.0680366e-07
1.7287577e-07 3.3743213e-08 2.7066454e-08 -5.8892677e-09 -1.8265081e-07 7.8587846e-08 -1.0341486e-07 3.3185722e-07
-8.0508364e-08 -3.3939318e-07 7.780297e-07 -4.3927872e-07 2.748289e-07 -2.6010147e-07 2.0793915e-07 4.7164517e-07
1.12370664e-07 -6.3221813e-07 -1.6632204e-07 3.165301e-07 -3.2364187e-07 -2.9909165e-07 -2.4526278e-07 1.2369292e-09
-2.7165322e-07 7.716742e-09 -2.7876692e-07 -2.5378077e-07 3.1662313e-07 -2.0849805e-08 3.4847605e-07 3.3189457e-07

conv1.lin_pos_r.weight f4 [32, 64]
00000000: 1392 1db7 ef35 0536 c5ec 1bb6 57dc b3b6
00000010: 9d77 fcb5 ec00 fdb4 51cc e5b6 950f 4b37
00000020: 508c 7ab6 fd89 c436 9c90 27b5 7798 0f36
00000030: 79f3 8d37 f031 8836 f2fa 17b6 7493 2837
00000040: 252c 2036 8739 d635 66e2 eeb4 a760 04b6
00000050: 1461 f3b5 2ce4 dd35 3b9e ad33 c371 deb5
00000060: e395 65b7 2c54 b936 cb96 9db5 82b2 2f36
00000070: d2d0 06b5 6012 d536 e910 47b5 616d 5236
00000080: 3f16 40b6 6205 0ab7 aafb f4b5 5cb3 d0b6
00000090: 307c d636 e1e2 cb35 8421 1cb5 b3f1 6536
000000a0: 74af 2c35 f5bd 8cb4 ccf3 82b6 5821 43b5
000000b0: 45a3 56b6 bd51 9736 c043 8c36 b554 7936
000000c0: 0882 de34 f0ce c436 b254 9835 b03f 0d36
000000d0: 9db5 9a35 ae5e 9c35 889d abb5 a6ac b035
000000e0: 27d7 60b7 447e 85b6 8760 e434 0cc9 fdb6
000000f0: 9b09 af37 101d 91b6 601b 83b5 31fa 2d36
00000100: 3fe1 a2bf 0571 81bd e5d9 97be 0d1c 0ebe
00000110: 6ea5 a33e 09ef b1bc eb31 4ebc aa05 513d
00000120: 6e4a e13d b776 1dbe 4e2b a63d 5453 a5bd
00000130: 0719 9bbd 770f 6bbc 094a 983e 0546 ab3d
00000140: b307 63bc 55da 013e 40cf 5fbe 6f78 6d3c
00000150: 139b bc3d 1110 673d 164d 243e 32a5 013e
00000160: c533 4e3c fc87 eb3d a14d 133c 4e63 88bd
00000170: e0a4 86bd eb4d 703d 2d1c f3bd ffd5 7e3d
00000180: 36f0 db3c 10ae a4bd f3f6 0fbd a308 6dbc
00000190: 35b0 083e 44ef 123d 4a76 9bbd 4aea 06bc
000001a0: 0312 35bc aaa0 cebd 17a8 2abd 56a9 90bd
000001b0: d452 8ebc 6199 943d a7b0 ef3d c8bb 86bd
000001c0: d1b1 f5bd 3286 fabc 9e87 e03d adfa bdbd
000001d0: 24fa fe3c f0b1 5e3d fb59 363c 6af9 153c
000001e0: 16c7 903d 2628 023e 4fd7 923d f397 66bd
000001f0: ed4f 85bd 9fd9 22be 8b55 1ebd 62a7 f3bc
00000200: 1e79 6c33 691d 07b1 c8aa d131 584e 12b2
00000210: fce1 9c31 dbbc 1632 1fa2 25b2 9b69 6732
00000220: a471 9eb1 9fd3 2832 4b5e f1ae 8d6d 5a31
00000230: 0044 24b2 a714 2c31 9d0c c1b0 7984 4ab2
00000240: b127 d531 2230 f131 bdb3 70b1 fda9 d032
00000250: 83d9 bb32 a4a0 e431 5b50 ec2f 36db 64b2
00000260: 31d1 2832 af6b 2132 5b7d 56b2 b5f2 5fb2
00000270: bfdd 4232 b389 0a32 75e9 3132 ce20 6331
00000280: 768d a3b2 4ddd 91b2 8467 5832 7fb0 0432
00000290: ece8 2cb2 cf61 fb30 5e61 0032 ae7c 3f32
000002a0: 3f0a 63b2 5c55 e430 baa2 0c32 e55b 8232
000002b0: af09 1431 11ee cc31 546d c92e 035c 8ab2
000002c0: b28d 2532 fe0a 1032 dec2 aab1 cb05 8ab2
000002d0: 14ae 2e32 21e9 b930 e4aa b631 8bb5 8fb2
000002e0: 2738 57af c721 9032 39ed 9432 bde3 88b0
000002f0: 2986 aeb1 7104 d3b1 ef21 89b1 e3a9 da31
00000300: 44aa deb6 d528 5c36 c335 8335 7973 b3b5
00000310: d055 36b6 aa92 c5b3 bc4e 8c34 fc08 a035
00000320: 16fb 88b4 d703 03b6 cde0 3c34 5210 6534
00000330: 2105 1d36 699b 9e35 ee31 4e33 5187 e3b4
00000340: bd4b 2935 2c45 5fb4 ace3 ba33 f5b1 0d35
00000350: 5dd6 b135 4bff 95b3 85a8 1b33 0c3e ae35
00000360: 0380 6e34 1e98 6db4 9f4d c4b5 1f4a 3db4
00000370: 97bf 07b4 687f 25b3 0bfe 9db4 19e4 3fb3
00000380: 9b7c 0f35 b049 a1b5 1f05 1d34 eb9e 01b5
00000390: 6c4c 85b5 9628 62b5 6f52 af35 5b51 3b35
000003a0: 1371 67b6 2473 2335 945f 0735 038c 9235
000003b0: d2b6 6933 24cc b335 a352 8735 9b3a deb4
000003c0: ebaa 43b5 df5e c235 804e e9b4 e305 9a34
000003d0: c69b 36b5 3685 9e34 9e71 fc33 e812 3334
000003e0: 6951 afb3 bce3 28b5 2107 9534 4741 fb34
000003f0: 6216 e1b4 70d6 62b6 96c3 1534 85a7 17b5
-9.39194e-06 1.9849938e-06 -2.3234618e-06 -5.3602666e-06 -1.8810275e-06 -4.7125593e-07 -6.8485174e-06 1.2103371e-05
-3.7334576e-06 5.857319e-06 -6.242278e-07 2.1397407e-06 1.6921886e-05 4.0589293e-06 -2.2646823e-06 1.0047912e-05
2.3867553e-06 1.5960985e-06 -4.449568e-07 -1.9725792e-06 -1.8133164e-06 1.653219e-06 8.084722e-08 -1.6573398e-06
-1.3684362e-05 5.5232285e-06 -1.1741298e-06 2.6180937e-06 -5.0222764e-07 6.350034e-06 -7.4157884e-07 3.1356105e-06
-2.8623178e-06 -8.226694e-06 -1.825266e-06 -6.2197632e-06 6.3921543e-06 1.5190709e-06 -5.81633e-07 3.4264347e-06
6.433031e-07 -2.6215244e-07 -3.9026836e-06 -7.269168e-07 -3.198352e-06 4.5096663e-06 4.1802123e-06 3.7153197e-06
4.1445332e-07 5.865346e-06 1.1349532e-06 2.1047708e-06 1.152675e-06 1.1650461e-06 -1.278634e-06 1.3163269e-06
-1.34015345e-05 -3.978408e-06 4.2538542e-07 -7.5633925e-06 2.0866099e-05 -4.32472e-06 -9.768228e-07 2.592464e-06
-1.272499 -0.06320385 -0.29658428 -0.13877888 0.3196215 -0.021720426 -0.012585144 0.051030792
0.110005245 -0.15377317 0.081137285 -0.08072534 -0.07573133 -0.014346949 0.29743984 0.083629645
-0.013856816 0.12680943 -0.21856403 0.014494046 0.092092656 0.056411806 0.16045031 0.12660673
0.012585585 0.11500546 0.008990676 -0.06659566 -0.06574416 0.05866806 -0.118706085 0.0622158
0.02684794 -0.08041012 -0.03514762 -0.014467391 0.13348468 0.035872713 -0.07590921 -0.00823457
-0.011051658 -0.10089238 -0.04166421 -0.07063548 -0.01737348 0.07255817 0.11703616 -0.06578785
-0.119968064 -0.030581567 0.10963367 -0.09276328 0.031125136 0.054368913 0.011129851 0.009153703
0.07069223 0.12710628 0.07169973 -0.056297254 -0.06509385 -0.15903328 -0.0386558 -0.0297429
5.5058187e-08 -1.9661803e-09 6.102116e-09 -8.516132e-09 4.565889e-09 8.77409e-09 -9.641126e-09 1.3469982e-08
-4.6113247e-09 9.827004e-09 -1.0976161e-10 3.1785448e-09 -9.561518e-09 2.5041034e-09 -1.4046183e-09 -1.1788068e-08
6.2036283e-09 7.019495e-09 -3.5026766e-09 2.4291689e-08 2.1868578e-08 6.653936e-09 4.2985246e-10 -1.33211895e-08
9.826452e-09 9.395918e-09 -1.2484942e-08 -1.3035494e-08 1.1342705e-08 8.063966e-09 1.0355838e-08 3.3051495e-09
-1.9040026e-08 -1.6980858e-08 1.25963915e-08 7.723542e-09 -1.0064678e-08 1.8290452e-09 7.472719e-09 1.1146012e-08
-1.3215469e-08 1.6613444e-09 8.186072e-09 1.517578e-08 2.154234e-09 5.9642464e-09 9.159842e-11 -1.6107156e-08
9.636482e-09 8.3844025e-09 -4.969805e-09 -1.6067949e-08 1.0167714e-08 1.3526781e-09 5.316325e-09 -1.6729947e-08
-1.9574085e-10 1.6779167e-08 1.7337344e-08 -9.96003e-10 -5.0793187e-09 -6.141413e-09 -3.9910826e-09 6.363949e-09
-6.635937e-06 3.2806322e-06 9.775907e-07 -1.3370146e-06 -2.7170063e-06 -9.2002054e-08 2.613432e-07 1.1923544e-06
-2.5514663e-07 -1.9522756e-06 1.7590646e-07 2.1333224e-07 2.3397808e-06 1.1817148e-06 4.8008523e-08 -4.23805e-07
6.306762e-07 -2.0793658e-07 8.702713e-08 5.2785555e-07 1.3249916e-06 -6.984791e-08 3.6242017e-08 1.2982068e-06
2.2212048e-07 -2.2127685e-07 -1.4625729e-06 -1.7628962e-07 -1.2642555e-07 -3.853293e-08 -2.942837e-07 -4.4678107e-08
5.3452976e-07 -1.2016881e-06 1.4623627e-07 -4.82875e-07 -9.931514e-07 -8.425062e-07 1.3062507e-06 6.9781316e-07
-3.44875e-06 6.0889784e-07 5.0430504e-07 1.0918596e-06 5.4415814e-08 1.3395952e-06 1.0082334e-06 -4.1393363e-07
-7.289188e-07 1.4481737e-06 -4.3456748e-07 2.8689018e-07 -6.8026964e-07 2.9526717e-07 1.1755331e-07 1.6677552e-07
-8.163881e-08 -6.2916274e-07 2.77586e-07 4.679989e-07 -4.1925801e-07 -3.3801443e-06 1.394786e-07 -5.6495657e-07

conv1.lin_pos_r.bias f4 [32]
00000000: 35a4 f5b9 e97a 913c 67f5 a6bc 4169 e1b7
00000010: b12d 9c3d be1e 7ebb 3d81 833c 98e1 763d
00000020: 7051 e93c c990 9c3c 7b72 cf3c 98b9 29bd
00000030: 32e6 0c3a cbda 9f3c 0c4b a63c fa4f fa3b
00000040: 53f4 4dbd e463 dabc cfb0 62bd 049f c2b8
00000050: 3ca3 fabc bcd1 143d abaa 65bd c2e3 443d
00000060: b567 2db9 77b6 87bd a4fe e93d f7ee 71bd
00000070: a0ef 6abc c145 4abd 8eb4 9e3c 85e8 51bd
-0.00046852385 0.017758803 -0.020380689 -2.6871103e-05 0.076259024 -0.0038775648 0.016052837 0.060273737
0.028481215 0.019112008 0.025323143 -0.04143676 0.0005374878 0.019513508 0.020299457 0.0076389285
-0.050281834 -0.02665896 -0.0553444 -9.28026e-05 -0.030595414 0.03633283 -0.056070965 0.04806877
-0.000165372 -0.06626599 0.11425522 -0.059065785 -0.014339358 -0.04938293 0.019373205 -0.05124714

conv1.lin_neg_l.weight f4 [32, 64]
00000000: b8b0 2f32 e1a6 47b1 3642 86b1 1f1e c631
00000010: a434 e431 14c2 3632 293a 87b0 0a8e 85b2
00000020: 642f 5c31 2398 2531 118b 9030 6ab1 7831
00000030: 5179 ccb1 29c0 6f32 a6d5 1932 0dc4 e9b0
00000040: 5352 2632 e975 9eb1 d265 ec31 05d7 d5af
00000050: 7f23 8cb0 dbd5 deb0 de6a 53af 980e e0b1
00000060: 3394 97b1 0908 0532 9997 0131 03a2 77b2
00000070: 0c5d 3332 5726 0c31 bd71 7631 8c99 ab31
00000080: 978c 8bb2 1307 7a31 4305 f9b1 a95f a7b1
00000090: 25db 4931 bf8d a4b1 f0b1 5732 dd38 13b2
000000a0: 2b29 6eb1 058e 6832 cd75 91b1 df5c c431
000000b0: 7a19 69b0 db93 6fb1 d7ad 65b2 077b 81b2
000000c0: 2fb9 50b1 796c 4db2 5360 9d32 61e2 1db2
000000d0: 122a a0b2 71d6 6032 c9d0 cf31 0a4c 6cb1
000000e0: 3b95 2731 c0b8 8831 57f7 36b2 fb73 b832
000000f0: 0840 b8b1 0a2f a7b1 6483 c130 da1a c230
00000100: 0708 113c 6ed5 993c c2c1 4dbd c86e d3bb
00000110: 9999 fc3c 9865 52bd a2dc 043d b1d5 acbb
00000120: 987d 40bc f37a fb3c e5cc 43bd 8a1c c2bc
00000130: 57b2 0bbd 335a 81bd 7d9e 633b 7831 04bc
00000140: c5d8 83bd 1622 f53c 4e4f b7bc b6d2 9a3b
00000150: 8d97 5cbd e79d 153b dae9 843d 072f 41bd
00000160: 76bf dbbd 99d1 9839 4f0f 533d 9339 a3bc
00000170: 6737 02bc 02bb 743c dec5 2c3d ba74 80bd
00000180: 8879 603c ec96 cebb aecc 87bc 7c1d f63c
00000190: 1521 0cbd 82e4 6f3d f3a1 0ebc 01a6 543c
000001a0: 7a84 3ebc 0b0e 023a 328e 513d c231 d23c
000001b0: 808b 2d3c 7897 963c 2602 53bd 32c1 7ebc
000001c0: 5edf 103d c17c d83c 2536 0b3d e99f 1bbc
000001d0: fe89 b3bc c84c 5f3c 49ac 1ebc 399c a73c
000001e0: 7830 523d b11e 01bd a850 393d 35c9 6d3c
000001f0: 6e67 db3c 6f3b dc3c 50ef 0b3d 74eb 353d
00000200: 1149 6dbd 8270 e0bd 8f55 42be c84a 8f3a
00000210: 85ad 3cbe e575 0bbe ba19 383e 0b75 003e
00000220: d4e9 3dbd 8745 fc3d a627 563e de92 203d
00000230: c603 1d3c 8d82 23bd 5665 98bd 6678 a3bd
00000240: baa0 44be 1b98 473d 364a dfbd 6e5c 073e
00000250: e23b e1bc 8010 29bd 56be c03d 7461 20be
00000260: 6aa4 1d3e 8727 d73c fb1d 2a3d 1ef6 7bbc
00000270: 28cc dd3d 3fd0 7a3c c954 653b c1ab c3bc
00000280: 0030 53bd e319 293e f72d 613c b25d bebc
00000290: e504 dd3c 1163 df3a 210f fb3c 7323 89be
000002a0: d1f0 2c3c 121f 523d 324e acbd cb8a a1be
000002b0: 5ee1 34bd ea1a e2bd 9216 8c3d 3ed9 883c
000002c0: 5232 58be 5338 f83d 0362 2e3c 6064 e73c
000002d0: d99d 853e 7272 693e 1c44 17bc 366c 82bd
000002e0: f0dd d0bd cbac 023e 462d 773d 231d 8d3d
000002f0: 6102 90bc 3e62 af3c ab97 11be 6c95 1c3e
00000300: 8f90 81bc 229b 7e3c 8ea2 87bc a9d0 01bb
00000310: cf38 c7bd 13a1 e83d d926 64bd b290 213d
00000320: bd80 8dbc 8e5b aabd 7de5 8bbc b539 2e3c
00000330: fe0a 90bb 1e8a 953d a03f d9bd e304 0dbd
00000340: d6bb 123e 00e1 85bd 68a0 b33d 8f1b 04bd
00000350: 12e3 023d c428 c7bc a90a ddbb 7830 cabc
00000360: f1e7 683d 0fe4 223d c7cc c3bc 74fd 4f3d
00000370: c749 b33d 7904 80bd ccb3 8cb9 b865 113d
00000380: 2d71 4b3d 293c a9bd cbde 773d 9dd0 173c
00000390: 414e dc3c a44d 10bb f20d 6a3d c621 99bd
000003a0: eaa9 113d 459b 60bd 7cb2 79bd 35f9 21bc
000003b0: 8a32 dfbb 027d 14bd 4c78 2b3d 656b febb
000003c0: e93b cebd cda6 babc 9cb5 16bc 2b2b 573c
000003d0: 01c9 71bd 39fb e8bb 95c3 553c 7ba8 8ebd
000003e0: 62dd a8bd 7960 d43d e3f6 63bd 8b1e 6c3d
000003f0: b7c0 c03c 9371 63bd 60fa 7f3c b0ed 18bc
1.0226522e-08 -2.905317e-09 -3.9074406e-09 5.765983e-09 6.641658e-09 1.06379225e-08 -9.839073e-10 -1.554783e-08
3.2041152e-09 2.409714e-09 1.0516904e-09 3.6189598e-09 -5.9509735e-09 1.3955323e-08 8.95435e-09 -1.7008702e-09
9.68119e-09 -4.61181e-09 6.8800796e-09 -3.8897255e-10 -1.0196429e-09 -1.6213407e-09 -1.9228305e-10 -6.520917e-09
-4.4115267e-09 7.743446e-09 1.8858144e-09 -1.44141294e-08 1.0440328e-08 2.0394475e-09 3.5862364e-09 4.9942113e-09
-1.6245663e-08 3.638381e-09 -7.247452e-09 -4.871215e-09 2.9373919e-09 -4.789143e-09 1.2555105e-08 -8.569455e-09
-3.465696e-09 1.3536469e-08 -4.233448e-09 5.714909e-09 -8.480111e-10 -3.4863123e-09 -1.3369081e-08 -1.5073523e-08
-3.0373248e-09 -1.1957234e-08 1.8321009e-08 -9.190075e-09 -1.8645583e-08 1.3087274e-08 6.048229e-09 -3.4385743e-09
2.4386526e-09 3.9791246e-09 -1.0650033e-08 2.1473161e-08 -5.3623843e-09 -4.8656874e-09 1.4079942e-09 1.4122989e-09
0.0088520115 0.018778529 -0.05023361 -0.006452415 0.03083496 -0.05136642 0.032436974 -0.0052744974
-0.011748694 0.030698275 -0.047802825 -0.02369525 -0.034105625 -0.06316032 0.0034731918 -0.008068435
-0.0643783 0.02992348 -0.022376683 0.0047248257 -0.053855468 0.0022829713 0.06489916 -0.04716399
-0.10729878 0.00029147862 0.05152827 -0.019924914 -0.007947779 0.014937164 0.04218089 -0.06272264
0.01370085 -0.0063046124 -0.016577091 0.030043356 -0.034211237 0.05856753 -0.008705604 0.012979032
-0.011628265 0.0004961199 0.051161 0.025658492 0.010592341 0.018382773 -0.05151572 -0.015548991
0.03536927 0.026426675 0.033987183 -0.009498575 -0.021916386 0.013629146 -0.009684631 0.020460235
0.051315755 -0.03152341 0.045242935 0.0145133035 0.026782718 0.026883809 0.034163773 0.044414
-0.05793101 -0.10958959 -0.1897795 0.0010932321 -0.18425567 -0.13619192 0.17978564 0.12544648
-0.046365574 0.12317949 0.20913562 0.039202563 0.009583419 -0.039919425 -0.07441203 -0.079819486
-0.19201937 0.048729043 -0.109028265 0.13218853 -0.027494375 -0.0412755 0.09411304 -0.15662175
0.1539475 0.026263965 0.041532498 -0.015378503 0.10829955 0.015308439 0.0034993163 -0.02388561
-0.05155945 0.16513781 0.013743869 -0.023238037 0.026979873 0.0017043074 0.030646862 -0.26784858
0.010555462 0.051299162 -0.08413352 -0.31551203 -0.04416024 -0.1104029 0.068402424 0.016705152
-0.21112946 0.12120118 0.010643485 0.028246105 0.2609699 0.22797564 -0.009232547 -0.06368296
-0.10198581 0.12761228 0.06034591 0.06890323 -0.01757926 0.02140915 -0.14218013 0.15291375
-0.015816001 0.015539916 -0.016557004 -0.001980821 -0.09727632 0.113588475 -0.05570111 0.039444633
-0.017273301 -0.08318244 -0.017077202 0.010633876 -0.0043958416 0.073017344 -0.10607839 -0.03442849
0.14329466 -0.06537056 0.087708294 -0.032252844 0.031954832 -0.02431143 -0.0067456556 -0.024681315
0.05686182 0.039768275 -0.023901356 0.05077882 0.08754306 -0.06250853 -0.0002683684 0.035497397
0.04966848 -0.08263428 0.060515206 0.009266046 0.026892783 -0.0022018934 0.057142206 -0.07477145
0.035562433 -0.054835577 -0.06096123 -0.009886076 -0.0068114446 -0.03625203 0.04186277 -0.0077642673
-0.10070021 -0.022784615 -0.0091985725 0.013132851 -0.059029583 -0.007110026 0.013047119 -0.06965729
-0.082453504 0.10369963 -0.05565537 0.057646316 0.023529394 -0.055528235 0.015623659 -0.009334013

conv1.lin_neg_r.weight f4 [32, 64]
00000000: 01bf 55b1 4ae1 1632 96ec 9a32 2d47 c4b0
00000010: 6ccd b4b0 5e08 2fb2 81f8 3b32 c0d4 db31
00000020: dcd3 3c32 e542 0d32 4102 5b32 1aab 62b1
00000030: 8468 3532 5f87 a931 6145 0032 128b a631
00000040: ffa1 8cb0 0aaa 4832 797b 9232 d8cb 37b2
00000050: e715 45b1 a635 2332 bf6c 23b2 9845 f1b1
00000060: 722e d331 ef77 f230 03b3 2532 9505 f9af
00000070: 8b5a 0f32 9e9a 2c31 4c27 45b2 93a7 e8b1
00000080: 9358 22b2 0794 e631 8ddf 1eb2 e5a0 1e32
00000090: 0dad 2032 131c a032 4540 f2b1 7035 8632
000000a0: ccf8 a1af eefe 9b32 0f92 4130 9601 a9b2
000000b0: 9a6b 39b2 d349 5332 3579 18b2 5669 2e32
000000c0: 6d8e 2f32 a7b2 5c30 8b58 57b0 644b 9e32
000000d0: 29a8 35b2 b94e d0b0 ea5d ac32 85e3 0632
000000e0: 4f3d 5f30 a6aa 0fb0 ad48 3db1 6931 8ab2
000000f0: 444b d4b1 8020 67b2 dc2a 1131 6a62 3532
00000100: 6ebd 603c d133 123e 6903 7f3c fa18 d4bc
00000110: 0f0b 4abd 6200 123d 549a 57be f367 01be
00000120: 020a 703d 51c8 a2bd e555 5d3d 4dee 8c3d
00000130: 9748 263d c862 883c 3e8b 77bc 9c31 97bc
00000140: e0ac 92bd 41fa f7bd 74a4 803c 01de 37be
00000150: 9070 843d 9f35 c13c 8a73 63bb 0b62 de3c
00000160: 9e62 b7bc 0439 85bd a1c0 4c3d 3728 10bd
00000170: c511 a4bd dc29 36bd 5c13 39bd b6ac 31bd
00000180: 52fc 453c 7090 f7bd b47f bd3b d4dc d9bd
00000190: 7235 c8bc 8af8 cfbd 64ac 083e 3291 923d
000001a0: ed42 96bd 3269 a33d c0e6 1ebd 58fa 47bd
000001b0: ac33 e13d 6e49 f5bd c6dd 453d 5b8f 8dbc
000001c0: 0d19 193d ea51 8fbd 13bb f3bc 9403 9b3d
000001d0: 67f6 053e 0337 603d 6063 59bd 8e7c 6ebd
000001e0: da74 d23d 4034 4e3b e660 c03c 2082 c03d
000001f0: fa16 50bc 2ab5 e63b 0e5d 0bbc 00ff 91bd
00000200: ae35 273e 4c26 4f3d 3fdc 52be 302c 5c3d
00000210: d331 8d3e 01c2 07bd 2318 ac3d 31e3 323e
00000220: 5018 053d 5fa9 283d 0aad 4b3e ca33 94bd
00000230: b256 22be 3fd0 fabc 54f2 903d 779d d2bd
00000240: f114 e53d d36e 65bd 7c07 0cbe bd91 343e
00000250: 1677 c6bd 85f4 f73b 0339 c5bd 3579 63bd
00000260: 983a bbbd 3ffa 83bd a38f eebd 99c0 6abd
00000270: 7f0c f2bd 0ed1 923d 29ef 9fbd b4d5 ecbd
00000280: e656 5e3d b9f3 28bd 30d3 9c3d 698f 80be
00000290: 07d7 1e3d 3f67 6a3e b029 843c 529c 2cbe
000002a0: f630 5c3d 19a2 10bd 1e78 5d3b 4987 64bd
000002b0: f5d8 d7bc 0697 cfbd dd63 4d3d 82b4 5d3d
000002c0: d42f 3fbd aa71 8f3d a220 473d 091c 3a3d
000002d0: e01c 253e 2fa4 623d c9a8 63be fa32 66bd
000002e0: 12a2 963c 7536 983c 1064 e4bd a57b ef3c
000002f0: 8610 533d c209 c13d edf9 afbd 1b84 0dbd
00000300: 944e f3be f8bb 0abd c56e 5ebe 29a6 4d3d
00000310: 7deb 5b3e 7a94 fbbd fd1d 813d ca21 413e
00000320: 1700 823e b8ba 123e 791a 503e aa1e 24bd
00000330: 5cdc 39bd 02f8 cbbd 8894 9a3c 11b7 bfbd
00000340: 8b97 06be 9515 493e 33a3 90bd 408f 143d
00000350: d34c 5ebe 69a3 35bd e5f8 ac3d 2d73 e23d
00000360: 340a 9ebd 858b eb39 f607 ea3d 7caa b13d
00000370: 285d c63d 756c a6bd 771e 9cbd 1488 c9bc
00000380: 3501 683e ed87 eebc 9453 49bd e8b8 0b3e
00000390: b540 2ebb e321 dc3d b5c1 cabc 290d a9bd
000003a0: 9fea e4bd 50a0 e1bd 3730 933c 53f5 18be
000003b0: 3238 80bd 14f8 1abd 14bb df3c 9def a73d
000003c0: 0fcc 1a3d 90cf eb3d 0d84 7abd 1bd0 a43d
000003d0: 038f 953c 744d b4bd b253 bd3d c9f7 c2bd
000003e0: 8c61 6e3d 3e81 153e 00b3 603d 8292 99bd
000003f0: b3be 743d 9ef4 c6bc 65d8 5f3d d70a 48be
-3.1104153e-09 8.782374e-09 1.8035546e-08 -1.4281106e-09 -1.3155108e-09 -1.0188243e-08 1.0941336e-08 6.3979257e-09
1.09912115e-08 8.22249e-09 1.274799e-08 -3.2984588e-09 1.0559351e-08 4.9339373e-09 7.4663555e-09 4.8470463e-09
-1.0232383e-09 1.1680195e-08 1.7052786e-08 -1.0698351e-08 -2.8679723e-09 9.500047e-09 -9.512575e-09 -7.021935e-09
6.1461884e-09 1.7641905e-09 9.644967e-09 -4.5296802e-10 8.344283e-09 2.5117184e-09 -1.1475844e-08 -6.7711396e-09
-9.4497805e-09 6.7107098e-09 -9.24764e-09 9.233394e-09 9.352573e-09 1.8639218e-08 -7.0504336e-09 1.5623954e-08
-2.946251e-10 1.8160303e-08 7.042055e-10 -1.967491e-08 -1.0792883e-08 1.2298602e-08 -8.875124e-09 1.0152084e-08
1.02187245e-08 8.0289414e-10 -7.834237e-10 1.8427905e-08 -1.0573822e-08 -1.5156366e-09 2.0066143e-08 7.8515585e-09
8.121405e-10 -5.2265603e-10 -2.7544431e-09 -1.6087784e-08 -6.1785688e-09 -1.3453359e-08 2.112464e-09 1.0557963e-08
0.013717039 0.14277579 0.015564778 -0.025890816 -0.049326953 0.035644896 -0.21054965 -0.1263731
0.058603294 -0.079483636 0.054036994 0.0688139 0.04059657 0.016648665 -0.0151088815 -0.018456273
-0.071618795 -0.12108279 0.015703417 -0.17955782 0.06466782 0.023585139 -0.0034706318 0.02714636
-0.022385892 -0.065050155 0.049988393 -0.035194602 -0.08011202 -0.044473514 -0.04518448 -0.0433776
0.012084084 -0.12088096 0.0057830457 -0.10637823 -0.024439547 -0.10154827 0.13347012 0.071566
-0.07336984 0.07979049 -0.03879428 -0.04882273 0.10996184 -0.11976896 0.048307203 -0.017280271
0.037377406 -0.06998046 -0.02975229 0.07569042 0.13082276 0.054739963 -0.053073287 -0.058224253
0.10276194 0.003146425 0.023483705 0.093998194 -0.012700791 0.0070406394 -0.008506073 -0.071287155
0.16329071 0.050573632 -0.2059183 0.053753078 0.27577075 -0.033144 0.08403041 0.17469479
0.03249389 0.04117715 0.19890228 -0.072364405 -0.15853384 -0.030616878 0.070774704 -0.1028394
0.11185635 -0.056013893 -0.1367473 0.1763372 -0.096906826 0.007566991 -0.09630015 -0.055535514
-0.09142035 -0.06444215 -0.1164849 -0.05731258 -0.1181879 0.0716878 -0.07809288 -0.11564198
0.05428209 -0.041248057 0.07657468 -0.25109413 0.038779285 0.22890948 0.01613316 -0.16856506
0.05375763 -0.03531084 0.003379352 -0.05579308 -0.02634857 -0.10136227 0.050144065 0.054127224
-0.04667647 0.070041016 0.048615105 0.045436893 0.16124296 0.05533236 -0.22232355 -0.05620096
0.018387828 0.018580655 -0.11151898 0.029233763 0.05152943 0.09425689 -0.085925914 -0.034549814
-0.47520888 -0.033870667 -0.21721943 0.05020729 0.2147655 -0.12284179 0.06304548 0.18860546
0.25390694 0.1432904 0.20322599 -0.040068306 -0.045376167 -0.09959413 0.018869653 -0.09361089
-0.13143747 0.19637139 -0.07062378 0.036269426 -0.21708994 -0.044345293 0.0844591 0.11057124
-0.0771679 0.00044926643 0.114273 0.086750954 0.09685737 -0.08126155 -0.07622998 -0.02460102
0.2265671 -0.029117549 -0.049151972 0.13644755 -0.0026588861 0.10748651 -0.02475057 -0.08254463
-0.11177563 -0.11016905 0.017967327 -0.14937334 -0.062607184 -0.037834242 0.027310885 0.081999995
0.03779226 0.11514199 -0.06116109 0.080475055 0.01825667 -0.088038355 0.09244479 -0.095199175
0.058198497 0.14600083 0.054858208 -0.07498647 0.059752177 -0.024286564 0.05464973 -0.19535385

conv1.lin_neg_r.bias f4 [32]
00000000: d6fa 28b9 c65e d13d c104 523c ca9a 553d
00000010: 1ed3 68bd 1baa 85b9 8d2e 17bd fcdb 67bd
00000020: db15 c0b8 8b1e b63c 7b32 ec3c a075 f43c
00000030: c066 60b9 d398 e83d bee4 d33c 767d 15b9
00000040: fee8 b7b8 5764 2fbc 9b60 00bd f55e be3c
00000050: b56e 19ba 47c3 a8b9 06ef 0db7 ecd6 9e3c
00000060: f21f 4439 81df 49bc ce7d 0c3d 5a11 b739
00000070: 4f17 2cbc d36b 92bc ebd5 ae3c 5e62 13bc
-0.00016115172 0.10223155 0.012818516 0.05214957 -0.056841962 -0.00025494475 -0.03690963 -0.056606278
-9.159344e-05 0.02223136 0.028832665 0.029841244 -0.00021400582 0.11357274 0.025865909 -0.00014256485
-8.769518e-05 -0.010705075 -0.03134213 0.023238638 -0.00058529834 -0.0003218895 -8.459907e-06 0.019389592
0.00018703917 -0.012321354 0.034299664 0.00034917408 -0.010503604 -0.01787368 0.021342238 -0.0089956205

convs.0.lin_pos_l.weight f4 [32, 64]
00000000: 4571 f4b7 c31a a43c 4121 5231 41fe 2337
00000010: 3169 62bd 1ea1 1738 1c1b 343d 3966 873b
00000020: 7e7f 8c3d 8dfe 3e3d 118d f33c ea7c 39b2
00000030: 03a5 cdbc 077b 303d 0d4c 143c ca8b b1bc
00000040: 8595 22bb a4fe 99b2 8a7a b5b9 555d acb8
00000050: ba42 51bb 24cc bcbd e420 9a31 7672 c83d
00000060: ccf3 1b31 e803 72b9 6ecb f53c 730b 5cbc
00000070: 6d99 90b2 c24d f3b2 60d9 cb3c 7744 1932
00000080: 51f6 5931 9916 2a3d 6210 9d3c 41c0 5fbd
00000090: 3976 1ebc 2e87 d9b8 9189 803a a6d0 9c33
000000a0: 9662 8bbd 5551 06ba 00e7 243e 331f d2bb
000000b0: b12b d634 23b8 d43d 51ef e7bc c9e0 9ab6
000000c0: 1674 9631 4cfc 58b1 f804 4b33 9f64 213d
000000d0: 2aee f131 b98b 6db2 c7ec 36bc d15d 3fbd
000000e0: 20a6 a4bd 3c56 83b2 cf8b 383d 4b99 463d
000000f0: e14e 993c 5035 8232 8ef6 123d 9da5 d3b8
00000100: 697c 2538 265f d3bc 2504 a232 93dd 0f36
00000110: a2f5 edbd 0409 0a38 473d 68bd 70e0 dcbd
00000120: 74f3 a83c a5de 14bd 9fd7 34bd 3dc1 d4b2
00000130: 78c8 04bd 4f7a 6ebd 8be6 86bd 9415 94bc
00000140: 8575 bf39 d674 2b31 f63f 2338 3c6d 5f38
00000150: 5dbb 9bbb 82c2 08be 2af2 23b2 46a3 b8bd
00000160: dad9 9bb1 8737 ceb9 0c35 fdbd b03f f03a
00000170: 350f 11b3 619c 8331 8df7 d1bc 97a6 5932
00000180: 41ed 9632 3f49 913b d9d1 443d 7cfa 8c3d
00000190: 5feb 21ba bdf3 3238 2535 8b39 d8cf 2032
000001a0: d954 b73d 3c85 673d f723 45be fc1b aebd
000001b0: b680 c933 5530 70be 704a a7bd 560f 56b6
000001c0: 9096 f130 fbd7 c031 1801 94b1 6fe9 73bc
000001d0: 6aad 8bb2 cc11 9031 ec74 e83d 53c6 063e
000001e0: f3b8 143e 0f2e 34b1 0c09 6ebd 403c 4ebd
000001f0: 09d4 09bb 21d0 0db4 8dc3 453d daee b738
00000200: 9b6a 1cb1 8916 e833 8b0b 4132 b545 db2f
00000210: 2fd8 ef35 8e09 0cb2 94b5 30b4 8ea8 0736
00000220: 249d 0535 b24b c4b3 8b5d 01b4 78c0 d531
00000230: e52d c4b5 f253 3e33 1547 9fb4 9c16 6cb5
00000240: 183a 83af a41c f5b1 3b59 d431 7fa1 dfb1
00000250: e609 a6b1 0f04 ab35 c612 0f32 7056 9934
00000260: 9adf 6ab2 744d 4331 66e2 d8b5 b0e6 5331
00000270: d2ca 8632 ac87 2e30 37aa 34b3 990c 4432
00000280: 1ae3 1ab0 6530 87b4 8ec3 b234 962b 3935
00000290: 07a2 3e31 d8a0 4ab0 c6bb 1732 8dc1 6db1
000002a0: 5472 9534 2d7e ac32 194e a835 8453 d635
000002b0: 3707 1832 99de ad36 a261 2a35 52b9 b62f
000002c0: d120 a831 b5c2 e6b0 04ff c731 758d 5d35
000002d0: b576 f831 0614 ceb1 57b8 08b5 7baf 0834
000002e0: 8801 edb5 98b0 bcb0 fab8 b134 7225 4535
000002f0: 41c4 f731 102b 5530 a811 5cb5 a215 d631
00000300: a0cd 0331 02e9 0238 a32d 3db0 2d75 1932
00000310: 0f24 cc38 0130 9130 58a5 fab5 f592 c638
00000320: 9989 37b9 21d6 6db7 3f31 4db8 84cf 02b2
00000330: 8d1f a4b8 c28a 93b7 a20b fdb7 1b88 b538
00000340: 16af 8932 e034 2ab1 7ac1 1936 ec65 2a32
00000350: 5630 9332 8288 24b9 ecb2 15b2 803b 32b7
00000360: cdaa 93b0 5be8 64b0 536a 3639 1774 9932
00000370: c833 a1b1 870f 3031 4ee7 39b8 8faa 1e30
00000380: 4ea9 95b2 cec5 52b8 6a37 82b7 96f0 5fb9
00000390: ef42 b8af 909d 2e32 ce37 dab1 f63b cab0
000003a0: 2c4e 2839 1862 28b7 6305 d2b7 65dc 7eb7
000003b0: c958 79b0 18ea 1539 4a66 c6b8 96fe c331
000003c0: b0eb 9731 2845 ceb1 3251 27b2 7f0b 1539
000003d0: 6cde 6d30 5c8f 2eaf 16b9 7db8 f5d8 b3b8
000003e0: f5b1 8bb8 0f3e 6f31 798f 9db8 2bc3 1fb6
000003f0: 8d11 a6b1 2b7e 6032 d2b6 93b7 dbcd 6131
-2.9139812e-05 0.020032292 3.0577925e-09 9.774755e-06 -0.0552761 3.6151258e-05 0.043971166 0.004132059
0.06860255 0.046629477 0.029730352 -1.0796819e-08 -0.025103098 0.043086078 0.009051335 -0.021673102
-0.002480836 -1.7927341e-08 -0.0003461431 -8.2189836e-05 -0.0031930641 -0.09218624 4.485729e-09 0.09787457
2.269405e-09 -0.00023080374 0.03000423 -0.013430464 -1.6833576e-08 -2.8324283e-08 0.024883926 8.921339e-09
3.171767e-09 0.041525457 0.019172851 -0.054626707 -0.009671741 -0.000103725455 0.0009806623 7.302269e-08
-0.06805913 -0.0005123814 0.16103745 -0.0064124106 3.9892396e-07 0.10386684 -0.028312357 -4.615726e-06
4.378772e-09 -3.157555e-09 4.726914e-08 0.0394026 7.0410993e-09 -1.3826985e-08 -0.011164851 -0.04672033
-0.08039498 -1.5289622e-08 0.045055207 0.048486035 0.01871437 1.5158236e-08 0.035879664 -0.00010092112
3.945493e-05 -0.025802206 1.8861167e-08 2.1437634e-06 -0.11619116 3.291016e-05 -0.056699064 -0.107849956
0.0206239 -0.036345143 -0.044150945 -2.4767923e-08 -0.032417744 -0.05822211 -0.06586941 -0.018076696
0.00036517918 2.4950189e-09 3.8921797e-05 5.3269076e-05 -0.00475256 -0.13355449 -9.5429105e-09 -0.09015517
-4.5358606e-09 -0.00039332753 -0.123636335 0.0018329527 -3.3774274e-08 3.83038e-09 -0.025630737 1.2668941e-08
1.7570189e-08 0.0044337804 0.04805169 0.068837136 -0.00061767356 4.2665506e-05 0.00026551742 9.360484e-09
0.0895173 0.056523547 -0.19252001 -0.08501431 9.383204e-08 -0.23455937 -0.08168495 -3.1897412e-06
1.757785e-09 5.6124896e-09 -4.3074913e-09 -0.014887198 -1.626059e-08 4.192975e-09 0.11350426 0.13161592
0.14523678 -2.6219629e-09 -0.058114097 -0.050350428 -0.0021030924 -1.3207365e-07 0.048282195 8.7706096e-05
-2.2761586e-09 1.0807441e-07 1.1236703e-08 3.9885398e-10 1.7869805e-06 -8.151245e-09 -1.6457335e-07 2.021468e-06
4.977503e-07 -9.14073e-08 -1.2048092e-07 6.220997e-09 -1.4616495e-06 4.431417e-08 -2.9667777e-07 -8.794975e-07
-2.387004e-10 -7.1336945e-09 6.1801564e-09 -6.508514e-09 -4.832361e-09 1.2741674e-06 8.327964e-09 2.8561362e-07
-1.3671434e-08 2.8420262e-09 -1.6159145e-06 3.0835672e-09 1.5691885e-08 6.349363e-10 -4.2064325e-08 1.1411566e-08
-5.6347604e-10 -2.518092e-07 3.3297368e-07 6.8981296e-07 2.774074e-09 -7.3715745e-10 8.8320515e-09 -3.459806e-09
2.7836597e-07 2.0080813e-08 1.2539705e-06 1.5968549e-06 8.849205e-09 5.1817156e-06 6.347201e-07 3.3237285e-10
4.8931743e-09 -1.6790042e-09 5.820654e-09 8.253476e-07 7.2312454e-09 -5.9976655e-09 -5.09322e-07 1.2729826e-07
-1.7658322e-06 -1.3728991e-09 3.3103407e-07 7.344271e-07 7.2109576e-09 7.7550144e-10 -8.198208e-07 6.230679e-09
1.9179893e-09 3.121142e-05 -6.8822653e-10 8.932415e-09 9.7341945e-05 1.0563782e-09 -1.8674573e-06 9.4687486e-05
-0.00017503499 -1.4176157e-05 -4.8921673e-05 -7.6141795e-09 -7.826006e-05 -1.758838e-05 -3.0165367e-05 8.656104e-05
1.6028519e-08 -2.4768312e-09 2.2911395e-06 9.918477e-09 1.7135033e-08 -0.00015691112 -8.713624e-09 -1.062348e-05
-1.0744202e-09 -8.3276114e-10 0.00017396481 1.7864336e-08 -4.6916036e-09 2.5620197e-09 -4.4322856e-05 5.7722443e-10
-1.7422874e-08 -5.025212e-05 -1.5523012e-05 -0.00021356563 -3.3516964e-10 1.0163959e-08 -6.3509793e-09 -1.4714476e-09
0.0001605085 -1.003642e-05 -2.503646e-05 -1.5190894e-05 -9.0711844e-10 0.00014296954 -9.4604286e-05 5.70419e-09
4.421473e-09 -6.0032512e-09 -9.739141e-09 0.0001421403 8.653618e-10 -1.5876139e-10 -6.0492275e-05 -8.5757965e-05
-6.6611836e-05 3.4814354e-09 -7.513067e-05 -2.380645e-06 -4.833231e-09 1.3067203e-08 -1.7608898e-05 3.2858825e-09

convs.0.lin_pos_r.weight f4 [32, 32]
00000000: 46e0 ed36 fd3d d9be 32a8 7db2 324d 8c35
00000010: dd95 003e fb86 dd38 749c eebd bcb7 8c3e
00000020: b4e4 df3e 5072 3dbe d327 46bf f9dd 0bb2
00000030: 7a89 7f3c 2db7 15bf 432e 08be 09b2 80be
00000040: 549e 32b2 8827 94b2 4f7b 083a 91c6 3639
00000050: 84e0 ceb2 8efa 0cbe d461 5db2 f939 8d3e
00000060: aa4f b6b2 8e9e d339 849b 763e cd14 5b33
00000070: 93f0 89b2 4e15 c731 861e bebe 4896 5cb3
00000080: b30b ad37 3a7a 62be cfe5 3231 88c2 5435
00000090: 7300 283e 2f4b e636 e477 36bf 08f2 79bd
000000a0: c8e7 6abe fd08 2dbf d366 0c3e d92d 3bb1
000000b0: f079 ae3e 4ca4 21be 979c 2dbf 9d27 1e3f
000000c0: 5621 9132 8ee6 b5b0 a6a8 ab37 93c9 d738
000000d0: be7a 2133 d439 dbbe ea2d 4732 cd10 46bf
000000e0: bfaa 43b1 a177 da39 b5fd f13e c2d2 3bb1
000000f0: 7a92 a533 49f8 06b2 0c40 223f d5eb 0fb2
00000100: 05ae cc31 4223 1db6 9330 ed32 4d42 7a32
00000110: 9012 77b7 6889 ce31 7706 3ab6 b974 2c36
00000120: be49 52b6 5906 50b6 48ff b0b5 6675 f232
00000130: ba53 e8b6 8d9d 2eb6 9748 6036 b0e9 37b6
00000140: 5162 25b2 02bd bcb1 137d 5532 09f2 fab1
00000150: 54c5 cc32 c275 03b7 7a34 e6b0 cd9b c8b6
00000160: 78b2 7831 49bc 80b2 f797 44b6 b133 c832
00000170: ab11 20b0 584f f531 7f97 cf35 d2fc cd30
00000180: 7f50 b7b1 d7c8 e636 ac38 ba30 ee65 c3b2
00000190: 5b68 6eb9 4664 4931 dd94 21b8 9073 27b8
000001a0: d794 cfb7 42a7 d6b6 4913 b236 3d5f 4032
000001b0: 88d9 cc38 b985 8ab5 3be4 7337 138a 0339
000001c0: bc19 78b2 3adb 8ab2 e18b 5836 f52d 19b2
000001d0: d6be c832 feff 4238 11b1 24b1 8567 b8b8
000001e0: 71e7 b330 3a30 5331 fa06 bdb9 de40 64b1
000001f0: 7ee6 cdb2 4f0d aab1 8ec7 54b8 62d6 ce31
00000200: 29ec 5e32 8855 d332 2df6 1832 32d1 0bb0
00000210: 82d2 6032 f29e 1531 03ac c7b2 7630 b232
00000220: 542e 2833 44d6 00b3 fa40 0db2 c75d 64b2
00000230: 085c 64b2 811d 98b2 40f5 dfb2 4b01 bd32
00000240: 674a 3e30 328d 8730 92ae 9732 060a 9830
00000250: 9d52 08b2 947d a232 f404 6831 dbf2 a833
00000260: eeaf 81b2 de57 8232 30e9 1833 408e c031
00000270: 3753 df32 3e1b 03b2 a450 b032 09fb afb0
00000280: c1f5 94b9 427f 553f e8c2 f631 a241 18b5
00000290: fe03 b7be 6ea0 90b9 4b9b c93e b352 21bf
000002a0: def3 86bc dfad c63e 094a 9a3f aef2 80b2
000002b0: 3952 8f3e 9b6f 5d3f 5301 953d 724f 323f
000002c0: 947a a231 26ef 8333 f78b 05ba 468c 6439
000002d0: 4803 4534 322c a5be 503e 54b3 2b1e 40bf
000002e0: 0075 9d32 011c ddb9 b2af 7ebe fa27 b8b0
000002f0: ea67 d432 d02d 7c31 5d7b aa3f bfb7 e5b2
00000300: af97 1238 b36a 2b3f c985 9731 a4dc 0336
00000310: e0f8 75be 217b 54b8 167b 153f fe4e 92be
00000320: d160 77be 907b 4f3f 8ff1 6d3f e31b db31
00000330: 3e73 b0bf bbb3 4d3f 850c 193f 92f6 5abe
00000340: b878 9db1 132f c8b1 9308 2cba 2c96 9638
00000350: 0018 ff30 5b62 23be fde0 21b2 e5a1 e53e
00000360: 7a7a 7632 3129 643a 8706 99be 15a7 2bb0
00000370: 7c1f 8232 281e b0b2 a6f1 883e e767 3032
00000380: 2568 9932 d5b9 1cb3 952a 9ab1 face a931
00000390: 9d7e c4b4 a4e5 91b0 c049 9834 6275 0cb4
000003a0: 1f71 16b4 77a3 b434 41ec 9fb2 682f bfb2
000003b0: 2a2c 3035 cfff b0b2 6ccb e334 50be ef34
000003c0: 2574 86b1 1b73 1532 9b37 86b2 3d17 e731
000003d0: 5b93 7831 0127 61b4 966a 2c32 b35f f634
000003e0: f3a4 8830 a1be 7a33 88d2 3d36 f30d 3eb2
000003f0: 62bc b531 9c84 ef31 855b 4b34 4a26 7031
7.0892593e-06 -0.42430106 -1.4764781e-08 1.045328e-06 0.12557168 0.00010563243 -0.11650935 0.27483928
0.43729174 -0.18500638 -0.77404517 -8.141336e-09 0.015596742 -0.5848263 -0.13298897 -0.2513583
-1.0396963e-08 -1.7247444e-08 0.00052063627 0.00017430844 -2.4083654e-08 -0.13767454 -1.2886137e-08 0.27583292
-2.1223816e-08 0.0004036319 0.24082762 5.100883e-08 -1.60583e-08 5.7940843e-09 -0.37132663 -5.135942e-08
2.0628655e-05 -0.22116938 2.603304e-09 7.9259235e-07 0.16406421 6.8632867e-06 -0.7127669 -0.061021835
-0.2293998 -0.6759184 0.137111 -2.7238143e-09 0.34077406 -0.1578533 -0.6781706 0.61779195
1.6895381e-08 -1.3235011e-09 2.0463322e-05 0.00010289545 3.7597367e-08 -0.42817557 1.1593764e-08 -0.77369386
-2.8473293e-09 0.0004166933 0.47263876 -2.7331883e-09 7.710055e-08 -7.85628e-09 0.6337898 -8.3773175e-09
5.956965e-09 -2.3415346e-06 2.761252e-08 1.456699e-08 -1.4726669e-05 6.0110104e-09 -2.7719923e-06 2.5697939e-06
-3.1335362e-06 -3.099811e-06 -1.3187318e-06 2.8225895e-08 -6.923886e-06 -2.6019727e-06 3.3420854e-06 -2.740515e-06
-9.626619e-09 -5.493008e-09 1.242667e-08 -7.303474e-09 2.383846e-08 -7.835626e-06 -1.6749617e-09 -5.978602e-06
3.6190198e-09 -1.4986783e-08 -2.929473e-06 2.3306571e-08 -5.823277e-10 7.139459e-09 1.5466793e-06 1.4987569e-09
-5.3351523e-09 6.877915e-06 1.3549388e-09 -2.274734e-08 -0.00022736324 2.9306348e-09 -3.852403e-05 -3.992353e-05
-2.4745632e-05 -6.3971684e-06 5.3070585e-06 1.1197526e-08 9.7679964e-05 -1.032072e-06 1.4537068e-05 0.0001254457
-1.4441351e-08 -1.6165007e-08 3.2267928e-06 -8.9162215e-09 2.3369847e-08 4.6491616e-05 -2.3965792e-09 -8.793086e-05
1.3089744e-09 3.0731955e-09 -0.00036054087 -3.321524e-09 -2.3969957e-08 -4.949164e-09 -5.073059e-05 6.0197616e-09
1.2975797e-08 2.4602528e-08 8.903538e-09 -5.086519e-10 1.308638e-08 2.1772704e-09 -2.3244871e-08 2.0743965e-08
3.9157683e-08 -2.9997196e-08 -8.222054e-09 -1.3292669e-08 -1.3292272e-08 -1.7708546e-08 -2.6072144e-08 2.2003084e-08
6.922733e-10 9.862673e-10 1.7658099e-08 1.1062304e-09 -7.935026e-09 1.8916388e-08 3.3763259e-09 7.867285e-08
-1.509758e-08 1.517395e-08 3.560234e-08 5.6041074e-09 2.5998458e-08 -7.631398e-09 2.0525768e-08 -1.2804274e-09
-0.0002841186 0.83397305 7.1817006e-09 -5.671992e-07 -0.35745233 -0.0002758535 0.39376292 -0.63016814
-0.016473707 0.38804528 1.2053844 -1.501152e-08 0.27992418 0.8649842 0.07275643 0.69652474
4.728756e-09 6.143664e-08 -0.0005094404 0.0002179603 1.8348248e-07 -0.3226028 -4.941677e-08 -0.7504603
1.8330411e-08 -0.0004217327 -0.2487171 -1.3399124e-09 2.4727303e-08 3.6696868e-09 1.3318897 -2.6742667e-08
3.495038e-05 0.66959685 4.409888e-09 1.964895e-06 -0.2402072 -5.065941e-05 0.5839094 -0.2857589
-0.24158026 0.81047916 0.92946714 6.3769092e-09 -1.3785169 0.8035237 0.5978473 -0.21383122
-4.5830255e-09 -5.826118e-09 -0.0006562557 7.180529e-05 1.8560513e-09 -0.15955488 -9.42259e-09 0.44850078
1.43469325e-08 0.0008703648 -0.29887792 -6.2446875e-10 1.514831e-08 -2.050281e-08 0.26746863 1.0268173e-08
1.7858904e-08 -3.6490594e-08 -4.486831e-09 4.942078e-09 -3.6599968e-07 -1.0615406e-09 2.8365866e-07 -1.308122e-07
-1.4010992e-07 3.364655e-07 -1.8617472e-08 -2.2256884e-08 6.5629376e-07 -2.0605425e-08 4.2430054e-07 4.465569e-07
-3.9131174e-09 8.699113e-09 -1.562494e-08 6.7256267e-09 3.6172512e-09 -2.0968947e-07 1.00359525e-08 4.58907e-07
9.942184e-10 5.8381037e-08 2.828574e-06 -1.1062627e-08 5.28921e-09 6.9708914e-09 1.8939143e-07 3.4946361e-09

convs.0.lin_pos_r.bias f4 [32]
00000000: 1f44 5dbc 6459 cb3d 41b3 aeb8 390d d3b9
00000010: b104 9bbc 5216 f53d e58b 923d f200 ecb6
00000020: 32a3 95bc 6c06 acba dfdd 9abc 100f b03d
00000030: 66b6 9bba da70 3bbd 0535 5fbd f2ad cabc
00000040: 1499 5ebb 0ecd 82bc 69bd 15bd beaa e1bc
00000050: 5bd5 84bd 1602 953d 4e86 6bba c2ee 5fbb
00000060: a0cb 24bb 57a8 9cb9 c1d9 f23c 197f 01bb
00000070: c6cc d6ba 2feb 31bd dfa2 04b9 0738 fe3d
-0.013505011 0.09929159 -8.330355e-05 -0.00040254908 -0.018923135 0.11967148 0.07155589 -7.033458e-06
-0.018266294 -0.0013124472 -0.018904625 0.08596623 -0.001187992 -0.04576192 -0.054493923 -0.024741147
-0.0033965753 -0.015966918 -0.03655759 -0.027547237 -0.06486007 0.072757885 -0.00089845515 -0.003416941
-0.0025145784 -0.00029880062 0.029644849 -0.0019759594 -0.0016387932 -0.04343718 -0.00012649175 0.1241303

convs.0.lin_neg_l.weight f4 [32, 64]
00000000: 90b6 e630 6613 d3b1 6d96 1032 6f67 0132
00000010: 839e 9131 8673 4d30 9119 19b2 86a1 37b2
00000020: a00a c730 30bb fa31 d300 6631 2b3c 85b1
00000030: d191 4fb1 f620 40b0 9f6d f831 18f4 3b31
00000040: f0ae 0bb1 b644 fb31 b9b0 36b1 2407 1fb1
00000050: b272 7232 3ced adb1 efc4 94b1 e15c 7a2f
00000060: 030c 87b2 8775 c131 e085 1f32 474a 5fb2
00000070: c36e 41b1 82fb 9fb1 bafe 59b1 f648 82b0
00000080: 6e54 d930 80fd 82b1 fcee 0cb0 dbe2 e131
00000090: 35cf 8631 ed50 3bb0 acc1 55b1 5869 5eb1
000000a0: 653b ab31 7b51 3332 f31c 14b2 4051 9531
000000b0: d5b6 e8b1 7ba2 13b2 092a fe31 ca36 d5b1
000000c0: 5fd6 50b2 0774 e830 f276 5cb1 2ddb 8531
000000d0: d30c 7030 c6b7 1f32 c8f0 3c32 ac89 4732
000000e0: 13bb 8132 50d7 90af e6b6 1fb2 eb30 dfb1
000000f0: 8945 2032 38ff e0b1 b84c 4eb2 0546 09b2
00000100: 6cb4 07b2 d0a0 6ab5 7704 01b3 aa93 7bb4
00000110: 9959 2ab1 eabf e8b1 c117 4030 df37 c531
00000120: 88df 5635 2b5b f4b3 38e8 1934 8991 03b5
00000130: 0966 19b2 bdb6 1db6 1876 9ab4 262e 0eb1
00000140: 88e4 96b2 207f 5b2c c085 23b1 3efa c6b4
00000150: 698f e5b1 6bb7 3232 9a76 09b4 6db4 4eb4
00000160: f639 81b5 781d 9031 f459 d7b3 52b2 20b4
00000170: 727f 08b2 4e4d 6332 1029 09b5 b27e cfac
00000180: cd33 7a30 c280 0cb4 6c5e 6eb2 bfa9 7632
00000190: 2ccf b7b5 b550 0a32 995e 5bb4 02a4 51b5
000001a0: b995 01b5 cf77 2ab4 3401 63b4 3e0c 09b2
000001b0: d106 5435 1a10 19b3 0d22 7d34 a520 a8b4
000001c0: c16f d630 1b14 35b2 bc6f 1eb1 a80d 432f
000001d0: 29e9 3fb2 ec41 2fb5 b81d 3431 bc00 05b4
000001e0: 4e9c 19b1 2f1e 22b2 7446 bfb5 4aca de30
000001f0: 8ca1 2831 bd98 942f 065e 8cb3 e0c6 c731
00000200: db30 e9b2 9a5f 57bd 1655 75bb a737 70bd
00000210: 197b 0e3b 91d0 1eb2 ea3f 5abc 106d 4534
00000220: 22f4 3b32 63bb 963b 9f37 24b0 a54d 16bd
00000230: 9173 9cb2 8315 dcb1 880e 533c dcd5 44b0
00000240: 3e85 a032 7478 96b1 9f95 f337 1e7d abbc
00000250: 4987 7eb0 379c 6932 2cb1 5c3d a7ae 6c3b
00000260: 2847 62b1 f692 0c32 4942 2ebd efab 493d
00000270: 5c3f bd3b 5f2c b733 c1c9 253c f8d7 9532
00000280: 098f 22b2 12ae e63c 15e0 2db2 595c 2b32
00000290: 2c56 4032 a710 0132 211d dbbb baa2 b030
000002a0: 003f 20bd d497 253d bbda e8bc 35db ccb9
000002b0: 6393 f7bb 16c3 b63c 9e48 023d d19a 03bd
000002c0: 6b8a a0bc da2a 8bb2 c69b a930 083b f231
000002d0: bd24 25bc 48e0 afbc b02a 97b2 6f50 263d
000002e0: 2c2e be32 8ecb 3f2f 4bf0 05b2 bc7c 84bc
000002f0: 36e1 5034 55c0 a232 b9d2 0fbd 22be 8bb2
00000300: 5824 6db2 a5c1 3abb 4158 77bc 5ec4 4c3e
00000310: 74eb d73a 558b c938 f148 a239 9188 ea31
00000320: 8ca5 48bc 195a a53c 84ef abbd 5c6b b13d
00000330: 416b 9b36 53c9 09bc 928e 2b3c 961a 3336
00000340: 0b28 73ae 6671 3db2 8ceb 3833 49f3 ec3b
00000350: 4f6a 5e31 54bb 9731 fac9 21bd 4b05 463d
00000360: db57 1dbe a495 97b2 77b0 76bb 22b2 db3b
00000370: 365a 253c 8135 b632 ec5a cc3d c403 2239
00000380: 7172 c2b9 b381 ddbc 8326 05b2 824d edb6
00000390: c302 203d e9dd 2f38 d7ef 403d 553e f23d
000003a0: 8a8f e93b 7c86 15bd daec 05bc ceb1 b833
000003b0: 8a51 04be 3bf4 d63c 07fc ba3d f033 67bd
000003c0: e974 97ba e4f6 c3b2 60c7 beb9 2268 02b8
000003d0: 5f83 613c 04db 02bd 0d48 3d30 34bc f53d
000003e0: dd65 6cb1 9517 a0b9 75ea c83d 8979 03bd
000003f0: f5a7 2432 c97b 9032 878c a9bc 2bbb d232
1.678659e-09 -6.1431136e-09 8.416106e-09 7.532306e-09 4.238076e-09 7.4742734e-10 -8.911585e-09 -1.0688728e-08
1.4482175e-09 7.2972384e-09 3.3469874e-09 -3.8776498e-09 -3.0205352e-09 -6.9896033e-10 7.2302124e-09 2.7350833e-09
-2.0326603e-09 7.312873e-09 -2.658494e-09 -2.3141604e-09 1.4112333e-08 -5.061933e-09 -4.3297557e-09 2.2770365e-10
-1.572153e-08 5.6304006e-09 9.285458e-09 -1.2997197e-08 -2.8148157e-09 -4.656102e-09 -3.1722451e-09 -9.479482e-10
1.5812824e-09 -3.8123176e-09 -5.127132e-10 6.5741523e-09 3.92347e-09 -6.8145206e-10 -3.110567e-09 -3.2365133e-09
4.9835074e-09 1.0437698e-08 -8.621316e-09 4.345708e-09 -6.7728743e-09 -8.59347e-09 7.397152e-09 -6.2053447e-09
-1.2155936e-08 1.6913199e-09 -3.2081826e-09 3.895727e-09 8.7329716e-10 9.296803e-09 1.0997788e-08 1.16146275e-08
1.5102648e-08 -2.6346436e-10 -9.296604e-09 -6.4957155e-09 9.329036e-09 -6.548273e-09 -1.2008222e-08 -7.99037e-09
-7.899057e-09 -8.7405806e-07 -3.0039214e-08 -2.3429916e-07 -2.4789186e-09 -6.7739068e-09 6.988295e-10 5.7398064e-09
8.0046493e-07 -1.1378719e-07 1.4333716e-07 -4.9013084e-07 -8.928972e-09 -2.350119e-06 -2.877066e-07 -2.0689952e-09
-1.7566222e-08 3.119234e-12 -2.379565e-09 -3.706245e-07 -6.681081e-09 1.0402668e-08 -1.2802266e-07 -1.9250884e-07
-9.628118e-07 4.194302e-09 -1.002808e-07 -1.4966034e-07 -7.94522e-09 1.3230716e-08 -5.109623e-07 -5.89736e-12
9.1023084e-10 -1.3085358e-07 -1.3874892e-08 1.435768e-08 -1.3694857e-06 8.051008e-09 -2.0430379e-07 -7.809723e-07
-4.827412e-07 -1.587607e-07 -2.114146e-07 -7.977233e-09 7.8986074e-07 -3.5637733e-08 2.3574849e-07 -3.131619e-07
1.5602312e-09 -1.0540158e-08 -2.305554e-09 1.7739998e-10 -1.1170678e-08 -6.528851e-07 2.621034e-09 -1.2386857e-07
-2.235328e-09 -9.436504e-09 -1.4251113e-06 1.621012e-09 2.4539046e-09 2.702957e-10 -6.536361e-08 5.8142717e-09
-2.7146987e-08 -0.052581407 -0.0037434748 -0.058646824 0.0021740852 -9.244233e-09 -0.013320902 1.8386731e-07
1.0940342e-08 0.004599975 -5.9741895e-10 -0.03669514 -1.8213344e-08 -6.4052883e-09 0.0128818825 -7.1608297e-10
1.8687043e-08 -4.3792685e-09 2.903753e-05 -0.020933684 -9.2596913e-10 1.3597904e-08 0.0538799 0.0036114843
-3.2927776e-09 8.182488e-09 -0.042543683 0.049236234 0.0057753753 8.5296726e-08 0.010118903 1.7444094e-08
-9.4621635e-09 0.028159175 -1.0120876e-08 9.974507e-09 1.1195464e-08 7.512575e-09 -0.006686822 1.2851935e-09
-0.03912258 0.040427998 -0.028424611 -0.00039073234 -0.0075554117 0.022309821 0.031807534 -0.032130066
-0.019597253 -1.6201216e-08 1.2340642e-09 7.049838e-09 -0.01007956 -0.02146925 -1.7598126e-08 0.04060405
2.2139908e-08 1.7443666e-10 -7.796255e-09 -0.01617276 1.9453441e-07 1.8946745e-08 -0.03511307 -1.6268192e-08
-1.3803479e-08 -0.0028496769 -0.015096725 0.19996783 0.0016473369 9.6103795e-05 0.00030953393 6.825822e-09
-0.012246501 0.020184563 -0.08395293 0.08663055 4.631846e-06 -0.008409816 0.010471003 2.6688554e-06
-5.528737e-11 -1.1027032e-08 4.3055067e-08 0.0072311503 3.2365681e-09 4.415975e-09 -0.03949926 0.04834489
-0.15365545 -1.7646762e-08 -0.0037641802 0.0067045847 0.010092309 2.121192e-08 0.099782795 0.00015450927
-0.0003708783 -0.027039384 -7.7503755e-09 -7.0721735e-06 0.039065134 4.192992e-05 0.04710373 0.11828295
0.007127707 -0.036505207 -0.008174146 8.60051e-08 -0.1292173 0.026239505 0.09130102 -0.056446016
-0.0011555228 -2.281326e-08 -0.0003638817 -3.1091397e-05 0.0137642315 -0.03194715 6.886019e-10 0.119987875
-3.4400423e-09 -0.00030535148 0.09810344 -0.032098327 9.584245e-09 1.6820097e-08 -0.020696891 2.4532332e-08
