wiki-elec/models/wiki-elec-train-5.pt (torch, 64411 bytes, 14 tensors)

conv1.lin_pos_l.weight f4 [32, 64]
00000000: 9de8 a93c 6721 543d 2a1e 9bbd 8047 4ebd
00000010: ecb9 b1bd 92bf 513d 1bf9 b63d ed75 c43c
00000020: bcc0 dbbc 15bb 9bbd 6772 1d3c dce7 fabd
00000030: fb7f f13b f1ea 01bd a17a 873d d84c ac3c
00000040: 69eb 953d a09b 533d 87c0 5ebd d1da 053c
00000050: 3ea7 033d cd3f 3e3d 4003 7b3d bffe 0d3d
00000060: aa08 6ebd c45b ccbc 2dd4 a8bc eb01 2bbd
00000070: b973 95bd 43b9 723d 0bfc 933d 9128 3439
00000080: 5489 9bbc 0696 443d d8c8 f33b e827 eabc
00000090: 4d95 34bd d15b 063d ac9e 94bc d723 0b3d
000000a0: e40d 953d bce9 74bc 438b 2abb cd95 783d
000000b0: 6b19 1ebc a6e1 afbc e199 063c a0e1 653d
000000c0: 66a2 843c 420b c03c aafb 60ba cf5b 68bd
000000d0: 8d22 7e3c 07d6 b63b b543 49bd 0e16 a7bc
000000e0: 89c2 033c 1fac 1a3c 119a 723d f1c2 97bd
000000f0: 013b 1ebd 2654 dabc 9c02 82bd ce75 93bb
00000100: e36e 683d 1feb 663d ac4a 95bd e3cb 30bd
00000110: 683d 58bc 8cbc 443b 8d3c 22be 0c9d f33c
00000120: 9ad4 39bd f89a ecbc 2565 933d 0b03 cf3c
00000130: e647 203b 3413 7fbd 0976 e93c f237 73bd
00000140: 02e0 e3bc 55cd b5bd 5cc9 353d ea31 adbd
00000150: 28cd 97bd fd81 c03d f45d ccbd 693d b33d
00000160: c0da ccbd db35 273d d2dd 95bd 43f3 b63c
00000170: 9a12 6d3d 7fcc b9bd 4f84 35bb c3b2 c0bd
00000180: eeba c43d 76f9 97bd e15f 4c3d e7ec 163c
00000190: 5d33 c03d 19e4 afbb b0d3 e33c 34c7 0c3c
000001a0: 0140 9cbd 5eba ab3d ce1e d4bc cabe dcbc
000001b0: 6034 d8bd 6740 843c e7b9 37bd 67e4 a0bd
000001c0: 1424 ddbc 894f aa3c 1f73 0cbd ec19 013c
000001d0: 3c4e acbb 1998 86bc 93bd cfb9 9f83 2ebd
000001e0: bec1 00be e6e8 8c3d c8a9 0ebd 1dd8 273e
000001f0: 181c 49bd 9752 67bd 60e7 4e3d 2244 1d3d
00000200: ab59 0bb3 db39 64b2 6725 0bb2 8c2e beb1
00000210: 3fb3 9832 a8ce 8432 7181 2fb2 191a 32b2
00000220: a18b 9531 5545 06b2 ed7f c3b1 36af 5431
00000230: 8161 01b1 54ae c2b1 d6a7 0c30 8c18 4fb1
00000240: 7571 1c32 3b78 9532 cdc8 90b1 650e 28b1
00000250: 08b7 a230 2ad1 3731 1207 85b2 b1be 0f32
00000260: a3b0 00b2 95d7 1732 3640 1a31 4484 83b1
00000270: 1b00 a931 0655 c5b1 6da4 8db1 bba4 9531
00000280: 3e15 9331 6ddd 0231 52da 4932 f090 cfb0
00000290: d647 08b2 2425 11b0 d28c 1b30 05d7 52b0
000002a0: 5b88 8fb1 e85c 6b31 caa8 9532 72e2 d231
000002b0: 1945 8f31 ee9a 5f32 d874 76b1 ed88 37b2
000002c0: 2016 1c32 8d46 15b2 91f7 0432 7917 89b2
000002d0: fe09 8930 82be b831 ae8e 9fb0 9eb7 0bb1
000002e0: 1445 54b2 057d 6fb1 6987 dc31 4baf 15b1
000002f0: 3dd7 1bb2 a555 19b1 c464 a4b0 8a75 e931
00000300: b722 82b5 bf01 ccb5 a45c 10b5 25b2 aa35
00000310: 4345 fd33 5cc9 acb5 abc5 a733 4465 a5b4
00000320: 3463 cf34 5bd3 ff35 4340 33b5 e6c3 0c35
00000330: cc95 6334 d9d9 6735 3da2 ab34 d9ce 7635
00000340: 8162 1f35 5e91 1f35 8c12 3c32 4f55 5935
00000350: b350 2734 9ddf 48b5 3e22 8ab4 944a dbb5
00000360: dec4 cd34 d984 a5b4 ff16 8e34 cd0d f433
00000370: 1f4b 77b4 2cbe 61b4 b32d 0f35 fc20 d0b4
00000380: 1f0b a634 57e6 d6b4 0bce 11b5 18fd 98b4
00000390: 1cc9 2ab5 5d24 7734 a2a7 ecb2 8237 3034
000003a0: 66b8 27b4 3ebc 12b3 0165 c7b1 4dd6 8cb5
000003b0: 52b1 a6b4 8e0b bcb3 1373 c834 c41a aa33
000003c0: 1e1d 5034 e06c 0934 c9cd d633 72e7 0035
000003d0: 5b3e 3835 0497 1ab5 8641 76b4 f9b2 d3b4
000003e0: 83fb 4fb5 fb32 9734 710a 1235 fb67 8335
000003f0: db8f b8b1 8869 d634 67d7 d1b3 e69d 47b4
0.020740801 0.051789667 -0.07574113 -0.050361156 -0.0867804 0.051208086 0.08934232 0.023982013
-0.026825301 -0.076040424 0.009609795 -0.12251255 0.007369993 -0.0317182 0.066151865 0.021032736
0.073202915 0.051662087 -0.054382827 0.008169846 0.032141916 0.046447564 0.061282396 0.034666773
-0.05811373 -0.024946101 -0.020608986 -0.041749876 -0.07297463 0.05925871 0.07225808 0.0001718125
-0.018986382 0.047994636 0.007439714 -0.028583482 -0.044087697 0.032802407 -0.018142067 0.033969726
0.0727804 -0.014948305 -0.0026022948 0.060689736 -0.009649615 -0.021469902 0.0082153985 0.056123376
0.016190719 0.023442868 -0.0008582423 -0.05672818 0.015511167 0.0055797133 -0.049136836 -0.020396259
0.008041986 0.009440451 0.05922896 -0.07410229 -0.03863049 -0.026651453 -0.06348154 -0.0045001274
0.056746375 0.056376573 -0.07289633 -0.04316319 -0.013198234 0.003001961 -0.15843411 0.029737972
-0.04536877 -0.028882489 0.07197026 0.025270006 0.0024456917 -0.062274173 0.028498666 -0.059379525
-0.027816776 -0.088770546 0.044381484 -0.08456786 -0.07412177 0.09399793 -0.09978858 0.087519474
-0.10002661 0.040822845 -0.073176995 0.022332793 0.057879068 -0.09072208 -0.002769727 -0.09409096
0.096059665 -0.07420628 0.049896125 0.009211755 0.09384797 -0.0053677675 0.027810901 0.008592416
-0.07629395 0.08385156 -0.025893595 -0.026946444 -0.10556865 0.01614399 -0.044855025 -0.07856064
-0.026994742 0.020789878 -0.034289476 0.007879715 -0.0052583497 -0.016429948 -0.0003962336 -0.042605992
-0.12573907 0.06880359 -0.034829885 0.16391034 -0.049099058 -0.05647525 0.050513625 0.038395055
-3.2445012e-08 -1.32845015e-08 -8.099369e-09 -5.5350196e-09 1.777664e-08 1.5460799e-08 -1.0215772e-08 -1.0366898e-08
4.3523447e-09 -7.815591e-09 -5.6897904e-09 3.0949656e-09 -1.8827395e-09 -5.665962e-09 5.117021e-10 -3.0136418e-09
9.106192e-09 1.7400557e-08 -4.21378e-09 -2.44554e-09 1.1839072e-09 2.67489e-09 -1.5486453e-08 8.367054e-09
-7.490743e-09 8.8383745e-09 2.244645e-09 -3.8276387e-09 4.9185593e-09 -5.7431206e-09 -4.122333e-09 4.3551984e-09
4.280678e-09 1.9043356e-09 1.174938e-08 -1.5102426e-09 -7.9325755e-09 -5.280347e-10 5.658879e-10 -7.6703116e-10
-4.1773496e-09 3.4249812e-09 1.742264e-08 6.1375482e-09 4.1697032e-09 1.3015535e-08 -3.586413e-09 -1.0683135e-08
9.085426e-09 -8.688983e-09 7.739701e-09 -1.5959573e-08 9.970902e-10 5.376763e-09 -1.1609325e-09 -2.0331536e-09
-1.2355731e-08 -3.4850143e-09 6.418237e-09 -2.1781996e-09 -9.071127e-09 -2.2313114e-09 -1.196121e-09 6.794555e-09
-9.695858e-07 -1.5199693e-06 -5.377899e-07 1.2717834e-06 1.1793829e-07 -1.2873602e-06 7.812499e-08 -3.0807325e-07
3.8628934e-07 1.9060493e-06 -6.677621e-07 5.2439134e-07 2.1195518e-07 8.6371216e-07 3.1969276e-07 9.1943144e-07
5.937546e-07 5.9443653e-07 1.0947257e-08 8.096294e-07 1.5582445e-07 -7.4831206e-07 -2.5729418e-07 -1.6338477e-06
3.8327465e-07 -3.0830304e-07 2.6466293e-07 1.1364646e-07 -2.3030996e-07 -2.1023942e-07 5.333815e-07 -3.8767018e-07
3.0928e-07 -4.00282e-07 -5.431654e-07 -2.8496356e-07 -6.362259e-07 2.3016896e-07 -2.7550247e-08 1.6411471e-07
-1.5620171e-07 -3.416448e-08 -5.803145e-09 -1.0493183e-06 -3.1048927e-07 -8.756534e-08 3.733663e-07 7.9211105e-08
1.9382102e-07 1.2798728e-07 1.0002584e-07 4.8020513e-07 6.863608e-07 -5.758923e-07 -2.2934373e-07 -3.9432032e-07
-7.7479507e-07 2.8163035e-07 5.440443e-07 9.790523e-07 -5.3714593e-09 3.993739e-07 -9.7715024e-08 -1.8590762e-07

conv1.lin_pos_r.weight f4 [32, 64]
00000000: 3aa6 9f3e e59b 0b3e cdf8 58be 1a77 40bd
00000010: 736b 73bd b62a 8f3d 6a6c eb3c 6bd7 ed3b
00000020: a5c1 ae3c 7bee b83d bf5f fbbd 072e cfbc
00000030: 4e9d ae3d bb14 3bbe 3cd7 d5bd 6c14 a4bd
00000040: e3e9 303d b824 de3d eeb8 833d 60de 68bd
00000050: 7bb2 47be 17f7 ff3d 6678 163c 1828 9f3d
00000060: 4c4a b53c c2a1 29bc 2407 f6ba ff74 423e
00000070: 0641 303d 14fe 9f3b fbea 893d ca60 a03d
00000080: 34e2 17be 72b6 d03d 2b12 7ebd b647 d13d
00000090: 9acf aa3a a094 f53d add7 12be f445 0e3d
000000a0: 3ce8 ac3d 0126 f23d eb85 1fbd 637d 6cbd
000000b0: 607a 083e 7e37 afbc 15d8 69bb 6a69 b83d
000000c0: ebe5 72bd c2d9 48bd e68a 1fbd b338 edbd
000000d0: 9812 143d 7b5c 253e 2ee4 fabc 8c2e d93d
000000e0: 6294 edbd 6505 28bc f28b 60bd 0eaf 353e
000000f0: 2618 f0bd c7ec 3bbd 176f d0bd 205a 603d
00000100: 0bc2 86bf 7509 23be 3e1d adbc 201a eabd
00000110: 96be d1bb a850 213e 42fe 063e 3b9e aebe
00000120: a867 35be a9f4 263a 1ca2 d3bd e142 91be
00000130: 3002 9c3d 9b6b cfbd fa4f 33bc 1ed2 34bd
00000140: 12ea 91bd 020d 963e ea8b f83c 7b0e bb3c
00000150: 7fa7 c03c 0b92 f23d 960e 9b3c 621a ca3d
00000160: f5f4 4ebd db18 633d 6e05 bcbd 6b13 143e
00000170: 4912 2abe 6524 803d 0d24 0a3e 1dfa a23c
00000180: 29b0 d5bc e6b8 e8bc 1188 b93b 3472 983d
00000190: 308f 3a3e df1e 5ebe 4c85 b23d 4a95 8738
000001a0: 3552 c53d 9b84 cd3d 271e d4bc 7320 643e
000001b0: fe0d 9dbe 6711 e33c 1e38 17bc 46f0 fa3d
000001c0: 27c3 13be 3f51 edbd 1a5b 3ebe 1c2f cbbd
000001d0: 1c56 f93d d441 c5bd b0a2 84bd 2369 3ebe
000001e0: af85 f93c c549 18be f615 083e 7b89 2bbd
000001f0: 6ebe 34be 1f77 c33d fbf9 20bd d3cf 0ebe
00000200: 4d50 3f33 a707 c731 57d6 0432 777a af30
00000210: 4abb 2332 169a 1eb2 69c5 4231 1b77 44b2
00000220: 0198 efb1 ac41 9732 1367 96b0 4706 93b1
00000230: 4833 9132 9d93 bc31 060c 3c32 d8fc 29b2
00000240: 7184 8d31 a24e 19b2 c00e dd31 7f19 3132
00000250: a52a 38b1 0b33 0cb2 b9f1 5cb0 ff1c ec30
00000260: 9edd 8631 8dd5 a3b1 9810 c7b1 c1c0 7cb2
00000270: e075 e931 f1be 4eb2 f6e0 72b1 f7ab 9a31
00000280: 0b3b c732 4db8 2732 f0aa 1832 f9cd 7fb2
00000290: 7748 0ab2 ed29 aa2e 3d20 0e32 5ff7 4e2f
000002a0: 6a3d 2631 1c83 6db2 ac00 ff30 9641 9fb2
000002b0: dd1d 1d32 4644 7031 4a9c afb1 9e54 69b2
000002c0: 7e47 d9b1 a8c4 38b2 20e8 d531 2d5b 00b0
000002d0: d52c 7f32 755c c5af 89cd 1db0 e41a 25b2
000002e0: 4b57 3931 e036 8e32 22fe cf31 599b 60b1
000002f0: 3ec2 9530 f575 8432 467f 0ab2 eafa 07b2
00000300: 2aae 0234 a3e7 40b5 ed1d 6235 5aa9 8135
00000310: 92cf e5b4 29f2 9cb5 0b9b a235 4c5a 0bb5
00000320: 322f 2e35 e957 a135 7262 75b5 135e ff32
00000330: f480 eb35 48cf 0e35 0968 c0b5 d8fa 2e34
00000340: 46bb 9bb5 5c18 afb4 da7a 0e32 3307 93b4
00000350: 937f 5635 20c3 9b33 f6be 76b4 f85b 2db5
00000360: 6dd2 1b34 829b 5c35 0fc9 3135 f601 5335
00000370: f077 37b5 6756 15b5 9245 f533 785d 9ab5
00000380: d0c4 fb34 95b2 25b5 689a 66b5 e356 16b5
00000390: befb 0d34 4125 f735 2b36 0d34 14e5 1cb6
000003a0: f38d 12b5 070d 2d35 388a b3b3 efd4 0fb5
000003b0: ac54 e734 d8e4 e834 51c7 9133 d044 9ab5
000003c0: 3fad 7ab4 fb0c 3d35 fb02 2234 de50 1934
000003d0: 9548 3435 c6b6 f6b5 ce25 b6b5 8a71 b5b5
000003e0: d587 f531 50b9 bab3 adb7 3635 2c32 80b6
000003f0: 460a b7b3 d49b 9435 9a50 a5b5 2018 3db6
0.31181508 0.13633688 -0.2118866 -0.046988584 -0.059428643 0.06990568 0.02873822 0.007258346
0.021332571 0.090298615 -0.122741215 -0.025290502 0.08526097 -0.18269627 -0.10441443 -0.08011708
0.0431918 0.10846847 0.06431757 -0.0568527 -0.19501679 0.124983005 0.009183979 0.07771319
0.022130154 -0.0103535075 -0.0018770439 0.18989943 0.04303076 0.0048825834 0.06734272 0.07830961
-0.14832383 0.10191049 -0.062029045 0.10218756 0.0013031841 0.119912386 -0.14340086 0.03473468
0.08442733 0.11823655 -0.038946074 -0.057736766 0.13327932 -0.021388765 -0.0035681773 0.09004481
-0.059301298 -0.049035795 -0.038950823 -0.1158308 0.036150545 0.1614856 -0.030626383 0.10604581
-0.116005674 -0.010255192 -0.054820962 0.1774256 -0.11723356 -0.045880105 -0.10177439 0.05477345
-1.0527967 -0.15921576 -0.021132108 -0.11430764 -0.0064008934 0.15753424 0.13182929 -0.34105095
-0.17715323 0.00063688547 -0.10333654 -0.28371337 0.07617605 -0.10127946 -0.010944361 -0.044145696
-0.071247235 0.293068 0.030340154 0.022834053 0.023517368 0.11844262 0.018927854 0.09868313
-0.050526578 0.055443626 -0.09180723 0.14460532 -0.16608538 0.06256942 0.13490315 0.019894654
-0.026084976 -0.028408479 0.0056619723 0.074436575 0.18218684 -0.21691464 0.087168306 6.465109e-05
0.0963482 0.10035058 -0.025893284 0.22278003 -0.30674738 0.027718259 -0.009229688 0.1225286
-0.14429913 -0.11587762 -0.1858944 -0.09921095 0.12174627 -0.09631696 -0.06476343 -0.18594794
0.030459253 -0.14871891 0.13289627 -0.04187916 -0.17650768 0.09544205 -0.0393009 -0.13946466
4.4543686e-08 5.7925322e-09 7.7321465e-09 1.2767732e-09 9.530433e-09 -9.2318455e-09 2.834293e-09 -1.1435783e-08
-6.9730963e-09 1.7608578e-08 -1.0943232e-09 -4.2789767e-09 1.6903542e-08 5.488302e-09 1.0945774e-08 -9.894585e-09
4.118697e-09 -8.923651e-09 6.4336234e-09 1.0308553e-08 -2.6799765e-09 -8.160678e-09 -8.037904e-10 1.7179501e-09
3.9251082e-09 -4.7682023e-09 -5.7935488e-09 -1.4712158e-08 6.7945933e-09 -1.2034193e-08 -3.534351e-09 4.50154e-09
2.3193499e-08 9.7625845e-09 8.886431e-09 -1.4889786e-08 -8.049134e-09 7.7381525e-11 8.272818e-09 1.8823475e-10
2.419109e-09 -1.38250265e-08 1.8553883e-09 -1.8539861e-08 9.145393e-09 3.4963406e-09 -5.1109383e-09 -1.3581625e-08
-6.323659e-09 -1.0754924e-08 6.2255054e-09 -4.66957e-10 1.4853147e-08 -3.5899786e-10 -5.740835e-10 -9.610378e-09
2.6970663e-09 1.655593e-08 6.0533845e-09 -3.2684595e-09 1.0896384e-09 1.5420463e-08 -8.061596e-09 -7.9150855e-09
1.2170554e-07 -7.186265e-07 8.423511e-07 9.660537e-07 -4.28056e-07 -1.1693384e-06 1.2115064e-06 -5.1912934e-07
6.488873e-07 1.202102e-06 -9.141287e-07 2.9728687e-08 1.7546395e-06 5.3200756e-07 -1.4335393e-06 1.6296269e-07
-1.1602904e-06 -3.2614014e-07 8.293421e-09 -2.7386122e-07 7.990686e-07 7.253243e-08 -2.2980007e-07 -6.4581354e-07
1.4512052e-07 8.218268e-07 6.6230217e-07 7.860648e-07 -6.8347344e-07 -5.563256e-07 1.1421356e-07 -1.1501097e-06
4.6895593e-07 -6.172716e-07 -8.590637e-07 -5.600579e-07 1.3223232e-07 1.8413776e-06 1.3151354e-07 -2.3379152e-06
-5.45958e-07 6.446648e-07 -8.360479e-08 -5.358151e-07 4.308871e-07 4.3379873e-07 6.788344e-08 -1.1493921e-06
-2.3346091e-07 7.0426876e-07 1.508851e-07 1.4278655e-07 6.7160846e-07 -1.8381622e-06 -1.3571059e-06 -1.3518595e-06
7.1458808e-09 -8.695008e-08 6.8067567e-07 -3.820538e-06 -8.52347e-08 1.1072211e-06 -1.2316916e-06 -2.8177237e-06

conv1.lin_pos_r.bias f4 [32]
00000000: 7430 793d e0fb 993c 3b44 45bc 40a9 4db6
00000010: 037a ad38 711b a3bc e092 913c 36e9 62bc
00000020: 0666 923c fb7d d13c d47f f33c b021 0dbd
00000030: cf2f 963a e159 02bd 3200 cd3c 4db2 3c3c
00000040: 6945 75bd 90c7 05bd 3ed5 a8ba 9690 1fb6
00000050: 713c f8bc 2a61 de39 253d 58bd a101 4c3d
00000060: b3ab 9d3d e57b d4b9 d666 913d 3355 69bd
00000070: 92d1 9abc 0722 3dbd de32 bb3c 0216 41bd
0.060837224 0.018796861 -0.012040193 -3.0645897e-06 8.272009e-05 -0.019910546 0.01777023 -0.013849547
0.017870914 0.025572767 0.02972404 -0.034455955 0.001145834 -0.031823996 0.025024507 0.01151712
-0.059880648 -0.03266102 -0.0012880934 -2.3777006e-06 -0.030302258 0.00042415533 -0.052792687 0.04980624
0.07698765 -0.000405281 0.070996925 -0.056966018 -0.018898759 -0.04617503 0.022851404 -0.04714013

conv1.lin_neg_l.weight f4 [32, 64]
00000000: d154 8d32 cf80 1c31 23d8 2332 92ee c331
00000010: 1a0e 2332 8e90 4432 a0d3 c631 f6ae 2332
00000020: ab42 61b1 1338 e731 39d4 5131 4725 b0b1
00000030: 9fb2 6e32 6b80 1832 c24f cbb1 3af2 0332
00000040: b8af 1432 3e62 d031 eea3 a0b1 3c3c cd2f
00000050: 2bf3 4431 cb1e 5731 f557 f030 c463 0732
00000060: 4e27 06b1 6e88 79b2 0e7f 6332 7e48 cd31
00000070: 5b72 2431 d024 4332 ca3b 0cb2 d346 992e
00000080: 391c 2632 155c 3631 f01f 3f31 dc6a d931
00000090: de6d 3ab1 882f f431 769c 0332 4de8 8c31
000000a0: 8767 f1b1 beab a032 b199 5732 982e 2539
000000b0: b812 1cb2 ea66 3fb2 93e3 2032 d76f 1bb2
000000c0: b8b8 a5b0 c110 a0b1 9e35 9d32 dcf6 1032
000000d0: 4d33 a132 1c3d d231 f967 8ab1 aef9 4f30
000000e0: fbed 1cb2 e7a3 bd31 e19c 79b2 30a1 78b1
000000f0: 2ef7 1eb1 a952 f6b1 c939 25b2 f4ad f0b1
00000100: e6e3 8e3d 1ecb 773d 6359 65bb c185 0ebd
00000110: e8d1 82bc 10ac 1d3d d86a 7e3d be63 cfbd
00000120: 72fb 4c39 2857 b53c bdcc 98bb 35f0 32bd
00000130: a85f d0bd e3d2 1bbd d269 2c3d 5fd6 6ebc
00000140: 46ae a33d cd1a c63b 6ea5 f0bb f425 553d
00000150: 002c d03d 71f5 d7bc 9da0 88bc 179f 183d
00000160: fd19 0d3d d674 ca3b f91c 8cbd daee e93c
00000170: ab27 973c 3726 4bbd a489 4c3c d99f 4cbd
00000180: fcdc a2bc 5808 07bc 8b40 363d 72b5 80bd
00000190: b454 433b 2699 053d 07f3 cd3b 00ca 893c
000001a0: e5dc 85bd b08a 4c3d b6e5 ee3a 64e9 0fbc
000001b0: 2617 3c3d 7f48 87bc c87a 62bd e50a 813c
000001c0: 63ba 2b3c b84b 74bd 1d72 72bd 4a99 6bbc
000001d0: e820 e5bc a23a cdbc 9480 1a3d 5e91 e0bc
000001e0: de1f c33c 64f6 c7bd 8bed dc3c 3612 d53c
000001f0: decc 0fbb c7d6 223d 0f15 debc adb7 963d
00000200: 46fc a9be 9fb9 873d cf95 46be ead3 94bd
00000210: 095c 16bc 527b 4ebe 3cd2 86bc 685b 3d3e
00000220: b5b1 35bd 7f74 d33c c5aa 42bd f888 c1bb
00000230: 3aa8 a1bd cb8c b9bc ce8d ce3d e003 5dbc
00000240: 0ffe 13bd 6a42 403d f9ba 23be cb7b 94be
00000250: 55e5 223e 96a5 85bd 36ba 693d 718a 8bbd
00000260: 30cf 90bd 40df c63e e3d7 083e b686 32bd
00000270: c633 233e 3425 d5bd de9a 1ebe c562 cd3d
00000280: b87f 84bd 3eff b9bd bb8c 8ebd ec3b 823d
00000290: fa43 2ebe 3d3f fe3d ce25 3fbe c71e c63c
000002a0: eeaa c73c 814c 0ebe 4b75 11bd ff4f 5cbd
000002b0: ee98 b03c 33d4 4dbd e3d7 fb3e 8acb 58bc
000002c0: a40b e33c 7f9d 423d 0f4e 0b3e 8d32 54bd
000002d0: 9be3 e3bd f38a 993d 6a15 883d ff8e 6e3c
000002e0: 03e7 1dbe a66c dd3d c43a 78be d8f8 b1bd
000002f0: 5196 b9bc e564 cfbd f9c5 92bc 3e6b b2bd
00000300: 12a6 ab3c c248 e13d 2d77 c8bd de98 e8bb
00000310: b008 2dbe 8942 1d3e 3113 92bd 9d07 73bb
00000320: 6acf 043d 6132 18bd ced2 073d a639 773c
00000330: 4b16 1b3d d400 d83c 65ad 34bd 469e 6b3d
00000340: fded d8bc 707e 903d cf0a 36bc e551 efbc
00000350: 6f58 c7bc 7af4 a83d 09ce 453d 0807 903d
00000360: acdb 0a3d d419 92bd 4c0c 303e 8df0 34be
00000370: 33de 42bd deb2 51bd fe26 0b3e 43bd 413d
00000380: 6e37 39bd 5fc0 9dbc 9bd7 1a3d 5332 f03c
00000390: 2b15 88bd 47d8 babd df13 82bd a996 553d
000003a0: 2b44 3c3d 71a8 ba3d f2e3 ea3c fb61 bb3d
000003b0: 0430 01be 38fe 39bd ecb4 b1bd 8812 b43d
000003c0: 9186 483d 52de 3c3d 7418 c63d d182 983d
000003d0: aa46 423c b6a2 11bd da46 1e3d 1899 293d
000003e0: 4630 25be 045f b4bd f97d 4c3d 854a f33c
000003f0: 1962 6e3d 99ad 8fbd 4fff d13d e585 c33d
1.645313e-08 2.2774207e-09 9.5369925e-09 5.7023692e-09 9.491055e-09 1.14415695e-08 5.7866174e-09 9.52763e-09
-3.2779706e-09 6.7293597e-09 3.0534137e-09 -5.126512e-09 1.3894037e-08 8.876763e-09 -5.917145e-09 7.6802795e-09
8.654688e-09 6.0647656e-09 -4.6752495e-09 3.7332082e-10 2.8659979e-09 3.1304122e-09 1.7487297e-09 7.880718e-09
-1.9521909e-09 -1.4524728e-08 1.3242028e-08 5.9745267e-09 2.3930145e-09 1.1358864e-08 -8.162667e-09 6.9702154e-11
9.668889e-09 2.6536828e-09 2.7812312e-09 6.3276797e-09 -2.7129015e-09 7.1067383e-09 7.660779e-09 4.100946e-09
-7.025793e-09 1.870455e-08 1.25495925e-08 0.00015752984 -9.084651e-09 -1.1141063e-08 9.36497e-09 -9.047617e-09
-1.205783e-09 -4.6585176e-09 1.8301588e-08 8.4380325e-09 1.8766196e-08 6.1187517e-09 -4.028149e-09 7.566098e-10
-9.134506e-09 5.5192575e-09 -1.4529378e-08 -3.6180374e-09 -2.3132531e-09 -7.1689397e-09 -9.617403e-09 -7.0046955e-09
0.06977062 0.060496442 -0.0034995906 -0.034795526 -0.015969232 0.03849417 0.062113613 -0.10126446
0.00019548627 0.022136286 -0.0046630786 -0.04368611 -0.10174495 -0.038042914 0.042093106 -0.014577477
0.079922244 0.0060456754 -0.0073439395 0.052038148 0.10164642 -0.026362153 -0.016678149 0.037261095
0.034448612 0.0061784787 -0.068414636 0.028556276 0.018451532 -0.04959699 0.012483988 -0.04995713
-0.019880764 -0.008241735 0.044495147 -0.06284608 0.0029805126 0.032616757 0.0062850746 0.016819954
-0.06536273 0.04993695 0.0018226418 -0.008783672 0.045920514 -0.016514061 -0.055292875 0.015752265
0.01048145 -0.059642524 -0.05919086 -0.014379809 -0.027969792 -0.025052372 0.037720278 -0.027413066
0.023818906 -0.09763792 0.026968738 0.02600966 -0.0021942179 0.03975561 -0.02710965 0.07359252
-0.33200282 0.06627201 -0.19393085 -0.07266982 -0.009177216 -0.2016423 -0.01645767 0.184919
-0.044358928 0.025812386 -0.04752614 -0.0059062205 -0.07893415 -0.022650143 0.10085641 -0.013489693
-0.03613096 0.046938337 -0.15989293 -0.29000697 0.15907796 -0.06525724 0.05706235 -0.06813515
-0.07070768 0.388422 0.13363604 -0.0435855 0.15937719 -0.104074866 -0.15488765 0.100286044
-0.06469673 -0.09081887 -0.06960436 0.063590854 -0.17018119 0.124144055 -0.18666765 0.024184598
0.024373498 -0.13896371 -0.03551225 -0.053787228 0.021557298 -0.050251197 0.49188146 -0.013232121
0.027715512 0.04751348 0.13603996 -0.05180602 -0.11127397 0.074972056 0.066447094 0.01456046
-0.15420155 0.10811739 -0.24241167 -0.08690041 -0.022654684 -0.10126666 -0.017916666 -0.08711861
0.020953212 0.110002056 -0.09788356 -0.0070983013 -0.16897845 0.15357412 -0.07132567 -0.0037083395
0.032424368 -0.03715742 0.033160023 0.015089428 0.037863057 0.026367582 -0.044110674 0.05752399
-0.02648067 0.07055366 -0.011110975 -0.029213855 -0.02433416 0.08249755 0.048292194 0.07032591
0.0339009 -0.071338326 0.17192191 -0.17669888 -0.047575187 -0.05119597 0.13589093 0.047299635
-0.045218877 -0.019256769 0.037803274 0.029320871 -0.066446625 -0.09123283 -0.06351446 0.052145634
0.045963448 0.09114159 0.028673146 0.09149548 -0.12615973 -0.045408458 -0.08677086 0.08792597
0.048956458 0.04611046 0.09672633 0.07446826 0.011857668 -0.035555564 0.038641788 0.041405767
-0.16131696 -0.08807185 0.049924824 0.02969862 0.058199022 -0.07015533 0.102537744 0.09547023

conv1.lin_neg_r.weight f4 [32, 64]
00000000: e612 d232 78cc a5b1 f7f4 5832 0fa7 31b1
00000010: 12dd f4b1 444a efb1 c5b5 31b1 a9b0 c232
00000020: d328 cab0 9753 58b2 dfed 6931 6f80 50b1
00000030: 08eb 0e32 2c23 bab1 92b1 9e31 fc61 b9b2
00000040: 3f9b 2a32 9caf 4532 c678 3832 e696 81b2
00000050: e86f 3731 fd0d 61b2 c9f2 0832 cee9 0d32
00000060: 2104 9c32 678e 2d30 7ca6 a731 bba3 2332
00000070: 87bb f130 ada3 6d32 6a5d 8f32 1d0e 5eb2
00000080: 965d a531 04bb 37b2 08c2 3632 2df7 0432
00000090: 684e 3c32 efb2 a5b2 191b deb1 4add 80b2
000000a0: e939 51b1 b216 2b32 cb39 9db2 6b64 c9b1
000000b0: be6e da31 54b2 2eb2 a528 0732 ccd2 4c32
000000c0: 1481 3eb2 ef56 1a32 19a9 c631 1e09 6f32
000000d0: 18f0 41b2 eb92 8831 5aa3 5db1 d2ed 10b2
000000e0: 7116 47b2 b690 eeb1 6e0f 16b2 aa53 85af
000000f0: db2b 0db2 b68e 21b2 e30d a831 ef72 f4b1
00000100: 02fe 76be 1443 793d 8666 973d 45e9 b4bd
00000110: 13e5 4bbd d04c 09be 1dbd ad3d b72b 913d
00000120: 06d5 993d 6660 f4bc 78bb b6bc 284a 753c
00000130: 2dc5 103e eebb 0d3e bad9 ea3d ecdf 32bd
00000140: 6638 f43b 4ff7 933d e835 a0bc d9ed f5bd
00000150: 3e07 89bd 8cb0 733d e7f1 82bd 9014 bfbb
00000160: ce9f 11bd c11a 8abd e338 9f3d f453 87bd
00000170: 2908 8fbd 596d 7d3c 6956 b8bd 0948 50bd
00000180: 870e f33c 6c99 dfbb e1f4 113d 907d 3c3e
00000190: 067d 44bc 4530 093d 57de 00bd 8714 52bd
000001a0: cbdd 863d b896 07be 87ca 87bd 1cdb 24bd
000001b0: 1e76 3e3c 9101 d1bc 9d56 593d d0a6 88bc
000001c0: 150b f8bc 533b c8bc 4999 a53d 617a 1c3e
000001d0: fce6 1e3d 2972 763d 1ab1 803c c71c 933d
000001e0: 8848 95bc eec8 653e 8e91 72bc 3b80 023d
000001f0: 1ccf d9bd 6b22 053d 9961 813d 1bca ffbc
00000200: 208f ac3e e830 eb3d 3f23 4bbe 490d be3c
00000210: 546e f03d 1fda f93d 4f67 443c 64b3 a03d
00000220: cc5a 50bd 1fa1 85bd 410b 17be fcc3 1a3e
00000230: 2f43 f7bd 4543 ea3c c06f 86bd 0afa 843d
00000240: a3a0 a73d 230c d63d d8df 943c dfcb be3d
00000250: e09d 7e3d 41b5 0dbe 56fe b73d a327 aebd
00000260: f1b6 853d 3927 8cbb 9523 8ebc 4eb1 6e3d
00000270: 34be 223d ffae bbbb c1b7 183e 8744 9d3d
00000280: 0d73 923d 20c6 a23d 250d 953d 094a 123d
00000290: be82 053e 36e9 403d 7aec ee3d 415a 21bc
000002a0: f2a5 593c acc7 bd3d 89d0 20bd 3b1c 073e
000002b0: 8df6 043d ed48 febc a9d1 2cbd 9b68 943d
000002c0: a88e a4b9 f4ba e23d e7c4 95bd 6195 44bd
000002d0: 0db9 48bd 5185 7dbd bc5d 09be a529 edbd
000002e0: 648c ee3c 22c3 b23c 7686 71bd ca89 2fbd
000002f0: 14ab 02bc 1fa7 d7bc 425d 463d ed42 373e
00000300: 62f2 62bf f0af 73be 61b0 4dbb 4236 6b3e
00000310: 76e2 203f e605 9ebe 844a 91be 0505 243f
00000320: c84d 0c3e 8c6e 053d f62d dfbd 125a b63d
00000330: 3a60 ffbd bdf0 723e 1f15 823e 2697 a7bd
00000340: af51 58be 407a 6cbe fae6 fcbd fb6b f9bd
00000350: 88aa 323e 38e8 a5bd 2e3f dc3d 5ee4 f9bd
00000360: 9f36 f03d f735 7a3d 6119 92bd e7be c6bb
00000370: c3b6 213e f2e3 4ebc ea33 a1bc ed79 f73d
00000380: 47b7 543d 77d2 81bb 1181 8dbd 37fb fc3d
00000390: 7d8d ddbd 6346 60be e9cb 523b d0ef 013e
000003a0: b0e3 84be 73c5 603e 5156 fa3c d486 e0bd
000003b0: 7107 dc3d 31e2 e7bc 34f6 7e3d 3c9a 5ebd
000003c0: bc8f 073e 5520 923d 1636 1ebc 7de9 c33d
000003d0: 8ac3 2dbd ba04 bdba 5abd 963d 0f66 3f3e
000003e0: c302 6e3e 53f6 37be 3a36 69bd 3b41 2b3e
000003f0: b1ea 1e3e 051f 153d ca28 3dbe 9026 b1bd
2.4455812e-08 -4.8253774e-09 1.2628553e-08 -2.5851852e-09 -7.1264674e-09 -6.9642585e-09 -2.5860214e-09 2.2664908e-08
-1.4709037e-09 -1.2591861e-08 3.4041177e-09 -3.034099e-09 8.318928e-09 -5.417311e-09 4.6185926e-09 -2.1581393e-08
9.930601e-09 1.1506838e-08 1.073767e-08 -1.5086197e-08 2.6693616e-09 -1.3099904e-08 7.971445e-09 8.260441e-09
1.8162668e-08 6.31394e-10 4.8792668e-09 9.525077e-09 1.7588356e-09 1.3832431e-08 1.668987e-08 -1.292531e-08
4.8127715e-09 -1.0694524e-08 1.0637912e-08 7.7396125e-09 1.0960868e-08 -1.9289898e-08 -6.464131e-09 -1.5001792e-08
-3.044642e-09 9.95867e-09 -1.8303487e-08 -5.861286e-09 6.357225e-09 -1.016868e-08 7.867276e-09 1.19222925e-08
-1.10888045e-08 8.983746e-09 5.7817826e-09 1.3913704e-08 -1.12886696e-08 3.9748236e-09 -3.2252587e-09 -8.435977e-09
-1.1588427e-08 -6.9431634e-09 -8.734657e-09 -2.4252006e-10 -8.217252e-09 -9.403882e-09 4.8910223e-09 -7.114401e-09
-0.24120334 0.060854986 0.07392602 -0.08833555 -0.04977901 -0.13408208 0.08483336 0.07088416
0.07511334 -0.029831123 -0.022306189 0.0149712935 0.14137717 0.1384122 0.11467309 -0.04367058
0.0074530123 0.07224905 -0.019556955 -0.120082565 -0.066908345 0.05949454 -0.063937955 -0.0058313087
-0.035552792 -0.06743384 0.07774522 -0.0660781 -0.06983978 0.015467965 -0.090008564 -0.050849948
0.029670013 -0.0068237092 0.035633925 0.18407273 -0.011992699 0.0334933 -0.03146204 -0.051289108
0.065852724 -0.13241088 -0.06630426 -0.04024802 0.011624841 -0.025513442 0.053061116 -0.016681105
-0.030278722 -0.02444235 0.080858774 0.15281059 0.038794503 0.060167465 0.015709449 0.07183223
-0.018223062 0.2243993 -0.014805211 0.03186057 -0.10635206 0.032503527 0.063174434 -0.031224301
0.33702946 0.114839375 -0.19837664 0.023199694 0.117397934 0.121998064 0.011987521 0.07846716
-0.05086784 -0.06524872 -0.14750387 0.15113825 -0.12073361 0.02859653 -0.06564283 0.06493004
0.08184936 0.10451534 0.018173143 0.09316229 0.06216228 -0.13838674 0.089840576 -0.08503654
0.06529034 -0.0042771366 -0.017350951 0.05827456 0.039732173 -0.0057276483 0.14913847 0.07679086
0.071508504 0.079479456 0.07277898 0.035715137 0.13038155 0.047097407 0.11666198 -0.009848178
0.013284193 0.092666 -0.039261375 0.13194363 0.03246169 -0.031040633 -0.042192135 0.072465144
-0.00031386805 0.11070815 -0.07312947 -0.04799402 -0.049004603 -0.06189472 -0.13414663 -0.11580209
0.029119678 0.021821562 -0.058966123 -0.042856015 -0.0079753585 -0.026324807 0.04842878 0.17896624
-0.88651097 -0.23797584 -0.0031385648 0.22969916 0.6284555 -0.30863875 -0.28377163 0.6407016
0.13701546 0.03257613 -0.10897438 0.08903898 -0.12469526 0.23724647 0.2540674 -0.08183126
-0.2112491 -0.2309351 -0.12348743 -0.12178799 0.17447865 -0.08100933 0.10754238 -0.12201761
0.11729168 0.06108662 -0.07133747 -0.006065238 0.15792374 -0.012627589 -0.019678075 0.12083802
0.0519326 -0.003961857 -0.06909383 0.12352603 -0.108180024 -0.2190185 0.0032164997 0.12689137
-0.25954962 0.21950321 0.030558737 -0.109632164 0.10743607 -0.028306099 0.062246516 -0.054346308
0.13238424 0.07135073 -0.00965645 0.09566019 -0.04242281 -0.0014420964 0.07360335 0.18691276
0.23243241 -0.17965059 -0.05693648 0.16724102 0.15519215 0.036406536 -0.18472591 -0.08649933

conv1.lin_neg_r.bias f4 [32]
00000000: efdf afbb 3a9d de3d 2ab5 973c 2511 eb3c
00000010: 2d2a 89bd ebd9 17b8 fa75 a3bb e646 6abd
00000020: 6746 f23d df95 a83c 7d59 0fbb 8380 be3c
00000030: c77d 48b7 1a52 af39 b8b3 503d d38c e2ba
00000040: 4aaa 15bc a74b 8bbc be16 0fbd be6c ba3c
00000050: 9f44 2b35 5cfd 13ba 6fe1 c239 e71b d43c
00000060: a45d 27ba 2b0c 71bc 3519 a83d 973e ab3c
00000070: 9e78 84bc eba7 e6b7 9558 f83c 2f7d 48bd
-0.005367271 0.10869832 0.018519003 0.028694699 -0.066974975 -3.6204157e-05 -0.004988429 -0.05719652
0.118298344 0.020579277 -0.0021873408 0.023254639 -1.1950214e-05 0.00033439772 0.050952643 -0.00172844
-0.009134838 -0.017003847 -0.034933798 0.02275693 6.380232e-07 -0.00056453585 0.00037170525 0.025892211
-0.0006384498 -0.014712374 0.08207933 0.020903869 -0.016170796 -2.749633e-05 0.030315677 -0.04894751

convs.0.lin_pos_l.weight f4 [32, 64]
00000000: 3885 ac3c b12e dbbb 377d 36b2 cd38 05b7
00000010: 123b c23c fabd cfbc 8628 9f3c b74e 76b9
00000020: f0c2 f93c 8036 d437 0b20 383c dca9 01b2
00000030: 11f3 bb3c 0f15 29bb c7e6 d8bb cc28 3dbd
00000040: d98b e0ba 807a 5eb1 fefc 1eb8 b349 5ab3
00000050: 4653 40bb cd73 14bb 2830 ddb1 f157 783d
00000060: 990f b6bc 9812 0bb9 874b 863d 5ec2 35bc
00000070: 0a85 0cb4 1e2c 10b2 8f9e 74bc 5bf5 0b32
00000080: 1bad 0cb2 6ee3 ddbc bfa1 053d 8951 d5bc
00000090: 9bd2 10bc 65a4 f337 61d9 213a 1fe2 e333
000000a0: 2fae 8cbd 394a a63c e415 10b3 2605 a83d
000000b0: 6015 eab4 9157 b13c 3a8a 71bd 3a52 04b2
000000c0: 11cb d1b8 a04f 2eb2 ddb7 00b4 947c 053d
000000d0: d56d 0cb6 dcf4 4b32 74da 363c a5c7 0fbd
000000e0: 8cd7 6db7 e5a2 99b2 c283 51bd 1f9a 033c
000000f0: aa57 8f3c f2c1 0937 8995 85bb e185 933a
00000100: 42ce ecbd 9b21 fa3c f442 34b2 22b6 6bb5
00000110: 17c1 cc3c 3dd8 eaba bef6 11bd f50e 20b9
00000120: fd6e ad3b ae91 753b 4839 febc 9bc1 6fb2
00000130: 3add ccbc 4376 a6b8 5cec 533b 0382 9ebb
00000140: bc51 063a e805 8430 1356 0f37 89e1 98b3
00000150: 8d31 98bb 0ee4 073e a4c5 0532 c43b 07bd
00000160: 456c 0bbe 3f6c 1c37 2774 0dbe 6fea 113b
00000170: 87dd c7b1 0252 85b2 f99b 56bd 9029 18b2
00000180: 1cf2 8e32 8196 d63d 793d 27be 6e88 b1bc
00000190: e20b 43ba dee5 e736 f052 163a 4748 0e33
000001a0: cfbe 29be 1cd7 c43d b0f1 0e33 8d68 d53d
000001b0: bb81 a6b2 560d b33c f04d 10be bada 8a32
000001c0: d0d9 cc39 047a d6b2 68fc 02b0 bce9 1dbe
000001d0: b874 0634 7259 eeb1 3d7b 02bd 8d14 5b3e
000001e0: 1d09 54b8 ce80 cb30 fb67 02be 7557 373d
000001f0: cab3 0fbb 0305 3038 2dfe fabd 3359 ae3a
00000200: ba77 133e 715a 213e 7b07 4332 0cc4 d736
00000210: 5556 e2bd 096b b6bc c3aa af3d 828a 2f39
00000220: 577b 3c3d b5a0 003e 0f03 cb3d a80c 8d31
00000230: b688 94bd 4ff4 1e32 bcfe 083e e12f ed3d
00000240: 7058 5531 7262 8b31 d52e 033a be74 5636
00000250: 20f7 98b4 ff12 d63c 3ab0 db31 3d59 9a3d
00000260: 58e2 b63d 05b1 42b7 6dda 813d a728 3231
00000270: ad41 5632 5940 7d31 eac8 b23d 9df1 2b32
00000280: 0d7c 6db1 7e1b e13c 32fc b73c 818f c8bc
00000290: 42fe 3131 3327 0436 517b 2636 488a 8b31
000002a0: afb5 ed3d ad2e bd3c 7c27 61b0 9aeb e8bc
000002b0: 4eb2 acb4 61e8 a0bd 5e68 38bc 3d09 14b0
000002c0: 9ee0 d4ba bfbb 80b1 f294 9531 7197 e3bc
000002d0: 1f87 ca35 97a5 d9b1 5578 193d 0db0 cfbd
000002e0: 6360 5a37 bced 13b1 9133 ff3d 41d2 803d
000002f0: 4300 fd31 330c 0e38 69c0 8f3c 4a2a 233c
00000300: e3ab c1bc ab10 a53c c272 e22f 6592 0137
00000310: 704e a33d 5daf 563e 0b3f 2abd db18 0e39
00000320: 5acd 01bd 8ded abbd 8038 7cbd 6a18 e2b1
00000330: c45d 0c3e f22b 14b2 8af5 8c3d 6ff3 97bd
00000340: 5e04 9632 1495 06b1 98b2 49ba 26c7 2136
00000350: e63f cbb4 118f e63d d798 14b2 4eef dfbc
00000360: e560 fcbc 5700 c3b5 ec6f 533d 7b49 8132
00000370: df60 a4b1 e97e 5731 90da 82bc 1971 34b0
00000380: 50a9 95b2 d1e1 353e 7d68 8b3d 2c99 223d
00000390: 7fb0 a22f 95e8 80b6 c830 b0b6 d290 422e
000003a0: 2f19 a83e 911e 103d ed22 a631 b60e 01be
000003b0: c87c 0b36 1bbb 06bd fea4 873e 09ff c331
000003c0: ce70 5fb8 6795 c4b1 c087 3eb2 855c b6bd
000003d0: d7c1 b6b4 be7c 3030 62ed 52be e83c 1b3d
000003e0: 0876 2c38 4b93 7931 487e c93e 5a77 ab3d
000003f0: 448d 4a2e ec7d e637 78a8 223e d98a 143c
0.021059617 -0.0066889157 -1.0622265e-08 -7.940643e-06 0.023709808 -0.025359143 0.019428503 -0.00023489712
0.030488461 2.5297748e-05 0.011238108 -7.54741e-09 0.022943052 -0.0025799905 -0.0066193077 -0.046181485
-0.0017131522 -3.2374885e-09 -3.7905753e-05 -5.082411e-08 -0.002934651 -0.002265203 -6.4374213e-09 0.060630742
-0.022224234 -0.00013263 0.065573744 -0.011093704 -1.3086915e-07 -8.391934e-09 -0.014930381 8.146652e-09
-8.188432e-09 -0.027085986 0.032624956 -0.026039856 -0.008839275 2.904441e-05 0.00061740546 1.06116424e-07
-0.068691604 0.020299064 -3.3547522e-08 0.08204107 -4.360145e-07 0.0216482 -0.058969714 -7.702107e-09
-0.00010003721 -1.0146238e-08 -1.1987818e-07 0.03258951 -2.0925556e-06 1.187183e-08 0.011160482 -0.035102505
-1.4176487e-05 -1.788562e-08 -0.051151045 0.008032351 0.017497856 8.210993e-06 -0.004076664 0.0011255109
-0.11562778 0.030533602 -1.0492602e-08 -8.780936e-07 0.024994416 -0.0017917227 -0.035635702 -0.00015264361
0.005292772 0.0037470865 -0.031033173 -1.3955652e-08 -0.025007833 -7.937525e-05 0.0032336926 -0.004837276
0.00051238737 9.605943e-10 8.543505e-06 -7.119076e-08 -0.004644579 0.1327059 7.786557e-09 -0.03301598
-0.1361552 9.323528e-06 -0.1381384 0.0022264977 -5.816847e-09 -1.552053e-08 -0.05239484 -8.857015e-09
1.6641074e-08 0.10477925 -0.16332044 -0.0216715 -0.00074404303 6.9110965e-06 0.00057344045 3.3127687e-08
-0.16576694 0.09611341 3.3281765e-08 0.10420332 -1.9383938e-08 0.021856945 -0.14092231 1.616478e-08
0.00039072195 -2.4968365e-08 -4.7652415e-10 -0.15421194 1.2522185e-07 -6.9368804e-09 -0.03185581 0.21394558
-5.0553226e-05 1.4806802e-09 -0.12734978 0.04476114 -0.002192723 4.1966337e-05 -0.122555114 0.001330173
0.14401141 0.15757157 1.1352195e-08 6.430322e-06 -0.11051623 -0.022267835 0.08577492 0.00016740899
0.046016064 0.12561305 0.09912693 4.105079e-09 -0.07252638 9.25236e-09 0.13378423 0.11581398
3.104585e-09 4.0566244e-09 0.0005004232 3.1956438e-06 -2.8492013e-07 0.026132105 6.3937735e-09 0.07536552
0.089298904 -1.1604517e-05 0.063404895 2.5925517e-09 1.2471372e-08 3.6852923e-09 0.087297276 1.00084465e-08
-3.4558554e-09 0.02747893 0.022459123 -0.02448249 2.5901419e-09 1.969235e-06 2.4807707e-06 4.061153e-09
0.11606919 0.023093546 -8.1910634e-10 -0.028432656 -3.216723e-07 -0.07856823 -0.011255352 -5.3855215e-10
-0.0016241258 -3.7466346e-09 4.353404e-09 -0.027782174 1.5089498e-06 -6.3343566e-09 0.037468273 -0.10141001
1.3016254e-05 -2.1526452e-09 0.124610074 0.06290103 7.363299e-09 3.38668e-05 0.017547803 0.009958813
-0.023641532 0.02014955 4.11907e-10 7.723084e-06 0.07973945 0.20965333 -0.04156403 0.00013551435
-0.03168998 -0.083949186 -0.06157732 -6.5802412e-09 0.13707644 -8.624726e-09 0.0688277 -0.07419478
1.7464284e-08 -1.9584308e-09 -0.0007694154 2.410679e-06 -3.785819e-07 0.112577565 -8.649486e-09 -0.027335789
-0.030807922 -1.4528731e-06 0.05162041 1.5050992e-08 -4.784041e-09 3.1358758e-09 -0.01597336 -6.564434e-10
-1.7422877e-08 0.17761923 0.06807039 0.039696857 2.9593036e-10 -3.8417734e-06 -5.2508876e-06 4.423912e-11
0.32831714 0.0351854 4.8352065e-09 -0.12603268 2.0785246e-06 -0.03289328 0.26493067 5.704241e-09
-5.32724e-05 -5.721336e-09 -1.10903216e-08 -0.089043655 -3.404118e-07 6.4205696e-10 -0.20598367 0.03789988
4.111792e-05 3.6317995e-09 0.39354157 0.08372374 4.605495e-11 2.7476774e-05 0.15884578 0.009066307

convs.0.lin_pos_r.weight f4 [32, 32]
00000000: c0bb acbd 610a 05be ede0 6532 cc6f 0cb5
00000010: d3a7 9a3d ed08 b9be 1668 0abf a601 b438
00000020: 214b 433e 2eaf 57bf a8bc 48bf a46b e132
00000030: ca30 d03d 6838 e4b2 352b 5dbe dbcb 96be
00000040: 1991 2133 2b83 a5b2 546f 9d3a 6db7 cf34
00000050: baf8 a1b4 8dd9 bc3d 0f34 9431 a368 5b3e
00000060: 2e34 313e 74f0 73b9 cade b23e f5af f2b2
00000070: f992 79b3 2566 b6b3 1a31 07bf 22f1 3633
00000080: 4d02 843e 0e19 12bf a82b d4b1 b5c0 0535
00000090: 82b3 b73e 4ea9 c4be 6a9d a2be 8184 8d37
000000a0: 00c8 debe ac80 2ebe aa49 253f f96f f032
000000b0: e139 f23e a463 6732 3ccf 32bf 6a50 b2be
000000c0: c6ca feb2 d6ed 0831 5d7e 0438 e4d4 4335
000000d0: 7d54 5ab5 3861 153f 9cb7 dc32 73fa eabe
000000e0: d93b 23bd ebfd 44b8 e731 bd3d 763b af32
000000f0: 3ecd 81b0 f4a7 6633 89ea f4be ad44 da32
00000100: 23cc 3c3d 17ce 6c3d 7ad1 ec32 ce34 5c36
00000110: f28b 003e 5f0c 74bf 05a4 a3bd bb6b 34b8
00000120: f68a bd3d 1415 49be a160 bdbc 1560 eb32
00000130: da31 f83e 49da 9bb2 3f7f e9be fa80 073f
00000140: 357b c831 ede1 8a31 4742 0fbb ddb8 bd35
00000150: 928d 7634 95f7 bc3e c17a 40b2 40e2 65be
00000160: 89f3 8abd c879 34b9 a7d4 98bc f3cb 8f32
00000170: 0d3b 90b1 497e 43b2 38da a8be 7e6c b0b1
00000180: 0d0b 03bf 3cbf 443f d70e d9b0 8237 ed34
00000190: 052d 81bf f085 f63b 145b 143f 9024 8439
000001a0: 1d78 5e3e b675 f93e 5fc5 b9bd 081c 5232
000001b0: 4668 64bf 3cf1 28b2 84fc e33e c8bd 38bd
000001c0: 01b1 b2b2 ef5b 74b2 affa 5cba c392 3c35
000001d0: 0eeb 4fb4 8da9 46bf d46a d02e 1232 953e
000001e0: 8d58 17be d6bc e8b8 dcce c7be 317c 3a30
000001f0: 96f0 ccb2 2bcc 7c31 fb3b 393f 03be ac31
00000200: f94f aeb6 414e 0035 2cf6 1832 0bd0 0bb0
00000210: 770e 98b4 e708 0d36 54d4 3b35 2691 4f30
00000220: 75b1 0eb5 6f32 c0b5 642a 1e36 e45d 64b2
00000230: ca72 1fb7 4994 bb31 df1a 98b4 789e 6933
00000240: 7a4a 3e30 498d 8730 95ae 9732 f009 9830
00000250: 84ae 39b2 cc88 7235 ce04 6831 8afb c535
00000260: 6d99 84b6 e861 8232 945f 1fb7 9bb3 c431
00000270: 8a57 e432 0aa4 efb1 1491 ff33 f14d beb0
00000280: d5c5 753e 341e 753e 1149 1db2 2bca 29b6
00000290: bd75 2abf c642 863e 986b 043f adfd 54b9
000002a0: d3b3 cfbd 74b6 7e3f 46cb 873f 6ab7 63b0
000002b0: bde3 ff3d a413 05b2 ab13 8cbc 9c0c 233f
000002c0: c2c2 de30 0d5d b5b2 e012 ba39 4000 0335
000002d0: ec28 0f36 4b43 9b3d 8a76 3b33 81bb fdbe
000002e0: 840b 08bf 3f01 0939 baa3 36bf c92c f831
000002f0: 7a42 03b1 0bec 8630 0358 2c3f 747b d531
00000300: 9555 8bbe c704 733e eddc 922f 06b3 45b6
00000310: 33e0 aabf 6060 9b3c 99f2 0f3f 10e3 e938
00000320: 5650 10be 65d8 323f 748f 353f a46a c530
00000330: e9a4 89bf 61aa b2b0 8ddb fd3e 8bac 94be
00000340: b1e9 3732 102f c8b1 8fa7 96ba 81df 65b6
00000350: 4115 3333 b9c6 b1bf 2260 19b2 c37f 3d3e
00000360: d66a 273d 6616 0839 868b 6abe fb9a 2732
00000370: c368 8d32 e0da c9b2 a476 523f 2f0e 2932
00000380: 9e6b bcba 939e 88ba a22a 9ab1 0096 a931
00000390: 54a0 c73a 206c 0c3c 5126 08bb 0b73 9131
000003a0: aba8 923a 3a33 c2ba bd07 44bb 792f bfb2
000003b0: e047 98bb 55f9 3530 eff0 1c3b 253c 32bb
000003c0: 2b74 86b1 1773 1532 a750 2034 3d17 e731
000003d0: d2d1 8a31 fa76 a8b8 946a 2c32 dc93 023b
000003e0: 2138 adbb 0868 2ab2 a4a9 39bb 2d7c 3db2
000003f0: 2153 9531 af84 ef31 0ea7 afbb 5a26 7031
-0.08434248 -0.1299224 1.33806966e-08 -5.231675e-07 0.07551541 -0.36139622 -0.5406507 8.583376e-05
0.19071628 -0.8425168 -0.78412867 2.6242397e-08 0.10165556 -2.6568344e-08 -0.21598513 -0.29452404
3.76177e-08 -1.9268176e-08 0.0012011328 3.8690214e-07 -3.016956e-07 0.09221182 4.3132853e-09 0.21426634
0.17305061 -0.00023263862 0.349356 -2.8252524e-08 -5.81085e-08 -8.4936154e-08 -0.528093 4.2594486e-08
0.25783005 -0.5706948 -6.174975e-09 4.9826787e-07 0.3587914 -0.3841042 -0.31760722 1.6870212e-05
-0.43511963 -0.17041272 0.6456553 2.7990597e-08 0.47309783 1.3468625e-08 -0.69847465 -0.34826976
-2.9661702e-08 1.9925799e-09 3.1588937e-05 7.295296e-07 -8.1334275e-07 0.5835147 2.5694867e-08 -0.45894203
-0.039851997 -4.696652e-05 0.09238034 2.0399721e-08 -9.444319e-10 5.37038e-08 -0.47835186 2.540977e-08
0.046093117 0.05781373 2.7569275e-08 3.281329e-06 0.12553385 -0.95331377 -0.079902686 -4.3015676e-05
0.0925502 -0.19636947 -0.023117365 2.7401294e-08 0.48475534 -1.814364e-08 -0.45604894 0.5293118
5.834773e-09 4.0420134e-09 -0.0021859573 1.41354e-06 2.2962038e-07 0.3690764 -1.1203782e-08 -0.22449589
-0.06784732 -0.00017211505 -0.018656088 1.6740136e-08 -4.197665e-09 -1.1379208e-08 -0.32978988 -5.1346083e-09
-0.5118874 0.768543 -1.5793046e-09 4.4185077e-07 -1.0091864 0.007523291 0.57951474 0.00025204243
0.21725507 0.4872262 -0.09070849 1.2229982e-08 -0.8922161 -9.833737e-09 0.44528592 -0.045102865
-2.080242e-08 -1.42235725e-08 -0.0008429689 7.0249024e-07 -1.936389e-07 -0.77602464 9.4777214e-11 0.29139763
-0.14779873 -0.000110977955 -0.3902501 6.784289e-10 -2.3858131e-08 3.6786882e-09 0.7235715 5.0274607e-09
-5.194914e-06 4.779759e-07 8.9035375e-09 -5.086355e-10 -2.832273e-07 2.101582e-06 6.9971907e-07 7.551243e-10
-5.3157356e-07 -1.4319793e-06 2.356851e-06 -1.3292695e-08 -9.503865e-06 5.4592744e-09 -2.8331758e-07 5.4393666e-08
6.9227435e-10 9.862698e-10 1.7658104e-08 1.106228e-09 -1.08080975e-08 9.035109e-07 3.3763174e-09 1.4750851e-06
-3.9517677e-06 1.5178514e-08 -9.499392e-06 5.7247695e-09 2.6582502e-08 -6.9744646e-09 1.19007524e-07 -1.3846472e-09
0.24001248 0.23937303 -9.155216e-09 -2.530064e-06 -0.66585904 0.2622282 0.51726675 -0.00020312397
-0.101417206 0.9949715 1.0608909 -8.2842766e-10 0.124946095 -7.746085e-09 -0.017099222 0.63691115
1.6207979e-09 -2.1113488e-08 0.00035490748 4.8801667e-07 2.133248e-06 0.075811945 4.364714e-08 -0.49557117
-0.5314257 0.00013065802 -0.71343577 7.2228414e-09 -1.9100797e-09 9.816871e-10 0.67321795 6.213151e-09
-0.2721373 0.23732291 2.6714223e-10 -2.9459493e-06 -1.334967 0.018966854 0.5622955 0.000111525995
-0.14093146 0.6986144 0.7092202 1.4363946e-09 -1.0753452 -1.2999629e-09 0.49581566 -0.2903789
1.0705137e-08 -5.8261165e-09 -0.0011494028 -3.4253756e-06 4.1696016e-08 -1.388877 -8.92763e-09 0.18505768
0.04087337 0.00012978315 -0.22904786 9.755918e-09 1.64622e-08 -2.3499013e-08 0.8221228 9.84032e-09
-0.0014375334 -0.0010423235 -4.4868367e-09 4.9356004e-09 0.0015230277 0.008570701 -0.0020774791 4.2331343e-09
0.0011189183 -0.0014816292 -0.002991184 -2.2256915e-08 -0.00464724 6.620174e-10 0.0023947319 -0.0027196493
-3.91312e-09 8.69911e-09 1.4930502e-07 6.7256267e-09 4.0401824e-09 -8.0330254e-05 1.0035951e-08 0.0019924557
-0.005286232 -9.918956e-09 -0.0028329873 -1.1029482e-08 4.3459214e-09 6.9709e-09 -0.0053604906 3.4946397e-09

convs.0.lin_pos_r.bias f4 [32]
00000000: 84ed 633d 2f74 e13d 56b0 283d 9ab3 ea3c
00000010: f90b cab7 b3f7 c43d bab8 543d 580d e3bc
00000020: 09fa 94bc 7bb2 88bc 15c1 a6bc d93a d1bb
00000030: 5da2 b0bc 92d4 35bd 365a 5ebd f5de 09bd
00000040: 7dcc 31bb a44d b83c 4da6 2abd 9ba4 06bd
00000050: 0002 89bd d009 8abc 7e12 a2bb fe0d fe3d
00000060: dd78 80bb fdc1 433d 0e71 f0b7 745d d7bd
00000070: e6e1 3bb6 0583 3ebd 233d adba 0e4b 793e
0.055646434 0.110084884 0.041183792 0.028650094 -2.4085852e-05 0.096175574 0.05193398 -0.027716324
-0.018185632 -0.016686669 -0.02035574 -0.006385189 -0.021561796 -0.044392176 -0.05428525 -0.033659894
-0.002712994 0.02249796 -0.041662503 -0.032871824 -0.066898346 -0.016850382 -0.004946052 0.124050125
-0.003920658 0.047792424 -2.8662875e-05 -0.10515872 -2.7996662e-06 -0.04651167 -0.0013217073 0.24345037

convs.0.lin_neg_l.weight f4 [32, 64]
00000000: 5bb6 e630 849e 7932 96f5 6832 15af d430
00000010: 3c9e 9131 2c74 4d30 b5ff 18b2 8ca1 37b2
00000020: 2fed 0830 a892 01b1 1643 4e31 dc93 57b2
00000030: c091 4fb1 4f19 872e fdb9 e131 18a6 3c31
00000040: 44af 0bb1 b144 fb31 e16f 2cb1 ba6a 4831
00000050: a472 7232 46ed adb1 718b 82b1 39d1 5032
00000060: 8093 86b2 6975 c131 43fc 64b2 9d00 d6b1
00000070: 70ad a2af f539 9cb1 2863 96b1 fb48 82b0
00000080: cca4 8831 319a 10b2 2aef 0cb0 ade2 e131
00000090: fe48 ad31 b314 0db0 2c8b 9f31 a97a 31b1
000000a0: c346 00b1 7040 a1b1 df3c 65b2 4be1 ab31
000000b0: 062b 88b1 92e5 00b1 4d3f 9e31 cf61 b4b1
000000c0: 46a4 50b2 aa73 e830 ebf7 5cb1 30db 8531
000000d0: abde 0131 d840 f4b1 70d9 3e32 d8d9 b7b1
000000e0: 0ebb 8132 7af8 95af 4c1c 67b1 97d7 f3b1
000000f0: 5b22 2532 a567 e1b1 af39 c1b1 55e9 09b2
00000100: 6eb4 07b2 e3d8 8ab9 4008 23b7 ecc0 0e38
00000110: 6d06 34b1 f7bf e8b1 cde0 4632 b538 c531
00000120: 834a 50b9 71b5 8437 59d1 2431 bc1f 8437
00000130: cb9a 19b2 d714 4038 0bcd 09b9 47d1 bdb0
00000140: 8a70 8834 c0f0 b9ad 0078 c7b0 940b 4238
00000150: d8f9 e4b1 68b7 3232 4eed d437 72aa 2f38
00000160: 7e13 4d30 701d 9031 dcfb 5ab9 eef8 2738
00000170: 9b5d 0d32 0639 1732 2996 cbb8 6076 cfac
00000180: bbfb 54b9 660b 1538 705e 6eb2 c3a9 7632
00000190: 2c10 9c38 3411 2b38 1657 0438 1ff9 8932
000001a0: dcce 3d38 5e5c 0938 b526 4f38 3a7e 09b2
000001b0: e0f6 a137 4956 98b1 568c 3238 7968 d137
000001c0: d0ac c330 9d14 35b2 c86f 1eb1 610d 432f
000001d0: f03a 78b2 710d 9cb5 9c92 5a31 11a3 c1b7
000001e0: 9e7b 77b9 e124 25b2 56dd 84b9 1539 20ae
000001f0: 311e b7b1 db91 b82f f74d f337 a560 d131
00000200: 24a4 c4b2 79d0 4fbd f08c 2bbb e17e 6ebd
00000210: 685f 023b 6a14 1832 9280 88bc 69c5 6d33
00000220: 2c2b ccb1 6807 ac3b ee37 27b0 a6f1 12bd
00000230: a44f b032 d8fa c431 f2d2 5a3c 35e3 21b2
00000240: c2db 2832 d027 5332 381d 0a39 3f79 aebc
00000250: 6b1e 3b30 4728 dc31 33e4 603d 458c 7c3b
00000260: 57ac ef30 9b0d 7932 ceb5 1ebd f544 473d
00000270: f693 c93b 1f7a f3b1 565f 423c c9a0 7731
00000280: 5cbf 20b2 f30c ee3c 4adb e431 36d7 0532
00000290: 961d 4532 9d10 0132 3950 ccbb c070 ebaf
000002a0: 61ad 1bbd 8a6c 273d 8425 e3bc aa94 2eb9
000002b0: 2924 00bc 1704 b13c 9c8f 073d 42a6 06bd
000002c0: a567 90bc 3de8 96b2 977b e430 5561 5a31
000002d0: be12 19bc 7cde b8bc 32bd 5db2 a042 2d3d
000002e0: e3de 8032 3435 4db1 8670 03b2 a52e 83bc
000002f0: 450c a7b3 7251 85b3 b7a8 01bd 6e6f 4532
00000300: ac26 57b2 80ac 2f3d 09d8 0ebd 2f51 203e
00000310: 541f d43a da97 5f33 0d8f 653a 8263 1f31
00000320: 51d3 7b3d c4e6 383a a0b0 1db2 6d35 e93b
00000330: 1825 a1b4 ad39 953c 47eb 9f3d b904 8832
00000340: 9463 803a c21a 5632 97dd 66b4 a45f a63d
00000350: 87f4 f5b5 a1b6 cdb1 b120 983d 0f4c 693d
00000360: 03fd c8b8 624f 7232 d4f8 963d 9084 a83d
00000370: 7735 383c 49ec cd37 37b9 0fbd 343a 023c
00000380: 252a 133c 43dd 133c 71e4 d030 86ce b635
00000390: c36f cfbd 623c 93bd 86c3 e03d 0489 28b9
000003a0: 2dc8 993d 363e 87bc 5c9f 4c3d e659 b833
000003b0: 961b eabd fc99 73bb 860d fb3d c072 783b
000003c0: 9e7a fbb9 b660 f832 20cf 223a 8fb9 5c35
000003d0: 5c6d 713c 783e 19bd 952e 77b2 b992 ef3d
000003e0: 632b ad3d 401d 90b8 8719 353d 1f77 05bd
000003f0: cb6c 54b2 ff84 23b2 f2a9 633d 42e8 c0b2
1.6786531e-09 1.452975e-08 1.3560017e-08 1.5474791e-09 4.2380446e-09 7.4743656e-10 -8.9057055e-09 -1.06887335e-08
4.981357e-10 -1.8855335e-09 3.001508e-09 -1.2548266e-08 -3.0205314e-09 6.143585e-11 6.5695063e-09 2.7452014e-09
-2.032679e-09 7.3128708e-09 -2.509289e-09 2.9164497e-09 1.411232e-08 -5.0619375e-09 -3.7993506e-09 1.2154765e-08
-1.5666728e-08 5.6303873e-09 -1.3328704e-08 -6.2282894e-09 -2.9590863e-10 -4.5467865e-09 -4.3768473e-09 -9.479487e-10
3.976856e-09 -8.416962e-09 -5.1271576e-10 6.574132e-09 5.043261e-09 -5.1324917e-10 4.643331e-09 -2.5826614e-09
-1.8666675e-09 -4.6930424e-09 -1.3343395e-08 5.002368e-09 -3.963012e-09 -1.8756947e-09 4.6056017e-09 -5.249809e-09
-1.2144545e-08 1.6913095e-09 -3.2155139e-09 3.895728e-09 1.8898543e-09 -7.1087065e-09 1.1108895e-08 -5.350767e-09
1.510264e-08 -2.7279495e-10 -3.363101e-09 -7.0967405e-09 9.612076e-09 -6.560145e-09 -5.623597e-09 -8.027503e-09
-7.899059e-09 -0.00026483004 -9.717478e-06 3.403511e-05 -2.61971e-09 -6.7739125e-09 1.1576231e-08 5.7399014e-09
-0.00019864184 1.5820116e-05 2.3984141e-09 1.5750404e-05 -8.940968e-09 4.5795776e-05 -0.00013141723 -1.381104e-09
2.5413857e-07 -2.113898e-11 -1.4513262e-09 4.6263987e-05 -6.6640773e-09 1.0402665e-08 2.5382873e-05 4.188199e-05
7.4606266e-10 4.1942982e-09 -0.00020883925 4.0047737e-05 8.228564e-09 8.802322e-09 -9.707764e-05 -5.896436e-12
-0.00020311672 3.5534984e-05 -1.3874896e-08 1.4357684e-08 7.441672e-05 4.07856e-05 3.1552358e-05 1.6062186e-08
4.5253764e-05 3.274937e-05 4.9388695e-05 -8.00315e-09 1.9307656e-05 -4.4335917e-09 4.2569205e-05 2.496339e-05
1.4237234e-09 -1.05402735e-08 -2.3055566e-09 1.77399e-10 -1.4448901e-08 -1.1626818e-06 3.1806513e-09 -2.3083327e-05
-0.00023601807 -9.612649e-09 -0.0002534191 -3.6430487e-11 -5.3294333e-09 3.3573042e-10 2.9004163e-05 6.0936878e-09
-2.2892046e-08 -0.050735924 -0.0026176535 -0.05822647 0.0019893292 8.852206e-09 -0.01666287 5.5360406e-08
-5.9420895e-09 0.0052499063 -6.0833727e-10 -0.035874985 2.0525313e-08 5.7328684e-09 0.013355957 -9.423094e-09
9.828854e-09 1.2290869e-08 0.0001317159 -0.021298049 6.807343e-10 6.4074217e-09 0.054905128 0.0038535756
1.7438521e-09 1.4496801e-08 -0.0387476 0.048649747 0.0061516715 -7.0861144e-09 0.01186355 3.6034626e-09
-9.356736e-09 0.029058909 6.6606036e-09 7.790552e-09 1.1473636e-08 7.512566e-09 -0.006235149 -4.2826365e-10
-0.038007144 0.040874995 -0.02772785 -0.00016649315 -0.007821121 0.021608396 0.03309594 -0.0328734
-0.017627547 -1.7567908e-08 1.662431e-09 3.1778502e-09 -0.009342847 -0.022567026 -1.2906911e-08 0.042299867
1.5002518e-08 -2.9861669e-09 -7.6507884e-09 -0.016013453 -7.778775e-08 -6.20811e-08 -0.03165504 1.1492245e-08
-1.252344e-08 0.04288912 -0.034873996 0.15655969 0.0016183653 5.205934e-08 0.0008756973 2.3194109e-09
0.061480824 0.000705343 -9.178763e-09 0.0071169646 -3.0015576e-07 0.018215979 0.078085475 1.5834631e-08
0.0009795302 1.24625235e-08 -2.1501033e-07 0.08123711 -1.8325089e-06 -5.9870477e-09 0.074281104 0.0569573
-9.58387e-05 1.41043035e-08 0.07371679 0.08228409 0.011243216 2.4547933e-05 -0.035088744 0.007948447
0.008982216 0.009024921 1.5198919e-09 1.3620163e-06 -0.10128739 -0.071892515 0.10974793 -0.00016072771
0.075088836 -0.016509157 0.049956664 8.58452e-08 -0.11431043 -0.003717064 0.12258439 0.0037910193
-0.00047965808 2.8914979e-08 0.00062106736 8.222641e-07 0.014735546 -0.03741309 -1.4387884e-08 0.11697907
0.08455541 -6.871903e-05 0.044213798 -0.032584306 -1.2364761e-08 -9.5180885e-09 0.055581994 -2.245736e-08
