bitcoin-alpha/models/bitcoin-alpha-train-5.pt (torch, 64475 bytes, 14 tensors)

conv1.lin_pos_l.weight f4 [32, 64]
000000 ef da 4b 3e 9a 90 c4 3d 6a 59 84 be 0d 7d 88 3e
       0.19907735 0.09597893 -0.25849468 0.26657906
000010 48 ec 36 bd e8 be 75 bd ec 8d 9d 3c bb 87 71 bd
       -0.04465893 -0.059996516 0.019232713 -0.058967333
000020 90 63 cc 3d 79 27 c6 bc 76 d8 25 3e a0 28 54 bd
       0.099799275 -0.024188744 0.16195855 -0.051796556
000030 e2 bc a6 3c b2 13 d3 3d 6f cb 31 bd ed 83 42 bc
       0.020353738 0.10306491 -0.0434069 -0.011872274
000040 a2 38 f7 bd 4d 29 02 3e a1 cb 22 3c 9c 20 a5 3d
       -0.12071349 0.12711067 0.009936244 0.0806286
000050 41 84 34 be 81 dd 63 3c 10 da cb bd 0b d0 35 3d
       -0.17628576 0.013907791 -0.099537015 0.04438786
000060 6a cf 12 3a 38 8f c2 3c 69 f9 88 3c 7a e5 a5 bd
       0.0005600365 0.023749933 0.01672049 -0.0810041
000070 8f 65 1e 3c 3e 33 78 3b 4c 33 67 3d 74 bf 93 bd
       0.009667768 0.003787234 0.056445405 -0.07214251
000080 9a 7f 02 bd 5a 92 af bd 1f c8 45 bc ee d2 66 bd
       -0.03185997 -0.08572836 -0.012071638 -0.056353502
000090 09 30 bf bd ed 4d 32 3d 0f fd cc 3c 9a c0 5d 3d
       -0.09335334 0.043531347 0.025023011 0.054138757
0000a0 70 14 b3 bd ee 5c cf 3d fd c8 1b bd 4c 17 04 3e
       -0.087441325 0.10125147 -0.038033474 0.12899512
0000b0 37 a9 85 bd 97 9a c3 bd 5f 86 ea 3d 51 d9 2f be
       -0.06526416 -0.0955097 0.114514105 -0.17172743
0000c0 26 37 e4 bd 29 98 f3 3a 8d cf ac 3b 92 7c a5 3c
       -0.11143331 0.0018584776 0.0052737654 0.020201001
0000d0 c3 fa d9 3c d8 3d b5 bd cf d5 df bc 57 4f 93 3d
       0.02660883 -0.088496864 -0.027323632 0.07192867
0000e0 eb cf cc bd 9e 4f 53 3d c2 9e 77 3d 63 28 a4 bd
       -0.10000595 0.0515896 0.060454138 -0.08015516
0000f0 b6 29 0a bd 00 67 b4 3d f3 d5 aa 3d 22 a0 24 be
       -0.033731185 0.08808708 0.08341589 -0.16076711
000100 f7 5d b5 be 0a f4 bc 3e f0 30 8d 3d cf 39 af bd
       -0.35423252 0.36904937 0.068941 -0.08555948
000110 c8 6e 13 3e 55 01 54 be ed 46 ba 3c d1 80 39 3d
       0.14397728 -0.20703633 0.022738898 0.045288865
000120 3d 98 2d 3e 33 97 ad 3d 7f c4 f8 3d a1 a1 59 bd
       0.16952606 0.084761046 0.12146854 -0.053132657
000130 90 cf cd bd c5 6b 95 3e 4d 7b 80 3d b0 04 86 be
       -0.10049355 0.29183784 0.06273518 -0.2617545
000140 ee ad e4 bd 79 86 a6 3e c6 6c 70 be ef 34 2b be
       -0.11165987 0.3252447 -0.23478994 -0.16719411
000150 27 83 3e bd be ae 5b be d2 c8 8b bd 35 0a 04 be
       -0.046511795 -0.21453378 -0.06825413 -0.12894519
000160 ac 0d 64 bb ec 62 97 3d b3 aa 82 3c 10 d0 7d 3e
       -0.0034798188 0.07391915 0.015950536 0.24786401
000170 56 4c de bd 6f bc 80 3c 7e b3 4a 3e 14 2b c9 3d
       -0.10854404 0.015714852 0.19795033 0.098226696
000180 dd ce bc 3d ee 63 29 be cb f3 18 3c 3c 83 c2 bc
       0.092191435 -0.16542026 0.0093354685 -0.023744218
000190 4e ed 30 3e fc 43 ca be 88 d9 b1 3d 51 db 39 3d
       0.17278025 -0.39504993 0.08684069 0.045375172
0001a0 50 f0 7a bd 62 8b a5 3d 73 36 e5 bd a2 0a c2 bd
       -0.061264336 0.08083226 -0.11192026 -0.09474684
0001b0 97 15 f7 3d 4d 9d c5 39 c7 12 82 bd 85 a1 71 3e
       0.12064665 0.00037691966 -0.06351238 0.23596771
0001c0 ff 7c ad 3d 35 c5 43 bd ab 76 d7 bd 63 17 c9 bc
       0.08471107 -0.047795493 -0.10520681 -0.024547284
0001d0 c0 2a e3 3c 78 56 3b bd 33 bf ca bc c3 3b 48 bb
       0.027730346 -0.04573676 -0.024749374 -0.00305532
0001e0 73 4d 66 3e 1e 91 e8 bc 2e ea a2 be 80 30 41 3e
       0.22490482 -0.02838951 -0.3181929 0.18866158
0001f0 40 66 16 3c 2d df a9 3c a0 6b 24 3e 42 90 20 3d
       0.009179652 0.020736301 0.1605668 0.039200075
000200 a1 fd 39 bd b4 8f 8d 3e c6 ae a9 bd aa 96 16 3d
       -0.045407895 0.276487 -0.082852885 0.03676478
000210 ec 38 5f bd 33 85 63 be c0 43 0f 3d 77 0f 60 bd
       -0.054497644 -0.2221878 0.03497672 -0.05470225
000220 4f ab 13 be 65 96 cf bc 31 75 67 bc 0f f6 e8 bc
       -0.14420818 -0.025340268 -0.014127062 -0.028437642
000230 58 f3 f4 3a a7 7d 90 3d ec 52 5d bd 47 63 c5 bd
       0.0018688245 0.07055216 -0.05403416 -0.09638076
000240 cb fc 9d bd 43 c2 2c 3d 9f fe a1 3c 2c b4 91 bc
       -0.07714232 0.04217745 0.019774733 -0.017786108
000250 b2 bf 7a bd c9 20 e3 bd 07 d0 c7 3b 5b 2b 45 bd
       -0.06121797 -0.11090238 0.006097797 -0.04813705
000260 23 22 ab bd 04 86 25 3e 33 0a 05 3e 12 64 95 bd
       -0.083561204 0.16164404 0.12992172 -0.072944775
000270 56 3d 19 bd e9 76 33 3d 1e 61 83 3c 16 fc 02 3d
       -0.03741201 0.043814573 0.01603752 0.03197869
000280 73 03 37 be e1 44 9e bd 97 bb 62 3d 17 ff 7a 3d
       -0.1787241 -0.07727981 0.05535468 0.06127843
000290 56 04 38 be c9 6a f2 3c c9 21 d8 3d 30 5d fc 3d
       -0.17970404 0.029591935 0.10553319 0.123224616
0002a0 00 4f 67 bc dd 1c 1c 3c 98 9a b3 3d c5 14 0b 3d
       -0.014117956 0.009528366 0.08769721 0.033955354
0002b0 07 60 ea bc c7 d4 a6 bc 9e ea d2 3c 5e 0b de 3d
       -0.028610243 -0.020365132 0.02574664 0.10842012
0002c0 c1 61 1f bc 81 44 a9 3b 5b ae 0a be b3 6e 15 be
       -0.009727896 0.005165637 -0.13543074 -0.1459301
0002d0 a0 82 67 be 49 50 40 be d8 7c a4 3d 71 c3 af 3d
       -0.22608423 -0.18780626 0.080316246 0.08582199
0002e0 4c 0d 95 3d 05 29 c5 bb d0 07 27 3e e1 af d8 bc
       0.07277927 -0.006016853 0.16311574 -0.026451053
0002f0 00 8d 06 3d 12 37 84 bd 9a 23 a5 3d 7a ea c0 3c
       0.03284931 -0.06455816 0.08063431 0.023549307
000300 fb ef ff b1 d1 b9 f5 31 6f f9 7a 32 5b 61 c6 b1
       -7.4487594e-09 7.1515633e-09 1.460863e-08 -5.7736265e-09
000310 98 42 92 32 47 44 a8 b1 fe 9c 12 32 9b 83 6f 31
       1.702692e-08 -4.8972058e-09 8.534014e-09 3.4853886e-09
000320 be 30 10 b1 c9 25 88 31 d0 6c 86 30 da 00 cb 31
       -2.0982465e-09 3.9624166e-09 9.78071e-10 5.9081744e-09
000330 ee f2 96 b1 80 f6 39 b1 f2 5c 32 31 6e 1c 45 31
       -4.3931925e-09 -2.7061162e-09 2.5955242e-09 2.8683433e-09
000340 44 9c 9d b1 3b ba b4 30 9d 31 a4 31 b4 a0 57 ae
       -4.5870667e-09 1.3149654e-09 4.7786686e-09 -4.9028073e-11
000350 1e be fc 31 78 c5 b1 b0 a7 92 78 b2 6e 39 1a 30
       7.355779e-09 -1.2934569e-09 -1.4468845e-08 5.6106486e-10
000360 59 82 7f b1 c3 65 be 2f 93 a9 85 32 55 6e 4b 32
       -3.7181478e-09 3.4633105e-10 1.5560351e-08 1.1841242e-08
000370 e1 48 3b b1 f6 94 9f b2 fd 42 fb b0 e3 f7 5f b1
       -2.7253508e-09 -1.8577776e-08 -1.8281693e-09 -3.2591678e-09
000380 c7 74 f1 30 ed e8 05 b2 33 da 18 b1 48 ac 8f b1
       1.7568248e-09 -7.79458e-09 -2.2242943e-09 -4.181434e-09
000390 cd 03 82 b0 81 53 bb 31 0a d2 ef 31 47 dd fe b1
       -9.459825e-10 5.4519096e-09 6.979694e-09 -7.4175293e-09
0003a0 97 96 d7 31 da 37 ef 31 42 8b 49 31 95 cd 12 2e
       6.2744436e-09 6.962165e-09 2.9328509e-09 3.337915e-11
0003b0 16 6b 02 32 dd 7a 5f b1 25 3e 9b b0 78 04 c1 30
       7.591344e-09 -3.252061e-09 -1.1295397e-09 1.4043868e-09
0003c0 d9 f2 12 b1 04 bd 8e 30 79 0c 24 b2 d7 40 d1 31
       -2.138384e-09 1.0385581e-09 -9.548892e-09 6.090072e-09
0003d0 2c 74 c1 31 7d 7e 81 b1 fd 8c 4c b1 7c ac 6b b2
       5.6302465e-09 -3.768774e-09 -2.976605e-09 -1.3718019e-08
0003e0 19 3f c2 b0 9c 80 ff 30 e9 97 45 32 24 9e 45 2f
       -1.4133291e-09 1.8590245e-09 1.150145e-08 1.7973228e-10
0003f0 41 38 12 b2 82 44 6d 31 35 90 27 b1 85 d5 95 32
       -8.511109e-09 3.4526981e-09 -2.438367e-09 1.744298e-08

conv1.lin_pos_r.weight f4 [32, 64]
000000 89 81 c5 bd 41 6f 21 bc ba 94 2b 3d 44 3c e0 3c
       -0.096438475 -0.009853185 0.041889884 0.027372487
000010 80 2d 9f 3d 71 44 bf bd 3d f2 5e 3d ff 8f 82 3c
       0.0777235 -0.09339226 0.054430235 0.015937803
000020 9c c0 44 bb cf 04 9e 3d 41 4b 9d 3d be 4e 85 bb
       -0.003002203 0.07715761 0.07680369 -0.0040682247
000030 61 ae 3d bd e2 7c 9a bc 4d c3 2d bc e8 ae 4f bc
       -0.04630888 -0.018858377 -0.010605645 -0.012675978
000040 93 05 04 3d 55 ea 94 3d 94 ae 70 bd 66 f1 17 3b
       0.03223188 0.07271258 -0.05876024 0.0023184656
000050 3b 52 f7 bc 8c 46 6f bd 5f c6 d9 3c 00 c2 d4 bb
       -0.030190578 -0.058416888 0.026583849 -0.006492853
000060 d7 5e 44 3d 31 bb 1a 3d 6b ab d0 3d 12 ff de bc
       0.04794201 0.037776176 0.101889454 -0.027221236
000070 1e bb 73 3b dd 72 87 3b ef ec 22 bc d4 1a c8 3c
       0.0037190388 0.004133566 -0.009944185 0.024426855
000080 e6 fc 35 3d a1 91 45 bd b5 d0 54 bd 41 7c 80 bd
       0.044430636 -0.048234586 -0.05195685 -0.062736996
000090 a7 9d 4d 3d d7 ca 83 3d e0 69 aa bc 00 39 12 bc
       0.050199177 0.06435173 -0.020802438 -0.008924723
0000a0 a2 b6 a8 3d ce 8e a9 bd 14 4b 09 be d9 55 c9 3d
       0.082379594 -0.08279191 -0.13407546 0.09830827
0000b0 4a e0 c6 3d 3c 66 0f bd be a1 b8 3c 7d 43 81 bd
       0.097107485 -0.035009608 0.022538062 -0.063117005
0000c0 c2 4d 04 bd 3e fd a3 3c 36 9d 80 3d 21 82 69 3c
       -0.032300718 0.020018216 0.062799856 0.014252217
0000d0 78 1e 62 bd 37 b5 6c bd cc e0 3e bb 93 9a 88 bb
       -0.05520484 -0.057790007 -0.0029125689 -0.0041688173
0000e0 90 d0 95 3d 19 b2 cf bb 47 ff 35 3b 9c cc 0c bd
       0.07315171 -0.0063383696 0.0027770565 -0.03437482
0000f0 ae f1 b3 bd 63 97 ce bd f9 fd 44 3d 4e 6a 86 3d
       -0.08786331 -0.100874685 0.04809377 0.06563245
000100 49 cd 04 bf af 8f 07 3d 0c da 2c bd ab e0 76 bd
       -0.5187574 0.03309601 -0.042200133 -0.060272854
000110 df 9a e4 3c 09 f5 9d be 5d 9f 2f 3d 2f be 3a 3d
       0.02790588 -0.3085101 0.04287659 0.04559153
000120 9b 56 f7 3d 57 ad 5c 3d e1 1c 8a 3d 07 b3 f1 3d
       0.120770656 0.053876247 0.067437895 0.11801725
000130 cb 2d bd 3d df 75 9a bd 2d 4a 09 3e 21 74 32 be
       0.0923725 -0.075420134 0.13407202 -0.17427112
000140 52 2e 81 3d a6 46 bf 3d 8e 67 92 be 6c a6 aa bd
       0.06307663 0.09339647 -0.2859463 -0.08332524
000150 05 7f f0 bc ce 95 bd 3d 88 c7 43 bc 01 45 9c 3c
       -0.029357443 0.092570886 -0.011949427 0.019075872
000160 19 4f 8c be 86 ab 71 bd 58 61 6c 3d 3b db 36 3e
       -0.27404097 -0.059001468 0.05771002 0.17857067
000170 7e 73 c6 3d d4 8d 61 be 7a db a0 bc 30 6f 5b 3d
       0.09689997 -0.2202676 -0.019635905 0.053572834
000180 f1 e3 89 3c 03 2d 16 be d8 fe f7 bd 2f d2 65 3d
       0.016832324 -0.14665608 -0.121091545 0.05610865
000190 83 d1 2a 3d ec ba c8 be 4d 04 52 3d 6a af 27 bd
       0.041703712 -0.3920511 0.051273633 -0.040938772
0001a0 57 42 9f bd 5e 45 81 3d b9 67 ed bc ec 98 f7 bd
       -0.07776325 0.06312059 -0.028980123 -0.120897144
0001b0 51 f5 35 bd e8 0c 87 3c f4 9f 03 bd 29 bf 5b 3d
       -0.044423405 0.016485646 -0.032134965 0.0536491
0001c0 ce 12 8b 3d 6f e2 c7 3c 9a 0b 0f bd 5d 64 36 3e
       0.06790696 0.024399964 -0.034923173 0.17811723
0001d0 59 b2 e6 bc 85 ac ff bc 40 53 38 be c8 7c 27 3e
       -0.028161215 -0.031210193 -0.18000507 0.16356194
0001e0 8a e1 95 3d 88 e8 80 bc d7 81 ee bc 91 c9 8b 3e
       0.07318409 -0.01573588 -0.029114647 0.2730222
0001f0 0f ec d5 3c 60 0f be 3d f8 74 6a 3d 04 21 a9 bd
       0.026113538 0.09280276 0.057240456 -0.0825825
000200 c1 49 29 be 6a 62 a1 3d 8e 38 8d 3c 53 48 52 3c
       -0.16532041 0.07880099 0.017238881 0.012834626
000210 d5 96 62 3d bb a4 7b bd 96 3a b0 bd 28 cb 81 3c
       0.055319626 -0.061436396 -0.086049244 0.015843943
000220 27 64 2f be e9 f6 45 3e aa 6f 2b bc 04 75 81 bd
       -0.17128049 0.1933247 -0.0104636345 -0.06321147
000230 1c 7a 91 3e df 7d b4 3d d4 52 e2 bd 34 6e 06 3d
       0.28413475 0.088130705 -0.110509545 0.03281994
000240 9b 7b ed bc 7b 85 d1 bd c0 c9 ff 3c c0 4d 07 3e
       -0.028989604 -0.102305375 0.031224132 0.13213253
000250 6b 8d 95 bd c4 9e a3 bd b9 19 25 3c c6 c7 c0 3c
       -0.07302364 -0.079892665 0.010076934 0.02353276
000260 ae 55 58 be 04 11 fb bd 4e 57 51 bb eb 46 dc 3c
       -0.21126434 -0.12259105 -0.0031942907 0.026889285
000270 c2 9c 39 3e 59 fc 0c 3e 2e a2 7b 3c 8a 5b b2 3d
       0.18126205 0.13768138 0.015358491 0.08708866
000280 df 0e 26 3c 95 5f be bc ff ce 7f be 30 5e ae 3d
       0.0101353815 -0.023238936 -0.24981306 0.085140586
000290 09 db 81 be b8 d4 9b bb 72 6e 31 3e 03 42 71 be
       -0.25362423 -0.0047555827 0.17327288 -0.23560338
0002a0 55 86 0d 3e d9 ee 45 3e bc d0 97 3e 49 df b8 bd
       0.13820775 0.19329394 0.2965144 -0.09026963
0002b0 cd 4f 2e 3e 36 10 d2 3d 44 b9 64 3e 43 88 89 3e
       0.17022629 0.10256998 0.22336298 0.26861772
0002c0 a2 f2 26 be 1a ff 8b bc 6a d9 f5 bd b6 21 05 be
       -0.16303495 -0.017089415 -0.12004359 -0.13001141
0002d0 c9 da 5a be 68 c4 96 be 49 4b ef 3a 73 bc 8d be
       -0.21372522 -0.2944672 0.001825669 -0.27682838
0002e0 12 79 f2 bc 21 59 df 3c 6d 29 44 3d be 74 a0 bd
       -0.029598746 0.02726418 0.04789107 -0.07834767
0002f0 c7 ee 19 bd 3e 40 83 bd 84 1d af 3d f5 fa db bc
       -0.03758123 -0.064087376 0.085505515 -0.026853064
000300 71 21 12 b3 59 19 20 32 72 a7 8d b9 f7 1b 4f 39
       -3.402369e-08 9.318989e-09 -0.00027018372 0.00019751476
000310 a3 38 c0 b2 f2 74 af b2 fc a6 22 33 3d e7 9e b2
       -2.2377497e-08 -2.0425862e-08 3.7870436e-08 -1.8498776e-08
000320 37 18 48 31 21 66 3d b2 88 60 75 32 ca fa 85 32
       2.9117595e-09 -1.1024469e-08 1.4282826e-08 1.5597283e-08
000330 6c 8d 95 b2 93 ed ba b1 30 47 f6 32 d8 ac 85 b0
       -1.7410194e-08 -5.4403215e-09 2.8670541e-08 -9.726149e-10
000340 4e 5c 55 b1 24 86 6c b2 81 76 19 b2 b1 b7 4a b2
       -3.1048049e-09 -1.3767508e-08 -8.932717e-09 -1.1799714e-08
000350 3e 17 ae 32 cd 96 54 32 23 c6 8b b2 26 d2 23 32
       2.0266835e-08 1.2374312e-08 -1.6271832e-08 9.535631e-09
000360 e9 bd 3c 32 41 73 a5 31 dd 20 2a b2 53 48 3e 32
       1.0986221e-08 4.815235e-09 -9.902775e-09 1.10759e-08
000370 3a 85 87 31 c0 2d 05 30 56 4a f7 b1 83 5a a7 b2
       3.944163e-09 4.8450133e-10 -7.197097e-09 -1.9482519e-08
000380 c1 5e 5f b2 7b 87 a0 31 63 e0 8a b1 41 08 07 32
       -1.3001853e-08 4.672015e-09 -4.0418384e-09 7.859911e-09
000390 7e 42 5d 32 07 43 a2 b1 d4 56 8b b1 c6 24 e2 b1
       1.2879012e-08 -4.7224407e-09 -4.0553036e-09 -6.5816463e-09
0003a0 7b 15 14 b2 6a 7f 00 b1 67 ce 19 b2 fe 9e e5 31
       -8.619618e-09 -1.8698878e-09 -8.952703e-09 6.6828525e-09
0003b0 33 19 81 b1 f9 84 4c 31 43 45 b8 b1 12 5e 76 b2
       -3.757259e-09 2.9761493e-09 -5.362979e-09 -1.4340474e-08
0003c0 71 bd 0a b2 a7 ac 8d 31 92 85 46 b1 16 cb dc b2
       -8.075731e-09 4.1232684e-09 -2.8888718e-09 -2.5703724e-08
0003d0 6d ce 85 31 ad 6a 55 b2 7e d7 b0 b1 d3 16 ce 31
       3.8942773e-09 -1.2422487e-08 -5.146773e-09 5.997984e-09
0003e0 c9 c3 85 32 2c e1 a1 32 34 33 41 32 f7 a0 42 31
       1.557227e-08 1.8845263e-08 1.1245721e-08 2.8322213e-09
0003f0 74 80 2e b2 00 83 c5 31 4e e8 d5 30 50 0d ff b1
       -1.015734e-08 5.7483476e-09 1.5563815e-09 -7.4229902e-09

conv1.lin_pos_r.bias f4 [32]
000000 86 ea ca bb bd 71 af 3d 74 9c ab 3c 2c de cf bb
       -0.006192508 0.08566616 0.020948626 -0.0063436236
000010 2e dc d0 3d 9f a6 8c 3d 1d 42 12 3d 81 16 1a ba
       0.10198246 0.06867718 0.03570758 -0.0005877987
000020 f8 65 13 3e 4a 3e 71 3d 05 28 cf 3c e9 c6 57 bc
       0.14394367 0.058897294 0.025287637 -0.0131699825
000030 3d 39 34 3c 14 9f 18 3d 4b 87 60 3d aa 0f 24 3d
       0.010999975 0.037261084 0.054816525 0.040054
000040 9e 72 3f ba 48 f6 0a bd e6 c2 f6 3b dc 4d 4c 35
       -0.0007303151 -0.03392628 0.007530558 7.610922e-07
000050 f6 d6 13 3d 8d 6c 8e 3d e4 41 19 3d 0f 9f 73 3e
       0.036093675 0.06954298 0.037416354 0.23791145
000060 40 4d 9d b6 e8 32 6e 3c 43 ec 28 bd 6f 56 77 b9
       -4.6879577e-06 0.014538504 -0.04124094 -0.00023587955
000070 be c9 c1 bc 41 e1 93 3b e2 a4 94 3b b0 bf e2 3a
       -0.023655768 0.0045129363 0.004536257 0.0017299559

conv1.lin_neg_l.weight f4 [32, 64]
000000 a5 b3 05 36 9b c4 53 32 86 33 5f 31 79 79 ab b2
       1.9923111e-06 1.2326519e-08 3.2480059e-09 -1.996226e-08
000010 ad 18 03 35 ef 1b 49 37 b1 65 27 b1 33 a4 75 b2
       4.883721e-07 1.1987037e-05 -2.4359503e-09 -1.42982115e-08
000020 4e c8 a6 b3 60 9b 8c 31 ea c3 19 b3 79 11 5c 31
       -7.7664126e-08 4.0922004e-09 -3.580127e-08 3.2024146e-09
000030 d7 e6 92 b2 81 94 8a b5 b6 2e 12 b2 09 0b d7 34
       -1.710161e-08 -1.0325022e-06 -8.508939e-09 4.00549e-07
000040 43 69 5a 32 c1 55 45 b2 e1 d1 2b 32 08 e1 79 32
       1.2713204e-08 -1.1486407e-08 1.0001231e-08 1.4544874e-08
000050 5a 3a 89 32 08 7e ca 31 60 d8 4f 2f eb c3 21 32
       1.5975434e-08 5.893302e-09 1.8903412e-10 9.41598e-09
000060 1d fd 80 b2 1c f9 30 b4 14 eb b7 b2 92 77 94 32
       -1.5016264e-08 -1.6481903e-07 -2.1410905e-08 1.7283842e-08
000070 89 f5 0f b6 37 81 0f 32 3c bc 14 b2 e2 41 8d 32
       -2.145158e-06 8.353076e-09 -8.657533e-09 1.644452e-08
000080 f7 fe b9 b9 7e 05 b1 b1 67 7d 13 32 ad 34 24 30
       -0.00035475913 -5.1520024e-09 8.585039e-09 5.973771e-10
000090 44 de b4 b1 a2 80 0e b1 97 c8 fb 31 42 f7 ef 32
       -5.263958e-09 -2.073684e-09 7.327866e-09 2.7935702e-08
0000a0 19 81 e2 32 ae 9b 8e b1 61 e6 31 b2 ad 82 d9 b2
       2.636857e-08 -4.1504427e-09 -1.0355138e-08 -2.532155e-08
0000b0 b5 f6 ab b1 f9 8b 96 b2 9f 7c 5f 32 0b 47 5a 32
       -5.0048024e-09 -1.752595e-08 1.3008644e-08 1.2705423e-08
0000c0 70 f4 d8 31 5a d7 65 32 5f 69 b0 32 7f 3c a1 30
       6.3142167e-09 1.337852e-08 2.0537014e-08 1.1731486e-09
0000d0 69 06 9f 32 b0 76 0c 2f 70 ef 34 32 11 5f 2e b2
       1.8512951e-08 1.2775092e-10 1.0531821e-08 -1.0149749e-08
0000e0 1a 1b d4 b2 6b b2 0f 30 86 32 4f 32 de 85 a1 32
       -2.4692373e-08 5.2276644e-10 1.20604735e-08 1.8803743e-08
0000f0 73 59 12 b2 2d 1f 08 33 b7 53 82 b2 31 6a 00 b3
       -8.518657e-09 3.169332e-08 -1.5172061e-08 -2.9898903e-08
000100 4b 89 e9 bd 31 24 97 3d df 50 66 3d 16 31 f7 3d
       -0.1140314 0.0737995 0.05622947 0.12069909
000110 cc 6a bc 3d 85 5f 11 3e 50 3c 11 3d 68 14 6c bd
       0.092000574 0.14196594 0.03545791 -0.05763665
000120 63 eb b2 bd 25 81 7b bd d3 7b f1 3d f7 fd 27 bd
       -0.08736303 -0.06140246 0.11791196 -0.041013684
000130 e4 45 06 3e da 8f 98 bd f2 4b 7b be cb f3 00 bd
       0.13112599 -0.074493125 -0.2454069 -0.0314825
000140 eb 58 64 3d 30 0c ba 3c 5b 69 33 bd 8b 9d 92 be
       0.05574886 0.02271089 -0.043801647 -0.2863582
000150 31 4b 6b 3c d9 f6 09 3e 5a 0b e1 3d 87 f9 8b bd
       0.014361189 0.13473071 0.10988493 -0.06834703
000160 55 29 88 3c 91 41 bb 3d 20 04 00 3d 8d 32 ef 3c
       0.016621271 0.09143365 0.031253934 0.02919891
000170 84 d3 07 3e 65 14 53 3e 12 b4 cc 3c 02 22 8b 3d
       0.1326428 0.20613249 0.024988208 0.06793596
000180 c8 a8 f3 bd 8c f8 c2 bd 95 9b ed 3b 1e 64 11 3a
       -0.11897427 -0.09520063 0.007251213 0.00055462297
000190 12 c6 e3 bd e2 2a cc b9 a7 cf c6 bd d4 b5 3c 3e
       -0.11121763 -0.00038941862 -0.09707575 0.18428737
0001a0 c7 d6 ba 3d d3 4e e6 3d 74 e3 78 bd b2 21 8a 3d
       0.09122997 0.11245503 -0.06076379 0.06744708
0001b0 66 9c f2 3d ce b8 aa be 81 9d 57 be bb e7 a4 3d
       0.11846237 -0.3334412 -0.21056177 0.080520116
0001c0 78 59 4a bd 61 64 25 be f6 b0 46 be 2d 08 b9 3d
       -0.04940173 -0.16151573 -0.19403443 0.090347625
0001d0 73 02 15 3e 45 10 9a bd 7d 92 4a 3e c7 d6 21 be
       0.14551716 -0.075226344 0.19782443 -0.15804587
0001e0 88 9c cb bd 1c d2 27 3e 21 09 ac 3d 46 4a 3a bc
       -0.09941965 0.16388744 0.08400179 -0.011370247
0001f0 aa db 06 be 11 67 15 3e 7e 12 82 bc 71 03 cb bd
       -0.13169733 0.14590098 -0.015877958 -0.09912766
000200 53 55 89 3d e0 26 e2 bc a2 ff a8 bd c6 1e a3 bd
       0.067057274 -0.027606428 -0.08251883 -0.07964854
000210 85 9d bd 3e d2 0f b0 be fa 60 e9 bc 0d 05 7a bd
       0.3703424 -0.3438707 -0.028488625 -0.061039973
000220 d0 df d6 be 4b 5e 86 3c 17 43 9a 3d 00 1e f5 bd
       -0.4196763 0.016402384 0.075323276 -0.11968613
000230 16 2c 01 3d 2c d6 93 be ab 1f 5a 3d 9d 5c 04 3d
       0.031536184 -0.28874338 0.053252857 0.032314885
000240 d7 e8 12 3c 54 87 36 bd 69 41 fd bd e6 be 67 bc
       0.008966646 -0.044562653 -0.123659916 -0.014144635
000250 fb b4 80 3e 7b e4 96 3b fb 23 49 be c9 43 cb bd
       0.25138077 0.0046048737 -0.19642632 -0.09925038
000260 20 f1 1b bd f9 9d 7b 3d c5 98 0f be 4f cd 8c 3a
       -0.03807175 0.06142995 -0.1402312 0.0010742339
000270 39 0e ac 3d f6 eb 9f bd ab d7 d9 bd a6 e2 8e 3d
       0.0840115 -0.07808678 -0.106368385 0.069768235
000280 26 59 b5 bc f5 d0 1f 3e 09 32 4d 3e 45 4e 2e 3e
       -0.022137236 0.15607055 0.20038618 0.17022045
000290 cd dd 0c bd 7c c1 1f 3d 78 ce 5d be 43 a9 2f 3e
       -0.034391213 0.03900288 -0.21660793 0.17154412
0002a0 1a 42 1f 3e 9e 89 3c 3d db 9c b5 bd 60 44 9e 3d
       0.1555256 0.04602968 -0.088678084 0.07727885
0002b0 80 0c 89 bd c1 0a 07 3b e2 52 a9 bd 7c 4c 55 be
       -0.06691837 0.0020605775 -0.08267762 -0.20829958
0002c0 6d 5b 54 3e 93 08 ef bb 41 e2 af 3d 48 dd 05 3e
       0.20738001 -0.0072947233 0.085880764 0.13072693
0002d0 b7 e0 16 be 14 53 9b bd ed 07 1b 3e 4f e8 40 bd
       -0.1473416 -0.07584205 0.15139742 -0.047096547
0002e0 5a 8b 5a 3e 30 1c 9b be 5b c0 46 3e 6f 9d d3 bd
       0.21342221 -0.30294943 0.19409315 -0.103327624
0002f0 55 5c a3 3b 23 fb 31 be 46 1e 2a be 7b df 2c be
       0.004985372 -0.17380957 -0.16613111 -0.16882126
000300 18 1b 03 be b4 dd 13 3e 0e cc 9c 3d 78 27 4f 3d
       -0.12803304 0.14440042 0.07656108 0.05057475
000310 81 95 e7 bc 4e 61 a2 bc 71 1a f6 ba 14 77 88 3d
       -0.028269531 -0.01982179 -0.0018776191 0.06663337
000320 96 e7 e9 bd a2 2a c2 3d f3 6b 39 3e e0 fa 0d b9
       -0.11421125 0.09480788 0.18107586 -0.00013540266
000330 97 50 f2 bc 2e ba 14 be af 30 12 be fd 83 e0 bd
       -0.029579444 -0.14524147 -0.14276384 -0.10962675
000340 61 a6 08 3e 09 cf b1 3d b8 60 60 bb d5 61 af bb
       0.13344719 0.08682067 -0.0034237336 -0.0053522387
000350 0f 90 f3 3d 16 c9 e7 3d b2 be f4 3d 19 69 14 be
       0.11892711 0.11317651 0.11950435 -0.14493217
000360 a8 b5 e6 3d f6 4f a2 bd ce ba bb bd 49 26 3d 3d
       0.11265117 -0.079254076 -0.091664895 0.04617909
000370 80 4f 79 bc 81 39 13 3e 1e 72 74 bd c9 8a 45 3e
       -0.015216708 0.14377405 -0.059679143 0.19291224
000380 8b 9c 3a 3d f8 73 7f be 37 4f 4e 3d 5c 81 b8 bd
       0.045559447 -0.24946582 0.050368514 -0.09009048
000390 0d a2 6c bd 0e f7 03 bd 7a 5f b6 bb 4e 91 16 bc
       -0.05777173 -0.03221803 -0.005565581 -0.009189917
0003a0 04 d2 ae bd e9 b0 98 bd 12 c2 b4 bd e4 5b 31 bc
       -0.08536151 -0.07455618 -0.088260785 -0.010825131
0003b0 19 73 00 3d 49 df cf bd 89 e1 23 be 0c 97 12 3e
       0.031359766 -0.1015001 -0.16004004 0.14315432
0003c0 f7 5d 87 bd 77 06 69 bd 02 63 98 bd bf 41 5c 3d
       -0.06609719 -0.05689093 -0.07440759 0.053773638
0003d0 84 96 87 3d 5c 8d a9 bd 7c f3 d8 3d 6a 68 ce bd
       0.066205055 -0.08278915 0.10593316 -0.10078509
0003e0 49 a0 c4 3d f2 ed 65 3d 2b 82 54 3d cf 54 01 3e
       0.096008845 0.056135125 0.05188195 0.12630008
0003f0 78 ec c4 bc f6 f9 0d 3d d1 16 9f bd 2d 75 31 3c
       -0.024038538 0.03466221 -0.07768024 0.01083116

conv1.lin_neg_r.weight f4 [32, 64]
000000 e1 e4 9d ba 11 94 49 b3 6d 8f 5b 32 9c f7 da b1
       -0.0012046361 -4.6933625e-08 1.2780089e-08 -6.372785e-09
000010 ef 79 09 32 16 b7 e2 32 62 86 c2 35 4f 42 81 32
       8.002174e-09 2.639312e-08 1.4493237e-06 1.504773e-08
000020 d8 e3 cc b3 fa 43 12 b2 6d 32 ed 31 75 2c 11 33
       -9.540935e-08 -8.513775e-09 6.9033406e-09 3.3800877e-08
000030 1c 57 97 33 45 cf 1d 33 ae d4 76 32 34 2a 04 39
       7.0473305e-08 3.674292e-08 1.4367442e-08 0.00012604223
000040 67 09 cd 31 cf 97 14 36 37 83 a2 b2 c3 0a 6d 32
       5.967354e-09 2.2142083e-06 -1.8918952e-08 1.3797663e-08
000050 6a b9 a2 33 aa a2 b6 32 86 cb f0 b2 87 15 02 31
       7.5774395e-08 2.126156e-08 -2.8032229e-08 1.8929727e-09
000060 98 13 43 33 ba 43 05 35 ac e0 07 b2 a3 c1 4c 31
       4.5419796e-08 4.9644916e-07 -7.909119e-09 2.9795977e-09
000070 75 d3 b1 32 40 d1 3e 31 c9 77 58 32 8f 71 90 b2
       2.0701671e-08 2.7767584e-09 1.2600091e-08 -1.6815447e-08
000080 ef 32 9e 33 11 ce d9 31 a7 32 b2 b2 6a 9c 97 32
       7.366713e-08 6.3389582e-09 -2.0744961e-08 1.7649842e-08
000090 d3 64 81 32 c6 93 3d 32 b6 7c de 32 5f 7b 2e 33
       1.5063426e-08 1.1034848e-08 2.5900913e-08 4.0624737e-08
0000a0 a5 ed eb b2 bb 14 09 37 18 de d4 b0 04 bf 8b 32
       -2.7465669e-08 8.170663e-06 -1.5488153e-09 1.6268594e-08
0000b0 21 4b 21 b2 23 d3 f3 b1 96 ad 01 31 c5 11 da b2
       -9.388516e-09 -7.0962343e-09 1.8870643e-09 -2.538662e-08
0000c0 4f 78 2a b4 f9 1a 5c 32 f6 29 18 b2 15 fa 10 b1
       -1.5876252e-07 1.2811818e-08 -8.857105e-09 -2.1096913e-09
0000d0 9a 42 e3 b3 8d 90 bd 32 15 e8 34 31 1b 4b ec 32
       -1.0582626e-07 2.206823e-08 2.632537e-09 2.750817e-08
0000e0 0e b3 54 b3 b5 aa 88 33 a9 53 fb 30 09 fc c7 b1
       -4.9522946e-08 6.364045e-08 1.8286431e-09 -5.8203153e-09
0000f0 26 de 88 b2 6e 0f 4c 32 6e 8e 5f 32 16 21 8b b2
       -1.5933505e-08 1.1877871e-08 1.3012693e-08 -1.6196775e-08
000100 f9 08 c2 bd e2 4b 92 bc 54 17 1b 3e 8b 7d 13 be
       -0.09474368 -0.01785845 0.15145618 -0.1440336
000110 ab f0 08 be 98 d0 25 be 1a 2c 94 3d c7 3a 02 bd
       -0.13373058 -0.16192853 0.07234974 -0.031794336
000120 45 25 ad 3e 86 be 69 3e 1b 9b c1 bd 30 52 99 bd
       0.33817497 0.22826585 -0.09453412 -0.07486379
000130 23 58 58 be 51 c1 16 be dc c7 f2 3d fe 19 5d 3c
       -0.21127371 -0.14722182 0.118545264 0.013494967
000140 4a a1 0c bd 98 f2 2a 3e cc 8e 2c bc fc 2f 8a 3d
       -0.034333505 0.16694105 -0.010532092 0.067474335
000150 d9 27 3b 3e ce 01 65 3c df f2 7b bd e8 59 89 bd
       0.1827692 0.013977481 -0.061510917 -0.067066014
000160 c1 d6 8e bc 82 fd ef bd be ac f1 bd e2 cd f4 bd
       -0.017436387 -0.11718275 -0.11800526 -0.119533315
000170 df ea 70 3d 05 e2 aa be bb 7d ec 3d 07 e1 26 3b
       0.05881774 -0.33375564 0.11547419 0.0025463717
000180 ef 7d af bc f9 1b 0e 3c 77 70 b3 3c 9a ff df bd
       -0.021422355 0.008673661 0.021904213 -0.10937424
000190 9b 7e 75 3c e4 7c ea bd 96 90 13 3d 15 75 13 bd
       0.014983798 -0.11449602 0.03602656 -0.03600033
0001a0 bd e9 b6 3c e5 ed 3d 3e 0f 31 16 be 01 c8 64 3d
       0.022328252 0.18547781 -0.14667152 0.0558548
0001b0 99 4f 8d 3d e2 4c 9d 3e 20 d9 a5 3b 35 ca c5 3c
       0.06899948 0.3072272 0.0050612837 0.024144271
0001c0 78 79 55 bd 69 dd 67 3e 7e d6 11 3e 7d 32 19 3c
       -0.052117795 0.22643055 0.14241979 0.009350416
0001d0 da 2b 11 3e d4 e1 01 3c 0c 49 68 bc e8 b1 75 3d
       0.14176884 0.007927377 -0.014177572 0.059984118
0001e0 0f aa 3c 3e 4f 0c 1c be f3 46 e2 3c e7 2a 44 bc
       0.18424247 -0.1523907 0.027621722 -0.011973119
0001f0 76 54 96 3d 49 4e 42 3e 03 dd 89 3d 07 4f d0 3d
       0.073403284 0.18975176 0.06731608 0.10171323
000200 0b c7 ce 3d b8 8e 21 3e 7f e0 d1 3d 34 e2 32 3e
       0.10096558 0.15777099 0.10247897 0.17469102
000210 97 57 d8 be 90 15 97 3d 8c a9 1d 3e e2 ca 96 bd
       -0.42254326 0.073771596 0.15396708 -0.073629156
000220 84 1a c4 3e ae 79 85 3d f8 93 c8 bb 44 ee 54 bd
       0.3830148 0.06517349 -0.006121155 -0.05198504
000230 e8 60 45 3d a1 db 7b 3e 8d d9 83 bd 56 ea e0 ba
       0.04818812 0.245955 -0.06437979 -0.0017159681
000240 c4 33 94 bd 40 e4 82 bb bc 70 ad bd 57 28 92 bd
       -0.07236436 -0.0039944947 -0.08468768 -0.071366005
000250 c4 5e 36 be 93 5b e8 bd 13 e3 61 3d 1a 83 2e bd
       -0.17809588 -0.113455914 0.055148195 -0.042605497
000260 e2 1a 0c bc 6a 91 9e bc ca 56 56 3e f5 59 55 3d
       -0.008551331 -0.019356448 0.20931545 0.052087743
000270 44 f7 ff 3d 38 e1 20 3e 53 60 ef 3d 6f 4e cd bd
       0.12498334 0.15710914 0.11688294 -0.10024726
000280 18 4f 1e 3e 8c 6c 13 be af 64 54 bd a8 8c 22 bb
       0.1545986 -0.14396876 -0.05185383 -0.0024803076
000290 40 41 06 3d 72 e9 85 3d 0e d3 04 3d 86 fb 0a be
       0.03277707 0.06538667 0.03242784 -0.13572511
0002a0 3b e4 27 be 2a 31 43 bd 50 66 8d 3d 87 e1 e2 bd
       -0.16395657 -0.04765431 0.0690428 -0.11078172
0002b0 23 3f 87 bc f0 e1 06 3e 73 93 36 3d 3b 0b 80 3d
       -0.016509598 0.13172126 0.044574212 0.06252142
0002c0 4d 51 c7 bd cc 90 09 3e 0c 78 50 bd 41 df 50 3c
       -0.09732304 0.13434142 -0.050895736 0.01274854
0002d0 02 b9 53 3d 5d b5 4e 3d b0 e0 6a bc 45 22 e5 bd
       0.05169011 0.05046593 -0.014335796 -0.11188177
0002e0 e4 48 04 3e 3c 35 ba bd e1 38 08 be ec 06 59 bd
       0.1291843 -0.09092185 -0.13302948 -0.052985117
0002f0 fd 38 cd bd e4 ae b3 bd be 39 5a 3d 10 1a 9e 3e
       -0.10020635 -0.08773592 0.053277723 0.3087926
000300 50 90 1f bf 01 5b 1d be 8a 48 0e be f3 fb 10 be
       -0.6232958 -0.15366746 -0.13894859 -0.14158611
000310 e9 8e 11 bd 0a 91 48 3e 7c 37 ea bc e8 63 99 3d
       -0.03553668 0.19586578 -0.02859091 0.07489759
000320 b2 db 50 3c f3 06 a4 bc 5e d2 2d be a6 07 b3 bd
       0.012747692 -0.020022845 -0.1697478 -0.08741693
000330 db 96 17 bd 85 d0 a9 bd 5b b1 a9 3e 73 6b a5 bd
       -0.0370091 -0.08291725 0.33143124 -0.08077135
000340 c6 17 ea 3d 74 db 87 bd 3d ac 02 3e 28 1d 85 3b
       0.11430316 -0.06633654 0.12761016 0.0040623136
000350 80 34 68 3e 64 69 1e be 3c a5 d1 3d 43 3b 37 bc
       0.22676277 -0.15469891 0.10236594 -0.011183563
000360 c1 4a 6c be 84 f8 69 3d 3b 1d 2c 3d d6 29 e4 bd
       -0.23075391 0.05712177 0.042020064 -0.11140792
000370 be 64 f3 bd 00 1c 42 bd 8b 81 01 3e bc 8f c0 be
       -0.118844494 -0.047389984 0.12647073 -0.3760966
000380 ba e9 9f 3d 0d 6b 5c 3e 8c d3 07 3d b1 7e 1a 3d
       0.07808252 0.21525212 0.03316073 0.03771848
000390 a1 c5 c8 3a f6 26 14 3e 8d 32 d6 bd 2f f3 2a be
       0.0015317687 0.14467987 -0.104588605 -0.1669433
0003a0 d0 33 66 3d b0 d4 97 3c be fc 59 bd c4 7a fc 3d
       0.056201756 0.018534034 -0.05321955 0.12328103
0003b0 9c 01 33 bb 4e ed 4c 3e 57 0f 46 3e a8 1f 84 be
       -0.0027314192 0.200124 0.19341789 -0.25805402
0003c0 31 f4 a6 be 06 35 df 3d 7b 0b 48 3e dc 8d aa 3c
       -0.32608178 0.10898785 0.1953563 0.020819597
0003d0 74 54 af 3d 48 98 db 3c 47 a7 3b 3d 3a 43 15 3d
       0.0856103 0.026806012 0.045813825 0.036441065
0003e0 f2 ec 11 be e2 3a f3 bd d4 ea 47 bd 2c 2a ba bd
       -0.14250544 -0.118764654 -0.048807934 -0.09090075
0003f0 cb 31 4d 3d e9 db 2e 3d 1a 65 35 3d cb 84 31 3e
       0.050096314 0.04269019 0.04428587 0.17335813

conv1.lin_neg_r.bias f4 [32]
000000 b8 76 80 bd a8 ba a9 3d 56 59 eb 3d a9 15 ea 3d
       -0.06272644 0.08287555 0.11491649 0.114299126
000010 ac 5b 46 3d ad 6c 40 bc a7 9d 57 3d 40 b0 91 3d
       0.04842727 -0.01174466 0.052640583 0.07113695
000020 03 ad 4d b9 ca 8a 88 3d 59 fb ac bd 04 8e c0 3d
       -0.00019614775 0.06667097 -0.08446378 0.09402087
000030 7f a0 ce bb d2 b2 cb b9 a4 96 ac 3d 8b 87 f3 b6
       -0.0063057537 -0.0003885241 0.0842717 -7.2577436e-06
000040 f4 b5 8f bd 08 94 6e 3d 97 3f 79 3d dd 6d 94 3d
       -0.07017127 0.058246642 0.06085166 0.07247517
000050 30 04 5c bc a3 a8 3c bd 6b 2b a8 3d e0 11 9a 3d
       -0.013428733 -0.046059262 0.08211406 0.07522941
000060 6a e9 bd b8 e6 3b 0f bd 06 55 fb 3d 99 cd bb 3a
       -9.055699e-05 -0.034969233 0.12272076 0.0014328241
000070 a6 46 8a 3b 13 27 50 bc 92 af 8f 3d a4 44 50 ba
       0.0042198477 -0.0127046285 0.07015909 -0.00079447986

convs.0.lin_pos_l.weight f4 [32, 64]
000000 0e f9 c8 3c ce 31 00 bd 4a 01 ce 3d fe b2 90 b2
       0.024532821 -0.031297497 0.100588396 -1.6845203e-08
000010 ba 07 6b 3d eb 72 9b bd 00 9c 67 bd 1e c0 84 32
       0.057380415 -0.07590278 -0.056545258 1.5454187e-08
000020 83 8c a9 3e 0b 7e 70 3e 84 26 39 3e 42 c6 8c 3d
       0.33115014 0.23485582 0.18081099 0.06873752
000030 ab 13 53 bc 5b 2e 97 3d 67 6e 14 3d 28 99 1c 3e
       -0.012883107 0.073818885 0.0362381 0.152928
000040 36 10 b8 3d 5b 8d 84 32 43 37 41 bc f1 73 8a b5
       0.08987467 1.5431104e-08 -0.011792961 -1.0315545e-06
000050 a5 ed 5b bd 4d 1a 38 3e fc c8 8e 3d 08 16 62 3e
       -0.053693432 0.17978783 0.069719285 0.22078717
000060 6d 1e ce 31 bd 98 ae 3d b3 32 ef 36 00 94 21 be
       5.998848e-09 0.08525226 7.128657e-06 -0.15779114
000070 ea 5c 17 be 52 05 5d 3b 14 77 e2 bc 88 ca 1c be
       -0.14781538 0.0033725095 -0.027644671 -0.15311635
000080 b0 f8 92 31 3b 46 a7 3d 4e 0f 41 3e 50 15 d3 bc
       4.2774317e-09 0.08167692 0.18853495 -0.025766999
000090 29 34 1e bd 9e fd b1 be fb 31 90 be 2d 2a d4 3c
       -0.038623963 -0.34763807 -0.28163132 0.025899017
0000a0 5a 73 3c be d9 39 86 be 61 a8 4c bb bf 16 64 3e
       -0.18403378 -0.2621601 -0.0031228291 0.22274302
0000b0 5d fe a5 b2 ed 12 68 31 c6 03 83 bd 87 44 ca 35
       -1.93242e-08 3.3771201e-09 -0.06397204 1.5070117e-06
0000c0 61 d3 bd 3d b0 bc 35 bd 19 c7 fb 3e ce 1e 16 3e
       0.09268833 -0.0443694 0.49175337 0.14660189
0000d0 6f 13 1b bd e7 26 bc 30 81 99 93 3e aa cb 93 be
       -0.03786033 1.3689857e-09 0.28828052 -0.2886632
0000e0 12 89 32 b7 c6 10 35 32 95 c1 21 3d b6 be b1 3b
       -1.0641541e-05 1.05394005e-08 0.039491255 0.005424346
0000f0 5b d4 50 3d ab 93 5d 32 a0 e9 8b 3d 7f 4c 34 31
       0.050983768 1.2897469e-08 0.0683167 2.623693e-09
000100 16 21 17 3e f7 4b d9 bd 79 17 61 bd 2e 20 c4 32
       0.14758715 -0.10610192 -0.054954026 2.2832037e-08
000110 40 73 14 be fa 84 28 be 97 ce b4 3d 50 fb 3b b2
       -0.1449709 -0.16456977 0.088284664 -1.0941974e-08
000120 34 4f b4 3a c5 b4 3e 3d 7a 01 12 be 1f af 37 3e
       0.0013756515 0.046559114 -0.14258376 0.17937897
000130 92 9b 3c 3e e4 62 e0 3d 48 ef ea 3c b5 5d 7f 3e
       0.1841872 0.10956362 0.028678551 0.2493809
000140 52 d3 05 3d 53 2d b2 b2 af d9 90 bc 4f 9c 8e 35
       0.032672234 -2.0742538e-08 -0.017681925 1.0625316e-06
000150 22 09 0e bd bd 91 bb 3d ed d9 57 bd ae f5 ec bd
       -0.03467668 0.09158657 -0.052698065 -0.11570297
000160 a6 f1 a5 b2 9d 6c b0 3b 18 4f bc 37 0a 7e 07 be
       -1.9318417e-08 0.0053840415 2.2448177e-05 -0.13231674
000170 ea 93 2b 3e f9 e4 29 3d d8 b6 28 3e 6f 62 35 be
       0.16755643 0.04147813 0.16476 -0.1771333
000180 aa 75 a1 31 a3 9a 4f 3e ae da bb 3d a4 4f 0e 3e
       4.6990936e-09 0.20273833 0.09172569 0.13897568
000190 cf 9b 5a be 91 dd 8b 3e 0d bb 2f 3e 69 c9 14 be
       -0.21348499 0.2731748 0.17161198 -0.14529957
0001a0 1f c7 51 be b2 dc 0c 3e 70 27 44 3b e6 ea 65 be
       -0.20486115 0.13756064 0.0029930733 -0.22452888
0001b0 dd 78 10 33 64 61 f7 b1 bc c6 cb 3d 6b 6c 32 35
       3.3637537e-08 -7.199718e-09 0.09950015 6.6467936e-07
0001c0 94 74 76 bd 1c ab 5e 3d d3 73 0c be 90 9a ba 3c
       -0.06016977 0.0543624 -0.13716058 0.02277878
0001d0 14 9e 06 3d d7 c2 fc 31 e4 de f6 3d a4 d5 af 3e
       0.0328656 7.356316e-09 0.12054232 0.34342682
0001e0 f4 09 e1 33 53 d0 7d 31 96 59 e9 3d 99 da 84 3c
       1.04791894e-07 3.6934764e-09 0.1139404 0.016217517
0001f0 6f 99 23 3e 6c 85 ed b1 10 16 9e 3e a1 22 9a b1
       0.15976499 -6.912776e-09 0.30876207 -4.4859267e-09
000200 22 66 73 34 2e 0d a4 35 c3 98 5f b5 6e 5d 79 af
       2.2668294e-07 1.2222788e-06 -8.329627e-07 -2.2679611e-10
000210 a0 ca d6 36 12 9f b9 b5 47 b6 b7 b5 27 c3 67 af
       6.4012856e-06 -1.382987e-06 -1.3687612e-06 -2.107866e-10
000220 e4 fb 2c 36 8d a6 21 35 34 98 a4 32 33 46 89 b4
       2.5776617e-06 6.0219537e-07 1.9161327e-08 -2.5569315e-07
000230 a9 07 c8 35 10 7e 47 b4 77 57 82 34 9d 7b 68 b4
       1.4903391e-06 -1.857918e-07 2.4278026e-07 -2.1651654e-07
000240 3b d5 cc b5 bf 95 a5 af 13 5f 13 36 c4 9a 12 b2
       -1.5261243e-06 -3.0119726e-10 2.1960047e-06 -8.533508e-09
000250 98 25 af b5 f3 99 e0 b5 62 88 8f 35 37 78 93 36
       -1.3049457e-06 -1.6734106e-06 1.0694023e-06 4.3949362e-06
000260 7d 44 73 b2 71 5e 33 36 80 6a b7 b0 01 81 2b b6
       -1.4160034e-08 2.672805e-06 -1.3345272e-09 -2.5556076e-06
000270 66 8c 94 b4 03 75 ce b5 45 62 bc 34 18 1f 05 36
       -2.7669302e-07 -1.5382251e-06 3.508923e-07 1.9836643e-06
000280 af 7b 9b 31 93 21 08 36 cf d3 09 b6 79 ae 83 b6
       4.525155e-09 2.0285122e-06 -2.053788e-06 -3.9244155e-06
000290 ba e3 85 b5 fd f3 df 35 19 3f 06 35 2e c6 2b 36
       -9.975549e-07 1.6685805e-06 5.001071e-07 2.5596341e-06
0002a0 4c d4 10 35 ba a9 86 b5 4d 34 a0 b1 a3 b7 ed 35
       5.3953113e-07 -1.0033175e-06 -4.662559e-09 1.7711321e-06
0002b0 17 69 15 32 35 98 98 ae 8c 74 cf 35 fe 41 13 31
       8.696836e-09 -6.939197e-11 1.5456621e-06 2.1428828e-09
0002c0 ec 85 34 33 1d c1 07 36 d3 40 ba 35 76 31 95 b5
       4.2031317e-08 2.0228974e-06 1.3876946e-06 -1.111576e-06
0002d0 4a 4f f7 31 f8 69 e3 b1 39 c7 95 b5 82 b3 d4 b5
       7.1976602e-09 -6.6186168e-09 -1.1159347e-06 -1.5847475e-06
0002e0 e3 1c 56 b1 e7 9b 80 b1 ed f5 38 36 4a b8 dd b4
       -3.1157519e-09 -3.7430143e-09 2.7561284e-06 -4.1298546e-07
0002f0 00 50 95 33 b1 aa c8 31 82 77 e0 35 74 8f f3 31
       6.952905e-08 5.8401715e-09 1.6724082e-06 7.0885395e-09
000300 7f e4 7a 3c f8 3e 42 be 7d 22 9e bd 8a 43 1a 32
       0.015313267 -0.18969333 -0.07721422 8.979336e-09
000310 37 10 63 be 4c f3 62 be a9 84 ee 3d 93 61 0e 32
       -0.22174154 -0.22163123 0.11646397 8.287674e-09
000320 80 84 97 3e d2 33 b9 3d b8 80 14 be 41 6f c5 3d
       0.29593277 0.09043087 -0.14502227 0.096403606
000330 78 fd 94 3e 27 b7 9a 3a 57 79 75 3e 76 17 9f 3e
       0.2909963 0.0011803851 0.23972069 0.31072587
000340 4b 7f 82 bd f2 34 2a b1 2d d2 a4 bd 21 a3 01 36
       -0.063719355 -2.4768352e-09 -0.080479 1.9317451e-06
000350 e5 22 db 3d 42 4d 86 3e 7d 07 76 be 32 26 3b 3e
       0.10700015 0.26230818 -0.24026294 0.18276289
000360 23 ab 93 b0 3e 90 dd 3d 5c fc ca b7 a8 8d 81 3d
       -1.0744298e-09 0.10818528 -2.419779e-05 0.06325847
000370 da f6 5c be ce 86 7e 3d 44 13 aa bc 35 94 0b bb
       -0.21578541 0.06214028 -0.02076114 -0.0021298055
000380 3c b8 95 b2 54 35 73 be 2b 1e 38 3e 55 1a e8 bd
       -1.7429663e-08 -0.23750812 0.17980258 -0.113331474
000390 2c a9 49 3e ae 67 9d 3d 5e 4e 91 3d 41 53 0c bf
       0.1969344 0.07685791 0.070950255 -0.54814535
0003a0 95 a0 38 3e a2 03 84 be 95 34 2c 3b 44 47 09 3e
       0.18030007 -0.25784022 0.0026276459 0.13406092
0003b0 91 63 90 b0 2f 93 5e b2 8b 2c 20 bf 22 3c 2d b4
       -1.0505677e-09 -1.2955566e-08 -0.6256797 -1.6133757e-07
0003c0 3e 4c 51 be 24 8a 13 3e 29 c4 6a be a7 a3 81 bd
       -0.2043924 0.14408165 -0.22926392 -0.06330042
0003d0 ed a2 06 bb 96 80 3a 30 54 af 47 be 19 5d 73 bd
       -0.0020543889 6.784914e-10 -0.19500476 -0.059414957
0003e0 a1 f6 d8 b8 fc 3d 6f 31 69 05 81 be 51 3a 7a be
       -0.00010345621 3.4814311e-09 -0.2519944 -0.24436308
0003f0 a1 65 ac bd 71 7f 60 32 4e 83 4a bd b9 da 60 31
       -0.08417822 1.3067493e-08 -0.04944163 3.272062e-09

convs.0.lin_pos_r.weight f4 [32, 32]
000000 53 66 3f bd d9 05 b7 be 78 d7 25 3d 2d de ee 32
       -0.046728443 -0.3574665 0.04048869 2.780788e-08
000010 51 da 34 be 8d cd 1b be 11 75 3f 3c 72 ff 91 b2
       -0.17661406 -0.1521513 0.011685626 -1.6996385e-08
000020 31 fc 19 3e 01 82 9e bd 24 c7 94 3e 88 93 21 3e
       0.1503761 -0.0773964 0.29058182 0.15778935
000030 43 bf 8e be 95 84 fb be d2 9c 09 bf d2 4d 29 bc
       -0.27880296 -0.4912459 -0.53754914 -0.010333495
000040 53 04 2f 3e b7 0b 47 31 9f 92 d2 3b f3 bc 82 35
       0.17091493 2.896497e-09 0.00642617 9.740746e-07
000050 eb 4c f9 bd 59 75 0a 3d 7c 66 d2 3d ba 3e 6b 3e
       -0.12172874 0.033803318 0.102734536 0.22973147
000060 e0 79 b3 32 bb 5c 10 be fd 86 20 b7 82 d8 10 bd
       2.0893765e-08 -0.14097874 -9.568173e-06 -0.035362728
000070 70 db 9a bd 69 6f 3a be 82 d8 63 be b3 0f 09 3d
       -0.07561386 -0.18206562 -0.2225056 0.033462238
000080 33 19 77 3d 58 a8 44 be fc 0f c2 3e bb e9 92 32
       0.060326766 -0.19204843 0.3790282 1.7102925e-08
000090 75 4c 72 be 30 6d b1 bd 9f 83 8c be c2 2c b4 b2
       -0.23661979 -0.08663404 -0.2744417 -2.0975111e-08
0000a0 26 40 25 be 98 de a8 bd 16 d9 3f be cb c8 af be
       -0.16137752 -0.082455814 -0.18735155 -0.3433288
0000b0 d3 ad b2 3e 9e 6d 4e 3c 60 eb d7 3e be 6e ca 3e
       0.34898242 0.012599377 0.42171764 0.39537615
0000c0 d7 f1 16 be a0 0b 47 b2 50 eb ca bd 63 41 a3 b4
       -0.14740692 -1.1585968e-08 -0.099081635 -3.040869e-07
0000d0 8e b6 b9 3c a1 62 f4 3d 25 6e 00 3e c3 e8 ac bd
       0.022670057 0.119328745 0.12542017 -0.08442833
0000e0 96 14 42 32 ad 3b dc 3e f3 d9 cc 37 1e bc db 3c
       1.1296967e-08 0.4301428 2.4420186e-05 0.0268231
0000f0 e4 ba ed be 17 b7 3b be 62 0f 88 3e bc 84 68 be
       -0.4643165 -0.18331562 0.26574236 -0.22706884
000100 dd 9b 50 b6 0b a1 a3 b5 29 b1 db b3 86 bf 7c 32
       -3.108514e-06 -1.2191316e-06 -1.02302074e-07 1.4711878e-08
000110 20 32 ed b5 90 3e 68 36 6e 0f 69 35 20 be b2 b1
       -1.7672464e-06 3.460711e-06 8.6821717e-07 -5.2020965e-09
000120 a1 32 c4 b6 26 2f b5 35 16 c2 42 35 d2 39 a8 34
       -5.847149e-06 1.3499273e-06 7.2553064e-07 3.1334508e-07
000130 5a 7e 93 35 38 a3 86 35 7d 85 57 35 70 21 9c 34
       1.0989127e-06 1.0031281e-06 8.028799e-07 2.9081593e-07
000140 f5 b1 4d b5 1a e0 29 b2 0b 04 f2 b5 1c b4 89 b2
       -7.662741e-07 -9.8880495e-09 -1.8031582e-06 -1.6030803e-08
000150 49 78 9c 35 5e c0 10 36 ac 54 48 b5 64 11 50 b5
       1.1657913e-06 2.1569645e-06 -7.462902e-07 -7.7511345e-07
000160 f6 f9 86 b1 28 58 3e b5 69 58 26 31 2f 21 8b 35
       -3.9283305e-09 -7.09088e-07 2.4206435e-09 1.0365965e-06
000170 ec 7d 19 b6 37 68 b5 b4 a9 31 80 35 cf a0 99 b5
       -2.2872073e-06 -3.3789703e-07 9.551196e-07 -1.144619e-06
000180 b7 b0 d8 3d cd 3e 6f be f0 f1 61 be 26 b0 c2 b2
       0.10580581 -0.233638 -0.22064948 -2.2664675e-08
000190 58 53 9a be 0f 4f e0 be fc 6e dc bd d8 b4 09 b1
       -0.3014171 -0.43810317 -0.10763356 -2.0038922e-09
0001a0 aa fb cf 3d e8 1b f7 3e c5 80 b1 bc 25 ae fc bd
       0.10155423 0.48263478 -0.021667847 -0.12337903
0001b0 57 80 cf 3e f7 e3 2b 3e a4 47 0a 3f b7 2e 3a 3e
       0.40527603 0.1678618 0.54015565 0.18181883
0001c0 d7 92 cf be 87 72 8d b2 d2 7a 48 be 69 f6 cd b4
       -0.40541717 -1.6466641e-08 -0.19578102 -3.8363513e-07
0001d0 77 8c b8 bd 96 66 e6 3d 8d 8a c3 bd 56 a7 5d bb
       -0.090111665 0.112500355 -0.09547911 -0.0033821664
0001e0 68 e7 b3 30 94 e0 db bc ec 15 6a 37 ea a7 19 be
       1.3089734e-09 -0.026840486 1.3952591e-05 -0.1500546
0001f0 88 7c 17 be f0 98 b6 3d 31 ee fd 3c d7 51 8d be
       -0.14793599 0.08915889 0.030997368 -0.276015
000200 db 6b 81 32 77 2d a3 32 84 e4 18 32 0b d0 0b b0
       1.5066624e-08 1.8996372e-08 8.899523e-09 -5.086355e-10
000210 17 a1 f7 b2 16 f0 35 32 02 96 ff b2 cc f0 4f 30
       -2.882784e-08 1.0590176e-08 -2.9754123e-08 7.5648354e-10
000220 67 48 57 b1 40 2f e1 b2 1c 42 14 32 76 63 63 b2
       -3.1327774e-09 -2.6214934e-08 8.629765e-09 -1.3235754e-08
000230 69 98 c2 b0 4d f4 40 b1 79 2b cf 31 a4 98 76 b2
       -1.4158675e-09 -2.8078546e-09 6.029435e-09 -1.4353791e-08
000240 89 ee ca b0 49 8d 87 30 6a 16 a9 b2 f0 09 98 30
       -1.476523e-09 9.862698e-10 -1.9684382e-08 1.106228e-09
000250 ad fb 13 32 f3 e4 98 b1 d5 49 d8 30 85 ea 69 33
       8.613751e-09 -4.4498107e-09 1.5737053e-09 5.4462834e-08
000260 f1 af 81 b2 e2 57 82 32 48 09 f4 31 f5 04 0b 33
       -1.5097585e-08 1.5173956e-08 7.10239e-09 3.2367968e-08
000270 73 7f c7 32 16 25 0d 32 a4 fd 3c 32 06 27 19 af
       2.3224606e-08 8.2157126e-09 1.10007115e-08 -1.3929133e-10
000280 90 30 18 be 1e 0f d5 be 11 9b 10 3f c3 98 d4 32
       -0.14862275 -0.41613096 0.5648661 2.4749516e-08
000290 b6 5a ce be ad cc 7d bc 0f 74 c1 be 62 09 05 b3
       -0.40303582 -0.015490693 -0.37783858 -3.097501e-08
0002a0 d2 d9 64 3e f4 d2 48 bd 75 78 30 3e 63 5f d6 be
       0.22348717 -0.049029306 0.1723345 -0.4186965
0002b0 cc 4b 4c 3e e0 df fb bd 2b 15 b5 3d ee 57 d6 3e
       0.19950789 -0.1229856 0.08841928 0.4186396
0002c0 c8 fa cb be d4 16 af b2 5a 73 89 bd 37 ff 9f b5
       -0.39839768 -2.0383062e-08 -0.06711455 -1.19207e-06
0002d0 26 80 e4 3c 0c 66 10 bf 2b 4a a2 3d 9e 0e 4e 3c
       0.027893137 -0.5640571 0.07924303 0.012576727
0002e0 59 7e 3e b0 87 ec c9 3e 1b 30 f4 37 30 26 32 bd
       -6.930115e-10 0.3943827 2.9109468e-05 -0.04349345
0002f0 ed e4 ba be c1 16 e7 3c 6a de b3 3e bf 30 ce be
       -0.36502782 0.028209092 0.35130626 -0.40271565
000300 d8 1f c9 32 c3 27 20 33 b7 a2 0a b3 86 10 87 30
       2.341396e-08 3.7289066e-08 -3.2278617e-08 9.827239e-10
000310 1f 40 ae 33 f8 9e c5 32 00 0c ad 33 f6 31 5a b1
       8.11417e-08 2.3006109e-08 8.058123e-08 -3.1751575e-09
000320 9e 9f 6b 32 5d 3d c3 30 d8 f0 73 b2 cd 4e ca b2
       1.3715093e-08 1.4205558e-09 -1.4199223e-08 -2.355173e-08
000330 1a 00 4e b3 2d 92 ac 33 38 9e d9 b3 7a 8a f0 b3
       -4.7963205e-08 8.0359634e-08 -1.013363e-07 -1.12010596e-07
000340 1a cc 4a 33 c5 91 09 b2 b2 a4 95 b2 03 99 ce 30
       4.721742e-08 -8.007594e-09 -1.7420778e-08 1.5031961e-09
000350 04 6f 5d b3 0e 70 0e 32 ab 6f 9b b2 1b f7 ae 33
       -5.155654e-08 8.290966e-09 -1.8095156e-08 8.1474546e-08
000360 6b 7a 76 32 91 d9 b9 b3 d2 48 54 b0 fa 8b ec 32
       1.4346919e-08 -8.654309e-08 -7.7228635e-10 2.753767e-08
000370 a0 47 80 b3 db a8 fe b2 6c ce 0a 33 71 78 35 33
       -5.973493e-08 -2.9646278e-08 3.231837e-08 4.2251887e-08
000380 8d 31 cd bc fa bb 6e be 48 3d 86 3e 05 cf a9 31
       -0.025048042 -0.23313895 0.2621863 4.9420827e-09
000390 c7 02 96 bb c6 60 55 3e 75 14 94 be c9 56 9f 32
       -0.004577968 0.20837697 -0.28921857 1.8549501e-08
0003a0 17 19 a3 3d 57 04 a3 be ab 5c 85 bd 06 52 0c be
       0.0796377 -0.3183925 -0.06511816 -0.13703164
0003b0 10 0f 09 be 84 37 31 bf 7d 2e c3 be 63 b4 b4 3c
       -0.13384652 -0.69225335 -0.38121405 0.022058671
0003c0 75 16 b4 3d 17 73 15 32 03 09 e8 bd f5 6b 81 35
       0.08793346 8.69911e-09 -0.11329844 9.642669e-07
0003d0 c7 85 b7 bc b5 f3 f6 bd 9a 13 4c be 94 2f 0a 3e
       -0.022402657 -0.12058202 -0.19929352 0.13494712
0003e0 ec a4 88 30 ba dc 83 3d b4 ab 4e 37 3c 5c 61 3e
       9.942176e-10 0.064385846 1.2318535e-05 0.22007841
0003f0 93 7e c6 be 0a cc 83 be 8f 1e 48 bd 53 81 49 3e
       -0.38768443 -0.25741607 -0.048857268 0.1967824

convs.0.lin_pos_r.bias f4 [32]
000000 1d 71 68 3d 15 3b e3 3d 7e d1 85 b7 25 e5 2b 3e
       0.0567485 0.110952534 -1.5952388e-05 0.1678663
000010 b4 9f e1 b8 3a a4 53 3e bd ce c4 b4 54 8f 92 3d
       -0.00010758583 0.20668116 -3.6658267e-07 0.07156244
000020 95 5c a4 bc 19 07 3c b8 d2 e9 a2 bc 68 47 a4 b7
       -0.020063678 -4.4829303e-05 -0.019886885 -1.9583575e-05
000030 24 ca 59 35 f5 5e 1d bc c2 5b 28 bd aa ab 39 3d
       8.113295e-07 -0.009605159 -0.041103132 0.045329727
000040 01 e3 6c b9 9d 6f 54 bb ea e0 24 bd 25 03 71 bb
       -0.0002259128 -0.003241516 -0.040253557 -0.0036775556
000050 a0 2b 83 bd 18 d8 72 3d 65 13 90 b7 cc c2 61 3e
       -0.06404805 0.059288114 -1.7175169e-05 0.22046965
000060 51 02 b5 3d a4 6a c4 3d ed 6a 53 bc 58 71 2d 3e
       0.088383324 0.095906526 -0.012903911 0.16937768
000070 b9 cc 2e b5 d6 20 21 bd 93 ce 06 bd e5 fe 16 3e
       -6.511796e-07 -0.039337955 -0.03291185 0.14745672
