bitcoin-alpha/models/bitcoin-alpha-train-2.pt (torch, 64475 bytes, 14 tensors)

conv1.lin_pos_l.weight f4 [32, 64]
00000000: 9585 013f 3c83 de3e f836 b2bd 1f53 913e
00000010: c750 033d c4d3 aabc 3e53 8e3d 4b52 79bd
00000020: a60d 193d 62a8 823c 02ae 6b3e 717f f03d
00000030: bebc 34be c26d b8bd 1370 9bbd cdd5 433e
00000040: 704e 02bd 3400 823d 4fc4 153d 9dbe 463d
00000050: 326c bcbd f7f8 113e 32a5 2dbd b4fe 9ebc
00000060: bbbd 94bd 3cd4 173e ad4d bcbd 34a4 be3d
00000070: 3c51 27bd 6bf5 8f3d 9657 17bd 9993 423e
00000080: ea45 623d 3333 223d 4420 573e a593 6cbd
00000090: de7c 013e b84d 29bd f28e e63d 8d06 8abd
000000a0: ac82 843d ccea 0dbd d9b6 01bd 18e5 003d
000000b0: 424c e6bc a937 aebd 69d9 d2bc f0a9 a5bd
000000c0: 1e72 553c 21a3 323d 01c4 2abd 3986 133d
000000d0: 622d 89bd e0c5 1ebe b051 10be 5da2 053d
000000e0: a51e 7dbc b74d c93d d552 1a3d 6e70 d6bd
000000f0: b727 37bc 5303 aa3d 65e8 99bb b111 22bd
00000100: e797 e2be 6f56 70bd 48d6 2abd f61d 8ebd
00000110: 4aa7 183a abc2 a3bb 3833 143e 9fe6 0d3d
00000120: d3c4 503e a565 933d 25e4 6abd 3390 17bc
00000130: 144c 493e 317d a43d 03e3 09be fcb7 d1bd
00000140: fbf2 acbd 20c6 033d a7b0 64be 188d d23d
00000150: c20a 83bd 836e ac3d 619f 32ba c3f2 c43b
00000160: ac67 47bb 8567 eebd 2ca7 aabd 8d76 893c
00000170: 354e 8a3d 8880 24be 26d8 45be 76a7 12bd
00000180: 2fc3 ebbd e00d d7bd 46ad 40bc df22 2a3e
00000190: dd9f 2cbd 85d7 d53c 428a 443e 2849 003e
000001a0: 68c3 88be 95ce fc3d a669 04be 2775 2b3e
000001b0: 2d43 9d3c 2006 0c3d 159f 03bd 829b 9a3d
000001c0: 3980 cdbd 522c 40be fa00 18bd a838 933b
000001d0: 5077 86bc e315 91be 2883 9dbd c1d9 bd3d
000001e0: b79f 08bd 9ec5 2ebd a3fc 743d 1835 3dbd
000001f0: fd12 6bbe b39d cbbd 8e18 b03d 7d98 b13e
00000200: 2623 3532 a593 d6b1 79ad 0bb0 84da 13b2
00000210: 62e5 a9b2 f453 1fb3 e9a4 6232 0aef 1831
00000220: ade1 3d32 6405 5132 d97a 8ab2 f41c 92b1
00000230: f3f8 a130 e9f4 4f31 db23 a831 ca0e 09b2
00000240: 7e38 7632 7b89 4ab1 8783 1130 a03a 2e31
00000250: 6b15 13b2 446e 1ab0 75a5 3432 e245 85b1
00000260: 1ecb a1b0 260e 37ae 4fb1 c9b1 0e9e 35b1
00000270: 8c94 fc31 1c72 cc31 7454 9430 9131 5bb1
00000280: 90b9 c231 a8dc 15b2 f819 e2b2 41e7 0732
00000290: 1c25 a3b2 a12c 1fb2 e4ee afb1 a3f7 aeb1
000002a0: 5ffa 4fb2 6664 75b2 3d4c 8bb2 e709 fab1
000002b0: 8072 0eb2 1059 5e32 4132 a7b1 13b3 ee30
000002c0: 553e fc31 cc21 dcb1 ad36 5c32 879e 5b32
000002d0: 909d eab1 1495 52b1 386e 6432 b27c b5af
000002e0: 8859 1132 b39e 70b1 6c28 38b0 cd77 0fb2
000002f0: 01ab 80b2 31cf 00b1 c37d b3af e157 7bb2
00000300: 4a23 beb6 91b6 5f35 4a70 beb5 2c8e 6136
00000310: a60e 11b6 9525 fe36 dfb6 22b5 d7a4 9db5
00000320: 8aba d635 221c 7836 0f58 0ab6 ecbf e3b5
00000330: b346 37b4 307a 0637 4e24 17b6 699a 2e36
00000340: 1422 2233 ecfb 0db6 7479 1f36 8e0a ba36
00000350: c509 06b5 7afd e535 e7a6 3cb3 7fe5 cc34
00000360: ad79 80b6 5640 54b5 37b9 d9b2 4e9a fdb4
00000370: 7fd8 15b4 9e63 7f36 18fe 4cb4 13a8 8635
00000380: 117c 2136 c058 4eb6 ad01 4d36 10b7 a5b5
00000390: 5260 e8b4 3692 8d35 c8f9 89b6 0856 4435
000003a0: 5fa7 c3b6 1339 2a36 36c5 8136 d5eb d0b6
000003b0: 9734 3536 152d c736 37a4 0eb5 1d39 1436
000003c0: 5731 8235 fcd6 b1b5 d0e8 0fb6 6a57 b9b4
000003d0: 2840 6bb5 5177 1336 6f99 eeb5 c428 8f33
000003e0: 67e7 feb5 f45a 8534 39da 7ab5 c688 67b6
000003f0: 4fe4 e734 78aa 0835 5517 0f35 48bc 8ab5
0.50594455 0.434595 -0.08701891 0.2838373 0.032059457 -0.02085293 0.06949471 -0.060869496
0.03736653 0.015949432 0.23015597 0.117430575 -0.17650124 -0.0900531 -0.07589736 0.19124527
-0.031813085 0.06347695 0.036564168 0.048521627 -0.09200324 0.14255129 -0.04239387 -0.019408561
-0.07262751 0.14827055 -0.09194503 0.09308663 -0.040848956 0.07029232 -0.036948763 0.19001617
0.055242456 0.03959961 0.21008402 -0.057757992 0.1264529 -0.041333884 0.112577334 -0.06739531
0.06470236 -0.034647748 -0.031668518 0.03146848 -0.028112534 -0.0850671 -0.025738435 -0.08089054
0.013027696 0.043612603 -0.04169083 0.036016677 -0.06698109 -0.15505171 -0.14093661 0.032625545
-0.015449201 0.09829276 0.03767665 -0.10470663 -0.011178902 0.08301415 -0.004696893 -0.039567653
-0.44256517 -0.05867618 -0.04170826 -0.06939308 0.0005823268 -0.0049975715 0.14472663 0.034643766
0.20387582 0.071971215 -0.05734648 -0.009250688 0.19657928 0.08031691 -0.13465504 -0.1024017
-0.08444782 0.03217137 -0.22333013 0.10280818 -0.06398536 0.08419516 -0.00068139104 0.0060103848
-0.0030426783 -0.116408385 -0.08332667 0.016780162 0.06753198 -0.16064656 -0.19320735 -0.035804234
-0.11511838 -0.10500693 -0.011760062 0.16614865 -0.042144645 0.026103744 0.19193366 0.12527907
-0.26711583 0.1234409 -0.12930927 0.16743909 0.019197071 0.03418553 -0.032134134 0.07549192
-0.10034222 -0.18766907 -0.037110306 0.004492838 -0.016414315 -0.2833701 -0.07691032 0.09270049
-0.03335544 -0.04266893 0.059811246 -0.046193212 -0.22956462 -0.09942188 0.085984334 0.34686652
1.05435785e-08 -6.245005e-09 -5.0814425e-10 -8.606211e-09 -1.97785e-08 -3.7096427e-08 1.3192428e-08 2.225479e-09
1.1052561e-08 1.2166627e-08 -1.6121179e-08 -4.252451e-09 1.1785047e-09 3.026168e-09 4.89352e-09 -7.977812e-09
1.4331929e-08 -2.9473017e-09 5.2937604e-10 2.5353657e-09 -8.561396e-09 -5.618157e-10 1.05149995e-08 -3.878754e-09
-1.1772021e-09 -4.162195e-11 -5.8700276e-09 -2.642881e-09 7.351053e-09 5.950154e-09 1.079242e-09 -3.189687e-09
5.667239e-09 -8.723113e-09 -2.6321672e-08 7.910615e-09 -1.8992573e-08 -9.2651655e-09 -5.120329e-09 -5.0922195e-09
-1.2105914e-08 -1.4283705e-08 -1.6216399e-08 -7.2770834e-09 -8.291522e-09 1.2942351e-08 -4.866053e-09 1.7367675e-09
7.3412516e-09 -6.406685e-09 1.2818117e-08 1.2783523e-08 -6.828209e-09 -3.0643763e-09 1.32964075e-08 -3.301231e-10
8.460468e-09 -3.5014807e-09 -6.6996253e-10 -8.350935e-09 -1.4978925e-08 -1.8744226e-09 -3.264927e-10 -1.4630104e-08
-5.6665494e-06 8.333964e-07 -1.4188784e-06 3.3610368e-06 -2.161521e-06 7.574165e-06 -6.0615815e-07 -1.1745386e-06
1.5998532e-06 3.6971255e-06 -2.061486e-06 -1.6968675e-06 -1.7068923e-07 8.015471e-06 -2.2521886e-06 2.60179e-06
3.7749558e-08 -2.1157275e-06 2.3763541e-06 5.5444607e-06 -4.9933107e-07 1.7135601e-06 -4.3923958e-08 3.8164941e-07
-3.828862e-06 -7.9069775e-07 -2.534635e-08 -4.7237194e-07 -1.3955467e-07 3.8055946e-06 -1.909142e-07 1.0032694e-06
2.4063086e-06 -3.0748051e-06 3.0548356e-06 -1.2346736e-06 -4.328345e-07 1.0547872e-06 -4.1119965e-06 7.314088e-07
-5.8309374e-06 2.5365196e-06 3.867458e-06 -6.2263375e-06 2.7001713e-06 5.9359104e-06 -5.3138086e-07 2.2086963e-06
9.700115e-07 -1.3250096e-06 -2.1444175e-06 -3.4522537e-07 -8.763768e-07 2.1974158e-06 -1.7777037e-06 6.6663716e-08
-1.8991822e-06 2.4839358e-07 -9.3449813e-07 -3.4501295e-06 4.319322e-07 5.091201e-07 5.3305604e-07 -1.0336598e-06

conv1.lin_pos_r.weight f4 [32, 64]
00000000: d096 653e 2d7e 153e eada 8e3d da10 493e
00000010: 7437 523d 405e 1cbd 93d1 ff3d 238e 69bd
00000020: 57a3 9ebb 3a27 0cbe 1f9b 173e 5e81 a8bc
00000030: c3a2 67be 1a05 313e 84ba f33c b461 02be
00000040: bda2 943d 3593 cfbd 3f01 b33d ebde e23d
00000050: 0ff2 22be 9669 07be cfb3 91be 7c45 f83d
00000060: 5200 b63c 549d 35bc b54c edbd a2ae 48bd
00000070: 046e 543e f096 d1bd 8f12 3b3e aa58 d13d
00000080: b3d6 653d 66b8 dabc 3b38 a03e 58a0 513e
00000090: 4c60 263e eaac c23d 36f9 5d3e d0b9 9f3d
000000a0: fe6d 0e3e 91f5 6cbd dc35 5dbd eb2d 08be
000000b0: cbe8 90bd 6711 a03c db68 2cbd a966 4ebd
000000c0: e213 e1bd 3cc7 673e de14 3e3d ad7b b83d
000000d0: a1af a83d df3e 41bd 6cd8 29bc 2244 4f3e
000000e0: 5767 0f3d 9a89 2cbc 6303 ac3d 19b6 0c3e
000000f0: a4ff 763d d984 203e d4ff 703d d061 20be
00000100: c689 9fbd 12d9 e5bc 01ba 70bd f44b c3bd
00000110: 5724 d0bd 3249 6e3d 2645 383e 3083 7c3d
00000120: b73a a53e 31a9 9f3b f188 27bc 0905 1d3d
00000130: 7201 adbb 8530 b43b 7da8 ab3c fc3b f53d
00000140: 7e66 bcbd 559f 483d 2d3f 90be 1df3 ee3d
00000150: 5849 3d3d 9733 cc3c 8154 653d 4047 fbbd
00000160: 21c3 813d bcdf 5dbd 7644 5cbd 64f1 46bb
00000170: 3f79 b6bc 807f 663d 1ce3 93be 040d 0cbc
00000180: 5bab 1f3e 6adc a03d 9cf9 ddbd 8557 01bd
00000190: 1103 a63d 9e70 8fbd 7dca 903d 41c4 9f3d
000001a0: 4d75 8dbe a052 943d 36e0 a2bd c590 1a3e
000001b0: e61e 0a3e 28be d43a e827 2dbc 9b5a dabd
000001c0: a492 01be 65ff 033e 9076 b5bb 99a5 03bd
000001d0: 4d57 bf3c 24f2 1abd cbcd 563d bd92 123e
000001e0: 758a 033c 509d 56be 5f08 a7bd 0da7 f53d
000001f0: a9fb d1bd b3ec 16be 45bf 0bbd edf6 763e
00000200: 1908 3cb5 26ec 7332 1a81 4932 b793 5db2
00000210: 665c 3b32 e5d5 97b3 7084 f5ae 649a 0f34
00000220: 00c9 0234 db6a 97b2 41ea 9131 19d7 2e31
00000230: f702 b7b2 d111 4232 94ab fab1 db30 3e31
00000240: 4af4 5db2 fdae 97b1 723a 60b0 d16a 2cb2
00000250: 2873 a5b3 564b a0b2 8916 61b2 f98e 68b2
00000260: faed 6ab3 c678 5a32 2e0b ea33 e817 04b1
00000270: 53a6 2932 30ac abb1 2167 65b1 562a c731
00000280: b8fe ef32 65e9 4a32 c182 e431 596a 16b2
00000290: 4261 57b2 b284 9fb2 3cd0 0cb2 e68d 1632
000002a0: 1040 1930 4c19 8632 b97c 15b1 31a3 1ab1
000002b0: 79c7 ffb2 2aa5 68b1 0e7f dd31 83a1 5a32
000002c0: 5916 95b2 3915 40b2 cfbc 0fb2 ef7a 32b2
000002d0: ca0a acb2 de95 2332 45cf 09b2 d7fc 0033
000002e0: df0b cc31 0f6c 6532 a892 de32 6d27 16b0
000002f0: faad 0c32 3279 26b3 850d 5432 f9cd e032
00000300: 1533 6ab6 241c b3b5 c135 c835 1b33 30b5
00000310: 0393 2cb5 7285 d935 c980 38b4 f662 14b6
00000320: ba06 99b4 1f8b 0cb6 c71a 0536 e3bc 9ab6
00000330: df50 e534 3090 f3b4 eef8 54b5 ffc2 8d34
00000340: 7bd0 05b6 05d8 02b6 0d4b 8cb5 e8ad 5e36
00000350: 2511 b336 36d6 6036 94d0 f035 ffe6 0535
00000360: 3764 0636 8971 1236 d198 8535 8961 3ab5
00000370: c8f6 8a35 b75b 38b5 e78a 9b34 5334 4535
00000380: d976 93b1 fe5e 14b6 50e7 ca37 0a06 2eb6
00000390: a95f 1135 6e62 f035 cbdb 14b5 7fd2 74b5
000003a0: 3fcf 3135 2506 2eb4 c497 c235 0d7e ef34
000003b0: ecf9 c9b4 7f33 acb5 a4c4 e035 1c0c 5c33
000003c0: 7842 08b6 8941 60b4 87c0 6ab6 1fcf b5b5
000003d0: 469c 1b35 2e28 7d35 e4cf 4ab5 e3d5 0434
000003e0: 779d de34 5d5f 4735 efe6 51b5 a312 22b5
000003f0: f239 a5b5 e571 5d33 3518 b235 d4bf 2f36
0.22420812 0.14598913 0.06975348 0.19635335 0.051322415 -0.03817582 0.12491145 -0.057020318
-0.004841249 -0.13686839 0.14805268 -0.0205695 -0.22620682 0.17287102 0.029752024 -0.12732583
0.07257602 -0.101354994 0.08740472 0.110776745 -0.1591265 -0.13223872 -0.28457496 0.12122628
0.02221695 -0.011084873 -0.11586896 -0.048994668 0.20745093 -0.10233867 0.18268798 0.102219895
0.056112956 -0.026699256 0.312929 0.20471323 0.16247672 0.09505637 0.21677098 0.07799113
0.13909146 -0.057851378 -0.054006442 -0.13298766 -0.07075652 0.019539548 -0.042092185 -0.050390873
-0.109901205 0.22634596 0.04640662 0.09007964 0.082366236 -0.0471791 -0.01036654 0.20240834
0.035010662 -0.010530854 0.083990835 0.1374134 0.06030239 0.15675677 0.058837727 -0.15662313
-0.0778995 -0.028057609 -0.058771137 -0.09535971 -0.10163181 0.058175273 0.17995128 0.061648548
0.32271358 0.004872464 -0.0102255205 0.03833488 -0.0052797133 0.005498948 0.020954365 0.11974332
-0.09199236 0.048980076 -0.281732 0.11667464 0.046212524 0.024926944 0.055988792 -0.12269449
0.06336046 -0.054168448 -0.053776227 -0.0030356282 -0.022274612 0.056273937 -0.28884208 -0.008548025
0.1559271 0.07854541 -0.10838625 -0.031577606 0.081060536 -0.07003902 0.070698716 0.07801104
-0.27628556 0.07242322 -0.07952921 0.15094288 0.1348835 0.0016230987 -0.010568596 -0.10661813
-0.12653595 0.12890394 -0.0055378154 -0.032140348 0.023357058 -0.03782858 0.052442353 0.14313789
0.008028616 -0.20958447 -0.081558935 0.11994753 -0.102530785 -0.14738731 -0.034117956 0.24117632
-7.004724e-07 1.41981555e-08 1.1729094e-08 -1.28974795e-08 1.0905842e-08 -7.0703926e-08 -1.1164836e-10 1.337408e-07
1.2180317e-07 -1.7627306e-08 4.246687e-09 2.5442601e-09 -2.1305352e-08 1.1296337e-08 -7.295464e-09 2.767641e-09
-1.2919438e-08 -4.4145723e-09 -8.157378e-10 -1.0036005e-08 -7.704358e-08 -1.866071e-08 -1.3101848e-08 -1.35366856e-08
-5.469881e-08 1.2716731e-08 1.0898508e-07 -1.9222117e-09 9.874912e-09 -4.9963305e-09 -3.3382508e-09 5.7964753e-09
2.7939095e-08 1.1811015e-08 6.6505383e-09 -8.75533e-09 -1.2536761e-08 -1.8570379e-08 -8.1964195e-09 8.763413e-09
5.5752114e-10 1.5611157e-08 -2.175325e-09 -2.2502713e-09 -2.9776617e-08 -3.3854328e-09 6.446391e-09 1.2725994e-08
-1.7356045e-08 -1.1180696e-08 -8.366626e-09 -1.03889155e-08 -2.0028342e-08 9.521925e-09 -8.021577e-09 3.003228e-08
5.938531e-09 1.3354124e-08 2.5910893e-08 -5.462571e-10 8.18863e-09 -3.8760113e-08 1.2343098e-08 2.6170698e-08
-3.489845e-06 -1.3344729e-06 1.4916806e-06 -6.563948e-07 -6.4288923e-07 1.6206598e-06 -1.7183187e-07 -2.2111321e-06
-2.8503365e-07 -2.0942605e-06 1.983413e-06 -4.611547e-06 4.2713415e-07 -4.5367187e-07 -7.9338395e-07 2.6405175e-07
-1.9939896e-06 -1.949725e-06 -1.0452655e-06 3.3181805e-06 5.3366116e-06 3.3503288e-06 1.7942098e-06 4.9882505e-07
2.0025889e-06 2.1821782e-06 9.953748e-07 -6.943233e-07 1.0353624e-06 -6.8678804e-07 2.8972065e-07 7.346436e-07
-4.2917745e-09 -2.2109011e-06 2.418799e-05 -2.5931536e-06 5.4155913e-07 1.791004e-06 -5.545414e-07 -9.1203395e-07
6.623922e-07 -1.6207248e-07 1.4498296e-06 4.4608933e-07 -3.762101e-07 -1.2829986e-06 1.674653e-06 5.1233755e-08
-2.030427e-06 -2.0885467e-07 -3.4980783e-06 -1.3545831e-06 5.796941e-07 9.4308314e-07 -7.5553385e-07 1.237127e-07
4.1465293e-07 7.427205e-07 -7.819462e-07 -6.037682e-07 -1.2310322e-06 5.155916e-08 1.3269079e-06 2.618869e-06

conv1.lin_pos_r.bias f4 [32]
00000000: a2a9 be3b f7ca dd3d dcd2 fabc d24b 5ab8
00000010: c0a8 983d 9b83 babb fd12 6a3d 127e cd3c
00000020: 1c80 da3d aba1 4e3e a3e1 7a3d e4d5 aabc
00000030: 2e4b 90ba 0335 a03d d11b 673d 7fcf 283c
00000040: dd71 a13d b185 8f3a 718d 8ebd 70c4 723a
00000050: cda1 383c 9221 883d e32c bdbb 5292 033e
00000060: 2669 f2ba ecd1 d8bb f239 afbb 3e38 c73d
00000070: 1d9b 41bc 36e6 8cbc 8984 f53c 4bf7 263c
0.0058185617 0.10829728 -0.030618124 -5.2045863e-05 0.074540615 -0.005691958 0.057147015 0.02508453
0.10668966 0.20178859 0.06125034 -0.020853944 -0.0011008733 0.07822611 0.056423012 0.010303377
0.07883046 0.0010949877 -0.069605716 0.0009260839 0.011269045 0.06647028 -0.005773173 0.12848786
-0.0018494471 -0.0066168215 -0.005347484 0.09727524 -0.011816767 -0.017199617 0.029970424 0.010190795

conv1.lin_neg_l.weight f4 [32, 64]
00000000: 50c6 c335 44ac c2b2 6b7d 54b2 2785 8631
00000010: 481a ecb1 1e8d 9fb4 416a 3f33 b6e1 8cb7
00000020: fa3f bf34 770d a330 d893 0cb2 a681 0032
00000030: b99e 4e32 a42e 60b3 8632 00b1 62e5 69b4
00000040: 7028 60b2 214e cf32 2cd5 deb1 5bf1 19b0
00000050: 7776 2336 d86a 5db2 c46c aab5 b0b1 25b2
00000060: 9468 26b1 3a6e 25b3 0dce e0b2 f971 0a31
00000070: 8bf3 0db2 e040 0332 5837 8cb2 1b6e 7fb2
00000080: 4a9a ffae 46e3 9331 4a03 8bb3 3186 f7b3
00000090: 3e43 bdb2 d14b 9233 fafc 0434 16ad 6032
000000a0: 3c5d adb1 9ab0 1a32 413c cd31 9a91 5233
000000b0: 235f 9f32 72bb 30b2 4441 5532 9c83 9e32
000000c0: 509c 6e32 5b8d 4832 014e 09b5 8bed 8633
000000d0: a82a ceb0 223f 8833 ef1c 2633 4590 ff32
000000e0: 3bf4 8b32 383c d1b2 7ca0 4db2 3954 06b3
000000f0: 8958 a8b2 e698 3030 97b8 9132 0685 79b2
00000100: 45ef 95be 70c1 593e c50f 053d 10e4 c63d
00000110: 9377 7e3d 7de1 de3d 290f ee3c 0a9b c23d
00000120: 1e39 2b3e c798 1cbd 395e 333e 8126 cf3c
00000130: 444d c6bd c8cb 73bc 9a9f 24be 5c31 ce3d
00000140: 76e9 bbba b35e d13d 70c8 90be eadd 69bd
00000150: f361 413e 23e6 ad3d 519a 7bbe 2e9f 8b3b
00000160: 4c2e f2bd c2bb 263d 1d7a 16be b4b5 483e
00000170: 2cf8 16be d460 55be cef5 c03d 16af a3bd
00000180: 19f9 d53d 500d 13be 85ff fd3d 3aed 173e
00000190: eb62 96bb 097f 333e 30ee 673b 67a7 0bbc
000001a0: f2b9 4abd 04f2 50be ee73 4cbe 5f84 a73d
000001b0: 0ec2 94bd a66e 1ebe 7114 a93d 6f54 61be
000001c0: 7806 943e 5ece 8a3c 5c08 15bd a6c7 123e
000001d0: b829 2c3c 1db3 8c3d 0a38 14bd fecb 653d
000001e0: 0dcb 9dbd e2d9 183c 6aa9 643d 6cea 00bc
000001f0: 08a3 7fbd 6b25 fb3d e06a 273c 775b 91be
00000200: e05a 11bf 24ae 3abd 749e 8339 1d11 c63d
00000210: 7f4d 793d 250b 8fbe 78f8 db3d 63d9 193e
00000220: 8056 71bd b480 39bd f18c 8cbe 96cd 4dbe
00000230: 1373 51be 322c 6e3d 4a5d 1f3d 19fe 37be
00000240: 27e6 c83d 84c0 503d 096d c7bd 9d8d 0fbc
00000250: d35f c33d 377a c4bd 72c8 42bd f463 263e
00000260: 7a7c 083c c899 44bd 150e 15bd 2255 9cbd
00000270: c1ad bdbd 29c4 ccbd 5aea 59be af23 ac3c
00000280: 6307 ca3c da53 bcbd f384 11bd 5e2b 48bd
00000290: 7767 b03c 1092 8b3d 7644 0ebd 82c6 b3bb
000002a0: 46c3 3c3d 662e 35be 7b70 10be 9573 6f3e
000002b0: 7dbc b53d 2081 173e 22ec 603d ad3c da3d
000002c0: 07ee 81bd 089e 133e d8d6 d23d ecd0 93bd
000002d0: 5a91 c7bd 7a79 233d 2329 e13d 6453 893e
000002e0: 335b 563c 8f48 2e3e f4a4 8abd d84b 0d3d
000002f0: 920b 163e c9bd 7f3c 4d3c ad3d a185 46be
00000300: 1f8d cb3d f49d acbc 3f57 a43c 1c27 183d
00000310: 4e5a cb3a a8ba adbc 8175 003d c38c 6d3e
00000320: c63b 2ebe 9c10 21bd d033 893c 8f8b 0f3e
00000330: f2a4 ddbc 48a7 1e3e 6739 533d f65b d83c
00000340: e622 d7bd 3b68 533d 29a8 ef3d d53a 59be
00000350: 6e48 6dbe 860a 1b3d 9a6d 1a3d aade 6ebd
00000360: c752 ca3d d282 75bd 48a8 593e 5da3 a1bb
00000370: 1c8c a9bd 4a34 4abd 56bb c0bd 67f6 a9bd
00000380: 1384 5b3e 5d09 85bd 54d1 c2bd 754b af3d
00000390: 04af 5cbc 506e c63c d448 b0bc 039f a93d
000003a0: 0208 f03c 4f53 6d3d fe65 b7bd 00bf 22bd
000003b0: e0ff 333d 66c2 903e 50eb cbbd 9b6b 233e
000003c0: 7fad 883c a10e 2cbe d7d9 573d 5aa9 c1bd
000003d0: 5f01 fbbd bab3 833d 95c7 f53b 9fcf 7fbb
000003e0: 12fb 23be 675d 72bb a5c9 123e c715 1c3e
000003f0: 916f 96bc d19f f4bc ab0f 0bbd a32b 8bbd
1.4586349e-06 -2.266291e-08 -1.2368541e-08 3.915051e-09 -6.871492e-09 -2.9718734e-07 4.456729e-08 -1.6794405e-05
3.5623071e-07 1.1863638e-09 -8.182688e-09 7.480059e-09 1.20268675e-08 -5.2196484e-08 -1.865517e-09 -2.1783265e-07
-1.30477105e-08 2.41335e-08 -6.485285e-09 -5.600406e-10 2.4357848e-06 -1.28881865e-08 -1.2697642e-06 -9.6446655e-09
-2.4215625e-09 -3.8517307e-08 -2.6170733e-08 2.014643e-09 -8.2626554e-09 7.6399544e-09 -1.6323312e-08 -1.4867989e-08
-1.1623465e-10 4.304101e-09 -6.47329e-08 -1.1526243e-07 -2.2033074e-08 6.812446e-08 1.238549e-07 1.3077871e-08
-5.045562e-09 9.004134e-09 5.9731353e-09 4.902686e-08 1.85533e-08 -1.02871685e-08 1.24130715e-08 1.845347e-08
1.3888965e-08 1.1673673e-08 -5.114999e-07 6.28307e-08 -1.5000596e-09 6.344477e-08 3.8676202e-08 2.9751513e-08
1.6292793e-08 -2.4358187e-08 -1.196906e-08 -3.1275906e-08 -1.9598035e-08 6.424571e-10 1.6964163e-08 -1.4523954e-08
-0.2928411 0.21265197 0.032485742 0.09711468 0.062125754 0.10882852 0.029059963 0.095022276
0.16721007 -0.038231637 0.17516412 0.025286915 -0.09682706 -0.014880128 -0.16076508 0.10068008
-0.0014336545 0.102231406 -0.28277922 -0.0570964 0.18885021 0.08491161 -0.24570586 0.004260919
-0.11825237 0.040706404 -0.1469502 0.19600564 -0.14743108 -0.20837718 0.094218835 -0.07992379
0.10447902 -0.14360547 0.12402252 0.14836589 -0.0045894287 0.17528929 0.0035389774 -0.008523799
-0.049493738 -0.20404822 -0.19966099 0.08179545 -0.072635755 -0.15471897 0.08255852 -0.22004865
0.28911185 0.016944107 -0.036384925 0.14333972 0.010507993 0.06870101 -0.036186256 0.056102745
-0.077047445 0.009329291 0.05582563 -0.0078683905 -0.062411338 0.12262996 0.010218352 -0.28390095
-0.5677929 -0.04557623 0.00025104324 0.09671233 0.06086492 -0.2793819 0.10740751 0.15024333
-0.058920383 -0.045288756 -0.2745128 -0.20097956 -0.20454054 0.058147617 0.038907327 -0.17968024
0.09809523 0.050964847 -0.09737594 -0.008761791 0.095397614 -0.09593623 -0.04755444 0.16249067
0.008330459 -0.04799822 -0.036390383 -0.07633425 -0.092616566 -0.09998352 -0.21280804 0.021013109
0.024661725 -0.09195681 -0.03552718 -0.048869483 0.02153371 0.068149686 -0.03473326 -0.0054863105
0.046084665 -0.17693481 -0.14105408 0.23383935 0.08873842 0.14795351 0.054912694 0.10656104
-0.06344228 0.14415753 0.102948844 -0.07217583 -0.097445205 0.03991077 0.10994174 0.26821434
0.013083267 0.17019866 -0.067697436 0.03449616 0.14652851 0.015609213 0.08458767 -0.19386913
0.09939026 -0.021071412 0.020061133 0.037146673 0.0015514584 -0.021207169 0.03136206 0.23198228
-0.1701499 -0.03932248 0.016748339 0.14018081 -0.027056191 0.154935 0.051568415 0.026411038
-0.10504703 0.051613074 0.11701996 -0.21213849 -0.23172161 0.037851833 0.03770218 -0.058317818
0.0987907 -0.059939213 0.212556 -0.0049328045 -0.08278677 -0.049366273 -0.094107315 -0.08298951
0.21437101 -0.064959265 -0.095125824 0.08559314 -0.013469461 0.024222523 -0.021519102 0.08282282
0.029300693 0.057940777 -0.08955 -0.039732933 0.043945193 0.28273314 -0.09956992 0.15959017
0.016684292 -0.16802455 0.052697983 -0.09456129 -0.12256121 0.064307645 0.0075005987 -0.0039033664
-0.16013744 -0.0036981942 0.14334734 0.15242682 -0.018363746 -0.029861363 -0.03395049 -0.067954324

conv1.lin_neg_r.weight f4 [32, 64]
00000000: d330 29b8 ef5d d0b1 9eba cfb2 5cb8 72b2
00000010: 3a1f 0db3 ae9c f132 b071 eeaf c39b 13b7
00000020: 3447 9932 c3b3 89b0 a5da 42b2 2e05 5bb1
00000030: 1188 02b9 a4d9 b0b2 9136 ecb3 c18b 92b5
00000040: c9b7 be31 f76e b631 3bdc f3b1 1b83 5bb2
00000050: b455 4db5 8d0a 0233 f9c1 1732 b8c9 53b1
00000060: 9dec ac33 49f3 1eb4 9a27 9cb1 e55a 5c31
00000070: 3920 8531 ca5e 3432 e5a8 18b2 3f25 1931
00000080: 93cc 42b2 f3e6 ca31 e33e 1735 826e 6c32
00000090: b24b 33b4 baaa 40b2 f2a9 4531 bb39 45b2
000000a0: 5c04 ffb0 843d 5eb2 3402 e2b1 540c 1130
000000b0: 84f2 a3b1 6309 e732 b9f4 9932 a628 2d31
000000c0: df4b 75b2 c024 4a33 bb98 0fb2 3f9a ec31
000000d0: 8da2 0cb2 fafc 1132 8e90 8632 1e37 1eb3
000000e0: 9047 9cb2 c6ae d832 f069 b630 62b2 4835
000000f0: bf8c bd30 6feb 0eb3 963d ac31 b4ef 0fb2
00000100: bb8d 3f3e 25a7 ff3b 6789 08bc 61c8 58be
00000110: e975 9dbd 8bf8 dbbd d649 ae3b 12d3 083d
00000120: 0ff8 35bd e089 3b3e 0b82 4c3e 42ee 383e
00000130: 57eb 263e 1cec d5bc 29cc 1b3e bc16 efbd
00000140: d4cc a4bc ed2b 05bd 7c1a 8f3e 6e92 8e3b
00000150: 6700 e9bd 835e bd3d c1a5 c83d d589 a73c
00000160: 7032 dcbd 252d 953c 3436 0e3e 9530 c4bd
00000170: 4673 283e 8ba3 973d c4cd 85bc e5f2 5ebb
00000180: 35d6 a6bd d7b0 323e b787 e4bd dca4 543b
00000190: 935b 0d3d 5d88 69bc 4755 0c3d 3745 363e
000001a0: 092c ddbc 48fd 513e 0db8 a83d a7d1 563d
000001b0: 8377 823c 5fdd 633e 25a6 c93c 4d82 a13e
000001c0: ce9a 03be a740 c13c 2835 883e b7a8 debd
000001d0: fa16 57bb 4bc5 a6bc 4c3c 2c3c 9f43 0bbe
000001e0: e136 833d 44c6 0c3d 11d4 ac3d 4105 e1bc
000001f0: 25cb 59bd 0c48 30bc 2dc0 49be 26cb 193d
00000200: 1197 f03e b9a4 82bd 2cdc 743b b5f3 cc3d
00000210: 566b 0bbd 8e5d b33d bce7 143e d3a8 0d3e
00000220: a528 a7bd 78b4 41be 618e cabc f79d 81bd
00000230: f7e7 cb3c b7b3 883d 4958 49bd 32f6 733d
00000240: dcb3 1b3e 3bcb 513d 0bdc 3cbe 295b 3bbe
00000250: 3a1b 8ebd 9359 68bd ee65 cabb 345d 08be
00000260: 651e 623d 10b4 92bc 7766 363d 8fc7 b13a
00000270: 8093 acbd b3b0 ce3d 5d97 6b3d 9968 f4bd
00000280: c57c b73d e55b 85bd 6dce f4bd aa9d 963e
00000290: bf1b 4c3e 2a39 4bbd e6f5 cd3b ef9c 8d3d
000002a0: ec41 933d 08c5 a63d 63d6 a53d 72d9 dabd
000002b0: 6696 173e 05af 78bd 42e9 3ebd d935 1ebe
000002c0: b5c0 24bb 860e cebd 0c15 d43d d3b2 ea3d
000002d0: f8b4 8e3a 0b77 6fbd 4e5f fdbd 8bb7 41bb
000002e0: bcc4 013e e305 b4bd 4378 24bd 5cc8 3d3e
000002f0: ae0c 7bbe ba20 563e 0b56 973b 0ca2 373e
00000300: 48c7 3cbf 9d38 473e 7f45 13be 70b1 a7bd
00000310: 6d4f 32be 5395 b43d d21c 4abe 4445 f1bd
00000320: a3a0 7d3c ad51 18bd 6f5f 703e d338 f9bd
00000330: cdbf a2bd e07d b13b 411f bdbd 2e77 6c3c
00000340: b2a0 563d 57f9 bfbd 86d5 39be 0792 da3e
00000350: f30f 553e e752 a43d 0619 b93a b2de a5be
00000360: 053d 83bd e29e d13e 2d1a 91bd b8c6 483e
00000370: 94ca 31be f7f2 6bbd f849 41be 97a3 ab3d
00000380: 26a5 48bd 61ae 03be f0ec 823e d097 87bc
00000390: 2f0a 1bbe 1015 cf3d e412 4dbc 3561 683c
000003a0: 5cb9 74be 56cb 943d e8bf c03d 9b3c 413e
000003b0: d5c5 1d3d 4370 bdbd 348a 28bd 4302 a43c
000003c0: 2c25 fcbc 6deb 01be 49b8 163e 98ed 743e
000003d0: 243d de3d 4899 46be cfdd 6fbd fafd a4bd
000003e0: f96e 6a3d f9dd 273d 783b 7a3d bcc6 82bd
000003f0: 9d13 56bd e12b 4f3c 0ba9 70bc 4db2 bcbd
-4.033821e-05 -6.0642757e-09 -2.4182835e-08 -1.4128172e-08 -3.285752e-08 2.8127342e-08 -4.3372728e-10 -8.798149e-06
1.7843924e-08 -1.0019153e-09 -1.1342e-08 -3.1871639e-09 -0.00012448455 -2.0588068e-08 -1.0999532e-07 -1.0918521e-06
5.5506217e-09 5.3095124e-09 -7.097268e-09 -1.2777288e-08 -7.6493166e-07 3.027758e-08 8.833461e-09 -3.0819205e-09
8.052414e-08 -1.4803403e-07 -4.5446997e-09 3.206588e-09 3.8744727e-09 1.04989315e-08 -8.885967e-09 2.2285602e-09
-1.1338801e-08 5.9052296e-09 5.6343396e-07 1.37621345e-08 -1.6698212e-07 -1.121469e-08 2.8763876e-09 -1.1480036e-08
-1.8554931e-09 -1.2936088e-08 -6.577716e-09 5.276821e-10 -4.771495e-09 2.6896208e-08 1.7922831e-08 2.519792e-09
-1.4278128e-08 4.7065214e-08 -8.358422e-09 6.8860397e-09 -8.186032e-09 8.497631e-09 1.5665389e-08 -3.683737e-08
-1.8193333e-08 2.5225187e-08 1.3272352e-09 7.4765387e-07 1.3791562e-09 -3.3276077e-08 5.0128603e-09 -8.378198e-09
0.1870641 0.0078019076 -0.0083335405 -0.21170188 -0.07688505 -0.10740765 0.0053188605 0.033404417
-0.04442602 0.18314314 0.19971482 0.18059638 0.16300713 -0.026113562 0.152146 -0.11674258
-0.0201172 -0.032512594 0.27949893 0.004350952 -0.1137703 0.09246542 0.0979724 0.020451466
-0.10751808 0.018210003 0.13887864 -0.09579579 0.16450223 0.0740424 -0.016333468 -0.0034019288
-0.081463255 0.17450272 -0.11158698 0.0032446897 0.03451116 -0.014253703 0.034261014 0.17799841
-0.026998537 0.20506775 0.0823823 0.052446034 0.015926128 0.22252415 0.024615357 0.31544724
-0.12852022 0.023590399 0.26603055 -0.108720236 -0.0032820092 -0.020357748 0.010512423 -0.13600014
0.06406952 0.03436877 0.08438886 -0.027468326 -0.05317225 -0.010759365 -0.19702215 0.037547253
0.46990255 -0.063790746 0.0037362678 0.10007421 -0.03403791 0.087580785 0.14541525 0.13833933
-0.08162049 -0.189165 -0.024726095 -0.063289575 0.024890883 0.06674903 -0.04915646 0.059560962
0.1520533 0.051219206 -0.18443315 -0.18296494 -0.06938787 -0.05672605 -0.0061767017 -0.13316804
0.055204768 -0.017908126 0.04453131 0.0013563501 -0.08426571 0.100922965 0.0575174 -0.11934013
0.08959345 -0.06511668 -0.11953435 0.29417163 0.1993246 -0.049615063 0.006285417 0.06914698
0.07190308 0.081430495 0.08097532 -0.10686006 0.14803466 -0.060713787 -0.04660917 -0.15450229
-0.0025139276 -0.10061364 0.10355577 0.11459889 0.0010887673 -0.058463138 -0.123716936 -0.0029558863
0.12672704 -0.08790185 -0.040153753 0.18533462 -0.24516556 0.20910922 0.0046184114 0.1793291
-0.7374158 0.1945519 -0.1438198 -0.081881404 -0.17413111 0.08817544 -0.19737557 -0.117807895
0.015480193 -0.037187267 0.23473905 -0.121690415 -0.07946739 0.005416617 -0.09234477 0.0144327115
0.052399345 -0.0937373 -0.18147859 0.42689535 0.20806865 0.08023625 0.0014121837 -0.32396466
-0.06408123 0.4094153 -0.07085071 0.19607055 -0.17362434 -0.057604756 -0.18875873 0.08380812
-0.048985623 -0.12859489 0.25571394 -0.016551882 -0.15140603 0.10111439 -0.012516711 0.014183332
-0.23898834 0.07265346 0.09411603 0.18870775 0.038518745 -0.09249928 -0.041147426 0.02002061
-0.030779444 -0.12687464 0.14718737 0.2391876 0.108515054 -0.1939441 -0.058561143 -0.08056255
0.057234738 0.040983174 0.06109187 -0.06385562 -0.0522648 0.012644739 -0.0146887405 -0.09213696

conv1.lin_neg_r.bias f4 [32]
00000000: cbe3 85bd eeb4 be3d fb09 b03d 5130 0b3e
00000010: b615 4d3d 3161 983a 132b 3f3d cd62 823d
00000020: f002 06bb 4c21 f93d 1a29 2fbc ec4a 8a3d
00000030: ebd7 9b3c 2004 daba ae16 053e fa6f 4ebb
00000040: f521 69bc 2176 3ab7 e0fa 2339 b392 be3d
00000050: d1af fdb8 d3a8 0abd bead 9c3d 483c 3f3d
00000060: 8130 3cba 374e a2bc a14e e73d a3e5 963d
00000070: 9e5b 583b e992 90bc f9c2 273d dd68 98bc
-0.06537589 0.09311853 0.085956536 0.1359265 0.050069533 0.0011625645 0.04667194 0.06366501
-0.0020448528 0.12164554 -0.010690952 0.067525715 0.019023856 -0.001663331 0.12996933 -0.0031499849
-0.014229287 -1.1113968e-05 0.0001563835 0.093053244 -0.000120967285 -0.03385241 0.07650326 0.046688348
-0.00071788585 -0.019812686 0.11294294 0.073680185 0.0033013592 -0.017648177 0.040957425 -0.01860469

convs.0.lin_pos_l.weight f4 [32, 64]
00000000: b723 583e 1d73 323e ebd6 3b32 6aae 5336
00000010: d55b 94bd c04e b933 ecee b63e be88 17be
00000020: 2718 ed3d 2199 4c3d d923 56bd ba86 b8b1
00000030: b253 bfbd 4bbd c83d c013 90bd f816 273e
00000040: a9b6 b1bc 17d5 6cbe 62dc 163b 7115 b4bd
00000050: d1f5 38bd ced8 aa3c 98eb ecbd c8be 8e3e
00000060: f7f0 f8b8 fb4a 0bb2 d809 6f39 1a54 23bd
00000070: 935d 65b2 eeef c7bc 4a98 313e 1ad1 47bd
00000080: b522 6ab1 3239 e23b 097f 483e 12c0 30bc
00000090: 6d33 d93c 29d5 88be 7693 38be bb70 8ebc
000000a0: e6e5 5fbd c8d2 363d 3669 8735 7935 d23d
000000b0: a94c b0bb 82e9 e0b9 f3b6 95bd f979 fab3
000000c0: 64ca 0431 631e 963b 0c9f c43d 3a18 c63e
000000d0: da1f 3e2f 796c 8ab2 8269 983e 5e5b a13b
000000e0: 4883 2335 7ebf 51bd 7358 a83d bdf1 f23d
000000f0: 3797 3f3d b2fd f8b0 ae6f e2bc de1c ecb0
00000100: e75c 4fbe 3695 a7bd a058 6b32 0b0f 38b6
00000110: ea78 2cbe 2d8b 3db3 2fd1 dcbd 0620 bfbb
00000120: 40c9 893d 76c1 0abd 3ee2 ad3d 33bc 1633
00000130: 58d2 84bc 10e5 88be ae49 a43d e511 3c3d
00000140: 13d5 5ebd 201b 9c3d c7ed 66bb 94c2 0a3e
00000150: de6d d03d c21d 583e e728 edbd 4b0e 35be
00000160: b477 4fb7 9218 0332 5a03 703a e23e 0e3e
00000170: 60ea 90b0 7281 03bb 0f3a 053d 1b7a 1abe
00000180: e947 4eb2 bfa1 c63e 9365 393e be32 283e
00000190: 48b2 c9be d4a5 b63d 1622 2e3e a854 11bd
000001a0: 63f7 35be c27f 733e f8d8 a836 f364 18be
000001b0: 887a 9cbd 4859 53ba 062d d4bc 029c 83b4
000001c0: db50 92b0 c432 1d3e ee09 38bd db12 17be
000001d0: 06b1 47b2 f919 53b1 ba16 bf3e f56e 09bd
000001e0: 0ed1 78b7 488d ac3d ad90 bd3d 47e1 643e
000001f0: 7415 b4bd fbfa b831 d2e1 b1be ef54 2eb1
00000200: bd98 98b1 be9a 1b33 88af 6132 dc02 f830
00000210: e9d0 07b2 9109 0cb2 88fc ce30 60e0 86ae
00000220: bdf5 dfb1 17d6 3231 e39e a2b1 166b 43b1
00000230: b98d fb31 5c77 a9b1 4f36 3932 1fbc b632
00000240: 10c0 0631 9800 34b2 12f4 1132 420f 18b2
00000250: b718 bc32 32f5 ab32 c475 f8b1 1ce1 92b1
00000260: c9bd 70b2 1595 99b1 26e8 1330 2f1c 45b0
00000270: ff8b c530 3679 a4b1 d0b9 2032 d49c d0b1
00000280: 7c3a bcb0 ff75 af31 6c98 9832 eeb5 6431
00000290: 7e34 f7b1 f45e 3fb0 1e92 6932 cc94 8331
000002a0: 8e07 63b2 98c0 90b1 bf31 84b1 aab5 0931
000002b0: e9f8 eb31 8995 b2b0 a9e5 5fb0 b446 1831
000002c0: 0d15 9831 b5cd f1b1 12e4 1a32 d467 9132
000002d0: 00c0 f331 cbdf bbb1 739a 3c32 69af 6932
000002e0: 46ee 55b1 210c 5031 c154 28b1 880e 24b2
000002f0: de1e 4eb1 5288 96b1 455a b5b0 a215 d631
00000300: 9ccd 0331 08f9 4431 6e35 97b0 43a6 1c32
00000310: ec4e 1132 431c 9130 3034 7532 da5b ee31
00000320: f4e3 7fb2 87e7 1332 402f 73b0 9e46 0732
00000330: 53d3 63af 039f a332 87e0 dab1 518b 1c31
00000340: a1fb 08b2 7d2e 2b30 57e3 fd31 137e 2732
00000350: df50 1332 b652 77b2 23e4 83b2 ceaf 3cb2
00000360: 675b 1631 bfa5 54b0 359b b930 32a5 47b0
00000370: 1a47 7b31 33b3 24b1 4371 9ab2 e6be a531
00000380: ab0d 93b2 f235 be30 7c1c 5c30 a9bf 43b1
00000390: a632 77b0 40d7 2d32 00e3 4830 2ee9 28b1
000003a0: b6a9 71b0 6695 9a30 9d23 a531 e4e6 29b1
000003b0: e56b 1931 9b8b 68b2 58ec 6432 09ff c331
000003c0: 939a 75b0 8ded 7eb1 7cd4 78b2 95b3 2731
000003d0: 6f20 d12f 58de 4030 3fb9 3fb0 a7cf 8f31
000003e0: 73fc dcae 424e 4a31 5d2a 9631 264a 9fb1
000003f0: b857 90b1 ddca 5f32 d6e8 fd30 c741 5f31
0.21107374 0.17426725 1.0933699e-08 3.1542972e-06 -0.07244078 8.6290584e-08 0.35729158 -0.14798257
0.11576872 0.049950723 -0.05228028 -5.3704214e-09 -0.093421355 0.0980173 -0.07035017 0.16317356
-0.021693544 -0.23128162 0.0023019542 -0.08793152 -0.045156304 0.020855334 -0.115683734 0.2787993
-0.00011870445 -8.1079135e-09 0.00022796483 -0.039875127 -1.3350831e-08 -0.0244064 0.1734325 -0.0487834
-3.407121e-09 0.006903791 0.1957971 -0.010787981 0.02651378 -0.26725128 -0.18025002 -0.017387738
-0.054662608 0.04463461 1.0088904e-06 0.10264105 -0.0053802324 -0.00042898586 -0.073102854 -1.1663719e-07
1.9323574e-09 0.004581259 0.09600648 0.38690358 1.7291715e-10 -1.6114642e-08 0.29767996 0.004924222
6.091327e-07 -0.05120801 0.08219995 0.11862514 0.04677507 -1.8116479e-09 -0.027641144 -1.7179465e-09
-0.20250283 -0.081827566 1.3698951e-08 -2.7426893e-06 -0.16843 -4.413157e-08 -0.10782086 -0.005832675
0.067278385 -0.033875905 0.08490418 3.5095763e-08 -0.016213581 -0.2673726 0.08021866 0.045915503
-0.054402422 0.07622361 -0.0035236941 0.13550788 0.101772055 0.21105102 -0.11580067 -0.17681234
-1.2366032e-05 7.63079e-09 0.0009155773 0.13891175 -1.0543992e-09 -0.002006617 0.032526072 -0.15085642
-1.2007129e-08 0.38795277 0.18105154 0.16425607 -0.3939383 0.08918348 0.1700519 -0.035481125
-0.17770152 0.23779204 5.0320486e-06 -0.14882259 -0.076405585 -0.0008062315 -0.025900375 -2.4514162e-07
-1.0645879e-09 0.15351397 -0.044931345 -0.14753287 -1.1623575e-08 -3.0719305e-09 0.37322026 -0.033553082
-1.4830626e-05 0.08425385 0.0925611 0.22351561 -0.08793154 5.383638e-09 -0.347426 -2.5368612e-09
-4.4411466e-09 3.6229487e-08 1.3136635e-08 1.8045188e-09 -7.905535e-09 -8.151248e-09 1.5060246e-09 -6.1334715e-11
-6.5180914e-09 2.6024105e-09 -4.732884e-09 -2.8437106e-09 7.3211734e-09 -4.932117e-09 1.0780766e-08 2.1273136e-08
1.9608741e-09 -1.0477514e-08 8.495606e-09 -8.851034e-09 2.189732e-08 2.0018522e-08 -7.2311384e-09 -4.274751e-09
-1.4012991e-08 -4.4698347e-09 5.380819e-10 -7.1708234e-10 1.4373426e-09 -4.7868083e-09 9.355475e-09 -6.071426e-09
-1.3695423e-09 5.106585e-09 1.7764442e-08 3.3281782e-09 -7.194614e-09 -6.962033e-10 1.3595608e-08 3.829518e-09
-1.3214857e-08 -4.212847e-09 -3.847361e-09 2.0039388e-09 6.867698e-09 -1.2993705e-09 -8.1453294e-10 2.2159101e-09
4.4261754e-09 -7.0374093e-09 9.015837e-09 1.6927437e-08 7.0940587e-09 -5.4678586e-09 1.0978158e-08 1.3602269e-08
-3.1131022e-09 3.0274878e-09 -2.4495395e-09 -9.54936e-09 -2.9994491e-09 -4.3810724e-09 -1.3195139e-09 6.230679e-09
1.9179884e-09 2.8663312e-09 -1.1001882e-09 9.118199e-09 8.458056e-09 1.0558171e-09 1.4272743e-08 6.937154e-09
-1.4894784e-08 8.609169e-09 -8.847003e-10 7.874091e-09 -2.0720607e-10 1.9048008e-08 -6.370161e-09 2.278018e-09
-7.973456e-09 6.22755e-10 7.3891147e-09 9.749345e-09 8.574914e-09 -1.43960985e-08 -1.5354152e-08 -1.0983014e-08
2.187983e-09 -7.736069e-10 1.3504634e-09 -7.2630535e-10 3.6565724e-09 -2.3967004e-09 -1.7979465e-08 4.8238347e-09
-1.7119268e-08 1.3839652e-09 8.007601e-10 -2.848518e-09 -8.993005e-10 1.01188675e-08 7.308216e-10 -2.4579765e-09
-8.7916463e-10 1.1247436e-09 4.806181e-09 -2.4723983e-09 2.2325761e-09 -1.353592e-08 1.3325085e-08 5.704241e-09
-8.9350144e-10 -3.7096897e-09 -1.4483813e-08 2.440378e-09 3.8039924e-10 7.016516e-10 -6.9748646e-10 4.185455e-09
-1.0049286e-10 2.9439353e-09 4.3703907e-09 -4.6359387e-09 -4.200924e-09 1.3026434e-08 1.8474349e-09 3.248816e-09

convs.0.lin_pos_r.weight f4 [32, 32]
00000000: 2ea3 493e 8692 ca3e ed34 d2b1 a2db 17b5
00000010: 0d5d 7fbe cc49 2d34 bb16 c03d d95e 55bd
00000020: 60b4 3fbc 03bd 5cbe f87c 97bb 3e8e 1932
00000030: fbe6 f5be 31e0 c6be 2f25 19be 8e7b bcbc
00000040: a897 133e 74d4 80be ac46 403a 1978 24be
00000050: 51dc c7bd afc8 9b3d b5cc 9abd 2ca0 cf3e
00000060: 5bf2 1538 91f5 ceb1 3231 02ba f246 5cbd
00000070: 4c25 a333 71ec 1f3c b1b1 a6be a2d4 ebbc
00000080: c1f6 99be 6564 ccbd 9b3b 1532 033f fcb6
00000090: 6386 3bbe d548 b7b3 a4de bbbe 7360 5fbd
000000a0: 89dd fbbd 5c55 51be 9358 b93d b7b4 4cb3
000000b0: d186 49be 0ca6 92be be69 d53e 3e83 bdbc
000000c0: 29a8 0a3d 2e11 613e 629f 4abb c557 c93e
000000d0: b724 433c 8a80 883e 1db6 01bf d9c1 9ebe
000000e0: 18ba 5338 bc6a 18b1 802e ec3a c37e 0b3e
000000f0: 3582 a0b3 d906 763b fb17 e23e d34e f0be
00000100: 07ae cc31 812a 4931 7b9c f2af 1072 7c31
00000110: 7356 de31 8a89 ce31 b1bf 4c32 bb0a a632
00000120: c656 2533 572d 7432 c787 1db2 befa c832
00000130: 67e1 d62f b3b8 da31 6e51 afb1 03e8 0232
00000140: 9695 2c32 1bd4 d631 1359 2332 feaa a1b2
00000150: 57c4 fd32 a665 3332 c4cc 0b32 b32c 6432
00000160: c3bc 9531 81cb f2b1 199b 8d31 9e83 feb2
00000170: 054f a7b1 1df3 d132 ca32 8832 9c70 d5b1
00000180: d411 b7b1 6f5f ccb1 a78f f830 26b0 c2b2
00000190: e3dc 6f32 a464 4931 bae0 78b2 7e5a f7b1
000001a0: 7657 47b3 cca5 fab2 41ba 0633 560b c1b1
000001b0: 0b18 cb32 a7d8 54b2 8465 d2b2 c118 f732
000001c0: 53f1 3433 8e34 73b2 7193 d9b2 d23d a2af
000001d0: a9ea fab1 c618 e432 7920 7fb1 6288 71b3
000001e0: 68e7 b330 672f 0fb1 d090 e1ae 440f 23b3
000001f0: 04ed 50b2 dcc7 60b1 95f2 2d32 342a a6b2
00000200: 77da a837 12b5 7338 2cf6 1832 646c 81af
00000210: 2579 0339 0b9f 1531 89c2 06b7 dc8b 8b38
00000220: c846 8938 eaab 0939 1b42 fc38 f499 9db2
00000230: 65c9 0439 637d 1cb6 f2fc 6038 fadf acb8
00000240: 1730 7b38 f355 3239 95ae 9732 7bb3 b638
00000250: ee52 2338 c945 85b8 a608 b4b7 6632 a638
00000260: 57a1 84b2 e257 8232 4a86 fd31 9b2a 05b7
00000270: ef8e da32 cbb8 a435 836d 0538 8fad e737
00000280: 04df 46be 0afb a4be 9d26 bfb1 8c7d 0037
00000290: 70ba 22be 3f06 8833 f177 bb3e c17d 9f3d
000002a0: 44af 363b 6756 353e 1cd2 9dbe e2df aab3
000002b0: f538 ba3d e84b b43e fb9a eabe dc33 263e
000002c0: cc83 babe 4e73 683e 74e1 443b 0f4b 2d3e
000002d0: 8660 1fbe cfc7 07bf 0c76 ccbd 65b1 1bbf
000002e0: e855 acb8 ed59 e4b2 483e 9136 0911 513e
000002f0: b0b3 2eb3 39ed a0bb 5628 903e cd9d b6be
00000300: 0242 39b8 e534 c2b8 eddc 922f 7e7c 8830
00000310: 1e45 ed38 aed6 eb32 1d14 67b8 e617 ddb9
00000320: 507a 49b7 524f 38b9 fb54 40b8 7939 2631
00000330: 2f65 2b39 59c4 0437 4f44 e0b8 21e8 b3b8
00000340: 9fcc 6938 6e07 4fb8 9486 1837 8d94 4f38
00000350: 74f0 b537 f027 05b9 ef77 14b8 531a 57b9
00000360: 6b7a 7632 79b6 34b2 24d0 41b4 89f9 bfb8
00000370: 0d31 4832 0db8 e8b4 b552 12b7 6568 ef38
00000380: f696 ea3a 8e26 7c37 a22a 9ab1 05cf a931
00000390: e09b 383a b3e5 91b0 d12d aa37 b48d be3a
000003a0: f191 983a 1372 fd3a 329e 0439 bee6 beb2
000003b0: ce51 c13a 2134 a1ba 17a8 263b 078d 033a
000003c0: c34b efba b405 8f3a 6017 3834 e88e 5e3a
000003d0: 9c2f 23ba c160 3f3a 0b3e 32b8 0e51 ae3a
000003e0: eca4 8830 ed5f 2ab2 590a 5333 b41d df39
000003f0: 2153 9531 ce5b d334 59f4 59ba 1def 85bb
0.19691154 0.39564914 -6.1178214e-09 -5.657149e-07 -0.2493784 1.6138728e-07 0.093793355 -0.052092407
-0.01170072 -0.21556477 -0.0046230517 8.938114e-09 -0.48027787 -0.3884292 -0.1495559 -0.023008134
0.14413321 -0.2516209 0.00073347497 -0.16061439 -0.09758819 0.07606637 -0.07558576 0.4055189
3.575008e-05 -6.0233067e-09 -0.0004966437 -0.053778596 7.597063e-08 0.009760962 -0.32557443 -0.028787915
-0.3007107 -0.09980086 8.686494e-09 -7.5175208e-06 -0.18312983 -8.5348496e-08 -0.366933 -0.05453534
-0.12298114 -0.20442718 0.09050097 -4.766181e-08 -0.19680335 -0.2864231 0.41682237 -0.02313387
0.033851776 0.2197921 -0.0030917753 0.39324775 0.011910609 0.26660568 -0.5066851 -0.3100727
5.0479634e-05 -2.2179583e-09 0.0018019229 0.13622575 -7.474265e-08 0.0037540703 0.4415892 -0.46935138
5.956966e-09 2.927351e-09 -4.413073e-10 3.6735663e-09 6.4708785e-09 6.0110255e-09 1.1917948e-08 1.9329823e-08
3.8495976e-08 1.4212978e-08 -9.169475e-09 2.3397089e-08 3.908653e-10 6.365633e-09 -5.102428e-09 7.619749e-09
1.004573e-08 6.2523333e-09 9.508102e-09 -1.8820625e-08 2.9542361e-08 1.04422835e-08 8.137423e-09 1.328151e-08
4.3579305e-09 -7.0662627e-09 4.1212727e-09 -2.9629344e-08 -4.869323e-09 2.4441357e-08 1.585558e-08 -6.211918e-09
-5.328028e-09 -5.948031e-09 1.8085203e-09 -2.2664675e-08 1.3961855e-08 2.9306557e-09 -1.4486597e-08 -7.198934e-09
-4.6412843e-08 -2.9179226e-08 3.1368703e-08 -5.618328e-09 2.3643244e-08 -1.2389285e-08 -2.4493382e-08 2.8765841e-08
4.2129e-08 -1.4156411e-08 -2.5329173e-08 -2.9511554e-10 -7.3026354e-09 2.6553959e-08 -3.7125842e-09 -5.6236225e-08
1.3089734e-09 -2.0836184e-09 -1.0257539e-10 -3.796528e-08 -1.2161085e-08 -3.2709897e-09 1.0125082e-08 -1.9344135e-08
2.0128891e-05 5.810435e-05 8.9035375e-09 -2.354198e-10 0.00012538263 2.177276e-09 -8.032316e-06 6.654087e-05
6.545853e-05 0.00013129381 0.000120286095 -1.8347215e-08 0.00012663526 -2.3318796e-06 5.3641335e-05 -8.243318e-05
5.988785e-05 0.00017007421 1.7658104e-08 8.711867e-05 3.8939463e-05 -6.354933e-05 -2.14617e-05 7.924884e-05
-1.5440191e-08 1.5173956e-08 7.378536e-09 -7.937338e-06 2.5443539e-08 1.2272734e-06 3.181166e-05 2.7618165e-05
-0.19421011 -0.32222778 -5.5632214e-09 7.658626e-06 -0.15891433 6.33413e-08 0.36614946 0.077876575
0.0027875463 0.17708741 -0.30824363 -7.956966e-08 0.09092895 0.35214162 -0.45821366 0.1623072
-0.36428678 0.22700235 0.0030041607 0.16923164 -0.15564165 -0.5303926 -0.09983453 -0.6081756
-8.2176004e-05 -2.6583587e-08 4.3285872e-06 0.20416655 -4.0675957e-08 -0.0049110916 0.28155774 -0.35667267
-4.416891e-05 -9.260493e-05 2.6714223e-10 9.930685e-10 0.00011313915 2.7455226e-08 -5.5093424e-05 -0.0004217021
-1.2009012e-05 -0.00017577157 -4.585551e-05 2.4188849e-09 0.00016345525 7.913529e-06 -0.00010693876 -8.5786225e-05
5.5742097e-05 -4.9359565e-05 9.09124e-06 4.9490995e-05 2.1688851e-05 -0.00012698746 -3.5397647e-05 -0.00020513804
1.4346919e-08 -1.0518868e-08 -1.8050247e-07 -9.154069e-05 1.1652685e-08 -4.3347282e-07 -8.721535e-06 0.00011415853
0.0017897773 1.5029347e-05 -4.4868367e-09 4.9420827e-09 0.000704227 -1.0615423e-09 2.0286914e-05 0.001453808
0.0011640174 0.0019336365 0.00012647433 -2.222384e-08 0.0014749111 -0.0012298861 0.002542978 0.0005018268
-0.0018256832 0.0010911734 1.7144839e-07 0.00084899226 -0.0006225051 0.0007300489 -4.249629e-05 0.0013299303
9.942176e-10 -9.917113e-09 4.9136677e-08 0.00042556005 4.3459214e-09 3.936861e-07 -0.00083143037 -0.0040873424

convs.0.lin_pos_r.bias f4 [32]
00000000: 6de7 fe3c 5237 3d3e b456 f3b7 25d5 81bc
00000010: dfc3 24ba 2d4c 8a3e 574c 0dba b3f5 1fbb
00000020: 9e99 a5bc e78d f0bc 6fc1 00bd 2882 edb6
00000030: 412d 883d 1b2e 193e 6ed5 4cbd efb1 2fbd
00000040: 8cee d9b7 6928 c7bb 8687 1abd 11fa 9cbc
00000050: 13a5 17bd 5d88 1a3e bb56 82bb 9ebf c23d
00000060: 9d25 56bc a232 8fba c6b1 afbb 1e7a 223e
00000070: 68d8 e1b5 f2be 1abd 98b3 173e 0f3f 1c3e
0.031116212 0.18478134 -2.9008232e-05 -0.015848706 -0.00062852906 0.27011243 -0.00053900987 -0.0024407923
-0.020214852 -0.02936454 -0.031434473 -7.0783026e-06 0.066492565 0.14958994 -0.05000823 -0.0428943
-2.5979498e-05 -0.0060778153 -0.0377269 -0.01916221 -0.03702266 0.15091081 -0.0039776242 0.09509204
-0.013070491 -0.0010925124 -0.0053617684 0.15866897 -1.6826789e-06 -0.037779756 0.14814603 0.1525843

convs.0.lin_neg_l.weight f4 [32, 64]
00000000: cdb9 e630 18c9 e6b8 9fb0 063b aceb faba
00000010: 73f8 863a 3cba bdba 6ceb 473a 796f a4b9
00000020: 121a 73b9 ad0a a1ba 0adf ceb0 bc10 de3a
00000030: f972 493b dff9 8faf dfd1 7e3b 3706 6731
00000040: 44af 0bb1 1e2d ee38 48dd 9e3a cebb 093b
00000050: a472 7232 46ed adb1 22a5 beba 010e f3b9
00000060: 8093 86b2 64c8 72b8 7c72 a63a ef32 c1ba
00000070: e6af 6b39 f539 9cb1 2041 9a39 fb48 82b0
00000080: 4536 823b 20bc 37bb 2aef 0cb0 ade2 e131
00000090: 2fff bd3a b314 0db0 c368 153b e92f 92ba
000000a0: e1ea cf3a caae 2dbb a1c3 05bb 4be1 ab31
000000b0: ab16 693a e8a3 48ba 512c d0ba 0b8b 4b3b
000000c0: ed2f 72ba c97c a2ba 80b7 68b1 d351 af3b
000000d0: ddde 34ba ed2f 10bb 94c5 e4b9 2a01 3fbb
000000e0: 74f9 2132 45d7 90af f870 3432 0539 833a
000000f0: 7abf 2432 1a46 5f39 b8a4 b13a 69f6 56ba
00000100: 8108 08b2 b971 d1b4 df68 49b5 4bce 54b5
00000110: 21fc ffb3 b98d 3ab5 8ca3 2835 6523 2ab5
00000120: 5c29 4732 6b02 0fb6 a287 8931 424d ccb2
00000130: 1fcb 2bb4 799b 84b2 65d2 7cb4 617b 0fb1
00000140: 9be9 96b2 37b6 98b3 19d5 b334 d736 4bb5
00000150: 678f e5b1 68b7 3232 af40 2eb5 2838 62b4
00000160: fb43 4e30 5bd3 16b3 a6e0 23b5 afbe 3cb3
00000170: b6c4 3c34 0639 1732 67f1 0234 6076 cfac
00000180: 3ded 0d36 35fa 3835 8265 6eb2 c3a9 7632
00000190: 9259 b2b3 4a90 0a32 8154 a135 485a c0b4
000001a0: 5161 be35 b070 d2b5 34bb 98b5 4f55 09b2
000001b0: e54e 8a34 0fbc 6db5 bf9c b735 f3db 4735
000001c0: 7bbe 42b4 b662 8f33 5aa5 20b1 7365 1636
000001d0: 0038 5434 c4ed c835 b8d6 d633 4df6 8e35
000001e0: 742f 19b1 341e 22b2 cbc7 97b2 054c 1a36
000001f0: 3504 b6b1 a6df 10b3 3ee1 14b5 e05b 0c34
00000200: 9274 98b2 0d91 47bc 850e 32bb 6e0d 8ebc
00000210: 0b2c f237 453f 3d32 3055 01b5 339b 4034
00000220: 675a 2732 7501 c839 f6fe cb31 5fbf d2bb
00000230: 076f a6b2 9e21 1f32 3a13 543b f576 feb1
00000240: c939 a5b1 cd46 1032 49ef cf32 22ff 86ba
00000250: fcf7 5232 39ab 1233 ea39 ff3b d1c4 0c3a
00000260: 9ec8 c5ae 8b11 07b2 59d9 25bb 96ae 133c
00000270: 5e2e 42b7 bc03 04b3 fd9e 4c38 933c 63b2
00000280: 5cbf 20b2 d58e 203d 2503 69b2 8262 9b32
00000290: 961d 4532 9d10 0132 2109 6b3b fd21 76b1
000002a0: fa59 69bc ad0d 593d 68f9 26bc 13fc ebb7
000002b0: e6a1 a2bb 7bbc b43c e042 0e3d 3978 55bc
000002c0: 7aa3 d3bb 792c ae32 ee6f ccb0 f2b1 3732
000002d0: 753d 923b f070 30bc ea4b 8734 3896 5a3d
000002e0: 92ab 1632 58c9 bf2e 8670 03b2 7350 f2bb
000002f0: 02d2 5532 17e9 07b2 7108 93bc 8bfc aab3
00000300: 447c 4732 99be 123e 139c efbd 59cc d53e
00000310: 5df8 e33d 2d26 09be 504c b83e e9cf 5ebe
00000320: 34ec 03be 4452 0b3e 0b13 4436 e8db 35bd
00000330: 3f77 2e3d 0f99 ef3b c269 a03e 5afb 4334
00000340: e5ae 89b2 522c 98bd f3a2 d6be 7bcc 443d
00000350: 8873 a830 da64 a132 017f 393d 56b5 cb3c
00000360: 0b1b eab5 62b4 eabd bb73 a3bc 6e04 503d
00000370: e9ed 5fbe 410b 02b2 cc3f 033e d51d 9432
00000380: 44e9 dcbd dc9e 9abd 96ca 9231 9ba3 25b6
00000390: 486f 41bc c199 bd31 fe81 063d 5ade 7b3d
000003a0: efc1 273e da68 a83d c254 03bc 9d2c ccb1
000003b0: 9368 82be c2de 8abc 793b 123e a854 153e
000003c0: db7d dd3d 8ad6 723d 91bc ce3a 639c 473d
000003d0: d0b0 413c 8d04 e53d 1a0d eebd d03f 773d
000003e0: 16da 85b9 f98f 88b1 8d9a 9d3a d56f bdbc
000003f0: e5a7 4631 01f3 7cba 662d 7ebd c8ae 813d
1.678751e-09 -0.00011004711 0.0020552052 -0.0019143722 0.0010297432 -0.0014475058 0.0007626328 -0.0003136357
-0.00023183998 -0.0012286507 -1.5051864e-09 0.0016942243 0.0030738695 -2.6189093e-10 0.0038882417 3.3618457e-09
-2.032679e-09 0.00011357128 0.001212039 0.0021016481 1.411232e-08 -5.0619375e-09 -0.0014545063 -0.00046359006
-1.5666728e-08 -5.7883924e-05 0.0012698914 -0.0014739911 0.00022476874 -4.5467865e-09 0.0002942169 -9.479487e-10
0.0039737546 -0.0028035715 -5.1271576e-10 6.574132e-09 0.0014495606 -5.1324917e-10 0.0022798039 -0.0011153194
0.0015862846 -0.0026501887 -0.0020410793 5.002368e-09 0.00088916224 -0.00076538185 -0.0015882348 0.0031058218
-0.0009238709 -0.0012396808 -3.386475e-09 0.0053503304 -0.00068996643 -0.0022001222 -0.00043634756 -0.002914498
9.4281525e-09 -2.6346406e-10 1.0503065e-08 0.00100115 9.589593e-09 0.00021293052 0.0013553118 -0.000820017
-7.9181754e-09 -3.9012028e-07 -7.503094e-07 -7.927635e-07 -1.1920225e-07 -6.9496633e-07 6.282287e-07 -6.338144e-07
1.15927286e-08 -2.1310068e-06 4.0026444e-09 -2.3783858e-08 -1.5999511e-07 -1.5437523e-08 -2.354587e-07 -2.0879372e-09
-1.756853e-08 -7.111196e-08 3.3496397e-07 -7.5703196e-07 -6.68108e-09 1.0402665e-08 -6.491418e-07 -2.106832e-07
7.503897e-10 -3.5116823e-08 -6.104914e-07 -4.3945587e-08 1.7580427e-07 8.802322e-09 1.2195015e-07 -5.896436e-12
2.1148728e-06 6.890944e-07 -1.38765035e-08 1.4357684e-08 -8.305064e-08 8.065465e-09 1.2020029e-06 -3.5828475e-07
1.4184426e-06 -1.5679016e-06 -1.1379366e-06 -7.9938465e-09 2.5761906e-07 -8.856304e-07 1.3680182e-06 7.4453345e-07
-1.8136954e-07 6.676912e-08 -2.3377056e-09 2.2410793e-06 1.9764411e-07 1.497036e-06 1.0004209e-07 1.0651507e-06
-2.2291404e-09 -9.4365085e-09 -1.7669569e-08 2.2992037e-06 -5.2973754e-09 -3.373102e-08 -5.5462067e-07 1.307194e-07
-1.7748139e-08 -0.012180579 -0.00271693 -0.017340388 2.8869157e-05 1.1015634e-08 -4.818021e-07 1.7937855e-07
9.7412345e-09 0.00038148058 5.9370633e-09 -0.0064315046 -1.9375433e-08 9.262662e-09 0.0032360093 -7.405897e-09
-4.8087014e-09 8.398001e-09 2.4206786e-08 -0.0010299424 1.2279994e-08 3.4149e-08 0.0077888863 0.0005369904
-8.9941596e-11 -7.862023e-09 -0.0025306551 0.0090137925 -1.1574097e-05 -3.073704e-08 4.878546e-05 -1.3226912e-08
-9.356736e-09 0.039198715 -1.35631e-08 1.8089171e-08 1.1473636e-08 7.512566e-09 0.0035863596 -3.5817032e-09
-0.0142426435 0.052991558 -0.010191299 -2.8131564e-05 -0.0049631475 0.02206253 0.034731746 -0.013029152
-0.006458697 2.027649e-08 -1.4874766e-09 1.0692462e-08 0.0044628927 -0.010769114 2.5200944e-07 0.053365916
8.77016e-09 8.72144e-11 -7.6507884e-09 -0.007394844 1.2445982e-08 -7.911033e-09 -0.017948361 -7.962179e-08
1.1611579e-08 0.1433052 -0.11699691 0.41757467 0.11131356 -0.13393469 0.35995722 -0.21758999
-0.12883073 0.136056 2.921736e-06 -0.044399172 0.04259419 0.007311947 0.31330687 1.8252231e-07
-1.6028432e-08 -0.074303284 -0.41921195 0.04804657 1.2256445e-09 1.8788729e-08 0.045287136 0.024866741
-1.7442229e-06 -0.114601865 -0.019952646 0.050785474 -0.218681 -7.569555e-09 0.12817305 1.7243034e-08
-0.107866794 -0.07549831 4.2721906e-09 -2.4682147e-06 -0.011806317 5.5181038e-09 0.032838814 0.061491348
0.16382574 0.08223124 -0.008015813 -5.9422534e-09 -0.2547041 -0.016951922 0.142805 0.14583075
0.10815021 0.05928663 0.001577275 0.048733126 0.011821941 0.111825086 -0.11623593 0.06036359
-0.00025530224 -3.9744887e-09 0.0012024209 -0.023124615 2.890823e-09 -0.00096492475 -0.062055014 0.06332165
