bitcoin-alpha/models/bitcoin-alpha-train-7.pt (torch, 63739 bytes, 14 tensors)

conv1.lin_pos_l.weight f4 [32, 64]
1.0226144e-08 5.784808e-09 -5.763638e-08 -1.65222e-08 -1.1970966e-08 -1.8769735e-09 3.232683e-10 1.512439e-09
4.0601327e-09 -7.3375026e-09 -6.9490236e-09 7.146188e-09 7.537796e-09 3.6914827e-09 -9.118932e-09 9.237362e-09
8.9254515e-10 6.3871854e-09 2.4982185e-09 -1.3869175e-08 2.7293878e-09 -9.734862e-10 4.6960693e-09 -1.6636182e-08
9.208026e-09 -1.6939126e-08 -1.5385075e-09 9.096613e-09 -5.908941e-09 3.9248143e-09 4.523591e-10 8.270241e-09
-5.944933e-09 -8.6581124e-09 -9.096425e-09 1.0427935e-09 -8.167366e-09 -1.1078037e-08 9.08415e-09 4.9879008e-09
4.252626e-09 7.407884e-09 1.263031e-08 7.8899856e-09 3.925302e-09 -3.8177985e-09 -7.3353754e-09 -5.107104e-09
-4.1263775e-09 1.3323107e-09 2.5326854e-09 -8.240386e-09 -6.6320255e-10 -1.2101762e-08 -8.985662e-09 -8.67313e-09
2.079793e-09 -5.103047e-09 -1.5091485e-08 7.333266e-10 4.5069943e-09 1.4904417e-08 -3.6280758e-09 -6.6946995e-09
-0.43364638 -0.40069154 0.14223365 -0.0130034285 0.09325737 0.10585834 -0.16277932 -0.037943423
-0.12494326 0.14660256 -0.019165682 -0.0057858056 -0.0039010523 0.0020586173 -0.08676656 -0.059417505
-0.18931426 -0.0074304324 0.13838173 -0.07528366 -0.003227526 0.040234923 -0.067393474 -0.11722218
-0.057969533 0.01636487 0.112085015 -0.14383887 0.1634081 0.008409562 0.015351773 0.18058585
-0.036829762 -0.02664913 -0.043397047 -0.014655234 0.12214342 0.23458546 0.085011125 0.025001306
0.106439695 -0.062348332 0.13299999 -0.06269716 0.17833167 -0.19144073 -0.034058243 -0.19031212
-0.07970175 0.03946079 -0.02332524 0.0039513935 -0.017809447 -0.026896285 0.18237932 -0.029854199
0.016442366 0.052890927 -0.051552873 -0.050070476 -0.037005085 -0.13643932 -0.16482107 -0.136389
-1.3743518e-08 -1.8904075e-08 -8.245789e-09 1.1690535e-08 -9.580779e-09 1.5207782e-08 -5.472828e-10 -9.5714725e-09
1.5601124e-08 -6.9173676e-09 1.6622613e-08 9.921298e-11 1.8460329e-09 1.0773483e-08 -7.779325e-09 -1.040599e-08
1.6204368e-08 3.7665817e-09 1.3667588e-08 -8.290692e-09 -7.377028e-09 -9.058565e-10 9.053171e-09 2.0261067e-08
1.2581076e-08 5.154512e-09 5.438317e-09 -9.817859e-09 3.6381538e-09 6.31897e-09 2.894467e-09 1.616522e-08
5.9433387e-09 -9.644954e-09 1.2472489e-08 -9.044734e-09 -1.5670102e-08 -1.3613817e-08 3.3628136e-09 7.1887074e-09
8.907744e-09 -2.7013491e-09 1.8343469e-08 -2.1067477e-09 -8.071588e-09 -1.1302829e-09 1.964241e-09 2.7637626e-09
1.1444388e-08 1.0415403e-09 6.5457826e-09 -1.6045409e-08 -9.585684e-09 -1.5887146e-08 7.3678135e-09 2.2725009e-09
-4.9591964e-10 7.723654e-09 -5.3205813e-09 -5.5742526e-09 1.6105302e-08 -7.914113e-10 7.815736e-09 1.783926e-08
0.15414108 -0.058369417 -0.033831883 -0.043828636 -0.07746141 0.11780046 -0.2222258 0.048946965
0.11463706 0.035764243 -0.0066749533 0.035574567 -0.05023099 0.09749203 -0.03002139 0.05354883
-0.015889322 -0.009800913 -0.20670234 -0.023876408 -0.12232325 -0.006600516 0.04908468 -0.029582562
-0.20331988 -0.09338264 0.018872626 0.16041982 0.10088404 0.05093922 -0.010234033 0.06277279
0.18265593 0.12147054 -0.097638175 -0.096624255 -0.16401255 0.060513474 0.0047009396 -0.08873725
-0.0094730025 -0.021327272 -0.078624375 -0.07199499 -0.084018126 0.09935154 0.036565978 -0.0423696
-0.062034905 0.036497384 0.026828028 -0.047293484 -0.04169518 0.0971259 -0.037967604 0.11419375
0.109616175 -0.046296544 0.017910274 0.018651135 -0.005235728 -0.014435413 0.24718735 -0.024040688
00000000: 0faf 2f32 b6c3 c631 df8b 77b3 b4ec 8db2
00000010: dea8 4db2 11fc 00b1 f8b7 b12f 37de cf30
00000020: 4e81 8b31 5b1d fcb1 42c4 eeb1 898a f531
00000030: 947f 0132 40ad 7d31 7da9 1cb2 59b2 1e32
00000040: 4857 7530 4776 db31 20ad 2b31 4745 6eb2
00000050: e68f 3b31 80cb 85b0 105b a131 5ae7 8eb2
00000060: 5431 1e32 8881 91b2 6c73 d3b0 5447 1c32
00000070: 9807 cbb1 08db 8631 e2af f82f e814 0e32
00000080: 2f44 ccb1 c8be 14b2 8046 1cb2 0952 8f30
00000090: 7550 0cb2 b951 3eb2 8410 1c32 0a62 ab31
000000a0: 7e1e 9231 7088 fe31 b1fc 5832 868c 0732
000000b0: 52df 8631 b62d 83b1 a50a fcb1 907a afb1
000000c0: 00c8 8db1 841c b730 790b 2e31 9a91 0db2
000000d0: bb4c 36b0 1de8 4fb2 5c5f 1ab2 d400 15b2
000000e0: 1bec 0e31 e056 afb1 87a2 81b2 4693 4930
000000f0: f1db 9a31 2907 8032 c951 79b1 3307 e6b1
00000100: e606 debe 7127 cdbe b3a5 113e 550c 55bc
00000110: b8fd be3d 42cc d83d 9faf 26be 906a 1bbd
00000120: 40e2 ffbd fb1e 163e 5901 9dbc db96 bdbb
00000130: cca8 7fbb dee9 063b abb2 b1bd c55f 73bd
00000140: 99db 41be fc7a f3bb f1b3 0d3e 522e 9abd
00000150: e784 53bb 60cd 243d 9705 8abd 2f12 f0bd
00000160: 7671 6dbd 9f0f 863c d48c e53d 7f4a 13be
00000170: 7454 273e 42c8 093c 0186 7b3c 7feb 383e
00000180: ceda 16bd 474f dabc 1ac1 31bd 821c 70bc
00000190: 5426 fa3d 2c37 703e 501a ae3d 8acf cc3c
000001a0: 0efd d93d f760 7fbd 2631 083e 5e67 80bd
000001b0: 949c 363e 0a09 44be a880 0bbd 2ee1 42be
000001c0: ac3a a3bd a3a1 213d 9314 bfbc b17a 813b
000001d0: 1ee5 91bc 9955 dcbc a5c1 3a3e cb90 f4bc
000001e0: 24b2 863c 28a4 583d 1b29 53bd b316 4dbd
000001f0: a592 17bd c0b6 0bbe dbc6 28be 8fa9 0bbe
00000200: a21c 6cb2 8062 a2b2 5da9 0db2 84d7 4832
00000210: b698 24b2 44a2 8232 9a6f 16b0 c86f 24b2
00000220: 3c03 8632 cfad edb1 83c9 8e32 f12b da2e
00000230: 82b7 fd30 4816 3932 d5a5 05b2 07c6 32b2
00000240: c831 8b32 346b 8131 b0ce 6a32 d96e 0eb2
00000250: 0679 fdb1 fcff 78b0 4488 1b32 8f0a ae32
00000260: 2824 5832 911b b131 f1db ba31 67ab 28b2
00000270: 1403 7a31 3f1e d931 01e8 4631 b2db 8a32
00000280: 2936 cc31 f5b2 25b2 9646 5632 2963 1bb2
00000290: eb9a 86b2 33e2 69b2 3e17 6731 8a00 f731
000002a0: ac08 1932 a3a2 39b1 b791 9d32 4cc6 10b1
000002b0: 38ab 0ab2 4b58 9bb0 4bfb 0631 a0ec 3d31
000002c0: f39c 4432 f125 8f30 50e9 e031 3ad4 89b2
000002d0: 49ae 24b2 3478 88b2 f927 fd31 422a 1c31
000002e0: 3e51 08b0 fdb0 0432 54d0 b6b1 a587 bfb1
000002f0: ef57 8a32 9f8a 59b0 f845 0632 f33c 9932
00000300: 29d7 1d3e c514 6fbd 4d93 0abd a885 33bd
00000310: 16a4 9ebd 5e41 f13d 298f 63be 9d7c 483d
00000320: d6c6 ea3d 877d 123d 91b9 dabb a3b6 113d
00000330: 03bf 4dbd e7a9 c73d 6bef f5bc 0556 5b3d
00000340: 532a 82bc 0294 20bc c7a9 53be 7598 c3bc
00000350: 9d84 fabd 2449 d8bb 040d 493d 2157 f2bc
00000360: 1633 50be 663f bfbd c49a 9a3c 1845 243e
00000370: 4b9c ce3d a5a5 503d a5ac 27bc 058f 803d
00000380: 280a 3b3e 8cc5 f83d 86f6 c7bd f0e2 c5bd
00000390: e8f2 27be fadc 773d 570a 9a3b e0bb b5bd
000003a0: a734 1bbc 88b6 aebc d105 a1bd 1c72 93bd
000003b0: b211 acbd d278 cb3d 35c6 153d bf8b 2dbd
000003c0: 5018 7ebd 487e 153d 74c6 db3c d0b6 41bd
000003d0: 91c8 2abd f2e9 c63d eb83 1bbd 6ade e93d
000003e0: 727e e03d 72a1 3dbd 91b8 923c 44ca 983c
000003f0: 7890 abbb 8382 6cbc ae1e 7d3e faf0 c4bc

conv1.lin_pos_r.weight f4 [32, 64]
-8.952706e-09 1.1208473e-08 -4.1908894e-09 -5.428032e-09 1.11707354e-08 -8.38724e-08 -1.0223808e-08 1.6138109e-09
-1.0239082e-08 2.0299597e-08 -1.5653766e-08 4.7212612e-08 5.6144622e-09 -1.6526704e-08 1.4542908e-08 3.8217273e-08
-1.5214665e-08 -1.4953981e-08 6.609623e-09 -1.0870251e-08 -3.018813e-08 -1.4790908e-08 6.4064016e-09 -6.9434076e-09
-7.735811e-09 -4.78424e-09 4.5472026e-09 -1.0572827e-08 1.5857488e-08 -1.4015497e-08 2.099502e-08 -1.4973722e-08
-2.4160671e-09 -1.3966733e-09 1.0329773e-08 -3.662863e-09 -6.8901733e-09 1.40131045e-08 -4.5687276e-09 9.615543e-09
-1.3139757e-08 9.854973e-09 -6.069944e-09 -1.1386771e-08 -9.006184e-09 -9.014354e-09 1.8922657e-08 -8.500673e-10
-4.2297175e-09 -7.42702e-09 1.5824996e-08 3.790731e-09 5.0687996e-09 8.46586e-09 -4.055012e-09 4.2535495e-09
5.9220038e-09 -2.011339e-09 1.8277689e-08 -2.693067e-09 -8.848391e-09 -4.899632e-09 1.6067586e-08 4.277177e-09
-0.537601 -0.029260455 -0.09864767 0.040845174 0.13587111 -0.043653585 -0.30517232 0.061295867
-0.27361566 0.03495176 -0.046828847 0.031829525 -0.13141921 0.109057665 0.025853422 0.024456559
-0.0555965 -0.092174314 -0.050419662 -0.12711523 0.03120674 0.15328214 0.03390076 0.008727359
0.16930613 -0.07727527 0.12601545 0.062291037 -0.02079707 0.18651858 0.03708538 0.15561871
-0.09615766 -0.08092146 -0.10004698 0.067411296 -1.6906313e-05 0.25295642 -0.015715638 -0.010579891
-0.10072064 -0.16533913 0.0688809 -0.10066606 -0.05553669 0.041101716 -0.07155269 -0.068308644
-0.12364849 -0.11215084 -0.13868883 -0.030471697 0.18363614 -0.12687759 -0.11822613 -0.119979374
-0.0637068 -0.11027421 0.08843624 0.1143594 0.13335375 0.020186331 0.04838816 0.110959634
6.226642e-08 4.0939496e-09 -7.480658e-09 3.2665088e-09 -2.9381873e-08 -4.7631046e-09 1.261548e-08 -1.6318813e-08
4.6094343e-08 1.1209099e-09 -6.8268937e-09 6.7338433e-09 9.352113e-09 1.9698792e-08 -2.3150042e-09 2.0423688e-08
-2.6306012e-08 5.7063357e-08 4.079065e-08 -2.0032211e-09 1.4696981e-08 -1.224268e-08 -2.6328348e-08 4.5352735e-09
-1.2945719e-08 -5.244648e-09 -1.319349e-08 -1.0668137e-08 -4.152773e-09 -4.209747e-09 -4.5614186e-08 -5.168507e-08
-1.6297621e-08 -2.7272732e-08 -1.4875086e-08 -6.055196e-08 -5.124746e-09 3.742363e-08 -3.9932196e-08 8.707128e-09
-7.126744e-10 -3.336233e-08 -7.0289214e-09 8.304228e-09 -1.8223723e-09 1.3011718e-08 2.5471174e-08 -1.727629e-08
-4.789974e-09 8.847587e-09 3.8023527e-09 1.9164117e-08 -1.0176898e-08 -1.0969189e-08 5.8790967e-10 8.60942e-12
9.998065e-09 9.925634e-09 -1.4554573e-08 -1.8443505e-08 -1.1129745e-09 -3.573893e-08 -9.674658e-09 -6.6940165e-09
0.12642658 -0.08710241 -0.012572111 -0.067658626 0.029877484 -0.089686334 -0.1835856 -0.12563261
-0.065672226 0.20961754 0.10547573 -0.03279477 0.069018796 0.19440147 0.0775527 0.053599354
-0.075968646 -0.11802295 -0.15959403 0.09745029 0.10117278 -0.10438899 0.015587816 -0.09027182
-0.27046436 -0.0066715046 0.030449951 -0.19566171 -0.12977487 0.18197176 0.002497103 0.05652392
0.22945164 -0.051429424 0.0009979611 -0.10101067 0.11662238 -0.06897141 0.05532872 0.12500565
-0.11899212 -0.25963193 0.039160073 -0.107651025 0.09442375 0.0420876 0.08195274 -0.12487321
0.053974427 -0.15343349 0.06380332 -0.0619807 0.08973971 -0.037022065 -0.0945846 0.29634503
0.18010788 -0.050088413 -0.040960506 0.21193224 -0.033295646 0.2285963 0.4402374 -0.0380193
00000000: 6bce 19b2 638f 4032 74ff 8fb1 7981 bab1
00000010: 6ae9 3f32 571d b4b3 c8a4 2fb2 eccc dd30
00000020: f5e7 2fb2 495f ae32 ff76 86b2 d1c6 4a33
00000030: 55e9 c031 9bf6 8db2 63d8 7932 5624 2433
00000040: 67b1 82b2 2774 80b2 dc1a e331 dfbf 3ab2
00000050: 33a8 01b3 1a1b 7eb2 4e1f dc31 dc92 eeb1
00000060: 75e6 04b2 9f62 a4b1 9e3d 9c31 c9a3 35b2
00000070: fc36 8832 cfc8 70b2 8a58 b432 909f 80b2
00000080: e707 26b1 13f5 bfb0 d276 3132 c4b5 7bb1
00000090: 9bbe ecb1 49be 7032 f4fa 9cb1 9b31 2532
000000a0: 43bd 61b2 a14e 2932 cb8f d0b1 8c9f 43b2
000000b0: 9eb9 1ab2 8cdd 1ab2 5d8b a232 2baa 69b0
000000c0: fd54 91b1 c230 ffb1 89ef 8732 9f3f 8231
000000d0: a229 ae31 3f71 1132 4354 8bb1 9e26 9231
000000e0: 7f7a cb31 da37 0ab1 1001 9d32 f010 39b1
000000f0: a303 18b2 9e59 a8b1 ff04 8a32 72f6 9231
00000100: 38a0 09bf 9fb3 efbc ca07 cabd 454d 273d
00000110: cc21 0b3e 1ace 32bd 8c3f 9cbe 6011 7b3d
00000120: 5a17 8cbe 9429 0f3d 9bcf 3fbd ad5f 023d
00000130: c292 06be a059 df3d 8eca d33c 1f59 c83c
00000140: 28b9 63bd e3c5 bcbd d984 4ebd 7f2a 02be
00000150: 47a5 ff3c fef5 1c3e 86db 0a3d 32fd 0e3c
00000160: 965e 2d3e 7f42 9ebd 320a 013e e324 7f3d
00000170: 9e5e aabc bafe 3e3e d7e6 173d 835a 1f3e
00000180: 4fee c4bd 27ba a5bd 6ee5 ccbd ef0e 8a3d
00000190: 08d2 8db7 8183 813e 15be 80bc 4757 2dbc
000001a0: 9f46 cebd a94e 29be 6e11 8d3d 022a cebd
000001b0: 717a 63bd 465a 283d 378a 92bd 67e5 8bbd
000001c0: 6b3b fdbd 57af e5bd 7204 0ebe c89f f9bc
000001d0: 1d0b 3c3e 33ec 01be 8b20 f2bd bfb7 f5bd
000001e0: b678 82bd 72d7 e1bd 0f1e b53d 4335 ea3d
000001f0: e38d 083e ce5d a53c aa32 463d ce3e e33d
00000200: 54b7 8533 c3aa 8c31 4884 00b2 0879 6031
00000210: 6c63 fcb2 b6a8 a3b1 78bb 5832 732d 8cb2
00000220: 44f9 4533 830e 9a30 fe91 eab1 835f e731
00000230: 07ab 2032 1a36 a932 fc15 1fb1 2a70 af32
00000240: 88f7 e1b2 d315 7533 cb31 2f33 0aa9 09b1
00000250: 027e 7c32 e053 52b2 a628 e2b2 b0d4 9b31
00000260: e067 5eb2 6934 b4b1 95a9 62b2 f646 37b2
00000270: 2db0 8eb1 54a5 90b1 54e9 43b3 56fc 5db3
00000280: d9fe 8bb2 5f45 eab2 528d 7fb2 cb08 82b3
00000290: be15 b0b1 b7bb 2033 ea81 2bb3 5b96 1532
000002a0: 01e6 43b0 454a 0fb3 0c83 f1b1 62aa 0e32
000002b0: 0677 fab0 248a 5f32 b4cb da32 f766 94b2
000002c0: 0f95 a4b1 1900 1832 d9a5 8231 579e a432
000002d0: 79d6 2eb2 0173 3cb2 779a 2130 6175 172d
000002e0: f4c3 2b32 6685 2a32 b00b 7ab2 b26d 9eb2
000002f0: 4ff7 98b0 5e7f 19b3 9935 26b2 3101 e6b1
00000300: f875 013e c062 b2bd 41fb 4dbc 9b90 8abd
00000310: a0c1 f43c 78ad b7bd ddfd 3bbe d6a5 00be
00000320: 297f 86bd fba5 563e a903 d83d cf53 06bd
00000330: ba59 8d3d 2e11 473e f3d3 9e3d ff8a 5b3d
00000340: 7395 9bbd 04b6 f1bd 9e6c 23be 0594 c73d
00000350: ad33 cf3d e5c9 d5bd 0a64 7f3c 6fe0 b8bd
00000360: 4e7a 8abe a39c dabb 2d72 f93c 8b5b 48be
00000370: b4e3 04be ce56 3a3e 70a6 233b a085 673d
00000380: 5ff5 6a3e a9a7 52bd 05ce 823a afde cebd
00000390: b7d7 ee3d e240 8dbd 5ea0 623d 7b01 003e
000003a0: 24b2 f3bd 7aee 84be 5066 203d 2478 dcbd
000003b0: 3d61 c13d 0c64 2c3d d7d6 a73d 87bd ffbd
000003c0: 4a14 5d3d ab1d 1dbe 51ab 823d 79df 7dbd
000003d0: 74c9 b73d 73a4 17bd 92b5 c1bd 89ba 973e
000003e0: 336e 383e 8229 4dbd 34c6 27bd c404 593e
000003f0: 0461 08bd 2615 6a3e cc66 e13e 20ba 1bbd

conv1.lin_pos_r.bias f4 [32]
-0.00010408086 0.06908475 -0.007999219 0.001713124 0.007450154 0.0055802255 0.07110179 -8.619636e-05
0.119907446 0.1387392 0.030830598 -0.0027347286 0.014508014 0.06687173 0.09245345 0.03732243
0.03151073 0.068708256 -1.0947894e-05 -0.004237967 0.017777313 0.0784771 -0.00805603 0.24879636
-0.0031238869 0.032623634 -0.015023238 0.017149422 0.021402119 0.014048728 0.048389588 0.005814116
00000000: fc45 dab8 4e7c 8d3d 280f 03bc e78a e03a
00000010: 6c20 f43b 53da b63b d19d 913d 52c4 b4b8
00000020: 0992 f53d a611 0e3e 7390 fc3c 2239 33bb
00000030: 05b3 6d3c 0cf4 883d 3c58 bd3d 68df 183d
00000040: 6511 013d eab6 8c3d d9ac 37b7 a5de 8abb
00000050: baa1 913c 9ab8 a03d 70fd 03bc 79c4 7e3e
00000060: 20ba 4cbb 5ca0 053d 0724 76bc f27c 8c3c
00000070: 7f53 af3c a32c 663c 2934 463d 5784 be3b

conv1.lin_neg_l.weight f4 [32, 64]
0.011036932 0.008753484 0.0017781556 -0.0026235802 0.0019976732 -0.003687092 -0.008658083 0.005523785
0.002709221 -0.0066944715 -0.010474066 0.0012318724 0.00494637 0.002982998 -0.0016910622 0.00074465194
0.0027333738 -0.004137112 -0.012977771 0.0047017774 -0.0014671499 0.003735021 -0.009031742 0.010970702
0.015495321 0.0018904775 -0.0036599739 0.009721783 0.008540662 -0.013881917 -0.0058771246 -0.004836377
-0.009796737 -0.0027755988 -0.0070346487 0.00982361 -0.016708048 0.015524779 -0.00515717 0.004296844
-0.0018700304 -0.008210651 0.0078409575 -0.0035061 0.01062951 0.0020473541 0.013348899 -0.0014181816
0.00587087 -0.0018352184 -0.008140567 -0.017407829 -0.0070241606 0.004201453 0.013969788 0.001038489
0.024319468 -0.017067997 0.0005303473 0.0013185479 0.0015130751 -0.011639342 -0.0061990866 0.009011111
-0.43170616 -0.075729854 0.03693813 0.2520012 0.019892119 0.000116565345 0.01567438 0.03727686
-0.0042943596 0.0893856 0.11993527 0.25832945 0.124189 0.022730049 -0.051519785 0.17346217
0.048673853 -0.095437326 -0.011028912 0.04019797 -0.011499734 -0.11333409 -0.0024163304 0.08116249
-0.36023858 0.10519205 -0.17252733 0.051071618 -0.19148721 0.029383346 -0.11225158 -0.11787698
0.21897864 -0.044422552 0.17463972 -0.34333223 0.11668564 -0.06125018 0.06712864 -0.09602182
-0.2880699 -0.28402752 -0.107351825 -0.10376081 -0.01884041 0.10549837 -0.17166507 -0.24032655
0.08831804 0.14410108 -0.014886023 -0.0052513094 0.2140791 -0.16878732 0.04593685 -0.19963609
-0.13424154 0.07956298 -0.07809939 0.11398842 0.13146405 -0.17503206 0.32654196 -0.039061736
-0.54218215 -0.18935814 0.025782615 0.20474654 0.19135194 0.040827252 -0.09473494 -0.11847489
-0.3792081 0.15292338 -0.08775959 -0.07969882 -0.06922098 -0.062628515 -0.06799016 0.17373018
0.06317783 0.11028885 -0.002644552 -0.0040516662 0.23619737 -0.16635242 -0.06136031 0.056629393
-0.04961054 0.056589585 0.025945207 -0.13442542 -0.14870319 0.026188733 -0.07077284 0.07597313
0.15994905 -0.27182835 0.08139195 -0.067304745 -0.014980327 0.11872792 0.033466622 -0.030817227
-0.042494353 0.017898755 -0.09884172 0.15301305 -0.13758448 -0.2220677 0.0033554803 -0.06541823
0.050268378 -0.03849077 0.0012319139 0.043533694 -0.10980358 -0.20099111 -0.090526365 -0.18548301
0.06474151 -0.031056784 -0.053333364 0.040207796 -0.026800204 0.003250796 0.026085893 -0.10692498
0.14497273 -0.029475627 -0.01723094 0.031997725 -0.0064328294 0.008089295 0.08950629 0.12853879
-0.2213408 0.048792977 0.01573334 0.058078997 -0.08802043 -0.060026713 0.03823356 -0.04001682
-0.09219466 0.018242875 -0.20002556 -0.08686064 -0.06015654 -0.02241214 0.03272288 -0.11159648
0.048025567 -0.015426826 -0.052379183 0.02916585 0.091738865 -0.045273617 -0.17071345 -0.010543487
-0.03509623 0.1536633 0.020365624 0.1525406 0.033808455 -0.2171282 0.15406036 0.19884019
-0.033171862 -0.118300915 0.058207434 -0.03026107 -0.11814374 -0.025046146 0.045216877 -0.053317327
-0.051154032 -0.047716156 0.013142507 -0.03235157 -0.15208016 -0.13058178 0.193308 -0.047940932
0.12095877 0.056872033 0.11012757 0.046312697 0.13347523 -0.012771587 -0.054433607 -0.049240433
00000000: 3fd4 343c c66a 0f3c 0011 e93a 5ff0 2bbb
00000010: 65eb 023b 24a3 71bb a2da 0dbc de00 b53b
00000020: 308d 313b 4c5d dbbb 6b9b 2bbc c776 a13a
00000030: 2915 a23b 677e 433b a2a6 ddba bf34 433a
00000040: 6722 333b 9c90 87bb b8a0 54bc 5e11 9a3b
00000050: 624d c0ba 41c7 743b dff9 13bc 76be 333c
00000060: 16e0 7d3c e6c9 f73a 2cdc 6fbb 1d48 1f3c
00000070: 22ee 0b3c fb70 63bc e594 c0bb 797a 9ebb
00000080: 7e82 20bc d2e6 35bb e982 e6bb 35f3 203c
00000090: 51df 88bc a55b 7e3c 7afd a8bb 8acc 8c3b
000000a0: cf1b f5ba f785 06bc 5c77 003c 99c6 65bb
000000b0: 6527 2e3c e72c 063b 57b5 5a3c 47e2 b9ba
000000c0: 6d60 c03b b68b f0ba 0360 05bc dd9a 8ebc
000000d0: ee2a e6bb 58ac 893b 8ae1 643c e91d 883a
000000e0: 9f39 c73c 2fd2 8bbc 0107 0b3a 20d3 ac3a
000000f0: 6052 c63a f0b2 3ebc b521 cbbb 57a3 133c
00000100: 9708 ddbe 4118 9bbd 704c 173d 4d06 813e
00000110: ccf4 a23c 8b74 f438 8f67 803c 9faf 183d
00000120: b3b7 8cbb cc0f b73d 9fa0 f53d c243 843e
00000130: cd56 fe3d 5e34 ba3c 6906 53bd 11a0 313e
00000140: 3c5e 473d a574 c3bd 9cb2 34bc a0a6 243d
00000150: 6169 3cbc b41b e8bd 4c5b 1ebb 8538 a63d
00000160: 3171 b8be ee6e d73d 01ab 30be 7930 513d
00000170: 3915 44be 58b5 f03c 28e4 e5bd 7c69 f1bd
00000180: f03b 603e 6cf4 35bd c1d4 323e 3ec9 afbe
00000190: e1f8 ee3d 78e1 7abd be7a 893d 17a7 c4bd
000001a0: e67d 93be 0e6c 91be 46db dbbd 8c80 d4bd
000001b0: 3457 9abc 880f d83d f8c8 2fbe 2a18 76be
000001c0: 17e0 b43d 3c8f 133e 81e4 73bc 2d13 acbb
000001d0: 8d37 5b3e 95d6 2cbe 4728 3c3d 676d 4cbe
000001e0: 9d76 09be eaf1 a23d 93f2 9fbd c372 e93d
000001f0: 839e 063e 9b3b 33be 8230 a73e 33ff 1fbd
00000200: 73cc 0abf 1ae7 41be 1036 d33c 14a9 513e
00000210: c3f1 433e 7a3a 273d 6404 c2bd f7a2 f2bd
00000220: 9027 c2be f297 1c3e 4dbb b3bd 2339 a3bd
00000230: bbc3 8dbd 6143 80bd 6d3e 8bbd 53e6 313e
00000240: 6163 813d 1fdf e13d 3850 2dbb d7c3 84bb
00000250: b9dd 713e 4a58 2abe f354 7bbd 39f4 673d
00000260: 6c34 4bbd 7bca 673d 0b8b d43c d1a6 09be
00000270: a645 18be c189 d63c 5af1 90bd cd97 9b3d
00000280: afc9 233e 162d 8bbe d3b0 a63d 12d7 89bd
00000290: 0c70 75bc a027 f33d 4c14 093d 6974 fcbc
000002a0: 8f0e 2ebd 69a0 923c 876d cabd 74af 1c3e
000002b0: f2e2 0cbe b765 63be 9ee7 5b3b fef9 85bd
000002c0: 37e6 4d3d 7fa8 1dbd 2c78 a13a 6350 323d
000002d0: b3e0 e0bd 9dd0 4dbe e365 b9bd 42ef 3dbe
000002e0: 3297 843d cc6a febc 1674 5abd eeb0 243d
000002f0: 1a8c dbbc 4f0b 553b 15b2 d53c 7cfb dabd
00000300: bb73 143e df76 f1bc e627 8dbc 0c10 033d
00000310: 7cca d2bb f688 043c 134f b73d ac9f 033e
00000320: 2aa7 62be 25db 473d 35e3 803c 3ee4 6d3d
00000330: 0e44 b4bd 92de 75bd cb9a 1c3d ade8 23bd
00000340: 8ed0 bcbd 1572 953c 80d3 4cbe fee3 b1bd
00000350: b466 76bd aa99 b7bc 6d08 063d b28c e4bd
00000360: 75b6 443d ccc0 7cbc 8e8b 56bd 38ed ee3c
00000370: 96e1 bb3d d470 39bd 82cf 2ebe 97be 2cbc
00000380: 11c1 0fbd ea59 1d3e cfd5 a63c 9a33 1c3e
00000390: bc7a 0a3d db56 5ebe 00c2 1d3e c39c 4b3e
000003a0: 38df 07bd c047 f2bd eb6a 6e3d 10e6 f7bc
000003b0: 58f5 f1bd 932d cdbc 5535 393d 4563 5abd
000003c0: e486 51bd 0472 43bd ab53 573c 1483 04bd
000003d0: e7ba 1bbe 3bb7 05be 88f2 453e b65d 44bd
000003e0: 3bb9 f73d a6f2 683d 908a e13d 62b2 3d3d
000003f0: bbad 083e eb3f 51bc c6f5 5ebd 56b0 49bd

conv1.lin_neg_r.weight f4 [32, 64]
-0.005086232 -0.004663503 -0.0029662661 0.0015892194 -0.0025914256 -0.002432602 -0.005365909 0.0008396041
0.0019965612 0.0011872156 0.0010939755 0.0013845406 0.0014443513 0.0072972258 0.0029027474 -0.00488614
0.008839656 -0.002176794 0.0070441086 0.003831875 0.001691792 -0.0047866385 0.002063208 0.0011033822
-0.0027044662 0.0028697434 0.0047411625 -0.0015901469 -0.009467413 -0.0042266226 -0.004231832 -0.0010847716
0.004787048 -0.006279774 -0.003947838 -0.0009656446 0.0020126752 -0.0028621259 0.003794863 -0.0031261533
-0.0015917969 0.0041972967 0.004850417 0.0026288931 0.0007145093 -0.00062277634 0.009204403 -0.00923503
0.004780662 -0.0021250139 -0.0024143534 0.0017238462 0.002379655 -0.0011206076 -0.0031532724 -0.0024435052
-0.003464348 0.0054036556 0.003687836 -0.0017915844 -0.0016932915 -0.007674777 -0.0032470985 0.0029693553
0.10993247 0.04336472 0.059255186 -0.1645985 -0.088105895 -0.12186524 -0.038180884 -0.008632846
-0.04799835 0.05439535 -0.117787994 -0.0367447 -0.07653925 -0.2018903 0.110892236 -0.14755999
0.08482194 0.17984243 -0.19138455 0.041125536 0.122663885 0.0027815818 0.0401948 -0.11098983
0.07737507 0.07760496 0.052163452 -0.023587067 0.1580907 0.050114393 0.09478877 0.08043904
-0.19533136 -0.00417336 0.0638471 -0.06944599 -0.06697074 0.020033319 0.13305709 0.020353802
0.14621331 0.17209782 0.019424118 0.056937292 -0.0592012 -0.11089567 0.0037772937 0.09225012
-0.13393985 -0.13470276 0.024766602 0.06815405 -0.15550362 -0.060664505 0.2314603 0.23661166
0.13825957 0.06540177 0.074106894 -0.12433684 0.19622105 -0.06356173 -0.20823438 -0.020626346
0.3727377 0.05546815 -0.09273517 -0.030665584 -0.14185958 0.021389933 0.21370451 0.026776074
0.037768725 0.11138248 0.13288528 0.05317431 0.12219486 0.09733766 0.0234471 0.0011125949
0.0010990333 -0.04095779 0.003438562 0.011181598 0.03523609 0.031049566 -0.008678237 -0.05593191
-0.08849314 -0.08153366 0.1134654 0.09934238 0.22847709 -0.03731432 0.096648894 0.1878224
-0.15145008 0.09818705 -0.12425713 -0.05829164 0.055282302 0.05250013 0.06890669 0.03388197
-0.10044854 0.03450106 0.03136948 0.053408124 -0.021663047 -0.12334176 0.03410748 -0.07158285
-0.016705217 -0.031524446 -0.09523592 0.016404614 0.094247065 -0.07141025 0.06478552 -0.029828202
0.030312978 -0.07541433 -0.10142665 0.27923754 0.12664846 0.10306299 -0.048179563 0.068300314
-0.75060135 0.41288793 -0.028999982 0.05520941 0.035604667 0.081650496 -0.24718234 -0.04436672
0.21332094 0.027503628 0.062863596 -0.013611961 0.034953803 0.014973299 -0.026195325 -0.03312217
0.11568517 -0.051024266 0.13230234 -0.051487815 -0.058860995 -0.00014859141 0.087790295 0.045414247
-0.22039533 -0.029132018 0.11269299 0.018341564 0.0008020147 -0.036551606 0.02636516 -0.05876482
0.09131053 -0.33595434 0.019424919 -0.15038028 -0.0750335 0.16239071 -0.052938752 -0.074954875
-0.014565434 0.0342978 0.022692438 0.1348352 0.18638834 0.19321455 0.056611713 -0.019559983
-0.06705057 0.004921631 -0.0044625155 0.02184181 0.018585617 0.03880003 -0.29761755 0.026738709
-0.3867388 -0.075221576 0.06416601 -0.06601283 -0.11416647 0.13843642 0.27371603 0.11116783
00000000: 68aa a6bb 4cd0 98bb b065 42bb 5b4d d03a
00000010: e8d4 29bb 4a6c 1fbb 82d4 afbb e118 5c3a
00000020: bdd8 023b 589c 9b3a ba63 8f3a 7979 b53a
00000030: 6350 bd3a 911d ef3b 053c 3e3b ea1b a0bb
00000040: 34d4 103c 8ba8 0ebb 44d2 e63b 3220 7b3b
00000050: 1fbf dd3a 3cd9 9cbb e336 073b 5d9f 903a
00000060: 6a3d 31bb 4e12 3c3b c15b 9b3b 7a6c d0ba
00000070: 351d 1bbc 7b7f 8abb 2eab 8abb e52e 8eba
00000080: abdc 9c3b 90c6 cdbb de5c 81bb 5023 7dba
00000090: 16e7 033b 8192 3bbb 3cb3 783b 26e0 4cbb
000000a0: d7a3 d0ba 7a89 893b 3ff0 9e3b 8249 2c3b
000000b0: e84d 3b3a d041 23ba 10ce 163c 864e 17bc
000000c0: 19a7 9c3b d143 0bbb 213a 1ebb aef2 e13a
000000d0: fcf3 1b3b 5ae1 92ba 22a7 4ebb 3723 20bb
000000e0: 1d0a 63bb 2611 b13b 9faf 713b 99d3 eaba
000000f0: 6ff1 ddba b27c fbbb 46cd 54bb 8499 423b
00000100: 4624 e13d 349f 313d 91b5 723d 828c 28be
00000110: dd70 b4bd 7c94 f9bd 8f63 1cbd c870 0dbc
00000120: eb99 44bd a9cd 5e3d d53a f1bd 9c81 16bd
00000130: 9cc0 9cbd 55bc 4ebe 781b e33d f719 17be
00000140: 20b7 ad3d 9d28 383e 50fa 43be 4073 283d
00000150: 3437 fb3d 334b 363b 4da3 243d a34e e3bd
00000160: d276 9e3d 59ef 9e3d 58a9 553d aa39 c1bc
00000170: 87e2 213e c044 4d3d 9d20 c23d 39bd a43d
00000180: f204 48be aec0 88bb 45c2 823d b339 8ebd
00000190: f527 89bd ea1c a43c 1e40 083e 04bd a63c
000001a0: f1b8 153e 693a 303e 541f 9f3c 1437 693d
000001b0: f57c 72bd 451d e3bd 798c 773b a2ed bc3d
000001c0: 8727 09be 85ef 09be 54e3 ca3c 5a94 8b3d
000001d0: 573c 1fbe 587b 78bd ee03 6d3e 544a 723e
000001e0: eb93 0d3e 5df1 853d 5bc5 973d 50a4 febd
000001f0: 2cee 483e a72c 82bd 653b 55be 95f8 a8bc
00000200: 7ad7 be3e 9232 633d f0eb bdbd 6436 fbbc
00000210: a343 11be f139 af3c 5bd5 5a3e 7f59 db3c
00000220: 61b3 1a3d 7f1c e43d 1413 083e 4ecd 593d
00000230: 4c41 fa3d f858 c73d 2214 c03c 7dd4 913a
00000240: 700d 903a 5bc3 27bd 7f59 613b 0533 373c
00000250: b853 103d a95b fe3c 2a2f 0ebc dc18 65bd
00000260: e43b b5bd 1ffb a6bd 8c60 e83d 0574 cb3d
00000270: e6f5 693e e7d6 18bd dbef c53d 8454 403e
00000280: bb15 1bbe 4b16 c93d 867a febd 37c3 6ebd
00000290: b26f 623d 600a 573d f31e 8d3d d2c7 0a3d
000002a0: f7b7 cdbd fc50 0d3d 497d 003d 7ac2 5a3d
000002b0: b476 b1bc 9b9a fcbd 49b4 0b3d 079a 92bd
000002c0: 61d9 88bc c71f 01bd 0d0b c3bd f862 863c
000002d0: 9b04 c13d 8a3f 92bd 45ae 843d 465a f4bc
000002e0: ec52 f83c d472 9abd c7b8 cfbd 39f8 8e3e
000002f0: 22b0 013e b012 d33d ef57 45bd 09e1 8b3d
00000300: 6927 40bf 0c66 d33e 5f91 edbc 4323 623d
00000310: 33d6 113d 6038 a73d 5e1d 7dbe e1b9 35bd
00000320: ce70 5a3e 4a4f e13c a1be 803d b404 5fbc
00000330: b82b 0f3d 9152 753c 9497 d6bc 1dab 07bd
00000340: 59ec ec3d d2fe 50bd 447a 073e e3e4 52bd
00000350: 3a18 71bd 34cf 1bb9 66cb b33d 4a04 3a3d
00000360: 50af 61be 45a6 eebc 95cb e63d 0c41 963c
00000370: 4c3e 523a 23b7 15bd bffb d73c 61b3 70bd
00000380: 0401 bb3d 3502 acbe 0221 9f3c 4afd 19be
00000390: 2aab 99bd c049 263e 4ed6 58bd f181 99bd
000003a0: dca3 6ebc da7b 0c3d 7ee5 b93c 3d12 0a3e
000003b0: 96dc 3e3e 09da 453e afe1 673d 423c a0bc
000003c0: cf51 89bd a245 a13b 4b3a 92bb 98ed b23c
000003d0: dd40 983c c8ec 1e3d 5461 98be 230b db3c
000003e0: a102 c6be c50d 9abd 7869 833d bc31 87bd
000003f0: 1cd0 e9bd 47c2 0d3e 8224 8c3e f6ab e33d

conv1.lin_neg_r.bias f4 [32]
-0.009558568 0.11011247 0.075942464 0.10290063 -0.00024815326 0.0021426796 0.06603361 0.046821177
-3.6056732e-05 0.036001816 -7.742945e-06 0.0915986 0.0041084066 -1.6657155e-05 0.028715122 0.02689985
-0.009481024 0.0006686231 0.00016961634 0.07209551 -0.000942658 -0.023003161 0.10698576 0.08419735
-0.0001705102 -0.044048492 0.062027223 0.012227296 0.06738753 -0.024764627 0.007889208 0.07657278
00000000: 8a9b 1cbc a682 e13d b987 9b3d 91bd d23d
00000010: 911a 82b9 336c 0c3b a13c 873d 90c7 3f3d
00000020: 9f3b 17b8 a476 133d b2e7 01b7 0c98 bb3d
00000030: d09f 863b f8ba 8bb7 fa3b eb3c 135d dc3c
00000040: 4c56 1bbc 8946 2f3a 0adb 3139 d0a6 933d
00000050: b51c 77ba 2071 bcbc 5a1b db3d a96f ac3d
00000060: fcca 32b9 316c 34bd 4210 7e3d ff54 483c
00000070: 7902 8a3d 30df cabc bd41 013c 31d2 9c3d

convs.0.lin_pos_l.weight f4 [32, 64]
-1.5154223e-08 0.11612076 3.0936917e-08 0.07262427 0.061037708 0.08392868 0.39020643 3.4637046e-07
0.21941985 0.003927738 0.10417722 -0.0010479906 -0.0883691 -0.045296397 -0.18684667 0.19869399
-0.09051519 -0.014326351 1.5883815e-07 -1.6449408e-07 0.0042990474 -0.054706596 -0.062445868 0.22764416
-0.027026806 0.10996403 -0.09166227 0.021145118 0.0858876 0.044798832 0.018571319 -0.03693787
0.0008482651 0.043396372 0.22070839 0.018857101 -0.43533912 0.21516317 0.045402452 -0.052917548
1.951545e-09 0.0028752107 4.80733e-09 0.2216669 -0.10819833 5.9130423e-10 -0.071940236 0.018871477
-0.08065648 -0.12414772 0.028565839 0.09920435 8.02083e-08 0.049293105 0.1443684 -0.053582557
-1.1213097e-08 9.4898125e-09 -0.04207962 -0.007868159 0.25920102 -1.4433498e-09 -0.123534426 -0.16698107
-1.6861774e-08 0.08752012 -5.653022e-08 -0.27232814 -0.033764284 -0.13974655 -0.327994 1.5809967e-06
-0.05948576 0.030308174 -0.010411329 0.0063729864 0.17708045 -0.2665549 0.20511808 -0.1968576
0.009908199 0.33395234 -6.9037214e-06 -7.366896e-08 0.182161 0.16707313 0.18143444 -0.08570756
-0.07948918 0.11767332 -0.040866543 -0.056903146 -0.15048629 -0.4314569 -0.07593533 -0.039017405
-0.00082623406 0.000554178 0.07232032 0.03670262 -0.010965499 0.096489415 0.19463187 -0.06701878
1.4476575e-08 0.09963046 1.4238087e-09 0.12274265 -0.13156784 -1.3978378e-08 0.053261768 0.08815467
-0.13535546 0.21280877 -0.177052 0.18913849 -1.598843e-08 0.06818512 0.05774151 0.036884204
2.1782741e-08 -8.176114e-09 0.1371934 -0.009364281 0.12020528 1.2443002e-08 0.021708999 0.08348848
4.867293e-09 -1.01432125e-08 -1.4882708e-08 -3.0753047e-09 -7.3299606e-09 -9.11403e-09 1.0327235e-08 2.3377102e-09
1.0121849e-08 -1.5320968e-08 6.3817756e-09 -1.8425304e-08 -1.345991e-08 -1.735226e-08 -1.6751402e-08 -4.387763e-08
1.0019877e-08 -1.7725277e-08 -4.500619e-09 -5.4844778e-09 3.7715267e-08 -2.6972048e-08 5.420307e-09 -6.5052084e-09
-1.4103718e-08 -1.8207729e-09 8.9742264e-10 -4.158203e-09 -6.5964425e-09 4.1310875e-09 -4.386257e-08 4.5153716e-09
5.912443e-10 -6.3429013e-09 1.8309905e-08 9.208111e-09 2.9025191e-09 -6.962087e-10 9.168135e-09 -4.793307e-09
-1.2262257e-08 -1.341221e-08 -8.1910656e-10 2.807734e-09 -2.7767408e-09 -8.417297e-10 -1.2972872e-09 3.3237285e-10
-1.8535612e-09 -7.0049384e-09 -4.42008e-09 6.735466e-09 -5.3660996e-09 -6.0387633e-09 8.486427e-09 1.3886844e-08
-3.1130696e-09 3.2164558e-09 2.198556e-09 9.454953e-09 7.513821e-11 5.8907688e-09 -3.904401e-09 6.230679e-09
2.3376052e-09 -1.7382557e-06 5.2603893e-10 2.7829965e-06 -5.9994034e-07 1.7864529e-06 -1.5793352e-06 8.287658e-09
-2.1085666e-06 -4.3207347e-06 1.1274188e-06 -3.2301796e-07 -6.4414047e-07 2.6016085e-07 -1.5982613e-06 -1.6836547e-06
2.8935358e-06 -5.7728817e-06 -2.7302822e-09 9.920551e-09 -1.5925741e-07 1.9213855e-06 1.4884571e-06 -6.118806e-06
-2.0246387e-06 -2.2746644e-07 -1.5910733e-06 5.996278e-07 5.159046e-06 3.1304526e-06 6.7695936e-07 1.7227386e-06
-1.7840293e-08 1.6430979e-06 -7.025458e-07 3.1553762e-07 -9.5586e-07 -2.4003396e-07 -6.876224e-07 1.2047453e-06
9.468476e-10 1.7442366e-07 4.817504e-09 1.3412603e-06 2.2254774e-06 -1.295557e-08 -2.7962736e-07 4.2325336e-08
-5.693395e-08 -4.3169663e-07 -4.6898822e-07 -1.4038308e-06 1.5608643e-09 1.8189566e-07 -1.1425519e-06 -2.1586409e-06
-8.653446e-10 3.349708e-09 9.4803944e-08 -8.25587e-07 4.726486e-07 1.3064458e-08 -8.176812e-09 -5.754397e-07
00000000: 7d2c 82b2 b9d0 ed3d 80df 0433 09bc 943d
00000010: ad02 7a3d cde2 ab3d 23c9 c73e cbf4 b934
00000020: 99af 603e 41b4 803b de5a d53d bb5c 89ba
00000030: dcfa b4bd b788 39bd bc54 3fbe 7076 4b3e
00000040: 0760 b9bd 12b9 6abc 198d 2a34 ca9f 30b4
00000050: 06df 8c3b 0614 60bd 3dc7 7fbd 8d1b 693e
00000060: 5267 ddbc d234 e13d 6eb9 bbbd 8738 ad3c
00000070: d7e5 af3d fb7e 373d e122 983c 2a4c 17bd
00000080: 1b5e 5e3a 65c0 313d 6101 623e 357a 9a3c
00000090: c5e4 debe bc53 5c3e ecf7 393d 12c0 58bd
000000a0: f11b 0631 086e 3c3b b92d a531 a6fc 623e
000000b0: 1697 ddbd 5689 2230 6755 93bd 5b98 9a3c
000000c0: 392f a5bd 2941 febd e802 ea3c a62b cb3d
000000d0: fb3e ac33 91e7 493d 4fd5 133e 6279 5bbd
000000e0: b9a3 40b2 a308 2332 ae5b 2cbd 73e9 00bc
000000f0: ffb5 843e 5b5f c6b0 9eff fcbd 16fd 2abe
00000100: 6fd7 90b2 c03d b33d a2cb 72b3 986e 8bbe
00000110: 6b4c 0abd b819 0fbe d4ee a7be a232 d435
00000120: 57a7 73bd d948 f83c 4794 2abc 7cd4 d03b
00000130: 9454 353e e279 88be 790a 523e 0a95 49be
00000140: 0056 223c cdfb aa3e 84a6 e7b6 f033 9eb3
00000150: 6a88 3a3e 3815 2b3e f3c9 393e 7287 afbd
00000160: 39cb a2bd b6fe f03d ad63 27bd 4613 69bd
00000170: 1419 1abe ebe7 dcbe fb83 9bbd b7d0 1fbd
00000180: a197 58ba 4246 113a ad1c 943d 7d55 163d
00000190: a3a8 33bc 3e9c c53d 944d 473e 2441 89bd
000001a0: a6b4 7832 0e0b cc3d d1af c330 8060 fb3d
000001b0: b8b9 06be 8e25 70b2 0329 5a3d 708a b43d
000001c0: 9f9a 0abe 8bea 593e 1f4d 35be 85ad 413e
000001d0: ee56 89b2 a4a4 8b3d 5d82 6c3d e413 173d
000001e0: c11c bb32 ee76 0cb2 6d7c 0c3e a46c 19bc
000001f0: 302e f63d e7c4 5532 12d7 b13c 02fc aa3d
00000200: 293d a731 5242 2eb2 d8ae 7fb2 5555 53b1
00000210: 04db fbb1 ee93 1cb2 a96b 3132 6fa5 2031
00000220: 5de4 2d32 2a9b 83b2 b146 db31 ac45 9eb2
00000230: 4f3d 67b2 060e 95b2 b9e4 8fb2 f773 3cb3
00000240: e323 2c32 4c42 98b2 dda3 9ab1 fa71 bcb1
00000250: 60fc 2133 29b0 e7b2 863d ba31 6b84 dfb1
00000260: cf4c 72b2 c03e fab0 81ae 7630 f1df 8eb1
00000270: eca6 e2b1 6ef1 8d31 6863 3cb3 a125 9b31
00000280: 1e85 2230 c0f0 d9b1 e847 9d32 b331 1e32
00000290: a875 4731 555f 3fb0 e281 1d32 60b2 a4b1
000002a0: faa9 52b2 866b 66b2 8027 61b0 2ef2 4031
000002b0: f1d0 3eb1 765f 67b0 3c4c b2b0 52b9 b62f
000002c0: 63c0 feb0 17b0 f0b1 6fdf 97b1 c96d e731
000002d0: b660 b8b1 867d cfb1 b3cb 1132 fc92 6e32
000002e0: b3ed 55b1 7d08 5d31 6815 1731 536f 2232
000002f0: 0d3b a52e c067 ca31 7927 86b1 a215 d631
00000300: 96a3 2031 034e e9b5 b398 1030 84c3 3a36
00000310: 960b 21b5 0ec6 ef35 8bf9 d3b5 8161 0e32
00000320: e680 0db6 d4fa 90b6 d151 9735 406b adb4
00000330: ffe8 2cb5 3cac 8b34 d783 d6b5 eff9 e1b5
00000340: 912e 4236 adb4 c1b6 a29f 3bb1 0b6f 2a32
00000350: 5800 2bb4 27f1 0036 ffc6 c735 2550 cdb6
00000360: 07df 07b6 803d 74b4 dd8c d5b5 1cf6 2035
00000370: de1b ad36 c414 5236 4bb8 3535 d938 e735
00000380: 383f 99b2 6a88 dc35 9496 3cb5 2967 a934
00000390: 194b 80b5 04de 80b4 0d95 38b5 bcb2 a135
000003a0: 3d22 8230 3649 3b34 3787 a531 5a05 b435
000003b0: 6959 1536 3393 5eb2 b11f 96b4 33c9 3533
000003c0: 8a87 74b3 efc3 e7b4 40c9 fbb4 426b bcb5
000003d0: 0886 d630 194f 4334 c959 99b5 2bdd 10b6
000003e0: 36dd 6db0 b030 6631 0597 cb33 e89d 5db5
000003f0: 54c0 fd34 1872 6032 007a 0cb2 ea77 1ab5

convs.0.lin_pos_r.weight f4 [32, 32]
7.2365642e-09 -0.019927042 -2.24356e-08 0.16033304 -0.10659584 -0.26116088 0.17086719 -3.6960193e-07
0.21383108 -0.18445799 -0.10427069 0.0006786479 -0.32403612 -0.39924222 -0.39743325 -0.023080643
-0.032734815 -0.030624036 -1.4296493e-06 -1.8485602e-08 -0.058308423 -0.15043353 -0.10593108 0.31308004
0.010336166 -0.0053793485 -0.37317625 -0.10201272 0.076822385 -0.14275032 -0.4278841 -0.10550637
-2.8547895e-08 0.07889463 -5.7838555e-08 -0.55775696 0.39301154 -0.28047365 -0.16497402 4.413181e-07
0.022084009 0.02712742 -0.024277512 -0.03462745 0.46589097 -0.13532512 0.13199028 -0.037108347
-0.04330969 0.22636166 -7.734436e-07 -2.4649168e-07 -0.008356755 0.14508803 -0.1269856 -0.04760379
-0.14461206 0.19044036 0.082240015 0.23706436 -0.18977988 -0.21606347 0.009093368 -0.39849514
5.956965e-09 -2.0471683e-08 2.245238e-08 -8.812211e-09 6.470874e-09 6.0110104e-09 2.1657682e-08 -5.3082303e-09
4.122104e-08 1.164264e-08 -2.496458e-08 2.6469953e-08 1.0529633e-08 3.1277594e-08 -1.0243896e-08 -1.6592793e-08
9.092106e-09 -6.385921e-09 9.839599e-09 -1.4271867e-08 -1.9005634e-08 5.6966293e-10 1.5179914e-08 -3.349639e-08
-4.26849e-09 -1.5544929e-08 -8.253133e-10 -2.8918938e-08 -6.6681247e-09 2.3143667e-08 -5.3301625e-09 -4.7960365e-09
-5.3351523e-09 -1.496747e-07 -1.952167e-09 7.652092e-08 -5.5352707e-06 -6.172342e-07 2.137447e-06 -2.0038942e-09
2.633712e-06 -3.6345855e-06 4.220629e-06 -5.570689e-08 -9.653591e-08 2.9489859e-06 -3.1010433e-07 -1.4466407e-06
7.7746404e-07 4.7292306e-06 -2.532917e-08 -8.638841e-10 -9.1506826e-07 -1.8083001e-06 -2.0108973e-05 -6.702092e-07
-3.182731e-06 -2.1489352e-06 -4.2772635e-06 5.287264e-06 -2.7702797e-06 3.8991298e-06 1.350456e-06 3.7212442e-06
1.5066632e-08 -0.00047324662 8.903538e-09 0.0009166522 -0.002133837 -0.0002916685 0.0006534085 7.5648027e-10
-0.0014962984 -0.002451621 -0.0014424468 -4.605884e-05 0.0016624255 0.00063424394 -0.00068722334 -0.0029741677
-0.0010739993 -0.0054494967 1.7658099e-08 3.0469829e-09 -0.00062753865 -0.0019105541 0.0010842822 0.00079241645
-0.001134897 -0.0010117694 0.00040185798 -0.0015679724 0.0010111368 -0.0015179713 -0.00074318337 0.0009350686
-3.456904e-08 0.040150005 7.520735e-09 -0.44256252 0.19983988 -0.17621532 0.35981783 -2.433146e-07
0.26741257 0.0786817 0.038046505 -0.013805203 0.36541682 -0.1464102 -0.20473653 0.18053813
-0.26793402 -0.46417183 -5.911516e-07 1.5203269e-09 -0.21954595 -0.4576441 -0.021550624 -0.29505324
-0.07350596 0.20899066 0.22218136 0.0067727803 -0.18769337 -0.15268555 0.086473055 -0.23998094
1.839718e-08 -0.0012043084 -7.2776285e-10 -0.00013226293 -0.0015294511 -0.00019064138 0.00041619444 1.1116956e-09
-0.0043383045 0.0023435452 -0.0041299798 2.770887e-05 -0.0035788533 0.00081544474 0.001284814 -0.000566991
-0.0012592864 -0.0049397172 -7.93513e-09 4.6996107e-10 -0.0020813753 0.0025700575 -0.0011827452 -0.010182976
0.0009713258 -0.0020789374 5.872666e-05 -0.0012967949 -0.00021474056 -0.00053596933 -0.0009058861 -0.0009000438
1.8713369e-08 3.3034464e-08 -4.4891504e-09 1.9164772e-09 -1.4740576e-08 -1.0615406e-09 -3.8243765e-08 1.8549523e-08
3.694883e-08 8.230853e-08 -2.4042024e-10 -2.2359314e-08 4.2493413e-09 -4.8452904e-08 -1.02667144e-07 -3.5055823e-08
-1.8229017e-08 8.104681e-09 -1.562494e-08 6.6969577e-09 1.157118e-08 -5.069413e-08 1.986813e-08 -8.4709576e-08
7.2000486e-09 1.3017827e-08 1.7640462e-08 -7.170224e-09 7.614588e-09 -1.8274205e-08 3.7014065e-08 -5.8410494e-09
00000000: 7ea5 f831 093e a3bc 68b8 c0b2 582e 243e
00000010: eb4e dabd e1b6 85be cff7 2e3e b46d c6b4
00000020: 89f6 5a3e 8ee2 3cbe df8b d5bd 4ae7 313a
00000030: 10e8 a5be 7a69 ccbe 5f7c cbbe 9e13 bdbc
00000040: f114 06bd 42df fabc 60e2 bfb5 45ca 9eb2
00000050: d0d4 6ebd 3f0b 1abe 65f2 d8bd 074c a03e
00000060: 0659 293c 3f45 b0bb f510 bfbe 0cec d0bd
00000070: 0e55 9d3d 242d 12be a013 dbbe b913 d8bd
00000080: 7c39 f5b2 8293 a13d 2a6a 78b3 29c9 0ebf
00000090: cf38 c93e 3e9a 8fbe f3ee 28be 4cee ec34
000000a0: 86e9 b43c 533a de3c a2e1 c6bc 83d5 0dbd
000000b0: 4389 ee3e ab92 0abe 7628 073e ecfe 17bd
000000c0: 8065 31bd 5acb 673e a49e 4fb5 8f55 84b4
000000d0: c5ea 08bc f591 143e 8308 02be 31fc 42bd
000000e0: 2f15 14be cc02 433e 746d a83d 00c1 723e
000000f0: a855 42be be3f 5dbe 5afc 143c 8e07 ccbe
00000100: 05ae cc31 b5d9 afb2 4edd c032 8464 17b2
00000110: 6956 de31 6889 ce31 bf09 ba32 b063 b6b1
00000120: 030b 3133 df04 4832 b171 d6b2 0b60 e332
00000130: d1e5 3432 1456 0633 22fd 2fb2 f087 8eb2
00000140: 8133 1c32 286b dbb1 040b 2932 5630 75b2
00000150: d541 a3b2 7796 1c30 fc64 8232 acdd 0fb3
00000160: 09aa 92b1 a987 85b2 43dc 62b0 6b69 f8b2
00000170: 721d e5b1 76cd c632 9b24 b7b1 62ca a4b1
00000180: 7f50 b7b1 45b6 20b4 e326 06b1 d253 a433
00000190: 9dbb b9b6 03b0 25b5 0f71 0f36 e1b4 09b1
000001a0: d4be 3036 b4e9 73b6 ed9e 8d36 6042 6fb3
000001b0: 2e4f cfb3 31e7 4536 6a7c a6b4 322a c2b5
000001c0: ecb2 5035 c8af 9e36 6f93 d9b2 7076 6db0
000001d0: 03a3 75b5 b8b4 f2b5 b1af a8b7 6de8 33b5
000001e0: e796 55b6 6d36 10b6 6a85 8fb6 4069 b136
000001f0: 0be9 39b6 45d5 8236 5141 b535 7dba 7936
00000200: e06b 8132 161e f8b9 2df6 1832 7d4b 703a
00000210: d8d7 0bbb 15eb 98b9 8149 2b3a 91f0 4f30
00000220: 711f c4ba 60ab 20bb 7c10 bdba 4e2f 41b8
00000230: bee5 d93a 6443 263a c726 34ba 41ea 42bb
00000240: 70c5 8cba b191 b2bb 92ae 9732 1763 5131
00000250: 6881 24ba 8f6b faba 791e 8e3a 2bba 4f3a
00000260: d3c0 94ba 599d 84ba 77b0 d239 6c84 cdba
00000270: 1f88 843a aaf6 c6ba 31d2 42ba 641f 753a
00000280: 1079 14b3 5574 243d 8b34 0132 8e97 e2be
00000290: d3a2 4c3e ca71 34be 0b3a b83e e7a0 82b4
000002a0: 4dea 883e df23 a13d a7d6 1b3d 382f 62bc
000002b0: ea17 bb3e 8eec 15be 74a6 51be fdde 383e
000002c0: a62e 89be eea7 edbe a1af 1eb5 bff3 d030
000002d0: a7d0 60be 5450 eabe ef8a b0bc 3811 97be
000002e0: 4b8a 96bd a601 563e 8383 633e 33ee dd3b
000002f0: b132 40be 9a59 1cbe c918 b13d 90bd 75be
00000300: d407 9e32 e2d9 9dba c20b 48b0 0fb0 0ab9
00000310: dd77 c8ba e8e6 47b9 ac34 da39 50ca 9830
00000320: 5628 8ebb 2a96 193b c854 87bb 5870 e837
00000330: 328b 6abb 92c3 553a 3467 a83a 1fa2 14ba
00000340: a40e a5ba 5add a1bb 1253 08b2 922e 0130
00000350: af67 08bb 696e 283b 5806 9bba 7fd6 26bc
00000360: 92a0 7e3a c83e 08bb 4551 7638 37f9 a9ba
00000370: fb2b 61b9 4b80 0cba fd78 6dba ebf0 6bba
00000380: 22bf a032 c7e1 0d33 fc3e 9ab1 06b3 0331
00000390: bd3d 7db2 a4e5 91b0 7741 24b3 d556 9f32
000003a0: abb1 1e33 98c1 b033 242c 84af a710 c0b2
000003b0: 9a01 9231 881a 50b3 dc79 dcb3 4990 16b3
000003c0: 0896 9cb2 c43c 0b32 9b37 86b2 101b e631
000003d0: 96ca 4632 c9ba 59b3 7baa aa32 95e9 b5b3
000003e0: 4c64 f731 02a5 5f32 c987 9732 f55d f6b1
000003f0: 50d1 0232 67f9 9cb2 65f9 1e33 6ab2 c8b1

convs.0.lin_pos_r.bias f4 [32]
0.042201232 0.11710956 -0.011497512 -3.0442827e-06 0.0027895914 0.26124132 0.0028956304 -0.0028895442
-0.020590894 0.11075617 -0.028986158 -9.353668e-06 0.08706757 -0.02764725 -0.035556495 -0.03693241
-0.0001937195 -0.0060091815 -0.040823642 -0.025563052 -0.05360286 0.07050629 -0.0028033836 0.29188925
-0.0071418383 0.15841691 -0.00410166 0.04341806 -1.0411179e-07 -0.047027603 0.06713672 0.1327665
00000000: 33db 2c3d 23d7 ef3d 1060 3cbc 614c 4cb6
00000010: 94d1 363b 6cc1 853e 9ec4 3d3b 825e 3dbb
00000020: 3cae a8bc 21d4 e23d 6174 edbc b3ed 1cb7
00000030: 7b50 b23d 7c7c e2bc b0a3 11bd 7046 17bd
00000040: 2f21 4bb9 abe8 c4bb b136 27bd 9b69 d1bc
00000050: ac8e 5bbd 9a65 903d f9b8 37bb 8272 953e
00000060: 1506 eabb 0b38 223e 3867 86bb 23d7 313d
00000070: 1094 dfb3 04a0 40bd fa7e 893d f1f3 073e

convs.0.lin_neg_l.weight f4 [32, 64]
-0.0014163395 -0.21098663 -0.15856303 -0.0035710903 -0.09428985 -0.008704603 0.05443598 0.15815146
7.615576e-11 -0.16082539 -1.497571e-09 -0.10452895 -0.04072381 6.1375814e-11 0.10442988 0.024770787
-0.017976262 -0.055133253 0.102761015 -0.21303613 1.4112333e-08 -0.09266189 -0.090087056 -0.016590934
-1.5666734e-08 5.6304006e-09 -0.05873148 0.21026368 -0.10760915 -4.5467803e-09 0.06962916 0.0419938
1.6238231e-09 0.09295654 4.9047437e-09 0.15362084 -0.02773459 0.14393748 0.16625659 -1.18314944e-07
0.21289548 0.16328967 0.054455027 0.018959139 0.10391149 0.10630373 -0.026718691 0.045334022
0.15508254 0.053780116 -2.0020468e-07 -1.6541408e-07 0.12932807 0.08121783 0.08631153 0.21825872
0.12962551 0.13937664 0.01790382 0.14101952 0.11423822 0.040971402 0.0117949555 0.104029104
-0.009049201 0.104095355 0.08603042 -0.017092902 -0.10805863 -0.10364698 0.04699894 -0.1392554
1.6494318e-09 0.10541956 3.0504674e-09 0.12244534 -0.27274388 -1.5437521e-08 -0.019216469 -0.10309959
-0.07864689 -0.12044366 -0.1673037 0.056901637 -6.681081e-09 -0.1254651 0.12041556 0.07073872
6.7606754e-10 4.194302e-09 0.21695083 -0.12122196 0.11479324 8.80233e-09 -0.13222185 -0.008278954
9.1023084e-10 0.13032822 -1.3865843e-08 -0.09873607 0.0019769857 -0.04926958 0.17107867 -1.2925841e-07
0.20642564 0.11792248 0.009882721 -0.023031263 -0.24583896 0.13079743 0.09399078 -0.010353631
-0.07404941 0.04623689 1.5978013e-06 1.0679363e-07 0.2390699 0.12083572 0.012451557 0.18678887
-0.1221619 0.04697224 0.089285165 0.046112362 -0.061980028 0.1386309 0.04613155 0.06119165
-1.5203725e-08 -0.013082625 0.0028919904 -0.016882846 0.00045958662 1.120563e-08 2.4295846e-06 -8.08955e-08
-2.7799074e-09 0.004300573 -1.07100595e-08 -0.0062828 -1.161524e-08 3.2071313e-08 0.010320573 -7.0631945e-09
-1.725061e-08 -1.4926247e-08 1.3417506e-09 -0.0018080538 1.0048474e-08 -3.56212e-08 0.020197293 0.0042250874
-2.893325e-09 -1.6329357e-08 -0.00093890546 0.014716946 0.00078254327 3.0473992e-09 2.808038e-05 -7.508835e-09
-1.413311e-09 0.04972747 -1.2706375e-08 1.64149e-08 1.1473611e-08 1.4710621e-08 0.0062912847 4.9369984e-09
-0.009711992 0.06322359 -0.009285108 -3.482368e-05 -0.004407102 0.033521093 0.04584229 -0.018051013
-0.008443213 3.796937e-09 -5.123706e-11 2.146424e-08 0.0068892185 -0.0065246164 1.7179122e-08 0.066140845
3.143435e-09 -3.8185138e-10 1.1483474e-08 -0.00026394497 -2.7291916e-08 -8.678902e-09 -0.012997801 5.9042698e-08
-0.0066607483 -0.24429758 -0.038659777 0.3076755 -0.15759625 0.06170153 0.22849372 0.17442155
4.3381214e-09 -0.3443574 1.3427221e-08 -0.047216017 0.08087686 -1.1991456e-08 0.1842134 0.20882942
0.11702103 0.025174698 -0.11711785 -0.34329596 -1.03131335e-08 0.23933534 0.21250671 -0.40401745
-1.9214767e-08 -2.5564169e-09 -0.31085354 0.020211587 0.0037248097 -4.463096e-09 0.039080568 -0.13666445
9.79877e-11 -0.004677319 1.4883975e-08 0.067397736 -0.04065848 -0.020494156 0.09838831 1.6005565e-06
0.20220234 0.021336762 0.0061781825 0.005959493 -0.13539399 0.029559372 0.13778764 0.0124007445
0.08893846 0.038131464 -4.3847554e-06 -9.847105e-08 0.17817439 0.05929679 0.060663123 0.19486049
-0.22415116 0.045221582 -0.16653472 -0.070724726 0.077586785 -0.15059215 -0.18819378 0.038913526
00000000: 78a4 b9ba e10c 58be 595e 22be f408 6abb
00000010: 091b c1bd c09d 0ebc 43f8 5e3d 75f2 213e
00000020: e277 a72e 69af 24be 18d3 cdb0 4613 d6bd
00000030: 03ce 26bd 83f7 862e 55df d53d 1bec ca3c
00000040: f442 93bc 68d3 61bd 5e74 d23d 2526 5abe
00000050: b272 7232 84c5 bdbd 907f b8bd b6e9 87bc
00000060: 8393 86b2 8775 c131 6c90 70bd 5d4f 573e
00000070: 3062 dcbd e739 9cb1 bc99 8e3d b101 2c3d
00000080: 322d df30 0060 be3d 9586 a831 c84e 1d3e
00000090: a733 e3bc 5964 133e 2b3f 2a3e 5414 feb3
000000a0: 4601 5a3e 6835 273e 3c0c 5f3d 3250 9b3c
000000b0: 8ccf d43d c5b5 d93d 28e1 dabc 2bb0 393d
000000c0: f5cd 1e3e 8a48 5c3d d8f7 56b4 ad9c 31b4
000000d0: 946e 043e 8955 a63d 19c4 b03d 377f 5f3e
000000e0: 8dbc 043e c0b8 0e3e 08ab 923c 6c67 103e
000000f0: baf5 e93d a1d1 273d a13f 413c 360d d53d
00000100: 1a43 14bc f22f d53d b830 b03d 6a06 8cbc
00000110: d84d ddbd de44 d4bd f681 403d f898 0ebe
00000120: 39b2 e230 36e6 d73d 64a0 5131 9fc4 fa3d
00000130: 16a5 8bbe 789b 84b2 db6b 9dbc e125 d3bd
00000140: 9f11 a1bd 2aab f6bd a951 2bbe b111 693d
00000150: 698f e5b1 ec79 00be 6f9c f63d 76df 903d
00000160: 06d6 3930 781d 9031 5c28 5e3e 3843 f8bd
00000170: b818 eb3d 0f39 1732 2a65 07be 73a4 07bc
00000180: cd33 7a30 c374 053e 9f36 6eb2 2336 cabd
00000190: 5190 013b e6ce 49bd 3f2f 2f3e 48ca 0ab4
000001a0: 3e61 533e 5781 f13d 23eb 213c 0fac bcbc
000001b0: 35bd 7bbe c3ef 053e 3d7e c03d 47a2 29bc
000001c0: 38a7 97bd e562 3d3d 0974 d635 6b56 e533
000001d0: bdce 743e b878 f73d 9e01 4c3c 9545 3f3e
000001e0: 0530 fabd f765 403d 24db b63d 51e0 3c3d
000001f0: c5de 7dbd 42f5 0d3e 70f4 3c3d 18a4 7a3d
00000200: 5899 82b2 8258 56bc 8c87 3d3b e54d 8abc
00000210: acf4 f039 e282 4032 f20b 2336 c5b8 adb3
00000220: a608 3fb1 d2eb 8c3b 57ff 37b2 f2df cdbb
00000230: 5e8c 47b2 c8be 0933 9f17 293c 84b0 f2b1
00000240: 7e2e 94b2 2a37 80b2 a768 b830 38fc ecba
00000250: a8a1 2c32 ecfd 18b3 cb74 a53c 9a72 8a3b
00000260: e9d3 46b1 a344 8cb2 e120 76ba 581f 713c
00000270: 9723 4d3a 6a6a 5131 288e eb37 3500 01b2
00000280: 763e c2b0 08af 4b3d 3a4b 5ab2 bf00 8d32
00000290: 7a1d 4532 ffb9 7c32 1f27 ce3b 4ca2 a931
000002a0: 0c1f 1fbc 5f7b 813d 9120 18bc a40f 12b8
000002b0: 7369 90bb 6a4d 093d 20c5 3b3d b8df 93bc
000002c0: 6755 0abc 3676 8231 cd57 61ae 5d60 b832
000002d0: f4be e13b 73cc d5bb 4a91 9332 da74 873d
000002e0: e503 5831 ceec d1af da48 4532 1862 8ab9
000002f0: 8f6f eab2 371a 15b2 bbf4 54bc 2296 7d33
00000300: 6842 dabb 2529 7abe b759 1ebd a587 9d3e
00000310: e960 21be beba 7c3d 42fa 693e 909b 323e
00000320: 850e 9531 9d4f b0be 8bad 6632 9565 41bd
00000330: c4a2 a53d fb02 4eb2 70a2 3c3e 61d7 553e
00000340: b9a8 ef3d 2b3b ce3c 7cdb efbd 7dc4 afbe
00000350: a42d 31b2 5314 753e 5c9b 593e 60db cebe
00000360: b80d a5b2 f6ac 2fb1 3228 9fbe c592 a53c
00000370: f01b 743b cf59 99b1 f212 203d c4f1 0bbe
00000380: 2c7a d72e 3244 99bb 6ab4 7f32 d307 8a3d
00000390: 8289 26bd 5ce3 a7bc cf7f c93d b4d2 d635
000003a0: 210e 4f3e 6fca ae3c 5a72 ca3b da47 c33b
000003b0: b9a4 0abe 7f26 f23c 3418 0d3e 7e2c 4b3c
000003c0: 5e25 b63d bd2f 1c3d c320 93b6 0877 d3b3
000003d0: 5973 363e 31e1 723d e579 783d 8289 473e
000003e0: e287 65be 443a 393d 1488 2abe 20d8 90bd
000003f0: d2e5 9e3d d434 1abe dfb5 40be ca63 1f3d
