bitcoin-alpha/models/bitcoin-alpha-train-3.pt (torch, 64475 bytes, 14 tensors)

conv1.lin_pos_l.weight f4 [32, 64]
0.12017637 -0.050252587 -0.004329023 -0.031187491 -0.16690975 0.012277359 0.07177179 -0.090592995
-0.027420487 -0.03118171 -0.079435356 0.010420606 -0.060413733 -0.22789048 -0.07734209 -0.062486846
0.08666578 0.014136013 0.07014624 -0.08914021 -0.0071886955 0.060909346 -0.025642246 -0.32589144
-0.05416706 0.11076745 0.03479964 0.055368625 0.04510948 0.070267536 0.010918168 -0.015867807
-0.050760806 -0.11472381 -0.0039508673 0.033998337 -0.026910732 0.013915042 0.079179116 -0.053772535
0.14781868 0.04379343 -0.06736307 0.044431496 -0.025627766 0.082396895 0.011381573 0.018817872
-0.13133034 0.027594997 0.0073269634 0.0628594 0.05273741 -0.10988584 -0.1066488 -0.08854046
0.11355778 -0.035684887 0.03338407 0.12423771 -0.13356824 0.019598981 0.09563292 0.08200425
-0.4772202 -0.39005026 -0.032284807 0.115907855 0.1675668 0.16951272 0.10703937 0.009565661
0.08797575 0.056044795 0.059275944 0.10498908 -0.12931591 -0.15296906 -0.093393646 0.0049059475
-0.16381492 0.0043912055 0.057885688 -0.17443518 0.085332476 -0.16544542 0.06558065 0.064232856
-0.009688296 0.100555144 -0.036892843 0.0285694 0.17803192 0.12990047 -0.07063704 0.07916561
-0.07332389 -0.08319016 0.077516615 3.6843205e-05 0.05874855 -0.07879449 0.104109146 0.022813778
-0.0032709998 -0.013033185 0.015569221 0.004440067 -0.051750362 0.11477823 0.045559615 -0.03496355
0.03384209 0.1396499 0.09381603 0.14148515 0.095754154 -0.05102612 -0.13248302 0.05835937
0.02994638 0.1519267 0.053974207 0.038188096 0.042518362 0.010847224 0.035768498 0.087605186
-1.7836271e-08 -1.278441e-08 -8.392976e-09 1.0337862e-08 -1.3570503e-08 -1.5396486e-08 -1.496945e-08 -4.71706e-09
-1.8536099e-08 -1.926609e-08 1.413864e-08 -2.9791472e-09 -1.6642305e-08 -1.0782348e-08 -4.6655515e-09 1.292742e-08
-1.7012209e-08 1.8033136e-08 -4.2820734e-09 -5.002137e-09 -3.6642027e-09 2.2095166e-09 1.4242316e-08 7.2303465e-09
-8.761926e-09 -3.3035294e-09 9.27997e-09 -1.38878775e-08 -2.0936959e-09 -1.2134569e-08 -7.0569093e-09 -9.20484e-10
-8.850154e-09 -5.169848e-09 2.0109452e-08 -9.375479e-09 -2.7361594e-08 -7.5137665e-09 4.5500377e-09 4.5244506e-09
1.112542e-08 -6.2956818e-09 1.6821783e-08 5.882121e-09 -7.368077e-09 -9.672303e-09 -1.0481702e-09 1.1445882e-08
-1.5339976e-08 -1.1961287e-08 -1.8313315e-08 -8.7742e-09 1.3158218e-08 1.0324154e-08 -1.5910116e-08 -6.7084147e-09
1.0373483e-08 1.2367027e-09 6.3914474e-09 2.7840847e-09 -2.0273816e-09 2.2977973e-09 2.154741e-09 -5.412712e-09
3.8017515e-06 -2.60531e-07 -3.498974e-07 -1.0921614e-06 2.4586955e-08 7.600397e-08 2.8063587e-07 -2.6910932e-06
1.1814086e-07 -1.1324735e-06 1.4156149e-07 9.9202424e-08 4.3166366e-08 -1.1097026e-06 5.1506454e-08 -8.2619334e-07
-2.1335436e-06 7.278689e-06 -2.1666699e-07 -7.8511437e-07 9.472481e-07 -7.820338e-07 -2.1069249e-07 -5.9671956e-06
-1.1345468e-06 -1.1105641e-06 1.8927361e-08 -8.022427e-07 1.778931e-07 8.4111656e-07 -7.712041e-07 -2.4999026e-06
-1.0995722e-06 -1.3197962e-07 4.274391e-08 2.9387635e-07 -4.9596915e-06 1.6799381e-08 -9.479353e-08 -9.228719e-07
-4.256311e-07 4.171649e-07 1.0201728e-06 -1.6083252e-06 4.6140244e-08 1.406192e-06 5.1752016e-07 8.4190214e-07
-6.405596e-07 1.2566619e-06 1.4006481e-07 -5.8028166e-07 -2.4767303e-06 8.9992696e-08 1.4225467e-06 -3.016016e-08
1.247512e-07 -5.002882e-07 -3.878632e-07 -7.4120734e-08 2.043267e-07 -3.9966022e-07 5.1486875e-08 -4.8330276e-07
00000000: 071f f63d a8d5 4dbd 7ada 8dbb e97c ffbc
00000010: 64ea 2abe fa26 493c 17fd 923d d288 b9bd
00000020: eea0 e0bc c970 ffbc 01af a2bd 30bb 2a3c
00000030: 6474 77bd 1f5c 69be 8865 9ebd 35f2 7fbd
00000040: d47d b13d bc9a 673c d5a8 8f3d 248f b6bd
00000050: 268f ebbb 147c 793d b00f d2bc 3edb a6be
00000060: 47de 5dbd 0bda e23d 118a 0e3d 36ca 623d
00000070: b8c4 383d 6de8 8f3d 1ee2 323c 34fd 81bc
00000080: 90ea 4fbd 51f4 eabd 4776 81bb d741 0b3d
00000090: e573 dcbc ebfb 633c a928 a23d 9740 5cbd
000000a0: c85d 173e bd60 333d a6f5 89bd cdfd 353d
000000b0: 52f1 d1bc b4bf a83d c779 3a3c f027 9a3c
000000c0: 767b 06be e70e e23c 0617 f03b 6ebc 803d
000000d0: 2f03 583d d40b e1bd b06a dabd b354 b5bd
000000e0: fb90 e83d 512a 12bd bcbd 083d 5770 fe3d
000000f0: 1dc6 08be 0b8e a03c 31db c33d d8f1 a73d
00000100: 3556 f4be abb4 c7be 133d 04bd 1961 ed3d
00000110: a296 2b3e be94 2d3e 7537 db3d 4ab9 1c3c
00000120: a12c b43d 3a8f 653d 55cb 723d 8404 d73d
00000130: 646b 04be eca3 1cbe 2b45 bfbd 12c2 a03b
00000140: 19bf 27be 1ae4 8f3b 8b19 6d3d 239f 32be
00000150: cbc2 ae3d 866a 29be 264f 863d 848c 833d
00000160: a9bb 1ebc dbef cd3d f31c 17bd 600a ea3c
00000170: 004e 363e a104 053e 27aa 90bd 9421 a23d
00000180: d62a 96bd 9a5f aabd 08c1 9e3d 1788 1a38
00000190: 52a2 703d 015f a1bd 2d37 d53d f6e3 ba3c
000001a0: 455e 56bb 2489 55bc 0c16 7f3c fb7d 913b
000001b0: 30f8 53bd d910 eb3d b89c 3a3d f035 0fbd
000001c0: 019e 0a3d 6200 0f3e 9e22 c03d 7ce1 103e
000001d0: c11a c43d c400 51bd a1a9 07be 3c0a 6f3d
000001e0: 1c52 f53c ac92 1b3e 0f14 5d3d 1f6b 1c3d
000001f0: bc27 2e3d 8eb8 313c fd81 123d 596a b33d
00000200: 6036 99b2 6ea2 5bb2 b330 10b2 669a 3132
00000210: b423 69b2 3b41 84b2 2b96 80b2 b313 a2b1
00000220: 5039 9fb2 947e a5b2 65e6 7232 b6b9 4cb1
00000230: d1f4 8eb2 453d 39b2 a04e a0b1 6517 5e32
00000240: 3e22 92b2 49e7 9a32 8421 93b1 43df abb1
00000250: 56cd 7bb1 3ad6 1731 5eae 7432 cd6e f831
00000260: 5c87 16b2 4e04 63b1 bd6d 1f32 8897 6eb2
00000270: b0e0 0fb1 6678 50b2 3b79 f2b1 4e05 7db0
00000280: 640b 18b2 77a2 b1b1 27bd ac32 cb11 21b2
00000290: c808 ebb2 e515 01b2 8e56 9c31 7d75 9b31
000002a0: 1d22 3f32 6751 d8b1 7e7f 9032 af1b ca31
000002b0: 4a2a fdb1 3d2b 26b2 360f 90b0 85a3 4432
000002c0: f7c4 83b2 4c7e 4db2 684f 9db2 57bd 16b2
000002d0: 740e 6232 1c5e 3132 b7aa 88b2 d77f e6b1
000002e0: 1037 3232 9cf8 a930 c49b db31 2352 3f31
000002f0: 1352 0bb1 47e7 1d31 9b12 1431 b8fa b9b1
00000300: 9821 7f36 1cdf 8bb4 88d9 bbb4 6196 92b5
00000310: 4933 d332 a037 a333 4daa 9634 a198 34b6
00000320: a0b4 fd33 7eff 97b5 2000 1834 1c09 d533
00000330: ec65 3933 17f1 94b5 f237 5d33 93c7 5db5
00000340: 002e 0fb6 763b f436 f8a4 68b4 a6c0 52b5
00000350: 6546 7e35 f4ec 51b5 b63a 62b4 d239 c8b6
00000360: bb46 98b5 b10e 95b5 b595 a232 b359 57b5
00000370: e202 3f34 17c9 6135 be04 4fb5 00c4 27b6
00000380: 0395 93b5 48b6 0db4 6d95 3733 0fc6 9d34
00000390: 6d6b a6b6 3b4e 9032 4b91 cbb3 46bb 77b5
000003a0: 4b82 e4b4 b5f6 df34 dfec 8835 a2dd d7b5
000003b0: bc2b 4633 64bc bc35 b7eb 0a35 13ff 6135
000003c0: ecf2 2bb5 93aa a835 b964 1634 a7c4 1bb5
000003d0: e735 26b6 0242 c133 55ee be35 7289 01b3
000003e0: 59f3 0534 8b4b 06b5 833b d0b4 4e2c 9fb3
000003f0: e564 5b34 e290 d6b4 6b22 5d33 50bc 01b5

conv1.lin_pos_r.weight f4 [32, 64]
0.10880975 -0.12268318 0.054037396 -0.08584299 -0.19830312 0.019942082 0.23990875 -0.03756287
0.12355908 0.1080175 0.11359182 0.10886187 -0.026158758 0.12329138 -0.21496437 0.21571492
0.086873375 -0.11133494 0.0469463 -0.18208702 -0.09892932 0.08508163 -0.10937648 -0.34987235
0.088124834 0.23398408 0.03279816 0.0815681 0.13850556 -0.008295168 -0.043547805 0.0017564427
-0.051380724 -0.12065725 -0.0100298645 -0.025321351 -0.015345395 0.00268308 -0.028037483 0.07682133
0.069729455 -0.11391041 0.04347767 -0.022633897 0.09487983 0.0795947 -0.16731657 -0.010970206
-0.14049971 -0.1197326 -0.03752838 -0.2156264 -0.043231674 0.013604422 0.059027705 -0.30547
-0.1751336 -0.013582325 0.044601843 -0.012492946 -0.23383532 -0.09674687 0.19817519 -0.045887228
-0.4745003 -0.004820992 -0.046345953 0.03350277 -0.06008943 -0.00931068 0.14754848 0.106260635
-0.0035535197 0.11113489 0.024365539 -0.005096279 -0.031771243 0.12867935 0.036835704 0.04964397
-0.10516745 0.045986835 0.082825154 0.0447533 0.030133013 0.09543016 0.099847786 0.04623449
-0.021646654 0.039035954 0.009300349 0.12667951 -0.028402576 0.005656576 0.08178617 0.06236005
-0.14461096 -0.017569894 0.07800808 -0.028838936 0.11187108 0.04444404 -0.047794323 0.09101642
0.08270259 -0.10328691 -0.22404832 0.08543422 -0.0639613 0.055151176 0.099533394 -0.012905842
0.16990367 0.0946517 0.014955162 0.07610622 0.09759395 -0.07765045 0.06527445 0.029936085
-0.064803176 -0.081848726 0.09886149 0.18622988 0.09844154 0.0083825765 -0.01392639 -0.023793846
2.1246427e-07 2.8470453e-09 -1.0553816e-08 -2.762732e-09 1.0265421e-08 -5.794061e-10 -2.1908155e-09 1.1280475e-08
2.7681969e-08 -1.736242e-07 2.356478e-08 1.2825812e-08 3.1599207e-08 5.2791713e-09 -6.6723684e-09 2.0264114e-08
4.3951722e-08 6.803292e-09 -1.1724861e-09 -1.9636124e-09 -1.603597e-08 -2.7983852e-08 4.2168e-09 -4.5367332e-10
-1.9779197e-08 2.981616e-09 -4.708982e-09 -1.0770368e-08 1.4250905e-09 1.4638694e-07 1.9221167e-08 8.450674e-09
8.462158e-07 -2.16941e-09 -2.6921247e-08 -5.565684e-09 -8.4606055e-09 -1.5540344e-08 1.248594e-08 -1.258227e-08
-9.2632675e-09 -1.434647e-08 -2.1407736e-09 1.5698207e-08 8.474299e-09 1.6024462e-08 -2.1164066e-09 -3.596794e-09
-2.4966484e-08 -2.1238316e-08 -3.597784e-09 4.699222e-09 -2.8579077e-08 8.11005e-09 -8.4672855e-09 8.853783e-09
-1.3254059e-08 -1.6331338e-08 -1.7248682e-08 1.5780433e-08 -5.0728626e-09 1.716519e-08 -4.244437e-09 1.6485616e-08
-1.0567129e-06 -9.051305e-08 8.2186304e-08 -6.1653617e-07 -5.277433e-07 -8.3512916e-08 7.317868e-07 4.5510532e-07
-7.124916e-07 2.8369192e-07 4.699853e-07 -8.738785e-08 3.3953808e-07 -4.6020162e-07 -8.478418e-08 -1.7516814e-07
2.0356225e-07 1.7418762e-07 5.2420415e-07 5.8404474e-08 7.704577e-07 2.8372298e-07 1.6601513e-07 -1.1501258e-08
1.9612679e-07 -5.853963e-07 3.2693123e-07 6.8782884e-07 5.155866e-07 -8.528516e-08 -2.7778043e-07 6.3416957e-07
1.4586499e-06 -8.818933e-07 -8.0382193e-07 -5.455369e-07 -2.5947221e-08 -2.3225724e-07 1.1155779e-07 4.8213957e-07
1.3875814e-07 -1.830226e-08 3.56473e-07 3.3749455e-07 3.2674553e-08 6.958179e-07 1.7553008e-07 -4.46684e-07
-2.3292797e-09 -1.4411734e-06 5.100493e-07 2.9631295e-07 2.0511877e-07 3.7955215e-07 -3.0316826e-08 -3.9290538e-07
1.2766078e-07 -1.7555998e-07 -1.00712306e-07 6.076779e-07 1.8302774e-07 -1.4972461e-07 -1.9624363e-08 -1.5780984e-07
00000000: a5d7 de3d 5241 fbbd 5156 5d3d 73ce afbd
00000010: f90f 4bbe 945d a33c a4aa 753e 86db 19bd
00000020: 8b0c fd3d 4738 dd3d d4a2 e83d f9f2 de3d
00000030: e44a d6bc 3180 fc3d 9f1f 5cbe 5fe4 5c3e
00000040: abea b13d 9303 e4bd c34a 403d 0575 3abe
00000050: 759b cabd 473f ae3d c700 e0bd 7822 b3be
00000060: cb7a b43d 8699 6f3e 5d57 063d 2d0d a73d
00000070: 67d4 0d3e 75e8 07bc 2f5f 32bd 7038 e63a
00000080: 9874 52bd 261b f7bd 4d54 24bc b96e cfbc
00000090: 406b 7bbc 9dd6 2f3b ddae e5bc 8054 9d3d
000000a0: 51ce 8e3d dc49 e9bd a415 323d b96a b9bc
000000b0: 5b50 c23d 8c02 a33d 0955 2bbe 61bc 33bc
000000c0: 28df 0fbe 5e36 f5bd 5cb7 19bd 2bcd 5cbe
000000d0: b213 31bd 15e5 5e3c 09c7 713d 9066 9cbe
000000e0: 3956 33be 6688 5ebc 6cb0 363d 37af 4cbc
000000f0: 8772 6fbe 3923 c6bd 70ee 4a3e 3ff4 3bbd
00000100: b4f1 f2be 69f9 9dbb 41d5 3dbd 333a 093d
00000110: 5620 76bd d38b 18bc f316 173e 2d9f d93d
00000120: 2be2 68bb b09a e33d 3d9a c73c b0fe a6bb
00000130: 9022 02bd 85c4 033e 09e1 163d 7a57 4b3d
00000140: 0862 d7bd b15c 3c3d 3ca0 a93d 3c4f 373d
00000150: 82d9 f63c e370 c33d ff7c cc3d 6060 3d3d
00000160: 5354 b1bc 2ae4 1f3d 7e60 183c 46b8 013e
00000170: 85ac e8bc cc5a b93b 827f a73d 406d 7f3d
00000180: e514 14be bdee 8fbc b3c2 9f3d a23f ecbc
00000190: aa1c e53d f40a 363d fbc3 43bd d166 ba3d
000001a0: fa5f a93d 1688 d3bd ec6c 65be 23f8 ae3d
000001b0: 24fe 82bd 33e6 613d 2ad8 cb3d 0673 53bc
000001c0: 3afb 2d3e c0d8 c13d 7f06 753c 94dd 9b3d
000001d0: 56df c73d 3307 9fbd 9cae 853d 853c f53c
000001e0: 87b7 84bd 4ea0 a7bd e577 ca3d 0cb3 3e3e
000001f0: b89b c93d 1357 093c 832b 64bc 50eb c2bc
00000200: bc21 6434 c0a5 4331 2c50 35b2 7fda 3db1
00000210: cd5b 3032 1444 1fb0 3c8d 16b1 0ecc 4132
00000220: 4bc9 ed32 756d 3ab4 806b ca32 8558 5c32
00000230: b2b7 0733 1564 b531 c642 e5b1 4211 ae32
00000240: 6ec5 3c33 64c2 e931 3025 a1b0 3cf0 06b1
00000250: 79bf 89b2 2461 f0b2 5de3 9031 d868 f9af
00000260: eae6 a9b2 25e5 4c31 a5cc a1b1 9408 39b2
00000270: eadc c330 892e 1d34 cb1b a532 752e 1132
00000280: 8227 6335 aa14 15b1 7340 e7b2 463c bfb1
00000290: 235a 11b2 947d 85b2 bf81 5632 6929 58b2
000002a0: 4824 1fb2 7178 76b2 e31c 13b1 b9d8 8632
000002b0: 5c96 1132 2aa6 8932 3870 11b1 782b 77b1
000002c0: e175 d6b2 8d6f b6b2 e33c 77b1 cb76 a131
000002d0: 0e7e f5b2 6154 0b32 8477 11b2 591b 1832
000002e0: f8b3 63b2 fe48 8cb2 412a 94b2 8a8d 8732
000002f0: 5f4d aeb1 a772 9332 76d6 91b1 419c 8d32
00000300: 61d4 8db5 1360 c2b3 667e b033 0b80 25b5
00000310: 3eaa 0db5 b657 b3b3 0270 4435 3355 f434
00000320: 0d42 3fb5 524e 9834 4a52 fc34 fba9 bbb3
00000330: c249 b634 a111 f7b4 9912 b6b3 da15 3cb4
00000340: c492 5a34 5408 3b34 09b7 0c35 66d8 7a33
00000350: 73d1 4e35 9752 9834 e441 3234 1197 45b2
00000360: ec96 5234 2124 1db5 1685 af34 3da3 3835
00000370: d766 0a35 0326 b7b3 da21 95b4 cd3b 2a35
00000380: d4c6 c335 3fbb 6cb5 39c6 57b5 0371 12b5
00000390: 8be2 deb2 6262 79b4 8b91 ef33 616c 0135
000003a0: 8cfd 1434 1837 9db2 4761 bf34 e630 b534
000003b0: 0d56 0c33 3ec8 3a35 5779 3c34 c8cf efb4
000003c0: 1f11 20b1 576e c1b5 52ea 0835 f114 9f34
000003d0: 9e3e 5c34 40c5 cb34 b435 02b3 81f0 d2b4
000003e0: 2113 0934 8f81 3cb4 2d47 d8b3 4f1f 2335
000003f0: 4886 4434 fdc3 20b4 6e92 a8b2 7072 29b4

conv1.lin_pos_r.bias f4 [32]
0.02080009 0.14438279 -0.028506985 -1.9873827e-05 0.06433715 0.0037878915 0.070648916 -0.035393544
0.07754636 0.073252626 -0.001114548 0.04135248 0.0051389737 0.080905676 0.07396575 0.028150491
0.012356298 0.005492193 -4.6238674e-05 3.049617e-06 -0.037889186 0.08695396 -0.009837299 0.09478049
-0.0035597018 -0.00032705843 -8.922944e-05 0.18114029 -0.0025013261 -0.011853575 0.014093455 0.0003185578
00000000: f364 aa3c 15d9 133e 7b87 e9bc b8b6 a6b7
00000010: 32c3 833d 463e 783b 61b0 903d d2f8 10bd
00000020: a0d0 9e3d 7905 963d 0616 92ba 3861 293d
00000030: d664 a83b e0b1 a53d 5b7b 973d dc9b e63c
00000040: 1272 4a3c dbf7 b33b 66f0 41b8 05a8 4c36
00000050: b131 1bbd eb14 b23d 9f2c 21bc 461c c23d
00000060: e349 69bb 0a79 abb9 b120 bbb8 d77c 393e
00000070: 4aed 23bb 7f35 42bc 3ce8 663c 1b04 a739

conv1.lin_neg_l.weight f4 [32, 64]
1.1567634e-08 5.1260547e-09 1.8919435e-09 -1.9207818e-08 -1.7817525e-08 -1.6006965e-08 -1.2921819e-08 -2.825689e-08
-4.2037955e-09 5.5970846e-09 -2.143558e-08 -3.04685e-08 -3.7322843e-09 1.11376764e-07 -3.9873584e-08 7.833572e-08
-1.9606539e-09 -7.4452187e-09 2.6913066e-08 6.098663e-08 3.357718e-09 1.1217033e-08 1.7631649e-08 -5.575805e-09
4.3942836e-09 -2.7561914e-08 -2.4702555e-08 1.2283961e-08 -7.3694615e-09 2.2181986e-08 3.1082625e-09 -5.7584906e-09
1.5122446e-08 5.2656337e-09 -1.4887536e-08 2.9659082e-08 2.0575233e-09 -5.250296e-09 9.0034655e-09 -4.871056e-09
1.0678775e-08 -4.722498e-09 1.0616974e-08 -1.8023036e-08 -7.4453044e-09 -1.3708547e-09 2.1487627e-09 8.764326e-09
-1.2242369e-08 -1.2406932e-08 7.0701534e-10 -4.040599e-09 -1.3979158e-08 -4.6179416e-09 -7.717617e-10 -7.041386e-09
-9.1127e-09 1.8634601e-08 8.837505e-09 -2.304367e-08 -7.803036e-09 -1.0711326e-08 1.32180515e-08 7.8742e-09
-0.067720324 0.16445532 0.24466346 -0.011483517 0.3426862 -0.16482934 -0.15304664 0.18312843
-0.14633949 -0.23865756 0.026487987 -0.019534247 -0.09819893 -0.016987918 -0.0732391 -0.27849475
-0.095617846 0.07723984 -0.087985225 -0.1537801 -0.019487675 -0.26359186 -0.041763935 0.08697265
0.031255122 -0.29970485 0.013878396 -0.023634117 -0.024444127 0.0028477258 -0.0151351765 -0.018282978
-0.19807047 0.3389818 0.2343778 0.057207484 -0.08259321 -0.10374788 -0.027614156 0.10750444
0.029948309 0.089776345 -0.049508072 0.27420533 0.025863321 -0.072970115 0.026876684 0.015711803
-0.09249288 0.08543903 -0.2557195 0.030003741 -0.1450737 0.06825877 -0.025689067 -0.09585571
0.05029323 0.023149543 0.022245841 -0.2598378 -0.2143033 0.00119046 -0.09611424 0.14360045
-0.4501949 -0.09511769 0.036808863 0.06265044 -0.15682487 0.053983316 0.15878709 -0.086833365
0.12350911 0.05212944 -0.03974372 -0.19309404 0.23143794 0.24573848 0.14021362 -0.0053179627
0.16950218 -0.00088772364 0.09721395 0.0026941658 0.118123576 0.08749784 0.10598497 0.043408718
0.07456306 -0.01332718 0.02154206 0.10640869 0.099786706 0.042776626 0.1236246 -0.14390844
0.09876425 -0.066864476 0.05700845 -0.14616174 0.027778879 -0.036705095 0.020079097 -0.17446238
0.080776155 0.045334082 -0.084519506 -0.11884423 -0.0020657177 0.078177 -0.0864644 -0.09383255
-0.01425187 0.03289647 0.019405004 0.053187102 -0.019980406 0.039267637 0.10447739 0.11724262
0.12910621 -0.003187715 -0.01172807 0.17428964 -0.18240595 -0.094883546 -0.055937402 -0.061005242
0.095527306 -0.23804177 -0.06407282 -0.27468342 -0.005582521 -0.03464852 0.22159299 -0.06296284
0.07507639 -0.20882034 -0.052346993 0.31286433 -0.0033417752 0.0356117 0.22755791 -0.14071819
-0.052762195 -0.033030167 -0.07972529 -0.1552006 -0.0030404876 0.015149048 -0.08060713 -0.30675575
0.008877877 0.038433768 -0.055464294 -0.095291 -0.1200293 0.13648792 -0.07742273 0.01657016
0.17636186 -0.12828258 -0.09441316 0.016532488 -0.060317922 -0.19536886 0.26140207 -0.05369905
0.100871176 -0.14997399 0.06321123 -0.037468273 0.024860304 0.17064445 -0.083722875 0.16639574
0.18678372 0.014291249 0.049101584 -0.09510444 0.026398301 0.1699598 0.17620102 -0.15845154
-0.20899494 -0.029831639 0.030930402 0.16915534 0.0819501 -0.115722306 0.02751026 -0.086946845
00000000: feba 4632 4121 b031 6c03 0231 70fe a4b2
00000010: 270d 99b2 b07f 89b2 c3fe 5db2 8fb9 f2b2
00000020: fa70 90b1 7a50 c031 5721 b8b2 78dc 02b3
00000030: 853d 80b1 062e ef33 7841 2bb3 8439 a833
00000040: 30bc 06b1 d6d0 ffb1 752e e732 c1f7 8233
00000050: 9abd 6631 08b5 4032 6874 9732 4d95 bfb1
00000060: 87fc 9631 4ac1 ecb2 7e31 d4b2 6f09 5332
00000070: 7836 fdb1 b48a be32 2299 5531 38dc c5b1
00000080: 9ce6 8132 01ed b431 13c4 7fb2 03c5 fe32
00000090: 5564 0d31 1866 b4b1 a9ad 1a32 435e a7b1
000000a0: c075 3732 8843 a2b1 f265 3632 13d1 9ab2
000000b0: 97d1 ffb1 a968 bcb0 6fa9 1331 ea91 1632
000000c0: 8252 52b2 4426 55b2 c857 4230 7cd5 8ab1
000000d0: fd28 70b2 d8ab 9eb1 e723 54b0 b0f0 f1b1
000000e0: 148e 1cb2 ec11 a032 c2d3 1732 91f1 c5b2
000000f0: 1e0e 06b2 e904 38b2 9b15 6332 1947 0732
00000100: f4b0 8abd fa66 283e 0f89 7a3e 5c25 3cbc
00000110: 9174 af3e 06c9 28be 42b8 1cbe 0586 3b3e
00000120: 05da 15be a662 74be 56fd d83c 4906 a0bc
00000130: 851c c9bd 3f2a 8bbc 62fe 95bd dd96 8ebe
00000140: 4ad3 c3bd ec2f 9e3d 9931 b4bd 8878 1dbe
00000150: 9ea4 9fbc 83f5 86be a910 2bbd b71e b23d
00000160: 5f05 003d ea72 99be 3662 633c 569c c1bc
00000170: 0d3f c8bc e9a0 3a3b 88f9 77bc 2fc6 95bc
00000180: fcd2 4abe 068f ad3e bc00 703e 6552 6a3d
00000190: a126 a9bd c579 d4bd 1537 e2bc 4a2b dc3d
000001a0: 2856 f53c a9dc b73d fac8 4abd a464 8c3e
000001b0: 51df d33c 5b71 95bd 7e2c dc3c 0ab6 803c
000001c0: e86c bdbd a8fa ae3d abed 82be 68ca f53c
000001d0: 338e 14be 41cb 8b3d e171 d2bc 0050 c4bd
000001e0: 4600 4e3d 1ca4 bd3c e93c b63c 7609 85be
000001f0: 5372 5bbe 3609 9c3a 8bd7 c4bd ff0b 133e
00000200: f27f e6be 10cd c2bd e4c4 163d e04e 803d
00000210: b396 20be 9c1d 5d3d 1599 223e b1d5 b1bd
00000220: 58f2 fc3d ae85 553d 50ca 22bd 72ba 45be
00000230: 11fe 6c3e dea2 7b3e 2994 0f3e 4e42 aebb
00000240: fb91 2d3e 20b6 68ba 1b18 c73d 9a90 303b
00000250: c6ea f13d 1132 b33d a60e d93d 57cd 313d
00000260: 85b4 983d 3f5a 5abc f978 b03c cdec d93d
00000270: f95c cc3d 8b36 2f3d e52e fd3d bc5c 13be
00000280: e944 ca3d 3ef0 88bd b181 693d 6cab 15be
00000290: 8890 e33c 1558 16bd eb7c a43c 44a6 32be
000002a0: f86d a53d 3bb0 393d 9018 adbd 9b64 f3bd
000002b0: fe60 07bb 431b a03d 3f14 b1bd 482b c0bd
000002c0: ad80 69bc 73be 063d 3ef7 9e3c b8da 593d
000002d0: f3ad a3bc 1ad7 203d 3ef8 d53d e61c f03d
000002e0: 6b34 043e fce8 50bb 1727 40bc fc78 323e
000002f0: a0c8 3abe 4e52 c2bd 9e1e 65bd a2e0 79bd
00000300: d2a3 c33d 39c1 73be 9c38 83bd 4ea3 8cbe
00000310: 95ed b6bb 9beb 0dbd 46e9 623e a9f2 80bd
00000320: a6c1 993d 00d5 55be cd69 56bd c12f a03e
00000330: af01 5bbb 93dd 113d f104 693e 6e18 10be
00000340: 2c1d 58bd a44a 07bd 0347 a3bd e8ec 1ebe
00000350: eb42 47bb b633 783c 5a15 a5bd 170f 9dbe
00000360: 8474 113c ba6c 1d3d 872e 63bd ee27 c3bd
00000370: ecd1 f5bd 7dc3 0b3e cf8f 9ebd 25be 873c
00000380: 3498 343e 825c 03be b05b c1bd 246f 873c
00000390: ed0f 77bd c60e 48be 7ed6 853e 89f3 5bbd
000003a0: 8c95 ce3d c892 19be e474 813d 5578 19bd
000003b0: d6a7 cb3c 6bbd 2e3e e676 abbd a563 2a3e
000003c0: 3b44 3f3e d825 6a3c be1e 493d 1ec6 c2bd
000003d0: 4041 d83c f109 2e3e 0a6e 343e 1f41 22be
000003e0: c502 56be 7b61 f4bc c161 fd3c 0f37 2d3e
000003f0: 74d5 a73d d1ff ecbd 325d e13c 3011 b2bd

conv1.lin_neg_r.weight f4 [32, 64]
3.281953e-06 -1.5380047e-05 2.2423972e-08 5.6597504e-09 8.5626465e-07 1.3787598e-08 -1.349261e-08 9.375064e-10
-2.2277271e-09 1.1340395e-08 6.418216e-08 1.881449e-08 1.4104495e-08 -2.4705043e-08 7.1335876e-08 -8.729308e-09
6.5041166e-07 -1.2232899e-08 0.00022201554 4.2496828e-07 3.8928073e-07 -1.5881857e-07 1.3748054e-08 8.819537e-08
1.246588e-07 -3.17517e-08 -2.470859e-08 -3.3394901e-06 8.333948e-09 1.271502e-08 3.316234e-08 -1.4483834e-08
-1.2133451e-07 2.9641736e-08 1.0917459e-09 -4.749305e-09 1.4097211e-08 -8.333432e-09 -2.4241558e-09 8.669611e-09
2.4351008e-09 1.225264e-07 6.100465e-09 1.9926892e-08 1.9378234e-08 -3.9868633e-09 -6.667915e-09 2.7470112e-08
1.5645435e-08 -1.5084591e-08 1.9249399e-08 -1.5016868e-08 1.2090065e-07 1.7458978e-08 5.609157e-08 1.3865587e-08
-1.545628e-08 -1.22160015e-08 -8.244985e-09 -1.372767e-08 -8.733992e-09 -8.0898905e-09 1.9934665e-08 -8.979949e-09
-0.10272814 -0.121634975 -0.029749863 -0.13037036 -0.27923778 0.06285584 -0.008710273 0.008488024
0.18661729 0.20492786 -0.1632796 0.3144924 -0.056813113 -0.026010524 0.10545219 0.061735723
-0.29287085 -0.05972484 -0.09853385 -0.11988544 -0.008540832 0.041001868 0.3300403 0.022963526
-0.31606352 0.31799024 -0.10144469 -0.008929111 0.34832883 0.076590925 0.064465076 -0.08392892
-0.07437861 -0.081803925 0.02257862 -0.099887654 0.042065058 0.12172098 0.10609594 -0.0060737086
-0.08480734 0.12864856 0.10083693 -0.16596894 0.088318095 0.0036450855 0.2493666 0.0076246955
-0.052987926 0.10689247 0.20676593 -0.06341402 0.080418766 0.008683696 -0.14779024 -0.2984848
-0.066259824 -0.02716874 -0.21576598 0.11132369 0.1755055 0.15230945 0.09692332 -0.033218067
0.32740197 0.028324697 0.11096358 0.07982888 0.26573786 0.08106351 -0.18735301 0.0011183498
-0.06271847 0.025069926 0.054924626 0.027910685 -0.035180986 -0.2895474 -0.0069408463 0.010586187
0.09494161 -0.064736396 0.013649848 0.04932971 -0.052828033 -0.028811742 0.15000014 0.063792
-0.017229836 0.048392076 0.1593365 -0.04382257 0.07121764 -0.0041093356 -0.13662717 0.018385837
0.19271755 0.06873004 0.11216455 0.14788763 0.15174322 -0.115030386 0.16427124 0.011607985
0.053695492 -0.112089716 -0.018133387 -0.013559181 -0.12504409 0.085567065 0.13420919 -0.047817636
0.0948136 -0.04425049 0.14486079 0.020563712 -0.05524809 0.107370585 -0.046176005 0.022992749
0.11297547 -0.14231302 -0.13237302 -0.09918202 -0.051577233 0.091679625 -0.089207254 0.06651721
-0.3534374 0.20485778 0.079132214 0.16952847 -0.043050066 0.073454976 -0.07077889 -0.08922577
-0.05795171 0.0033174907 -0.13036223 -0.19237596 0.24502142 -0.16146362 -0.16443232 0.14120826
-0.02516883 0.062286273 0.113956004 0.2396516 0.11329367 0.116941094 0.13421822 0.37029982
0.11429252 -0.2881252 0.053560432 -0.019104244 0.21119626 -0.02609189 0.17209731 -0.14866395
0.08229318 0.038825512 0.1611925 -0.26590696 -0.069633126 9.664178e-06 -0.07890553 0.03848173
-0.024306176 0.0946988 -0.24505001 0.21130739 0.0066343006 -0.10705094 -0.04173403 0.015295823
-0.045107655 -0.1111663 -0.028478594 -0.0049662786 -0.07110291 0.04929827 0.16116765 0.1310761
0.058146015 0.012591623 0.14442392 -0.07593057 -0.11296017 0.19977887 -0.05532625 0.16396569
00000000: 863f 5c36 6604 81b7 d69e c032 b177 c231
00000010: 0fda 6535 7fde 6c32 20cd 67b2 93d9 8030
00000020: 9716 19b1 96d3 4232 84d4 8933 809d a132
00000030: 3a50 7232 f736 d4b2 5031 9933 e7f7 15b2
00000040: f397 2e35 dc28 52b2 d8cc 6839 3227 e434
00000050: 56fe d034 b787 2ab4 9530 6c32 eb65 bd33
00000060: f3d9 0534 5d5f 08b3 c43e d4b2 011c 60b6
00000070: 172d 0f32 4071 5a32 616e 0e33 93d4 78b2
00000080: 2d48 02b4 de9e fe32 650c 9630 542f a3b1
00000090: 3130 7232 d22a 0fb2 3396 26b1 5af1 1432
000000a0: bf56 2731 cd8f 0334 429c d131 b32b ab32
000000b0: 3075 a632 d2fc 88b1 9a1b e5b1 6af7 eb32
000000c0: ad64 8632 5e93 81b2 e059 a532 71fe 80b2
000000d0: ebd0 0134 b3f8 9532 55e9 7033 7f35 6e32
000000e0: b8c4 84b2 8bde 51b2 d4a5 0db2 eed6 6bb2
000000f0: 810c 16b2 b7fb 0ab2 cb3c ab32 3c46 1ab2
00000100: 2263 d2bd c21b f9bd fcb5 f3bc cf7f 05be
00000110: 41f8 8ebe 90ba 803d 88b5 0ebc 5a11 0b3c
00000120: 9a18 3f3e 9cd8 513e c432 27be 2605 a13e
00000130: deb4 68bd 0614 d5bc 51f7 d73d 99de 7c3d
00000140: 2bf3 95be 09a2 74bd 1dcc c9bd 7f86 f5bd
00000150: d9ee 0bbc 93f1 273d 0bfb a83e 011e bc3c
00000160: 14d3 a1be 9ecf a23e 3cc2 cfbd 684b 12bc
00000170: 2858 b23e b4db 9c3d 4406 843d ede2 abbd
00000180: d053 98bd d188 a7bd ccf6 b83c e691 ccbd
00000190: 694c 2c3d d948 f93d d448 d93d f605 c7bb
000001a0: 78af adbd 73bc 033e 9883 ce3d c3f3 29be
000001b0: 1ee0 b43d 63e2 6e3b f559 7f3e 95d8 f93b
000001c0: de09 59bd 70ea da3d 73ba 533e 36df 81bd
000001d0: 98b2 a43d 1046 0e3c 5356 17be 00d3 98be
000001e0: 3bb3 87bd fa90 debc c2f1 5cbe adfd e33d
000001f0: b7b7 333e 02f7 1b3e bc7f c63d ab0f 08bd
00000200: 3ba1 a73e 3209 e83c e040 e33d 537d a33d
00000210: cb0e 883e a004 a63d 78d9 3fbe 9895 923a
00000220: 8b72 80bd 725f cd3c a5f8 603d f3a4 e43c
00000230: f019 10bd 8f3f 94be 0a70 e3bb b071 2d3c
00000240: bf70 c23d 8494 84bd 9da3 5f3c f30d 4a3d
00000250: 3562 58bd 9a06 ecbc a399 193e 61a5 823d
00000260: 9625 8dbc c536 463d 1c29 233e 4c7f 33bd
00000270: 8eda 913d 9ba7 86bb fee7 0bbe e59d 963c
00000280: c057 453e 56c2 8c3d 87b6 e53d db6f 173e
00000290: 9362 1b3e 0d95 ebbd b836 283e 6b2f 3e3c
000002a0: ceef 5b3d 4b8f e5bd 788c 94bc 5427 5ebc
000002b0: 8f0b 00be c93d af3d 226e 093e 6ddc 43bd
000002c0: a22d c23d 0040 35bd 6356 143e 3b75 a83c
000002d0: d24b 62bd 1ce5 db3d 0d23 3dbd 4a5b bc3c
000002e0: af5f e73d 81ba 11be cb8c 07be f11f cbbd
000002f0: a642 53bd 87c2 bb3d 4bb2 b6bd 2d3a 883d
00000300: bff5 b4be 3dc6 513e 1210 a23d df98 2d3e
00000310: 4455 30bd 906f 963d 86f4 90bd 00bc b6bd
00000320: c65e 6dbd 426a 593b ad7d 05be 34fe 44be
00000330: e5e6 7a3e b856 25be f260 28be e698 103e
00000340: dd2e cebc e41f 7f3d c461 e93d 3b67 753e
00000350: 8306 e83d d07e ef3d 8070 093e f097 bd3e
00000360: 3212 ea3d 2585 93be 2f62 5b3d 8180 9cbc
00000370: d543 583e a9be d5bc 473a 303e 5d3b 18be
00000380: 5489 a83d 8007 1f3d a60f 253e f524 88be
00000390: d09b 8ebd 5423 2237 3999 a1bd 059f 1d3d
000003a0: bf1d c7bc 72f1 c13d 64ee 7abe f760 583e
000003b0: 8c64 d93b 863d dbbd 4df1 2abd 559b 7a3c
000003c0: cec2 38bd 28ab e3bd f14b e9bc 2abc a2bb
000003d0: 679e 91bd fcec 493d 2209 253e d038 063e
000003e0: 842a 6e3d 184d 4e3c dde3 133e 7d81 9bbd
000003f0: a957 e7bd d592 4c3e c79d 62bd 9fe6 273e

conv1.lin_neg_r.bias f4 [32]
-0.05213222 0.060800403 0.072600946 0.13569476 0.005908136 0.053304397 0.0027117322 0.089139275
-0.025678702 0.06506674 0.01558847 0.10255655 -0.019405628 -1.7491624e-05 0.09178215 0.0069975667
-0.029587764 0.0023252305 -0.0007838872 0.11538541 -0.030352283 -0.03714294 0.06859174 0.07105546
-0.0024212247 -0.056056775 0.10182089 0.039877605 0.07866354 -0.0027943212 0.004569297 -0.18801787
00000000: 9888 55bd d809 793d ceaf 943d 91f3 0a3e
00000010: 0999 c13b b655 5a3d 51b7 313b a78e b63d
00000020: 245c d2bc b641 853d c866 7f3c 2b09 d23d
00000030: 8df8 9ebc faba 92b7 48f8 bb3d d84b e53b
00000040: 0a62 f2bc e562 183b c87d 4dba 304f ec3d
00000050: 5aa5 f8bc 3223 18bd d479 8c3d 8685 913d
00000060: 69ad 1ebb ca9b 65bd 7987 d03d b356 233d
00000070: 5a1a a13d ee20 37bb 0bba 953b c287 40be

convs.0.lin_pos_l.weight f4 [32, 64]
0.16074082 0.08019216 4.1587516e-09 -5.2699784e-07 -0.13936186 0.056839872 0.3583828 0.0017600299
0.21691689 0.13237847 0.053793874 -0.22153743 -0.07529711 -0.11390982 -0.14353465 0.00047738178
-0.12586635 -0.25945988 -7.743094e-09 1.1026532e-07 7.740388e-07 0.053269677 0.036085244 0.201551
6.4905086e-09 -1.0993965e-09 -2.2540211e-11 0.033106454 -1.4995226e-08 0.02707169 -0.0356469 0.08892535
-1.6486114e-09 -0.00019516639 0.17034957 0.07832179 -0.19918643 -0.12157969 -0.16613622 -0.0052426336
-5.1336825e-05 0.0913314 -0.004546521 0.05566288 0.05858282 -9.487851e-07 0.019640034 -0.21217477
1.9369203e-08 -0.1284451 0.104394004 0.13710022 6.4380186e-09 -2.4001531e-08 0.09520853 -0.0751256
-9.212178e-09 1.7361197e-08 0.08388857 -0.08294736 0.29825622 -5.3307875e-10 -0.010650424 0.07499989
-0.11411367 -0.15798074 -1.7567563e-08 -1.5553299e-07 0.08378527 0.04066439 -0.078673445 -0.0019693722
-0.28499666 -0.076277845 0.12218247 0.027854273 0.041496493 -0.0896815 0.24485128 0.09965876
-0.066128604 0.2133442 -2.2419227e-08 -4.356619e-06 -2.2890264e-08 -0.06626026 -0.0057741217 -0.18769677
-1.779175e-08 4.100406e-08 -1.6991448e-08 0.107461385 -1.0614143e-08 0.024198774 -0.053899042 -0.16609794
-2.3670362e-08 -0.07832932 0.019813614 0.41605595 -0.15983863 0.09102225 -0.027272858 -0.15628298
5.600633e-05 -0.007816224 -0.07568197 -0.059117764 -0.081431545 8.3018016e-08 -0.06400541 0.10501776
2.0321751e-08 0.13245474 -0.022685695 0.32636234 -1.5689293e-08 -5.911848e-09 0.115608364 -0.046457246
-1.0350499e-09 -4.037866e-09 0.16584751 0.05840031 -0.0022447298 -1.4064386e-08 0.07312765 0.010933289
-5.2308895e-09 -9.912931e-09 7.237622e-09 8.187942e-11 -7.3299673e-09 -8.151248e-09 5.774536e-09 2.2175295e-09
-6.0767547e-09 -2.4093465e-09 1.12552385e-08 -2.859105e-09 1.1607821e-08 1.815591e-08 1.1766159e-08 2.3463592e-08
-2.4716724e-09 -9.745874e-09 7.3739472e-09 -8.80966e-09 2.6088134e-08 2.6944312e-08 7.330517e-09 -3.2571454e-09
-1.598942e-08 -4.842708e-09 9.0154767e-10 -4.430323e-09 2.7892548e-09 -8.352265e-09 -5.205975e-09 8.945839e-10
-8.4098073e-10 -8.60126e-09 -4.2198374e-09 -5.0284554e-09 1.1709347e-08 3.6161404e-10 -1.7577143e-08 3.0372695e-09
-1.2262265e-08 2.245978e-08 -8.1910634e-10 -5.262508e-09 8.61919e-09 -1.119955e-09 -1.9475375e-09 -1.0672589e-08
1.8930986e-09 1.7663726e-09 2.0233582e-08 -2.5177425e-09 6.9692776e-09 -4.65915e-09 2.3724096e-09 2.0441948e-09
7.311516e-09 -2.011551e-09 1.2614075e-09 -2.3934213e-08 1.8110722e-08 3.0450635e-09 -6.261396e-09 6.230679e-09
-0.19335973 -0.09516424 2.2820388e-09 -1.6627816e-07 0.081088446 0.10930342 0.027555747 0.00047438082
-0.27840787 -0.06998621 -0.05681357 -0.33469227 0.1963116 0.2524781 0.22978367 0.09232035
0.33066836 -0.17377527 3.978341e-09 -7.985966e-06 3.1003474e-08 0.07594483 0.10582468 -0.15310687
9.721633e-09 4.0362433e-08 1.3290823e-09 -0.028797556 4.082403e-09 -0.0049387617 0.021162173 -0.105894975
-1.4149548e-08 0.04252315 0.33753613 0.16058417 -0.16011605 0.059469514 -0.17515282 0.29313323
3.0390613e-05 0.29580182 0.05598286 0.1966095 0.08762593 -1.1209595e-05 0.38689965 0.2865774
-1.7962856e-08 0.1791024 0.07390094 0.20700586 4.95563e-10 8.1406236e-11 -0.021845853 0.30625555
3.8431742e-09 2.5882863e-10 0.32590067 -0.0020529716 0.22588658 -1.2116753e-08 0.11123857 -0.0232302
00000000: 3e99 243e ca3b a43d c4e4 8e31 0477 0db5
00000010: e0b4 0ebe edd0 683d f37d b73e ceb0 e63a
00000020: 761f 5e3e 398e 073e f756 5c3d b5da 62be
00000030: 5f35 9abd 8d49 e9bd bffa 12be 1949 fa39
00000040: 1ce3 00be edd7 84be 7d06 05b2 00cb ec33
00000050: 8bc7 4f35 4e31 5a3d 1fce 133d 6363 4e3e
00000060: 1e03 df31 9319 97b0 0b44 c6ad a29a 073d
00000070: dace 80b2 73c5 dd3c 7c02 12bd 7e1e b63d
00000080: 5b95 e2b0 94a5 4cb9 1e70 2e3e 2d67 a03d
00000090: 87f7 4bbe c6fe f8bd 9d1f 2abe 66ca abbb
000000a0: 7f52 57b8 f50b bb3d fcfa 94bb c3fe 633d
000000b0: 8af4 6f3d 04b0 7eb5 23e4 a03c 5844 59be
000000c0: 5461 a632 1d87 03be 86cc d53d 0064 0c3e
000000d0: 6935 dd31 ed2b ceb2 b1fc c23d 73db 99bd
000000e0: 9643 1eb2 ad21 9532 c5cd ab3d 4ee0 a9bd
000000f0: 0ab5 983e 1588 12b0 1e7f 2ebc 8b99 993d
00000100: 6eb4 e9bd b4c5 21be 7be7 96b2 9500 27b4
00000110: 9d97 ab3d b48f 263d 8b1f a1bd 9510 01bb
00000120: 15eb 91be 8f37 9cbd ce3a fa3d a52e e43c
00000130: 3af8 293d efaa b7bd 4bba 7a3e e419 cc3d
00000140: 6f6e 87bd e776 5a3e 6794 c0b2 122f 92b6
00000150: 39a0 c4b2 76b3 87bd d834 bdbb 9533 40be
00000160: 79d4 98b2 711c 3033 97f4 91b2 b714 dc3d
00000170: 7f59 36b2 823c c63c 3ec5 5cbd 9415 2abe
00000180: ad53 cbb2 1f6b a0bd 2950 a23c 4905 d53e
00000190: bdac 23be e069 ba3d 546b dfbc a508 20be
000001a0: 57e8 6a38 9f0f 00bc 26ff 9abd 7825 72bd
000001b0: 95c5 a6bd a347 b233 4515 83bd 8d13 d73d
000001c0: 0190 ae32 37a2 073e 5ad7 b9bc f718 a73e
000001d0: 1fc5 86b2 2a21 cbb1 14c4 ec3d f449 3ebd
000001e0: 9541 8eb0 72bd 8ab1 eed3 293e 2a35 6f3d
000001f0: 511c 13bb d39f 71b2 f3c3 953d 8a21 333c
00000200: 64bb b3b1 884d 2ab2 ccae f831 040e b42e
00000210: 13db fbb1 9109 0cb2 5b69 c631 3163 1831
00000220: b3cb d0b1 ac91 25b1 105d 4132 e879 44b1
00000230: bd6b 4732 45f5 9b32 1d24 4a32 fc8c c932
00000240: 1fda 29b1 cf6e 27b2 ed5d fd31 4b59 17b2
00000250: 6a18 e032 2b73 e732 e9df fb31 4fd4 5fb1
00000260: 1b59 89b2 e964 a6b1 c7d0 7730 8939 98b1
00000270: 17ad 3f31 a67d 0fb2 3ee0 b2b1 bfe6 7530
00000280: c22a 67b0 bec4 13b2 15fe 90b1 c3c6 acb1
00000290: 412a 4932 a7cc c62f 8cfc 96b2 36b8 5031
000002a0: 03aa 52b2 94ed c032 7c27 61b0 83d1 b4b1
000002b0: 9913 1432 eaec 99b0 71d5 05b1 8b5a 37b2
000002c0: be17 0231 b6c4 f230 1ece ad32 9804 2db1
000002d0: 6a76 ef31 5116 a0b1 df07 2331 db79 0c31
000002e0: c638 fb31 943b 0ab1 d55d ad30 e497 cdb2
000002f0: e691 9b32 5341 5131 d223 d7b1 a215 d631
00000300: 1800 46be 78e5 c2bd 0dd2 1c31 318a 32b4
00000310: b311 a63d 79da df3d 97bc e13c 51b6 f839
00000320: 7a8b 8ebe ee54 8fbd 59b5 68bd c95c abbe
00000330: e805 493e cf44 813e 694c 6b3e 7412 bd3d
00000340: 5d4d a93e 25f2 31be dcb1 8831 76fb 05b7
00000350: ae28 0533 f788 9b3d 9cba d83d 0cc8 1cbe
00000360: 3204 2732 f75a 2d33 edaa b630 dae8 ebbc
00000370: 3245 8c31 56d5 a1bb 4b5c ad3c 77df d8bd
00000380: 5f16 73b2 c12c 2e3d 89d1 ac3e 2d70 243e
00000390: 76f5 23be 4e96 733d 435b 33be 8f15 963e
000003a0: 58ef fe37 5673 973e 494e 653d 0054 493e
000003b0: 3975 b33d d810 3cb7 b617 c63e 46ba 923e
000003c0: bd4c 9ab2 9f66 373e 6059 973d 58f9 533e
000003d0: 2538 0830 a303 b32e 13f6 b2bc 87cd 9c3e
000003e0: eb0c 8431 e44a 8e2f 74dc a63e 268b 06bb
000003f0: d04e 673e 0b2a 50b2 0cd1 e33d 434d bebc

convs.0.lin_pos_r.weight f4 [32, 32]
0.28679428 -0.0034635765 1.479546e-08 -3.245397e-07 -0.27766186 -0.089409694 0.27958915 -0.0030514898
0.09932539 -0.080230094 0.112575285 -0.32707685 -0.23519035 -0.24693595 -0.5022277 -0.45059508
0.12714057 0.009171785 1.0671147e-08 -2.6621587e-06 2.61017e-08 -0.0151793575 -0.10610522 0.09025439
-4.0183017e-09 -4.9032057e-08 2.5468154e-09 0.15130842 7.716993e-09 -0.100559376 -0.47704026 0.21940699
0.06777731 -0.028183658 -5.3494356e-09 -5.7435635e-08 -0.13932572 -0.19083905 -0.027444348 -0.0032161765
-0.19872469 -0.02892125 0.21189773 -0.1685459 0.1210302 -0.16600181 0.34871376 0.16127196
-0.12334253 0.28029752 1.9405796e-08 4.9525147e-06 2.9161734e-08 -0.23691489 -0.46885502 -0.048316687
-4.9393893e-09 -5.2676395e-08 -2.9851968e-09 0.078534976 2.0580913e-08 0.114928946 0.24475817 0.08420304
-1.2185047e-09 -2.9329597e-08 2.7678698e-08 9.682601e-09 6.4708785e-09 4.801572e-09 -8.539652e-09 1.5098104e-08
6.814747e-09 -8.164398e-09 -2.8251314e-08 -2.0193028e-08 4.4330677e-09 1.531133e-08 9.07831e-09 -2.2293405e-09
1.9361405e-08 7.771344e-09 9.839613e-09 -1.4369091e-08 4.8678476e-08 -1.4884356e-08 -7.258004e-10 1.2452932e-08
-3.9283305e-09 -6.5691093e-09 2.4206435e-09 -3.3131368e-08 -3.4018852e-09 -5.7987243e-10 1.4288814e-08 -5.7065694e-09
0.12645699 0.13958853 -1.8263927e-09 8.086301e-10 -0.101142436 -0.11889482 0.062881365 0.0028149472
-0.29361406 0.090459846 -0.16229162 -0.11934502 0.21145613 0.29398263 0.55540967 0.26051375
-0.27346367 -0.032491095 1.3693914e-08 8.666733e-06 4.125026e-08 0.2771388 0.017043373 -0.36451977
-1.5759053e-09 9.364486e-09 -1.0257539e-10 -0.1656375 8.367334e-09 -0.009300483 0.046108514 -0.31971022
-7.5594886e-07 -1.0703011e-06 8.9035375e-09 -5.086355e-10 -1.9113169e-07 7.5503664e-08 3.5818258e-07 5.47458e-10
2.3218197e-06 -1.3952447e-06 8.2755435e-07 -2.4117568e-07 2.8288073e-07 -9.68627e-07 -3.1433098e-07 -7.974158e-07
-2.2382244e-07 -2.7002573e-06 1.7658104e-08 1.106228e-09 -1.1295175e-08 -1.9193335e-06 -7.6112775e-07 -1.3750183e-06
-1.5097585e-08 1.5173956e-08 7.10239e-09 1.8812194e-06 2.6582502e-08 -9.1378176e-08 -5.7043934e-07 -7.502536e-07
-0.0004057967 -0.059999004 1.00482875e-08 3.5389309e-07 -0.031788684 -0.25710303 -0.06148362 -0.0018097194
-0.046335887 0.13262138 -0.061123814 -0.40681335 0.22190823 -0.07372384 0.24285862 0.26947513
-0.2676111 -0.4057375 -1.9097714e-08 -1.0057298e-05 1.8062929e-08 -0.5146847 -0.34952378 -0.3213083
-7.639321e-09 -3.149351e-08 -6.7623938e-09 0.21572623 2.3038476e-08 0.049580228 0.36149758 0.08865501
1.0206837e-05 2.1558558e-06 2.6714223e-10 9.816213e-10 2.9715993e-05 -6.8121443e-07 2.566141e-05 2.808345e-10
-2.6637788e-06 3.6591788e-05 2.6530628e-05 3.8910075e-05 1.149013e-05 -2.882064e-05 1.2676727e-05 -1.9857285e-05
4.555905e-06 -5.975337e-06 -7.930924e-09 1.298937e-09 1.1737618e-08 6.466592e-05 2.2300242e-06 -1.6601465e-05
1.4346919e-08 -1.0518868e-08 1.9552406e-09 5.54407e-05 1.6228116e-08 -9.392178e-08 -4.9521263e-06 3.384135e-05
-3.433312e-08 -6.9522713e-07 -4.4868367e-09 4.9420827e-09 -4.3046467e-07 -7.2336134e-06 8.531341e-08 1.9196031e-08
8.4109764e-08 -4.106994e-07 -2.1650982e-07 -5.711725e-07 6.436702e-08 -1.8108384e-06 3.298412e-08 1.3712906e-08
-2.4521637e-06 9.6647994e-08 -1.562494e-08 6.7256267e-09 3.711449e-09 -2.2991527e-07 -1.8832738e-08 1.7495614e-07
9.942176e-10 -9.917113e-09 1.7643888e-08 -5.97398e-07 4.3459214e-09 -6.7524326e-07 1.969785e-08 5.903437e-08
00000000: b3d6 923e 2cfd 62bb 1f2f 7e32 663c aeb4
00000010: b229 8ebe 6e1c b7bd 4f26 8f3e 81fb 47bb
00000020: 1c6b cb3d ad4f a4bd df8d e63d 9e76 a7be
00000030: bdd5 70be c7dc 7cbe ff91 00bf 66b4 e6be
00000040: 2331 023e 4145 163c 3354 3732 8aa7 32b6
00000050: 3f36 e032 d7b2 78bc b24d d9bd 4bd7 b83d
00000060: 5b11 8ab1 5197 52b3 0d04 2f31 98f0 1a3e
00000070: b293 0432 13f2 cdbd 9f3e f4be 3aac 603e
00000080: d5ce 8a3d 6ae1 e6bc 22ce b7b1 26af 76b3
00000090: 67ab 0ebe 506b 43be f8d2 e0bc 7dc6 52bb
000000a0: 7c7e 4bbe 42ec ecbc b8fb 583e 4c97 2cbe
000000b0: aede f73d 61fc 29be 9c8a b23e 7a24 253e
000000c0: 029b fcbd 2883 8f3e ccb1 a632 c72d a636
000000d0: 557f fa32 d199 72be c40d f0be b8e7 45bd
000000e0: 54b7 a9b1 4f3e 62b3 2324 4db1 f2d6 a03d
000000f0: e8c9 b032 de5f eb3d e3a1 7a3e a572 ac3d
00000100: 5378 a7b0 77f0 fbb2 1ac2 ed32 8858 2632
00000110: 7356 de31 13fb a431 c9b5 12b2 15b1 8132
00000120: 2627 ea31 6743 0cb2 4cad f2b2 f074 adb2
00000130: ad51 9831 f985 8332 d4f6 1b32 f932 19b1
00000140: 2e50 a632 bb82 0532 130b 2932 eedb 76b2
00000150: 8d12 5133 17b6 7fb2 aa81 47b0 93f0 5532
00000160: f6f9 86b1 7fb6 e1b1 6958 2631 534c 0eb3
00000170: 99c6 69b1 e564 1fb0 de7a 7532 8413 c4b1
00000180: f17d 013e 4cf0 0e3e 7b04 fbb0 4946 5e30
00000190: c423 cfbd 217f f3bd f2c7 803d fa7a 383b
000001a0: 9554 96be 0343 b93d c62f 26be 296b f4bd
000001b0: f587 583e e484 963e 542f 0e3f 0f62 853e
000001c0: 6e03 8cbe 6215 05bd 7842 6b32 5667 1137
000001d0: 242b 3133 23e5 8d3e 8b9e 8b3c 56a2 babe
000001e0: 3d97 d8b0 72e1 2032 d090 e1ae e09c 29be
000001f0: edbf 0f32 0e61 18bc 48dc 3c3d 0fb1 a3be
00000200: 69ec 4ab5 44a7 8fb5 2cf6 1832 0bd0 0bb0
00000210: e139 4db4 9424 a233 3d4c c034 ef7b 1630
00000220: 8fd0 1b36 3e44 bbb5 1a25 5e35 ef7a 81b4
00000230: d5de 9734 c501 82b5 52c1 a8b4 ff0d 56b5
00000240: d853 70b4 1136 35b6 95ae 9732 f009 9830
00000250: b40c 42b2 e6cd 00b6 4d50 4cb5 458d b8b5
00000260: f1af 81b2 e257 8232 4809 f431 357e fc35
00000270: 8a57 e432 af3b c4b3 4b20 19b5 0965 49b5
00000280: 1cc1 d4b9 84c1 75bd d6a0 2c32 b2fe bd34
00000290: da34 02bd 02a3 83be 40d6 7bbd 1b34 edba
000002a0: b3ca 3dbd e6cd 073e f75c 7abd d749 d0be
000002b0: e93b 633e 86fc 96bd eeaf 783e a5f8 893e
000002c0: 5204 89be d3bc cfbe 510c a4b2 c4bb 28b7
000002d0: cd28 9b32 60c2 03bf c8f4 b2be 8682 a4be
000002e0: 173e 03b2 7b43 07b3 a55a e8b1 56e7 5c3e
000002f0: 25e6 c532 a314 4b3d 3616 b93e c290 b53d
00000300: 083e 2b37 52ad 1036 eddc 922f bbe9 8630
00000310: 9c46 f937 b3dc 36b5 7543 d737 f163 9a2f
00000320: 5fc3 32b6 227a 1938 178e de37 6033 2338
00000330: bcc5 4037 dac3 f1b7 21ae 5437 3293 a6b7
00000340: edde 9836 c17f c8b6 9340 08b2 4886 b230
00000350: 97a6 4932 409d 8738 86a7 1536 6043 8bb7
00000360: 6b7a 7632 79b6 34b2 f55c 0631 0089 6838
00000370: 0166 8b32 0bb2 c9b3 712a a6b6 dff0 0d38
00000380: aa75 13b3 a59f 3ab5 a22a 9ab1 05cf a931
00000390: 9d1a e7b4 44b8 f2b6 8b35 b733 85e4 a432
000003a0: d59f b433 197e dcb4 c479 68b4 ad52 19b5
000003b0: 253a 8a33 ef0b f3b5 6caa 0d33 0096 6b32
000003c0: da8f 24b6 cc8c cf33 9b37 86b2 3d17 e731
000003d0: 800c 7f31 a1de 76b4 a1c5 a1b2 94db 3b34
000003e0: eca4 8830 ed5f 2ab2 528f 9732 e15c 20b5
000003f0: 2153 9531 5d42 35b5 0834 a932 fa8c 7d33

convs.0.lin_pos_r.bias f4 [32]
0.10453363 0.1325719 -0.0004513497 -0.089278996 -8.141267e-06 0.23539464 -0.00018280573 -1.8720493e-06
-0.019835338 -2.7401256e-06 -0.01227985 -5.6920907e-08 0.15416919 0.10550331 -0.04484498 0.06892768
3.3662058e-08 -0.0007368179 -0.033168253 -0.017299699 -0.04666617 0.010885195 0.049606584 0.14329943
0.060822498 -0.0005886107 -0.0029288682 0.011425234 -0.09712311 0.07725957 0.103089735 0.080756605
00000000: ba15 d63d eec0 073e 22a3 ecb9 e8d7 b6bd
00000010: 7a96 08b7 4b0b 713e 8aaf 3fb9 2043 fbb5
00000020: b87d a2bc 00e3 37b6 6d31 49bc 3379 74b3
00000030: 87de 1d3e 1f12 d83d 5faf 37bd f529 8d3d
00000040: d393 1033 0327 41ba 6fdb 07bd 19b8 8dbc
00000050: 0725 3fbd d157 323c 4630 4b3d 16bd 123e
00000060: 0321 793d ff4c 1aba 41f2 3fbb e830 3b3c
00000070: 7be8 c6bd 443a 9e3d b620 d33d b863 a53d

convs.0.lin_neg_l.weight f4 [32, 64]
-2.5223248e-10 -0.29014358 -0.05939436 0.30541027 0.042809874 0.2522065 0.11779353 -0.22783491
4.530432e-05 -0.07330783 -0.19533618 0.24933873 -0.13954747 6.716346e-06 0.23681712 -0.092223175
6.977858e-09 0.05138912 -0.11554929 -0.21174288 1.411232e-08 -5.0619375e-09 0.059239008 -0.12659186
-1.5666728e-08 5.6681504e-09 0.05247655 0.06124378 -0.13870806 -4.5467865e-09 0.10605901 -0.030971905
0.11411193 0.042869687 -5.1271576e-10 -1.7255297e-07 -0.009424954 0.014834309 -0.03247467 0.0013836193
0.27299666 0.08940531 -0.011480819 0.13422337 -0.031935908 0.075562045 -0.18461019 0.02523763
0.22874245 0.022606375 -3.2155139e-09 -1.2882897e-06 1.4624267e-09 0.0013911924 -0.012023067 0.23108236
1.1964575e-08 -1.7395239e-08 2.6944396e-09 0.10797764 9.613553e-09 -0.014654394 -0.044531982 0.08491104
-7.899059e-09 6.676426e-08 -3.9978854e-08 -1.3919114e-07 -1.46288315e-08 4.262881e-08 -5.551403e-08 4.5298196e-09
1.6494388e-09 -6.227351e-08 -9.068866e-08 8.047498e-08 -9.9557e-09 -1.5437523e-08 9.0008584e-08 -2.9734437e-09
-1.7519664e-08 3.5800102e-08 -1.292272e-09 2.9793902e-08 -6.68108e-09 1.0402445e-08 3.8929237e-08 4.4808214e-08
2.0787576e-10 4.221981e-09 9.605689e-09 -4.84618e-08 7.7842564e-08 8.802322e-09 -4.8864543e-08 -5.896436e-12
-2.9550714e-08 -3.2461152e-08 -1.3874896e-08 1.4357684e-08 -7.3236095e-08 2.0779536e-08 1.6113809e-08 1.6062186e-08
9.965382e-09 3.307589e-08 3.6913534e-08 8.528764e-09 1.5120577e-09 4.1378716e-08 4.5786783e-09 -3.0285516e-09
1.1595273e-08 6.4022405e-09 -2.3055566e-09 1.77399e-10 -1.4278283e-08 7.2968267e-09 4.429326e-09 4.0816392e-08
-2.2353257e-09 -9.4365085e-09 -1.7654955e-08 5.4843163e-08 -5.4317324e-09 7.517007e-11 -1.193201e-08 1.8513616e-08
-1.7366645e-08 -0.00853084 0.004723414 -0.0137009965 0.0010844618 -4.852192e-10 -1.7528576e-07 4.8738574e-08
-1.4052981e-09 0.00833157 -7.1623957e-10 -0.0039800946 6.096019e-09 8.855886e-09 0.012274527 -2.503937e-08
2.4561222e-09 6.56806e-09 5.94634e-08 -0.0010011388 -2.0487995e-08 -2.2786615e-08 0.022782657 0.0045544654
2.0510194e-09 7.991858e-09 -0.0002636 0.017961025 0.0006321208 1.695262e-08 7.165708e-05 -1.19033485e-08
2.1272276e-08 0.04957421 1.1265426e-08 -1.6286849e-09 1.1138588e-08 -1.0344618e-08 0.0063271527 2.0989214e-08
-0.008476766 0.0625395 -0.0076554073 -4.3552238e-05 -0.0037381325 0.023493156 0.046457704 -0.012497688
-0.005617244 2.3077115e-08 -1.4196462e-09 -1.4262844e-08 0.0085746 -0.0039315596 -4.789777e-08 0.06659855
-2.2158357e-08 4.4486806e-10 -1.7351708e-09 0.00011974449 1.7592164e-08 -9.071416e-08 -0.012005217 5.0828824e-08
-8.440368e-09 -0.030772194 -0.01952544 0.25338286 -0.11849414 0.10343676 -0.05339304 -0.14469174
3.3762302e-05 -0.224467 -0.24194573 0.1413409 -0.1703132 -1.1805685e-06 0.18915373 0.07472245
-9.444382e-09 0.11788484 -0.085004486 -0.17700125 -3.0132674e-10 -1.5176221e-08 0.05422156 -0.11141668
1.8611647e-08 -1.2268173e-08 -0.18476617 0.12370355 0.05237362 -1.7244304e-08 -0.28754553 0.015144959
-0.07690372 0.076760605 8.828458e-09 2.627833e-07 0.06449587 0.0041579856 0.17700411 -0.00065242976
0.35108456 0.2458216 -0.1501654 -0.103031605 -0.40139806 0.41251364 0.12527801 -0.061736576
0.24330138 -0.00059296243 3.880786e-10 -9.2375234e-07 3.7592737e-05 0.0399396 -0.02766551 0.28982654
-9.947614e-09 2.0240993e-08 9.853634e-09 0.05346968 -8.366639e-09 -0.041027103 -0.13306817 -0.16819365
00000000: 91aa 8aaf b38d 94be 8047 73bd bc5e 9c3e
00000010: 6859 2f3d 3621 813e bc3d f13d 8e4d 69be
00000020: 2505 3e38 6a22 96bd 3506 48be a752 7f3e
00000030: 88e5 0ebe f95c e136 3080 723e 81df bcbd
00000040: e3c1 ef31 667d 523d 1ba5 ecbd 20d3 58be
00000050: a472 7232 46ed adb1 9aa4 723d 4ca1 01be
00000060: 8093 86b2 94c1 c231 a7f1 563d c2da 7a3d
00000070: 7c09 0ebe f539 9cb1 7735 d93d cbb8 fdbc
00000080: 84b3 e93d 2098 2f3d 2aef 0cb0 0047 39b4
00000090: 1f6b 1abc 9a0b 733c 2904 05bd 8f5a b53a
000000a0: 38c6 8b3e 221a b73d 0c1a 3cbc da71 093e
000000b0: 3acf 02bd 46c0 9a3d 740a 3dbe 25bf ce3c
000000c0: 763b 6a3e 0131 b93c ebf7 5cb1 4ce9 acb5
000000d0: 91fe c830 ac58 b63a 66fc 44bc dba0 6c3e
000000e0: c28c 4d32 896c 95b2 1529 3931 6223 dd3d
000000f0: da28 2532 fc18 70bc 2b67 36bd d7e5 ad3d
00000100: 6eb4 07b2 0a60 8f33 37b5 2bb3 9274 15b4
00000110: 4852 7bb2 df16 3733 526e 6eb3 b7a4 9b31
00000120: 78b2 e230 39bb 85b3 9ec0 c2b3 97d1 ac33
00000130: a209 2bb2 799b 84b2 be4a c133 6055 4cb1
00000140: 267e 96b2 a1c2 1933 c79b b1b0 7ced ff32
00000150: 678f e5b1 70b6 3232 2633 2733 2773 4033
00000160: d38f 642f f010 9131 4406 2532 5024 50b3
00000170: 672a a733 0639 1732 22df 51b3 6076 cfac
00000180: b5d6 fdb2 6a6b 0bb3 705e 6eb2 c3a9 7632
00000190: f845 9db3 af7e b232 a46a 8a32 1ff9 8932
000001a0: 3734 2b32 530f 0e33 dc8a 1e33 e785 1232
000001b0: cdd0 cf30 61b8 3133 7b52 9d31 d81e 50b1
000001c0: 8d34 4732 b4fa db31 c86f 1eb1 610d 432f
000001d0: 8d4c 75b2 91b7 fa31 c330 9831 194e 2f33
000001e0: 449c 19b1 341e 22b2 a8a7 97b2 b28c 6b33
000001f0: 06a2 bab1 fd4c a52e 89fd 4cb2 df07 9f32
00000200: a82d 95b2 f0c4 0bbc dec6 9a3b 257a 60bc
00000210: 8024 8e3a 4460 05b0 2f36 3cb4 a154 5133
00000220: 8824 c1b0 2381 083c e1e0 44b0 746b 82bb
00000230: 2675 d131 9924 1832 191b 493c 2816 d7b2
00000240: 8fc8 2831 44ad e131 b364 7f33 a538 83ba
00000250: 94fd afb2 4cbc c3b2 b2a2 ba3c a03d 953b
00000260: eaf1 0c31 904c 0932 cb33 8ab9 0023 933c
00000270: e9b4 253a 359f 9132 9a46 9638 7b7f 4cb2
00000280: 3bba b632 540e 4b3d de89 4132 41d8 dfb0
00000290: 075c 3f32 1cb8 31b2 0154 cf3b c54b b432
000002a0: 22e2 0abc b614 803d 36da fabb dcab 36b8
000002b0: 75fb 74bb b874 c03c 6f4a 3e3d 1ac3 4cbc
000002c0: dc10 b8bb 1d3b c632 5c1d c3b0 a708 75b2
000002d0: 7b7c 0c3c 50d4 80bb 28b8 4db3 d264 883d
000002e0: be56 beb2 9d91 f42f e57a eeb0 551f fb38
000002f0: 941d 9732 a3ce c2b3 88b1 44bc e24e 5a33
00000300: 2201 11b2 f815 fcbc d1f3 9fbc 66bb 813e
00000310: 0ead f2bd a7d6 d33d a9b2 5abd 122a 14be
00000320: ff9b 0d38 adda 65be 9fc0 77be abbb 103e
00000330: 9566 2ebe 0674 9eb5 84b1 413e 1508 993d
00000340: d540 22b2 9b6d f13d d516 aebd d13f 35be
00000350: f8a7 a5af dd5c 82b2 6d17 5e3d 6e2e e4bd
00000360: 72df 9f32 ffc3 52b2 5833 3dbe 4958 fd3d
00000370: b985 563d a020 94b2 2b39 93be 9022 783c
00000380: b37f 9dbd aa34 9d3d f8ab 1732 a914 8d34
00000390: 6916 843d b63f 883b 9140 353e d207 2bba
000003a0: 5bc1 b33e a8b8 7b3e f5c4 19be 3c02 d3bd
000003b0: 0c84 cdbe fd34 d33e e148 003e 7edf 7cbd
000003c0: ff23 793e 0971 1bba 3559 d52f c7f7 77b5
000003d0: e5ac 1d38 b597 233d c8a2 e2bc 2564 943e
000003e0: 12e6 2ab2 6ade ad32 be48 2932 0603 5b3d
000003f0: debc 0fb2 090c 28bd 0643 08be f53a 2cbe
