bitcoin-alpha/models/bitcoin-alpha-train-6.pt (torch, 63739 bytes, 14 tensors)

conv1.lin_pos_l.weight f4 [32, 64]
00000000: 9d9e 283e d34a 9abd 2ec3 2ebe 6c0a bf3d
00000010: 9497 f9bd 58ee 5cbd d86a 303c b953 8f3d
00000020: 176a ef3c 5c15 943d 03a3 c5bb 2257 f13c
00000030: c869 9e3c 6efd 65bd 0edf 703c 0425 c9bd
00000040: f975 c7bd 5d7f 41bc ea29 f03c e294 073d
00000050: 50b2 e9bd 44de e4bd 1de2 10bd 0444 0e3d
00000060: 0c70 1d3e 36c2 81bd 5bdb d43c ac44 0e3e
00000070: f693 48bb 609b a4bb 5b77 27bd f41a 193c
00000080: b9d2 86bd ce93 c1bd 7ea5 f73b 93bc be3d
00000090: ee36 97bb d3be 033d b8a4 1cbd 7472 383d
000000a0: c008 e83b 9e04 afbc b438 4f3d 3b5a 8c3d
000000b0: d4c9 15bc ca9c f23c 6d9b 9e3d 2646 babd
000000c0: 703b 05bd bb1a c63c 5216 ac3c 6cb2 46bd
000000d0: 3db2 2dbd e890 003d 338c 023d 9371 1dbb
000000e0: 2b9a 22bd a471 98bc 3097 cebc f5b3 9bbd
000000f0: f35a 303d ca51 3cbc 09ea a53d 38c0 893d
00000100: 55c8 8ebe 45d5 d8be c660 2c3d e2c6 693d
00000110: bc24 cfbc eeaf 273e 7b4d 763d 063f 1fbd
00000120: 87d6 02bd 3b97 9ebd eec5 5bbc daca 15be
00000130: 8df1 593c 5df4 26be b3a3 86bd 82a6 9e3d
00000140: 28b7 5c3d c55a e139 39de fd3d 2f66 0f3d
00000150: 4cbd 8dbd f7aa 4bb8 d9b6 b03c 62ce 02be
00000160: 8741 53bd b65c e93d 17a3 afbd cdad 873d
00000170: 6aee be3d 250d 673c 632b bebc 9bcc 53bd
00000180: 0c4d 5b3d a919 2e3b bec7 c7ba aa36 a83d
00000190: cb74 ec3d 0532 d63d 57ec 0abb c68c 633e
000001a0: 093e ea3d 4be9 3abc ff56 65bd c47a 64bd
000001b0: 703d f43d 1aac b3bd f7fb bebd 01a2 853c
000001c0: 280b ac3d 0b8a 8abd efa4 5fbd 7f48 dfbd
000001d0: 3333 253d 9499 26be 7b97 6b3d 232b 6d3e
000001e0: 847d 53bd 4657 543d 8515 f4bc 7a24 013d
000001f0: f5ee 053d 0500 593d 7e63 693d 2dfd 29be
00000200: aa6e 2733 ecd4 6132 b3f3 4bb2 b24f 1732
00000210: e7c5 45b2 7c6d 77b2 34e9 07b3 2fae 3732
00000220: a000 9832 9522 f931 c308 1132 862c c5af
00000230: d69f 6eb2 12b0 2fb1 8c48 5fb1 7ed9 7b32
00000240: 262a cd32 dd86 f0b1 57f7 d1b1 703b ddb1
00000250: e925 22b2 f54e 5732 7960 9130 7d7c f0b0
00000260: d6c5 6632 6388 8530 e11c 0532 bf60 d031
00000270: dad8 d6b0 5b81 6d30 53eb c131 d60d 5332
00000280: 6321 2cb0 a71a bab1 ca28 7e31 95d8 0bb2
00000290: 0750 5eb2 8e05 0032 e27b 9231 d4e5 2032
000002a0: 8a84 5732 cbaa 36b2 8c57 90b2 9b3e 2c32
000002b0: 5cda d0b0 ec30 05b2 fc3e d731 0193 1032
000002c0: b3d6 3ab2 d3df 8632 4ebf 0231 099a 7eb2
000002d0: 5931 5db2 8500 5832 1cd9 6eb2 a4f5 b5b1
000002e0: 20f1 0032 f75f 3b32 02ba 7db2 7fb6 bc31
000002f0: 6698 36b1 2243 a131 e88e 7231 5058 bdae
00000300: a186 8e35 9618 1335 b5e8 36b5 8ab8 d535
00000310: 76d0 cab4 fe8b ab34 1616 a834 5dda 6734
00000320: ca12 7b34 754e c1b4 a97f 0931 35c0 0635
00000330: 11e6 f8b4 649d 5c34 972b 9c35 f410 a034
00000340: 55ce 0e35 4150 2e35 d3f0 7eb5 856b 9bb4
00000350: a0a8 1cb5 45b3 ba33 cec3 aab4 2353 9033
00000360: 4995 a833 d052 28b5 aa2c 2735 2af0 1834
00000370: cff9 8ab5 575c 2d35 bd1b 5db4 8729 7334
00000380: 9354 e834 0c52 adb4 3f1f f534 c967 c4b3
00000390: 026a f7b3 194b 5cb5 44d3 84b3 f031 87b5
000003a0: ecdf 8fb4 c035 2fb5 9389 f334 1619 f433
000003b0: e299 6034 9cd8 76b5 b418 ca34 a8a5 38b5
000003c0: 7da8 8c34 ffc8 8e35 2be4 9bb5 0001 f2b4
000003d0: 0742 14b5 ff83 5834 d69e b0b4 508c 98b2
000003e0: f0f1 2535 0c78 24b3 c043 61b4 8a2e 3035
000003f0: 1b0e 3435 f773 d134 d7e7 d232 6402 aeb3
0.16466756 -0.07533803 -0.17066643 0.0932816 -0.12187114 -0.05393824 0.010767661 0.06998391
0.029225392 0.072306365 -0.0060313954 0.029460493 0.01933755 -0.056149893 0.014701618 -0.09821513
-0.097392984 -0.011810151 0.029316861 0.03310097 -0.114109635 -0.11175206 -0.03537189 0.034732834
0.15374774 -0.06335871 0.025983503 0.13893384 -0.003060577 -0.005023405 -0.04088531 0.009344805
-0.06583161 -0.0945202 0.00755757 0.093133114 -0.0046147024 0.032164406 -0.038243026 0.045031026
0.007081121 -0.021364506 0.050591186 0.068531476 -0.009142358 0.029615778 0.07744489 -0.09095411
-0.032527387 0.024182668 0.021006737 -0.04851 -0.04240631 0.031388193 0.031871986 -0.0024023994
-0.039697807 -0.018608876 -0.025218576 -0.076026835 0.043055486 -0.011494109 0.08101279 0.06726116
-0.27887216 -0.42350212 0.042084478 0.057074435 -0.025286071 0.16375706 0.060132485 -0.038878463
-0.03194287 -0.07743689 -0.013413889 -0.14628163 0.013302219 -0.16304155 -0.06574192 0.077466026
0.05388561 0.00042982973 0.12395901 0.03500956 -0.06920871 -4.8558195e-05 0.021571564 -0.12774041
-0.051576164 0.11394636 -0.08576029 0.06624947 0.093228176 0.014102255 -0.023214048 -0.0517088
0.053540275 0.0026565588 -0.0015242023 0.08213551 0.11545714 0.10458759 -0.0021197998 0.2222167
0.114376135 -0.01140816 -0.05599117 -0.05578114 0.11925781 -0.0877306 -0.09325402 0.016312601
0.084005654 -0.06764611 -0.054600652 -0.109024994 0.04033203 -0.16269523 0.05751751 0.23160987
-0.051633373 0.051841043 -0.029795418 0.031528927 0.03269859 0.052978534 0.05697965 -0.16600485
3.8983366e-08 1.31451365e-08 -1.1871566e-08 8.807477e-09 -1.1511907e-08 -1.4402186e-08 -3.1644234e-08 1.0691607e-08
1.7695413e-08 7.2507853e-09 8.442103e-09 -3.5865727e-10 -1.3889766e-08 -2.5565936e-09 -3.249201e-09 1.4659575e-08
2.3884308e-08 -7.0002515e-09 -6.11082e-09 -6.438704e-09 -9.438261e-09 1.25326e-08 1.0577558e-09 -1.749768e-09
1.3432745e-08 9.715787e-10 7.748185e-09 6.0645955e-09 -1.5632182e-09 8.6403923e-10 5.6437925e-09 1.2284962e-08
-6.262068e-10 -5.4163425e-09 3.698505e-09 -8.14011e-09 -1.2940297e-08 7.451844e-09 4.263243e-09 9.365483e-09
1.2544783e-08 -1.0632628e-08 -1.6803618e-08 1.00259525e-08 -1.5196053e-09 -7.7527424e-09 6.264484e-09 8.415328e-09
-1.0875442e-08 1.5701437e-08 1.9026234e-09 -1.4819769e-08 -1.2875113e-08 1.2572973e-08 -1.3902788e-08 -5.2957194e-09
7.505406e-09 1.09066525e-08 -1.47688315e-08 5.4922675e-09 -2.6571114e-09 4.693349e-09 3.5296868e-09 -8.6104124e-11
1.0619007e-06 5.4797545e-07 -6.8138917e-07 1.5923445e-06 -3.7777107e-07 3.195309e-07 3.1308508e-07 2.1592992e-07
2.3383032e-07 -3.6006136e-07 2.000869e-09 5.019859e-07 -4.6360995e-07 2.0546355e-07 1.1635592e-06 2.9814657e-07
5.3199375e-07 6.4936836e-07 -9.497282e-07 -2.894923e-07 -5.835991e-07 8.693909e-08 -3.1807434e-07 6.720645e-08
7.8502644e-08 -6.2705385e-07 6.227734e-07 1.4243474e-07 -1.0354505e-06 6.4581894e-07 -2.059232e-07 2.2646246e-07
4.3274903e-07 -3.2283458e-07 4.565754e-07 -9.1458396e-08 -1.15211165e-07 -8.206567e-07 -6.185158e-08 -1.0072818e-06
-2.679875e-07 -6.5270797e-07 4.5362376e-07 1.13666985e-07 2.0917608e-07 -9.195735e-07 3.7643406e-07 -6.8786403e-07
2.6199623e-07 1.0638322e-06 -1.1614806e-06 -4.507674e-07 -5.523038e-07 2.0164588e-07 -3.2898123e-07 -1.7758936e-08
6.1819355e-07 -3.8293408e-08 -2.0979405e-07 6.563283e-07 6.707575e-07 3.901366e-07 2.4552646e-08 -8.102941e-08

conv1.lin_pos_r.weight f4 [32, 64]
00000000: 86cb 00bd 9fda 8e3a 826d f53b 9b8c 9fbc
00000010: 84bb 233d 5f58 d03c 9c70 f43c 6f03 4cbb
00000020: 119c 053d 3f14 26bc f958 3cbd e3fc 89bc
00000030: 0188 ad3c bc76 bfbb 9619 1e3c 8cb4 0ebd
00000040: d8ca d03a 7ece 82bc e2f9 4c3d 42b8 38bc
00000050: 6ec5 e73b ad9c d13b 305c f1ba 8d57 bc3c
00000060: cf4d 44bd 2595 c7bc 96c0 13bd 8ea6 73bd
00000070: 0767 4a3c 3b7f bd3b 25c2 8d3b 3cbc 3ebc
00000080: 9364 21bd aa8c 573c 2bef a23d 46cd f2bc
00000090: 831c 24bd fb66 1e3c a905 ffba 257e fdbc
000000a0: adaa e93c c635 a5bc 5e66 163d 5f21 61bd
000000b0: 7470 bf3c a410 d5bb c291 5d3b 9a11 053d
000000c0: 1fa7 443d d495 a93b 1ede 893b 652a 46bd
000000d0: ceba 283d 648f 0dbd 42dd 34bb 98fb 40bd
000000e0: c2ed e2bc 7e31 123d 775b 433c 17f8 3f3d
000000f0: b756 5cbb 1f65 423d 5e5c 99bd 2a61 d53c
00000100: e142 913d 3b66 6bbe a47e ad3d 976f 8abc
00000110: 0529 52be d1d6 393d bd5c 723d ce26 073c
00000120: 40ee 96bb 9250 bbbc cc01 2a3d 6595 223e
00000130: aecc 60bd bef7 02be e5bd a83d bf70 15be
00000140: a844 fdbc 7fcc 8ebd 5c46 3abe 32a7 e3bd
00000150: 6675 78bd bda5 49be 7774 4cbd 5b18 b23c
00000160: a22f 05bd dd1b 3b3d 8869 bbbd 82da c13d
00000170: c99a 453d ff6f a3bc 4ff4 b8bd 66b5 c6bc
00000180: c35f 323d 349d 9cbd c1b6 adbd 3148 833e
00000190: 909c f43c 6fc6 0b3e 9c69 cdbc f768 313e
000001a0: 5b7e 243d f5d6 20bd f306 853c 5727 1a3c
000001b0: 929d e93d 43b5 bfbd 106e 08bc 3842 1b3c
000001c0: ef33 2b3c 68ce 25bb 3e28 1bbd 261e 07bd
000001d0: 4471 d8bc 43a7 29bc f244 e23d 5121 f63d
000001e0: d6d0 863c f67c 093d 2f12 faba 6bf6 07bd
000001f0: c427 9bbd 9f24 77bd 7546 df3c 757d f1bd
00000200: bfd8 71b3 9b88 18b1 754a 89b2 a349 32b1
00000210: 97cf d532 ffc1 b7af 6042 4931 3670 69b2
00000220: a9f4 2034 d60c f332 3892 b5b1 5407 8d31
00000230: 3282 b331 e43c 9233 1807 93b2 e7e6 b932
00000240: 0dbb eab1 e758 9132 3876 05b1 f8c7 9732
00000250: d839 e732 d906 9cb2 10a0 98b2 de09 d5b1
00000260: 2492 5632 a314 90b1 d351 982e c206 5232
00000270: c2ec 77b2 5ec7 0032 63e3 b332 bc1e d831
00000280: 0416 4733 b0b2 8ab1 8645 1530 e6ae d4b1
00000290: ce40 4533 f738 15b1 2dec e1b2 af8b 4631
000002a0: 8926 5cb2 552b 1f32 eef5 a5b1 349f d731
000002b0: 5f68 96b1 0823 13b2 703a 0732 6bff b132
000002c0: d4c6 f231 ad3e 2633 8f62 3db2 dea9 e331
000002d0: 835c 7db2 15c9 10b2 361c fb31 d74e 96b1
000002e0: 8bda 9ab1 1380 a8b2 3306 30b1 4c5b 2b32
000002f0: b997 75b0 7555 8532 a768 f831 665e b331
00000300: c9ef 06b5 24f7 91b5 c1f4 e9b2 e14e 6035
00000310: adbe f033 a6c6 9134 be92 3b33 c1a9 b234
00000320: 60b8 4f34 80dc 3db5 a502 6f34 1039 fdb3
00000330: 9042 29b5 1294 08b4 cfc3 a6b5 d254 dfb5
00000340: e705 aeb4 4681 c534 a6c0 4eb5 5de2 1db6
00000350: 6c8f 7bb5 85e8 cd34 5f94 8833 0aff 2e35
00000360: 6824 9635 6341 3a35 8469 1e35 8a2a c7b5
00000370: 3f59 41b6 61ac e0b5 a9c0 f6b5 ee4e cdb4
00000380: 5cb4 3234 7ccc 9db4 79db 82b5 a0a2 80b5
00000390: 591c 79b5 85ed ed34 b5c4 b0b3 7fa1 c2b4
000003a0: 86d5 3232 0444 02b6 e3f9 3936 2c38 f533
000003b0: b341 1a35 7685 0ab6 6f70 bbb4 6ee6 e935
000003c0: 684c 1fb5 3614 2ab5 3edf 94b4 57dc 83b6
000003d0: e91d 1236 7db1 77b4 353c 68b4 84a9 fc34
000003e0: 90ff 5034 8ede 7235 0f3f f4b4 cccc 92b4
000003f0: 30ba 7233 41e9 20b4 95dc 7fb5 7da3 06b5
-0.031444095 0.0010898894 0.007489861 -0.019476226 0.03997375 0.025432764 0.029838853 -0.0031129976
0.03261954 -0.010136663 -0.04598329 -0.016844219 0.021183016 -0.0058430117 0.009649655 -0.03484015
0.0015929593 -0.015967604 0.050042994 -0.011274399 0.007073096 0.006396851 -0.0018414315 0.022990966
-0.047925767 -0.02436311 -0.036072336 -0.05948501 0.012353665 0.0057829893 0.0043261223 -0.011641558
-0.039402556 0.0131560955 0.07955774 -0.029638898 -0.040066253 0.009668107 -0.0019456643 -0.03094394
0.028523767 -0.020167243 0.03671872 -0.054963466 0.023369052 -0.006502228 0.0033808802 0.03248749
0.04801094 0.0051753316 0.0042073866 -0.048380274 0.041193776 -0.034560576 -0.00275977 -0.04711494
-0.027701262 0.03569173 0.011923662 0.046867456 -0.0033621022 0.047459718 -0.07488321 0.026047308
0.07092834 -0.22988217 0.084714204 -0.016898913 -0.2052346 0.04537088 0.059170473 0.008248998
-0.0046060383 -0.022865567 0.04150562 0.15877302 -0.054882698 -0.12789819 0.082393445 -0.1459379
-0.030916527 -0.06972598 -0.18190902 -0.11115874 -0.060658835 -0.1969213 -0.049915757 0.02174013
-0.03251613 0.04568087 -0.09150988 0.09465505 0.048243318 -0.019950865 -0.09030973 -0.02425642
0.043548357 -0.076471716 -0.08482123 0.25641015 0.029859811 0.13649915 -0.025074773 0.17325197
0.040159564 -0.0392675 0.016238665 0.009408793 0.11407007 -0.09360745 -0.008327022 0.009476237
0.010449394 -0.002530003 -0.037880175 -0.032987736 -0.026421197 -0.01035482 0.110483065 0.12018073
0.016457003 0.033566438 -0.0019078905 -0.033193987 -0.07575944 -0.06033766 0.027255276 -0.11791507
-5.6309315e-08 -2.2196562e-09 -1.5982758e-08 -2.5944267e-09 2.4890864e-08 -3.3425349e-10 2.928708e-09 -1.3587899e-08
1.4990168e-07 2.829476e-08 -5.2844165e-09 4.104473e-09 5.224387e-09 6.809731e-08 -1.7116278e-08 2.1641837e-08
-6.8315615e-09 1.692065e-08 -1.9421247e-09 1.7669649e-08 2.6918244e-08 -1.8163904e-08 -1.7767917e-08 -6.2002377e-09
1.2489668e-08 -4.1932977e-09 6.9266946e-11 1.2225145e-08 -1.4431125e-08 7.4959114e-09 2.0941746e-08 6.2899215e-09
4.635332e-08 -4.036643e-09 5.4304683e-10 -6.1898957e-09 4.5926576e-08 -2.1714734e-09 -2.6300848e-08 2.8892193e-09
-1.2814447e-08 9.264871e-09 -4.830091e-09 6.275423e-09 -4.37744e-09 -8.564491e-09 7.871321e-09 2.0721663e-08
7.065731e-09 3.870689e-08 -1.10236575e-08 6.625881e-09 -1.4747573e-08 -8.427624e-09 7.3082687e-09 -4.3745376e-09
-4.5068353e-09 -1.9616015e-08 -2.5614895e-09 9.9742685e-09 -8.934609e-10 1.55221e-08 7.2296475e-09 5.2203175e-09
-5.0267823e-07 -1.0875269e-06 -2.7236071e-08 8.3561287e-07 1.12105546e-07 2.715289e-07 4.367279e-08 3.3278596e-07
1.9345453e-07 -7.0728856e-07 2.2259572e-07 -1.179161e-07 -6.305427e-07 -1.2719855e-07 -1.2424952e-06 -1.6639481e-06
-3.241432e-07 3.6788168e-07 -7.702132e-07 -2.3526584e-06 -9.371349e-07 3.8353406e-07 6.359982e-08 6.519118e-07
1.1186467e-06 6.938555e-07 5.901313e-07 -1.4839036e-06 -2.881119e-06 -1.6739469e-06 -1.83845e-06 -3.8241654e-07
1.6643156e-07 -2.939231e-07 -9.74963e-07 -9.584073e-07 -9.280098e-07 4.4317508e-07 -8.2314195e-08 -3.625282e-07
1.0409513e-08 -1.94111e-06 2.7712601e-06 1.1418919e-07 5.7465076e-07 -2.0641287e-06 -3.491327e-07 1.7426917e-06
-5.93433e-07 -6.3359346e-07 -2.7729578e-07 -3.929755e-06 2.1773105e-06 -2.3068237e-07 -2.1628587e-07 4.7061997e-07
1.9464483e-07 9.0475885e-07 -4.5494423e-07 -2.7343629e-07 5.6514352e-08 -1.4986018e-07 -9.531589e-07 -5.0156797e-07

conv1.lin_pos_r.bias f4 [32]
00000000: 0a10 a8bc 8af5 393e 4263 1dbd 105f a7bc
00000010: e8cb 533d fc79 133e 721e d43d b82a 23ba
00000020: 82d2 883d 79e4 463d e1ce 423d 76be f63c
00000030: e7df 2abc 6e13 773d 6f29 8b3d 4936 a63c
00000040: d0a9 323d d409 a3bc 4690 22b7 801f ac3a
00000050: 7328 133c f943 673d 6ae5 063d 0b08 2b3e
00000060: 3fe6 523c 4a35 1cbb 7f34 9ebb 5a97 363c
00000070: 63d6 ab3a e9e2 2c3d 46fe 1d3d 9fdb 363d
-0.02051546 0.18160072 -0.038424738 -0.020431072 0.051708132 0.14402002 0.103573695 -0.0006224322
0.06680776 0.048557732 0.047560576 0.030120116 -0.010429359 0.060321264 0.06795012 0.020289557
0.043618977 -0.019902147 -9.689544e-06 0.0013131946 0.008981812 0.05646131 0.03293363 0.16702287
0.012872278 -0.0023835474 -0.0048280354 0.011144483 0.0013110157 0.042208586 0.038572572 0.04464304

conv1.lin_neg_l.weight f4 [32, 64]
00000000: de4f 40bb 8b75 04bb 9055 4e3b bf50 bc3b
00000010: deb0 663b f560 33bb 8f45 adbc 6a53 3bba
00000020: bf8f a53c 8302 c0ba e2f4 473b 88f7 9a3a
00000030: 6c0b 3b3b 8ee6 d43b 8b03 20ba 584e 3c38
00000040: f59e 10bb c62b 67bb 0f1a 76bb 9238 1b3c
00000050: 3a2e 7f3b f62a 3dbb 129a f63a f27a b8bb
00000060: c906 ae3b 91fb 5339 3b09 8fba 7bda b83b
00000070: 9268 183c 1cbc eabc 7a5a 14bb 909f 79bb
00000080: c451 e0bc a265 973a 2a51 9aba 804c 9e3a
00000090: 1bb7 013b 9ee6 d23a e642 c93c 34d1 f83a
000000a0: 9701 1cbc c172 4abb 8ba0 703b 1545 76bb
000000b0: ce61 a0bb 9f7d 8e3b 56a6 c6ba d659 f0b9
000000c0: 4522 cebb 4e8e ac3b 800e 7cbb 95d0 8dbb
000000d0: 6b57 233b 6a84 94ba 6560 f03b 084c 4d3b
000000e0: 370f a6bb bb5f e23a 85c4 61bb 79b2 1a3b
000000f0: a9df aa3a 5cb4 18bc 20ab c3bb c017 063b
00000100: c3e5 63bc 5889 b3bb d5aa a7bc e37d 44bd
00000110: ba57 7d3e de76 d339 c911 1cbd 39e0 5abe
00000120: f837 dcbd 220a 95bd f4c8 263e b545 dc3c
00000130: a0ce 003e 81f8 88bd f08a 833d f675 89bc
00000140: 1c49 b3bc a0bc a3bb b676 263d 4cf7 4abe
00000150: c97e 67bd 5251 c0bd 39ad 60bd f5c6 543e
00000160: c922 9dbd 75ac 20bd c56d 803d b8a3 913d
00000170: e5d6 773e 6199 10be dfc3 80bd 6d03 61bd
00000180: 6713 0bbd 2ac1 823d 0789 243e e03b 8dba
00000190: 2b9f cbbd cead 95bd be6e acbd cfea b73d
000001a0: ad08 ecbd d42a f4bc b535 013e f062 5cbe
000001b0: a278 d63b 34bf 4fbd 4b25 b23d ec16 1f3e
000001c0: c05e 6cbd baf3 683e 1966 acbe 72ce 9dbd
000001d0: 341b 483c 2d7e 74be b975 6a3d 7b34 a0bd
000001e0: 9061 1c3e 6498 7cbd a563 b93c 7d02 64bd
000001f0: 332f 133d a990 29be f7dc 8f3a b291 b5bd
00000200: 4ad7 c3be 4bda 8d3b 3768 6b3d 42fc a53d
00000210: 8ddc 81be a856 703e 0fa6 0c3e daaf 523e
00000220: aa8d 66be 5ad3 d23d a9b1 b83b 087c ea3c
00000230: b7fe 9d3b 27dc 24be fb02 27bd da63 c8bd
00000240: 747a a03b af20 0c3e e32a cd3d ae0d f5bd
00000250: 0dbc 76bc 83d9 45bd 3a3d 8cbb 48ff da3a
00000260: 568a 183d 581a 4dbe 9ab2 29be 6df5 073d
00000270: 5bc6 4fbc 5702 1d3d 1db3 253d c870 333d
00000280: 555a dc3d c695 37be deee 19bd 6f12 31bd
00000290: 36a8 2dbd f0ee 2ebd 4e5e 2dbd 7651 01bd
000002a0: b547 cd3d 0e4c bdbc d110 663c 5d40 89bb
000002b0: 16fd 23bd 6f13 d23d 43c0 dcbc 445a 41bd
000002c0: 0d82 a5bd f3e0 a63c f77f 453e 91ee 6a3d
000002d0: 6b9e 7dbd 4f7b 473d 9b2b 653d f882 233c
000002e0: 5cb4 a53a 5cab fbbd d85e 9e3c 2a98 703c
000002f0: 5ddc 4fbe 2a29 c3bc e75b 3a3d e200 043e
00000300: bbba e13c 0548 f9bc 8c56 e33c c4bf e3bd
00000310: 0f8f 3abd 0092 04bc a31c ce3d 0e2f 043e
00000320: ce0f 94be 7f70 24bd 9f6c f83c 5c83 27be
00000330: 79d1 5d3e dd0f 53be 8ff4 273e 035b 843d
00000340: 0979 9fbd ad4a 9fbd d9af 973e 7cd0 44bd
00000350: ac60 38be b4af 88bd 8dd3 eb3d ea26 033e
00000360: cfe6 d1bd 8171 c9bd 9385 ea3d e7b0 233c
00000370: c7dc 2a3e 8949 14be 410c c33d 966e 943d
00000380: d4ad 2bbd 5398 8c3d 84fd bd3d 1323 b7bd
00000390: a813 9bbd 6f30 05be 125c f4bb 7bfa 2a3e
000003a0: 6828 91bc 3da1 33bc 14b8 383d a012 1a3d
000003b0: 8c68 c33d cf3d b4ba 50fe 92be 97a7 c13c
000003c0: d396 24bd 163b b93d 4b99 22be a8ff 9b3c
000003d0: 05d5 55bd 0aad 07be 2eaf 1c3e 0990 853c
000003e0: e8d7 a63c dad1 11be 9d66 00bd 4607 04bd
000003f0: 03fd 55bc 7f83 4cbe 144e 2abe 6c10 d3bd
-0.002934448 -0.0020211663 0.0031484105 0.0057469304 0.0035200636 -0.0027371023 -0.021151332 -0.00071459136
0.020210145 -0.0014649186 0.0030510952 0.0011823038 0.0028540744 0.006497211 -0.00061040436 4.4895656e-05
-0.0022067402 -0.0035273894 -0.0037552153 0.009473937 0.0038937465 -0.0028864718 0.0018814227 -0.0056298906
0.0053108674 0.00020216244 -0.0010912785 0.0056412793 0.009302275 -0.02865415 -0.0022636936 -0.0038089491
-0.027382739 0.0011550675 -0.0011773456 0.0012077242 0.0019792977 0.0016090458 0.024568032 0.0018983246
-0.009521863 -0.0030891153 0.0036716785 -0.0037577797 -0.0048944717 0.0043484713 -0.0015155773 -0.000458433
-0.0062907063 0.0052659875 -0.003846079 -0.0043278434 0.0024923931 -0.0011330966 0.00733571 0.0031325836
-0.0050677317 0.0017270962 -0.003444941 0.0023604913 0.0013036627 -0.009320345 -0.0059713274 0.0020460933
-0.01390976 -0.005479019 -0.020467201 -0.047971617 0.24740496 0.0004033362 -0.0381029 -0.21374597
-0.10752863 -0.07277323 0.16287595 0.026888708 0.12578821 -0.06688023 0.064229846 -0.016779881
-0.021885447 -0.004996851 0.040640555 -0.19820899 -0.056517396 -0.093905106 -0.054852698 0.20779021
-0.0767265 -0.039226968 0.06270937 0.07111305 0.2420307 -0.1412101 -0.062873594 -0.054934908
-0.03395405 0.06384499 0.16067897 -0.001077529 -0.09942468 -0.07308541 -0.0841956 0.08980333
-0.11525092 -0.029805578 0.12618144 -0.21522117 0.0065451423 -0.050719455 0.08698519 0.15536088
-0.05770755 0.22749224 -0.33671644 -0.07705392 0.012213517 -0.23876257 0.057241175 -0.0782251
0.15271592 -0.06166877 0.022630522 -0.055666436 0.035933685 -0.1655909 0.0010975887 -0.0886568
-0.3825019 0.004329001 0.057472434 0.08104755 -0.2536358 0.23470557 0.13735221 0.20574895
-0.22514978 0.10294218 0.005636413 0.028623596 0.004821624 -0.16099606 -0.040774327 -0.0978467
0.00489741 0.13684343 0.100179456 -0.119655 -0.015059483 -0.04830314 -0.0042797597 0.001670816
0.037241302 -0.2002958 -0.16572037 0.03319304 -0.012681569 0.03833231 0.04045402 0.04380873
0.10759417 -0.17928228 -0.037581317 -0.04323047 -0.042396747 -0.042708337 -0.042326264 -0.031571828
0.10023443 -0.023107555 0.014042095 -0.004188581 -0.040036283 0.10257613 -0.026947146 -0.047205225
-0.08081446 0.020370936 0.19287096 0.05735642 -0.061918657 0.04870158 0.05594979 0.009979956
0.0012642252 -0.122885436 0.019332334 0.014684716 -0.20298906 -0.02382334 0.0454978 0.12890962
0.02755486 -0.03042985 0.02775123 -0.11120561 -0.045546588 -0.00809145 0.10064056 0.12908575
-0.28918308 -0.040146347 0.030325232 -0.16358703 0.21661939 -0.2061152 0.16401885 0.064626716
-0.077867575 -0.07777915 0.2962635 -0.04805039 -0.18005627 -0.06674138 0.115149595 0.12807813
-0.10249101 -0.09836102 0.114512585 0.009990907 0.16685782 -0.14481176 0.095238216 0.07247655
-0.041913822 0.06864991 0.0927687 -0.08942237 -0.075721085 -0.13006757 -0.0074572647 0.16697113
-0.017719463 -0.010963735 0.045097426 0.03761542 0.09541425 -0.001375133 -0.2870965 0.023639483
-0.0401829 0.09044473 -0.15878789 0.019042805 -0.052205104 -0.13249603 0.15301201 0.016304033
0.020366624 -0.14240208 -0.03134786 -0.0322335 -0.013060811 -0.19972037 -0.16631347 -0.103058666

conv1.lin_neg_r.weight f4 [32, 64]
00000000: 00ec aa3c 5062 45bc f400 a13b 62bd c13b
00000010: 86fa f1bb 5a82 ffbb 709f 113c d70b fcbb
00000020: af48 d9bc 2b99 80bd f680 233c 9a4b 993b
00000030: d83f 133c c633 9a3d 9516 10bd 7a02 21bc
00000040: 1897 3bbd a907 18bd dd59 bb3c 4d61 c4bc
00000050: 3578 4dbc 9620 413c 3c04 a2bc e711 1cbc
00000060: 5583 7e3c fa87 d0bc 75ba 9bbb c1ef 4ebc
00000070: bb20 7fbc 4891 c43c a533 05bc 84bc 033c
00000080: 2a0b 303a 8565 8cbb ebfe 143c abce e63c
00000090: 2e04 41bc 764a a1bc e544 c2bb d360 893b
000000a0: 311e 3fbc c003 6f3b 9f4d 413b ff15 2d3c
000000b0: d250 913c 2f56 60bc d5b2 023c 6f94 3a3c
000000c0: c60b 01b9 fa8e 0e3c 8840 a1bb 7a1b 8dbb
000000d0: 142c 8cba 3bfb 4a37 8fc1 1d3c 71a3 07bb
000000e0: 4bff 54ba 9e92 443c d444 b53a d53b 38bb
000000f0: e89a c33b 6cc6 24bb 3caa 1cbc 9fcd 0e39
00000100: 7f7a 1a3d b97b 46bc b2c8 053e 0585 8c3b
00000110: 8071 ebbe 0cf3 963d 72ac b6bd 390a b4bd
00000120: 2b6c 93bb d7f8 813d 0fb3 c33b 937d 2f3e
00000130: 1468 33bd 87a2 07ba a222 1f3e 788a d23c
00000140: b777 6f3e 0fc4 13bd 2932 10be f585 85bd
00000150: 9f9b 96bd d30e ed3c 5f72 933d 50da 3bbd
00000160: 16c5 3a3e fcb5 f1bd ac2d cb3c 6a15 38bd
00000170: 447c c2bd 8e14 2d3d a752 8e3d 31f0 9cb9
00000180: e2a1 903d 9d03 7dbe 7620 593d 8d45 67bb
00000190: d8e4 d8bd a3a8 133e b9f2 973c f061 47bd
000001a0: 0b52 093e 0a89 923e e16c 0dbe 0e63 1f3c
000001b0: 8608 81be b7a2 f3bc 77f8 aebd 0eaf 0b3d
000001c0: f4dc 4bbc bebc 803d bd70 a83e c22d 193e
000001d0: 56b3 1d3e 45c3 223e 516a 053c f8b6 ce3c
000001e0: 563c 5abe e69f 16be 6aaa 94bb 2126 c93d
000001f0: 3f10 b73d 6512 183e a027 373d c560 8dbd
00000200: 5289 5ebd bace 023e 80df ccbd 9bb2 24be
00000210: 597f 013f 20e9 f43d 248f 03be 1c2f cf3d
00000220: 2feb b93e 53e7 b9bd d25b 76bd 9531 4abe
00000230: e8cd fa3c 6e32 4b3e d42f 6ebd 9b46 36bd
00000240: 67d9 c23d 6d97 233e ab47 a3bd 8499 38bb
00000250: 6993 853c f9f9 ca3a a7fa adbc 16b2 803c
00000260: 6a7a 0f3d ed20 833d c23a a13d 79f8 863c
00000270: cc3f bd3d f8b3 79bd 8021 c5bd a65a 123d
00000280: 534e 993c b540 143e 9155 4cba ab8f 0a3c
00000290: 780d 603d b1d0 093e 0ff2 a33c d3f7 0cbd
000002a0: d40a 963d 1ba9 343d a637 263e 03eb 383d
000002b0: 1bf4 373d 3b90 aabb fbff 3ebc ddcb ed3d
000002c0: 5566 123e fa55 a3bc 7c56 21be 02b5 c63c
000002d0: 3c08 3bbd a0c4 37be 42bc 3abd ebbf 843d
000002e0: 5271 b73b 8518 c03d dfde 033e b60a ae3c
000002f0: fe14 79bd d5b1 12bd c2f7 e1bc 7a2f 17bc
00000300: d8b9 4ebf cb36 743e 5f9b 64bc 5447 cd3d
00000310: 22ed 60be 609a b1bd e959 3abe a2aa 1b3c
00000320: a9d8 263e fb76 57be 7145 66bd 24c6 3b3e
00000330: 3dd5 d1bd 53fa 60bd fc47 83bd ec89 e2bc
00000340: 9180 393d 5e44 243d fa22 d3bd 6e96 173e
00000350: 143e 7d3e bdfd ebb9 bb31 1cbe 628c 36bd
00000360: 05c9 6b3e 3b61 1ebd a7e0 0f3e fd93 ef3d
00000370: f399 02be 9868 733d b2fc bbbd f4af 2abc
00000380: 4bdc b43d d12c 3bbe 3995 f8bd 25a3 483d
00000390: b29d 4bbd 936c 053d 2640 04be b5ab 2bbe
000003a0: f9c9 30bd 0df7 403e 58fd 1bbd 2fcf a0bd
000003b0: 5956 72be 0baa c5bc 801d 1a3e 0ff3 12bc
000003c0: 80f9 52bd 3882 74bc db8f 7c3d ffa7 5cbc
000003d0: c8e9 ea3d 0e09 153e 7990 153d 1bdf ed3d
000003e0: 82fe fc3a c470 773e 63a0 0d3d a6c6 5a3d
000003f0: 1114 883d b896 bf3d 88d5 0f3e 71db 793e
0.020864487 -0.012047365 0.0049134437 0.005912469 -0.007384601 -0.0077975215 0.0088881105 -0.007691841
-0.026523916 -0.062792145 0.009979477 0.004678202 0.0089873895 0.07529406 -0.035177786 -0.009827251
-0.04579839 -0.03711668 0.022869999 -0.023972178 -0.012540867 0.011787554 -0.01977741 -0.009525753
0.015534242 -0.025455464 -0.004752452 -0.012630404 -0.015571768 0.023995057 -0.008129989 0.008040551
0.0006715531 -0.004284563 0.00909398 0.028174719 -0.011780782 -0.019688826 -0.005928623 0.0041924505
-0.011664913 0.003647074 0.0029495729 0.010564326 0.017738733 -0.013692423 0.007977207 0.011387928
-0.00012306785 0.00870108 -0.004921023 -0.004306254 -0.0010694289 1.2098632e-05 0.0096286675 -0.0020696784
-0.00081252 0.011997847 0.0013829716 -0.0028111835 0.005969394 -0.0025142683 -0.009562071 0.00013618775
0.037714478 -0.012114459 0.1306484 0.004288318 -0.4598503 0.07370576 -0.0891961 -0.08791012
-0.0044989786 0.063462906 0.005972273 0.17137747 -0.04380043 -0.000517406 0.15540555 0.025700793
0.23385511 -0.036075648 -0.14081635 -0.06519691 -0.07353901 0.028937733 0.07199549 -0.045862496
0.18239245 -0.11802289 0.024802051 -0.044942297 -0.09496358 0.04225593 0.069493584 -0.00029933595
0.07062127 -0.2470841 0.053009473 -0.0035289258 -0.105905235 0.14419799 0.018548356 -0.048677385
0.13410203 0.28620178 -0.13811065 0.009728206 -0.25201815 -0.029740674 -0.08543485 0.034102492
-0.012442816 0.06286 0.32898512 0.14958861 0.15400442 0.15894802 0.008143024 0.02523373
-0.21312079 -0.14709434 -0.0045369165 0.09821726 0.089386456 0.14850767 0.044715524 -0.06903223
-0.054330178 0.12774172 -0.10003567 -0.16083758 0.5058494 0.119585276 -0.12847573 0.10116407
0.36312243 -0.09077325 -0.06014616 -0.19745477 0.030615762 0.19843456 -0.05815108 -0.04450093
0.095141225 0.15975733 -0.07972654 -0.0028167674 0.016305642 0.0015485875 -0.021237684 0.015709918
0.035028853 0.064027645 0.07872535 0.016475903 0.09240684 -0.060962647 -0.0962553 0.03573098
0.018714106 0.14477809 -0.0007794733 0.008457105 0.054700345 0.13458516 0.020012883 -0.03441603
0.07326284 0.044106584 0.16232166 0.045146 0.04491053 -0.005205182 -0.01165771 0.116111495
0.14296849 -0.019938458 -0.15755647 0.024256233 -0.04566215 -0.179461 -0.045589693 0.06481918
0.0055982256 0.09379677 0.12877987 0.021245342 -0.060811035 -0.035814125 -0.02758396 -0.009227628
-0.80752325 0.23849027 -0.013953059 0.100233704 -0.21965459 -0.08672023 -0.1819836 0.009501131
0.16293587 -0.21041481 -0.05621857 0.18337303 -0.1024575 -0.054926228 -0.06410214 -0.027653657
0.045288626 0.040104263 -0.103094056 0.14803478 0.24730712 -0.00045011743 -0.15253346 -0.044567473
0.23025902 -0.038666945 0.14050542 0.116981484 -0.1275404 0.05942592 -0.09179057 -0.010417927
0.0883108 -0.18278815 -0.12137837 0.04898371 -0.049710937 0.032574248 -0.12915096 -0.1676472
-0.043161366 0.18844242 -0.038083404 -0.07852017 -0.23665752 -0.024128934 0.15050316 -0.0089690825
-0.051507473 -0.014923625 0.06166063 -0.013467788 0.114703715 0.14554235 0.036514733 0.116148196
0.0019301923 0.2416411 0.034576785 0.053412102 0.06644452 0.09354919 0.140463 0.24400117

conv1.lin_neg_r.bias f4 [32]
00000000: 64ca dfbc 33d8 d33d 5a74 c63d ca90 b83d
00000010: c0fb a73b d3f6 c33c c54e 1d3d 1313 b43d
00000020: a5f2 80ba e748 603d 9f42 84b9 d1cb d23d
00000030: 256c 09bc 6651 e6b8 b962 9a3d 6cbd 843d
00000040: 8c4c 20bd 2832 c0ba 3ce0 c3ba 2273 8e3d
00000050: 0d5e 89bc 87e0 09bd acc6 483d 7fa5 753d
00000060: 9ebf 24bc 6f5d 35bd b7f7 163e e037 653d
00000070: 1703 883b 7e07 a7bc c488 8a39 a38e f5bc
-0.027318187 0.10343971 0.09690161 0.09011991 0.0051264465 0.023921406 0.0384052 0.087927006
-0.0009837939 0.054757025 -0.00025226639 0.10292781 -0.0083876 -0.00010982416 0.07538361 0.06481442
-0.0391355 -0.0014663385 -0.0014944146 0.069555536 -0.01676848 -0.03366139 0.049017593 0.059972282
-0.010055451 -0.04427856 0.14742933 0.05596149 0.004150759 -0.020389315 0.0002642331 -0.029975241

convs.0.lin_pos_l.weight f4 [32, 64]
00000000: 26f5 66bd f022 22bd 557a 25b1 85eb 2a36
00000010: b8a0 8b3d 6aa2 af3c 619c b83e 8d11 eb32
00000020: bffd 153d 3a45 4fbd 4c24 783d a3ec 3bbe
00000030: e13d 6d3d 87b8 4d3d dc74 eabd 34a1 4dbd
00000040: 6f07 b9bc 3cf9 8f32 1f3b 10b6 7e93 993d
00000050: b43e a6bd f267 943d 3ebe 583d c10d 443e
00000060: 14f8 4c3e 5e18 37b0 8cb8 da34 f14d 49be
00000070: 8984 03be ee12 38be 3c7e 1dbe 67e6 703e
00000080: 75c4 a1bc 0def a33d 90d5 d33d 8132 75bd
00000090: b801 05be 2b46 a4be d445 92bd f99b 213e
000000a0: 11df 6f31 2a3d 683c adab 33b7 84e7 103e
000000b0: dc5f 6533 9271 173a 857c a53d 4206 6abd
000000c0: 3c23 6232 e954 23be 1eb9 533e aae4 433e
000000d0: 11b7 82b2 3aab 4b32 107c 823e a8df 49bd
000000e0: 6ce3 fb3a 5ea9 55b2 4553 9a3d dac6 d9bc
000000f0: f414 0bbd 9bc9 24bd a5d8 0cbe d587 beb8
00000100: 9210 0abd bbbc 753d 6866 b7b1 e6cf 1b36
00000110: ca41 0abe 9042 083d 8dcc bd3d fd66 5031
00000120: 664f bd3c 3f31 a93c c51c 8ebd a7cc 763e
00000130: c38e 20be a57f cb3d 64ad f23e 1372 d7bc
00000140: cdf9 e3bd 79d5 52b1 1f3b 7f36 b8e2 87bd
00000150: 525f 80be cee8 ae3d c5a5 06be 1702 bb3c
00000160: 4eb1 b2bd c647 1b2f bf42 6738 59a4 d1bc
00000170: e2b8 1abe 5682 a83d 5a1b e23d 5c4e 4c3d
00000180: 2006 d73d bf5a d03d 9019 833d 4141 d83d
00000190: c053 06bd f3c4 193e 086d 353e a92f e83d
000001a0: 7480 3732 0ee8 683e cf61 92b7 a64a 75bd
000001b0: b6d8 52b3 a5b6 ab3a cdbd c2bd c1d5 8bba
000001c0: d213 9e30 0cdd 833d 23dd 72bd 1042 b93d
000001d0: ca4f c1b2 efbd 4cb1 3113 603e 9c05 71bd
000001e0: bf39 1ebb 1324 0232 1d48 993d 1966 b8bd
000001f0: 2803 e33d e108 87bd 4912 7dbd ee57 d1b8
00000200: 8ba5 63b1 2047 4eb5 f5bb c630 2047 e330
00000210: 08d4 0c34 88bc 7cb5 40e1 5735 ce6a af30
00000220: 518b 3935 6ae2 16b4 62a4 1db5 219e be32
00000230: 35e1 97b3 becf 1b33 6f5b 66b4 6a96 2eb4
00000240: 6c30 0cb3 d6f9 00b2 5570 fc31 da3d ae34
00000250: 37e5 d434 fb06 ad33 966c 0d35 237c 2933
00000260: 07c1 d5b1 0492 8eb1 b0c4 ab30 8caf 8c34
00000270: 1065 00b4 4214 0035 495f b534 9954 04b4
00000280: 3e0f f7b3 1045 0b34 caba c634 360e 4533
00000290: 12e9 18b5 84b3 41b3 940e 73b5 265b 46b5
000002a0: faa9 52b2 3b91 ff33 41f0 92b1 1031 33b5
000002b0: 55b1 0032 d7db a9b0 c477 0c34 b067 eab5
000002c0: 0591 5fb1 2624 0434 b0a8 c9b3 1490 4434
000002d0: 3b19 30b2 4477 d3b1 4d0d 2434 cadf 5134
000002e0: 2556 55b1 90dc 6031 b6c6 eeb4 6312 c133
000002f0: 01a1 14b4 4884 d932 f150 d734 b5c5 d531
00000300: 203e bfb6 b0a1 1b39 906a 3eb0 5edd 1832
00000310: c74e 02b8 ccb0 c537 731b 90b8 8890 0032
00000320: d05c e5b7 1d9d a4b7 c77e bc38 6e3c 7638
00000330: 0037 c6b7 6c33 1c38 2405 a5b6 7a22 1eb8
00000340: 8969 7638 a1a0 2c31 7285 f431 f4f7 b3b5
00000350: 9995 25b8 0ec0 90b8 4de4 3db7 67f2 1bb9
00000360: 89c5 c237 90d6 6baf 78d2 9bb0 4473 a0b6
00000370: a564 8eb8 cff1 fab7 c0b7 9636 2763 9437
00000380: 2a04 c036 6acf b736 3ce5 7db8 4c78 1139
00000390: c894 2438 d380 b9b7 c707 8638 6eae 3739
000003a0: 3d22 8230 03a0 3038 2126 a631 0a2d 7bb9
000003b0: c958 79b0 3393 5eb2 1a7f 1a38 73c8 b7b8
000003c0: 0d2f 8631 c73d e038 b288 8cb8 b943 dab8
000003d0: 6cde 6d30 bcd2 38b2 bdd0 a3b8 6983 23b9
000003e0: 5cf4 2d32 eb58 6cb0 030b 38b9 ef5e 5239
000003f0: 7b72 35b8 32bd 8538 4b53 c038 9b53 3d31
-0.056386136 -0.0395841 -2.4080198e-09 2.5469064e-06 0.06817764 0.02143975 0.36056808 2.7365582e-08
0.036618944 -0.05060313 0.06058149 -0.18351988 0.05792034 0.050224807 -0.114480704 -0.050202563
-0.022586552 1.676073e-08 -2.1492085e-06 0.07498835 -0.081174284 0.072463885 0.052915804 0.19145872
0.2001651 -6.660964e-10 4.073994e-07 -0.19658639 -0.12843527 -0.17975971 -0.15380186 0.23525392
-0.019746998 0.0800458 0.10343468 -0.059862617 -0.12988937 -0.32084784 -0.07142225 0.15782155
3.4905876e-09 0.014174739 -1.0709203e-05 0.14150816 5.34054e-08 0.0005777116 0.08080391 -0.057134874
1.3162943e-08 -0.1595036 0.20676085 0.19130197 -1.521724e-08 1.1855088e-08 0.25485277 -0.04928556
0.0019217557 -1.2436741e-08 0.07535414 -0.026584078 -0.03395553 -0.04023133 -0.13754518 -9.085207e-05
-0.03370721 0.05999444 -5.337643e-09 2.3217813e-06 -0.13501659 0.033266604 0.092675306 3.0326526e-09
0.02310915 0.020653365 -0.06939081 0.24101506 -0.1567946 0.09936456 0.47397912 -0.026299512
-0.1113163 -3.0680367e-09 3.8032374e-06 -0.0663504 -0.25072724 0.08540498 -0.13149174 0.022828145
-0.087252244 1.4122667e-10 5.5136854e-05 -0.025591062 -0.1510959 0.082279846 0.11040373 0.049879417
0.10499215 0.101735584 0.0640136 0.10559321 -0.032794714 0.15016536 0.17717373 0.113372155
1.0681209e-08 0.22744772 -1.7450102e-05 -0.059885643 -4.9091533e-08 0.0013100697 -0.09508858 -0.0010668562
1.1501646e-09 0.06438646 -0.059292924 0.090458035 -2.2504441e-08 -2.9793872e-09 0.21882321 -0.05884324
-0.0024143306 7.575198e-09 0.07484458 -0.090038486 0.110845864 -0.065934904 -0.061785016 -9.982275e-05
-3.3126948e-09 -7.684448e-07 1.4459817e-09 1.6536639e-09 1.3115653e-07 -9.4151665e-07 8.0421523e-07 1.2763282e-09
6.91206e-07 -1.4052208e-07 -5.8726266e-07 2.219082e-08 -7.0724504e-08 3.627769e-08 -2.1453683e-07 -1.6259733e-07
-3.264033e-08 -7.507387e-09 7.346936e-09 3.2455029e-07 3.9654853e-07 8.05721e-08 5.2684607e-07 3.946128e-08
-6.2210606e-09 -4.149344e-09 1.249779e-09 2.620476e-07 -1.1957695e-07 4.7713195e-07 3.3783206e-07 -1.2324234e-07
-1.1504606e-07 1.2970509e-07 3.701628e-07 4.588056e-08 -5.6963574e-07 -4.5099583e-08 -9.054577e-07 -7.3893386e-07
-1.2262257e-08 1.190078e-07 -4.276473e-09 -6.675409e-07 7.490901e-09 -1.2358851e-09 1.3082087e-07 -1.7464536e-06
-3.2533205e-09 1.2306609e-07 -9.390476e-08 1.8306338e-07 -1.0250285e-08 -6.154467e-09 1.5278529e-07 1.9546056e-07
-3.1044547e-09 3.2721665e-09 -4.4475536e-07 8.9906074e-08 -1.3842147e-07 2.532228e-08 4.0105763e-07 6.2215926e-09
-5.699476e-06 0.00014842185 -6.927303e-10 8.8978975e-09 -3.1067782e-05 2.3566558e-05 -6.871568e-05 7.483443e-09
-2.7342146e-05 -1.9623485e-05 8.988153e-05 5.870725e-05 -2.362905e-05 3.724119e-05 -4.9179816e-06 -3.7702244e-05
5.8749258e-05 2.5120601e-09 7.1165056e-09 -1.3408703e-06 -3.947839e-05 -6.902228e-05 -1.1318433e-05 -0.00014872254
2.3218587e-05 -2.1449353e-10 -1.1337553e-09 -4.7817903e-06 -6.789834e-05 -2.9914923e-05 4.4917397e-06 1.7689146e-05
5.7225307e-06 5.477971e-06 -6.053339e-05 0.00013873092 3.923921e-05 -2.2113707e-05 6.3910666e-05 0.0001751722
9.468476e-10 4.2110692e-05 4.8355706e-09 -0.00023954004 -9.0711844e-10 -1.295557e-08 3.6834834e-05 -8.7634566e-05
3.9052623e-09 0.00010692659 -6.701182e-05 -0.000104076644 8.653618e-10 -1.0758125e-08 -7.811326e-05 -0.00015593845
1.0125486e-08 -8.598266e-10 -0.0001755171 0.00020062526 -4.326038e-05 6.3771746e-05 9.170788e-05 2.7550644e-09

convs.0.lin_pos_r.weight f4 [32, 32]
00000000: e377 30be eac3 9f3c e790 7831 9882 8c36
00000010: 6cfd bebc ed0d 0dbe 6536 3b3e 7359 5a33
00000020: 8825 afbc 3a61 d0be 5c10 e43d d5e1 6b3d
00000030: a4f3 12bf 97f7 7ebe fde5 01bf 6efb 19be
00000040: ca05 613e 1cdf 1233 ea43 3338 aaca 48be
00000050: 5c1a 4d3e afcb 8e3e e91d 973b 8b7f a53e
00000060: 5c4c 883d 6489 1db2 d7e0 96b9 5fdf 7fbe
00000070: ffa3 ef3d d3f9 62bd e7ff 46be e2d7 4f3e
00000080: 3d54 d7bd 4916 0cbe 588d b732 ad32 c9b5
00000090: cf45 f9bd 8c26 863e 51ec 6ebe deb2 5b31
000000a0: f644 93bd 274e fbbd e9b8 d1bd a396 de3e
000000b0: 6c03 b1bd 9e3b 8dbe 99e7 cb3e 291e 983b
000000c0: 6b4a a1be 1b04 1333 a9df 0d38 aa61 a13e
000000d0: 73d1 99be f03a a7bd 885b afbe b591 88bd
000000e0: 8303 13be 3295 a9b2 1477 6d38 1dff 6d3e
000000f0: c52e 3bbd 2f05 d338 addc 943e c256 f2bc
00000100: 8290 94b4 f688 b7b4 2679 6e2f 51c1 7c32
00000110: 4f00 29b5 39ae 3135 973f b2b4 f2cf c031
00000120: f06d 0eb5 170f 1d33 ee3c 3735 a031 e233
00000130: f70b 1eb4 bc27 d133 bb9e 62b3 5f0d 0cb5
00000140: 40dd f1b3 1ec9 84b1 5d57 ae32 75f9 2933
00000150: de5e e333 b886 0cb5 ab9d 8eb4 5986 3534
00000160: 2d51 b333 4821 7d32 911a 1eb1 3e82 f0b3
00000170: 1ad7 df34 0d09 0cb4 516e 7ab5 f4df cc34
00000180: c378 e9b7 3fd5 31b7 3822 3031 3577 b5b2
00000190: 84b2 8fb7 842f feb5 74fc 06b8 07ca 0eb2
000001a0: 0da5 4838 a762 9d38 69aa 77b8 45a7 59b6
000001b0: 5af2 ce36 34a3 2e38 91db 0737 912e 4539
000001c0: 4501 1bb6 c107 da32 6f93 d9b2 bac3 4437
000001d0: 69be fc37 5274 e6b7 5496 97b9 e4c1 42b8
000001e0: 0a45 67b8 e779 e9b1 7fc4 e3ae 1de6 dab7
000001f0: ae2f 20b8 e141 3bb8 7ed0 d3b7 06a6 8338
00000200: 7fe1 35b7 a0bf b9b8 2df6 1832 32d1 0bb0
00000210: 0d63 74b8 c7a9 81b8 6c0f edb7 91f0 4f30
00000220: 58c3 31b8 009a 99b7 a41b 93b8 7196 9bb7
00000230: 661b b0b9 b2e2 68b8 47b9 8db7 f962 2ab8
00000240: 8092 f1b7 328d 8730 c413 9432 fb7a 33b9
00000250: 207d e7b7 0451 afb8 e471 6ab9 ffbd 8cb8
00000260: 8ea2 74b7 de57 8232 83b1 f431 2d0d a8b7
00000270: d7ac cab7 62ee 1ab8 8124 f7b7 4796 22b8
00000280: 8601 723d 4804 16be f874 8c31 bd3d 22b6
00000290: 90b1 28bf de7c 463d 8fb3 c03e 67f1 1233
000002a0: dca8 aa3e 7f4b ab3e 3de2 8c3d d303 26bd
000002b0: 2556 873e 6519 cabd 7ab3 1bbe 9738 513e
000002c0: c551 8dbe a8c1 d7b4 a2d5 dbb5 6d62 a23e
000002d0: 8413 d1be ddf9 20bf 84fd 26be 250f 76be
000002e0: c83d 173e 8cc9 4632 b0ba 37b9 a39f 303e
000002f0: f282 3fbe f817 c0bc 79c7 77bd 64e3 ffbd
00000300: 2f3c cbbc 3a33 643e 06e2 922f b969 05b6
00000310: f663 2e3e 1d7e 853e 30cd 853e cc6b d232
00000320: a82b 00be 877e 79be 2cda 91be 4f3f ccbe
00000330: 5cf4 a33e 2d35 46be 561a 523b ad5f b63c
00000340: 270f b1be 1ee8 f9b1 bc22 97b6 174f 543e
00000350: 2795 80be dfbc 19bf c226 bbbc 0c46 33bd
00000360: a826 1f3e 1bcc 42b2 12ed 6cb9 0059 88bd
00000370: fdb2 01be e739 e1be 9b51 9b3e e51d 54be
00000380: 51ae 02b6 a73c 3336 952a 9ab1 1d49 2532
00000390: 02ae d4b5 3d0e 0336 1ec0 83b6 3374 9f32
000003a0: 8e16 63b5 0d6e 0636 7c38 16b6 22dd 5235
000003b0: 6745 8b34 c1a5 1bb6 a1ee 6fb3 4ebb a4b5
000003c0: f9a2 6f36 4b1c 1532 0970 86b2 a76f e2b4
000003d0: 50cf f6b6 09da cab4 488e 5436 5db3 cdb6
000003e0: 7c96 58b5 ee5f 2ab2 1ac9 9432 0945 ccb5
000003f0: 95fd 33b5 c76b 5536 d1ef 42b4 423f 3ab6
-0.17233233 0.019502599 3.6171117e-09 4.1875282e-06 -0.0233142 -0.13774844 0.18282469 5.0838434e-08
-0.021380201 -0.40699178 0.11135933 0.057588417 -0.57403016 -0.24899136 -0.5074156 -0.15037319
0.21974865 3.419619e-08 4.2740176e-05 -0.1960856 0.20029587 0.27889773 0.00461172 0.3232387
0.066551894 -9.169842e-09 -0.00028777748 -0.24987553 0.11701202 -0.055414032 -0.19433556 0.20297197
-0.10514114 -0.13680376 2.136828e-08 -1.4990416e-06 -0.12171518 0.26201284 -0.23332335 3.1970369e-09
-0.07190888 -0.12270766 -0.10240347 0.43474302 -0.08643231 -0.27584547 0.39825132 0.0046422672
-0.3150209 3.422984e-08 3.382532e-05 0.31519824 -0.3004261 -0.08165538 -0.3424952 -0.066684164
-0.14356808 -1.9742036e-08 5.6616103e-05 0.23241849 -0.0456989 0.000100622296 0.29074612 -0.029582385
-2.7672291e-07 -3.4186058e-07 2.1689014e-10 1.4712286e-08 -6.2957855e-07 6.6191166e-07 -3.320135e-07 5.611576e-09
-5.30591e-07 3.6568135e-08 6.8261477e-07 1.0532972e-07 -1.471925e-07 9.7395485e-08 -5.276409e-08 -5.217352e-07
-1.1262682e-07 -3.86457e-09 2.0295994e-08 3.957526e-08 1.05877675e-07 -5.2350106e-07 -2.656428e-07 1.6905814e-07
8.350103e-08 1.47341055e-08 -2.3007127e-09 -1.1199562e-07 4.1693494e-07 -1.3041809e-07 -9.329279e-07 3.8160908e-07
-2.7831999e-05 -1.0599672e-05 2.5630822e-09 -2.1125382e-08 -1.7130056e-05 -1.8938304e-06 -3.2183205e-05 -8.3114235e-09
4.783743e-05 7.504719e-05 -5.9048096e-05 -3.2432883e-06 6.167492e-06 4.1636828e-05 8.097749e-06 0.00018804731
-2.3097539e-06 2.5382066e-08 -2.532917e-08 1.17280815e-05 3.0129408e-05 -2.7472302e-05 -0.00028912968 -4.643378e-05
-5.513899e-05 -6.795051e-09 -1.03576696e-10 -2.609478e-05 -3.8191378e-05 -4.464563e-05 -2.5250247e-05 6.277491e-05
-1.0840943e-05 -8.8571804e-05 8.903538e-09 -5.086519e-10 -5.826638e-05 -6.182823e-05 -2.8259783e-05 7.5648027e-10
-4.2382017e-05 -1.8310733e-05 -7.014655e-05 -1.8547495e-05 -0.0003358975 -5.5524237e-05 -1.6894786e-05 -4.0623334e-05
-2.8797658e-05 9.862673e-10 1.7238456e-08 -0.00017116584 -2.7595612e-05 -8.3597406e-05 -0.00022358407 -6.71111e-05
-1.4581381e-05 1.517395e-08 7.1215154e-09 -2.0033296e-05 -2.4160761e-05 -3.6938472e-05 -2.9461693e-05 -3.8763766e-05
0.059083484 -0.1465007 4.087834e-09 -2.4175818e-06 -0.6589594 0.048458926 0.37636992 3.4212828e-08
0.33331954 0.33456036 0.06879089 -0.04053099 0.2643291 -0.09868125 -0.15205184 0.20431744
-0.27601448 -4.0187774e-07 -1.6378947e-06 0.31715718 -0.40835202 -0.6288126 -0.16307646 -0.24029215
0.14769661 1.1570943e-08 -0.00017521787 0.17248397 -0.18702295 -0.02344893 -0.060492966 -0.12494543
-0.024808971 0.22285166 2.6717845e-10 -1.9880083e-06 0.1703032 0.2607278 0.26133108 2.4496238e-08
-0.12516654 -0.24364673 -0.28486764 -0.3989205 0.3202237 -0.19356222 0.0032059154 0.022262419
-0.34581873 -7.2732425e-09 -4.5041943e-06 0.20733295 -0.25113794 -0.6005382 -0.02284563 -0.043767974
0.1554209 -1.1338694e-08 -0.0002259503 -0.066576004 -0.12665935 -0.43989488 0.30335698 -0.20714529
-1.9472975e-06 2.6708383e-06 -4.486831e-09 9.620888e-09 -1.5845874e-06 1.952881e-06 -3.9264696e-06 1.8562877e-08
-8.459691e-07 2.0031614e-06 -2.238462e-06 7.8552887e-07 2.5941264e-07 -2.3193281e-06 -5.5863556e-08 -1.2273465e-06
3.5708638e-06 8.6793746e-09 -1.56506e-08 -4.2177018e-07 -7.3555057e-06 -3.7784073e-07 3.167328e-06 -6.1303567e-06
-8.0685254e-07 -9.917114e-09 1.7320918e-08 -1.5219276e-06 -6.7051707e-07 3.1802208e-06 -1.8154903e-07 -2.775298e-06

convs.0.lin_pos_r.bias f4 [32]
00000000: 0322 5b3c 7814 db3d 8b4a b832 6803 b2b9
00000010: 2b6c 60b8 3d49 a03e 81c4 143e 45a5 2935
00000020: adf8 b2bc 4e89 a4b9 d45f c2bc 5fbd e0b5
00000030: bbe4 783d a73b 203e 46d0 3fbd 2eb8 3ebb
00000040: 6303 4eb4 add8 bcba 1de3 2abd 5d39 98bc
00000050: f6d1 73bd efd8 823d 5d9a 48b5 9de7 7b3e
00000060: a948 3dbc 9d2a 52bc 149b 09b9 a3e9 8ab7
00000070: 0b59 123d b6e5 2abd d71e a83d 1f39 273e
0.013374808 0.106972635 2.1454317e-08 -0.00033953344 -5.35065e-05 0.31305876 0.14528085 6.3197905e-07
-0.021847093 -0.00031382818 -0.023727335 -1.6744415e-06 0.06076501 0.15647756 -0.046829484 -0.002910148
-1.9186477e-07 -0.0014407836 -0.0417205 -0.01858204 -0.059526406 0.06389033 -7.4730434e-07 0.24600072
-0.011552968 -0.012827543 -0.00013123109 -1.6559678e-05 0.03572945 -0.041722976 0.08209007 0.16330384

convs.0.lin_neg_l.weight f4 [32, 64]
00000000: 7fbd 7bb3 e62a 9a33 311f 20b4 e7c4 03b4
00000010: 3a90 0135 9dbb 5fb4 039b d1b3 8b9a 9334
00000020: e277 a72e a17a 19b4 18d3 cdb0 7544 9734
00000030: d191 4fb1 2465 9c2e 47e0 6433 4dad 2833
00000040: f0ae 0bb1 1a78 0533 3400 29b4 7854 2133
00000050: b272 7232 3ced adb1 641a 60b4 c14a aab3
00000060: de22 85b2 8775 c131 d735 1c34 0a66 a8b3
00000070: 9d47 e533 539d 86b4 adea 25b3 1023 8db0
00000080: a0aa f9b1 1899 0c34 fcee 0cb0 a3fc e131
00000090: 214d f431 6629 af34 2840 abb4 767b 31b1
000000a0: 4b5f b2b4 3239 52b4 ee41 06b5 7ee9 8a34
000000b0: e819 2733 d7ff 9e30 fea4 bdb3 39db 98b3
000000c0: 287a 3133 458b 03b1 85ff 5cb1 854b fbb4
000000d0: e5e8 e5b2 5265 a233 8175 d233 aafc 3234
000000e0: ce88 8533 50d7 90af 1a29 3931 51dc 2b34
000000f0: 45e8 d7b3 d6ee 2435 9019 1534 3f90 d934
00000100: 9d00 da3b e487 fc3c 84dc 923d 2eb5 57bb
00000110: 9aa5 90be e803 0cbd 51de 0c3c 8a77 bf3c
00000120: 39b2 e230 c93e 333d 326c b138 a002 d83d
00000130: c482 17b2 2a56 8db8 0162 8fbc b069 fb3d
00000140: 90e9 96b2 b63f ecbd 29b2 69be 2b56 c4bd
00000150: 698f e5b1 6bb7 3232 b874 adbd 2e93 8d3d
00000160: 04ee 5e3b 781d 9031 47e6 ff3d fe91 04be
00000170: 5ed2 a5be b5df edbb dfa3 f83c fd4f f6b8
00000180: 4be2 1b3c 3520 a23d 6c5e 6eb2 22e8 b0b5
00000190: a9f9 3d3e defb 983d 3d34 383e 8ff6 8932
000001a0: 2286 e93d 8a85 803d c03f 3e3e 364e 123e
000001b0: a265 ffbd b406 693e 6b18 213e 1126 78bd
000001c0: b581 1b3e 8ef3 34b2 7464 1137 c2ec 93bd
000001d0: 7a25 ff3d 7729 8a3e c5e7 ff3d bcca 423e
000001e0: 1aab d5bd 2f1e 22b2 72c4 95b9 53f9 253b
000001f0: 1cd2 313d 03f6 853d 9806 593a 0504 043d
00000200: d965 8632 9aa9 5bbc 0373 843b 45b0 aebc
00000210: 7a85 063a 3ae1 76b2 fb53 82b4 b111 2834
00000220: d720 6732 29df ed3b b741 ac31 8cd3 0ebc
00000230: 758b 9032 3ba8 4032 536b 3f3c 5b8f 2832
00000240: 931d 41b2 fd55 ecb2 4453 8ab3 0690 12bb
00000250: 7be8 3a31 35f0 bc32 b8d6 c63c 7ff6 c73b
00000260: 7d5b a531 2d35 8031 f7df bcba e066 963c
00000270: 8424 d13a 0c8f d8b0 bfc8 2839 d155 28b2
00000280: 1488 50b2 9dd9 353d 8a95 2432 928c 9032
00000290: ad1d 4532 a710 0132 5374 803b b14e 4a2f
000002a0: 416e 82bc 3ec5 673d de6e 46bc 7cba 64b9
000002b0: 9796 8cbb 6e12 063d edaa 1e3d e7b0 a5bc
000002c0: f4a5 c0bb da00 8cb3 fd01 ef2f 56e4 7eb2
000002d0: e1c2 c83b c42b 3dbc 6aaa dc33 c7e4 793d
000002e0: 3e83 acb2 c4f3 9230 6e8c 31b2 b8f6 68bb
000002f0: c39e 1533 5573 7ab2 3a4e 83bc 6a8f 7bb3
00000300: 8188 7e3c 8560 523e a35f 23be d40f 813e
00000310: 8d2a 1dbe 4210 ebbd a7de 9b3e 9340 75be
00000320: 5526 a6b0 36f8 fabd f84a dfb7 93be 2b3e
00000330: 589c bcae 38d5 5039 078e 12bc 7021 f13d
00000340: 2c20 0db2 cef1 5fbd ad4a 90bd 7b09 b8bc
00000350: 9493 b832 e66e cdb1 1900 32bd 6fb2 c2bd
00000360: 7035 7c3b 7187 6732 0a0b d6bd 40fe 65bc
00000370: 41d2 32be 7574 dfbd 5ed1 113e 7ab6 9ab8
00000380: 1f62 13bd 2ea7 6dbc 4122 2eb2 a96f b9b4
00000390: 0dd7 d0bb 8d07 063d 99eb 243e 428f ebb1
000003a0: 49ed 9f3e f1b0 51bc 511c 05be 7884 fbbb
000003b0: d840 9b3b be3d a63d dfd6 dc3c b0a4 3fbd
000003c0: c56c a13e 6295 2033 a964 55b6 45c6 b53d
000003d0: b280 4c3d d51e 2c3d 3175 353d 21f6 bc3d
000003e0: 680d 37bd 5a3e 96b1 7575 4d39 aaa8 bcbd
000003f0: 742f 923e c7e8 573e bf94 f7bd f61e 4f3e
-5.8612837e-08 7.178987e-08 -1.4912509e-07 -1.2271958e-07 4.826612e-07 -2.0836747e-07 -9.7605174e-08 2.7493329e-07
7.615576e-11 -1.4293848e-07 -1.497571e-09 2.817575e-07 -3.0205352e-09 7.112025e-11 5.3289366e-08 3.9273164e-08
-2.0326603e-09 3.1075707e-08 -1.5739425e-07 3.7562558e-08 1.4112333e-08 -5.061933e-09 -2.0871227e-07 -7.9298395e-08
-1.5499094e-08 5.6304006e-09 1.4548219e-07 -7.8416704e-08 1.067667e-07 -2.5073913e-07 -3.8630493e-08 -1.0269066e-09
-7.2662516e-09 1.3094211e-07 -5.127132e-10 6.5770833e-09 7.110103e-09 3.2626411e-07 -3.1897912e-07 -2.582707e-09
-3.3224418e-07 -1.9578582e-07 -5.001483e-07 2.587439e-07 3.890628e-08 1.1568727e-09 -8.83101e-08 -7.117928e-08
4.1322124e-08 -1.9142175e-09 -3.215946e-09 -4.680734e-07 -2.6765017e-08 7.562143e-08 9.800261e-08 1.666946e-07
6.21818e-08 -2.6346436e-10 2.6944407e-09 1.6005767e-07 -1.0053967e-07 6.1442313e-07 1.3886006e-07 4.0524353e-07
0.006652905 0.030826516 0.07170966 -0.0032914388 -0.28251344 -0.034183413 0.008597926 0.02337243
1.6494318e-09 0.04376105 8.460171e-05 0.10547376 -8.8190895e-09 -6.739453e-05 -0.017502787 0.12276018
-1.756851e-08 -0.115355894 -0.22821869 -0.09586748 -6.681081e-09 1.0402668e-08 -0.08469528 0.06912838
0.003401638 4.194302e-09 0.12495094 -0.12946317 -0.3238706 -0.007259334 0.030351577 -0.00011745093
0.009514402 0.07916299 -1.3874892e-08 -1.3180581e-06 0.18552269 0.07469915 0.17988677 1.6061021e-08
0.11402537 0.062754706 0.18579006 0.14287648 -0.12470557 0.22756463 0.15731971 -0.060583178
0.15186198 -1.0532757e-08 8.666062e-06 -0.07222892 0.1245832 0.2698476 0.124953784 0.1902265
-0.10433026 -9.436504e-09 -0.00028565858 0.002532561 0.043413267 0.06541064 0.00082788756 0.032230396
1.5645968e-08 -0.013407135 0.004042031 -0.021324286 0.0005131584 -1.4370295e-08 -2.427549e-07 1.5652655e-07
1.3453437e-08 0.007259269 5.0133298e-09 -0.008717429 1.6827224e-08 1.1214122e-08 0.011683303 9.811482e-09
-1.1240803e-08 -2.7513119e-08 -6.441272e-08 -0.0022363677 2.7198712e-09 2.1995314e-08 0.024272308 0.0061023827
4.812533e-09 3.7313357e-09 -0.0014410008 0.018359601 0.0015956317 -1.5756725e-09 0.00016096512 -9.798399e-09
-1.2138134e-08 0.044396985 9.580058e-09 1.682773e-08 1.1473657e-08 7.512575e-09 0.003920117 1.839975e-10
-0.015921714 0.05658459 -0.012111394 -0.00021813245 -0.0042904126 0.03273242 0.038737226 -0.020225955
-0.005879158 -6.519413e-08 4.347526e-10 -1.48366635e-08 0.006126747 -0.011546079 1.02755465e-07 0.061009195
-2.0083117e-08 1.069218e-09 -1.0334686e-08 -0.0035547446 3.483616e-08 -1.4578139e-08 -0.016028512 -5.8570926e-08
0.015535475 0.20544632 -0.15954451 0.25207388 -0.15348263 -0.1147771 0.30443308 -0.23950414
-1.2088984e-09 -0.12254374 -2.6618582e-05 0.16771917 -8.5770224e-11 0.00019915856 -0.008944995 0.11773956
-8.214595e-09 -0.054673962 -0.07045493 -0.022465458 2.148753e-08 -5.978893e-09 -0.043457124 -0.0950669
0.0038484 1.34767655e-08 -0.10451324 -0.014037669 -0.17463018 -0.10910884 0.14240023 -7.377281e-05
-0.035982247 -0.014505191 -1.0135921e-08 -3.454018e-07 -0.0063732923 0.032722045 0.16105498 -6.8556867e-09
0.31235722 -0.012798534 -0.12999083 -0.0076757036 0.0047379546 0.08117245 0.026957927 -0.046787918
0.31528297 3.7388766e-08 -3.1798065e-06 0.088757075 0.04992742 0.04202159 0.044301216 0.09226633
-0.04469052 -4.372663e-09 0.0001959408 -0.092118576 0.2855183 0.21084891 -0.12088918 0.20226654
