Epinions/models/Epinions-train-4.pt (torch, 63739 bytes, 14 tensors)

conv1.lin_pos_l.weight f4 [32, 64]
5.657439e-05 -0.0014037444 0.0005236888 5.955296e-05 -0.00027224998 0.00010487846 0.000120365665 -0.00029194722
-0.00043178425 -0.00015566271 2.187757e-05 -1.0222526e-05 1.7620661e-05 -4.931585e-05 0.00016373476 6.091574e-06
-6.945025e-05 -8.210719e-05 -0.00012665604 -5.553212e-05 -0.00022343382 -0.00031053383 0.00014027888 -4.5653578e-05
-0.00021037564 0.00018714847 0.00044292735 -9.556352e-05 -1.3251209e-05 -9.745459e-05 0.00010796858 -2.9822368e-05
2.0362146e-05 -9.082049e-05 -6.9865564e-05 -0.00012826802 4.791865e-06 -1.7269162e-05 5.413725e-05 -0.00010992073
-7.2618226e-05 9.603976e-05 -2.1611415e-05 -4.1804296e-06 -0.000105313426 2.1528234e-05 -0.00024268641 -4.5352157e-05
-3.420874e-05 0.00011458752 1.3668096e-05 3.678498e-05 7.498184e-05 6.1938267e-06 1.4340529e-05 0.000111065936
-0.00017354463 6.149213e-05 4.2652562e-05 -0.000119653094 1.3049113e-05 0.00010548453 -3.0396059e-05 -8.546862e-06
0.14448956 -0.309572 -0.06011579 -0.012183331 -0.055730402 0.06313918 0.09646817 -0.12005777
0.21218169 0.002069948 0.10860213 0.05308768 -0.11215942 0.05397066 0.02687466 -0.015526405
0.046207782 -0.058998212 -0.037758056 0.009236202 -0.09824527 -0.0045498637 -0.08693698 -0.042161766
-0.036696296 -0.003659379 0.046389762 0.0076479693 -0.001993796 0.027730227 0.020945817 -0.042076193
0.05625563 -0.042373225 -0.073429294 -0.006372211 -0.07266636 -0.047656674 0.018316563 0.050888613
0.024917003 -0.039379075 -0.01195342 0.07029075 -0.016283063 0.05518324 -0.053947806 -0.08564254
-0.13372234 0.038628 0.0052142553 -0.027426835 -0.09111939 -0.05069922 0.009069859 -0.01114627
0.034498025 -0.038343355 -0.066916235 0.0052016303 0.014256233 0.04236626 -0.0113943005 0.0003431763
2.5362457e-09 1.6426688e-08 8.621983e-09 4.4145883e-09 1.2890606e-08 5.87813e-09 -2.099269e-09 1.1579721e-08
-3.7652406e-09 -9.652701e-10 -2.578992e-09 -2.2964552e-09 6.240694e-10 -3.7022263e-09 -4.1007735e-09 6.912297e-09
2.8237983e-09 1.7503051e-08 -1.0652013e-09 -3.4898409e-09 7.815826e-09 -2.0050815e-10 9.015534e-10 -1.5358363e-08
-6.6106205e-09 -4.9902016e-09 -7.700949e-10 6.4799904e-10 7.53751e-09 6.743807e-09 -1.1282654e-08 2.6358513e-09
9.060982e-09 -6.573485e-09 8.725942e-09 -6.390638e-09 1.8010202e-09 -1.34452875e-08 3.4715386e-09 -6.951269e-09
-1.28676e-08 9.967847e-09 -3.0902538e-09 -2.1136652e-08 1.6470892e-08 -8.810871e-09 -2.1883142e-09 3.520973e-09
4.0010644e-09 5.3489932e-09 3.6557464e-09 -1.35174005e-08 -1.21559545e-08 -3.7243597e-09 -1.0423205e-08 6.4916995e-11
2.6404794e-09 7.65347e-09 1.5121058e-08 -4.938462e-09 1.5763863e-08 1.738261e-09 -3.831861e-09 1.2822475e-08
-0.0007813282 0.39267698 0.1117908 0.020694474 0.17230734 -0.022410624 -0.055927727 0.16526662
-0.24956952 -0.0014611129 -0.09082452 -0.0603409 0.11072094 -0.026209394 -0.014828335 0.079283945
-0.039918307 0.026314922 0.092858866 -0.029755218 0.037816122 0.016391577 0.102268994 0.07871601
0.016590286 -0.028683832 -0.025490316 -0.013263017 0.047251552 0.03786211 -0.0012587542 0.073660426
-0.106394656 0.04078215 0.02301256 0.032754507 0.07472674 0.009729861 -0.018203203 -0.035577897
-0.026518472 0.075545214 -0.019987892 -0.090797566 0.030926308 0.04201998 -0.040061772 0.037008308
0.12068145 -0.04535184 0.008155424 -0.013815797 0.072588556 0.045401234 0.025297731 0.007786346
0.019135365 -0.009318251 0.079470776 -0.062733054 -0.043615088 -0.009785151 -0.04143468 -0.0051358184
00000000: 4a4a 6d38 d9fd b7ba 2948 093a 81c8 7938
00000010: c6bc 8eb9 32f2 db38 d36c fc38 7e10 99b9
00000020: 1a61 e2b9 6439 23b9 b985 b737 6a81 2bb7
00000030: 15d0 9337 7ed8 4eb8 37b0 2b39 3966 cc36
00000040: d2a5 91b8 f630 acb8 f9ce 04b9 29eb 68b8
00000050: 8f49 6ab9 25cf a2b9 d317 1339 287c 3fb8
00000060: 4898 5cb9 493d 4439 b438 e839 4669 c8b8
00000070: 8251 5eb7 8960 ccb8 316d e238 0c2b fab7
00000080: 60cf aa37 e176 beb8 ca84 92b8 af7f 06b9
00000090: cfc9 a036 3edd 90b7 6e11 6338 3e85 e6b8
000000a0: 9d4a 98b8 f468 c938 294a b5b7 9e45 8cb6
000000b0: b7db dcb8 8897 b437 a379 7eb9 8238 3eb8
000000c0: 5b7b 0fb8 b54e f038 0650 6537 9249 1a38
000000d0: 923f 9d38 91d4 cf36 1a98 7037 12ec e838
000000e0: 88f9 35b9 56f5 8038 d7e5 3238 44ee fab8
000000f0: 83ed 5a37 9337 dd38 0afb feb7 7e64 0fb7
00000100: 12f5 133e 3980 9ebe fa3b 76bd 989c 47bc
00000110: 9045 64bd 1d4f 813d 1b91 c53d d9e0 f5bd
00000120: 2846 593e f7a7 073b cb6a de3d 7872 593d
00000130: d7b3 e5bd 5710 5d3d 3f28 dc3c 7662 7ebc
00000140: 5f44 3d3d 1ca8 71bd 31a8 1abd 7053 173c
00000150: d134 c9bd 0617 95bb 040c b2bd d1b1 2cbd
00000160: db4e 16bd 31d2 6fbb 3103 3e3d d19b fa3b
00000170: 59aa 02bb 802a e33c 9096 ab3c 1658 2cbd
00000180: 4e6c 663d 8c8f 2dbd 1962 96bd fbcd d0bb
00000190: 1ad2 94bd a533 43bd 9e0c 963c 9470 503d
000001a0: be1e cc3c f44b 21bd 47d8 43bc 99f4 8f3d
000001b0: 0f64 85bc d207 623d 60f8 5cbd 5b65 afbd
000001c0: 82ee 08be 6538 1e3d 58dc aa3b 3eae e0bc
000001d0: ce9c babd fca9 4fbd bf99 143c d89e 36bc
000001e0: cd4d 0d3d ec0d 1dbd 610b 89bd 7072 aa3b
000001f0: fa92 693c 3e88 2d3d 29af 3abc 58ec b339
00000200: 1b4a 2e31 ab1a 8d32 e21f 1432 21af 9731
00000210: 7c75 5d32 94f8 c931 bb42 10b1 27f0 4632
00000220: 685f 81b1 6caa 84b0 1b3a 31b1 abcf 1db1
00000230: fb8a 2b30 416a 7eb1 c9e6 8cb1 3581 ed31
00000240: c90c 4231 9e59 9632 7066 92b0 eed1 6fb1
00000250: 5e46 0632 0776 5caf 2ed1 7730 66ed 83b2
00000260: a223 e3b1 4776 abb1 9cae 53b0 e11e 3230
00000270: 527e 0132 27b7 e731 a3d5 41b2 6322 3531
00000280: 9faa 1b32 fcdc e1b1 19e9 1532 a594 dbb1
00000290: c487 f730 00fd 66b2 f48f 6e31 02d8 eeb1
000002a0: 4e10 5db2 0e3f 2b32 525c 54b1 fd8f b5b2
000002b0: e07b 8d32 9f5e 17b2 3b61 16b1 9df5 7131
000002c0: bc79 8931 3eca b731 9238 7b31 283a 68b2
000002d0: 74d6 50b2 a1ef 7fb1 be11 33b2 05c1 8e2e
000002e0: ce73 3531 517c 0332 8fe3 8132 2caf a9b1
000002f0: 1a69 8732 9fe7 ee30 68a9 83b1 d749 5c32
00000300: 0cd2 4cba f50c c93e 93f2 e43d 7587 a93c
00000310: 5671 303e 7c96 b7bc 7914 65bd a73b 293e
00000320: 278f 7fbe d082 bfba 3502 babd 0528 77bd
00000330: a9c1 e23d 15b5 d6bc 8bf2 72bc 9f5f a23d
00000340: 6181 23bd 6492 d73c ca2c be3d 37c1 f3bc
00000350: 14e5 1a3d a147 863c 6872 d13d dc35 a13d
00000360: 5ae8 873c 5bfa eabc 11d1 d0bc 204d 59bc
00000370: d88a 413d 4d15 1b3d c8fc a4ba 47db 963d
00000380: 71e5 d9bd 2f0b 273d d684 bc3c 9729 063d
00000390: 550a 993d ff69 1f3c e21e 95bc 21ba 11bd
000003a0: 443d d9bc 73b7 9a3d a6bd a3bc 13f4 b9bd
000003b0: 2b59 fd3c 241d 2c3d d017 24bd 0696 173d
000003c0: d627 f73d dac2 39bd 549e 053c a75b 62bc
000003d0: 4fa9 943d a5f6 393d 303d cf3c 9b24 ff3b
000003e0: c5c1 9c3c 94ab 18bc 93c1 a23d 307a 80bd
000003f0: bca5 32bd e651 20bc 69b7 29bd 5e4a a8bb

conv1.lin_pos_r.weight f4 [32, 64]
5.6065914e-05 0.0010635243 0.00039048545 -4.2198255e-05 -1.85656e-05 2.8128572e-06 -3.204738e-05 -5.4834367e-05
0.00015964317 0.00013271032 -3.383271e-05 -1.6788063e-05 -4.2600836e-06 -0.00016126184 9.6833835e-05 0.0007189242
6.374591e-06 -1.9838955e-05 -0.0001878848 -0.00014253202 0.00017291788 0.0003219978 9.240326e-05 -0.00071689684
-0.0001420828 -0.0003866306 -5.90839e-05 -7.369045e-05 -0.00010437301 0.00013866501 5.0441697e-05 0.0003243305
-2.1197107e-05 -2.816383e-05 1.0388277e-05 0.0005536476 -0.00013171707 -0.00012958748 0.0001605261 0.00011153842
-1.8290213e-05 4.358778e-06 0.00012158927 0.0001021344 1.5910755e-05 0.000121214835 -0.00030412717 6.7971836e-05
-4.9523598e-05 0.00022578503 -1.4145428e-05 5.4296897e-06 -2.0834528e-05 0.00021227081 4.699364e-05 8.678134e-05
3.140414e-05 1.618358e-05 5.1217346e-05 -3.1476804e-05 6.7828114e-05 0.00014416254 8.4677995e-05 1.3371588e-06
0.31969953 -0.35805985 -0.03420691 0.13286416 -0.0014083755 0.103335574 0.25586644 -0.33454892
0.30079463 -0.09636817 0.24478395 0.054944165 -0.08448053 -0.14086473 0.054508917 0.43836546
-0.007338281 0.010676249 -0.18108235 0.06434138 -0.15355141 -0.052247472 -0.15000783 -0.10779933
-0.058172558 0.02602083 -0.3075426 -0.007614289 -0.059212122 -0.023240585 0.019847166 -0.34504214
0.09010395 -0.12609091 -0.020776521 0.15225905 0.21302076 0.055901 -0.10073273 0.109914266
0.078023076 0.04230897 -0.088821806 -0.0734802 -0.068411395 0.018267293 0.1321043 -0.11796652
0.04831044 -0.032449324 -0.18609318 0.019984428 -0.043566223 -0.040179186 -0.059465755 -0.12277675
0.0708307 -0.12061457 -0.11401901 -0.07950689 -0.07356603 0.061317686 0.0062342575 0.0051256167
1.5951798e-08 -2.4154053e-08 2.579421e-09 6.6418058e-09 -7.4546005e-09 -4.84079e-09 -1.1978789e-08 -1.5691848e-08
5.8221867e-09 -1.1346348e-09 3.0937208e-09 8.6210394e-10 -1.8231685e-09 -7.4421397e-10 -2.9344882e-09 1.4146352e-08
-8.027368e-09 4.580493e-09 -1.03901e-09 -8.069752e-09 1.01294635e-08 8.565013e-09 -1.5808226e-08 -9.71379e-09
-5.8738276e-09 -6.448512e-09 -2.2090263e-09 -7.37104e-09 -1.2286134e-08 -6.746843e-09 -8.602208e-09 -2.2646512e-08
-9.77117e-09 -1.1936724e-08 -1.1338952e-08 -5.597856e-09 6.9011046e-09 6.7544166e-09 2.0573626e-08 1.3092878e-08
-9.246106e-09 -5.4510245e-09 1.2593694e-08 -1.6687954e-09 -1.2977179e-08 -3.452425e-09 -8.11092e-09 1.5466009e-08
-1.26222135e-08 1.2594061e-08 7.887442e-09 3.0687854e-09 2.1519178e-08 1.4985083e-08 1.1960902e-08 -1.6609619e-08
-5.034731e-09 3.7766843e-09 7.8844126e-11 1.0567116e-08 -1.9071646e-09 1.1092046e-08 4.0444377e-09 -4.8428443e-09
0.025724323 0.34037808 0.093799174 0.014019613 0.011898581 -0.009283561 -0.0025727157 0.11087769
-0.0009454962 0.025302405 0.024168052 -0.031375762 0.06648733 -0.0025142597 -0.021974685 -0.012562037
0.03632129 0.050290897 0.18745081 -0.080032356 0.14693111 -0.025850091 0.025677353 0.054039847
-0.02888835 0.022752104 0.10837983 -0.023539478 0.039724838 0.09778422 -0.0416212 0.10147484
-0.15677333 0.0499575 0.04046236 -0.037950974 0.0063569783 -0.07238527 0.017552478 -0.006899858
-0.06973656 -0.05338251 0.0799793 -0.09044022 -0.019309666 0.043690592 -0.021660035 0.05977101
0.09029735 0.11081991 0.00014891187 0.0041924105 0.027572488 0.07565621 0.092618465 0.05116524
-0.06922665 0.018529989 0.1392596 -0.058453616 -0.03464246 0.027004719 -0.012826292 -0.08078645
00000000: 5128 6b38 f465 8b3a 12ba cc39 08fe 30b8
00000010: 53bd 9bb7 85c4 3c36 9d6a 06b8 f4fd 65b8
00000020: e365 2739 2828 0b39 99e7 0db8 17d4 8cb7
00000030: d7f1 8eb6 6518 29b9 4513 cb38 3076 3c3a
00000040: 52e5 d536 d56b a6b7 f102 45b9 a674 15b9
00000050: 4a51 3539 d0d1 a839 9fc8 c138 22ee 3bba
00000060: 10fc 14b9 aeb4 cab9 dbd0 77b8 428a 9ab8
00000070: d5e2 dab8 9b66 1139 5c91 5338 e70a aa39
00000080: 71d0 b1b7 5d41 ecb7 4f49 2e37 a922 113a
00000090: 881d 0ab9 e0e1 07b9 e652 2839 bce9 e938
000000a0: ef6d 99b7 9e41 9236 befd fe38 fd30 d638
000000b0: 1678 8537 b834 fe38 4273 9fb9 1a8c 8e38
000000c0: 8fb7 4fb8 b5c0 6c39 2752 6db7 ae30 b636
000000d0: cfc5 aeb7 0395 5e39 091b 4538 61fe b538
000000e0: f0b7 0338 f9c1 8737 35d2 5638 f605 04b8
000000f0: f13e 8e38 562a 1739 2795 b138 6d78 b335
00000100: a8af a33e 9f53 b7be 8b1c 0cbd 8b0d 083e
00000110: 3d99 b8ba 9aa1 d33d ed00 833e ff49 abbe
00000120: c101 9a3e ad5c c5bd a5a8 7a3e 220d 613d
00000130: 2104 adbd d83e 10be be44 5f3d 7071 e03e
00000140: f675 f0bb 6feb 2e3c a76d 39be 6ac5 833d
00000150: 953c 1dbe 7201 56bd a79b 19be e5c5 dcbd
00000160: 5946 6ebd a329 d53c 3976 9dbe 4981 f9bb
00000170: 6988 72bd 0a63 bebc 8696 a23c 5da9 b0be
00000180: 6b88 b83d fa1d 01be 8633 aabc cce9 1b3e
00000190: 1d22 5a3e 72f8 643d f64c cebd bb1a e13d
000001a0: 90ca 9f3d 2c4c 2d3d 35e8 b5bd c97c 96bd
000001b0: 461b 8cbd 4aa5 953c 5a46 073e 6e98 f1bd
000001c0: 2be1 453d 95e9 04bd 368f 3ebe 62b6 a33c
000001d0: 7f72 32bd ee92 24bd 5d92 73bd 6072 fbbd
000001e0: b00f 913d c604 f7bd cc82 e9bd 82d4 a2bd
000001f0: c9a9 96bd 4128 7b3d be48 cc3b caf4 a73b
00000200: 6006 8932 537b cfb2 a741 3131 f135 e431
00000210: ae11 00b2 0a54 a6b1 45cb 4db2 bdca 86b2
00000220: 7f0c c831 6af1 9bb0 5099 5431 2cf9 6c30
00000230: 0a93 fab0 6791 4cb0 10a8 49b1 5008 7332
00000240: bde8 09b2 7162 9d31 eacc 8eb0 25a3 0ab2
00000250: da05 2e32 5325 1332 a8ca 87b2 b3e1 26b2
00000260: bcd2 c9b1 b691 ddb1 9acd 17b1 5a44 fdb1
00000270: fd12 53b2 dcd1 e7b1 e9c8 13b2 3588 c2b2
00000280: 0fde 27b2 4412 4db2 3dcd 42b2 4357 c0b1
00000290: c21e ed31 7a14 e831 e2b9 b032 16ef 6032
000002a0: ced8 1eb2 b84b bbb1 a75b 5832 855b e5b0
000002b0: 3df2 5eb2 b43f 6db1 3458 0bb2 1dda 8432
000002c0: 15d9 58b2 445d 5832 5681 0732 a5e2 5231
000002d0: 2cd9 b832 8cb8 8032 9a7c 4d32 f0ac 8eb2
000002e0: f6fd acb1 11c4 8131 4c61 ad2e ab8a 3532
000002f0: 320f 03b1 568f 3e32 40f7 8a31 1c66 a6b1
00000300: d1bb d23c 0946 ae3e c819 c03d 85b2 653c
00000310: 44f2 423c 141a 18bc 029b 28bb d813 e33d
00000320: 2ddb 77ba fd46 cf3c 14fc c53c df83 00bd
00000330: 822a 883d 47c6 24bb 4104 b4bc 01d1 4dbc
00000340: a2c5 143d d4fd 4d3d 1bf3 3f3e 01e8 a3bd
00000350: 1c75 163e 92c3 d3bc 5059 d23c e358 5d3d
00000360: 43a7 ecbc 9f62 ba3c 3ff6 dd3d ddd5 c0bc
00000370: 83b6 223d 1843 c83d fe7a 2abd 0ad2 cf3d
00000380: 3089 20be 3ca0 4c3d dcbb 253d 7b72 1bbd
00000390: 334e d03b ba3e 94bd 37ca 8f3c 3418 e2bb
000003a0: 0bd2 8ebd 9ea7 5abd 30cc a33d b938 b9bd
000003b0: 4e2f 9ebc e8f4 323d 6370 b1bc 72d2 743d
000003c0: d1ed b83d 8df5 e23d 3a25 1c39 7d60 893b
000003d0: b3df e13c a5f1 9a3d c0ae bd3d a592 513d
000003e0: b4c6 8dbd 34cc 973c 129a 0e3e 0f6d 6fbd
000003f0: 41e5 0dbd 0039 dd3c 5e25 52bc 5e73 a5bd

conv1.lin_pos_r.bias f4 [32]
-0.03860038 0.01802421 -0.009095221 0.03910403 0.114785396 0.13275214 0.008092978 -0.0002727621
0.056442667 0.028549718 0.024502046 -0.039199598 -0.022906614 -0.026407916 -0.044698086 0.022741145
-0.055359546 -0.017148292 -0.019150019 -0.07634232 -0.06494906 0.018610643 -0.014716027 0.048400927
-0.052484214 0.0047340454 -0.0008438563 -0.03596811 -0.024101773 0.09709073 0.014521803 -0.04891538
00000000: 6f1b 1ebd 82a7 933c 1f04 15bc 8c2b 203d
00000010: 9b14 eb3d 2df0 073e 6998 043c 8201 8fb9
00000020: 6d30 673d 19e1 e93c 84b8 c83c c28f 20bd
00000030: a7a6 bbbc 6a55 d8bc 5715 37bd a34b ba3c
00000040: b1c0 62bd 937a 8cbc 80e0 9cbc 5d59 9cbd
00000050: 0304 85bd 5975 983c 7e1b 71bc 0d40 463d
00000060: b0f9 56bd 0d20 9b3b 3d36 5dba 4c53 13bd
00000070: 1571 c5bc 81d7 c63d dbec 6d3c 7e5b 48bd

conv1.lin_neg_l.weight f4 [32, 64]
3.324831e-09 3.210521e-09 -2.2654885e-09 -6.4858128e-09 -1.1960303e-08 1.1116021e-09 -7.8813756e-09 9.688322e-09
2.9064369e-09 -5.8832357e-09 1.4741415e-09 -3.4231742e-10 2.0003206e-09 -1.1449569e-08 2.0296056e-09 1.08489955e-08
1.1378241e-08 -1.1763416e-09 1.9703272e-08 2.7632434e-09 -1.5039896e-08 -7.763106e-09 2.7152842e-09 1.6059918e-08
5.4759424e-09 -1.2203891e-08 -1.530309e-09 1.3958794e-08 -1.0748693e-08 2.068208e-09 -6.200038e-09 3.6272132e-09
1.4531767e-09 -9.5113935e-09 -5.981794e-09 -5.338078e-09 -3.3769183e-09 7.808292e-09 1.11876535e-08 -1.522736e-08
8.181245e-09 -1.2832846e-08 6.856896e-09 3.4082221e-09 -7.467355e-09 1.09257825e-10 1.2341761e-08 1.7577758e-08
-1.924811e-09 -9.547333e-09 1.8782563e-08 6.87885e-10 1.1294002e-08 -3.0977986e-08 1.1507487e-08 2.2076094e-09
6.2771384e-09 5.0970095e-09 5.977054e-09 5.6462848e-09 -2.0028277e-09 2.1618802e-09 -1.0058727e-08 -8.7267654e-10
0.0053757187 -0.05448552 0.04746804 0.023389198 0.021472178 -0.004313514 0.04330733 -0.017986497
0.013025564 0.061267797 -0.018435892 0.04067978 -0.048832666 -0.008731388 -0.025639076 0.123135366
-0.08265817 0.0053758193 -0.082006365 0.035116285 -0.034011044 0.0034426372 -0.0055864463 -0.09945165
-0.05866258 -0.0068531893 -0.060009573 -0.033394817 0.048783474 -0.03111715 -0.024739955 -0.03814084
0.03579378 0.030684175 -0.042099543 0.006540274 0.10265956 0.06259578 -0.03663898 -0.017249424
0.0018816064 0.027192265 -0.024314364 -0.035407893 0.021251021 -0.05921146 -0.049703646 0.004592982
-0.082790606 -0.07813701 0.014278471 -0.010149197 0.045600034 0.025372712 -0.02887981 -0.011964071
-0.07141405 -0.02784764 0.007846821 0.011335763 -0.0064733685 -0.03367068 -0.09854587 0.070379846
0.035308022 -0.60879683 -0.21820824 -0.063552044 0.019544331 0.04436151 0.1422168 -0.26137823
0.2377435 -0.06338568 0.116317004 -0.01566518 0.046911087 -0.11355277 0.098478496 -0.33453402
0.018616067 0.19616294 0.13340572 -0.009799977 0.13866372 0.030196266 -0.17055771 0.16276099
-0.21835192 0.12050118 0.08931529 -0.14797215 -0.080688745 0.17315872 -0.003704004 -0.10150457
-0.18230271 0.05478579 0.113178626 -0.19273616 0.005159603 -0.2799978 0.036888916 -0.055211954
-0.28581506 0.10516908 -0.0038302012 -0.23447722 0.13890444 0.10988855 0.14107533 -0.1266646
0.08153072 0.20766711 0.004892005 0.05344331 -0.1446631 0.010718368 -0.17249963 -0.109500356
-0.09589867 -0.13552894 0.0025099067 -0.0072991685 0.07149596 0.030824715 -0.054008126 -0.112803616
0.037765685 -0.17123023 -0.061541487 -0.10955336 -0.016850883 0.010022465 0.027418774 -0.12448197
0.061147556 0.0047476827 -0.060831282 0.012502183 0.0449661 -0.114450805 0.044100985 0.06696117
-0.0027472584 0.02163854 0.0046103164 -0.030697608 0.015289857 0.021563776 0.012769146 0.016655153
0.060987815 0.017362026 0.066880114 0.039055496 -0.029970868 -0.061542045 -0.011274757 -0.10478902
-0.043730725 -0.023565123 0.0014077548 0.013017172 -0.047717966 -0.055267837 0.04501712 0.011082549
-0.10175146 -0.036397178 -0.0009518644 -0.035786636 0.07564985 -0.016215835 0.030998942 0.014987522
0.004140056 0.054985892 -0.014063617 -0.06751814 -0.04285118 0.024478352 0.050886244 -0.058400914
-0.009966068 -0.009627455 0.032362107 -0.04699764 -0.0005308126 0.0131564345 -0.022098124 0.030535266
00000000: 0c7b 6431 15a0 5c31 e5ae 1bb1 d0d9 deb1
00000010: f879 4db2 06c7 9830 a866 07b2 b171 2632
00000020: 94ba 4731 7d25 cab1 be9a ca30 e530 bcaf
00000030: 0376 0931 bdb3 44b2 3379 0b31 6362 3a32
00000040: 087a 4332 d7ac a1b0 f43f a932 7ee3 3d31
00000050: 1531 81b2 805e 05b2 c997 3a31 22f4 8932
00000060: e626 bc31 48a9 51b2 f652 d2b0 6dcf 6f32
00000070: 40a9 38b2 4d20 0e31 1c08 d5b1 9c42 7931
00000080: 1cb9 c730 8d67 23b2 6b88 cdb1 3b6a b7b1
00000090: 600f 68b1 3b25 0632 d233 4032 52cd 82b2
000000a0: 7f8d 0c32 7477 5cb2 e599 eb31 1436 6a31
000000b0: c649 00b2 b042 f02e a407 5432 e6fd 9632
000000c0: a245 04b1 9d05 24b2 4b57 a132 9b15 3d30
000000d0: 8c07 4232 a80c 05b3 77b2 4532 adb4 1731
000000e0: 4bae d731 c521 af31 b95e cd31 3f01 c231
000000f0: 1ea2 09b1 3390 1431 c0ce 2cb2 27e1 6fb0
00000100: cc26 b03b 352c 5fbd d96d 423d b49a bf3c
00000110: 6ce6 af3c 6158 8dbb 0763 313d 6b58 93bc
00000120: 2d69 553c f1f3 7a3d de06 97bc d79f 263d
00000130: c304 48bd 180e 0fbc 0a09 d2bc 652e fc3d
00000140: b048 a9bd a427 b03b f4f2 a7bd 18d6 0f3d
00000150: 2a4f 0bbd de9d 613b 820e b7bb 4fad cbbd
00000160: 2c48 70bd b890 e0bb 99cc 75bd 01c9 08bd
00000170: 2ed1 473d 65e9 febc 72ab cabc 9239 1cbd
00000180: 809c 123d 615d fb3c 9270 2cbd cb4f d63b
00000190: 2d3f d23d 3732 803d c112 16bd aa4e 8dbc
000001a0: 3ca0 f63a 50c2 de3c eb2e c7bc de07 11bd
000001b0: 9f16 ae3c b787 72bd 0d96 4bbd ba80 963b
000001c0: 1f8e a9bd 4c06 a0bd 3ff0 693c d148 26bc
000001d0: 1ac7 3a3d 6fda cf3c 5a95 ecbc f304 44bc
000001e0: 8841 92bd bc20 e4bc f48f 003c a3b9 393c
000001f0: 8d1e d4bb 44ea 09bd 6bd2 c9bd 4f23 903d
00000200: 259f 103d 1cda 1bbf fb71 5fbe 9327 82bd
00000210: 6f1b a03c 6ab4 353d 48a1 113e 5ed3 85be
00000220: 0873 733e 5ad0 81bd 9c37 ee3d 4354 80bc
00000230: d725 403d 5b8e e8bd 18af c93d 0b48 abbe
00000240: b980 983c f0de 483e 829b 083e 1590 20bc
00000250: ddfd 0d3e 295e f73c aea6 2ebe d1aa 263e
00000260: a597 5fbe 53c9 f63d efea b63d 0386 17be
00000270: 2440 a5bd 8550 313e e0be 72bb a1e1 cfbd
00000280: 90ad 3abe 1167 603d 32ca e73d a15c 45be
00000290: e311 a93b df5b 8fbe d518 173d ee25 62bd
000002a0: 5a56 92be e362 d73d 1d04 7bbb cc1a 70be
000002b0: f73c 0e3e 400d e13d 0d76 103e 5db4 01be
000002c0: 94f9 a63d b0a6 543e 1d4d a03b 5fe7 5a3d
000002d0: 9022 14be 189c 2f3c bea3 30be b941 e0bd
000002e0: 8666 c4bd 19c8 0abe 3f7d 243b dd2d efbb
000002f0: 796c 923d 1d84 fc3c a037 5dbd 9505 e7bd
00000300: 31b0 1a3d fa56 2fbe ed12 7cbd 835d e0bd
00000310: dd0a 8abc 4435 243c 569d e03c 67f0 febd
00000320: dc75 7a3d 7392 9b3b 392a 79bd f5d5 4c3c
00000330: 602e 383d 2f65 eabd 3ca3 343d f022 893d
00000340: 590b 34bb 4f43 b13c 2312 973b 8d79 fbbc
00000350: 4f82 7a3c 84a6 b03c ae35 513c 6370 883c
00000360: 5cce 793d cf3a 8e3c 71f8 883d a8f8 1f3d
00000370: 7785 f5bc 8313 7cbd c2b9 38bc a09b d6bd
00000380: fd1e 33bd a50b c1bc 6a84 b83a fa45 553c
00000390: ea73 43bd 8760 62bd df63 383d 9493 353c
000003a0: 1263 d0bd 3515 15bd 8a86 79ba 0295 12bd
000003b0: 4fee 9a3d 12d7 84bc 7ef1 fd3c 398e 753c
000003c0: 4fa9 873b e338 613d 166b 66bc f346 8abd
000003d0: b884 2fbd d386 c83c 186e 503d cc35 6fbd
000003e0: b848 23bc 79bc 1dbc 218e 043d 9980 40bd
000003f0: 3b26 0bba 168e 573c 2007 b5bc 1825 fa3c

conv1.lin_neg_r.weight f4 [32, 64]
-3.042294e-09 -8.963768e-09 -6.371622e-09 -7.819165e-09 2.3790547e-09 1.015262e-08 -1.7257472e-08 1.2629029e-08
-3.879244e-09 8.597309e-09 -7.039997e-09 9.2156744e-09 3.4516117e-09 -5.370447e-11 -5.3076055e-09 -2.2279751e-08
-4.149643e-09 -6.319845e-09 -8.1521373e-10 -4.3838146e-09 4.0764467e-09 3.6011267e-09 9.6052535e-09 -6.9714896e-09
-5.0777347e-09 -6.303456e-09 -1.6113127e-08 5.8881744e-09 1.2876765e-08 -3.9354893e-09 -1.1167446e-08 -1.9504596e-09
-4.799114e-09 9.930706e-10 9.337224e-09 -6.142119e-09 -6.196542e-09 1.2219812e-09 3.7677916e-10 -8.4708365e-09
-1.2916121e-08 -1.6281398e-08 -1.17964065e-08 1.275229e-08 8.553748e-09 -1.2853232e-08 -5.2773963e-09 -4.3371036e-09
9.51228e-09 1.1672017e-08 8.748598e-09 -5.2551243e-09 -1.371363e-09 1.107858e-08 -9.487126e-09 -1.1720124e-08
1.2241141e-08 4.2439936e-09 -4.9759445e-09 -1.0001562e-08 -9.546919e-10 -1.237853e-08 -2.2852753e-09 -6.5920394e-09
-0.054000482 -0.36303756 -0.2795482 -0.03192717 -0.018674685 -0.014353901 -0.09465311 0.04764349
-0.10436285 -0.023984447 -0.08016718 -0.032415457 0.12881376 -0.113280155 0.044614945 -0.07507395
0.09596709 0.0068751317 -0.09619252 0.080112346 -0.07195854 -0.033839505 0.0029493286 -0.0808209
0.1270746 -0.13465422 0.099656984 0.015027982 0.052956942 0.0010039592 -0.022655232 -0.03564958
-0.011708185 0.029191932 0.0057186186 0.09427185 -0.010368263 0.05133836 -0.010942139 0.021168554
0.01652957 -0.021353286 -0.012654062 -0.13865612 0.006168461 -0.024384554 0.12938827 -0.09106897
0.09692774 -0.10631329 -0.09225101 0.07678776 -0.12769024 0.007172577 -0.116948105 0.02772757
0.08909681 -0.026923876 -0.10275962 0.015033277 0.0047670174 0.03967126 -0.00030177375 0.018543184
-0.036271736 0.3565311 0.043973085 0.17793702 -0.0031563994 -0.06336992 0.02020457 0.03354857
0.018911345 0.0313275 0.10614813 0.042157777 -0.17256829 0.017650023 -0.012686797 0.014776603
-0.036861673 0.055197716 0.092037 0.099499375 0.0556401 -0.03694142 -0.05428621 0.09641502
-0.15129538 -0.07785737 0.052711107 -0.06388805 -0.038288437 0.064377256 0.021570258 0.084440865
-0.059772152 -0.10985306 0.0089823725 -0.036164477 -0.1122491 0.036505867 -0.00046439897 -0.011781932
-0.10660553 -0.090347394 -0.009427315 0.004898493 0.024580108 0.017080067 -0.1210673 -0.047818724
0.10511995 -0.030279402 -0.0750461 0.11982315 -0.008839558 -0.02600121 -0.15261601 0.10103484
0.08429773 0.08883399 -0.17235361 0.028911194 0.009955161 0.0036564404 0.011981158 0.045726236
-0.09546355 -0.30715573 -0.25218806 0.15535116 -0.010439298 -0.06441767 -0.09888057 0.2159762
0.007397942 0.052983128 0.05215563 -0.032396927 -0.061912354 0.17955132 -0.09445498 0.09986781
0.024396012 -0.04235203 -0.035017192 0.066271655 -0.029394414 -0.08195681 -0.01240329 -0.07402367
0.058682933 -0.13810892 0.032564424 0.0050136587 -0.008416969 0.0031169804 0.04197961 0.00031219175
-0.033179026 -0.11061944 -0.025357105 0.037937284 0.038418308 0.0028261074 -0.0066908128 0.049087636
0.09069999 -0.049730644 0.06603782 0.026661063 -0.013479571 0.11718961 0.013875341 0.04131916
-0.025425164 -0.07446006 0.07580957 -0.010197808 0.09357021 -0.04648589 -0.10059645 -0.0005331169
-0.07169892 -0.10713781 -0.09922439 0.046885494 -0.08890819 0.015760716 -0.0055048573 0.0026332375
00000000: 9a10 51b1 12ff 19b2 61ed dab1 0d55 06b2
00000010: c67c 2331 b26b 2e32 953d 94b2 0ff7 5832
00000020: 314a 85b1 5db3 1332 78e4 f1b1 f752 1e32
00000030: 6531 6d31 dc31 6cae 315e b6b1 b161 bfb2
00000040: a594 8eb1 f225 d9b1 9115 60b0 71a0 96b1
00000050: ce10 8c31 b177 7731 5a04 2532 df89 efb1
00000060: 3a78 aeb1 c995 d8b1 2469 8ab2 ee50 ca31
00000070: 9d38 5d32 ee38 87b1 f2da 3fb2 d908 06b1
00000080: 74e5 a4b1 917c 8830 8c69 2032 a60a d3b1
00000090: 5ce9 d4b1 a4f2 a730 f422 cf2f 2287 11b2
000000a0: b3e5 5db2 2cdb 8bb2 25a9 4ab2 2a15 5b32
000000b0: c8f3 1232 1dd1 5cb2 7854 b5b1 9105 95b1
000000c0: 736b 2332 1386 4832 be4c 1632 9090 b4b1
000000d0: 8c7a bcb0 1c54 3e32 d2fc 22b2 a759 49b2
000000e0: 1c4d 5232 90d2 9131 dff8 aab1 56d3 2bb2
000000f0: 3c36 83b0 5aa9 54b2 fd0a 1db1 3180 e2b1
00000100: 9c2f 5dbd 0fe0 b9be f120 8fbe 10c6 02bd
00000110: a7fb 98bc a02c 6bbc 7dd9 c1bd d225 433d
00000120: 31bc d5bd 087b c4bc b12e a4bd 12c6 04bd
00000130: c1e7 033e 6dff e7bd 29be 363d 5fc0 99bd
00000140: 658a c43d c948 e13b 9500 c5bd f111 a43d
00000150: 005f 93bd 4b9b 0abd 8649 413b 6e85 a5bd
00000160: d81f 023e cce2 09be f618 cc3d ed37 763c
00000170: 61e9 583d 4897 833a 7797 b9bc 4b05 12bd
00000180: b0d3 3fbc eb23 ef3c 4063 bb3b 9a11 c13d
00000190: a6df 29bc 2c48 523d a846 33bc ad69 ad3c
000001a0: 0569 873c 16ed aebc fc52 4fbc dffb 0dbe
000001b0: cd20 ca3b 1ec2 c7bc 5c7e 043e 5e82 babd
000001c0: 0d82 c63d c8ba d9bd 19ee bcbd e742 9d3d
000001d0: 3bc1 02be f007 eb3b 7d82 efbd ee24 e33c
000001e0: 6378 b63d 768f dcbc a373 d2bd 224e 763c
000001f0: a434 9c3b 557e 223d 6337 9eb9 e0e7 973c
00000200: ac91 14bd 3f8b b63e 1f1d 343d 1f35 363e
00000210: 98db 4ebb 17c8 81bd 0e84 a53c 3a6a 093d
00000220: f7eb 9a3c 4451 003d 3164 d93d a2ad 2c3d
00000230: beb5 30be c896 903c 49dc 4fbc 9119 723c
00000240: 44fc 16bd 0017 623d e57d bc3d 54c6 cb3d
00000250: e0e6 633d e34f 17bd 385b 5ebd 3d75 c53d
00000260: 2ded 1abe af73 9fbd 9ae7 573d bdd7 82bd
00000270: 56d4 1cbd 39d8 833d 1cb4 b03c 55ef ac3d
00000280: a5d3 74bd a4fa e0bd cd2a 133c 3421 14bd
00000290: dbe2 e5bd 2d87 153d 937a f3b9 0109 41bc
000002a0: 0054 dabd 0e08 b9bd 0675 1abc 8a83 a03b
000002b0: 395c c93c 7feb 8b3c 22f2 f7bd 91dd 43bd
000002c0: 2149 d73d 820c f8bc c5b1 99bd d765 f53d
000002d0: cbd3 10bc 7d00 d5bc 5f47 1cbe 5beb ce3d
000002e0: 4aa4 ac3d 98ee b53d 777d 30be 2bd7 ec3c
000002f0: f91a 233c e4a0 6f3b 9e4c 443c 6f4b 3b3d
00000300: 6582 c3bd 8443 9dbe cb1e 81be 6014 1f3e
00000310: 9709 2bbc 69ed 83bd e581 cabd dd28 5d3e
00000320: 6f6a f23b d604 593d 24a1 553d a4b2 04bd
00000330: cf97 7dbd 4ddc 373e 9d71 c1bd 7f87 cc3d
00000340: 25da c73c 5279 2dbd 306e 0fbd 6fb9 873d
00000350: 8ecc f0bc f9d8 a7bd 2b37 4bbc b999 97bd
00000360: 845d 703d 6d6c 0dbe 4662 053d 9e49 a43b
00000370: 54e7 09bc 4146 4c3b d0f2 2b3d abad a339
00000380: bbe6 07bd 728c e2bd b4b9 cfbc 2064 1b3d
00000390: 845c 1d3d 3736 393b 9b3e dbbb 1e10 493d
000003a0: ebc0 b93d 5cb2 4bbd d63e 873d 4d68 da3c
000003b0: 6bd9 5cbc 1b01 f03d 6655 633c 483e 293d
000003c0: 6f48 d0bc 847e 98bd 0c42 9b3d b514 27bc
000003d0: bda1 bf3d fd67 3ebd 8305 cebd dfc0 0bba
000003e0: e2d6 92bd 116b dbbd 2836 cbbd 010b 403d
000003f0: 7f15 b6bd 9e1c 813c 1762 b4bb 6592 2c3b

conv1.lin_neg_r.bias f4 [32]
-0.0008770239 0.076031655 0.008708315 0.0857084 -0.056682285 0.0071234833 -0.055831417 0.028586252
0.12900507 0.010538391 0.048554324 0.036121424 -0.009988971 -0.0009485943 0.0073974575 0.033915617
-0.025501512 -9.497943e-06 -0.03231721 0.023258418 -0.0017533244 -0.012965086 0.0077916346 0.0066580824
-1.4381145e-05 -0.00495905 0.039598122 -0.020351943 0.0019702646 -0.07038037 6.60817e-05 -0.0077713607
00000000: 14e8 65ba 7cb6 9b3d 52ad 0e3c e387 af3d
00000010: af2b 68bd 1c6c e93b 7caf 64bd b72d ea3c
00000020: e819 043e 37a9 2c3c e6e0 463d 0ff4 133d
00000030: c8a8 23bc 16ab 78ba 5f66 f23b 1aeb 0a3d
00000040: 8ce8 d0bc 5b59 1fb7 0d5f 04bd 7088 be3c
00000050: cecf e5ba 836b 54bc f850 ff3b 0b2c da3b
00000060: 8c46 71b7 877f a2bb a431 223d 1eb9 a6bc
00000070: 8e1f 013b 9523 90bd 5895 8a38 e6a6 febb

convs.0.lin_pos_l.weight f4 [32, 64]
-0.000992334 0.0008998821 -1.15454455e-08 0.054655634 0.13435298 0.039159693 0.04132241 0.00015078491
0.1011342 0.040763434 0.031845704 1.3140938e-08 -2.3932829e-08 -6.6309745e-05 -0.0027187031 -0.0068679475
-1.2360584e-06 -1.456851e-08 -1.0025522e-05 -2.2363487e-05 -5.488531e-06 -0.0032836962 -3.2926035e-09 0.10177482
7.841024e-05 -0.07814223 -6.7811766e-06 -0.0012532693 -7.7733535e-09 -0.022542603 -0.048601408 -7.537208e-10
6.097961e-09 0.10812474 0.07400729 0.024422165 4.3592215e-07 -0.088544756 -3.2948395e-07 0.064288676
0.01427225 -0.11709006 0.039124645 0.008105158 -8.786382e-05 -0.00032196462 0.021765403 0.030911546
0.0001652619 -9.9774624e-08 2.2031411e-08 0.0069968505 1.4872684e-06 3.125161e-05 0.05957919 -0.07981924
1.4553187e-07 -5.630511e-09 0.032300115 0.00027509936 0.07167348 0.0045526694 0.04404577 -2.6330542e-07
0.00021296444 0.057022218 1.7611844e-08 -0.10033369 -0.12143937 -0.040850323 0.03200724 0.00012834286
-0.080271326 0.02451411 0.021581888 -1.3209239e-08 2.0948765e-10 -7.0232716e-08 2.601358e-06 -0.037409645
4.282753e-09 -1.3524659e-09 8.680036e-06 1.9811687e-05 5.840167e-08 -0.010405556 1.25301085e-08 -0.117510125
0.0005565573 -0.04087821 -3.54754e-06 -6.599679e-06 -1.1500741e-08 0.027624507 0.033360768 -1.4556692e-08
1.7616678e-08 -0.05591185 0.010740385 0.07656797 -4.8210213e-06 0.14912423 3.925679e-06 -0.08457621
0.07428588 0.12194626 0.17062567 -0.12105518 0.00010353843 0.00046295518 -0.13300893 -0.1503183
-0.00026363495 2.9781893e-09 -5.764972e-10 -0.0484273 2.4926004e-07 5.4170872e-05 0.0390229 -0.005005094
-7.347489e-07 -1.8297167e-10 0.069218434 0.0005146249 -0.020202238 -0.007690921 -0.08091443 -3.2431134e-07
-2.232491e-09 -8.048469e-05 1.1178905e-08 -0.0006024326 0.00047097832 -0.00079038035 -9.162835e-05 3.9127443e-10
0.00042571855 -9.3904506e-05 4.1539206e-05 1.5353185e-08 -3.3218757e-09 -1.773508e-08 7.976543e-09 9.91049e-05
-2.73065e-09 -6.603353e-09 8.717411e-09 -5.9949405e-09 -1.0028885e-08 0.00016660796 8.2710025e-09 -0.00030560218
-1.36359315e-08 -7.4060124e-05 -2.2127469e-10 -3.9269663e-09 1.382923e-08 -0.00071356643 7.462047e-05 1.1238364e-08
-3.0586145e-09 0.00033745458 -1.3390105e-05 -0.00047133447 -9.420152e-09 -0.00033112933 -7.566751e-09 -0.00025778092
-0.000907106 -5.722708e-05 -0.00024688075 0.00017644449 -9.8759445e-09 1.3655049e-09 -0.00028328993 0.00053055637
3.812134e-09 -3.2177099e-09 -6.7405463e-09 -0.00015641912 7.093386e-09 -6.1082517e-09 -9.088809e-05 -0.00015806401
-3.0375347e-09 -4.472717e-09 -0.0003561389 1.2221804e-08 -6.8811554e-05 6.807964e-10 5.029193e-05 6.2337278e-09
2.1453126e-09 1.4811743e-08 -1.2736777e-09 1.2283681e-08 -8.771911e-09 -7.493253e-09 6.6106476e-09 8.286882e-09
1.4392894e-08 9.011373e-09 -1.8076332e-08 -8.318669e-09 5.4297393e-09 -1.7280415e-08 -3.900275e-09 1.6682547e-08
1.5760833e-08 -2.557139e-09 7.389129e-09 9.929177e-09 1.5204561e-08 -3.2800345e-09 -8.75609e-09 -2.8364394e-08
-1.0453537e-09 -8.2658413e-10 1.2736893e-09 1.0452921e-09 -4.462024e-09 -1.5838802e-08 5.5479443e-09 -1.3476089e-09
-1.7388192e-08 -2.1269491e-08 2.488002e-08 1.6804824e-08 1.0382254e-09 9.989878e-09 -2.1006807e-09 9.633336e-09
1.3442327e-09 1.8964557e-09 -8.919905e-09 -1.705304e-08 -9.0711844e-10 -1.2872739e-08 1.0677442e-08 6.4511014e-09
4.3623847e-09 -7.855426e-09 -3.6025618e-09 6.274958e-09 8.653618e-10 -2.044225e-10 1.0396214e-09 7.905905e-09
9.631917e-10 1.4027561e-09 -3.0196215e-08 9.2216446e-10 4.2241295e-09 1.3054259e-08 -1.971231e-08 3.2858825e-09
00000000: 3411 82ba 11e6 6b3a 6859 46b2 96de 5f3d
00000010: d493 093e ea65 203d b041 293d 041c 1e39
00000020: 731f cf3d 8ff7 263d a470 023d 75c2 6132
00000030: d994 cdb2 c60f 8bb8 452c 32bb 850c e1bb
00000040: a5e6 a5b5 fc48 7ab2 4a33 28b7 3999 bbb7
00000050: 1f2a b8b6 4833 57bb 1844 62b1 516f d03d
00000060: 2d70 a438 0909 a0bd dd89 e3b6 bd44 a4ba
00000070: 928b 05b2 44ab b8bc 4512 47bd 632e 4fb0
00000080: 3b86 d131 8170 dd3d 2291 973d fe10 c83c
00000090: af08 ea34 f456 b5bd eee3 b0b4 c8a9 833d
000000a0: 28d6 693c eacc efbd 2a41 203d 7fcb 043c
000000b0: 8743 b8b8 5ccd a8b9 5c4d b23c 363a fd3c
000000c0: 274a 2d39 ae43 d6b3 963f bd32 d645 e53b
000000d0: 279e c735 2914 0338 4f09 743d 4578 a3bd
000000e0: 7f43 1c34 8076 c1b1 204d 043d 363b 9039
000000f0: 8cc9 923d 8f2e 953b 5669 343d 6c5c 8db4
00000100: 354f 5f39 2190 693d db48 9732 c07b cdbd
00000110: 34b5 f8bd ab52 27bd 061a 033d c693 0639
00000120: 4b65 a4bd d1d1 c83c 80cc b03c d9ee 62b2
00000130: 8855 662f d8d2 96b3 fd92 2e36 db3a 19bd
00000140: 7e27 9331 aae1 b9b0 79a0 1137 4631 a637
00000150: 51d5 7a33 117c 2abc 0044 5732 26a9 f0bd
00000160: eee5 113a e96f 27bd 4612 6eb6 d072 ddb6
00000170: cb94 45b2 ca4c e23c 4da5 083d 0215 7ab2
00000180: 7c53 9732 d303 65bd 71f8 2f3c abcf 9c3d
00000190: 42c4 a1b6 06b4 183e 53b9 8336 4b36 adbd
000001a0: 3223 983d f6be f93d 7fb8 2e3e c7eb f7bd
000001b0: c522 d938 cbb8 f239 7e33 08be 0aed 19be
000001c0: 7c38 8ab9 dca8 4c31 6277 1eb0 b45b 46bd
000001d0: 0ad2 8534 8835 6338 7ad6 1f3d c601 a4bb
000001e0: 8f3b 45b5 f22d 49af 65c2 8d3d e4e7 063a
000001f0: 2a7f a5bc 1f04 fcbb 77b6 a5bd 031d aeb4
00000200: 666a 19b1 e4c9 a8b8 580d 4032 91ec 1dba
00000210: a4ed f639 8731 4fba 9928 c0b8 fb1a d72f
00000220: fa32 df39 99ee c4b8 623a 2e38 03e2 8332
00000230: 0e47 64b1 da57 98b2 3509 0932 8ad6 cf38
00000240: 1aa6 3bb1 b5e3 e2b1 94c3 1532 0efc cdb1
00000250: 814b 2cb2 7cb3 2e39 4118 0e32 3b39 a0b9
00000260: 7643 6ab2 ba50 9bb8 4a4b 73af f6ed 86b1
00000270: 9995 6d32 a20e 3bba 8f7d 9c38 d912 4132
00000280: b72f 52b1 63ec b039 10a6 60b7 711d f7b9
00000290: 44d6 21b2 6d9b adb9 ecfe 01b2 c526 87b9
000002a0: daca 6dba 1c07 70b8 c66f 81b9 f503 3939
000002b0: ddaa 29b2 6fac bb30 8886 94b9 0915 0b3a
000002c0: e3fb 8231 8d1e 5db1 799a e7b1 7004 24b9
000002d0: 15ba f331 c0e0 d1b1 2c9b beb8 fcbd 25b9
000002e0: e0bc 50b1 6fae 99b1 27b8 bab9 10f8 5132
000002f0: ec4e 90b8 ca22 3b30 8cf0 5238 7330 d631
00000300: bd6c 1331 bc76 7e32 8d0d afb0 3308 5332
00000310: 46b3 16b2 adbb 00b2 df23 e331 185e 0e32
00000320: 9e44 7732 70d0 1a32 4646 9bb2 e5e9 0eb2
00000330: 7e90 ba31 0970 94b2 2f03 86b1 4f4d 8f32
00000340: 7062 8732 aab9 2fb1 77e3 fd31 fb94 2a32
00000350: 2f9b 8232 fa66 61b1 b16d 16b2 f6a5 f3b2
00000360: 1dac 8fb0 b035 63b0 f50d af30 f2a9 8f30
00000370: 6150 99b1 e50d 88b2 3ca0 be31 c636 b9b0
00000380: 0a5d 95b2 1bb4 b6b2 beb7 d532 335a 9032
00000390: 4fb1 8e30 f39f 2b32 915b 10b1 dc7f 2532
000003a0: fcbf b830 cd52 0231 283e 19b2 087c 92b2
000003b0: c958 79b0 e826 5db2 e36f 3732 7da8 dd31
000003c0: f1e3 9531 87f4 06b2 f090 77b1 1d9b d731
000003d0: 6cde 6d30 d2c3 60af 6de2 8e30 8ad2 0732
000003e0: 4c61 8430 18cb c030 17b1 01b3 8e7b 7d30
000003f0: d623 9131 3d45 6032 d453 a9b2 dbcd 6131

convs.0.lin_pos_r.weight f4 [32, 32]
-0.0019126057 0.38603872 -1.2321718e-08 0.07715668 0.15549472 -0.17092933 0.38036415 -4.5577646e-05
0.23997654 0.12609604 -0.55672324 7.1622275e-10 3.474016e-08 -1.7348238e-08 2.9459182e-09 -0.565015
-3.8249365e-08 6.143708e-09 -1.6573375e-05 1.7130254e-05 6.356012e-09 0.2212586 -5.7805227e-09 0.2842711
0.0007091582 -0.02698454 -1.5978547e-05 9.401191e-10 1.3816551e-09 -0.20483117 -0.69372076 1.3266639e-08
7.0004324e-05 -0.30300117 1.1800612e-08 -0.17618299 -0.1676783 0.16073738 -0.26131687 0.0001795932
-0.20437928 -0.06318169 0.7547844 -1.0587585e-08 -8.7226056e-08 5.5396003e-09 -2.1394651e-08 0.46450907
-5.994301e-08 7.3088486e-09 1.75854e-05 -1.137778e-05 -1.4256892e-08 -0.21501796 -2.1309685e-08 -0.26023394
8.8875306e-05 -0.14636418 8.858567e-06 1.6747055e-08 2.005516e-08 0.18471842 0.6231479 -2.7918466e-08
5.956965e-09 0.0004767415 2.7517986e-08 -0.0015037729 0.0031761588 0.0026858856 0.00035763028 -5.3082303e-09
0.0013261973 -0.0005920983 0.000482548 2.771762e-08 -2.829305e-10 1.6627611e-08 5.6503366e-09 -0.00012347088
-1.0980443e-08 5.479546e-09 1.059102e-08 -7.872237e-09 2.257684e-08 -0.00055059744 1.415507e-08 -0.0008562968
4.612105e-09 0.000117361364 2.3522635e-09 1.9488281e-08 3.0548257e-09 0.0019090573 0.00043225347 -3.973598e-09
-5.3406954e-09 -9.943065e-09 -3.3286165e-10 2.0896515e-08 2.7376537e-09 1.5188666e-08 -2.8315483e-08 -2.003867e-09
2.0345245e-08 -1.5434279e-09 -8.036078e-09 1.5474741e-08 -1.9570868e-08 -1.0274008e-08 -2.2317854e-08 6.8904833e-09
-1.0521868e-08 -1.2494017e-08 -2.532917e-08 4.030539e-09 -2.028009e-09 3.318229e-08 1.1710418e-09 6.8146633e-10
1.3089072e-09 3.0732479e-09 -1.026097e-10 -3.2834837e-09 -2.356681e-08 -2.0577553e-09 -2.1965208e-08 1.5796054e-08
1.502362e-08 4.285728e-06 8.903538e-09 2.1924243e-05 -1.2818554e-05 3.423624e-05 2.9781706e-06 7.5648027e-10
8.217494e-06 1.5886319e-06 -1.2948095e-05 -1.3292669e-08 1.7662976e-09 5.459204e-09 1.106239e-08 1.4103768e-05
6.923042e-10 9.862671e-10 1.7658099e-08 1.1019107e-09 -1.16057794e-08 -7.649279e-06 3.3763161e-09 1.2459789e-05
-1.509758e-08 5.46868e-07 7.1023867e-09 5.5944733e-09 2.658254e-08 -3.625809e-05 2.9664197e-06 -1.3845898e-09
-0.00083152176 -0.12427999 1.5175875e-09 -0.039029337 -0.096040905 0.01871931 -0.007583039 7.5943215e-05
-0.064413406 -0.1293387 0.38562626 2.1720275e-08 -1.8402218e-08 -1.02359525e-08 -1.0723653e-08 0.23571657
-3.3304117e-09 -2.7756705e-08 3.4412313e-08 3.1829131e-06 -5.770691e-09 -0.20289946 -2.6371348e-08 -0.14558685
0.00015645153 0.0111045865 1.2770281e-06 -5.097526e-08 1.3226191e-08 -0.034875117 0.486218 -2.4689394e-08
1.842603e-08 3.0080148e-06 2.782433e-10 2.2709068e-05 -7.762083e-06 -1.8140678e-05 -3.3195258e-06 -7.2063494e-10
-1.1505359e-06 -1.14629265e-05 1.630158e-05 -2.6835456e-09 -3.9232684e-09 -1.6280265e-09 -1.7135664e-08 4.783288e-05
1.070775e-08 -5.823486e-09 -7.930897e-09 1.2994821e-09 1.15055645e-08 -3.4434802e-06 -9.42259e-09 3.433777e-05
1.39631435e-08 -3.28397e-05 1.9552404e-09 1.0425047e-08 1.6227741e-08 -3.2799784e-05 2.5329854e-07 1.0574636e-08
1.871864e-08 0.00017422225 -4.486721e-09 -0.00037185766 0.0031439594 -0.004585906 7.5493e-05 1.8549523e-08
-7.175889e-05 -0.00028327235 8.3610925e-05 -2.2256966e-08 8.285127e-09 6.771509e-10 -1.510363e-08 0.0005267666
-3.925521e-09 8.699035e-09 -1.560449e-08 7.825405e-09 3.8591375e-09 0.00027543397 1.0035948e-08 0.0005765451
9.942197e-10 -0.00026391234 1.7643865e-08 -1.1024313e-08 4.3459663e-09 -0.004117052 0.0011965125 3.494606e-09
00000000: 66b0 faba dea6 c53e 7daf 53b2 5204 9e3d
00000010: 023a 1f3e 1908 2fbe 17bf c23e a02a 3fb8
00000020: 69bc 753e 521f 013e 6a85 0ebf b2df 4430
00000030: 3635 1533 2e05 95b2 2471 4a31 d3a4 10bf
00000040: 9f47 24b3 a118 d331 0d07 8bb7 f1b2 8f37
00000050: 1364 da31 9d91 623e 049e c6b1 fb8b 913e
00000060: cde6 393a af0e ddbc ab09 86b7 8035 8130
00000070: abe4 bd30 43bf 51be af97 31bf 4ceb 6332
00000080: 49cf 9238 f822 9bbe a4bb 4a32 5069 34be
00000090: dcb3 2bbe 5798 243e 53cb 85be 2f51 3c39
000000a0: cd48 51be 6765 81bd 8d39 413f b1e4 35b2
000000b0: 0851 bbb3 d756 be31 56c7 b7b2 22d4 ed3e
000000c0: 05ba 80b3 5021 fb31 5c84 9337 31e3 3eb7
000000d0: 79ee 74b2 ab2d 5cbe 7e0c b7b2 623d 85be
000000e0: 9162 ba38 7ee0 15be 419f 1437 2adb 8f32
000000f0: c345 ac32 d326 3d3e 9f86 1f3f 5bd1 efb2
00000100: 05ae cc31 29f3 f939 b160 ec32 3f1a c5ba
00000110: 1a27 503b af05 303b 5380 bb39 b063 b6b1
00000120: ccd3 ad3a 0b37 1bba 7ffe fc39 b117 ee32
00000130: ee8a 9baf 81d4 8e32 e324 c231 f677 01b9
00000140: 80a4 3cb2 9946 bc31 ccf3 3532 773e 07b2
00000150: ffee c132 f855 10ba a82e 7332 1b79 60ba
00000160: 8178 9e31 e71f f638 75a5 2131 2f67 a732
00000170: 10ed 5131 5539 fa3a 14a0 e239 2388 88b1
00000180: 4181 b7b1 10d2 2ab2 1dfe b6af ec7f b332
00000190: 5021 3c31 3b78 8232 683a f3b2 67b4 09b1
000001a0: abc3 ae32 8b20 d4b0 0b0f 0ab2 51ed 8432
000001b0: cb1c a8b2 9181 30b2 7bb5 bfb2 55c1 ec31
000001c0: aac3 34b2 45a5 56b2 6f93 d9b2 ff7c 8a31
000001d0: 1d5d 0bb1 5084 0e33 5ff2 a030 ee51 3b30
000001e0: 14e5 b330 2631 5331 20a4 e1ae a8a3 61b1
000001f0: f76f cab2 6a68 0db1 01ae bcb2 e4af 8732
00000200: 4a0d 8132 20ce 8f36 2df6 1832 f4e9 b737
00000210: 450f 57b7 e298 0f38 95dc 4736 91f0 4f30
00000220: dedd 0937 fa38 d535 a53b 59b7 c75d 64b2
00000230: 12c2 f230 ab93 bb31 e80c 3e32 399f 6c37
00000240: 944c 3e30 308d 8730 92ae 9732 0972 9730
00000250: c262 47b2 6755 00b7 c804 6831 630a 5137
00000260: eeaf 81b2 7ccc 1235 4109 f431 8239 c031
00000270: a057 e432 d413 18b8 b412 4736 ec4b beb0
00000280: 7bfa 59ba 8286 febd 5d93 d030 3add 1fbd
00000290: 18b1 c4bd 3d59 993c 247b f8bb b443 9f38
000002a0: 2deb 83bd 5d71 04be ce70 c53e 6493 ba32
000002b0: e812 9eb2 32da 2fb2 203b 38b2 af5f 713e
000002c0: 39dd 64b1 a46d eeb2 bdcc 1333 089a 5536
000002d0: 8947 c6b1 e0c4 4fbe 3587 e2b2 b814 15be
000002e0: 230d 2439 03f0 353c 5a66 ab35 e4ef 5ab3
000002f0: 6739 6332 36d9 0ebd 91f1 f83e 8d14 d4b2
00000300: 4547 9e32 4ddd 4936 43f7 982f 5a7f be37
00000310: e539 02b7 cf2c 98b7 05c5 5eb6 2d16 46b0
00000320: 1d6c 9ab5 e550 40b7 60bf 8837 6f69 38b1
00000330: 6fcd 86b1 17c1 dfb0 b931 93b2 2aa0 4838
00000340: 2ff5 3732 ed17 c8b1 7440 08b2 7699 b230
00000350: 02aa 4532 8a16 67b6 fde0 21b2 e605 1038
00000360: 8ee2 6f32 5cbd 09b8 f45c 0631 d719 3332
00000370: 2e65 8b32 8092 09b8 16fd 8734 beab 3532
00000380: baca a032 6eaf 3639 9e29 9ab1 e4f5 c2b9
00000390: e30a 4e3b 5e45 96bb ff51 9e38 d556 9f32
000003a0: 437d 96b8 2c84 94b9 4658 af38 962f bfb2
000003b0: 6056 0e32 4222 3a30 3cbd 81b2 b516 0a3a
000003c0: 3fe1 86b1 c372 1532 a30a 86b2 7f70 0632
000003d0: 5599 8431 1f68 9039 916a 2c32 4923 173a
000003e0: ffa4 8830 b75d 8ab9 458f 9732 7165 3db2
000003f0: 8653 9531 56e8 86bb 4cd4 9c3a c225 7031

convs.0.lin_pos_r.bias f4 [32]
0.013169303 0.2887646 -0.0035213989 -0.0032246208 -0.00017441467 0.19141388 -5.656308e-05 -0.012338658
-0.01918597 -0.0010116247 -0.03685092 -4.394659e-05 0.021320567 -0.045339886 -0.03590813 -0.017592758
-0.004241665 -0.0052417023 -0.0478565 0.027081205 -0.05453511 0.13536254 -0.0147243375 0.07813689
-0.023180176 -7.828158e-05 0.01151009 -0.015069027 0.012055381 -0.0012765847 0.07764501 0.004316455
00000000: 0fc4 573c f4d8 933e 45c7 66bb 2954 53bb
00000010: 15e3 36b9 0002 443e 253e 6db8 1528 4abc
00000020: e52b 9dbc 7e98 84ba fef0 16bd 4b53 38b8
00000030: 78a8 ae3c 51b6 39bd 6714 13bd b01e 90bc
00000040: aafd 8abb 96c2 abbb 2d05 44bd 67d9 dd3c
00000050: 3560 5fbd 7a9c 0a3e 593e 71bc 3c06 a03d
00000060: 5ae4 bdbc 1a2b a4b8 d194 3c3c 15e4 76bc
00000070: ef83 453c 1353 a7ba 5904 9f3d 0d71 8d3b

convs.0.lin_neg_l.weight f4 [32, 64]
1.678659e-09 0.029832236 -0.092110604 -0.038558427 4.173387e-09 0.033847637 -8.883143e-09 -0.11907819
0.020151943 0.027288718 -0.048212405 -0.08635883 0.00014175668 0.0008027192 -0.015564292 -0.046015576
-0.00023986152 1.4754169e-06 -3.1436924e-09 0.07018912 -2.0601929e-08 -0.0008807616 -0.047862396 0.075018734
2.8514674e-07 5.6304006e-09 0.0032378691 -1.4174794e-08 0.058574274 0.0008430147 0.07041455 4.252047e-08
0.0041344515 0.21296947 -1.6853958e-09 0.01535033 0.14625132 0.12197567 0.11048347 0.000150605
0.19470416 0.2500633 -0.17387336 4.892205e-09 -2.9136396e-08 2.2910682e-09 7.600691e-09 -0.09802344
-1.1139965e-08 -1.2568663e-09 -5.034686e-06 4.123341e-06 -5.7082505e-10 0.2059781 1.0941423e-08 0.15093318
1.8346947e-05 -0.046884377 -3.3836216e-06 -7.498289e-09 1.1060021e-08 0.14358622 -0.18153247 -8.1157445e-09
-7.899057e-09 1.6488522e-07 3.9062016e-08 -4.6849007e-07 -2.5803728e-09 -2.4465982e-07 3.671138e-09 2.8332894e-07
4.4086303e-07 -2.8723164e-07 2.5350413e-08 -3.1221228e-07 -8.868292e-09 -1.5437521e-08 1.2308016e-07 -2.826003e-07
-1.7568532e-08 3.119234e-12 -1.3628875e-09 6.242622e-08 -6.681081e-09 1.0399863e-08 1.5872521e-07 6.739861e-08
7.503454e-10 4.194302e-09 -1.4173e-07 2.092462e-09 -5.986179e-08 8.801992e-09 -1.2587725e-07 -5.89736e-12
9.1023084e-10 -2.7268806e-08 -1.3874892e-08 -2.46315e-07 3.74564e-07 2.4973576e-07 -3.982733e-09 1.606217e-08
-2.5853322e-07 2.1984684e-07 -2.4669592e-07 -8.006432e-09 -3.419697e-09 -4.592908e-09 1.0324374e-09 3.1137142e-07
1.53425e-09 -1.0540158e-08 -2.305554e-09 1.74471e-10 -1.441926e-08 -6.9928596e-08 1.71095e-09 -1.1170497e-07
-2.235328e-09 -2.7421922e-07 -1.7654948e-08 1.5127216e-09 -5.400121e-09 -2.7078866e-07 -3.1851208e-08 6.117423e-09
2.1145922e-08 -0.026924497 0.002217899 -0.036830973 0.00045575225 -5.241434e-09 -0.0046408097 9.655571e-08
1.4212059e-08 0.0065121166 2.294324e-09 -0.01607517 1.04430535e-08 -7.930773e-09 0.012507218 1.127429e-08
9.900049e-09 -1.1080278e-08 3.2441886e-07 -0.005482109 9.469824e-10 1.1531796e-08 0.0349477 0.0050808513
1.3148235e-09 -5.8720557e-09 -0.012217023 0.033784352 0.004249921 -3.163746e-09 0.0037030275 1.3289906e-08
-8.636752e-09 0.03916459 -9.836268e-09 -1.6341347e-09 1.1473657e-08 7.512575e-09 -0.0012517722 -5.608862e-09
-0.027257228 0.052071698 -0.020413924 -1.0941575e-05 -0.005281188 0.03003371 0.040113587 -0.028093088
-0.010721089 1.2844673e-08 1.1508865e-09 -4.392145e-09 0.00318079 -0.01756499 -1.0951852e-09 0.05368515
1.4276591e-08 3.9216586e-09 7.524926e-09 -0.011901099 2.5003025e-08 4.464398e-08 -0.027586306 1.5093036e-08
-1.1914472e-09 0.11089355 0.038201723 0.3063675 0.0001037049 -0.025389276 -2.74985e-07 0.23146948
0.01640897 -0.22102275 0.17728662 0.31990024 8.560162e-05 -0.00020323056 0.09149423 0.37403196
-1.1447742e-05 1.3670632e-06 8.643997e-10 0.07596881 1.2801204e-06 0.00016888343 -0.16563076 -0.10017165
1.115862e-06 -5.423975e-09 -0.13130048 0.0075293593 -0.14221202 -0.0006460141 -0.115336485 -9.3900105e-08
0.0005765212 0.027646193 5.612734e-09 -0.07617243 -0.041086268 0.0069408356 0.03982808 2.5035934e-05
-0.0037826926 0.027085023 0.12361871 1.517328e-08 -9.827196e-06 -0.0015549568 0.0060212547 0.06749772
-0.00021121356 -1.9058055e-08 3.0828155e-06 1.1114922e-06 0.002248231 0.02445611 2.5375932e-08 -0.03715373
0.00032115573 -0.17308767 -3.138044e-06 -0.017917521 9.861689e-09 -0.051921662 0.17852741 7.3091755e-09
00000000: 90b6 e630 bc62 f43c 7ca4 bcbd 71ef 1dbd
00000010: 8065 8f31 d2a3 0a3d 7a9c 18b2 44df f3bd
00000020: b015 a53c 978c df3c 5f7a 45bd e6dc b0bd
00000030: 85a4 1439 936d 523a 5f01 7fbc d47a 3cbd
00000040: 5683 7bb9 f006 c635 6c08 58b1 50bf 8f3d
00000050: 1ff8 b0b2 e9e2 66ba 5c0b 44bd 6ca3 993d
00000060: 4516 9934 8775 c131 6e32 543b 6785 73b2
00000070: 94eb 6f3d c2fd 5c3a 8135 903d c09f 3633
00000080: 4b7a 873b ab14 5a3e 98a3 e7b0 f37f 7b3c
00000090: e8c2 153e 61ce f93d 2845 e23d b9eb 1d39
000000a0: 8760 473e 4c08 803e dc0b 32be 4a18 a831
000000b0: 9d47 fab2 e670 1d31 3194 0232 83c0 c8bd
000000c0: 1662 3fb2 0dbe acb0 a0ef a8b6 3b5b 8a36
000000d0: 3ee8 1cb0 eceb 523e e3f8 3b32 3a8e 1a3e
000000e0: c5e7 9937 d509 40bd 2d12 63b6 d3d1 00b2
000000f0: 7d02 3e32 4408 133e a6e3 39be 6c6d 0bb2
00000100: 6cb4 07b2 4e0b 3134 24c5 2733 c984 fbb4
00000110: 6652 31b1 ca59 83b4 5847 7c31 6f1c 9834
00000120: c1af ec34 d134 9ab4 26c2 d932 219e a7b4
00000130: 295b 18b2 789b 84b2 0428 0434 4ab8 97b4
00000140: 9ce9 96b2 207f 5b2c 5750 bbb0 2d0f 8633
00000150: 698f e5b1 15ab 3232 0e6e 2a34 c7bc 9033
00000160: dd40 4e30 781d 9031 722e 18b4 fbca 0f31
00000170: 5e8d 80b3 9237 1732 e028 07b4 b27e cfac
00000180: cd33 7a30 bd3c eab2 6c5e 6eb2 473d 84b4
00000190: af17 c934 6c13 8634 7dd8 88b1 16f9 8932
000001a0: 89cc 8ab4 0a0f 6c34 a171 84b4 a98c 09b2
000001b0: f2ff 6ab1 a5cf 9db1 a9e5 8d30 902a a734
000001c0: 9fdd d230 1b14 35b2 bc6f 1eb1 38d5 3f2f
000001d0: 93b8 77b2 a72b 96b3 b426 eb30 75e2 efb3
000001e0: 4e9c 19b1 6738 93b4 a4a7 97b2 29e8 cf30
000001f0: f78b b9b1 e960 91b4 c6cc 08b3 6c31 d231
00000200: 60a4 b532 c390 dcbc 2c5a 113b 13dc 16bd
00000210: 08f2 ee39 2418 b4b1 ef11 98bb 105a cf33
00000220: 4c29 7432 9863 d53b 2daa 1d31 13b0 83bc
00000230: 0969 3332 e93f 08b2 13eb 4c3c dab0 4132
00000240: e014 2a32 945b 3eb2 ca2b ae34 43a3 b3bb
00000250: fb26 8230 601d 4632 5225 0f3d 457d a63b
00000260: 3db5 b430 26c3 c9b1 e929 48bc 7661 0a3d
00000270: ec42 8b3b 3569 59b1 7eae 723b a051 6432
00000280: d660 14b2 0d6b 203d 5dfc 28b2 0198 e0b0
00000290: ad1d 4532 a710 0132 8112 a4ba 12b8 c0b1
000002a0: 8d4a dfbc 2249 553d 1a3b a7bc b591 37b7
000002b0: d10d adbb 4109 f63c 254e 243d 7a23 e6bc
000002c0: 82a7 2fbc 78ab 5c32 382d 9e30 b7e9 96b1
000002d0: cd74 503b 74e4 8fbc 6785 96b0 f6e4 5b3d
000002e0: 1c45 7532 46bf 8631 f946 0132 d4fc 42bc
000002f0: 3cc6 d632 93be 3f33 adfc e1bc f0a5 8132
00000300: 52c0 a3b0 281c e33d 6979 1c3d 33dc 9c3e
00000310: 257c d938 2cfd cfbc a7a1 93b4 5606 6d3e
00000320: 1b6c 863c ca53 62be a08a 353e f7c9 a33e
00000330: 0585 b338 4a1a 55b9 5461 bb3d 1e81 bf3e
00000340: ad0f 40b7 ef7b b735 b99a 6d30 8995 9b3d
00000350: 9ad0 ab35 4d16 3139 1c9b 29be cb26 cdbd
00000360: bac4 9535 ca5d bab1 a273 06be d8b8 f63b
00000370: 07a0 11be 4659 29ba 8935 ecbd 21a6 c9b3
00000380: af21 173a 457a e23c 21da c031 4a00 9cbd
00000390: 134a 28bd f36f e33b c522 233d 4204 d237
000003a0: 0de7 77bb 69e1 dd3c ce2b fd3d 6556 8232
000003b0: 7cdf 24b7 b1cf cbba f24d c53b 3f3c 8a3d
000003c0: 3579 5db9 1bb5 a3b2 5ee2 4e36 952e 9535
000003d0: 0f57 133b 2e58 c83c 44fa d932 822e 18bd
000003e0: cb60 a839 e53d 31be 2f97 52b6 c4c7 92bc
000003f0: 2b6c 2932 cfab 54bd e4cf 363e 3024 fb31
