Epinions/models/Epinions-train-2.pt (torch, 63739 bytes, 14 tensors)

conv1.lin_pos_l.weight f4 [32, 64]
3.3726685e-08 -2.53741e-07 -9.8789535e-08 -8.1444734e-10 5.460779e-10 2.1748338e-08 9.951121e-09 8.275138e-08
3.5315026e-08 -1.5203296e-08 3.1018907e-08 -2.1072477e-09 4.953999e-10 4.732783e-09 -2.8545939e-08 1.2193235e-08
-1.0858412e-08 -1.7989313e-08 -4.0714028e-09 -5.7054898e-08 5.014256e-09 -1.032716e-08 -4.3182205e-10 5.0785687e-08
-3.704762e-08 -1.2693251e-09 -6.164225e-08 8.225337e-09 -8.517145e-09 7.073232e-09 2.5371442e-08 1.6174036e-08
3.58292e-08 1.3647599e-09 -3.3337486e-08 1.1437872e-08 1.0479117e-08 -2.8344772e-08 1.0241343e-08 4.2302986e-08
2.2687807e-08 4.43221e-09 7.379316e-09 3.334764e-09 7.465877e-09 2.5772259e-08 6.5907453e-09 -2.576009e-09
-8.1657765e-09 -1.0469718e-08 1.2883414e-08 -2.1176843e-09 -2.4619494e-08 2.2885168e-08 -1.5279687e-08 -9.334271e-09
1.9154992e-08 -8.7689e-09 -2.215682e-08 -6.444416e-09 3.4874226e-09 1.3747303e-08 2.6760911e-09 -5.246244e-09
-1.5302682e-08 -7.9532754e-08 6.0385035e-09 1.25522135e-08 5.3830462e-08 1.7283254e-08 1.09400435e-08 -1.5717239e-08
-3.6406318e-09 -1.8620263e-08 1.532373e-08 1.0565106e-08 -2.1978025e-08 -1.6981444e-10 -2.794242e-08 8.357891e-09
3.3076721e-09 1.5728533e-08 -1.2784004e-08 1.5887475e-09 5.3108247e-09 1.5725512e-08 -1.9319957e-08 -9.733353e-09
2.0459774e-08 2.0352777e-08 4.0020063e-09 -1.6603979e-08 -8.677124e-09 5.6517653e-09 3.3149077e-09 1.315901e-08
-3.6584766e-09 -8.7706855e-09 1.9114706e-08 -2.2673719e-08 1.0137145e-08 -8.939146e-09 -7.4066095e-09 9.547535e-09
9.774477e-09 1.41575605e-08 1.09495595e-08 7.1367765e-09 3.6068806e-09 6.728501e-09 4.250787e-09 1.5117054e-08
-7.874971e-10 2.5077937e-10 3.0868959e-09 -3.186444e-09 -8.375335e-09 1.1922471e-08 1.1371137e-08 1.0449279e-08
1.260982e-08 -4.0478705e-09 -9.900343e-09 -1.1132789e-08 -1.4486016e-08 9.529936e-09 1.2483828e-08 -8.388543e-10
2.2751563e-09 -3.5000862e-09 -1.6395325e-09 -7.1188264e-09 -1.0253469e-08 -6.7191728e-09 1.1150687e-08 3.2878533e-09
-1.5542234e-08 -1.5822528e-10 -1.6372815e-09 2.496961e-09 1.3210164e-08 -7.882124e-09 4.6795083e-09 -6.2968337e-09
1.5177447e-08 3.1388265e-09 -5.2302602e-09 4.8001825e-09 3.4465961e-09 2.8674731e-09 -1.6649714e-08 -1.620018e-08
-1.15757e-08 -2.0497037e-09 -3.0864102e-09 -6.4102545e-09 -8.90442e-09 -6.414296e-09 5.0287037e-09 -4.560328e-09
1.10503724e-10 -9.934108e-09 -7.17567e-09 3.8434074e-09 1.0336505e-08 -6.7378965e-09 1.2491939e-09 1.4504407e-09
-1.3641629e-08 6.1890755e-09 -1.4876608e-08 -9.743308e-10 4.4900963e-09 -1.1460615e-08 9.79714e-09 1.0737317e-08
-5.3032534e-09 3.0282663e-09 1.2667392e-08 6.0031125e-10 -8.520224e-09 7.4558315e-10 1.15200205e-08 2.3095423e-09
1.2439585e-08 -5.9050973e-09 -1.41691885e-08 -2.306322e-09 1.2716937e-08 1.4759444e-09 -2.3025698e-10 1.4911516e-08
-0.07923642 0.2919974 0.08265358 0.029561661 0.116476215 -0.0026112003 0.024903037 -0.04242661
-0.08158103 -0.014546581 -0.016122736 -0.025482474 0.030753478 -0.04500793 0.055738196 0.03424805
0.011129876 0.030781113 -0.002332704 0.030480519 0.02561278 0.011812326 0.011756045 -3.967395e-05
-0.048854984 -0.006553089 0.014216675 0.032266743 0.048030045 -0.037187424 0.03443457 0.0082286745
-0.047793828 0.0071920203 -0.015436135 -0.002963122 0.019743063 0.056676902 -0.020464815 0.0091558015
0.022324597 0.0061607365 0.0024782526 -0.030884957 0.054513015 0.02890665 -0.014036456 0.024264326
-0.029468063 0.0064309617 -0.02379922 -0.021775274 0.0036314968 -0.020885143 -0.012100865 -0.0064543546
0.010904277 -0.011534061 -0.0024258017 0.0040945658 0.016916143 0.02084176 0.0029104745 0.05447237
00000000: e2da 1033 e639 88b4 1f26 d4b3 a3df 5fb0
00000010: d11a 1630 1ad1 ba32 7ef5 2a32 0db5 b133
00000020: 48ad 1733 6798 82b2 a639 0533 18cf 10b1
00000030: ab2c 0830 009e a231 2f35 f5b2 6a7a 5132
00000040: cd8b 3ab2 eb86 9ab2 70e4 8bb1 860c 75b3
00000050: dd49 ac31 546b 31b2 8d65 edaf 741f 5a33
00000060: 4a1e 1fb3 6874 aeb0 2f60 84b3 6a4f 0d32
00000070: cd52 12b2 ce08 f331 64f0 d932 15ef 8a32
00000080: 9fe2 1933 3892 bb30 f42e 0fb3 4b80 4432
00000090: a507 3432 d07a f3b2 e7f1 2f32 a0b0 3533
000000a0: 04e3 c232 224a 9831 268d fd31 ca29 6531
000000b0: 4643 0032 cc61 dd32 cf74 e231 a105 31b1
000000c0: 7749 0cb2 4fde 33b2 db55 5d32 b286 11b1
000000d0: d77a d3b2 0495 c432 6340 83b2 8f5c 20b2
000000e0: 468a a432 08a6 16b2 5d53 beb2 af6d ddb1
000000f0: 63a7 6f31 472d 6c32 4be6 3731 7342 b4b1
00000100: f472 83b2 98cb aab3 3d7b cf31 38a5 5732
00000110: 3833 6733 4776 9432 d2f2 3b32 9302 87b2
00000120: ac2e 7ab1 64f2 9fb2 3da1 8332 d481 3532
00000130: 30ca bcb2 84b6 3aaf 0806 f0b2 6596 0f32
00000140: 2f4d 6331 691b 8732 a5a0 5bb2 155b da30
00000150: 827a b631 c414 8732 09f5 a5b2 bd37 27b2
00000160: 85bf af32 3bd4 ae32 0582 8931 89a0 8eb2
00000170: 6512 15b2 7431 c231 79cc 6331 f011 6232
00000180: 9a68 7bb1 e2ad 16b2 af31 a432 09c4 c2b2
00000190: a327 2e32 c892 19b2 3a7d feb1 8106 2432
000001a0: 9bec 2732 9c39 7332 ac1c 3c32 c037 f531
000001b0: eadc 7731 8530 e731 510e 9231 c1da 8132
000001c0: 2f77 58b0 0fde 892f 3f21 5431 84f8 5ab1
000001d0: 1de3 0fb2 95d3 4c32 ca5a 4332 6a84 3332
000001e0: 93a2 5832 7215 8bb1 2b16 2ab2 8642 3fb2
000001f0: 2cde 78b2 1ab9 2332 7578 5632 2095 66b0
00000200: f958 1c31 2b86 70b1 ec55 e1b0 dc99 f4b1
00000210: 3c27 30b2 78de e6b1 3d91 3f32 87f0 6131
00000220: bc81 85b2 75f8 2daf b906 e1b0 0197 2b31
00000230: eaf2 6232 f369 07b2 64c9 a031 895b d8b1
00000240: 8f5f 8232 d2b2 5731 dbb5 b3b1 daee a431
00000250: 29d9 6c31 1f0d 4531 1c05 8fb2 9328 8bb2
00000260: 78de 46b2 c5da 0cb1 b418 54b1 3241 dcb1
00000270: 0efa 18b2 bf64 dcb1 f2c8 ac31 12b1 9cb1
00000280: 1100 f32e abaa 2ab2 dc8d f6b1 f80e 8431
00000290: 6e94 3132 2a83 e7b1 1ab0 ab30 d858 c730
000002a0: 855c 6ab2 afa7 d431 0494 7fb2 38e9 85b0
000002b0: 4e47 9a31 51e4 44b2 4750 2832 3877 3832
000002c0: e937 b6b1 d319 5031 c79f 5932 2603 2530
000002d0: 5760 12b2 c0f1 4c30 96e9 4532 e6b5 1e31
000002e0: e0b5 5532 c9e5 cab1 c06c 73b2 3f7d 1eb1
000002f0: ae79 5a32 2dda ca30 942b 7daf c516 8032
00000300: b446 a2bd af80 953e 4846 a93d 4c2b f23c
00000310: 158b ee3d ac20 2bbb 7401 cc3c 86c7 2dbd
00000320: f413 a7bd c854 6ebc d413 84bc 9fc0 d0bc
00000330: b8ee fb3c 3c5a 38bd bc4d 643d af47 0c3d
00000340: 155a 363c ac28 fc3c 47e0 18bb 48b2 f93c
00000350: e5d1 d13c 7c88 413c 6d9c 403c 9467 26b8
00000360: 2a1c 48bd 4bbb d6bb 0fed 683c 222a 043d
00000370: 27bb 443d d751 18bd 440b 0d3d 90d1 063c
00000380: 76c3 43bd 0aab eb3b d8e7 7cbc f030 42bb
00000390: 34bc a13c 0a26 683d d4a5 a7bc 3702 163c
000003a0: 13e2 b63c 01e0 c93b 2e6a 223b 7302 fdbc
000003b0: 0a49 5f3d a4cd ec3c 2af9 65bc fbc5 c63c
000003c0: 0267 f1bc d1ba d23b 95f6 c2bc 0f62 b2bc
000003d0: 68fe 6d3b 5217 abbc b542 46bc 0d7f d3bb
000003e0: daa7 323c 5cf9 3cbc 33fa 1ebb b52b 863b
000003f0: b993 8a3c 57bc aa3c a9bd 3e3b 6b1e 5f3d

conv1.lin_pos_r.weight f4 [32, 64]
-4.261381e-09 9.934406e-08 1.0196668e-08 2.036091e-08 1.0954089e-08 1.4014942e-08 -1.4481222e-08 1.3247173e-09
9.697072e-08 8.234834e-09 3.9092987e-09 -8.833376e-09 2.0240105e-08 -3.1233287e-09 8.659319e-09 3.013325e-08
-2.9491032e-09 1.1072703e-08 -4.1558845e-09 -1.9276508e-08 4.285963e-09 3.738617e-08 5.6980408e-08 7.1227615e-09
-1.27897986e-08 6.049535e-11 -1.5051379e-08 2.4054206e-08 1.4240725e-09 -1.9066105e-08 -1.7077882e-08 1.8457342e-08
1.9010065e-08 5.3434883e-09 6.348451e-08 -7.969307e-09 1.8618971e-08 1.9878046e-08 -4.7621254e-09 -1.1487283e-08
1.3818355e-08 7.1475053e-09 2.9042313e-09 -1.659356e-08 3.411842e-08 2.3366265e-08 -1.1813002e-08 2.6705079e-08
1.7808043e-08 -1.8062845e-08 3.124243e-08 -1.1519498e-08 1.9202098e-08 -2.0287834e-08 1.7228498e-08 -4.652771e-09
-1.1033999e-08 1.0637198e-10 1.6261325e-08 -2.5969728e-08 6.1968572e-09 -1.04157756e-07 -8.981057e-09 5.5499843e-08
1.0253929e-08 2.941153e-07 -1.730515e-09 -2.5352675e-08 3.1777876e-09 9.9183906e-09 2.0701455e-08 -2.4686422e-08
-8.341688e-09 -1.2745447e-08 -2.3769517e-09 -5.9031104e-09 -1.1963304e-08 1.1939207e-08 9.5977235e-09 4.733431e-08
3.089494e-08 2.0544299e-08 1.5334969e-08 1.4202145e-07 3.6083605e-08 -3.477233e-08 2.17027e-09 -2.1034971e-08
-2.448595e-08 -2.309412e-08 -1.4102722e-08 -1.1769037e-08 8.7892016e-10 -1.5431228e-08 -1.4934859e-08 1.1576994e-08
-1.6376426e-08 7.123199e-08 5.1628003e-08 -1.879349e-08 -7.2159416e-08 6.7281216e-09 5.9563243e-09 1.3108132e-08
-4.575991e-08 -1.759715e-08 1.28421105e-08 -5.480835e-08 -1.224046e-08 4.6850516e-08 4.1490008e-08 9.173628e-09
-2.1296133e-08 -7.46084e-09 -4.426923e-09 -1.1418542e-08 6.0488623e-09 1.532505e-08 1.14058984e-08 -1.38044935e-08
-4.4755765e-08 -2.659501e-08 -1.7684219e-08 1.8030555e-08 9.493837e-09 1.34092835e-08 -5.02902e-08 -3.38401e-08
1.5532143e-08 2.0715188e-08 1.1322977e-08 -7.047148e-09 -1.1568536e-08 1.2867028e-08 1.7834825e-09 -1.2402092e-08
5.4944116e-09 2.2493651e-10 -2.3004361e-08 -4.3892796e-09 2.891584e-09 1.25066855e-08 1.1280164e-08 -1.8239941e-09
4.1682626e-09 3.7270516e-09 -7.486154e-09 -3.003561e-08 1.4093181e-09 7.2496015e-10 -4.8225113e-09 6.686492e-09
7.076541e-09 4.902435e-09 -1.026087e-08 -1.33380516e-08 8.519385e-09 1.0420083e-08 1.7047924e-08 -1.3323578e-08
-8.636247e-09 1.5819733e-08 2.9092684e-08 5.4828377e-09 -1.1716528e-08 -3.1843992e-09 -2.1051141e-08 -1.6246463e-09
5.8606413e-09 1.3312492e-08 -5.88161e-10 3.3690718e-08 -1.5914604e-09 3.877731e-09 4.571756e-09 1.601619e-08
1.0972152e-08 2.0263418e-08 -9.379727e-09 -2.741822e-10 -1.5226265e-08 -5.1880733e-10 4.9364983e-09 -1.2175104e-08
4.6644133e-10 1.5118681e-08 1.5553027e-08 -1.0534216e-08 1.0590316e-09 6.750609e-09 7.606799e-09 -1.2126944e-08
0.05085129 0.55768317 0.18038698 0.09366599 0.12967661 0.058429994 0.10083541 -0.14282595
-0.01323696 0.008094159 -0.031806998 -0.026013024 0.12100794 -0.084373504 0.017192451 0.2503263
0.2006147 -0.016928392 -0.0012538777 -0.2780262 0.039585054 0.049941283 0.14672075 0.096179426
0.009954483 -0.09658166 -0.09800176 -0.026031474 0.024201604 0.0677338 0.011447434 -0.06628656
0.012940621 0.05909125 0.019374417 -0.077150844 -0.0065433523 0.06423169 0.10728551 -0.03960386
-0.02399808 -0.008821379 -0.013325822 0.09848002 0.08822599 0.033345923 -0.07238274 0.06928566
-0.11008213 -0.027412651 -0.0052928017 -0.10959607 0.04570532 -0.043312162 0.02388804 -0.02436151
-0.020098723 -0.047529027 0.04481241 0.021853883 0.02788921 0.10672691 -0.058789194 0.0072647925
00000000: 816b 92b1 f956 d533 6c2d 2f32 1de6 ae32
00000010: 9830 3c32 5ec6 7032 17c9 78b2 5911 b630
00000020: 383e d033 2f79 0d32 8e52 8631 99c1 17b2
00000030: 76dc ad32 2ea2 56b1 16c4 1432 dc6b 0133
00000040: 2ca9 4ab1 433a 3e32 8ccb 8eb1 7d95 a5b2
00000050: bb43 9331 8792 2033 9fba 7433 79bc f431
00000060: 21ba 5bb2 db07 852e 554a 81b2 c29f ce32
00000070: 19b9 c330 cfc6 a3b2 a9b2 92b2 208c 9e32
00000080: 934b a332 d299 b731 fa54 8833 62e9 08b2
00000090: 8def 9f32 49c0 aa32 19a0 a3b1 9b59 45b2
000000a0: c565 6d32 1f96 f531 c793 4731 a089 8eb2
000000b0: 9989 1233 f6b6 c832 22f2 4ab2 1765 e532
000000c0: 4df8 9832 9e28 9bb2 6a2f 0633 4ae7 45b2
000000d0: dcf1 a432 6b45 aeb2 defd 9332 35de 9fb1
000000e0: 0a90 3db2 1aea e92e 08af 8b32 0914 dfb2
000000f0: 22ec d431 55ad dfb3 1b4b 1ab2 b95e 6e33
00000100: 4229 3032 e6e6 9d34 15d7 edb0 1fc7 d9b2
00000110: 3b60 5a31 8b65 2a32 fbd2 b132 040e d4b2
00000120: 224f 0fb2 12f7 5ab2 c757 23b1 4fd4 cab1
00000130: 2b87 4db2 301d 4d32 3ce3 2432 a04c 4b33
00000140: 59b1 0433 6479 b032 f4b9 8332 8f7e 1834
00000150: 58fa 1a33 9558 15b3 cb23 1531 64b0 b4b2
00000160: 2c55 d2b2 8260 c6b2 6d48 72b2 c630 4ab2
00000170: 8298 7130 a18d 84b2 1a4a 80b2 28e4 4632
00000180: 24ac 8cb2 33f8 9833 97bd 5d33 526f a1b2
00000190: 0ff6 9ab3 2f2d e731 62a8 cc31 2d32 6132
000001a0: 8e89 44b3 8b28 97b2 33a0 5c32 6b66 6bb3
000001b0: 1d4a 52b2 b038 4933 bf32 3233 0b9a 1d32
000001c0: b1ee b6b2 1f2d 00b2 a01b 98b1 472b 44b2
000001d0: 5bd6 cf31 24a4 8332 acf3 4332 ce28 6db2
000001e0: 7c39 40b3 0c73 e4b2 02e8 97b2 9ce1 9a32
000001f0: 561a 2332 a75e 6632 a9fe 57b3 9557 11b3
00000200: 8b6b 8532 2ef1 b132 fb86 4232 5f23 f2b1
00000210: f6be 46b2 ca0d 5d32 b61e f530 fa10 55b2
00000220: 5bc9 bc31 0052 772f 209b c5b2 83d0 96b1
00000230: 49b5 4631 fcdc 5632 b0ca 4132 16b0 fab0
00000240: 6d38 8f31 7e0f 8031 749c 00b2 8100 01b3
00000250: f9b1 c130 8946 4730 42b3 a5b1 01bf e531
00000260: ea25 f331 4672 a831 c947 30b2 5f25 65b2
00000270: a75c 1232 0204 3332 c870 9232 b7e5 64b2
00000280: 9e5e 14b2 f6e3 8732 7de7 f932 8d63 bc31
00000290: d649 49b2 8bd4 5ab1 f3d3 b4b2 294a dfb0
000002a0: bf5e c931 f6b4 6432 27ac 21b0 56b3 1033
000002b0: 89ba dab0 e23c 8531 9715 9d31 f993 8932
000002c0: 0980 3c32 ba0f ae32 7a24 21b2 b7bb 96af
000002d0: e9ca 82b2 d29b 0eb0 e69d a931 ac2a 51b2
000002e0: e436 0030 55de 8132 7899 8532 f9f9 34b2
000002f0: 5d8d 9130 fcf2 e731 0eaf 0232 dd56 50b2
00000300: 7149 503d 53c4 0e3f 5db7 383e f4d3 bf3d
00000310: f2c9 043e 4a54 6f3d cc82 ce3d f740 12be
00000320: d6df 58bc 5d9d 043c 0e48 02bd 4419 d5bc
00000330: 03d3 f73d 04cc acbd 2fd7 8c3c c52a 803e
00000340: f16d 4d3e 69ad 8abc 2759 a4ba 7359 8ebe
00000350: f023 223d 3b8f 4c3d f73d 163e b8f9 c43d
00000360: 2118 233c 9bcc c5bd 26b5 c8bd f53f d5bc
00000370: 7142 c63c 05b8 8a3d 058e 3b3c 3fc1 87bd
00000380: e604 543c ab09 723d 19b7 9e3c 4301 9ebd
00000390: 9e69 d6bb e78b 833d 81b8 db3d a837 22bd
000003a0: 9f97 c4bc 8c87 10bc 8c54 5abc e5af c93d
000003b0: d4af b43d bc95 083d 673d 94bd a4e5 8d3d
000003c0: bd72 e1bd 7f90 e0bc 3d6f adbb e873 e0bd
000003d0: 8035 3b3d 1868 31bd dab0 c33c ca91 c7bc
000003e0: 14a6 a4bc ccad 42bd 388d 373d ea06 b33c
000003f0: ea77 e43c a393 da3d f0cc 70bd 7f0d ee3b

conv1.lin_pos_r.bias f4 [32]
-0.00010756021 -0.017249757 -0.014456074 0.014784658 0.011909639 0.0553635 -0.00010935195 0.0869149
0.08463879 0.019266833 0.018524108 -0.04258001 -0.025805477 -0.03075378 -0.024140352 0.02320277
-0.04452323 -0.016624814 -0.11761902 0.019980615 -0.065464 0.021329772 -0.03102072 0.023765486
-0.027523117 0.17660749 -0.000533855 -0.04093862 0.09444248 -5.1057606e-05 0.021731578 -0.043541756
00000000: f391 e1b8 5d4f 8dbc 2bd9 6cbc 5a3b 723c
00000010: a620 433c d6c4 623d e253 e5b8 7000 b23d
00000020: 1a57 ad3d 7ad5 9d3c dfbf 973c 6068 2ebd
00000030: 0266 d3bc 5aef fbbc fdc1 c5bc bc13 be3c
00000040: fe5d 36bd c330 88bc 3ee2 f0bd 63ae a33c
00000050: fd11 86bd c6bb ae3c 2a1f febc d6af c23c
00000060: 2978 e1bc 98d8 343e 67f2 0bba 41af 27bd
00000070: 0f6b c13d b026 56b8 6c06 b23c d758 32bd

conv1.lin_neg_l.weight f4 [32, 64]
-2.3885793e-09 -9.579109e-09 3.15186e-09 6.8532393e-09 -1.187137e-08 8.058854e-09 8.153855e-09 7.893296e-09
6.5914874e-10 7.620932e-09 -3.1278158e-09 1.8979127e-09 -1.3443351e-08 1.33893225e-08 1.0766477e-08 -6.455142e-09
3.6449818e-10 -8.617502e-11 7.227265e-09 5.0237117e-09 -3.4424983e-09 6.042031e-09 7.210228e-09 -1.01457855e-08
-2.3129345e-09 7.8683793e-10 1.5283677e-08 -3.446049e-09 -1.0238943e-08 -5.233167e-09 -7.0947044e-09 7.1757367e-10
1.2186465e-08 8.638738e-10 6.8234516e-09 -3.3524836e-10 4.0122408e-09 3.1795369e-09 -1.3517121e-08 -6.0032117e-09
-6.1861644e-10 1.2944691e-08 1.230443e-08 -7.148685e-10 -5.940891e-09 -1.7138957e-08 3.5397585e-09 -1.20476376e-08
4.706226e-09 -8.927914e-09 -1.7791773e-08 -7.140755e-10 -1.3197403e-08 -1.5641776e-08 -4.2353205e-09 -1.6266912e-09
4.820886e-09 -6.1323737e-09 3.791828e-09 7.4882167e-10 -2.3914275e-09 5.760962e-09 -6.923687e-09 9.344022e-09
-0.049251623 -0.12554014 0.042595 0.07054433 0.05208703 0.021041948 0.049443953 -0.005187898
0.04224599 -0.080582485 0.064696066 8.676881e-05 -0.017312482 -0.05315327 -0.03442083 0.038156394
-0.0071809706 0.0034218475 -0.058407884 -0.029092666 0.04623276 0.02510737 0.012936674 -0.056712765
0.05564219 0.042450506 -0.003095703 -0.014086545 -0.0006426346 0.0033998105 0.06880193 -0.010909304
0.039416112 0.018797746 -0.08024995 -0.067628145 -0.0039513707 -0.011573843 -0.010197405 -0.009102327
-0.075156026 0.008206718 -0.033527713 -0.0067188214 -0.089620724 0.02638296 -0.00961401 -0.02465903
0.03471882 0.0405105 0.037708893 0.051085792 -0.009012442 0.015314799 0.007583271 -0.061834585
0.021226574 0.00040645924 -0.012566526 0.010270447 0.014969519 0.07200304 -0.08663654 -0.066254005
0.07870808 -0.23138131 -0.29139763 -0.14926936 -0.108083695 -0.015145348 0.014079564 -0.26257965
0.12823205 -0.23091726 0.21349902 -0.08952301 0.24589083 -0.35685164 -0.11585823 0.041287243
0.04083092 0.0482842 -0.1169763 -0.043233216 0.005857438 0.0338498 0.013918345 0.141113
0.12196102 -0.24787953 -0.086221226 -0.07056993 -0.2373702 0.092502035 -0.0616103 -0.039735626
-0.08326766 0.19874789 0.13489722 -0.16348627 -0.055980124 -0.20574155 -0.08101862 -0.062034026
0.049063645 -0.0055595813 0.035166528 0.00018857434 0.2853988 -0.050715342 -0.03210322 -0.088854276
-0.31245664 -0.16222285 0.17256008 -0.12214418 0.11113818 -0.13033274 0.095967226 -0.0693952
-0.051726628 -0.10348117 -0.016320858 -0.1941574 0.041949082 0.06298677 0.050189983 0.12129414
0.00021926578 -0.003298815 -0.056216296 -0.16333763 -0.051872037 -0.0034851336 0.026826747 -0.1824928
0.049683977 -0.086611494 0.00534059 -0.040065426 0.072994344 -0.10058847 0.020363968 0.014207049
0.10547325 -0.013496811 -0.04447372 0.014467993 0.0046226485 -0.041269917 0.020380663 0.0170982
-0.024972012 0.089890674 -0.010846963 0.06293366 -0.031762455 -0.056559794 -0.004054681 0.042084362
0.03366307 0.08043085 -0.020883152 -0.030584177 -0.056707844 -0.06404996 0.03348745 0.026010122
-0.021865718 0.003615971 0.0028544397 0.046646025 0.06139431 0.028497865 0.056723926 -0.11293891
-0.08431449 -0.08375328 -0.013763783 0.009759458 -0.056694534 -0.069876365 0.0037682184 -0.029989086
0.0758088 -0.0317204 -0.04605615 0.07038166 0.04356145 -0.01574668 0.076160245 -0.022417981
00000000: 5524 24b1 5e91 24b2 1c98 5831 bb79 eb31
00000010: d6f2 4bb2 3773 0a32 0915 0c32 159b 0732
00000020: 782f 3530 37ed 0232 1ef1 56b1 6f6c 0231
00000030: 7cf4 66b2 dd06 6632 77f7 3832 08cc ddb1
00000040: 8f62 c82f 3980 bdae b253 f831 099d ac31
00000050: 1291 6cb1 449a cf31 d6bd f731 a34d 2eb2
00000060: 93f1 1eb1 cc48 5830 2949 8332 89cf 6cb1
00000070: 59e7 2fb2 6ccf b3b1 aec5 f3b1 c23e 4530
00000080: a45c 5132 b775 6d30 b773 ea31 034e b8af
00000090: 0bdc 8931 017f 5a31 ed38 68b2 cf44 ceb1
000000a0: 430b 2ab0 5a63 5e32 7563 5332 6680 44b0
000000b0: a120 ccb1 f738 93b2 1740 7331 12fa 4eb2
000000c0: 67b4 a131 6261 19b2 86d4 98b2 9948 44b0
000000d0: cbba 62b2 a15c 86b2 4686 91b1 1c92 dfb0
000000e0: f6a4 a531 eeb4 d2b1 4649 8231 a4d5 4d30
000000f0: 7056 24b1 f5f1 c531 65e5 edb1 7187 2032
00000100: 12bc 49bd 988d 00be 1878 2e3d 8c79 903d
00000110: 3659 553d 2a60 ac3c be85 4a3d 3eff a9bb
00000120: 220a 2d3d 6e08 a5bd 5f7f 843d a6f7 b538
00000130: e8d2 8dbc 3eb7 59bd dbfc 0cbd e149 1c3d
00000140: 594e ebbb 1341 603b 1b3d 6fbd be53 eebc
00000150: 905e 3d3d f9ad cd3c 58f4 533c a54b 68bd
00000160: 11e9 633d 95e0 2d3d 47e1 4abb 41cb 66bc
00000170: 7a76 28ba 5bcf 5e3b 07e8 8c3d f0bc 32bc
00000180: ca72 213d bbfd 993c 165a a4bd a080 8abd
00000190: 807a 81bb 37a0 3dbc 0413 27bc ed21 15bc
000001a0: 67eb 99bd 7875 063c 5b54 09bd 8f29 dcbb
000001b0: 128b b7bd 1421 d83c 1584 1dbc bc01 cabc
000001c0: 5235 0e3d 57ee 253d a474 1a3d 563f 513d
000001d0: eca8 13bc ecea 7a3c 167d f83b 4346 7dbd
000001e0: 5ae3 ad3c 091a d539 d5e3 4dbc 6045 283c
000001f0: b742 753c 5476 933d 806e b1bd 2eb0 87bd
00000200: b431 a13d 39ef 6cbe 1232 95be 11da 18be
00000210: fc5a ddbd 3224 78bc f9ad 663c d770 86be
00000220: 434f 033e 9375 6cbe 7d9f 5a3e d757 b7bd
00000230: ceca 7b3e 42b5 b6be 1447 edbd d01c 293d
00000240: 533e 273d a7c5 453d 4591 efbd 5015 31bd
00000250: c0ef bf3b 16a6 0a3d c509 643c ed7f 103e
00000260: b3c6 f93d 22d4 7dbe c194 b0bd f886 90bd
00000270: 2c11 73be b571 bd3d 155b 7cbd d3c1 22bd
00000280: 3c88 aabd 9184 4b3e 7f22 0a3e f268 27be
00000290: 6a4b 65bd eaad 52be 17ed a5bd 6417 7ebd
000002a0: f6f6 483d 262d b6bb c70a 103d 0abc 4539
000002b0: cb1f 923e e4ba 4fbd aa7e 03bd 3bf9 b5bd
000002c0: 51fa 9fbe bf1d 26be 97b3 303e ba26 fabd
000002d0: 6a9c e33d f275 05be 778a c43d 121f 8ebd
000002e0: 4ddf 53bd f0ed d3bd 52b3 85bc 33d1 46be
000002f0: cdd2 2b3d 35ff 803d 0394 4d3d 1069 f83d
00000300: b6ea 6539 ef30 58bb 0f43 66bd fb41 27be
00000310: c677 54bd d766 64bb c4c3 db3c 64df 3abe
00000320: 6d81 4b3d 5e61 b1bd 1e00 af3b a51b 24bd
00000330: 0f7e 953d 5401 cebd 56d2 a63c afc4 683c
00000340: 5c02 d83d ba21 5dbc 132a 36bd 290b 6d3c
00000350: 9679 973b a50a 29bd 59f5 a63c 8611 8c3c
00000360: 1b92 ccbc 9a18 b83d 76b7 31bc 5de3 803d
00000370: 5919 02bd 3eab 67bd 21dd 84bb a760 2c3d
00000380: 4ae2 093d eeb8 a43d 2513 abbc ab8b fabc
00000390: 7c46 68bd a02c 83bd 232a 093d 2e13 d53c
000003a0: bc1f b3bc edf9 6c3b 8d11 3b3b e70f 3f3d
000003b0: 9a78 7b3d 5b74 e93c 5957 683d 844c e7bd
000003c0: 13ad acbd d786 abbd 7d81 61bc 22e6 1f3c
000003d0: 8738 68bd 571b 8fbd 37f4 763b acab f5bc
000003e0: a541 9b3d 40ed 01bd 60a5 3cbd 4224 903d
000003f0: 7e6d 323d 2eff 80bc e7f9 9b3d eaa5 b7bc

conv1.lin_neg_r.weight f4 [32, 64]
-5.6403406e-09 -6.576306e-09 8.485171e-09 5.2171067e-09 2.7581903e-09 2.8018137e-09 -1.6854402e-08 -4.148401e-09
-9.54438e-09 -4.371959e-10 -8.0945775e-09 -5.5404463e-09 -5.357829e-09 8.92978e-09 5.4012466e-09 -6.9302303e-10
-2.6806783e-09 -4.6923274e-09 -3.466338e-09 5.785403e-09 -6.2058993e-09 2.6517593e-09 -3.5325272e-09 4.019133e-09
6.1350804e-09 -2.3507807e-09 -1.1300729e-08 -1.4314236e-08 -2.6556664e-09 3.3803924e-09 9.047925e-09 -1.2008757e-08
7.755897e-10 1.6206977e-08 -6.9508044e-09 -4.1179196e-10 6.5516788e-09 -1.3345388e-08 -3.0815772e-09 2.0781505e-09
-3.915815e-09 -3.5754746e-09 -7.896033e-09 -1.7126025e-08 1.3705957e-08 8.02971e-09 1.183931e-11 -3.0192409e-09
1.2469552e-08 1.4626252e-08 5.0893187e-09 -7.2828577e-10 4.989709e-09 -1.6272539e-09 1.4232644e-08 1.3368498e-08
8.481783e-09 4.263651e-09 7.3341107e-09 1.1203217e-08 5.6166414e-09 9.102352e-10 -5.1462257e-09 -6.4851924e-09
0.18033615 -0.20095286 -0.13276005 -0.086195804 -0.045973197 0.024653766 0.056246724 -0.22635664
-0.011596337 -0.050114203 0.06969145 -0.075094655 0.15294205 -0.093855634 -0.016761845 0.29454985
0.053426664 0.020836357 -0.03630795 -0.24834844 0.06874316 -0.087807454 0.15566948 -0.04615781
-0.04033154 0.12316229 -0.07203431 0.032702696 0.014121732 0.10035319 0.06841315 0.06791543
0.07949872 0.030975012 -0.24426502 0.0048432085 0.0070274537 -0.03431907 0.074880265 0.056088634
-0.086871624 -0.069847465 -0.06972305 0.06348116 0.15216771 0.11817036 -0.025163122 -0.022659624
-0.17965107 -0.14579885 -0.03394057 0.091379836 0.050831057 0.050214596 -0.14512333 -0.029218916
0.041507527 -0.009816622 0.009650592 0.041841365 0.025615195 0.05508697 0.13399413 -0.05241133
-0.18069576 -0.17017281 0.10082029 0.04472347 0.03508703 -0.029299103 -0.121658646 0.22880185
-0.04602534 0.13660671 -0.12198255 0.015672809 -0.10758971 0.13797243 -0.19261886 0.00017314381
-0.0064554303 -0.14634688 0.08120784 0.2920705 -0.04603276 0.036682636 -0.16345929 -0.11312205
0.16497225 0.004117938 -0.04315257 -0.040381074 0.060418278 -0.04020858 -0.07222629 -0.023003548
-0.027376141 0.04836356 -0.061197773 0.16425024 -0.07799255 -0.12150268 0.027452998 0.011275773
-0.03444154 0.087412335 0.0444696 -0.1839175 0.045797803 0.039667 -0.08704615 0.044913556
0.077553526 0.104077 0.024411991 0.20551549 0.15516369 0.3187746 0.078445956 -0.0060604136
0.1820813 0.18795837 0.14479612 -0.10813561 0.18716756 0.025073493 0.21558934 -0.11072946
0.048301414 -0.3388411 -0.054740302 0.23698439 0.03896667 -0.04135838 -0.08742101 0.31596288
-0.13606843 0.03805192 -0.00879016 -0.037123963 -0.017172715 0.23963553 -0.01887678 -0.027585577
-0.114313655 -0.0036322698 0.02845568 0.025198437 -0.029525546 -0.03504562 0.004940055 -0.14425358
-0.07763397 -0.011820812 0.046535563 0.015555667 0.04960108 -0.055957623 0.020663025 -0.019161152
-0.034031153 -0.022780625 -0.055206448 0.020405661 0.014566939 0.07147346 -0.01502268 0.009165924
-0.004325729 -0.03800014 0.023877691 0.06935111 -0.10733344 0.053733747 -0.022918858 -0.011606479
0.035317805 0.1764236 0.0299978 -0.05074254 0.06934365 0.05444738 -0.053481773 0.0026622387
0.03550167 0.046602275 0.011503002 0.04104943 -0.105825245 0.011404586 -0.081921525 -0.024931112
00000000: f6cc c1b1 cdf5 e1b1 2dc6 1132 2842 b331
00000010: 998a 3d31 078a 4031 39c7 90b2 b989 8eb1
00000020: a1f8 23b2 da59 f0af 5410 0bb2 485e beb1
00000030: f617 b8b1 9669 1932 de95 b931 297f 3eb0
00000040: fe36 38b1 263a a1b1 7734 6eb1 f1c8 c631
00000050: ab3b d5b1 3e3a 3631 e0c0 72b1 ab18 8a31
00000060: bdcc d231 5f8b 21b1 2225 42b2 adea 75b2
00000070: fa7e 36b1 7e4c 6831 3271 1b32 124f 4eb2
00000080: 4631 5530 8537 8b32 ecd3 eeb1 9162 e2af
00000090: 2d1d e131 a345 65b2 aec3 53b1 36cf 0e31
000000a0: df8b 86b1 6ab4 75b1 1fa7 07b2 871c 93b2
000000b0: 7077 6b32 0af3 0932 8347 502d 0c7b 4fb1
000000c0: ab39 5632 f046 7b32 1fde ae31 8e30 48b0
000000d0: f271 ab31 e8a5 dfb0 d583 7432 47ab 6532
000000e0: 47b7 1132 797f 9231 85ff fb31 4578 4032
000000f0: 80fc c031 1c34 7a30 aed2 b0b1 5bd4 deb1
00000100: 0aaa 383e 96c6 4dbe 40f2 07be 6d87 b0bd
00000110: 644e 3cbd b2f6 c93c f762 663d 09ca 67be
00000120: 90fe 3dbc 8d44 4dbd 64ba 8e3d 3acb 99bd
00000130: d79c 1c3e 6237 c0bd 2350 89bc 3dcf 963e
00000140: ebd5 5a3d 02b1 aa3c a5b7 14bd 0e4f 7ebe
00000150: 37c9 8c3d 65d4 b3bd d267 1f3e f90f 3dbd
00000160: af32 25bd 833c fc3d b986 93bd 43f3 053d
00000170: d65e 673c f985 cd3d 321c 8c3d 3f17 8b3d
00000180: 3ad0 a23d 4fbf fd3c 9c20 7abe c7b3 9e3b
00000190: 8e46 e63b 2792 0cbd d35a 993d 32bd 653d
000001a0: c0e9 b1bd 300c 8fbd f5ca 8ebd 6902 823d
000001b0: dad1 1b3e 4d03 f23d e422 cebc ada0 b9bc
000001c0: 73f6 37be 4b4c 15be 4405 0bbd 5a25 bb3d
000001d0: 3a34 503d d2ad 4d3d 369b 14be 825c efbc
000001e0: cc03 2a3d e6d5 20bc 841d 1e3c da61 2b3d
000001f0: f5d6 d13c e0a2 613d c235 093e 43ad 56bd
00000200: 4f08 39be c841 2ebe de7a ce3d f52f 373d
00000210: 6bb7 0f3d ac04 f0bc 2b28 f9bd 084b 6a3e
00000220: 1185 3cbd a1e2 0b3e fdd1 f9bd 4364 803c
00000230: fe57 dcbd a548 0d3e e13d 45be f08d 3539
00000240: 1388 d3bb f5db 15be 4c50 a63d 448a 953e
00000250: d98c 3cbd 8840 163d df61 27be 89ac e7bd
00000260: 7cee 283e c5ef 863b c0c0 30bd a066 25bd
00000270: 2879 773d c1b1 24bd 61eb 93bd f071 bcbc
00000280: ee43 e0bc de18 463d 84aa 7abd 3731 283e
00000290: 8fba 9fbd 66d6 f8bd 1ce5 e03c 05be 383c
000002a0: 9212 0dbd 3d05 b33d c125 363d de54 3cbe
000002b0: 7a96 3b3d dd79 223d 4045 b2bd 47f7 373d
000002c0: 62d4 9e3d 5226 d53d a8fb c73c a772 523e
000002d0: 3be3 1e3e 6d36 a33e 46a8 a03d 6f96 c6bb
000002e0: 8573 3a3e 2978 403e 6f45 143e 3476 ddbd
000002f0: daa8 3f3e ed66 cd3c 74c3 5c3e 21c6 e2bd
00000300: b4d7 453d 957c adbe 5e37 60bd 09ac 723e
00000310: 849b 1f3d 6867 29bd c909 b3bd e3c5 a13e
00000320: 8655 0bbe 54dc 1b3d 9a04 10bc 4c0f 18bd
00000330: cbad 8cbc 0463 753e 7aa3 9abc 26fb e1bc
00000340: 471d eabd 600b 6ebb e31b e93c f46c ce3c
00000350: 8fdf f1bc ff8b 0fbd 2fe0 a13b 36b7 13be
00000360: 8ffe 9ebd 14ac 41bc 139c 3e3d 32dd 7e3c
00000370: 812a 4b3d d233 65bd 8145 a93c d9f7 9cbc
00000380: 4064 0bbd 6f9e babc 2820 62bd c629 a73c
00000390: 2caa 6e3c ad60 923d b021 76bc ac2c 163c
000003a0: d8be 8dbb 09a6 1bbd 269b c33c f407 8e3d
000003b0: a2d1 dbbd eb17 5c3d 54c0 bbbc 1a29 3ebc
000003c0: 67a9 103d 63a8 343e f2bd f53c 69d7 4fbd
000003d0: 0b04 8e3d 3704 5f3d b40f 5bbd f478 2e3b
000003e0: 336a 113d 07e2 3e3d 1677 3c3c 7223 283d
000003f0: e8ba d8bd 4dda 3a3c 79c6 a7bd 553c ccbc

conv1.lin_neg_r.bias f4 [32]
-0.0011954777 0.037033558 0.014787411 0.09463728 -0.06156105 -9.572216e-07 -0.0572669 0.046830956
0.10339669 0.021291588 0.018561892 0.019287346 0.013238979 0.087479636 0.06306503 0.010610737
-1.7118298e-05 -0.01615207 -0.016782612 0.025316749 -0.0116977375 -6.1097315e-05 0.029938947 -0.017906744
-0.023338867 -0.0051209386 0.03621271 0.009735792 0.011537257 -0.000120791046 -0.0004922556 0.04540555
00000000: 93b1 9cba 80b0 173d e646 723c 31d1 c13d
00000010: 7127 7cbd e279 80b5 b290 6abd d1d1 3f3d
00000020: a5c1 d33d b26b ae3c 1c0f 983c 7f00 9e3c
00000030: 4de8 583c 8628 b33d 3d28 813d a8d8 2d3c
00000040: 4499 8fb7 5951 84bc b07b 89bc 1265 cf3c
00000050: dea7 3fbc 5f21 80b8 8642 f53c 2ab1 92bc
00000060: 2731 bfbc 8ccd a7bb c753 143d df82 1f3c
00000070: c306 3d3c 3351 fdb8 b70a 01ba 2cfb 393d

convs.0.lin_pos_l.weight f4 [32, 64]
2.4247603e-07 -0.007813197 1.0950039e-08 0.015780617 0.047418833 0.06202475 0.050405312 0.019208563
0.07259565 -0.031936277 -0.0010150056 -5.58943e-10 -8.992204e-08 -0.00082618993 -0.013505788 -0.043717757
-0.0002739641 1.0998063e-08 0.005252448 0.03703652 -0.00012888698 -0.047710527 6.257204e-09 0.037016466
-0.00032131514 0.10621499 -4.523751e-06 -0.0049380376 0.04303049 -2.541058e-05 -0.13068984 -4.393887e-10
-1.9383521e-09 -0.03289709 0.055344194 -0.061440643 -0.00848173 -1.4539488e-07 0.0013168696 -0.025125332
-0.080241576 -0.0773548 0.08868393 0.10625518 -0.17123257 -0.06694772 0.00911003 -0.06766843
1.6766153e-05 -1.45466625e-08 0.007456369 0.024887264 -0.102456264 -1.9135355e-07 0.020040559 -0.014287446
-0.0031286078 -1.5041472e-08 -0.055857416 -0.039422482 0.07692479 -7.2223907e-09 -0.042042796 0.07977198
-4.90771e-07 0.0017594779 1.7304338e-08 0.08211226 0.062928595 0.03017853 -0.021455642 -0.06699639
-0.10921363 -0.061301816 0.007777964 1.2667553e-08 -2.7017328e-09 6.816305e-07 0.00018911387 -0.033553842
1.0238643e-07 2.1929245e-09 -0.0034228547 0.027410805 -5.0174646e-07 0.0761589 -1.8715115e-08 -0.004580641
-0.00022546313 -0.06632406 1.6645226e-06 3.292187e-05 -0.13007772 1.6171914e-05 0.085293755 -1.3096041e-08
1.7903377e-08 0.06381046 -0.051277827 0.06795677 -0.00046798086 8.15186e-08 1.5064295e-06 0.036665004
0.11679935 0.08336177 -0.041102063 -0.09070478 0.13727422 0.06964553 -0.09261189 0.04142826
-1.5648504e-05 9.975611e-10 0.07347868 0.017326899 0.053244982 1.1177219e-05 0.025208449 0.0067868126
-0.0046178154 -4.252045e-09 0.0477122 0.04474607 -0.10032873 -2.8402278e-09 0.028216332 -0.11303187
-2.2760267e-09 -5.120401e-09 -1.7387391e-08 -5.6059665e-08 -6.4131655e-08 8.189497e-08 -6.227731e-08 -7.060142e-08
-1.7586173e-07 -6.32285e-08 -4.9683315e-08 -3.3514924e-09 -1.3937136e-09 1.7686956e-08 2.8583667e-09 -5.7100277e-08
-9.717972e-10 -6.471561e-09 8.707344e-09 -3.1457496e-08 5.4340807e-09 -8.450872e-08 7.724088e-09 7.388432e-08
-1.3651258e-08 -5.7294272e-08 8.649572e-10 3.1610712e-09 -1.2742549e-08 3.5523877e-09 -6.2973655e-08 1.1176948e-08
-2.8757303e-09 2.0969033e-08 4.0465853e-08 4.2771966e-08 -9.95963e-10 -6.962087e-10 1.387216e-08 -2.8519572e-08
-4.878127e-08 1.6351658e-08 4.3253387e-08 -4.3090377e-08 2.4347485e-10 7.5993825e-08 4.4412207e-08 -1.0287666e-08
5.306578e-09 -4.1431583e-09 -2.3014377e-09 -1.0341297e-08 1.7513049e-08 -6.0387633e-09 2.698921e-09 2.710929e-09
-2.6600202e-09 -2.192917e-09 1.0288844e-08 -1.36442e-09 1.1138865e-08 5.2357993e-09 -1.46827555e-08 -6.3862418e-09
1.8741302e-09 -9.481688e-09 6.454671e-10 -0.00941091 -0.0071460344 -0.010142018 -0.0025828728 -0.01085524
-0.011789629 -0.0019871905 -0.008632667 -8.3396e-09 8.885148e-09 -1.1822067e-08 -4.0506927e-09 -0.0037389428
1.759081e-08 -2.672349e-09 -4.1734827e-05 -0.009579369 1.7460534e-08 -0.008817633 -8.713624e-09 -0.008812613
-1.0747702e-09 -0.009114064 -5.0862675e-10 8.010383e-09 -0.012047869 3.4957748e-09 -0.0027344632 -1.111833e-09
-1.7414635e-08 -0.0065181833 -0.007576896 -0.010475275 -3.960852e-09 1.0163689e-08 7.814689e-09 -0.012394814
-0.014081174 -0.008443876 -0.013462794 -0.00871559 -0.009599007 -0.007868328 -0.012376248 -0.013650096
9.043275e-09 -7.557502e-09 -0.009182262 -0.009065007 -0.0054070796 2.89136e-10 -0.012834391 -2.5854117e-09
9.756522e-10 3.4814214e-09 -0.008816914 -0.0070645744 -0.0062470734 1.058986e-09 -0.004796538 -0.0049708188
00000000: a72d 8234 ec02 00bc c81e 3c32 5a46 813c
00000010: 403a 423d aa0d 7e3d cd75 4e3d 475b 9d3c
00000020: 07ad 943d 9dcf 02bd f009 85ba 1ea4 19b0
00000030: 2a1b c1b3 ab94 58ba 6147 5dbc 6411 33bd
00000040: d7a2 8fb9 fef1 3c32 ba1c ac3b 9bb3 173d
00000050: d625 07b9 1d6c 43bd f3fe d631 949e 173d
00000060: 3076 a8b9 3f87 d93d baca 97b6 43cf a1bb
00000070: bd40 303d ce28 d5b7 8fd3 05be 768e f1af
00000080: da33 05b1 19bf 06bd 98b0 623d 2fa9 7bbd
00000090: f4f6 0abc d71d 1cb4 d09a ac3a a4d3 cdbc
000000a0: b255 a4bd 326c 9ebd ec9f b53d 519c d93d
000000b0: 9757 2fbe e31b 89bd 3c42 153c bf95 8abd
000000c0: 0aa5 8c37 e6e8 79b2 8f54 f43b 60e0 cb3c
000000d0: 97d4 d1bd dd76 4db4 192c a43c e415 6abc
000000e0: 5409 4dbb 8c34 81b2 bfca 64bd 7879 21bd
000000f0: bf8a 9d3d d228 f8b1 1135 2cbd 7e5f a33d
00000100: 87bd 03b5 489e e63a a4a4 9432 792a a83d
00000110: b5e0 803d f738 f73c bec3 afbc 6735 89bd
00000120: 65ab dfbd 9d17 7bbd 4bde fe3b 7da0 5932
00000130: 63a9 39b1 4bf9 3635 de4c 4639 c16f 09bd
00000140: 89df db33 56b2 1631 f951 60bb a08c e03c
00000150: c1af 06b5 33f9 9b3d f9c2 a0b2 3419 96bb
00000160: 4c6a 6cb9 e9d4 87bd 9068 df35 9715 0a38
00000170: 1833 05be eca8 8737 7eae ae3d fffc 60b2
00000180: f1c9 9932 0faf 823d b308 52bd eb2c 8b3d
00000190: 545b f5b9 530f af33 8630 ca35 0b2e 163d
000001a0: 7f34 ef3d 93b9 aa3d a35a 28bd 6dc3 b9bd
000001b0: 9d91 0c3e 51a2 8e3d 4dab bdbd aeb0 293d
000001c0: e844 83b7 901a 8930 fd7b 963d 24f1 8d3c
000001d0: 6917 5a3d ca85 3b37 f381 ce3c e963 de3b
000001e0: 0b51 97bb 6219 92b1 de6d 433d a847 373d
000001f0: 2679 cdbd d12d 43b1 f025 e73c 417d e7bd
00000200: 4968 1cb1 86ef afb1 475b 95b2 41c6 70b3
00000210: c0b8 89b3 3cde af33 50bd 85b3 8b9d 97b3
00000220: 81d4 3cb4 3cc8 87b3 6263 55b3 1450 66b1
00000230: f08c bfb0 07ee 9732 eb6c 4431 6b3e 75b3
00000240: 1390 85b0 745c deb1 4e97 1532 e21b 07b3
00000250: aeb6 ba31 297b b5b3 e6b2 0432 56aa 9e33
00000260: de86 6ab2 b813 76b3 f4c1 6d30 273a 5931
00000270: 53ea 5ab2 441e 7431 223c 87b3 bd04 4032
00000280: 629e 45b1 641f b432 adcc 2d33 46b4 3733
00000290: 55e2 88b0 555f 3fb0 6852 6e32 34fb f4b2
000002a0: 9383 51b3 ad75 8c32 9ac5 3933 5f12 39b3
000002b0: 0ada 852f 0c32 a333 bdbf 3e33 a2bd 30b2
000002c0: 2755 b631 9b5b 8eb1 5227 1eb1 81a9 31b2
000002d0: 9a6f 9632 867d cfb1 ec77 3931 2b4b 3a31
000002e0: 92cb 36b1 34b2 16b1 d1c2 3032 4386 bbb0
000002f0: 3f5d 3f32 94e6 b331 713f 7cb2 fa6d dbb1
00000300: 0cca 0031 e8e4 22b2 b66c 3130 3830 1abc
00000310: 4829 eabb b52a 26bc 6a45 29bb 2dda 31bc
00000320: 4a29 41bc 863b 02bb 0870 0dbc f345 0fb2
00000330: 4ba5 1832 001a 4bb2 452e 8bb1 0d09 75bb
00000340: 9a1a 9732 76a4 37b1 6e0c 2fb8 c9f2 1cbc
00000350: 1ffc 9532 d577 10bc ecb2 15b2 c762 10bc
00000360: 1db7 93b0 2853 15bc 6dcf 0bb0 099e 0932
00000370: 6d64 45bc 523a 7031 ae34 33bb 25cf 98b0
00000380: 3097 95b2 7c96 d5bb 9c47 f8bb 7da0 2bbc
00000390: 0618 88b1 609c 2e32 5e41 0632 9e13 4bbc
000003a0: b9b4 66bc 2f58 0abc 0d93 5cbc d6cb 0ebc
000003b0: 2745 1dbc 29ea 00bc bfc5 4abc a7a4 5fbc
000003c0: be5c 1b32 3fd6 01b2 3371 16bc 6585 14bc
000003d0: df2d b1bb 46f4 9e2f 5647 52bc 0bab 31b1
000003e0: b617 8630 d03d 6f31 d174 10bc f27d e7bb
000003f0: 40b4 ccbb c28b 9130 472c 9dbb 40e2 a2bb

convs.0.lin_pos_r.weight f4 [32, 32]
7.185529e-07 2.5765283e-08 -2.0964574e-08 0.07547335 0.18023853 0.13421942 0.51060534 0.0148713365
0.23776409 -0.6760754 0.38808364 -4.3510195e-09 7.503345e-08 -3.925817e-08 2.164923e-08 -0.94185966
-1.713549e-08 1.517752e-08 0.007034898 0.13076364 1.3562782e-09 0.13002104 1.0320922e-08 0.3027301
0.00026941576 0.01357517 -1.168048e-06 -2.3942931e-08 0.30813846 -5.3921904e-05 -1.0979267 9.016717e-09
-2.8743196e-07 3.0515956e-08 1.2761374e-08 0.0046366453 -0.07594458 0.04181084 -0.42540523 -0.017819652
-0.32234612 0.48709878 -0.428119 3.5585398e-08 1.1243252e-07 -2.2725176e-08 2.2472323e-08 0.8602298
1.3143484e-08 1.5670222e-08 -0.0056716274 -0.1069624 -8.940827e-09 -0.13587402 -1.9703675e-08 -0.28299597
-0.00034595316 0.092744805 2.607714e-07 -1.0680929e-08 -0.2820971 2.6881065e-05 1.1179664 -4.901091e-09
5.956965e-09 -2.2395328e-09 1.7385572e-08 1.2879704e-08 -7.619968e-08 1.721379e-07 2.881709e-08 -3.3946205e-07
-3.6642038e-07 2.000594e-07 -7.7582264e-08 6.2142065e-09 -2.708142e-09 9.509717e-09 -6.0259336e-10 -1.3366403e-07
-1.1284113e-08 -5.164452e-09 9.839599e-09 -8.106855e-08 2.12431e-08 -5.7828753e-08 1.4487988e-08 6.97783e-08
-3.928358e-09 -1.7531279e-07 2.2603022e-09 2.436338e-08 -3.2554328e-07 2.6391362e-09 -6.122077e-08 -1.2049547e-09
-5.346981e-09 8.1644504e-09 -3.3286165e-10 -0.008300684 -0.010324516 -0.020179179 -0.0025398568 -0.028216887
-0.03512318 0.00025226673 -0.0026308515 1.1230364e-08 -2.2109866e-08 -1.0223949e-08 -2.2025098e-08 -0.0022533662
-1.571692e-08 -1.646665e-08 -1.4765188e-05 -0.0068110023 4.7287236e-09 -0.006651034 8.8869184e-10 -0.009126641
1.2556016e-09 -0.04950289 -1.026097e-10 -2.44783e-09 -0.029068442 -6.556081e-09 -0.003215207 6.9909856e-09
1.5066602e-08 -1.7289945e-08 8.903538e-09 2.1286636e-10 2.2148267e-08 -2.1095389e-08 3.203998e-08 -1.1930032e-08
-5.273841e-08 -2.1937005e-08 1.7585396e-08 -1.3292669e-08 -5.3506026e-09 5.1539226e-09 1.1072129e-08 1.8450454e-08
6.923042e-10 9.862671e-10 1.7657936e-08 -2.4547862e-08 -1.16057794e-08 3.0978896e-08 3.3763161e-09 -2.860747e-08
-1.5099667e-08 7.175571e-08 7.1023867e-09 5.727397e-09 4.4415907e-10 -7.631398e-09 -1.9982673e-09 -1.3845898e-09
-3.75856e-08 2.8909074e-08 -1.3487946e-08 -0.57805824 -0.15805171 -0.22994754 -0.13104296 0.07835132
-0.04372115 0.67628866 -0.60952073 -5.524647e-08 3.761533e-08 8.976621e-08 -3.3462896e-08 0.6301277
-1.0397646e-09 1.39604195e-08 -0.00017292929 -0.6876083 1.569355e-08 -0.7012013 3.4227206e-08 -0.5776769
0.00021603667 -0.10187241 -1.4003336e-05 1.0617618e-08 -0.28319517 -1.3225103e-05 1.0652624 -1.2937488e-08
1.839718e-08 -2.4134257e-08 2.6717845e-10 -2.4967095e-09 -1.8850654e-08 8.6715435e-09 1.7921753e-08 -1.0894031e-08
-7.352e-08 1.5626211e-08 3.4210863e-09 5.0903233e-09 2.9495548e-09 5.1290225e-09 -1.7482678e-08 -1.7957506e-08
9.34226e-09 7.2813416e-10 -7.930897e-09 3.3951753e-08 1.1351309e-08 -2.7686017e-08 7.58416e-09 -3.1729012e-08
1.4373624e-08 3.7622645e-08 1.9552404e-09 1.06749765e-08 -2.3918314e-08 -2.0478161e-08 -1.6617824e-08 1.0894335e-08
1.8713369e-08 2.6553957e-08 -4.486721e-09 1.75865e-05 -3.657858e-06 -3.341882e-05 -4.3383493e-06 1.6495507e-05
3.7527624e-07 -1.9132542e-06 4.183483e-06 -2.2256966e-08 8.278713e-09 6.619678e-10 -1.5103591e-08 -5.8572427e-06
-3.9131467e-09 8.699035e-09 -1.562497e-08 -9.43178e-06 3.8591375e-09 8.73492e-07 1.0035948e-08 1.0800147e-05
9.94702e-10 -4.8848604e-05 1.7643865e-08 -1.1029479e-08 -2.7609443e-05 6.970896e-09 7.0550955e-06 3.494606e-09
00000000: 94e2 4035 7552 dd32 9615 b4b2 c691 9a3d
00000010: 7390 383e d170 093e 08b7 023f e8a6 733c
00000020: 6e78 733e 4713 2dbf e6b2 c63e f97f 95b1
00000030: 1322 a133 d09c 28b3 29f7 b932 b71d 71bf
00000040: 5731 93b2 b85f 8232 0085 e63b e7e6 053e
00000050: cc67 ba30 3c24 053e e54f 3132 71ff 9a3e
00000060: 5f40 8d39 646a 5e3c d3c5 9cb5 10ab cdb2
00000070: 53c4 9d3e 342a 62b8 dd88 8cbf f1e7 1a32
00000080: 5950 9ab4 a610 0333 1e3d 5b32 00ef 973b
00000090: d588 9bbd d841 2b3d b7ce d9be 85fa 91bc
000000a0: 8d0a a5be 0365 f93e 6a32 dbbe 8fd6 1833
000000b0: 6e72 f133 3135 c3b2 2909 c132 0538 5c3f
000000c0: a7cd 6132 2f9b 8632 0fd9 b9bb 1a0f dbbd
000000d0: 2c9a 19b2 8f22 0bbe d740 a9b2 d9e4 90be
000000e0: 0c61 b5b9 fdf0 bd3d 2600 8c34 397f 37b2
000000f0: 086f 90be a67e e137 8619 8f3f 7466 a8b1
00000100: 05ae cc31 47e6 19b1 4757 9532 8a45 5d32
00000110: 38a3 a3b3 e8d4 3834 7389 f732 4f3f b6b4
00000120: 6fb8 c4b4 e9cf 5634 4d9b a6b3 bd84 d531
00000130: 231a 3ab1 2d60 2332 bda3 25b0 4a85 0fb4
00000140: 0edc 41b2 0073 b1b1 040b 2932 e817 aeb3
00000150: 127a b632 635f 78b3 d8e6 7832 07d9 9533
00000160: 34fa 86b1 9d3d 3cb4 a853 1b31 a447 d132
00000170: 54c6 aeb4 2d5c 3531 7978 83b3 939b a5b0
00000180: 8bb8 b7b1 a243 0c32 1dfe b6af 98ff 07bc
00000190: 2928 29bc ce4e a5bc ba73 26bb 1a27 e7bc
000001a0: 53dd 0fbd ab42 8439 5d6a 2cbb aaef 4032
000001b0: 1cec bdb2 67a5 2fb2 b431 bdb2 36ad 13bb
000001c0: df01 87b2 8c72 8db2 00b8 77b7 d42e dfbb
000001d0: 4b7a a231 ebf0 d9bb 2148 7430 e887 15bc
000001e0: 8e91 ac30 8bc3 4abd 20a4 e1ae ae36 28b1
000001f0: f120 eebc e643 e1b1 39b6 52bb 5c35 f031
00000200: cf6b 8132 fe84 94b2 2df6 1832 8e0c 6a2f
00000210: 8e40 be32 4035 b5b2 559c 0933 d6f4 4cb2
00000220: 7f82 62b3 fc6f bcb2 b20e 9732 c75d 64b2
00000230: 66d8 b7b1 6216 b131 bd37 3e32 fa7c 9e32
00000240: 944c 3e30 308d 8730 36ae 9732 52dd d2b2
00000250: c262 47b2 a80d 0533 c804 6831 7ebc f5b2
00000260: 85b4 81b2 1e18 9a33 4109 f431 b7ca c431
00000270: d52d f42f 3e1b 03b2 e451 09b1 ec4b beb0
00000280: ce6d 21b3 ba53 f832 9db8 67b2 a0fb 13bf
00000290: 4fd8 21be 5e77 6bbe 2030 06be a876 a03d
000002a0: f314 33bd 4121 2d3f 8d09 1cbf 2348 6db3
000002b0: 7e8e 2133 7fc5 c033 d8b8 0fb3 0d50 213f
000002c0: 77e7 8eb0 93d6 6f32 5a54 35b9 1907 30bf
000002d0: 7bce 8632 ee81 33bf 3601 1333 a2e2 13bf
000002e0: e787 6239 7ba2 d0bd dfef 6ab7 c768 3632
000002f0: f5fe 90be 63e1 5db7 855a 883f ad43 5eb2
00000300: d407 9e32 cb4f cfb2 06e2 922f 9492 2bb1
00000310: 07ed a1b2 daf9 1432 5af2 9932 7428 3bb2
00000320: 0ce2 9db3 673a 8632 6318 6b31 f5e6 ae31
00000330: 1eb1 4a31 5c3b b031 d12c 96b2 f940 9ab2
00000340: b27f 2032 e325 4830 7440 08b2 59d2 1133
00000350: 9603 4332 32d2 edb2 7d4b 0232 6b46 08b3
00000360: deef 7632 8996 2133 f45c 0631 0b65 3732
00000370: ee74 cdb2 f4e7 afb2 fbbe 8eb2 cb29 3b32
00000380: 22bf a032 c518 e432 9e29 9ab1 b986 9337
00000390: 8679 75b6 2f2b 0cb8 2392 91b6 d55f 8a37
000003a0: 9379 c934 7565 00b6 d85f 8c36 962f bfb2
000003b0: 2a3a 0e32 d8f5 3530 26bd 81b2 5589 c4b6
000003c0: 6774 86b1 c372 1532 ac37 86b2 303d 1eb7
000003d0: 5599 8431 ea79 6a35 916a 2c32 4732 3537
000003e0: f7b5 8830 cae2 4cb8 458f 9732 297c 3db2
000003f0: d49a e7b7 a684 ef31 cfba ec36 c225 7031

convs.0.lin_pos_r.bias f4 [32]
-0.004265737 0.21735293 -0.004772979 -0.057922635 -0.0063084182 0.11383478 -0.0031495034 -0.00437376
-0.019196827 -0.0052254745 -6.0416485e-05 -0.0027137776 0.07143647 -0.041608084 -0.035921156 -0.018103369
-0.0040274477 -0.016751138 -0.045208696 -0.029490916 -0.05216868 -0.01009466 -2.7546985e-05 0.09773322
-1.8346063e-05 -0.014671442 -2.9286792e-05 -0.00089819747 -0.004956858 -0.012771586 -1.0748169e-06 0.021616526
00000000: 98c7 8bbb c491 5e3e a666 9cbb 4940 6dbd
00000010: d9b6 cebb 3622 e93d e667 4ebb c251 8fbb
00000020: aa42 9dbc 753a abbb b567 7db8 a2d9 31bb
00000030: 494d 923d 3d6d 2abd 1022 13bd 844d 94bc
00000040: aef8 83bb af39 89bc c12c 39bd ef96 f1bc
00000050: d3ae 55bd 1364 25bc b314 e7b7 5b28 c83d
00000060: dfe5 99b7 7d60 70bc e8ac f5b7 0375 6bba
00000070: 246d a2bb ea3f 51bc 6d42 90b5 2415 b13c

convs.0.lin_neg_l.weight f4 [32, 64]
1.678659e-09 -3.365389e-08 1.9889429e-08 -2.3835051e-08 4.2367554e-09 7.3371e-10 -8.883744e-09 1.0984034e-08
-3.2248153e-08 1.5754013e-08 3.2434107e-09 -1.0397196e-08 -3.0205352e-09 6.1375814e-11 -2.0626832e-08 2.156248e-09
-2.0327218e-09 7.312857e-09 -3.1270175e-09 -1.0588589e-08 3.0306797e-08 -5.061933e-09 1.1491177e-08 1.4768423e-09
-1.5666734e-08 5.6304006e-09 -2.2560513e-08 1.571546e-08 7.402448e-10 -4.5467803e-09 1.3165339e-08 -2.6133218e-10
1.6238231e-09 -1.1808537e-08 -4.0408843e-10 -1.5166046e-08 -5.531711e-09 1.8013878e-08 -1.1361951e-08 -8.016914e-09
-3.0453187e-08 -4.2944523e-09 9.942587e-09 4.5939745e-09 -3.1762635e-09 -1.6039978e-09 8.0209155e-09 -1.0711231e-08
-1.1970905e-08 1.6913199e-09 -3.2155152e-09 -1.6369707e-08 1.8530288e-09 7.3133437e-09 1.1103905e-08 2.0018232e-09
1.5102847e-08 2.4543183e-08 2.6944407e-09 -7.113946e-09 9.451211e-09 -6.560124e-09 2.9091718e-09 -8.027497e-09
-7.899057e-09 2.5488649e-05 -4.0072744e-05 7.557072e-05 -2.622066e-09 -6.0434835e-09 3.419016e-09 5.0732854e-07
0.00012895875 9.4630805e-06 -6.345034e-05 2.8853337e-05 1.3204229e-05 0.0001308807 -9.648039e-05 -3.4705434e-05
-1.7568532e-08 -1.8587332e-13 -1.7701349e-06 -3.7402962e-05 3.944902e-06 1.0402668e-08 -5.0187333e-05 -5.486999e-09
7.503454e-10 4.194302e-09 7.1116214e-05 4.4542197e-05 1.8502342e-05 8.80233e-09 3.1496635e-05 -9.4327064e-05
9.144243e-10 9.96734e-09 -1.3874892e-08 3.375054e-05 7.850512e-05 0.00011048462 9.720948e-06 -5.5406323e-05
-0.00016301384 -4.2554526e-05 4.409127e-05 -8.006432e-09 -1.5865643e-09 -4.3370627e-09 8.0952284e-10 -2.7406926e-05
1.4246815e-09 -1.0540158e-08 -2.2985056e-09 3.6962923e-05 -1.44192995e-08 3.218448e-05 3.126433e-09 2.0088191e-07
-4.94641e-09 -0.00060197443 -1.1405237e-07 -6.85705e-10 -0.00017519559 7.515752e-11 7.555861e-05 6.116965e-09
9.311576e-09 -0.03469989 -0.0016062965 -0.043564297 0.0005644115 -4.7743143e-09 -0.0018000978 -4.2897267e-07
1.0866593e-08 0.0043844827 -6.083357e-10 -0.021857647 1.7165242e-08 1.7717368e-09 0.0097984085 -1.2474917e-09
1.0131724e-08 -1.17881935e-08 4.344359e-09 -0.008525045 -1.2952428e-09 -1.1063962e-08 0.034882154 0.0022281685
-3.0002703e-09 3.6272416e-09 -0.014885754 0.033145864 0.002947108 -4.241981e-09 0.005403809 -1.6398443e-09
-9.356743e-09 0.03840037 8.008303e-09 -1.4189838e-08 -4.131086e-09 7.512575e-09 -0.0021383446 -8.586404e-10
-0.03283832 0.050293013 -0.024351532 -0.0003017323 -0.0051660314 0.029486753 0.0393326 -0.031053819
-0.014201507 -8.677465e-09 1.2347846e-09 8.73624e-09 0.0041749054 -0.0212025 1.1033199e-08 0.052010737
1.5213727e-08 -2.236316e-09 -1.2002133e-08 -0.009867176 -4.2397642e-07 6.501544e-09 -0.031326406 1.8135122e-08
-6.20277e-09 0.03048569 0.021024356 0.19129176 6.86448e-05 -3.6225123e-07 1.6105541e-07 0.05941924
0.13317572 -0.20930344 0.2232803 0.045825146 -0.13287671 0.027109638 0.09474302 -0.0527105
3.1329391e-06 8.757849e-09 0.017668357 -0.01879663 -0.03687232 3.408301e-05 -0.012902371 -0.005572831
-0.0013075047 6.825928e-09 -0.08717063 -0.03402386 0.13249531 1.6438538e-08 -0.009474337 0.11470689
-1.994812e-07 -0.030603955 -8.349248e-09 -0.026824187 -0.079141155 -0.010245811 -0.05034277 0.06753615
0.08467956 0.015570454 0.064936966 2.5500636e-08 -1.5579888e-05 -0.0015898331 0.0064824023 -1.7356064e-05
-0.00011212747 1.7679968e-08 -0.001189957 0.057963915 0.0027985834 0.054660473 6.9799104e-09 0.044222336
0.00015017494 0.087505125 -1.0828487e-05 -0.016797032 0.05068477 -4.2579337e-05 -0.0534944 8.468664e-09
00000000: 90b6 e630 d88a 10b3 51d9 aa32 d5bd ccb2
00000010: e592 9131 40ae 4930 1f9f 18b2 4bb4 3c32
00000020: 3881 0ab3 7153 8732 afe2 5e31 5a9f 32b2
00000030: d191 4fb1 83f7 862e e22e b1b2 1e2d 1431
00000040: 05b0 0bb1 9244 fb31 13e3 56b1 1be9 35b2
00000050: ad2a 0233 3ced adb1 bb6a 4532 c5f9 ca30
00000060: 8393 86b2 8775 c131 18cb c1b2 a9fe 8632
00000070: 197a 4b30 e739 9cb1 c62d 6232 3cab 8faf
00000080: 322d df30 7fde 4ab2 6426 deaf 7d46 82b2
00000090: 7211 beb1 f0bc 9a32 6432 43b2 c3ba 09b2
000000a0: a2cb 02b3 678e 93b1 f6cf 2a32 07d9 9d31
000000b0: 6b45 5ab1 a873 dcb0 5ccc 0932 7e04 38b2
000000c0: 99a8 4db2 0774 e830 f1f7 5cb1 5e9d 8cb2
000000d0: a8ad fe30 da48 fb31 7ec3 3e32 7290 0931
000000e0: 83bb 8132 08d3 d232 1a29 3931 ee6e f4b1
000000f0: de5e 2232 7667 e1b1 b1ea 4731 4ee9 09b2
00000100: 6cb4 07b2 75d0 d537 c813 28b8 b97b 9e38
00000110: df2f 34b1 0ba7 cfb1 f7f3 6a31 5a2f 0835
00000120: 1a39 0739 9fc3 1e37 a410 85b8 120a f237
00000130: bb87 5d37 053d 0939 8455 cab8 ad90 11b8
00000140: 9ce9 96b2 5646 51aa 5f95 edb5 20e1 1cb8
00000150: 735e 8436 6bb7 3232 3d80 52b8 2788 bcb1
00000160: dd40 4e30 781d 9031 3a24 9538 d2d2 3a38
00000170: 7a35 9b37 0f39 1732 411b 0438 75d1 c5b8
00000180: e45a 7b30 d33c 2b32 6c5e 6eb2 5e8f 0d38
00000190: 1ea3 a438 fbb3 e738 2717 2337 1664 68b8
000001a0: b2ee 2ab9 937c 32b8 a4ee 3838 a98c 09b2
000001b0: 450e dab0 3505 95b1 1b85 5e30 ede7 e5b7
000001c0: 86ce c330 1b14 35b2 bdf3 1db1 a308 1b38
000001d0: c0b8 77b2 d2fd 0638 cad8 5631 00b2 5734
000001e0: 15f5 a9b1 d2cd 1dba f4ec f4b3 337c 3cb0
000001f0: b5b4 37b9 ec45 a52e 3875 9e38 652d d231
00000200: bff8 1f32 7921 0ebd 5e8a d2ba 7a70 32bd
00000210: 04f5 133a 500b a4b1 42f1 ebba 8e4d e6b4
00000220: c8af 3a32 b5ab 8f3b d237 27b0 cf0e b3bc
00000230: c472 9332 7281 f330 8189 203c 3674 abb0
00000240: cb0f 2e32 0685 4ab2 6345 9531 a1ac 0bbc
00000250: 4e04 b2b0 d213 3eb2 97e0 0e3d 7706 123b
00000260: 502d 4eb1 1c43 7931 61e3 73bc f5c3 073d
00000270: 4424 413b dcc0 91b1 6f12 b13b e460 e1b0
00000280: 64bf 20b2 b549 1d3d e494 0932 91c7 73b2
00000290: 6bf1 8db1 a710 0132 7823 0cbb 7205 6cb0
000002a0: 7981 06bd 0c00 4e3d dd7c c7bc d331 9eb9
000002b0: d047 a9bb 348e f13c 381b 213d 9464 febc
000002c0: 70ad 68bc e513 15b2 1fb5 a930 6416 1632
000002d0: a5cd 883b deb0 adbc 868c 3d32 3609 553d
000002e0: 57af 8232 b0ad 19b1 f031 4eb2 f0a9 21bc
000002f0: e09e e3b4 3064 df31 1e50 00bd 8ec7 9b32
00000300: 2420 d5b1 20bd f93c 453b ac3c fde1 433e
00000310: 65f5 8f38 6e7b c2b4 93ee 2c34 9761 733d
00000320: 375f 083e a453 56be 97a3 643e 26b3 3b3d
00000330: d510 08be 0815 de3c a108 c23d f7e6 57bd
00000340: 7c3f 5236 6d75 1632 3bbd 903c 64fb 99bc
00000350: 6e07 17bd 5af4 0e38 7764 53bc 4b9c b6bb
00000360: 9460 abba 7f89 ea31 8486 b2bd 9a5c 0bbd
00000370: daac 073e ba34 8d32 403a 1bbc 72eb ea3d
00000380: fa30 56b4 25b5 fabc 6270 0fb2 66be dbbc
00000390: c214 a2bd 0cde 27bc 3834 4ebd 6550 8a3d
000003a0: 7a6c ad3d 381b 7f3c acfd 843d 7e0c db32
000003b0: 8eb1 82b7 f261 d0ba 556a d43b dd97 91b7
000003c0: fa25 ebb8 a9de 9732 55f8 9bba 926b 6d3d
000003d0: 7068 373b a9e3 5f3d f1d3 ef31 7b22 353d
000003e0: 4778 1d39 e335 b33d ffab 35b7 ee99 89bc
000003f0: d59a 4f3d 3797 32b8 f21c 5bbd 947d 1132
