Epinions/models/Epinions-train-1.pt (torch, 63739 bytes, 14 tensors)

conv1.lin_pos_l.weight f4 [32, 64]
0.026347548 -0.02117056 0.02076426 -0.035002843 -0.0068215514 -0.013309876 -0.008905077 0.068982005
0.013323008 0.026793484 0.031203616 -0.0049711736 0.026579661 0.010013533 -0.011009475 0.008834925
0.012833282 -0.026145644 -0.044421267 0.00955119 -0.0060071447 0.009570288 -0.010904255 -0.05451966
-0.029579122 0.036865056 0.020871667 0.017131161 -0.0075373244 -0.00021821953 -0.026466493 0.019554056
0.025373954 -0.009789657 0.009547444 -0.058330044 0.0077925273 -0.046081208 0.01801189 -0.009067436
0.020724244 -0.029043853 0.05412177 0.04653359 0.017101284 0.013978191 0.025793346 0.028517364
-0.01377907 -0.015609932 0.011655577 0.028700253 0.004465745 -0.0111823715 -0.03214192 -0.009639346
-0.010214006 0.0147090815 -0.012408722 0.030813875 0.042127505 0.02421753 0.0018989333 -0.024895437
-0.019894987 -0.66538566 -0.22078149 -0.064751625 -0.25019097 -0.019643217 0.0040492984 -0.2798719
0.02308782 0.066209935 0.12344935 0.006237306 -0.06916522 -0.027895447 -0.18896063 0.2605972
-0.018848535 -0.04679988 0.14899777 0.006240168 -0.058453273 -0.017043363 -0.10980982 -0.004963576
-0.03911617 -0.13068382 -0.13989685 -0.0750947 0.0793933 -0.2770072 -0.063925505 -0.0014155905
-0.16524833 -0.06441345 -0.12613487 0.061391093 -0.097621694 0.13798338 0.04179621 -0.026294831
0.035184585 0.02049072 0.03271462 -0.10868804 -0.027139056 -0.047006663 -0.1445458 0.074994266
0.07094002 0.046202 -0.16029842 0.0014803546 0.33539045 -0.08370499 -0.008190849 -0.14264503
0.041222107 0.057103112 -0.079978295 -0.13352162 -0.17969082 -0.0056847697 0.028475 0.15350424
2.066809e-09 -1.1666405e-08 8.139231e-09 6.92922e-09 -8.6548155e-09 -1.3378601e-08 -8.606204e-09 4.3865134e-09
-6.5776224e-09 4.1278914e-09 2.877992e-09 3.914145e-09 -6.43834e-09 3.525888e-09 -4.7152082e-09 -2.0016995e-09
-1.80668e-08 -1.5526608e-08 3.3774037e-09 -9.069031e-09 7.166796e-09 -9.964676e-10 -1.5879528e-10 -1.1101502e-08
3.5018373e-09 -3.9729615e-09 -4.68091e-09 1.944163e-10 3.7615817e-09 -1.1119572e-08 -2.8333165e-09 3.4947756e-09
2.5422542e-09 7.6937825e-09 4.118188e-09 2.1931885e-09 -2.807827e-09 -6.778372e-09 -1.7938678e-09 3.64717e-10
-7.126317e-09 2.832792e-10 1.7168544e-08 -1.0140592e-08 7.4995885e-09 -1.3328817e-08 -5.304286e-09 9.8241575e-09
4.9352793e-09 -5.8127707e-09 -3.0835308e-09 9.940579e-09 -1.1893974e-08 2.268505e-09 -1.1492287e-08 -4.649407e-09
-1.2944272e-08 4.0080215e-09 1.04909805e-08 1.9200652e-09 8.258385e-09 -2.213842e-09 2.5054263e-09 5.79565e-09
-6.466845e-08 4.327404e-07 2.7420987e-07 1.1406221e-07 2.89736e-08 4.4026606e-08 -3.67348e-08 -1.6740897e-07
2.1133987e-07 1.3628207e-07 -7.682977e-08 1.966808e-08 -2.5598483e-09 -1.0371288e-07 -2.5869466e-07 1.00928084e-07
3.353394e-08 1.3038053e-07 5.1765216e-08 2.7779106e-07 6.902973e-08 -1.4946396e-08 -8.697173e-09 -1.443707e-07
-2.9795924e-08 1.824194e-07 -4.8939683e-08 2.1626917e-08 2.6381842e-08 2.9629547e-08 4.9837094e-08 -4.907378e-08
2.6933598e-08 -2.2678762e-08 2.3637003e-08 1.6077529e-08 1.2747214e-08 -6.217164e-09 1.6909995e-08 -2.7382423e-08
-1.3124267e-08 4.5399653e-09 5.687378e-08 -1.0496102e-07 -2.663982e-08 7.842944e-08 1.3978323e-08 8.5732643e-10
8.891753e-09 1.4798571e-09 2.9139484e-08 -5.2913385e-09 -4.530742e-08 -3.2897434e-09 -7.564641e-10 2.1604867e-08
-2.4340311e-08 1.7204517e-08 -4.0651987e-08 6.0272423e-09 -3.9933393e-10 -1.23454456e-08 -1.2542475e-08 7.618346e-09
00000000: d0d6 d73c e26d adbc cf19 aa3c 245f 0fbd
00000010: 5287 dfbb ab11 5abc 9ae6 11bc 7046 8d3d
00000020: bf48 5a3c 027e db3c ba9e ff3c 3ae5 a2bb
00000030: 97bd d93c cd0f 243c 1661 34bc 5cc0 103c
00000040: b042 523c 642f d6bc 13f3 35bd 987c 1c3c
00000050: 95d7 c4bb b2cc 1c3c c3a7 32bc 0250 5fbd
00000060: ea4f f2bc d0ff 163d 0ffb aa3c a656 8c3c
00000070: a9fb f6bb dcd1 64b9 42d0 d8bc d42f a03c
00000080: 0add cf3c cc64 20bc e26c 1c3c 7ceb 6ebd
00000090: 7558 ff3b a6bf 3cbd ac8d 933c 958f 14bc
000000a0: e4c5 a93c 60ed edbc caae 5d3d 019a 3e3d
000000b0: fe17 8c3c c804 653c 914c d33c 3f9d e93c
000000c0: 9cc1 61bc cdc0 7fbc 09f7 3e3c cb1c eb3c
000000d0: 6255 923b 4436 37bc 3fa7 03bd 59ee 1dbc
000000e0: a558 27bc 5cfe 703c f44d 4bbc 616d fc3c
000000f0: e48d 2c3d d763 c63c a1e5 f83a 84f1 cbbc
00000100: d0fa a2bc b756 2abf 8b14 62be 809c 84bd
00000110: 0819 80be d0ea a0bc faaf 843b 5f4b 8fbe
00000120: ab22 bd3c 1399 873d 03d3 fc3d 5162 cc3b
00000130: 7fa6 8dbd fe84 e4bc e57e 41be ff6c 853e
00000140: 3e68 9abc 3bb1 3fbd df92 183e 537a cc3b
00000150: b36c 6fbd 869e 8bbc f9e3 e0bd 7ea5 a2bb
00000160: 4738 20bd fbd1 05be 1f41 0fbe 40cb 99bd
00000170: f498 a23d e3d3 8dbe 60eb 82bd 568b b9ba
00000180: dc36 29be 33eb 83bd 8029 01be 3a75 7b3d
00000190: e2ed c7bd 844b 0d3e 8132 2b3d 4268 d7bc
000001a0: b61d 103d 28dc a73c c4ff 053d d697 debd
000001b0: ba52 debc 0f8a 40bd d003 14be 9896 993d
000001c0: 0049 913d 4f3e 3d3d 4525 24be 7508 c23a
000001d0: 4cb8 ab3e 866d abbd e932 06bc 8a11 12be
000001e0: 83d8 283d f4e4 693d a9cb a3bd e4b9 08be
000001f0: df00 38be 4e47 babb 6744 e93c 3730 1d3e
00000200: b007 0e31 646d 48b2 b7d4 0b32 1016 ee31
00000210: 48b0 14b2 b6d7 65b2 7cda 13b2 2eb8 9631
00000220: 6101 e2b1 51d5 8d31 2cc6 4531 2f7d 8631
00000230: 3d38 ddb1 144c 7231 6903 a2b1 458e 09b1
00000240: 5031 9bb2 5f5f 85b2 ea17 6831 05ce 1bb2
00000250: ce3f f631 16f4 88b0 e698 2eaf ecb8 3eb2
00000260: f9a4 7031 8a82 88b1 b8d5 a0b1 53c3 552f
00000270: 393f 8131 6508 3fb2 3bb4 42b1 be28 7031
00000280: cfb3 2e31 9d2d 0432 f77f 8d31 fbb6 1631
00000290: d1f3 40b1 31e7 e8b1 1d8c f6b0 5b81 c82f
000002a0: bfdb f4b1 01bc 9b2f 077a 9332 cc36 2eb2
000002b0: 8ad7 0032 c2fc 64b2 fe40 b6b1 1ac7 2832
000002c0: 2d93 a931 acb9 c7b1 0ce6 53b1 21c7 2a32
000002d0: 4056 4cb2 f6e3 1b31 9d6f 45b2 9ec0 9fb1
000002e0: 8361 5eb2 eeb6 8931 d23b 3432 25f2 0331
000002f0: c3e0 0d32 5222 18b1 ed2b 2c31 1423 c731
00000300: dbdf 8ab3 6353 e834 1e37 9334 5df2 f433
00000310: 9fe1 f832 c417 3d33 57c6 1db3 07c1 33b4
00000320: a9ec 6234 ee54 1234 9dfd a4b3 91f2 a832
00000330: 54e9 2fb1 c2b8 deb3 b9e2 8ab4 cdbd d833
00000340: f506 1033 bafe 0b34 7554 5e33 5023 9534
00000350: 7f3d 9433 7963 80b2 926a 15b2 5104 1bb4
00000360: eef1 ffb2 10df 4334 c031 52b3 18c6 b932
00000370: 499e e232 1084 fe32 770c 5633 31c5 52b3
00000380: 9c5b e732 20cf c2b2 520a cb32 dc1a 8a32
00000390: d7fe 5a32 c19e d5b1 7941 9132 9636 ebb2
000003a0: 2379 61b2 f5fd 9b31 6245 7433 ee66 e1b3
000003b0: 95d5 e4b2 0a6d a833 5125 7032 fca8 6b30
000003c0: 58c2 1832 d863 cb30 674e fa32 1bcf b5b1
000003d0: 0998 42b3 c711 62b1 6eef 4fb0 9b95 b932
000003e0: e914 d1b2 22c9 9332 5599 2eb3 2f18 cf31
000003f0: 4189 dbaf d817 54b2 637a 57b2 d7e1 0232

conv1.lin_pos_r.weight f4 [32, 64]
0.02939253 -0.0505454 -0.03752137 -0.012648654 -0.020841725 -0.004579532 0.0065742717 0.056712937
0.0090580145 -0.023611274 0.097104825 -0.02167319 0.08295159 -0.0066879443 -0.059218198 0.055017017
-0.0037954007 0.005976214 -0.0768345 0.02430782 -0.012022763 -0.01806747 -0.08242587 -0.019636873
-0.052979197 0.04227461 0.030382078 0.024049867 0.018665722 -0.012017399 -0.04756108 0.024800306
0.06280546 0.0388159 0.016714 -0.0114179645 0.02636144 -0.04987301 0.016317539 0.013048222
0.040594064 -0.080215275 -0.008135475 0.019863566 0.0664415 -0.00026395984 -0.057035618 0.09052099
-0.05199364 0.0438773 0.008617469 -0.041568328 -0.004147943 0.09870075 -0.034998633 0.012545565
0.037771508 -0.08507721 5.2475196e-05 0.021098109 0.046334155 0.018328484 -0.0132856285 -0.067323275
0.079510115 -1.030366 -0.72472745 -0.061466705 0.033180375 0.026095212 0.01296891 -0.08292969
0.020853825 -0.24111538 0.083887585 -0.033849638 0.062440332 -0.108563125 -0.06833344 -0.09698925
0.13917023 0.01880672 0.10373328 -0.18017972 -0.10819456 0.07640372 -0.25115353 -0.028567888
-0.0055793296 0.09647905 -0.36571878 -0.053079028 -0.06604683 -0.063580416 0.11040953 0.100795045
0.030051911 -0.20775588 -0.029353099 -0.16962282 0.13220331 0.10172499 -0.07083457 -0.0038693158
-0.07603705 -0.013407685 -0.07038394 0.2666438 -0.24050124 -0.034797933 -0.09910985 -0.23635568
0.12101383 -0.010735701 0.12350382 0.03414296 0.16424114 0.008636625 -0.24349004 0.024016548
-0.053365096 -0.13752131 -0.13747595 0.026458422 -0.04850766 0.18116401 -0.080532275 -0.02360809
-1.6511223e-08 -1.8729743e-08 -5.638208e-09 -1.060545e-09 -9.835027e-09 9.632313e-09 -7.341673e-09 1.3815015e-08
7.962175e-09 1.406939e-08 3.0762862e-08 -4.678507e-09 4.348011e-09 -8.792651e-09 8.156615e-09 7.463484e-09
-3.2087315e-09 4.155592e-09 -4.8399142e-09 3.9031754e-08 -8.339225e-09 -9.221538e-09 4.4389212e-09 1.3920443e-08
-3.537454e-10 2.8383171e-09 -7.3508613e-09 8.028872e-09 -9.400429e-09 -9.639068e-09 -7.995212e-09 1.5558005e-08
-2.250203e-09 1.528928e-08 4.2021515e-09 -6.2390835e-09 3.7345984e-11 9.017369e-09 -2.2273743e-09 -2.4074307e-08
7.030075e-10 -2.6910498e-09 -1.4748729e-08 4.156898e-09 1.2446337e-08 -9.701506e-09 4.4505785e-10 -1.4802647e-08
1.1948161e-08 2.0527885e-08 -2.8153273e-09 8.48848e-09 1.0055863e-08 9.9818465e-09 7.9752525e-09 8.666651e-09
5.261945e-09 8.1300975e-09 -1.0188001e-08 9.527014e-10 -7.3026174e-10 5.753527e-10 -6.117702e-09 1.240614e-09
-1.2335119e-07 -7.260903e-07 1.7614099e-07 -2.3880396e-08 -6.7465127e-09 -2.8789497e-08 3.2280113e-08 1.3926223e-07
-4.6281237e-08 1.5183326e-07 1.07039355e-07 4.2424766e-08 3.7077363e-08 -5.389902e-08 7.5848074e-09 -2.244558e-09
6.2135204e-09 2.3135287e-08 -1.9380877e-08 1.5318099e-08 1.0248398e-07 2.4944827e-08 1.7715275e-08 -1.3976755e-07
-6.8784566e-08 1.4170442e-08 -9.627941e-08 4.579623e-08 -1.8588442e-07 -5.1358967e-08 6.248086e-08 1.3382915e-07
6.441589e-08 -1.327651e-07 1.081323e-07 -9.768934e-08 1.0163987e-08 1.2669145e-07 -4.2203087e-08 -2.5151525e-07
-9.616601e-08 5.2076288e-08 1.4295552e-08 -1.45455985e-08 3.4329144e-08 -4.1088646e-07 2.3890467e-09 -4.9488538e-08
-9.061176e-09 3.0448692e-08 -4.513677e-08 4.0801787e-08 -2.5613057e-08 -1.2185251e-07 -2.3246074e-08 5.0232753e-08
2.4156781e-08 3.3404284e-08 -1.5241037e-08 -9.5174734e-08 -5.7923298e-08 -4.317599e-08 1.133694e-08 1.5149862e-08
00000000: 9ac8 f03c b108 4fbd 02b0 19bd 4d3c 4fbc
00000010: 44bc aabc e60f 96bb fd6c d73b d34b 683d
00000020: 1168 143c 6e6c c1bc e5de c63d f98b b1bc
00000030: 86e2 a93d 8b26 dbbb c88e 72bd 8659 613d
00000040: 42bc 78bb 1ed4 c33b 685b 9dbd 3121 c73c
00000050: 1ffb 44bc 3b02 94bc e5ce a8bd 82dd a0bc
00000060: b700 59bd 2428 2d3d d6e3 f83c 3a04 c53c
00000070: dbe8 983c a0e4 44bc 68cf 42bd 032a cb3c
00000080: 26a0 803d 6cfd 1e3d cceb 883c 6a12 3bbc
00000090: f2f3 d73c a447 4cbd 5cac 853c 36c8 553c
000000a0: f645 263d e847 a4bd a84a 05bc ebb8 a23c
000000b0: 7b12 883d 1764 8ab9 2e9e 69bd 1263 b93d
000000c0: 48f7 54bd afb8 333d 4930 0d3c 8d43 2abd
000000d0: 78eb 87bb 9e23 ca3d ba5a 0fbd ea8b 4d3c
000000e0: 4cb6 1a3d f63c aebd d018 5c38 f1d5 ac3c
000000f0: e2c8 3d3d 9e25 963c f7ab 59bc c9e0 89bd
00000100: 33d6 a23d 08e3 83bf bd87 39bf 83c4 7bbd
00000110: 25e8 073d a0c5 d53c 8d7b 543c 0bd7 a9bd
00000120: a4d5 aa3c f3e6 76be 41cd ab3d eba5 0abd
00000130: 6fc1 7f3d 5856 debd 67f2 8bbd 4da2 c6bd
00000140: a482 0e3e 8d10 9a3c 1d72 d43d 0881 38be
00000150: 1c95 ddbd 8e79 9c3d 3297 80be 3407 eabc
00000160: cfd2 b6bb cf96 c53d 7e3f bbbe 6569 59bd
00000170: 8f43 87bd 7336 82bd 641e e23d a26d ce3d
00000180: 6d2f f63c f5bd 54be e975 f0bc 9bb1 2dbe
00000190: 4e60 073e 3155 d03d b711 91bd 5994 7dbb
000001a0: 50b9 9bbd e8ab 5bbc 7525 90bd 8985 883e
000001b0: f545 76be 4788 0ebd 1bfa cabd 3907 72be
000001c0: 19d6 f73d cbe4 2fbc 92ef fc3d 7dd9 0b3d
000001d0: d42e 283e a180 0d3c 7455 79be 5abe c43c
000001e0: 5c95 5abd 63d2 0cbe 7fc6 0cbe 55bf d83c
000001f0: f8af 46bd 0f83 393e 1bee a4bd c165 c1bc
00000200: 90d4 8db2 24e3 a0b2 34ba c1b1 9cc2 91b0
00000210: e8f6 28b2 5c7b 2532 0a42 fcb1 1457 6d32
00000220: 04ca 0832 d5b5 7132 2020 0433 95c0 a0b1
00000230: 8265 9531 7d0e 17b2 2c21 0c32 c038 0032
00000240: 9a80 5cb1 f9c8 8e31 564c a6b1 dea3 2733
00000250: 4d44 0fb2 c16c 1eb2 2a85 9831 c126 6f32
00000260: 3d79 c2af 340c 4331 dc92 fcb1 5aef 0932
00000270: 867f 21b2 1299 25b2 505b 09b2 6aa4 8532
00000280: fda1 1ab1 7b55 8332 8462 9031 8f5f d6b1
00000290: d73f 242e cfea 1a32 6210 19b1 f6cb ceb2
000002a0: c13d 4130 73ed 38b1 9961 7db2 76d4 8e31
000002b0: 92d3 5532 adab 26b2 53ac f42f bb4e 7eb2
000002c0: 9144 4d32 4c55 b032 c377 41b1 bbd4 1132
000002d0: 27c2 2c32 a07c 2b32 8803 0932 56e4 1432
000002e0: 8fcc b431 8cac 0b32 4d07 2fb2 33f0 8230
000002f0: 9abb 48b0 d926 1e30 e033 d2b1 3982 aa30
00000300: 8472 04b4 8ce8 42b5 4421 3d34 8c21 cdb2
00000310: f4ce e7b1 c64c f7b2 5ca4 0a33 1c88 1534
00000320: c2c6 46b3 9c07 2334 82dd e533 8636 3633
00000330: fe3e 1f33 997e 67b3 564e 0232 af3e 1ab1
00000340: b47e d531 09bb c632 007b a6b2 db94 8332
00000350: 2a15 dc33 4146 d632 4d2c 9832 0313 16b4
00000360: b7b6 93b3 4372 7332 2ac2 ceb3 7db1 4433
00000370: 8597 47b4 c895 5cb3 372d 8633 adb2 0f34
00000380: 0355 8a33 318e 0eb4 5c36 e833 48c9 d1b3
00000390: b09d 2e32 ae08 0834 c942 35b3 fe07 87b4
000003a0: d383 ceb3 7caa 5f33 8198 7532 38e4 79b2
000003b0: 4b71 1333 ce97 dcb4 8e2c 2431 398d 54b3
000003c0: 79ab 1bb2 b1c6 0233 67dc 41b3 0a3e 2f33
000003d0: b503 dcb2 90d6 02b4 a8ae c7b2 7fbf 5733
000003e0: 5381 cf32 6678 0f33 65eb 82b2 dd62 ccb3
000003f0: 57c7 78b3 8170 39b3 64c4 4232 e622 8232

conv1.lin_pos_r.bias f4 [32]
0.1546806 0.02770528 -0.027244575 -0.0021849093 0.14719427 0.065540336 0.02099873 -0.03107249
0.04093901 0.024164183 0.025354909 -0.039345443 -0.029550603 -0.03144262 0.005231327 0.0028952167
-0.04504224 -0.0120329205 -0.0037603723 -2.4028406e-05 -0.04929721 0.013841441 -0.010011941 0.030314527
-0.01635665 -0.010132205 -0.00339687 -0.01870984 -0.005572543 0.0040108114 0.011375189 -0.039700683
00000000: 9764 1e3e 2ff6 e23c 0430 dfbc b230 0fbb
00000010: 18ba 163e 033a 863d 8705 ac3c bc8b febc
00000020: aaaf 273d f7f3 c53c 19b5 cf3c b028 21bd
00000030: 1b14 f2bc fac9 00bd 8d6b ab3b adbd 3d3b
00000040: 367e 38bd ba25 45bc 9470 76bb 9c90 c9b7
00000050: dfeb 49bd 36c7 623c 2009 24bc 2c56 f83c
00000060: 62fe 85bc 8c01 26bc 069e 5ebb 6145 99bc
00000070: e199 b6bb 206d 833b 005f 3a3c 2f9d 22bd

conv1.lin_neg_l.weight f4 [32, 64]
-4.206777e-09 -5.842837e-09 5.210532e-09 3.6201486e-11 -1.8361787e-09 1.0200518e-08 -7.0502537e-09 2.4047534e-08
-1.2711987e-09 -9.965734e-09 1.4365837e-09 1.2267305e-09 -1.3106149e-08 -1.206192e-09 -1.0690732e-08 9.056789e-09
-2.7268214e-09 -1.3397253e-09 -9.8295025e-09 1.2047895e-08 -7.959281e-09 -6.9758355e-09 -1.9983768e-09 -9.128836e-09
1.1674576e-09 3.7482697e-09 8.7024254e-09 -1.1740497e-08 -4.774119e-09 -1.0947109e-08 -5.592389e-09 -6.695981e-09
-1.2740251e-08 -9.139419e-09 -6.6805006e-09 -5.711192e-09 -6.0147234e-09 6.2519683e-09 1.0248398e-08 8.159101e-09
6.0244716e-09 1.4208852e-08 -1.1067232e-08 1.942865e-09 -3.7794234e-09 1.1050005e-08 4.8060973e-09 -4.7232844e-09
8.344663e-09 -1.4543056e-08 -8.617978e-09 6.641729e-09 1.7707572e-08 -5.277933e-09 -1.3342858e-08 -1.2094611e-09
-5.545498e-09 -3.6889511e-09 1.0257963e-08 -1.5784789e-08 5.162004e-09 -1.1523812e-08 3.3378595e-09 -1.5643522e-08
-0.031641062 -0.17122851 0.042555474 0.111946605 0.0394126 0.015932774 0.010165683 0.0654827
-0.016965037 0.008618239 -0.019092688 0.009471429 -0.040628295 0.030289283 0.034839217 0.017571926
-0.09097263 -0.0037809662 0.014021203 0.0062196776 0.039694533 0.02620055 0.067081995 -0.0050167986
0.03724552 -0.0004301907 0.01681025 -0.0067565665 0.029771436 -0.0037053928 -0.035160355 -0.0014596971
0.00784149 -0.009284881 0.01390682 0.025488691 0.043648794 0.048725322 0.028697079 -0.0030446954
0.018120944 0.014346944 0.063237354 0.016653076 0.08968049 -0.004306674 0.059594873 0.008379861
-0.0037077437 -0.07588391 -0.009622267 0.042450666 -0.009455994 -0.03463842 0.012184361 0.027281184
0.040258896 -0.038666625 0.038821764 -0.015072991 -0.021385182 -0.12453766 0.028930428 -0.0264005
0.074839555 -0.27168843 -0.13284114 -0.018798605 0.023755332 0.026194267 0.056827657 -0.2374949
0.058540888 -0.25605404 0.22094575 -0.10707775 0.2981277 -0.14030802 0.08235364 -0.034488134
0.30028805 0.050823923 0.063495815 -0.29833585 -0.01906453 -0.03552596 -0.18858767 0.14147252
-0.06744982 -0.20129988 -0.10058151 -0.0348536 0.036954712 -0.03478768 -0.06317621 0.1560099
0.14494833 0.029802568 -0.06961238 -0.12912652 0.029075677 0.06597393 -0.15497589 -0.13230091
0.007853454 -0.20516047 0.0012769314 0.13489792 -0.21429735 -0.33452594 -0.27457294 -0.0985783
-0.012352553 -0.029137293 -0.11141855 0.0050824205 0.02810948 -0.06929166 0.038420662 0.16662382
0.051772658 0.123220064 -0.23932612 0.106796995 0.22754051 0.08372923 -0.22099793 0.037863273
-0.00029780215 -0.09240915 -0.10247684 -0.059544217 -0.015543534 -0.00081902504 0.0088814115 -0.012295104
0.0017735345 -0.02248868 0.010764004 -0.0028571533 -0.004491045 0.023190914 -0.016292386 0.027019046
-0.048874725 0.007704351 -0.008767735 0.010184068 0.0040637827 -0.00071790925 0.04267588 -0.017377727
0.04206727 0.0035779811 -0.01897347 0.013256961 -0.022979908 0.0021480988 0.031600546 0.015108208
0.01684883 0.0021634663 0.016004032 -0.017348608 0.01413794 0.018913623 -0.017465211 0.032057457
-0.04595119 0.03550078 -0.021086024 0.04305921 0.032214586 0.028135974 -0.012906499 -0.03560426
0.0775828 0.0058845836 0.03181433 -0.025283823 0.013179252 0.050368946 -0.046543967 -0.047202192
0.05114887 -0.017845761 0.052489966 0.008821097 -0.009969238 0.011927576 0.028968398 0.008421819
00000000: 348b 90b1 23c2 c8b1 5308 b331 4037 1f2e
00000010: cb5c fcb0 5a3e 2f32 b03e f2b1 1691 ce32
00000020: 54b6 aeb0 c335 2bb2 4c71 c530 be99 a830
00000030: 7429 61b2 1cc7 a5b0 56aa 37b2 2e98 1b32
00000040: c062 3bb1 6521 b8b0 9cde 28b2 34fb 4e32
00000050: 4abd 08b2 19b0 efb1 d153 09b1 0cd5 1cb2
00000060: 4374 a030 21ca 8031 ac81 1532 40b3 49b2
00000070: 9809 a4b1 e511 3cb2 2d27 c0b1 7912 e6b1
00000080: 37e0 5ab2 9703 1db2 4e8a e5b1 2d3c c4b1
00000090: 11aa ceb1 e5d0 d631 ee10 3032 1b2c 0c32
000000a0: d0ff ce31 311b 7432 3322 3eb2 3e83 0531
000000b0: 29dc 81b1 70d6 3d32 e122 a531 734a a2b1
000000c0: 375c 0f32 09d9 79b2 450e 14b2 4435 e431
000000d0: 5d1b 9832 3159 b5b1 833a 65b2 213a a6b0
000000e0: b78a beb1 b780 7db1 003b 3032 1e97 87b2
000000f0: 785d b131 43fa 45b2 3f60 6531 7860 86b2
00000100: 0f9a 01bd 8756 2fbe a64e 2e3d 4344 e53d
00000110: 1b6f 213d 7385 823c f78d 263c cb1b 863d
00000120: 43fa 8abc 8433 0d3c 4568 9cbc 0d2e 1b3c
00000130: db69 26bd 3b21 f83c 91b3 0e3d 00f3 8f3c
00000140: dc4f babd 16ca 77bb 30b9 653c 70ce cb3b
00000150: bc96 223d 89a2 d63c 4962 893d f563 a4bb
00000160: c28e 183d 388b e1b9 a6b5 893c 3066 ddbb
00000170: 3ae3 f33c 2dd6 72bb 4e04 10bd 4f53 bfba
00000180: 9879 003c 9d1f 18bc 6ed9 633c a9cd d03c
00000190: 14c9 323d 3494 473d 2316 eb3c 8389 47bb
000001a0: 6072 943c 720f 6b3c 9682 813d 086c 883c
000001b0: 68aa b73d 001f 8dbb c119 743d af4b 093c
000001c0: 9efd 72bb 0669 9bbd b7a6 1dbc c0e0 2d3d
000001d0: 50ed 1abc 04e1 0dbd eaa0 473c ca7c df3c
000001e0: 83e6 243d e560 1ebd 9203 1f3d b5f4 76bc
000001f0: fa2f afbc 9a0d ffbd 81ff ec3c dd45 d8bc
00000200: 7b45 993d bf1a 8bbe 8207 08be 88ff 99bc
00000210: 8b9a c23c 5c95 d63c 1ec4 683d dd31 73be
00000220: 92c8 6f3d 8419 83be 9a3f 623e 944b dbbd
00000230: 32a4 983e e8ac 0fbe 06a9 a83d 6e43 0dbd
00000240: 5bbf 993e bf2c 503d 180a 823d 7abf 98be
00000250: 382d 9cbc ab83 11bd 201d 41be 2cde 103e
00000260: 2223 8abd 8e21 4ebe aefd cdbd a6c2 0ebd
00000270: d35d 173d 877d 0ebd 8762 81bd 0fc1 1f3e
00000280: 566d 143e 8424 f43c ef90 8ebd be39 04be
00000290: 1d30 ee3c 571d 873d 00b2 1ebe e479 07be
000002a0: c6ab 003c 9615 52be b55e a73a ae22 0a3e
000002b0: c470 5bbe fc46 abbe d394 8cbe 6be3 c9bd
000002c0: 5d62 4abc 55b1 eebc 692f e4bd 6f8a a63b
000002d0: da45 e63c c9e8 8dbd fc5e 1d3d 6f9f 2a3e
000002e0: 910f 543d cd5a fc3d e811 75be 62b8 da3d
000002f0: 6100 693e 3b7a ab3d 484d 62be 8516 1b3d
00000300: 5422 9cb9 0241 bdbd 61df d1bd a3e4 73bd
00000310: 4faa 7ebc d7b3 56ba 5783 113c 6771 49bc
00000320: f175 e83a 2e3a b8bc 815b 303c 143f 3bbb
00000330: 9e29 93bb dffa bd3c 9c77 85bc 0c57 dd3c
00000340: dd30 48bd c874 fc3b 8ca6 0fbc 14db 263c
00000350: 7b29 853b 1332 3cba e7cc 2e3d bc5b 8ebc
00000360: bb4e 2c3d 907c 6a3b 406e 9bbc b933 593c
00000370: 5c40 bcbc 1ec7 0c3b 936f 013d 6b88 773c
00000380: 8f06 8a3c f1c8 0d3b e31a 833c ab1e 8ebc
00000390: d1a2 673c bef0 9a3c 3413 8fbc ae4e 033d
000003a0: 5137 3cbd 4469 113d 99bc acbc db5e 303d
000003b0: 71f3 033d 6a7d e63c c875 53bc c6d5 11bd
000003c0: bbe3 9e3d 77d3 c03b be4f 023d 0520 cfbc
000003d0: caed 573c ab4f 4e3d e3a4 3ebd 1657 41bd
000003e0: 7a81 513d 4631 92bc b8ff 563d 5d86 103c
000003f0: 0456 23bc e16b 433c 224f ed3c abfb 093c

conv1.lin_neg_r.weight f4 [32, 64]
1.8277149e-08 1.05691305e-08 -1.1492725e-08 3.2252587e-09 -1.1000663e-09 8.553672e-09 1.3041301e-08 1.2997089e-08
4.775452e-09 -1.122715e-08 -8.438664e-09 -5.8704215e-09 -8.637662e-09 4.27167e-09 5.950809e-09 -4.7630393e-09
4.351138e-09 -3.9150874e-09 5.7375344e-09 1.4333097e-08 -5.4855764e-09 3.6880992e-09 7.547649e-09 -1.3002253e-08
-1.950781e-09 1.4038881e-09 -7.0813906e-09 1.3813393e-08 -1.4006192e-08 2.1505218e-09 -2.928852e-11 -3.819201e-09
3.0005387e-09 1.4397877e-08 3.255597e-10 9.950771e-09 -8.821022e-09 1.0133382e-09 3.7192698e-09 -1.3148385e-08
-5.4329434e-09 1.0206663e-08 1.24535795e-08 -8.380198e-10 1.418377e-08 -9.637843e-10 -6.615582e-09 1.0102634e-08
-5.990696e-10 4.902422e-10 -9.2820445e-09 -1.4463387e-08 -6.7781265e-09 2.9082914e-10 -1.22967405e-08 3.8883458e-10
-3.760004e-09 -3.5113104e-10 -5.1557345e-09 -1.5068461e-09 -2.945896e-10 1.614469e-09 -1.859864e-08 -5.5793685e-09
0.14596575 0.293201 -0.02899201 -0.25864065 -0.006060528 0.00803117 0.04919812 -0.056670446
-0.027697803 -0.034748476 -0.024187608 0.023637597 0.07976996 -0.048162926 0.029050976 -0.07692648
0.09404099 0.08002459 -0.039259076 0.08675094 0.038487755 -0.010206651 0.029442672 -0.025795044
-0.0042546927 -0.0068026846 0.008428504 0.0208809 -0.021733247 -0.094610766 0.04217423 0.006855009
-0.08528195 0.05081435 -0.016210394 -0.041308295 -0.03159323 -0.035714008 -0.0021936947 -0.038791887
0.024940917 -0.038947716 0.007501872 -0.016381606 -0.05878463 0.06819894 -0.033605568 -0.0933555
0.01362069 -0.03118093 -0.0023401906 -0.031341136 0.0061635124 -0.012787202 -0.04086637 -0.023225956
0.025129208 0.032189403 -0.012938365 0.11714197 0.004056032 0.062478255 0.08773097 -0.11162788
-0.24595673 -0.41695032 -0.11600079 0.08805204 -0.009528438 -0.037276834 -0.092267334 0.16929162
-0.006271168 0.22195925 -0.25682864 0.09013232 -0.24479124 0.010875633 -0.10938288 0.013687836
0.02593294 -0.16568162 0.14108926 -0.033343703 -0.058435094 0.025739873 0.15602611 -0.007768092
-0.08855219 0.26015258 0.11461873 -0.04537872 -0.04590571 0.052432977 -0.12699504 0.1434995
0.01632711 -0.051394604 -0.056112297 0.10055703 0.037240397 0.036840465 0.046009723 -0.19528101
-0.041169904 0.19207472 -0.016784117 -0.03496316 -0.048823442 -0.18049699 0.0017284079 -0.0074202917
-0.028668413 -0.00995727 -0.005675139 0.06875589 -0.0752995 0.065318495 -0.018509855 -0.07699882
-0.08786968 0.05275293 0.047671247 -0.03555476 0.073020294 -0.025679173 -0.038524438 -0.026196819
0.039488308 -0.09400776 -0.056960654 -0.021271221 -0.028410275 -0.0089672785 0.00934228 0.022724215
0.047047436 -0.021578753 0.08600216 -0.03856163 0.042657282 0.030027105 0.015747083 0.040664468
0.054091662 0.054353334 0.032009397 -0.022789124 0.012228289 -0.022757813 -0.06312737 -0.006928552
-0.050155975 0.026309531 -0.041023806 -0.0020736684 0.0077699586 -0.03926056 -0.015350393 0.06469382
0.039288566 -0.013412924 -0.03697768 -0.01760648 0.019140137 -0.059517324 0.025146535 0.019516015
0.042845987 -0.09078457 0.0320082 -0.0041140583 0.016542811 -0.035237163 -0.062280774 -0.0057877703
-0.043435402 -0.036373146 0.04710843 0.030391943 0.032224488 -0.06376086 0.10013029 -0.017486433
0.024034167 0.05051513 -0.01951188 -0.02027793 0.030310733 0.09198434 0.04121694 -0.039406016
00000000: e0ff 9c32 8793 3532 8a71 45b2 5aa3 5d31
00000010: 2431 97b0 73f3 1232 400c 6032 cd49 5f32
00000020: 5215 a431 87e1 40b2 a3f9 10b2 c6b4 c9b1
00000030: d764 14b2 02c6 9231 df77 cc31 23a8 a3b1
00000040: 0481 9531 7985 86b1 e323 c531 a13d 7632
00000050: a47b bcb1 ba71 7d31 e9aa 0132 8360 5fb2
00000060: 810e 06b1 ecf2 c030 9250 f3b1 f24f 6d32
00000070: e29f 70b2 61c8 1331 f1cf 00ae 0c3a 83b1
00000080: 0932 4e31 885a 7732 74fa b22f f4f3 2a32
00000090: 448b 17b2 ab45 8b30 1696 7f31 35e3 61b2
000000a0: adac bab1 6159 2f32 6cf3 5532 675a 66b0
000000b0: e1ac 7332 2576 84b0 464f e3b1 db8f 2d32
000000c0: c7ab 24b0 bac1 0630 dd76 1fb2 a67a 78b2
000000d0: 08e5 e8b1 90e2 9f2f a341 53b2 9ac3 d52f
000000e0: 5831 81b1 4d09 c1af 5226 b1b1 6f19 cfb0
000000f0: cdf3 a1af 14e4 dd30 d8c2 9fb2 a5b4 bfb1
00000100: 0c78 153e 711e 963e a780 edbc 8c6c 84be
00000110: 6597 c6bb 2b95 033c f883 493d 451f 68bd
00000120: 81e6 e2bc 6b54 0ebd 1725 c6bc a2a3 c13c
00000130: 6f5e a33d 7d46 45bd 50fc ed3c a18b 9dbd
00000140: 9098 c03d efe3 a33d 20ce 20bd 7aaa b13d
00000150: 56a5 1d3d cc39 27bc c231 f13c 2150 d3bc
00000160: f36a 8bbb 0ee9 debb b517 0a3c 6c0e ab3c
00000170: ec09 b2bc 4ac3 c1bd e3be 2c3d fc9f e03b
00000180: 4ea8 aebd b522 503d a9cb 84bc e332 29bd
00000190: e767 01bd da48 12bd 17c4 0fbb 3ee4 1ebd
000001a0: e550 cc3c a487 1fbd 43d2 f53b b832 86bc
000001b0: 27c8 70bd e3ab 8b3d fea5 09bd 2b31 bfbd
000001c0: 5129 5f3c 266f ffbc e25d 19bb 905f 00bd
000001d0: 4af7 c93b 6a81 51bc 7f63 27bd 5c44 bebc
000001e0: c5db cd3c 09d9 033d 70fb 53bc 21e8 ef3d
000001f0: 76e8 843b 33e9 7f3d 4bac b33d 289d e4bd
00000200: 15dc 7bbe 837a d5be d291 edbd a154 b43d
00000210: 2a1d 1cbc 98af 18bd a8f6 bcbd c85a 2d3e
00000220: 5f7e cdbb 4949 633e 0b7f 83be 4b97 b83d
00000230: 8eaa 7abe b62f 323c 2204 e0bd f242 603c
00000240: 5171 d43c 71a8 29be b479 103e 6893 08bd
00000250: a359 6fbd 6ddc d23c 4fc5 1f3e 7b8b febb
00000260: da5a b5bd b832 853e 3abd ea3d 09df 39bd
00000270: a007 3cbd f6c3 563d fd0a 02be 88f1 123e
00000280: 6ec0 853c 2683 52bd 02d6 65bd d8f0 cd3d
00000290: 6389 183d 07e6 163d b174 3c3d bff7 47be
000002a0: c6a1 28bd 3caf 443e d87e 89bc 8835 0fbd
000002b0: 17fb 47bd 34d4 38be bf8b e23a eb25 f3bb
000002c0: 05da eabc d123 23bc 84f6 b9bb e3cf 8c3d
000002d0: a036 9abd b4c5 853d fba1 97bc 8fb1 9dbd
000002e0: 05f5 b3bd 7513 583d ed42 433d dea1 11bd
000002f0: aa8b 953d 215d d2bc cdcb 1dbd b69a d6bc
00000300: 7ebe 213d 2487 c0bd 934f 69bd fc40 aebc
00000310: aabc e8bc 7eeb 12bc 5d10 193c 2228 ba3c
00000320: d0b4 403d edc5 b0bc e721 b03d cdf2 1dbd
00000330: 67b9 2e3d 67fb f53c 0700 813c c98f 263d
00000340: 388f 5d3d 9aa1 5e3d 491c 033d 42b0 babc
00000350: 2959 483c 986e babc ec48 81bd e808 e3bb
00000360: 5a70 4dbd 1687 d73c 9408 28bd 62e6 07bb
00000370: 239b fe3b aecf 20bd 3780 7bbc 327e 843d
00000380: 0ced 203d e1c1 5bbc e875 17bd 773b 90bc
00000390: c7cb 9c3c 70c8 73bd 1b00 ce3c 0de0 9f3c
000003a0: 467f 2f3d 43ed b9bd 081b 033d 39cf 86bb
000003b0: ca84 873c d854 10bd 201a 7fbd 56a7 bdbb
000003c0: 52e9 31bd 02fc 14bd c5f4 403d 86f8 f83c
000003d0: d3fd 033d 0e95 82bd 1c11 cd3d b53f 8fbc
000003e0: 4de3 c43c f4e8 4e3d 61d7 9fbc e71d a6bc
000003f0: 374e f83c 4962 bc3d 18d3 283d 3468 21bd

conv1.lin_neg_r.bias f4 [32]
-0.023707585 0.09629989 0.05080122 0.11298926 -0.057534553 0.03549836 -0.05650442 0.021739991
-0.0058448594 0.011683183 -0.0011767071 0.017979054 0.048818957 -0.004129333 0.029151514 -0.0003449873
-0.0005067972 -0.040417507 -0.025525082 0.017831884 0.06695267 -0.000556153 -0.0040241545 0.018609358
0.07207318 -0.0122847045 0.015244754 0.0016168167 -0.0045581157 -0.011591034 0.018099781 0.012465444
00000000: 6936 c2bc e038 c53d f114 503d ea66 e73d
00000010: 5aa9 6bbd ba66 113d 2e71 67bd 1118 b23c
00000020: 3c86 bfbb d26a 3f3c bd3b 9aba cf48 933c
00000030: 63f6 473d 5b4f 87bb 28cf ee3c 69df b4b9
00000040: 96da 04ba d48c 25bd fa19 d1bc 2c14 923c
00000050: 7b1e 893d ccca 11ba 0edd 83bb a772 983c
00000060: 1a9b 933d c945 49bc 22c5 793c 5eeb d33a
00000070: 3f5c 95bb 52e8 3dbc fe45 943c dd3b 4c3c

convs.0.lin_pos_l.weight f4 [32, 64]
0.08213078 0.022995647 1.1796199e-08 4.9071036e-07 0.15369548 0.09135214 0.03182946 -0.005851542
0.03159771 -0.03438913 0.01552728 6.136033e-09 -2.0732722e-07 -0.0005995666 0.0070758187 -0.05650885
-0.00021859593 -2.4078174e-08 -0.002429719 1.8848026e-05 -0.0006333682 -0.020978974 6.5774794e-09 0.04235987
-0.012515573 6.602582e-09 1.9686566e-05 -0.0056297234 8.172088e-09 0.00281371 0.017897721 4.8998e-10
1.5183892e-10 0.033608373 0.0691376 -0.0074778916 -0.007467925 -0.024982238 0.001442352 -0.006075922
-0.024857098 -0.043049823 1.4522542e-06 0.13866803 -0.05826132 2.6585877e-07 0.0048127337 1.1989444e-05
1.7157316e-05 -9.642161e-09 -3.257791e-08 0.08680798 -0.03639917 0.0002450629 0.03048998 -0.0413631
0.09819652 -1.506375e-08 0.014141754 -0.06727138 0.018674286 -0.00069522817 0.02689341 -0.050997153
-0.050443087 -0.20983388 -4.1335713e-09 3.2529366e-07 -0.14073797 0.026384158 -0.036048967 -0.003767748
-0.12502854 -0.15073784 -0.18779774 -6.875849e-09 -1.6331156e-09 4.827829e-07 0.0664743 0.14521623
-2.1566949e-07 -1.2767038e-08 0.0010339967 -1.4952075e-05 1.5130729e-06 0.108815365 -1.4385738e-08 -0.05090656
0.0027046653 -8.543411e-09 -9.041234e-06 4.9986058e-05 8.904353e-09 0.0873942 0.07419718 1.8698318e-08
1.2437169e-08 -0.07583848 0.03176101 -0.06977794 -0.00023996393 -0.020991698 6.428479e-07 -0.06640198
-0.026414106 0.027804304 -5.0562835e-07 -0.06565703 -0.09577094 9.6221726e-08 -0.054404438 6.1531096e-06
1.0122256e-05 2.147419e-08 3.912373e-09 -0.023472976 -0.0792943 -0.00042082986 0.0030241949 0.10179725
-0.13709778 9.670383e-09 -0.08844407 0.09850046 0.023247965 -0.0005236023 0.0052677765 0.17655472
0.00056358334 6.982952e-05 1.470681e-08 2.1936103e-10 -0.0006399751 0.00045146063 0.00012850713 1.5661049e-09
0.00027177873 2.1672211e-05 6.384871e-05 4.5441437e-09 -8.629857e-09 -1.6444124e-08 4.5312612e-05 0.00011627744
-6.2514625e-09 -8.816739e-09 -3.2486554e-07 -6.4332095e-09 -5.8279435e-09 0.00016823175 5.4554867e-09 0.00017559394
1.4997775e-06 2.8084486e-09 2.6678193e-10 4.657392e-09 1.3455462e-08 0.0001049233 0.00011661167 1.0857779e-08
8.735492e-11 0.0011658617 0.00020013207 0.001172231 -1.0442429e-09 0.00055887277 1.265638e-08 0.00030543288
0.00011753337 7.0178154e-05 6.3952506e-08 0.00023125646 -0.0009485565 -1.3095677e-09 0.00040243642 3.3237285e-10
1.870756e-09 1.0009963e-09 8.8375245e-09 0.00015280348 -0.0006924373 -6.025386e-09 8.286943e-06 0.00018743679
-0.0013664064 -6.664898e-10 -0.0003220031 0.00012075131 2.0311723e-05 4.7418064e-10 -0.00029113825 -0.000588295
-0.020654742 -0.21340774 -1.0062696e-09 5.2667488e-08 -0.016747616 0.10824797 -0.17498347 0.0013015707
-0.23373611 -0.14920032 -0.118215226 -8.0467855e-09 1.0535447e-08 -1.4945027e-08 0.1566861 0.14662911
1.7296028e-08 -1.2005329e-09 -0.0008708201 2.5663978e-06 1.7375585e-08 0.14693068 -8.68163e-09 -0.095176704
-0.0029256209 5.9925913e-09 -7.614048e-06 -7.895632e-09 -4.693568e-09 0.12782905 0.20327762 -1.5969147e-09
-1.733784e-08 -0.04394061 0.13041921 -0.20080484 -2.749131e-09 0.027569061 -7.63589e-09 -0.03662832
-0.11212561 0.024542063 6.641498e-07 0.08751906 -0.2983475 2.0392233e-07 0.024180587 2.3748512e-06
-8.7712226e-07 -7.108325e-09 -7.797663e-09 0.071500845 -0.18467577 -5.5029974e-05 -0.00024173898 0.13673255
-0.06865439 -3.353156e-11 -0.12438964 0.05922577 0.016790401 0.00025778837 0.03201419 0.2265343
00000000: 2f34 a83d 5e61 bc3c 3ba8 4a32 5cb9 0335
00000010: 5962 1d3e d516 bb3d 9c5f 023d 4bbe bfbb
00000020: 9a6c 013d 9edb 0cbd 2266 7e3c 1ed5 d231
00000030: ac9d 5eb4 3c2c 1dba 45dc e73b d375 67bd
00000040: e636 65b9 77d4 ceb2 ec3b 1fbb d41b 9e37
00000050: 9f08 26ba 19dc abbc 1f00 e231 8b81 2d3d
00000060: 1e0e 4dbc eddc e231 9424 a537 8b79 b8bb
00000070: 3965 0c32 3866 383b 3e9e 923c 47af 0630
00000080: dbf2 262f efa8 093d 0498 8d3d 1a09 f5bb
00000090: 7fb5 f4bb 8da7 ccbc 4d0d bd3a 8718 c7bb
000000a0: 1da1 cbbc 0355 30bd 13eb c235 fefe 0d3e
000000b0: 6ca3 6ebd 5abb 8e34 23b4 9d3b 4526 4937
000000c0: 0eed 8f37 aca6 25b2 caeb 0bb3 62c8 b13d
000000d0: 4c17 15bd c97b 8039 1fc6 f93c 5b6c 29bd
000000e0: 421b c93d 8965 81b2 d1b2 673c 94c5 89bd
000000f0: d1fa 983c f93f 36ba 924f dc3c 64e2 50bd
00000100: 699d 4ebd b1de 56be 4707 8eb1 05a4 ae34
00000110: 9d1d 10be 9723 d83c 15a8 13bd 52ec 76bb
00000120: 7b07 00be 055b 1abe 0d4e 40be 9b40 ecb1
00000130: 2674 e0b0 9798 0135 ae23 883d 90b3 143e
00000140: c792 67b4 0756 5bb2 2c87 873a acda 7ab7
00000150: ca14 cb35 97da de3d 2525 77b2 6683 50bd
00000160: c140 313b 52c6 12b2 ceaf 17b7 1fa8 5138
00000170: c2f9 1832 bbfb b23d b1f4 973d 099e a032
00000180: 3fab 5532 3451 9bbd d517 023d bde7 8ebd
00000190: d49e 7bb9 c8f6 abbc 2c90 2c35 c3fd 87bd
000001a0: 6562 d8bc dac5 e33c 84ba 07b5 3177 86bd
000001b0: 8e23 c4bd 74a2 ce33 30d7 5ebd cf76 ce36
000001c0: c2d2 2937 3e76 b832 996d 8631 664a c0bc
000001d0: 0d65 a2bd d4a2 dcb9 9231 463b 147b d03d
000001e0: 5c63 0cbe cb22 2632 2a22 b5bd 9cba c93d
000001f0: 8472 be3c 5b42 09ba 509d ac3b c3ca 343e
00000200: 70bd 133a 7071 9238 3ca9 7c32 a430 712f
00000210: 00c4 27ba 05b2 ec39 dfbf 0639 6b3e d730
00000220: 867d 8e39 b8cc b537 84e6 8538 b622 9c31
00000230: 8342 14b2 0341 8db2 0c0e 3e38 fad9 f338
00000240: 72cc d6b1 6e78 17b2 2e69 aeb4 1c0b ddb1
00000250: 223f c8b1 5e67 3039 f872 bb31 a41f 3839
00000260: f64b c935 c0fe 4031 38aa 922f da06 a031
00000270: bf29 6732 450a dc38 6a8d f438 0489 3a32
00000280: 7318 c02e d4cf 983a 8bda 5139 8ca5 993a
00000290: 0885 8fb0 5181 123a 596f 5932 8222 a039
000002a0: 3f7c f638 9c2c 9338 4356 8933 6f7d 7239
000002b0: 8da8 78ba 51fc b3b0 1afe d239 52b9 b62f
000002c0: b08e 0031 6d93 8930 d8d3 1732 df39 2039
000002d0: ae84 35ba db07 cfb1 2608 0b37 ae8a 4439
000002e0: fe18 b3ba 0d34 37b0 86d2 a8b9 de3b fd38
000002f0: 1863 aa37 7f57 0230 eaa3 98b9 cf37 1aba
00000300: 2234 a9bc 8f87 5abe f74c 8ab0 8434 6233
00000310: 4c32 89bc 1db1 dd3d de2e 33be 7799 aa3a
00000320: 8558 6fbe f8c7 18be d31a f2bd 233e 0ab2
00000330: 63ff 3432 7660 80b2 5272 203e f125 163e
00000340: 5e92 9432 ffff a4b0 bf47 64ba 613a 2c36
00000350: 5141 9532 ff74 163e 3626 15b2 01ec c2bd
00000360: c6bb 3fbb 64e7 cd31 2d7c ffb6 5ba5 07b2
00000370: 1045 a1b1 9ee5 023e 0228 503e 717a dbb0
00000380: 50ee 94b2 12fb 33bd 9d8c 053e c99f 4dbe
00000390: 39eb 3cb1 83d8 e13c 002f 03b2 9407 16bd
000003a0: 1da2 e5bd 700c c93c 0748 3235 313d b33d
000003b0: 01c1 98be bef5 5a34 5e16 c63c a25f 1f36
000003c0: 6273 6bb5 7d3d f4b1 7cf6 05b2 096f 923d
000003d0: a51b 3dbe fccf 66b8 507b 7db9 9e03 0c3e
000003e0: ac9a 8cbd 2e79 13ae ffbf febd b996 723d
000003f0: 068c 893c c527 8739 5021 033d 9cf8 673e

convs.0.lin_pos_r.weight f4 [32, 32]
0.056751244 -0.04323253 -2.1172841e-08 -3.058949e-07 0.27343282 0.07716552 0.54129606 -0.0019391365
0.26355052 -0.3919657 -0.9635386 -7.271503e-09 1.6902858e-08 -2.4716332e-08 -0.24811904 0.1453617
4.524354e-09 -1.0018122e-09 -0.014903982 -1.7616141e-05 5.4686076e-08 -0.122467 1.6355599e-10 0.46037298
-0.065961525 1.25535164e-08 -1.4032569e-05 -1.8968263e-08 5.158213e-09 -0.06952112 -0.44889954 -3.6853782e-09
0.046957895 -0.62372154 -1.1463867e-09 -1.7141694e-07 -0.0731841 0.033889435 -0.59242445 0.0017012018
-0.3061172 -0.35411403 0.16270716 -1.6082554e-08 4.980983e-09 -1.9653143e-08 0.39245772 -0.23420368
4.801352e-08 -1.6388578e-08 0.009360342 7.4299096e-06 1.4837679e-08 0.2506613 1.9590198e-08 -0.29229042
0.040703066 -2.4179624e-08 1.3266222e-05 2.0999126e-08 -2.92336e-08 0.15346624 0.34358406 1.272356e-08
-0.0013272951 -3.07964e-05 2.759327e-08 1.454941e-08 -0.0016018399 0.00013989912 3.601881e-05 -5.3080904e-09
9.361022e-05 -1.3804164e-05 1.9853273e-06 2.785994e-08 -0.00013493998 2.0148052e-09 0.00013918539 9.67245e-05
7.516932e-09 5.528639e-09 -1.9868435e-06 -1.773331e-08 -1.1331921e-08 0.00023875813 -1.5722303e-08 5.0978313e-05
-1.8876002e-05 2.0447795e-08 2.4202265e-09 2.0790685e-08 8.770949e-09 9.270679e-05 -9.014348e-05 1.707667e-09
0.14247485 -0.97039604 1.2640252e-09 1.7681998e-08 0.14227726 0.056955483 -0.63172567 -0.0013231614
-0.3159153 -0.87729156 -0.4662603 1.217233e-08 -2.6479846e-08 -1.1596596e-08 0.46023056 -0.09475536
-1.040907e-08 -1.6251247e-08 -0.0026727596 -9.867528e-07 -1.8870685e-09 0.23154908 1.0570486e-09 -0.13087688
-0.012311785 1.6580397e-08 -8.95619e-06 -3.146103e-08 -2.4453518e-08 0.25383168 0.26505315 4.448457e-09
-5.7363635e-05 2.9504126e-06 8.903538e-09 -4.339021e-10 -5.621398e-05 -2.960847e-05 -9.146224e-07 7.5648027e-10
-1.06887765e-05 2.6682617e-06 6.061711e-07 -1.3292669e-08 6.6841566e-10 5.459204e-09 -8.641905e-06 -2.1918075e-05
6.923042e-10 9.862671e-10 1.0720717e-07 1.1062326e-09 -1.16057794e-08 -2.4078525e-05 3.3763161e-09 -9.880522e-06
5.331848e-07 1.517399e-08 7.1026145e-09 5.724446e-09 2.658254e-08 -9.5418045e-06 -1.2927407e-05 -1.3845898e-09
-0.13448496 0.16518298 1.3910848e-09 5.6530745e-08 0.057964142 -0.0036341208 0.59080535 0.00024248473
0.0863141 -0.089380674 -0.4023426 4.9683727e-08 -5.2388307e-09 1.04939446e-10 -0.09336437 0.41481104
-3.8022716e-08 1.9257296e-08 0.0015150324 -6.159519e-06 -2.982146e-09 -0.22933671 -3.0976e-08 0.11076773
0.0043081623 1.7190388e-08 -2.4308072e-06 -2.6225349e-09 2.0605833e-09 0.011351072 -0.13760516 1.566798e-08
-1.2216428e-06 -6.231975e-07 2.6717845e-10 9.802158e-10 6.441938e-06 -2.360999e-06 1.0852004e-07 -1.1822242e-09
-7.3798446e-07 7.488777e-07 -5.708141e-07 -2.6997744e-09 -1.7233796e-09 3.4188175e-09 3.503062e-07 -4.7991745e-07
1.0282542e-08 -5.0861324e-09 -8.751512e-09 1.2989014e-09 1.1435909e-08 6.4054865e-07 -9.409932e-09 3.9472322e-08
1.2795147e-09 -1.05188755e-08 1.8976436e-09 1.0770512e-08 1.6227172e-08 -3.3424e-07 1.0634642e-06 1.0731897e-08
0.20992586 -0.3203425 -4.486721e-09 -1.9481719e-07 0.25300372 0.20196345 0.5311599 -0.000880749
0.22029188 -0.7878914 -1.1763573 -2.2256911e-08 8.278713e-09 3.5751457e-10 -0.27579546 0.1367687
-3.9131467e-09 8.699035e-09 -0.014536915 -1.9673637e-06 3.8591375e-09 -0.08853122 1.0035948e-08 0.46022254
-0.06270517 -9.917144e-09 2.31988e-05 -2.9664293e-09 4.3459663e-09 -0.027562706 -0.51986223 3.494606e-09
00000000: fe73 683d 9814 31bd 92df b5b2 e039 a4b4
00000010: 63ff 8b3e f508 9e3d 6192 0a3f a02a feba
00000020: 18f0 863e baaf c8be 77aa 76bf d1d8 f9b1
00000030: c731 9132 ca4f d4b2 eb12 7ebe b3d9 143e
00000040: a374 9b31 22b0 89b0 d52f 74bc 60c6 93b7
00000050: fadf 6a33 facf fabd ebd4 332f 02b6 eb3e
00000060: d616 87bd f3aa 5732 6d6d 6bb7 a7ef a2b2
00000070: 1f3c b131 1761 8ebd 29d6 e5be dc41 7db1
00000080: ec56 403d 37ac 1fbf e58e 9db0 bb0e 38b4
00000090: 8ce1 95bd a6cf 0a3d 21a9 17bf dcfa de3a
000000a0: 65bb 9cbe 6f4e b5be b59c 263e e925 8ab2
000000b0: 3125 ab31 b8d1 a8b2 38f0 c83e 17d3 6fbe
000000c0: 6c37 4e33 ddc6 8cb2 1f5c 193c 704e f936
000000d0: cde8 7e32 ae56 803e 4d47 a832 17a7 95be
000000e0: 42b8 263d 8eb3 cfb2 fd91 5e37 9161 b432
000000f0: 5e1d fbb2 4126 1d3e 40ea af3e cf96 5a32
00000100: a2f8 adba 622b 01b8 3e06 ed32 fbf4 7932
00000110: d4f4 d1ba e2b1 1239 e712 1738 7562 b6b1
00000120: 9b50 c438 6f98 67b7 aa3b 0536 a850 ef32
00000130: ad7e 0db9 d474 0a31 4bf2 1139 92d8 ca38
00000140: d123 0132 6cf6 bd31 b655 05b6 f653 98b2
00000150: 51ae 42b2 265b 7a39 b60d 87b2 8cd1 5538
00000160: e857 9eb7 2da5 af32 1351 2631 3397 b232
00000170: 0baf 1632 946b c238 6a0b bdb8 31b3 ea30
00000180: ede4 113e e06b 78bf efb9 ad30 20e3 9732
00000190: 21b1 113e 274a 693d c6b8 21bf ee6d adba
000001a0: a6bf a1be 2e96 60bf acb9 eebe 791e 5132
000001b0: cc75 e3b2 5e3a 47b2 57a3 eb3e 190f c2bd
000001c0: 93d3 32b2 df98 8bb2 7729 2fbb 9170 84b5
000001d0: a9ad 01b1 341b 6d3e 9747 9130 9704 06be
000001e0: 5eb7 49bc ae6c 8e32 8b42 16b7 c51f 07b3
000001f0: db0d d2b2 3af6 813e 0cb5 873e 0bd9 9831
00000200: bc99 70b8 b4ff 4536 2df6 1832 4b8a eeaf
00000210: 4dc7 6bb8 b55f f8b7 5f84 75b5 91f0 4f30
00000220: f253 33b7 6310 3336 c3b7 2235 c75d 64b2
00000230: 92bb 3730 ab93 bb31 b3fc 10b7 b5dc b7b7
00000240: 944c 3e30 308d 8730 c439 e633 190a 9830
00000250: c262 47b2 3dfc c9b7 c804 6831 85c4 25b7
00000260: 2e20 0f35 f557 8232 420b f431 c2b0 c431
00000270: a057 e432 bd15 20b7 cae2 58b7 ec4b beb0
00000280: 6db6 09be ba25 293e 7230 bf30 36cc 7233
00000290: cf6b 6d3d 6e2a 6ebb 053f 173f 8043 7e39
000002a0: 72c5 b03d 370d b7bd d9ff cdbe d663 5533
000002b0: 3e01 b4b1 a8c3 e62e d235 bfbd 1d62 d43e
000002c0: 6b4e 23b3 3e6b a532 0d94 c63a dead ceb6
000002d0: 78ee 4cb1 3ed7 6abe 790a 05b3 31da e23d
000002e0: 7c2b 8d3b 10aa 9332 f320 23b6 1f38 34b1
000002f0: 2a9a 0d31 d9f9 393c 5ee8 0cbe 4196 8632
00000300: 54f7 a3b5 ce49 27b5 06e2 922f 47b8 8630
00000310: d327 d836 a771 1eb6 860b e933 d17b a2b0
00000320: e819 46b5 7c06 4935 0c3a 19b5 ef86 39b1
00000330: 07dc ecb0 79f0 6a31 b811 bc34 add3 00b5
00000340: 19a7 3032 18c2 aeb1 8f59 16b2 0885 b230
00000350: a977 4432 2bf2 2b35 52a9 21b2 4788 2933
00000360: ecda af30 81b6 34b2 b367 0231 3609 3932
00000370: ee63 8b32 9971 b3b4 5abc 8e35 625f 3832
00000380: cef6 563e ef03 a4be 9e29 9ab1 f12e 51b4
00000390: b489 813e 82cf 4e3e 18fa 073f 11e2 66ba
000003a0: 3294 613e 40b3 49bf e092 96bf 772f bfb2
000003b0: 2a3a 0e32 b48b c42f 1035 8dbe 180d 0c3e
000003c0: 6774 86b1 c372 1532 3e2c 6ebc 0d07 04b6
000003d0: 5599 8431 db4f b5bd 916a 2c32 4aa2 eb3e
000003e0: 916b 80bd 1060 2ab2 0b9b c237 fad9 4bb1
000003f0: 8653 9531 2fcb e1bc b115 05bf c225 7031

convs.0.lin_pos_r.bias f4 [32]
-0.050677307 0.17344962 -0.002895017 0.13951297 -3.8449612e-05 0.10866107 -1.6482247e-05 -0.0121417735
-0.019387282 -1.22649835e-05 -0.00043012438 -0.0057037217 -0.0038286047 -0.042012975 -0.034659956 -0.02461941
-0.0039783963 -0.010713063 -0.044584267 -0.019178066 -0.052169845 0.11145042 -0.024626048 0.07264896
-0.003456548 -1.5302548e-05 -0.003977258 -0.0016734935 -0.022955956 -0.03825411 -0.00037369493 -0.045816395
00000000: 0293 4fbd c79c 313e 53ba 3dbb 7ddc 0e3e
00000010: f544 21b8 b289 de3d 5b43 8ab7 4aee 46bc
00000020: 14d2 9ebc b4c5 4db7 5182 e1b9 49e6 babb
00000030: 54e9 7abb cc15 2cbd 99f7 0dbd a5ae c9bc
00000040: 355d 82bb d885 2fbc fe9d 36bd 521b 9dbc
00000050: 0cb0 55bd 1e40 e43d 91bc c9bc fac8 943d
00000060: 4187 62bb f95d 80b7 a953 82bb 2059 dbba
00000070: 210e bcbc 57b0 1cbd 7cec c3b9 f9a9 3bbd

convs.0.lin_neg_l.weight f4 [32, 64]
1.678659e-09 -0.059824485 -0.36214212 0.015873158 4.1898662e-09 -0.010826733 -8.883143e-09 -0.26067492
0.07493942 0.051238626 -3.055621e-05 -0.269169 0.20499054 -6.1393516e-06 -0.019815361 5.4677284e-06
-2.2884178e-05 7.312873e-09 -2.728218e-09 -0.009667302 0.15173215 -0.0007667933 0.0386825 0.17108089
-0.2785728 5.6304006e-09 -0.15887605 0.19176054 0.047280394 -0.0029526576 -0.101975515 0.08391548
0.05758199 -0.07952667 -5.127132e-10 3.269529e-07 0.050111335 0.07049288 0.12709357 0.003286312
0.079035275 -0.1940162 -0.34409064 4.9893325e-09 -3.6274992e-09 -1.6303382e-09 -0.1405816 0.12573604
-1.2144558e-08 1.6997705e-09 -0.0010442891 4.5061092e-06 1.873963e-09 0.12576288 1.1020613e-08 0.13099942
-0.0038153809 1.1549877e-09 -1.2733788e-05 -1.1973183e-08 1.0003259e-08 0.08071046 -0.02384896 -8.048651e-09
-7.899057e-09 -0.0001315946 -3.494309e-05 -0.000110332556 -2.6268088e-09 -7.636599e-05 3.391432e-09 -3.0484867e-05
-4.236464e-05 -3.5168807e-05 2.7765268e-09 -5.8830406e-05 -8.5253e-05 -1.5437294e-08 -6.2786785e-05 -2.0914104e-09
-1.7568533e-08 3.119234e-12 -1.3646837e-09 -1.232339e-05 -0.00012771394 1.0516129e-08 -7.504762e-07 -2.9225701e-05
-0.00013333527 4.194302e-09 -2.0823958e-05 -2.8852583e-05 -6.0151942e-06 7.89981e-09 -1.4004535e-05 -3.216677e-05
-0.00027418352 -4.645079e-05 -1.3874892e-08 1.435877e-08 -0.00022752534 -0.00017074891 -5.924286e-05 2.0272239e-08
-0.000108090775 -7.395331e-05 -0.00011526028 -8.006432e-09 -1.3605232e-09 -4.492793e-09 -8.6197695e-05 -7.613455e-05
1.4236996e-09 -1.0540158e-08 -1.0124274e-07 1.7807668e-10 -1.441826e-08 -9.136607e-05 3.0958798e-09 -8.734825e-05
-2.419923e-07 -9.6507105e-09 -1.5083636e-08 1.5800399e-09 -5.4003086e-09 -6.76195e-05 -5.060617e-05 6.118553e-09
2.162373e-08 -0.033642802 -0.0015590983 -0.04153119 0.0007609659 -5.041855e-09 -0.002767964 -7.4925624e-06
1.0908343e-08 0.004803583 -6.083357e-10 -0.023830326 -1.7067745e-08 9.8557305e-09 0.010849751 6.4176318e-09
-1.9158497e-09 2.362359e-08 1.054833e-07 -0.007917122 6.0942678e-09 1.34704665e-08 0.03454558 0.003377673
-2.2072135e-09 -1.1606829e-08 -0.01381048 0.033834275 0.0031739112 -4.780928e-09 0.003893415 4.148593e-09
-9.019333e-09 0.03799084 -1.288799e-08 8.977254e-10 1.1473657e-08 7.512575e-09 -0.0035114896 1.6372378e-09
-0.032143213 0.049957845 -0.025271805 -0.00031725876 -0.004504638 0.030023634 0.039478976 -0.029765109
-0.013148893 1.0154991e-08 1.2340642e-09 5.1496545e-09 -0.0024687557 -0.021282073 -1.6639788e-08 0.05045773
1.0038644e-08 -1.0394105e-08 -7.6507805e-09 -0.013425074 -3.146949e-08 3.646736e-08 -0.03082955 3.2391076e-09
1.2710442e-08 0.028033314 0.0027499204 0.0765462 7.8227116e-05 0.0727529 1.6515583e-07 -0.017381672
0.06400714 -0.08550358 1.8956957e-06 -0.019448007 0.04483958 5.557824e-07 0.06671108 2.2078973e-05
4.6218243e-05 -4.0696064e-09 -1.8607576e-08 0.022140928 -0.08766057 0.00019250537 0.0068704616 0.08523368
0.18588462 8.831612e-09 -0.02805775 0.015343079 0.00642227 -0.0019540302 0.083117925 0.07694241
0.10239544 0.08799705 4.691555e-09 1.3555074e-07 0.09590044 -0.0015677367 0.005858517 0.004723711
0.12337602 0.09730238 0.06461214 2.9887733e-08 1.3791621e-06 -0.0017035228 -0.08253739 -0.09584536
-0.00041278094 1.250806e-08 0.00054298976 -1.6177113e-05 0.002763713 -0.051450953 -1.4904419e-08 0.06901607
0.0025221582 4.8667586e-09 -7.7096465e-06 -0.019015962 -2.4503734e-08 -0.056898512 -0.008211096 -8.0751175e-09
00000000: 90b6 e630 850a 75bd b16a b9be 6d08 823c
00000010: 74f6 8f31 9c62 31bc 7a9c 18b2 2f77 85be
00000020: d779 993d 98df 513d 7b29 00b8 85d0 89be
00000030: 0ae9 513e a100 ceb6 d353 a2bc 6e77 b736
00000040: 66f7 bfb7 b644 fb31 527b 3bb1 9a63 1ebc
00000050: ac5f 1b3e a102 49ba 8b71 1e3d d42f 2f3e
00000060: 18a1 8ebe 8775 c131 67b0 22be e05c 443e
00000070: 16a9 413d 6081 41bb 8ad8 d0bd e1db ab3d
00000080: 18db 6b3d e1de a2bd fcee 0cb0 1088 af34
00000090: 8b41 4d3d 925e 903d d124 023e 2b5f 573b
000000a0: 3fdd a13d 2fac 46be a62c b0be a26e ab31
000000b0: a447 79b1 6d12 e0b0 9ff4 0fbe f3c0 003e
000000c0: 55a4 50b2 5c9d e930 87e0 88ba 2f33 9736
000000d0: 1bc7 0031 fcc7 003e 2b55 3d32 b624 063e
000000e0: 780b 7abb 84bd 9e30 34a3 55b7 9eb2 4db2
000000f0: ccda 2b32 874b a53d e55e c3bc 5746 0ab2
00000100: 6cb4 07b2 a8fc 09b9 db8f 12b8 5762 e7b8
00000110: 4f83 34b1 ae26 a0b8 b40e 6931 c1b9 ffb7
00000120: b0b0 31b8 3882 13b8 2dcd 3e31 abc0 76b8
00000130: dbc9 b2b8 f89a 84b2 66ac 83b8 7bb8 0fb1
00000140: 9de9 96b2 207f 5b2c 8a8f bbb0 8fc0 4eb7
00000150: f3ea 05b9 6daa 3432 5574 49b5 b729 f5b7
00000160: eacf 0bb9 781d 9031 1caf aeb7 7308 f2b7
00000170: 20d6 c9b6 bbb7 0732 05f5 6ab7 ceea 06b8
00000180: 4ac0 8fb9 28d4 42b8 6c5e 6eb2 8aae 7632
00000190: de93 6eb9 100b 33b9 897b 78b8 2023 ae32
000001a0: cbae e2b8 6217 9bb8 e4b7 f1b8 a98c 09b2
000001b0: 28fd bab0 065f 9ab1 09c5 b4b8 6daa 9fb8
000001c0: faab c330 1b14 35b2 c96a d9b3 21cc 432f
000001d0: 2eb4 77b2 c99b bfb8 4bbf 5431 bc2e b7b8
000001e0: 2beb 81b4 46cc 25b2 4491 81b2 b628 d930
000001f0: 9e8d b9b1 f1ce 8db8 f641 54b8 5d3b d231
00000200: 16bf b932 09cd 09bd a85a ccba 9c1c 2abd
00000210: 8f7b 473a a03c adb1 bb66 35bb 9f68 fbb6
00000220: 6667 3b32 6067 9d3b d237 27b0 d137 c3bc
00000230: 5e9c 92b2 f651 2932 27c3 313c 1682 dc31
00000240: fca7 03b1 d3ec ca32 0f86 e233 d1b6 01bc
00000250: bf65 d131 bd6b 6732 ab7f 0d3d f35b 5d3b
00000260: b6ad 17b1 6067 47b2 5a45 62bc cf95 0a3d
00000270: 6501 503b 7d45 a4b1 aa28 7f3b 698b 8e31
00000280: 72f3 1ab2 489c 1b3d fb69 5db2 cfc3 7630
00000290: ad1d 4532 a710 0132 0521 66bb 2f05 e130
000002a0: 9aa8 03bd 99a0 4c3d d106 cfbc c055 a6b9
000002b0: a49b 93bb 20f4 f53c b5b4 213d f5d5 f3bc
000002c0: 746e 57bc 1f76 2e32 c69b a930 d7f0 b031
000002d0: d9ca 21bb be57 aebc 48ef 8eb2 c4ac 4e3d
000002e0: 6c76 2c32 c291 32b2 7d70 03b2 d7f4 5bbc
000002f0: 1229 07b3 49a0 1c33 418e fcbc fc96 5e31
00000300: 1d5d 5a32 1fa6 e53c 0238 343b 41c4 9c3d
00000310: dd0d a438 79ff 943d b055 3134 0264 8ebc
00000320: 2d16 833d 801c afbd 9c6f fe35 6d51 9fbc
00000330: b5a9 373d 1331 1535 d29f 883d 3c36 b937
00000340: 76da 4138 a3d4 8bb1 7ed6 9fb2 e460 b53c
00000350: 6387 b3bd 44db 4939 9c21 e13b ff8e ae3d
00000360: 8a58 3e3e d7b9 1732 5ed9 e5bc 8a61 7b3c
00000370: e871 d23b 300f 00bb bb39 aa3d fb93 9d3d
00000380: b3b4 d13d cc37 b43d 5b33 a131 e78b 1134
00000390: 7367 c43d 847c cdba cdf8 bf3b 5cc9 9a3b
000003a0: 91ac fc3d 7846 c73d 5f53 843d e95d 0033
000003b0: a61b b935 bd48 dfba 5d09 a9bd 924a c4bd
000003c0: 856a d8b9 08e3 5632 6d57 0e3a 16b4 87b7
000003d0: 691f 353b 3cbe 52bd 2a07 80b2 4c58 8d3d
000003e0: cb4a 253b 7638 a731 ae58 01b7 5dc7 9bbc
000003f0: 487c d2b2 6a0e 69bd d587 06bc beba 0ab2
