Epinions/models/Epinions-train-5.pt (torch, 63739 bytes, 14 tensors)

conv1.lin_pos_l.weight f4 [32, 64]
00000000: 932d cbbc 43dc 003e 521d b63d 9c9c c93c
00000010: 98b0 403d d3a0 ebbc a6e6 673b faf9 053d
00000020: 10d1 3fbd d52e 273d de4b 953c 5eaa 0bbd
00000030: 6b24 603d 058a f9bc 15f2 d4bc 30b9 89bc
00000040: ac51 843c 1cee 1b3d 21de 0c3d 1a78 9b3c
00000050: 518b 0fbd e108 0abd 39db 10bd 8772 60bc
00000060: 1149 8cbb 6cbe 443c 1787 963b b6a6 b3bb
00000070: 545a e1bc 9526 993c 7560 4dbd 3c17 183d
00000080: 8b80 9d3c c319 16bc b964 443c b62f e93b
00000090: bdff a3bc f251 223d db3f 893c 236a f83c
000000a0: 5f4b 123d 9375 3ebd ee30 563c faf3 a93c
000000b0: f94a 12bd fccb 1f3d 2701 b53b 833b b23c
000000c0: 9564 543d 8768 8bbd d1fb 573d 5ac9 093b
000000d0: 223f bdbc 0a1d a33c 24f9 173c 4b95 4c3b
000000e0: dfa1 f1bb fe68 9a3c 2ef7 44bc 8a1c 3ebc
000000f0: 5ffc 413c ee86 0d3c 23c4 d0bc 70bc f63c
00000100: f45e 123e 6de1 01bf d527 4fbe 334e 00bd
00000110: 2d34 66be 21fb 393b 420a ef3c 3cfc 60bc
00000120: a1e9 523e cbb3 013e 915b 7c3d ebdb 443d
00000130: 94ac 22be 8fc5 75bd 221e d1bd 2126 18bd
00000140: 2892 dfbd 5ecf 5c3d 7177 babd 796b af3c
00000150: 99ba 733d 452c 8d3d 235a 263e d2dc 323e
00000160: 45c6 783b eb87 c73d b47c 813d dd5d 6cbc
00000170: b741 1c3d cb29 51bd 79f3 afbc 13e7 63bb
00000180: d355 93bd 8aa6 bb3c 66a9 36bd b2fa 06bc
00000190: ca1a ddbd 63ea abbd b197 a4bb 9fcd 2fbd
000001a0: 3732 003d d382 043e b3de 00bd 2865 173d
000001b0: bf0b 163d 30a5 d7bc 8daf 8ebd 37af a53d
000001c0: 0bc3 e7bd 0ef8 0ebd 2ba3 e3bb 829b d7bd
000001d0: a650 9b3d de5d 1cbd 0ff5 e93d bd8e 3d3d
000001e0: aaa1 84bc 1bcc 623d 46df 223d a3e3 bb3d
000001f0: 69e0 c73d 11c8 e9bd e728 033d 118f 763c
00000200: 91ba 5e31 eca0 2232 4f82 ea31 043e 42b2
00000210: d92f ed31 e2b7 7cb2 f336 41b1 6525 70b2
00000220: c680 99b2 0b15 91b1 7c2a abaf 98f6 4531
00000230: eedf fcb1 c98d ca31 d05f 68b1 1a43 5831
00000240: d5ff 2bb2 ce34 20b2 cb5c f131 1943 aeb1
00000250: 66a3 5e2f 1a61 a731 5916 89b2 6041 9db0
00000260: fe25 1bb2 7150 67b1 8a64 6631 ed67 8531
00000270: 14ba 9531 50ab 1332 afbd 9a31 2654 11b0
00000280: 33ab 71b1 0db1 4a32 2048 8e32 5438 8a30
00000290: 9666 34b2 b1ef 97b1 be75 4ab1 f7a2 d931
000002a0: 7bcc 3d32 5424 0c31 b38e 97b2 7abe cab1
000002b0: 6365 26b1 0548 6132 d1af c731 95f7 11b2
000002c0: 3f22 b530 3354 3a32 4ec5 83b2 9b90 0bb2
000002d0: 1d98 5eaf e671 2cb2 a6dd e031 c92e 88b1
000002e0: 4e1b bd31 6f7a 4ab1 7a1e 4f32 d6f7 4231
000002f0: ebdf 14b2 c44e 1bb1 346e 1131 05e0 4c32
00000300: 3ca7 dd31 09bb 78b3 be95 2fb3 8992 1c32
00000310: e3b3 2e31 9a93 3bb1 2d88 ffb1 2d5a 1db2
00000320: a427 afb2 a98b 93b2 18ed 4fb2 c6b2 c7b1
00000330: b06c b030 f874 ae32 d864 8e31 8968 8db0
00000340: c3ee bfb0 2746 15b1 4224 f932 196e d8af
00000350: be32 67b2 f67f 84b1 494d ff2e fd78 bf31
00000360: 5c8f 1732 71a3 e5b0 151e 6532 f936 1a32
00000370: dca9 2eb1 b17c 3eb2 4cfc 86b1 1c57 efb0
00000380: 6428 23b2 d052 9232 88e2 b7b2 f8ab 02b1
00000390: 093e f230 5918 b931 94c5 22b2 8e43 b131
000003a0: 1018 b8b1 421a 20b1 9b83 f3b1 f6d7 b432
000003b0: ab75 48b2 b75c 80b2 d118 79b2 18ce af32
000003c0: 051f aeb1 d99f 8831 0ef8 1db2 a01c beb0
000003d0: b4d8 01b2 ecd2 13b1 d2ee 9e31 e859 74b2
000003e0: f229 c8b1 9c5e cf31 7181 6630 c8ad d6b1
000003f0: 8345 19b1 bc20 5e31 5d2d f3af 77e8 5a32
-0.024802005 0.12584023 0.08892311 0.02461081 0.047043413 -0.02876321 0.003538528 0.0327091
-0.046830237 0.040816147 0.018224653 -0.03409802 0.05472223 -0.03046132 -0.02599434 -0.016811937
0.016152225 0.038068876 0.034391526 0.018978167 -0.03504497 -0.033699874 -0.035365317 -0.01369918
-0.004281171 0.012008291 0.0045937407 -0.00548252 -0.027508892 0.018695155 -0.050140817 0.037131533
0.019226333 -0.0091614155 0.011986905 0.0071162833 -0.020019406 0.03962893 0.016754081 0.030324047
0.03571641 -0.046498846 0.013073189 0.02074622 -0.03571603 0.039012894 0.005523819 0.021756893
0.051853735 -0.068070464 0.052730385 0.0021024556 -0.023101393 0.019911308 0.009275708 0.0031216915
-0.007374033 0.018848892 -0.012021823 -0.011603484 0.011839955 0.008638127 -0.02548415 0.03011915
0.14294034 -0.507346 -0.20230038 -0.031324577 -0.22480841 0.0028378444 0.029179696 -0.013732012
0.20596935 0.12666242 0.061610762 0.048061293 -0.15886146 -0.06000286 -0.102108255 -0.037145738
-0.10916549 0.0539087 -0.09104813 0.021413552 0.059504125 0.06893209 0.16245322 0.17467049
0.0037959975 0.09742721 0.06322613 -0.014426676 0.038148608 -0.051065248 -0.021478401 -0.0034775182
-0.07194104 0.02290656 -0.044595145 -0.008238481 -0.10796125 -0.08394315 -0.005022966 -0.042920705
0.03129789 0.1294053 -0.031462383 0.036961704 0.036632296 -0.026323885 -0.069670774 0.0809006
-0.11316498 -0.034904532 -0.0069469414 -0.10527708 0.07583742 -0.038175456 0.11423694 0.046278704
-0.016190369 0.05537043 0.03976371 0.09174278 0.097596 -0.11415113 0.03202143 0.015048758
3.2411303e-09 9.4662305e-09 6.8251107e-09 -1.1306387e-08 6.9030475e-09 -1.4710141e-08 -2.8116431e-09 -1.3978341e-08
-1.7870104e-08 -4.2224477e-09 -3.1134906e-10 2.8807445e-09 -7.359623e-09 5.895093e-09 -3.3814906e-09 3.147028e-09
-1.00116795e-08 -9.325232e-09 7.0245725e-09 -5.0716946e-09 2.0248833e-10 4.871379e-09 -1.5959062e-08 -1.1441834e-09
-9.030826e-09 -3.366065e-09 3.3526555e-09 3.8826244e-09 4.3576254e-09 8.595478e-09 4.5035544e-09 -5.2870275e-10
-3.5167431e-09 1.1798204e-08 1.6563774e-08 1.0056831e-09 -1.0500704e-08 -4.421928e-09 -2.9461797e-09 6.334058e-09
1.1047741e-08 2.0393331e-09 -1.7643606e-08 -5.9006284e-09 -2.421381e-09 1.3113099e-08 5.8116503e-09 -8.4964045e-09
1.3179217e-09 1.084577e-08 -1.5340131e-08 -8.123744e-09 -2.0244824e-10 -1.0037615e-08 6.5444565e-09 -3.96344e-09
5.503728e-09 -2.9464464e-09 1.2055915e-08 2.8371594e-09 -8.665647e-09 -2.2600242e-09 2.116292e-09 1.1925299e-08
6.450959e-09 -5.7912107e-08 -4.0881552e-08 9.113713e-09 2.5422586e-09 -2.7295983e-09 -7.436958e-09 -9.159106e-09
-2.0390708e-08 -1.7176562e-08 -1.2102895e-08 -5.8119864e-09 1.2836576e-09 2.0309457e-08 4.1442085e-09 -1.0288811e-09
-1.3964939e-09 -2.172223e-09 2.9003903e-08 -3.93684e-10 -1.3457507e-08 -3.856253e-09 1.1609786e-10 5.5725864e-09
8.821953e-09 -1.6708396e-09 1.3336394e-08 8.976479e-09 -2.5416886e-09 -1.1087807e-08 -3.928596e-09 -1.7414297e-09
-9.4970325e-09 1.7034296e-08 -2.1407018e-08 -1.9015243e-09 1.7625449e-09 5.3869766e-09 -9.474565e-09 5.159058e-09
-5.3578404e-09 -2.329799e-09 -7.0871926e-09 2.1052966e-08 -1.1668287e-08 -1.4943323e-08 -1.449935e-08 2.0466402e-08
-5.067593e-09 3.9762935e-09 -9.195004e-09 -1.3832455e-09 -7.558061e-09 -2.151121e-09 4.625556e-09 -1.4223112e-08
-5.8255347e-09 6.0352487e-09 8.385746e-10 -6.2479764e-09 -2.2303943e-09 3.232386e-09 -4.4233675e-10 1.27421265e-08

conv1.lin_pos_r.weight f4 [32, 64]
00000000: 4d8d 52bd 2b2d 3bbe 516c 2abe 2dc4 803c
00000010: d0c4 673d 441c 11bd 0521 a3bd 81c7 063e
00000020: 92c5 643d 771d cdbc 0d92 e73b c410 ed3c
00000030: a7c6 ae3d 2551 75bd 185b 1abd 1d45 ca3d
00000040: 3618 1c3e 1a2a 7dbd fd1e 02be 843b e93b
00000050: d141 c83c 3381 91bd 5a73 dd3c 1029 263d
00000060: 6fa4 70bc 3ecd a1bc 2cd0 f3bb 27b4 e93c
00000070: 019c 323d 5fa8 80bd a62d afbb 39fb 2b3d
00000080: ac52 7c3d ade3 efbc ce75 24bd cd16 a23c
00000090: 9ca6 0e3d 4252 ed3c 945c 3f3d 0a8c 2c3d
000000a0: 6795 d93c fa55 43bd 3ade 52bd 9c12 0a3c
000000b0: 3b68 2bbd f245 2ebd 44fa f63d 8999 4d3d
000000c0: 680c 713d bbd4 80bd 026d a73d 8bbf b83d
000000d0: 4d93 9e3d 3222 f9bc 7782 86bd 9b25 b33c
000000e0: cca7 84bd 48f0 85bc 6b26 8dbd 6cde 8b3b
000000f0: 7ec6 b13b c670 993d d609 97ba 674a 3ebc
00000100: e268 a33e 9cfb 14bf 58fd 17be 889f 913d
00000110: 3681 83be c7c8 553d c30a eb3d 5db4 99be
00000120: 3a8d 623e 2268 ea3c cbdb 1d3e 3856 bdbd
00000130: ebf6 ea3d 9321 82be a01f 6ebd 280a 01be
00000140: bd7e 043f 42bb 0c3e 8d36 08bf 2f8a 663c
00000150: 5c89 723e a7e8 91bc f3e8 5a3b 0c23 f83d
00000160: 878a 913b 75d5 853d 5ee7 1fbe 8ac5 343d
00000170: 58f7 953d d3cc 07be 1041 cc3d eec0 93bd
00000180: ae8c 84ba 4ca0 1c3d 0e94 1fbc 4ced b8bd
00000190: fb1c d43c a1ab 373d f6cf 223e 0611 213c
000001a0: bdd7 6f3e c214 1b3d b4a6 50be 61fe 22be
000001b0: 24cb 81bd 49d7 91be 6447 983e 6d5a aa3e
000001c0: 5375 75bc 70aa 583d f467 68bd 97b7 30bc
000001d0: da95 c33e 81e0 12be a946 183d f131 2d3e
000001e0: 0d5f 1b3e d634 bdbd 9ffb 8abd 83f9 c7bc
000001f0: b6d0 b33d 31b1 ccbd f57c 3fbd 12f3 993e
00000200: 81cd 8632 ddda cfb1 30e2 9ab1 1df9 b431
00000210: d53d 2db2 5967 40b2 5085 4fb2 e7c2 81b2
00000220: 1c30 d7b0 b3be 36ae b9ce dfb1 8fa2 5530
00000230: 6c31 de31 2a05 54b2 8683 fb31 faf8 b9b1
00000240: 5a26 8db2 7f3a 84b1 4859 7bb2 51a3 0232
00000250: e087 5631 f4a3 1730 8424 ffb1 e13f 2731
00000260: 6ac6 49b1 cad8 2432 d628 f131 0e16 7132
00000270: de01 3032 8805 77b2 a9e1 1eb2 ee3e 4b32
00000280: 0356 7c32 7a6d 6832 4382 28b1 801e 6232
00000290: 8b06 5cb2 0b2e ba31 5528 fcb1 2d05 c1b0
000002a0: d6b9 86b0 edda 43b2 45ce e530 b7c2 9a32
000002b0: 202d d730 0215 a9b2 9834 0532 44c2 a8b1
000002c0: 2f99 3132 c78d baae e104 0fb1 0ba5 cfb1
000002d0: 8cec 9432 fa89 2db0 c09d c7b0 31a5 8a31
000002e0: 443e 2d31 b8e3 41af 8642 61b2 f247 54b2
000002f0: e88e 0cb1 bc93 c031 6eb4 b3b0 1d09 a131
00000300: a608 b231 1755 5b32 09ac fcb2 1d77 4632
00000310: 2758 2032 56d0 4cb2 c71a 2031 b2e9 1032
00000320: 12d0 1f32 b78a ff31 c23b 00b2 6372 4f32
00000330: 07ab 8db1 1648 57b2 a6c7 dd32 1007 4db2
00000340: 2dee 6f31 569c c9b2 778f 8d33 8899 c8b1
00000350: 2582 1632 b5d9 a831 91ec c332 09b5 05b3
00000360: 6cc2 2f31 0ad3 d532 a319 d1b2 59af 5730
00000370: 422b e6b2 3993 6133 e570 52b0 6293 2931
00000380: 7ebe 0fb2 f589 5133 aa7e 44b1 e923 5732
00000390: 527e 8132 8ab8 b032 e84d 36b3 ce38 4932
000003a0: 2c70 88b3 92db 8cb2 9b29 8133 fad6 30b3
000003b0: 3eac 3a31 4058 37b2 64ee 0cb3 d95d 0ab3
000003c0: d4a4 80b2 9010 6f32 6824 e432 3b13 70b2
000003d0: 2e70 9b31 ec06 a1b2 0797 e8b1 3ae7 40b2
000003e0: e32e 3db2 25ef 6b31 1931 bbb0 f7b4 8e32
000003f0: ae45 c031 208a 15b2 888e 88b0 e800 2732
-0.051404286 -0.18278949 -0.16642882 0.015718544 0.05658418 -0.035427347 -0.07965282 0.13162042
0.05585248 -0.025038464 0.007066971 0.028938659 0.08533984 -0.05989184 -0.03768453 0.098764636
0.1524361 -0.06180773 -0.12707134 0.0071176905 0.024445446 -0.07104721 0.027032543 0.040566504
-0.0146876415 -0.019751187 -0.0074405875 0.028528286 0.04360581 -0.06282114 -0.005346018 0.04198763
0.06160228 -0.029283369 -0.04015141 0.019786263 0.03482686 0.028969888 0.04671915 0.04212574
0.026560498 -0.047689416 -0.051481463 0.008427288 -0.04184745 -0.042547174 0.12059453 0.05019525
0.058849722 -0.06290575 0.081750885 0.09020909 0.07742939 -0.030411813 -0.06567853 0.021868518
-0.06477317 -0.016349927 -0.06892093 0.004268458 0.0054252734 0.07492213 -0.0011523317 -0.011614419
0.31915957 -0.58196425 -0.14842737 0.07110506 -0.25684518 0.05219343 0.11476662 -0.3002042
0.22124186 0.028614108 0.15415876 -0.092449605 0.11472877 -0.2541624 -0.05813563 -0.1260153
0.5175589 0.13743308 -0.5320824 0.0140710315 0.23685211 -0.017811133 0.0033403009 0.1211606
0.0044415626 0.06534854 -0.15615603 0.0441337 0.07322568 -0.13261728 0.09973347 -0.07214533
-0.0010112727 0.03823881 -0.009739889 -0.09029636 0.025892725 0.044841412 0.15899643 0.009830719
0.23422141 0.037861593 -0.20376092 -0.1591735 -0.06337574 -0.28484562 0.29741967 0.33272114
-0.014981586 0.052896917 -0.056739762 -0.010785959 0.38200265 -0.14343454 0.03717676 0.16913582
0.15172978 -0.09238593 -0.06786274 -0.024410969 0.08780043 -0.09994734 -0.046750028 0.3006826
1.5693105e-08 -6.049375e-09 -4.5077044e-09 5.2670104e-09 -1.0083984e-08 -1.1199369e-08 -1.2079298e-08 -1.5106208e-08
-1.5656982e-09 -4.1551384e-11 -6.513656e-09 7.771996e-10 6.466669e-09 -1.2341198e-08 7.320014e-09 -5.412514e-09
-1.6432e-08 -3.848356e-09 -1.4630423e-08 7.60413e-09 3.1218335e-09 5.516647e-10 -7.425628e-09 2.433801e-09
-2.9362135e-09 9.5953485e-09 7.0186656e-09 1.4033061e-08 1.0244973e-08 -1.437855e-08 -9.24812e-09 1.1830464e-08
1.4687887e-08 1.3529069e-08 -2.4521263e-09 1.3161866e-08 -1.2807173e-08 5.418547e-09 -7.3387505e-09 -1.4044069e-09
-9.802601e-10 -1.1400272e-08 1.6720568e-09 1.8016506e-08 1.5656134e-09 -1.9683743e-08 7.753577e-09 -4.911529e-09
1.0337586e-08 -8.4834854e-11 -2.0812012e-09 -6.043256e-09 1.7337037e-08 -6.313311e-10 -1.4523991e-09 4.0351087e-09
2.5210207e-09 -1.763415e-10 -1.3111849e-08 -1.2356383e-08 -2.0453914e-09 5.604731e-09 -1.3075245e-09 4.6867528e-09
5.181465e-09 1.2766825e-08 -2.9414894e-08 1.15522e-08 9.333269e-09 -1.1921733e-08 2.3298286e-09 8.435039e-09
9.302328e-09 7.437247e-09 -7.464168e-09 1.2074994e-08 -4.1230837e-09 -1.25310375e-08 2.5818576e-08 -1.1934176e-08
3.4914465e-09 -2.3470573e-08 6.59192e-08 -5.8382206e-09 8.760741e-09 4.914194e-09 2.2808566e-08 -3.1131126e-08
2.5576368e-09 2.4892433e-08 -2.434246e-08 7.846573e-10 -2.6795195e-08 5.2520793e-08 -7.655799e-10 2.4676514e-09
-8.367008e-09 4.8787076e-08 -2.8593754e-09 1.2522812e-08 1.507502e-08 2.0573015e-08 -4.2446032e-08 1.1712656e-08
-6.3533975e-08 -1.6397994e-08 6.0145986e-08 -4.1173713e-08 2.716447e-09 -1.0672068e-08 -3.2813105e-08 -3.2215983e-08
-1.4976116e-08 1.3915397e-08 2.6559249e-08 -1.3974211e-08 4.523847e-09 -1.8746015e-08 -6.7692585e-09 -1.1228446e-08
-1.1011909e-08 3.4332939e-09 -1.3619995e-09 1.6613269e-08 5.595857e-09 -8.7043475e-09 -9.935812e-10 9.720885e-09

conv1.lin_pos_r.bias f4 [32]
00000000: 403e 163e 7484 023d 1a6a 8cbc 1bc4 18b9
00000010: 7140 c53d 9eaf bd39 841d a43b 67fe 8fbc
00000020: c633 863d 59c5 da3c 9087 b63c 6c95 ddbc
00000030: 989d c7bc dad9 28bd a704 af3b caeb 5a3c
00000040: d0a9 27bd dc41 86bc c43a dbbc fee3 9a3c
00000050: 2e1e 66bd f9fd ee3c 4005 96bc 8793 ed3c
00000060: edd2 0cba 8301 8b3a 7fc8 87ba a03b fc3c
00000070: e622 cfbb 726d b8ba 62bd 533c c3a6 9ab7
0.14672184 0.0318646 -0.017140437 -0.00014568905 0.09631432 0.00036179734 0.0050084013 -0.017577363
0.06552844 0.02670543 0.022281438 -0.027048789 -0.024367139 -0.041223384 0.005341131 0.013361881
-0.04093343 -0.016388826 -0.02676142 0.018907543 -0.056181125 0.029173838 -0.01831305 0.02900101
-0.00053720066 0.0010605309 -0.0010359435 0.03079015 -0.006321299 -0.0014070703 0.01292357 -1.8435885e-05

conv1.lin_neg_l.weight f4 [32, 64]
00000000: a8fc 7731 8216 3cb1 2f5a f8b1 8e9d d7b1
00000010: 65ed 2f32 1010 34b2 12eb 81b1 1250 6f31
00000020: d8b1 0cb1 0a4f fdb1 73a6 5f31 570d 3cb1
00000030: a909 6332 5484 4631 02d4 2432 43de 87b1
00000040: 375d c630 9806 a7b0 03c6 b6b2 580e d2ae
00000050: 9efb e231 25b2 91b1 b869 d730 3e67 ee30
00000060: 6e31 81b1 bdc9 2032 13d2 2432 05aa 9332
00000070: 8dd9 4eb1 647b 3032 6bc2 66b1 ec61 af31
00000080: 2816 86b2 226b fc2f 952a 8631 6699 a230
00000090: 27f8 8ab1 7ec7 d031 63d8 4a32 bbfd 12b2
000000a0: d9c4 0cb1 74de 72b2 1182 6e32 e02c 9e2f
000000b0: b821 1cb2 aadf e531 56e7 2932 6453 46b2
000000c0: 4f97 8ab1 7f28 2b32 af25 1632 7abb c931
000000d0: 3156 8532 0b57 5b31 e0ac 9c31 e748 a9b1
000000e0: 5480 9531 0391 1430 9c85 3f32 fea5 8a32
000000f0: c0b9 6831 0719 0f32 7742 1eb2 147e 1932
00000100: a394 64bd 8ee8 fd3b 6ea7 d03c 4e5c 7d3c
00000110: 955b d139 43d1 18bc 1aef 173d 2d19 b43c
00000120: 67b2 083d c001 553d 430a 2f3d 78cb 863c
00000130: 05d7 ebbc c227 90bd 4abb 6e3d 144c ccbd
00000140: 1837 c23c b9a3 da3c ecac c0bd bfe2 603d
00000150: a482 8e3d baa1 1d3d 7c77 abbd e67b a63d
00000160: 1af9 b63d edf0 80bc e0fc 75bd 6e71 8a3d
00000170: a06b 5cbd fe23 e73c b1e9 8ebd 113c a6bd
00000180: dbc7 f7bc cd7f 3f3c e1a5 fa3d 50fa ccbb
00000190: f7a7 d43d b931 53bb 4b1a 8bbb b2b7 71bd
000001a0: b37e a33d 2bf4 bebd 2432 65bc c861 443c
000001b0: 8e7d a33c 3b8c f53d 3eba a73d 1713 49bd
000001c0: 8710 d8bd f2a7 cf3b cca2 f6bc 9232 973d
000001d0: fafa 2cbd 99e7 eabb 6a4a 8e3c a231 85bd
000001e0: e8c9 263e 7206 b5bc 5c63 ecbc 0b44 ffbc
000001f0: 9862 c63d 2033 b1bd add6 963a 1f94 673d
00000200: 8f5e 3d3d ec30 31bf 56da a6be aebf 21be
00000210: 19e8 a2bc 802d 803d be56 bf3d 4abb 9ebe
00000220: 767c 153e 7f43 a2be 79bb 263e 90d3 2ebe
00000230: 03ba 9b3e bb06 8cbe a5d6 1f3c 2b0e 16be
00000240: 4982 17be 62e7 103e 9095 0abb 6529 643b
00000250: c5ef 30bd d968 b2bd 2376 3e3e 9776 c6bd
00000260: 548d 2a3e b08f 25be be2d d7bd c61a 093e
00000270: c4d0 373d 09f9 96bd 2b81 73bc 7b5c 09be
00000280: a95c babc 8b6f f6bd 5d0f 9f3d 1ed8 e3bd
00000290: 4762 0a3e 2111 0d3e 97b5 0ebe fd17 d8bc
000002a0: d2ae aabd 423c b2bd 2335 bc3d dce3 fb3c
000002b0: 4861 ae3c 1ec3 20be 69b7 633c d071 9d3d
000002c0: 8f81 c5bd f910 543d 6071 05bc b523 403e
000002d0: 6354 0c3e 7bee 2fbe 6f46 85bd 0ba1 94bc
000002e0: 4235 febd b99e c8bd 2408 debd bbf4 c23d
000002f0: 5423 b8bd 88ae 4e3e 7476 6abc fc7c 72bd
00000300: 2d8e 2c3d 14c6 ba3d 68b5 be3c ee48 48be
00000310: 6e2e 2fbd b44a 15bd e187 54bb 4dcd 94bd
00000320: 79f4 6cbc 8c11 053e 5ea5 75bd 4a63 673c
00000330: 3a1f d33d 9ed4 ce3c 4661 883c 7fa3 edbc
00000340: 2b6a b93d 62a5 193d 686b 073d 6717 dabb
00000350: 3254 3bbd e225 593c b322 2e3d e762 243c
00000360: c9ac 703d 9442 efbc daa8 2dbd b98a 6d3c
00000370: 0afb 0cbd 2633 8cbb db04 9bbc 677a 3ebd
00000380: c9da 16bc a8a4 b13c dc31 af3d e789 063d
00000390: 6478 cd3c d9f5 763d df9a 03ba cc58 f5bc
000003a0: 4655 9ebc 8e69 263d 5508 953a 264f 56bd
000003b0: 8015 603c 4b8c 873c 58a3 dbbc 2389 4abc
000003c0: 729b 19bd 3cc7 983b c9df 09bd 22a8 37bc
000003d0: 994b a2bd 3aca d8bc faf8 833d 352d 0dbc
000003e0: 70ee 6cba c758 5bbd 6d1c a1bc e5bc 583d
000003f0: 051e dc3c d646 32bc ebdc ea3c e54f 52bd
3.608685e-09 -2.7370395e-09 -7.2280026e-09 -6.2752354e-09 1.0240318e-08 -1.0481031e-08 -3.7811185e-09 3.4824592e-09
-2.0473774e-09 -7.372255e-09 3.2545386e-09 -2.7365183e-09 1.32153355e-08 2.8888012e-09 9.594261e-09 -3.9542853e-09
1.4432889e-09 -1.2152723e-09 -2.1277634e-08 -9.552242e-11 6.6060712e-09 -4.240308e-09 1.5673356e-09 1.7346122e-09
-3.7600136e-09 9.359096e-09 9.593822e-09 1.7190368e-08 -3.0100609e-09 1.0272604e-08 -3.3579919e-09 5.1043028e-09
-1.5609729e-08 4.5914655e-10 3.9047543e-09 1.183065e-09 -4.0445403e-09 6.0762764e-09 1.1807148e-08 -8.55601e-09
-2.0484576e-09 -1.4136834e-08 1.3882997e-08 2.8771918e-10 -9.088062e-09 6.690205e-09 9.889694e-09 -1.1544078e-08
-4.0335304e-09 9.962718e-09 8.739717e-09 5.8711835e-09 1.5522433e-08 3.1918173e-09 4.559851e-09 -4.9268354e-09
4.35106e-09 5.404816e-10 1.11480425e-08 1.6140799e-08 3.386603e-09 8.329386e-09 -9.211923e-09 8.934439e-09
-0.055805814 0.00774867 0.025470462 0.015463902 0.0003993182 -0.009327236 0.03709326 0.021984661
0.033373263 0.052003622 0.042734396 0.016454443 -0.028789053 -0.07038833 0.05828408 -0.09975448
0.023707911 0.026689397 -0.09407982 0.054903742 0.069585115 0.038484313 -0.08372399 0.081291005
0.08934231 -0.015739882 -0.060055614 0.06759916 -0.053813577 0.028215405 -0.06978167 -0.081169255
-0.030246666 0.011688185 0.1223867 -0.0062554255 0.10383599 -0.0032225682 -0.0042450777 -0.059013076
0.0798315 -0.09323915 -0.013989005 0.0119862035 0.01995733 0.119896375 0.0818982 -0.04909047
-0.10550027 0.0063371593 -0.030106924 0.073826924 -0.042231537 -0.007168722 0.017369468 -0.06503607
0.16287959 -0.0220978 -0.028855972 -0.031160375 0.09686774 -0.086523294 0.001150807 0.056537744
0.046232756 -0.69215274 -0.32588452 -0.15795776 -0.019886063 0.062586784 0.09342717 -0.31002265
0.1459826 -0.3169212 0.16282453 -0.17072892 0.30415353 -0.27348885 0.009755765 -0.14653842
-0.14795794 0.14150766 -0.0021146275 0.0034814712 -0.043197412 -0.08711404 0.18599753 -0.09690588
0.16655475 -0.16168094 -0.105067715 0.1338912 0.04487683 -0.073717184 -0.014862339 -0.13414185
-0.022749262 -0.12032994 0.07766602 -0.111252055 0.13514052 0.13776065 -0.13936459 -0.026378626
-0.083341256 -0.087028995 0.091898225 0.0307483 0.021286622 -0.15699431 0.013898709 0.07687724
-0.09643852 0.051774 -0.0081447065 0.18763621 0.13704066 -0.17180817 -0.06507575 -0.018143198
-0.12412502 -0.09795899 -0.108413965 0.09519335 -0.08991113 0.20183766 -0.014310468 -0.059201226
0.042127777 0.09119812 0.02327986 -0.1955907 -0.04276889 -0.036448196 -0.0032429623 -0.072657205
-0.014462584 0.12994975 -0.05997216 0.014122793 0.1030869 0.025247868 0.016647946 -0.029008625
0.09053453 0.037511237 0.033061415 -0.006655622 -0.04573459 0.013253661 0.04251356 0.010033346
0.05875853 -0.029206552 -0.042397358 0.014498406 -0.034419097 -0.0042785583 -0.018923214 -0.04650345
-0.009207436 0.02168496 0.08554432 0.032846358 0.02508182 0.060293052 -0.0005020331 -0.029949568
-0.01932777 0.04062801 0.0011370281 -0.052321576 0.013677001 0.01654639 -0.026811287 -0.0123617975
-0.03750176 0.0046624225 -0.033660684 -0.01120952 -0.07924575 -0.026463617 0.06443973 -0.008616735
-0.00090382155 -0.05355146 -0.019666875 0.05291452 0.026869783 -0.010881146 0.028669795 -0.051345725

conv1.lin_neg_r.weight f4 [32, 64]
00000000: ac2d 4732 e8c4 0ab2 a51d 3b32 4d8f 9231
00000010: c0d8 96b1 7424 00b2 d182 3e32 1da4 4732
00000020: 3939 20af cc5a 16b2 1d28 25b2 ee23 edb0
00000030: 8ad9 5cb0 8d31 1cb2 b9cc ab30 9dbc 25b1
00000040: 4791 dc32 3a62 da31 6dc6 5931 c219 1532
00000050: cb89 5bb1 7b1b d931 b74f f331 cc0d f932
00000060: 7180 8032 ed8c 1eb2 cc39 6831 72a7 40b2
00000070: 0588 64b2 8ecb 1e31 8e96 5031 cc07 a732
00000080: b71a 6f2e d44a 2db2 1f60 4432 b111 cb31
00000090: c24f deb0 4da0 6132 2b7a f4b1 362e 88b2
000000a0: eabd 7bb1 cc87 08b2 86f1 d4b1 67c8 98b2
000000b0: e5cc c2b1 25db 53b2 a72c 70b2 3c96 5932
000000c0: 21c9 3b32 0d0f aeb1 e680 8f31 8132 1ab0
000000d0: 3b80 2f32 9e7a 00b1 a2da 5db2 ab38 19b2
000000e0: 1f84 3f32 0b67 0b31 67cf 23b1 5184 f631
000000f0: ce85 31b2 27d1 a72f 551f 9c31 649b 00b1
00000100: 0315 5f3e 419a 07bf efc7 17be 803a 543b
00000110: eb7a a73d 26de ab3d 9ec4 083e 9364 ebbe
00000120: 4027 c33d a743 25be d80a b73d d7a1 12be
00000130: 78b0 473e 0b3f 4bbe b458 7abc 1649 b63d
00000140: 468f 833e 6344 c03c 8075 e8be a754 7b3e
00000150: 8cb1 2d3e 94b0 fabd 4130 603d 17bf 4a3e
00000160: fdb4 fdbc 1a3b 24bd 9ea4 7abe f5f0 70bd
00000170: a8ae 87bd d5fe e53a e7e4 93bd 22ca 7fbe
00000180: 3474 313e ade3 9abd a7a5 76bd 7cb3 0c3e
00000190: d5f0 efbc a242 103e cbd1 353e a3d2 363e
000001a0: ceb3 793e 0444 61be 989d 7ebd ae5a 43bd
000001b0: 06e2 a0be 0e45 36bd 7a43 b53d 45d9 c43e
000001c0: 9c19 e5bd f3fa 20bd a9e9 e33d 8253 af3b
000001d0: e5fa 033d 60d2 443e 1a35 84bd 8b9a 373c
000001e0: d884 ccbd b700 e0bc 1411 c43d 4ea1 603e
000001f0: d2b8 0c3e cc80 d93b c631 babd 86d9 d3bd
00000200: bf8b 82bd 9bd3 f63e 23b7 5d3e e6f5 323e
00000210: 9c2d 1e3c d710 e5bd 4395 10bd d40d a83e
00000220: edb0 16be 7d89 163e 135d 2cbc 999d 74bc
00000230: 455a 26be d6d7 543e 29c0 00be 52da 9d3d
00000240: 2e42 e8bc 6eeb 21be c71a 983e 65c1 3dbd
00000250: dda6 07be a15c 06bd a16a 19be 2c48 41be
00000260: 7a85 1ebd e5ff 983c 4f71 e23d 1320 b63c
00000270: 2a7d 813b e8b2 063e 8145 493d 2e48 dc3d
00000280: 0042 90bd 7877 eebc cdd2 adbd 6167 b83d
00000290: 0af0 36be 3a21 7b3d 4853 88bc 70cc 08bd
000002a0: 7009 45bd ea59 443d 71e6 4abd 2033 9e3d
000002b0: aa11 95bd fc95 d23d 07fd 3ebe 96ab 2bbd
000002c0: c2a0 18bd 8b7b 783c 32da a13c d94f eebd
000002d0: 31c5 55be bb17 343e 712a 8e3d e157 fabc
000002e0: 0fb8 d63c 3e76 0d3e 3772 f23d 6431 083e
000002f0: 2234 583e 0586 2bbd 2262 033d 6050 0e3e
00000300: 1c7b 3cbe e6e7 e4be e577 4cbe 7cee 943e
00000310: 2984 2c3e 2520 19bd 94be 6abd 871d ed3d
00000320: c1f6 4ebd 68cd 3cbd cf16 e8bb c4f6 77bd
00000330: 443d 2dbb 13d9 d63d a793 0fbb 31d1 a43c
00000340: 9d51 07be 71fe eebd 021b e93d 3a60 1d3e
00000350: dc83 1bbd 907a c93c 8397 eebd a456 f5bc
00000360: 17dc c6bc b870 0c3d 0469 5c3d 41f1 cb3d
00000370: dfc1 2a3d 9f59 0ebd a095 f5bd e91f debd
00000380: 7b08 663c 7e8d acbd 93ed bebd aeeb 953c
00000390: 6d6e 053d 172c c1bd 5d35 e5bc 35e9 823c
000003a0: 2958 1abd 6ae6 473d 3732 863c 7f84 413c
000003b0: da28 9a3d 27ad ec3c d66f be3d 7404 d5bc
000003c0: 792a cf3d 16c8 8a3c 9d7e 443d cd89 9e3c
000003d0: 15f0 9d3d 5a96 f73b 2088 ddbd 057b cbbd
000003e0: b545 e53d 86fe e1bc 00d6 f33c 0de1 bfbd
000003f0: eb52 9b3c 9bf7 b4bc 1a59 5a3c d3b5 333d
1.1593709e-08 -8.0774285e-09 1.0891573e-08 4.2654507e-09 -4.390216e-09 -7.458869e-09 1.10892e-08 1.162064e-08
-1.4572245e-10 -8.751794e-09 -9.613385e-09 -1.7254231e-09 -8.0344675e-10 -9.091662e-09 1.2500073e-09 -2.4117874e-09
2.5677435e-08 6.355802e-09 3.1690448e-09 8.678798e-09 -3.194702e-09 6.3186554e-09 7.0812933e-09 2.899369e-08
1.495957e-08 -9.228853e-09 3.3793297e-09 -1.12139436e-08 -1.3302274e-08 2.3107734e-09 3.0353564e-09 1.9444904e-08
5.4366036e-11 -1.0086939e-08 1.1430557e-08 5.910089e-09 -1.6175294e-09 1.3133172e-08 -7.1152235e-09 -1.5853498e-08
-3.663326e-09 -7.9471185e-09 -6.19747e-09 -1.7786261e-08 -5.669437e-09 -1.2331644e-08 -1.3979991e-08 1.2665222e-08
1.0930564e-08 -5.0657776e-09 4.176502e-09 -5.6096644e-10 1.0215497e-08 -1.8696151e-09 -1.2913604e-08 -8.918657e-09
1.1147704e-08 2.0285735e-09 -2.3837516e-09 7.174585e-09 -1.033318e-08 3.0525735e-10 4.5437596e-09 -1.871478e-09
0.21785359 -0.5296975 -0.14822362 0.0032383502 0.081777416 0.08391981 0.13356254 -0.4597517
0.09528971 -0.16139089 0.08937615 -0.1431955 0.19500911 -0.19848268 -0.015279938 0.08900659
0.25695246 0.02347011 -0.45402145 0.24544011 0.1696226 -0.12240711 0.05473352 0.19799457
-0.030970091 -0.040095426 -0.24476859 -0.058823545 -0.0662511 0.0017547259 -0.07221394 -0.24979451
0.17329484 -0.07562957 -0.060216572 0.13740343 -0.029289642 0.14087918 0.17755811 0.17853789
0.24384996 -0.21998602 -0.06216201 -0.0476939 -0.31422442 -0.04449945 0.08850761 0.38447013
-0.11186525 -0.039301824 0.111285515 0.005350531 0.032221694 0.19220877 -0.06455441 0.0112062795
-0.099862754 -0.02734409 0.0957357 0.21936533 0.13742378 0.0066376682 -0.09091525 -0.10344224
-0.06374311 0.48208317 0.21651892 0.17476615 0.009654429 -0.111848526 -0.035298597 0.3282305
-0.1471593 0.14700885 -0.0105202375 -0.014930152 -0.16245373 0.2078546 -0.12573303 0.07707657
-0.02835187 -0.15812466 0.2970793 -0.046327014 -0.13247247 -0.03280318 -0.14982082 -0.18875188
-0.038701512 0.018676708 0.11056768 0.022232091 0.0039516883 0.13154185 0.04913855 0.10755955
-0.070438385 -0.029109702 -0.08487473 0.09004093 -0.17865005 0.061310984 -0.016641274 -0.03339809
-0.048104703 0.04793731 -0.049536172 0.07724595 -0.0727876 0.102825135 -0.1865121 -0.041911684
-0.037262686 0.015166174 0.019757364 -0.116363235 -0.20876004 0.17587177 0.06941689 -0.030559482
0.026210813 0.13814637 0.11838191 0.13300091 0.21113637 -0.041875858 0.03207601 0.13897848
-0.18406337 -0.44708174 -0.19967611 0.290882 0.1684729 -0.03738417 -0.057310656 0.115778975
-0.05052829 -0.04609433 -0.007082797 -0.06053807 -0.0026434222 0.10490622 -0.0021908076 0.020119281
-0.13214727 -0.116696246 0.113821045 0.15368739 -0.037967548 0.024594575 -0.11649992 -0.02994854
-0.024274869 0.034287184 0.05381109 0.09958125 0.041688796 -0.034753438 -0.11991429 -0.1084593
0.014040108 -0.08425425 -0.093226574 0.018300857 0.032576013 -0.094322376 -0.027979547 0.015980342
-0.037681732 0.048803724 0.016381366 0.011811375 0.07527323 0.02889116 0.09298675 -0.0260031
0.10115523 0.016941112 0.04797231 0.019352818 0.07711808 0.007555765 -0.108169794 -0.099355735
0.11194936 -0.027587187 0.02976513 -0.09369097 0.018960437 -0.022090724 0.0133269075 0.043874573

conv1.lin_neg_r.bias f4 [32]
00000000: 58f2 d4bb 27ed 953d 319a a03c 6dea 9b3d
00000010: 7178 6bbd d1bb 05ba 78b6 69bd a60b 183d
00000020: 0a4d d23d 140f 9f3b 3abe 153c e586 943c
00000030: 7aa3 fcb9 5fed ddbc 770c 573d 804d 26ba
00000040: 48b4 1dba c0bb c2bb 6aed f4bc e3f3 d13c
00000050: 86a0 79ba d516 12ba b7db 2d3d 19ed d73c
00000060: 9537 ecbc 8a1a 01bc ce41 3e3c 3d9e 3c3c
00000070: 3429 82b9 2d64 5cb8 e988 073d 5a62 58bd
-0.006498616 0.07320624 0.019604774 0.076130725 -0.05748791 -0.0005101534 -0.05705878 0.037120484
0.102686 0.0048540924 0.009139592 0.018130729 -0.00048186985 -0.027090726 0.05250212 -0.0006343946
-0.00060159387 -0.0059427917 -0.029898364 0.02562899 -0.0009522516 -0.000557286 0.042445865 0.026358174
-0.028835097 -0.007879863 0.011612369 0.011512336 -0.0002482623 -5.2545383e-05 0.033089552 -0.05282817

convs.0.lin_pos_l.weight f4 [32, 64]
00000000: 8008 f13d 4c9f e23b 3364 90b0 b98f ce33
00000010: 7629 3a3e 5a5c e0bb ff37 4a3d d83f 84b7
00000020: 7c5f d13d 0d1e 033e 5b8a e23c 49b9 4431
00000030: 99da 18b5 5a85 d3b9 281b 52bd dc0a 63bc
00000040: ed4f 90b9 0bb6 1232 be01 7433 5486 febc
00000050: ef74 bfb9 e16c 01bd 8271 ebb1 eec6 423d
00000060: ecab 9c36 a903 55bd 299d 04b7 f4b6 9fbd
00000070: 18b7 5bb1 7178 c539 4a6b 90bc c6a6 f335
00000080: 7120 f931 6f15 e3bc 0489 723c f9b6 cdbc
00000090: 34d8 c0bb 4d5f 49b6 570a 7c3a e130 023c
000000a0: cab0 4b3d 0f99 53bd e974 e1bc b3de 14bd
000000b0: 98d3 1ab7 95e4 383c c922 3abd 89fd 5eb9
000000c0: 65de c939 6a8a 1232 c027 2433 bd37 3c3d
000000d0: 0df9 29bd d924 7631 cffd 173d b8cb 22bd
000000e0: 6b26 093a a66f 4f32 f925 223c 9b0c 7dba
000000f0: 6922 2f3d 0727 a3b4 bf48 923b 0a0e f939
00000100: 547f f2bc 8047 a93b b13f a2b2 ff1f 0134
00000110: b45f dfbd c4e8 8b3d 17d1 60bc 17d8 4037
00000120: d62b ebbd d6ac 2dbe b1f7 a6bd 72be 1632
00000130: 7ec7 9632 3ab6 2e33 a880 203d 4552 d73b
00000140: 91e7 35b2 a71a 8ab1 1689 16b5 afc4 3dbc
00000150: 2939 a8b4 71d0 8a3c a0fc 31b2 afc7 7abd
00000160: 5356 01b6 98af b53d d2e9 0ab7 a9b8 a03d
00000170: 70b4 d131 62f5 acb9 3661 6a3b 221d c6b5
00000180: 08ba 7132 7205 11bc ce5c a83d b97d 803c
00000190: c594 c133 61ac d237 e8e4 c7b3 670a 243c
000001a0: df5c d1bd df44 983d 4a66 243d f0e7 1c3d
000001b0: be34 69b7 6b0f 043c 4b83 57bd d838 39b8
000001c0: ddc2 1039 8b3f d7b1 4143 07b2 b282 babd
000001d0: eee9 2d3d baf8 0e32 91e2 ed3a 319f 9bbc
000001e0: a3f7 ecba dffc 0232 2aac b7bc 752d bbbd
000001f0: 5f9f f8bc 99d7 c634 8a5a 7137 2c37 4d3a
00000200: 5fae 1c38 4206 74b7 0205 5932 9cae 5e30
00000210: 80e5 b4b9 7ac3 80b8 276c b8b7 89a0 bdb0
00000220: aa1c 9cb5 bae3 6b37 812f 4cb8 a78b 7d32
00000230: e53e 842f a5ea 3832 38b9 ebb4 4a2a c9b8
00000240: 479f b6b1 5117 c5b1 9674 1532 58a0 2038
00000250: 3549 8ab2 8030 15b8 f7b2 1db1 9162 5a37
00000260: a8fb 67b2 8598 22b6 75b7 16b0 12d1 f5b8
00000270: fdf3 8032 e7f8 1d31 6889 83b7 8f7b 4032
00000280: 135f 45b1 3fa2 c338 7c22 8e38 d051 6638
00000290: f388 3bb1 555f 3fb0 d0f8 6bb2 6dcb 17b9
000002a0: b874 9939 b397 ec38 3942 0cb9 1bd8 dcb8
000002b0: 420d 1832 8f73 83b0 90fc d139 fd5d e030
000002c0: a7a7 f6b0 5e37 76b1 3ec0 d3b1 6aa1 a536
000002d0: 9405 97b8 d0ea 4730 7bce 2939 72d4 5137
000002e0: ccb7 8a36 04d9 2cb1 d622 7fb9 f5d4 8fb8
000002f0: bf15 a536 2d71 21b1 0206 c538 725e 5334
00000300: dabf f2b2 c084 48b1 7f46 93b0 2cb0 1c32
00000310: 9a48 1033 661e 9db2 e036 d732 7df0 0e32
00000320: d904 62b2 ef27 a831 cfbf cd32 8e6f 0cb2
00000330: 12de eb31 40bd 9cb2 b3c8 4bb2 9abd d532
00000340: d3f3 7a32 b18e 2eb1 c50c fe31 01cc 2932
00000350: eded 5332 8448 0eb2 6b96 1cb2 15f9 c9b2
00000360: 1e23 9caf 92f9 be30 1612 21af 27e4 2d32
00000370: 3b4a 90b1 2556 5b31 b0cd 9c32 1755 a8b0
00000380: c70d 95b2 0f12 3db3 a64b 3133 c889 6732
00000390: 80a5 16b0 a778 0932 21b1 6731 edb4 8332
000003a0: 4cba 65b3 2a9d 9830 6d1f e1b1 3542 28b2
000003b0: 3260 4e30 3393 5eb2 2801 0bb3 05ff c331
000003c0: e996 8e31 3e09 04b2 e8bb fdb1 7b82 07b2
000003d0: c117 ac30 e81b c3b1 e20c 8530 810f e331
000003e0: 4c61 8430 0f3e 6f31 3d15 43b3 bd74 0ab2
000003f0: ae1e 25b2 7e4d 6032 1203 8232 dbcd 6131
0.11769199 0.0069159623 -1.0505857e-09 9.6187655e-08 0.18179879 -0.0068469467 0.04936981 -1.5765356e-05
0.1022329 0.12804432 0.027653864 2.8627076e-09 -5.6942514e-07 -0.0004034441 -0.05129543 -0.01385757
-0.0002752537 8.53971e-09 5.681226e-08 -0.031069912 -0.0003651748 -0.031597976 -6.8523045e-09 0.047552995
4.6691766e-06 -0.052005444 -7.904405e-06 -0.077985674 -3.197277e-09 0.00037664504 -0.017629284 1.8153448e-06
7.250542e-09 -0.027720181 0.014803175 -0.025111662 -0.0058851484 -3.0006806e-06 0.0009614578 0.007946224
0.049729146 -0.05165964 -0.027521567 -0.036345195 -9.228381e-06 0.011284967 -0.04544333 -0.00021266019
0.00038503404 8.52979e-09 3.8220378e-08 0.045951594 -0.04149728 3.5818657e-09 0.037107285 -0.039745063
0.000523186 1.2074372e-08 0.009896749 -0.00096530624 0.042757425 -3.0389512e-07 0.0044642384 0.0004750344
-0.02960173 0.005165994 -1.8888246e-08 1.2025701e-07 -0.10906926 0.06831506 -0.013721726 1.1494404e-05
-0.114829704 -0.16960463 -0.08152712 8.774451e-09 1.7553017e-08 4.0678266e-08 0.039185196 0.0065710866
-1.0588239e-08 -4.0193586e-09 -5.607884e-07 -0.011582538 -3.1334028e-07 0.016945096 -1.0360196e-08 -0.06122559
-1.9272745e-06 0.088713825 -8.2798815e-06 0.07847721 6.103214e-09 -0.0003298922 0.0035763509 -1.4760628e-06
1.4070345e-08 -0.008851396 0.08220826 0.01568495 9.014324e-08 2.5114221e-05 -9.3082974e-08 0.010012246
-0.10222792 0.07435011 0.040136613 0.03830713 -1.3900162e-05 0.008060317 -0.052615445 -4.4160377e-05
0.00013805502 -6.2645475e-09 -7.873326e-09 -0.091069594 0.04245942 8.322042e-09 0.0018149187 -0.018996807
-0.0018079173 7.624492e-09 -0.022420961 -0.091395296 -0.030349432 3.7037242e-07 1.43858e-05 0.00078283506
3.7355694e-05 -1.454499e-05 1.2632201e-08 8.1011264e-10 -0.00034503266 -6.139926e-05 -2.1984872e-05 -1.3797187e-09
-1.1631248e-06 1.4060113e-05 -4.868163e-05 1.47582915e-08 2.405535e-10 1.0763562e-08 -4.3906925e-07 -9.592304e-05
-5.315005e-09 -5.7361054e-09 8.69945e-09 3.8296304e-05 -1.6098605e-08 -3.5569537e-05 -2.2948237e-09 1.3016762e-05
-1.350319e-08 -2.422866e-06 -5.483039e-10 -0.00011721453 1.5012114e-08 2.2987992e-09 -1.5680402e-05 1.1203965e-08
-2.8721316e-09 9.328545e-05 6.777511e-05 5.4912467e-05 -2.7289928e-09 -6.962087e-10 -1.3735374e-08 -0.00014476264
0.00029269396 0.00011281613 -0.0001337611 -0.0001053067 8.850579e-09 -9.564348e-10 0.0004005176 1.6324858e-09
-1.7946505e-09 -3.5829184e-09 -6.1627636e-09 4.9361743e-06 -7.20128e-05 7.2729467e-10 0.00016194016 1.25068345e-05
4.1341173e-06 -2.5152653e-09 -0.00024331672 -6.858438e-05 4.9199148e-06 -2.3492917e-09 9.394811e-05 1.9685265e-07
-2.8259752e-08 -2.917929e-09 -1.0715694e-09 9.120452e-09 3.3593643e-08 -1.829103e-08 2.5054248e-08 8.3201686e-09
-1.3156034e-08 4.8939834e-09 2.3952365e-08 -8.174437e-09 6.8646466e-09 -1.8246851e-08 -1.1861789e-08 2.4882684e-08
1.4607354e-08 -2.5401443e-09 7.3938247e-09 9.88348e-09 1.23359145e-08 -8.281976e-09 -9.114596e-09 -2.3512749e-08
-2.8401187e-10 1.3895252e-09 -1.464929e-10 1.0121801e-08 -4.1993906e-09 3.1917662e-09 1.8254326e-08 -1.2247793e-09
-1.7352148e-08 -4.4021416e-08 4.1279826e-08 1.34772975e-08 -5.480487e-10 8.001883e-09 3.371561e-09 1.5332683e-08
-5.3487653e-08 1.1104124e-09 -6.5519346e-09 -9.793941e-09 7.5079065e-10 -1.295557e-08 -3.236451e-08 5.7042393e-09
4.1499004e-09 -7.685513e-09 -7.3846316e-09 -7.887702e-09 1.2521398e-09 -5.6784195e-09 9.680685e-10 6.608332e-09
9.631917e-10 3.4814354e-09 -4.542129e-08 -8.0592e-09 -9.61124e-09 1.3056136e-08 1.5135388e-08 3.2858825e-09

convs.0.lin_pos_r.weight f4 [32, 32]
00000000: 6f27 39be 7508 a33e f7ba 2d32 7a74 59b3
00000010: 74c7 563e 8776 3a3e 6874 9a3e a744 5db6
00000020: 3060 893e 7362 04bd cde3 61bf c7e5 ac31
00000030: 25f7 8632 a3aa e232 adb1 89be 0ef2 68be
00000040: 8a51 b632 183b 4ab2 e756 1bb5 7657 34bf
00000050: 05bd d5b2 8131 ff3d 25f2 58ae 8e8c a53e
00000060: c541 5036 e82b 85bd 2680 6537 e467 283d
00000070: 3684 ef32 efe0 9d39 57dd 1abf f273 1d36
00000080: 6175 823e 3e90 aabe 1e01 44b2 ae10 c533
00000090: 5680 edbd 97ec f6bd 62a0 74be 8cf9 0137
000000a0: ef39 85be 544a b9bd ee2c 543f 6fa5 e632
000000b0: a598 4033 8d9b 56b3 c946 713e 469e 613e
000000c0: 5e8b 3133 56da d1b1 b1fb 1b35 1ec0 f23e
000000d0: d1a8 06b2 09de 87bd 549e ebb2 1ed5 87be
000000e0: 466b 8eb6 bc11 1fbe d89c 4fb7 b0a3 c2bc
000000f0: 32d4 beb2 2a2d bdb9 25c4 1b3f 445a 0cb6
00000100: 9bb2 6239 7df2 c139 37b2 e732 6890 7f32
00000110: 9aa7 93b9 1264 70b7 3e28 c0b7 161d 77b1
00000120: 0c43 ac39 5f65 1d39 95e0 d038 71f1 0832
00000130: ab9c 7431 b6d6 43b2 c2b0 b3b8 8456 0139
00000140: 74cf 8bb2 fec6 f2b1 040b 2932 8fe9 0039
00000150: 9532 cb32 e56c 4e39 947c 8232 c26e 3c39
00000160: 0d9e 1931 c837 3eb8 98c0 8530 cc48 8939
00000170: 30cd a1b0 3213 b232 fb50 9bb8 7926 9430
00000180: 278c 0933 553f 46b1 8400 dbb0 2827 c4b2
00000190: 0921 0933 3081 d0b2 8091 92b2 2458 25b2
000001a0: 4aa9 1932 8ed8 7fb2 95a2 e832 6d9b 1d32
000001b0: a375 8fb2 ed40 89b1 f7df 0633 7644 f132
000001c0: fc4b 6cb2 14a1 5db2 432b dab2 a825 c3b1
000001d0: 894c f430 4233 6433 2148 7430 ce38 2532
000001e0: 14e5 b330 ff15 5331 df7d 982e 1ebe aab2
000001f0: a362 cdb2 e643 e1b1 ac26 62b2 14c5 3f32
00000200: c437 8336 f5ed 9e34 2df6 1832 ee44 08b0
00000210: 58a0 f734 51c4 63b3 8cc1 88b3 91f0 4f30
00000220: 8303 f5b5 07bd 4833 016a b7b3 c75d 64b2
00000230: 25a5 97b0 5a96 aa31 de54 fe31 6305 eeb5
00000240: 944c 3e30 308d 8730 7ead 9732 967a 80b5
00000250: c262 47b2 134b 3bb5 c804 6831 bce8 a535
00000260: eeaf 81b2 151a bab5 d21e f431 3a1e ddb5
00000270: a057 e432 3e1b 03b2 5f91 0635 ec4b beb0
00000280: e083 debd 7327 75be f45c 17b2 4aae 1e32
00000290: 2424 8bbd f605 9e3e b077 e63d 5716 d1b6
000002a0: 2ce3 693c 1dc8 243d 4694 c63c fcf1 ceb2
000002b0: 7ccc 2e32 face 5a33 d95b 413d cc35 debc
000002c0: f74f c6b2 f2ac b132 082c 13b5 0096 123e
000002d0: 730a beb1 32cc 24be 3c6f d6b2 ffba a0bd
000002e0: 991b 9333 e6d0 8c3e 7432 b6b5 24f9 d0bc
000002f0: 8177 98b2 5095 11ba 839a 153e d399 89b6
00000300: 2e18 b23d 8b76 f63e 06e2 922f 60d8 8433
00000310: eca4 313e 8bf0 23be 1b89 ce3d 9544 2036
00000320: 8f56 183e 45e8 a6be cc1c 38bf 5698 f3b0
00000330: fd47 62b1 cc02 bab1 5143 14be d94e 87bc
00000340: ff40 3632 a4a2 c7b1 b3f2 5eb4 98fd 45bf
00000350: 484f 4332 a8d7 843e 27ff 21b2 9fd8 853e
00000360: 4f23 a6b4 0e58 90be 0efc 3ab7 a8c5 833d
00000370: e865 8b32 fdae 9f3a d222 09bf aa4b 9036
00000380: 9164 c63d a924 2abe 9e29 9ab1 04d9 c22f
00000390: 99b8 dc3d faa9 983e d329 1e3e 56e1 5bb7
000003a0: e19f 90bd 49bf 5bbf b802 85bf 7d27 bfb2
000003b0: 293f 0e32 5567 17b0 a288 183e f16b 133e
000003c0: 6774 86b1 c372 1532 b29f c935 4421 3cbf
000003d0: 5599 8431 3cf4 2b3e 916a 2c32 dbb1 233e
000003e0: 3f7a 4f36 ec05 7b3e be32 1637 a232 aa3e
000003f0: 8653 9531 eefd beb8 31d3 a7bc 42ac 10b5
-0.18081449 0.3184239 1.0112436e-08 -5.0630184e-08 0.20974523 0.18209277 0.30166936 -3.2971527e-06
0.26831198 -0.03232045 -0.8823822 5.0319815e-09 1.5712041e-08 2.638746e-08 -0.26893368 -0.22748587
2.1224668e-08 -1.1771384e-08 -5.786846e-07 -0.70445955 -2.488242e-08 0.12460614 -4.932778e-11 0.32333797
3.1032698e-06 -0.06502515 1.36793005e-05 0.041114703 2.7883384e-08 0.00030112962 -0.6049399 2.3462312e-06
0.25480178 -0.33313173 -1.1408956e-08 9.1765614e-08 -0.11596744 -0.12056845 -0.23889306 7.747101e-06
-0.26020762 -0.0904738 0.8288106 2.6850755e-08 4.4842313e-08 -4.996723e-08 0.23562159 0.22033033
4.1337778e-08 -6.1075225e-09 5.810826e-07 0.474122 -7.838211e-09 -0.06634147 -2.74296e-08 -0.26529783
-4.244418e-06 -0.15534109 -1.23746795e-05 -0.023759693 -2.2215406e-08 -0.0003608254 0.6084617 -2.0914167e-06
0.00021619575 0.00036992496 2.6972982e-08 1.4875788e-08 -0.00028162898 -1.4328414e-05 -2.2906923e-05 -3.5959764e-09
0.0003285635 0.0001501045 9.9600446e-05 7.971139e-09 3.5595729e-09 -1.13993135e-08 -8.568309e-05 0.00012334628
-1.6276068e-08 -7.0657498e-09 9.839599e-09 0.00012294039 2.3655312e-08 0.00019686257 1.5190643e-08 0.00017970338
2.2354272e-09 -4.535148e-05 9.731762e-10 0.00026184914 -1.177261e-09 2.0730656e-08 -7.40606e-05 1.0779352e-09
3.2025266e-08 -2.8848792e-09 -1.5934494e-09 -2.283521e-08 3.1927843e-08 -2.4273135e-08 -1.7062803e-08 -9.624305e-09
8.944264e-09 -1.4892192e-08 2.7082288e-08 9.1739425e-09 -1.6700886e-08 -3.994606e-09 3.1403e-08 2.8087225e-08
-1.3754285e-08 -1.2900518e-08 -2.5398213e-08 -5.679528e-09 1.7775089e-09 5.3132005e-08 8.8869184e-10 9.61718e-09
1.3089072e-09 3.0717044e-09 6.934519e-11 -1.987706e-08 -2.3909996e-08 -6.556081e-09 -1.3163724e-08 1.1162474e-08
3.910596e-06 2.960293e-07 8.903538e-09 -4.9574467e-10 4.6124e-07 -5.3031105e-08 -6.3681995e-08 7.5648027e-10
-1.8254945e-06 4.6738048e-08 -8.5408836e-08 -1.3292669e-08 -1.1033633e-09 4.964744e-09 7.402021e-09 -1.773395e-06
6.923042e-10 9.862671e-10 1.7657609e-08 -9.57242e-07 -1.16057794e-08 -6.9772176e-07 3.3763161e-09 1.2361193e-06
-1.509758e-08 -1.3865671e-06 7.1048385e-09 -1.647458e-06 2.658254e-08 -7.631398e-09 5.013043e-07 -1.3845898e-09
-0.10864997 -0.2394083 -8.810492e-09 9.236439e-09 -0.06794003 0.30863923 0.11253297 -6.231286e-06
0.014275353 0.040229905 0.024240624 -2.4091598e-08 1.0174627e-08 5.0945324e-08 0.047206733 -0.027125262
-2.3086598e-08 2.0684158e-08 -5.482584e-07 0.14315033 -5.5309157e-09 -0.1609352 -2.4963462e-08 -0.07848167
6.850241e-08 0.27503127 -1.357474e-06 -0.025509425 -1.7749473e-08 -0.00055535603 0.14609723 -4.1008257e-06
0.08696018 0.48137316 2.6717845e-10 6.1860874e-08 0.17348069 -0.16009729 0.100847445 2.3881778e-06
0.1487677 -0.32599083 -0.7191894 -1.7723873e-09 -3.292825e-09 -5.4136304e-09 -0.14478804 -0.01651709
1.0608573e-08 -5.8101524e-09 -2.0763655e-07 -0.7734008 1.136852e-08 0.25945783 -9.429448e-09 0.2614183
-3.09456e-07 -0.2819218 -1.114515e-05 0.06434184 1.6228071e-08 0.0012182888 -0.53568757 4.300343e-06
0.0968715 -0.16615547 -4.486721e-09 3.5442593e-10 0.10777397 0.29817182 0.15445642 -1.3105882e-05
-0.070617445 -0.85838753 -1.0391455 -2.2253284e-08 8.279849e-09 -5.5080324e-10 0.14895871 0.14396645
-3.9131467e-09 8.699035e-09 1.5022144e-06 -0.7348826 3.8591375e-09 0.16792387 1.0035948e-08 0.15985815
3.091656e-06 0.24513978 8.952511e-06 0.33241755 4.3459663e-09 -9.107204e-05 -0.020486446 -5.389485e-07

convs.0.lin_pos_r.bias f4 [32]
00000000: 1644 453c d445 833e 7cf1 81bb 44c4 b0bb
00000010: e0e0 17b6 9d40 0b3e cb42 9f3d 244f 783d
00000020: 1b12 9cbc 5421 803d 6289 18bd b56a 97ba
00000030: c6d8 86bc c7f7 6bbb f8a9 0cbd 9895 8bbc
00000040: 2e8b f5bb 99c3 b23b 8c71 35bd 61e2 8a3c
00000050: f629 59bd d95a 64b7 9b08 41bb b9e7 cf3d
00000060: 15b4 bcb7 3aef be3c 1bff fab5 5c9a 413e
00000070: 121f 8e3d 68fc b93c f058 8e3d 6579 e73b
0.012040159 0.25639212 -0.0039655548 -0.0053944904 -2.2631648e-06 0.13598867 0.077764116 0.06062235
-0.019051602 0.06256357 -0.037240393 -0.0011552187 -0.016460788 -0.003600584 -0.034341782 -0.017039105
-0.007493398 0.005455446 -0.04429774 0.016953649 -0.053018533 -1.3611011e-05 -0.0029454592 0.101516195
-2.2495204e-05 0.023307431 -1.8700697e-06 0.1890654 0.0693952 0.022703364 0.06950557 0.007064032

convs.0.lin_neg_l.weight f4 [32, 64]
00000000: 90b6 e630 6e60 e43e f465 84be 6262 e13e
00000010: a562 9031 1d51 b737 45a0 18b2 8d5e 56be
00000020: 6e9b 6a3d b332 04bf 17a0 f6be ff3c 293d
00000030: 9665 66b7 d124 36bc 67e5 643d 5dc2 e139
00000040: b189 af39 b644 fb31 6c08 58b1 b4ad ea3e
00000050: ae06 6ebe 3ced adb1 fa32 d7be 8f82 373e
00000060: f9ae 1138 8775 c131 ea9e e2be 18ac 833e
00000070: 1cd1 afbe aaa6 26b4 206a fdbc a369 d23a
00000080: 1f46 c43d 283b 0f3e fcee 0cb0 e2fe 9cb2
00000090: 236a 0e3e 8fd5 963d 779a 203d 72d9 b3b6
000000a0: 68ce a93d 6d89 40be 99ff a4be 06c9 ac31
000000b0: 0950 00b2 b0d5 37b1 2a4d 153d 25e9 ca3c
000000c0: 55a4 50b2 0774 e830 b9d2 82b5 8d62 9abe
000000d0: 750f 0131 a531 a43d d48a 3f32 d54e 0d3e
000000e0: b93d 9b35 d148 c63d c007 a6b6 fa1b 8d3d
000000f0: e328 2532 2bd8 30ba 3c7c f9bd 41eb 2f34
00000100: 6cb4 07b2 b62e 5633 d0e5 95b3 e43f 38b4
00000110: c122 34b1 9954 e8b1 ce58 7e31 95e6 0ab4
00000120: 83d5 2b35 067a 0034 58f3 32b4 2ce3 95b2
00000130: cd9a 19b2 407b 84b2 25c2 7b33 3cec 0fb1
00000140: 9ce9 96b2 207f 5b2c ddbf bbb0 19d6 9d33
00000150: 6b99 afb3 6bb7 3232 82df 06b4 13c0 82b3
00000160: 650b 6530 781d 9031 037f 80b3 05b3 87b2
00000170: 8130 0f33 0f39 1732 6e42 3033 f341 28b0
00000180: 7959 9935 b3a1 cf33 6c5e 6eb2 bfa9 7632
00000190: 721f 6ab3 534e 0c33 e005 1933 16f9 8932
000001a0: 66ca 9c33 f4b6 f932 bc6f 1d33 f88b 09b2
000001b0: 9ede 8ab1 2f09 94b1 fd0c 47b4 cfc2 0c34
000001c0: 2cb4 c330 1b14 35b2 a4cb 1cb1 e411 12b4
000001d0: c0b8 77b2 a703 8132 afe7 1631 317d 3db3
000001e0: 4e9c 19b1 e960 9b32 a4a7 97b2 81db 8eb4
000001f0: 538c b9b1 ec45 a52e 3828 b4b3 5d3b d231
00000200: 6f41 6db2 d0ae 0abd d211 31bb ba51 2cbd
00000210: f6b6 423a 179b 1232 27f7 57bb 0f60 45b5
00000220: 6667 3b32 6801 5e3b 5acc 28b9 cdb1 a1bc
00000230: 8ab7 c5b1 e815 8bb3 1cc2 143c 3385 0932
00000240: 8895 f7b0 678f 79b2 ac74 8c34 5b85 ddbb
00000250: 4a99 f2b1 63a1 8fb1 dbda 103d 646a 883a
00000260: 2a28 9b30 7500 0e32 17cd 58bc b273 ee3c
00000270: 33f6 1b3b 56d8 62b1 cdf9 6a3b 7d52 5eb2
00000280: 71f8 21b2 93d6 f43c 86cc 2eb2 28e0 d7b0
00000290: ad1d 4532 a710 0132 3958 bdbb f49c 12b1
000002a0: c976 0dbd 1da3 2b3d 4db5 dbbc f7ec ceb6
000002b0: f3a3 65bb 7f97 b83c 1ab5 f93c c6bb ebbc
000002c0: a763 67bc e7b3 a730 def4 0230 c91b 0832
000002d0: 25cc 79bb 7230 b4bc f3d5 a231 de8b 2e3d
000002e0: 0433 90b2 218c d2b0 5333 19b2 58d5 99bc
000002f0: d769 e5b2 1ee3 5331 6d32 09bd 83ac 6332
00000300: 461d cf31 7261 f53c 24f3 35bd c3de 0c3e
00000310: b230 bc38 9594 77b7 dc5d 4734 a456 283c
00000320: fd49 a73d 6b78 09be a9b4 693d e65f 3ebc
00000330: 8b17 64b7 57de 08b9 692a 763d 7c54 123a
00000340: 39ca e8b6 377b 14b2 09b4 5ab2 883b 243d
00000350: 0c85 3b3c 7360 13b1 fbbc 8cbc 1447 24bc
00000360: 5adb 9338 422c ea31 80f0 85bc 6999 f33d
00000370: b0d9 763d 447f 51b3 4f83 263d 2681 48ba
00000380: 2250 d23d eb88 a03d b243 bc31 f188 2933
00000390: 3992 b83d 79e1 e6bc fb23 8fbc b96a 0236
000003a0: 60a7 e43d 09fe 3b3d fadb 803b 07c1 b132
000003b0: 4e91 d435 66ca 8eba 86a5 24bd fd9f c7bc
000003c0: 3ebb c0b9 3ef6 53b1 a71e 94b5 6eec 11bd
000003d0: c958 5d3b f070 c7b9 0ada 44b2 6d81 803d
000003e0: b1d2 76b5 4a35 08bd 5032 edb6 f602 d1bd
000003f0: 45bc 6532 6d96 15ba 8d55 80bd b8d5 f735
1.678659e-09 0.4460482 -0.25859034 0.44020373 4.202166e-09 2.1853071e-05 -8.8840055e-09 -0.20934506
0.057277136 -0.5163986 -0.48169014 0.041317936 -1.3732721e-05 -0.011117176 0.055882838 0.00043060156
0.0003348119 7.312873e-09 -3.1436924e-09 0.4583565 -0.23244736 -5.061933e-09 -0.4203108 0.17920898
3.473365e-05 5.6304006e-09 -0.44261867 0.25717235 -0.34339225 -1.5520587e-07 -0.030934393 0.0016053211
0.09583687 0.1398741 -5.127132e-10 -1.8276697e-08 0.13907675 0.07364952 0.03920981 -5.3599297e-06
0.08291322 -0.18802424 -0.32226256 5.0287126e-09 -7.4687785e-09 -2.6751472e-09 0.036450543 0.024769375
-1.2144558e-08 1.6913199e-09 -9.747083e-07 -0.30153313 1.8780757e-09 0.080172814 1.1149229e-08 0.13799603
1.1566364e-06 0.096818574 -4.9480877e-06 0.06890102 9.613561e-09 -0.0006746079 -0.12181899 1.638373e-07
-7.899057e-09 4.986824e-08 -6.980156e-08 -1.7159579e-07 -2.6213203e-09 -6.7617063e-09 3.7012344e-09 -1.2936137e-07
6.4013165e-07 1.1965321e-07 -1.666607e-07 -1.7449189e-08 -8.94097e-09 -1.542287e-08 5.8617065e-08 -2.0943522e-09
-1.7568532e-08 3.119234e-12 -1.3660572e-09 7.349826e-08 -8.176979e-08 1.0402668e-08 -1.2561034e-07 -6.088535e-08
8.332591e-10 4.194302e-09 -5.983568e-08 -1.5797477e-08 3.3338896e-08 8.80233e-09 4.103861e-08 -6.1211763e-10
1.1425428e-06 9.6686016e-08 -1.3874892e-08 1.435768e-08 -5.451097e-08 3.2667526e-08 3.562843e-08 1.606217e-08
7.301132e-08 2.9070613e-08 3.6656033e-08 -8.006275e-09 -4.0416372e-09 -4.308411e-09 -1.8538044e-07 1.3109387e-07
1.4239325e-09 -1.0540158e-08 -2.2816744e-09 -1.3603818e-07 -1.44192995e-08 1.5019237e-08 2.195957e-09 -4.4118853e-08
-2.235328e-09 1.8088445e-08 -1.7654948e-08 -2.660927e-07 -5.4001617e-09 7.515752e-11 -8.389219e-08 6.118553e-09
-1.38100935e-08 -0.03385812 -0.0027018678 -0.042070128 0.0007427776 8.533582e-09 -0.003295371 -7.3528e-07
1.0908343e-08 0.003387535 -0.00016097855 -0.019738102 -5.7543206e-09 -6.4766766e-08 0.009079482 8.0047355e-09
-1.8014115e-09 -1.45263135e-08 2.6161922e-07 -0.006760282 -7.060554e-09 -4.1801953e-09 0.035364967 0.0010407683
1.128915e-09 8.265592e-09 -0.013232491 0.029107902 0.002379787 -3.3010301e-09 0.003585446 -1.2940856e-08
-9.427922e-09 0.029887473 -1.0174636e-08 -1.5707018e-09 1.1473657e-08 7.512575e-09 -0.005778339 -2.1335014e-09
-0.03453711 0.041903604 -0.02681985 -6.1668648e-06 -0.0035040348 0.022533176 0.030481864 -0.02877606
-0.01412288 1.220198e-09 4.76417e-10 7.9225595e-09 -0.0038116064 -0.021995757 4.7391437e-09 0.042613856
-1.6787006e-08 -1.5319338e-09 -8.917442e-09 -0.018778488 -2.6707239e-08 3.0833642e-09 -0.033495355 1.3252364e-08
6.027821e-09 0.029953692 -0.04442133 0.13756852 8.973609e-05 -1.4756942e-05 1.8567465e-07 0.010274563
0.08168409 -0.13424842 0.057057057 -0.011619544 -1.35953405e-05 -0.00013052799 0.06009904 0.0005582047
-6.9376806e-06 -8.64275e-09 -1.2730205e-08 0.040095836 0.011445295 -2.144614e-09 -0.017179957 -0.010026712
7.050364e-05 6.815328e-09 -0.01635003 0.11894495 0.060266197 -4.8777352e-08 0.04065257 -0.0007648639
0.1026919 0.07838615 5.479216e-09 3.9472926e-08 0.09012265 -0.028183686 -0.017473212 1.943363e-06
0.11164737 0.045896564 0.0039324732 2.069329e-08 1.583752e-06 -0.001089406 -0.040196918 -0.02436828
-0.000367606 -3.0844514e-09 -1.103578e-06 -0.035625868 0.0033774844 -0.00038040383 -1.1458278e-08 0.06274686
-9.194874e-07 -0.033253945 -7.0690076e-06 -0.10205643 1.3372362e-08 -0.0005706314 -0.062663175 1.8465134e-06
