Slashdot/models/Slashdot-train-2.pt (torch, 63739 bytes, 14 tensors)

conv1.lin_pos_l.weight f4 [32, 64]
00000000: dcb4 57bd ca67 c0bd 20d1 74bd eb08 31be
00000010: 7bdb 973c 8554 e7bd 376c 813d 1a0c f4bd
00000020: 6ec7 223b 9ad7 283d 9825 a03d e452 9d3d
00000030: 5d5d 07bd a4e9 83bd b282 873c 1d7a 743d
00000040: 42ae d9bc cc3c 54bd c13f b7bc d723 863d
00000050: 9b0f 8dbb cd2a c0bb a15c 283c 58ba e03c
00000060: 5c5b 293d fa05 10bc 21f9 4eb8 20d1 d8bc
00000070: 9e34 b0bc 7b2f 41bc b6b4 5fbd 165b 8d3c
00000080: 5cd1 87ba a397 793b 7b90 70bd 305d 12bb
00000090: 8c15 0fbd 9fb5 13bd 2993 c53c adc9 ee3c
000000a0: 1e87 7bbc d58f 6dbc 4d3f 0dbc eb3e eebc
000000b0: 1dda 63bc b425 abbc 3b39 5a3d 6996 72bd
000000c0: 6743 a4bc e365 1cbb 3080 8b3d 6912 13bc
000000d0: eecc 903d 9c42 13bd 3cae a13c b6ec 583d
000000e0: 8eb0 75bd 17d5 4a3c c94b 71bd be25 97bd
000000f0: 26c9 9f3b cd84 e1bc 9ccd 663d 55d9 c53c
00000100: 446a e2be 3391 17be 5451 3fbe e7f2 6d3b
00000110: d83b 7b3d b4e1 d13d 1deb 213d 37ab 06be
00000120: 8cb3 513e b31d 043e 9fad 053e 6b32 083e
00000130: a4ad c23b c7a2 29bd 7dfc 203c 85c7 043e
00000140: 6fe7 913c 2ee3 743d bdd9 36bd 3db6 91bd
00000150: b45e 9bbd ec29 0fbe 58e6 923c 07ae 2ebb
00000160: e855 25bd 3fd2 ccbd 0cb9 35bc 3491 8e3c
00000170: 7415 a93d e5a7 02bd c745 48be 5344 4e3d
00000180: d2e0 df3c f6f0 ddbd 1643 3b3e fbab 6ebe
00000190: 5ab2 1ebe d242 c7bd 0719 f23d ee32 1bbe
000001a0: 855d 2bbd 8e41 34be 6247 22be 6e6b 383e
000001b0: 1dd8 da3c 631d a93d 09a6 3abd 7994 8c3d
000001c0: 87b2 723d 4a62 363d 96e9 a6bd ae2f 043e
000001d0: 719b 63bd da26 20be 47e2 9ebe ce88 a1ba
000001e0: bf7e cb3d 74fe e2bc 6d9e e8bd b175 403d
000001f0: 05e0 8c3d 41cc 08be bf5f 22bd 4a76 a83d
00000200: aa7a 82b2 5e7e 5c32 d79b 00b2 a98c 2db2
00000210: af04 9530 3dfc 91b2 4193 00b2 9743 45b2
00000220: dea8 79b2 21e0 0432 1688 12b1 19eb 3831
00000230: 0023 5bb2 41fc 0a32 2441 5630 138e 2032
00000240: e3e7 fbb1 396b 1d32 d808 85b1 7723 dcaf
00000250: 72c7 99b1 efb7 8fb0 82df 5b32 47cf 8fb2
00000260: bd1c 0532 f133 c1b1 03b6 8eb1 18ca 92b1
00000270: 7afd b7b0 8118 57b1 06f5 30b0 c83b a3b0
00000280: e77c dab0 47dc 22b2 da71 3232 2433 d331
00000290: d411 ec30 cd86 cdb1 f71a e230 9673 c031
000002a0: b76d beb1 e1fe d6b1 b6fc f42d 043f c131
000002b0: 6b6e 0cb2 cd42 5232 ebb0 a230 54f5 8f31
000002c0: a865 4b2f 0108 a231 6084 8332 b603 0db2
000002d0: 97b2 3f32 6b78 d1b1 b7b8 57b2 201f 9731
000002e0: a090 8930 941c 5731 57e2 902e 3fbb b931
000002f0: 4352 4eb2 ab41 faaf bf78 07af d4cd 59b2
00000300: c978 c934 cbb9 8435 b67e 3ab4 986a 1733
00000310: 709b cab3 0006 8f35 77dc 6eb4 2b5f d2b4
00000320: a4cc bbb3 41fe a234 935d 4db2 3a5b 8cb3
00000330: 6ec3 c5b3 0f4e bb34 0d9d 2db4 46da afb4
00000340: 965b 0bb3 8858 7f33 7a82 a9b2 c2a4 feb4
00000350: de15 fbb3 ab35 a533 6b21 c030 0503 83b4
00000360: 1d38 cab2 e582 4b32 b902 00b3 a7bd 1f34
00000370: 8327 15b2 dcd1 7fb3 90db 4ab4 80bc d532
00000380: 8ae2 43b2 2879 15b3 5cba 5933 1568 92b3
00000390: 29e0 27b4 50fc 8230 6c51 44b3 5e6e 1934
000003a0: fe49 05b4 04d0 3b33 6b20 cdb0 9b1a 2233
000003b0: 39cd 06b3 da4f 4fb3 2593 b8b2 3c15 acb3
000003c0: b399 1733 0fc4 deb3 310f 9bb3 2876 c7b2
000003d0: 6f81 8fb3 66bd 0eb3 c7be 9131 966f beb2
000003e0: 3d99 91b3 e358 5133 e472 4732 8b00 a532
000003f0: 11d2 81b3 e471 5832 c661 9bb3 75e8 8c32
-0.052662715 -0.09394796 -0.05976975 -0.17288558 0.018537274 -0.11295418 0.063194685 -0.11916371
0.0024838108 0.04122124 0.078196704 0.07681826 -0.033048023 -0.06441048 0.016541813 0.05968677
-0.02657235 -0.051815793 -0.022369267 0.06549805 -0.004304839 -0.0058644773 0.010275991 0.027432606
0.041346893 -0.008790487 -4.9346247e-05 -0.026466906 -0.021509465 -0.011791105 -0.0546157 0.017255347
-0.0010362077 0.0038084767 -0.058731537 -0.0022333376 -0.034932658 -0.03606188 0.024118023 0.0291489
-0.015352039 -0.014499624 -0.008621049 -0.029082736 -0.013906983 -0.020892002 0.053277235 -0.059225474
-0.020051671 -0.002386444 0.06811559 -0.008976557 0.07070337 -0.035952196 0.019736402 0.05296012
-0.05998283 0.012379906 -0.058910165 -0.073802456 0.0048762737 -0.027529145 0.056348428 0.024151484
-0.442217 -0.14801483 -0.18683368 0.003630811 0.06133637 0.102481276 0.039530862 -0.13151251
0.20478648 0.12901954 0.13054512 0.13300483 0.0059411097 -0.041415002 0.009825823 0.12966736
0.017810551 0.059786968 -0.044641245 -0.07114837 -0.075864226 -0.13980836 0.017932102 -0.0026654021
-0.04036513 -0.10001039 -0.011091482 0.017403223 0.08256045 -0.031898398 -0.19557868 0.050358128
0.027328882 -0.10836975 0.1828731 -0.23307793 -0.15497723 -0.09729542 0.1182118 -0.15156147
-0.041837234 -0.17603132 -0.15847543 0.18009731 0.026714379 0.08257558 -0.0455685 0.068642564
0.05925229 0.04452733 -0.08150022 0.12908813 -0.055568162 -0.1563982 -0.3103201 -0.0012324096
0.09936284 -0.027709223 -0.11358342 0.04698724 0.06878666 -0.13359167 -0.03964209 0.08225687
-1.5189773e-08 1.2834418e-08 -7.4860145e-09 -1.0101908e-08 1.0842508e-09 -1.6994926e-08 -7.484062e-09 -1.1482277e-08
-1.45321035e-08 7.734372e-09 -2.1323152e-09 2.6909162e-09 -1.2755436e-08 8.090013e-09 7.7945317e-10 9.34553e-09
-7.331424e-09 9.162982e-09 -3.871815e-09 -4.0042966e-10 -4.4755604e-09 -1.0456896e-09 1.27982975e-08 -1.674165e-08
7.748153e-09 -5.6229443e-09 -4.1534363e-09 -4.2721346e-09 -1.3387045e-09 -3.1300547e-09 -6.4376626e-10 -1.1876802e-09
-1.5897087e-09 -9.479726e-09 1.03868505e-08 6.1467222e-09 1.7176327e-09 -5.9816103e-09 1.6451328e-09 5.601076e-09
-5.542201e-09 -6.257196e-09 2.7851815e-11 5.6242033e-09 -8.174179e-09 1.22387975e-08 1.1837334e-09 4.1897383e-09
1.8498858e-10 4.7157305e-09 1.5310604e-08 -8.208124e-09 1.115827e-08 -6.0963905e-09 -1.2556646e-08 4.398217e-09
1.0009167e-09 3.1302863e-09 6.588568e-11 5.405496e-09 -1.2009482e-08 -4.5521395e-10 -1.2321076e-10 -1.2677862e-08
3.752705e-07 9.888839e-07 -1.7368697e-07 3.5254374e-08 -9.434632e-08 1.0656076e-06 -2.2245682e-07 -3.9184792e-07
-8.74509e-08 3.0359845e-07 -1.1953847e-08 -6.535852e-08 -9.209076e-08 3.488826e-07 -1.6169015e-07 -3.2755105e-07
-3.2446756e-08 5.9452333e-08 -1.9733523e-08 -4.7431064e-07 -1.1692076e-07 7.6931734e-08 1.3979337e-09 -2.4402848e-07
-2.3541412e-08 1.1845917e-08 -2.98048e-08 1.4877024e-07 -8.681925e-09 -5.956268e-08 -1.8892592e-07 2.4882183e-08
-1.1402003e-08 -3.4801957e-08 5.0693743e-08 -6.817587e-08 -1.5634636e-07 9.530456e-10 -4.570886e-08 1.4289387e-07
-1.2413508e-07 4.372852e-08 -1.4924927e-09 3.7742762e-08 -3.1385955e-08 -4.8268568e-08 -2.1487333e-08 -8.013237e-08
3.5297216e-08 -1.03733434e-07 -7.220513e-08 -2.322038e-08 -6.6825e-08 -3.323421e-08 4.2417443e-09 -2.2169655e-08
-6.7799625e-08 4.8742447e-08 1.1609448e-08 1.9208775e-08 -6.0452415e-08 1.25987505e-08 -7.235535e-08 1.6403854e-08

conv1.lin_pos_r.weight f4 [32, 64]
00000000: 0056 a93e 5958 8f3e a938 cd3d 44a4 6cbd
00000010: ddc2 b83d 8a71 053b 427b 053d d107 c1bd
00000020: 0b78 ce3b 26dd 89bc 8bba 7c3d f025 313e
00000030: 05e7 9ebd ea6c 733d cead 10bd 22a4 a43d
00000040: c97b 58bc e1ed 38bd 417e fabc 8102 28bd
00000050: 37ff 99bd 06ae 18bd b3b4 d83c a960 2dbd
00000060: 0723 9f3c 82ba 84bc c4e0 0abc c61c fc3c
00000070: d50f 9dbc 65ee 82bd 8a60 393d 1349 803a
00000080: cc14 993d a05a f4bd 6051 843d 70fe 2a3d
00000090: 616d 4c3d 86bd 8d3c bbb0 943d d902 5ebc
000000a0: fae3 aebc d2ee c03d f97d 833d 5a73 dc3b
000000b0: 6816 4ebd c572 4c3d 9f44 d63c 78dc 4d3d
000000c0: 2a13 b6ba cc36 0f3c 0b51 adbd e535 5ebd
000000d0: 4501 7c3d 0ca4 383d c232 ccbd 4417 48bb
000000e0: 93e1 533c 48b7 78bd 9ee2 3c3d 9d68 9b3d
000000f0: ac1d 8cbc 2330 003d 7404 753c 6a02 5abd
00000100: c51c 34bf 7032 acbf ebba d8be 8ad2 5f3e
00000110: cce4 dfbe f21a a8be f67c 103e 76a0 e93c
00000120: 60a5 3f3e 8c2e 853d f843 bebd faf4 9fbe
00000130: 3c64 e23d 0942 093e f784 48bd c90f 813e
00000140: 98aa c4bd 4ac0 a8bd 44d7 b73d af1a c7bd
00000150: 90c2 32be c3e5 bb3e 1b44 1ebd 3f85 e0bc
00000160: a52a dbbd c2ef 90bd c029 a5bd 3e9d 56be
00000170: b814 02be f6c1 433d 5217 94bc 8d2d 6e3d
00000180: bbd7 be3d 043c 18be f8a9 7fbd a423 173d
00000190: 9d13 133e 5993 503d ff89 a2bc 214f 39bd
000001a0: 1778 e1bd 2bbf b03d 26aa 813c 65fc 22bd
000001b0: f532 083c 2196 143e 4cf3 d83d 09c7 d73d
000001c0: 7bed cebd bcb2 e73d 69a8 acbd e559 29be
000001d0: d1f9 953c b9dc 7f3d 98b0 6fbe 516d 4c3e
000001e0: d73d 5e3c fe07 b0bd b6df a43c a797 103b
000001f0: b42f 37bd b562 04bd 4d36 a2bc f121 8c3c
00000200: fe51 ac32 5827 9931 e150 6632 d175 f7b1
00000210: 1889 2f32 946a 3b30 3e6e 7eb2 45b3 1f32
00000220: 2161 0932 f754 dcb1 804b 8b32 2032 b530
00000230: 8570 3530 4432 9f31 b1ac 9e31 d172 f130
00000240: d11d cab1 6981 b4b1 7541 e8b0 4a71 9c31
00000250: 0b84 5931 fb15 4ab0 99e8 01b0 434d bf31
00000260: 3229 f831 e88c 54b1 7a4c bcb1 9114 deb1
00000270: 13ee 3032 8e57 5bb1 d9c1 9eb1 8e02 34b2
00000280: 3f9c 9131 7fe9 5732 1cc2 4a32 de37 2730
00000290: 046d 63b1 366d c1b0 46ea 2faf d3d4 92b1
000002a0: 15bf 5832 bc7e 60b2 76b6 ebb0 0dba 9fb2
000002b0: e3e2 f2b0 7be0 86af 272e a2b1 d640 5db2
000002c0: d6b0 ddb1 8103 f630 c33f 4db0 ad95 57b1
000002d0: c2c9 0eb1 cc87 20b1 e0ac 0e31 24f3 36ae
000002e0: 261c 92b1 b0aa a4b0 e792 4a32 950a a0af
000002f0: 1697 c3b0 94d8 1132 9af7 a8b1 21e8 44b1
00000300: 066c 7635 fb61 e2b3 a083 b3b4 072e 3232
00000310: 0b8a ee31 ad66 a534 b14b 16b4 5635 b533
00000320: 3ba8 cc33 e32c 9db3 15af 8c33 c974 dc33
00000330: c92f d031 49bc 4834 2476 0db4 d849 0cb4
00000340: 189a f3b2 e0f9 8d33 91a8 62b0 e09e 2c33
00000350: 6f18 afb3 bd00 e732 c0f7 eab2 1c63 43b4
00000360: 73b6 1834 de8b 3db2 2eae 52b4 3bfa 87b3
00000370: 5385 acb1 1147 9bb2 b8d1 1033 9c6c c032
00000380: 0847 86b3 723b acb3 2141 b5b3 696d 9433
00000390: a19d 6a33 1f26 0b34 d2f7 d133 722e 0cb4
000003a0: d54a 3d34 f4a7 ab32 2f78 fb32 b33b a932
000003b0: fae5 aa33 90e2 7233 8963 aab1 36ca ddb3
000003c0: 4705 c3b2 3c7d 18b4 0490 42b4 3cb9 0e32
000003d0: 8558 7cb3 3531 fe33 13b1 89b2 d80c 36b2
000003e0: 6880 cbb2 35a7 34b3 fb2a 7db2 38e7 ef32
000003f0: 24b6 b232 2167 a6b3 4607 0fb3 b4e3 8f32
0.33073425 0.2799709 0.10020573 -0.057773843 0.09021542 0.0020361864 0.03258825 -0.09425319
0.0063009313 -0.016829085 0.06170134 0.17299628 -0.07758907 0.05943004 -0.035322003 0.08039118
-0.013213106 -0.045148734 -0.03057778 -0.041018013 -0.075193815 -0.037275337 0.026453352 -0.04232851
0.019425882 -0.016202215 -0.00847644 0.030775439 -0.019172588 -0.063931264 0.045258082 0.0009787403
0.0747467 -0.11931348 0.064608335 0.041746557 0.049909 0.017302286 0.07260271 -0.013550484
-0.021348942 0.09420551 0.06420512 0.006727618 -0.050314337 0.04991414 0.026155768 0.050259084
-0.0013891209 0.008741092 -0.08462723 -0.054250617 0.06152465 0.045078322 -0.09970619 -0.0030531446
0.012932199 -0.060721666 0.046114556 0.07588313 -0.017103992 0.031295907 0.014954675 -0.05322496
-0.703564 -1.3452892 -0.42330107 0.21857658 -0.43729246 -0.32833058 0.14110169 0.028518897
0.1871543 0.06503019 -0.09290308 -0.3124159 0.110542744 0.13404097 -0.04895493 0.25207356
-0.09602851 -0.08239801 0.089766055 -0.09721886 -0.17457032 0.36698732 -0.03863917 -0.027407287
-0.10701493 -0.0707698 -0.08064604 -0.2095842 -0.12703216 0.047792397 -0.018077526 0.05814891
0.09318491 -0.14866644 -0.062417954 0.036899224 0.1436295 0.05092177 -0.019841192 -0.04524148
-0.110092334 0.086302124 0.015828203 -0.039791483 0.00831293 0.14510395 0.1059328 0.1053601
-0.101038896 0.11313388 -0.08430559 -0.16538198 0.018307598 0.062466357 -0.23407209 0.19963576
0.013564548 -0.085952744 0.020126205 0.0022063048 -0.044723228 -0.032320697 -0.019801283 0.017106028
2.0060721e-08 4.457359e-09 1.3406152e-08 -7.2020403e-09 1.0217512e-08 6.818166e-10 -1.4809812e-08 9.295779e-09
7.996534e-09 -6.412502e-09 1.6216063e-08 1.318373e-09 6.6007316e-10 4.6332236e-09 4.618038e-09 1.7567691e-09
-5.8823635e-09 -5.2534017e-09 -1.6898826e-09 4.553077e-09 3.1652714e-09 -7.351841e-10 -4.726047e-10 5.5676153e-09
7.2224333e-09 -3.0930156e-09 -5.4802145e-09 -6.4633885e-09 1.029868e-08 -3.1918463e-09 -4.620443e-09 -1.047796e-08
4.2378185e-09 1.2567738e-08 1.1802083e-08 6.083364e-10 -3.3094816e-09 -1.4073638e-09 -1.5999388e-10 -4.2733546e-09
1.2616302e-08 -1.3067332e-08 -1.7150359e-09 -1.8594642e-08 -1.7672303e-09 -2.453396e-10 -4.7200674e-09 -1.2878635e-08
-6.4520504e-09 1.7899852e-09 -7.4669176e-10 -3.1371699e-09 -2.0778406e-09 -2.3360256e-09 2.0761988e-09 -4.159796e-11
-4.2523594e-09 -1.1981083e-09 1.1791349e-08 -2.911135e-10 -1.4231059e-09 8.489355e-09 -4.9175926e-09 -2.8653704e-09
9.1799336e-07 -1.05417676e-07 -3.3437118e-07 1.0371429e-08 6.9424053e-09 3.0808351e-07 -1.3997375e-07 8.438171e-08
9.530091e-08 -7.319047e-08 6.551105e-08 1.02657914e-07 6.0590293e-09 1.8694949e-07 -1.3174628e-07 -1.306538e-07
-2.8358997e-08 6.611276e-08 -8.245787e-10 4.0191367e-08 -8.153517e-08 2.6892275e-08 -2.7353849e-08 -1.8196846e-07
1.4222478e-07 -1.103305e-08 -1.962114e-07 -6.331944e-08 -5.021016e-09 -1.8076692e-08 3.371835e-08 2.2401132e-08
-6.252782e-08 -8.020187e-08 -8.440316e-08 6.9116886e-08 5.4625733e-08 1.2959252e-07 9.777399e-08 -1.3055413e-07
1.762922e-07 1.9983396e-08 2.9274899e-08 1.9701337e-08 7.9580744e-08 5.6551073e-08 -4.958967e-09 -1.03278964e-07
-2.2703388e-08 -1.4201663e-07 -1.812005e-07 8.307605e-09 -5.875383e-08 1.18367474e-07 -1.6029423e-08 -1.0596715e-08
-2.3690703e-08 -4.206159e-08 -1.4736311e-08 2.7928408e-08 2.0804755e-08 -7.7487364e-08 -3.3301397e-08 1.6750938e-08

conv1.lin_pos_r.bias f4 [32]
00000000: 869f 723d dcd7 503c f342 18b9 77c0 2cbc
00000010: ae05 b93d ead7 c138 836d a03c 6510 3fbd
00000020: b25c 2e3d 91de 9c3c 50d0 bebc 93d5 d8bc
00000030: a066 d6bc 4d13 c2bc a4f3 fcbc f8b2 533c
00000040: b782 61bd 25f7 84ba 04d9 3bba a933 e1bc
00000050: 85ab 68bd efc3 f13c 7a2d 99b9 402a b73c
00000060: caa8 ceba 5267 11bd 8a86 b7bd 0c86 34bd
00000070: 42da ffb8 9844 d2b9 f792 943c 1b98 aeb8
0.059234165 0.012746777 -0.0001452079 -0.010543934 0.090342864 9.243174e-05 0.01958347 -0.046646494
0.04256887 0.019149097 -0.02329269 -0.026469028 -0.026171982 -0.023690844 -0.030877896 0.012921087
-0.0550563 -0.0010144456 -0.0007165822 -0.027490454 -0.0568042 0.029512374 -0.00029216317 0.022359014
-0.0015766856 -0.035498925 -0.08961208 -0.04407315 -0.00012200001 -0.00040105428 0.018136485 -8.3252984e-05

conv1.lin_neg_l.weight f4 [32, 64]
00000000: fe08 7ab5 b111 1835 8476 ed34 f9b6 77b5
00000010: e74c 6c33 6472 d4b3 f4fe 4e33 2129 6d34
00000020: b27f 2bb5 42e5 a133 5243 dbb1 71b0 96b3
00000030: 1453 aa32 369c a234 53e2 fd34 f4d5 4535
00000040: 7243 ea33 15ff dbb3 0b6d ec32 a8de d9b5
00000050: de63 6935 9969 9eb4 b5a4 e134 a4a3 6434
00000060: 1be4 5c34 c060 e0b3 0979 2433 d20c b7b3
00000070: 2f21 a3b3 d6f8 1834 da59 4735 522b 4b33
00000080: 38f0 5333 fec1 13b5 65ce 9431 24f0 a3b1
00000090: 5fc4 8ab3 63c0 ef34 fc42 6034 1b56 05b3
000000a0: d233 aeb1 825c 1235 c0a7 8b33 108a de33
000000b0: be30 1e35 198e 6834 2778 5d35 601d f7b3
000000c0: 10be deb4 898d 60b4 ec24 d3b4 d411 d034
000000d0: f1cd 7334 c913 3634 ab2f 2fb5 0daa 97b4
000000e0: e1cb 8a33 948e 7a33 a5be 83b3 7c8b 8e33
000000f0: 898f 35b5 e91d 1e32 21a1 1a34 f767 5632
00000100: 38c0 35bd c416 84bd f335 c6bc 4334 24bb
00000110: e426 c33c 6f17 e63d 09ab ba3c 2726 3a3b
00000120: a52c 343d a5ad 8d3c 4757 97bc a715 82bc
00000130: 686a c6ba 9d0c 893c 747a edbc 0ae4 f23c
00000140: 8d7d d03c e287 92ba 387a 17bd 399d 6cbd
00000150: fb3e f2bc b419 b63c 27ca 9b3c f9c2 5aba
00000160: 2864 793c 1711 1fbc 479e 333d 68a6 d7bc
00000170: b04c e53b bf1a 3c3c 96ca 7cbc 954d 1cbd
00000180: 2522 57bd 07b5 82bc 14f5 6e3c ecf5 beba
00000190: a7a1 a23b c42b 9dbc b187 a13c dd4a 603c
000001a0: 61f9 ef3c 5853 753b c67e a93c 271b e13a
000001b0: 90df cebc 8d29 ecbc 5b1b 143d 3c7c 5abd
000001c0: a87b b83c 480f 883b aae3 c0bc 970c 0abd
000001d0: 37ad 04bc 7ed6 b93c ae59 8bbc b3b9 073c
000001e0: c882 0d3c 0138 35bd a825 6d3c dbdd 07bd
000001f0: f93b 04bd e369 cc3c 1657 13bc cdef c0bc
00000200: df4f 003e b791 a03e 1c2a aa3d 26df 853d
00000210: a967 a8bd d686 3fbe f247 32be 83a8 f33d
00000220: a0a9 213d 6465 fb3c e826 5dbd 5c9e 4dbd
00000230: f6b9 5c3d 9f99 9e3d b2a5 9fbd 37f4 103e
00000240: 8adf afbd 4233 c23d 0fa6 9b3d b2a6 50bd
00000250: 98b1 c5bb 682e 37be 418d 0c3e 796c 143e
00000260: cc37 cebd 93bf b4bd e4b8 e7bd bc7b c7bc
00000270: 5f1d a13d 6e6f dcbd 01ab 38be 0f4f a0bc
00000280: 7138 1d3c 29a2 15be fb9c 01be 5e31 d2bd
00000290: d98c 613d 85c9 38be 6643 b33d a97c 8fbd
000002a0: ec97 87bd 6c16 a83d f4d6 f9bd dcc6 81bc
000002b0: 0199 55bd b20f 083e 406c 413e b820 15be
000002c0: 838d 933d 204b a7bd c31d 89bd d966 423b
000002d0: 7c1e 773e 4572 ea3c c74a 29be a7c1 4e3d
000002e0: 32b8 c83d 84c3 a23d 879b c03a f083 573d
000002f0: 07dc 18bd 9f45 d5bd 5691 473d 07f7 43bd
00000300: d929 9cbd 9b01 dcbd 3c29 03be 5ce2 d8bc
00000310: b926 90bd 54c6 69be ea8b 6a3d 06f9 89bd
00000320: f031 2d3c 749a 2b3c d5b5 753c ffdf 023d
00000330: f0c5 1a3d 2705 54bd 0ff2 20bc 024e 183d
00000340: 524c e7bd f3e8 86bd bfce 9e3b d078 28bc
00000350: a132 2d3c e5f6 53bd 97ac 8b3d acc9 7a3c
00000360: e667 123d a54c c2bc 04d3 51bd 21e4 e93c
00000370: 07d2 cebb af22 91bc ef41 283d 543e 083c
00000380: a2c9 8f3b 124b 013d 95e7 dbbb 18a8 8cbd
00000390: 138d c0bc 5e5c b53c 6832 edbb 1306 41bd
000003a0: 3704 edbb 37f2 0d3d e82e 883c dbb2 abbc
000003b0: ff60 0f3d 7adf d5bc 6ec6 3ebc ef38 4a3d
000003c0: 6a82 183d cdf3 97bd 7fed 983d a234 853c
000003d0: 27b4 02bd 52c4 73bd d810 d73c 2efe 3f3c
000003e0: 3677 16bd 27d0 16bd 2f25 0ebd 47ee fa3c
000003f0: 4e65 483b 227e 51bc 2609 bcbb d466 6fbc
-9.314534e-07 5.6650157e-07 4.4230922e-07 -9.228093e-07 5.5017974e-08 -9.892827e-08 4.819499e-08 2.2087308e-07
-6.3888285e-07 7.5388485e-08 -6.3813923e-09 -7.017014e-08 1.9828384e-08 3.028851e-07 4.7289595e-07 7.369956e-07
1.0908742e-07 -1.0244381e-07 2.7523603e-08 -1.6232561e-06 8.694459e-07 -2.9506626e-07 4.2029356e-07 2.1293687e-07
2.0572081e-07 -1.04484116e-07 3.8294306e-08 -8.5239336e-08 -7.596315e-08 1.4246629e-07 7.426403e-07 4.730402e-08
4.9345743e-08 -5.5044063e-07 4.3308312e-09 -4.771225e-09 -6.4618455e-08 4.46572e-07 2.0885994e-07 -3.1044788e-08
-5.069958e-09 5.4523855e-07 6.5032054e-08 1.0362794e-07 5.8930516e-07 2.1658379e-07 8.250376e-07 -1.1507177e-07
-4.148901e-07 -2.0913116e-07 -3.9328677e-07 3.875599e-07 2.270606e-07 1.6957269e-07 -6.5261946e-07 -2.824967e-07
6.463211e-08 5.8337335e-08 -6.134841e-08 6.637762e-08 -6.7636626e-07 9.203611e-09 1.4400986e-07 1.2480078e-08
-0.044372767 -0.06449655 -0.024195647 -0.0025055564 0.023822255 0.11234938 0.022786634 0.0028404088
0.04398789 0.017294714 -0.018474234 -0.015879465 -0.0015137913 0.016729647 -0.028989054 0.029649753
0.025450492 -0.0011179412 -0.03698179 -0.057767127 -0.029571047 0.022229053 0.019017292 -0.0008345093
0.015221633 -0.009708664 0.043852117 -0.026324466 0.0069976673 0.011480986 -0.01542916 -0.038159925
-0.052522797 -0.015955461 0.014584798 -0.001456914 0.004963118 -0.019185908 0.019718023 0.013689724
0.029293718 0.003743371 0.020690333 0.001717423 -0.025253087 -0.028828407 0.0361589 -0.053341135
0.022519901 0.0041522123 -0.023546059 -0.033703413 -0.008097938 0.022685286 -0.017010536 0.00828402
0.008637138 -0.044242863 0.01447431 -0.033170562 -0.032283757 0.024952834 -0.008992931 -0.023551846
0.12530468 0.31361172 0.08308813 0.06536703 -0.082228966 -0.1870378 -0.17410257 0.118973754
0.039468408 0.030687995 -0.053992182 -0.05019985 0.053888284 0.07744145 -0.07795276 0.1415566
-0.085875586 0.09482433 0.076000325 -0.050940223 -0.0060331337 -0.17888796 0.13725759 0.14494504
-0.10069236 -0.088256024 -0.11314562 -0.024350993 0.0786693 -0.10763441 -0.18033983 -0.019568948
0.009595976 -0.1461264 -0.1265754 -0.10263322 0.055065963 -0.18045624 0.087530896 -0.07006199
-0.06620774 0.08207402 -0.12199202 -0.015841894 -0.05214787 0.13287237 0.1888895 -0.14563262
0.072047256 -0.08168626 -0.0669513 0.0029663353 0.24132723 0.028618941 -0.16532432 0.05047765
0.098007575 0.07947448 0.0014694788 0.05261606 -0.03731921 -0.1041367 0.048722588 -0.047843006
-0.07625169 -0.10742494 -0.12808698 -0.026475124 -0.07038636 -0.22829562 0.05726234 -0.067369506
0.010570988 0.010473836 0.014996965 0.0319519 0.037786424 -0.051762726 -0.009823336 0.03718377
-0.11293854 -0.065874 0.0048464234 -0.01028271 0.010571153 -0.05174913 0.06820028 0.015306871
0.035743617 -0.023718188 -0.05122663 0.028551163 -0.0063116583 -0.017716734 0.041078504 0.008315641
0.00438805 0.031565733 -0.0067109563 -0.06867999 -0.02350477 0.02213877 -0.007238675 -0.047124933
-0.0072331685 0.034654822 0.01662393 -0.020959308 0.035004612 -0.026107538 -0.011643989 0.049370702
0.037233748 -0.07419548 0.07467174 0.016260449 -0.031910088 -0.059513398 0.026253149 0.011718316
-0.036734782 -0.036819603 -0.03470343 0.030631198 0.003057796 -0.01278642 -0.0057383953 -0.0146119185

conv1.lin_neg_r.weight f4 [32, 64]
00000000: 2dca d434 7568 94b4 acec 4035 17d9 2235
00000010: 6cf5 8fb4 4e0e 0634 0768 5434 7091 e532
00000020: 2bb1 0b33 0ea9 3134 5259 b7b4 d8c1 8334
00000030: 48c3 a8b4 f91c 5c34 a7b0 b734 ddc7 1635
00000040: 6a9e f2b4 349f 1db4 4399 64b2 fac2 00b5
00000050: 7c52 76b4 5435 21b4 b24c 2334 dccf 64b4
00000060: 1165 0633 c886 c633 5ecc 1934 0614 4fb4
00000070: 940e e8b1 6472 2cb4 d33a 4ab2 49a8 7f34
00000080: 8df1 6fb4 716c ec32 f1c9 36b3 5750 ff33
00000090: 87f0 de33 c4ff 1ab3 c5f1 3934 293c 7134
000000a0: 8cd9 b434 88ec ac34 64e9 0b35 dc8d d134
000000b0: 94d1 a9b4 c2fc c533 83e4 8eb5 33b0 f833
000000c0: 17c2 3434 c6b4 99b4 a351 c2b4 8996 89b4
000000d0: b359 1a34 8157 7bb4 9ddb 74b4 2b21 dcb3
000000e0: a6a5 8b33 2556 9034 e686 3a35 f49f 3fb3
000000f0: 501e 8033 89e6 aab1 e160 2bb4 b2be 3333
00000100: ba95 e63d 956b 8fbd 8a1c db3d 7cb9 013e
00000110: 01c9 a7bc b926 3ebd ef22 9a3d d946 16be
00000120: 2368 d43b 508a 443d d487 473c 25a7 c93c
00000130: 976a 7fbd 998f a73d 7c64 8a3d d883 133d
00000140: a667 7cbd 5a6f 0dbd 4cab b7bd ed3c 333c
00000150: 526f c6bb 8696 6fbc db5b 203d 9521 40bd
00000160: 6c50 c03d c51b 6b3d 8e4e 0cbb 8dfc 243d
00000170: 8263 37bd a097 7c3c f6cf bc3d d30f 553c
00000180: 0324 273d c80c 473d 92e7 8e3c 83f3 15bd
00000190: 9037 47bd 2cbd c63c 3ed3 77bd 601a 103d
000001a0: 6415 e13b 32cb e0bd 60fe f23c b44b bc3c
000001b0: b08b ca3c 3e1e 14bd 9551 0dbe f58f 27bc
000001c0: 4033 91bb b698 14bc f654 923d e664 f4bc
000001d0: b96f afbc 30c6 0fbd 51db 3d3e 7d59 a03c
000001e0: 76e9 3cbc 850f 753d bd3c 0b3c 8348 23bb
000001f0: 79fd bc3d 65ce 05bd 07c7 be3c beb2 87bc
00000200: 73ec 60bf b582 a1bf f460 47be 8c19 4ebb
00000210: 0e01 0abd b2a8 1c3f c0df 95bd 4249 99bd
00000220: cbb4 09bd 7484 bfbd 5751 06bd 21e2 583e
00000230: 6191 fdbd ca05 63bd b01e 03bc 8018 1abe
00000240: 659b 053f 9e89 97bd c5c1 a33d f02c b4bd
00000250: 9e1c 96bc e972 433e 8910 b4bd 9575 bcbe
00000260: fda4 223e 4f11 edbd aa22 893e 027c 1cbd
00000270: 1d9b 393d b2f2 58bd a4e2 a43d 8ea2 8abe
00000280: fcb5 4f3e 3bb4 a6bd 55d4 ac3d 7145 773e
00000290: e493 29be f11b 903e 1155 f63d 44c6 ce3c
000002a0: 845c 1a3e 3b46 0d3e 69ca 363e 8321 3d3e
000002b0: 19cc 00be 4c1a 15bd 1610 c1be 553b 0c3e
000002c0: cd63 b63e 59dc e53e 2ef5 4bbe 0462 973d
000002d0: b86a debd 4163 9b3e e10c c4bd c030 173e
000002e0: 06e1 35bd 696f 65be 34bd 5a3d a2bf 10be
000002f0: fba4 00be 87ff 283d ec68 643e f5fb b23e
00000300: ffd7 cdbe b97b d2be e7a0 d1bd 540c 7ebe
00000310: e667 613e a594 413e 4a9a 153e b290 1cbe
00000320: ef61 08bc 347c 073e 72dd cbb8 4d99 a43d
00000330: 7900 0abc 5987 3abd f1e3 9d3d 07aa a93d
00000340: fa66 7d3e ffd5 ef3c 0323 423d 8b39 46bd
00000350: 60bd 35bd d2f7 173e f0d4 993d 9359 a93d
00000360: 8d99 c9bd 882d b1bd 846b debc 4bbc 77bd
00000370: 0bc3 b9bd 474a adbd ceff 7fbb 1ce9 11bc
00000380: 7329 df3b 48d4 48bd 0fc6 c6bc 742a 3a3c
00000390: 0750 033c 5433 71bd 8dc5 9cbc 9719 293c
000003a0: 34bc 853d de13 133d 80d1 5abc ce0d aebc
000003b0: 358e b9bb 15ed 35bd e424 7c3c 3a3a a1bc
000003c0: 295a ab3c d249 5abd 5512 de3c 8c8d 653d
000003d0: bcbe 2d3c 618e 373d 63e8 63bd cde5 b938
000003e0: a1d3 e1bc 76e5 4cbc d9d2 a2bd 91d4 10be
000003f0: c8aa c9bc 4182 983b 43d4 a53d 0404 b93d
3.963518e-07 -2.764315e-07 7.1869977e-07 6.066561e-07 -2.6814394e-07 1.2484927e-07 1.9781884e-07 2.6725246e-08
3.2524593e-08 1.6545911e-07 -3.4151395e-07 2.454169e-07 -3.1434524e-07 2.0499637e-07 3.4214938e-07 5.6170194e-07
-4.5191274e-07 -1.4679682e-07 -1.3306194e-08 -4.7967444e-07 -2.2940543e-07 -1.5013694e-07 1.520846e-07 -2.1309774e-07
3.1291226e-08 9.24461e-08 1.4323584e-07 -1.9285662e-07 -6.753746e-09 -1.6060363e-07 -1.1771323e-08 2.3809947e-07
-2.2346485e-07 2.752333e-08 -4.2558842e-08 1.18889766e-07 1.0381432e-07 -3.6088537e-08 1.7317423e-07 2.246676e-07
3.36859e-07 3.2209596e-07 5.2121163e-07 3.90325e-07 -3.163119e-07 9.219504e-08 -1.064633e-06 1.15804504e-07
1.6834416e-07 -2.863e-07 -3.6194714e-07 -2.5627767e-07 1.4375e-07 -2.340803e-07 -2.2804166e-07 -1.02505815e-07
6.502823e-08 2.6884769e-07 6.94867e-07 -4.461613e-08 5.965978e-08 -4.97386e-09 -1.596086e-07 4.185012e-08
0.11259027 -0.070029415 0.10698803 0.12668413 -0.020481588 -0.046423648 0.07526194 -0.14675464
0.0064821406 0.047983468 0.01217838 0.024615834 -0.06235751 0.08181686 0.06757447 0.036014408
-0.061622284 -0.03453002 -0.08968219 0.010939819 -0.006055751 -0.01462329 0.0391501 -0.046907026
0.09390339 0.05739953 -0.0021409127 0.040279914 -0.044772632 0.01541701 0.09219353 0.013004261
0.040805828 0.048596174 0.017444406 -0.036609184 -0.048636973 0.024260126 -0.06050419 0.035181403
0.006869005 -0.109762564 0.029662311 0.022985317 0.024724811 -0.036161654 -0.13800652 -0.010227193
-0.0044311583 -0.009069612 0.07145111 -0.029833268 -0.021415578 -0.035101116 0.18540694 0.019573921
-0.011530271 0.059829254 0.008498368 -0.0024915047 0.092280336 -0.032667536 0.023288263 -0.016564723
-0.8786079 -1.2618014 -0.19470578 -0.0031448333 -0.033692412 0.6119491 -0.073180676 -0.07484676
-0.033619683 -0.09351435 -0.032792415 0.21180011 -0.123812445 -0.055425443 -0.008002922 -0.15048409
0.5219024 -0.07399295 0.07995943 -0.08797634 -0.018324193 0.19086803 -0.08792216 -0.36808458
0.1588325 -0.11575567 0.2678426 -0.0382042 0.045313943 -0.052965827 0.08051041 -0.27077144
0.20284265 -0.08139845 0.084389366 0.24147584 -0.16560322 0.28146318 0.12027944 0.025241025
0.15074354 0.13796322 0.17850651 0.18469815 -0.12577857 -0.03640203 -0.37707585 0.13694508
0.35623017 0.44894674 -0.19917747 0.07391742 -0.10860199 0.30349162 -0.09572769 0.1476469
-0.044404052 -0.22405781 0.053403094 -0.14135602 -0.12562935 0.041259315 0.2230565 0.34957853
-0.40203854 -0.41110018 -0.10235768 -0.2480939 0.2201229 0.1890436 0.14609638 -0.15289572
-0.00832413 0.13230973 -9.721042e-05 0.08037052 -0.008422964 -0.045539234 0.07709492 0.08284383
0.24746314 0.029276846 0.04739667 -0.04839472 -0.044370055 0.1484063 0.07511318 0.08269038
-0.098437406 -0.086512625 -0.027150877 -0.060482305 -0.090704046 -0.08461433 -0.0039062384 -0.008905675
0.006810361 -0.049030572 -0.024264364 0.011362661 0.0080146855 -0.05888684 -0.019137168 0.0103210425
0.065300375 0.03590762 -0.013355613 -0.021246817 -0.0056627044 -0.044415552 0.015389655 -0.019681085
0.020917015 -0.053293057 0.02710835 0.056043193 0.010604557 0.044813517 -0.055641543 8.864291e-05
-0.027566733 -0.01250588 -0.07950372 -0.14143588 -0.024617568 0.0046541994 0.08097126 0.09033969

conv1.lin_neg_r.bias f4 [32]
00000000: 286a 3ab9 a593 673d 1d74 3b3c 98cb a93d
00000010: f98b 3fbd 7930 ab3c 21a7 48bd 2431 dfbc
00000020: 032d 41ba e441 603c ad82 b53d 4e6e 803b
00000030: e20f 50bb 98c1 a4bc e3d6 213d f0ca 2cbd
00000040: 9b76 82ba 6be1 d0ba 383e c2bc 2126 713c
00000050: bb71 dd3c 6a74 3db9 e34c 183c adee e339
00000060: d9b4 36bd cc8b 6ebc 7328 4c3c 013c 333c
00000070: 60de 2b3c ec13 a7bb 83e3 493c 246d 63ba
-0.00017777889 0.05653729 0.011441258 0.082907856 -0.046764348 0.020897137 -0.04898751 -0.027245112
-0.0007369073 0.013687585 0.08862815 0.0039193993 -0.0031747748 -0.020111844 0.039511573 -0.042185724
-0.000995356 -0.001593632 -0.023711309 0.014718563 0.02703177 -0.00018067812 0.009295675 0.0004347464
-0.044606064 -0.014559697 0.012460816 0.010939599 0.01049003 -0.0050988104 0.012322309 -0.0008675626

convs.0.lin_pos_l.weight f4 [32, 64]
00000000: f5dd e0bc 9d46 253c 8422 50b2 cef0 7436
00000010: d3af 293d 80a7 67ba 08e7 ec3c c7d3 6136
00000020: c0bc be3c fa1a 85bb 1651 543a b4bd c332
00000030: 96a2 0fb5 e121 54ba c475 43bc b800 b13c
00000040: 9f50 20ba 5c52 91b1 6a13 b735 fdbf 03b6
00000050: 2701 21ba 53d4 513d 6f35 20b1 f7f9 abbc
00000060: 11ab 5434 b025 58b8 6245 943a eca3 a6bb
00000070: c0e8 2eb2 7639 4e37 f06e b8bc d1be efb3
00000080: a6be bab5 e807 ae3c 80cc 5e3d 1679 ae3d
00000090: 7847 fbb9 130f bc3d d725 ab34 d001 86b3
000000a0: 931e 9036 7b70 9d3d d3f5 e4bc e4a5 3dbe
000000b0: 11c9 9536 6111 8c35 5bec 95bb 642b 0bb7
000000c0: ab74 e3b7 b44e d72f e11a 6533 6af1 903d
000000d0: 1877 da3d 4f2f 3cb6 9e26 88bd cf53 04bd
000000e0: c45f 2db9 69fe ee38 a032 023e 10d6 cc3d
000000f0: 5ebe 483e cf11 86ba 6a69 013e d3cc 1db9
00000100: 3ca0 85bd dcf0 ad3c a994 13b2 109c 07b6
00000110: 942e 683c 8d73 993c fdca d2bd 824e d7b5
00000120: eb04 02bd 7099 4a3d 05e7 2db2 3d86 3db2
00000130: 26d8 2a32 2a26 9cb1 3b82 5631 caaf 463d
00000140: eafe 6032 e173 04b1 92ea b434 5b3d 7bb5
00000150: f4c3 50b2 7aad e73d 3a85 9ab2 7071 ebbd
00000160: 994b 7e34 79ee 5838 4282 62ba 2309 1b32
00000170: 6873 60b1 3490 b334 44da 88bd fcfc a5b4
00000180: e35a 2636 bb71 cd3d 7b74 6abd bef2 433e
00000190: 47a7 f7b3 b1cd 7c3d 0018 1733 8152 0233
000001a0: 4b86 adb6 030a efbd 1d08 703e 4c15 d2be
000001b0: 97aa 1db5 d0e8 22b7 a79f be3d 93c8 25b7
000001c0: 1433 32b8 2112 bc2f aac4 3232 2c0e 413e
000001d0: 00a0 163e d930 0cb9 dabe 70be d139 fbbd
000001e0: b62b 773a 9227 9fb8 a38e 563d 2dfc 5f3d
000001f0: 3111 31bd 7f46 d238 bd02 253e d4f1 7db8
00000200: 33f0 713a 19c5 7938 5086 8932 22a3 6c30
00000210: 1781 6a39 eff1 b839 218f 713a 0f81 db30
00000220: 0521 9839 f504 cdb7 ae7c fdb0 c3f4 8832
00000230: 0207 f8b1 1929 8232 49f6 f831 6e27 3339
00000240: b82e 8331 d263 14b2 4e97 1532 13bd d8b1
00000250: e77b 2ab2 9f27 d439 6bbd b531 c95f 9038
00000260: 202a 6bb2 036e 5731 a5eb 2630 ae25 9131
00000270: 6de5 6732 8036 2f30 3d41 493a 4074 9931
00000280: db6c 3eb1 81f9 0ebb 2378 f8b8 9dcb 53bb
00000290: 97a8 19b2 d7fc f93a 94c7 e6b1 5472 8ab1
000002a0: 109a 9eb4 0fd9 7939 dcd6 5dbb c360 953a
000002b0: 6fea 1632 6974 b2b0 9409 ab39 c948 5a36
000002c0: 8f0a 9d31 d8f3 84b1 5d67 02b1 aa56 0538
000002d0: e56e 7639 867d cfb1 86a3 2939 3b40 e838
000002e0: b3ed 55b1 9e3b 0ab1 5b84 283a 083e f739
000002f0: 07a4 983a 7f57 0230 578a b43a a215 d631
00000300: 0a90 37bb 99e7 d939 8850 8530 3049 1a32
00000310: 3cba 6e3b 0fa9 2cba 92b3 3cba 1e1e 0e32
00000320: bafb 95ba cd7a 00ba 9797 72b1 8b55 10b1
00000330: c6f7 09b2 5ade 3ab2 e0a7 3c31 8470 10ba
00000340: 66da feb1 a010 34b1 6332 98b1 3746 2a32
00000350: 025b e8b1 964f 58ba f7ef 16b2 6fef 29bb
00000360: df85 91b0 d492 62b0 6946 b430 bd0e 97b2
00000370: 5bf7 98b1 c1a7 8a31 964f 8fba 5608 edb0
00000380: 37c8 95b2 38c2 123b 1ecf a9ba 7295 c63a
00000390: 3ea1 5531 8472 6c38 1dad 6b31 ea63 e7b0
000003a0: fd1d 8230 a60c aeba d22d a83a c6ba bfba
000003b0: 164a 79b0 5030 5fb2 244d fa3a a1a3 4432
000003c0: 75ce 8c31 bfa2 cdb1 5f54 9bb1 f7da fdb9
000003d0: c63a 8339 31a0 eaaf a3f6 68b9 5671 e6ba
000003e0: 62d3 7d30 0f3e 6f31 74e8 d4b9 5cf5 b739
000003f0: 81f8 86ba 66b3 7d32 039a b7ba 8179 5d31
-0.027449587 0.010087636 -1.2115041e-08 3.6499e-06 0.041427445 -0.000883691 0.028918758 3.3650883e-06
0.023283362 -0.0040620537 0.0008099241 2.2787255e-08 -5.3508245e-07 -0.00080922066 -0.011929933 0.021606788
-0.0006115529 -4.2294186e-09 1.3640213e-06 -1.9632273e-06 -0.00061418343 0.05122788 -2.3313438e-09 -0.020993216
1.9806272e-07 -5.1533512e-05 0.0011312182 -0.005085459 -1.0181054e-08 1.22919355e-05 -0.022513837 -1.1164014e-07
-1.3913566e-06 0.021244004 0.054394245 0.08519189 -0.000479277 0.09182563 3.1878764e-07 -6.240191e-08
4.2950937e-06 0.076874696 -0.02794925 -0.18520314 4.4639532e-06 1.0435871e-06 -0.004575295 -8.295148e-06
-2.7114836e-05 3.9164194e-10 5.3342664e-08 0.07077296 0.106672466 -2.804172e-06 -0.06647991 -0.03230649
-0.00016534241 0.00011396112 0.12714624 0.10001767 0.1960387 -0.0010228696 0.12637869 -0.0001504899
-0.06524703 0.021233015 -8.590328e-09 -2.0207408e-06 0.014171261 0.018731857 -0.10292623 -1.6041597e-06
-0.03174297 0.049462736 -1.0122453e-08 -1.103177e-08 9.944449e-09 -4.5445363e-09 3.1215126e-09 0.04850749
1.3096477e-08 -1.9274398e-09 3.3698285e-07 -9.359407e-07 -1.2151748e-08 0.11312385 -1.7988544e-08 -0.11496246
2.3683096e-07 5.1720508e-05 -0.0008640626 9.024265e-09 -3.266189e-09 3.344627e-07 -0.06682256 -3.0917715e-07
2.478883e-06 0.10031458 -0.05723999 0.19135568 -1.15322614e-07 0.0617196 3.5179255e-08 3.034302e-08
-5.1714355e-06 -0.116718315 0.23440595 -0.41031873 -5.87353e-07 -9.710158e-06 0.09307795 -9.881466e-06
-4.2486077e-05 3.4209882e-10 1.040568e-08 0.18853062 0.14709473 -0.00013369638 -0.23510304 -0.12266887
0.00094288157 -7.589081e-05 0.052382123 0.054683853 -0.043229286 0.00010026711 0.16114326 -6.054512e-05
0.0009229213 5.9549788e-05 1.6009977e-08 8.6088126e-10 0.00022364069 0.0003527547 0.0009214748 1.5971028e-09
0.000290163 -2.4440213e-05 -1.8443609e-09 1.5943789e-08 -7.2185466e-09 1.515268e-08 7.2457493e-09 0.00017085459
3.817913e-09 -8.63743e-09 8.707344e-09 -6.3079226e-09 -9.9234745e-09 0.0004046531 5.2893276e-09 6.8842965e-05
-1.3688378e-08 3.1349152e-09 6.072532e-10 4.224339e-09 1.3498135e-08 6.374208e-10 0.0007677263 4.466102e-09
-2.7710516e-09 -0.0021816196 -0.00011847939 -0.0032317408 -8.944105e-09 0.0019072545 -6.7165704e-09 -4.029326e-09
-2.954189e-07 0.00023827351 -0.003384999 0.0011396635 8.784453e-09 -1.298429e-09 0.00032622798 3.2526898e-06
4.5705018e-09 -3.8694274e-09 -1.8976245e-09 3.1790383e-05 0.000235017 -6.0387633e-09 0.00016178013 0.00011074586
-3.1130696e-09 -2.0115531e-09 0.0006428414 0.00047157728 0.0011645564 4.7418064e-10 0.0013774139 6.230679e-09
-0.0028009438 0.0004156202 9.699912e-10 8.980621e-09 0.0036426922 -0.0006586471 -0.0007198389 8.272336e-09
-0.0011442818 -0.0004901111 -3.5301804e-09 -2.1003383e-09 -8.030787e-09 -1.0877182e-08 2.7453027e-09 -0.000550993
-7.417202e-09 -2.6202898e-09 -4.4295105e-09 9.911267e-09 -6.762435e-09 -0.00082516053 -8.785711e-09 -0.0025930067
-1.0588187e-09 -8.2426976e-10 1.3116735e-09 -1.7585416e-08 -4.4519033e-09 4.0354e-09 -0.0010933753 -1.7246389e-09
-1.743693e-08 0.0022393595 -0.0012955402 0.0015150739 3.1087235e-09 5.6373436e-05 3.4295404e-09 -1.6835859e-09
9.467268e-10 -0.0013278916 0.0012831038 -0.0014627806 -9.0690955e-10 -1.2991293e-08 0.0019096476 1.14459064e-08
4.0980077e-09 -5.9847873e-09 -4.5206856e-09 -0.00048419062 0.00025030057 -4.2678175e-10 -0.00022217123 -0.0017581384
9.2341257e-10 3.4814354e-09 -0.00040608982 0.00035087287 -0.0010297449 1.4767329e-08 -0.0014007691 3.22288e-09

convs.0.lin_pos_r.weight f4 [32, 32]
00000000: 93b8 ec3d 8d03 4dbf 920d a1b2 a4ea 4bb6
00000010: 4b74 8d3d f646 ed3e fcc3 f1be c408 76b6
00000020: 7bb8 35be e152 41bf f27e f0b1 fc09 94b1
00000030: 32b2 38b2 bd1b a5b2 7b5b a031 3f47 3cbf
00000040: 8bff 8032 1516 74b2 f794 87b5 32bc 3735
00000050: 555d e731 53c1 3dbe adda 3cb1 1808 9bbc
00000060: fc97 ef35 9c50 9fb7 6d4c ad3a b9e3 8cb1
00000070: c8f4 4b31 18e8 adb7 bf64 39be ba39 9fb5
00000080: 9ffd 6abe f178 3e3e 7f5a 70b2 ce64 1735
00000090: 6fa3 42bd 048d a03d ef1b cdbe 35e3 c335
000000a0: fcd3 85be 3fc8 013f f604 85b2 c63e 50b3
000000b0: 7e59 6b32 3b48 6532 b28e 4b32 6082 683e
000000c0: e02c c932 56b3 5832 64ff 8bb4 e4a5 6d35
000000d0: da7b 2731 67be 6f3f 16da 1732 4c2a b9be
000000e0: 2591 4c34 d625 72b8 4d99 d8ba 041f c832
000000f0: 63a3 1e32 7c0e 6e36 2fb5 a2be ab64 bf35
00000100: 0fa0 133b 3e54 1eb9 a13b ea32 7dbf 7c32
00000110: 2db0 fbb9 d99b 703a fef9 113a b063 b6b1
00000120: a51d 56ba 55e6 8e39 0ee2 85b2 292d 0432
00000130: d5bc 4a31 263d f6b0 6811 13b2 763e 30b9
00000140: d9ce b1b2 5a39 c9ad 040b 2932 cf7e 94b2
00000150: 7841 9e32 22e8 38ba 8ca5 50b2 9c0a d0b9
00000160: 34fa 86b1 648e 95b2 0059 2631 3b33 f3b0
00000170: 328b b5b0 5067 6b32 6a06 8d3a c55d b531
00000180: de69 c33b abcd 45b7 1209 ff2f 31b0 c2b2
00000190: 7247 afbb 3e02 c139 999d f4b9 67b4 09b1
000001a0: 787b 7b3b 7ed1 2839 a3ea 80b1 e0ea 4931
000001b0: 3875 e5b2 2c43 cfb1 98a2 95b2 a482 3239
000001c0: d0f2 6fb2 2d89 e22f 0848 dbb2 3728 c3b1
000001d0: 6bd0 3230 e2d7 8339 012c acb0 9ebb 05bb
000001e0: 14e5 b330 0a9a 5331 afd0 b7af 7bb6 aa31
000001f0: e583 d0b2 ef43 64b1 50ae 5bba 017f 8032
00000200: 8b54 8132 0c84 ba31 2df6 1832 a945 44b1
00000210: 25be bbb2 5272 5032 6513 feb2 e06d 7431
00000220: 38f9 5432 ce91 2eb2 6479 5132 155f 64b2
00000230: fb42 f32f 9436 bb31 e80c 3e32 175c dbb1
00000240: 944c 3e30 308d 8730 eab0 9732 190a 9830
00000250: 65bf 45b2 8dcb 16b2 c804 6831 ab38 1533
00000260: eeaf 81b2 f557 8232 4109 f431 b7ca c431
00000270: a057 e432 3e1b 03b2 16cb 6732 ec4b beb0
00000280: 11a8 12be 36b5 de3c 9c04 69b2 3344 94b5
00000290: 228a 093b 53dc 583e e9df cfbe 211c 58b5
000002a0: 6672 63be dd3b 5e3e 68f7 2231 d222 29b2
000002b0: 9afb 05b2 5faa cf31 ec12 d232 a19a 3d3d
000002c0: f1a8 e8b0 b8ac 2ab2 6b13 ccb3 131a 9ab5
000002d0: bdff 33b1 54fc 2e3f 5584 3032 ebbf 85be
000002e0: 2efb cab4 7c27 f837 9e5f 673a a4cc 8f31
000002f0: a1bb d331 4c22 6eb5 ff8b aabe b60c 1fb5
00000300: d006 50bb 708d 3d36 5bb5 1031 7025 0f30
00000310: b204 d6bb 6e3e 6038 5ca6 84ba 50ca 9830
00000320: 726e b63a 972f 24ba 7a27 dc30 7d6c 1ab1
00000330: dbce 7cb1 d9b3 d831 dc08 98b2 ddb1 90ba
00000340: c7e3 3532 39b5 85b1 7440 08b2 0885 b230
00000350: 20db 5132 c7dd d1ba 4913 e331 f70a 343b
00000360: 6028 7632 81b6 34b2 f45c 0631 aebe 2132
00000370: af2a 8132 627a afb2 0b33 be3a e3e8 3b32
00000380: 9e73 c93e 9796 48bf 9e29 9ab1 fc1a 89b6
00000390: e89f 5e3e 185b fa3e a34e 0dbe 63ee 5f36
000003a0: 92e6 c73d c8c1 9abf f234 bcb2 5a27 bfb2
000003b0: 4d28 0e32 e4ec 3530 f1c1 84b2 b3b0 56bf
000003c0: 6774 86b1 c372 1532 c2d2 4d33 f44a 3b35
000003d0: b725 8531 d972 8bbf 916a 2c32 0403 c93e
000003e0: 9d51 90b4 040a bfb8 9f62 aaba 297c 3db2
000003f0: 8653 9531 8fb3 cd36 5409 343e 7305 f135
0.11558642 -0.80083543 -1.8749038e-08 -3.0385936e-06 0.06906947 0.463432 -0.47219837 -3.6661959e-06
-0.17746155 -0.7551709 -6.9993513e-09 -4.308502e-09 -1.07507265e-08 -1.9221142e-08 4.667013e-09 -0.7354621
1.5017369e-08 -1.420769e-08 -1.0101638e-06 6.844667e-07 6.7335955e-09 -0.18530779 -2.7481903e-09 -0.018924758
1.7851121e-06 -1.8991814e-05 0.0013221629 -4.1004253e-09 2.967953e-09 -2.0731284e-05 -0.18104838 -1.1863224e-06
-0.22948311 0.18600823 -1.3990415e-08 5.6398574e-07 -0.047519144 0.078393966 -0.40060374 1.4594758e-06
-0.26138294 0.50696176 -1.5485494e-08 -4.8485866e-08 1.36991485e-08 1.3345978e-08 1.18486e-08 0.22705984
2.3419886e-08 1.2613631e-08 -2.607659e-07 8.853078e-07 2.43721e-09 0.93649906 8.838944e-09 -0.36165082
1.9051784e-07 -5.7732534e-05 -0.0016525179 2.3297169e-08 9.23396e-09 3.5473195e-06 -0.31778857 1.4259907e-06
0.0022525822 -0.00015099437 2.7268301e-08 1.471187e-08 -0.00048005712 0.00091784965 0.0005568563 -5.3082303e-09
-0.00081678695 0.0002725596 -1.5586036e-08 7.6936795e-09 2.9502207e-09 -1.7916235e-09 -8.560484e-09 -0.00016807936
-2.0699575e-08 -2.2876524e-11 9.839599e-09 -1.7287134e-08 1.8423393e-08 -0.00070536335 -1.21448345e-08 -0.00039680756
-3.928358e-09 -1.7410635e-08 2.420677e-09 -1.7695138e-09 -1.3209045e-09 1.3702291e-08 0.0010759358 5.2784537e-09
0.005963548 -1.1790001e-05 4.6390675e-10 -2.2664695e-08 -0.005349093 0.000368135 -0.00046656726 -2.003867e-09
0.0038373154 0.0001609977 -3.7519654e-09 2.938286e-09 -2.6712414e-08 -6.0321295e-09 -1.7419822e-08 0.0001702407
-1.396684e-08 4.120663e-10 -2.5527712e-08 -5.679819e-09 6.50522e-10 0.00025147112 -1.2527154e-09 -0.0020406018
1.3089072e-09 3.0792102e-09 -3.3435785e-10 4.968397e-09 -2.4274366e-08 -3.3216982e-09 -0.00083801616 1.4958916e-08
1.5056022e-08 5.4283245e-09 8.903538e-09 -2.856135e-09 -2.1856133e-08 1.2133187e-08 -2.9578311e-08 3.556913e-09
1.239669e-08 -1.0161285e-08 1.2193002e-08 -1.3292966e-08 4.4249035e-10 5.448621e-09 1.106239e-08 -6.3842083e-09
6.923042e-10 9.862671e-10 1.7659165e-08 1.1062326e-09 -1.1510427e-08 -8.777431e-09 3.3763161e-09 3.4743305e-08
-1.509758e-08 1.517399e-08 7.1023867e-09 5.727397e-09 2.658254e-08 -7.631398e-09 1.3492146e-08 -1.3845898e-09
-0.14321925 0.027186017 -1.3563433e-08 -1.1046708e-06 0.0020986875 0.21177797 -0.40600517 -8.0507203e-07
-0.22211608 0.21702524 2.3714737e-09 -9.845012e-09 -7.7988265e-09 6.043862e-09 2.4455822e-08 0.046290044
-1.6928238e-09 -9.934574e-09 -9.5030224e-08 -1.1481483e-06 -2.6193299e-09 0.6835377 1.0274637e-08 -0.26122984
-3.780819e-07 2.958229e-05 0.0008826199 4.1851127e-09 6.162239e-09 -8.871182e-07 -0.33309934 -5.925061e-07
-0.0031742342 2.8245522e-06 2.1057847e-09 5.20763e-10 -0.0065313214 5.3463904e-05 -0.001012038 1.1116956e-09
0.0013918413 -0.0006263195 1.6018327e-09 -2.2471618e-09 -3.678841e-09 6.3068737e-09 -1.7699158e-08 -0.0011039336
1.0587377e-08 -3.891412e-09 -7.930897e-09 1.2989014e-09 1.2215224e-08 -0.0016011529 6.608762e-09 0.0027472356
1.4328265e-08 -1.05188755e-08 1.9552404e-09 9.414789e-09 1.5036987e-08 -2.0428335e-08 0.0014511062 1.0937785e-08
0.3934602 -0.7835478 -4.486721e-09 -4.0860596e-06 0.21740687 0.48897624 -0.13799529 3.3368349e-06
0.09760775 -1.2090387 -2.1910157e-08 -2.2253221e-08 8.274651e-09 6.618406e-10 -1.5455017e-08 -0.8386337
-3.9131467e-09 8.699035e-09 4.7921965e-08 6.9772e-07 3.875097e-09 -1.0894424 1.0035948e-08 0.39260113
-2.6881472e-07 -9.109455e-05 -0.0012999362 -1.1029479e-08 4.3459663e-09 6.1303795e-06 0.17581683 1.7957485e-06

convs.0.lin_pos_r.bias f4 [32]
00000000: 8ae8 413d 4ce5 153e 000d 87bc 9a3a 0fbc
00000010: f169 c6b9 6d13 053e 080c d2bc dc34 943d
00000020: 2026 a0bc c6aa 593d f1ae 0bbc 2b2d 3ebc
00000030: 588c b8bc 3391 41bd 21f8 0dbd 4f3d 1bbd
00000040: bd72 11bc aa48 513d e9bf 35bd 9d46 93bc
00000050: 4d55 6cbd 3508 97b1 d9a6 6dbc 6c17 79bb
00000060: 7838 acba 875a 69b9 7c28 adb9 b606 ed3d
00000070: 5d42 66bb 6b79 6d3d 6904 44ba 9c3b 223d
0.047340907 0.14638251 -0.016485691 -0.008741999 -0.00037844435 0.12995692 -0.025640503 0.072366446
-0.01954943 0.053141378 -0.008525596 -0.011607449 -0.022527859 -0.047257613 -0.034660462 -0.037900265
-0.008877453 0.05109469 -0.044372473 -0.017978007 -0.057698537 -4.3956114e-09 -0.014505112 -0.0038008345
-0.0013139388 -0.00022254336 -0.00033027295 0.11573546 -0.003513477 0.05797712 -0.0007477464 0.03960763

convs.0.lin_neg_l.weight f4 [32, 64]
00000000: 90b6 e630 3104 58b6 4473 e236 c253 cab6
00000010: 189a 9131 59be efb6 079c 18b2 5a95 37b2
00000020: e277 a72e a03f 8f35 db95 3037 520c f135
00000030: 0f45 51b1 83f7 862e 354a 2637 29a6 3c31
00000040: f0ae 0bb1 b644 fb31 6c08 58b1 3f70 60b7
00000050: 667f 88b6 ffed adb1 1835 48b5 5db5 b0b4
00000060: ae2f 87b2 2ddf 52b2 1bd1 17b7 6105 c5b5
00000070: 5b4a f836 e739 9cb1 fac8 0037 b5f6 16b1
00000080: 8625 2b37 a29d 3935 e144 19b1 f431 e231
00000090: 1098 3db5 dc2b 89b6 2c21 9935 4976 33b1
000000a0: a0ff b9b5 3cee a1b5 f630 6db2 18dc ab31
000000b0: 6e8e 7eb1 41e5 e2b0 b1f7 b131 ffc9 beb5
000000c0: 7026 51b2 0774 e830 b1b7 59b1 2ddb 8531
000000d0: 3d49 e330 74d7 93b5 c9ed 3a32 10c4 9536
000000e0: 13bb 8132 50d7 90af 1a29 3931 ef8c f4b1
000000f0: e328 2532 cad9 dbb1 a4b2 28b6 4ee9 09b2
00000100: cd0d 0ab2 47bb 73b7 8589 02b7 ba02 d637
00000110: e3a6 30b1 70c8 32b8 b4d3 a031 3dbb f331
00000120: 3f1f 0031 4241 a8b6 6703 a5b5 5e02 8735
00000130: d37c 19b2 789b 84b2 c385 01b8 920f 88b2
00000140: 9ce9 96b2 207f 5b2c 5750 bbb0 fe9b 3ab7
00000150: 6b69 bf37 89ea 3232 044f 7fb6 5d26 3ab7
00000160: dd40 4e30 781d 9031 a275 72b7 fc53 dcb5
00000170: d85c 49b7 c05c 1732 403f a8b7 b27e cfac
00000180: 2bb1 6738 8a70 19b7 6c5e 6eb2 bfa9 7632
00000190: 72a9 1638 af5d 0ab7 40ee 13b8 16f9 8932
000001a0: 29dc 5638 b0bb 5d35 937e 002f d088 09b2
000001b0: ef87 8cb0 c68a 97b1 fc1a 442f a09b 19b7
000001c0: faab c330 1b14 35b2 8946 1eb1 a80d 432f
000001d0: d5b5 77b2 7b06 38b8 b96d 5b31 d75f e837
000001e0: 4e9c 19b1 501e 22b2 a4a7 97b2 b207 aeaf
000001f0: 538c b9b1 ec45 a52e 8975 25b7 5d3b d231
00000200: 374d 3736 696e 62bd 19f1 f53d 91e8 1bbd
00000210: 6249 1cb7 d2bc a73c da52 beb9 0958 da34
00000220: 16e9 a336 14da 0f3b bb23 34be 6859 d8bd
00000230: 96ae 01b5 b4a3 d536 a646 2d3d 58ad 2337
00000240: a9cb 0bb6 f905 5032 3028 1db3 eaa6 36be
00000250: 0eac 2a3d b1e5 de38 57f7 94bd f360 923d
00000260: f3d3 753a f8a8 a0b9 9e0c 22be 3f84 95bd
00000270: 13fb 083e 8aac 4bb9 f0e6 763e a7e1 e8b8
00000280: 2de5 203e cdee e63b 6a82 f2b1 d1dd 12b5
00000290: ef6a 003e 8ab8 0f3d 83f1 b6bd e7bb 0134
000002a0: ce32 8ebd 8fc6 943c 2986 5bbc f6f3 5eb6
000002b0: 55f5 2fbb ff37 a03c cc17 f83c 230d bcbd
000002c0: dd98 0dbc c956 abb1 7bdd 74b3 98e0 9435
000002d0: c285 88b9 48d4 913d d055 3132 7ad6 8a3d
000002e0: a0c7 d032 1c94 5436 1b53 b93a a266 5abc
000002f0: 36d5 ddb1 5919 e435 95ff 453b 9b7f 7c35
00000300: 7016 aeb6 7aba 003e 4f12 ab3d bc86 9f3e
00000310: ff81 7d37 0730 40be 18e1 3733 f886 89b3
00000320: 3a74 27b7 e46d 0f3e a701 063e 4aca 8c3d
00000330: c623 cd36 962c 3fb7 0fed 4b3e 50df 10b7
00000340: f12b af37 48df d7b1 6543 1532 1682 9ebd
00000350: da90 9d3e 450a 0938 6ef7 a53d a531 f1bc
00000360: 544e ca3a 4460 52b9 5259 d8bd f32c d53d
00000370: 6958 40bd 8a76 80b9 69eb a83d d3e8 cdb8
00000380: 93d7 723c 018f 753d 886e c2b1 4459 c935
00000390: d65b c13d 631a c6bc 19eb 5c3d b452 7bb6
000003a0: 1f4f 6f3d 368c 613d f8fc 4eba 7ad9 d7b1
000003b0: 2b38 cc32 8061 71b8 2339 553b 3caa c53d
000003c0: a99f b8b7 5851 9ab2 29d9 75b5 5dd2 2735
000003d0: e52e 0c39 47a0 1c3e a17e d730 ea5d a0bc
000003e0: 7cb5 d8b5 f980 53b7 d40e bb3a 42b2 89bb
000003f0: bfa5 9631 e4d8 cbb5 e131 4f3d 9efc 7736
1.678659e-09 -3.2188948e-06 6.7487435e-06 -6.02982e-06 4.237574e-09 -7.1449144e-06 -8.883041e-09 -1.0685961e-08
7.615576e-11 1.0672848e-06 1.0525308e-05 1.7959485e-06 -3.0452758e-09 6.1375814e-11 9.911649e-06 2.7452052e-09
-2.0326603e-09 7.312873e-09 -3.1436924e-09 -1.3377575e-05 -4.067947e-06 -5.0620197e-09 -7.458307e-07 -3.2914514e-07
-1.573775e-08 -1.2274353e-08 -9.0489875e-06 -1.4679209e-06 7.399632e-06 -4.5467803e-09 7.676188e-06 -2.196811e-09
1.0201131e-05 6.9147256e-07 -2.2303583e-09 6.5831447e-09 -7.0629267e-07 -4.088024e-06 1.1409043e-06 -2.6115166e-09
-1.3857971e-06 -1.206477e-06 -1.3806348e-08 5.0017768e-09 -3.7042827e-09 -1.6508822e-09 5.1795372e-09 -1.4214892e-06
-1.2174141e-08 1.6913199e-09 -3.1682073e-09 3.895727e-09 1.6537239e-09 -1.1015059e-06 1.0880691e-08 4.4633707e-06
1.5102648e-08 -2.6346436e-10 2.6944407e-09 -7.117357e-09 9.613561e-09 -6.3984986e-09 -2.5137933e-06 -8.027497e-09
-8.035795e-09 -1.4527533e-05 -7.780623e-06 2.5512058e-05 -2.5706235e-09 -4.262518e-05 4.6806807e-09 7.0935173e-09
1.8644213e-09 -5.014387e-06 -1.2294448e-06 1.0058973e-06 -8.934154e-09 -1.5437521e-08 -3.0880572e-05 -1.5839564e-08
-1.7568532e-08 3.119234e-12 -1.3628875e-09 -1.1122784e-05 2.2818063e-05 1.0414291e-08 -3.8043954e-06 -1.1095396e-05
7.503454e-10 4.194302e-09 -1.4451713e-05 -1.641572e-06 -1.20021505e-05 8.810446e-09 -2.0056614e-05 -5.89736e-12
5.5239692e-05 -9.145713e-06 -1.3874892e-08 1.435768e-08 3.5920595e-05 -8.247253e-06 -3.526942e-05 1.606217e-08
5.1226616e-05 8.2602037e-07 1.16865e-10 -8.005557e-09 -1.0224975e-09 -4.410455e-09 1.7835683e-10 -9.155745e-06
1.4236996e-09 -1.0540158e-08 -2.303212e-09 1.7739998e-10 -1.4418636e-08 -4.3875054e-05 3.1931064e-09 2.7701184e-05
-2.235328e-09 -9.436533e-09 -1.7654948e-08 -3.1655883e-10 -5.4001617e-09 7.515752e-11 -9.862132e-06 6.118553e-09
2.731407e-06 -0.055281077 0.12008876 -0.03806359 -9.31541e-06 0.020475779 -0.00036301353 4.0669718e-07
4.8849133e-06 0.0021950053 -0.17591755 -0.10563928 -4.83103e-07 6.366952e-06 0.042303704 9.755917e-06
-2.083116e-06 1.21085515e-08 -3.659096e-08 -0.1783711 0.04166799 0.00010628568 -0.07273739 0.07147398
0.0009377591 -0.0003064347 -0.15825126 -0.073006146 0.13377027 -0.00019423864 0.24111533 -0.00011104653
0.15712424 0.0070475102 -7.0579533e-09 -5.4712024e-07 0.12540792 0.0350881 -0.089327835 1.208242e-07
-0.06943284 0.018161086 -0.0133986855 -3.3222582e-06 -0.002684911 0.019557951 0.030284785 -0.09182193
-0.0086424025 -4.9866213e-09 -5.7012112e-08 1.1092225e-06 -0.000260396 0.071205676 1.03222675e-08 0.067791894
2.4305166e-08 3.1676673e-06 0.0014139147 -0.013330134 -6.456186e-09 1.6994701e-06 0.0030212153 9.4063006e-07
-5.188216e-06 0.12571135 0.083531015 0.31157482 1.5110242e-05 -0.18768321 4.281273e-08 -6.40411e-08
-9.981037e-06 0.14006764 0.13086568 0.06874521 6.1136407e-06 -1.1394868e-05 0.1991465 -8.635063e-06
2.0882087e-05 -6.2827077e-09 8.688265e-09 -0.07739656 0.30774575 3.267291e-05 0.08103834 -0.029442618
0.001543472 -0.00020063022 -0.105639115 0.10408964 -0.046959314 -0.0002450238 0.08248026 -9.8185286e-05
0.014821905 0.059950832 -5.658709e-09 1.5001647e-06 0.094413444 -0.024182504 0.053935144 -3.7450054e-06
0.058425065 0.055065356 -0.00078959716 -6.2820478e-09 2.3774268e-08 -5.754968e-05 0.0032535277 0.0965161
-2.2008857e-05 -1.796495e-08 -9.158562e-07 6.2518467e-07 0.0001336891 0.15295516 1.5679299e-09 -0.019576032
-1.6146073e-06 -1.2606609e-05 0.0014271387 -0.004202158 4.3844177e-09 -1.5187802e-06 0.050584678 3.695291e-06
