bitcoin-otc/models/bitcoin-otc-train-3.pt (torch, 64443 bytes, 14 tensors)

conv1.lin_pos_l.weight f4 [32, 64]
0	0x313aeaff	2.7200142e-09
1	0x31cf9060	6.0409064e-09
2	0xb4e6f04f	-4.3015686e-07
3	0xb35f152d	-5.1940493e-08
4	0xb20f81b5	-8.3531875e-09
5	0xb1918e2b	-4.236218e-09
6	0x31eb1a62	6.8423995e-09
7	0x315f7c87	3.2521557e-09
8	0xb200448f	-7.466169e-09
9	0xb21d55d3	-9.158117e-09
10	0xb254e0f3	-1.2391172e-08
11	0x32233b80	9.5013775e-09
12	0x32e56c51	2.6708365e-08
13	0x32901987	1.6775415e-08
14	0x3304dae3	3.093272e-08
15	0xb1fc853b	-7.349312e-09
16	0x31f819fb	7.2207036e-09
17	0x31ecd35d	6.892533e-09
18	0x3185e8db	3.897282e-09
19	0xb1773cee	-3.5977865e-09
20	0xb1c102fe	-5.6173795e-09
21	0xb186e3aa	-3.9257957e-09
22	0xb08780b5	-9.859124e-10
23	0x32398285	1.0798094e-08
24	0x2fe43403	4.1509915e-10
25	0x306b935b	8.5701907e-10
26	0xb100035e	-1.8628366e-09
27	0xb1f93aa5	-7.253521e-09
28	0x32253a18	9.617473e-09
29	0xb1e4bbc6	-6.6570207e-09
30	0xb29ea605	-1.8469118e-08
31	0x31ddf7b0	6.4601053e-09
32	0xb1d69180	-6.244761e-09
33	0x31a5ad5e	4.8218416e-09
34	0xb1cd9e21	-5.9842624e-09
35	0x3184f673	3.8697237e-09
36	0xb25228c0	-1.2232874e-08
37	0x324345e5	1.1366386e-08
38	0xb2212dd5	-9.381854e-09
39	0x31781bfc	3.6104657e-09
40	0x30b5d7d3	1.3230824e-09
41	0x3282db6b	1.5233772e-08
42	0x318923cc	3.9912944e-09
43	0xb1fa3fb5	-7.2832003e-09
44	0xb14ba265	-2.9632699e-09
45	0xb1945d68	-4.317986e-09
46	0xb284f9a5	-1.5480348e-08
47	0x31fa5bba	7.2863857e-09
48	0x323cdb45	1.0992896e-08
49	0xb2025a09	-7.5874675e-09
50	0x3185b9bc	3.891925e-09
51	0x31705b15	3.497637e-09
52	0x320a5261	8.051388e-09
53	0xb16bc659	-3.4309748e-09
54	0x31f60f82	7.1613053e-09
55	0xb2565460	-1.2475624e-08
56	0x2f717347	2.1959777e-10
57	0x30a8a267	1.2269766e-09
58	0x326f8520	1.39419e-08
59	0x323545e2	1.0551476e-08
60	0x31c6bb39	5.783843e-09
61	0x3266fb2d	1.3444873e-08
62	0xb1f622f7	-7.1635173e-09
63	0x30bd9c35	1.3795957e-09
64	0xbdb4eeb6	-0.08834593
65	0x3e66d977	0.22543894
66	0x3c631d9b	0.013862039
67	0xbb859ddf	-0.0040776576
68	0xbd14360e	-0.036184363
69	0xbd8609e9	-0.06544859
70	0x3deebf9f	0.116576426
71	0x3d8dced8	0.06924218
72	0xbe0ff86e	-0.14059612
73	0xbcd5061c	-0.02600389
74	0x3d9256a5	0.071454324
75	0xbd13625b	-0.03598247
76	0x3e673cf1	0.22581841
77	0x3d82e599	0.063914485
78	0x3d41e5e3	0.047338378
79	0x3c85680f	0.01628497
80	0xbde88e33	-0.11355247
81	0x3e4068c0	0.18789959
82	0xbdb6418f	-0.08899223
83	0x3e82a150	0.25513697
84	0x3c2f23be	0.010689674
85	0xbca7eb77	-0.02049802
86	0x3d1d0c5d	0.03834187
87	0x3b5e0bca	0.0033881539
88	0x3d4750ab	0.048660915
89	0xbe3eedda	-0.1864542
90	0xbe443bd8	-0.19163454
91	0x3cf123e6	0.029436063
92	0x3e7a608c	0.24450892
93	0xbddaa8dd	-0.10676739
94	0xbce15fad	-0.027511442
95	0x3d57c343	0.05267645
96	0xbd8039fa	-0.06261058
97	0xbdf5e903	-0.12007334
98	0x3e6fd23c	0.23420042
99	0x3ae8b13d	0.0017753016
100	0x3c3bc6a1	0.011460931
101	0x3e35bef6	0.17748627
102	0x3de0d0a8	0.10977298
103	0xbe9c23c8	-0.3049605
104	0xbe87bbb2	-0.26510388
105	0x3c958236	0.018250566
106	0xbd88f669	-0.06687624
107	0xbe1e1a37	-0.15439688
108	0x3d992af6	0.07478897
109	0xbd7e84d6	-0.0621384
110	0xbe03e0ad	-0.12878676
111	0xbd113219	-0.035448167
112	0xbd34e506	-0.044163726
113	0xbd3da31c	-0.04629813
114	0x3c16f00e	0.009212507
115	0x3d034c10	0.03205496
116	0xbe898047	-0.2685568
117	0x3d8e5d2b	0.06951364
118	0xbcb35d48	-0.021895066
119	0xbde3ad64	-0.11117056
120	0xbe91f3df	-0.2850637
121	0x3e2092da	0.1568102
122	0xbe154e93	-0.14580755
123	0xbdc78b70	-0.097433925
124	0x3e0f2f19	0.1398281
125	0xbda57cb0	-0.08080423
126	0x3d772284	0.06033565
127	0xbe32e9dd	-0.17472024
128	0x349595c6	2.7862387e-07
129	0xb4a04c8a	-2.9858012e-07
130	0xb70e6d70	-8.48934e-06
131	0xba298096	-0.0006465999
132	0xb2a1b9f1	-1.8827423e-08
133	0xb30f1093	-3.3309856e-08
134	0xb1d259ea	-6.1220264e-09
135	0xb1ee2c27	-6.931731e-09
136	0x32183df0	8.861647e-09
137	0x3202c7b0	7.6124e-09
138	0xb2854172	-1.5512999e-08
139	0x322cf6aa	1.0067803e-08
140	0x322c09ca	1.00139435e-08
141	0xb0ad4cda	-1.2609249e-09
142	0x31df4410	6.497892e-09
143	0x32561ee3	1.2463462e-08
144	0x3285f422	1.5594257e-08
145	0xb2477880	-1.1610723e-08
146	0xb1b9ff7c	-5.413254e-09
147	0xb2542f6b	-1.2350806e-08
148	0xb227262d	-9.7293595e-09
149	0xb14078e0	-2.8008387e-09
150	0xb2827c4d	-1.5190517e-08
151	0xb2d94387	-2.5292833e-08
152	0xb23a703c	-1.0852144e-08
153	0x32a72c19	1.9461412e-08
154	0x3228ddfa	9.829359e-09
155	0xb1b16d95	-5.163836e-09
156	0xb1b77a92	-5.3399356e-09
157	0xb1c079ae	-5.601769e-09
158	0xb11b55db	-2.2604272e-09
159	0x3016f0db	5.491196e-10
160	0xaf0daac6	-1.2884546e-10
161	0xae165d19	-3.418874e-11
162	0x2fada19a	3.1583341e-10
163	0x305b1888	7.9706597e-10
164	0xb22f0d94	-1.0189428e-08
165	0x31b3e8fb	5.2360725e-09
166	0x31910779	4.220905e-09
167	0xb19b7d34	-4.5253277e-09
168	0xb2aff19c	-2.0482553e-08
169	0xb1cbc1c1	-5.930105e-09
170	0x3287bb4f	1.5801247e-08
171	0xb1edab3d	-6.9170754e-09
172	0xb16b6183	-3.425243e-09
173	0xb29fef17	-1.8618762e-08
174	0xb16d9bad	-3.457653e-09
175	0x325126f5	1.2174259e-08
176	0x32805d23	1.4943515e-08
177	0x324c5aec	1.1895036e-08
178	0xb2b78d0a	-2.1368141e-08
179	0x31baa802	5.4324127e-09
180	0x3248fd5a	1.1699138e-08
181	0x31fe0498	7.392895e-09
182	0x325df0cc	1.2918644e-08
183	0xb0026bf5	-4.744714e-10
184	0xb0325a90	-6.488472e-10
185	0x31b8a634	5.374e-09
186	0xb2aa587f	-1.9830848e-08
187	0x3034ee2e	6.582209e-10
188	0x3287da99	1.5815475e-08
189	0x31f77c8d	7.202806e-09
190	0xb0d0dc25	-1.5196561e-09
191	0xb1e7f276	-6.7505495e-09
192	0x3205c157	7.785579e-09
193	0xb1ee00bc	-6.926795e-09
194	0xb23989ae	-1.0799722e-08
195	0x3263dd81	1.3263503e-08
196	0x30e043e2	1.6317439e-09
197	0xb110f917	-2.109635e-09
198	0x32575e71	1.2536121e-08
199	0xb1331541	-2.606001e-09
200	0x319ccb0d	4.5632818e-09
201	0x312bee11	2.50191e-09
202	0xb211ed13	-8.494015e-09
203	0xb1efbdac	-6.9773787e-09
204	0x321be2fc	9.073798e-09
205	0xb09c31e4	-1.1364674e-09
206	0xb14e70b9	-3.004102e-09
207	0xaf082bc9	-1.2384684e-10
208	0xb152bcd5	-3.066636e-09
209	0x30ed884c	1.7282757e-09
210	0x31a7d961	4.885053e-09
211	0xaf8737a6	-2.4595898e-10
212	0x32539c37	1.2317336e-08
213	0xafc03499	-3.496197e-10
214	0xb2399c49	-1.0803952e-08
215	0xb110b158	-2.1055566e-09
216	0xb18a12b5	-4.0184553e-09
217	0x310fb620	2.0912765e-09
218	0x328afed7	1.6181202e-08
219	0x31af2156	5.09696e-09
220	0xb1ff5c99	-7.432004e-09
221	0xb297f1e2	-1.768871e-08
222	0xb25fc6c1	-1.30255e-08
223	0x3162e62f	3.3018173e-09
224	0x2f7180fb	2.1964645e-10
225	0x31f4d99d	7.1260744e-09
226	0x318bfef0	4.0744155e-09
227	0xb0f51c09	-1.7834064e-09
228	0xb16db1d2	-3.4589118e-09
229	0xb15e8a11	-3.2383733e-09
230	0xb248040e	-1.1642454e-08
231	0x3227677c	9.744209e-09
232	0xb14c929d	-2.9769247e-09
233	0xb25d3aee	-1.2877292e-08
234	0x321647c2	8.747465e-09
235	0x311da0d0	2.2937918e-09
236	0x31234c90	2.3763143e-09
237	0x315c421e	3.2051797e-09
238	0xb241d3b0	-1.1282211e-08
239	0x31ede41a	6.92354e-09
240	0xb0d14cc3	-1.5228568e-09
241	0x309adae5	1.1267188e-09
242	0xb09eb41a	-1.1547201e-09
243	0x31f53c73	7.1373107e-09
244	0x311ad212	2.252936e-09
245	0xb0ea044e	-1.7026964e-09
246	0x311fcdfa	2.325463e-09
247	0xb26f490f	-1.3928243e-08
248	0x301250d7	5.322937e-10
249	0xb13c1009	-2.7366716e-09
250	0x319934a2	4.4588697e-09
251	0xb08afaf4	-1.0112147e-09
252	0x320ade69	8.083227e-09
253	0x3220ffb6	9.371368e-09
254	0x32150079	8.673049e-09
255	0x3265abf4	1.3368652e-08

conv1.lin_pos_r.weight f4 [32, 64]
0	0x384eb657	4.9284045e-05
1	0x3a680eb6	0.000885229
2	0xbc00f8f9	-0.00787186
3	0xba0d32e2	-0.0005386305
4	0x38f22de6	0.000115480085
5	0x32f45d52	2.8447776e-08
6	0x32c56f1e	2.2984349e-08
7	0x31f33850	7.078633e-09
8	0x32012af6	7.5185564e-09
9	0x31d806c7	6.287198e-09
10	0x325f0d3f	1.298332e-08
11	0x322af23e	9.950382e-09
12	0xb20e057c	-8.266735e-09
13	0x322ec79e	1.0173521e-08
14	0xb16c5066	-3.4388221e-09
15	0x3016a59f	5.4805044e-10
16	0xb27e00dd	-1.4784942e-08
17	0x32372dcc	1.0662415e-08
18	0xb23a20c1	-1.0834072e-08
19	0x32d94e66	2.5297776e-08
20	0x330b285d	3.240017e-08
21	0xb2358a90	-1.0567092e-08
22	0xb241bd34	-1.1277098e-08
23	0xb2303657	-1.0256904e-08
24	0xb2376638	-1.0675244e-08
25	0x2febbedb	4.2881862e-10
26	0xb2ae9753	-2.032508e-08
27	0xb213578c	-8.576432e-09
28	0x31357fb2	2.6411553e-09
29	0x320a7a83	8.060513e-09
30	0xb236bcff	-1.0636767e-08
31	0x32b12386	2.0621666e-08
32	0x32151cb9	8.679472e-09
33	0xb10c1b67	-2.0388258e-09
34	0xb2116632	-8.463347e-09
35	0x3190c3dc	4.213218e-09
36	0xb1a9a29c	-4.937034e-09
37	0xb29a08a8	-1.7931896e-08
38	0xb2ef87a2	-2.788494e-08
39	0x32017dde	7.537407e-09
40	0xb287f0a3	-1.5825497e-08
41	0x324178ee	1.1261575e-08
42	0x32462347	1.1533138e-08
43	0xb28730a8	-1.5738195e-08
44	0x32218dab	9.403645e-09
45	0xb087d789	-9.883802e-10
46	0x3233cac1	1.0465272e-08
47	0x3104a77e	1.9303736e-09
48	0xb1c625b1	-5.7668434e-09
49	0xb2ac5a93	-2.0064624e-08
50	0x32e60a3b	2.6780176e-08
51	0x2f27ee92	1.5273319e-10
52	0x32816d46	1.5067268e-08
53	0x32270aa6	9.7231005e-09
54	0x31ba896e	5.4289364e-09
55	0x304c606f	7.435181e-10
56	0xb11f985c	-2.3224151e-09
57	0x32ccce05	2.3842412e-08
58	0xb050ac82	-7.591511e-10
59	0x300c2a54	5.0991855e-10
60	0x32334316	1.0434425e-08
61	0xb208cc68	-7.9627185e-09
62	0xb2867743	-1.5653887e-08
63	0x31923b39	4.255892e-09
64	0xbf41e2de	-0.75736797
65	0xbe28f2b3	-0.16498832
66	0xbe52f29f	-0.20600365
67	0x3bd35098	0.0064488165
68	0xbc18cc71	-0.009326086
69	0x3df95014	0.12173477
70	0xbd1968b7	-0.03745338
71	0x3da59d59	0.08086652
72	0x3d92f634	0.07175866
73	0x3dc2dbca	0.09514578
74	0x3e53191a	0.20615044
75	0x3e2dc876	0.16971001
76	0x3dae445c	0.08509132
77	0xbe9cd3c5	-0.30630317
78	0xbe1d2b38	-0.15348518
79	0x3e0d17e9	0.13778652
80	0xbc0476d4	-0.008084971
81	0x3e7a3c23	0.24437003
82	0x3ce27158	0.027641937
83	0xbe918fda	-0.28430063
84	0xbdca060f	-0.09864437
85	0xbd6e2e32	-0.058149524
86	0xbcadb83f	-0.02120602
87	0xbc8279af	-0.015927164
88	0x3c129586	0.008946782
89	0x3dcb6c26	0.09932737
90	0xbd586887	-0.05283406
91	0x3df0244f	0.11725675
92	0xbd9a53dd	-0.07535527
93	0xbd79b875	-0.060966928
94	0x3c2efad2	0.010679917
95	0x3dd987b5	0.10621587
96	0xbddb8acd	-0.107198335
97	0x3e011a8e	0.12607786
98	0x3e59f39e	0.21284339
99	0xbe70f842	-0.23532203
100	0x3dd42663	0.10358884
101	0xba8658f5	-0.00102499
102	0xbe342072	-0.17590502
103	0xbe11b6dc	-0.14229912
104	0x3d3dd021	0.046341065
105	0xbe2f7eae	-0.17138168
106	0x3c4dfbe8	0.012572266
107	0xbddfe203	-0.1093178
108	0x3cd19138	0.025581941
109	0x3d3c3f29	0.04595867
110	0xbd40a406	-0.047031425
111	0xbe0a3267	-0.1349579
112	0x3dd59126	0.104280755
113	0xbda14655	-0.07874743
114	0xbd49d48c	-0.049274966
115	0x3e07c245	0.13257702
116	0xbda955b6	-0.08268301
117	0xbd04e846	-0.032448076
118	0xbd564123	-0.052308213
119	0xbde39eb1	-0.11114252
120	0xbcf9f631	-0.030512901
121	0xbd19ab05	-0.037516613
122	0x3d809766	0.06278877
123	0xbde26595	-0.110545315
124	0xbd86c2b3	-0.06580105
125	0x3c82eca7	0.015981985
126	0x3d5a8c5a	0.053356506
127	0x3dcdb643	0.10044529
128	0xb402900c	-1.2159597e-07
129	0xb252cbc8	-1.2269943e-08
130	0x32191514	8.910565e-09
131	0xb21ce0b9	-9.131491e-09
132	0xb2c579be	-2.298918e-08
133	0x32389609	1.0744324e-08
134	0xb1d58cb2	-6.215111e-09
135	0x33159c2d	3.4833807e-08
136	0xb2bd627e	-2.2047285e-08
137	0x31f47837	7.1150015e-09
138	0x31ef8c92	6.9717965e-09
139	0xb2baa724	-2.1729257e-08
140	0x3268439f	1.3519553e-08
141	0x32d01139	2.4222219e-08
142	0xb19527ac	-4.340981e-09
143	0x32130e39	8.55976e-09
144	0xb21ccec6	-9.12741e-09
145	0xb247ac4a	-1.16224985e-08
146	0xb1839338	-3.8293386e-09
147	0x31a45d1f	4.783615e-09
148	0xb246e6a4	-1.15775585e-08
149	0x32512a1d	1.2174977e-08
150	0x31f9f3db	7.274577e-09
151	0x31eb915e	6.8559265e-09
152	0xb21c7bb3	-9.108521e-09
153	0x3105870b	1.943081e-09
154	0x318401f1	3.8419263e-09
155	0x32670578	1.3447213e-08
156	0x324d5554	1.1951972e-08
157	0x3229d1ce	9.884799e-09
158	0x314b132a	2.9551281e-09
159	0xb28bbeaf	-1.6268443e-08
160	0x321c978c	9.114853e-09
161	0x32c3e4f1	2.2805098e-08
162	0xb259b4d1	-1.2672175e-08
163	0xb26a7289	-1.3646635e-08
164	0xb1ca317a	-5.8845986e-09
165	0x31fb2dfe	7.31029e-09
166	0x323bdaa5	1.0934547e-08
167	0x320e7d06	8.293915e-09
168	0xb21a8ded	-8.99625e-09
169	0xb208b1b6	-7.956649e-09
170	0xb1c1d1c4	-5.640887e-09
171	0xb28fab17	-1.6725194e-08
172	0xb26214ff	-1.3159705e-08
173	0xb26b756b	-1.3705498e-08
174	0x31fd7a2d	7.377159e-09
175	0x328e4abf	1.6564966e-08
176	0x30964567	1.0933662e-09
177	0xb2047b0c	-7.711389e-09
178	0x31b8239a	5.3591522e-09
179	0x31ee1629	6.929231e-09
180	0xb1c1309c	-5.6225655e-09
181	0xb25329fb	-1.2291362e-08
182	0xb2199f67	-8.942016e-09
183	0x323dec97	1.1055042e-08
184	0x3221dbaf	9.421384e-09
185	0xadcbed6e	-2.3183868e-11
186	0xb2a2511e	-1.889617e-08
187	0xb217c3d6	-8.833885e-09
188	0xb1853bd8	-3.877613e-09
189	0xb29422bb	-1.7245261e-08
190	0x3104a5c8	1.9302764e-09
191	0xb213be79	-8.599835e-09
192	0x32da3f7e	2.5407413e-08
193	0xb3c66117	-9.237754e-08
194	0x3722cd64	9.703774e-06
195	0x374d6da2	1.2244478e-05
196	0xb29503dd	-1.734764e-08
197	0xafa6e4f2	-3.03579e-10
198	0x32803af0	1.4927963e-08
199	0x32a1f1e4	1.8852866e-08
200	0x325bca89	1.2793529e-08
201	0x2ff13c47	4.3880474e-10
202	0xb1b84c0e	-5.363751e-09
203	0xb0173a0d	-5.5015975e-10
204	0xb2194e5f	-8.923592e-09
205	0xb1e9ea6d	-6.8078436e-09
206	0x31f3dfb0	7.097661e-09
207	0xb1aa8d5c	-4.963722e-09
208	0xb187ea7e	-3.955676e-09
209	0x32596d2c	1.2655885e-08
210	0x3238f024	1.0764811e-08
211	0xb260d4c6	-1.3086895e-08
212	0xb29448cf	-1.7262577e-08
213	0xb0d6d696	-1.5631538e-09
214	0xb289e4d2	-1.6052955e-08
215	0x31fe9035	7.4087674e-09
216	0x318674c6	3.913189e-09
217	0x3202c1e4	7.6110815e-09
218	0x32351695	1.0540721e-08
219	0xb253e996	-1.2334928e-08
220	0xb10dd9bd	-2.064197e-09
221	0xb149f3cd	-2.9387934e-09
222	0xb20f060c	-8.32507e-09
223	0xb28561ee	-1.5527771e-08
224	0xb2807272	-1.4953205e-08
225	0x31382943	2.6798979e-09
226	0x3232b2ae	1.0401591e-08
227	0x31977ceb	4.40888e-09
228	0xb2456c55	-1.1491541e-08
229	0xb23b0445	-1.0885803e-08
230	0xb2534190	-1.2296724e-08
231	0x3266a218	1.3424618e-08
232	0x31b7f55f	5.3538964e-09
233	0x31751de7	3.566919e-09
234	0xb019e281	-5.5982957e-10
235	0xb1bc3f29	-5.4787006e-09
236	0xb095a61a	-1.0888386e-09
237	0xb238ec06	-1.0763875e-08
238	0x32b977da	2.1591337e-08
239	0x325bbb7f	1.2790109e-08
240	0xb27a3df2	-1.4566e-08
241	0x3238c8cc	1.07558655e-08
242	0x31a35a21	4.754171e-09
243	0x3275d8cf	1.43101735e-08
244	0x310d4e9d	2.0562887e-09
245	0x3240cde0	1.12226815e-08
246	0xb22f2325	-1.0194332e-08
247	0xb0ee3fdf	-1.7334932e-09
248	0xb1b8a252	-5.3735585e-09
249	0x32462a94	1.1534798e-08
250	0xb2707b93	-1.3997936e-08
251	0x3222ac8f	9.468876e-09
252	0x31a9ee1c	4.9456172e-09
253	0x32046f90	7.708778e-09
254	0x3082ddec	9.521819e-10
255	0x30d55bae	1.5523847e-09

conv1.lin_pos_r.bias f4 [32]
0	0xbd80aaae	-0.062825546
1	0x3d17c2be	0.037050955
2	0xbcd8ac6f	-0.02644941
3	0xbb952e93	-0.004552671
4	0xbcb680af	-0.022278158
5	0x3dc649ae	0.09682022
6	0x3d37d84c	0.04488401
7	0xbc9c4a00	-0.019078255
8	0x3e0279b7	0.12741743
9	0x3d6d7521	0.05797303
10	0xbc329374	-0.010899413
11	0xbd1644cb	-0.0366867
12	0xbc83c773	-0.016086316
13	0x3d7da9e9	0.061929617
14	0x3d6d02b4	0.057863906
15	0x3b017969	0.0019756204
16	0xb9cb1f9e	-0.00038742734
17	0x3c985fe0	0.018600404
18	0x3d43aca4	0.047772065
19	0xb8ab696a	-8.17355e-05
20	0x3ca18749	0.01971783
21	0x3d99bc45	0.07506613
22	0xbcbde799	-0.023181723
23	0x3dd1883b	0.10231062
24	0xb7f63a71	-2.93527e-05
25	0xb9bf4ddd	-0.00036488372
26	0xba229ab1	-0.00062028604
27	0x3a818434	0.0009881319
28	0x3d189e2b	0.037260216
29	0xbd140410	-0.036136687
30	0x3cd4c3e6	0.025972318
31	0xbd02d015	-0.031936724

conv1.lin_neg_l.weight f4 [32, 64]
0	0x33935e64	6.8623905e-08
1	0x311e8d04	2.3072184e-09
2	0xb1487e41	-2.9175597e-09
3	0xb2817f76	-1.5075539e-08
4	0x31e4939b	6.652454e-09
5	0x32347daa	1.0505952e-08
6	0xb18f2c4c	-4.1668837e-09
7	0xb3b5f782	-8.473491e-08
8	0x32fb5be9	2.9262042e-08
9	0xb17bf793	-3.6666037e-09
10	0xb1a2e119	-4.740411e-09
11	0xb2823833	-1.5159548e-08
12	0x32574926	1.2531279e-08
13	0x32210df1	9.374603e-09
14	0x3361ebc8	5.2601337e-08
15	0xb25cc411	-1.2850266e-08
16	0x323648f7	1.0610385e-08
17	0x32197f33	8.934694e-09
18	0x328087d3	1.4962927e-08
19	0x303693f5	6.6421474e-10
20	0x322cb42c	1.0052684e-08
21	0xb165add5	-3.3422698e-09
22	0x333a7ec5	4.3421796e-08
23	0x326cb923	1.3779103e-08
24	0x3083b6db	9.583475e-10
25	0x32ae5084	2.029288e-08
26	0x32a28b29	1.8922565e-08
27	0xb292f087	-1.7106016e-08
28	0xb1b5d54e	-5.2920432e-09
29	0x32300624	1.02459445e-08
30	0x311c5c1f	2.2753353e-09
31	0x323bb6a9	1.0926365e-08
32	0xb2b70a45	-2.1308674e-08
33	0xb0fceede	-1.8403303e-09
34	0x3153fe9f	3.0849276e-09
35	0x3193222b	4.2821475e-09
36	0x30e97752	1.6986894e-09
37	0xb29c03cd	-1.8162519e-08
38	0x31f40fd7	7.1031354e-09
39	0xaf4a5f9b	-1.8405759e-10
40	0x3154e4cf	3.0980123e-09
41	0x321a2802	8.9730765e-09
42	0x3239675b	1.0791918e-08
43	0xb1edbd52	-6.919131e-09
44	0xb1b263b5	-5.191817e-09
45	0x31cca4ce	5.9559175e-09
46	0x325886f6	1.2603541e-08
47	0x3301bda8	3.0207644e-08
48	0xb137ccbe	-2.6746387e-09
49	0x3287a86e	1.5792661e-08
50	0x3229e244	9.8885415e-09
51	0x3182814c	3.7981973e-09
52	0xb2a1e69a	-1.8847732e-08
53	0x320cefe6	8.203619e-09
54	0xb115adde	-2.1781186e-09
55	0x31d1e132	6.1083023e-09
56	0xb0c6e304	-1.4470918e-09
57	0x317fcf82	3.7225338e-09
58	0x329317c3	1.7123858e-08
59	0xb2c5d947	-2.3032625e-08
60	0x31842aa6	3.846554e-09
61	0xb1ecf065	-6.8958337e-09
62	0xb1f356a2	-7.08208e-09
63	0x329f7f8f	1.8568043e-08
64	0xbee4ce6b	-0.44688734
65	0xbdcea604	-0.10090259
66	0xbdaf6ed9	-0.085660644
67	0x3e82344f	0.25430533
68	0x3d8c94c5	0.06864313
69	0xbd8aa754	-0.067701966
70	0x3e07694d	0.13223763
71	0x3d9ab689	0.07554347
72	0xbd13a84f	-0.036049183
73	0x3df6db14	0.120535046
74	0xbe53cf38	-0.20684516
75	0x3e0a9451	0.1353314
76	0x3d41105b	0.04713474
77	0x3e918d22	0.28427988
78	0xbd5c6e2c	-0.053816006
79	0x3e22fe35	0.15917285
80	0xbdda600e	-0.10662852
81	0xbe016dd4	-0.12639552
82	0x3e416d7d	0.18889423
83	0x3e02a463	0.12758021
84	0xbe7eeb45	-0.24894436
85	0xbd6509a2	-0.05591739
86	0x3e595172	0.21222475
87	0xbe383e3f	-0.17992495
88	0x3b1e7120	0.0024176314
89	0x3e630529	0.22169937
90	0x3e1bd782	0.15218928
91	0x3dc2f34e	0.09519063
92	0x3d3c48d2	0.045967884
93	0x3cd18c53	0.025579607
94	0x3d228b39	0.039683554
95	0xbe6f2061	-0.23352195
96	0xbe5f4ac0	-0.21805859
97	0x3e999c6b	0.3000215
98	0x3d4d80ea	0.05017177
99	0xbe978c8f	-0.29599425
100	0x3dfe0efa	0.124052
101	0x3da6b1e6	0.081394
102	0xbea09034	-0.31360018
103	0xbb61c798	-0.0034451243
104	0x3e8474f8	0.2587049
105	0xbd3a9005	-0.045547504
106	0x3d18c31a	0.03729544
107	0x3e335c2c	0.1751563
108	0x3dbd9dd1	0.09258617
109	0x3cb8929d	0.022530848
110	0x3a8728d7	0.0010311854
111	0xbdc61ffc	-0.09674069
112	0x3d1f974f	0.03896266
113	0xbb73fe42	-0.0037230407
114	0x3e3fc89a	0.18728867
115	0xbe330130	-0.17480922
116	0x3dbe35ed	0.09287629
117	0x3df827f1	0.12116993
118	0x3dc92945	0.09822325
119	0x3dd56260	0.10419154
120	0x3b6965a4	0.003561356
121	0xbe427a24	-0.18991905
122	0x3dbf3b84	0.093375236
123	0x3dd84ee7	0.105619244
124	0x3e4d86a4	0.20070893
125	0xbda295a4	-0.07938698
126	0xbdbf0a50	-0.09328139
127	0xbd9d44ae	-0.07679115
128	0xbec7f123	-0.3905116
129	0x3d71f6b0	0.05907315
130	0x3e05fb95	0.13084252
131	0x3e114bfe	0.14189145
132	0xbdebd998	-0.11516112
133	0x3e073e10	0.13207269
134	0x3e3cdf81	0.18444635
135	0xbd919856	-0.07109134
136	0x3d452bbe	0.04813742
137	0xbde55dfc	-0.11199567
138	0xbe7ea0df	-0.24866055
139	0xbda5d8f1	-0.08098019
140	0x3d079c7c	0.03310822
141	0x3decf9d8	0.115710914
142	0x3dcb5170	0.09927642
143	0x3d2f24c8	0.042759687
144	0xbe1b3599	-0.15157165
145	0x3d2ab5f4	0.04167743
146	0x3bd16e73	0.0063913404
147	0x3cdb80d0	0.026794821
148	0xbc902515	-0.017595807
149	0x3e087a7b	0.13327973
150	0x3e749af9	0.23887242
151	0xbe133d54	-0.14378864
152	0x3dce9886	0.10087685
153	0x3c897aa5	0.016782114
154	0x3e089c67	0.13340913
155	0x3d991d26	0.07476263
156	0x3c74d7d6	0.014944037
157	0x3d97601e	0.0739138
158	0x3e193e69	0.14965214
159	0x3d819ea7	0.06329089
160	0xbcd04d2f	-0.025427429
161	0xbc8aa325	-0.016923496
162	0xbd0a424e	-0.03375464
163	0x3c5576fc	0.013028856
164	0xbd13ec9c	-0.03611432
165	0xbda328f4	-0.079667956
166	0xbbd242fc	-0.0064166766
167	0xbe04be39	-0.12963189
168	0x3da50c62	0.080590025
169	0x3d8ba491	0.06818498
170	0x3c444bec	0.011980992
171	0x3e80f21a	0.2518471
172	0xbe21b003	-0.157898
173	0xbd644fac	-0.055740044
174	0x3d21ee02	0.039533623
175	0x3dc54767	0.096327595
176	0xbcd8fe62	-0.026488487
177	0xbe49355b	-0.1964926
178	0xbe1f4467	-0.15553437
179	0x3e45d38a	0.19318977
180	0xbd7a4b64	-0.061107054
181	0xbe3a9178	-0.18219554
182	0x3d263675	0.040579278
183	0x3d3bc181	0.045838837
184	0x3c570ccf	0.013125612
185	0xbcbf4536	-0.023348432
186	0x3e145d74	0.14488775
187	0x3cef2e69	0.029196935
188	0xbe02cf38	-0.1277436
189	0xbd75a541	-0.05997205
190	0xbe0d5aee	-0.13804218
191	0xbd87b8f3	-0.06627073
192	0xbe3fe7d5	-0.1874078
193	0x3d4b4062	0.049621947
194	0x3e60d9c1	0.21958067
195	0x3d2eb60e	0.04265409
196	0xbda33551	-0.07969154
197	0x3e022443	0.12709145
198	0x3dc0e386	0.09418397
199	0xbdb99e45	-0.09063391
200	0xbd123c81	-0.035702232
201	0xbd13fb50	-0.036128342
202	0xbe6e8966	-0.23294601
203	0x3dca5636	0.09879725
204	0xbd6893cd	-0.05678158
205	0x3e1c3b86	0.15257081
206	0x3daa2322	0.08307482
207	0xbd5b77b8	-0.05358097
208	0xbce9f59f	-0.028559504
209	0xbe5825d0	-0.21108174
210	0x3d9e9df5	0.07744972
211	0x3ea779cc	0.3271011
212	0x3d32d2e8	0.043658167
213	0x3cdd95ed	0.02704903
214	0x3d6f4380	0.058413982
215	0x3dfe3d42	0.12414028
216	0xbceb3ea4	-0.028716393
217	0xbe0b82f4	-0.13624173
218	0xbccfdc81	-0.0253737
219	0xbde90c2f	-0.11379277
220	0x3d151642	0.03639818
221	0x3ea69cfc	0.32541645
222	0x3e685282	0.22687724
223	0x3db3c2a9	0.08777363
224	0xbe830ff1	-0.255981
225	0x3df5d60c	0.12003717
226	0xbce5bf72	-0.02804539
227	0x3e183c62	0.14866784
228	0x3c879950	0.016552597
229	0x3c809db5	0.0157002
230	0x3e267504	0.16255575
231	0xbb99f158	-0.00469796
232	0xbd05dc3c	-0.032680735
233	0xbb7b6a6d	-0.0038362995
234	0xbd2ac8b8	-0.041695327
235	0x3e8c5c4d	0.2741417
236	0x3dc0471e	0.093885645
237	0x3de139a8	0.10997325
238	0xbc8caa1e	-0.017170962
239	0x3e845dda	0.25852853
240	0x3e468fec	0.1939084
241	0xbdeb2b78	-0.114829004
242	0xbdebe6a9	-0.11518604
243	0xbe4f5980	-0.20248985
244	0xbda78c10	-0.08181012
245	0xbce44ccd	-0.027868653
246	0xbb89b0d3	-0.0042019873
247	0xbcae3e8b	-0.021270057
248	0x3d0b0c51	0.033947293
249	0x3d39d3df	0.04536807
250	0x3d92632e	0.07147823
251	0x3e049709	0.1294824
252	0xbdcbaad4	-0.09944692
253	0xbe032c48	-0.1280986
254	0xbe011d9e	-0.12608954
255	0x3d44add0	0.048017323

conv1.lin_neg_r.weight f4 [32, 64]
0	0xb99d056b	-0.0002994941
1	0x328d192a	1.6426004e-08
2	0xb2d0af92	-2.4294227e-08
3	0x32d81b5a	2.5158148e-08
4	0x32c55cec	2.2976074e-08
5	0x31c39cf7	5.6930918e-09
6	0x353db4d4	7.0671126e-07
7	0xba651438	-0.00087386696
8	0xb1575038	-3.1332217e-09
9	0xb19ec8c9	-4.621232e-09
10	0xb5a530b8	-1.2307637e-06
11	0x33558377	4.9712494e-08
12	0x30ac50e1	1.2537634e-09
13	0x327a26c4	1.45607295e-08
14	0x36040bb9	1.9676356e-06
15	0xb15fb856	-3.2555554e-09
16	0xb57c5171	-9.399583e-07
17	0xb0ca3fb4	-1.471554e-09
18	0xb3bde14c	-8.8419796e-08
19	0xb1acc0fc	-5.0277986e-09
20	0x3226c71b	9.707743e-09
21	0xaf9bdc36	-2.8350805e-10
22	0x333730da	4.2652438e-08
23	0x323650a7	1.06121325e-08
24	0x3382f654	6.0984036e-08
25	0xb16b698a	-3.4256993e-09
26	0xb1cd3cec	-5.9732113e-09
27	0x3284ceca	1.546086e-08
28	0xb26270c7	-1.3180574e-08
29	0xb2c953c6	-2.3437575e-08
30	0x315656a8	3.1190357e-09
31	0xb19ea008	-4.6165987e-09
32	0x32becfa7	2.221334e-08
33	0xb1dc203b	-6.406507e-09
34	0x32d0027b	2.4215515e-08
35	0x318441ba	3.849178e-09
36	0x31fb3b38	7.311794e-09
37	0x33044513	3.0796468e-08
38	0x338e75b5	6.633801e-08
39	0x320555c6	7.7611215e-09
40	0xb1e9ae8a	-6.8010353e-09
41	0x342bb6c5	1.5992107e-07
42	0xb31962e7	-3.571304e-08
43	0xb2442aaf	-1.1418407e-08
44	0xb258bee0	-1.2616255e-08
45	0xb2534e4f	-1.2299622e-08
46	0x31127a04	2.1315154e-09
47	0x32663b83	1.3401293e-08
48	0xb1118819	-2.117764e-09
49	0xb2819d9b	-1.5089247e-08
50	0x31872580	3.9332804e-09
51	0xb2b73923	-2.1329987e-08
52	0xb129c144	-2.4702596e-09
53	0xb2534c4e	-1.2299166e-08
54	0x32246a58	9.570236e-09
55	0x33084849	3.173071e-08
56	0x2dba7ce5	2.1201216e-11
57	0xb1b5e9d1	-5.294375e-09
58	0xb271473b	-1.4044242e-08
59	0xb23ddfc9	-1.1052131e-08
60	0x32b85ed3	2.146354e-08
61	0xb3236042	-3.803894e-08
62	0x31cd913c	5.9827965e-09
63	0x3105fe3f	1.949857e-09
64	0x3ea33ada	0.31880838
65	0xbcc973d6	-0.024591368
66	0x3de83870	0.113388896
67	0x3d1ea416	0.038730703
68	0x3d07e509	0.03317741
69	0x3d6517e1	0.055930976
70	0xbd85b663	-0.06528928
71	0x3e84e52a	0.25956088
72	0xbc374b82	-0.011187436
73	0xbdf3e629	-0.11909134
74	0xbdba9745	-0.091108836
75	0x3df12d2c	0.11776194
76	0x3deca2ec	0.115545124
77	0xbe27e14f	-0.16394542
78	0x3d4f24dd	0.050572265
79	0x3d57a37a	0.052646138
80	0xbdfbcc23	-0.12294795
81	0x3e2f47e6	0.17117271
82	0x3d5230cf	0.05131608
83	0xbdd698aa	-0.10478337
84	0x3e9b8d7a	0.30381376
85	0x3ca409b7	0.020024164
86	0xbea8eeb0	-0.32994604
87	0x3d3c93f9	0.046039555
88	0x3e2a5a48	0.16636002
89	0x3dac8b5e	0.0842502
90	0xbcf8291e	-0.030293044
91	0x3abf411e	0.001459155
92	0x3e1c4fc8	0.15264809
93	0x3e36b004	0.17840582
94	0x3e70abae	0.2350299
95	0x3dc0c4a3	0.094125055
96	0xbda71ddf	-0.08159994
97	0xbd4f0aaf	-0.050547298
98	0x3df76fe4	0.12081888
99	0xbe034285	-0.12818344
100	0xbdd912b6	-0.10599272
101	0x3dc7443d	0.09729812
102	0xbd124618	-0.035711378
103	0xbe5a2a62	-0.2130523
104	0x3e5f751c	0.21822017
105	0xbd635640	-0.055502176
106	0x3d826bd7	0.06368225
107	0xbe58fbf3	-0.21189861
108	0xbde12125	-0.1099265
109	0x3da0dad5	0.07854239
110	0x3dd4f7b9	0.10398812
111	0x3df4f22f	0.11960255
112	0xbdaf2c8c	-0.085534185
113	0x3b28f70c	0.0025782017
114	0x3e13317a	0.14374343
115	0x3cc8b24f	0.024499087
116	0xbe6e2d6f	-0.23259519
117	0x3dc9b3b0	0.09848726
118	0x3c5e2ed1	0.013560967
119	0xbd7686e1	-0.060187224
120	0x3dbb05fa	0.09131999
121	0x3d7a1ac9	0.0610607
122	0xbc2a92d4	-0.010410983
123	0x3d2af37d	0.041736115
124	0xbe02232c	-0.1270873
125	0x3dc10ab2	0.09425868
126	0xbccb8ff9	-0.024848925
127	0xbca345b7	-0.019930704
128	0x3c8d8487	0.017275108
129	0x3d9b143e	0.0757222
130	0xbcfcd447	-0.03086294
131	0xbe4e8b7e	-0.201704
132	0x3dd781af	0.10522782
133	0x3c8b8b96	0.017034333
134	0xbe11b614	-0.14229614
135	0x3d9693d2	0.07352413
136	0xbee8fb26	-0.4550411
137	0x3cafa93e	0.021443006
138	0x3e5658a5	0.20932253
139	0x3dbb372d	0.09141383
140	0x3cc35781	0.023845436
141	0xbddc568a	-0.107586935
142	0xbd3efe0f	-0.046629008
143	0x3d692b7f	0.056926247
144	0xbd7d70e1	-0.061875228
145	0xbcf3673a	-0.029712308
146	0x3e6494e9	0.2232243
147	0x3b7fbd2e	0.0039022672
148	0x3e39f0a5	0.18158205
149	0xbd0d6a65	-0.034525294
150	0xbde6f65a	-0.112774566
151	0x3d9963ba	0.074897245
152	0xbe296f8d	-0.1654646
153	0xbbf4d454	-0.0074716005
154	0xbd42c8cd	-0.04755478
155	0x3d2cb6bc	0.042166457
156	0xbe3f2952	-0.18668106
157	0x3db87bb7	0.09007972
158	0x3c970232	0.018433664
159	0xbb620cb7	-0.0034492442
160	0xbbb8fb2d	-0.005645177
161	0xbd1096dc	-0.03530012
162	0x3dcfcfa0	0.10147023
163	0xbd9715a3	-0.07377174
164	0x3dd513b5	0.104041494
165	0x3c482e1a	0.012218023
166	0xbdf80dc3	-0.12112
167	0x3e28dbb7	0.16490065
168	0xbc3ef890	-0.011655942
169	0xbdf697ab	-0.12040647
170	0xbd8ad9da	-0.06779833
171	0xbd37e0ca	-0.04489211
172	0x3c9bc409	0.019014375
173	0x3df058e6	0.11735706
174	0xbdcb4b00	-0.099264145
175	0x3d964624	0.07337597
176	0x3dea98a4	0.11454895
177	0x3e165cf7	0.14683901
178	0xbccffad8	-0.025388166
179	0xbe088a08	-0.13333905
180	0xbbe6ea11	-0.007046946
181	0x3e0ae90b	0.13565461
182	0xbda9e20b	-0.082950674
183	0xbde948cd	-0.11390839
184	0x3e1badf6	0.1520308
185	0x3e004df5	0.12529738
186	0xbdd1682f	-0.102249496
187	0x3d32decf	0.043669518
188	0x3d86fdbf	0.06591367
189	0xbb3a4e3c	-0.002842798
190	0x3e04e3b2	0.12977484
191	0xbd27589b	-0.040855985
192	0xbf0bb4b8	-0.5457263
193	0xbce1f2cc	-0.027581595
194	0xbe213645	-0.15743358
195	0xbba799de	-0.005114778
196	0xbd926c4e	-0.07149564
197	0xbe3f8b2e	-0.18705437
198	0xbe786690	-0.24257874
199	0xbdef678c	-0.11689672
200	0xbe9f021f	-0.31056306
201	0x3cd12a48	0.025532857
202	0x3e0cf3bf	0.13764857
203	0x3cdd632f	0.027024833
204	0xbc493618	-0.012280963
205	0xbe98557b	-0.29752716
206	0xbd8dd137	-0.0692467
207	0xbd9fe00b	-0.07806405
208	0x3dbb8cbf	0.091577046
209	0x3d96a36c	0.07355389
210	0x3dded2f5	0.108800806
211	0x3c553182	0.013012292
212	0x3e52389f	0.20529412
213	0x3d82a1cd	0.06378517
214	0x3dd6a59d	0.10480807
215	0x3dcd638b	0.10028752
216	0xbc420759	-0.011842572
217	0xba211582	-0.00061448675
218	0x3d578808	0.052619964
219	0xbd42eaa1	-0.04758704
220	0xbd93c4f9	-0.07215304
221	0x3db55edf	0.08855986
222	0x3dae7865	0.08519057
223	0xbd25f7a6	-0.04051938
224	0x3d900a3a	0.070332006
225	0xbe55caea	-0.20878187
226	0xbdb0391d	-0.086046435
227	0x3e1f4f97	0.15557705
228	0x3e96a181	0.29420093
229	0x3d886ab8	0.0666098
230	0xbe81b361	-0.25332168
231	0xbd584794	-0.052802637
232	0x3e8a1b62	0.26974016
233	0xba56c411	-0.00081926683
234	0xbda5eceb	-0.08101829
235	0xbdaed66e	-0.08536993
236	0xbe7c7b36	-0.24656376
237	0x3e0f4404	0.1399079
238	0xbdc1c248	-0.09460884
239	0x3d377a1a	0.04479418
240	0xbe4072c5	-0.18793781
241	0xbd5af83b	-0.053459387
242	0xbdb0231d	-0.08600447
243	0x3e0d9934	0.13827974
244	0x3d2b1627	0.041769173
245	0x3cdc846c	0.026918612
246	0x3b8c3058	0.004278224
247	0x3e1c3a93	0.1525672
248	0x3e19a35b	0.15003721
249	0xbe2eead6	-0.1708177
250	0xbbbcf2cd	-0.005766249
251	0xbda0a947	-0.07844787
252	0x3c523be3	0.012831661
253	0x3dc67abb	0.09691378
254	0xbd00bafe	-0.03142833
255	0xbe7f259e	-0.24916694

conv1.lin_neg_r.bias f4 [32]
0	0xbd6a57d2	-0.05721266
1	0x3d975163	0.0738857
2	0x3d70f030	0.05882281
3	0x3dcf60bc	0.101258725
4	0x3cefee89	0.029288547
5	0xbc63fbad	-0.013914985
6	0x396a454e	0.00022341797
7	0xbca08eba	-0.019599307
8	0x3a45a4a4	0.0007539487
9	0x3d0a307d	0.03373765
10	0xbbaf824e	-0.0053561097
11	0x3d756faf	0.059920963
12	0xbd63dfca	-0.055633344
13	0xb647af89	-2.9755486e-06
14	0x3cf1d51c	0.029520564
15	0xb91a675a	-0.00014725086
16	0xbc3cf1f4	-0.0115322955
17	0xbb9c3724	-0.0047673155
18	0x3b96a64d	0.0045974613
19	0x3deadcc5	0.1146789
20	0xbc398966	-0.011324262
21	0xbd2e3906	-0.04253485
22	0x3d49c3a3	0.04925884
23	0x3d0c51c9	0.034257684
24	0xbdcb0b6c	-0.09914288
25	0xbc83a90d	-0.01607182
26	0x3dfee70e	0.12446414
27	0x3d3c17c2	0.045921095
28	0x3d870e98	0.065945804
29	0xbc0ee07a	-0.008720512
30	0x3a481cdd	0.00076336955
31	0xbc14042a	-0.009034196

convs.0.lin_pos_l.weight f4 [32, 64]
0	0x340ba1fd	1.3004315e-07
1	0x3e84bdcb	0.2592605
2	0xb24efd08	-1.2048311e-08
3	0xb40e98bf	-1.3280349e-07
4	0xb8a42e23	-7.828723e-05
5	0x3e5dd855	0.21664555
6	0x3e39196e	0.18076107
7	0xb22bc4b5	-9.998236e-09
8	0x3e4dd846	0.20102033
9	0xbe867ab9	-0.26265505
10	0xbc93320d	-0.017968202
11	0x339f6777	7.4228346e-08
12	0xbd089527	-0.033345368
13	0x3e35ad28	0.17741835
14	0xbe99ab17	-0.30013344
15	0xbe2b5711	-0.16732432
16	0xbc11349f	-0.0088626435
17	0xbe8573f2	-0.26065022
18	0x3d8a2bf6	0.06746666
19	0xb2a29c25	-1.8930288e-08
20	0xbe108d2e	-0.14116356
21	0x3f2cec0d	0.67547685
22	0xb280ee9c	-1.5009668e-08
23	0x3e9105a4	0.28324616
24	0x3610bdd4	2.1568167e-06
25	0x31728506	3.529125e-09
26	0xb2cf5826	-2.4138057e-08
27	0xbe3fd00f	-0.18731712
28	0xbe592473	-0.2120531
29	0x357e0587	9.4630417e-07
30	0x3e5c0d74	0.21489507
31	0xb30cb00c	-3.2756404e-08
32	0x31c7dbe8	5.8166627e-09
33	0x3df1ad92	0.11800684
34	0x3e77bff3	0.24194317
35	0xbd9eb58d	-0.07749472
36	0xbdd2b742	-0.1028886
37	0xb683b0b6	-3.924676e-06
38	0xbe1a6980	-0.15079308
39	0x338148a4	6.020244e-08
40	0xbe3c6dab	-0.1840121
41	0x3ca0b233	0.019616222
42	0x3828242c	4.008801e-05
43	0x3eabb858	0.3353908
44	0x3207b9f1	7.900312e-09
45	0xb1803d7d	-3.7322807e-09
46	0xbe78bd0f	-0.2429087
47	0xb2892265	-1.596454e-08
48	0xb25cc002	-1.2849343e-08
49	0x3349afb2	4.6958753e-08
50	0xbd0331b5	-0.032029826
51	0x3eefb0d1	0.46814588
52	0xb1dd0e03	-6.4335395e-09
53	0x32774099	1.439198e-08
54	0x3e9c40c6	0.30518168
55	0x3d08b5b6	0.033376418
56	0xbc53bc11	-0.0129232565
57	0x3254ce8b	1.23869865e-08
58	0xbe4b7020	-0.19866991
59	0x3dc28057	0.09497135
60	0x3e2ea111	0.1705363
61	0xb1ac7309	-5.018937e-09
62	0x3d9ff8b8	0.07811111
63	0x31c91cf6	5.8531624e-09
64	0x33181849	3.5412345e-08
65	0x3d280c3f	0.041027304
66	0xb1c1100f	-5.618865e-09
67	0xb2a2fbae	-1.8973733e-08
68	0x37dcc163	2.6316096e-05
69	0xbcf7a331	-0.030229183
70	0x3d1961a5	0.037446637
71	0xb011cb0b	-5.3039234e-10
72	0xbd285c38	-0.04110357
73	0x3e4350f8	0.19073856
74	0x3e20279a	0.15640107
75	0x33559eac	4.973724e-08
76	0x3d3717e9	0.044700537
77	0xbda1b1a6	-0.07895212
78	0x3e86248f	0.26199767
79	0xbe4ab680	-0.1979618
80	0x3e3d696a	0.18497244
81	0xbe72b7bd	-0.23702903
82	0xbd333ba1	-0.04375804
83	0xaf218f06	-1.4693677e-10
84	0xbe88db91	-0.26730016
85	0x3d50736d	0.05089133
86	0xb2c15e71	-2.2511104e-08
87	0xbee237fe	-0.44183344
88	0x32c63de5	2.307838e-08
89	0xb16bd3ac	-3.4317322e-09
90	0xb1c849f7	-5.829175e-09
91	0x3eb50926	0.35358542
92	0x3ecc23ce	0.39871067
93	0x325b71bf	1.2773341e-08
94	0xbcc26ab1	-0.023732515
95	0x316632a4	3.349819e-09
96	0xb28624f2	-1.5616454e-08
97	0x3eaa06ba	0.33208257
98	0x3d5e9ec6	0.054350637
99	0x3e335935	0.17514499
100	0xbeea61a5	-0.45777622
101	0x356ab7c6	8.743922e-07
102	0x3db242d9	0.087041564
103	0xb30a032f	-3.2133524e-08
104	0x3e425452	0.18977478
105	0x3e1af7a4	0.1513353
106	0x38045213	3.154769e-05
107	0xbe714abc	-0.23563665
108	0xb2096da9	-7.999383e-09
109	0xb1304f5e	-2.5656486e-09
110	0xbd506f3b	-0.050887328
111	0x3296d643	1.7559733e-08
112	0xae1c3364	-3.5515937e-11
113	0x333c181b	4.3794085e-08
114	0xbe2c7cee	-0.16844532
115	0x3e9e77d7	0.30950806
116	0xb28bfbd8	-1.6296255e-08
117	0xb217b588	-8.830632e-09
118	0x3e60c9fe	0.21952054
119	0x3e904398	0.2817657
120	0xbca7190a	-0.020397682
121	0x31bc3055	5.477015e-09
122	0xbca64a3f	-0.020299075
123	0x3e6f22cc	0.23353118
124	0xbe1fa787	-0.1559125
125	0xb1c35303	-5.6846843e-09
126	0xbda95e59	-0.082699485
127	0xb1f7996f	-7.2060895e-09
128	0xb23dbf42	-1.1044735e-08
129	0x32f9c862	2.9078539e-08
130	0x315e39a1	3.233801e-09
131	0x30c94ed2	1.4647077e-09
132	0xb20064ed	-7.4735285e-09
133	0xb20d1085	-8.211036e-09
134	0xb2244210	-9.561077e-09
135	0xb188b191	-3.978308e-09
136	0xb21afb3f	-9.0211065e-09
137	0x327dbde9	1.4769719e-08
138	0xb1aeff06	-5.0930593e-09
139	0xb29ca6bc	-1.8236612e-08
140	0x323d3d0a	1.1015127e-08
141	0xb28ac51c	-1.615495e-08
142	0x325bf80f	1.280388e-08
143	0x32bb5be3	2.181145e-08
144	0xb2357b12	-1.056357e-08
145	0x31f9c9c7	7.269793e-09
146	0xb0ff73f6	-1.858665e-09
147	0xb21de3e8	-9.190423e-09
148	0xb2ec1e9e	-2.7487939e-08
149	0xb2ff607f	-2.9729788e-08
150	0x3227bdff	9.7638795e-09
151	0xb175d9e1	-3.5776042e-09
152	0xb2814382	-1.5048276e-08
153	0xb140b207	-2.8040874e-09
154	0x300e4868	5.1762195e-10
155	0xb12f1827	-2.547958e-09
156	0xb21da046	-9.175045e-09
157	0xb1c41132	-5.7063057e-09
158	0x31e0ba37	6.540428e-09
159	0x31e8d694	6.7764834e-09
160	0xb1677d70	-3.3686227e-09
161	0xb1a70cd0	-4.8617963e-09
162	0xb2871180	-1.5724027e-08
163	0x32203058	9.324218e-09
164	0xb2d2621d	-2.4491834e-08
165	0xb03f5ef4	-6.962033e-10
166	0xb2163a75	-8.744441e-09
167	0xaeaafc2d	-7.7755004e-11
168	0xb268b732	-1.3545831e-08
169	0x32f47e1b	2.8462685e-08
170	0xb061277c	-8.1910634e-10
171	0xb193e603	-4.3044124e-09
172	0x31a4959f	4.790038e-09
173	0xb0b27468	-1.2984289e-09
174	0xb26b8ea4	-1.3711233e-08
175	0x3060432a	8.158617e-10
176	0xb1a5c53b	-4.8245545e-09
177	0xb1f0e43a	-7.0108657e-09
178	0xb25f6b71	-1.3004738e-08
179	0xb20d3723	-8.219817e-09
180	0x31f3c000	7.0940587e-09
181	0xb1e91257	-6.7832775e-09
182	0x31e3721f	6.6195436e-09
183	0xb0626f3d	-8.23764e-10
184	0xb155ee46	-3.1131022e-09
185	0xb10a3b94	-2.011551e-09
186	0x325cc8be	1.2851329e-08
187	0xb1226428	-2.3631035e-09
188	0x3249d04e	1.1747103e-08
189	0x31635b3d	3.308471e-09
190	0x3180b4fe	3.7458667e-09
191	0x31f62fc3	7.164972e-09
192	0x3122fc1e	2.3717415e-09
193	0xbf01cc95	-0.5070279
194	0x30c0f6d6	1.4039994e-09
195	0x321a438a	8.979336e-09
196	0xb89bfb30	-7.437763e-05
197	0xbe34d4e1	-0.17659332
198	0xbe7d0baf	-0.24711488
199	0x320d4cc4	8.224735e-09
200	0xbdef9c73	-0.11699762
201	0xbee0f162	-0.4393416
202	0xbe266d71	-0.16252686
203	0xaf7d15c4	-2.3017949e-10
204	0xbd61c894	-0.055122927
205	0xbee892b4	-0.45424426
206	0xbee09959	-0.43866995
207	0x3e7c8572	0.2466028
208	0x3e566b7e	0.20939443
209	0x3dbb8424	0.09156063
210	0x3d735f7d	0.059417237
211	0x321914cf	8.9105034e-09
212	0x3eac4c33	0.33651885
213	0xbeb97537	-0.3622224
214	0xb282219c	-1.5149276e-08
215	0x3d6532a1	0.055956487
216	0x36ad4179	5.163424e-06
217	0x31a7af8a	4.880296e-09
218	0x309efe53	1.1568296e-09
219	0x3dd68836	0.10475199
220	0x3c6972f0	0.014248595
221	0x319137a5	4.2263815e-09
222	0x3ea5655f	0.32303903
223	0xb18d8488	-4.118707e-09
224	0xb28c7f7e	-1.6356122e-08
225	0xbcf889d9	-0.030339168
226	0xbc9aaf5c	-0.018882446
227	0x3d5d6ee2	0.054060824
228	0x3dfc96ea	0.12333472
229	0x36695bfe	3.4773252e-06
230	0xbe1ec111	-0.15503336
231	0xb10886df	-1.986727e-09
232	0xbd8fcb8d	-0.07021246
233	0x3e3aa14b	0.18225591
234	0xb6ad0199	-5.1559878e-06
235	0xbe0440f1	-0.12915398
236	0xb0795837	-9.0711033e-10
237	0xb25e932f	-1.2955566e-08
238	0x3e6ed11b	0.23321955
239	0x31d2f70f	6.1398917e-09
240	0x318c5126	4.0837618e-09
241	0xb20eaca2	-8.30474e-09
242	0x3c84e8d6	0.016224306
243	0x3e0f305a	0.13983288
244	0x30900da9	1.0481261e-09
245	0x31351df4	2.6355993e-09
246	0x3d563698	0.05229816
247	0xbe960381	-0.29299548
248	0x3c9b0676	0.01892398
249	0x3128c8c2	2.4561335e-09
250	0x3d5c1168	0.053727537
251	0x3de1c9ef	0.11024844
252	0x3db63d92	0.08898462
253	0x32607f71	1.3067493e-08
254	0xbb6ca733	-0.00361104
255	0x3161cdee	3.2858867e-09

convs.0.lin_pos_r.weight f4 [32, 32]
0	0xb2a7257f	-1.945841e-08
1	0x3d412700	0.047156334
2	0xb293d7ff	-1.7211276e-08
3	0x32fc95d4	2.9404795e-08
4	0xb83bd17c	-4.4779372e-05
5	0xbce4a956	-0.027912777
6	0xbe16c66e	-0.14724132
7	0xb1c2b59c	-5.6667897e-09
8	0x3e700a38	0.23441398
9	0xbeb41b7d	-0.35177222
10	0x3c625afd	0.013815639
11	0x339f4d5c	7.418086e-08
12	0xbe388379	-0.18018903
13	0xbde74454	-0.112923294
14	0xbeeaa00d	-0.45825234
15	0xbcd2741e	-0.025690135
16	0x3e1002d8	0.14063585
17	0xbe38f8c7	-0.18063651
18	0x3d4c1f7f	0.049834725
19	0xb1113959	-2.1132875e-09
20	0xbde49f81	-0.111632355
21	0x3f02c2f2	0.5107871
22	0xb3898565	-6.403824e-08
23	0x3eca8c32	0.39560086
24	0x33e5dd29	1.0703872e-07
25	0x331a1edc	3.5883986e-08
26	0x330894cd	3.18003e-08
27	0x3d57f640	0.052725077
28	0x3decde12	0.11565794
29	0xb3079b83	-3.1573574e-08
30	0xbe1c00b6	-0.15234646
31	0x324901af	1.1700123e-08
32	0xb25e3e2e	-1.2936239e-08
33	0xbed6de4e	-0.4196648
34	0xb1c9f781	-5.878008e-09
35	0xb29bedc2	-1.8152495e-08
36	0xb6d421fc	-6.3220486e-06
37	0xbe228024	-0.15869194
38	0xbef36673	-0.475391
39	0xb2bf30d5	-2.2257533e-08
40	0x3d10d436	0.03535863
41	0x3ea3b7a4	0.31976044
42	0xbd26f8b3	-0.04076452
43	0x338096f0	5.98792e-08
44	0xbe9e9d36	-0.30979317
45	0x3d247ae5	0.040156264
46	0x3f05e7ae	0.5230664
47	0xbd26f07d	-0.04075669
48	0x3ea5520f	0.32289168
49	0xbf25dde2	-0.6479169
50	0xbeae025b	-0.33986172
51	0x32ad5403	2.0178055e-08
52	0xbec58c2c	-0.38583505
53	0xbe611187	-0.21979342
54	0xb2aa3b20	-1.9817492e-08
55	0xbefe8d19	-0.49717024
56	0xb59e11df	-1.1777119e-06
57	0xb34f992b	-4.833525e-08
58	0xb361c684	-5.2567444e-08
59	0x3f065bb4	0.5248368
60	0x3dce620f	0.10077297
61	0xb27d7023	-1.4752035e-08
62	0xbe3462e3	-0.17615847
63	0xb2a8ef1b	-1.9666507e-08
64	0xb0bdf82b	-1.3822093e-09
65	0xb2df0d0e	-2.5966553e-08
66	0x32ed0629	2.7593233e-08
67	0x327cbf86	1.4711878e-08
68	0x31de5673	6.4708785e-09
69	0x31ce898a	6.0110255e-09
70	0x324bfd36	1.1873729e-08
71	0x320e7392	8.2917655e-09
72	0xb2aa16e9	-1.9801023e-08
73	0xb23dd9bd	-1.1050756e-08
74	0xb2ae7adb	-2.0312134e-08
75	0x332e8802	4.063623e-08
76	0x31c854e2	5.830416e-09
77	0x327edb68	1.4834633e-08
78	0x32030171	7.625531e-09
79	0xb1fa6e64	-7.2885076e-09
80	0xb29fd99c	-1.8608993e-08
81	0xb1daa50f	-6.3634e-09
82	0x3250b33d	1.21479475e-08
83	0xb299852a	-1.78721e-08
84	0xb308c97c	-3.1848217e-08
85	0xb1b2aca4	-5.200109e-09
86	0xb234a08f	-1.0513886e-08
87	0xb1ed62fc	-6.908861e-09
88	0xb186f9f6	-3.9283305e-09
89	0x32b7a6a5	2.1379785e-08
90	0x30fa3e9e	1.8207691e-09
91	0xb2e283b7	-2.636976e-08
92	0xb13fd5cb	-2.7915685e-09
93	0xb2c74e1d	-2.320217e-08
94	0xb231db7e	-1.0352663e-08
95	0x3182e3e8	3.809408e-09
96	0xb1b75075	-5.335148e-09
97	0x3ec2382f	0.3793349
98	0x30969c60	1.0958381e-09
99	0xb2c2b026	-2.2664675e-08
100	0xb8706a92	-5.731971e-05
101	0xbc85bfc2	-0.016326789
102	0x3f229f46	0.6352428
103	0xb1925ca0	-4.2596895e-09
104	0x3ddaf82b	0.106918655
105	0x3e0a3e04	0.1350022
106	0x3e6a1d02	0.22862628
107	0x32275f7a	9.742388e-09
108	0x3edc709c	0.43054664
109	0x3da66cba	0.08126207
110	0x3e8790e9	0.26477745
111	0xbeb6ea7a	-0.35725766
112	0xbee94ae1	-0.4556494
113	0x3cd15e4c	0.02555766
114	0x3cb33c95	0.021879474
115	0xb1c325ad	-5.67953e-09
116	0x3e3196ca	0.17342678
117	0x3ec66d8e	0.3875546
118	0xb0c8f8b6	-1.4622603e-09
119	0x3d82d02e	0.063873634
120	0xb1483573	-2.9134213e-09
121	0xb15913c3	-3.158889e-09
122	0xaee190d0	-1.0257539e-10
123	0xbe3aa251	-0.18225981
124	0x3de95a69	0.113941975
125	0xb1e1901e	-6.564746e-09
126	0x3ea9b247	0.33143827
127	0x32874304	1.5746544e-08
128	0x32816bdb	1.5066624e-08
129	0xb8593965	-5.1790284e-05
130	0x3218f62c	8.9035375e-09
131	0xb00bd00b	-5.086355e-10
132	0x325b23dd	1.2755632e-08
133	0xb97a95fd	-0.00023897733
134	0xb8a173f7	-7.6986784e-05
135	0x304ff0cc	7.5648354e-10
136	0xb97c616d	-0.00024068887
137	0xb90fe1a0	-0.00013721595
138	0xb84e39d6	-4.916809e-05
139	0xb2645de4	-1.3292695e-08
140	0x3a18285c	0.0005804354
141	0x37017880	7.717055e-06
142	0xb7b83ad5	-2.1961905e-05
143	0x38dd1276	0.0001054154
144	0xb8f59fa1	-0.000117122436
145	0xb9be4cf4	-0.0003629696
146	0xb957647b	-0.0002054143
147	0x309809f0	1.106228e-09
148	0xb91089c4	-0.00013784232
149	0xb8a68082	-7.939433e-05
150	0x316804ce	3.3763174e-09
151	0xb92c21c6	-0.0001641578
152	0xb281aff1	-1.5097585e-08
153	0x328257e2	1.5173956e-08
154	0x31f40948	7.10239e-09
155	0xb914c0a2	-0.00014186141
156	0xb8ea500d	-0.000111729
157	0xb2031b2f	-7.631384e-09
158	0xb922e601	-0.00015535207
159	0xb0be4df1	-1.3846472e-09
160	0xb2c8239c	-2.3299258e-08
161	0xbeb0b586	-0.3451349
162	0xb1cb7c2c	-5.9221943e-09
163	0xb1ebab06	-6.8588433e-09
164	0xb68a9049	-4.1295175e-06
165	0xbe895cf4	-0.2682873
166	0x3e91ff66	0.28515166
167	0x3328b3e6	3.9279165e-08
168	0x3ea3feab	0.32030234
169	0x3e5c7091	0.21527316
170	0xbcb26460	-0.021776378
171	0x340edde1	1.33055e-07
172	0xbe7162a7	-0.23572789
173	0xbf1af138	-0.6052432
174	0x3e4b7ce5	0.19871862
175	0x3d64b3a5	0.055835385
176	0x3dbaf43c	0.09128615
177	0xbed87966	-0.4228012
178	0xbf1342a0	-0.57523537
179	0xb2a70eb0	-1.9448038e-08
180	0xbed59fb4	-0.41723406
181	0xbd4f21aa	-0.050569214
182	0xb3e24a20	-1.0537428e-07
183	0xbd14fd91	-0.036374632
184	0x332dae40	4.043818e-08
185	0x32e4103e	2.655008e-08
186	0xb33a6be1	-4.3404615e-08
187	0x3df5d7c0	0.12004042
188	0xbefe4d9a	-0.4966858
189	0xb312bf79	-3.4167417e-08
190	0x3ebb8dfb	0.3663176
191	0xb2a67e03	-1.9382247e-08
192	0x328d950a	1.6482335e-08
193	0xb3d91af0	-1.010975e-07
194	0x2f92dced	2.6714223e-10
195	0x30871086	9.827239e-10
196	0xb1aaf4f0	-4.9754973e-09
197	0x347cb387	2.353464e-07
198	0xb4f4f253	-4.5624856e-07
199	0x30c2136b	1.4120877e-09
200	0xb4fccb6d	-4.708667e-07
201	0x32b3a3fd	2.0912916e-08
202	0xb5ffc23d	-1.9055511e-06
203	0xb1f52990	-7.1351636e-09
204	0xb5637a92	-8.4742453e-07
205	0xb5fc3d38	-1.879328e-06
206	0xb49e8d5e	-2.9532652e-07
207	0xb5305e80	-6.5702625e-07
208	0x3562f553	8.4548554e-07
209	0xb5975e9d	-1.1277913e-06
210	0xb4e0b949	-4.1858064e-07
211	0x30b28648	1.298937e-09
212	0x3529d63c	6.326916e-07
213	0xb4cf727d	-3.8640056e-07
214	0xb2222cd1	-9.439831e-09
215	0xb4c5122f	-3.670734e-07
216	0x32767a6b	1.4346919e-08
217	0xb234b679	-1.0518868e-08
218	0x31065cf5	1.9552406e-09
219	0x3346ec35	4.6315296e-08
220	0x3552affa	7.8487176e-07
221	0xb290cb72	-1.6856323e-08
222	0xb56a3ad3	-8.7257393e-07
223	0x323be8d6	1.0937773e-08
224	0x32a0bf27	1.8713378e-08
225	0xb848929c	-4.7820256e-05
226	0xb19a2aa2	-4.4868367e-09
227	0x31a9cf05	4.9420827e-09
228	0xb29fc116	-1.8597841e-08
229	0x3a8c00e5	0.0010681419
230	0x3604d06c	1.979085e-06
231	0x329f56c9	1.8549501e-08
232	0x38ba81ab	8.893324e-05
233	0x38a64384	7.9280726e-05
234	0xb8fd08f4	-0.00012065648
235	0xb2bf2f79	-2.2256915e-08
236	0xb66e3380	-3.549474e-06
237	0x38687660	5.5423356e-05
238	0xb67a1136	-3.726292e-06
239	0x38197838	3.6590005e-05
240	0x38cc6f13	9.748167e-05
241	0x37bdc290	2.2621156e-05
242	0x382031fa	3.8193517e-05
243	0x31e7173d	6.7256267e-09
244	0x3981d0e2	0.00024760427
245	0xb80c84a6	-3.350214e-05
246	0x322c6a94	1.0035951e-08
247	0x390e62fc	0.0001357905
248	0x30843237	9.618536e-10
249	0xb22a5fed	-9.917113e-09
250	0x32978f52	1.7643888e-08
251	0x390f6130	0.00013673748
252	0x38fc22cd	0.000120227785
253	0x31ef84af	6.9709e-09
254	0xb65e4b28	-3.3124325e-06
255	0x3170265a	3.4946397e-09

convs.0.lin_pos_r.bias f4 [32]
0	0x3e71497b	0.23563187
1	0x3e38f77b	0.18063156
2	0xba4620c4	-0.0007557983
3	0x3b358852	0.0027699661
4	0xb9eaec3f	-0.00044807975
5	0x3e6a95fd	0.22908778
6	0x3495f6c2	2.7932953e-07
7	0xba6a490e	-0.00089372776
8	0xbcaa11d9	-0.020760464
9	0xb74daf6f	-1.22597985e-05
10	0xbd2a2f87	-0.04154923
11	0xb686c266	-4.016142e-06
12	0x3da73a0e	0.0816537
13	0xbca4ad8d	-0.020102287
14	0xbd0e9541	-0.03481031
15	0xbc22b09c	-0.009929802
16	0xb50d7587	-5.269762e-07
17	0xb695dd5f	-4.466317e-06
18	0xbd2efcb3	-0.04272146
19	0xbb9944ac	-0.004677376
20	0xbd86ac78	-0.065758646
21	0x3d188f53	0.03724606
22	0xb8710d2a	-5.7471138e-05
23	0xbb56785c	-0.0032725548
24	0xbcb293a5	-0.021798918
25	0xb9c40b79	-0.0003739258
26	0xbc8ab29e	-0.016930874
27	0x3c127cb9	0.008940869
28	0xbb13736a	-0.0022499212
29	0xbcca1869	-0.024669843
30	0x3c983169	0.018578248
31	0x3d696909	0.056984935
