bitcoin-otc/models/bitcoin-otc-train-8.pt (torch, 63739 bytes, 14 tensors)

conv1.lin_pos_l.weight f4 [32, 64]
0	0x32f65f46	2.8681495e-08
1	0x32b9003e	2.1536945e-08
2	0x36411c5e	2.8775753e-06
3	0xb43ae98a	-1.7407561e-07
4	0xb0bc601f	-1.370612e-09
5	0xb2767700	-1.4346142e-08
6	0xb211dc69	-8.490226e-09
7	0xb23b5f75	-1.0906537e-08
8	0xb21d7803	-9.16589e-09
9	0xb205f378	-7.796977e-09
10	0x329d048f	1.8279279e-08
11	0x2f4a02d6	1.83728e-10
12	0x30c5a608	1.4380825e-09
13	0xb2946120	-1.7273635e-08
14	0x32131c4c	8.56296e-09
15	0x30d3ddaa	1.5415271e-09
16	0xb26e54c4	-1.3872697e-08
17	0x31c1858c	5.632222e-09
18	0x31a59818	4.819423e-09
19	0x32a42eda	1.9113418e-08
20	0x32683cbe	1.35179885e-08
21	0xb0db6061	-1.596174e-09
22	0xb0a370c7	-1.1891864e-09
23	0x31a5fecd	4.8310995e-09
24	0x3215b853	8.714852e-09
25	0x325fa7e0	1.3018479e-08
26	0xb12f374f	-2.549729e-09
27	0x31de260f	6.465377e-09
28	0xb1a88f04	-4.9057025e-09
29	0xb1b36d98	-5.222045e-09
30	0x3290cd0e	1.6857054e-08
31	0x30bc7e78	1.3714745e-09
32	0x31d2f0c5	6.1391767e-09
33	0x32601d58	1.3045188e-08
34	0xb19a1388	-4.4842103e-09
35	0xae291f4e	-3.8453955e-11
36	0xb21ef8fa	-9.253421e-09
37	0x31948fef	4.3237303e-09
38	0xb0a2e1dd	-1.1851246e-09
39	0xaf8e06c3	-2.5834454e-10
40	0x31e03513	6.525292e-09
41	0x328d70f1	1.646592e-08
42	0x323411b8	1.0481408e-08
43	0xb0e7f9d8	-1.6878472e-09
44	0x322d7255	1.0095921e-08
45	0x31edc1f3	6.9196573e-09
46	0x32859115	1.5549213e-08
47	0x31e476bf	6.649173e-09
48	0x3234005b	1.047746e-08
49	0x328247fa	1.5166723e-08
50	0xb22a2b39	-9.90513e-09
51	0xb212ca0d	-8.5442595e-09
52	0xb2915bd8	-1.6921987e-08
53	0x3236484f	1.0610235e-08
54	0x32568ddb	1.2488694e-08
55	0xb133a0ba	-2.613929e-09
56	0xb192ffb4	-4.2782293e-09
57	0x319e4ed4	4.607367e-09
58	0x3276edd1	1.4373158e-08
59	0xb165c43e	-3.3435437e-09
60	0xb0fc87ad	-1.8373975e-09
61	0x32595c4d	1.2652049e-08
62	0x3154e81a	3.0981995e-09
63	0x322149bf	9.388201e-09
64	0xbdce9556	-0.10087077
65	0x3ec97227	0.39344904
66	0x3d6cc230	0.05780238
67	0xbdad4c52	-0.084618226
68	0xbc946d89	-0.018118637
69	0xbea8349c	-0.32852638
70	0xbe4eba6a	-0.20188299
71	0x3e4bf33f	0.1991701
72	0xbdf18882	-0.11793615
73	0xbd71a9c0	-0.058999777
74	0xbb53d67d	-0.003232389
75	0xbe1696bc	-0.14705938
76	0x3dd2857f	0.102793686
77	0x3cd20502	0.025637154
78	0xbe28979d	-0.16464086
79	0x3cf46c88	0.029836908
80	0x3d03ad8a	0.03214792
81	0x3e042464	0.12904507
82	0xbbe92105	-0.007114532
83	0x3e479045	0.19488628
84	0xbdfad1f2	-0.12247075
85	0xbcf83166	-0.030296993
86	0xbd618bec	-0.05506508
87	0x3e4a1b10	0.19736886
88	0x3ce99b71	0.028516503
89	0xbd8f8137	-0.07007068
90	0xbc95d994	-0.018292226
91	0xbe891e26	-0.26780814
92	0x3dcbd7fd	0.09953306
93	0xbdfdc994	-0.123919636
94	0xbd5a192d	-0.053246666
95	0xbda7bee4	-0.08190706
96	0x3dc9e4e4	0.098581105
97	0xbdbd00e2	-0.09228684
98	0x3d97be96	0.07409398
99	0x3e1ebbdf	0.15501355
100	0xbdabc09f	-0.08386349
101	0xbc186b37	-0.009302906
102	0x3c8c956b	0.017161092
103	0xbd534027	-0.051574852
104	0xbd81a2f3	-0.06329908
105	0xbe18d51a	-0.14925042
106	0xbdc54a08	-0.09633261
107	0x3de60db0	0.112330794
108	0x3d2b9027	0.04188552
109	0x3df8fea3	0.12157943
110	0xbd332b41	-0.043742422
111	0x3e3e7ec1	0.1860304
112	0xbdf32667	-0.11872559
113	0xbe288a8d	-0.16459103
114	0xbe94c975	-0.2905995
115	0x3d24d4f1	0.04024214
116	0xbe4439ff	-0.19162749
117	0xbe5bca18	-0.21463811
118	0x3d8d90e9	0.06912405
119	0x3d2d890f	0.042367037
120	0xbdcf2089	-0.101136275
121	0x3cc81357	0.024423284
122	0x3db9912f	0.09060895
123	0xbdb326e9	-0.08747656
124	0x3cd42cf1	0.025900336
125	0x3cc3b312	0.023889098
126	0x3d2ad844	0.041710153
127	0x3ce0eaba	0.027455676
128	0x36493c2f	2.9986365e-06
129	0x39029f23	0.00012457049
130	0xb894bda9	-7.092517e-05
131	0xbb9dc54a	-0.0048147785
132	0x37215773	9.616709e-06
133	0x313372e9	2.6113247e-09
134	0x31111858	2.1114115e-09
135	0xb2997abc	-1.7867357e-08
136	0xb29f10e8	-1.8517724e-08
137	0xb20b368f	-8.10327e-09
138	0xb221a9b9	-9.410024e-09
139	0x3157550b	3.133496e-09
140	0x32fbf109	2.9329856e-08
141	0x318f59de	4.1720645e-09
142	0x323e0d8c	1.1062536e-08
143	0xb173082b	-3.5365797e-09
144	0x317034d1	3.495462e-09
145	0x31cd94a2	5.983183e-09
146	0x31bbda55	5.4672378e-09
147	0x32b2c948	2.081346e-08
148	0xb27180ea	-1.4057358e-08
149	0x312b30c2	2.491149e-09
150	0x32178316	8.819162e-09
151	0xb270773a	-1.3996948e-08
152	0x323540af	1.0550294e-08
153	0x31d888a1	6.3019603e-09
154	0xb1967c7b	-4.3797264e-09
155	0xb11569de	-2.1742532e-09
156	0xb2815601	-1.5056687e-08
157	0xb28e0968	-1.6535253e-08
158	0x327b5796	1.4630038e-08
159	0x31735287	3.5408065e-09
160	0xb165de14	-3.3450123e-09
161	0xb2003ca6	-7.4643705e-09
162	0xb1f066b4	-6.9965953e-09
163	0x324a1194	1.1761944e-08
164	0xb20b5d81	-8.112125e-09
165	0xb2c27386	-2.2637106e-08
166	0xb2083749	-7.928812e-09
167	0x30f9382c	1.81331e-09
168	0x32ac6dca	2.0073362e-08
169	0x31c217d7	5.6488534e-09
170	0xb161f92e	-3.2883452e-09
171	0xb112c4de	-2.1357702e-09
172	0x31d44bb1	6.178617e-09
173	0x324fc111	1.2092884e-08
174	0x3008a213	4.9706833e-10
175	0xb23a39fd	-1.083981e-08
176	0x31e056f5	6.529144e-09
177	0x32416d5b	1.1258943e-08
178	0x33139cd9	3.4368757e-08
179	0xb23bb63e	-1.092627e-08
180	0x3101e9e0	1.8904913e-09
181	0x319e926e	4.6150523e-09
182	0x3071c49d	8.7954694e-10
183	0xb22e0490	-1.012917e-08
184	0x32718ac5	1.4059599e-08
185	0xb23d3ec4	-1.1015519e-08
186	0x32873afb	1.574289e-08
187	0x319a61b6	4.4930983e-09
188	0x311ce7c7	2.2832738e-09
189	0xb2645adf	-1.3292008e-08
190	0xb0207cb4	-5.8384875e-10
191	0x32858631	1.5544261e-08
192	0x35940584	1.1028465e-06
193	0x346f70ed	2.2299692e-07
194	0x35057c32	4.972709e-07
195	0xb362555a	-5.2697352e-08
196	0xb482bd9e	-2.4352352e-07
197	0x358fa0ab	1.0701091e-06
198	0x343adafe	1.7402269e-07
199	0x331ea3ff	3.6936395e-08
200	0xb444a40b	-1.8313601e-07
201	0xb4a13bd7	-3.0032126e-07
202	0x34ec3eaa	4.400402e-07
203	0x34a843e0	3.1341824e-07
204	0x34980b83	2.8320582e-07
205	0x33a8d592	7.861958e-08
206	0xb4999db4	-2.8613215e-07
207	0xb451b9b0	-1.9532195e-07
208	0xb4be1be1	-3.5410542e-07
209	0xb389bf7c	-6.4143904e-08
210	0x330053f3	2.9878674e-08
211	0xb37ede78	-5.9341318e-08
212	0x330a7f73	3.2246543e-08
213	0xb3d43cbd	-9.8830675e-08
214	0xb3baad76	-8.692852e-08
215	0xb514b162	-5.539242e-07
216	0x33fcaef6	1.176649e-07
217	0xb47650fa	-2.2939994e-07
218	0xb3e9775d	-1.087162e-07
219	0x337a5aec	5.8290354e-08
220	0xb40c8a95	-1.3088932e-07
221	0xb3a028f8	-7.458033e-08
222	0x334b8e6c	4.7394153e-08
223	0xb4ce0b45	-3.837869e-07
224	0x33aed712	8.1416275e-08
225	0x34418174	1.802162e-07
226	0x34de337e	4.1388188e-07
227	0x342025eb	1.4914956e-07
228	0xb4d1f4ef	-3.9107496e-07
229	0xb225ce56	-9.651179e-09
230	0x341aa6d2	1.4403057e-07
231	0x34f28ebe	4.517987e-07
232	0x324e7d29	1.2019236e-08
233	0x3244dbbc	1.1458663e-08
234	0xb415de71	-1.395763e-07
235	0x33843625	6.156578e-08
236	0xb30e3155	-3.310682e-08
237	0x348089a8	2.3942016e-07
238	0x33efbe10	1.1163877e-07
239	0xb42aabbd	-1.5894962e-07
240	0xb3d28af6	-9.804164e-08
241	0x341f97f6	1.4863312e-07
242	0x331d88ce	3.6678834e-08
243	0x322ab394	9.936134e-09
244	0x3494ea8b	2.77378e-07
245	0x34e58362	4.2750167e-07
246	0xb46f8caf	-2.230979e-07
247	0xb4389edf	-1.7194132e-07
248	0x33f60620	1.1456382e-07
249	0xb484b7f6	-2.4720765e-07
250	0x339ade72	7.2116464e-08
251	0x34250c0e	1.5371208e-07
252	0x33017aee	3.0146957e-08
253	0x332070bb	3.735543e-08
254	0x3343530a	4.54775e-08
255	0xb2a2745a	-1.8912193e-08

conv1.lin_pos_r.weight f4 [32, 64]
0	0x38507dd0	4.9708236e-05
1	0x3ad952c5	0.0016580453
2	0xbc07f4f3	-0.008298147
3	0xba25f1e1	-0.0006330293
4	0x3a9acd72	0.0011810495
5	0x32651131	1.3333463e-08
6	0x30aabf2f	1.2423466e-09
7	0x328756fd	1.5755626e-08
8	0x328040df	1.4930661e-08
9	0x321da699	9.176483e-09
10	0x31f278e2	7.0568698e-09
11	0xb31a1bc1	-3.588116e-08
12	0xb26f2ea8	-1.3922239e-08
13	0xb14b609f	-2.959531e-09
14	0x324bbb69	1.1858767e-08
15	0xb0054aaf	-4.849125e-10
16	0x32a94ca7	1.9709047e-08
17	0xb2cb4394	-2.3663041e-08
18	0xb19628db	-4.3702193e-09
19	0x33822cb5	6.061729e-08
20	0x329bfa47	1.8158188e-08
21	0xb18f1ea5	-4.1653316e-09
22	0x32a46d3f	1.9141792e-08
23	0xb321fdaa	-3.771644e-08
24	0xb282aafb	-1.5211745e-08
25	0xb30f67a3	-3.338904e-08
26	0x32a37b7d	1.9031853e-08
27	0xb2b4754c	-2.1008098e-08
28	0xb2a5d36c	-1.9304672e-08
29	0x332d8236	4.0398128e-08
30	0x31f07a54	6.9988264e-09
31	0xb1aa7f59	-4.962129e-09
32	0xb31b6943	-3.6184485e-08
33	0x31d94e8b	6.3244605e-09
34	0x33e1f154	1.0521276e-07
35	0x32a97bed	1.9730544e-08
36	0xb22eb0e3	-1.0168352e-08
37	0x331f167b	3.7040518e-08
38	0xb2ecc778	-2.7564724e-08
39	0xb19f8e5a	-4.6436925e-09
40	0x3314c1c3	3.463516e-08
41	0x320fc318	8.368055e-09
42	0x3134533e	2.6240765e-09
43	0x32c8990a	2.3352658e-08
44	0xb2ac4ed4	-2.0059282e-08
45	0xb21719ba	-8.795206e-09
46	0x331eddfa	3.6989128e-08
47	0xb08adf5b	-1.0104303e-09
48	0xb2f49fc9	-2.8478e-08
49	0xb2c36766	-2.2748008e-08
50	0x341673c7	1.4011958e-07
51	0xb310a645	-3.3678834e-08
52	0xb22634fb	-9.674518e-09
53	0xb2cc9ebc	-2.382091e-08
54	0xb30713f6	-3.145029e-08
55	0x31546eaa	3.0912966e-09
56	0xb2155c19	-8.693882e-09
57	0xb2bbeef3	-2.1878327e-08
58	0xb25927d7	-1.2640121e-08
59	0x330e12d7	3.3079086e-08
60	0xb19974d8	-4.4661697e-09
61	0x3046b3d1	7.2287515e-10
62	0xb1a9483e	-4.9267603e-09
63	0x2e3e1f47	4.3228778e-11
64	0xbed09fcf	-0.40746924
65	0x3e009373	0.12556247
66	0xbc8d6711	-0.01726106
67	0xbdea1365	-0.114294805
68	0x3c0bff90	0.008544818
69	0xbce99d5d	-0.02851742
70	0x3d4fd1bd	0.05073713
71	0x3e481835	0.19540484
72	0x3e03d72b	0.12875049
73	0x3df2d1c3	0.11856415
74	0x3d713ae0	0.05889404
75	0xbdbe11ba	-0.09280725
76	0xbbcfad1b	-0.0063377745
77	0x3cfc7cc5	0.030821213
78	0xbe9e50d1	-0.30921033
79	0x3e1be5af	0.15224336
80	0x3d041555	0.032246906
81	0xbe3815f6	-0.17977127
82	0x3e743785	0.23849304
83	0xbdbbe339	-0.09174199
84	0xbe022322	-0.12708715
85	0x3dd78582	0.105235115
86	0xbde21ba6	-0.1104043
87	0x3a4dc130	0.00078489166
88	0xbd07a488	-0.033115894
89	0xbd7fae50	-0.062422097
90	0x3d015a77	0.031580415
91	0xbc194f89	-0.009357342
92	0x3e258a1c	0.16165966
93	0x3d813c3b	0.06310316
94	0x3cc84bd9	0.02445023
95	0xbcb6d733	-0.022319412
96	0x3c96df87	0.018417133
97	0xbdd75527	-0.105142884
98	0x3e7f3cbd	0.24925514
99	0xbde1e191	-0.110293515
100	0x3d387db2	0.045041747
101	0x3c2d7952	0.010588007
102	0x3cc41953	0.023937857
103	0x3d04ac2c	0.03239076
104	0x3df8eb51	0.12154258
105	0x3d873ce1	0.066034086
106	0x3e22d0da	0.15899983
107	0x3e3f013f	0.18652819
108	0x3d169f96	0.036773287
109	0xbd763ff0	-0.06011957
110	0x3c8217fc	0.015880577
111	0x3e8133c4	0.25234807
112	0x3bb27588	0.0054461397
113	0xbe748111	-0.2387736
114	0xbd88cd88	-0.06679827
115	0xbc5a1de5	-0.0133127915
116	0x3e156c7b	0.14592163
117	0xbd897bda	-0.06713076
118	0xbd3f23dd	-0.04666506
119	0x3aa59518	0.0012632934
120	0xbd84ced7	-0.06484764
121	0x3e3387b1	0.17532231
122	0x3dd6f19a	0.104953006
123	0xbddbfb5c	-0.10741302
124	0x3c549c35	0.012976696
125	0xbc9716d9	-0.018443512
126	0xbdd87676	-0.1056947
127	0x3e271b28	0.16318953
128	0xb2cbada6	-2.3711276e-08
129	0x32e1de0b	2.629442e-08
130	0xb31f59be	-3.7101692e-08
131	0x32ca6982	2.3563874e-08
132	0xb3540805	-4.936739e-08
133	0xb2f18cf7	-2.8120196e-08
134	0xb2d87a00	-2.5201189e-08
135	0x32b2144f	2.0731163e-08
136	0x3188f3f2	3.9858543e-09
137	0xb25ad25b	-1.2737099e-08
138	0xb1d06b70	-6.065811e-09
139	0xb24bbdfd	-1.18593535e-08
140	0xb290ad24	-1.6842542e-08
141	0xb1c71e0d	-5.7950786e-09
142	0xb2bb6388	-2.1814927e-08
143	0x31ec4ba8	6.877105e-09
144	0xb166e717	-3.3600764e-09
145	0xb1cbafa2	-5.9280447e-09
146	0xb20826c9	-7.925061e-09
147	0x3068309d	8.447019e-10
148	0xb1b7481a	-5.334198e-09
149	0xb0fd59ea	-1.8433728e-09
150	0xafb0e53a	-3.217709e-10
151	0x3213ad0e	8.595874e-09
152	0xb23f4f5a	-1.1135706e-08
153	0x31c4c2ba	5.7264886e-09
154	0xb217b81f	-8.831221e-09
155	0xb207f224	-7.913091e-09
156	0xb2824932	-1.5167277e-08
157	0xb1b2fccd	-5.209222e-09
158	0x31733fde	3.5397458e-09
159	0xb23ff8b7	-1.1174214e-08
160	0x32800a09	1.4905725e-08
161	0x31e0ddd2	6.544476e-09
162	0xb2ee8a72	-2.7769804e-08
163	0x31abd927	5.0014424e-09
164	0x31501c65	3.0284124e-09
165	0xb1929a6e	-4.266716e-09
166	0xb02a76e5	-6.20146e-10
167	0xb2ad3f91	-2.0168757e-08
168	0xb28a1c5f	-1.6078216e-08
169	0xb22a8614	-9.925788e-09
170	0xb29de768	-1.8382437e-08
171	0x329ead8c	1.847254e-08
172	0xb30323ec	-3.0533485e-08
173	0xb199dae4	-4.477771e-09
174	0xb0cec772	-1.5045158e-09
175	0xb288754a	-1.588582e-08
176	0xb24e8ca8	-1.202276e-08
177	0x321d962f	9.172751e-09
178	0xb255b859	-1.2440148e-08
179	0x323452ec	1.0496233e-08
180	0x324fdc56	1.2099084e-08
181	0xb22dbf03	-1.0113356e-08
182	0xb25d32f6	-1.287548e-08
183	0xb2a80c58	-1.9563387e-08
184	0xb141433c	-2.8123415e-09
185	0x325010f7	1.2111051e-08
186	0x320ed200	8.313236e-09
187	0xb2020bee	-7.569708e-09
188	0xb2154af7	-8.6899865e-09
189	0x32a7b2fe	1.9522755e-08
190	0xb210263b	-8.390596e-09
191	0xb1d1c3af	-6.104947e-09
192	0x350cca0c	5.244808e-07
193	0xb3db4c23	-1.02118314e-07
194	0xb453b826	-1.9717899e-07
195	0xb1a69605	-4.848291e-09
196	0xb3296e51	-3.944871e-08
197	0xb444f24c	-1.834207e-07
198	0xb40550d6	-1.2415998e-07
199	0x34843087	2.4622224e-07
200	0xb4c44a4f	-3.6561912e-07
201	0xb4b6a4ba	-3.4019996e-07
202	0xb24e3a7c	-1.2004076e-08
203	0x33013f5c	3.0092778e-08
204	0xb2b79912	-2.1373612e-08
205	0x336995e2	5.4385858e-08
206	0x3310e9a0	3.3740093e-08
207	0x34dd3e9b	4.121001e-07
208	0x3310ce90	3.371548e-08
209	0xb4602eba	-2.0878625e-07
210	0xb48bb813	-2.60247e-07
211	0x315e962c	3.2390615e-09
212	0x3451126f	1.9471348e-07
213	0xb49039eb	-2.686423e-07
214	0xb23dd31f	-1.1049251e-08
215	0xb4ae671e	-3.2485053e-07
216	0xb4921aae	-2.721403e-07
217	0x346688c8	2.147018e-07
218	0x330bac73	3.25203e-08
219	0x33d211a8	9.782099e-08
220	0xb4526baa	-1.9596942e-07
221	0x33feebab	1.18706645e-07
222	0x351bafdc	5.799791e-07
223	0x31d4d0c1	6.1937446e-09
224	0xb4e72ae7	-4.3058319e-07
225	0xb2e0d751	-2.6174947e-08
226	0x32bf99ac	2.2305208e-08
227	0xb490ebd2	-2.6993672e-07
228	0xb3f2ede4	-1.1312275e-07
229	0x34a49c2e	3.0661016e-07
230	0x340af430	1.2941086e-07
231	0xb51c836d	-5.830578e-07
232	0xb48c2daf	-2.611027e-07
233	0x3489b3dd	2.5649106e-07
234	0xb3ae1a94	-8.107341e-08
235	0xb31f9705	-3.7157424e-08
236	0xb22310e1	-9.4916865e-09
237	0x3465492b	2.1353905e-07
238	0x32ed4efa	2.7626346e-08
239	0x3438d189	1.7212564e-07
240	0x332d2737	4.0315367e-08
241	0x34be6f03	3.547103e-07
242	0xb1387b8b	-2.684575e-09
243	0x33ddf3fa	1.03354935e-07
244	0xb40f4b71	-1.3345358e-07
245	0xb1e7059f	-6.723624e-09
246	0x3519035a	5.700182e-07
247	0x33d8853a	1.00825176e-07
248	0xb4fca0bf	-4.7055616e-07
249	0x31d8cc01	6.30962e-09
250	0x345ab4a3	2.0368547e-07
251	0x33921704	6.802841e-08
252	0xb39542c0	-6.950495e-08
253	0xb4470696	-1.8535715e-07
254	0x34890bde	2.5526873e-07
255	0x33a053cb	7.4658224e-08

conv1.lin_pos_r.bias f4 [32]
0	0xbd2e9044	-0.04261805
1	0x3d3fe71c	0.046851262
2	0xbcf38455	-0.029726187
3	0xb6d65865	-6.3879875e-06
4	0x3bd6076d	0.006531647
5	0x3d36699f	0.044534322
6	0x3d26629c	0.040621385
7	0xb5724131	-9.024689e-07
8	0x3d95c9c1	0.07313872
9	0x3d1ad0ce	0.037796788
10	0xbc49bdaa	-0.012313286
11	0xbcd660da	-0.02616923
12	0xbcc68c42	-0.024236802
13	0x3d0630b8	0.032761306
14	0x3d7cac13	0.06168754
15	0x3d19705a	0.037460662
16	0xb9a98dfa	-0.00032339973
17	0xbd2b9a79	-0.041895363
18	0x3dbd1bb3	0.09233799
19	0xbab1ada1	-0.0013555774
20	0x3d2f36df	0.04277694
21	0x3d6940a6	0.05694642
22	0xb9c3cc2b	-0.00037345415
23	0x3dcab5c5	0.09897951
24	0xb7357a70	-1.0816948e-05
25	0x3d1b8a0a	0.03797344
26	0xba273ac5	-0.0006379302
27	0x3d0e4959	0.03473792
28	0xbc54b762	-0.012983175
29	0x3cd6ddc1	0.026228787
30	0x3cc05f78	0.023483023
31	0xbd14e523	-0.036351334

conv1.lin_neg_l.weight f4 [32, 64]
0	0x3e27b144	0.16376215
1	0x3d55f1e2	0.05223263
2	0xbd30435d	-0.043032993
3	0xbe00695a	-0.12540188
4	0xbd64ad37	-0.055829253
5	0x3dee45b4	0.116343886
6	0x3d669421	0.05629361
7	0xbdd0bebd	-0.101926304
8	0x3ded89c5	0.11598543
9	0x3dfac820	0.12245202
10	0x3d481b5b	0.048854213
11	0xbdccb1ca	-0.09994848
12	0x3dfadf1a	0.122495845
13	0xbe03b740	-0.12862873
14	0xbdb3ead1	-0.08785022
15	0xbd307132	-0.0430767
16	0xbe6dcd3b	-0.2322282
17	0x3e40ef97	0.18841396
18	0xbbf4294f	-0.0074512134
19	0x3bc88457	0.0061192918
20	0x3d33e572	0.043919988
21	0xbef4a1f5	-0.47779813
22	0x3e2db55d	0.16963716
23	0xbdf903af	-0.12158906
24	0x3da90aa9	0.082539864
25	0xbe891188	-0.26771188
26	0x3d4bd701	0.04976559
27	0xbaf242e6	-0.0018483072
28	0x3d829d41	0.0637765
29	0xbdbe2fe5	-0.09286479
30	0xbc989228	-0.01862438
31	0xbd637017	-0.05552682
32	0x3da2dcba	0.079522565
33	0xbda666e1	-0.08125091
34	0x3e30125c	0.17194504
35	0x3dd6f7ee	0.104965076
36	0xbde2f9d0	-0.11082804
37	0x3cd1be0f	0.025603322
38	0x3d045408	0.0323067
39	0x3d8e9be7	0.0696333
40	0xbe36d812	-0.17855862
41	0xbc78c80d	-0.015184415
42	0x3d63b836	0.0555956
43	0xbbede14d	-0.007259524
44	0x3d4db27f	0.050219055
45	0xbc8f9cf5	-0.017530898
46	0xbda8191e	-0.08207916
47	0xbcc4fa2c	-0.024045072
48	0xbd87009a	-0.065919116
49	0x3b277542	0.002555207
50	0xbd60dbd2	-0.054897137
51	0xbcddd418	-0.027078673
52	0xbd7548aa	-0.05988375
53	0x3ced71f4	0.028985001
54	0x3dca8b47	0.09889846
55	0x3c990da7	0.018683268
56	0x3d450d72	0.048108526
57	0x3d552471	0.052036706
58	0xbe1ca438	-0.1529702
59	0x3d8b9b3f	0.0681672
60	0xbc450062	-0.012024017
61	0xbd3bd5cb	-0.045858186
62	0x3bb0fabf	0.005400985
63	0x3c8e8a38	0.017399892
64	0x3e1ce4f4	0.15321714
65	0xbd5d3462	-0.054005034
66	0x3c5190cf	0.012790873
67	0xbdacb260	-0.0843246
68	0xbdcc7a4b	-0.09984263
69	0xbdc6337e	-0.0967779
70	0x3dd0d956	0.101977035
71	0xbd7270bc	-0.059189543
72	0x3dea5a4b	0.11443003
73	0x3c6cbc54	0.014449198
74	0xbd6032ae	-0.054735832
75	0x3c25b085	0.010112886
76	0xbe0226c5	-0.12710102
77	0xbcc534ba	-0.024072994
78	0xbdd81fac	-0.10552916
79	0x3dd84ef4	0.10561934
80	0xbe814fe7	-0.25256273
81	0x3d35ab2c	0.044352695
82	0xbcf15633	-0.029460048
83	0x3d264008	0.04058841
84	0x3ddf8bed	0.109153606
85	0xbdfe2e8b	-0.12411221
86	0xbc6ff548	-0.014645882
87	0xbc892825	-0.016742775
88	0x3da2120e	0.079136
89	0x3d411050	0.047134697
90	0xbd2632a2	-0.04057563
91	0x3d9857e2	0.07438637
92	0xbe8d140f	-0.27554366
93	0xbdfbb912	-0.12291159
94	0x3af81fe0	0.0018930398
95	0xbe03aee2	-0.12859681
96	0x3daa8437	0.08325999
97	0x3cdd7288	0.027032152
98	0x3a2b84b3	0.0006542906
99	0x3d572c4c	0.05253248
100	0xbd8f8c6d	-0.07009206
101	0x3c0a9d9a	0.008460427
102	0x3de36b33	0.11104431
103	0x3d0c6349	0.034274373
104	0xbd141771	-0.036155168
105	0x3d6d9d33	0.058011245
106	0x3c26ccc2	0.010180654
107	0xbd876532	-0.06611098
108	0x3d8de9d6	0.06929366
109	0xbe05bab2	-0.130595
110	0x3d8b5812	0.068039075
111	0x3d41121f	0.047136422
112	0xbd85ff30	-0.06542814
113	0xbe239fd8	-0.15978944
114	0xbe5220f9	-0.2052039
115	0x3de263ee	0.11054216
116	0x3de7c84b	0.113175
117	0x3d923d98	0.07140654
118	0xbdeeffa4	-0.11669853
119	0xbdf20522	-0.11817385
120	0x3b041b55	0.0020157893
121	0x3c39887f	0.011324047
122	0xbaf70e33	-0.0018848836
123	0x3b7ef3a1	0.0038902538
124	0x3ddf4229	0.10901291
125	0xbe1eeb33	-0.15519409
126	0x3c85cb65	0.016332338
127	0xbd383ead	-0.044981647
128	0xbf176144	-0.5913279
129	0xbdbec4ca	-0.09314878
130	0x3b16f75a	0.0023035617
131	0x3e6e9315	0.23298295
132	0xbd04fb25	-0.032466073
133	0x3e0b175d	0.13583131
134	0xbdbe60b5	-0.09295789
135	0x3ddc36dc	0.10752651
136	0x3d9412c2	0.0723014
137	0xbe6bd74c	-0.23031348
138	0x3dcb86ea	0.09937842
139	0x3ddc32c9	0.10751874
140	0xbd4019df	-0.046899673
141	0xbe08035b	-0.1328253
142	0x3e464c1c	0.19364971
143	0x3cd87b92	0.02642611
144	0x3d525c9a	0.051357843
145	0x3d8fdf47	0.07025009
146	0xbb8a8a0f	-0.0042278836
147	0xbd2c7608	-0.04210475
148	0x3d48819b	0.048951726
149	0x3db0886c	0.086197704
150	0xbc126c78	-0.008936994
151	0x3dc48983	0.09596541
152	0xbe9242ab	-0.2856649
153	0x3dbe180d	0.09281931
154	0xbcc554ac	-0.024088226
155	0xbe00e0b1	-0.12585713
156	0x3d96d739	0.07365269
157	0xbd5ee89f	-0.054421064
158	0xbd8f4313	-0.06995215
159	0x3e40731e	0.18793914
160	0x3dbcb5ad	0.092143394
161	0xbe7b8884	-0.24563795
162	0x3d7d5b2e	0.061854534
163	0xbc680545	-0.014161413
164	0xbca98446	-0.020692956
165	0xbd2f7436	-0.042835437
166	0xbeebb34f	-0.4603524
167	0x3eada5fa	0.33915693
168	0xbd0ac6c3	-0.03388096
169	0xbe23b4e7	-0.15986978
170	0xbe8ce69d	-0.27519694
171	0x3e19e29d	0.15027852
172	0xbe1a8247	-0.1508876
173	0xbd5061d5	-0.05087455
174	0x3e28b3cd	0.16474839
175	0xbda4c75a	-0.08045836
176	0x3c6b2ee4	0.014354441
177	0x3e112e2e	0.14177772
178	0x3dbd068b	0.092297636
179	0x3cbecdc0	0.023291469
180	0x3d4c6ab8	0.049906462
181	0xbe97a584	-0.29618466
182	0x3d764e4d	0.060133267
183	0x3decd272	0.11563577
184	0xbd9fb522	-0.0779822
185	0x3e32400f	0.17407249
186	0xbdb86eaf	-0.09005486
187	0xbe7f6e7d	-0.24944492
188	0xbdcf2b36	-0.10115664
189	0x3d7a21c1	0.061067346
190	0xbe5fd661	-0.21859123
191	0xbd14db69	-0.03634206
192	0xbebd03b6	-0.36916894
193	0xbd19b888	-0.0375295
194	0x3d199496	0.03749522
195	0x3d78f73b	0.060782652
196	0x3da97c78	0.08275694
197	0x3e0094a5	0.12556703
198	0xbe539666	-0.20662841
199	0x3e4bd8fe	0.19906995
200	0x3e866bde	0.2625417
201	0xbdb14d81	-0.08657361
202	0x3e64a299	0.22327651
203	0xbc12eda5	-0.008967792
204	0x3c0215cc	0.007939767
205	0x3d7a7fcd	0.061157037
206	0x3a55b16d	0.00081517437
207	0x3d3b4494	0.045719698
208	0x3dca7b27	0.09886771
209	0xbe396b7d	-0.1810741
210	0xbdf8501d	-0.121246554
211	0x3dfbd3de	0.1229627
212	0xbe697079	-0.22796811
213	0x3d8cb841	0.06871081
214	0x3dea93f0	0.11453998
215	0xbd497db1	-0.049192134
216	0xbd9bf627	-0.07615309
217	0xbe21e631	-0.15810467
218	0x3e2427fb	0.16030876
219	0xbd8aa1d9	-0.06769151
220	0xbdbc39e5	-0.0919073
221	0xbdf0326c	-0.11728367
222	0x3d310500	0.04321766
223	0x3e9f1cb3	0.31076583
224	0x3e0d2260	0.13782644
225	0x3db2b95c	0.08726761
226	0xbe12ac37	-0.14323507
227	0x3d962c60	0.073326826
228	0x3dc4c62f	0.09608113
229	0xbcddd2f2	-0.027078126
230	0xbdffab6f	-0.1248387
231	0x3d590542	0.05298353
232	0x3d064b70	0.032786787
233	0x3e90a3cb	0.28249964
234	0xbde4a295	-0.111638226
235	0x3e157a3e	0.14597413
236	0xbd1b47bc	-0.037910208
237	0x3e4436b6	0.19161496
238	0x3bb88a5b	0.0056317276
239	0xbd8eeace	-0.06978379
240	0xbda445d7	-0.080211334
241	0xbdde92f2	-0.10867871
242	0x3baf556d	0.0053507597
243	0x3d9723f3	0.07379904
244	0x3cc84e6a	0.024451453
245	0x3b3c7a42	0.0028759395
246	0xbdc85a8e	-0.09782897
247	0x3da43795	0.08018414
248	0x3dc6a44f	0.09699308
249	0xbe44c226	-0.19214687
250	0x3e2a5616	0.16634402
251	0xbe64065c	-0.22268051
252	0xbd90f583	-0.07078078
253	0x3cd7fc9b	0.026365569
254	0xbc4d4c3f	-0.0125303855
255	0xbe2ab56d	-0.16670771

conv1.lin_neg_r.weight f4 [32, 64]
0	0x3c79bd33	0.0152428625
1	0x3c4a544d	0.0123492
2	0xbb462003	-0.0030231483
3	0xbc7db8bb	-0.015485938
4	0x3bbf89ec	0.005845299
5	0xbc148f23	-0.00906733
6	0x3c1d8230	0.009613559
7	0x3c4908ec	0.012270194
8	0xbd10f6d8	-0.03539166
9	0xbc717f94	-0.01473989
10	0xbc0b7f17	-0.008514187
11	0x3c612a0a	0.013742933
12	0xba39213e	-0.00070621434
13	0x3c23a36a	0.009987691
14	0x3c688b31	0.014193342
15	0xbb0c8b23	-0.0021445237
16	0xbb9a8a5f	-0.004716202
17	0x3bde8db7	0.006791796
18	0x3d093d12	0.033505507
19	0x3ced8b6d	0.028997147
20	0xbd01e4bb	-0.031712275
21	0x3b565a02	0.0032707457
22	0x3ba2bec2	0.0049665878
23	0xbd05a875	-0.032631356
24	0xbca9b559	-0.020716356
25	0x3bb6ff33	0.0055846213
26	0x3a5cb47b	0.00084192277
27	0x3b0196b6	0.0019773669
28	0x3c88dbd4	0.016706385
29	0x3d1413d5	0.036151726
30	0x3c30ceab	0.010791461
31	0xbb9dde48	-0.0048177578
32	0xbc359004	-0.011081699
33	0x3cb6fc13	0.022336995
34	0xbc51282e	-0.012765927
35	0x3c1bf815	0.009519597
36	0xbc9fc09b	-0.019501021
37	0x3bee4f20	0.007272616
38	0x3cb2785a	0.021785904
39	0xbc651037	-0.013980917
40	0xbaf20a9e	-0.0018466299
41	0xbc27fe81	-0.01025355
42	0xbc72a243	-0.014809194
43	0xbb59c1d6	-0.0033227107
44	0x3ca21195	0.019783774
45	0x3cb21d8b	0.021742603
46	0xbba9e8cf	-0.0051852237
47	0xbbabbc3a	-0.005240944
48	0xbb70adc3	-0.0036724664
49	0x3c5f01e9	0.013611295
50	0xbd05c6fb	-0.032660466
51	0x3c9d0ad8	0.01917021
52	0xbc0376ee	-0.0080239605
53	0x3c7ac11b	0.015304829
54	0xbc15acd0	-0.00913544
55	0xbb0e3ad2	-0.002170254
56	0x3b5feaba	0.0034167008
57	0xbc0536d5	-0.008130749
58	0xbbfe9e31	-0.0077703227
59	0x3c9fc64b	0.019503733
60	0xbb7e81bb	-0.003883465
61	0xbc01349b	-0.007886077
62	0x3c0f1c24	0.008734737
63	0xbbddf75c	-0.0067738723
64	0xbc870dbb	-0.01648604
65	0xbc58cfe8	-0.013233162
66	0x3c9cc057	0.019134684
67	0xbd97a11b	-0.07403775
68	0x3d288167	0.041139033
69	0xbe89d0e1	-0.26917174
70	0xbdecda1c	-0.115650386
71	0xbdf7c8b4	-0.12098828
72	0xbe11aa4e	-0.14225122
73	0xbdad48f6	-0.08461182
74	0xbe7d8397	-0.24757229
75	0x3e239f02	0.15978625
76	0xbbfb71a6	-0.00767346
77	0xbd2e9f09	-0.042632136
78	0x3d535888	0.0515981
79	0xbd8f69a4	-0.07002571
80	0x3d3b5b79	0.045741532
81	0x3e82a431	0.25515893
82	0x3e5ad633	0.21370773
83	0x3da72be2	0.08162667
84	0xbdc0de15	-0.09417359
85	0xbdd3931f	-0.103307955
86	0x3d97331b	0.073827945
87	0xbd0008c0	-0.031258345
88	0xbde1b6f0	-0.11021221
89	0x3e01de1a	0.12682381
90	0x3d4493cd	0.047992516
91	0xbe0fc48f	-0.14039825
92	0x3d2ed58b	0.04268412
93	0x3d29c782	0.04145003
94	0x3d1702a5	0.036867756
95	0xbc88a911	-0.01668218
96	0x3dabe197	0.08392637
97	0xbe04cb22	-0.12968114
98	0xbd51c120	-0.05120957
99	0x3e42673b	0.18984692
100	0xbde06d45	-0.109583415
101	0x3db5850b	0.088632666
102	0xbda149c0	-0.07875395
103	0xbde14514	-0.10999504
104	0x3cd9e579	0.026598679
105	0x3e88d5e5	0.2672569
106	0x3dd6ace9	0.10482199
107	0x3d0bba00	0.03411293
108	0x3cef27cb	0.02919378
109	0x3e13d0fa	0.14435187
110	0xbd4d453c	-0.050114855
111	0x3e597f25	0.21239908
112	0x3d0541d6	0.03253349
113	0x3cd057aa	0.025432426
114	0x3da448c1	0.08021689
115	0xbd103319	-0.03520498
116	0xbc0d2349	-0.00861437
117	0x3d631896	0.05544337
118	0x3e726bd2	0.23673943
119	0x3dc04f7d	0.09390161
120	0xbb799f00	-0.0038089156
121	0x3d95a0df	0.07306074
122	0x3cb5b70f	0.022182016
123	0x3d770141	0.06030393
124	0xbba9abd4	-0.005177954
125	0xbd89f38c	-0.06735906
126	0xbd041911	-0.032250468
127	0xbd62a3ec	-0.05533211
128	0x3ee8071b	0.4531792
129	0x3e0d0270	0.13770461
130	0x3b14f319	0.0022727905
131	0xbe887bd9	-0.26656988
132	0xbe11c306	-0.14234552
133	0xbc0720dd	-0.008247581
134	0xbd02b53b	-0.031911116
135	0xbc26dda0	-0.010184675
136	0xbe266939	-0.16251077
137	0x3dbb6d79	0.091517396
138	0xbcff3ace	-0.03115597
139	0xbe024dac	-0.12724942
140	0xbca60896	-0.020267766
141	0xbca3e72e	-0.020007696
142	0xbe21d8d6	-0.15805373
143	0xbdd40493	-0.10352435
144	0x3cb817ac	0.022472225
145	0xbd412bc3	-0.047160875
146	0xbd380724	-0.044928685
147	0xbd5e1337	-0.054217543
148	0xbe8459a7	-0.2584965
149	0xbb9b8cca	-0.004747008
150	0x3d3c3396	0.045947634
151	0xbe1a4fb0	-0.15069461
152	0xbda0bcf3	-0.07848539
153	0xbd503fb8	-0.050842017
154	0x3dcec36e	0.10095869
155	0xbd965214	-0.07339874
156	0x3d80c59f	0.06287693
157	0xbc4ece17	-0.012622378
158	0x3dd31480	0.103066444
159	0xbd8121e6	-0.06305294
160	0xbdb3ffb9	-0.087890096
161	0x3de32bcb	0.11092337
162	0xbdeb9eee	-0.11504923
163	0x3d9f9b57	0.077933006
164	0x3cb35efc	0.021895878
165	0x3de4f7d1	0.1118008
166	0x3dff534e	0.12467061
167	0xbd2180fc	-0.03942965
168	0x3e0a5687	0.1350957
169	0x3d8c24e0	0.06842971
170	0x3dad8214	0.08472076
171	0xbddf47f0	-0.10902393
172	0x3c5c15da	0.013432944
173	0xbdae6680	-0.08515644
174	0x3cb809ad	0.022465551
175	0x3d62a8e2	0.05533684
176	0x3e0ffe3b	0.14061825
177	0xbdc597b9	-0.096480794
178	0xbd88c53f	-0.06678247
179	0xbcfa72dd	-0.03057235
180	0x3d228a25	0.039682526
181	0x3c8ef6fe	0.01745176
182	0xbe4a0c2a	-0.19731203
183	0xbd9406af	-0.07227837
184	0x3da8e53a	0.082468465
185	0x3cf48edb	0.029853275
186	0x3e5a9876	0.21347222
187	0xbd7ef668	-0.06224671
188	0xbde32ed8	-0.11092919
189	0xbcaa9ff6	-0.020828228
190	0x3de207ed	0.11036668
191	0xbdbf482c	-0.093399376
192	0xbf8f857e	-1.1212614
193	0xbe5925d4	-0.21205837
194	0xbe9875ea	-0.2977746
195	0xbe0a2c28	-0.13493407
196	0xbd0c754a	-0.034291543
197	0xbabac6ff	-0.0014249979
198	0x3e280f92	0.1641219
199	0xbe1ef9f2	-0.15525034
200	0xbe9fbf7c	-0.31200778
201	0xbddd40a0	-0.10803342
202	0x3d385e52	0.045011826
203	0x3e896881	0.26837543
204	0xbe849ea5	-0.25902286
205	0xbe4f963b	-0.20272152
206	0xbdd1d137	-0.10244983
207	0xbe4bf107	-0.19916163
208	0xbbe6e638	-0.007046487
209	0x3e8d1d34	0.27561343
210	0xbe1d6347	-0.15369903
211	0x3c3de8e1	0.011591167
212	0x3e1199e3	0.1421886
213	0xbd956e5c	-0.0729644
214	0xbdf99d49	-0.12188203
215	0xbcf1c6f3	-0.029513812
216	0x3c5cbdf4	0.013473023
217	0x3d93d659	0.07218618
218	0xbd2f5989	-0.042809997
219	0xbdd0f11d	-0.10202239
220	0xbeb86958	-0.3601787
221	0x3c8ba9f1	0.017048808
222	0x3d5de6d6	0.05417522
223	0xbe919c66	-0.28439635
224	0x3cf57400	0.02996254
225	0xbd2df99c	-0.042474374
226	0x3e9ceb95	0.30648485
227	0x3eb972e3	0.36220464
228	0x3c92b95e	0.017910656
229	0x3e0bb4e0	0.13643217
230	0x3ca8c8da	0.020603586
231	0x3ce0cfc1	0.027442815
232	0x3c94e7f8	0.018177018
233	0xbd37ef37	-0.044905867
234	0x3df37ed5	0.11889426
235	0xbf16ac8d	-0.5885704
236	0x3d9bc9e1	0.07606865
237	0xbef20a79	-0.47273615
238	0x3e024805	0.12722786
239	0x3e18d05f	0.14923237
240	0x3d592e67	0.05302277
241	0x3e94f655	0.29094186
242	0xbe3e3965	-0.18576582
243	0x3ca127a9	0.019672232
244	0xbe3b29bb	-0.18277638
245	0xbde4278a	-0.11140354
246	0xbe531b29	-0.2061583
247	0x3e25c698	0.16189039
248	0x3e49c398	0.1970352
249	0x3c15ef66	0.009151315
250	0xbe4ea92b	-0.2018172
251	0x3af92a49	0.0019009794
252	0x3eca08eb	0.3945993
253	0x3e5545f0	0.2082746
254	0x3c6a9712	0.0143182445
255	0x3e4bcf80	0.19903374

conv1.lin_neg_r.bias f4 [32]
0	0xbd9233c3	-0.07138779
1	0x3df4a06c	0.119446605
2	0x3d5ec0c8	0.05438307
3	0x3debd767	0.11515694
4	0x3b03292c	0.0020013554
5	0xb97715c4	-0.00023563864
6	0xbcb9d68a	-0.022685308
7	0x3c6b6a86	0.014368659
8	0xba7823a1	-0.00094657583
9	0x3d1e4f36	0.03864976
10	0xbab9160c	-0.001412095
11	0x3dd3f3dd	0.103492476
12	0xbd512586	-0.051061176
13	0xbaa54275	-0.0012608307
14	0x3d11c819	0.03559122
15	0xbb4ed61a	-0.003156072
16	0xb9dfa7a0	-0.00042658765
17	0xbc4aeea9	-0.012386003
18	0x39e9331a	0.00044479297
19	0x3e0ebdf9	0.13939656
20	0xbc187123	-0.009304318
21	0xbd4f9909	-0.050683055
22	0x3d97e6c2	0.074170604
23	0x3d0173cb	0.03160457
24	0xbbe3b4af	-0.0069490294
25	0xbca5a917	-0.02022223
26	0x3d9fde1e	0.07806037
27	0x3d178946	0.03699615
28	0x360fbc28	2.1418182e-06
29	0xbb1e6c0f	-0.0024173295
30	0x3c8b729f	0.017022429
31	0xbd766a31	-0.060159866

convs.0.lin_pos_l.weight f4 [32, 64]
0	0xb543cf82	-7.2945124e-07
1	0xbe27842e	-0.16359016
2	0x330c6d1b	3.269552e-08
3	0x34848b56	2.4688296e-07
4	0xbdd7619d	-0.10516665
5	0x3e3ef2ef	0.1864736
6	0x3ee42c82	0.44565207
7	0xb432aefc	-1.6641201e-07
8	0x3e712336	0.23548588
9	0xbd92c280	-0.07166004
10	0xbda5f826	-0.08103971
11	0xb52e7a8f	-6.49984e-07
12	0x39bc424c	0.0003590755
13	0x3e460244	0.19336802
14	0xbd756936	-0.05991479
15	0xbe704727	-0.23464642
16	0x3d5b63ca	0.053561963
17	0xb2bbe1de	-2.1872378e-08
18	0x3ccf92e7	0.025338603
19	0x30510e7d	7.6054346e-10
20	0xbda001a8	-0.07812816
21	0x3ebbaf40	0.36657143
22	0xb10b3d93	-2.0262163e-09
23	0x3e4a16cb	0.19735257
24	0xb20a7c09	-8.0608595e-09
25	0x3e80843c	0.25100887
26	0xb15331ab	-3.0732774e-09
27	0xbeaddc7a	-0.33957273
28	0xb1a57308	-4.8152096e-09
29	0xbec99428	-0.39370847
30	0xbded7041	-0.11593676
31	0x332a7692	3.968905e-08
32	0x3cca6e44	0.024710782
33	0x3dabccf3	0.083887
34	0x3e25d964	0.16196209
35	0x3dfd1d6c	0.123591274
36	0xbd14144a	-0.03615216
37	0xb1905dfc	-4.2016364e-09
38	0x3e49fa91	0.1972449
39	0xbee014c8	-0.43765855
40	0x3296a4f5	1.7537312e-08
41	0xbb1f8e10	-0.002434615
42	0x3289e52b	1.6053113e-08
43	0x3e959ca5	0.29221073
44	0xb19e72ec	-4.6114703e-09
45	0x3136d8ff	2.6607834e-09
46	0x3d92add3	0.071620606
47	0x320bb645	8.132308e-09
48	0xbddde681	-0.10834981
49	0x34f56114	4.570544e-07
50	0xbde6f854	-0.112778336
51	0x3e9666ca	0.29375297
52	0xb904f332	-0.00012679098
53	0xb22224bb	-9.437993e-09
54	0x3eb841db	0.35987744
55	0xbe066552	-0.13124588
56	0xb7dde4a0	-2.6451715e-05
57	0x32423558	1.1304415e-08
58	0xbdcd5de9	-0.100276776
59	0xbe80cd48	-0.25156617
60	0x3d4e2b5d	0.050334323
61	0xb2b324e7	-2.0855124e-08
62	0xbceecd70	-0.029150695
63	0x3d39b082	0.045334347
64	0x325a02a1	1.2689868e-08
65	0xbeb6bad8	-0.35689425
66	0xb2e72bcf	-2.6911861e-08
67	0xb49d2b92	-2.927523e-07
68	0x3da8de21	0.08245493
69	0xbeb868c1	-0.3601742
70	0x3dd3f0d6	0.1034867
71	0xb4275cca	-1.5586843e-07
72	0x3ecfd885	0.4059488
73	0xbdba425c	-0.09094688
74	0x3e62ce9e	0.2214913
75	0xb4722f87	-2.2555297e-07
76	0xb84f2eee	-4.9396353e-05
77	0xbefa95ba	-0.48942357
78	0xbe711855	-0.23544438
79	0xbdbbb3f5	-0.091651835
80	0x3cfef89f	0.031124411
81	0xb06795b1	-8.4250035e-10
82	0xbe4ed216	-0.20197329
83	0x31ce17b4	5.998084e-09
84	0x3ea5c811	0.323792
85	0x3dd0006c	0.101563305
86	0xb276312d	-1.4330266e-08
87	0xbd9301a2	-0.07178046
88	0x32c926b5	2.3417082e-08
89	0x3d8cb1a2	0.06869818
90	0x321cc6d8	9.125607e-09
91	0x3ea30747	0.3184149
92	0xb291acf6	-1.6958875e-08
93	0x3dff6ca2	0.12471892
94	0x3e9abd13	0.30222377
95	0x31f7b825	7.209581e-09
96	0x3e992b4b	0.29915842
97	0x3e045075	0.12921317
98	0x3e1f47af	0.15554689
99	0x3e6f976c	0.23397607
100	0xbec75754	-0.38933814
101	0x30464cba	7.2141015e-10
102	0xbeb7bd4f	-0.35886618
103	0xbcc94c87	-0.024572624
104	0xb285d623	-1.5580616e-08
105	0x3e91e0ba	0.28491765
106	0xb1413093	-2.8112808e-09
107	0xbe9b6a2f	-0.3035445
108	0xb287d162	-1.5811285e-08
109	0xb1228c85	-2.3653979e-09
110	0x3dd9a4a1	0.106271036
111	0xb24c8c74	-1.1906298e-08
112	0xbe911749	-0.28338078
113	0x33b654ae	8.4904386e-08
114	0x3e5a0f51	0.21294905
115	0x3e665289	0.22492422
116	0xb8905a3d	-6.883263e-05
117	0xb15e0a1c	-3.2310998e-09
118	0x3f462f81	0.77416235
119	0xbe6fc29b	-0.2341408
120	0xb9934a8b	-0.00028093564
121	0xb268ab0d	-1.354307e-08
122	0xbebe8519	-0.3721092
123	0xbe165949	-0.14682497
124	0xbd243136	-0.040085994
125	0xb1d15055	-6.0918333e-09
126	0x3d2392a3	0.039934766
127	0x3da2dc15	0.079521336
128	0xb1dea8a4	-6.4802226e-09
129	0xb75629d7	-1.2765136e-05
130	0x318d1bf8	4.1068198e-09
131	0xae3661e8	-4.1468967e-11
132	0xb7b215a8	-2.1229338e-05
133	0x37257652	9.862315e-06
134	0x36ce32e5	6.1452033e-06
135	0x315699f7	3.1228617e-09
136	0xb733d488	-1.0718715e-05
137	0x3551cebb	7.81594e-07
138	0xb68f1f5a	-4.265382e-06
139	0xb11d41bd	-2.2883875e-09
140	0x31dd2dbc	6.437146e-09
141	0xb6a23f46	-4.835342e-06
142	0xb781eb5a	-1.5487592e-05
143	0x36ef4118	7.130333e-06
144	0xb78c3904	-1.671585e-05
145	0x309fa53a	1.1615733e-09
146	0xb8444d35	-4.6801946e-05
147	0xb1fa85d1	-7.291171e-09
148	0x36b18caa	5.2913865e-06
149	0x3712bc47	8.746115e-06
150	0xb215538b	-8.691937e-09
151	0xb7136209	-8.784708e-06
152	0xb258697c	-1.2596839e-08
153	0xb82d1bf3	-4.1272444e-05
154	0xb012aced	-5.3360233e-10
155	0x37a89eaa	2.0101044e-05
156	0xb255dfca	-1.24491155e-08
157	0x37322ad9	1.0619603e-05
158	0x3641ef40	2.8898503e-06
159	0x3243b66b	1.1391971e-08
160	0xb5ad03de	-1.289063e-06
161	0xb6afc705	-5.2385753e-06
162	0x3522e584	6.068369e-07
163	0xb5a9b582	-1.2644307e-06
164	0xb6018c53	-1.9304177e-06
165	0x3189e45a	4.0131853e-09
166	0x34011693	1.2022274e-07
167	0x36a8a758	5.0262715e-06
168	0xb2182ef1	-8.858238e-09
169	0x35a545f7	1.231382e-06
170	0x30ce4604	1.5008372e-09
171	0xb6a4466b	-4.8957786e-06
172	0x32187518	8.8741885e-09
173	0x3032c6f8	6.5038774e-10
174	0xb5d2c2fc	-1.5702967e-06
175	0x2fb6b952	3.3237285e-10
176	0xb687ab3c	-4.043248e-06
177	0xb1821291	-3.7856087e-09
178	0x36821e51	3.877831e-06
179	0xb525ffad	-6.1839347e-07
180	0x31e5b134	6.684923e-09
181	0xb15f3c24	-3.2484957e-09
182	0xb5cc3a74	-1.5216197e-06
183	0x355c99c6	8.2180156e-07
184	0xb155edb3	-3.1130696e-09
185	0x30cd3336	1.4930268e-09
186	0x36d84594	6.4454016e-06
187	0xb5cb82aa	-1.5162707e-06
188	0xb69cb8f9	-4.670696e-06
189	0xb1c45d89	-5.7149845e-09
190	0xb59c7870	-1.1657958e-06
191	0x33e12785	1.04845675e-07
192	0x304c7beb	7.4390866e-10
193	0x3680722b	3.827988e-06
194	0x30af6af8	1.2763328e-09
195	0x3228fb9e	9.836098e-09
196	0xb6ae728d	-5.1989396e-06
197	0xb6062081	-1.9986476e-06
198	0x3592ea47	1.0946031e-06
199	0x31836bf5	3.824875e-09
200	0xb6506a59	-3.1056318e-06
201	0x3544e463	7.3348036e-07
202	0xb6021672	-1.9384574e-06
203	0x312dbfee	2.5283913e-09
204	0xb205d315	-7.789613e-09
205	0xb53f4d3b	-7.126543e-07
206	0x36d2d4a4	6.2832423e-06
207	0xb730f215	-1.0546782e-05
208	0xb69d6b89	-4.6914834e-06
209	0xb11a7a23	-2.2479376e-09
210	0xb3dc2ed0	-1.02530635e-07
211	0x322a5aaf	9.915921e-09
212	0xb5779585	-9.223225e-07
213	0xb6418563	-2.8836882e-06
214	0xb2274bb6	-9.737894e-09
215	0x3640fab5	2.875616e-06
216	0xb039dba0	-6.7614714e-10
217	0x36577871	3.2107603e-06
218	0x30b99b24	1.3504615e-09
219	0xb4d2d149	-3.9267823e-07
220	0x31aa7311	4.9607327e-09
221	0x36cd61c3	6.120857e-06
222	0xb6119e58	-2.1698852e-06
223	0xb09d7469	-1.1456339e-09
224	0xb524a068	-6.132818e-07
225	0xb5e28a53	-1.687857e-06
226	0xb57ce996	-9.421723e-07
227	0x3515d59a	5.5817657e-07
228	0xb4e0b927	-4.1857967e-07
229	0x3231f39b	1.03581455e-08
230	0x34d8a19d	4.0350724e-07
231	0xb4e58a98	-4.2755414e-07
232	0x3093e23d	1.0759958e-09
233	0xb37be732	-5.8650762e-08
234	0x3192a1bb	4.267546e-09
235	0xb5bac0db	-1.3914208e-06
236	0x301cde1c	5.7068106e-10
237	0xb25e9333	-1.295557e-08
238	0x34b3e277	3.3506123e-07
239	0x31c3ff05	5.7042393e-09
240	0x3450ebca	1.9457289e-07
241	0x3204c5c5	7.728379e-09
242	0x34923e09	2.7239756e-07
243	0xb5b57d9f	-1.3522111e-06
244	0x309842c8	1.1078436e-09
245	0xb19d14c9	-4.5716644e-09
246	0x34df032a	4.153929e-07
247	0xb524f693	-6.1453574e-07
248	0x3083f2c6	9.600505e-10
249	0xafd78f5e	-3.921014e-10
250	0xb51c182d	-5.814971e-07
251	0xb3da1ba8	-1.0156447e-07
252	0xb55bedbe	-8.192982e-07
253	0x325823fa	1.2581035e-08
254	0x350473a5	4.9342117e-07
255	0xb3bf3c6c	-8.905121e-08

convs.0.lin_pos_r.weight f4 [32, 32]
0	0x329a1d0a	1.7941165e-08
1	0xbeb1861d	-0.34672633
2	0x3497c93a	2.8272353e-07
3	0xb5667753	-8.5855316e-07
4	0x3cd67c36	0.026182275
5	0xbe9e400d	-0.30908242
6	0x3d7f0807	0.062263515
7	0xb4066cd2	-1.2519311e-07
8	0x3e0e170a	0.13875976
9	0xbe2bbb15	-0.16770585
10	0xbe228387	-0.15870486
11	0x34521599	1.9565631e-07
12	0xb9854d7f	-0.00025425476
13	0xbe571f7c	-0.21008104
14	0xbe27ea55	-0.16397984
15	0xbd393c01	-0.04522324
16	0x3e6a1d68	0.2286278
17	0x35ef21b9	1.7816702e-06
18	0xbe2a13b3	-0.16609077
19	0x2f9ac6fa	2.8153818e-10
20	0xbe92c959	-0.2866924
21	0x3e6a9fb1	0.2291248
22	0xb33ae235	-4.3512234e-08
23	0x3eb87e32	0.3603378
24	0x3196bb47	4.3868655e-09
25	0x3ef70340	0.48244667
26	0xb213bfc1	-8.600126e-09
27	0xbd089114	-0.033341482
28	0xb187d565	-3.9532773e-09
29	0xbf1aa91e	-0.604143
30	0xbf4c1c52	-0.79730713
31	0x32805170	1.4938195e-08
32	0xb35c6982	-5.13187e-08
33	0xbe6c09ab	-0.23050563
34	0xb3996c7a	-7.1443495e-08
35	0xb2e2e0c9	-2.6412083e-08
36	0xbd9ea509	-0.07746322
37	0xbea41591	-0.32047704
38	0xbdc8d44d	-0.09806118
39	0x3422aace	1.5149564e-07
40	0x3edc9c6f	0.430881
41	0xbe7d5a87	-0.24741565
42	0x3d74059c	0.059575662
43	0xb51a58a3	-5.7498454e-07
44	0xb94ebd6b	-0.00019716255
45	0xbec728b3	-0.3889824
46	0xbe748efa	-0.23882666
47	0xbe773ba5	-0.24143846
48	0xbddf8487	-0.109139495
49	0xb2f0ae5e	-2.801897e-08
50	0x3c8b1483	0.016977554
51	0xb283b323	-1.5331869e-08
52	0x3e4edefc	0.2020225
53	0xbe236346	-0.15955839
54	0xb2598fbd	-1.2663745e-08
55	0xbead56d3	-0.33855304
56	0x3307f807	3.1657716e-08
57	0xbdf4f91c	-0.11961576
58	0x3097838b	1.1024083e-09
59	0x3e81d650	0.2535882
60	0x32cebd21	2.4067562e-08
61	0xbec1e037	-0.37866375
62	0xbda40042	-0.08007862
63	0xb26e4901	-1.38700225e-08
64	0x31ccae05	5.956965e-09
65	0xb75ae328	-1.30467015e-05
66	0x32eb1d4b	2.7370922e-08
67	0x327cbf7d	1.471187e-08
68	0xb78411f0	-1.5743979e-05
69	0x372210ee	9.659894e-06
70	0xb70c8f17	-8.377966e-06
71	0x32888c0e	1.5896173e-08
72	0xb6dbb95a	-6.5482864e-06
73	0xb6e21261	-6.7374644e-06
74	0xb6021c69	-1.9388046e-06
75	0x32d4f3a7	2.4790848e-08
76	0xb215cb47	-8.719161e-09
77	0xb692a0f0	-4.3698747e-06
78	0x3700e5d2	7.682904e-06
79	0xb600f121	-1.9213842e-06
80	0xb5aaeac3	-1.2734312e-06
81	0x319be536	4.537152e-09
82	0xb79f0f81	-1.8961497e-05
83	0xb29871c0	-1.7746856e-08
84	0xb71fd95e	-9.527748e-06
85	0x372ed6ef	1.0421251e-05
86	0x3213c838	8.602051e-09
87	0xb8056315	-3.180195e-05
88	0xb186f9f8	-3.9283314e-09
89	0xb76a1168	-1.395154e-05
90	0xb190d912	-4.2156296e-09
91	0x36ade86f	5.1828606e-06
92	0xb121e1b0	-2.3556872e-09
93	0xb6fd2030	-7.5437347e-06
94	0xb726a785	-9.933375e-06
95	0x31848b3c	3.8575347e-09
96	0xb1b849b6	-5.3634848e-09
97	0xb5d939b9	-1.6184559e-06
98	0xaf6b4f4b	-2.1401296e-10
99	0xb2c2b025	-2.2664674e-08
100	0xb7017381	-7.715892e-06
101	0x3611aa10	2.1705673e-06
102	0xb69a581f	-4.5998163e-06
103	0xb109e9a8	-2.0068942e-09
104	0x366dbe45	3.5426503e-06
105	0xb6eba467	-7.0226847e-06
106	0xb5ff64ae	-1.9028282e-06
107	0xb27b4151	-1.4624974e-08
108	0xb277d6c8	-1.4426128e-08
109	0x367e0298	3.785046e-06
110	0x35b7c123	1.3690773e-06
111	0xb6eb34c8	-7.0096903e-06
112	0xb531e3a6	-6.626891e-07
113	0xb2791c27	-1.4500109e-08
114	0x343e3431	1.7714116e-07
115	0xb1c325a8	-5.679528e-09
116	0x357b47f2	9.360948e-07
117	0x3531c3ce	6.622257e-07
118	0xb098d443	-1.1119784e-09
119	0x36ab4d9f	5.1052334e-06
120	0x30b3e771	1.3089744e-09
121	0xb71ebc1e	-9.461333e-06
122	0xaee18a47	-1.02563784e-10
123	0x3610476e	2.149925e-06
124	0xb2c5243a	-2.2950292e-08
125	0x36537e62	3.1515015e-06
126	0xb5766b41	-9.1798216e-07
127	0x324b5402	1.1835256e-08
128	0x32816be0	1.5066632e-08
129	0xb3f14c43	-1.1236309e-07
130	0x3218f62d	8.903538e-09
131	0xb00bd132	-5.086519e-10
132	0x320e46ac	8.281557e-09
133	0x33ac4bda	8.0231715e-08
134	0x34aa66f2	3.173987e-07
135	0x304ff091	7.5648027e-10
136	0x34534693	1.9676581e-07
137	0x330039ad	2.9854778e-08
138	0xb486473b	-2.5011272e-07
139	0xb2645dc7	-1.3292669e-08
140	0xb1843283	-3.847448e-09
141	0x334324ad	4.5435332e-08
142	0x3318a45a	3.5539735e-08
143	0xb238a072	-1.0746691e-08
144	0x32ea8bbc	2.730473e-08
145	0x30878d32	9.862673e-10
146	0x33424493	4.5231513e-08
147	0x30980a06	1.1062304e-09
148	0xb2502c01	-1.2117199e-08
149	0x35427f20	7.2455623e-07
150	0x316804f4	3.3763259e-09
151	0x34437051	1.820165e-07
152	0xb281afee	-1.509758e-08
153	0x33a7a9e5	7.807447e-08
154	0x31f40944	7.102388e-09
155	0xb317dd9d	-3.5358983e-08
156	0x32e457a0	2.658254e-08
157	0xb45e9952	-2.0731139e-07
158	0xb381cb38	-6.043996e-08
159	0xb0be4dc7	-1.3846425e-09
160	0xaee875c1	-1.0571056e-10
161	0xbe7407c1	-0.23831083
162	0xb2983d54	-1.7723018e-08
163	0x32905bb3	1.6805506e-08
164	0xbe05c6bc	-0.13064092
165	0x3f0594cc	0.5218017
166	0x3e4ac91f	0.19803284
167	0xb419e5da	-1.4332855e-07
168	0x3eb70a9e	0.35750288
169	0x3e0b8eb6	0.13628659
170	0x3df1ec2a	0.11812623
171	0xb3686beb	-5.411486e-08
172	0x35287477	6.2754356e-07
173	0x3cdf8b34	0.027288057
174	0xbdcd5728	-0.10026389
175	0xbe5c6286	-0.21521959
176	0xbeeb712d	-0.45984784
177	0x339a6a6e	7.190543e-08
178	0xbe8144fa	-0.25247937
179	0xb0872861	-9.834019e-10
180	0x3e9c74ac	0.30557764
181	0xbf361b71	-0.7113562
182	0x33089606	3.1801413e-08
183	0xbf20eb79	-0.628593
184	0xb22a2681	-9.904057e-09
185	0x3e9a2d08	0.3011248
186	0x324a71ee	1.1783852e-08
187	0x3d3b2886	0.045692943
188	0x335742d5	5.011937e-08
189	0xbc52679e	-0.012842087
190	0x3e578514	0.21046859
191	0xb2329355	-1.0394463e-08
192	0x329e07d4	1.839718e-08
193	0xb469b202	-2.1764575e-07
194	0x32151bb5	8.679241e-09
195	0x308710a6	9.827275e-10
196	0x33adb0eb	8.0881215e-08
197	0xb48cdab7	-2.6236168e-07
198	0xb34ac815	-4.7213764e-08
199	0x3098ca50	1.1116956e-09
200	0xb3d0c603	-9.721773e-08
201	0xb4b8de35	-3.4434348e-07
202	0x34c29dab	3.6250034e-07
203	0xb1273c03	-2.4335811e-09
204	0xb19a79c3	-4.4958326e-09
205	0xb4318f3d	-1.653652e-07
206	0x3472c4f8	2.2609663e-07
207	0xb3dfdcbe	-1.04243995e-07
208	0xb329e18c	-3.9553512e-08
209	0xb1e95320	-6.7906427e-09
210	0xb3a32913	-7.59775e-08
211	0x3081b593	9.437592e-10
212	0x340cbb0d	1.3106565e-07
213	0x34eb3e4a	4.3817482e-07
214	0xb1a8f145	-4.9168727e-09
215	0xb4c10966	-3.595589e-07
216	0x32767a7a	1.43469325e-08
217	0xb51b6fff	-5.7904975e-07
218	0xb0bb0ac5	-1.3609102e-09
219	0xb3bed147	-8.885632e-08
220	0x3284393a	1.5392846e-08
221	0xb4194f1a	-1.4278012e-07
222	0x33a118e7	7.5016764e-08
223	0x320a5914	8.052911e-09
224	0x32a03c65	1.8653916e-08
225	0xb26a9772	-1.3655027e-08
226	0xb19a2a95	-4.486831e-09
227	0x31a9cefa	4.942078e-09
228	0xb320349b	-3.7300747e-08
229	0xb38dc1cb	-6.601075e-08
230	0xb1d590fa	-6.215598e-09
231	0x329f56be	1.8549482e-08
232	0xb39e171a	-7.3616505e-08
233	0x31bf0c24	5.560212e-09
234	0xb3578d1a	-5.018692e-08
235	0xb2bf2ef6	-2.2256682e-08
236	0x320e3a2a	8.278713e-09
237	0x33793efa	5.8032107e-08
238	0x329f5069	1.8546602e-08
239	0xb3730664	-5.658366e-08
240	0xb3585e49	-5.037717e-08
241	0x3215731b	8.699113e-09
242	0x32f1f821	2.8168929e-08
243	0x31e7a583	6.7418013e-09
244	0x3236ecc1	1.0647626e-08
245	0x3247d9b8	1.1632828e-08
246	0x322c6a96	1.00359525e-08
247	0xb289d071	-1.6043687e-08
248	0x3088a4f3	9.942184e-10
249	0x3342836b	4.528867e-08
250	0x32978f48	1.764387e-08
251	0x333c2971	4.380985e-08
252	0x31955323	4.3459223e-09
253	0x327517d2	1.4266293e-08
254	0x337b9d87	5.8583762e-08
255	0x3170264a	3.4946361e-09

convs.0.lin_pos_r.bias f4 [32]
0	0x3e3fb32d	0.18720694
1	0x3e1bfa08	0.15232098
2	0xb8c17ddd	-9.226401e-05
3	0xb55ac875	-8.150303e-07
4	0xb632853e	-2.6601624e-06
5	0x3e6a20e2	0.22864106
6	0xb5ee81e0	-1.777018e-06
7	0xb382f290	-6.0977186e-08
8	0xbcaae083	-0.020859009
9	0xb5501304	-7.751371e-07
10	0xbcf35bf3	-0.02970693
11	0xb5b6f525	-1.3631403e-06
12	0x3e2e0d15	0.16997178
13	0xbcc29691	-0.023753436
14	0xbd09b862	-0.033623107
15	0xbc165689	-0.009175905
16	0xb7becf93	-2.2746424e-05
17	0xbbe38fa7	-0.006944615
18	0xbd2af763	-0.041739833
19	0xbcbd07a6	-0.023074936
20	0xbd95f59f	-0.07322239
21	0x3d63e167	0.055634882
22	0xbaa022ce	-0.0012217404
23	0xbc2b2fa8	-0.010448374
24	0xbc4e2c72	-0.012583839
25	0x36b20079	5.3048684e-06
26	0xbc71986a	-0.014745811
27	0xb71c7a4e	-9.326801e-06
28	0xba485bed	-0.00076430925
29	0xbd118ae8	-0.035532862
30	0xb62a93a8	-2.5417921e-06
31	0x3e16e3ad	0.14735289
