bitcoin-otc/models/bitcoin-otc-train-2.pt (torch, 64443 bytes, 14 tensors)

conv1.lin_pos_l.weight f4 [32, 64]
00000000: c867 6db3 e3ec e632 7794 d6b9 c5ad 0bb6
00000010: ea06 7433 bd23 07b3 87c5 4732 feea 2b33
00000020: 7dc9 0032 1541 b8b2 250d 4eb2 a235 5c32
00000030: ab47 cbb1 4505 62b1 51b7 0eb3 1d0d 34b2
00000040: e61d bcb1 b4ab 4ab2 dab6 9aae 1491 e6af
00000050: 815a 5132 53a2 f4b1 df0c 8fb0 8911 8f32
00000060: 2753 ba31 79e2 68b2 bbf3 73b2 2b17 b032
00000070: a5ec 2d33 5682 edb1 3816 1cb2 4fde 6eb2
00000080: 8ad1 1232 f5fd 6f31 57d9 ebb2 0128 d232
00000090: e535 30b0 b053 0cb2 6fa3 aab0 7c8e e230
000000a0: 5a6b 3832 3945 78b2 ddbe 11b2 1754 c7b1
000000b0: 7e2e 2931 2669 73b0 5a6f 71b2 ba56 c0b1
000000c0: b3e2 04b2 26f9 8231 c8f8 9fb0 d6ae 9832
000000d0: d3a5 d6b1 43f2 8db2 98e5 4db1 2198 ffaf
000000e0: 44b4 0d32 73a8 2032 aedb 7e32 8380 e831
000000f0: e8cf 01b2 cb44 09b2 936d 2931 4cb3 6b31
00000100: c6ae dcbd 750a aa3d c39b 8ebb 853d 653d
00000110: 860e 9dbc 59de 45be 04a3 d93d 5dab 193e
00000120: 80fd a83b de84 813e 2e22 b03c 5f15 5c3e
00000130: c317 1dbe b189 7a3d 3e43 b83c 690c 92bd
00000140: 0ede b43d f497 843c 1a87 1b3e fb98 82bd
00000150: e5cf c43d 2b6f 193e edb8 91bd 00e5 9dbc
00000160: c491 0abd 1d67 2d3e 9db6 b63d ce5c 373e
00000170: c1e3 8c3e 352d 473e f33b ae3e 453e a93c
00000180: 2b13 cabd 9a9b 103b 4845 7fbd 2085 383e
00000190: 5f70 92bd 4eba 8dbd 0e1c 393e 998c e6bd
000001a0: 7fa3 563d 827d 233a 8d32 783c ab5c 81bd
000001b0: 1ea8 483e 0133 d1bd f58d b4bd db58 66be
000001c0: 9931 8ebe d3d9 9d3c bfc0 07be fe6c 063e
000001d0: 0d2b f9bd b3c9 283e 4ab6 3dbd befe 8c3d
000001e0: cc94 fd3d 3643 24bd b32e bd3e 081b 8d3d
000001f0: 4a31 f4bb ea35 3d3d 5fe5 01bf cbeb bdbc
00000200: cbe7 6136 c448 f138 058e 27b9 b9ad ebbb
00000210: 19c1 d134 5999 ceb2 cc82 0c32 c860 2433
00000220: 989b 63b2 b6f0 7231 ac7e ed30 7aad 6db2
00000230: 1052 b1b1 11ef cbb1 110b 6432 0af5 dab1
00000240: eb01 24b2 dbc3 84b2 d5db df30 2720 bd31
00000250: 37b2 8db2 498a 0031 7d10 9fb2 06bc 85b2
00000260: 0133 d832 ddd5 a8b2 89f9 10b2 de5a 8732
00000270: ce65 18b1 853c 6132 cfe8 9a31 70dc 35b1
00000280: 7de5 83b0 6f07 f7b1 9788 ffb1 ac8e f931
00000290: 97ae 3b32 ffe2 47b1 fe08 7cb2 b65d 0932
000002a0: 3940 cab0 7d97 2eb2 d950 d2b2 1b84 e931
000002b0: b467 8eb1 5d73 e631 37a2 32b2 3486 4430
000002c0: 0d75 ffb1 a3ed 72b1 336d b332 cc68 1e32
000002d0: 546c 49b2 00a8 9ab0 c11f 91b2 20cc 8d31
000002e0: fc19 4d32 d28d aab1 086f 8db2 945b 3132
000002f0: 8da0 11b2 48c8 3232 3f86 32b1 217d 94b2
00000300: b36a 9c31 ec86 4cb2 073e a2b0 3352 a631
00000310: 25a6 9432 f726 db2f 3ad8 d4b1 e349 9f2e
00000320: 23ff 3731 ef43 aa31 ff6a 6130 68fb deb1
00000330: 1621 65b2 e9f9 a931 6f07 6c31 b013 a0b1
00000340: fb85 cc31 ecef 2131 1dff 7532 e5bc f1b0
00000350: e7c6 23af 94b2 a331 a7b9 d7b0 4a58 1932
00000360: 108f 37b2 72dd 60b1 8532 7eb2 c8ef 23b2
00000370: fe3c 9c32 523e 9fb2 c2a1 4eb2 10c4 fd31
00000380: 5c79 78b1 8505 ebb1 bfdb 9930 087d a531
00000390: 492b 2431 26fb 5c32 fa7b 6eb1 2731 0b32
000003a0: 55f6 5731 88a4 2eb2 ff08 3831 8994 a32f
000003b0: dd11 a02e 000a 12b2 5e45 c131 95df 1d32
000003c0: e463 9132 ea4b 16b0 494d 35b2 c044 3d32
000003d0: 6ba4 5330 113a f1b0 73e2 382f 28d3 cb31
000003e0: 7a6b deaf c83e 0f32 abcf 2532 d1b2 8830
000003f0: 0a9c b631 4f04 ef31 6d2b 1cb2 6273 82b2
-5.527525e-08 2.6883248e-08 -0.00040927876 -2.0813761e-06 5.6816965e-08 -3.146464e-08 1.1628237e-08 4.0027764e-08
7.496394e-09 -2.1450015e-08 -1.1993767e-08 1.281788e-08 -5.9162253e-09 -3.2890324e-09 -3.3228677e-08 -1.0480361e-08
-5.474919e-09 -1.1796988e-08 -7.03559e-11 -4.193984e-10 1.2185979e-08 -7.1197888e-09 -1.0408278e-09 1.6655365e-08
5.422766e-09 -1.3555671e-08 -1.41998795e-08 2.0499632e-08 4.049493e-08 -6.9124253e-09 -9.085447e-09 -1.390397e-08
8.545962e-09 3.4923435e-09 -2.7456435e-08 2.446541e-08 -6.4105016e-10 -8.168101e-09 -1.2415579e-09 1.6484161e-09
1.07346185e-08 -1.4451239e-08 -8.483508e-09 -5.801222e-09 2.4619164e-09 -8.855231e-10 -1.4053365e-08 -5.597795e-09
-7.734957e-09 3.811823e-09 -1.163948e-09 1.7774635e-08 -6.2470717e-09 -1.6524728e-08 -2.9961935e-09 -4.6492324e-10
8.248268e-09 9.351527e-09 1.4834695e-08 6.7666988e-09 -7.556061e-09 -7.990091e-09 2.4655022e-09 3.429892e-09
-0.10775523 0.08302776 -0.0043520643 0.055966873 -0.019171964 -0.193231 0.10626796 0.15006776
0.0051571727 0.25296682 0.021500673 0.21492527 -0.15341096 0.06116647 0.022493001 -0.07131273
0.08831416 0.016185738 0.15188256 -0.06376835 0.09609965 0.14983813 -0.0711535 -0.019274235
-0.03383042 0.16933866 0.089215495 0.17906496 0.27517512 0.19450839 0.34030113 0.020659575
-0.09866937 0.0022065402 -0.06232193 0.18019533 -0.07150339 -0.069203004 0.18077108 -0.112572856
0.052402016 0.00062366587 0.015148771 -0.06316503 0.19595382 -0.10214806 -0.08816139 -0.22494833
-0.27772215 0.019268906 -0.1325712 0.13127515 -0.121664144 0.16483192 -0.046316423 0.06884526
0.123818964 -0.04010316 0.3694969 0.068899214 -0.007452165 0.046193995 -0.5074062 -0.023183724
3.3662534e-06 0.00011505329 -0.00015979267 -0.00719234 3.906978e-07 -2.405129e-08 8.178812e-09 3.8272248e-08
-1.3248517e-08 3.5352463e-09 1.7280022e-09 -1.383466e-08 -5.1607074e-09 -5.9352563e-09 1.3273863e-08 -6.3724928e-09
-9.5464925e-09 -1.5455887e-08 1.6287866e-09 5.5042793e-09 -1.6495603e-08 1.8705058e-09 -1.8517534e-08 -1.5568741e-08
2.5168903e-08 -1.9655028e-08 -8.438641e-09 1.575739e-08 -2.217678e-09 1.3110484e-08 4.508457e-09 -2.646427e-09
-9.596729e-10 -7.1894912e-09 -7.4370052e-09 7.2630737e-09 1.092453e-08 -2.9087344e-09 -1.4670375e-08 7.995757e-09
-1.4715688e-09 -1.01625774e-08 -2.4483983e-08 6.796211e-09 -4.1445336e-09 6.7069963e-09 -1.0397847e-08 7.14951e-10
-7.434784e-09 -3.5350716e-09 2.0888e-08 9.2206385e-09 -1.1724371e-08 -1.1252723e-09 -1.6894662e-08 4.1268464e-09
1.1938479e-08 -4.9637743e-09 -1.6465052e-08 1.0323578e-08 -8.476616e-09 1.0406502e-08 -2.597872e-09 -1.728637e-08
4.552328e-09 -1.19050405e-08 -1.1804681e-09 4.840581e-09 1.7305021e-08 3.9863554e-10 -6.194594e-09 7.243608e-11
2.6775033e-09 4.9553743e-09 8.2006574e-10 -6.489632e-09 -1.3337077e-08 4.946959e-09 3.4346745e-09 -4.658851e-09
5.9524132e-09 2.3564963e-09 1.4318883e-08 -1.7588745e-09 -1.4895428e-10 4.7642263e-09 -1.5696074e-09 8.925847e-09
-1.0684531e-08 -3.2722167e-09 -1.4796233e-08 -9.542369e-09 1.8188526e-08 -1.8538376e-08 -1.2027558e-08 7.385559e-09
-3.6157735e-09 -6.8400277e-09 1.1194671e-09 4.8163464e-09 2.3889746e-09 1.286279e-08 -3.470403e-09 8.102041e-09
3.1426641e-09 -1.0165543e-08 2.6780638e-09 2.9755068e-10 7.279131e-11 -8.500592e-09 5.6249254e-09 9.189439e-09
1.6925647e-08 -5.467756e-10 -1.0553159e-08 1.101688e-08 7.6995005e-10 -1.7551561e-09 1.6815153e-10 5.9320833e-09
-4.0457931e-10 8.33797e-09 9.651482e-09 9.946125e-10 5.3146367e-09 6.9563053e-09 -9.090269e-09 -1.5186462e-08

conv1.lin_pos_r.weight f4 [32, 64]
00000000: b733 af38 1beb b53a 4eb3 06bc 7ae2 b0ba
00000010: dbf4 ce39 c383 4432 964f 85b1 556f c532
00000020: 5980 92b0 1bf9 a0b2 5bc5 45b2 0692 97b2
00000030: 866c c232 2e43 5f31 2254 9a32 c961 4033
00000040: f590 1032 2573 22b2 b68a 7832 ffd6 2432
00000050: da0f 2ab2 5250 2a32 b2b6 9b31 8942 e431
00000060: b2b1 23b1 e968 52b2 f215 8bb2 1b63 2ab2
00000070: fd77 79b2 7077 3732 1be5 9032 44f2 22b2
00000080: b1d1 e230 8355 a032 56c5 9a31 1100 d831
00000090: 2898 99b2 d9ee 0731 b356 1433 8569 f3af
000000a0: 4ffc 58b2 6b6b 38b1 7488 1db2 13b9 d732
000000b0: f2b6 73b2 f048 8331 5b39 6db2 d767 08b2
000000c0: b4fc b8b2 7cc9 89b2 d3ec 9033 58a7 58b2
000000d0: 396d ca32 db13 97b1 c515 8632 77f6 cc31
000000e0: e8eb 1ab0 b726 59b1 ca26 70b1 e73d 88b1
000000f0: c7cf 18b0 8d3c 1432 d28b 2732 5908 e3b0
00000100: 4d01 30bf b57a 1abe f131 f8bc d1aa 45bd
00000110: 3ff5 ba3c 72e9 4b3e fe15 ad3d aab1 31be
00000120: dc05 a7bd be30 d73d 8ee2 8fbd aef7 2f3c
00000130: 4d4d f5ba a33f 2b3e e3fa 413d 14b6 ca3c
00000140: bede aa3d 29fd c83c eaee 08be 4419 e13d
00000150: e5e8 11be fc81 243d 5725 143d cd47 00be
00000160: 27ff 17bd 8dc0 f23d 63a9 1a3e d5d8 033e
00000170: c020 b73d 802a 04be 63ff f7bd 382e febd
00000180: e5b5 9e3d 9a34 f2bd d28f 9d3d d7d2 973b
00000190: fc70 bcbd b6ca 11bd 0e83 813c 6d2b 5fbd
000001a0: a7d2 51be 13c5 c23d 4f71 fbbd c1d3 c53c
000001b0: c98f 5c3d df26 e33d 2e06 b8bd fc05 dcbc
000001c0: 0591 273d e69b ea3c 9ae7 4b3c c4ed 84bd
000001d0: b5d1 e9bd 2442 8f3d 4b58 0dbe f3e4 32be
000001e0: ea79 353e 25cc c53d e2b7 693e f3b4 e2bd
000001f0: 40cc 0fbe b4ef 593e 8f38 de3c d7ab cfbb
00000200: d83f 05b5 9a1b 58b2 391a 1c32 a5ba dc31
00000210: 2cb1 2b33 258b e231 ae4f abb2 8446 d531
00000220: 8df7 a631 2056 15b0 3de1 bfb1 b946 74b3
00000230: 16fa 0c31 718e 6b32 0db3 a732 f6cc 3cb2
00000240: 4b0c 22b2 070a 3332 e175 85b1 807a 9d30
00000250: a7d6 97b1 cf77 b332 ecf9 6bb3 5763 7632
00000260: 8f43 ac32 57af 6331 5099 90b2 1133 d2b1
00000270: b5d9 4e32 b715 6cb1 c196 3532 17e9 2c32
00000280: 5fec 6fb2 78cf 97b2 53d7 da31 39ef 8832
00000290: 18de 1ab2 a9e2 a6b2 02cf bb30 3146 7231
000002a0: 9077 7b32 39d5 7e32 3cf4 a4ae 22bc b7b0
000002b0: 47a9 beae fd48 4832 3f20 9c30 1f00 8632
000002c0: c9f0 0fb2 6452 1732 96da b831 7653 05b2
000002d0: 1d7d e2b0 a717 0eb2 db9f 17b0 0433 80b2
000002e0: c3ef 02b2 16c9 30af 611a 8eb2 14ca f2ad
000002f0: 1c05 d432 4676 3132 3ce1 e6b0 09a7 05b3
00000300: 24b8 7ab3 0f79 39b4 83cf 01b8 c7cd 0238
00000310: c97f 5b32 e518 91b2 4d46 4f33 e876 1fb3
00000320: 1aaf 9532 a356 3932 9671 70b0 ae3b d6b1
00000330: f4a7 4732 e5c1 1832 39f4 6ab2 4d06 15b2
00000340: 6c0c 3f32 5ab6 d132 6472 9d30 cbd6 8e32
00000350: 73f3 b7b1 39a5 0932 1bc5 ae32 03f6 2ab1
00000360: 3d70 8c32 474b f7b1 260e c130 3ef7 2732
00000370: b4cc ae32 4e7f a530 c613 62b2 6c29 1731
00000380: 4324 8e32 a95c d5b1 d13f 2033 dd81 0f32
00000390: 9095 b732 ce7c 12b3 9c2f 04b1 b5ea 3cb2
000003a0: da2e bbb2 49d7 0932 7700 16b1 b8dc 8932
000003b0: 76e0 83b2 cc4b 36b2 5328 9a31 83e8 cc30
000003c0: aad9 82b2 7b76 6932 3875 a8b2 6440 9db2
000003d0: 524e 7531 ed9b 61b1 b68a 6532 2552 2b33
000003e0: 84a0 d0b2 308d beb2 4c7f 7d32 f0b3 0ab2
000003f0: 4c35 2032 8f7e d632 c721 982f c52a 57b1
8.354283e-05 0.0013879271 -0.0082214605 -0.001349523 0.00039473813 1.1438661e-08 -3.8798573e-09 2.2984446e-08
-1.0659377e-09 -1.8739732e-08 -1.1511783e-08 -1.7645117e-08 2.2633923e-08 3.2488958e-09 1.7966219e-08 4.479242e-08
8.414863e-09 -9.455822e-09 1.4467039e-08 9.594941e-09 -9.898907e-09 9.913565e-09 4.5318638e-09 6.6432375e-09
-2.382063e-09 -1.2247463e-08 -1.619171e-08 -9.917836e-09 -1.452099e-08 1.0679159e-08 1.6867991e-08 -9.484726e-09
1.6503262e-09 1.8665338e-08 4.5044244e-09 6.286435e-09 -1.7880737e-08 1.9780855e-09 3.4537788e-08 -4.427642e-10
-1.2630223e-08 -2.6836584e-09 -9.169629e-09 2.5113456e-08 -1.41860586e-08 3.820894e-09 -1.3808257e-08 -7.939852e-09
-2.1535335e-08 -1.6040524e-08 6.7486006e-08 -1.2610904e-08 2.3565564e-08 -4.3969357e-09 1.5609553e-08 5.965201e-09
-5.6360117e-10 -3.1599663e-09 -3.4946646e-09 -3.9651584e-09 -5.559255e-10 8.6285015e-09 9.752471e-09 -1.6518796e-09
-0.68751985 -0.15085872 -0.030297251 -0.048258606 0.02282202 0.19913271 0.0845146 -0.1735293
-0.081554145 0.10507344 -0.07025634 0.010740204 -0.0018715054 0.16723494 0.047358405 0.024745025
0.08343266 0.024534779 -0.13372388 0.10991147 -0.14248998 0.040163025 0.036168423 -0.1252739
-0.037108567 0.118531324 0.15103678 0.12875684 0.089417934 -0.12906837 -0.12109258 -0.12411159
0.077495374 -0.11826439 0.07693447 0.0046332884 -0.092012376 -0.03559371 0.015809562 -0.054484773
-0.20490514 0.09510245 -0.12277471 0.024148824 0.05384806 0.110913984 -0.08985554 -0.026858322
0.040909786 0.028638791 0.012445355 -0.06490663 -0.114169516 0.06995037 -0.13803212 -0.1747015
0.17722288 0.09658078 0.22824052 -0.110696696 -0.14042759 0.21282846 0.027126579 -0.0063376236
-4.9639266e-07 -1.2579131e-08 9.0863574e-09 6.4240617e-09 3.9975177e-08 6.5932846e-09 -1.9943254e-08 6.2071326e-09
4.859379e-09 -5.4328275e-10 -5.5844382e-09 -5.6875e-08 2.0514839e-09 1.3711188e-08 1.9522782e-08 -1.0989643e-08
-9.432436e-09 1.0421451e-08 -3.8842107e-09 1.145807e-09 -4.4190815e-09 2.0892825e-08 -5.4942504e-08 1.4341672e-08
2.0054157e-08 3.3132517e-09 -1.6833525e-08 -6.11761e-09 1.2040279e-08 -3.4354863e-09 1.0569864e-08 1.0064716e-08
-1.39653755e-08 -1.767306e-08 6.3691146e-09 1.594127e-08 -9.014478e-09 -1.9428017e-08 1.3664876e-09 3.5255534e-09
1.4637308e-08 1.4833227e-08 -7.501241e-11 -1.3368473e-09 -8.6702694e-11 1.1658128e-08 1.1359659e-09 1.5599708e-08
-8.378444e-09 8.80809e-09 5.379955e-09 -7.760596e-09 -1.6479224e-09 -8.270866e-09 -5.516065e-10 -1.492436e-08
-7.621511e-09 -1.6078547e-10 -1.6542971e-08 -2.7601955e-11 2.4682372e-08 1.0329648e-08 -1.6798718e-09 -3.1118393e-08
-5.8375136e-08 -1.7273508e-07 -3.0949257e-05 3.118606e-05 1.2776533e-08 -1.6891542e-08 4.825988e-08 -3.7128217e-08
1.742551e-08 1.0788116e-08 -8.7472907e-10 -6.2350045e-09 1.1621513e-08 8.891651e-09 -1.36761225e-08 -8.674374e-09
1.1120488e-08 2.4413726e-08 1.1455765e-09 1.6628652e-08 -5.353678e-09 8.012017e-09 2.03459e-08 -2.4878097e-09
1.6349185e-08 -7.197204e-09 1.4046619e-09 9.776896e-09 2.0349354e-08 1.2041512e-09 -1.3159427e-08 2.1996938e-09
1.6547466e-08 -6.20965e-09 3.7310944e-08 8.353223e-09 2.1372017e-08 -3.4106783e-08 -1.923559e-09 -1.09964065e-08
-2.179097e-08 8.0234e-09 -2.1828137e-09 1.604927e-08 -1.535248e-08 -1.06110285e-08 4.4865742e-09 1.4909037e-09
-1.5232974e-08 1.3589324e-08 -1.9611079e-08 -1.8306487e-08 3.5696712e-09 -3.2830443e-09 1.3361094e-08 3.988875e-08
-2.4287381e-08 -2.2183116e-08 1.4755482e-08 -8.07357e-09 9.325344e-09 2.4970431e-08 2.767264e-10 -3.131093e-09

conv1.lin_pos_r.bias f4 [32]
00000000: 1596 52bd e753 253d b034 37bd 0334 8dbc
00000010: 37b9 d53d 1682 c3ba 0b18 623d 53e3 b7ba
00000020: 25aa 053e 2834 b43d 9fcd b03d 71b1 19bd
00000030: 668b babc 9de6 a2bb 140d 1a3d b93d 853a
00000040: 469a 31bc cd5e f7bc 4b6d 313d 7a62 973b
00000050: 41f1 2a3d da31 2d3d 6fe9 c3bc f496 b43d
00000060: 79e7 0abc 3ab8 d0bc 87cc 8fbb 04f7 b43c
00000070: 440e 23bc 38d3 4bbd 4397 983a b6ca 89bc
-0.05141266 0.04036322 -0.04472798 -0.017236715 0.104357176 -0.0014916088 0.05519871 -0.001402954
0.13053186 0.087990105 0.08632969 -0.037522737 -0.022771548 -0.004971339 0.03761013 0.001016549
-0.010840004 -0.030196572 0.04331712 0.0046198936 0.041733984 0.04228387 -0.02391502 0.088178545
-0.008478039 -0.025478471 -0.004388395 0.022090442 -0.009952132 -0.04976198 0.0011641759 -0.016820293

conv1.lin_neg_l.weight f4 [32, 64]
00000000: cd07 7032 4c5e 3932 ff36 d731 db99 c8b1
00000010: 9421 5f32 1128 1db2 edc4 b232 97b9 8731
00000020: 1d64 0932 15f6 8932 c0a9 9032 574b 3832
00000030: 5a17 06b2 0d48 62b2 0a76 5132 92b8 0332
00000040: 524f f5b1 8ed7 0db2 bcae 25b2 d272 1331
00000050: 4416 d232 6e4d 0eb2 2acf 1131 0d50 be30
00000060: bc15 1032 d655 28b2 7841 3832 911a 6233
00000070: 4f78 ddb2 073f 9f33 9daf 00af 9c42 3db1
00000080: f0e7 a9b1 e323 0e33 6b45 a631 1836 6132
00000090: add0 3a32 0556 3db2 8432 c131 a115 31b1
000000a0: 8764 d931 1315 6332 c4a0 6ab2 2251 3332
000000b0: dc45 0432 65fd 5631 5fb6 2b31 d0be a2b2
000000c0: 6d65 3432 fa64 0f31 e2c6 6fb2 81a7 6631
000000d0: 61f2 98b1 4213 3bb1 15c1 d631 7208 a6b2
000000e0: 9185 2732 0a09 aab2 955e 3e32 09f8 83b2
000000f0: e65b 83b1 c32b 7ab1 ae45 4332 9f01 0232
00000100: 277a c5be 8e33 71be deab c9bd baf9 c93d
00000110: d5da 0c3d 34d0 a33e 2946 773d 8682 56bd
00000120: 078d 1bbe 2806 0bbe 95eb 97be 891a 9abe
00000130: 3f81 0abc f3fb 0f3e d2e0 afbd 9e7b 15be
00000140: b8d9 1c3d df5d 1e3d e689 533d 8a16 923c
00000150: b59b 623c 05b3 ac3d 0d47 72bc 17d3 afbb
00000160: f4a3 f63d cb33 da3d dd10 083e 77b3 ca3d
00000170: c6ca e63d 9ce1 2ebd d07d 2fbd 1dd3 55bd
00000180: 02e5 d63a 7a3f 62bd 9178 783e 541d 8ebd
00000190: db0c 5b3e d5eb cebd 481e ec3d 7a64 0f3c
000001a0: 4bdb 12be d116 84bd c974 cd3b 4cf7 42bd
000001b0: 38a0 f5bd 9447 16bc b013 26bd 01ef 4f3e
000001c0: c5e9 f03c a34c 583b 0266 d83c 9a34 8b3d
000001d0: 7c5d d03d de91 f1bc 4c57 bd3d 69a6 62bd
000001e0: a9f2 4e3d b141 c539 a545 583e 70e9 f5bc
000001f0: f287 1d3d 14b8 043e fe68 d6bd 7972 0fbe
00000200: 2643 01bf 7c48 cc3c a4aa a0bc ef65 ca3d
00000210: a4c5 0dbe b4ff 183e 2b73 483c fc03 073e
00000220: 9946 d73d d73a 2c3c b2cb 783c 2ce9 70be
00000230: 0460 69bd b4ba a0bd dfb9 4dbd 7270 46bd
00000240: c4b2 e73d 70ce 8f3d b832 353d d043 7bbd
00000250: a406 8ebb f928 3bbb e0e2 3ebd 2b7b 053e
00000260: 177a 13bd fc39 ed3d f4be 003d 5e1c 573d
00000270: 57e7 49be 96c6 d4bd 7bdc 17be a4e9 0a3e
00000280: 97a0 973d f38c 05be 0c98 8d3d b0ea 663d
00000290: be0a e4bc eacc b4bd 8812 c83d 56b6 c6bd
000002a0: 816b 403d 265b 0cbe ea46 15be a2c7 01be
000002b0: aa56 91be 16e9 043e a562 093c 36ef d43d
000002c0: 3af2 083e baa1 1fbd 725c 893d 0b8e fe3d
000002d0: 95e1 f83d f5ca e2bd 000e 0c3d b52a b7bd
000002e0: 31f1 22be 5865 f23d 57bf 16bd 1fde 003e
000002f0: 278b bf3d 66e1 c33d b650 223d a318 523e
00000300: 6262 fdbe 1c7f 36be 7928 a7bc c143 513e
00000310: ae06 863c 60c0 583d 4397 1f3e 822b bb3d
00000320: a7a3 8dbc d11e 493c 03f2 8ebd 387f 11be
00000330: 9574 a3bc 41cc 233d 8bc0 10bd e33b 81bd
00000340: be32 f6bd f7fa 8b3e 83fb 95bd e2f7 babd
00000350: 8421 cb3d b020 403e 8114 383e b382 07be
00000360: 7e2e 633e c4f8 a93e ced2 a23e 2397 dc3d
00000370: 8ad0 a5bc 2300 b1bc 85c0 ebbc 576d 073e
00000380: 695d 0d3e 40dc ea3b 9741 c53d e370 38be
00000390: 9fda fd3b f02a b53d 985b 0cbe 2592 adbd
000003a0: e02d d3bc 84aa 8ebc c989 893d e905 8bbc
000003b0: 8d1c 183d ae12 973d 3f50 a73d ea0a 393e
000003c0: 13a9 b63d 358c 6b3d e2e0 8a3d 291b bfbd
000003d0: fcf1 a9bd 33a5 cfbd 3479 c03d f563 973d
000003e0: b5af 9bbd 3c21 9f3e 80fd dd3d 95b3 963d
000003f0: fab4 d13b 9133 ea3b df82 c2bc 2f18 e2bd
1.3971612e-08 1.0789858e-08 6.263576e-09 -5.8382574e-09 1.2987943e-08 -9.147713e-09 2.0811479e-08 3.9501162e-09
7.997213e-09 1.6060804e-08 1.6841e-08 1.072734e-08 -7.805136e-09 -1.3171314e-08 1.219224e-08 7.66717e-09
-7.139456e-09 -8.256292e-09 -9.643994e-09 2.1456583e-09 2.4457343e-08 -8.283093e-09 2.1218036e-09 1.3847071e-09
8.386845e-09 -9.798404e-09 1.07250955e-08 5.2643887e-08 -2.5782496e-08 7.415479e-08 -1.1703923e-10 -2.7540983e-09
-4.9449156e-09 3.309459e-08 4.8391278e-09 1.3109023e-08 1.0874072e-08 -1.10208065e-08 5.6227822e-09 -2.5769185e-09
6.32696e-09 1.3217931e-08 -1.36571465e-08 1.0437619e-08 7.699295e-09 3.1285137e-09 2.498744e-09 -1.8946054e-08
1.05004405e-08 2.0866637e-09 -1.3956852e-08 3.356462e-09 -4.4513375e-09 -2.7223028e-09 6.2501706e-09 -1.9328784e-08
9.751049e-09 -1.9794715e-08 1.1080961e-08 -1.53632e-08 -3.8230494e-09 -3.6404664e-09 1.1366337e-08 7.5673645e-09
-0.38569757 -0.23554823 -0.09847234 0.09862085 0.034388382 0.31994784 0.060369644 -0.05237057
-0.15190516 -0.13576567 -0.29671922 -0.3009837 -0.008453666 0.14060955 -0.08587803 -0.14597937
0.03829357 0.03866374 0.051645182 0.017833013 0.013831069 0.08432583 -0.014787448 -0.00536574
0.1204299 0.1065441 0.13287683 0.098975115 0.11269145 -0.042695627 -0.042844594 -0.052203286
0.0016395154 -0.055236317 0.24264742 -0.06939188 0.21391623 -0.10103575 0.11529213 0.008751983
-0.14341466 -0.064496644 0.0062700254 -0.047599122 -0.1199345 -0.009172339 -0.04054612 0.20306017
0.029408345 0.0033004663 0.026415829 0.06797142 0.10174081 -0.0294885 0.09245166 -0.055334482
0.050524388 0.00037623712 0.21120317 -0.030018538 0.038459726 0.12960845 -0.104692444 -0.14008512
-0.50493085 0.024936907 -0.019612618 0.098827235 -0.13844925 0.14941293 0.012234489 0.13185114
0.10511512 0.010512075 0.0151852835 -0.23526448 -0.056976333 -0.07848111 -0.05022609 -0.04844708
0.11313394 0.07021797 0.044237822 -0.061343968 -0.0043342877 -0.0028558357 -0.046603084 0.13035266
-0.036005106 0.11583325 0.031432107 0.052517287 -0.19717155 -0.1038944 -0.148302 0.1356569
0.07403677 -0.13042049 0.06913766 0.05637616 -0.027837154 -0.08828147 0.097691596 -0.097027466
0.046977524 -0.13706645 -0.14577833 -0.1267381 -0.28386432 0.1297954 0.008385335 0.10397188
0.13373652 -0.038972594 0.06707086 0.12429436 0.12152401 -0.11073867 0.03419304 -0.089436926
-0.1591232 0.11835736 -0.03680357 0.12584732 0.09352713 0.09564476 0.039627753 0.2051721
-0.49489123 -0.17821926 -0.020405041 0.20436002 0.016360607 0.052917838 0.15585046 0.09139158
-0.01728995 0.012275414 -0.06979754 -0.14208686 -0.019953052 0.039989714 -0.035339873 -0.063102506
-0.12021397 0.27339908 -0.07323363 -0.09129311 0.09918502 0.1876247 0.17976572 -0.13233452
0.22185704 0.33197606 0.31801456 0.107710145 -0.02024104 -0.02160651 -0.028778324 0.13225304
0.13805164 0.007167369 0.09631651 -0.18011813 0.007747009 0.0884608 -0.13706815 -0.084751405
-0.02577871 -0.017415293 0.067157336 -0.016970592 0.037136603 0.0737661 0.081696026 0.1807057
0.08918967 0.05750676 0.06781174 -0.09331352 -0.08298108 -0.10138931 0.09398118 0.07392112
-0.07601873 0.31080043 0.10839367 0.07358471 0.006399748 0.0071472605 -0.023744045 -0.11039769

conv1.lin_neg_r.weight f4 [32, 64]
00000000: f7bf 74b9 cd9a d131 111c 5a33 a950 a132
00000010: 066b ab32 e436 8ab1 1307 9cba 4ec4 35b7
00000020: 90e8 0635 0b46 7c33 2177 da31 f917 a732
00000030: b9b6 f734 480f b2b2 66c0 8033 b0a8 1733
00000040: b7d4 ac33 82f6 7a33 0627 98b2 80dc 22b2
00000050: 52d1 62b2 69ba b1b2 f452 dc32 24d5 87b1
00000060: 48eb 3c32 7cf7 a7b1 f5c5 7e32 9152 efb3
00000070: fa0d 81b2 6f72 06b3 8da6 b9b1 7c32 b331
00000080: a08e 2232 134b 9433 5153 af32 923f 63b1
00000090: d794 4633 f75e c2b1 d290 3932 7590 1132
000000a0: 0078 c632 c022 6f32 76ca 9a32 0fc2 6832
000000b0: 7c6c 8731 cd6f 84b2 524e 98b1 d2ef 41b4
000000c0: c5ff fd31 4779 f5ae eed2 3532 7575 9932
000000d0: 9502 beb2 2315 c432 cdb9 f6b1 7485 0831
000000e0: 71bc 7bb1 ae37 58b1 b42c 85b1 9304 69b1
000000f0: bffb 0332 c0a9 c432 df34 a9b2 c0f5 01b3
00000100: d4c2 39bd 0a1a 9f3d e3bb 0fbd 41ff 0c3c
00000110: 206f 34be d8c4 bfbe 5ab2 593c 2252 953d
00000120: a675 f53d ac7a 66be c638 4dbe 36dd 173e
00000130: 665d 303e 336f df3d da42 303d 7d61 843d
00000140: acdf 1dbe a20c a5bd c2b8 d0bd 0b18 cc3c
00000150: 54c6 c43d d2bb e93c 82c9 11be 73a6 43bc
00000160: 8413 a9bb 3499 babc 46bb 17be 3186 6cbd
00000170: ee30 74bd faf5 a4bd a96b 893d 0b7d 0c3e
00000180: 9bf1 16be a858 623d ba48 f5bd f216 373d
00000190: beca 63be 6f56 00bc 2f0b 83be 26a7 0f3e
000001a0: 4278 d9bb 69b2 bc3d dd41 47be f99e 20be
000001b0: 73ed d23d 62aa f33d 761f ff3d b538 37be
000001c0: 0c9b c13d a9d8 773d e454 74be bda1 913d
000001d0: 306e ab3d 19e7 713e 8952 053e 4ff9 943b
000001e0: 5665 c63d f33e 3a3c 3f1b 673d 69be bc3d
000001f0: f1b0 d13c ec59 debd 8b50 b5bd b4aa 863d
00000200: b284 093e 0c66 8fbc 5778 83bd e5d6 533d
00000210: ebca c03c a6c9 553c eb6d a43c ad56 9ebd
00000220: c513 a33d 7a3d 10bb c08a b2bd 3ddf 8a3e
00000230: c23e 30bc 503a 703d 30c5 a4bd 9bf7 51be
00000240: d81f d13c f549 11bd c908 d5bc 8fe9 b7bc
00000250: 703e 943c 1265 503e a32d 603d 4afd 42be
00000260: f146 b9bd 6edf 013e 8a21 7dbc 1ad1 2e3d
00000270: 81f2 473d 3e24 dc3c 930e 8e3e 4540 d03d
00000280: f81e 87bc c9b2 573d 7d1a b2bd 250e 563d
00000290: 80d4 94bd a959 793c 8838 cbbd d1c3 603d
000002a0: e518 41be 3e1b 78bd bca0 013e e567 c23d
000002b0: 34da 453e 357e 4fbe 93b9 093d c9e6 e8bd
000002c0: a322 28bd e84d be3c 3215 02bd 4b5d ee3b
000002d0: 788b 02be 7911 83bd 098c 633d 5f3f d2bd
000002e0: 7581 443e 59a4 24bd d0d3 a5bd 25e0 94bd
000002f0: edd6 cf3c a291 223d 9fe5 88bc c828 f9bb
00000300: 3c76 b9be 43be 433d 1b76 1abd a1d1 fe3a
00000310: eee0 38be 769b 0ebe 4e95 143d 7632 e13d
00000320: d37e 363e b567 453d 305b e4bc 563d 213c
00000330: 4fac 853d d813 333d 0fd7 43bd 64a0 7abd
00000340: 5dd5 f53b c043 0c3c 20ed ca3d 7c5c 603d
00000350: 476d fa3d d131 8d3c 867e 223d 9489 473e
00000360: c242 083d ffa7 753d ffb2 2cbe 3b3e 743d
00000370: 1ffb a13d fd90 d83d 15a9 c9bd 5bce 3b3e
00000380: 9b43 9dbd f889 de3b e294 02be b4d1 de3d
00000390: 7291 2b3e b353 2ebd ceea f13d 806d 0d3e
000003a0: 3fc1 9f3d 2390 3b3e 7780 33be f108 63bd
000003b0: d621 9dbc 293d 0cbe 7447 d33d f3fa 843b
000003c0: dc02 8e3d ce09 9f3c 827f 3abc d8f2 33be
000003d0: f395 d83d 16f1 5ebd e75d b13d 116a fcbd
000003e0: 77ec 183e ea99 0a3d 9c4f 693c ebb7 e13d
000003f0: 8334 183d 3e48 b83d 80ce 1f3d 6314 9f3d
-0.00023341166 6.1002994e-09 5.0782607e-08 1.8779547e-08 1.9955689e-08 -4.022569e-09 -0.0011903964 -1.0834146e-05
5.0257313e-07 5.8737026e-08 6.3581784e-09 1.945226e-08 4.6140283e-07 -2.0728876e-08 5.9954615e-08 3.5310848e-08
8.048067e-08 5.843186e-08 -1.7712875e-08 -9.479777e-09 -1.3202525e-08 -2.0690281e-08 2.5649094e-08 -3.9532484e-09
1.0996537e-08 -4.8884754e-09 1.4829756e-08 -1.11443235e-07 -1.5023932e-08 -3.1303383e-08 -5.4031433e-09 5.215325e-09
9.46207e-09 6.905443e-08 2.041057e-08 -3.3068983e-09 4.6235836e-08 -5.6569394e-09 1.0801346e-08 8.472957e-09
2.3104803e-08 1.3919532e-08 1.8020028e-08 1.3548301e-08 3.9413504e-09 -1.5417664e-08 -4.432686e-09 -1.8061772e-07
7.3923467e-09 -1.1162853e-10 1.05835465e-08 1.7864958e-08 -2.2120085e-08 2.2827015e-08 -7.1806654e-09 1.9866464e-09
-3.6632424e-09 -3.1463787e-09 -3.8758916e-09 -3.3908563e-09 7.682444e-09 2.2894596e-08 -1.9698232e-08 -3.025866e-08
-0.04535182 0.077686384 -0.035091292 0.008605779 -0.17620516 -0.37454867 0.013287151 0.07291056
0.1198533 -0.22507733 -0.20041189 0.14830479 0.17223129 0.109098814 0.043032505 0.06463907
-0.15417355 -0.0805905 -0.1019149 0.024913808 0.096081406 0.028531943 -0.14237025 -0.01194154
-0.005159797 -0.022778131 -0.14817533 -0.057745162 -0.059616975 -0.08054729 0.06709988 0.13719575
-0.14740603 0.05526033 -0.11976762 0.044699617 -0.22245309 -0.007833107 -0.2559447 0.14028606
-0.0066366503 0.092137165 -0.19458719 -0.15685643 0.10299196 0.11897732 0.124571726 -0.17892726
0.09453401 0.060509358 -0.23860508 0.07110927 0.08370626 0.23623313 0.13019766 0.0045463215
0.09687297 0.011367547 0.05642247 0.09216005 0.025597068 -0.10856995 -0.08853253 0.06575528
0.13429525 -0.017504714 -0.064194374 0.05171861 0.023534259 0.013048565 0.020071944 -0.07731376
0.07962755 -0.00220093 -0.08717871 0.27123442 -0.01075715 0.05864936 -0.08045423 -0.2050461
0.02552788 -0.03547092 -0.026005166 -0.022450237 0.018096179 0.20351055 0.054731023 -0.19041935
-0.09046734 0.12682888 -0.015449891 0.042679884 0.048815254 0.02687275 0.27745494 0.101685084
-0.01649426 0.052660737 -0.086964585 0.052259583 -0.07267094 0.015219131 -0.09922892 0.054874245
-0.18857153 -0.060572855 0.12658972 0.094924726 0.19321519 -0.20262988 0.033624243 -0.11372144
-0.041048657 0.023230508 -0.031758495 0.007274305 -0.12748516 -0.06399817 0.05555347 -0.10265993
0.19190009 -0.040195797 -0.08097041 -0.07269315 0.02537104 0.039689668 -0.016711054 -0.0076037385
-0.36223018 0.04778887 -0.03771029 0.0019441136 -0.18054554 -0.13926491 0.0362752 0.10995953
0.17821817 0.048194606 -0.027875513 0.009841284 0.06527006 0.043720096 -0.047812518 -0.061188117
0.0075022415 0.008561075 0.09908509 0.0547757 0.12227874 0.017235668 0.039671443 0.19486076
0.03326679 0.059974667 -0.16865157 0.05962966 0.07909226 0.10574529 -0.09846703 0.18340437
-0.0767891 0.0067913495 -0.12752107 0.108798414 0.16754702 -0.04256029 0.118123636 0.13811302
0.07800531 0.18316703 -0.17529474 -0.05542845 -0.019181173 -0.13695206 0.10316363 0.004058236
0.06934139 0.019413855 -0.011382939 -0.17573106 0.105754755 -0.054429136 0.086604886 -0.12324918
0.14933954 0.03383819 0.014240172 0.11021408 0.037159454 0.08998154 0.039015293 0.0776756

conv1.lin_neg_r.bias f4 [32]
00000000: 6dac 5ebd c1dc a73d 80b0 963d 2add af3d
00000010: c357 643b 2937 3d3a ba04 c33c 3e96 473d
00000020: 1914 8d3c 6bce 9a3d 0b8a 1fba bb0e a63d
00000030: cf5f 38bd 8e3a 01bb 8da0 a13d ccfe 9bba
00000040: bfdb 123d 0218 6abc e621 b03c adbe bd3d
00000050: e429 19bb c836 54bd 9c84 863d 716d eb3c
00000060: cb4c f5b8 5647 69bd 21ab be3d e1f6 633a
00000070: 91e4 96ba bc49 d7bb 3071 cc3d 6018 103d
-0.054363657 0.08196402 0.073578835 0.085871056 0.003484235 0.00072179973 0.023805965 0.048727266
0.017221497 0.07558902 -0.00060859387 0.08108278 -0.045013245 -0.001971874 0.07891951 -0.0011901497
0.035854097 -0.0142879505 0.021500539 0.09264884 -0.0023370916 -0.051810056 0.06568262 0.02873871
-0.00011696814 -0.056952797 0.09309984 0.00086961506 -0.001151221 -0.006570069 0.09982526 0.035179496

convs.0.lin_pos_l.weight f4 [32, 64]
00000000: 578c 3734 2f88 e03e 1f38 6732 890d 09b4
00000010: 9f92 a63e 1fd5 4fbe f8b0 283e eb3f 2632
00000020: 3055 d23e 6061 203e b9fd a23d 2cb3 1734
00000030: ab90 7fbd d2d5 13be e50b bfbd b37a 95be
00000040: 2d54 82bc 4d47 5ab5 6119 a8be 3cd5 4dbf
00000050: 1178 b3bd 5a5a c93e 1478 eeb1 ac8b f33d
00000060: 8248 3531 ea1b ba3c 86dd 143c 82f5 72be
00000070: 0ae3 b2bd 1871 a1b7 cee5 d1be b1d1 6f35
00000080: d8be ee31 49bf 873e 376d 813e b693 1c3e
00000090: 63a0 4bbe 56e1 24be af9c d4be a090 cf3d
000000a0: 2c33 cfbc 0ce5 21bd 2de6 cfbd 2283 0d3e
000000b0: 0914 7432 37cf 0bb9 b7f6 babd 6093 0431
000000c0: c43c cbbe 4940 54b2 7e40 843d eb84 173f
000000d0: f506 9232 d24a 2232 28a6 a63d 956d 95bc
000000e0: d167 2932 ea97 93b1 c9a6 ca3b 67be 1bbe
000000f0: e7c8 673d ee63 b732 580d 793e cdff 05be
00000100: c923 2fb2 00c3 adbe 77d1 fbb1 3369 29b1
00000110: 719f 46be a171 7a3e 4257 14bf 556a ce32
00000120: 33c6 133e 629b 803d 215d 7bbe 480c 59b3
00000130: 4afb 5b3d 829d 05be ba7a e13c ca69 26be
00000140: db03 333e 81e1 0435 f682 9b3e b508 263e
00000150: 1b51 8dbc 1444 cf3d c633 d732 00d9 81be
00000160: c987 7432 9272 bd3b 4bf3 c63a 15b3 a43e
00000170: 77b3 a2bd 1122 c731 81eb 06be 7fe6 2932
00000180: 1f75 9ab2 b2c1 673e 4251 953e 88dd 913e
00000190: 8599 23bd a96a f0be 31e8 163e 2f53 acbe
000001a0: c752 03bc 2fe2 8fbd c421 c6bd d77f f23c
000001b0: 205b 99b1 ec9d 2eb9 326d 23be 58db c632
000001c0: 2102 a33e 3afe aeb1 da5a a2bd ac80 b0bd
000001d0: 84f6 d1b2 8fbd 7db1 b2d3 d13e 5b88 40be
000001e0: ad54 8db6 51cf d0b1 69f2 0f3e 3387 d23d
000001f0: c8f5 9f3c 33cf 54b1 f913 5a3e 68dd c83d
00000200: 9b90 6632 4298 1533 6c55 53b2 e340 fc30
00000210: 319f 6233 100e 4f32 3f31 b332 6295 8eb1
00000220: 1c86 6c34 e2c0 02b4 e231 2334 f676 3632
00000230: af5b 842f 8f78 3232 5867 8a33 a907 2232
00000240: 94eb 06b3 4521 0e32 0fba 5c33 517d d5b3
00000250: 1a11 57b3 c3fc 74b3 0bd3 23b2 2898 f833
00000260: 02b5 70b2 6c88 a1b1 ac38 0130 54e0 3033
00000270: cf60 9931 88dd 8e31 d138 14b2 32cf af31
00000280: af9c f030 5e22 2e33 86e1 8bb2 24a3 4532
00000290: 4456 54b2 77d3 c533 e59c d532 d972 cb33
000002a0: d0ac 05b3 0a1e 8232 d583 6533 9efa 9eb3
000002b0: c46d 1332 6874 b2b0 1793 3ab3 89d7 c8b0
000002c0: d8e9 98b3 c43e d8b1 d39e 46b3 3ba9 48b3
000002d0: 4edc 2b32 cb7b 08b1 f342 1eb3 8f5f 2dae
000002e0: 5efe f031 1187 9c31 4c5f 52b3 540f a432
000002f0: 9cff 2932 384c b731 d7fb 0734 fc92 95b1
00000300: 26a1 3431 bdf7 32b7 3317 6030 f677 1632
00000310: a0bb b3b7 a8b7 9db6 1d3c f7b6 8e58 0732
00000320: a757 2bb7 870b 2cb6 6e30 ddb7 dda6 07b2
00000330: 7261 8bb6 3cb9 c635 1d13 01b8 3f05 aab6
00000340: b819 3036 5ac2 b631 0dd4 03b7 2d58 6bb7
00000350: f75a 0bb6 38f7 66b7 1336 78b2 82d2 24b8
00000360: 034f 86b0 c8ec 5ab0 e0b3 37b2 9637 c2b6
00000370: e967 14b8 7168 a3b1 006c b935 d79b 3bb1
00000380: 2be4 96b2 12d5 9ab8 1af4 15b6 bb7e e8b7
00000390: 15d5 88b6 4117 b9b7 a18f 21b8 e845 6cb8
000003a0: 7b54 cc37 af85 14b8 f477 2fb6 d9c5 9137
000003b0: eb8a d6b0 2f93 5eb2 d744 b2b7 e84c 8231
000003c0: 963c bdb6 e271 0eb2 ba28 81b7 094d 4fb8
000003d0: b44e d5b0 93ae 24b2 e468 07b8 d469 0b36
000003e0: fcc4 d5af 4ddd 6630 707b 52b7 88f6 05b6
000003f0: 99bf 8a37 6272 6032 b2bb 74b5 27df 13b8
1.7094258e-07 0.438539 1.345873e-08 -1.2764043e-07 0.32533738 -0.20296143 0.16473758 9.677005e-09
0.41080618 0.15662146 0.0795855 1.4128153e-07 -0.062393826 -0.14437035 -0.093284406 -0.29195175
-0.015909279 -8.1315085e-07 -0.32831863 -0.80403495 -0.08763135 0.39326745 -6.940363e-09 0.11891875
2.6380182e-09 0.022718389 0.009086018 -0.23726466 -0.087347105 -1.9245359e-05 -0.4099564 8.933958e-07
6.948408e-09 0.26513126 0.25278637 0.15290722 -0.19885401 -0.16101584 -0.4152579 0.10135007
-0.025292955 -0.039525077 -0.101513244 0.13819554 1.4207225e-08 -0.00013333267 -0.09129088 1.92923e-09
-0.39694798 -1.2354641e-08 0.064576134 0.5918719 1.69998e-08 9.446653e-09 0.081371605 -0.01824073
9.8607e-09 -4.2955337e-09 0.006184433 -0.15209351 0.05658808 2.1349447e-08 0.24321496 -0.13085862
-1.0194477e-08 -0.33937836 -7.328875e-09 -2.4652536e-09 -0.1939676 0.24457408 -0.57945645 2.402991e-08
0.14431076 0.06279637 -0.24547245 -5.053542e-08 0.053706445 -0.13048366 0.02752434 -0.16251293
0.1748194 4.9501983e-07 0.30373353 0.16214259 -0.017250588 0.10120407 2.5052838e-08 -0.2536087
1.4233543e-08 0.00578148 0.0015178708 0.3216788 -0.079443865 5.795535e-09 -0.13175775 9.889503e-09
-1.798122e-08 0.22632483 0.29163557 0.28489327 -0.03994133 -0.46956375 0.14737011 -0.33657214
-0.008015341 -0.07025563 -0.09674409 0.029601974 -4.4632458e-09 -0.00016652764 -0.15959623 2.314998e-08
0.31837562 -5.0929687e-09 -0.07927485 -0.08618292 -2.4442905e-08 -3.6924097e-09 0.40981823 -0.18802015
-4.211985e-06 -6.077166e-09 0.14057316 0.102796935 0.019526377 -3.096784e-09 0.21296681 0.09807855
1.34206415e-08 3.4830244e-08 -1.2301239e-08 1.8353855e-09 5.276451e-08 1.2052183e-08 2.0860737e-08 -4.149727e-09
2.2028001e-07 -1.2177364e-07 1.5198705e-07 1.0620843e-08 2.4075805e-10 1.03883755e-08 6.444924e-08 9.431383e-09
-3.1413563e-08 8.2730525e-09 5.139196e-08 -9.94138e-08 -5.0074142e-08 -5.7040562e-08 -9.535834e-09 1.1576077e-07
-1.4010995e-08 -4.701226e-09 4.701046e-10 4.118222e-08 4.463892e-09 4.157929e-09 -8.627652e-09 5.1167257e-09
1.750683e-09 4.054379e-08 -1.6284286e-08 1.1504003e-08 -1.2359639e-08 9.2119926e-08 2.4867811e-08 9.473815e-08
-3.1123648e-08 1.5147652e-08 5.3438118e-08 -7.403035e-08 8.581484e-09 -1.2984289e-09 -4.3440277e-08 -1.4613174e-09
-7.1205875e-08 -6.293563e-09 -4.6244917e-08 -4.6720043e-08 1.00036015e-08 -1.9860973e-09 -3.684813e-08 -3.942052e-11
7.0138375e-09 4.555553e-09 -4.8981107e-08 1.9099083e-08 9.8952135e-09 5.334666e-09 1.2664474e-07 -4.353181e-09
2.628505e-09 -1.0667308e-05 8.1523693e-10 8.758425e-09 -2.1425833e-05 -4.700345e-06 -7.3681717e-06 7.878169e-09
-1.0212802e-05 -2.5636707e-06 -2.6367805e-05 -7.8959745e-09 -4.153867e-06 1.480606e-06 -3.0773797e-05 -5.0670055e-06
2.6241014e-06 5.3189924e-09 -7.85758e-06 -1.4027622e-05 -2.0765563e-06 -1.3766628e-05 -1.4447795e-08 -3.9296698e-05
-9.77224e-10 -7.9644424e-10 -1.0692901e-08 -5.7881216e-06 -3.5382724e-05 -4.755798e-09 1.3815006e-06 -2.7300666e-09
-1.7566057e-08 -7.38298e-05 -2.2344816e-06 -2.7715569e-05 -4.077922e-06 -2.2064547e-05 -3.8519156e-05 -5.633189e-05
2.4358034e-05 -3.5410452e-05 -2.6146854e-06 1.7377477e-05 -1.5610032e-09 -1.2955566e-08 -2.125131e-05 3.792241e-09
-5.639692e-06 -8.291382e-09 -1.5396963e-05 -4.942439e-05 -1.5520158e-09 -9.58575e-09 -3.2284195e-05 2.0774214e-06
-3.888444e-10 8.3988e-10 -1.2545715e-05 -1.9962044e-06 1.6540102e-05 1.3064524e-08 -9.1170216e-07 -3.5255358e-05

convs.0.lin_pos_r.weight f4 [32, 32]
00000000: 92fa 29b3 4dcf 19bd 4acd 82b3 dcd9 5732
00000010: afab 213f a4a3 973e 0ced a63a 83ed b232
00000020: 56a5 3e3e 0748 abbe 7657 dc3d 4c2e f733
00000030: 82ec 59bd 0f31 74bf 3585 36be c02c 8fbe
00000040: 479d 99be 7bef dc38 0500 68bf c427 0abf
00000050: 952e 39be 3651 563d b3b0 7531 828c 1e3e
00000060: 7555 7532 2042 4f3c 0286 b03a 2e50 f9be
00000070: 8375 cabd 3f23 54b3 51e1 c5bd 8247 a431
00000080: 2a94 c932 4a9d cfbe b9ea 46b3 1ebf 99b2
00000090: 577d 8dbe bda4 953e bdcc 3ebf f6e9 a8b1
000000a0: 068b 81bb 2b07 5c3e e775 32be f945 27b0
000000b0: 4369 b1be 3131 6ebe 3625 d93d f0d6 c3bd
000000c0: ddf0 a33e 11d6 6db4 cc91 00bc 440d 92bb
000000d0: 1101 153e c001 9fbd 1e48 0b32 43ab 563d
000000e0: 7018 2ab1 1e27 fb3b c2f7 f5ba a66a 473f
000000f0: 95f6 a8bb d514 8232 b99a 373d c6fd c4b0
00000100: 64d1 1eb0 7692 ceb2 b9eb e632 e28d cc31
00000110: 2bdf 14b5 8eea 6a33 731b 39b4 3834 b9b1
00000120: 51eb 0cb3 bac9 93b3 bf56 16b2 aa06 9731
00000130: 614d af32 1cb5 7232 e0c2 6034 3ccd 4eb4
00000140: 4275 1cb3 bcb1 18b1 6880 de30 ab7c f133
00000150: ff66 d133 4cda 52b3 1c7b 5132 d1f1 7bb4
00000160: f6f9 86b1 3e53 94b2 5e95 bf30 7f92 48b1
00000170: 0b45 dbb2 ca97 4032 8689 fa33 73fd d62e
00000180: 7550 b7b1 0ac9 9fb7 0899 0431 26b0 c2b2
00000190: bf44 1fb6 6350 dab7 919d afb7 d8b4 09b1
000001a0: 7b56 8a35 99eb d5b7 1be4 b9b7 94d2 36b2
000001b0: c742 80b7 2f13 4db7 98cc 31b7 b37e 1038
000001c0: 402e a9b6 f635 56b2 f1f5 b3b6 1f68 9cb7
000001d0: 49a2 78b6 902d 5c36 88c0 acb0 e399 0fb7
000001e0: 68e7 b330 04a7 0db1 465c a4b3 3346 00b7
000001f0: dc94 0d36 f8a2 e1b1 48a7 85b4 4e2d ae32
00000200: db6b 8132 8b5c acb8 2cf6 1832 0bd0 0bb0
00000210: dace 6939 8355 1839 fb9e eab7 ccf0 4f30
00000220: ddd9 d0b9 0436 59b9 6fbe 493a e45d 64b2
00000230: 6e64 613a 75f5 ddb8 08dc 34b9 0252 47ba
00000240: 12cd 5fb8 ef17 8930 bf60 3e38 ac92 293a
00000250: 53b0 d838 a8ac ce37 ce04 6831 b382 fc37
00000260: f1af 81b2 9d57 8232 4809 f431 1fd6 a6b9
00000270: 376d c9b8 2f1b 03b2 2608 99b9 f14d beb0
00000280: 1ba9 09b3 42e0 2fbe 68f2 96b2 f3a8 e2b2
00000290: 6749 cfbe 785c 4e3d c970 64be 52d1 8db2
000002a0: c16c 1f3e 2402 9d3e 8ee5 e8bd 8646 aab2
000002b0: 991a 9cbe cc5b 19bd 9946 d4be d5bf 353e
000002c0: 9320 093c 2661 8635 75bf f8bc 843c d43e
000002d0: b9f7 13bd a640 75bf 2c32 afb0 b6f8 f83d
000002e0: cf1b 65b2 c7f3 b43b fbea 7cba cb56 433f
000002f0: 613a 88bd 61be eab2 afe4 11bd b13f f5b1
00000300: 6b38 9532 d0bb 0aba 8ecf 8c31 8610 8730
00000310: 92a2 1bbb e5f5 d0b8 cfb3 21ba 8190 85b0
00000320: 6f13 d1b8 e576 b7ba 5651 eeba 707b 2232
00000330: 0904 84ba d522 b0b9 f77f 6dba dbd5 a837
00000340: 5687 62b9 d0e9 88b1 fef8 57ba 6144 c2b9
00000350: 20c2 46ba 3759 9fba f9e0 21b2 c16b 27ba
00000360: 6b7a 7632 4c92 0ab3 4ce9 7fb7 6235 f1b8
00000370: ac00 5eb8 43fd 99b2 674b 9cb9 d6e8 3b32
00000380: 8a4b a032 20a3 9037 a22a 9ab1 05cf a931
00000390: 04c0 9338 06ae ceb9 c4cd 36b8 c956 9f32
000003a0: 039e 2bb9 a488 18b9 3d35 7db8 792f bfb2
000003b0: dbd5 03b6 e855 da37 79d4 ad37 9960 36b6
000003c0: d119 68b7 3cc5 1832 8a50 7637 4020 94b7
000003d0: 6b84 6bb7 2bf5 90b8 c89c 2c32 0c63 2838
000003e0: eca4 8830 ed5f 2ab2 a406 0232 4901 2836
000003f0: eb9f 4837 af84 ef31 f92d cfb9 5a26 7031
-3.957627e-08 -0.037551213 -6.0909386e-08 1.2564183e-08 0.63152593 0.29617035 0.001273544 2.0829935e-08
0.18617758 -0.3345339 0.10758869 1.1510255e-07 -0.053204067 -0.9538736 -0.17824252 -0.2796383
-0.30002806 0.00010535024 -0.9062503 -0.5396693 -0.18084176 0.052323543 3.5752634e-09 0.15483287
1.4280308e-08 0.012650043 0.0013467672 -0.48693985 -0.09885695 -4.9392153e-08 -0.09662116 4.7811577e-09
2.3466857e-08 -0.4054969 -4.6313946e-08 -1.7898454e-08 -0.2763469 0.29227248 -0.74531156 -4.916042e-09
-0.0039533405 0.2148711 -0.17427789 -6.0853683e-10 -0.3465062 -0.23260953 0.106028005 -0.095624804
0.32019702 -2.2150222e-07 -0.007847261 -0.004457148 0.14551188 -0.07764006 8.107262e-09 0.05240942
-2.4752147e-09 0.0076645752 -0.0018765854 0.7789711 -0.005156348 1.5143465e-08 0.04482529 -1.4333004e-09
-5.7777627e-10 -2.4048159e-08 2.6882718e-08 5.9533116e-09 -5.545905e-07 5.4695697e-08 -1.7239454e-07 -5.390145e-09
-3.281031e-08 -6.881915e-08 -8.750873e-09 4.395436e-09 2.040787e-08 1.41274334e-08 2.0932521e-07 -1.9259909e-07
-3.6428226e-08 -2.2219941e-09 1.6189121e-09 1.1245114e-07 9.751056e-08 -4.9092975e-08 1.2193393e-08 -2.3464169e-07
-3.9283305e-09 -1.7267322e-08 1.3939532e-09 -2.9187104e-09 -2.5526353e-08 1.1210384e-08 1.16665476e-07 9.776615e-11
-5.335148e-09 -1.9047893e-05 1.9295516e-09 -2.2664675e-08 -2.3732862e-06 -2.6025058e-05 -2.0934998e-05 -2.0038922e-09
1.030697e-06 -2.5501287e-05 -2.2159938e-05 -1.0641674e-08 -1.5289885e-05 -1.2223419e-05 -1.0597658e-05 3.4450273e-05
-5.0419767e-06 -1.2468709e-08 -5.363247e-06 -1.8645134e-05 -3.7049342e-06 3.2809075e-06 -1.2569368e-09 -8.559294e-06
1.3089734e-09 -2.0613138e-09 -7.6536296e-08 -7.645739e-06 2.1097285e-06 -6.5668893e-09 -2.4894894e-07 2.0276868e-08
1.5066624e-08 -8.2188366e-05 8.9035375e-09 -5.086355e-10 0.0002229767 0.00014527705 -2.7969005e-05 7.5648354e-10
-0.00039835172 -0.00020714855 0.00076959183 -1.3292695e-08 0.0008598034 -0.00010583821 -0.00017248106 -0.00076034677
-5.335833e-05 9.974864e-10 4.5389632e-05 0.0006468694 0.000103325256 2.4637513e-05 3.3763174e-09 3.0101603e-05
-1.5097585e-08 1.5173834e-08 7.10239e-09 -0.0003182152 -9.60477e-05 -7.631384e-09 -0.00029188505 -1.3846472e-09
-3.20516e-08 -0.17175391 -1.7572532e-08 -2.6386692e-08 -0.4048569 0.050381154 -0.22308649 -1.6509748e-08
0.1556883 0.30665696 -0.11371909 -1.9822675e-08 -0.30489042 -0.03744106 -0.41460112 0.1774896
0.008369583 1.0012052e-06 -0.030364731 0.4145242 -0.03612492 -0.9580177 -1.2747186e-09 0.12156813
-1.3335877e-08 0.0055222246 -0.0009648052 0.7630431 -0.0665176 -2.732776e-08 -0.03561848 -7.1376793e-09
1.7371539e-08 -0.00052922685 4.0981325e-09 9.827239e-10 -0.0023748023 -9.964014e-05 -0.0006168456 -9.718094e-10
-9.9695164e-05 -0.0013997225 -0.0018182199 9.4577075e-09 -0.0010072003 -0.00033595288 -0.0009059901 2.0126745e-05
-0.00021603456 -3.9847023e-09 -0.0008238702 -0.0003705351 -0.00075820275 -0.0012157325 -9.422586e-09 -0.0006386601
1.4346919e-08 -3.2263685e-08 -1.5253503e-05 -0.00011501719 -5.292955e-05 -1.7926714e-08 -0.00029810818 1.0937773e-08
1.8660803e-08 1.7242099e-05 -4.4868367e-09 4.9420827e-09 7.045272e-05 -0.0003942104 -4.3583816e-05 1.8549501e-08
-0.00016366695 -0.00014546752 -6.0369483e-05 -2.2256915e-08 -1.9645001e-06 2.6027628e-05 2.0722147e-05 -2.717634e-06
-1.3834288e-05 8.89241e-09 1.4681495e-05 -1.7657992e-05 -1.40379225e-05 -6.912121e-05 1.0047366e-08 4.0146566e-05
9.942176e-10 -9.917113e-09 7.568506e-09 2.50347e-06 1.1958163e-05 6.9709e-09 -0.0003951637 3.4946397e-09

convs.0.lin_pos_r.bias f4 [32]
00000000: 3d02 3f3d 15e8 2a3e 8706 4eb3 7108 67b7
00000010: 4f6b 59b9 535b c93d 2fab 1dbb 61ce 6538
00000020: 498d b1bc c6da c1b8 41e0 00bd 0fa3 25b8
00000030: c90b e2b8 7159 a4bb 36d4 05bd f497 7dbd
00000040: 2b1e c4b9 cc67 dfba 2a9f 25bd 2f99 a0bc
00000050: c4d8 8fbd b2c1 a3b8 6364 d7b7 0960 4c3e
00000060: da25 d7bc 4f48 33b5 a471 d8bb 7776 f73c
00000070: e7ed 94ba b92a 28bd 6a04 13b8 7835 be3d
0.046632994 0.16690095 -4.796905e-08 -1.3770638e-05 -0.00020734708 0.09831872 -0.0024058332 5.479006e-05
-0.021673815 -9.243707e-05 -0.031463865 -3.9490926e-05 -0.00010778715 -0.005015545 -0.032673083 -0.061912492
-0.0003740651 -0.0017044484 -0.040434994 -0.019604294 -0.07023767 -7.808524e-05 -2.5676743e-05 0.1995851
-0.026263166 -6.678792e-07 -0.006605344 0.030207856 -0.0011362404 -0.04105637 -3.5051642e-05 0.09287542

convs.0.lin_neg_l.weight f4 [32, 64]
00000000: 271d ed30 b01d 9bbb a3a0 f8ba a53e 1eb8
00000010: 11a5 25ba b023 adb8 e296 37bb d400 26bb
00000020: 03cf 05bb 46b3 73ba 4c61 2fb9 5526 e8ba
00000030: c091 4fb1 4f19 872e 7f28 25bb 42c9 3c31
00000040: 3d8a b8ba 9843 fb31 32a6 aaba 2eec 24bb
00000050: a472 7232 b4cd adb1 f125 af38 0b66 d9b8
00000060: 6d91 86b2 6975 c131 d421 10bb 2729 64b8
00000070: f5f8 54ba f539 9cb1 6620 d2bb fd60 f9ba
00000080: 382e df30 7a29 4db7 2aef 0cb0 ade2 e131
00000090: f7f5 6cbb e58b 3cba 93f9 0fba a97a 31b1
000000a0: 8979 34ba 8287 cfb9 fd06 edb9 1501 ac31
000000b0: 77c8 60b3 1e1c b3b6 db94 64ba efbd 61ba
000000c0: 86c4 06b7 a541 4530 8adb 3cb9 22a2 32b9
000000d0: f56f 8ab6 dee1 7eb8 70d9 3e32 ae9c a5ba
000000e0: 0ebb 8132 18f1 9db0 69fd 38b3 bf3e ecb9
000000f0: 88f3 fc36 49f6 0132 1ba1 3eb9 55e9 09b2
00000100: 2f68 08b2 8ac1 bbb6 77a0 8136 415d d635
00000110: 2825 1036 9048 0737 89e4 3737 0a0e 8236
00000120: af43 f0b5 9ecd 3836 2d75 d2b6 cabb 26b6
00000130: 5199 19b2 84b5 84b2 bd92 2a36 f485 0fb1
00000140: 7218 b8b5 7cc6 3c2c 3908 2fb4 1305 9bb5
00000150: 678f e5b1 68b7 3232 296f 8e35 63c3 3bb4
00000160: 0f41 4e30 701d 9031 7e95 41b6 380f 05b6
00000170: 03e0 56b5 0639 1732 d481 0db6 8547 1d36
00000180: 42a8 beb0 c22b 6bb5 705e 6eb2 c3a9 7632
00000190: 3d7d e7b5 3dcc 4135 b75b 2336 1ff9 8932
000001a0: 5112 29b6 eca1 9234 ef08 e4b5 a48c 09b2
000001b0: 6cc9 26b5 8c08 2fb4 c58c 17b6 7378 d5b5
000001c0: 4ffd 0cb5 b470 57b2 19e5 f5b4 d9fe b5b5
000001d0: 3acf 9434 ccae e235 b07e 3231 85d1 41b6
000001e0: 449c 19b1 341e 22b2 a7a7 97b2 0de3 f3b5
000001f0: c967 ecb5 bbd7 012f 19a3 0cb4 613b d231
00000200: ac8a 7d32 9187 ba35 32d0 e334 3071 5236
00000210: f552 c5b3 0f0e 48b4 3e53 1736 6b06 e2b4
00000220: ed88 bab6 6092 3735 9957 9335 de50 9134
00000230: 95b2 84b1 3661 5a2f 7d65 cd35 c192 b131
00000240: c7e6 81b7 73c0 0cb2 1996 7ab2 7292 3cb8
00000250: 2d05 98b2 792a c232 92e3 64b6 f0d7 4d34
00000260: d454 c531 32a8 b532 5d93 1535 5768 71b5
00000270: b050 0a36 2180 ae31 5f7a 81b5 a54b c835
00000280: ada3 8631 eb16 463d dfad a031 93aa e732
00000290: a2f4 23b7 32ed c436 e29f ff3b acef 8d31
000002a0: a2fa a7bb 5ee9 7e3d f18b 8fbb d3d2 02b8
000002b0: 5d76 44bb c94b 9f3c 609c 0f3d 4664 1ebc
000002c0: 9a2b 73bb 3427 3bb2 3944 9db7 764e e9b5
000002d0: 0acc fc3b b761 4fbb d5fd 3832 7876 823d
000002e0: bd48 e331 d6fc 3431 e930 45b2 d2c4 a83b
000002f0: 9e05 5ab2 1d5e e4b1 d104 f4bb a413 12b3
00000300: f26c 17b2 2ab3 c43e 12f6 bc3e 2a7e 673e
00000310: d044 1cbe bef4 39be 2ddd a2be a325 d4be
00000320: c1c5 bebe 5c4a 5abe 4efc bebc 1186 a63e
00000330: df33 e232 3370 003a 9ee8 a33e 4a4f 7632
00000340: a394 4cbc 7db7 bb32 5d12 82bd c492 28be
00000350: 821d 99b2 2a07 30b3 d0f4 193f 14c3 48be
00000360: 9295 5236 255f 0532 929a d9bd 1ce3 d9be
00000370: 6f42 473c 529b 3032 56e1 993c 8baa d63b
00000380: 6568 5fb2 fa01 82be 1d8a 5f31 9068 e42f
00000390: e99b fbbe eb33 f7bd 80b0 4e3e aca0 05b0
000003a0: 4587 a53e 0326 c0be 2146 573e 5f88 adb2
000003b0: 5890 103d 19b7 3b3d 32c4 413d 71f2 90be
000003c0: 7cb5 48bd 5769 7333 21e6 9dbc cb34 a8be
000003d0: 6cca 843e d3c7 42bd f10b 8531 0069 023e
000003e0: dbd6 1831 c251 49bb 80ae 793c d6b7 563e
000003f0: bf09 4e3d e11d b032 e99d d3bd 6ab5 28b1
1.7252305e-09 -0.0047337636 -0.0018968772 -3.7728478e-05 -0.00063188473 -8.25593e-05 -0.0028013517 -0.0025330083
-0.0020417578 -0.0009296428 -0.00016725546 -0.0017711619 -3.0205314e-09 6.143585e-11 -0.002520114 2.7472002e-09
-0.0014079284 7.312746e-09 -0.0013019501 -0.0025165188 1.411232e-08 -5.0583484e-09 8.3517174e-05 -0.00010366373
-1.5665785e-08 5.6303873e-09 -0.002199282 -5.4397762e-05 -0.00081242557 -4.5467865e-09 -0.0064125536 -0.0019026097
1.6238522e-09 -1.2228609e-05 -5.1271576e-10 6.574132e-09 -0.0036157349 -0.0007192477 -0.00054922065 -2.5826614e-09
-0.0006884565 -0.00039583078 -0.0004520937 5.005982e-09 -5.2336386e-08 -5.337889e-06 -0.0008719691 -0.0008611371
-8.032779e-06 7.176147e-10 -0.00018010862 -0.00017035802 -4.125754e-06 -6.0768674e-05 1.1108895e-08 -0.0012635195
1.510264e-08 -1.1491776e-09 -4.3071314e-08 -0.00045060177 7.538536e-06 7.564787e-09 -0.00018179828 -8.027503e-09
-7.9399305e-09 -5.595565e-06 3.86318e-06 1.5971383e-06 2.14793e-06 8.063522e-06 1.096086e-05 3.8759363e-06
-1.7901092e-06 2.7537822e-06 -6.2721288e-06 -2.4845235e-06 -8.940632e-09 -1.5449366e-08 2.5417387e-06 -2.0885382e-09
-1.3716183e-06 2.6826588e-12 -1.6301136e-07 -1.1549877e-06 -6.68108e-09 1.0402665e-08 1.0612176e-06 -1.7486813e-07
7.503482e-10 4.1942982e-09 -2.8846257e-06 -1.9827403e-06 -8.004719e-07 8.802322e-09 -2.1086207e-06 2.3436453e-06
-1.3872141e-09 -8.7608e-07 -1.3874896e-08 1.4357684e-08 -1.724729e-06 7.219531e-07 2.4342278e-06 1.6062186e-08
-2.5193624e-06 2.7312433e-07 -1.6989924e-06 -8.0064275e-09 -6.2132926e-07 -1.6301254e-07 -2.2582692e-06 -1.5904792e-06
-5.2522677e-07 -1.2540273e-08 -4.5801497e-07 -1.3559721e-06 2.7717925e-07 1.6889185e-06 2.5974423e-09 -2.8881198e-06
-2.2353257e-09 -9.4365085e-09 -1.7654953e-08 -1.8170991e-06 -1.7613576e-06 1.1809125e-10 -1.309785e-07 6.118555e-09
1.47580685e-08 1.3897535e-06 4.2433527e-07 3.1358322e-06 -9.188617e-08 -1.8631566e-07 2.2549207e-06 -4.210045e-07
-5.559172e-06 6.8385816e-07 1.0977848e-06 2.7067193e-07 -3.862008e-09 1.9861521e-10 1.5303227e-06 5.168062e-09
-1.5485462e-05 -8.19283e-09 -1.45860435e-08 -4.495908e-05 -1.7697483e-08 2.2603887e-08 -3.410711e-06 1.917067e-07
5.7430984e-09 2.114766e-08 5.572127e-07 -8.993133e-07 2.0610569e-06 5.078633e-09 -9.646864e-07 1.4923177e-06
3.918521e-09 0.0483617 4.6763797e-09 2.6969508e-08 -9.772515e-06 5.8688684e-06 0.007801042 4.1308876e-09
-0.0051263133 0.062234275 -0.004380696 -3.119076e-05 -0.0029977777 0.019445317 0.03506124 -0.009667462
-0.0037104846 -1.0893746e-08 -1.8747627e-05 -1.7382688e-06 0.007714753 -0.0031643936 1.0767924e-08 0.06370252
6.614839e-09 2.6337168e-09 -1.147803e-08 0.005150416 -1.2690547e-08 -6.646373e-09 -0.007446863 -3.4011137e-08
-8.814128e-09 0.3841794 0.36906487 0.22606722 -0.15260625 -0.18159768 -0.3180937 -0.41434965
-0.3726025 -0.21317428 -0.023313668 0.3252416 2.6333451e-08 0.00048995315 0.3201341 1.4337113e-08
-0.01248661 2.1853106e-08 -0.06351159 -0.16462237 -1.7824963e-08 -4.098471e-08 0.6013918 -0.19605666
3.13795e-06 7.763252e-09 -0.10625185 -0.42556083 0.012161835 1.0279864e-08 0.018784206 0.006551092
-1.3004045e-08 -0.25392133 3.252928e-09 4.1547255e-10 -0.49142388 -0.120704494 0.20184517 -4.8613447e-10
0.32329765 -0.37529 0.21022846 -2.0201865e-08 0.035293907 0.045828912 0.047306247 -0.28309968
-0.049001202 5.6673652e-08 -0.019274773 -0.32852778 0.25935686 -0.04755385 3.872167e-09 0.12735367
2.2241042e-09 -0.0030718897 0.015239358 0.20968565 0.050302263 2.0502684e-08 -0.10332853 -2.455034e-09
