bitcoin-otc/models/bitcoin-otc-train-1.pt (torch, 64443 bytes, 14 tensors)

conv1.lin_pos_l.weight f4 [32, 64]
000000 8e 49 b9 3d 04 e3 1d 3e ca 88 88 be 5e 9a 7a 3e
       0.090472326 0.15418631 -0.26666862 0.24472949
000010 6e 6b b3 3d 67 32 34 3c ac 05 cd bc 25 8f d0 bc
       0.08760725 0.010998345 -0.025027119 -0.025458882
000020 9b 1a 95 bd b5 e1 c0 3d b4 dc 60 3c 33 40 54 bd
       -0.07280465 0.0941805 0.013724495 -0.051819038
000030 a5 71 e8 bc 56 47 bf bc 4c 83 c2 bc a6 fd a5 3c
       -0.028374502 -0.023349445 -0.023744248 0.02026255
000040 8a 28 c3 3c 62 60 a5 bc 88 86 2e 3d 2a fb 69 bc
       0.023823041 -0.02018756 0.042608768 -0.014281074
000050 60 72 ac b9 c0 3b 34 bc c3 bf 4f bc ef e6 19 bb
       -0.00032891612 -0.011000574 -0.012679997 -0.0023483594
000060 cb d4 8a bc f2 41 b2 bc 58 0c 4c bd 54 6d 62 3d
       -0.01694717 -0.02175996 -0.04981646 0.055280045
000070 62 59 14 bd cc d9 6f bb 5b 85 96 bc 32 e9 ef ba
       -0.036218055 -0.0036598323 -0.018374136 -0.001830375
000080 d3 16 ba 3c 44 76 2a bc c2 de 04 bd 60 f9 f5 bb
       0.022715962 -0.010404173 -0.032439 -0.0075065345
000090 24 0e 37 3c 53 40 a8 ba 25 fb 56 bc 72 57 b2 3c
       0.011172805 -0.0012836553 -0.013121401 0.021770213
0000a0 17 02 ff bc d5 11 f7 bb f1 27 86 3c c0 2c 10 3c
       -0.031128926 -0.0075399675 0.016376467 0.008799732
0000b0 8e a1 05 bd ad a9 49 3b b1 f1 d4 3c 74 ad 2e 3c
       -0.032624774 0.00307713 0.025994154 0.010661472
0000c0 06 13 90 bc e1 e2 13 b9 03 e9 f2 bc d8 54 b1 3c
       -0.017587196 -0.00014103531 -0.029652124 0.021646902
0000d0 3d f3 3b ba aa d1 1a 3c 15 d9 dc bb 5d a7 d6 3c
       -0.0007169729 0.009449402 -0.0067397454 0.026202852
0000e0 f2 cf 4d bc d0 a8 33 3c ae 3a d3 3c 56 de b0 bc
       -0.012561785 0.010965541 0.025784817 -0.021590393
0000f0 b1 ba b0 ba cc 62 f9 bb 4e f4 bd 39 d3 f5 d3 bc
       -0.0013483373 -0.0076106545 0.0003623091 -0.025874054
000100 4a 7a 6e bd 74 bc b4 3e 00 d9 bf 3d 21 78 30 bd
       -0.058222093 0.35300028 0.09367561 -0.043083314
000110 ad 3e 11 3e be 2f a0 bd c0 fc 84 3e a8 63 5b 3e
       0.14184065 -0.07821606 0.25974083 0.21424735
000120 dd 8a 7e 3e 0d 55 ee 3d db d4 6f bb 33 ea e7 3d
       0.2485766 0.11637316 -0.0036595378 0.11323967
000130 e4 c6 3d be 43 e6 57 be 37 ff f2 3d 24 2d a0 bc
       -0.18532902 -0.21083932 0.118650846 -0.019552775
000140 54 6a 27 3c f7 6c 55 3e f4 a3 74 bd 04 df d0 3d
       0.010218222 0.20842348 -0.05972667 0.10198787
000150 8e c4 44 be 60 89 ca 3d 0e 70 02 3e 62 6d 89 bd
       -0.19215605 0.098894835 0.12738058 -0.06710316
000160 45 4b 91 3c 59 12 e8 bd e2 24 72 3c 50 3f 90 ba
       0.017736087 -0.113316245 0.014779301 -0.0011005197
000170 69 f1 33 3e 80 6e 08 be df e9 50 3e 13 fa 43 3e
       0.1757256 -0.13323402 0.20401715 0.19138364
000180 e4 33 e3 3d 41 39 cd bd ab 85 a1 3d f9 dd 9c bb
       0.11093882 -0.10020686 0.07886823 -0.0047872034
000190 af f7 15 3e 46 45 26 bc 24 0a af 3d c7 ac a2 bd
       0.14645265 -0.010148352 0.08546856 -0.07943111
0001a0 32 bd bc 3c 46 5b 40 bd f8 8d e7 3d 69 cc 8e 3d
       0.023039434 -0.046962045 0.11306375 0.06972582
0001b0 39 56 32 3e 88 50 02 3e 45 72 9a bc 70 18 77 3c
       0.17415704 0.12726033 -0.018853316 0.01508151
0001c0 a0 78 cc 3d c7 a4 d6 3d 6a 4f 79 bd 96 f5 1a bd
       0.09983945 0.104806475 -0.06086675 -0.037831865
0001d0 55 cb 13 3e 72 52 29 bb 7f 4f e6 bd c1 1a f9 3c
       0.14433034 -0.0025836495 -0.112456314 0.030408265
0001e0 23 f3 1e be d1 06 25 3e 99 dd 87 3d fc b8 ea bd
       -0.15522437 0.16115882 0.06634063 -0.11461064
0001f0 c1 47 98 bc 66 c8 e4 3c 63 9e 53 3d 3d 71 29 3d
       -0.018588902 0.027927589 0.05166472 0.041367758
000200 f4 f8 d6 b3 44 85 b4 39 39 76 11 b9 03 73 8c bb
       -1.0010436e-07 0.00034431566 -0.00013872319 -0.0042861714
000210 75 fb 85 b4 6c e2 06 b3 2a 44 d6 32 b0 50 2a 32
       -2.495614e-07 -3.1405236e-08 2.4943876e-08 9.913649e-09
000220 57 1e 19 b1 63 21 bf b1 94 45 60 b2 62 72 4c 31
       -2.2281677e-09 -5.5626272e-09 -1.3054336e-08 2.9750926e-09
000230 75 48 62 32 c4 74 a2 32 53 09 98 31 b8 84 22 32
       1.3171406e-08 1.8912381e-08 4.4248423e-09 9.459818e-09
000240 c8 53 09 b2 c0 24 92 31 59 c5 4d b0 cd 70 7f b1
       -7.993499e-09 4.2533372e-09 -7.4859013e-10 -3.7171504e-09
000250 5e d1 85 31 69 eb 1b b2 2b 1e ed b1 1a 5d c5 32
       3.8946117e-09 -9.0757135e-09 -6.9010375e-09 2.2976156e-08
000260 d2 6b ca 31 d3 1f 34 b2 82 1b 09 32 7d 3f e6 31
       5.8912315e-09 -1.0484615e-08 7.980704e-09 6.701099e-09
000270 d4 a7 f3 b1 78 04 94 b1 07 64 2d 32 4c 74 8c 32
       -7.0913106e-09 -4.307875e-09 1.0092669e-08 1.635103e-08
000280 59 e6 c5 30 bc 5e 35 b2 4b 30 61 af 98 85 c3 31
       1.4399105e-09 -1.0557127e-08 -2.0480788e-10 5.690435e-09
000290 44 41 59 30 09 54 e7 b1 01 c2 1b b2 a8 73 d1 31
       7.903689e-10 -6.7325385e-09 -9.066299e-09 6.095849e-09
0002a0 8a 1e 1e b2 c5 97 14 32 8d c4 fa 32 e8 90 c8 31
       -9.203754e-09 8.649242e-09 2.9193211e-08 5.83724e-09
0002b0 8f b0 8f 30 11 f9 6f 32 36 99 a0 32 66 da 1a 31
       1.04548e-09 1.3968262e-08 1.8696124e-08 2.2534095e-09
0002c0 d6 38 9e 32 f1 e8 7b 32 37 b5 ed 31 7d 31 da b1
       1.8419467e-08 1.4663088e-08 6.9182096e-09 -6.350261e-09
0002d0 eb d1 5a 30 fb 46 2d b2 0e 6e 59 b2 5b f8 0d b2
       7.960625e-10 -1.0086064e-08 -1.2656086e-08 -8.26375e-09
0002e0 0b 38 a8 32 14 41 e7 b1 d5 27 9a b2 a6 0c 03 32
       1.958326e-08 -6.7303834e-09 -1.7946073e-08 7.6280795e-09
0002f0 73 8f ca af 0b 3f ac 31 13 f7 02 31 3d a1 42 b2
       -3.6845513e-10 5.013026e-09 1.9057935e-09 -1.1328948e-08
000300 5f 26 dd b1 30 24 6a b2 a5 11 7c b2 16 36 22 b2
       -6.436309e-09 -1.3628821e-08 -1.46723425e-08 -9.441939e-09
000310 71 35 32 32 c5 4b 02 b1 2d 01 80 b2 ff 8a bd b0
       1.0373115e-08 -1.896056e-09 -1.4901696e-08 -1.3791065e-09
000320 f1 b2 a4 31 a2 66 98 31 21 f3 3c 32 9d c7 ad 31
       4.7933715e-09 4.4354502e-09 1.0998321e-08 5.057656e-09
000330 01 7a 8c 30 90 75 11 30 be 58 04 b1 96 ac 1d 31
       1.0221016e-09 5.291776e-10 -1.9258972e-09 2.294461e-09
000340 61 ea 10 31 6c 85 06 31 98 2b 94 2f 13 9e 0c 31
       2.1087987e-09 1.9575408e-09 2.6952018e-10 2.0462536e-09
000350 3d 46 ef 31 cd 4a 7a 31 c7 09 6b b2 28 96 d4 b0
       6.9638006e-09 3.6422307e-09 -1.3681023e-08 -1.5467707e-09
000360 3e 6e 76 31 f5 54 94 30 8b a5 58 32 62 8b 56 30
       3.5860377e-09 1.0792564e-09 1.2610495e-08 7.805082e-10
000370 42 9a 22 b1 0e 7a 9e b2 80 65 6e 32 e2 45 be b1
       -2.3661788e-09 -1.8449125e-08 1.3876502e-08 -5.5376725e-09
000380 1e 5c 0d b0 bb 62 85 31 4b 40 8a 31 0c b2 9b 31
       -5.142641e-10 3.882034e-09 4.023638e-09 4.5313353e-09
000390 21 57 19 31 c9 97 0e 31 ab e7 76 31 8f fa 07 32
       2.2313957e-09 2.075e-09 3.59294e-09 7.915005e-09
0003a0 b7 80 58 32 18 36 0c b2 ca e8 0f b2 4a e2 6d 31
       1.2602121e-08 -8.161372e-09 -8.376626e-09 3.461667e-09
0003b0 e1 c0 c8 31 ed 8f d0 31 6c cb 0d b2 6c 50 2a 32
       5.842694e-09 6.069959e-09 -8.253533e-09 9.913588e-09
0003c0 98 c2 12 b2 6b 9a 3f 31 6d 07 94 b1 c6 cd 03 32
       -8.542564e-09 2.7881935e-09 -4.308211e-09 7.671991e-09
0003d0 c8 12 a6 b0 71 2a 18 30 b7 75 89 b1 0d 13 e3 31
       -1.2083428e-09 5.535759e-10 -4.0006074e-09 6.6087353e-09
0003e0 6c 0d e8 2f 63 96 a8 31 92 7f 66 32 62 3e d4 31
       4.221009e-10 4.9065405e-09 1.3416768e-08 6.177104e-09
0003f0 89 b1 b9 b1 9b 30 ba b1 4c 74 0f b2 57 71 92 32
       -5.404392e-09 -5.4188383e-09 -8.350138e-09 1.7048178e-08

conv1.lin_pos_r.weight f4 [32, 64]
000000 aa e8 25 bc 1c a0 dc bb e5 28 3f bc 27 18 24 bb
       -0.010126272 -0.0067329537 -0.011667465 -0.002503881
000010 f4 f7 67 3b 9c 63 85 3c 38 52 93 3a 98 4a 4f bc
       0.0035395594 0.016282849 0.0011239713 -0.012652062
000020 34 16 93 3a 6a eb 31 bc 2a 37 95 bb 2c f7 f8 ba
       0.0011221827 -0.01085935 -0.004553695 -0.0018994561
000030 18 f2 17 3d dd 16 0f bd 07 8c 22 bc 56 57 c3 3c
       0.037096113 -0.034933913 -0.00992108 0.023845356
000040 ca 48 bf bb 37 d6 1d 3c 36 aa 33 bc ae 24 30 bd
       -0.0058375346 0.009633592 -0.010965874 -0.04300373
000050 6f 46 82 3c e8 25 1e bc 42 48 06 bd aa ac 89 bc
       0.015902726 -0.009652592 -0.032783754 -0.016805965
000060 89 de ca ba f0 88 3f bc 47 a4 a6 3b e9 4d 72 3c
       -0.0015477698 -0.011690363 0.0050855014 0.014789083
000070 af 63 b6 bb 81 84 5f bc d0 77 bc bc d3 f1 06 bb
       -0.0055660824 -0.013642431 -0.02300635 -0.0020590916
000080 31 47 f1 3b 9a 64 fa 3a 73 77 4c bc 5d 00 46 3c
       0.007363223 0.0019103468 -0.012479651 0.012085048
000090 51 3b 40 3c 9d 89 27 bc fe 1b 2a 3d c8 56 25 bc
       0.011732892 -0.010225681 0.0415306 -0.010091491
0000a0 73 58 18 3b c2 4b 03 3d 48 37 1e bc 84 aa 9f bc
       0.002324608 0.03205467 -0.009656735 -0.019490488
0000b0 e6 ef 54 3c 5e f9 af 3a 06 02 70 bb 5d d4 dc 3a
       0.012996649 0.0013425758 -0.00366223 0.0016847957
0000c0 43 05 53 bd 8a 61 e9 bc 40 4b dc bc af 17 1f 3a
       -0.05151869 -0.028488893 -0.02689135 0.0006068898
0000d0 a5 97 85 bb ba 65 06 bd 48 8e 25 bb fd c9 f5 3b
       -0.0040769153 -0.032811858 -0.0025261808 0.0075008855
0000e0 15 a4 db bc dc 3b 65 bc bf 6b 5f 3c 9c c7 00 bc
       -0.026811639 -0.013991322 0.0136365285 -0.007860091
0000f0 08 ca 24 3d 41 c7 9e 3c 23 b4 a4 3c b2 a9 33 bd
       0.040231735 0.019382121 0.020105427 -0.043863006
000100 88 64 c9 bd 87 59 82 3e 47 df 74 3b 1e dd 2a 3c
       -0.09833628 0.2545893 0.003736453 0.010428695
000110 07 80 04 be 83 bb 51 3e cf 80 02 3e 8e da 91 3d
       -0.12939464 0.20481686 0.12744449 0.07121764
000120 51 ad 17 3d 43 94 16 3c 84 9b ea bd 4a 0e 18 bd
       0.03703052 0.009190622 -0.114554435 -0.037123002
000130 0f a0 09 3e 52 ac 37 bd f0 6a 4a be 14 bf 59 3c
       0.13439964 -0.04484207 -0.19767356 0.0132901855
000140 48 5a d5 bc b9 4c 6e 3d c8 74 cc 3d c4 1c a1 3d
       -0.026044026 0.058178637 0.09983212 0.07866815
000150 82 f9 1c bc 05 b7 20 3d 94 20 e2 bc 9b d9 1f be
       -0.009580972 0.03923704 -0.027603425 -0.15610354
000160 b7 1c 94 3d 56 51 61 bd b0 28 d3 bd da 97 d1 3d
       0.072320394 -0.05500921 -0.10310495 0.102340415
000170 ed d4 54 3a 01 bc d5 bd f1 86 7e 3c 29 48 2c 3e
       0.00081188866 -0.104362495 0.015535102 0.16824402
000180 8a 98 2a bd 0c e5 37 3e 7c a3 01 be 4f d8 ac bd
       -0.04164938 0.17958468 -0.1266002 -0.08439695
000190 f7 fe ab bd df 40 9f 3d 53 e0 d6 3d 73 1d 27 bd
       -0.0839824 0.07776045 0.10492005 -0.04079957
0001a0 ce 63 35 be 97 53 2f be ba 6d 9f bd 7f 34 17 bd
       -0.17713854 -0.1712173 -0.077846006 -0.0369153
0001b0 a8 c3 01 bc fc 73 53 bd 26 b3 79 bc 50 b3 02 3e
       -0.007920183 -0.051624283 -0.015240466 0.12763715
0001c0 be f8 8f 3c 24 bf 4a 3e 6f 6b b0 bd 74 23 b6 bd
       0.017574664 0.19799477 -0.08614241 -0.08893481
0001d0 20 6b c0 3c 8a 96 7e 3c d5 11 62 be 93 c0 73 3e
       0.023488581 0.015538821 -0.22077115 0.2380393
0001e0 03 33 5d 3d f9 fc 29 3e 1d 81 3a 3d 11 24 ae bd
       0.054003727 0.16600408 0.04553329 -0.08502973
0001f0 a1 95 3f 3d ae 43 c1 3c 17 51 e5 bc c3 d5 90 3d
       0.046773557 0.023591843 -0.027992768 0.07072022
000200 40 39 a4 32 37 3e 07 b2 e9 e3 0b b2 07 eb 27 b2
       1.9118147e-08 -7.87218e-09 -8.142686e-09 -9.774118e-09
000210 e5 1b 91 32 3c ed 06 b2 87 a6 21 b2 94 ca 79 b2
       1.6892907e-08 -7.853767e-09 -9.409297e-09 -1.45397685e-08
000220 fd e5 08 33 b0 f1 13 32 e5 62 a6 b2 d6 11 ef b1
       3.187414e-08 8.6114795e-09 -1.9369915e-08 -6.957843e-09
000230 44 0f c1 b1 da 12 d2 30 f5 db 3b 32 a8 9f 63 b2
       -5.618775e-09 1.5284869e-09 1.0934845e-08 -1.3249441e-08
000240 d1 8a 80 b1 af a1 7d 31 89 a8 f6 b1 db 0c 2e 32
       -3.741072e-09 3.6908252e-09 -7.1787025e-09 1.0131056e-08
000250 47 d0 83 b1 5b 43 d3 b1 13 5f 1c 32 de bd 99 b2
       -3.83628e-09 -6.1485657e-09 9.1020125e-09 -1.7897886e-08
000260 8b 71 9f af 21 5f 65 31 21 44 d5 2f aa ea a8 32
       -2.900261e-10 3.337796e-09 3.8792883e-10 1.9664487e-08
000270 dd 0f 42 b2 22 fb 85 b2 ea cc 69 32 f0 e0 88 2f
       -1.1295893e-08 -1.559744e-08 1.3608977e-08 2.4898084e-10
000280 19 f7 98 b2 03 1c ec 31 b1 d8 aa b2 ea 7e 39 b2
       -1.7807496e-08 6.8716886e-09 -1.9889145e-08 -1.0797274e-08
000290 72 08 cc 32 42 eb 61 b2 22 60 00 b2 6d 27 a5 b2
       2.3752566e-08 -1.3150215e-08 -7.472439e-09 -1.9226457e-08
0002a0 c1 bf ef 32 44 13 46 b1 3f 39 12 31 85 9c cf 31
       2.7910461e-08 -2.8823743e-09 2.1278337e-09 6.042287e-09
0002b0 43 4c a8 32 b0 58 9c 32 4b a8 88 32 bb 06 76 b2
       1.9592454e-08 1.820112e-08 1.5909015e-08 -1.4320615e-08
0002c0 15 3f 95 b2 01 b3 78 32 f6 c9 8a b2 3c 25 8b 30
       -1.737457e-08 1.4476201e-08 -1.6157156e-08 1.0124164e-09
0002d0 94 96 3c 32 0f 2d a0 31 30 26 d8 31 53 43 0f 31
       1.0977278e-08 4.6617354e-09 6.290769e-09 2.0847508e-09
0002e0 6d b7 1c 32 a6 07 75 32 4e af 21 32 28 c6 0b b2
       9.122101e-09 1.4262616e-08 9.411293e-09 -8.13592e-09
0002f0 ed d2 89 b0 f1 d2 57 ac 60 57 0b b2 3c 57 3d b2
       -1.0028011e-09 -3.0670434e-12 -8.110732e-09 -1.1021083e-08
000300 9f d6 3d 33 a9 8b 96 33 ed 50 d7 b4 96 89 9e b2
       4.420019e-08 7.010323e-08 -4.0105752e-07 -1.8456188e-08
000310 50 54 00 b3 dc 3e c5 b2 45 22 c2 31 65 02 ca b2
       -2.9879004e-08 -2.2962404e-08 5.650039e-09 -2.3516984e-08
000320 19 a4 91 32 75 8b 70 b1 4c 48 7c 32 13 d8 6b 32
       1.6954845e-08 -3.5003869e-09 1.4684769e-08 1.372793e-08
000330 c0 5d 16 b2 2e 4f 40 32 55 f9 3f 32 19 6b 2a 32
       -8.752465e-09 1.1193874e-08 1.1174355e-08 9.9196535e-09
000340 47 9f c4 31 92 70 60 32 9b 0b 43 32 30 f8 9d b2
       5.7224585e-09 1.3064112e-08 1.1353133e-08 -1.8390068e-08
000350 3f 0b 33 32 81 be ef 31 e2 ff 36 31 8c 49 82 b2
       1.0421728e-08 6.9774733e-09 2.6629938e-09 -1.5167437e-08
000360 72 43 96 32 e5 1d a0 af b0 99 1d 30 2d 7b 3f 31
       1.7492969e-08 -2.9125072e-10 5.733467e-10 2.7864175e-09
000370 d4 26 f6 31 2a c7 9a b2 fe b6 88 b1 ae ca 6f b2
       7.1639565e-09 -1.8018529e-08 -3.9789247e-09 -1.3957715e-08
000380 ca 29 cf b2 db a0 31 b1 b6 f6 5e 31 20 20 87 b2
       -2.4116975e-08 -2.5848326e-09 3.244549e-09 -1.5730677e-08
000390 69 bf 22 b2 40 7f ab b1 fb d7 19 32 7e 26 13 b2
       -9.473163e-09 -4.9912217e-09 8.95488e-09 -8.565278e-09
0003a0 ec 28 b7 31 b3 3f 6a 31 44 87 9b 31 9c 01 22 32
       5.3306533e-09 3.408769e-09 4.5264716e-09 9.430007e-09
0003b0 2e 74 a4 32 d8 21 11 31 9e 5d 9b 32 b8 35 68 32
       1.9144945e-08 2.1119515e-09 1.8086947e-08 1.3516392e-08
0003c0 d7 79 46 af bf 37 14 32 83 99 86 b1 fd c9 a2 32
       -1.8051281e-10 8.627409e-09 -3.9173655e-09 1.8951136e-08
0003d0 b8 1f 83 b1 2c 2f ed b1 76 43 3b b1 38 a0 12 33
       -3.816208e-09 -6.9029706e-09 -2.7250429e-09 3.4138992e-08
0003e0 bf 42 37 b2 7e f7 ca 32 54 c5 dd 31 41 37 6f 32
       -1.0667178e-08 2.3628441e-08 6.45438e-09 1.3924194e-08
0003f0 a2 50 34 32 73 d2 3c b1 c2 bc 3c b2 b0 cb 1f 32
       1.0495713e-08 -2.7477227e-09 -1.0985959e-08 9.301331e-09

conv1.lin_pos_r.bias f4 [32]
000000 b7 17 5f bd d0 14 02 3d db 1a 0a bd 97 e1 0b bc
       -0.054465976 0.03175813 -0.033717018 -0.0085376715
000010 60 59 88 bb 0c 9a a0 3a b7 b5 40 3d e1 cc 19 b6
       -0.004161045 0.0012252941 0.047048297 -2.2918032e-06
000020 35 48 c5 3d 24 ba 2f 3d d5 ea 24 bc d4 32 b0 ba
       0.09632913 0.042902127 -0.010065754 -0.0013442882
000030 0b a9 84 bc 6a 4b c4 3c 9a 61 8d 3d a4 25 1e 3d
       -0.016193887 0.023961741 0.06903382 0.038610116
000040 0f d0 23 3c d0 a0 f9 bc 12 c1 c1 3d 71 03 4b bc
       0.0099983355 -0.03047219 0.09460653 -0.012390957
000050 55 c3 9b 3d 1e b7 73 3d c2 16 73 bb 9e 90 ab 3d
       0.07605616 0.059500806 -0.0037092422 0.08377193
000060 c4 8a f1 33 2e 79 60 bd 13 59 28 b7 42 be ef 3d
       1.1247678e-07 -0.054803066 -1.00343195e-05 0.11706211
000070 95 93 49 3c ab 52 c5 3c 02 a4 38 3d 69 c0 1a bd
       0.012303253 0.02408727 0.045078285 -0.037781153

conv1.lin_neg_l.weight f4 [32, 64]
000000 8b 75 db 33 4b e9 94 32 46 fb 91 30 d9 b6 20 b3
       1.0219363e-07 1.7335557e-08 1.0621555e-09 -3.7419202e-08
000010 8e 1c 0c b1 8a c0 06 b3 92 ff 3b 33 e4 76 90 b2
       -2.0388913e-09 -3.137442e-08 4.377177e-08 -1.6817872e-08
000020 85 0d 25 33 4c 52 71 30 ce 29 e9 b1 b3 62 7b 32
       3.8429352e-08 8.779224e-10 -6.785945e-09 1.46325645e-08
000030 b1 25 41 b1 23 de 61 32 d1 ef 42 31 04 6a 57 b1
       -2.8106621e-09 1.3147232e-08 2.8367035e-09 -3.134688e-09
000040 18 73 b1 33 4e ea 4a b3 95 8d cc 2f 48 7a 91 31
       8.26314e-08 -4.724489e-08 3.7207984e-10 4.233957e-09
000050 e2 22 89 b0 a6 dc 5f b3 af f6 a9 32 80 3d 3c 31
       -9.977976e-10 -5.2121912e-08 1.9786368e-08 2.739256e-09
000060 0d f2 b0 32 73 dc 83 b2 23 82 e0 31 7e 60 3b b2
       2.0599169e-08 -1.5350656e-08 6.534053e-09 -1.0906772e-08
000070 4f c8 8d b3 a4 ae e2 31 10 98 8b b2 c2 8c cb 32
       -6.60226e-08 6.59732e-09 -1.625088e-08 2.369632e-08
000080 35 f1 32 32 e3 fd 52 32 72 a4 de 32 27 d8 9d 32
       1.0415808e-08 1.2281336e-08 2.5918983e-08 1.83755e-08
000090 b7 c1 1d 33 1e d3 35 b2 4f fa b6 32 6d e0 9d b1
       3.6730594e-08 -1.0583589e-08 2.1301416e-08 -4.5948156e-09
0000a0 dd b7 64 b2 3d 0e f8 b2 39 9a 90 b1 c5 83 0f b1
       -1.3313152e-08 -2.8877475e-08 -4.2084847e-09 -2.088414e-09
0000b0 a3 a0 a1 32 9e d9 f6 31 2d 8f 9a b1 ce 01 69 31
       1.8815916e-08 7.1842825e-09 -4.498267e-09 3.3906988e-09
0000c0 03 f5 48 b2 90 58 0b 34 2d 6f 98 b2 ac 21 2a b2
       -1.1697241e-08 1.2977603e-07 -1.7745686e-08 -9.9029585e-09
0000d0 0c a4 0f 32 c0 02 eb 32 c8 5c 78 30 3d c1 ee b0
       8.3609955e-09 2.7358851e-08 9.0353725e-10 -1.7371701e-09
0000e0 fd ed 69 32 09 a2 99 30 eb 14 ae b2 bb 75 0b b2
       1.3616497e-08 1.1178268e-09 -2.0265778e-08 -8.117634e-09
0000f0 3d c4 b1 32 c5 28 38 32 8d 11 10 33 5f 7f 48 b2
       2.069475e-08 1.07194795e-08 3.3543575e-08 -1.1670493e-08
000100 4f 6d b6 be c8 81 0c bd 39 97 8b bd 5e 80 59 3e
       -0.3563027 -0.034303457 -0.06815953 0.21240374
000110 51 a2 a9 bd db 99 49 bd b5 b4 31 3d 08 a9 04 bc
       -0.082829125 -0.049218994 0.043385226 -0.008096941
000120 02 e0 a5 3e 72 af 55 bc 9d 58 68 bd 04 50 6c 3d
       0.32397467 -0.013042318 -0.056725133 0.057693496
000130 4b 64 0c be 93 e7 63 3d 4c 36 95 3e ad 5b 73 3e
       -0.13710134 0.05564077 0.29142988 0.2376544
000140 ee 50 7e 3e 9e 89 63 3e 6e 00 54 bb 71 f5 f7 bc
       0.2483556 0.22220466 -0.003234889 -0.030268403
000150 88 e6 44 be 65 cb 64 bd 2d 0a 2c 3e 1b 24 2a bd
       -0.19228566 -0.055858035 0.16800757 -0.04153834
000160 a1 95 cb bd e0 93 ff bd f6 bc 99 be e9 83 4e bc
       -0.09940649 -0.12479377 -0.30026978 -0.012604692
000170 a8 31 6f 3e 47 5a 6d be 36 31 73 3d 05 c7 e6 bd
       0.23358786 -0.2317897 0.059373103 -0.11268429
000180 32 f4 d0 3e 9c c1 39 be e1 02 fa 3c 00 d3 00 3e
       0.40811306 -0.18140262 0.03051895 0.1258049
000190 10 a9 b0 bc a9 fd c8 bd bd af 49 bd bb 84 5d bd
       -0.02156499 -0.09814007 -0.049239863 -0.05408166
0001a0 b0 e6 0c be fe b1 00 bd a5 87 4d 3e 21 7e 8b 3e
       -0.13759875 -0.031419747 0.20071276 0.27244666
0001b0 47 0f 06 3d 51 e9 6c be 25 b4 05 be ec 36 0f 3e
       0.032729413 -0.23135878 -0.13057001 0.13985795
0001c0 43 ca 79 bd 93 20 01 be 40 de 8c 3d 00 d1 1d 3e
       -0.060983907 -0.12610082 0.06878328 0.15411758
0001d0 ec 86 04 3e f4 ea 09 3e c9 48 48 3e 87 ac fd bd
       0.12942094 0.13468534 0.19559015 -0.123864226
0001e0 f8 b5 eb bd e7 b7 76 3e 85 e2 c4 bd ac 9f 5d bd
       -0.11509317 0.2409359 -0.09613518 -0.054107353
0001f0 53 ce 95 bd 98 c0 0e bc ba cb 08 3e 7a 15 cf bb
       -0.07314744 -0.00871291 0.13358966 -0.006319699
000200 56 a7 df be 38 6f 1e 3c 7b 4d 17 bc c8 33 3f 3c
       -0.43682355 0.009670071 -0.009234781 0.01167006
000210 50 c8 14 bd 93 88 e4 bd 59 9f 80 bd 0e e1 c9 3a
       -0.036323845 -0.11158862 -0.06280393 0.0015402155
000220 56 62 26 be a6 36 28 be 14 23 27 3d d5 fa 19 3d
       -0.1624845 -0.16427097 0.040804937 0.037592728
000230 94 a5 6c be 99 0d 35 bd a6 ad 8c 3c 31 0d 18 bd
       -0.23110038 -0.04420242 0.017172646 -0.037121955
000240 1b 24 3a be 35 4e 41 3d 47 48 0b 3e de 69 a9 bc
       -0.18177836 0.047193725 0.1360179 -0.020680364
000250 00 ab c6 ba 2f 34 d7 3d 19 bb e3 bb 34 cc 63 3d
       -0.0015157163 0.10508 -0.006949794 0.055614665
000260 e7 2c ae 3b 9b 82 13 3d 6c af 38 39 33 d4 29 bc
       0.0053154114 0.036013227 0.00017612957 -0.010365534
000270 e0 a3 03 be 7c 72 5a bd e2 33 b2 3c 3e 71 5b bd
       -0.12855482 -0.053331837 0.021753255 -0.053574793
000280 75 23 72 be bb a3 28 be de 56 4e 3d dd 32 8f bd
       -0.23646338 -0.16468708 0.05037581 -0.06992123
000290 43 86 97 bc 68 38 5a 3c ce 25 94 bd ff 71 00 bd
       -0.018496638 0.013319112 -0.07233773 -0.031358715
0002a0 22 65 eb 3d 3b 11 28 3d 0e 89 66 3e c6 8b 7e bc
       0.11493899 0.041032057 0.2251322 -0.015536254
0002b0 19 11 76 bd 8f 50 2f bd 17 f7 02 3e 04 75 75 be
       -0.0600749 -0.042801436 0.1278957 -0.23970419
0002c0 22 be 05 be 89 23 f7 3d 05 65 a9 3d 76 c9 63 bd
       -0.13060811 0.12067325 0.08271221 -0.05561205
0002d0 d9 31 10 be 1c 7f 3b bc c8 72 06 3e 4b 59 69 3c
       -0.14081515 -0.011443879 0.13129723 0.0142424805
0002e0 61 ce 19 3e be 24 d5 bd 48 36 a4 3d f9 ab b5 3d
       0.15020134 -0.10407399 0.08018166 0.08870692
0002f0 da 0c 0c 3d 9e cf 57 3d 93 db f7 bd 0c 7b 02 3e
       0.034191944 0.052688234 -0.12102427 0.12742251
000300 ce 72 05 bf 54 2f 6f 3c 56 ed 29 3d 8f 20 a7 3e
       -0.52128303 0.014598686 0.041486107 0.32642028
000310 b5 8d b2 3d 97 fb 37 3b 7c be a1 3e 69 05 20 3e
       0.08718435 0.0028073543 0.3159064 0.15627064
000320 b0 4c c5 3e 68 b5 71 3e 5d c1 7b bd 04 6a 14 3d
       0.3853507 0.23604357 -0.061463702 0.036233917
000330 79 c1 85 3e 1b c0 3c be 80 17 11 3d 64 37 dd bd
       0.2612417 -0.18432657 0.035422802 -0.108015805
000340 b2 90 61 be 29 4b 40 bd 0a 0a cb 3c 81 d9 81 3d
       -0.22027853 -0.04694668 0.02478506 0.06340314
000350 1e 54 67 be 68 dd 9c bd 78 06 9c 3e ab a6 08 3d
       -0.22590682 -0.076594174 0.30473685 0.033362072
000360 c0 4f 39 be 13 31 95 3d 6d e7 1a 3d 58 1d 82 bd
       -0.18096828 0.07284751 0.03781836 -0.06353253
000370 90 c9 83 be e2 62 21 3e 4a 8c 26 3e 09 36 b9 bd
       -0.25739717 0.15760377 0.16264454 -0.090435095
000380 cf ca 9a bc 2d 73 94 bd ed 30 37 bd 49 de b1 bd
       -0.018895535 -0.072485305 -0.044724394 -0.08684976
000390 46 f3 3d 3d 48 36 27 bd 6e 3f 06 be 9d 3d 84 bd
       0.04637458 -0.04082325 -0.13110134 -0.06457064
0003a0 19 d1 0f be 93 5e b1 3e e3 d3 88 3c 9c 09 b4 3d
       -0.14044608 0.34642467 0.016702598 0.08790895
0003b0 09 30 ea bd 31 f7 8e bb 44 50 37 bd 16 69 03 be
       -0.11434943 -0.0043629636 -0.04475428 -0.12833056
0003c0 c7 26 03 3d 0d 13 dc bc 84 d6 17 3e 95 b8 9a b9
       0.032019403 -0.026864553 0.14827925 -0.00029510693
0003d0 1b fb 9d bd 70 b5 99 3d 21 1d a4 3e c1 81 d3 bd
       -0.0771391 0.075053096 0.32053474 -0.10327483
0003e0 1b 6a 46 be 00 c6 09 3d 45 2d 92 bc 9e 65 34 3e
       -0.19376414 0.033636093 -0.017843852 0.17616889
0003f0 2e 92 e8 3c 76 37 5b bd dc f0 4a be dd 96 af 3d
       0.028390016 -0.05351969 -0.19818443 0.08573697

conv1.lin_neg_r.weight f4 [32, 64]
000000 02 4d 46 b4 e4 73 66 b1 64 84 00 33 e0 57 91 b2
       -1.8468202e-07 -3.3535281e-09 2.992273e-08 -1.6920183e-08
000010 1b 0d 4c b2 47 d2 b2 b1 e7 c1 97 b2 c6 17 d2 b3
       -1.1877343e-08 -5.2043876e-09 -1.766689e-08 -9.7832114e-08
000020 29 db c1 b1 2e e5 d3 31 0c e7 0d 33 30 80 dc b2
       -5.641955e-09 6.166963e-09 3.3039257e-08 -2.5669664e-08
000030 26 45 f2 33 79 df f8 b2 95 6a 4c b2 2d 55 ff b1
       1.1281581e-07 -2.8972623e-08 -1.1898597e-08 -7.43116e-09
000040 b6 97 26 33 bc f9 8a 32 d2 bc 91 33 65 4a e7 32
       3.8787867e-08 1.617888e-08 6.786435e-08 2.692577e-08
000050 eb 90 6a 32 28 ab 74 b3 b7 c9 39 b2 6f 6c c0 b1
       1.3653543e-08 -5.6966343e-08 -1.0814282e-08 -5.600263e-09
000060 76 09 ba 33 b2 3c 1f b3 2c 7f 38 33 30 ad 73 31
       8.663021e-08 -3.7075274e-08 4.29565e-08 3.54596e-09
000070 53 d8 ec b1 52 de fe b2 c6 dc 10 31 ac 92 2e 32
       -6.893097e-09 -2.9670591e-08 2.1080253e-09 1.0161482e-08
000080 fa 45 b7 32 31 c8 6d b2 d6 c1 c8 31 e8 1b d5 31
       2.1335826e-08 -1.3840734e-08 5.8428027e-09 6.2022885e-09
000090 77 15 63 33 4f 3f 33 b2 88 97 99 b1 8c 3d 82 b2
       5.287208e-08 -1.0433566e-08 -4.470113e-09 -1.516198e-08
0000a0 88 e4 b9 33 0a 2f fc 31 77 b4 97 32 13 0d 7f 32
       8.6563034e-08 7.339513e-09 1.766078e-08 1.4845926e-08
0000b0 3d f1 63 32 5a 16 c7 31 dd 8d 1c 2f a7 5b ff b1
       1.326799e-08 5.7942033e-09 1.4238517e-10 -7.4318964e-09
0000c0 d0 d6 e3 b2 3b 14 1a b2 a9 ef 88 b2 2e 25 35 b2
       -2.6523963e-08 -8.96858e-09 -1.5941469e-08 -1.054404e-08
0000d0 66 a6 92 30 3e 51 0f 31 0a 33 46 b2 ed 9f 1d b2
       1.0670191e-09 2.085542e-09 -1.1536722e-08 -9.174966e-09
0000e0 31 97 86 b1 61 f3 d8 31 ae 26 02 b2 39 f8 9d b2
       -3.9171018e-09 6.3140964e-09 -7.575791e-09 -1.8390084e-08
0000f0 64 e8 08 32 e0 f4 17 b2 f4 75 fe b1 bd 9a 8e b1
       7.969081e-09 -8.845035e-09 -7.4057827e-09 -4.1503356e-09
000100 cc ef ba 3e b8 b6 44 3e da d1 2d bc 11 26 6b be
       0.36511075 0.19210327 -0.010609115 -0.2296374
000110 46 d2 46 bd ce ba 86 bd 80 30 5b bd 36 bf ec 3d
       -0.048540376 -0.06578599 -0.05351305 0.11559908
000120 44 0f a1 be 85 d9 60 bd c5 b4 f6 bd 0f 58 02 3e
       -0.3145696 -0.054894943 -0.12046198 0.12728904
000130 14 54 0c be b8 23 7a bd 52 03 47 be 74 6d 5c 3d
       -0.13703948 -0.06106922 -0.1943486 0.05381532
000140 4b be 9e bd b4 76 b8 bd 42 f8 09 3e d9 10 e1 3c
       -0.07751139 -0.09007016 0.13473609 0.027473854
000150 10 6b 3c 3e 8f 97 e6 3c 05 d5 3c be bf 59 9f 3d
       0.18400216 0.02814844 -0.18440636 0.077807896
000160 83 9f 0b be 0e 5e 30 3e 6f 0f 29 3d 8e 53 bd 3c
       -0.13635068 0.17223379 0.041274484 0.023111131
000170 ef 86 16 bd 26 6e b5 3d 0a b6 74 3e 2d 91 65 3d
       -0.036749776 0.088589 0.23897567 0.056046654
000180 c3 0b 74 be 08 ac 22 3d 87 9c 38 3d cb 0f cb bd
       -0.23832612 0.039714843 0.04507115 -0.09915122
000190 da 14 22 3d 48 ce 42 bd 12 97 c4 3b 4a 21 0b 3d
       0.039570667 -0.047560006 0.0059994543 0.033967294
0001a0 89 92 f6 3d 48 76 b7 3e d6 87 a2 bd 9b 61 de be
       0.12039668 0.3583243 -0.07936065 -0.43433842
0001b0 d9 01 e0 bd 46 2a 4f 3e 1c ab e2 3b a7 c0 b0 3d
       -0.109378524 0.2023097 0.0069173705 0.086304955
0001c0 ad 07 de 3d 7a 77 05 3b 38 48 bd bd d3 b1 ac 3d
       0.10841308 0.0020365403 -0.0924229 0.08432355
0001d0 94 eb ed bd ec 14 37 3e 0f df 2f be 02 e6 85 3d
       -0.116171986 0.17879075 -0.17174934 0.06538011
0001e0 32 1c a6 3d b6 79 95 3c 6d fd 24 3d 65 b3 03 3e
       0.081108466 0.018246513 0.04028075 0.12861402
0001f0 c3 7a 81 bc b6 be f0 bd c3 d5 60 be 6b 4f c1 3d
       -0.015805608 -0.11755125 -0.21956544 0.09438976
000200 95 79 c7 3e 22 76 34 be f5 25 32 3e 5d 6c 86 3e
       0.38959947 -0.17623189 0.17397292 0.2625455
000210 68 d5 b8 3d b7 32 89 bd 46 14 b4 bc 3a b2 df bd
       0.09025079 -0.06699126 -0.021982323 -0.10922666
000220 2e 76 7b 3e ce 6b d4 3e d4 f8 77 bd fe e4 cc bd
       0.245568 0.41488498 -0.060540035 -0.10004614
000230 fc 96 86 3e 19 e6 d1 3d 2b 0e 88 3e c6 e5 ee bd
       0.26287067 0.10248966 0.2657331 -0.116649196
000240 43 6d 6d 3e 94 a3 b4 3e 99 12 d3 3d f4 57 61 bd
       0.23186211 0.3528105 0.103062816 -0.05501552
000250 a0 01 39 bd 91 3e f9 3d 2c 57 f2 3d 68 92 95 bd
       -0.045167565 0.12170137 0.11833033 -0.073033154
000260 d1 8f 98 bd 0d b5 c4 3c 36 bd 15 3d 20 65 35 bd
       -0.07449306 0.024012113 0.0365574 -0.044285893
000270 63 a3 d6 3b 08 f7 fa ba c5 f5 cc 3b f5 3a 23 bd
       0.006550239 -0.0019147107 0.006254884 -0.039851148
000280 9b 73 8b 3e 13 3b 86 bc 63 67 de bd 08 d1 5d be
       0.27236637 -0.01638559 -0.10859563 -0.2166177
000290 87 da 0a 3e 35 cf fe bc 72 4b 97 3e b9 15 08 bd
       0.13559924 -0.031104663 0.29549748 -0.03322384
0002a0 aa 4a bd 3d e2 84 3b bd 91 56 53 bd 9a 3f 9f bd
       0.09242757 -0.045781024 -0.051596228 -0.07775803
0002b0 6c e7 93 bd 75 ac bf bd 00 14 0c be a2 b6 03 3d
       -0.072218746 -0.093590654 -0.13679504 0.032156594
0002c0 2a 73 6c 3e 5b 27 00 bd 3e 91 12 bd 8b a5 c7 bb
       0.23090807 -0.031287532 -0.035783045 -0.0060927323
0002d0 c3 74 e3 bc 74 96 7f be 46 66 da bc 10 9a 61 3d
       -0.027765637 -0.24959737 -0.026660096 0.055078566
0002e0 73 16 94 be b9 fc f2 bc cc 8e ef bd f6 96 73 3e
       -0.28923377 -0.029661523 -0.11697158 0.23788056
0002f0 a2 e3 82 bd 62 c8 ea 3d a0 ca a9 bd 60 0a f8 bd
       -0.06391074 0.11464001 -0.08290601 -0.12111354
000300 3e f9 f2 be ad 78 f1 3c 5e 88 97 bd 04 da df bd
       -0.47455782 0.029476488 -0.07399057 -0.10930255
000310 94 35 84 3c 25 b4 01 be a5 da 88 3b 0e d2 f7 3d
       0.01613883 -0.12666376 0.004176455 0.121006116
000320 bb d4 7a bc 95 a9 03 bd 0d cd 61 bd 53 61 fa bd
       -0.015309508 -0.032144148 -0.055127192 -0.12225594
000330 78 e1 5d be 62 f8 d7 bc 77 68 9b 3d f0 6d 96 bb
       -0.21668041 -0.026363555 0.075882845 -0.0045907423
000340 7c 26 41 3d 29 0e 15 3e bf 11 b3 3a 18 b0 d5 bb
       0.047155842 0.14556183 0.0013661905 -0.006521236
000350 9b 97 14 3e f2 85 1a 3e d9 40 4a be e8 eb bd 3c
       0.14510958 0.15090159 -0.197513 0.023183778
000360 1b 5a e8 3c f0 c1 d1 3d 3f f1 fa 3c 02 a2 96 3d
       0.028363278 0.10242069 0.030632613 0.07355119
000370 4a 0b c9 bd 6c 5a 0e 3c 05 24 e9 bc b6 18 ba bd
       -0.09816606 0.00868855 -0.028459558 -0.090867445
000380 bf a4 4d 3c ca ab c9 3c 3c c2 95 3d df 45 5c 3d
       0.012551486 0.024618048 0.07312438 0.05377757
000390 11 86 b8 bc 02 e7 95 bc 81 be 90 3e 7b f4 0f bc
       -0.022524865 -0.01829863 0.28270343 -0.008786316
0003a0 34 4c 19 3b 71 bf 86 bd dc 02 97 3b c7 91 a3 bd
       0.0023391368 -0.06579483 0.004608495 -0.07986789
0003b0 f0 90 80 bd 98 10 00 3e 7e c8 d4 3d f6 2e 4e bd
       -0.06277645 0.1250633 0.10389803 -0.050337754
0003c0 46 6d b1 bd ad b3 bf 3d da dd 35 be 61 30 cf 3c
       -0.086634204 0.09360442 -0.17760411 0.025291624
0003d0 29 4d 96 bd bc 6a 02 3e a8 3a 1c be 21 96 b1 3d
       -0.07338936 0.12736028 -0.1525675 0.08671213
0003e0 0e 54 9f 3d ee cc c5 3c ed 4c 93 bd d9 82 29 be
       0.07779704 0.02414557 -0.07192407 -0.1655382
0003f0 ed 6e 9f bd 67 e4 80 bb 06 2e 8b 3d 7d 74 8e 3d
       -0.07784829 -0.0039334777 0.06795888 0.06955812

conv1.lin_neg_r.bias f4 [32]
000000 0b 01 6b bd 45 dc 51 3d b3 e7 ad 3d 5b 36 dd 3d
       -0.05737404 0.051235456 0.08491459 0.10801383
000010 9e 34 28 3b 7a 82 a3 3c c3 12 43 3a 0e 26 05 3d
       0.0025666128 0.019959677 0.00074414554 0.032506995
000020 88 93 89 3a 92 f7 18 3d b3 b5 0a be 3e f4 9f 3d
       0.0010496238 0.037345476 -0.13545875 0.078102574
000030 f5 0f 51 bd cf 0e d9 bb e0 94 01 3c 52 4b a8 b9
       -0.05104061 -0.00662408 0.00790903 -0.00032099575
000040 63 ce 61 bc 1a 45 dd bb 27 a0 84 b9 f8 cb de 3d
       -0.013782117 -0.0067526223 -0.00025296325 0.10878748
000050 b1 82 e1 ba 2e 5f 39 bd c4 69 49 3d e9 4b 4e 3a
       -0.0017205087 -0.045256786 0.04917313 0.0007869588
000060 c6 d3 9e bd 52 aa 46 bd e0 d6 14 3e 2e 8e 5d 3c
       -0.07755236 -0.048502274 0.14535093 0.013522668
000070 8d 14 c8 39 8c 9c 45 bc 57 57 85 3d 28 12 8b 3d
       0.00038162284 -0.012061249 0.065107994 0.067905724

convs.0.lin_pos_l.weight f4 [32, 64]
000000 18 65 45 be 81 4b 4e 3e 7d f8 31 32 0c 29 16 33
       -0.19276845 0.2014599 1.0359256e-08 3.496193e-08
000010 fb 31 ad ba 84 7b 81 be 8e bf 98 3e ac 2e 01 b3
       -0.0013213748 -0.25289547 0.29833645 -3.00776e-08
000020 08 af 03 3f 29 4f 45 3d da 60 d6 bd 9e 2c 58 3c
       0.5143895 0.048171196 -0.10467692 0.013194231
000030 22 74 0a 3c 15 c9 c3 3e 5d a7 07 bd e9 c6 b4 3d
       0.00845054 0.3823935 -0.033118594 0.088270016
000040 aa 66 b0 bc d1 51 c8 b2 9d d9 34 bd 5c a6 dc ba
       -0.021533329 -2.332027e-08 -0.044152845 -0.0016834247
000050 ec e1 37 3e 56 1c 4a 3e 2a 32 29 32 33 0c 94 3e
       0.17957276 0.19737372 9.848501e-09 0.28915557
000060 89 04 2e b5 c8 e7 0f b2 b5 87 d1 b5 bf 87 f0 3d
       -6.482665e-07 -8.3763965e-09 -1.5611209e-06 0.117446415
000070 d8 e0 10 bf 12 08 af bb 0f 8e 59 be 49 1a 6b b4
       -0.56593084 -0.005341538 -0.21245597 -2.1895643e-07
000080 e8 ff 0e b2 79 59 86 3e 1e 34 ef 3d a5 1a 7c 3c
       -8.323674e-09 0.26240137 0.116798624 0.015387212
000090 61 84 bf be 0a c1 c4 bd ab 70 52 3c 03 65 f5 bd
       -0.37405685 -0.09607132 0.012844245 -0.11982157
0000a0 30 0d 62 be 83 ba 24 bc a2 6d 57 bb 56 05 63 3d
       -0.22075343 -0.0100542335 -0.0032871743 0.05542501
0000b0 28 4e 9e 32 51 7f 9c b7 54 6d 06 be 87 82 b0 32
       1.8429162e-08 -1.8655935e-05 -0.13127643 2.0548454e-08
0000c0 d5 83 7d 32 c7 02 1a b3 04 15 17 3d 4c 97 d5 3e
       1.4756513e-08 -3.5858445e-08 0.036885276 0.41716993
0000d0 3b 43 17 b9 fb e2 83 b0 70 e7 01 3e a3 f3 1d 3e
       -0.00014425527 -9.596016e-10 0.12685943 0.15424971
0000e0 e6 e2 fc bb 9f ba 76 b3 bc 15 92 bc 42 c0 f5 bd
       -0.007717478 -5.744607e-08 -0.01783263 -0.11999561
0000f0 8b b0 c0 3d 2a 53 8d b2 5f 79 44 3d 08 1d da 3e
       0.09408673 -1.6452379e-08 0.04796731 0.42600274
000100 d4 79 37 3d 5c 61 92 be fc 2b df b0 55 f9 ba b1
       0.04479392 -0.28589904 -1.6237887e-09 -5.4416582e-09
000110 89 b9 62 3a da 13 44 bd 73 68 0c be 80 b5 db 31
       0.0008648863 -0.047870494 -0.13711719 6.394373e-09
000120 85 66 ab bd 4a 29 51 3e 4e 05 2b bc 3c 12 6d bc
       -0.083691634 0.20425907 -0.010438276 -0.014469679
000130 48 bf 48 3e bc ec 85 bd f4 90 91 3e 7e a5 94 3d
       0.19604218 -0.06539294 0.28430903 0.07258128
000140 b4 4c 7b bd 27 7c 9d 32 20 14 20 3e 6d de 04 3b
       -0.061352447 1.8333663e-08 0.15632677 0.0020274178
000150 9e cf a0 be 57 58 8c 3e 39 28 78 b2 ed 74 a9 be
       -0.314084 0.27411148 -1.44446455e-08 -0.3309702
000160 ed c4 99 35 8e e6 c9 31 d6 77 80 35 bc 56 ca 3e
       1.1456701e-06 5.876081e-09 9.57162e-07 0.39519298
000170 e3 1e 87 3b b8 3f d1 bc ab aa 93 3e 65 27 9f 32
       0.004123555 -0.025543079 0.28841147 1.852795e-08
000180 af 08 f5 ae 4d 74 44 3e df 82 b2 3d 19 33 9a 3e
       -1.11428526e-10 0.1918499 0.08716368 0.3011711
000190 bc 20 c0 be 5c d9 47 be c4 43 0c 3f ef ae d1 be
       -0.37524974 -0.1951651 0.547909 -0.40953776
0001a0 e8 9f 4c 3e 02 d6 a1 bd ba e3 a4 ba cb 8d 36 be
       0.19982874 -0.07902147 -0.0012580075 -0.17827527
0001b0 ed cf 91 b2 7f b0 17 b8 24 b7 f2 be 10 e0 f9 32
       -1.6974775e-08 -3.616558e-05 -0.4740535 2.9089307e-08
0001c0 a8 03 25 32 18 e0 a3 b1 48 be a3 bd 54 7f e5 3e
       9.605095e-09 -4.769401e-09 -0.07995278 0.44823706
0001d0 55 d3 23 b9 b3 97 24 32 4b 82 85 3e 8c db cf bc
       -0.00015623619 9.580549e-09 0.26075968 -0.025373243
0001e0 a0 56 11 bc aa 7b dd 32 93 44 15 be 09 8d 89 bd
       -0.008870751 2.5784022e-08 -0.1457694 -0.067163534
0001f0 17 06 f7 bc 3e 52 18 32 6d e3 a6 3e 19 89 5b 3e
       -0.030154271 8.866264e-09 0.32595387 0.21439017
000200 3d 6b 98 b1 e5 c2 a1 31 5f a7 21 b1 a9 e5 89 30
       -4.435974e-09 4.7078736e-09 -2.3523723e-09 1.0033335e-09
000210 13 db fb b1 91 09 0c b2 24 aa d8 31 70 b6 08 31
       -7.3299673e-09 -8.151248e-09 6.30577e-09 1.9894308e-09
000220 ca 15 96 b1 d7 77 84 b2 1e 9b 08 b2 19 67 2d 32
       -4.3680517e-09 -1.542132e-08 -7.9515114e-09 1.0093367e-08
000230 1e 5e 80 30 6d 1a 83 32 fd 39 96 32 3d a5 43 b2
       9.339975e-10 1.5262424e-08 1.7488668e-08 -1.1388065e-08
000240 27 bd dc 31 f3 e7 10 b2 62 97 15 32 d6 97 1d b2
       6.424347e-09 -8.434642e-09 8.707362e-09 -9.173126e-09
000250 52 33 5c b2 23 90 e3 32 67 ea e8 b1 83 65 04 31
       -1.2817354e-08 2.6491824e-08 -6.778737e-09 1.926623e-09
000260 8a 84 15 b2 46 27 6f b1 d0 de bd af 05 56 23 32
       -8.703077e-09 -3.4801402e-09 -3.4537218e-10 9.507407e-09
000270 bc 65 86 b2 a7 77 23 31 ba 8d fa 32 f0 9f 13 b2
       -1.5645917e-08 2.3787636e-09 2.916828e-08 -8.592892e-09
000280 17 e9 bb 30 b1 7e f2 b1 e9 f4 a3 b2 19 ce 36 b2
       1.3672289e-09 -7.05753e-09 -1.908707e-08 -1.06406555e-08
000290 e8 8c 0e 32 0d a0 22 b1 31 76 fa b1 01 29 4b 32
       8.297526e-09 -2.366508e-09 -7.2893944e-09 1.1825478e-08
0002a0 03 aa 52 b2 79 80 31 33 8c 11 9f 31 4c b5 48 b1
       -1.2262265e-08 4.132787e-08 4.629504e-09 -2.9206886e-09
0002b0 f4 11 cf 31 59 ea d6 2f 92 61 b9 32 2d b9 b6 2f
       6.026534e-09 3.9092887e-10 2.1581204e-08 3.3237182e-10
0002c0 33 19 aa 31 7e b2 13 b0 27 96 64 b1 a7 96 b4 32
       4.950516e-09 -5.373194e-10 -3.3263718e-09 2.1023267e-08
0002d0 c6 45 bf b1 26 97 e1 b1 ee 1c ea 30 32 87 33 32
       -5.566764e-09 -6.5655454e-09 1.7033963e-09 1.0449911e-08
0002e0 a3 bb 58 b1 db 0e a1 31 b7 cd 2d b2 e8 62 4e 32
       -3.1538796e-09 4.6874056e-09 -1.01166995e-08 1.2013267e-08
0002f0 5d 90 c3 32 28 1a cd b1 d1 23 f4 b1 2b 31 e1 31
       2.2766637e-08 -5.969259e-09 -7.1054065e-09 6.5539516e-09
000300 33 23 0f 35 b2 7a 4a 35 82 01 e7 30 78 f5 1a 32
       5.3322873e-07 7.542941e-07 1.6807891e-09 9.019793e-09
000310 30 5a 11 32 69 28 5c b5 5d b9 79 b4 3b 4d 12 32
       8.460617e-09 -8.201519e-07 -2.3257367e-07 8.515879e-09
000320 6e 5c e9 b4 66 e2 06 b5 d5 0f b8 b0 6e e6 b5 b4
       -4.3466883e-07 -5.0248343e-07 -1.3392262e-09 -3.3881537e-07
000330 2e fe 74 b4 c5 1d 88 b5 8f f4 eb 35 1b 29 8e 33
       -2.2816741e-07 -1.0141454e-06 1.758004e-06 6.619867e-08
000340 bf 91 7d b4 8d 5f 28 b1 2c e0 b8 b5 a0 69 30 32
       -2.3615483e-07 -2.4501532e-09 -1.3774311e-06 1.0268565e-08
000350 f7 b8 ce b4 90 6e 0a b5 31 7a 08 b2 8a 11 08 b6
       -3.850507e-07 -5.1569896e-07 -7.944025e-09 -2.0275788e-06
000360 d0 b5 19 32 7e 09 0c b1 78 51 bd 30 09 d7 f0 b4
       8.9471115e-09 -2.0378077e-09 1.3774715e-09 -4.4859942e-07
000370 45 31 e6 b4 8f 09 8d 33 17 8b 04 b5 8e d1 2a b0
       -4.2876687e-07 6.567563e-08 -4.9376234e-07 -6.2143435e-10
000380 cb 34 95 b2 98 09 04 b6 25 9e 2a b5 6e 25 b3 b5
       -1.736989e-08 -1.9675117e-06 -6.3560066e-07 -1.3347433e-06
000390 2d 95 c6 b5 90 c1 c1 b3 da e6 c9 b5 4b b1 ae b4
       -1.4795565e-06 -9.022472e-08 -1.5042854e-06 -3.2539023e-07
0003a0 05 87 64 35 17 85 d7 b4 48 87 a8 31 bf 04 fd b4
       8.51331e-07 -4.0143706e-07 4.904823e-09 -4.7128376e-07
0003b0 71 40 a9 b0 6f 98 5e b2 51 2c 00 b6 1b c2 d3 31
       -1.2314684e-09 -1.295676e-08 -1.9099282e-06 6.1629755e-09
0003c0 1c 7d bd 31 57 ff 4f 31 d3 9d de 32 15 bd c4 33
       5.5148472e-09 3.0267608e-09 2.5915972e-08 9.161355e-08
0003d0 6b 99 64 ae e7 e7 84 b0 78 3c 18 b5 5e 9d 44 34
       -5.197746e-11 -9.670175e-10 -5.6712406e-07 1.8311172e-07
0003e0 c6 84 52 b1 4e 7c f8 30 21 65 9b 32 06 9b d0 b5
       -3.0634495e-09 1.8079704e-09 1.8090363e-08 -1.5542325e-06
0003f0 13 e0 32 b5 fd 91 5a 32 73 77 39 35 44 11 7b b4
       -6.663624e-07 1.2722464e-08 6.909169e-07 -2.3382478e-07

convs.0.lin_pos_r.weight f4 [32, 32]
000000 d0 a6 e2 bd 4e 24 3d be 95 08 1b 32 78 f5 10 b3
       -0.11066973 -0.1847088 9.024139e-09 -3.3750865e-08
000010 09 4f a1 ba fd 81 db 3d f9 c5 61 3d 35 ff 1b b3
       -0.001230688 0.10718153 0.055120442 -3.632086e-08
000020 4e d4 bc 3d 7d 47 8b be 32 96 5c bf 20 e8 b5 bb
       0.092201814 -0.2720298 -0.8616668 -0.005551353
000030 55 59 ee be 08 c9 27 be e6 02 2c bd ba 3a 10 bf
       -0.4655253 -0.16385281 -0.04199495 -0.5633961
000040 62 02 21 bc 28 9f 2d 39 75 51 23 3e 9b 79 81 ba
       -0.009827228 0.00016557856 0.15949042 -0.000987816
000050 87 61 97 3e 2d ee f6 3d da c2 6a b1 bc e1 ea 3e
       0.29566595 0.12057147 -3.4162242e-09 0.45875347
000060 2f 2a 8b b4 c2 0c 52 32 5b 7a 3e b5 86 37 83 bd
       -2.592146e-07 1.222651e-08 -7.0958566e-07 -0.06407075
000070 5a dc d8 be bf 96 a4 bb 00 cf 57 bf 83 9a e7 32
       -0.42355615 -0.005022853 -0.8430023 2.6962203e-08
000080 c9 b5 f1 3d 40 53 07 bf 67 ea 13 b3 3f 7e 3c 32
       0.11802251 -0.52861404 -3.4439292e-08 1.0971745e-08
000090 26 40 af 38 db ec 95 3e 6e 00 af be 82 08 4e 32
       8.356599e-05 0.2928227 -0.34180015 1.1992713e-08
0000a0 85 b6 d0 bd 1d 96 5e 3d 4f 73 9f be 33 8d f6 bb
       -0.10191063 0.054342378 -0.3114266 -0.0075241565
0000b0 48 18 0e 3d 5d 99 bf be 9d f0 25 3f ba 13 b0 be
       0.034691125 -0.37421694 0.6482027 -0.3439005
0000c0 47 5a 98 3d 9a b9 4b b4 f8 7a 83 3e 72 51 81 ba
       0.07439094 -1.897337e-07 0.25679755 -0.0009866192
0000d0 84 bc ca be fe cd 11 3e da 01 88 32 41 35 3c be
       -0.3959695 0.14238736 1.5833326e-08 -0.1837969
0000e0 d7 8f fd b3 f5 24 69 32 4e fc c0 35 8d 14 8e 3e
       -1.1807395e-07 1.3570788e-08 1.4378545e-06 0.27750054
0000f0 79 c4 c6 be 3c c8 a1 bc 92 f4 88 3e 24 61 a2 b1
       -0.38821772 -0.0197488 0.26749092 -4.725864e-09
000100 c1 c4 12 b1 4a 85 d6 b2 30 61 de 32 9b fe 80 32
       -2.1357638e-09 -2.4973492e-08 2.5888397e-08 1.5016942e-08
000110 73 56 de 31 ac f3 c9 31 55 49 7f b0 9c 49 4d b0
       6.4708785e-09 5.877572e-09 -9.287267e-10 -7.468317e-10
000120 e9 49 fc 32 7e 56 47 32 e4 27 20 b2 41 bb 09 b3
       2.9370272e-08 1.1602991e-08 -9.322296e-09 -3.2068105e-08
000130 28 bd 63 31 8b ce 17 32 d2 3d 01 b2 7a f1 87 31
       3.314037e-09 8.836319e-09 -7.522845e-09 3.95647e-09
000140 35 ce 43 b2 77 ea db b1 13 0b 29 32 e0 5f 41 b2
       -1.139738e-08 -6.4003944e-09 9.839613e-09 -1.1255878e-08
000150 b7 92 ab 32 66 6d 8f b2 6b 6a 84 32 67 68 e2 b1
       1.9973738e-08 -1.669714e-08 1.5415216e-08 -6.589335e-09
000160 ef 76 03 b1 f6 21 a8 b2 69 58 26 31 9c 7b a4 b2
       -1.9130615e-09 -1.9573218e-08 2.4206435e-09 -1.9148324e-08
000170 12 e4 5f 30 6b b6 cf 32 01 66 43 b2 e1 20 88 b1
       8.1451035e-10 2.4180926e-08 -1.1373687e-08 -3.961859e-09
000180 06 27 d8 b1 c9 a9 06 b6 fd fc b6 af 26 b0 c2 b2
       -6.290864e-09 -2.0066384e-06 -3.3285366e-10 -2.2664675e-08
000190 8a 3d 71 32 89 09 0e b6 f4 09 a4 b5 d8 b4 09 b1
       1.4042039e-08 -2.11652e-06 -1.2221849e-06 -2.0038922e-09
0001a0 c5 1d 9b b4 da aa 64 b4 bc 8b 73 35 21 7e 4e b4
       -2.889266e-07 -2.129631e-07 9.0727895e-07 -1.923113e-07
0001b0 6c be ab b3 2b 85 12 b5 df f2 92 b4 8f b8 96 b4
       -7.9974456e-08 -5.4583023e-07 -2.737133e-07 -2.807396e-07
0001c0 b7 8f 2c b5 c2 8c 36 b2 f7 8c 73 b5 7b 65 83 b2
       -6.4284126e-07 -1.0625799e-08 -9.0729685e-07 -1.5296555e-08
0001d0 9d 14 1c b4 47 0d 51 34 3a 70 e5 af 20 ab 8f b5
       -1.4536131e-07 1.9469472e-07 -4.17346e-10 -1.0704134e-06
0001e0 9c 8e 93 b1 d0 71 34 b1 a8 eb da ae 31 06 dd b5
       -4.294476e-09 -2.6258142e-09 -9.955353e-11 -1.6467585e-06
0001f0 85 86 f7 33 a0 5a 75 b5 aa 84 14 b5 73 7e 8d 32
       1.1526303e-07 -9.140149e-07 -5.532735e-07 1.6472063e-08
000200 6d fa 88 b3 9b 01 70 b6 2c f6 18 32 0b d0 0b b0
       -6.378546e-08 -3.5763721e-06 8.9035375e-09 -5.086355e-10
000210 10 e9 63 32 4c 61 d0 b5 fb 51 dc 36 cc f0 4f 30
       1.3266131e-08 -1.5525525e-06 6.5660547e-06 7.5648354e-10
000220 e3 60 a3 36 8f 22 3b b6 5c 39 01 36 c9 34 b3 b3
       4.8690576e-06 -2.7885287e-06 1.9255885e-06 -8.3449386e-08
000230 cf 92 85 36 be 95 59 35 36 43 ee b6 8b a6 a4 37
       3.9807996e-06 8.1056703e-07 -7.100777e-06 1.9627876e-05
000240 3a 96 48 35 49 8d 87 30 1b 4d 7d b7 c6 bc ca 30
       7.4724414e-07 9.862698e-10 -1.5097928e-05 1.4751087e-09
000250 1d e8 9f b5 4b d8 6c 36 ce 04 68 31 2c 54 c0 b6
       -1.1913977e-06 3.529264e-06 3.3763174e-09 -5.731845e-06
000260 f1 af 81 b2 e2 57 82 32 b9 d8 f3 31 62 b7 72 b7
       -1.5097585e-08 1.5173956e-08 7.0968693e-09 -1.4467021e-05
000270 79 11 ab 36 10 e2 ac 35 ca 11 b4 b6 f1 4d be b0
       5.098231e-06 1.2880791e-06 -5.366489e-06 -1.3846472e-09
000280 4f 15 4e 3e cb 05 4d be d6 1b 7a 31 b1 3b e0 b2
       0.20125316 -0.20021741 3.639561e-09 -2.6104177e-08
000290 b4 c9 62 39 80 52 15 3e 7b 5c 65 be 28 99 2e b1
       0.0002162818 0.14582253 -0.2239856 -2.5407392e-09
0002a0 b0 46 c5 3e 8e e2 2d 3e e8 69 5b bd 87 fd 62 3d
       0.38530493 0.16980955 -0.053567797 0.055417564
0002b0 ce bb 47 be e1 c8 39 bf e8 f1 68 bd 41 eb bd bd
       -0.19505236 -0.7257214 -0.056871325 -0.09273387
0002c0 40 9b ce 3c 6f 27 08 33 28 af 91 3d 07 75 ef ba
       0.025220513 3.1700832e-08 0.071134865 -0.001826913
0002d0 b0 de ac bd 21 7d e4 be 9f 22 73 b2 b8 3e 12 bd
       -0.08440912 -0.44626716 -1.41523335e-08 -0.035704345
0002e0 80 cf 92 32 15 a1 d1 b2 cb 6a fa 34 63 c7 49 3e
       1.7090997e-08 -2.4404054e-08 4.664383e-07 0.19704966
0002f0 5c cd 37 be 01 5e 14 3e d4 4f 11 3d e4 9f d4 31
       -0.17949432 0.14488985 0.03547652 6.1881895e-09
000300 a0 3c 03 b2 e0 51 0a b3 ed dc 92 2f 86 10 87 30
       -7.638988e-09 -3.2205094e-08 2.6714223e-10 9.827239e-10
000310 f0 f4 aa b1 36 c5 85 2f 18 7b ef 32 07 44 b2 30
       -4.9754973e-09 2.4332686e-10 2.7879238e-08 1.2970539e-09
000320 80 5a 84 b1 05 6f 62 b2 57 24 46 32 60 1b 06 32
       -3.8519943e-09 -1.3180174e-08 1.153338e-08 7.806051e-09
000330 9a e5 e6 30 88 6c ba b0 4b 1d 57 b0 22 b8 1f 32
       1.6799959e-09 -1.3564128e-09 -7.825817e-10 9.296885e-09
000340 15 12 cc af 44 fc bd b1 f7 03 1b b2 48 86 b2 30
       -3.7120232e-10 -5.5293032e-09 -9.023089e-09 1.298937e-09
000350 84 28 05 33 c1 14 a1 2e f9 e0 21 b2 84 3c e3 b2
       3.1003324e-08 7.325119e-11 -9.422586e-09 -2.6453797e-08
000360 6b 7a 76 32 79 b6 34 b2 84 5f 06 31 03 56 63 31
       1.4346919e-08 -1.0518868e-08 1.955386e-09 3.308174e-09
000370 49 ce 44 31 df 78 bd b2 d4 46 2c b2 d6 e8 3b 32
       2.8639013e-09 -2.2057462e-08 -1.0027822e-08 1.0937773e-08
000380 4d 4f ad 32 f7 d6 3a 33 a2 2a 9a b1 05 cf a9 31
       2.0175912e-08 4.350201e-08 -4.4868367e-09 4.9420827e-09
000390 91 eb 9c b2 36 53 37 b1 f6 7d ad b1 c9 56 9f 32
       -1.8267913e-08 -2.6677305e-09 -5.0492828e-09 1.8549501e-08
0003a0 0a f1 8c b3 47 e3 3c b3 12 4b 24 b2 96 6d 8e b2
       -6.563103e-08 -4.397887e-08 -9.563125e-09 -1.658081e-08
0003b0 d6 0b 9d af bd f3 59 b2 f4 06 40 b2 af 7f 6d b2
       -2.8566544e-10 -1.2686482e-08 -1.1177452e-08 -1.38242475e-08
0003c0 8b b3 95 b2 17 73 15 32 e2 03 ad 30 d7 1b e7 31
       -1.742753e-08 8.69911e-09 1.258851e-09 6.72615e-09
0003d0 55 d4 ca 32 b0 f0 87 b3 94 6a 2c 32 68 6d 18 33
       2.3612452e-08 -6.330208e-08 1.0035951e-08 3.5489762e-08
0003e0 ec a4 88 30 ed 5f 2a b2 79 8f 97 32 03 d5 bf b3
       9.942176e-10 -9.917113e-09 1.7643957e-08 -8.932877e-08
0003f0 2f c6 0f 32 5b f0 43 33 55 27 c9 32 5a 26 70 31
       8.368757e-09 4.5620578e-08 2.3417366e-08 3.4946397e-09

convs.0.lin_pos_r.bias f4 [32]
000000 eb 9f 79 3d e6 57 13 3e 8d 35 4e b9 49 f1 99 b5
       0.060943525 0.14389 -0.0001966564 -1.1469612e-06
000010 92 cc 77 b7 f6 f6 3b 3e eb e6 1f b2 d9 2d 88 b4
       -1.47699775e-05 0.18355927 -9.307523e-09 -2.5365333e-07
000020 d3 29 a9 bc c6 e6 d4 b7 16 b7 31 bd 0d e1 c2 b3
       -0.020649826 -2.5379832e-05 -0.043387495 -9.0747655e-08
000030 bc ff 0e bb 53 d7 5f bc 3c 42 0c bd dd e0 59 bd
       -0.002181991 -0.013662177 -0.034242854 -0.053192962
000040 a3 bb 54 b8 24 99 14 bb 42 94 38 bd ec 5b a7 bc
       -5.071949e-05 -0.0022674287 -0.045063265 -0.020429574
000050 af cf 90 bd 44 57 59 b6 21 7e 1c b8 bb 91 65 bc
       -0.070708625 -3.2386315e-06 -3.7310765e-05 -0.014011796
000060 62 54 ba bc 29 e8 a3 b5 a4 f8 8d bc b3 12 35 b4
       -0.022745315 -1.2212014e-06 -0.017330475 -1.6863741e-07
000070 67 79 eb b8 69 8c 31 bd f8 8e 78 b7 35 f9 07 3e
       -0.00011228286 -0.043346796 -1.4815239e-05 0.13278659
